outputs/2025-03-23/17-27-30/outputs/model_epoch_0.pt (torch, 377210 bytes, 140 tensors)

naim.embeddings.0.embeddings.weight f4 [2, 6]
0.3751642 -0.5804145 -0.3328065 0.32242846 0.45133293 0.28572223 0.0 0.0
0.0 0.0 0.0 0.0
00000000: 8615 c03e 0b96 14bf 9d65 aabe 5815 a53e
00000010: 1c15 e73e 2f4a 923e 0000 0000 0000 0000
00000020: 0000 0000 0000 0000 0000 0000 0000 0000

naim.embeddings.1.embeddings.weight f4 [2, 6]
0.056473654 -0.08365087 -0.15174744 0.39976868 0.1886344 -0.079760864 0.0 0.0
0.0 0.0 0.0 0.0
00000000: eb50 673d 2651 abbd ae63 1bbe 7bae cc3e
00000010: 6029 413e aa59 a3bd 0000 0000 0000 0000
00000020: 0000 0000 0000 0000 0000 0000 0000 0000

naim.embeddings.2.embeddings.weight f4 [2, 6]
0.65260077 0.03996565 -0.018361814 0.566655 -0.25839376 0.34152082 0.0 0.0
0.0 0.0 0.0 0.0
00000000: d810 273f 05b3 233d 846b 96bc 4d10 113f
00000010: 304c 84be d1db ae3e 0000 0000 0000 0000
00000020: 0000 0000 0000 0000 0000 0000 0000 0000

naim.embeddings.3.embeddings.weight f4 [2, 6]
0.6525883 -0.528804 0.056823183 0.48537675 0.1438277 0.0057057864 0.0 0.0
0.0 0.0 0.0 0.0
00000000: 0710 273f b35f 07bf 6dbf 683d 4d83 f83e
00000010: 9247 133e 9bf7 ba3b 0000 0000 0000 0000
00000020: 0000 0000 0000 0000 0000 0000 0000 0000

naim.embeddings.4.embeddings.weight f4 [2, 6]
-0.5148312 -0.2869978 -0.21134555 0.14179951 0.10280881 0.007948776 0.0 0.0
0.0 0.0 0.0 0.0
00000000: facb 03bf 60f1 92be f86a 58be e433 113e
00000010: 6d8d d23d 953b 023c 0000 0000 0000 0000
00000020: 0000 0000 0000 0000 0000 0000 0000 0000

naim.embeddings.5.embeddings.weight f4 [2, 6]
-0.34297165 0.038759433 0.6422596 0.3541488 -0.56981945 0.05497527 0.0 0.0
0.0 0.0 0.0 0.0
00000000: fb99 afbe 36c2 1e3d 206b 243f fe52 b53e
00000010: b0df 11bf c02d 613d 0000 0000 0000 0000
00000020: 0000 0000 0000 0000 0000 0000 0000 0000

naim.embeddings.6.embeddings.weight f4 [2, 6]
-0.52463573 -0.10799991 -0.12530242 -0.26663595 0.14331767 0.7612119 0.0 0.0
0.0 0.0 0.0 0.0
00000000: 874e 06bf 0f2f ddbd 474f 00be 8284 88be
00000010: dec1 123e c8de 423f 0000 0000 0000 0000
00000020: 0000 0000 0000 0000 0000 0000 0000 0000

naim.embeddings.7.embeddings.weight f4 [2, 6]
-0.39196602 -0.005366325 0.095566586 -0.6930894 -0.057506632 0.5738067 0.0 0.0
0.0 0.0 0.0 0.0
00000000: c5af c8be ffd7 afbb 6ab8 c33d 4f6e 31bf
00000010: 138c 6bbd ffe4 123f 0000 0000 0000 0000
00000020: 0000 0000 0000 0000 0000 0000 0000 0000

naim.embeddings.8.embeddings.weight f4 [2, 6]
0.64526033 -0.14103428 0.26734877 -0.61748284 -0.20325936 0.22807196 0.0 0.0
0.0 0.0 0.0 0.0
00000000: c82f 253f 4a6b 10be f0e1 883e 5b13 1ebf
00000010: 3923 50be b28b 693e 0000 0000 0000 0000
00000020: 0000 0000 0000 0000 0000 0000 0000 0000

naim.embeddings.9.embeddings.weight f4 [2, 6]
0.4468257 -0.27883625 0.06627001 -0.40221748 -0.6036537 -0.0022877676 0.0 0.0
0.0 0.0 0.0 0.0
00000000: 57c6 e43e a0c3 8ebe 92b8 873d 73ef cdbe
00000010: 0d89 1abf 5fee 15bb 0000 0000 0000 0000
00000020: 0000 0000 0000 0000 0000 0000 0000 0000

naim.embeddings.10.embeddings.weight f4 [2, 6]
0.0961956 0.102103345 0.25742903 0.25056744 0.009323833 0.45127037 0.0 0.0
0.0 0.0 0.0 0.0
00000000: 3302 c53d 8f1b d13d bdcd 833e 604a 803e
00000010: fdc2 183c e90c e73e 0000 0000 0000 0000
00000020: 0000 0000 0000 0000 0000 0000 0000 0000

naim.embeddings.11.embeddings.weight f4 [2, 6]
0.17146653 -0.11862635 -0.48572388 -0.517096 -0.028595062 -0.28530845 0.0 0.0
0.0 0.0 0.0 0.0
00000000: ec94 2f3e 5ff2 f2bd cdb0 f8be 6760 04bf
00000010: 3140 eabc f313 92be 0000 0000 0000 0000
00000020: 0000 0000 0000 0000 0000 0000 0000 0000

naim.embeddings.12.embeddings.weight f4 [2, 6]
0.16195776 -0.24042131 0.07944327 0.43633497 0.49295157 0.1176416 0.0 0.0
0.0 0.0 0.0 0.0
00000000: 41d8 253e 0131 76be 27b3 a23d 4c67 df3e
00000010: 2664 fc3e 14ee f03d 0000 0000 0000 0000
00000020: 0000 0000 0000 0000 0000 0000 0000 0000

naim.embeddings.13.embeddings.weight f4 [2, 6]
-0.25335068 -0.10635385 -0.30301195 0.660809 -0.20293105 0.31778014 0.0 0.0
0.0 0.0 0.0 0.0
00000000: 2eb7 81be 0cd0 d9bd 6224 9bbe c72a 293f
00000010: 28cd 4fbe 14b4 a23e 0000 0000 0000 0000
00000020: 0000 0000 0000 0000 0000 0000 0000 0000

naim.embeddings.14.embeddings.weight f4 [2, 6]
0.19036776 0.66817147 -0.15162557 0.07654445 0.61774826 0.013053162 0.0 0.0
0.0 0.0 0.0 0.0
00000000: c4ef 423e 490d 2b3f bc43 1bbe 56c3 9c3d
00000010: c024 1e3f eedc 553c 0000 0000 0000 0000
00000020: 0000 0000 0000 0000 0000 0000 0000 0000

naim.embeddings.15.embeddings.weight f4 [2, 6]
-0.627867 0.34754518 0.082260914 -0.2968747 -0.1938228 0.5532373 0.0 0.0
0.0 0.0 0.0 0.0
00000000: e4bb 20bf 71f1 b13e 6978 a83d f6ff 97be
00000010: 7c79 46be f6a0 0d3f 0000 0000 0000 0000
00000020: 0000 0000 0000 0000 0000 0000 0000 0000

naim.embeddings.16.embeddings.weight f4 [2, 6]
0.52648246 0.09528945 0.07370007 -0.338452 0.14583252 0.40023014 0.0 0.0
0.0 0.0 0.0 0.0
00000000: 8ec7 063f 1d27 c33d 10f0 963d 9549 adbe
00000010: 1f55 153e f7ea cc3e 0000 0000 0000 0000
00000020: 0000 0000 0000 0000 0000 0000 0000 0000

naim.embeddings.17.embeddings.weight f4 [2, 6]
0.121977106 0.18183295 0.13624714 -0.51448953 0.30832008 -0.2919496 0.0 0.0
0.0 0.0 0.0 0.0
00000000: 22cf f93d 6b32 3a3e 5f84 0b3e 96b5 03bf
00000010: 21dc 9d3e 6b7a 95be 0000 0000 0000 0000
00000020: 0000 0000 0000 0000 0000 0000 0000 0000

naim.embeddings.18.embeddings.weight f4 [2, 6]
-0.5643982 -0.4888288 -0.30598286 0.56675935 -0.039351925 -0.02166571 0.0 0.0
0.0 0.0 0.0 0.0
00000000: 677c 10bf c547 fabe c9a9 9cbe 2417 113f
00000010: 7c2f 21bd 497c b1bc 0000 0000 0000 0000
00000020: 0000 0000 0000 0000 0000 0000 0000 0000

naim.embeddings.19.embeddings.weight f4 [2, 6]
0.53929955 -0.2735581 0.2788026 -0.22432764 -0.11392037 0.08675304 0.0 0.0
0.0 0.0 0.0 0.0
00000000: 890f 0a3f cf0f 8cbe 37bf 8e3e 25b6 65be
00000010: 154f e9bd 94ab b13d 0000 0000 0000 0000
00000020: 0000 0000 0000 0000 0000 0000 0000 0000

naim.embeddings.20.embeddings.weight f4 [2, 6]
0.2826834 0.14516838 -0.34269366 -0.4929325 -0.13208745 0.24580906 0.0 0.0
0.0 0.0 0.0 0.0
00000000: e1bb 903e 05a7 143e 8b75 afbe a661 fcbe
00000010: ef41 07be 5fb5 7b3e 0000 0000 0000 0000
00000020: 0000 0000 0000 0000 0000 0000 0000 0000

naim.embeddings.21.embeddings.weight f4 [2, 6]
0.07165309 0.0024247377 0.12962554 -0.0538194 0.031629153 -0.1507407 0.0 0.0
0.0 0.0 0.0 0.0
00000000: dbbe 923d 59e8 1e3b 8fbc 043e bb71 5cbd
00000010: 928d 013d c55b 1abe 0000 0000 0000 0000
00000020: 0000 0000 0000 0000 0000 0000 0000 0000

naim.embeddings.22.embeddings.weight f4 [2, 6]
0.35613412 -0.2584274 -0.03988952 0.5783831 0.43294793 -0.21773203 0.0 0.0
0.0 0.0 0.0 0.0
00000000: 3657 b63e 9950 84be 3163 23bd ea10 143f
00000010: 5aab dd3e 25f5 5ebe 0000 0000 0000 0000
00000020: 0000 0000 0000 0000 0000 0000 0000 0000

naim.embeddings.23.embeddings.weight f4 [2, 6]
0.21005279 0.009613765 -0.37007964 0.84445804 -0.049793594 -0.27136332 0.0 0.0
0.0 0.0 0.0 0.0
00000000: 1418 573e 0e83 1d3c 147b bdbe 672e 583f
00000010: 5ef4 4bbd 22f0 8abe 0000 0000 0000 0000
00000020: 0000 0000 0000 0000 0000 0000 0000 0000

naim.embeddings.24.embeddings.weight f4 [2, 6]
0.019811872 0.17270131 -0.18177834 0.40731445 -0.8637456 0.045744576 0.0 0.0
0.0 0.0 0.0 0.0
00000000: 824c a23c 9dd8 303e 1a24 3abe 858b d03e
00000010: 6f1e 5dbf aa5e 3b3d 0000 0000 0000 0000
00000020: 0000 0000 0000 0000 0000 0000 0000 0000

naim.embeddings.25.embeddings.weight f4 [2, 6]
0.3802532 -0.14473589 0.75840545 0.47227544 0.094633825 0.054896623 0.0 0.0
0.0 0.0 0.0 0.0
00000000: 8cb0 c23e a535 14be dc26 423f 16ce f13e
00000010: 61cf c13d 48db 603d 0000 0000 0000 0000
00000020: 0000 0000 0000 0000 0000 0000 0000 0000

naim.embeddings.26.embeddings.weight f4 [2, 6]
0.15926924 -0.49829552 -0.50659686 0.3235946 0.43695375 0.33836576 0.0 0.0
0.0 0.0 0.0 0.0
00000000: 7a17 233e 9720 ffbe 55b0 01bf 31ae a53e
00000010: 67b8 df3e 473e ad3e 0000 0000 0000 0000
00000020: 0000 0000 0000 0000 0000 0000 0000 0000

naim.embeddings.27.embeddings.weight f4 [2, 6]
-0.092124335 0.38054812 -0.5356305 -0.54989684 -0.13350005 0.047010995 0.0 0.0
0.0 0.0 0.0 0.0
00000000: afab bcbd 34d7 c23e 151f 09bf 0ac6 0cbf
00000010: 3db4 08be 9a8e 403d 0000 0000 0000 0000
00000020: 0000 0000 0000 0000 0000 0000 0000 0000

naim.embeddings.28.embeddings.weight f4 [2, 6]
-0.20429285 0.2310727 -0.20917548 -0.34438533 0.13590917 -0.06927582 0.0 0.0
0.0 0.0 0.0 0.0
00000000: 2532 51be 529e 6c3e 1932 56be 4653 b0be
00000010: c62b 0b3e 7be0 8dbd 0000 0000 0000 0000
00000020: 0000 0000 0000 0000 0000 0000 0000 0000

naim.embeddings.29.embeddings.weight f4 [2, 6]
-0.55717295 -0.0032813495 0.6686555 -0.22458358 0.08077881 -0.3680734 0.0 0.0
0.0 0.0 0.0 0.0
00000000: e3a2 0ebf e90b 57bb 022d 2b3f 3df9 65be
00000010: 5c6f a53d 1e74 bcbe 0000 0000 0000 0000
00000020: 0000 0000 0000 0000 0000 0000 0000 0000

naim.embeddings.30.embeddings.weight f4 [2, 6]
-0.1329093 0.26326582 0.3525663 -0.31245592 -0.051666964 -0.39269406 0.0 0.0
0.0 0.0 0.0 0.0
00000000: 6019 08be c7ca 863e 9283 b43e 39fa 9fbe
00000010: bda0 53bd 320f c9be 0000 0000 0000 0000
00000020: 0000 0000 0000 0000 0000 0000 0000 0000

naim.embeddings.31.embeddings.weight f4 [2, 6]
0.40871698 -0.26216644 -0.04817914 -0.112160526 -0.28299788 -0.29584092 0.0 0.0
0.0 0.0 0.0 0.0
00000000: 5a43 d13e ae3a 86be 7d57 45bd 6bb4 e5bd
00000010: 19e5 90be 7678 97be 0000 0000 0000 0000
00000020: 0000 0000 0000 0000 0000 0000 0000 0000

naim.embeddings.32.embeddings.weight f4 [2, 6]
0.10300225 0.33618963 -0.3385877 -0.7827588 0.2962506 -0.17815515 0.0 0.0
0.0 0.0 0.0 0.0
00000000: d8f2 d23d 0c21 ac3e 5e5b adbe e162 48bf
00000010: 29ae 973e 4e6e 36be 0000 0000 0000 0000
00000020: 0000 0000 0000 0000 0000 0000 0000 0000

naim.embeddings.33.embeddings.weight f4 [2, 6]
-0.19053924 -0.18071361 -0.40677956 -0.2313048 -0.33580244 0.7393858 0.0 0.0
0.0 0.0 0.0 0.0
00000000: b81c 43be fd0c 39be 6945 d0be 2adb 6cbe
00000010: 4cee abbe 6348 3d3f 0000 0000 0000 0000
00000020: 0000 0000 0000 0000 0000 0000 0000 0000

naim.embeddings.34.embeddings.weight f4 [2, 6]
-0.17854793 0.11758978 0.5366651 -0.029614648 -0.28743094 0.050602745 0.0 0.0
0.0 0.0 0.0 0.0
00000000: 45d5 36be e9d2 f03d e262 093f 6b9a f2bc
00000010: 262a 93be d344 4f3d 0000 0000 0000 0000
00000020: 0000 0000 0000 0000 0000 0000 0000 0000

naim.embeddings.35.embeddings.weight f4 [2, 6]
0.20256305 -0.17342095 0.33894753 0.34575567 0.4271445 -0.5631082 0.0 0.0
0.0 0.0 0.0 0.0
00000000: b06c 4f3e 4395 31be 888a ad3e e306 b13e
00000010: afb2 da3e dc27 10bf 0000 0000 0000 0000
00000020: 0000 0000 0000 0000 0000 0000 0000 0000

naim.embeddings.36.embeddings.weight f4 [2, 6]
-0.1696247 0.4180876 -0.53836745 0.026122032 0.0016548327 0.11666626 0.0 0.0
0.0 0.0 0.0 0.0
00000000: 19b2 2dbe 940f d63e 73d2 09bf dffd d53c
00000010: f9e6 d83a b8ee ee3d 0000 0000 0000 0000
00000020: 0000 0000 0000 0000 0000 0000 0000 0000

naim.embeddings.37.embeddings.weight f4 [2, 6]
0.005184674 -0.36613163 -0.13396871 -0.074656874 0.23736656 0.121211916 0.0 0.0
0.0 0.0 0.0 0.0
00000000: 33e4 a93b 9b75 bbbe 182f 09be b4e5 98bd
00000010: 3810 733e f43d f83d 0000 0000 0000 0000
00000020: 0000 0000 0000 0000 0000 0000 0000 0000

naim.embeddings.38.embeddings.weight f4 [2, 6]
0.029831475 -0.06814296 0.0038382532 0.31055662 -0.14296956 0.17127359 0.0 0.0
0.0 0.0 0.0 0.0
00000000: 2361 f43c 898e 8bbd 348b 7b3b 4701 9f3e
00000010: 9d66 12be 5862 2f3e 0000 0000 0000 0000
00000020: 0000 0000 0000 0000 0000 0000 0000 0000

naim.embeddings.39.embeddings.weight f4 [2, 6]
-0.03762036 -0.29780212 0.52598256 -0.6514277 0.21743885 0.3447522 0.0 0.0
0.0 0.0 0.0 0.0
00000000: ce17 1abd 8579 98be cba6 063f f7c3 26bf
00000010: 4aa8 5e3e 5c83 b03e 0000 0000 0000 0000
00000020: 0000 0000 0000 0000 0000 0000 0000 0000

naim.embeddings.40.embeddings.weight f4 [2, 6]
-0.09880795 0.24252097 0.13739207 -0.15698199 -0.060080342 -0.34485027 0.0 0.0
0.0 0.0 0.0 0.0
00000000: d35b cabd 6b57 783e 82b0 0c3e e3bf 20be
00000010: ce16 76bd 3790 b0be 0000 0000 0000 0000
00000020: 0000 0000 0000 0000 0000 0000 0000 0000

naim.embeddings.41.embeddings.weight f4 [2, 6]
-0.14055741 -0.2234016 0.35348547 0.21115328 0.41826674 0.5984948 0.0 0.0
0.0 0.0 0.0 0.0
00000000: 48ee 0fbe 64c3 64be 0cfc b43e 9138 583e
00000010: 0f27 d63e f536 193f 0000 0000 0000 0000
00000020: 0000 0000 0000 0000 0000 0000 0000 0000

naim.embeddings.42.embeddings.weight f4 [2, 6]
-0.3276571 0.7515235 0.25133994 0.42150456 0.11998622 -0.15638076 0.0 0.0
0.0 0.0 0.0 0.0
00000000: acc2 a7be d863 403f a1af 803e 72cf d73e
00000010: 56bb f53d 4722 20be 0000 0000 0000 0000
00000020: 0000 0000 0000 0000 0000 0000 0000 0000

naim.embeddings.43.embeddings.weight f4 [2, 6]
-0.25251397 0.01711023 0.68750495 0.50275254 0.39063936 -0.08840118 0.0 0.0
0.0 0.0 0.0 0.0
00000000: 8349 81be c12a 8c3c 5300 303f 64b4 003f
00000010: e201 c83e ae0b b5bd 0000 0000 0000 0000
00000020: 0000 0000 0000 0000 0000 0000 0000 0000

naim.embeddings.44.embeddings.weight f4 [2, 6]
-0.028058209 0.31269005 0.23320992 -0.36786 0.15091641 0.5266047 0.0 0.0
0.0 0.0 0.0 0.0
00000000: 54da e5bc e918 a03e 95ce 6e3e 2558 bcbe
00000010: d589 1a3e 91cf 063f 0000 0000 0000 0000
00000020: 0000 0000 0000 0000 0000 0000 0000 0000

naim.embeddings.45.embeddings.weight f4 [2, 6]
-0.4834438 -0.6155369 -0.2840949 0.16372865 -0.46431115 -0.16274366 0.0 0.0
0.0 0.0 0.0 0.0
00000000: f285 f7be d493 1dbf e374 91be 7ca8 273e
00000010: 31ba edbe 46a6 26be 0000 0000 0000 0000
00000020: 0000 0000 0000 0000 0000 0000 0000 0000

naim.embeddings.46.embeddings.weight f4 [2, 6]
-0.07662561 0.08224149 0.28625822 -0.09282817 0.13804807 0.21251443 0.0 0.0
0.0 0.0 0.0 0.0
00000000: e3ed 9cbd 3a6e a83d 7090 923e b21c bebd
00000010: 795c 0d3e 629d 593e 0000 0000 0000 0000
00000020: 0000 0000 0000 0000 0000 0000 0000 0000

naim.embeddings.47.embeddings.weight f4 [2, 6]
0.32601833 -0.11328935 -0.49730828 -0.25881866 0.29884118 -0.29853654 0.0 0.0
0.0 0.0 0.0 0.0
00000000: e0eb a63e 3f04 e8bd 319f febe e183 84be
00000010: b601 993e c8d9 98be 0000 0000 0000 0000
00000020: 0000 0000 0000 0000 0000 0000 0000 0000

naim.embeddings.48.embeddings.weight f4 [2, 6]
0.02876246 0.2627271 0.08902964 0.33058402 0.71043825 0.37257698 0.0 0.0
0.0 0.0 0.0 0.0
00000000: 409f eb3c 2b84 863e 2c55 b63d 4f42 a93e
00000010: 48df 353f 69c2 be3e 0000 0000 0000 0000
00000020: 0000 0000 0000 0000 0000 0000 0000 0000

naim.embeddings.49.embeddings.weight f4 [2, 6]
-0.2558036 0.25656676 0.3076327 -0.13404335 -0.38349622 0.42303598 0.0 0.0
0.0 0.0 0.0 0.0
00000000: b1f8 82be b85c 833e 0982 9d3e a942 09be
00000010: 9e59 c4be 2c98 d83e 0000 0000 0000 0000
00000020: 0000 0000 0000 0000 0000 0000 0000 0000

naim.embeddings.50.embeddings.weight f4 [2, 6]
0.55285156 0.40594873 -0.1059597 -0.18195662 -0.12794097 -0.5752684 0.0 0.0
0.0 0.0 0.0 0.0
00000000: ae87 0d3f 83d8 cf3e 6601 d9bd d652 3abe
00000010: f502 03be ca44 13bf 0000 0000 0000 0000
00000020: 0000 0000 0000 0000 0000 0000 0000 0000

naim.embeddings.51.embeddings.weight f4 [2, 6]
0.047663197 0.17994109 0.56285614 -0.6775255 0.37352052 -0.15147611 0.0 0.0
0.0 0.0 0.0 0.0
00000000: 7c3a 433d 7a42 383e 5717 103f 5072 2dbf
00000010: 153e bf3e 8e1c 1bbe 0000 0000 0000 0000
00000020: 0000 0000 0000 0000 0000 0000 0000 0000

naim.embeddings.52.embeddings.weight f4 [2, 6]
0.32388663 -0.24001823 -0.23956917 -0.23761436 0.11164242 -0.36805665 0.0 0.0
0.0 0.0 0.0 0.0
00000000: 78d4 a53e 57c7 75be 9f51 75be 2e51 73be
00000010: c8a4 e43d ec71 bcbe 0000 0000 0000 0000
00000020: 0000 0000 0000 0000 0000 0000 0000 0000

naim.embeddings.53.embeddings.weight f4 [2, 6]
-0.26359758 -0.17008083 0.15536542 -0.046434678 0.92024976 -0.0056306114 0.0 0.0
0.0 0.0 0.0 0.0
00000000: 43f6 86be ab29 2ebe 1d18 1f3e 4a32 3ebd
00000010: 7d95 6b3f fe80 b8bb 0000 0000 0000 0000
00000020: 0000 0000 0000 0000 0000 0000 0000 0000

naim.embeddings.54.embeddings.weight f4 [2, 6]
0.2031901 0.5453534 0.41155848 0.20281273 -0.631238 0.12036368 0.0 0.0
0.0 0.0 0.0 0.0
00000000: 1111 503e 489c 0b3f cbb7 d23e 24ae 4f3e
00000010: d098 21bf 3c81 f63d 0000 0000 0000 0000
00000020: 0000 0000 0000 0000 0000 0000 0000 0000

naim.embeddings.55.embeddings.weight f4 [2, 6]
0.33912605 -0.3286373 -0.5845294 0.5675929 -0.1048691 -0.16167559 0.0 0.0
0.0 0.0 0.0 0.0
00000000: eea1 ad3e 2643 a8be b8a3 15bf c54d 113f
00000010: 9cc5 d6bd 498e 25be 0000 0000 0000 0000
00000020: 0000 0000 0000 0000 0000 0000 0000 0000

naim.embeddings.56.embeddings.weight f4 [2, 6]
-0.39846107 -0.47076106 0.1997296 -0.07077366 -0.42540228 -0.059856333 0.0 0.0
0.0 0.0 0.0 0.0
00000000: 1703 ccbe 9807 f1be eb85 4c3e c8f1 90bd
00000010: 54ce d9be ea2b 75bd 0000 0000 0000 0000
00000020: 0000 0000 0000 0000 0000 0000 0000 0000

naim.embeddings.57.embeddings.weight f4 [2, 6]
0.4498624 -0.3351384 -0.21595323 0.281348 0.7349262 -0.015119014 0.0 0.0
0.0 0.0 0.0 0.0
00000000: 5d54 e63e 4397 abbe d822 5dbe d80c 903e
00000010: 2024 3c3f beb5 77bc 0000 0000 0000 0000
00000020: 0000 0000 0000 0000 0000 0000 0000 0000

naim.embeddings.58.embeddings.weight f4 [2, 6]
-0.11130991 0.024581747 0.04948748 -0.05790464 0.09479992 -0.25922045 0.0 0.0
0.0 0.0 0.0 0.0
00000000: 73f6 e3bd a95f c93c 62b3 4a3d 6a2d 6dbd
00000010: 7626 c23d 8bb8 84be 0000 0000 0000 0000
00000020: 0000 0000 0000 0000 0000 0000 0000 0000

naim.embeddings.59.embeddings.weight f4 [2, 6]
0.32879284 -0.1796282 -0.27175656 0.703524 0.27660292 0.43012494 0.0 0.0
0.0 0.0 0.0 0.0
00000000: 8957 a83e 74f0 37be ad23 8bbe 261a 343f
00000010: e69e 8d3e 5639 dc3e 0000 0000 0000 0000
00000020: 0000 0000 0000 0000 0000 0000 0000 0000

naim.embeddings.60.embeddings.weight f4 [2, 6]
-0.55355155 -0.05546395 0.06333709 0.52728885 0.2815539 0.38423264 0.0 0.0
0.0 0.0 0.0 0.0
00000000: 8eb5 0dbf 2b2e 63bd e0b6 813d 67fc 063f
00000010: d527 903e 24ba c43e 0000 0000 0000 0000
00000020: 0000 0000 0000 0000 0000 0000 0000 0000

naim.embeddings.61.embeddings.weight f4 [2, 6]
-0.22862187 0.04383496 0.13802013 -0.073897645 0.23735161 -0.12637319 0.0 0.0
0.0 0.0 0.0 0.0
00000000: da1b 6abe 498c 333d 2655 0d3e a657 97bd
00000010: 4d0c 733e f967 01be 0000 0000 0000 0000
00000020: 0000 0000 0000 0000 0000 0000 0000 0000

naim.embeddings.62.embeddings.weight f4 [2, 6]
0.29221496 0.1553192 -0.70064306 -0.06990831 -0.39042884 -0.4720415 0.0 0.0
0.0 0.0 0.0 0.0
00000000: 339d 953e ff0b 1f3e 585d 33bf 172c 8fbd
00000010: 4ae6 c7be 6caf f1be 0000 0000 0000 0000
00000020: 0000 0000 0000 0000 0000 0000 0000 0000

naim.embeddings.63.embeddings.weight f4 [2, 6]
0.7609552 0.3336777 -0.30942878 0.16812894 -0.22688565 -0.15635744 0.0 0.0
0.0 0.0 0.0 0.0
00000000: f6cd 423f ced7 aa3e 736d 9ebe fe29 2c3e
00000010: b654 68be 2a1c 20be 0000 0000 0000 0000
00000020: 0000 0000 0000 0000 0000 0000 0000 0000

naim.encoder.0.layer_norm_1.weight f4 [6]
0.98846835 0.98744416 0.9897021 0.9953376 0.9883761 0.98871166
00000000: 430c 7d3f 24c9 7c3f 1e5d 7d3f 72ce 7e3f
00000010: 3706 7d3f 351c 7d3f

naim.encoder.0.layer_norm_1.bias f4 [6]
0.0021166096 -0.0017478138 0.0017508657 -0.0016971657 0.0016037179 3.800541e-05
00000000: d1b6 0a3b e616 e5ba 4e7d e53a 6e73 deba
00000010: d833 d23a 0068 1f38

naim.encoder.0.attn.linear_q.weight f4 [6, 6]
-0.093183 0.034714416 -0.107799135 -0.38772252 -0.035536725 0.1873704 -0.038230374 -0.18831518
0.008622773 0.064536996 -0.101370625 -0.30413362 -0.21315572 -0.057984985 0.14727683 0.35125735
0.006023856 0.14140406 0.22318059 -0.16516837 -0.12916622 0.2596872 0.28410444 0.09007612
-0.3034487 0.2197571 -0.3251389 0.194095 0.04252752 0.119349375 -0.38498846 -0.13053897
0.16072892 0.30135554 -0.10406283 0.35105366
00000000: bbd6 bebd b430 0e3d cbc5 dcbd 9183 c6be
00000010: f58e 11bd 07de 3f3e 7497 1cbd b2d5 40be
00000020: 8846 0d3c f92b 843d 679b cfbd 67b7 9bbe
00000030: 7e45 5abe aa81 6dbd bdcf 163e 01d8 b33e
00000040: c463 c53b 3acc 103e 7489 643e e621 29be
00000050: 2644 04be b8f5 843e 2376 913e d479 b83d
00000060: a15d 9bbe 0108 613e 9b78 a6be d7c0 463e
00000070: 5631 2e3d 726d f43d 351d c5be 02ac 05be
00000080: 1f96 243e 464b 9a3e e51e d5bd 4ebd b33e

naim.encoder.0.attn.linear_k.weight f4 [6, 6]
-0.08421369 -0.23334654 -0.16757551 0.0268812 -0.06439377 0.18801832 -0.2129153 -0.106232375
-0.3916684 0.32047394 -0.064814724 -0.30921683 -0.010975153 0.0060218987 0.102508776 -0.04475804
0.24378961 -0.13298258 -0.10937077 -0.084024414 0.061203554 0.3147657 -0.02047989 0.30113217
0.30825582 -0.19988964 -0.035502594 -0.18310773 0.15856743 -0.13110684 0.11931035 0.0154224215
-0.25598195 -0.27194938 -0.38638872 -0.21564268
00000000: 3a78 acbd 65f2 6ebe ea98 2bbe f635 dc3c
00000010: e2e0 83bd e087 403e 7806 5abe 5c90 d9bd
00000020: c388 c8be 2915 a43e 95bd 84bd ab51 9ebe
00000030: 21d1 33bc 5953 c53b 1ff0 d13d 3554 37bd
00000040: fca3 793e 962c 08be c8fd dfbd fe14 acbd
00000050: 94b0 7a3d f828 a13e 71c5 a7bc ff2d 9a3e
00000060: b5d3 9d3e dfaf 4cbe 2b6b 11bd 9880 3bbe
00000070: 805f 223e df40 06be fc58 f43d 53ae 7c3c
00000080: 1110 83be f33c 8bbe bed4 c5be 6fd1 5cbe

naim.encoder.0.attn.linear_v.weight f4 [6, 6]
0.113915354 0.026584292 0.30708152 -0.358995 -0.007396775 -0.36691678 0.0056055672 0.14732747
-0.36268762 0.35661337 -0.119324826 0.35685652 -0.058785826 0.22444698 0.36920303 -0.14802854
-0.09962282 0.21371631 -0.34462857 0.23261608 -0.24919237 0.37461346 -0.2623306 -0.16714309
0.29732475 -0.17152177 0.33866963 0.27267426 0.36463383 -0.387616 0.0043206858 -0.13212056
0.098082446 -0.30777013 0.16720927 -0.022031864
00000000: 744c e93d 4dc7 d93c ca39 9d3e 31ce b7be
00000010: a560 f2bb 84dc bbbe e8ae b73b 03dd 163e
00000020: 31b2 b9be 0796 b63e 9360 f4bd e6b5 b63e
00000030: 68c9 70bd 6ed5 653e 2e08 bd3e cb94 17be
00000040: 0d07 ccbd 73d8 5a3e 2873 b0be e932 6e3e
00000050: 492c 7fbe 56cd bf3e 3250 86be 8f27 2bbe
00000060: f33a 983e 67a3 2fbe 1b66 ad3e f69b 8b3e
00000070: 49b1 ba3e 9b75 c6be 8a94 8d3b 9d4a 07be
00000080: 73df c83d 0c94 9dbe e838 2b3e 2b7c b4bc

naim.encoder.0.attn.linear_o.weight f4 [6, 6]
-0.18012889 -0.3543229 0.20052706 -0.13489167 0.28820986 0.059718996 0.111224495 -0.049046062
-0.043695867 -0.12573895 -0.34052253 0.24369201 -0.2569982 0.2367466 -0.13809137 0.25428435
0.34846076 -0.24933776 0.33405575 0.006899415 -0.31329033 0.16346975 0.22774959 0.3562409
-0.39115486 0.36462402 0.30592754 0.3974377 0.21867824 -0.20106336 0.31044546 0.3741432
-0.15398891 -0.0643222 0.32098702 0.3287165
00000000: b573 38be d069 b5be f756 4d3e 0b21 0abe
00000010: 3e90 933e e89b 743d abc9 e33d 86e4 48bd
00000020: 70fa 32bd b6c1 00be f858 aebe 668a 793e
00000030: 4595 83be b36d 723e d367 0dbe 8f31 823e
00000040: 7369 b23e 6652 7fbe 5b09 ab3e 7d14 e23b
00000050: 9767 a0be 9d64 273e 3037 693e 3565 b63e
00000060: 7345 c8be 00b0 ba3e 89a2 9c3e f47c cb3e
00000070: 30ed 5f3e 8ee3 4dbe b5f2 9e3e b38f bf3e
00000080: 45af 1dbe 5cbb 83bd 6958 a43e 874d a83e

naim.encoder.0.layer_norm_2.weight f4 [6]
0.99414766 0.989535 0.98878896 0.9940646 0.99655914 1.0050164
00000000: 7680 7e3f 2a52 7d3f 4621 7d3f 057b 7e3f
00000010: 801e 7f3f 61a4 803f

naim.encoder.0.layer_norm_2.bias f4 [6]
0.0032589287 0.005694854 -0.0026296636 -0.0030482113 -0.006128567 -0.0005254366
00000000: c093 553b e69b ba3b 6f56 2cbb 80c4 47bb
00000010: 25d2 c8bb 74bd 09ba

naim.encoder.0.ff.0.weight f4 [1000, 6]
0.2581966 0.30023193 -0.19948436 -0.060113326 -0.15064253 0.2003346 0.091069795 -0.3061795
-0.040341757 -0.3206066 -0.37125713 0.3596832 -0.19726501 0.17108606 -0.07793883 -0.07224199
0.0038338585 0.30562916 -0.044464096 0.32490745 0.22598933 0.2669812 -0.35721967 -0.17784685
-0.32294658 -0.07558704 -0.07402956 0.07517911 0.3536532 0.17203355 -0.2720548 -0.24470748
0.29567245 0.0343333 0.105060816 -0.20183353 -0.04605617 0.10644343 -0.25831485 0.2575851
0.19325681 -0.22649181 -0.1551164 -0.084247276 0.053073026 -0.13686001 0.37766802 -0.38073397
-0.2194494 -0.23625031 0.10036008 0.04679387 -0.10522083 0.33664995 -0.33974218 0.13445476
-0.21214575 -0.08031457 -0.3801235 -0.29179996 -0.33352607 0.16718039 -0.14172041 0.2013877
-0.20860131 -0.09211145 0.044495836 0.3291562 -0.09803523 0.22378679 0.10515224 0.23631242
0.24642332 0.15407386 -0.11717534 -0.10560087 0.14793162 0.2097889 -0.022867309 0.1921891
-0.23446253 0.21814725 -0.04226869 -0.2683976 -0.18573765 -0.29916608 0.07127738 -0.22920586
-0.10457641 -0.018814277 -0.23635054 0.014114246 -0.042846624 0.116990946 0.28219357 -0.23362187
0.21336046 -0.010752706 -0.2224261 -0.17783901 0.09253494 0.075157024 -0.013645474 -0.19324493
0.19647364 0.04960302 -0.38499177 -0.059945915 -0.09822908 -0.16477185 -0.21427174 -0.31824005
0.3892593 -0.36003807 0.3718524 -0.31232294 -0.091976255 -0.1663736 -0.2087072 0.13465215
0.22423086 -0.25975022 -0.17797902 0.20422208 -0.049034517 0.08933693 0.2006363 -0.14007981
-0.21401009 0.13787796 -0.14198561 -0.25868997 -0.19934635 -0.1787466 0.39358008 0.06971872
0.16310313 0.05289798 -0.26230493 0.28206897 -0.053240225 -0.094038375 0.31981987 -0.19519101
0.07240384 -0.3356881 0.19665577 0.15000284 -0.32306343 0.2158431 0.050122585 -0.19996017
0.34070063 0.1658832 0.13515578 -0.1465081 -0.21417198 -0.20842738 0.14511518 0.10384514
-0.2321704 0.35970512 0.22539672 -0.14632978 0.19974227 -0.16106887 0.11589977 0.32695392
-0.3483678 -0.19038086 -0.015290196 0.050673645 -0.32292962 -0.25587052 -0.032573722 -0.05269142
0.08070919 0.04301913 0.07328617 0.029893698 0.04794051 -0.01790058 0.13639185 0.26641557
-0.19080691 -0.19845022 0.16814579 -0.284199 0.25542104 0.1763588 0.056071185 -0.16502596
0.008115555 -0.31006414 -0.35473323 0.37178648 -0.3536407 -0.32572916 -0.14667606 0.022452503
0.0823876 -0.18841566 -0.030568391 -0.083463624 0.3293888 0.34191075 0.15753736 0.004667269
0.29312083 -0.31657788 0.15775135 -0.22505642 0.3059804 -0.34811336 0.13891797 -0.32268497
0.22732475 0.0698176 0.3376647 -0.2958336 0.25061575 -0.26084584 -0.2081061 0.14327814
-0.058827527 -0.3095658 -0.33445868 -0.10041973 0.102924466 0.34554586 0.28756616 0.010174008
-0.2375121 -0.35095993 0.35255465 -0.21590103 -0.07154851 -0.31677744 -0.27038977 0.066774994
-0.088713795 0.03468705 -0.0006528778 0.021961628 -0.07232736 -0.01658886 0.16438629 0.2852922
0.3329473 -0.32004058 -0.33240947 -0.049520925 -0.024796147 0.21378873 0.37158895 0.095724605
00000000: 5832 843e 00b8 993e a145 4cbe 6439 76bd
00000010: 0942 1abe 8324 4d3e cd82 ba3d 8fc3 9cbe
00000020: 663d 25bd 8c26 a4be 6a15 bebe 6528 b83e
00000030: d7ff 49be 2f31 2f3e 659e 9fbd 9cf3 93bd
00000040: 7941 7b3b 6d7b 9c3e fc1f 36bd 455a a63e
00000050: bf69 673e c3b1 883e 7fe5 b6be 7c1d 36be
00000060: 4159 a5be 61cd 9abd cf9c 97bd 81f7 993d
00000070: 0812 b53e 9029 303e c44a 8bbe 9994 7abe
00000080: 6162 973e 13a1 0c3d 202a d73d 73ad 4ebe
00000090: 65a5 3cbd 03ff d93d d841 84be 32e2 833e
000000a0: 1de5 453e 78ed 67be d5d6 1ebe d689 acbd
000000b0: 1a63 593d 0825 0cbe b45d c13e 90ef c2be
000000c0: 58b7 60be 9aeb 71be 9689 cd3d eeaa 3f3d
000000d0: 057e d7bd 625d ac3e b0f2 adbe 82ae 093e
000000e0: bc3c 59be f77b a4bd 8c9f c2be ce66 95be
000000f0: eec3 aabe 5631 2b3e 281f 11be 9438 4e3e
00000100: 959b 55be eea4 bcbd 4441 363d 2987 a83e
00000110: b2c6 c8bd 5d28 653e 0f5a d73d e2fb 713e
00000120: 6556 7c3e 8ac5 1d3e a0f9 efbd 4545 d8bd
00000130: 637b 173e e7d2 563e 3954 bbbc 38cd 443e
00000140: f216 70be fe61 5f3e ef21 2dbd 696b 89be
00000150: 0332 3ebe 4c2c 99be e0f9 913d f1b4 6abe
00000160: 282c d6bd 6620 9abc e005 72be 703f 673c
00000170: f17f 2fbd f398 ef3d ad7b 903e 923a 6fbe
00000180: 2a7b 5a3e 1e2c 30bc abc3 63be 6e1b 36be
00000190: f582 bd3d edeb 993d 4491 5fbc 00e2 45be
000001a0: 6330 493e 892c 4b3d a41d c5be d989 75bd
000001b0: 542c c9bd f4b9 28be 0d6a 5bbe 5cf0 a2be
000001c0: ff4c c73e e956 b8be 7063 be3e cbe8 9fbe
000001d0: 0c5e bcbd d75d 2abe 57b7 55be 41e2 093e
000001e0: c69c 653e fbfd 84be 2240 36be 981f 513e
000001f0: 6bd8 48bd 48f6 b63d 9a73 4d3e 1571 0fbe
00000200: 7625 5bbe e12f 0d3e ad64 11be 0373 84be
00000210: 7321 4cbe 5909 37be 5483 c93e b0c8 8e3d
00000220: 8204 273e 8dab 583d d54c 86be 586b 903e
00000230: 6c12 5abd 3197 c0bd 6ebf a33e 27e0 47be
00000240: 7748 943d 50df abbe 2160 493e 589a 193e
00000250: 9268 a5be f905 5d3e 574d 4d3d 5cc2 4cbe
00000260: 5070 ae3e 49dd 293e 4766 0a3e 3806 16be
00000270: e64f 5bbe fd6d 55be 1399 143e c3ac d43d
00000280: 14be 6dbe 452b b83e 66ce 663e 79d7 15be
00000290: 3d89 4c3e 3def 24be dc5c ed3d 8166 a73e
000002a0: 445d b2be 33f3 42be bb83 7abc 2b8f 4f3d
000002b0: 0857 a5be 7601 83be 066c 05bd f5d2 57bd
000002c0: dc4a a53d d434 303d 0f17 963d a1e3 f43c
000002d0: 455d 443d 3da4 92bc 4eaa 0b3e 9f67 883e
000002e0: e362 43be 8936 4bbe 692e 2c3e 8882 91be
000002f0: 8cc6 823e 6797 343e e6aa 653d 91fc 28be
00000300: 1bf7 043c bac0 9ebe 989f b5be cc5a be3e
00000310: 6510 b5be f9c5 a6be 4032 16be 50ee b73c
00000320: d4ba a83d 09f0 40be 906a fabc faee aabd
00000330: a6a5 a83e ed0e af3e 7951 213e e4ef 983b
00000340: ef13 963e 7f16 a2be 9289 213e 3175 66be
00000350: 77a9 9c3e ea3b b2be 8340 0e3e f736 a5be
00000360: d2c7 683e 88fc 8e3d 63e2 ac3e 8077 97be
00000370: b550 803e 968d 85be c419 55be 81b7 123e
00000380: 22f5 70bd 697f 9ebe 2b3e abbe dca8 cdbd
00000390: 10ca d23d 63eb b03e df3b 933e e2b0 263c
000003a0: 5f36 73be 05b1 b3be 0b82 b43e 2915 5dbe
000003b0: 0688 92bd a730 a2be 8770 8abe 54c1 883d
000003c0: 94af b5bd 0214 0e3d e325 2bba dfe8 b33c
000003d0: 5e20 94bd 5ce5 87bc e154 283e d211 923e
000003e0: 1278 aa3e 5cdc a3be 9331 aabe 74d6 4abd
000003f0: 4a21 cbbc 6feb 5a3e e840 be3e 430b c43d

naim.encoder.0.ff.0.bias f4 [1000]
0.2442792 -0.19939171 -0.04852453 0.038905177 0.269345 0.17434418 0.3807228 -0.20641047
-0.02907205 -0.02620466 0.32044166 0.37261245 0.1039412 -0.32016876 -0.28324586 0.06788433
-0.34659657 -0.13921602 -0.2930882 0.19744827 -0.04816841 -0.3068286 0.25672686 -0.34899643
-0.03890395 0.38061425 0.20004179 -0.34110197 0.033709887 -0.060979225 0.16895595 0.367088
0.33542734 -0.03758569 0.17858846 -0.3879437 0.30897793 0.20482814 -0.27457455 -0.111286975
-0.14584032 -0.22567795 0.1576629 -0.10949891 0.15752484 -0.111281864 0.3052612 -0.14806487
-0.059508573 -0.11636986 0.012737016 -0.13813934 -0.27392232 -0.3756403 0.2452795 0.04969075
-0.24948822 0.20889182 0.032355465 -0.13469404 -0.0212245 0.046651874 0.2867382 -0.36276573
-0.30377686 -0.31683463 -0.30809313 0.0069041527 0.21921864 0.096906185 0.16129707 0.047837973
-0.004261574 -0.357113 0.35139245 0.38237682 -0.006866641 0.077343754 0.06737616 0.3917936
-0.0028539135 -0.057986926 -0.21087915 0.100775585 0.1786969 -0.33224428 0.13868162 0.1033525
0.17908226 0.18116888 -0.09805736 0.050056208 -0.27471364 0.23691118 -0.33110455 -0.34520236
-0.28970376 -0.21574523 0.021432178 0.25499472 -0.0503349 0.2808643 -0.062127575 0.33494136
0.2703016 0.24589364 0.15383309 -0.26354575 0.38772744 -0.37652075 -0.27361828 -0.234265
-0.09550365 0.17520759 0.07809701 -0.33952832 0.38323298 0.37168446 0.18832566 -0.38688445
0.22085768 0.10913226 -0.040663343 -0.32895508 0.340125 -0.10966052 -0.3183391 0.3083339
0.15516597 0.10893371 0.25188053 0.12975757 -0.08846963 -0.06294998 0.3278731 -0.008162027
-0.3286581 -0.26911834 -0.29525968 0.037788864 0.28911775 0.23328814 0.103038296 0.13012102
-0.18068038 0.36960012 0.14620642 -0.24439833 -0.26010615 -0.35269997 -0.103208266 0.293089
0.028299134 -0.18133584 0.11423442 -0.27370322 0.112864345 0.2743174 0.18719909 -0.11415903
-0.12860219 0.1716488 0.23352733 -0.089045666 0.0038550831 -0.046462223 -0.044764623 -0.3497714
-0.32428864 0.33776236 -0.18427463 0.28994274 0.2432747 -0.063910306 -0.18555443 0.016551664
-0.061165705 -0.2292999 0.3908923 -0.023581743 -0.054533258 -0.2678677 0.0697259 0.052005634
0.39606252 -0.11378622 0.21731634 0.011607917 0.20813484 0.0024935482 -0.061047975 0.15494844
-0.16989787 0.23595794 -0.3290099 -0.2828715 0.37656543 -0.14212753 -0.31217006 -0.28593916
0.38576505 -0.0490011 -0.3304881 -0.04800034 -0.18610546 -0.26123324 -0.18847314 0.30067068
0.16240169 0.23005272 0.027481662 -0.15790094 -0.15436243 -0.26208654 -0.28274864 -0.33915672
0.06499618 0.20516132 0.32059142 -0.0100736115 -0.05038751 -0.028495347 0.15885168 -0.054653037
-0.13612054 -0.10061581 -0.38589373 -0.30190653 -0.16649236 0.032971077 -0.24354827 0.1440942
-0.21080363 0.38556626 -0.34774694 0.21532623 -0.19926897 -0.13177113 -0.36899924 -0.3655978
-0.37387526 -0.0057677063 0.36575362 0.18080063 0.24593486 0.08910894 -0.1454947 -0.1462742
-0.11253869 -0.36842412 0.21483637 -0.111591235 -0.22045326 0.10208643 0.003672512 0.2125744
00000000: 5424 7a3e 572d 4cbe a8c1 46bd 095b 1f3d
00000010: 96e7 893e 4887 323e 19ee c23e 445d 53be
00000020: 8228 eebc 28ab d6bc ee10 a43e 0fc7 be3e
00000030: 20df d43d 29ed a3be 9a05 91be f106 8b3d
00000040: 1b75 b1be a58e 0ebe a80f 96be e12f 4a3e
00000050: 3d4c 45bd a318 9dbe b471 833e a9af b2be
00000060: c059 1fbd dfdf c23e c1d7 4c3e eba4 aebe
00000070: 6113 0a3d 5ac5 79bd ca02 2d3e f5f2 bb3e
00000080: 22bd ab3e 74f3 19bd e5df 363e 8fa0 c6be
00000090: 5b32 9e3e 78be 513e 0995 8cbe 6dea e3bd
000000a0: 2a57 15be 1f18 67be 6272 213e f740 e0bd
000000b0: 314e 213e bfe7 e3bd 324b 9c3e 519e 17be
000000c0: 43bf 73bd 5253 eebd ebae 503c 6674 0dbe
000000d0: 8c3f 8cbe ed53 c0be 8d2a 7b3e 8788 4b3d
000000e0: d779 7fbe bde7 553e 2a87 043d 3ced 09be
000000f0: 01df adbc 0916 3f3d 59cf 923e 6ebc b9be
00000100: a488 9bbe 2638 a2be 62be 9dbe 3b3c e23b
00000110: da7a 603e c076 c63d 0f2b 253e c0f1 433d
00000120: aca4 8bbb 84d7 b6be b6e9 b33e e5c6 c33e
00000130: 8f01 e1bb 6766 9e3d 83fc 893d 2c99 c83e
00000140: b908 3bbb b383 6dbd b4f0 57be 6e63 ce3d
00000150: 52fc 363e ec1b aabe 8e02 0e3e 7aaa d33d
00000160: 5761 373e 5684 393e 4cd2 c8bd bd07 4d3d
00000170: 44a7 8cbe d898 723e 8986 a9be 5dbe b0be
00000180: 0d54 94be 51ec 5cbe 8992 af3c ab8e 823e
00000190: f82b 4ebd 72cd 8f3e 7c79 7ebd 6f7d ab3e
000001a0: f964 8a3e 8bcb 7b3e 6c86 1d3e 78ef 86be
000001b0: 3684 c63e 54c7 c0be b217 8cbe 2ae3 6fbe
000001c0: 6b97 c3bd 9e69 333e 53f1 9f3d a8d6 adbe
000001d0: 1d37 c43e 6d4d be3e 71d8 403e b815 c6be
000001e0: 8428 623e bc80 df3d 9b8e 26bd cd6c a8be
000001f0: dd24 ae3e b295 e0bd 58fd a2be f1dd 9d3e
00000200: d4e3 1e3e a318 df3d 7cf6 803e 2bdf 043e
00000210: 912f b5bd ebeb 80bd fcde a73e 06ba 05bc
00000220: e045 a8be e1c9 89be 472c 97be 7fc8 1a3d
00000230: 3e07 943e 16e3 6e3e be05 d33d 723e 053e
00000240: 4704 39be 3a3c bd3e 23b7 153e 8e43 7abe
00000250: a22c 85be 1795 b4be db5e d3bd c30f 963e
00000260: 96d3 e73c 1ab0 39be bcf3 e93d d422 8cbe
00000270: 6c25 e73d 5573 8c3e 1eb1 3f3e 36cc e9bd
00000280: 4bb0 03be b4c4 2f3e ca21 6f3e 935d b6bd
00000290: 90a5 7c3b 2c4f 3ebd 1c5b 37bd 3d15 b3be
000002a0: 2909 a6be 30ef ac3e 7db2 3cbe 6073 943e
000002b0: 011d 793e 68e3 82bd fb01 3ebe 5b97 873c
000002c0: e488 7abd 98cd 6abe 0923 c83e 802e c1bc
000002d0: 445e 5fbd f525 89be 74cc 8e3d dc03 553d
000002e0: b5c8 ca3e c008 e9bd 2d88 5e3e 222f 3e3c
000002f0: 4d21 553e cc6a 233b 710d 7abd ceaa 1e3e
00000300: b5f9 2dbe f59e 713e fc73 a8be 89d4 90be
00000310: 2fcd c03e e189 11be c1d4 9fbe 9e66 92be
00000320: ff82 c53e 61b5 48bd bc35 a9be 019c 44bd
00000330: 6e92 3ebe 5dc0 85be 1aff 40be 82f1 993e
00000340: a14c 263e f192 6b3e 3921 e13c c9b0 21be
00000350: 2f11 1ebe 3530 86be 6ec4 90be f3a5 adbe
00000360: b81c 853d cf15 523e 8f24 a43e ca0b 25bc
00000370: 2263 4ebd 136f e9bc 04aa 223e dddb 5fbd
00000380: 2f63 0bbe a90f cebd dd93 c5be 7e93 9abe
00000390: f97c 2abe ae0c 073d b864 79be 6e8d 133e
000003a0: e8dc 57be f168 c53e e30b b2be 7b7e 5c3e
000003b0: 2a0d 4cbe 03ef 06be 78ed bcbe a32f bbbe
000003c0: 946c bfbe 07ff bcbb 0f44 bb3e cd23 393e
000003d0: 59d6 7b3e bf7e b63d 90fc 14be e7c8 15be
000003e0: af7a e6bd 16a2 bcbe 11fe 5b3e f289 e4bd
000003f0: 80be 61be b112 d13d 87ae 703b 1aad 593e

naim.encoder.0.ff.3.weight f4 [6, 1000]
-0.013452392 -0.009692934 -0.0105522955 -0.005663007 -0.0070782127 0.0073796264 0.0007842592 -0.009669883
0.021454055 0.025339818 -0.0022067553 -0.003637173 -0.03044946 -0.019488754 0.0034962634 -0.0014358955
0.004506391 -0.011235738 0.0003857243 0.008050811 0.03421544 0.028034888 -0.016713697 0.0035488443
-0.00066674344 0.0030893069 0.016489666 -0.008511101 -0.002810528 -0.02622131 -0.007369525 -0.026856717
0.014548504 -0.018937932 -0.010690824 -0.017296497 0.028293941 -0.0071327747 0.03021744 -0.012572209
0.019929819 -0.0016743594 -0.019846035 0.028916663 -0.017352166 -0.014181594 0.020685084 -0.0060495078
0.0018295383 0.035896268 -0.025440414 -0.010810401 0.010689696 -0.008619805 0.0047401297 -0.006288661
-0.0029275715 0.028675975 -0.003945848 0.01726974 0.028153071 0.026492998 0.01681451 0.024535673
-0.0028791833 0.005654667 -0.011211407 -0.027042516 0.028877055 -0.025304405 -0.016510297 -0.008929351
-0.01955766 -0.027447477 -0.0138929635 0.007607922 -0.022045488 -0.024393275 -0.014007193 -0.022525694
0.0056768586 0.007564378 0.010152076 0.03110435 -0.009558631 -0.0073553617 0.0132040735 0.028572109
0.011742002 -8.0452875e-05 0.014705983 -0.025585705 -0.01872054 -0.008968613 -0.022781625 -0.021542508
-0.026545322 0.00823051 0.00750524 0.0013182779 -0.0048516807 0.0035713797 0.02437092 -0.02048231
0.025616506 0.015460191 -0.008093639 0.020019012 0.0031229656 -0.012053778 0.032113083 0.012774358
0.019345805 -0.006356861 -0.022472158 0.027897002 0.006308513 0.017658943 -0.005036218 0.018163037
-0.021362798 0.0054771197 0.028786581 -0.006546624 0.030322831 0.011498899 0.015327917 0.03484444
-0.0037881345 -0.003341079 0.02273335 -0.013166939 -0.019433355 0.026413422 -0.025365716 -0.011928997
0.01020434 0.008551488 -0.015562275 -0.0060839145 0.023545474 -0.016552458 0.021350095 0.00027355173
-0.0058811787 -0.02746829 -0.0064730523 0.02877899 -0.02141609 -0.026006171 -0.0021288698 0.0252171
-0.0100646205 0.03499676 0.034969382 0.025196832 -0.014222604 -0.018095704 -0.024468653 -0.005375606
-0.021845892 0.018825606 0.006833108 0.028813977 -0.029213572 -0.022463128 -0.00034950674 0.0043508653
0.031436536 0.0013103633 0.031894498 -0.00483065 -0.00025616324 -0.0087253 -0.010090654 -0.009358353
-0.022762964 -0.006102919 -0.0073720934 -0.011321845 -0.027458956 -0.027043464 -0.0031080958 -0.021531621
0.032051288 -0.0038910597 0.010001666 -0.018311579 0.0050904215 -0.024973398 0.015743785 0.018269898
-0.025956716 0.017670054 0.0082344245 -0.0154847 -0.011181932 0.029740853 -0.01786194 0.032331455
0.009749679 0.018398976 -0.012998257 0.009301422 0.011481671 0.026529282 -0.03296333 -0.009470993
0.0038305395 -0.018645873 0.009821189 0.023382543 0.020720042 -0.014627258 0.016946958 -0.019076811
0.019720776 -0.024730686 -0.024964102 0.015147448 -0.0046886993 0.0128846755 0.0322019 0.030397696
0.021752961 -0.02290982 0.00038668572 0.0069443528 -0.02923049 0.028167225 0.016388439 -0.012029612
-0.0020265498 -0.016609123 0.016645811 0.0068790624 -0.011138763 0.021497412 -0.0038800864 0.0023289123
0.022134261 -0.011563158 -0.025756354 0.020766849 -0.017194916 0.0144128585 -0.0015922548 0.025611956
0.0028617654 -0.011014893 -0.019558597 0.023988385 -0.016126247 0.013505356 0.028881438 -0.022936866
00000000: 6c67 5cbc 1dcf 1ebc 89e3 2cbc bf90 b9bb
00000010: 5af0 e7bb cbd0 f13b be96 4d3a 6e6e 1ebc
00000020: 6ac0 af3c 7395 cf3c 369f 10bb a35d 6ebb
00000030: 2571 f9bc e1a6 9fbc 9121 653b a834 bcba
00000040: 59aa 933b 1a16 38bc 0a3b ca39 8ce7 033c
00000050: 7d25 0c3d 6ca9 e53c 2aeb 88bc ba93 683b
00000060: 65c8 2eba f875 4a3b 5615 873c 2572 0bbc
00000070: d630 38bb 13ce d6bc 0e7c f1bb 9e02 dcbc
00000080: d95c 6e3c b923 9bbc 9128 2fbc 62b1 8dbc
00000090: b2c8 e73c 0dba e9bb 918a f73c abfb 4dbc
000000a0: dc43 a33c 2e76 dbba 2794 a2bc a3e2 ec3c
000000b0: 2126 8ebc eb59 68bc c473 a93c f33a c6bb
000000c0: 1ecd ef3a f707 133d 6a68 d0bc 1c1e 31bc
000000d0: d623 2f3c 153a 0dbc 1753 9b3b 1d11 cebb
000000e0: 80dc 3fbb e1e9 ea3c 2c4c 81bb 4579 8d3c
000000f0: 45a1 e63c d807 d93c 95be 893c 09ff c83c
00000100: aeb0 3cbb c94a b93b 0db0 37bc 4488 ddbc
00000110: 938f ec3c 2f4b cfbc 9a40 87bc 6a4c 12bc
00000120: 6337 a0bc 88d9 e0bc 509f 63bc e04b f93b
00000130: bd98 b4bc 68d4 c7bc 6d7e 65bc ce87 b8bc
00000140: f104 ba3b 9ade f73b e554 263c 8dce fe3c
00000150: ce9b 1cbc 3f05 f1bb e655 583c 0e10 ea3c
00000160: 8761 403c cfb8 a8b8 5df1 703c 1d99 d1bc
00000170: d15b 99bc 17f1 12bc 88a0 babc ea79 b0bc
00000180: 9375 d9bc 43d9 063c 84ee f53b 11ca ac3a
00000190: d9fa 9ebb cf0d 6a3b 86a5 c73c 84ca a7bc
000001a0: b5d9 d13c be4c 7d3c 2f9b 04bc e9fe a33c
000001b0: abaa 4c3b 367d 45bc 0289 033d 8a4b 513c
000001c0: 187b 9e3c 374d d0bb 8817 b8bc 4188 e43c
000001d0: a5b7 ce3b 7da9 903c dc06 a5bb a6ca 943c
000001e0: 0901 afbc 6979 b33b d6d1 eb3c 1085 d6bb
000001f0: 9667 f83c e165 3c3c f221 7b3c 0bb9 0e3d
00000200: 5a42 78bb 01f6 5abb 4a3b ba3c 25ba 57bc
00000210: b332 9fbc f660 d83c c3cb cfbc d771 43bc
00000220: 1b30 273c 8a1b 0c3c eaf8 7ebc 935b c7bb
00000230: 70e2 c03c 0599 87bc 65e6 ae3c 7e6b 8f39
00000240: e7b6 c0bb 2e05 e1bc e61b d4bb ebc1 eb3c
00000250: cc70 afbc e50a d5bc 8284 0bbb 1794 ce3c
00000260: 14e6 24bc c358 0f3d 0e3c 0f3d 9669 ce3c
00000270: ed05 69bc 713d 94bc 7c72 c8bc da25 b0bb
00000280: 28f6 b2bc 2838 9a3c 44e8 df3b 4a0b ec3c
00000290: 4d51 efbc 9804 b8bc 003e b7b9 b491 8e3b
000002a0: 99c3 003d 7fc0 ab3a cea3 023d 6e4a 9ebb
000002b0: a64d 86b9 90f4 0ebc 4553 25bc c753 19bc
000002c0: 6579 babc fffa c7bb 9a91 f1bb 437f 39bc
000002d0: 9bf1 e0bc 418a ddbc 32b1 4bbb 1563 b0bc
000002e0: 3648 033d 2601 7fbb 07de 233c 2a02 96bc
000002f0: 8dcd a63b 0395 ccbc 1cf9 803c c1aa 953c
00000300: 2ea3 d4bc cac0 903c aee9 063c 8ab3 7dbc
00000310: 6c34 37bc 17a3 f33c 3453 92bc fd6d 043d
00000320: 1ebd 1f3c 73b9 963c a4f6 54bc fe64 183c
00000330: 9e1d 3c3c f053 d93c 8f04 07bd 392c 1bbc
00000340: ca09 7b3b 3bbf 98bc 0de9 203c bf8c bf3c
00000350: 14bd a93c 2ba7 6fbc 59d4 8a3c f946 9cbc
00000360: 778d a13c 0298 cabc 8481 ccbc 002d 783c
00000370: a9a3 99bb 3f1a 533c 24e6 033d 9704 f93c
00000380: 4433 b23c 60ad bbbc 14bc ca39 748d e33b
00000390: c874 efbc f4be e63c 0c41 863c da17 45bc
000003a0: ddcf 04bb db0f 88bc cc5c 883c c269 e13b
000003b0: 5c7f 36bc 571b b03c 0c49 7ebb aaa0 183b
000003c0: e952 b53c 6673 3dbc fdfe d2bc 3d1f aa3c
000003d0: 5adc 8cbc e923 6c3c 35b3 d0ba 2ad0 d13c
000003e0: 758c 3b3b cf77 34bc 5a39 a0bc 4a83 c43c
000003f0: 311b 84bc 9245 5d3c c498 ec3c 18e6 bbbc

naim.encoder.0.ff.3.bias f4 [6]
-0.026253676 0.001499985 -0.019343585 -0.01534308 0.019225927 -0.026195649
00000000: f311 d7bc 259b c43a 7076 9ebc 8b61 7bbc
00000010: b17f 9d3c 4298 d6bc

naim.encoder.1.layer_norm_1.weight f4 [6]
0.98733234 0.99149907 0.987013 0.9868974 0.9870902 0.9870164
00000000: d0c1 7c3f e2d2 7d3f e2ac 7c3f 4fa5 7c3f
00000010: f1b1 7c3f 1bad 7c3f

naim.encoder.1.layer_norm_1.bias f4 [6]
0.0043458496 -0.0046014385 -0.0039739944 0.00077988405 -0.005646598 0.0041245595
00000000: a167 8e3b aac7 96bb 4838 82bb 2271 4c3a
00000010: 1907 b9bb 5027 873b

naim.encoder.1.attn.linear_q.weight f4 [6, 6]
-0.28512785 -0.118127935 -0.1684258 0.08799929 0.24887557 0.053149022 0.0042222817 0.18312503
0.23089743 0.0048439037 -0.26278338 -0.3407815 0.3947002 0.12005812 0.3611845 -0.14431366
0.1029246 -0.20199658 -0.20209475 -0.1739872 0.39496997 0.28477255 -0.23824127 -0.27502015
0.12178487 -0.083527476 0.008836009 0.03934208 -0.34454197 0.0773292 0.0032478056 -0.27280045
-0.3907587 0.19574422 -0.36038795 -0.17089653
00000000: 47fc 91be 0fed f1bd d077 2cbe f938 b43d
00000010: 3dd9 7e3e cab2 593d 115b 8a3b 2185 3b3e
00000020: 6070 6c3e 9cb9 9e3b 8b8b 86be ea7a aebe
00000030: 2516 ca3e 08e1 f53d 2ded b83e f6c6 13be
00000040: 22ca d23d 31d8 4ebe edf1 4ebe b329 32be
00000050: 8139 ca3e b5cd 913e 85f5 73be 71cf 8cbe
00000060: 596a f93d 7410 abbd e8c4 103c 2925 213d
00000070: ce67 b0be c65e 9e3d 23d9 543b 80ac 8bbe
00000080: 8611 c8be 2c71 483e c584 b8be 80ff 2ebe

naim.encoder.1.attn.linear_k.weight f4 [6, 6]
0.23517409 -0.25953302 -0.18037575 -0.24475041 0.22735488 0.11333553 0.029651575 0.13099037
0.10382576 -0.07367497 -0.024769353 -0.24260695 -0.17924108 0.011720792 -0.036934584 0.09056454
0.18094948 0.3004364 0.378148 -0.020598816 0.14869526 -0.317625 0.22354423 -0.09645148
-0.31117085 -0.3050108 -0.3273559 -0.17552151 0.17351751 -0.31994978 -0.03631324 -0.050952606
0.137361 -0.15377387 0.19409832 -0.23955943
00000000: 7ad1 703e 83e1 84be 6cb4 38be da9f 7abe
00000010: b8cf 683e 751c e83d dce7 f23c 5722 063e
00000020: 9aa2 d43d e7e2 96bd 19e9 cabc f56d 78be
00000030: f98a 37be 9108 403c b848 17bd e779 b93d
00000040: d24a 393e cdd2 993e 9d9c c13e d9be a8bc
00000050: 9243 183e be9f a2be c7e8 643e 5b88 c5bd
00000060: c951 9fbe 602a 9cbe 319b a7be e9bb 33be
00000070: 93ae 313e 75d0 a3be 31bd 14bd aeb3 50bd
00000080: 5da8 0c3e e676 1dbe b6c1 463e 114f 75be

naim.encoder.1.attn.linear_v.weight f4 [6, 6]
0.23342973 -0.40675133 -0.27348158 0.14481542 0.06405154 0.28677592 0.2077098 -0.33583677
0.3150036 -0.10121067 -0.06642498 -0.16143154 -0.06726908 -0.37299937 0.031506047 0.29881987
-0.07830487 0.30711666 -0.17570275 0.15910965 0.029351931 -0.14626408 0.3861215 0.02840221
0.013310067 -0.047148157 -0.017161526 0.31685767 -0.052179147 0.23926899 0.14399673 0.25717026
-0.296397 -0.35209683 -0.1217777 -0.10162867
00000000: 3408 6f3e b641 d0be c705 8cbe 7e4a 143e
00000010: 742d 833d 4bd4 923e e1b1 543e ccf2 abbe
00000020: 2748 a13e 8a47 cfbd d209 88bd 4f4e 25be
00000030: 5fc4 89bd c6f9 bebe 7c0c 013d ebfe 983e
00000040: 4e5e a0bd 653e 9d3e 6ceb 33be a4ed 223e
00000050: 7673 f03c 40c6 15be b8b1 c53e c0ab e83c
00000060: 7812 5a3c 6d1e 41bd 5496 8cbc 2b3b a23e
00000070: cdb9 55bd ee02 753e e173 133e d2ab 833e
00000080: 59c1 97be 0946 b4be 9666 f9bd b122 d0bd

naim.encoder.1.attn.linear_o.weight f4 [6, 6]
0.39084855 0.3990113 -0.09277373 -0.1882104 0.002318167 0.15936638 0.14157711 0.07816371
0.300372 0.04742766 0.32706785 0.0992929 -0.033722244 0.33465165 0.015565342 0.018730959
-0.07618161 0.23738512 -0.12182787 0.31042174 0.21504831 -0.008089183 -0.06778952 0.15422978
-0.38567033 -0.12208358 -0.13135646 -0.03717759 -0.18240142 -0.16337381 0.18117827 -0.030470362
-0.26997617 -0.01681413 0.11887358 -0.15244187
00000000: 4d1d c83e 364b cc3e 2700 bebd 3aba 40be
00000010: 63ec 173b f130 233e 97f9 103e 4c14 a03d
00000020: 5cca 993e 8243 423d 7075 a73e 135a cb3d
00000030: 5620 0abd 7657 ab3e c705 7f3c ab71 993c
00000040: 1b05 9cbd 1615 733e e480 f9bd 99ef 9e3e
00000050: a035 5c3e 7e88 04bc 3bd5 8abd 69ee 1d3e
00000060: 9576 c5be f506 fabd 4f82 06be 8747 18bd
00000070: 70c7 3abe 774b 27be cc86 393e fb9c f9bc
00000080: 513a 8abe c9bd 89bc fe73 f33d b919 1cbe

naim.encoder.1.layer_norm_2.weight f4 [6]
0.99463195 0.99074036 0.9887708 0.9945988 0.9988556 0.9974073
00000000: 33a0 7e3f 29a1 7d3f 1520 7d3f 079e 7e3f
00000010: 00b5 7f3f 1656 7f3f

naim.encoder.1.layer_norm_2.bias f4 [6]
0.004342421 0.0050590495 0.0020887288 -0.0018424317 -0.0063059013 -0.0035952663
00000000: de4a 8e3b 62c6 a53b 0ee3 083b c07d f1ba
00000010: bca1 cebb 8f9e 6bbb

naim.encoder.1.ff.0.weight f4 [1000, 6]
0.33432803 -0.27056506 0.34458843 0.15274547 -0.22326069 -0.37338173 0.14969063 -0.06752106
0.11259208 0.17186862 -0.26378885 0.049477965 -0.081838 -0.3545827 0.06356379 0.08505317
-0.29957503 0.37122998 0.20670602 0.22024569 -0.3429455 -0.33985406 0.16385882 0.22354235
-0.33749294 0.3790408 -0.08042746 -0.31798446 -0.2865468 -0.08176832 0.21061501 -0.26912048
0.28967318 0.39553624 0.37085378 0.17401296 -0.158718 -0.14841124 0.28119045 -0.078413606
0.056209326 0.39869776 -0.3937263 -0.08751516 -0.14981113 -0.061057243 0.010453181 -0.07911165
0.38364014 0.15309049 -0.24569619 0.38353226 -0.106484346 0.04737464 0.04072591 -0.2876109
0.19501118 -0.23556472 -0.35108054 0.33023638 0.2364 -0.1590938 -0.27931288 0.35626587
0.13246047 -0.25799447 -0.33035183 -0.15731089 -0.21521698 0.020319324 0.039311823 -0.38740718
0.1962574 0.1951064 -0.35698655 0.31569615 -0.14996567 0.19728632 0.38746262 0.229077
0.26102182 0.0149782 0.048328638 -0.33426538 -0.28315613 0.31617662 -0.36010617 0.16872756
-0.22752717 0.34079525 0.28832522 -0.08407833 -0.04419222 -0.27074128 0.36787617 -0.23357041
0.13437817 0.27723274 -0.38015252 -0.38851896 -0.27384233 -0.057272043 0.24305086 -0.11137627
-0.155766 0.25872877 0.3145764 0.20718496 0.34067872 -0.35566616 -0.35238034 0.07043993
-0.33013865 -0.10203204 0.23562315 0.38409704 -0.07131956 -0.34708515 -0.18883105 0.38418356
-0.06346767 -0.36688656 -0.20327921 -0.24166925 -0.093826085 -0.28257957 -0.1254416 0.36149746
-0.18071772 -0.07667103 0.2165882 -0.36860624 -0.20229775 -0.03543436 0.31170446 0.051113367
-0.004221221 -0.12569852 0.18180726 -0.16524094 -0.058335695 -0.17038155 0.14007668 0.39487496
-0.29607365 -0.022540735 -0.022226384 -0.20112933 -0.27825844 -0.1612699 -0.31158093 0.29885745
-0.27658302 0.236942 0.3248537 -0.06975059 0.3675899 0.28265628 -0.2718185 0.22088535
0.094948 0.3090301 -0.297554 0.30519488 0.04889986 0.18741532 -0.21461798 0.2596856
-0.018915523 0.32386854 0.027198553 0.24073786 -0.24524619 -0.34893557 0.1395522 0.20980325
0.10290875 0.118406735 0.25708845 -0.19760221 0.20547844 0.18434894 -0.1620005 -0.23033811
-0.39236653 0.28777733 0.00024176492 0.081993684 -0.27594382 -0.29407752 0.32226396 0.27499318
0.21401915 0.31628945 0.31757882 0.22999182 0.28246093 -0.049824227 0.10475766 -0.33813125
-0.13862085 -0.040131643 -0.014896429 0.39002952 0.3200547 0.117002085 0.3677868 -0.19536804
0.06685623 -0.31089836 -0.33433443 0.20542727 0.11827082 -0.012449545 -0.25121588 0.28141767
-0.036754265 0.26700157 -0.26904228 0.30684158 -0.018789452 -0.12069813 -0.03302419 -0.30261728
-0.073948406 0.023709124 -0.2899687 0.21119763 0.3726186 0.19897614 -0.18942593 -0.2407584
-0.3105151 -0.23879363 0.23062219 0.17512326 -0.14045669 0.011889822 -0.051798515 -7.4783085e-05
-0.39393336 0.33252707 -0.13100682 -0.3394427 -0.010361791 0.11094701 0.17932472 -0.193823
-0.026704948 -0.29328004 -0.29572794 -0.25726706 -0.24748018 0.24483411 -0.3556195 -0.07618498
00000000: 0b2d ab3e 8187 8abe e56d b03e 4f69 1c3e
00000010: 739e 64be e42b bfbe 8048 193e 7b48 8abd
00000020: ad96 e63d 54fe 2f3e 550f 87be 68a9 4a3d
00000030: ae9a a7bd dd8b b5be bb2d 823d 5b30 ae3d
00000040: e661 99be db11 be3e beaa 533e 1688 613e
00000050: 8d96 afbe 5a01 aebe 9bca 273e 49e8 643e
00000060: e0cb acbe a311 c23e 27b7 a4bd dcce a2be
00000070: 43b6 92be 2676 a7bd 76ab 573e 29ca 89be
00000080: 0b50 943e ba83 ca3e 8ce0 bd3e 7430 323e
00000090: f986 22be 1ef9 17be 32f8 8f3e 5097 a0bd
000000a0: c03b 663d 1d22 cc3e 7e96 c9be 263b b3bd
000000b0: 1768 19be 2917 7abd d243 2b3c 4a05 a2bd
000000c0: 7b6c c43e c1c3 1c3e c897 7bbe 575e c43e
000000d0: 7714 dabd e90b 423d 36d0 263d bc41 93be
000000e0: 03b1 473e e137 71be d4c0 b3be be14 a93e
000000f0: d712 723e 7ce9 22be 1902 8fbe 7b68 b63e
00000100: b8a3 073e da17 84be e023 a9be 1b16 21be
00000110: d761 5cbe b674 a63c 6f05 213d 3c5a c6be
00000120: b3f7 483e f9c9 473e f1c6 b6be eda2 a13e
00000130: 9a90 19be 6d05 4a3e 8061 c63e 2993 6a3e
00000140: a7a4 853e 2067 753c 40f4 453d d524 abbe
00000150: d7f9 90be e7e1 a13e d65f b8be ebc6 2c3e
00000160: e2fc 68be b77c ae3e 5d9f 933e 4231 acbd
00000170: e702 35bd 9a9e 8abe 445a bc3e 152d 6fbe
00000180: 6e9a 093e 73f1 8d3e 5aa3 c2be f5eb c6be
00000190: 1035 8cbe 1796 6abd 53e2 783e 3e19 e4bd
000001a0: 1f81 1fbe 1978 843e 2810 a13e 4b28 543e
000001b0: 716d ae3e e019 b6be 326b b4be cf42 903d
000001c0: ef07 a9be 2df6 d0bd 3247 713e 5ea8 c43e
000001d0: fd0f 92bd 25b5 b1be ed5c 41be b5b3 c43e
000001e0: 56fb 81bd 8ed8 bbbe 6d28 50be 2578 77be
000001f0: e427 c0bd 45ae 90be c373 00be 3216 b93e
00000200: 110e 39be b305 9dbd 4cc9 5d3e f5b9 bcbe
00000210: 2427 4fbe 9f23 11bd ba97 9f3e 405c 513d
00000220: 2b52 8abb 1db7 00be af2b 3a3e ec34 29be
00000230: 69f1 6ebd 8078 2ebe 4370 0f3e 0d2d ca3e
00000240: f796 97be 59a7 b8bc 1b14 b6bc d9f4 4dbe
00000250: e477 8ebe f023 25be 8987 9fbe d803 993e
00000260: 4a9c 8dbe eca0 723e 3953 a63e 66d9 8ebd
00000270: be34 bc3e 53b8 903e cb2b 8bbe c52f 623e
00000280: 1974 c23d 3139 9e3e ff58 98be 8142 9c3e
00000290: 384b 483d cde9 3f3e d1c4 5bbe 83f5 843e
000002a0: baf4 9abc 19d2 a53e 80cf de3c fc83 763e
000002b0: d121 7bbe afa7 b2be c6e6 0e3e aad6 563e
000002c0: d3c1 d23d 3b7f f23d 19a1 833e 3c58 4abe
000002d0: f168 523e f8c5 3c3e 76e3 25be c1dd 6bbe
000002e0: 44e4 c8be 8d57 933e 4782 7d39 4eec a73d
000002f0: 8248 8dbe 5491 96be c8ff a43e e8cb 8c3e
00000300: d627 5b3e b1f0 a13e b199 a23e fa82 6b3e
00000310: b89e 903e 7d14 4cbd 2f8b d63d 8a1f adbe
00000320: a0f2 0dbe 1461 24bd 2710 74bc f3b1 c73e
00000330: 36de a33e ca9e ef3d 8d4e bc3e 8f0e 48be
00000340: ebeb 883d 122e 9fbe e22d abbe 875b 523e
00000350: f937 f23d 2df9 4bbc 5e9f 80be fa15 903e
00000360: a48b 16bd 6eb4 883e e9bf 89be 571a 9d3e
00000370: 56ec 99bc 9530 f7bd 6044 07bd a7f0 9abe
00000380: 4372 97bd a339 c23c c776 94be 3144 583e
00000390: ddc7 be3e 67c0 4b3e dff8 41be 5f89 76be
000003a0: d6fb 9ebe 5186 74be 3928 6c3e 8353 333e
000003b0: e1d3 0fbe 87cd 423c ae2a 54bd ddd4 9cb8
000003c0: a2b1 c9be fd40 aa3e a726 06be 6fcb adbe
000003d0: 80c4 29bc 3038 e33d e6a0 373e 8979 46be
000003e0: 56c4 dabc cd28 96be a769 97be 82b8 83be
000003f0: 726b 7dbe cbb5 7a3e c213 b6be df06 9cbd
