outputs/2025-03-23/17-27-30/outputs/model_epoch_30.pt (torch, 377354 bytes, 140 tensors)

naim.embeddings.0.embeddings.weight f4 [2, 6]
0	0x3e9348fe	0.28766626
1	0xbe976465	-0.29568782
2	0xbe1f9cad	-0.15587111
3	0x3e81b197	0.25330803
4	0x3e9b2c3d	0.3030719
5	0x3e634d49	0.2219745
6	0x00000000	0.0
7	0x00000000	0.0
8	0x00000000	0.0
9	0x00000000	0.0
10	0x00000000	0.0
11	0x00000000	0.0

naim.embeddings.1.embeddings.weight f4 [2, 6]
0	0x3c9314c0	0.01795423
1	0xbb3474f0	-0.002753552
2	0xbdabbdb1	-0.0838579
3	0x3e6771b3	0.22601967
4	0x3de8ed35	0.11373369
5	0xbd575664	-0.052572623
6	0x00000000	0.0
7	0x00000000	0.0
8	0x00000000	0.0
9	0x00000000	0.0
10	0x00000000	0.0
11	0x00000000	0.0

naim.embeddings.2.embeddings.weight f4 [2, 6]
0	0x3f1c5d06	0.6107944
1	0x3c500de8	0.012698628
2	0xbc92b5ff	-0.017909048
3	0x3efaabbd	0.4895915
4	0xbe1bd521	-0.15218021
5	0x3e7e810b	0.24853913
6	0x00000000	0.0
7	0x00000000	0.0
8	0x00000000	0.0
9	0x00000000	0.0
10	0x00000000	0.0
11	0x00000000	0.0

naim.embeddings.3.embeddings.weight f4 [2, 6]
0	0x3ed7b6cc	0.4213165
1	0xbe63411a	-0.22192803
2	0x3c8b98a9	0.017040567
3	0x3eabad44	0.3353063
4	0x3d011c74	0.031521276
5	0x3b0d5552	0.0021565747
6	0x00000000	0.0
7	0x00000000	0.0
8	0x00000000	0.0
9	0x00000000	0.0
10	0x00000000	0.0
11	0x00000000	0.0

naim.embeddings.4.embeddings.weight f4 [2, 6]
0	0xbe852bf4	-0.26010096
1	0xbe2dde3d	-0.16979308
2	0xbdee87ce	-0.116469964
3	0x3ddf77b3	0.10911503
4	0x3d88e287	0.06683832
5	0x3c364425	0.011124645
6	0x00000000	0.0
7	0x00000000	0.0
8	0x00000000	0.0
9	0x00000000	0.0
10	0x00000000	0.0
11	0x00000000	0.0

naim.embeddings.5.embeddings.weight f4 [2, 6]
0	0xbe8a672f	-0.27031848
1	0x3c51885a	0.012788856
2	0x3efca211	0.49342397
3	0x3e479e30	0.19493937
4	0xbeab0d76	-0.33408707
5	0x3d61aacc	0.055094525
6	0x00000000	0.0
7	0x00000000	0.0
8	0x00000000	0.0
9	0x00000000	0.0
10	0x00000000	0.0
11	0x00000000	0.0

naim.embeddings.6.embeddings.weight f4 [2, 6]
0	0xbebcbe0a	-0.36863738
1	0xbd0189f5	-0.031625707
2	0xbd46cb57	-0.048533764
3	0xbe025dd2	-0.12731102
4	0x3da770a0	0.081757784
5	0x3ef9e181	0.48804858
6	0x00000000	0.0
7	0x00000000	0.0
8	0x00000000	0.0
9	0x00000000	0.0
10	0x00000000	0.0
11	0x00000000	0.0

naim.embeddings.7.embeddings.weight f4 [2, 6]
0	0xbe982658	-0.29716754
1	0xbbdf9fe6	-0.0068244813
2	0x3d911287	0.07083612
3	0xbf0673ac	-0.5252025
4	0xbcc24411	-0.023714097
5	0x3ebd077e	0.3691978
6	0x00000000	0.0
7	0x00000000	0.0
8	0x00000000	0.0
9	0x00000000	0.0
10	0x00000000	0.0
11	0x00000000	0.0

naim.embeddings.8.embeddings.weight f4 [2, 6]
0	0x3ea9805f	0.33105752
1	0xbcb67f09	-0.022277372
2	0x3e074e7b	0.13213532
3	0xbeae076a	-0.3399003
4	0xbdc387ff	-0.095474236
5	0x3dff4d5f	0.12465929
6	0x00000000	0.0
7	0x00000000	0.0
8	0x00000000	0.0
9	0x00000000	0.0
10	0x00000000	0.0
11	0x00000000	0.0

naim.embeddings.9.embeddings.weight f4 [2, 6]
0	0x3e3bfba4	0.18357712
1	0xbd698e18	-0.057020277
2	0x3d855896	0.06511037
3	0xbe8939be	-0.26801866
4	0xbeb73b22	-0.35787302
5	0xbcd9ed8d	-0.02660253
6	0x00000000	0.0
7	0x00000000	0.0
8	0x00000000	0.0
9	0x00000000	0.0
10	0x00000000	0.0
11	0x00000000	0.0

naim.embeddings.10.embeddings.weight f4 [2, 6]
0	0x3dcdf34f	0.10056173
1	0x3ce12d95	0.027487556
2	0x3e1680e4	0.14697605
3	0x3e3d98c9	0.18515314
4	0x3c95a351	0.018266352
5	0x3ea38663	0.31938466
6	0x00000000	0.0
7	0x00000000	0.0
8	0x00000000	0.0
9	0x00000000	0.0
10	0x00000000	0.0
11	0x00000000	0.0

naim.embeddings.11.embeddings.weight f4 [2, 6]
0	0x3d966d6a	0.07345088
1	0xbd96684f	-0.07344114
2	0xbeaabec3	-0.33348665
3	0xbeb204b7	-0.34769222
4	0xbb5a6ffd	-0.003333091
5	0xbe68e570	-0.22743773
6	0x00000000	0.0
7	0x00000000	0.0
8	0x00000000	0.0
9	0x00000000	0.0
10	0x00000000	0.0
11	0x00000000	0.0

naim.embeddings.12.embeddings.weight f4 [2, 6]
0	0x3e247d8a	0.16063514
1	0xbe4a69a9	-0.19766869
2	0x3d8fe159	0.070254035
3	0x3ec6d5ca	0.38834983
4	0x3edbad9f	0.429059
5	0x3dbd58a3	0.09245422
6	0x00000000	0.0
7	0x00000000	0.0
8	0x00000000	0.0
9	0x00000000	0.0
10	0x00000000	0.0
11	0x00000000	0.0

naim.embeddings.13.embeddings.weight f4 [2, 6]
0	0xbdc697d3	-0.09696927
1	0xbc555a47	-0.013022012
2	0xbe06d1fe	-0.13166043
3	0x3ed463f2	0.41482502
4	0xbd366c8f	-0.044537123
5	0x3e54cdf2	0.20781687
6	0x00000000	0.0
7	0x00000000	0.0
8	0x00000000	0.0
9	0x00000000	0.0
10	0x00000000	0.0
11	0x00000000	0.0

naim.embeddings.14.embeddings.weight f4 [2, 6]
0	0x3e32051f	0.17384766
1	0x3ef6d55d	0.48209658
2	0xbd817add	-0.063222624
3	0x3d24019f	0.04004061
4	0x3eeeb514	0.46622527
5	0xbc060613	-0.008180159
6	0x00000000	0.0
7	0x00000000	0.0
8	0x00000000	0.0
9	0x00000000	0.0
10	0x00000000	0.0
11	0x00000000	0.0

naim.embeddings.15.embeddings.weight f4 [2, 6]
0	0xbebe8504	-0.37210858
1	0x3e47748a	0.1947805
2	0x3d0ae2f5	0.03390785
3	0xbe43a515	-0.19105943
4	0xbdc4e995	-0.09614865
5	0x3eb16e04	0.34654248
6	0x00000000	0.0
7	0x00000000	0.0
8	0x00000000	0.0
9	0x00000000	0.0
10	0x00000000	0.0
11	0x00000000	0.0

naim.embeddings.16.embeddings.weight f4 [2, 6]
0	0x3e8e8eca	0.27843314
1	0x3cfe3cbc	0.03103482
2	0x3d98a50f	0.074533574
3	0xbe4b7584	-0.19869047
4	0x3dd44fe2	0.10366799
5	0x3e83798a	0.25678664
6	0x00000000	0.0
7	0x00000000	0.0
8	0x00000000	0.0
9	0x00000000	0.0
10	0x00000000	0.0
11	0x00000000	0.0

naim.embeddings.17.embeddings.weight f4 [2, 6]
0	0x3d99e293	0.07513919
1	0x3d994fb9	0.07485909
2	0x3db622cd	0.088933565
3	0xbe8353c7	-0.25649855
4	0x3e056a3c	0.13028806
5	0xbe426515	-0.18983872
6	0x00000000	0.0
7	0x00000000	0.0
8	0x00000000	0.0
9	0x00000000	0.0
10	0x00000000	0.0
11	0x00000000	0.0

naim.embeddings.18.embeddings.weight f4 [2, 6]
0	0xbe994da3	-0.29942045
1	0xbe5cc53b	-0.21559612
2	0xbdf2c95a	-0.11854811
3	0x3e999f7e	0.30004495
4	0x38d9dfa5	0.000103890234
5	0xbcb814a6	-0.022470783
6	0x00000000	0.0
7	0x00000000	0.0
8	0x00000000	0.0
9	0x00000000	0.0
10	0x00000000	0.0
11	0x00000000	0.0

naim.embeddings.19.embeddings.weight f4 [2, 6]
0	0x3e88da39	0.2672899
1	0xbd608523	-0.05481447
2	0x3e47a751	0.1949742
3	0xbe0c149a	-0.13679734
4	0xbce92b17	-0.02846293
5	0x3c541135	0.012943556
6	0x00000000	0.0
7	0x00000000	0.0
8	0x00000000	0.0
9	0x00000000	0.0
10	0x00000000	0.0
11	0x00000000	0.0

naim.embeddings.20.embeddings.weight f4 [2, 6]
0	0x3e6e6f40	0.23284626
1	0x3da5232a	0.08063348
2	0xbe46e797	-0.19424282
3	0xbec5bffb	-0.38623032
4	0xbd6d21b1	-0.05789346
5	0x3e397928	0.18112624
6	0x00000000	0.0
7	0x00000000	0.0
8	0x00000000	0.0
9	0x00000000	0.0
10	0x00000000	0.0
11	0x00000000	0.0

naim.embeddings.21.embeddings.weight f4 [2, 6]
0	0x3d520360	0.05127275
1	0x3cbc0b8c	0.022954725
2	0x3da74c76	0.08168881
3	0xbd21d076	-0.039505444
4	0x3cbe90c8	0.023262396
5	0xbe0246ba	-0.12722293
6	0x00000000	0.0
7	0x00000000	0.0
8	0x00000000	0.0
9	0x00000000	0.0
10	0x00000000	0.0
11	0x00000000	0.0

naim.embeddings.22.embeddings.weight f4 [2, 6]
0	0x3e912f0c	0.28356206
1	0xbdefd3ef	-0.11710345
2	0xbc06d1c0	-0.008228719
3	0x3ed320c2	0.4123593
4	0x3e6ca2d2	0.23108986
5	0xbdcc1c22	-0.099663034
6	0x00000000	0.0
7	0x00000000	0.0
8	0x00000000	0.0
9	0x00000000	0.0
10	0x00000000	0.0
11	0x00000000	0.0

naim.embeddings.23.embeddings.weight f4 [2, 6]
0	0x3e247602	0.16060641
1	0xbc79835f	-0.015229075
2	0xbe035821	-0.12826587
3	0x3f098f63	0.53734416
4	0x3b7ec814	0.003887658
5	0xbe436272	-0.19080523
6	0x00000000	0.0
7	0x00000000	0.0
8	0x00000000	0.0
9	0x00000000	0.0
10	0x00000000	0.0
11	0x00000000	0.0

naim.embeddings.24.embeddings.weight f4 [2, 6]
0	0x3d476f5b	0.04869018
1	0x3d89cb0c	0.06728181
2	0xbe065c10	-0.13121057
3	0x3e658e2e	0.22417518
4	0xbf1f6d1a	-0.6227585
5	0x3cab4a13	0.020909345
6	0x00000000	0.0
7	0x00000000	0.0
8	0x00000000	0.0
9	0x00000000	0.0
10	0x00000000	0.0
11	0x00000000	0.0

naim.embeddings.25.embeddings.weight f4 [2, 6]
0	0x3eac504e	0.33655018
1	0xbd6830d7	-0.056687202
2	0x3efbd8d7	0.49188873
3	0x3ebacbac	0.36483514
4	0x3dc80ea6	0.09768419
5	0x3bcee89f	0.0063143517
6	0x00000000	0.0
7	0x00000000	0.0
8	0x00000000	0.0
9	0x00000000	0.0
10	0x00000000	0.0
11	0x00000000	0.0

naim.embeddings.26.embeddings.weight f4 [2, 6]
0	0x3e19c134	0.15015107
1	0xbea92635	-0.33036962
2	0xbe888de3	-0.2667075
3	0x3e6971c3	0.22797303
4	0x3e8477cb	0.25872645
5	0x3e8081b4	0.25098956
6	0x00000000	0.0
7	0x00000000	0.0
8	0x00000000	0.0
9	0x00000000	0.0
10	0x00000000	0.0
11	0x00000000	0.0

naim.embeddings.27.embeddings.weight f4 [2, 6]
0	0xbda2b39f	-0.07944416
1	0x3e40498c	0.18778056
2	0xbe62cedf	-0.22149228
3	0xbee29f48	-0.44262147
4	0xbd9aca33	-0.07558098
5	0x3d0be4cf	0.034153756
6	0x00000000	0.0
7	0x00000000	0.0
8	0x00000000	0.0
9	0x00000000	0.0
10	0x00000000	0.0
11	0x00000000	0.0

naim.embeddings.28.embeddings.weight f4 [2, 6]
0	0xbe31d38a	-0.17365852
1	0x3e0a3181	0.13495447
2	0xbdf85601	-0.12125779
3	0xbe9cc39d	-0.3061799
4	0x3e023447	0.12715255
5	0xbda8b587	-0.082377486
6	0x00000000	0.0
7	0x00000000	0.0
8	0x00000000	0.0
9	0x00000000	0.0
10	0x00000000	0.0
11	0x00000000	0.0

naim.embeddings.29.embeddings.weight f4 [2, 6]
0	0xbe8e0d4c	-0.2774452
1	0x3b5a92d3	0.0033351674
2	0x3eb200d1	0.34766248
3	0xbd42522e	-0.047441654
4	0x3ca330d5	0.019920746
5	0xbe433085	-0.19061477
6	0x00000000	0.0
7	0x00000000	0.0
8	0x00000000	0.0
9	0x00000000	0.0
10	0x00000000	0.0
11	0x00000000	0.0

naim.embeddings.30.embeddings.weight f4 [2, 6]
0	0xbd1b6d81	-0.037946228
1	0x3dca0f0a	0.0986615
2	0x3e1e6548	0.15468323
3	0xbe6827f7	-0.22671495
4	0x3cddc54c	0.027071618
5	0xbe952b3e	-0.29134554
6	0x00000000	0.0
7	0x00000000	0.0
8	0x00000000	0.0
9	0x00000000	0.0
10	0x00000000	0.0
11	0x00000000	0.0

naim.embeddings.31.embeddings.weight f4 [2, 6]
0	0x3e2af296	0.16694102
1	0xbd3c0c3c	-0.045910105
2	0x3c077092	0.008266585
3	0xbd9d5609	-0.076824255
4	0xbd985156	-0.074373886
5	0xbe127cd8	-0.14305437
6	0x00000000	0.0
7	0x00000000	0.0
8	0x00000000	0.0
9	0x00000000	0.0
10	0x00000000	0.0
11	0x00000000	0.0

naim.embeddings.32.embeddings.weight f4 [2, 6]
0	0x3da6af97	0.0813896
1	0x3e23bd75	0.15990241
2	0xbe0166cb	-0.12636869
3	0xbee574b8	-0.44815612
4	0x3e064e9c	0.13115925
5	0xbdcc59cc	-0.09978065
6	0x00000000	0.0
7	0x00000000	0.0
8	0x00000000	0.0
9	0x00000000	0.0
10	0x00000000	0.0
11	0x00000000	0.0

naim.embeddings.33.embeddings.weight f4 [2, 6]
0	0x3c631b1b	0.013861443
1	0xbdd5d892	-0.10441698
2	0xbe71163f	-0.23543642
3	0xbe7dd9c3	-0.24790101
4	0xbd81ccaf	-0.063378684
5	0x3ece2d23	0.40268812
6	0x00000000	0.0
7	0x00000000	0.0
8	0x00000000	0.0
9	0x00000000	0.0
10	0x00000000	0.0
11	0x00000000	0.0

naim.embeddings.34.embeddings.weight f4 [2, 6]
0	0xbe140363	-0.14454417
1	0x3c5cb19f	0.013470083
2	0x3ecf0f1e	0.4044122
3	0xbd003e2c	-0.03130929
4	0xbe1ad878	-0.15121639
5	0x3d5556e0	0.052084804
6	0x00000000	0.0
7	0x00000000	0.0
8	0x00000000	0.0
9	0x00000000	0.0
10	0x00000000	0.0
11	0x00000000	0.0

naim.embeddings.35.embeddings.weight f4 [2, 6]
0	0x3de6d1ac	0.112704605
1	0xbcabcd11	-0.020971807
2	0x3e1771e2	0.14789537
3	0x3e56ccd1	0.20976569
4	0x3e4e68c1	0.20157148
5	0xbe8c0476	-0.27347153
6	0x00000000	0.0
7	0x00000000	0.0
8	0x00000000	0.0
9	0x00000000	0.0
10	0x00000000	0.0
11	0x00000000	0.0

naim.embeddings.36.embeddings.weight f4 [2, 6]
0	0xbd554045	-0.052063245
1	0x3e45dc59	0.19322337
2	0xbe8fe014	-0.28100646
3	0xbd150ea2	-0.036390908
4	0x3d302b4b	0.043010037
5	0x3d006ce1	0.031353835
6	0x00000000	0.0
7	0x00000000	0.0
8	0x00000000	0.0
9	0x00000000	0.0
10	0x00000000	0.0
11	0x00000000	0.0

naim.embeddings.37.embeddings.weight f4 [2, 6]
0	0x3c8f51d2	0.01749507
1	0xbe48f3f7	-0.19624315
2	0xbdbc5926	-0.09196691
3	0xbdb5fd01	-0.08886147
4	0x3e6977a7	0.2279955
5	0x3dc562bf	0.09637975
6	0x00000000	0.0
7	0x00000000	0.0
8	0x00000000	0.0
9	0x00000000	0.0
10	0x00000000	0.0
11	0x00000000	0.0

naim.embeddings.38.embeddings.weight f4 [2, 6]
0	0x3d67b987	0.056573417
1	0xbd3196b7	-0.043356624
2	0x3bfd1c30	0.0077243075
3	0x3e53b024	0.20672661
4	0x3b5efa2f	0.0034023633
5	0x3d1a5aca	0.03768424
6	0x00000000	0.0
7	0x00000000	0.0
8	0x00000000	0.0
9	0x00000000	0.0
10	0x00000000	0.0
11	0x00000000	0.0

naim.embeddings.39.embeddings.weight f4 [2, 6]
0	0x3c8882d1	0.01666394
1	0xbd4d8858	-0.050178856
2	0x3e6f006f	0.23340009
3	0xbea6f1e6	-0.3260643
4	0x3d885397	0.066565685
5	0x3de55788	0.11198336
6	0x00000000	0.0
7	0x00000000	0.0
8	0x00000000	0.0
9	0x00000000	0.0
10	0x00000000	0.0
11	0x00000000	0.0

naim.embeddings.40.embeddings.weight f4 [2, 6]
0	0xbd86f18e	-0.06589042
1	0x3dee13d2	0.11624874
2	0x3d92fed4	0.07177511
3	0xbdfee87e	-0.12446688
4	0xbd5745e5	-0.05255689
5	0xbe7d786e	-0.24752972
6	0x00000000	0.0
7	0x00000000	0.0
8	0x00000000	0.0
9	0x00000000	0.0
10	0x00000000	0.0
11	0x00000000	0.0

naim.embeddings.41.embeddings.weight f4 [2, 6]
0	0xbd5caa65	-0.05387344
1	0xbd3cea69	-0.04612199
2	0x3df148cd	0.11781464
3	0x3dcbc938	0.09950489
4	0x3e320127	0.17383252
5	0x3eac62f9	0.3366926
6	0x00000000	0.0
7	0x00000000	0.0
8	0x00000000	0.0
9	0x00000000	0.0
10	0x00000000	0.0
11	0x00000000	0.0

naim.embeddings.42.embeddings.weight f4 [2, 6]
0	0xbe0c9ca1	-0.13731624
1	0x3ed30e84	0.41222012
2	0x3d256549	0.040379796
3	0x3e1da8f8	0.15396488
4	0x3c92523a	0.017861474
5	0xbdce9d58	-0.10088605
6	0x00000000	0.0
7	0x00000000	0.0
8	0x00000000	0.0
9	0x00000000	0.0
10	0x00000000	0.0
11	0x00000000	0.0

naim.embeddings.43.embeddings.weight f4 [2, 6]
0	0xbdf762d9	-0.120794006
1	0x3b1e5964	0.0024162168
2	0x3eb75a21	0.3581095
3	0x3e81ae45	0.2532827
4	0x3e260522	0.16212896
5	0xbd4d7b6e	-0.05016654
6	0x00000000	0.0
7	0x00000000	0.0
8	0x00000000	0.0
9	0x00000000	0.0
10	0x00000000	0.0
11	0x00000000	0.0

naim.embeddings.44.embeddings.weight f4 [2, 6]
0	0x398da4d1	0.00027016414
1	0x3de1dc7a	0.11028381
2	0x3dd85628	0.10563308
3	0xbe899ce2	-0.26877505
4	0x3d98fa4f	0.074696176
5	0x3ea6e72b	0.32598242
6	0x00000000	0.0
7	0x00000000	0.0
8	0x00000000	0.0
9	0x00000000	0.0
10	0x00000000	0.0
11	0x00000000	0.0

naim.embeddings.45.embeddings.weight f4 [2, 6]
0	0xbe8ea4fa	-0.27860242
1	0xbee3b199	-0.44471434
2	0xbe008946	-0.12552366
3	0x3d05dd2c	0.03268163
4	0xbe3eaa51	-0.18619658
5	0xbe622c49	-0.22087206
6	0x00000000	0.0
7	0x00000000	0.0
8	0x00000000	0.0
9	0x00000000	0.0
10	0x00000000	0.0
11	0x00000000	0.0

naim.embeddings.46.embeddings.weight f4 [2, 6]
0	0xbcdcbb2b	-0.026944717
1	0x3dd31df1	0.10308445
2	0x3e9607a2	0.29302698
3	0xbdd0532b	-0.10172113
4	0x3e1be678	0.15224636
5	0x3e131c86	0.1436635
6	0x00000000	0.0
7	0x00000000	0.0
8	0x00000000	0.0
9	0x00000000	0.0
10	0x00000000	0.0
11	0x00000000	0.0

naim.embeddings.47.embeddings.weight f4 [2, 6]
0	0x3dd5d518	0.10441035
1	0xbd324bc7	-0.0435293
2	0xbe94a7ba	-0.29034215
3	0xbe192a53	-0.14957552
4	0x3ddabb53	0.106802605
5	0xbe14ceb5	-0.14531977
6	0x00000000	0.0
7	0x00000000	0.0
8	0x00000000	0.0
9	0x00000000	0.0
10	0x00000000	0.0
11	0x00000000	0.0

naim.embeddings.48.embeddings.weight f4 [2, 6]
0	0x3c96deac	0.018416725
1	0x3e30c451	0.17262389
2	0x3d8ff026	0.070282266
3	0x3e82ff09	0.255852
4	0x3f1ef73b	0.62095994
5	0x3eaac5ac	0.33353937
6	0x00000000	0.0
7	0x00000000	0.0
8	0x00000000	0.0
9	0x00000000	0.0
10	0x00000000	0.0
11	0x00000000	0.0

naim.embeddings.49.embeddings.weight f4 [2, 6]
0	0xbe1f2ef8	-0.15545261
1	0x3e119c9e	0.14219901
2	0x3e37e69d	0.17959066
3	0xbd8d3d31	-0.06896437
4	0xbe556f1e	-0.20843169
5	0x3e96302b	0.29333624
6	0x00000000	0.0
7	0x00000000	0.0
8	0x00000000	0.0
9	0x00000000	0.0
10	0x00000000	0.0
11	0x00000000	0.0

naim.embeddings.50.embeddings.weight f4 [2, 6]
0	0x3e732a6d	0.23746653
1	0x3e38575a	0.18002072
2	0xbd0a9d0b	-0.033841174
3	0xbdc8a62d	-0.097973205
4	0xbd1db14e	-0.03849917
5	0xbe9b5bba	-0.3034342
6	0x00000000	0.0
7	0x00000000	0.0
8	0x00000000	0.0
9	0x00000000	0.0
10	0x00000000	0.0
11	0x00000000	0.0

naim.embeddings.51.embeddings.weight f4 [2, 6]
0	0x3d5b9add	0.053614486
1	0x3d1e34d5	0.038624603
2	0x3e7b5069	0.24542393
3	0xbebe9a23	-0.37226972
4	0x3e177353	0.14790086
5	0xbdc2dbd6	-0.09514587
6	0x00000000	0.0
7	0x00000000	0.0
8	0x00000000	0.0
9	0x00000000	0.0
10	0x00000000	0.0
11	0x00000000	0.0

naim.embeddings.52.embeddings.weight f4 [2, 6]
0	0x3de2e6f2	0.110792056
1	0xbda4c8df	-0.080461256
2	0xbe2efa80	-0.17087746
3	0xbe0840aa	-0.13305917
4	0x3c152e38	0.009105258
5	0xbe3f1a2f	-0.18662332
6	0x00000000	0.0
7	0x00000000	0.0
8	0x00000000	0.0
9	0x00000000	0.0
10	0x00000000	0.0
11	0x00000000	0.0

naim.embeddings.53.embeddings.weight f4 [2, 6]
0	0xbe684a63	-0.22684626
1	0xbdba2bdd	-0.090903975
2	0x3dd832fc	0.105565995
3	0xbd12ce9f	-0.03584158
4	0x3f25b906	0.6473545
5	0xbbf53a55	-0.0074837604
6	0x00000000	0.0
7	0x00000000	0.0
8	0x00000000	0.0
9	0x00000000	0.0
10	0x00000000	0.0
11	0x00000000	0.0

naim.embeddings.54.embeddings.weight f4 [2, 6]
0	0x3e46f46c	0.19429177
1	0x3e8de066	0.27710265
2	0x3e5800ac	0.21094006
3	0x3df35551	0.11881507
4	0xbeae7147	-0.340708
5	0x3d4cad2e	0.049969845
6	0x00000000	0.0
7	0x00000000	0.0
8	0x00000000	0.0
9	0x00000000	0.0
10	0x00000000	0.0
11	0x00000000	0.0

naim.embeddings.55.embeddings.weight f4 [2, 6]
0	0x3ea02024	0.3127452
1	0xbe48f3bc	-0.19624227
2	0xbed6751c	-0.41886222
3	0x3f034978	0.5128398
4	0xbd17914f	-0.03700381
5	0xbe1173bb	-0.14204304
6	0x00000000	0.0
7	0x00000000	0.0
8	0x00000000	0.0
9	0x00000000	0.0
10	0x00000000	0.0
11	0x00000000	0.0

naim.embeddings.56.embeddings.weight f4 [2, 6]
0	0xbe92aa7f	-0.28645703
1	0xbe8e2e78	-0.27769828
2	0x3dfc1797	0.12309187
3	0xbd418af6	-0.047251664
4	0xbe6348c3	-0.22195725
5	0xbd41dda4	-0.047330514
6	0x00000000	0.0
7	0x00000000	0.0
8	0x00000000	0.0
9	0x00000000	0.0
10	0x00000000	0.0
11	0x00000000	0.0

naim.embeddings.57.embeddings.weight f4 [2, 6]
0	0x3e84b139	0.2591646
1	0xbdd7da56	-0.10539691
2	0xbdab8f23	-0.083769105
3	0x3e118517	0.14210926
4	0x3ed8659b	0.4226502
5	0xbb57e97f	-0.003294557
6	0x00000000	0.0
7	0x00000000	0.0
8	0x00000000	0.0
9	0x00000000	0.0
10	0x00000000	0.0
11	0x00000000	0.0

naim.embeddings.58.embeddings.weight f4 [2, 6]
0	0xbd3159dd	-0.04329859
1	0x3c5f83ea	0.013642291
2	0x3d60a8c4	0.054848447
3	0xbdaddca0	-0.084893465
4	0x3de00752	0.10938896
5	0xbe6f6811	-0.23379542
6	0x00000000	0.0
7	0x00000000	0.0
8	0x00000000	0.0
9	0x00000000	0.0
10	0x00000000	0.0
11	0x00000000	0.0

naim.embeddings.59.embeddings.weight f4 [2, 6]
0	0x3e9d1aa0	0.30684376
1	0xbe0cc414	-0.13746673
2	0xbe2a547a	-0.16633788
3	0x3f11d5bc	0.5696676
4	0x3df029af	0.117267005
5	0x3eb2a2e2	0.34889895
6	0x00000000	0.0
7	0x00000000	0.0
8	0x00000000	0.0
9	0x00000000	0.0
10	0x00000000	0.0
11	0x00000000	0.0

naim.embeddings.60.embeddings.weight f4 [2, 6]
0	0xbe891355	-0.26772562
1	0x3c3b2e9a	0.011424685
2	0x3cb6c9ac	0.022312962
3	0x3e8bc8dc	0.2730168
4	0x3e0bfdfd	0.13671108
5	0x3e74f8b6	0.23923
6	0x00000000	0.0
7	0x00000000	0.0
8	0x00000000	0.0
9	0x00000000	0.0
10	0x00000000	0.0
11	0x00000000	0.0

naim.embeddings.61.embeddings.weight f4 [2, 6]
0	0xbe16243e	-0.14662263
1	0x3c14ed43	0.009089771
2	0x3e118cdd	0.14213891
3	0xbdcc599d	-0.0997803
4	0x3e5dd2d6	0.21662459
5	0xbe24a79a	-0.1607956
6	0x00000000	0.0
7	0x00000000	0.0
8	0x00000000	0.0
9	0x00000000	0.0
10	0x00000000	0.0
11	0x00000000	0.0

naim.embeddings.62.embeddings.weight f4 [2, 6]
0	0x3e2cb8a0	0.16867304
1	0x3d1e94b5	0.038716037
2	0xbed3e312	-0.41384178
3	0xbd2e010b	-0.042481463
4	0xbe2a3fdd	-0.16625924
5	0xbe6e6ee6	-0.23284492
6	0x00000000	0.0
7	0x00000000	0.0
8	0x00000000	0.0
9	0x00000000	0.0
10	0x00000000	0.0
11	0x00000000	0.0

naim.embeddings.63.embeddings.weight f4 [2, 6]
0	0x3ef64fa7	0.48107645
1	0x3de78439	0.11304516
2	0xbe0528c0	-0.13003826
3	0x3d947089	0.07248027
4	0xbd9002f1	-0.07031811
5	0xbe003594	-0.12520438
6	0x00000000	0.0
7	0x00000000	0.0
8	0x00000000	0.0
9	0x00000000	0.0
10	0x00000000	0.0
11	0x00000000	0.0

naim.encoder.0.layer_norm_1.weight f4 [6]
0	0x3f41ca98	0.7569976
1	0x3f2a1257	0.66434234
2	0x3f44cdd4	0.7687657
3	0x3f798d7d	0.9748152
4	0x3f4c9b8e	0.7992486
5	0x3f54a90e	0.83070457

naim.encoder.0.layer_norm_1.bias f4 [6]
0	0x3d5b7274	0.053575948
1	0xbd376cc4	-0.04478146
2	0x3d4db60e	0.05022245
3	0xbd573496	-0.052540384
4	0x3d59ab61	0.053141955
5	0xbd48e367	-0.049044993

naim.encoder.0.attn.linear_q.weight f4 [6, 6]
0	0xb87a1c6f	-5.9631126e-05
1	0x37ba0444	2.2174914e-05
2	0xbaaa0dbe	-0.0012974066
3	0xbdde59f1	-0.10856999
4	0x38edfc23	0.00011348005
5	0x3c0e158f	0.008672132
6	0xbbea8a32	-0.0071575874
7	0xbcd296fc	-0.02570676
8	0x3b4375c6	0.0029824837
9	0x3cd82383	0.02638412
10	0xb9479e69	-0.00019037131
11	0xbdb4176e	-0.08793531
12	0xbc7f2ef8	-0.015575163
13	0xbbad105e	-0.005281492
14	0x3bdd692b	0.0067569218
15	0x3db9dff6	0.0907592
16	0xbac7fe14	-0.0015258216
17	0x39153637	0.00014229944
18	0x3c7bcfc2	0.015369358
19	0x3b43096b	0.0029760252
20	0xbb24bb54	-0.002513607
21	0x3cd769f5	0.026295641
22	0x3d3cdea1	0.046110753
23	0xba7dd290	-0.00096825603
24	0xbd703a08	-0.058649093
25	0x3c7bcd06	0.015368706
26	0xbd83af7f	-0.064299576
27	0x3d109269	0.035295878
28	0x3b0d77d3	0.0021586313
29	0xba9a7cb5	-0.0011786433
30	0xbdd5031b	-0.10400983
31	0xbc06e7b3	-0.008233952
32	0x3c626bc4	0.013819639
33	0x3d54601b	0.051849466
34	0x3809e7d0	3.2879238e-05
35	0x3d9ef851	0.07762206

naim.encoder.0.attn.linear_k.weight f4 [6, 6]
0	0x3afc8fe8	0.0019268962
1	0xbc94761b	-0.018122723
2	0x3b47b550	0.003047306
3	0xbc6f7df3	-0.014617431
4	0xbb0bf509	-0.002135577
5	0x3cc202c5	0.023682961
6	0xbc4f0a3a	-0.012636716
7	0xbb3f8d91	-0.0029228667
8	0xbdeab621	-0.114605196
9	0x3da6519b	0.08121034
10	0xbaa3bea1	-0.0012492725
11	0xbd92edfb	-0.071742974
12	0x3c47e6eb	0.012201051
13	0x3b8ac353	0.0042347102
14	0x3c82cd8c	0.015967153
15	0xbcf3e5a6	-0.02977259
16	0x3cb5deb4	0.02220092
17	0xbc6f7d76	-0.014617315
18	0x3b494734	0.0030712606
19	0xba93e79e	-0.0011284237
20	0x3a31a046	0.0006775897
21	0x3d6f27fc	0.05838774
22	0x3b5cc408	0.003368618
23	0x3d45e490	0.048313677
24	0x3d5fd717	0.054648485
25	0xbc0eb774	-0.008710731
26	0x3a27793e	0.0006388611
27	0xbc81bdbe	-0.015837546
28	0x3bb571d2	0.00553725
29	0xba8e8d06	-0.0010875768
30	0x3c52f126	0.012874877
31	0x399905be	0.00029186712
32	0xbcbf73ca	-0.023370642
33	0xbd9c1630	-0.076214194
34	0xbdd17614	-0.102276
35	0xbca65bf5	-0.02030752

naim.encoder.0.attn.linear_v.weight f4 [6, 6]
0	0x3e141135	0.14459689
1	0x3d5e1842	0.054222353
2	0x3ea651de	0.32484335
3	0xbec8ce80	-0.39220047
4	0x3cbbd2d6	0.022927683
5	0xbeb277bf	-0.34856984
6	0xbc893db4	-0.016753055
7	0x3d90e986	0.07075791
8	0xbea463e9	-0.32107475
9	0x3ea9ee9e	0.33189863
10	0xbd23205b	-0.03982578
11	0x3e8b8602	0.27250677
12	0xbd0b9cd3	-0.034085106
13	0x3db0b81c	0.08628866
14	0x3e95f7fe	0.29290766
15	0xbdad12d0	-0.08450854
16	0xbd64233f	-0.055697676
17	0x3e0cba49	0.13742937
18	0xbe424c8d	-0.18974514
19	0x3dedcaab	0.116109215
20	0xbe18b43f	-0.14912508
21	0x3e943b82	0.2895165
22	0xbe142e37	-0.14470755
23	0xbdcd8b6d	-0.10036359
24	0x3e87c91f	0.2652063
25	0xbe3e6277	-0.18592249
26	0x3e29e262	0.16590264
27	0x3e7d7f65	0.24755628
28	0x3ea88601	0.32914737
29	0xbeb54c45	-0.35409752
30	0x3d166bcc	0.036723897
31	0xbdbf5c40	-0.09343767
32	0x3e104ba1	0.1409135
33	0xbeb0def2	-0.34545094
34	0x3e43c382	0.19117549
35	0x3beeb30e	0.0072845286

naim.encoder.0.attn.linear_o.weight f4 [6, 6]
0	0xbcb4b48c	-0.022058748
1	0xbe03cfa7	-0.12872182
2	0x3c87ebbe	0.016591903
3	0xbc216a8b	-0.009852062
4	0x3d954d42	0.072901264
5	0xbb95790d	-0.0045615495
6	0x379d9e89	1.8789682e-05
7	0xadb8c486	-2.1005652e-11
8	0xad8985d9	-1.5634537e-11
9	0xb90410c9	-0.00012594754
10	0xbd906c3e	-0.070518956
11	0x3ca6c01f	0.020355282
12	0xbe7c2437	-0.2462319
13	0x3e2cca52	0.16874054
14	0xbe072967	-0.13199387
15	0x3e30aed1	0.17254187
16	0x3e868f21	0.26281074
17	0xbe65aa8a	-0.22428337
18	0x3eb192c9	0.346823
19	0x3d1fe94e	0.039040856
20	0xbe876ead	-0.26451626
21	0x3e3a8651	0.182153
22	0x3e75a100	0.23987198
23	0x3eb979a5	0.3622562
24	0xbec6ddd2	-0.3884111
25	0x3e8fb0b5	0.28064504
26	0x3e62ea9a	0.22159806
27	0x3e97ee2a	0.29673892
28	0x3e1ff834	0.15622026
29	0xbe5a95e3	-0.2134624
30	0x3eae5376	0.3404805
31	0x3ec9ee6c	0.39439714
32	0xbdcbda5d	-0.09953759
33	0xbc5ae4bf	-0.013360201
34	0x3eb31c86	0.349827
35	0x3eb3a7b5	0.35088888

naim.encoder.0.layer_norm_2.weight f4 [6]
0	0x3f702114	0.93800473
1	0x3f579fae	0.84228027
2	0x3f5b8eab	0.8576457
3	0x3f67e70a	0.9058691
4	0x3f6336c7	0.8875546
5	0x3f6ffe49	0.93747383

naim.encoder.0.layer_norm_2.bias f4 [6]
0	0xbbee2017	-0.007267009
1	0x3cfb303f	0.030662654
2	0xbc688a02	-0.01419306
3	0x3a99dd13	0.0011738859
4	0xbb9cc2c8	-0.004783962
5	0x3b2d8e6d	0.0026482597

naim.encoder.0.ff.0.weight f4 [1000, 6]
0	0x3d0e91e1	0.03480709
1	0x3d4d31cf	0.05009633
2	0xbc8119a9	-0.015759306
3	0x39970fda	0.00028812775
4	0xba0b2446	-0.00053078344
5	0x3c5d8fd1	0.013523058
6	0x3c68fc19	0.014220261
7	0xbd6cf039	-0.05784628
8	0xbc51bd5b	-0.0128014935
9	0xbd99c1b0	-0.07507646
10	0xbdccd70f	-0.10001957
11	0x3dcb441a	0.09925099
12	0xbc80a4f5	-0.015703658
13	0x3caa5343	0.020791655
14	0xba2dd684	-0.00066313916
15	0xbc4419cc	-0.011969041
16	0xbb8b3ae9	-0.004248966
17	0x3d89fcb1	0.0673765
18	0x3c584ef7	0.01320242
19	0x3d9b7267	0.0759018
20	0x3cc6adbd	0.024252767
21	0x3d399e02	0.045316704
22	0xbdb5ba1d	-0.08873389
23	0xbca42a8a	-0.020039815
24	0xbd94b597	-0.07261198
25	0x3ab235a9	0.0013596314
26	0xbb1bc655	-0.0023769338
27	0x3bc93d61	0.00614135
28	0x3db69788	0.08915621
29	0x3c6a5d6d	0.014304501
30	0xbcfd818a	-0.030945558
31	0xbd00c5bb	-0.03143857
32	0x3d3984bb	0.045292597
33	0x3b8ae639	0.0042388705
34	0x3ba37bda	0.0049891295
35	0xbca1c22a	-0.019745905
36	0xbb8c9e24	-0.004291313
37	0x3cc52d7c	0.02406954
38	0xbd49ebc4	-0.04929711
39	0x3d48a3e5	0.048984427
40	0x3cee2fda	0.029075552
41	0xbc93731c	-0.017999224
42	0xbb882572	-0.0041548545
43	0xbb69fa76	-0.0035702265
44	0xbaa73cde	-0.0012759229
45	0x3aa5f859	0.0012662514
46	0x3dce7709	0.10081298
47	0xbdced96f	-0.10100066
48	0xbc995e99	-0.018721865
49	0xbc8ae95c	-0.016956978
50	0xbbf0ecd8	-0.0073524527
51	0xbc32cddb	-0.010913338
52	0xbc82bca2	-0.015959088
53	0x3dad4327	0.08460074
54	0xbd957851	-0.07298339
55	0x3c82dbc9	0.015973942
56	0xbca152c4	-0.019692786
57	0xbb4917c3	-0.003068433
58	0xbdd63291	-0.104588635
59	0xbd8ccacb	-0.06874617
60	0xbd8abfc9	-0.06774861
61	0x3c901430	0.017587751
62	0xbc4ca2f0	-0.012490019
63	0x3c8da49a	0.017290402
64	0xbc3ee713	-0.011651772
65	0xbb4fb611	-0.0031694213
66	0x3bfc576e	0.007700852
67	0x3d8ab44a	0.06772669
68	0xbb618801	-0.003441334
69	0x3c3921ac	0.011299532
70	0x3bed1fef	0.007236473
71	0x3c9711c7	0.018441094
72	0x3cec3177	0.02883218
73	0x3baaae49	0.0052087647
74	0xbb25a874	-0.0025277408
75	0xbbf0ff80	-0.0073546767
76	0x3babd479	0.0052438346
77	0x3c8b42da	0.01699965
78	0x37fbbfbd	3.0010817e-05
79	0x3bdd54b7	0.0067544836
80	0xbcafe528	-0.021471575
81	0x3c65abe7	0.0140180355
82	0xb81fd024	-3.81024e-05
83	0xbd00f004	-0.031478897
84	0xbb8547f8	-0.0040674172
85	0xbd433b15	-0.047663767
86	0x39e48e88	0.00043593743
87	0xbc928596	-0.017885964
88	0xba2c031b	-0.0006561742
89	0xb923ce6c	-0.0001562179
90	0xbcf8a5c6	-0.030352484
91	0xbbffddfb	-0.0078084446
92	0x3ccd939a	0.025094796
93	0x3b3859ec	0.002812977
94	0x3d3737c5	0.04473092
95	0xbcf632ec	-0.030053578
96	0x3c2059f9	0.009787076
97	0xbac67fe1	-0.0015144312
98	0xbcb47a03	-0.022030836
99	0xbb97ef4c	-0.0046366807
100	0x3b85c1bb	0.0040819324
101	0x3a752833	0.00093519985
102	0x3c1e3de3	0.00965831
103	0xbbe1c29c	-0.0068896543
104	0x3c3ce106	0.011528259
105	0xbc2a803f	-0.010406553
106	0xbddd41c0	-0.108035564
107	0x3b33475a	0.0027355761
108	0xbb9e1036	-0.00482371
109	0xbce372d5	-0.027764717
110	0xbca1184d	-0.019664908
111	0xbd71955e	-0.05898034
112	0x3dff08e2	0.12452866
113	0xbdb99802	-0.09062196
114	0x3de2a06c	0.11065754
115	0xbe0a7944	-0.13522822
116	0xbb928c37	-0.0044722813
117	0xbd229523	-0.03969301
118	0xbd24b770	-0.040214002
119	0xbb8106c9	-0.0039375764
120	0x3ce2366f	0.027613847
121	0xbd8bdaa1	-0.068288095
122	0xbb87f2b1	-0.004148804
123	0x3d4cbfcc	0.0499876
124	0x3af42fe4	0.0018629995
125	0xbc922c7e	-0.017843481
126	0x3c16e3fc	0.009209629
127	0xbb222bab	-0.0024745266
128	0xbc89f361	-0.016839685
129	0x3b9e4109	0.00482953
130	0xbaa76fc9	-0.0012774403
131	0xbce3b9ab	-0.027798494
132	0xbc844fd4	-0.016151346
133	0xbc6db084	-0.014507417
134	0x3dec6435	0.115425505
135	0xbc1d059e	-0.009583859
136	0x3c640c7a	0.01391899
137	0x3c135b2b	0.008993904
138	0xbd01f099	-0.031723592
139	0x3d2b8ac6	0.04188039
140	0xba0b3749	-0.00053106673
141	0xba2f8509	-0.0006695544
142	0x3d81b816	0.0633394
143	0xbbe94209	-0.0071184677
144	0x3bbf8c81	0.005845607
145	0xbd9629d2	-0.07332195
146	0x3c6d8e5a	0.014499271
147	0xbc19c956	-0.009386381
148	0xbd832526	-0.0640357
149	0x3c9ac530	0.018892854
150	0x3c25c773	0.010118353
151	0xbd1a81c0	-0.037721395
152	0x3dc2fe03	0.09521105
153	0x3cb7a15e	0.022415813
154	0x3cbc3d7f	0.022978542
155	0xbcf8eeb8	-0.030387267
156	0xbcb773b0	-0.022394031
157	0xbca42b23	-0.0200401
158	0xb98dbee1	-0.00027035832
159	0x3b4a695d	0.0030885555
160	0xbd119942	-0.03554655
161	0x3dd76193	0.10516658
162	0x3c890a44	0.016728528
163	0xba84cc3d	-0.0010131669
164	0x3c21a2d1	0.009865479
165	0xbbd854ea	-0.0066019194
166	0x3a1f60e0	0.0006079804
167	0x3d8475d1	0.06467784
168	0xbd9af242	-0.07565738
169	0xbbe92d06	-0.007115963
170	0x3c0e1a14	0.00867321
171	0xbc25a82d	-0.010110897
172	0xbd6b9db7	-0.057523455
173	0xbd298d57	-0.041394558
174	0x38f12ff9	0.00011500711
175	0xba02defc	-0.00049923337
176	0x38a59204	7.895011e-05
177	0xb9bb03d5	-0.00035670275
178	0x3a0405e0	0.0005036276
179	0xb83cc901	-4.5009892e-05
180	0x3b5aea53	0.0033403828
181	0x3baab76d	0.0052098543
182	0x3a0a6657	0.0005279532
183	0x3d040e41	0.032240156
184	0xbba69378	-0.0050834976
185	0xbc1f2f7d	-0.009715912
186	0x3c98426b	0.018586358
187	0xbdacc537	-0.08436053
188	0x3d40e4e1	0.047093276
189	0x3ce8f8b3	0.028438902
190	0x3bb24e7d	0.0054414854
191	0xbbadf11f	-0.005308285
192	0x3be5bb9a	0.0070108892
193	0xbda6e75a	-0.081495956
194	0xbdabde97	-0.08392065
195	0x3df6bfea	0.120483235
196	0xbda1de16	-0.07903688
197	0xbd996df1	-0.07491673
198	0xbac1367e	-0.0014740971
199	0x3a241fdb	0.00062608504
200	0x3a992e46	0.0011686764
201	0xbc0755f1	-0.008260236
202	0x3a7ab651	0.00095639104
203	0xbb210003	-0.0024566657
204	0x3d93f4df	0.0722444
205	0x3d96d1bf	0.07364225
206	0x3bfbbe7d	0.00768262
207	0xbab9f112	-0.0014186224
208	0x3d41d3f2	0.047321267
209	0xbd701b23	-0.05861963
210	0xba726a35	-0.00092473935
211	0xbc70e0ae	-0.014702005
212	0x3d726e40	0.059187174
213	0xbd9d6228	-0.076847374
214	0xbb34ac76	-0.0027568615
215	0xbd787909	-0.060662303
216	0x3caa12a6	0.020760845
217	0xba492d88	-0.0007674326
218	0x3d91da82	0.07121755
219	0xbd3cf8c0	-0.046135664
220	0x3ccf560a	0.025309581
221	0xbd050d62	-0.032483466
222	0xbbcac76b	-0.0061883233
223	0x3b2b6a35	0.0026155834
224	0xbb865f82	-0.004100741
225	0xbd63478f	-0.055488165
226	0xbd878163	-0.066164754
227	0xbbe8c141	-0.007103116
228	0x3b4634c0	0.0030243844
229	0x3d99f01b	0.075164996
230	0x3d48fdfa	0.049070336
231	0x3900d361	0.00012285776
232	0xbcc0e56d	-0.023546899
233	0xbda4caa5	-0.08046464
234	0x3da77c1c	0.08177969
235	0xbc762d4c	-0.015025448
236	0xbbd3e535	-0.0064665326
237	0xbd6c4f3c	-0.05769275
238	0xbd2e084b	-0.042488378
239	0x3c9a0aed	0.018804038
240	0x337d6a2f	5.9002726e-08
241	0x2e8f94ff	6.529354e-11
242	0xab2a55d3	-6.051524e-13
243	0x2dd76f4b	2.4492094e-11
244	0xb01ba850	-5.662786e-10
245	0x2cb0e536	5.0276684e-12
246	0x3c7d5b28	0.015463628
247	0x3d2c5eab	0.04208247
248	0x3d968b73	0.073508166
249	0xbd712d15	-0.058880884
250	0xbd8ff57f	-0.070292465
251	0xbc3e672f	-0.011621281
252	0x3b8dc211	0.004326113
253	0x3c930fae	0.017951813
254	0x3de90c0d	0.11379252
255	0x3bc0858f	0.0058752964

naim.encoder.0.ff.0.bias f4 [1000]
0	0x3ce48e9e	0.027900036
1	0xbca8da40	-0.020611882
2	0xbc1a2658	-0.009408556
3	0xbc059ea3	-0.008155498
4	0x3d5a2633	0.053259086
5	0xbb091557	-0.002091726
6	0x3e014df9	0.126274
7	0xbc085164	-0.008320186
8	0xbc8a9c6b	-0.016920289
9	0xbc0c753c	-0.008572873
10	0x3d8b252d	0.067942
11	0x3dbe4d50	0.0929209
12	0x3bdf9c2c	0.006824037
13	0xbd6c61ff	-0.057710644
14	0xbd222f2c	-0.039595768
15	0x3b9d7acf	0.0048058997
16	0xbdb626e6	-0.08894138
17	0xbc2becfa	-0.010493511
18	0xbd67b7ad	-0.05657165
19	0x3d826e86	0.06368737
20	0xb91867bc	-0.00014534494
21	0xbd5ea54a	-0.05435685
22	0x3d5cbc44	0.05389048
23	0xbd9dd8c3	-0.0770736
24	0xbc5e2336	-0.0135582
25	0x3e034e07	0.12822734
26	0x3cdcf13d	0.0269705
27	0xbd92a5d8	-0.071605384
28	0xbc0291ed	-0.007969362
29	0xba43c7b4	-0.0007468418
30	0xbb4c0277	-0.00311294
31	0x3e095b66	0.13413772
32	0x3db95e20	0.09051156
33	0xbade13b6	-0.001694313
34	0x3c9cbe38	0.019133672
35	0xbdcd72d0	-0.10031664
36	0x3d4971f9	0.04918096
37	0x3ba07ae2	0.0048974613
38	0xbd0db667	-0.03459778
39	0xbb0553fb	-0.0020344246
40	0xba32a4a1	-0.0006814693
41	0xbca9b1c8	-0.020714656
42	0x3c7878cc	0.015165519
43	0xbc0b28fc	-0.008493658
44	0x3b2ef330	0.0026695244
45	0xbbb695e3	-0.005572067
46	0x3dc42d3d	0.09578941
47	0xbc920fd0	-0.017829806
48	0xbb57c117	-0.0032921487
49	0xbbe93dd8	-0.007117968
50	0xbc2d8178	-0.01058995
51	0xbbc62b6c	-0.0060476568
52	0xbd14a5e2	-0.03629101
53	0xbdc1a692	-0.09455599
54	0x3cefa603	0.029253965
55	0x39deedcc	0.00042520312
56	0xbcd9ff45	-0.02661098
57	0x3cbd05c9	0.023074048
58	0xbc99ac14	-0.018758811
59	0xbbbfe10c	-0.005855685
60	0xba03a882	-0.0005022363
61	0xbc1d2470	-0.009591207
62	0x3d50d6bc	0.050986037
63	0xbdd2d710	-0.10294926
64	0xbd44b4ba	-0.048023917
65	0xbd763b3d	-0.060115088
66	0xbd5c68a7	-0.05381074
67	0x3bd555a3	0.006510453
68	0x3ce8cc0e	0.028417613
69	0x3b2650ba	0.0025377707
70	0x3c4309d7	0.0119042015
71	0xbb1df607	-0.0024102943
72	0xba908953	-0.0011027254
73	0xbdac1f0c	-0.08404359
74	0x3da084b3	0.0783781
75	0x3dc9d753	0.09855523
76	0xb7dce870	-2.633428e-05
77	0x3caf424c	0.021393918
78	0xba889adb	-0.0010422127
79	0x3e0a0416	0.13478121
80	0x3c2a5e30	0.010398433
81	0xbb23c545	-0.0024989408
82	0xbd1850c0	-0.037186384
83	0x3c617e30	0.013762996
84	0x3ce2d11c	0.027687602
85	0xbd84f7b1	-0.06492556
86	0x3a864dc2	0.0010246562
87	0x3b4c48d2	0.0031171334
88	0x3c64a398	0.013955019
89	0x3b5ec6b3	0.0033992946
90	0x3b902168	0.0043985136
91	0x3aedb470	0.001813544
92	0xbd1e5cf4	-0.038662866
93	0x3d294e2b	0.041334312
94	0xbd8404dc	-0.06446239
95	0xbd97f4e0	-0.07419753
96	0xbd3742a7	-0.0447413
97	0xbcb08c0a	-0.02155115
98	0xbb845d2d	-0.0040394277
99	0x3d2f79f7	0.042840924
100	0xbaa7c4a3	-0.0012799691
101	0x3d70c2f4	0.05877967
102	0x3bec41be	0.0072099855
103	0x3d94edab	0.07271894
104	0x3d375b3a	0.044764735
105	0x3d60e1ce	0.054902844
106	0xbae18e9a	-0.0017208636
107	0xbd0ac66d	-0.03388064
108	0x3de5574f	0.111982934
109	0xbdc88a38	-0.09791988
110	0xbd0a192a	-0.033715405
111	0xbcaee014	-0.021347083
112	0xbac3585e	-0.0014903655
113	0xbae28a28	-0.0017283605
114	0xba612244	-0.0008588175
115	0xbdbe2640	-0.09284639
116	0x3df1f18d	0.1181365
117	0x3df62c9a	0.12020226
118	0x3aa91e9c	0.0012902799
119	0xbdcf445a	-0.10120459
120	0x3dac3ef4	0.08410445
121	0xb9811fef	-0.0002462859
122	0x3b55a64d	0.0032600344
123	0xbd83fcec	-0.064447254
124	0x3dded02f	0.108795516
125	0xbb21dbc2	-0.0024697636
126	0xbd81ce9f	-0.06338238
127	0x3d61a82e	0.05509203
128	0x3c7fc17e	0.015610097
129	0xbb9b838e	-0.004745907
130	0x3da34827	0.07972746
131	0x3c70652f	0.014672562
132	0xbbcce45f	-0.00625281
133	0xbb4e377a	-0.0031466172
134	0x3df5bc12	0.11998762
135	0xbbb8eb66	-0.005643296
136	0xbda24755	-0.07923762
137	0xbce22d49	-0.027609484
138	0xbd5295a3	-0.051412236
139	0xbbdb829f	-0.006698921
140	0x3d871dad	0.06597457
141	0x3d20051e	0.03906738
142	0x3bc8e619	0.0061309454
143	0x3c22371b	0.0099008335
144	0xbd037e6d	-0.03210299
145	0x3dc5774d	0.096418954
146	0x3c6c1df0	0.0144114345
147	0xbccc1757	-0.024913473
148	0xbd1e5e72	-0.03866429
149	0xbda1732a	-0.07883294
150	0xbb139d44	-0.0022524158
151	0x3d491992	0.04909665
152	0x3c638800	0.013887405
153	0xbc2ea5ed	-0.010659677
154	0x3c20ffcc	0.009826612
155	0xbd00ef9e	-0.031478517
156	0xbbec89c9	-0.0072185737
157	0x3d3cb800	0.046073914
158	0x3c0f91db	0.008762802
159	0xbc2d02c8	-0.010559745
160	0xbc98fe8a	-0.018676061
161	0x3d414f19	0.047194574
162	0x3c89a40f	0.016801862
163	0xbb176320	-0.0023099855
164	0xbb44b999	-0.0030017851
165	0xbc297238	-0.010342173
166	0xbc331591	-0.010930435
167	0xbda0c86d	-0.07850728
168	0xbd9c3710	-0.0762769
169	0x3d8fa11f	0.07013153
170	0xbc441b2d	-0.01196937
171	0x3d3c37b6	0.045951568
172	0x3d26e337	0.040744033
173	0xbcb8299d	-0.02248078
174	0xbc7afeb4	-0.015319515
175	0xba719327	-0.0009215348
176	0x3b70a65c	0.0036720252
177	0xbc8eb402	-0.017419819
178	0x3ddcd63c	0.107830495
179	0xbabc752f	-0.0014378185
180	0xbc2f0a98	-0.010683678
181	0xbd39f9a1	-0.04540408
182	0xbb5c8764	-0.0033650035
183	0x3c88100d	0.016609216
184	0x3e0c170e	0.1368067
185	0x38f0f454	0.000114896015
186	0x3c317109	0.010830172
187	0xbc34045d	-0.010987368
188	0x3d415841	0.047203306
189	0x3b2e2c6a	0.0026576766
190	0xbbafb6de	-0.0053623756
191	0x3bd40e8f	0.006471462
192	0xbc081a5a	-0.008307064
193	0x3cf6ffbb	0.030151239
194	0xbd8658fe	-0.06559943
195	0xbd546de3	-0.05186261
196	0x3df5ab1a	0.11995526
197	0xbbc5c93b	-0.0060359514
198	0xbdb2646b	-0.087105595
199	0xbd262ea6	-0.04057183
200	0x3de17506	0.110086486
201	0xbbc19f13	-0.0059088557
202	0xbd94d9da	-0.072681144
203	0xbb3fc22a	-0.0029260018
204	0xbc2ca0ad	-0.010536355
205	0xbcb75eb0	-0.022384018
206	0xbcc686d7	-0.024234219
207	0x3d82357b	0.06357857
208	0x3c5e75e9	0.013577917
209	0x3d03e934	0.03220482
210	0xbaac6377	-0.0013152201
211	0xbc10fb7e	-0.008849023
212	0xbc2e610f	-0.010643258
213	0xbd16b8cc	-0.03679733
214	0xbd4ddd39	-0.050259802
215	0xbd8f7a29	-0.07005722
216	0xbbce251f	-0.0062910463
217	0x3d5433a3	0.051807057
218	0x3da74c88	0.08168894
219	0xbb8d1a24	-0.0043060947
220	0xbbcb73d5	-0.0062088766
221	0xbb1a9ad5	-0.0023590822
222	0xbb92bc82	-0.0044780383
223	0xbc129438	-0.008946471
224	0xbbeb3c44	-0.007178815
225	0xbc070de5	-0.008243059
226	0xbdcc582b	-0.09977754
227	0xbd4698a8	-0.048485428
228	0xbb7e474c	-0.003879982
229	0xbbbdcbf1	-0.005792134
230	0xbc9e46de	-0.019320901
231	0xbadca915	-0.0016835058
232	0xbc10dc22	-0.008841546
233	0x3ddfe25f	0.10931849
234	0xbd9cf3f9	-0.076637216
235	0x3d0c0e45	0.034193296
236	0xbc39a9cd	-0.011331988
237	0xbc020252	-0.0079351235
238	0xbe05d14e	-0.13068125
239	0xbdad281b	-0.08454915
240	0xbdec5768	-0.11540109
241	0xbbe6edb6	-0.0070473803
242	0x3e18e875	0.14932425
243	0x3bf8a7f7	0.0075883823
244	0x3d27f5b7	0.041005816
245	0xbbfbfc21	-0.007689968
246	0xbb09e5a4	-0.0021041417
247	0xbb63a6f3	-0.003473696
248	0x3b940544	0.0045172293
249	0xbdadc147	-0.0848413
250	0x3cc9e96a	0.024647433
251	0xbcbe00d9	-0.023193764
252	0xbc9d8074	-0.01922629
253	0xb90bcc20	-0.00013332115
254	0x3b3ecb7e	0.002911299
255	0x3d1fd6fa	0.039023377

naim.encoder.0.ff.3.weight f4 [6, 1000]
0	0xbb41d59e	-0.0029576789
1	0x3cd81e34	0.02638159
2	0x3bb2160a	0.005434756
3	0x3cb0e635	0.021594146
4	0xbc6cde1e	-0.014457254
5	0x3c2a9726	0.010412013
6	0xbbe16894	-0.0068789218
7	0x3c2deea6	0.01061598
8	0x3c6e0d52	0.014529543
9	0x3cb63ea4	0.022246666
10	0xbc33a000	-0.01096344
11	0xbc5489d1	-0.012972311
12	0xbc1eccf4	-0.009692419
13	0xbae8c6d0	-0.0017759446
14	0xb97cf6da	-0.00024124552
15	0x3bdf7091	0.006818839
16	0x397f66af	0.00024356948
17	0x3c05d2bf	0.008167922
18	0x3c40e598	0.011773489
19	0x3c6e7296	0.014553687
20	0x3d14595c	0.036218032
21	0x3c8ee05b	0.017440965
22	0xbc8b822c	-0.017029844
23	0x3be1770e	0.0068806475
24	0x3c0614b0	0.008183643
25	0xbb83fae9	-0.0040277136
26	0x3c0fd4b5	0.008778741
27	0x3c0d2fbf	0.008617341
28	0x3b844064	0.0040359963
29	0xbb35f963	-0.0027767054
30	0x3ace06ac	0.0015718541
31	0xbccb39a9	-0.024807768
32	0x3c7aa8d9	0.0152990455
33	0xb7084d03	-8.124162e-06
34	0xbb6b037e	-0.0035860236
35	0x3bcce44b	0.0062528006
36	0x3c2d0341	0.010559858
37	0xba6d92cd	-0.00090627075
38	0x3cbfae76	0.02339862
39	0x3c6ed70d	0.014577639
40	0x2c21456d	2.2918015e-12
41	0x3c3c5766	0.011495447
42	0xbbd136e9	-0.0063847196
43	0x3d3dea65	0.046366114
44	0xbc4bdb3d	-0.012442407
45	0x3c734e7e	0.014850257
46	0x3b82b1c4	0.0039884765
47	0xba8148c0	-0.00098636
48	0x3c53723f	0.012905656
49	0x3d470ff5	0.048599202
50	0xbca152f0	-0.019692868
51	0xbb224c3f	-0.0024764684
52	0x3c469f98	0.012123011
53	0x3b5fc62b	0.0034145217
54	0x3c70eaa8	0.014704384
55	0xbb146f0f	-0.0022649204
56	0xbb9863e8	-0.0046505816
57	0x3c937efe	0.01800489
58	0xbbb58b2f	-0.0055402736
59	0x3c843619	0.016139077
60	0x3d12f212	0.035875387
61	0x3d25e8e0	0.04050529
62	0x3ba29fb5	0.004962886
63	0x3d0dbec3	0.034605753
64	0x3b2dab36	0.0026499755
65	0x3ab1d0ae	0.001356622
66	0x388e726f	6.7924026e-05
67	0xbcacb603	-0.021082884
68	0x3d06ab60	0.03287828
69	0xbc4ebb28	-0.012617864
70	0xba034fea	-0.00050091615
71	0xbc1c627e	-0.009544967
72	0x3b3e6ef1	0.0029057825
73	0xbb41ee7b	-0.0029591608
74	0xbc1a4e84	-0.009418134
75	0x3c1df61a	0.009641195
76	0x3b492e31	0.0030697698
77	0xbc844c66	-0.01614971
78	0x3c5bb076	0.013408771
79	0xbc8702c5	-0.016480813
80	0x3babc6e9	0.005242218
81	0x3c6f3c17	0.014601729
82	0x3a997399	0.0011707424
83	0x3cbb663e	0.022875901
84	0xbb99e5a4	-0.0046965647
85	0x3b7a0011	0.0038147012
86	0x3b94a510	0.0045362785
87	0x3c847fa6	0.016174149
88	0x3bf98cc1	0.007615656
89	0x3beb25c5	0.0071761333
90	0x3cfc2515	0.0307794
91	0x3bd0914f	0.0063649784
92	0xbb76a131	-0.0037632699
93	0xbc3a8fe0	-0.011386842
94	0x399e63b8	0.00030210405
95	0xbb3392a6	-0.0027400642
96	0xbb60da5d	-0.0034309842
97	0x3c9f5a26	0.019452166
98	0x3c856a82	0.016286138
99	0x3bfe4361	0.007759497
100	0x3c82795b	0.015927007
101	0xba5d4db2	-0.00084420585
102	0x3d0513bb	0.03248952
103	0xbc99d01f	-0.018775998
104	0x3bf05e81	0.0073354845
105	0x3b6ca5ad	0.0036109493
106	0xbb66d142	-0.0035219942
107	0x3cbeef0b	0.023307344
108	0xbb8c6c56	-0.0042853756
109	0xbca0701f	-0.019584714
110	0x3cf95df1	0.030440303
111	0x3c49a85d	0.012308207
112	0x3c9b9efd	0.01899671
113	0x3c2eda3c	0.010672148
114	0xbba4798d	-0.005019373
115	0x3c8e5eaa	0.017379124
116	0x3b8da904	0.0043231267
117	0x3b11ddbe	0.0022257413
118	0x3b10611e	0.0022030543
119	0x3b742eb4	0.0037259283
120	0xbc869fb3	-0.016433572
121	0x3c020937	0.007936767
122	0x3cb6d462	0.022318069
123	0x3af96c4a	0.0019029465
124	0x3ca68c9d	0.020330722
125	0x3c9022e4	0.017594762
126	0x3c0541ce	0.008133365
127	0x3c8e5ea4	0.017379113
128	0xbbdc3470	-0.006720118
129	0x3b70d4b4	0.0036747875
130	0x3c41314a	0.011791537
131	0xbc351c07	-0.0110540455
132	0xbbe4dba4	-0.006984191
133	0x3cc30bd9	0.02380936
134	0xbcb9658d	-0.022631431
135	0xbac442f9	-0.0014973573
136	0x3c517da9	0.012786307
137	0x3c876bd8	0.016530916
138	0x3b94c46e	0.004540018
139	0x3c7b9615	0.015355607
140	0x3c800b30	0.015630335
141	0xbc8d93f5	-0.017282465
142	0x3cda53cf	0.026651291
143	0x3c38928f	0.011265411
144	0x3cd76ef4	0.026298024
145	0xbcd4efb4	-0.025993206
146	0xba58368c	-0.0008247874
147	0x3d3610bf	0.044449564
148	0xbb1ca4bf	-0.0023901907
149	0x39e18b8e	0.0004301932
150	0x3c09238e	0.008370293
151	0x3bc86ad8	0.0061162524
152	0xbbc99c7b	-0.006152687
153	0x3c31a881	0.010843397
154	0x3d1380ea	0.036011614
155	0x3c480443	0.012208047
156	0xbbb14e81	-0.0054109697
157	0xbc6be668	-0.014398195
158	0xbc12dbaa	-0.008963505
159	0x3cdb3375	0.026757935
160	0xbc16afa8	-0.009197153
161	0x3ce3336c	0.02773448
162	0x3ace5265	0.0015741108
163	0x3cbfec68	0.023428157
164	0xbb0af569	-0.0021203405
165	0x3c4038a0	0.01173225
166	0x3c839dab	0.016066393
167	0x3bddf5f3	0.006773704
168	0x3d526f8f	0.05137592
169	0x3af30ad8	0.001854266
170	0x3ca751ee	0.02042481
171	0xbc34698d	-0.011011493
172	0x3b5571bc	0.0032569012
173	0xbbc09aa4	-0.0058778096
174	0xbbb395b8	-0.0054804944
175	0xbc1acaf8	-0.009447806
176	0xbb9c2546	-0.0047651855
177	0x3c81854c	0.015810631
178	0xbc0aabec	-0.008463841
179	0x3c32f72f	0.010923191
180	0xbb393ed2	-0.0028266204
181	0xbbfa41de	-0.0076372465
182	0x3c025cdd	0.007956711
183	0xbc769615	-0.015050431
184	0x3cafb3ef	0.021448104
185	0x3cb3510f	0.021889238
186	0x3c43c8c3	0.011949721
187	0xbc3a1069	-0.011356452
188	0x3b7c7e57	0.0038527453
189	0x3c90b561	0.017664613
190	0x3cb54ab7	0.022130353
191	0x3ba8c9ed	0.0051510246
192	0x3b43793c	0.00298269
193	0x3c1a60bd	0.009422478
194	0x3bb64f7a	0.0055636736
195	0x3c6089ca	0.0137047265
196	0xbc5528cc	-0.013010215
197	0x3ce042ae	0.027375545
198	0xbcaa4104	-0.020782955
199	0x3c9257a3	0.017864054
200	0x3c52aaa3	0.012858066
201	0x3cc068b6	0.02348743
202	0xbcb9a55f	-0.022661863
203	0x3c87c44f	0.0165731
204	0x3c0c0aba	0.008547479
205	0x3d3b4964	0.045724288
206	0xbc6cc194	-0.0144504495
207	0xbc025248	-0.007954188
208	0x3abecc3e	0.0014556719
209	0xbc361a65	-0.011114691
210	0x3cbd7464	0.023126788
211	0x3cb98c8b	0.022650024
212	0x3abfef76	0.0014643508
213	0x3c0e0b0d	0.008669627
214	0x3c53384e	0.012891842
215	0x39663c1a	0.00021956899
216	0x3c9af8fc	0.018917553
217	0xbc0beb54	-0.008539993
218	0xbcd88cc7	-0.026434315
219	0x3c04bfa6	0.008102333
220	0x3ac50f97	0.0015034553
221	0x3c8db1c9	0.017296689
222	0x3cdb1c58	0.026746914
223	0x3cef7126	0.029228758
224	0x3cae033e	0.02124178
225	0xbaf53f70	-0.0018710922
226	0x3aab7bfe	0.0013083217
227	0x3b87ebfe	0.0041480055
228	0xbb76058c	-0.0037539927
229	0x3cf6fdd9	0.03015034
230	0x3c131c08	0.008978851
231	0x3bf6a4a1	0.0075269495
232	0x3c92cb2e	0.01791915
233	0xbc827afc	-0.015927784
234	0x3c7d9bf3	0.015479076
235	0x3b2887d8	0.0025715735
236	0xbc3a1e9f	-0.01135984
237	0x3c8dc7b2	0.017307136
238	0xbcc238f7	-0.023708804
239	0x3bc7c49f	0.006096437
240	0x3c9111f2	0.017708752
241	0x3a0a173b	0.0005267744
242	0xbced4df1	-0.02896783
243	0x3c8428a4	0.01613266
244	0xbca19475	-0.01972411
245	0x3cfd2ec9	0.030906098
246	0x3c55ae22	0.013042005
247	0x3c6eac9e	0.014567522
248	0x3cbd31f8	0.023095116
249	0x3c581c42	0.013190331
250	0xbc949c48	-0.018140927
251	0x3c133aed	0.008986217
252	0xbbdb615b	-0.0066949553
253	0x3cbd42e0	0.023103178
254	0x3cd00a3f	0.02539551
255	0xbce36d2a	-0.027762014

naim.encoder.0.ff.3.bias f4 [6]
0	0xbd15320a	-0.036424674
1	0x3cbdb103	0.023155695
2	0xbcffc145	-0.031220088
3	0xbc06c430	-0.008225486
4	0x3c7058c8	0.014669605
5	0xbc9d25f6	-0.01918314

naim.encoder.1.layer_norm_1.weight f4 [6]
0	0x3f23bde1	0.6396161
1	0x3f2399b9	0.6390644
2	0x3f23c33d	0.63969785
3	0x3f23e613	0.6402294
4	0x3f2323fd	0.6372679
5	0x3f238856	0.6387991

naim.encoder.1.layer_norm_1.bias f4 [6]
0	0x3c4604b3	0.012086081
1	0xbc3497fc	-0.011022564
2	0xbc21d951	-0.009878472
3	0xbbbd8d88	-0.005784694
4	0x3b9f9dd9	0.004871112
5	0x3bdca186	0.0067331223

naim.encoder.1.attn.linear_q.weight f4 [6, 6]
0	0xbd202a6d	-0.03910296
1	0xb888d764	-6.525105e-05
2	0xbb2ac30f	-0.0026056205
3	0x3701bb1a	7.732562e-06
4	0x3cb912c0	0.022591949
5	0xb8e40477	-0.00010872719
6	0xb8001cc6	-3.0544375e-05
7	0x3b870287	0.0041201743
8	0x3c834cd7	0.016027851
9	0x378a0a72	1.6455746e-05
10	0xbce6d37d	-0.028177017
11	0xbd90e450	-0.07074797
12	0x3de16fa7	0.11007624
13	0x3873c42d	5.8118418e-05
14	0x3dae949e	0.0852444
15	0xba80d928	-0.0009830343
16	0x36df73e3	6.659409e-06
17	0xbbf77447	-0.007551703
18	0xbc04e564	-0.008111332
19	0xbb4953a3	-0.0030720017
20	0x3ddbf5c4	0.107402354
21	0x3d1feccb	0.039044183
22	0xbc958000	-0.018249512
23	0xbd083cb3	-0.033261012
24	0x38b67889	8.700888e-05
25	0x371e4692	9.433965e-06
26	0xb7cbda4a	-2.4301135e-05
27	0xb86f00d7	-5.6982823e-05
28	0xbd963a50	-0.07335341
29	0x380c85df	3.350328e-05
30	0xb78c27dc	-1.6707862e-05
31	0xbd065655	-0.032797176
32	0xbdd61d54	-0.10454813
33	0x3bda44cb	0.006661033
34	0xbdab7406	-0.08371739
35	0xbb24621a	-0.0025082887

naim.encoder.1.attn.linear_k.weight f4 [6, 6]
0	0x3c934602	0.017977718
1	0xbcd79fee	-0.026321378
2	0xbb783a98	-0.0037876721
3	0xbcb74861	-0.02237338
4	0x3c6fbcd0	0.014632419
5	0x38aa44cb	8.1190454e-05
6	0x3947f455	0.0001906914
7	0x393aeba1	0.00017826121
8	0xb88181ae	-6.175354e-05
9	0x36612641	3.354988e-06
10	0x36f67624	7.3451247e-06
11	0xbca2e4ec	-0.01988455
12	0xbb8fcf5e	-0.0043887338
13	0xb839065e	-4.4113367e-05
14	0xb79635d3	-1.7906457e-05
15	0xb8d05dcc	-9.935684e-05
16	0x3b7d059b	0.0038608077
17	0x3d48df23	0.049040925
18	0x3dc322b5	0.09528104
19	0x390f255c	0.0001365146
20	0x3a808aa7	0.0009806947
21	0xbd679a0c	-0.056543395
22	0x3c619fac	0.013770979
23	0xb7d7cdf7	-2.5725907e-05
24	0xbd5ac7aa	-0.05341307
25	0xbd4b6e0e	-0.049665503
26	0xbd7f3c9c	-0.06231366
27	0xbb466299	-0.003027117
28	0x3b40967b	0.0029386568
29	0xbd6bbbd3	-0.05755217
30	0x388202d1	6.199408e-05
31	0x379919c4	1.825102e-05
32	0x39c22552	0.0003703037
33	0xba8cd889	-0.0010745685
34	0x3bcf2724	0.0063218046
35	0xbc9a1a41	-0.018811347

naim.encoder.1.attn.linear_v.weight f4 [6, 6]
0	0x3da2d7a8	0.079512894
1	0xbe1afbf4	-0.15135175
2	0xbe14d162	-0.14532998
3	0x3d7d95ec	0.061910555
4	0x3c8d5793	0.017253673
5	0x3e36cbcc	0.1785118
6	0x3d941fd3	0.072326325
7	0xbd9b3a30	-0.07579458
8	0x3d83b0e7	0.06430226
9	0xbc608116	-0.0137026515
10	0x3bef83db	0.0073094196
11	0xbd1afe96	-0.03784045
12	0xbc84f9dd	-0.016232425
13	0xbe02cad2	-0.12772682
14	0x3c85e4d2	0.016344462
15	0x3e1a9bac	0.15098447
16	0xbcc293d6	-0.023752134
17	0x3e2bd1a1	0.16779186
18	0xbc1fbc6a	-0.009749511
19	0x3b0e15bb	0.0021680433
20	0x3ba7273a	0.0051011117
21	0xbbc3607d	-0.00596243
22	0x3dd615e7	0.10453396
23	0x3c0976da	0.008390153
24	0x3a513bc7	0.0007981625
25	0xbc13d85e	-0.009023754
26	0xbb42dc5e	-0.00297334
27	0x3dbd202a	0.092346504
28	0xbc377c95	-0.011199136
29	0x3d31723a	0.043321826
30	0x3c2ae26f	0.010429963
31	0x3d1fab7e	0.038981907
32	0xbd52d032	-0.05146808
33	0xbdd5cf67	-0.104399495
34	0x3c005d2c	0.007834714
35	0xbbfdd51c	-0.007746352

naim.encoder.1.attn.linear_o.weight f4 [6, 6]
0	0x3e8341af	0.2563605
1	0x3e49aef3	0.19695644
2	0xbd5486ec	-0.051886484
3	0xbd49e75e	-0.049292915
4	0x3c70605c	0.014671411
5	0x3dc56860	0.096390486
6	0x3d5c37a4	0.053764
7	0x3c3eed02	0.011653187
8	0x3e1234df	0.14277981
9	0x3b18e7f5	0.0023331617
10	0x3e04ca11	0.12967707
11	0x3c8d9491	0.017282756
12	0xbc613d54	-0.013747532
13	0x3dd1f43f	0.10251664
14	0x3bf88118	0.0075837485
15	0x3c13f9ee	0.009031756
16	0xbcf8fa74	-0.030392863
17	0x3d8a12eb	0.067418896
18	0xbda46d04	-0.080286056
19	0x3e01ca2c	0.12674779
20	0x3e094f4c	0.13409156
21	0xbc4f715e	-0.012661306
22	0xbd51e334	-0.05124207
23	0x3d78ff66	0.060790442
24	0xbdced697	-0.100995235
25	0xb8b082d8	-8.4167055e-05
26	0xb964ba3e	-0.00021813155
27	0xae853d5c	-6.0590394e-11
28	0xbb873f1b	-0.004127396
29	0xbaf109fe	-0.0018389819
30	0x3b813b47	0.003943834
31	0x2de7d26e	2.6355109e-11
32	0xbd008d75	-0.031384904
33	0xade3c6c9	-2.589519e-11
34	0x386efe5c	5.6980512e-05
35	0xba85e62d	-0.0010215692

naim.encoder.1.layer_norm_2.weight f4 [6]
0	0x3f6583b0	0.89654064
1	0x3f436a32	0.76333916
2	0x3f476964	0.7789519
3	0x3f591972	0.8480445
4	0x3f5251d0	0.82156086
5	0x3f61bbc1	0.88177115

naim.encoder.1.layer_norm_2.bias f4 [6]
0	0x3d02d3c2	0.03194023
1	0xba4886d9	-0.00076494884
2	0x3c28cff1	0.010303483
3	0xbca06888	-0.019581094
4	0x3c7dd22b	0.0154920025
5	0xbcb70533	-0.022341346
