outputs/2025-03-23/17-14-41/outputs/model_epoch_60.pt (torch, 377354 bytes, 140 tensors)

naim.embeddings.0.embeddings.weight f4 [2, 6]
0	0x3ebd1118	0.36927104
1	0xbf076fd6	-0.52905023
2	0xbe9c5a30	-0.30537558
3	0x3ea36008	0.31909204
4	0x3edc6b89	0.43050793
5	0x3e8a8cb8	0.27060485
6	0x00000000	0.0
7	0x00000000	0.0
8	0x00000000	0.0
9	0x00000000	0.0
10	0x00000000	0.0
11	0x00000000	0.0

naim.embeddings.1.embeddings.weight f4 [2, 6]
0	0x3d1b8750	0.03797084
1	0xbd8583a1	-0.06519247
2	0xbdeb8d69	-0.11501581
3	0x3ead281d	0.33819667
4	0x3e202e22	0.15642598
5	0xbd83a7c9	-0.06428487
6	0x00000000	0.0
7	0x00000000	0.0
8	0x00000000	0.0
9	0x00000000	0.0
10	0x00000000	0.0
11	0x00000000	0.0

naim.embeddings.2.embeddings.weight f4 [2, 6]
0	0x3f1f7c5e	0.62299144
1	0x3d36c543	0.044621717
2	0xbcac0012	-0.020996127
3	0x3f0abbd2	0.5419284
4	0xbe6a15fe	-0.22859952
5	0x3ea79833	0.32733306
6	0x00000000	0.0
7	0x00000000	0.0
8	0x00000000	0.0
9	0x00000000	0.0
10	0x00000000	0.0
11	0x00000000	0.0

naim.embeddings.3.embeddings.weight f4 [2, 6]
0	0x3f19bbac	0.6005199
1	0xbeec2ade	-0.46126455
2	0x3d452a1e	0.04813587
3	0x3ee73729	0.4515927
4	0x3dded93f	0.1088128
5	0x3b95ce35	0.004571701
6	0x00000000	0.0
7	0x00000000	0.0
8	0x00000000	0.0
9	0x00000000	0.0
10	0x00000000	0.0
11	0x00000000	0.0

naim.embeddings.4.embeddings.weight f4 [2, 6]
0	0xbef33f8b	-0.47509417
1	0xbe7f5d75	-0.24937995
2	0xbe489f1b	-0.19591944
3	0x3e0b8274	0.13623983
4	0x3d8d5811	0.06901563
5	0x3c6bc9de	0.014391391
6	0x00000000	0.0
7	0x00000000	0.0
8	0x00000000	0.0
9	0x00000000	0.0
10	0x00000000	0.0
11	0x00000000	0.0

naim.embeddings.5.embeddings.weight f4 [2, 6]
0	0xbeaa2f0b	-0.33239016
1	0x3d04a35a	0.032382347
2	0x3f190c28	0.59784174
3	0x3ea55e0c	0.32298315
4	0xbf061d3d	-0.52388364
5	0x3d6d1a41	0.057886366
6	0x00000000	0.0
7	0x00000000	0.0
8	0x00000000	0.0
9	0x00000000	0.0
10	0x00000000	0.0
11	0x00000000	0.0

naim.embeddings.6.embeddings.weight f4 [2, 6]
0	0xbef9bbff	-0.48776242
1	0xbd9d5506	-0.076822326
2	0xbde267b7	-0.11054938
3	0xbe6e7d50	-0.2328999
4	0x3e06e625	0.1317373
5	0x3f34cac6	0.7062191
6	0x00000000	0.0
7	0x00000000	0.0
8	0x00000000	0.0
9	0x00000000	0.0
10	0x00000000	0.0
11	0x00000000	0.0

naim.embeddings.7.embeddings.weight f4 [2, 6]
0	0xbec52f75	-0.3851277
1	0xbbefa39c	-0.007313205
2	0x3db37987	0.08763414
3	0xbf2a895e	-0.66615856
4	0xbd5da6cb	-0.054114144
5	0x3f0b8259	0.5449577
6	0x00000000	0.0
7	0x00000000	0.0
8	0x00000000	0.0
9	0x00000000	0.0
10	0x00000000	0.0
11	0x00000000	0.0

naim.embeddings.8.embeddings.weight f4 [2, 6]
0	0x3f14002d	0.5781277
1	0xbde8f272	-0.11374368
2	0x3e6fd218	0.23419988
3	0xbf0df4e3	-0.5545179
4	0xbe431728	-0.19051802
5	0x3e6023a7	0.218886
6	0x00000000	0.0
7	0x00000000	0.0
8	0x00000000	0.0
9	0x00000000	0.0
10	0x00000000	0.0
11	0x00000000	0.0

naim.embeddings.9.embeddings.weight f4 [2, 6]
0	0x3ed2617b	0.41089997
1	0xbe75b3b6	-0.23994336
2	0x3d5c2675	0.053747613
3	0xbebc85f1	-0.3682094
4	0xbf122cfa	-0.5709988
5	0x3b0996a6	0.0020994334
6	0x00000000	0.0
7	0x00000000	0.0
8	0x00000000	0.0
9	0x00000000	0.0
10	0x00000000	0.0
11	0x00000000	0.0

naim.embeddings.10.embeddings.weight f4 [2, 6]
0	0x3ddafead	0.10693107
1	0x3de985d0	0.11402476
2	0x3e5cc528	0.21559584
3	0x3e6fae97	0.23406444
4	0x3b70f895	0.003676926
5	0x3ed6c06c	0.4194368
6	0x00000000	0.0
7	0x00000000	0.0
8	0x00000000	0.0
9	0x00000000	0.0
10	0x00000000	0.0
11	0x00000000	0.0

naim.embeddings.11.embeddings.weight f4 [2, 6]
0	0x3e242bf3	0.1603239
1	0xbddba49f	-0.10724758
2	0xbef1efa5	-0.47253147
3	0xbef0c25c	-0.47023284
4	0xbcdb7e32	-0.026793573
5	0xbe87dc09	-0.2653506
6	0x00000000	0.0
7	0x00000000	0.0
8	0x00000000	0.0
9	0x00000000	0.0
10	0x00000000	0.0
11	0x00000000	0.0

naim.embeddings.12.embeddings.weight f4 [2, 6]
0	0x3e290b71	0.16508271
1	0xbe6f92a0	-0.23395777
2	0x3d8cb1a7	0.06869822
3	0x3ed3cec0	0.41368675
4	0x3eefa5d0	0.46806192
5	0x3dd6850e	0.10474597
6	0x00000000	0.0
7	0x00000000	0.0
8	0x00000000	0.0
9	0x00000000	0.0
10	0x00000000	0.0
11	0x00000000	0.0

naim.embeddings.13.embeddings.weight f4 [2, 6]
0	0xbe7265ed	-0.23671694
1	0xbd937b82	-0.072012916
2	0xbe8e50e4	-0.2779609
3	0x3f1a294b	0.6021926
4	0xbe41afb5	-0.18914683
5	0x3e88b85e	0.2670316
6	0x00000000	0.0
7	0x00000000	0.0
8	0x00000000	0.0
9	0x00000000	0.0
10	0x00000000	0.0
11	0x00000000	0.0

naim.embeddings.14.embeddings.weight f4 [2, 6]
0	0x3e2f6bd7	0.17130981
1	0x3f1edcd8	0.6205573
2	0xbe18dc9b	-0.14927904
3	0x3db5adc2	0.08871032
4	0x3f1541e4	0.58303666
5	0x3c93bbed	0.018033946
6	0x00000000	0.0
7	0x00000000	0.0
8	0x00000000	0.0
9	0x00000000	0.0
10	0x00000000	0.0
11	0x00000000	0.0

naim.embeddings.15.embeddings.weight f4 [2, 6]
0	0xbf15131f	-0.582323
1	0x3ea141b2	0.31495434
2	0x3d8ace1e	0.06777595
3	0xbe884d84	-0.2662164
4	0xbe3e1e4b	-0.18566243
5	0x3f035b3f	0.51311105
6	0x00000000	0.0
7	0x00000000	0.0
8	0x00000000	0.0
9	0x00000000	0.0
10	0x00000000	0.0
11	0x00000000	0.0

naim.embeddings.16.embeddings.weight f4 [2, 6]
0	0x3f01b2ac	0.50663257
1	0x3db898ea	0.09013541
2	0x3d90df26	0.07073812
3	0xbe985962	-0.29755694
4	0x3e069016	0.13140902
5	0x3ec8e29f	0.39235398
6	0x00000000	0.0
7	0x00000000	0.0
8	0x00000000	0.0
9	0x00000000	0.0
10	0x00000000	0.0
11	0x00000000	0.0

naim.embeddings.17.embeddings.weight f4 [2, 6]
0	0x3dde5369	0.10855753
1	0x3e24b4ca	0.1608459
2	0x3e00d0d1	0.12579657
3	0xbeec5d4d	-0.46164933
4	0x3e8a6583	0.27030572
5	0xbe8f7fb2	-0.2802711
6	0x00000000	0.0
7	0x00000000	0.0
8	0x00000000	0.0
9	0x00000000	0.0
10	0x00000000	0.0
11	0x00000000	0.0

naim.embeddings.18.embeddings.weight f4 [2, 6]
0	0xbf09dc1b	-0.5385148
1	0xbedb805c	-0.42871368
2	0xbe928937	-0.28620312
3	0x3f088553	0.53328437
4	0xbd0b7993	-0.03405149
5	0xbcb5706c	-0.022148333
6	0x00000000	0.0
7	0x00000000	0.0
8	0x00000000	0.0
9	0x00000000	0.0
10	0x00000000	0.0
11	0x00000000	0.0

naim.embeddings.19.embeddings.weight f4 [2, 6]
0	0x3efe0dd2	0.4961992
1	0xbe72b5e0	-0.23702192
2	0x3e84f555	0.25968423
3	0xbe451bb9	-0.19248857
4	0xbdcacb78	-0.0990209
5	0x3da55b36	0.08074038
6	0x00000000	0.0
7	0x00000000	0.0
8	0x00000000	0.0
9	0x00000000	0.0
10	0x00000000	0.0
11	0x00000000	0.0

naim.embeddings.20.embeddings.weight f4 [2, 6]
0	0x3e8978f3	0.2685009
1	0x3e0a98bc	0.13534826
2	0xbea25a5a	-0.31709558
3	0xbeedfc78	-0.4648168
4	0xbdf8bbcc	-0.121451944
5	0x3e707f15	0.23485978
6	0x00000000	0.0
7	0x00000000	0.0
8	0x00000000	0.0
9	0x00000000	0.0
10	0x00000000	0.0
11	0x00000000	0.0

naim.embeddings.21.embeddings.weight f4 [2, 6]
0	0x3d902d26	0.070398614
1	0xba3e6ea6	-0.00072644127
2	0x3defd7d5	0.117110886
3	0xbd579f0d	-0.052641917
4	0x3ca1e0e5	0.019760558
5	0xbe11afca	-0.14227214
6	0x00000000	0.0
7	0x00000000	0.0
8	0x00000000	0.0
9	0x00000000	0.0
10	0x00000000	0.0
11	0x00000000	0.0

naim.embeddings.22.embeddings.weight f4 [2, 6]
0	0x3ea3327f	0.31874463
1	0xbe592482	-0.21205333
2	0xbd182e1d	-0.037153352
3	0x3f09ad57	0.5378012
4	0x3ec7f93e	0.39057344
5	0xbe3636af	-0.17794298
6	0x00000000	0.0
7	0x00000000	0.0
8	0x00000000	0.0
9	0x00000000	0.0
10	0x00000000	0.0
11	0x00000000	0.0

naim.embeddings.23.embeddings.weight f4 [2, 6]
0	0x3e4adb1c	0.19810146
1	0x3bb516b3	0.0055263876
2	0xbea53597	-0.32267448
3	0x3f48723c	0.7829931
4	0xbd45e40e	-0.048313193
5	0xbe68c69e	-0.22732016
6	0x00000000	0.0
7	0x00000000	0.0
8	0x00000000	0.0
9	0x00000000	0.0
10	0x00000000	0.0
11	0x00000000	0.0

naim.embeddings.24.embeddings.weight f4 [2, 6]
0	0x3c172a61	0.0092264125
1	0x3e0e0797	0.13870083
2	0xbe325640	-0.17415714
3	0x3ec00613	0.37504634
4	0xbf4c2e44	-0.79758096
5	0x3d40265a	0.046911575
6	0x00000000	0.0
7	0x00000000	0.0
8	0x00000000	0.0
9	0x00000000	0.0
10	0x00000000	0.0
11	0x00000000	0.0

naim.embeddings.25.embeddings.weight f4 [2, 6]
0	0x3ebb258b	0.3655208
1	0xbe0713c2	-0.13191131
2	0x3f3653a8	0.712214
3	0x3eea755a	0.45792657
4	0x3db92fb3	0.09042301
5	0x3d628989	0.055306945
6	0x00000000	0.0
7	0x00000000	0.0
8	0x00000000	0.0
9	0x00000000	0.0
10	0x00000000	0.0
11	0x00000000	0.0

naim.embeddings.26.embeddings.weight f4 [2, 6]
0	0x3e40bb1d	0.18821378
1	0xbee28ccf	-0.44248053
2	0xbef24d01	-0.47324374
3	0x3e8e57e6	0.27801436
4	0x3ec6da87	0.38838598
5	0x3e973b51	0.29537442
6	0x00000000	0.0
7	0x00000000	0.0
8	0x00000000	0.0
9	0x00000000	0.0
10	0x00000000	0.0
11	0x00000000	0.0

naim.embeddings.27.embeddings.weight f4 [2, 6]
0	0xbdcc8166	-0.09985618
1	0x3ea89b6a	0.32931072
2	0xbef48e43	-0.47764787
3	0xbefc9451	-0.49331906
4	0xbdd5c0c5	-0.104371585
5	0x3d185079	0.03718612
6	0x00000000	0.0
7	0x00000000	0.0
8	0x00000000	0.0
9	0x00000000	0.0
10	0x00000000	0.0
11	0x00000000	0.0

naim.embeddings.28.embeddings.weight f4 [2, 6]
0	0xbe4ae761	-0.19814827
1	0x3e4e4363	0.20142893
2	0xbe2bf73d	-0.16793533
3	0xbea2a5f5	-0.3176724
4	0x3e122ca5	0.14274843
5	0xbdc0791e	-0.09398101
6	0x00000000	0.0
7	0x00000000	0.0
8	0x00000000	0.0
9	0x00000000	0.0
10	0x00000000	0.0
11	0x00000000	0.0

naim.embeddings.29.embeddings.weight f4 [2, 6]
0	0xbef9be92	-0.48778206
1	0xbc8a7ca9	-0.016905146
2	0x3f1b7699	0.6072784
3	0xbe3cdd6d	-0.18443842
4	0x3d74c92e	0.059762172
5	0xbea21122	-0.31653696
6	0x00000000	0.0
7	0x00000000	0.0
8	0x00000000	0.0
9	0x00000000	0.0
10	0x00000000	0.0
11	0x00000000	0.0

naim.embeddings.30.embeddings.weight f4 [2, 6]
0	0xbe09504c	-0.13409537
1	0x3e62f6c1	0.22164442
2	0x3e99f5ee	0.30070442
3	0xbe8c36d3	-0.27385578
4	0xbcfe4085	-0.031036625
5	0xbeba7115	-0.364144
6	0x00000000	0.0
7	0x00000000	0.0
8	0x00000000	0.0
9	0x00000000	0.0
10	0x00000000	0.0
11	0x00000000	0.0

naim.embeddings.31.embeddings.weight f4 [2, 6]
0	0x3eb25d7d	0.3483695
1	0xbe536f54	-0.20647937
2	0xbd3047bf	-0.043037172
3	0xbdc388a4	-0.095475465
4	0xbe6b2fbc	-0.22967428
5	0xbe82f1bb	-0.2557505
6	0x00000000	0.0
7	0x00000000	0.0
8	0x00000000	0.0
9	0x00000000	0.0
10	0x00000000	0.0
11	0x00000000	0.0

naim.embeddings.32.embeddings.weight f4 [2, 6]
0	0x3dce5ac0	0.10075903
1	0x3e9bdeea	0.30443507
2	0xbea26f46	-0.3172552
3	0xbf3aceab	-0.729716
4	0x3e8ac901	0.2710648
5	0xbe338bdd	-0.17533822
6	0x00000000	0.0
7	0x00000000	0.0
8	0x00000000	0.0
9	0x00000000	0.0
10	0x00000000	0.0
11	0x00000000	0.0

naim.embeddings.33.embeddings.weight f4 [2, 6]
0	0xbe233c28	-0.15940917
1	0xbe0aa416	-0.13539156
2	0xbeb807ab	-0.3594335
3	0xbe5d156f	-0.21590208
4	0xbe975aa4	-0.2956134
5	0x3f2d1e4f	0.6762437
6	0x00000000	0.0
7	0x00000000	0.0
8	0x00000000	0.0
9	0x00000000	0.0
10	0x00000000	0.0
11	0x00000000	0.0

naim.embeddings.34.embeddings.weight f4 [2, 6]
0	0xbe371cc4	-0.17882067
1	0x3ddeb054	0.10873476
2	0x3f012a53	0.50455207
3	0xbd2c5bf0	-0.042079866
4	0xbe7eec8f	-0.24894927
5	0x3d5a05b1	0.053228084
6	0x00000000	0.0
7	0x00000000	0.0
8	0x00000000	0.0
9	0x00000000	0.0
10	0x00000000	0.0
11	0x00000000	0.0

naim.embeddings.35.embeddings.weight f4 [2, 6]
0	0x3e2d2021	0.16906787
1	0xbe00ca57	-0.12577187
2	0x3e928b36	0.28621835
3	0x3eaaa7d9	0.33331183
4	0x3ebd5ad3	0.36983356
5	0xbf007106	-0.5017246
6	0x00000000	0.0
7	0x00000000	0.0
8	0x00000000	0.0
9	0x00000000	0.0
10	0x00000000	0.0
11	0x00000000	0.0

naim.embeddings.36.embeddings.weight f4 [2, 6]
0	0xbe022f16	-0.12713274
1	0x3ebb01f8	0.3652494
2	0xbefd3cde	-0.494605
3	0xbc4f96e5	-0.012670253
4	0xbd0c91b9	-0.03431866
5	0x3df92f71	0.12167252
6	0x00000000	0.0
7	0x00000000	0.0
8	0x00000000	0.0
9	0x00000000	0.0
10	0x00000000	0.0
11	0x00000000	0.0

naim.embeddings.37.embeddings.weight f4 [2, 6]
0	0x3b35ee79	0.002776055
1	0xbeb5b5aa	-0.3549016
2	0xbe031905	-0.12802513
3	0xbd9b1305	-0.07571987
4	0x3e6d5982	0.23178676
5	0x3df5f7a7	0.120101266
6	0x00000000	0.0
7	0x00000000	0.0
8	0x00000000	0.0
9	0x00000000	0.0
10	0x00000000	0.0
11	0x00000000	0.0

naim.embeddings.38.embeddings.weight f4 [2, 6]
0	0x3a5a905f	0.0008337553
1	0xbd4b8267	-0.04968491
2	0x3cf20b05	0.02954627
3	0x3e9e62fb	0.3093489
4	0xbde41e1b	-0.11138555
5	0x3e1a3b4a	0.1506168
6	0x00000000	0.0
7	0x00000000	0.0
8	0x00000000	0.0
9	0x00000000	0.0
10	0x00000000	0.0
11	0x00000000	0.0

naim.embeddings.39.embeddings.weight f4 [2, 6]
0	0xbd72143e	-0.059101336
1	0xbe88ee70	-0.26744413
2	0x3ef6e2f6	0.48220032
3	0xbf186d1f	-0.59541506
4	0x3e4a66b0	0.19765735
5	0x3ead957d	0.33903113
6	0x00000000	0.0
7	0x00000000	0.0
8	0x00000000	0.0
9	0x00000000	0.0
10	0x00000000	0.0
11	0x00000000	0.0

naim.embeddings.40.embeddings.weight f4 [2, 6]
0	0xbd894c4b	-0.06704005
1	0x3e5467b0	0.20742679
2	0x3e0e6b94	0.13908225
3	0xbe19786b	-0.14987342
4	0xbd590233	-0.052980613
5	0xbeaa86b9	-0.3330591
6	0x00000000	0.0
7	0x00000000	0.0
8	0x00000000	0.0
9	0x00000000	0.0
10	0x00000000	0.0
11	0x00000000	0.0

naim.embeddings.41.embeddings.weight f4 [2, 6]
0	0xbdc04819	-0.093887515
1	0xbe378b9e	-0.17924353
2	0x3e998282	0.29982382
3	0x3e20df0f	0.1571009
4	0x3ebb1445	0.36538902
5	0x3f09eec4	0.5387995
6	0x00000000	0.0
7	0x00000000	0.0
8	0x00000000	0.0
9	0x00000000	0.0
10	0x00000000	0.0
11	0x00000000	0.0

naim.embeddings.42.embeddings.weight f4 [2, 6]
0	0xbe894d18	-0.2681663
1	0x3f300e88	0.6877217
2	0x3e54ad6b	0.20769279
3	0x3ebb8ab7	0.3662927
4	0x3da5c9a2	0.08095099
5	0xbe1b1bc2	-0.15147308
6	0x00000000	0.0
7	0x00000000	0.0
8	0x00000000	0.0
9	0x00000000	0.0
10	0x00000000	0.0
11	0x00000000	0.0

naim.embeddings.43.embeddings.weight f4 [2, 6]
0	0xbe490e29	-0.19634308
1	0x3bef0144	0.007293852
2	0x3f205df3	0.62643355
3	0x3ee03888	0.4379313
4	0x3eaa2ba4	0.3323642
5	0xbdab0d3c	-0.08352134
6	0x00000000	0.0
7	0x00000000	0.0
8	0x00000000	0.0
9	0x00000000	0.0
10	0x00000000	0.0
11	0x00000000	0.0

naim.embeddings.44.embeddings.weight f4 [2, 6]
0	0xbcbfd3fc	-0.023416512
1	0x3e8b5868	0.27215886
2	0x3e4818cd	0.19540711
3	0xbeae1975	-0.34003797
4	0x3dff2393	0.12457957
5	0x3f00a6f1	0.5025473
6	0x00000000	0.0
7	0x00000000	0.0
8	0x00000000	0.0
9	0x00000000	0.0
10	0x00000000	0.0
11	0x00000000	0.0

naim.embeddings.45.embeddings.weight f4 [2, 6]
0	0xbee470eb	-0.446174
1	0xbf13e8a2	-0.57776845
2	0xbe9f9235	-0.31166235
3	0x3e0a2b3a	0.13493052
4	0xbeeb065b	-0.45903286
5	0xbe1ca1c0	-0.15296078
6	0x00000000	0.0
7	0x00000000	0.0
8	0x00000000	0.0
9	0x00000000	0.0
10	0x00000000	0.0
11	0x00000000	0.0

naim.embeddings.46.embeddings.weight f4 [2, 6]
0	0xbd6e4fca	-0.05818156
1	0x3dc40105	0.09570507
2	0x3e959092	0.2921186
3	0xbdd69cc4	-0.104791194
4	0x3e09a74f	0.1344273
5	0x3e466e5d	0.19378038
6	0x00000000	0.0
7	0x00000000	0.0
8	0x00000000	0.0
9	0x00000000	0.0
10	0x00000000	0.0
11	0x00000000	0.0

naim.embeddings.47.embeddings.weight f4 [2, 6]
0	0x3e896554	0.2683512
1	0xbdb3caec	-0.08778939
2	0xbef8514e	-0.4849953
3	0xbe5457c1	-0.207366
4	0x3e80f564	0.25187218
5	0xbe8661ba	-0.26246434
6	0x00000000	0.0
7	0x00000000	0.0
8	0x00000000	0.0
9	0x00000000	0.0
10	0x00000000	0.0
11	0x00000000	0.0

naim.embeddings.48.embeddings.weight f4 [2, 6]
0	0x3c97bf44	0.01852382
1	0x3e802256	0.25026196
2	0x3d8e914b	0.06961306
3	0x3ea69151	0.32532743
4	0x3f2b5f10	0.6694193
5	0x3ebc420a	0.36769134
6	0x00000000	0.0
7	0x00000000	0.0
8	0x00000000	0.0
9	0x00000000	0.0
10	0x00000000	0.0
11	0x00000000	0.0

naim.embeddings.49.embeddings.weight f4 [2, 6]
0	0xbe7bcfa1	-0.24590923
1	0x3e79a83d	0.24380584
2	0x3e90fdce	0.28318638
3	0xbdeca065	-0.1155403
4	0xbebee770	-0.37285948
5	0x3ecfcbf0	0.4058528
6	0x00000000	0.0
7	0x00000000	0.0
8	0x00000000	0.0
9	0x00000000	0.0
10	0x00000000	0.0
11	0x00000000	0.0

naim.embeddings.50.embeddings.weight f4 [2, 6]
0	0x3efbec35	0.4920365
1	0x3eb3a42e	0.35086197
2	0xbdd033cf	-0.10166132
3	0xbe33aadd	-0.17545648
4	0xbdd5a01c	-0.10430929
5	0xbf07a512	-0.5298625
6	0x00000000	0.0
7	0x00000000	0.0
8	0x00000000	0.0
9	0x00000000	0.0
10	0x00000000	0.0
11	0x00000000	0.0

naim.embeddings.51.embeddings.weight f4 [2, 6]
0	0x3d1eae93	0.038740706
1	0x3e1eda60	0.15512991
2	0x3f01427d	0.5049208
3	0xbf1f5486	-0.6223835
4	0x3ea7ef51	0.3279977
5	0xbe08bf0c	-0.13354129
6	0x00000000	0.0
7	0x00000000	0.0
8	0x00000000	0.0
9	0x00000000	0.0
10	0x00000000	0.0
11	0x00000000	0.0

naim.embeddings.52.embeddings.weight f4 [2, 6]
0	0x3e8b8b79	0.27254847
1	0xbe5ce0ae	-0.21570083
2	0xbe66cfff	-0.22540282
3	0xbe5f1bd0	-0.21787953
4	0x3da0f42c	0.07859072
5	0xbeb25fe9	-0.348388
6	0x00000000	0.0
7	0x00000000	0.0
8	0x00000000	0.0
9	0x00000000	0.0
10	0x00000000	0.0
11	0x00000000	0.0

naim.embeddings.53.embeddings.weight f4 [2, 6]
0	0xbe7de380	-0.24793816
1	0xbe16d984	-0.14731413
2	0x3e18e699	0.14931716
3	0xbd5d772c	-0.05406873
4	0x3f5b3361	0.85625273
5	0xbbfa1251	-0.007631578
6	0x00000000	0.0
7	0x00000000	0.0
8	0x00000000	0.0
9	0x00000000	0.0
10	0x00000000	0.0
11	0x00000000	0.0

naim.embeddings.54.embeddings.weight f4 [2, 6]
0	0x3e438e04	0.19097143
1	0x3ef888fc	0.4854201
2	0x3ec57d94	0.3857237
3	0x3e2d27cf	0.16909717
4	0xbf11ecc3	-0.57001895
5	0x3dcfed6f	0.10152709
6	0x00000000	0.0
7	0x00000000	0.0
8	0x00000000	0.0
9	0x00000000	0.0
10	0x00000000	0.0
11	0x00000000	0.0

naim.embeddings.55.embeddings.weight f4 [2, 6]
0	0x3ea45294	0.32094252
1	0xbe942ed7	-0.28941986
2	0xbf0b8479	-0.5449901
3	0x3f0ac5c2	0.54208004
4	0xbda59a84	-0.08086112
5	0xbe1e4367	-0.154554
6	0x00000000	0.0
7	0x00000000	0.0
8	0x00000000	0.0
9	0x00000000	0.0
10	0x00000000	0.0
11	0x00000000	0.0

naim.embeddings.56.embeddings.weight f4 [2, 6]
0	0xbec64dd7	-0.38731262
1	0xbee28c4b	-0.4424766
2	0x3e317a85	0.17331894
3	0xbd84442d	-0.06458316
4	0xbeccb9fd	-0.39985648
5	0xbd70c564	-0.058781996
6	0x00000000	0.0
7	0x00000000	0.0
8	0x00000000	0.0
9	0x00000000	0.0
10	0x00000000	0.0
11	0x00000000	0.0

naim.embeddings.57.embeddings.weight f4 [2, 6]
0	0x3ed8081d	0.4219369
1	0xbe97bd98	-0.29636836
2	0xbe4e5e8f	-0.20153259
3	0x3e8b503a	0.27209646
4	0x3f2db826	0.67859113
5	0xbc051eee	-0.00812505
6	0x00000000	0.0
7	0x00000000	0.0
8	0x00000000	0.0
9	0x00000000	0.0
10	0x00000000	0.0
11	0x00000000	0.0

naim.embeddings.58.embeddings.weight f4 [2, 6]
0	0xbde32fd2	-0.110931054
1	0x3c8810cc	0.016609572
2	0x3d582555	0.052769978
3	0xbd805f45	-0.06268171
4	0x3dbff1c8	0.09372288
5	0xbe803945	-0.25043693
6	0x00000000	0.0
7	0x00000000	0.0
8	0x00000000	0.0
9	0x00000000	0.0
10	0x00000000	0.0
11	0x00000000	0.0

naim.embeddings.59.embeddings.weight f4 [2, 6]
0	0x3e9e3caf	0.30905673
1	0xbe245c2e	-0.16050789
2	0xbe732200	-0.23743439
3	0x3f264c0c	0.6495979
4	0x3e7fee6c	0.24993294
5	0x3ec72385	0.38894287
6	0x00000000	0.0
7	0x00000000	0.0
8	0x00000000	0.0
9	0x00000000	0.0
10	0x00000000	0.0
11	0x00000000	0.0

naim.embeddings.60.embeddings.weight f4 [2, 6]
0	0xbef99acb	-0.4875091
1	0xbd1d6e9e	-0.03843557
2	0x3d38b31f	0.0450927
3	0x3ef4e614	0.47831786
4	0x3e78483b	0.24246304
5	0x3eab0a12	0.3340612
6	0x00000000	0.0
7	0x00000000	0.0
8	0x00000000	0.0
9	0x00000000	0.0
10	0x00000000	0.0
11	0x00000000	0.0

naim.embeddings.61.embeddings.weight f4 [2, 6]
0	0xbe632585	-0.22182281
1	0x3d338f0f	0.043837603
2	0x3e00c06c	0.12573403
3	0xbd8c184c	-0.06840572
4	0x3e4dd00e	0.20098898
5	0xbde11aa5	-0.1099141
6	0x00000000	0.0
7	0x00000000	0.0
8	0x00000000	0.0
9	0x00000000	0.0
10	0x00000000	0.0
11	0x00000000	0.0

naim.embeddings.62.embeddings.weight f4 [2, 6]
0	0x3e89a051	0.26880124
1	0x3e092f3d	0.13396926
2	0xbf2c8ba3	-0.6740057
3	0xbd6b8e13	-0.05750854
4	0xbeb3a61e	-0.35087675
5	0xbee56195	-0.44801012
6	0x00000000	0.0
7	0x00000000	0.0
8	0x00000000	0.0
9	0x00000000	0.0
10	0x00000000	0.0
11	0x00000000	0.0

naim.embeddings.63.embeddings.weight f4 [2, 6]
0	0x3f374481	0.71588904
1	0x3e95c2f6	0.29250306
2	0xbe906be7	-0.28207323
3	0x3e28f383	0.16499142
4	0xbe4d5dfe	-0.20055386
5	0xbe1cbf51	-0.15307356
6	0x00000000	0.0
7	0x00000000	0.0
8	0x00000000	0.0
9	0x00000000	0.0
10	0x00000000	0.0
11	0x00000000	0.0

naim.encoder.0.layer_norm_1.weight f4 [6]
0	0x3f70f02e	0.94116485
1	0x3f6d174e	0.92613685
2	0x3f73d932	0.9525329
3	0x3f7dc44a	0.9912764
4	0x3f73b4f9	0.9519802
5	0x3f758e95	0.9592069

naim.encoder.0.layer_norm_1.bias f4 [6]
0	0xbc4b3eb1	-0.0124050835
1	0x3c46edbe	0.012141643
2	0xbc90e895	-0.017689029
3	0x3c8ea51e	0.017412718
4	0xbc175f90	-0.0092390925
5	0x3b594ce8	0.0033157412

naim.encoder.0.attn.linear_q.weight f4 [6, 6]
0	0xbd642ba9	-0.0557057
1	0x3c38d574	0.01128136
2	0xbd570ff3	-0.052505445
3	0xbea6d55b	-0.32584652
4	0xbca6109d	-0.020271594
5	0x3e166491	0.146868
6	0xbd196511	-0.0374499
7	0xbe156c11	-0.14592005
8	0x3c01fd05	0.00793386
9	0x3d8cfed0	0.06884539
10	0xbd98a766	-0.07453804
11	0xbe85bade	-0.2611913
12	0xbe15d80a	-0.14633194
13	0xbc4fa60c	-0.012673866
14	0x3daa3afc	0.083120316
15	0x3e935e92	0.2878309
16	0x3cb9d65d	0.022685224
17	0x3da093aa	0.07840665
18	0x3e229f33	0.15881042
19	0xbe0c4f5b	-0.13702147
20	0xbda62b6a	-0.08113749
21	0x3e58e119	0.21179618
22	0x3e66a1e1	0.2252269
23	0x3d777d0b	0.060421985
24	0xbe784e6f	-0.2424867
25	0x3e278a32	0.16361311
26	0xbe86ea27	-0.2635052
27	0x3e06c12a	0.13159624
28	0x3c94376b	0.018092832
29	0x3d8dad34	0.069178015
30	0xbea4dfca	-0.32201988
31	0xbd9315e6	-0.07181911
32	0x3dd3685b	0.103226386
33	0x3e748678	0.23879421
34	0xbd5cd601	-0.053915028
35	0x3e9392c1	0.28822902

naim.encoder.0.attn.linear_k.weight f4 [6, 6]
0	0xbd524b48	-0.051341325
1	0xbe3419ea	-0.1758801
2	0xbdedd96f	-0.11613738
3	0x3d000e94	0.031263903
4	0xbce6a60b	-0.028155347
5	0x3e0b0137	0.13574682
6	0xbe1cadf7	-0.15300737
7	0xbd6e8222	-0.058229573
8	0xbea9a15e	-0.33130926
9	0x3e89da2f	0.26924273
10	0xbd2e480c	-0.042549178
11	0xbe7f189b	-0.2491173
12	0xbd02cd02	-0.031933792
13	0xbcd56be8	-0.02605243
14	0x3d235a87	0.039881255
15	0x3c52a25f	0.012856095
16	0x3e38ef5e	0.18060061
17	0xbd85b135	-0.0652794
18	0xbd7c03a8	-0.061526924
19	0xbd9def11	-0.07711614
20	0x3c890cb9	0.0167297
21	0x3e8ef967	0.27924654
22	0xbb45a2d6	-0.0030156872
23	0x3e7941fd	0.24341579
24	0x3e7cfb45	0.24705227
25	0xbe15398c	-0.14572734
26	0xbc10cf64	-0.008838508
27	0xbdfde5d8	-0.12397355
28	0x3dd2f496	0.10300557
29	0xbdaacb5a	-0.083395675
30	0x3d74d79e	0.05977594
31	0xbc656c0d	-0.014002812
32	0xbe4e2e7a	-0.20134917
33	0xbe4f90ee	-0.2027013
34	0xbea8674b	-0.32891306
35	0xbe32265a	-0.17397442

naim.encoder.0.attn.linear_v.weight f4 [6, 6]
0	0x3dceadd2	0.10091747
1	0x3d2634cc	0.040577695
2	0x3e9971d0	0.29969645
3	0xbeb56e64	-0.35435784
4	0xbc0f81f7	-0.008759013
5	0xbeb473df	-0.35244653
6	0xbca55734	-0.020183183
7	0x3ddcb3d3	0.10776486
8	0xbebcb9bf	-0.36860463
9	0x3ebc1e38	0.36741805
10	0xbdadfdb1	-0.084956534
11	0x3eb846ef	0.35991618
12	0xbd0ec423	-0.03485502
13	0x3e3aa1ee	0.18225834
14	0x3eb84325	0.35988727
15	0xbe0efc1b	-0.13963358
16	0xbdd72bf7	-0.105064325
17	0x3e550f70	0.2080667
18	0xbead558c	-0.3385433
19	0x3e39e2e1	0.18152954
20	0xbe846b23	-0.2586299
21	0x3ec5e89c	0.3865403
22	0xbe87a7e9	-0.26495293
23	0xbe0416fc	-0.12899393
24	0x3e96606d	0.29370442
25	0xbe40e0d0	-0.18835759
26	0x3e98d4ae	0.29849762
27	0x3e8e2f00	0.27770233
28	0x3eb90ffa	0.36145002
29	0xbec5f770	-0.38665342
30	0xbc2f0d52	-0.010684328
31	0xbdc22242	-0.094791904
32	0x3dd2cce9	0.1029299
33	0xbe9e210f	-0.30884597
34	0x3e298e99	0.16558303
35	0xbc5a4e1a	-0.013324285

naim.encoder.0.attn.linear_o.weight f4 [6, 6]
0	0xbdf9c4da	-0.121957496
1	0xbe9589d1	-0.29206708
2	0x3e105103	0.14093404
3	0xbda227de	-0.0791776
4	0x3e67f688	0.22652638
5	0x3c82f9f5	0.01598833
6	0x3d6b04ff	0.05737781
7	0xbc1a9fb8	-0.009437494
8	0xbbdb532c	-0.0066932645
9	0xbd904de4	-0.070461065
10	0xbe8e77bb	-0.27825722
11	0x3e3b718d	0.18305035
12	0xbe7d5c3f	-0.2474222
13	0x3e73d53e	0.23811814
14	0xbe03fab0	-0.12888598
15	0x3e81a956	0.25324506
16	0x3eb302e5	0.34963146
17	0xbe72d05d	-0.23712297
18	0x3eafbe57	0.34324905
19	0x3ca1a3e6	0.019731473
20	0xbe96ad8b	-0.29429278
21	0x3e34d46e	0.1765916
22	0x3e6d3ea7	0.23168431
23	0x3eba9fb0	0.36449957
24	0xbeb999e4	-0.36250222
25	0x3ec1d73a	0.37859517
26	0x3ea36bec	0.31918275
27	0x3ed10cf0	0.40830183
28	0x3e707f63	0.23486094
29	0xbe30ae8a	-0.17254081
30	0x3e9d8225	0.30763355
31	0x3ebda283	0.3703805
32	0xbe194e90	-0.14971375
33	0xbd75f146	-0.06004455
34	0x3ea15edd	0.31517687
35	0x3ea5ecd1	0.3240724

naim.encoder.0.layer_norm_2.weight f4 [6]
0	0x3f7e1e9a	0.99265444
1	0x3f772c7e	0.96552265
2	0x3f76bf74	0.96385884
3	0x3f79bde2	0.97555363
4	0x3f79cf29	0.97581726
5	0x3f798e5c	0.9748285

naim.encoder.0.layer_norm_2.bias f4 [6]
0	0xbab2c1cb	-0.0013638077
1	0x3c0f6b07	0.008753545
2	0xbb3fbeba	-0.002925797
3	0xba4fbd8d	-0.00079246686
4	0x3a7556b7	0.000935893
5	0x3b098564	0.0020984048

naim.encoder.0.ff.0.weight f4 [1000, 6]
0	0x3e4fed75	0.20305426
1	0x3e76b2be	0.24091622
2	0xbe18b933	-0.14914398
3	0xbd182d5e	-0.03715264
4	0xbdcc3da7	-0.09972697
5	0x3e1957da	0.14974919
6	0x3d4387d4	0.047736958
7	0xbe815554	-0.25260413
8	0xbca05c11	-0.01957515
9	0xbe851ae0	-0.25997066
10	0xbea04e94	-0.3130995
11	0x3e997538	0.29972243
12	0xbe103997	-0.14084469
13	0x3e0ab080	0.13543892
14	0xbd641155	-0.05568059
15	0xbd2a0660	-0.041509986
16	0x3c8f2011	0.017471345
17	0x3e852d9d	0.26011363
18	0xbc78d978	-0.015188567
19	0x3e86a5e3	0.26298437
20	0x3e2e28de	0.17007777
21	0x3e53afd4	0.20672542
22	0xbe97ca9c	-0.29646766
23	0xbdf8641a	-0.12128468
24	0xbe86c634	-0.26323092
25	0xbd990330	-0.07471311
26	0xbd7c6284	-0.06161739
27	0x3d539019	0.051651094
28	0x3ea7cb41	0.32772258
29	0x3e1b2f9d	0.15154882
30	0xbe5e85ab	-0.21730678
31	0xbe5d81a1	-0.21631481
32	0x3e784246	0.24244031
33	0x3ca6e766	0.020374011
34	0x3db13511	0.086527
35	0xbe30a295	-0.1724952
36	0xbcd67d13	-0.026182687
37	0x3da784f9	0.081796594
38	0xbe50ddd8	-0.20397127
39	0x3e47b6df	0.19503354
40	0x3e198173	0.14990787
41	0xbe32a516	-0.17445788
42	0xbdd58eb5	-0.1042761
43	0xbd9ca6ba	-0.07648988
44	0x3d22269f	0.039587613
45	0xbdb5f37e	-0.08884333
46	0x3eaf3f1b	0.34227833
47	0xbeab1243	-0.3341237
48	0xbe2e83b9	-0.17042436
49	0xbe5b79dc	-0.21433204
50	0x3da0db82	0.07854368
51	0x3ce1c8fb	0.027561655
52	0xbdc3c8ad	-0.0955976
53	0x3e992c19	0.29916456
54	0xbe905f93	-0.28197917
55	0x3da8fdd3	0.08251538
56	0xbe2b9ef4	-0.16759855
57	0xbd0cee1f	-0.034406777
58	0xbea58ae1	-0.3233252
59	0xbe6f2292	-0.23353031
60	0xbe8c4b90	-0.274014
61	0x3de354ff	0.11100196
62	0xbdb55c12	-0.08855452
63	0x3e15aa05	0.14615639
64	0xbe1ad050	-0.15118527
65	0xbd5dea82	-0.054178722
66	0x3cb1fb10	0.021726161
67	0x3e8e163d	0.2775134
68	0xbd79da6c	-0.06099932
69	0x3e2990b3	0.16559105
70	0x3d9c16c6	0.07621531
71	0x3e3f74c7	0.18696891
72	0x3e47876a	0.1948525
73	0x3e0a3965	0.13498457
74	0xbd98c39e	-0.07459186
75	0xbd8d442a	-0.06897767
76	0x3df75d61	0.120783575
77	0x3e2ba9a4	0.16763932
78	0xbae75d06	-0.0017651625
79	0x3e09ccdd	0.13457055
80	0xbe3498d8	-0.1763643
81	0x3e233c0e	0.15940878
82	0xbbd8f326	-0.0066207824
83	0xbe544712	-0.20730236
84	0xbe01c3cd	-0.12672348
85	0xbe83bfb3	-0.25732192
86	0x3d35ec9f	0.044415113
87	0xbe2e5f6d	-0.1702859
88	0xbda32589	-0.07966144
89	0xbc50096c	-0.012697559
90	0xbe36c80c	-0.1784975
91	0x3c5c1c15	0.01343443
92	0xbc86ae8b	-0.01644065
93	0x3d8a7c71	0.067620166
94	0x3e65c1a3	0.22437148
95	0xbe330a3d	-0.17484374
96	0x3e1f9bd8	0.15586793
97	0xbc38c848	-0.0112782195
98	0xbe382d32	-0.1798599
99	0xbdf81aba	-0.12114473
100	0x3dabc70e	0.08387576
101	0x3d84346b	0.064553104
102	0xbc2049a0	-0.009783179
103	0xbe11f224	-0.14252526
104	0x3e13ffbc	0.14453024
105	0x3cbc19ad	0.022961462
106	0xbea69f1d	-0.3254327
107	0xbcf982be	-0.03045785
108	0xbd533849	-0.05156735
109	0xbe10cbf2	-0.14140299
110	0xbe2d4502	-0.16920856
111	0xbe831d16	-0.25608128
112	0x3eb1435f	0.34621713
113	0xbe9fce75	-0.31212202
114	0x3e9e5f0a	0.30931884
115	0xbe8ba142	-0.27271467
116	0xbd9043df	-0.070441954
117	0xbdde8cd6	-0.10866706
118	0xbe34867e	-0.1762943
119	0x3dda28dd	0.10652325
120	0x3e2ddbe8	0.16978419
121	0xbe6c76aa	-0.23092142
122	0xbe0ccb76	-0.13749489
123	0x3e142849	0.14468493
124	0xbd190f7e	-0.03736829
125	0x3d924509	0.07142074
126	0x3e125f47	0.14294158
127	0xbdae8d0c	-0.08522996
128	0xbe1f5267	-0.15558778
129	0x3daaac30	0.083336234
130	0xbdac022b	-0.08398851
131	0xbe4a8239	-0.19776239
132	0xbe103523	-0.1408277
133	0xbe217405	-0.15766914
134	0x3eacf0af	0.33777377
135	0x3d122314	0.035677984
136	0x3e105bdf	0.14097546
137	0x3d243a47	0.04009464
138	0xbe4e7c1c	-0.20164531
139	0x3e6186ff	0.22024153
140	0xbc6142be	-0.013748823
141	0xbd2ead81	-0.042645935
142	0x3e8447f5	0.2583615
143	0xbe0bb551	-0.13643385
144	0x3d176ce1	0.03696907
145	0xbe8f8f20	-0.28038883
146	0x3e127901	0.14303972
147	0x3dcdcad9	0.10048456
148	0xbe8786d6	-0.2647006
149	0x3e24a651	0.1607907
150	0x3cdb2261	0.026749792
151	0xbe22c686	-0.15896043
152	0x3e8f23b9	0.27956942
153	0x3df4355a	0.119242385
154	0x3dc8659b	0.09785005
155	0xbdd3476f	-0.10316359
156	0xbe2cb2db	-0.16865103
157	0xbe46f230	-0.19428325
158	0x3dfbb2e9	0.12289984
159	0x3d9b79cd	0.07591591
160	0xbe5ce6a8	-0.21572363
161	0x3ea7e354	0.32790625
162	0x3e2c022c	0.16797704
163	0xbe01f605	-0.12691505
164	0x3e1ec732	0.15505674
165	0xbddb1bde	-0.106986746
166	0x3dc8d8db	0.09806987
167	0x3e8f2fd6	0.27966183
168	0xbe939f27	-0.2883236
169	0xbe0bf975	-0.13669379
170	0xbb86fd75	-0.00411957
171	0x3cbbcaad	0.022923792
172	0xbe86b99c	-0.26313484
173	0xbe4693cf	-0.19392322
174	0xbcdead7b	-0.027182331
175	0xbd3eae35	-0.046552856
176	0x3d89186c	0.06694111
177	0x3cf1c6d5	0.029513756
178	0x3d8282c7	0.063726
179	0x3cab7ea3	0.020934409
180	0x3c9ba3c7	0.018998994
181	0xbc30dc7f	-0.010794758
182	0x3db7ec3c	0.08980605
183	0x3e52faf3	0.20603542
184	0xbe0beea0	-0.13665247
185	0xbe11ed10	-0.14250588
186	0x3dfc5076	0.12320034
187	0xbe8353f2	-0.25649983
188	0x3e5d047b	0.2158374
189	0x3e022d4a	0.12712589
190	0x3d492641	0.049108747
191	0xbe10029b	-0.14063494
192	0x3ba145d1	0.004921653
193	0xbe89b3d1	-0.26895002
194	0xbe988cea	-0.2979501
195	0x3e9f8b37	0.311609
196	0xbe9cd3c4	-0.30630314
197	0xbe8b6173	-0.27222785
198	0xbdb66328	-0.08905631
199	0x3a8052cc	0.00097903
200	0x3d128d76	0.03577944
201	0xbe07021e	-0.13184401
202	0xbbf94e15	-0.007608185
203	0xbd0a6ae1	-0.033793334
204	0x3e8b4d79	0.27207544
205	0x3e90126a	0.2813905
206	0x3df0d33e	0.11759041
207	0x3b5b74ca	0.003348636
208	0x3e717bff	0.23582457
209	0xbe82fe75	-0.2558476
210	0x3dd08f67	0.10183602
211	0xbe2985b5	-0.16554911
212	0x3e7a81ad	0.2446353
213	0xbe9262e9	-0.28591087
214	0x3da8d5b2	0.08243884
215	0xbe85a781	-0.26104358
216	0x3e33dbd0	0.1756432
217	0x3d7e006e	0.06201213
218	0x3e94ec34	0.2908646
219	0xbe778808	-0.24172986
220	0x3e66de31	0.22545697
221	0xbe69a454	-0.22816592
222	0xbe1c014b	-0.15234868
223	0x3db2de11	0.08733762
224	0xbcdfc3b6	-0.027315002
225	0xbe7e2af7	-0.24821077
226	0xbe8bf3fb	-0.2733458
227	0xbd56548e	-0.05232673
228	0x3d6c7e3b	0.05773757
229	0x3e9139f0	0.28364515
230	0x3e6c5baf	0.2308185
231	0x3b0ac0e6	0.0021172105
232	0xbe371d1c	-0.17882198
233	0xbe94486d	-0.28961506
234	0x3e95f413	0.29287776
235	0xbe383e53	-0.17992525
236	0xbd1a8287	-0.037722137
237	0xbe833af9	-0.2563093
238	0xbe686616	-0.22695193
239	0x3d388882	0.04505206
240	0xbd22b0e4	-0.039719477
241	0x3b7307b4	0.003708345
242	0x38374a28	4.3699663e-05
243	0x38e9942c	0.00011137905
244	0xbcc206cc	-0.023684882
245	0xba15888d	-0.00057042466
246	0x3deea2fd	0.11652181
247	0x3e66022c	0.22461766
248	0x3e8bafbf	0.2728252
249	0xbe846013	-0.2585455
250	0xbe8c8c8c	-0.2745098
251	0xbd0b4e15	-0.03401001
252	0xbcaa044e	-0.020754006
253	0x3e250989	0.16116919
254	0x3e9e85bd	0.3096141
255	0x3d83d639	0.06437344

naim.encoder.0.ff.0.bias f4 [1000]
0	0x3e5a19e5	0.2129894
1	0xbe18f2c8	-0.14936364
2	0xbcdb04b3	-0.02673564
3	0x3ca8783b	0.020565143
4	0x3e809c99	0.25119475
5	0x3e1b2118	0.15149343
6	0x3eab25df	0.3342733
7	0xbe35128c	-0.17682856
8	0xbcbffeee	-0.02343699
9	0xbbc4b2a7	-0.0060027423
10	0x3e8897ee	0.26678413
11	0x3ea937e1	0.33050445
12	0x3db05956	0.086107895
13	0xbe82981d	-0.25506678
14	0xbe709826	-0.2349554
15	0x3d28b774	0.04119058
16	0xbe9b23a0	-0.30300617
17	0xbdb75396	-0.089514896
18	0xbe816deb	-0.25279173
19	0x3e2e573c	0.17025465
20	0xbd1d4463	-0.038395297
21	0xbe7afabd	-0.24509712
22	0x3e655c14	0.22398406
23	0xbe92eba2	-0.286954
24	0xbcbc5dc3	-0.022993928
25	0x3eabf6ac	0.33586633
26	0x3e3c09cb	0.1836311
27	0xbe97d167	-0.2965195
28	0x3cf6ab70	0.030111045
29	0xbd463fe6	-0.048400782
30	0x3dfafaf5	0.122548975
31	0x3ea81d21	0.32834724
32	0x3e9235cd	0.28556672
33	0xbc11004c	-0.008850168
34	0x3e1a1f8d	0.15051098
35	0xbea6497c	-0.3247794
36	0x3e90e1c9	0.2829726
37	0x3e2b30ca	0.1671783
38	0xbe5bd575	-0.21468146
39	0xbda3a4a5	-0.07990388
40	0xbdb67557	-0.089090995
41	0xbe2fabbf	-0.1715536
42	0x3e14bde0	0.14525557
43	0xbd853ca2	-0.065057054
44	0x3e1132ec	0.14179581
45	0xbd5a40e4	-0.05328454
46	0x3e8a8820	0.2705698
47	0xbdc3c267	-0.09558564
48	0xbd2953c1	-0.04133964
49	0xbd903aa9	-0.070424385
50	0x3c76ef99	0.015071773
51	0xbde4db99	-0.111746974
52	0xbe64a347	-0.2232791
53	0xbea10a8e	-0.31453365
54	0x3e438858	0.1909498
55	0x3d486723	0.048926484
56	0xbe48a864	-0.19595486
57	0x3e42bb43	0.19016747
58	0x3cc14059	0.023590254
59	0xbda63d9b	-0.08117219
60	0xbc2cf4c4	-0.010556404
61	0x3d135375	0.035968263
62	0x3e81fcb3	0.25388107
63	0xbe9ab768	-0.30218053
64	0xbe778fa2	-0.24175885
65	0xbe830d32	-0.25596005
66	0xbe7c38e0	-0.24631071
67	0x3bf7763e	0.0075519374
68	0x3e2b061f	0.16701554
69	0x3dbda29e	0.092595324
70	0x3e08a57d	0.13344379
71	0x3d286331	0.04111022
72	0xbb7afc94	-0.003829752
73	0xbea0e98d	-0.31428185
74	0x3e9bfaa7	0.3046467
75	0x3eaff850	0.34369135
76	0xbbf1bc67	-0.0073771956
77	0x3d808b8e	0.06276618
78	0x3d43a2e2	0.04776276
79	0x3eb39504	0.35074627
80	0xba769ea3	-0.0009407794
81	0xbd248905	-0.040169735
82	0xbe1f4ab7	-0.15555845
83	0x3db455c5	0.08805422
84	0x3e21961f	0.15779923
85	0xbe8a49a0	-0.27009296
86	0x3dc9e027	0.09857207
87	0x3dbe346b	0.09287342
88	0x3e138765	0.14407118
89	0x3e0ac85a	0.1355299
90	0xbd64d716	-0.055869184
91	0x3d2fa4a6	0.04288163
92	0xbe72e07c	-0.23718446
93	0x3e422f3a	0.18963328
94	0xbe8b15f4	-0.27165186
95	0xbe99992d	-0.29999676
96	0xbe6f2a06	-0.23355874
97	0xbe23da8e	-0.16001341
98	0x3c78bc11	0.015181557
99	0x3e4f5adb	0.20249502
100	0xbc809c91	-0.015699657
101	0x3e80f910	0.2519002
102	0xbd356c2e	-0.04429262
103	0x3e932f84	0.2874719
104	0x3e752369	0.23939289
105	0x3e48bf98	0.19604337
106	0x3de98f80	0.114043236
107	0xbe69198a	-0.22763649
108	0x3eab4cdb	0.33457074
109	0xbea194a9	-0.3155873
110	0xbe5e0e22	-0.21685079
111	0xbe34550e	-0.17610571
112	0xbda4ac67	-0.08040696
113	0x3e086e90	0.13323426
114	0x3d84c4a5	0.064828195
115	0xbe9982ad	-0.2998251
116	0x3eabce34	0.33555758
117	0x3eaa8be0	0.3330984
118	0x3e1f1de9	0.15538754
119	0xbea66189	-0.32496288
120	0x3e48b2da	0.19599476
121	0x3da8dc2e	0.08245121
122	0xbcebeeb7	-0.028800352
123	0xbe884ad2	-0.26619583
124	0x3e96fea6	0.29491156
125	0xbdbb3683	-0.09141257
126	0xbe8d3d02	-0.27585608
127	0x3e8a3700	0.26995087
128	0x3e0f6421	0.1400304
129	0x3dc2a0e3	0.09503343
130	0x3e68a8d3	0.22720651
131	0x3df822d7	0.1211602
132	0xbd8b9a68	-0.0681656
133	0xbd539f2a	-0.051665463
134	0x3e94a94d	0.29035416
135	0xb973abf8	-0.00023238349
136	0xbe8f935c	-0.28042114
137	0xbe562318	-0.20911825
138	0xbe6f8033	-0.23388748
139	0x3cbec0f2	0.023285363
140	0x3e865e29	0.26243713
141	0x3e57fff8	0.21093738
142	0x3dbbcdcd	0.09170113
143	0x3de69b46	0.11260085
144	0xbe1ddb1a	-0.15415612
145	0x3eaea3bb	0.3410929
146	0x3dec5ffc	0.11541745
147	0xbe3a81d5	-0.1821359
148	0xbe5bc984	-0.21463591
149	0xbe948053	-0.29004154
150	0xbd6a26aa	-0.05716578
151	0x3e7b31da	0.24530736
152	0x3ccbecc8	0.02489318
153	0xbe1af642	-0.15133002
154	0x3dcedc38	0.10100597
155	0xbe56ddbd	-0.20983024
156	0x3dc76c89	0.09737498
157	0x3e579061	0.2105117
158	0x3e239253	0.15973787
159	0xbd972ab6	-0.07381193
160	0xbdaccbe1	-0.08437324
161	0x3e0a47a7	0.13503896
162	0x3e3703d5	0.17872556
163	0xbd282630	-0.041052043
164	0x3b76c5b8	0.003765447
165	0xbce82e0a	-0.028342266
166	0xbbab7d22	-0.005233423
167	0xbe93a663	-0.2883788
168	0xbe85b54a	-0.26114875
169	0x3e99b4de	0.30020803
170	0xbe181a65	-0.14853819
171	0x3e8077ee	0.250915
172	0x3e551a48	0.20810807
173	0xbd3e49d3	-0.046457123
174	0xbe207e76	-0.15673241
175	0x3c2d727a	0.010586375
176	0xbd564304	-0.052310005
177	0xbe2e5f5b	-0.17028563
178	0x3ea7e7a2	0.3279391
179	0xbb6dbfd3	-0.0036277666
180	0xbd41d1f4	-0.047319368
181	0xbe57274f	-0.21011089
182	0x3d4fdccf	0.05074769
183	0x3d5f6db2	0.054547973
184	0x3ebb38bb	0.3656672
185	0xbd777ce1	-0.06042183
186	0x3e28840a	0.16456619
187	0x3c9cd6ad	0.019145334
188	0x3e2962a7	0.16541539
189	0x3bb964cc	0.005657768
190	0xbca4e366	-0.020127963
191	0x3e1073f2	0.1410673
192	0xbdf41872	-0.11918725
193	0x3e4db92c	0.20090169
194	0xbe88e1ea	-0.2673486
195	0xbe606a2f	-0.21915506
196	0x3ea95c68	0.33078313
197	0xbdcbf27a	-0.09958358
198	0xbe8159f1	-0.25263932
199	0xbe673bf0	-0.22581458
200	0x3eac5422	0.33657938
201	0xbccf10e7	-0.025276614
202	0xbe895862	-0.26825243
203	0xbc7bbb9e	-0.015364556
204	0xbe047bbf	-0.1293783
205	0xbe4f1f42	-0.20226768
206	0xbe314466	-0.17311248
207	0x3e84f11d	0.25965205
208	0x3e028cf5	0.12749083
209	0x3e4ac341	0.19801046
210	0x3c799d90	0.01523532
211	0xbdd0b98d	-0.10191641
212	0xbdd3d7e4	-0.10343912
213	0xbe50d282	-0.20392802
214	0xbe65f5e5	-0.22457083
215	0xbe8e06eb	-0.27739653
216	0x3d19caed	0.03754704
217	0x3e335391	0.17512347
218	0x3e9bd6ee	0.30437416
219	0xbb356f1a	-0.002768463
220	0xbcdd2417	-0.026994748
221	0xbca1f4b9	-0.019770013
222	0x3dfc5f05	0.12322811
223	0xbca9b4e1	-0.020716133
224	0xbdba8b41	-0.09108592
225	0xbda14f72	-0.07876481
226	0xbea59c58	-0.32345843
227	0xbe7baba0	-0.24577188
228	0xbe1addb2	-0.15123633
229	0x3c8d87b3	0.01727662
230	0xbe3c7dcf	-0.18407367
231	0x3de305cf	0.11085092
232	0xbe1cad2f	-0.1530044
233	0x3ea8d53c	0.32975185
234	0xbe93365e	-0.28752416
235	0x3e381069	0.1797501
236	0xbe1ed0c9	-0.15509333
237	0xbda40ab6	-0.080098554
238	0xbea97798	-0.33099055
239	0xbe9c2dfb	-0.3050383
240	0xbea93922	-0.330514
241	0xbbef5756	-0.0073041124
242	0x3eae2bf7	0.34017918
243	0x3e05fad7	0.13083969
244	0x3e5e2133	0.21692352
245	0x3da86be3	0.08223703
246	0xbdd0f6b3	-0.10203304
247	0xbdf6365a	-0.120220855
248	0xbd846108	-0.0646382
249	0xbe9cc858	-0.306216
250	0x3e3fc207	0.1872636
251	0xbd9efb52	-0.07762779
252	0xbe421225	-0.18952234
253	0x3da76077	0.08172696
254	0xbb17c649	-0.0023158959
255	0x3e4628aa	0.1935145

naim.encoder.0.ff.3.weight f4 [6, 1000]
0	0xbc38c2aa	-0.01127688
1	0xbc060c87	-0.008181698
2	0xbb8681c5	-0.004104825
3	0x3b14146d	0.0022595183
4	0xbc644055	-0.013931354
5	0x3a45b445	0.0007541816
6	0xbb94b997	-0.0045387256
7	0xbc2b33a7	-0.010449327
8	0x3c85c9bf	0.016331552
9	0x3d193a08	0.03740886
10	0xbbbde78a	-0.005795424
11	0xbbeb6f72	-0.007184916
12	0xbce68a8b	-0.028142234
13	0xbc79b7f0	-0.015241608
14	0xbb917f26	-0.004440206
15	0xbc04e681	-0.008111597
16	0x3c886702	0.01665068
17	0xbc06115a	-0.008182848
18	0xbb33bb45	-0.0027424854
19	0x3bed116d	0.0072347433
20	0x3d0287f9	0.031867955
21	0x3cac7664	0.021052547
22	0xbcc0187c	-0.023449175
23	0xbb4cac8e	-0.003123078
24	0xbb202174	-0.0024434002
25	0xbaf92c9e	-0.0019010489
26	0x3c354a76	0.011065116
27	0xbc373629	-0.011182346
28	0xbb8a397f	-0.00421828
29	0xbcfd31b4	-0.03090749
30	0xbc0a8610	-0.008454815
31	0xbcf87bb0	-0.030332416
32	0x3c3d24c0	0.011544406
33	0xbc8cea7c	-0.017201655
34	0xbc6eb13d	-0.014568624
35	0xbc81c119	-0.015839146
36	0x3ccf7da4	0.025328465
37	0xbbdbcb6c	-0.0067075994
38	0x3d015e5a	0.03158412
39	0xbb65db1f	-0.0035073233
40	0x3aa3636f	0.0012465547
41	0x3becb220	0.0072233826
42	0xbc92f8d1	-0.01794091
43	0x3ceefccb	0.029173275
44	0xbca99b6a	-0.02070399
45	0xba4e2912	-0.00078643963
46	0x3c96f808	0.018428817
47	0x3c239bb5	0.009985854
48	0xbbcb6bb7	-0.006207909
49	0x3d07615c	0.033051834
50	0xbce2176c	-0.027599059
51	0xbc62e220	-0.013847858
52	0x3c3a0ef1	0.011356101
53	0xbc79aee5	-0.015239452
54	0x3b1f6c02	0.0024325852
55	0xbc2b3a3e	-0.010450898
56	0xbbb97448	-0.0056596138
57	0x3cb7ea52	0.0224506
58	0xbc0b2073	-0.008491623
59	0x3c7a50ec	0.015278082
60	0x3cdd0e52	0.026984368
61	0x3ce161ff	0.027512548
62	0x3c88aa9e	0.01668292
63	0x3cd3895b	0.025822332
64	0xba0d6b78	-0.0005394737
65	0x3beee13d	0.007290034
66	0xbb462744	-0.0030235806
67	0xbd033d93	-0.032041144
68	0x3d00bf17	0.031432237
69	0xbce31a5d	-0.027722532
70	0xbc976631	-0.018481346
71	0xbc71d657	-0.014760575
72	0xbc481442	-0.012211861
73	0xbca1e45a	-0.019762207
74	0xbc6d6062	-0.0144883115
75	0x3ba113d7	0.004915695
76	0xbcac437f	-0.021028278
77	0xbccd5f56	-0.025069874
78	0xbc4dd380	-0.012562633
79	0xbcc5c077	-0.024139626
80	0x3b94125c	0.00451879
81	0x3bf1847d	0.00737053
82	0x3b8a3bba	0.0042185457
83	0x3cf8dbe6	0.030378293
84	0xbc560f83	-0.013065222
85	0xbc3e08c4	-0.01159877
86	0x3bc34e05	0.0059602284
87	0x3d0cfb3f	0.034419294
88	0x3c12c31b	0.00895765
89	0xba389607	-0.0007041399
90	0x3c64507e	0.013935206
91	0xbccc432c	-0.024934374
92	0xbc9584a0	-0.018251717
93	0xbc5fb4f1	-0.01365398
94	0xbca04859	-0.019565748
95	0xbc8b93fe	-0.017038342
96	0xbcafc9be	-0.021458503
97	0x3c8265c5	0.015917668
98	0x3bff301d	0.007787718
99	0x3b8014e6	0.0039087413
100	0xbb2fc1ba	-0.002681835
101	0x3a5cd4ff	0.0008424073
102	0x3cd7d785	0.026347885
103	0xbcc497b2	-0.023998115
104	0x3c7b7e57	0.015349946
105	0x3c21da08	0.009878643
106	0xbc4c0677	-0.012452713
107	0x3ca12f50	0.01967588
108	0x3a51080e	0.00079739175
109	0xbc38a0fb	-0.0112688495
110	0x3d063330	0.03276366
111	0x3c752ee7	0.014964796
112	0x3ccc54d1	0.024942787
113	0xbb775ccc	-0.003774452
114	0xbc9354d1	-0.01798478
115	0x3ca7a727	0.020465447
116	0x3afe8450	0.0019418094
117	0x3c2f1675	0.0106865065
118	0xbbc91904	-0.0061370153
119	0x3cad9f31	0.021194072
120	0xbcc39fed	-0.02387997
121	0x3af1c5a7	0.0018445746
122	0x3cd552d2	0.026040468
123	0xbbb6eb1a	-0.0055822255
124	0x3cd8cbc6	0.026464354
125	0x3ca33ddf	0.019926963
126	0x3c4fb66c	0.01267777
127	0x3cf50a1b	0.029912045
128	0xbbde4b11	-0.006783851
129	0xbbded557	-0.0068003344
130	0x3c95df67	0.018295003
131	0xbc97877d	-0.018497223
132	0xbc8d1db8	-0.017226085
133	0x3d05c8a8	0.032662064
134	0xbcb601bf	-0.02221763
135	0xbaec6a5a	-0.0018037066
136	0x3c2f14fa	0.010686154
137	0x3c60b1e9	0.013714292
138	0xbc1d139e	-0.009587197
139	0x3b5c2576	0.0033591664
140	0x3c9a002f	0.018798916
141	0xbca26ba9	-0.019826727
142	0x3cc37509	0.023859518
143	0x3aaa5b57	0.0012997192
144	0xbbdc09f0	-0.006715052
145	0xbcf2e5d2	-0.029650602
146	0xba102806	-0.0005499128
147	0x3cfd5d78	0.030928358
148	0xbc8639f7	-0.016385062
149	0xbb0f27ad	-0.0021843717
150	0xbb419ea3	-0.0029544018
151	0x3c962455	0.018327871
152	0xbc34b854	-0.011030275
153	0x3cd7764d	0.026301527
154	0x3d05354a	0.032521524
155	0x3caf2b16	0.02138285
156	0xbc8079ff	-0.015683172
157	0xbcb1c4b3	-0.021700239
158	0xbce0f499	-0.027460383
159	0x3c3e7dd8	0.011626683
160	0xbc3e855b	-0.011628474
161	0x3c83a681	0.016070606
162	0x3a3faadd	0.00073115324
163	0x3d02fbde	0.03197848
164	0xbcbddac8	-0.023175612
165	0xbc0495c6	-0.008092349
166	0x3a874d29	0.0010322678
167	0x3ba81dad	0.0051304908
168	0x3cf15d97	0.029463572
169	0xbad20eff	-0.0016026198
170	0x3cf6f9aa	0.030148346
171	0xbc1c3590	-0.009534255
172	0xbb22167c	-0.002473264
173	0xbc5bd8f6	-0.013418427
174	0xbc40f22a	-0.011776486
175	0xbc7eab19	-0.015543723
176	0xbcdaec60	-0.02672404
177	0x3bbb0aba	0.005708066
178	0xbc38f14d	-0.011287999
179	0xbc37a8cd	-0.011209679
180	0xbcac6816	-0.021045726
181	0xbcc2d328	-0.023782328
182	0xbbcfc88b	-0.0063410453
183	0xbce58c47	-0.028020991
184	0x3ce54806	0.027988445
185	0xbae43c1a	-0.0017412931
186	0x3c25e6c1	0.010125817
187	0xbceec78a	-0.029147882
188	0x3c157fe3	0.009124729
189	0xbc95c47a	-0.018282164
190	0x3cb89c4a	0.022535462
191	0x3c49ab43	0.012308898
192	0xbbffd6ec	-0.007807603
193	0x3c661fc2	0.014045658
194	0xbb9ea93f	-0.004841953
195	0xbc03aecc	-0.00803728
196	0xbc800609	-0.015627878
197	0x3d29c094	0.041443422
198	0xbc7dcea9	-0.015491166
199	0x3cef4d59	0.029211687
200	0x3c027f0b	0.00796486
201	0x3c8c05ad	0.01709255
202	0xbc90b5d5	-0.01766483
203	0x3bb29f89	0.005451147
204	0x3c02c611	0.007981793
205	0x3d195948	0.03743866
206	0xbd035a3e	-0.032068484
207	0xbc200084	-0.009765748
208	0xbb465e2e	-0.0030268538
209	0xbca55298	-0.020180985
210	0x3bd5b821	0.006522194
211	0x3c88afd9	0.016685413
212	0x3cda18fd	0.026623243
213	0xbc1f0c30	-0.009707496
214	0x3c65ecb5	0.014033486
215	0xbc1dbd0e	-0.009627594
216	0x3ce2e4c0	0.027696967
217	0xbcb78d33	-0.022406196
218	0xbcf10d5e	-0.02942532
219	0x3c7afcf1	0.015319095
220	0xbb838b2d	-0.004014394
221	0x3c25e87f	0.010126232
222	0x3cda4ec8	0.026648894
223	0x3d4dc2e8	0.050234705
224	0x3c1d5c0f	0.009604468
225	0xbcbf4c80	-0.023351908
226	0x3b82dc13	0.00399352
227	0x39bb370a	0.00035708427
228	0xbcd67563	-0.026179021
229	0x3ccb485b	0.024814775
230	0x3cddf8f7	0.027096255
231	0xbc207dcc	-0.009795617
232	0xbbb84c6d	-0.005624345
233	0xbc9001b6	-0.01757894
234	0x3c80a5d6	0.015704077
235	0x3b9d9874	0.0048094336
236	0xbc58564c	-0.0132041685
237	0x3c8399f9	0.01606463
238	0xbbe0e4e9	-0.0068632257
239	0x3b35143e	0.0027630473
240	0x3cc68796	0.024234574
241	0xbc92caf5	-0.017919043
242	0xbd00cc48	-0.031444818
243	0x3c9bc2a0	0.019013703
244	0xbcb99c5a	-0.022657562
245	0x3c6553c8	0.013997026
246	0xbb130373	-0.0022432476
247	0x3cac67d6	0.021045607
248	0x3b971f84	0.0046119113
249	0xbc1817ff	-0.009283065
250	0xbcc641cd	-0.024201298
251	0x3c783050	0.015148237
252	0xbc986366	-0.018602084
253	0x3bde3fd4	0.0067825112
254	0x3cd5113c	0.026009195
255	0xbce4d901	-0.027935507

naim.encoder.0.ff.3.bias f4 [6]
0	0xbcfc8244	-0.030823834
1	0x397af6e5	0.00023933833
2	0xbc9f71de	-0.019463476
3	0xbc5e5f41	-0.013572515
4	0x3cd96253	0.026536142
5	0xbcc4f055	-0.02404038

naim.encoder.1.layer_norm_1.weight f4 [6]
0	0x3f72944b	0.9475753
1	0x3f6ebf5f	0.9326076
2	0x3f6ff0f0	0.93727016
3	0x3f6e0391	0.9297419
4	0x3f6d0420	0.9258442
5	0x3f6c8251	0.9238635

naim.encoder.1.layer_norm_1.bias f4 [6]
0	0x3a067a7f	0.00051299477
1	0xbaf32d27	-0.0018552885
2	0x3a2e8b18	0.00066583
3	0x3b1ce769	0.0023941642
4	0xbbf09cd8	-0.007342916
5	0x3b19e92e	0.0023484933

naim.encoder.1.attn.linear_q.weight f4 [6, 6]
0	0xbe6b33d6	-0.22968993
1	0xbdd1fa34	-0.102528006
2	0xbe013caa	-0.12620798
3	0x3d517f59	0.05114684
4	0x3e5c2f5f	0.21502446
5	0x3d244798	0.04010734
6	0x3851841e	4.9952527e-05
7	0x3dfed1dd	0.12442372
8	0x3e2e79c8	0.17038643
9	0x390cf33e	0.00013442055
10	0xbe4e8a9e	-0.20170066
11	0xbe8ea0e2	-0.2785712
12	0x3eaab96e	0.33344597
13	0x3d8cd94f	0.06877386
14	0x3e9a804d	0.3017601
15	0xbdbc501f	-0.091949694
16	0x3d576268	0.052584082
17	0xbe1287fa	-0.14309683
18	0xbe12870a	-0.14309326
19	0xbdef1ed5	-0.116758026
20	0x3eaa34ae	0.33243316
21	0x3e6511a3	0.22370009
22	0xbe36a4e5	-0.1783634
23	0xbe5afdc6	-0.2138587
24	0x3d896d29	0.06710274
25	0xbd0c610d	-0.034272242
26	0x3a23aec5	0.0006243999
27	0x3bcd7ef2	0.0062712366
28	0xbe908766	-0.282283
29	0x3cf2f91a	0.029659797
30	0x39c89aac	0.00038262212
31	0xbe58a784	-0.21157652
32	0xbea7e1f4	-0.32789576
33	0x3e0b9a30	0.13633037
34	0xbe98870e	-0.2979054
35	0xbde68f99	-0.11257858

naim.encoder.1.attn.linear_k.weight f4 [6, 6]
0	0x3e50fb31	0.20408322
1	0xbe5cda5b	-0.21567671
2	0xbe0b4162	-0.1359916
3	0xbe4430b4	-0.19159204
4	0x3e2d46ea	0.16921583
5	0x3d98d44c	0.074623674
6	0x3a6ec3e8	0.0009108172
7	0x3d9a6d67	0.07540398
8	0x3d50ccdc	0.05097662
9	0xbcd1975e	-0.025584873
10	0xbaa18f4e	-0.0012326033
11	0xbe3a5c30	-0.18199229
12	0xbe0054d6	-0.12532362
13	0x3a89573a	0.0010478266
14	0xbb925251	-0.0044653793
15	0x3d359707	0.044333484
16	0x3dfb0bcc	0.122581095
17	0x3e765e7e	0.24059483
18	0x3ea1b6c6	0.31584758
19	0xbaa109e0	-0.0012286268
20	0x3dbca595	0.0921127
21	0xbe831703	-0.25603494
22	0x3e2793f8	0.1636504
23	0xbd37e7eb	-0.04489891
24	0xbe7fcb3e	-0.24979874
25	0xbe795988	-0.2435056
26	0xbe87d49a	-0.2652939
27	0xbdef5aff	-0.11687278
28	0x3debe3cd	0.11518059
29	0xbe83e5a4	-0.2576114
30	0xbb8fe827	-0.0043916884
31	0xbc4ae8a6	-0.012384569
32	0x3da63006	0.081146285
33	0xbdc45676	-0.095868036
34	0x3e09ea09	0.13468184
35	0xbe375626	-0.17903957

naim.encoder.1.attn.linear_v.weight f4 [6, 6]
0	0x3e74407c	0.23852724
1	0xbec588ce	-0.38580936
2	0xbe872f2d	-0.2640318
3	0x3e071f4b	0.13195531
4	0x3cfc16f5	0.030772666
5	0x3e8cd373	0.27505073
6	0x3e35cacf	0.17753147
7	0xbe94fd9f	-0.29099748
8	0x3e8b4ca7	0.2720692
9	0xbdab65e9	-0.08369047
10	0xbd281484	-0.04103519
11	0xbdee5650	-0.116375566
12	0xbd942ceb	-0.0723513
13	0xbeb8b19d	-0.36073008
14	0x3cc8dad1	0.024518402
15	0x3e9602ab	0.2929891
16	0xbd13d84b	-0.036094945
17	0x3e9a683a	0.30157644
18	0xbe34bcb6	-0.17650113
19	0x3dda00f5	0.10644714
20	0x3ce985af	0.028506128
21	0xbdd7eeca	-0.10543592
22	0x3eba5ea1	0.3640032
23	0x3d09ad4f	0.033612546
24	0x3c3bee4e	0.0114703905
25	0xbd105754	-0.035239533
26	0xbbe2819a	-0.0069124224
27	0x3e923ba6	0.28561133
28	0xbc528d19	-0.012851023
29	0x3e54b288	0.2077123
30	0x3dc51c51	0.096245416
31	0x3e491614	0.19637328
32	0xbe717cf8	-0.23582828
33	0xbe960b9b	-0.2930573
34	0xbd8a93cb	-0.067664705
35	0xbd5ace53	-0.053419422

naim.encoder.1.attn.linear_o.weight f4 [6, 6]
0	0x3ec39f3e	0.3820743
1	0x3ec43ba3	0.3832675
2	0xbdc5e7e3	-0.096633695
3	0xbe40b3de	-0.18818614
4	0xbb15f36a	-0.0022880682
5	0x3e1ec946	0.15506467
6	0x3e051645	0.12996776
7	0x3d7e2509	0.06204704
8	0x3e93a984	0.28840268
9	0x3d221c00	0.039577484
10	0x3e9dfaed	0.30855504
11	0x3da1f29d	0.07907603
12	0xbd08fd0f	-0.03344446
13	0x3e9a6c27	0.3016064
14	0x3c7f72e4	0.015591357
15	0x3c85198c	0.016247533
16	0xbd94c365	-0.07263831
17	0x3e5ac4fa	0.21364203
18	0xbdefb0fb	-0.11703678
19	0x3e92b0e1	0.28650573
20	0x3e5c76dd	0.21529718
21	0xbb7f94af	-0.0038998534
22	0xbd7c3e61	-0.061582927
23	0x3e10a9e0	0.14127302
24	0xbea556d7	-0.32292816
25	0xbd897e17	-0.06713503
26	0xbd9ad7ff	-0.07560729
27	0xbb80e34f	-0.0039333473
28	0xbdfd4e5e	-0.12368463
29	0xbdd829b5	-0.1055483
30	0x3dfae840	0.122513294
31	0xbaf46876	-0.0018646854
32	0xbe55c9e5	-0.20877798
33	0xb8cf1390	-9.874173e-05
34	0x3d838b45	0.06423048
35	0xbdc30716	-0.09522836

naim.encoder.1.layer_norm_2.weight f4 [6]
0	0x3f7e2238	0.99270964
1	0x3f792d0d	0.9733437
2	0x3f76c6c4	0.9639704
3	0x3f78b4e1	0.97151
4	0x3f771f64	0.96532273
5	0x3f75b5f1	0.95980746

naim.encoder.1.layer_norm_2.bias f4 [6]
0	0x3abf2ab3	0.0014584869
1	0xb9bf39da	-0.00036473462
2	0x39bb503c	0.000357272
3	0x399f8433	0.0003042534
4	0xba92bbf1	-0.0011194927
5	0xbb1a0a34	-0.0023504617
