outputs/2025-03-23/17-26-40/outputs/model_epoch_0.pt (torch, 149122 bytes, 92 tensors)

naim.embeddings.0.embeddings.weight f4 [2, 6]
0	0x3ec3172f	0.38103625
1	0xbf13d81d	-0.5775164
2	0xbea9d448	-0.3316977
3	0x3ea492e1	0.3214331
4	0x3ee8069f	0.45317551
5	0x3e8dc01b	0.27685627
6	0x00000000	0.0
7	0x00000000	0.0
8	0x00000000	0.0
9	0x00000000	0.0
10	0x00000000	0.0
11	0x00000000	0.0

naim.embeddings.1.embeddings.weight f4 [2, 6]
0	0x3d8a693c	0.06758353
1	0xbdbe45e0	-0.09290671
2	0xbe192726	-0.1495634
3	0x3ecd44f2	0.40091664
4	0x3e3cb20e	0.18427297
5	0xbda2cad3	-0.07948842
6	0x00000000	0.0
7	0x00000000	0.0
8	0x00000000	0.0
9	0x00000000	0.0
10	0x00000000	0.0
11	0x00000000	0.0

naim.embeddings.2.embeddings.weight f4 [2, 6]
0	0x3f24bc60	0.6434994
1	0x3d1e5836	0.038658343
2	0xbc0ac300	-0.008469343
3	0x3f1452fb	0.5793912
4	0xbe863488	-0.26211953
5	0x3eb19ddb	0.34690747
6	0x00000000	0.0
7	0x00000000	0.0
8	0x00000000	0.0
9	0x00000000	0.0
10	0x00000000	0.0
11	0x00000000	0.0

naim.embeddings.3.embeddings.weight f4 [2, 6]
0	0x3f26d75d	0.6517237
1	0xbf0874f7	-0.53303474
2	0x3d3d8176	0.04626604
3	0x3efa8337	0.48928234
4	0x3e14ed43	0.14543633
5	0x3c8021e1	0.015641155
6	0x00000000	0.0
7	0x00000000	0.0
8	0x00000000	0.0
9	0x00000000	0.0
10	0x00000000	0.0
11	0x00000000	0.0

naim.embeddings.4.embeddings.weight f4 [2, 6]
0	0xbf04b9c5	-0.5184596
1	0xbe935a91	-0.28780034
2	0xbe5584c5	-0.20851429
3	0x3e0f4694	0.13991767
4	0x3dd90e29	0.10598404
5	0x3c035339	0.008015447
6	0x00000000	0.0
7	0x00000000	0.0
8	0x00000000	0.0
9	0x00000000	0.0
10	0x00000000	0.0
11	0x00000000	0.0

naim.embeddings.5.embeddings.weight f4 [2, 6]
0	0xbeae3360	-0.3402357
1	0x3ced600e	0.028976467
2	0x3f255001	0.645752
3	0x3eb0ec0b	0.34555086
4	0xbf113cb3	-0.56733245
5	0x3d8356c4	0.064130336
6	0x00000000	0.0
7	0x00000000	0.0
8	0x00000000	0.0
9	0x00000000	0.0
10	0x00000000	0.0
11	0x00000000	0.0

naim.embeddings.6.embeddings.weight f4 [2, 6]
0	0xbf0892a2	-0.53348744
1	0xbdeab953	-0.11461129
2	0xbdf54efe	-0.11977957
3	0xbe8d74c1	-0.2762814
4	0x3e1a4f95	0.1506942
5	0x3f41df25	0.75731117
6	0x00000000	0.0
7	0x00000000	0.0
8	0x00000000	0.0
9	0x00000000	0.0
10	0x00000000	0.0
11	0x00000000	0.0

naim.embeddings.7.embeddings.weight f4 [2, 6]
0	0xbecf247a	-0.40457517
1	0xbbb6bd3f	-0.005576759
2	0x3dc5876a	0.09644969
3	0xbf31bb79	-0.69426686
4	0xbd6d24ca	-0.057896413
5	0x3f13e5a5	0.57772285
6	0x00000000	0.0
7	0x00000000	0.0
8	0x00000000	0.0
9	0x00000000	0.0
10	0x00000000	0.0
11	0x00000000	0.0

naim.embeddings.8.embeddings.weight f4 [2, 6]
0	0x3f251b4f	0.64494795
1	0xbe120547	-0.14259826
2	0x3e886f95	0.2664763
3	0xbf1e416c	-0.61818576
4	0xbe58de08	-0.21178448
5	0x3e6a01c1	0.22852232
6	0x00000000	0.0
7	0x00000000	0.0
8	0x00000000	0.0
9	0x00000000	0.0
10	0x00000000	0.0
11	0x00000000	0.0

naim.embeddings.9.embeddings.weight f4 [2, 6]
0	0x3ee3e5ee	0.4451136
1	0xbe8bd55b	-0.27311215
2	0x3d8d66fd	0.06904409
3	0xbed3df10	-0.4138112
4	0xbf1a7bf8	-0.6034541
5	0x3bfd9674	0.0077388827
6	0x00000000	0.0
7	0x00000000	0.0
8	0x00000000	0.0
9	0x00000000	0.0
10	0x00000000	0.0
11	0x00000000	0.0

naim.embeddings.10.embeddings.weight f4 [2, 6]
0	0x3dcc6200	0.099796295
1	0x3dc2e00b	0.09515389
2	0x3e86146e	0.26187462
3	0x3e7b0cf7	0.24516664
4	0x3ca0cbb7	0.019628389
5	0x3eeacc13	0.4585882
6	0x00000000	0.0
7	0x00000000	0.0
8	0x00000000	0.0
9	0x00000000	0.0
10	0x00000000	0.0
11	0x00000000	0.0

naim.embeddings.11.embeddings.weight f4 [2, 6]
0	0x3e311263	0.1729217
1	0xbde40870	-0.11134422
2	0xbef7f807	-0.48431417
3	0xbf052fd8	-0.5202613
4	0xbcfe4b59	-0.031041788
5	0xbe8bd34b	-0.2730964
6	0x00000000	0.0
7	0x00000000	0.0
8	0x00000000	0.0
9	0x00000000	0.0
10	0x00000000	0.0
11	0x00000000	0.0

naim.embeddings.12.embeddings.weight f4 [2, 6]
0	0x3e22fbd3	0.15916376
1	0xbe6b871f	-0.23000763
2	0x3d9dd066	0.077057645
3	0x3edf1b2a	0.43575412
4	0x3f0154dd	0.50520116
5	0x3deef03e	0.11666916
6	0x00000000	0.0
7	0x00000000	0.0
8	0x00000000	0.0
9	0x00000000	0.0
10	0x00000000	0.0
11	0x00000000	0.0

naim.embeddings.13.embeddings.weight f4 [2, 6]
0	0xbe878ac0	-0.26473045
1	0xbddc01a2	-0.10742499
2	0xbe95c687	-0.29253027
3	0x3f2a1953	0.6644489
4	0xbe51f8a1	-0.20505
5	0x3ea61b44	0.32442677
6	0x00000000	0.0
7	0x00000000	0.0
8	0x00000000	0.0
9	0x00000000	0.0
10	0x00000000	0.0
11	0x00000000	0.0

naim.embeddings.14.embeddings.weight f4 [2, 6]
0	0x3e36aa16	0.1783832
1	0x3f28d4f3	0.65949935
2	0xbe24542f	-0.16047738
3	0x3db04548	0.08606964
4	0x3f1fbc23	0.6239645
5	0x3cb79b69	0.022412973
6	0x00000000	0.0
7	0x00000000	0.0
8	0x00000000	0.0
9	0x00000000	0.0
10	0x00000000	0.0
11	0x00000000	0.0

naim.embeddings.15.embeddings.weight f4 [2, 6]
0	0xbf20ffb8	-0.62890196
1	0x3eb56aea	0.3543313
2	0x3dbbe5d9	0.09174699
3	0xbe9f4997	-0.31110832
4	0xbe536392	-0.20643452
5	0x3f0ea16d	0.55715066
6	0x00000000	0.0
7	0x00000000	0.0
8	0x00000000	0.0
9	0x00000000	0.0
10	0x00000000	0.0
11	0x00000000	0.0

naim.embeddings.16.embeddings.weight f4 [2, 6]
0	0x3f0672a3	0.5251867
1	0x3dbb2c20	0.091392756
2	0x3d8ba4b2	0.068185225
3	0xbeaa737f	-0.33291242
4	0x3e13e68f	0.1444342
5	0x3ed37576	0.41300553
6	0x00000000	0.0
7	0x00000000	0.0
8	0x00000000	0.0
9	0x00000000	0.0
10	0x00000000	0.0
11	0x00000000	0.0

naim.embeddings.17.embeddings.weight f4 [2, 6]
0	0x3e0716d0	0.13192296
1	0x3e355e91	0.17711855
2	0x3e0136fe	0.12618634
3	0xbf04d1df	-0.5188274
4	0x3ea16559	0.31522635
5	0xbe94669a	-0.2898453
6	0x00000000	0.0
7	0x00000000	0.0
8	0x00000000	0.0
9	0x00000000	0.0
10	0x00000000	0.0
11	0x00000000	0.0

naim.embeddings.18.embeddings.weight f4 [2, 6]
0	0xbf108287	-0.5644917
1	0xbef887bf	-0.48541066
2	0xbea372d4	-0.31923544
3	0x3f0f9270	0.5608282
4	0xbd2b3b6f	-0.041804727
5	0xbc499065	-0.012302493
6	0x00000000	0.0
7	0x00000000	0.0
8	0x00000000	0.0
9	0x00000000	0.0
10	0x00000000	0.0
11	0x00000000	0.0

naim.embeddings.19.embeddings.weight f4 [2, 6]
0	0x3f0cdfde	0.55029094
1	0xbe8d5ef5	-0.2761151
2	0x3e8f8f56	0.28039044
3	0xbe679660	-0.22615957
4	0xbdda1b32	-0.10649718
5	0x3daf2284	0.08551505
6	0x00000000	0.0
7	0x00000000	0.0
8	0x00000000	0.0
9	0x00000000	0.0
10	0x00000000	0.0
11	0x00000000	0.0

naim.embeddings.20.embeddings.weight f4 [2, 6]
0	0x3e93a487	0.28836462
1	0x3e153bd2	0.14573601
2	0xbeab5d16	-0.33469456
3	0xbefeb8df	-0.4975042
4	0xbe08013f	-0.13281725
5	0x3e7daf7a	0.2477397
6	0x00000000	0.0
7	0x00000000	0.0
8	0x00000000	0.0
9	0x00000000	0.0
10	0x00000000	0.0
11	0x00000000	0.0

naim.embeddings.21.embeddings.weight f4 [2, 6]
0	0x3d77c5bc	0.06049131
1	0x3ba86fe5	0.005140292
2	0x3e073bcc	0.13206404
3	0xbd61d45b	-0.05513416
4	0x3cc93e25	0.024565766
5	0xbe118c31	-0.14213635
6	0x00000000	0.0
7	0x00000000	0.0
8	0x00000000	0.0
9	0x00000000	0.0
10	0x00000000	0.0
11	0x00000000	0.0

naim.embeddings.22.embeddings.weight f4 [2, 6]
0	0x3eb162ef	0.34645793
1	0xbe8bf3bd	-0.27334395
2	0xbd1bbabd	-0.038019884
3	0x3f13a347	0.57671016
4	0x3ee373b4	0.44424212
5	0xbe59403a	-0.21215907
6	0x00000000	0.0
7	0x00000000	0.0
8	0x00000000	0.0
9	0x00000000	0.0
10	0x00000000	0.0
11	0x00000000	0.0

naim.embeddings.23.embeddings.weight f4 [2, 6]
0	0x3e63b678	0.22237575
1	0xbacf71b7	-0.0015826736
2	0xbebcfcaf	-0.36911532
3	0x3f58910e	0.84596336
4	0xbd53f666	-0.051748656
5	0xbe8bee10	-0.27330065
6	0x00000000	0.0
7	0x00000000	0.0
8	0x00000000	0.0
9	0x00000000	0.0
10	0x00000000	0.0
11	0x00000000	0.0

naim.embeddings.24.embeddings.weight f4 [2, 6]
0	0x3c0ece06	0.008716112
1	0x3e347dae	0.17626068
2	0xbe443738	-0.1916169
3	0x3ed1d23c	0.4098071
4	0xbf5d6bf7	-0.86492866
5	0x3d6e3a0a	0.05816082
6	0x00000000	0.0
7	0x00000000	0.0
8	0x00000000	0.0
9	0x00000000	0.0
10	0x00000000	0.0
11	0x00000000	0.0

naim.embeddings.25.embeddings.weight f4 [2, 6]
0	0x3ebfe65f	0.37480447
1	0xbe0db5ea	-0.13838926
2	0x3f449e45	0.76804
3	0x3ef162c2	0.4714566
4	0x3dc94b96	0.0982887
5	0x3d693dc1	0.05694366
6	0x00000000	0.0
7	0x00000000	0.0
8	0x00000000	0.0
9	0x00000000	0.0
10	0x00000000	0.0
11	0x00000000	0.0

naim.embeddings.26.embeddings.weight f4 [2, 6]
0	0x3e243a23	0.16037802
1	0xbeff46db	-0.49858746
2	0xbf022901	-0.50843817
3	0x3ea3d7ce	0.32000583
4	0x3eddc892	0.43317086
5	0x3eaebf2c	0.34130228
6	0x00000000	0.0
7	0x00000000	0.0
8	0x00000000	0.0
9	0x00000000	0.0
10	0x00000000	0.0
11	0x00000000	0.0

naim.embeddings.27.embeddings.weight f4 [2, 6]
0	0xbdb62a58	-0.08894795
1	0x3ec96192	0.39332253
2	0xbf094968	-0.53627634
3	0xbf0ebda1	-0.557581
4	0xbe0f842e	-0.14015266
5	0x3d332a63	0.043741595
6	0x00000000	0.0
7	0x00000000	0.0
8	0x00000000	0.0
9	0x00000000	0.0
10	0x00000000	0.0
11	0x00000000	0.0

naim.embeddings.28.embeddings.weight f4 [2, 6]
0	0xbe45e62b	-0.19326083
1	0x3e72f25b	0.23725264
2	0xbe5506b7	-0.20803343
3	0xbeb5ac8d	-0.35483208
4	0x3e0b16df	0.13582943
5	0xbda2502d	-0.079254486
6	0x00000000	0.0
7	0x00000000	0.0
8	0x00000000	0.0
9	0x00000000	0.0
10	0x00000000	0.0
11	0x00000000	0.0

naim.embeddings.29.embeddings.weight f4 [2, 6]
0	0xbf0e96e4	-0.5569899
1	0xbc943829	-0.018093185
2	0x3f2b2fcc	0.6686981
3	0xbe67426a	-0.22583929
4	0x3db24e06	0.08706288
5	0xbebcf1b8	-0.36903167
6	0x00000000	0.0
7	0x00000000	0.0
8	0x00000000	0.0
9	0x00000000	0.0
10	0x00000000	0.0
11	0x00000000	0.0

naim.embeddings.30.embeddings.weight f4 [2, 6]
0	0xbe10af33	-0.14129333
1	0x3e8753dd	0.2643117
2	0x3eb69bb7	0.35665676
3	0xbe9f5850	-0.31122065
4	0xbd61ac34	-0.055095866
5	0xbeca537f	-0.39516827
6	0x00000000	0.0
7	0x00000000	0.0
8	0x00000000	0.0
9	0x00000000	0.0
10	0x00000000	0.0
11	0x00000000	0.0

naim.embeddings.31.embeddings.weight f4 [2, 6]
0	0x3ed22209	0.41041592
1	0xbe8afe0b	-0.27146944
2	0xbd1a4074	-0.037659124
3	0xbde2c1d9	-0.1107213
4	0xbe8f9bbc	-0.28048503
5	0xbe97965b	-0.296069
6	0x00000000	0.0
7	0x00000000	0.0
8	0x00000000	0.0
9	0x00000000	0.0
10	0x00000000	0.0
11	0x00000000	0.0

naim.embeddings.32.embeddings.weight f4 [2, 6]
0	0x3db50fce	0.08840905
1	0x3eb13f24	0.34618485
2	0xbeb48e55	-0.3526484
3	0xbf484963	-0.7823698
4	0x3e9dfaad	0.30855313
5	0xbe47188b	-0.19442956
6	0x00000000	0.0
7	0x00000000	0.0
8	0x00000000	0.0
9	0x00000000	0.0
10	0x00000000	0.0
11	0x00000000	0.0

naim.embeddings.33.embeddings.weight f4 [2, 6]
0	0xbe461491	-0.19343783
1	0xbe379da2	-0.17931226
2	0xbed091a4	-0.40736115
3	0xbe7cfa42	-0.24704841
4	0xbeb7aefb	-0.35875687
5	0x3f3d44cd	0.73933107
6	0x00000000	0.0
7	0x00000000	0.0
8	0x00000000	0.0
9	0x00000000	0.0
10	0x00000000	0.0
11	0x00000000	0.0

naim.embeddings.34.embeddings.weight f4 [2, 6]
0	0xbe312039	-0.17297448
1	0x3df55348	0.11978775
2	0x3f09b827	0.5379662
3	0xbcec178b	-0.02881982
4	0xbe949377	-0.29018757
5	0x3d1e9c3e	0.038723223
6	0x00000000	0.0
7	0x00000000	0.0
8	0x00000000	0.0
9	0x00000000	0.0
10	0x00000000	0.0
11	0x00000000	0.0

naim.embeddings.35.embeddings.weight f4 [2, 6]
0	0x3e5f9fd2	0.2183831
1	0xbe426c5f	-0.18986653
2	0x3eb1604b	0.34643778
3	0x3eaff988	0.34370065
4	0x3edb1af7	0.4279401
5	0xbf105a34	-0.5638764
6	0x00000000	0.0
7	0x00000000	0.0
8	0x00000000	0.0
9	0x00000000	0.0
10	0x00000000	0.0
11	0x00000000	0.0

naim.embeddings.36.embeddings.weight f4 [2, 6]
0	0xbe366250	-0.1781094
1	0x3ed60b76	0.4180562
2	0xbf0a651e	-0.5406054
3	0x3c7bdbad	0.015372199
4	0x3bc8fd8a	0.00613374
5	0x3df9aaff	0.12190818
6	0x00000000	0.0
7	0x00000000	0.0
8	0x00000000	0.0
9	0x00000000	0.0
10	0x00000000	0.0
11	0x00000000	0.0

naim.embeddings.37.embeddings.weight f4 [2, 6]
0	0x3a4379be	0.00074568007
1	0xbeb9ca89	-0.36287335
2	0xbe089f61	-0.13342048
3	0xbda03681	-0.07822896
4	0x3e75e078	0.2401141
5	0x3dfef3ec	0.12448868
6	0x00000000	0.0
7	0x00000000	0.0
8	0x00000000	0.0
9	0x00000000	0.0
10	0x00000000	0.0
11	0x00000000	0.0

naim.embeddings.38.embeddings.weight f4 [2, 6]
0	0x3d318911	0.043343607
1	0xbd835c08	-0.06414038
2	0x3ac294dd	0.001484539
3	0x3ea3212b	0.31861243
4	0xbe27c54a	-0.16383854
5	0x3e37c29a	0.17945328
6	0x00000000	0.0
7	0x00000000	0.0
8	0x00000000	0.0
9	0x00000000	0.0
10	0x00000000	0.0
11	0x00000000	0.0

naim.embeddings.39.embeddings.weight f4 [2, 6]
0	0xbd3783e0	-0.0448035
1	0xbe992d1e	-0.29917234
2	0x3f077254	0.52908826
3	0xbf27b9c7	-0.6551785
4	0x3e5ebb63	0.2175117
5	0x3eb27a53	0.3485895
6	0x00000000	0.0
7	0x00000000	0.0
8	0x00000000	0.0
9	0x00000000	0.0
10	0x00000000	0.0
11	0x00000000	0.0

naim.embeddings.40.embeddings.weight f4 [2, 6]
0	0xbdb46200	-0.088077545
1	0x3e7f5aae	0.24936935
2	0x3e00edc1	0.12590696
3	0xbe232d82	-0.15935329
4	0xbd761374	-0.060077146
5	0xbeb71400	-0.35757446
6	0x00000000	0.0
7	0x00000000	0.0
8	0x00000000	0.0
9	0x00000000	0.0
10	0x00000000	0.0
11	0x00000000	0.0

naim.embeddings.41.embeddings.weight f4 [2, 6]
0	0xbe16f811	-0.14743067
1	0xbe63b2a0	-0.22236109
2	0x3eb47dde	0.3525228
3	0x3e5c149b	0.21492235
4	0x3ed62bd8	0.41830325
5	0x3f192cff	0.59834284
6	0x00000000	0.0
7	0x00000000	0.0
8	0x00000000	0.0
9	0x00000000	0.0
10	0x00000000	0.0
11	0x00000000	0.0

naim.embeddings.42.embeddings.weight f4 [2, 6]
0	0xbea7ba10	-0.32759142
1	0x3f406076	0.7514719
2	0x3e80d864	0.25165093
3	0x3ed83075	0.4222447
4	0x3df4b5c8	0.119487345
5	0xbe1a0e4c	-0.15044516
6	0x00000000	0.0
7	0x00000000	0.0
8	0x00000000	0.0
9	0x00000000	0.0
10	0x00000000	0.0
11	0x00000000	0.0

naim.embeddings.43.embeddings.weight f4 [2, 6]
0	0xbe8181fc	-0.25294483
1	0x3cc166bc	0.023608558
2	0x3f300707	0.6876072
3	0x3f00be62	0.502905
4	0x3ec89515	0.3917624
5	0xbdbda603	-0.0926018
6	0x00000000	0.0
7	0x00000000	0.0
8	0x00000000	0.0
9	0x00000000	0.0
10	0x00000000	0.0
11	0x00000000	0.0

naim.embeddings.44.embeddings.weight f4 [2, 6]
0	0xbcd64173	-0.026154255
1	0x3ea2f018	0.31823802
2	0x3e64c39a	0.22340241
3	0xbeb91aad	-0.36153165
4	0x3e148d85	0.1450711
5	0x3f081e58	0.531713
6	0x00000000	0.0
7	0x00000000	0.0
8	0x00000000	0.0
9	0x00000000	0.0
10	0x00000000	0.0
11	0x00000000	0.0

naim.embeddings.45.embeddings.weight f4 [2, 6]
0	0xbef35d7d	-0.47532263
1	0xbf1f102f	-0.6213407
2	0xbe95f270	-0.29286528
3	0x3e4060f5	0.18786986
4	0xbeed9c15	-0.46408144
5	0xbe3f0929	-0.18655838
6	0x00000000	0.0
7	0x00000000	0.0
8	0x00000000	0.0
9	0x00000000	0.0
10	0x00000000	0.0
11	0x00000000	0.0

naim.embeddings.46.embeddings.weight f4 [2, 6]
0	0xbd8d415b	-0.06897231
1	0x3d9e1aa2	0.077199236
2	0x3e996477	0.2995946
3	0xbdd56fd4	-0.1042172
4	0x3e0cda8d	0.13755246
5	0x3e5506ef	0.20803426
6	0x00000000	0.0
7	0x00000000	0.0
8	0x00000000	0.0
9	0x00000000	0.0
10	0x00000000	0.0
11	0x00000000	0.0

naim.embeddings.47.embeddings.weight f4 [2, 6]
0	0x3ea79cb0	0.3273673
1	0xbdf7082d	-0.12062106
2	0xbefcb9b0	-0.49360418
3	0xbe83e8a8	-0.2576344
4	0x3e995a66	0.2995178
5	0xbea12629	-0.31474426
6	0x00000000	0.0
7	0x00000000	0.0
8	0x00000000	0.0
9	0x00000000	0.0
10	0x00000000	0.0
11	0x00000000	0.0

naim.embeddings.48.embeddings.weight f4 [2, 6]
0	0x3c8f1ce2	0.017469827
1	0x3e89011f	0.26758668
2	0x3db75c07	0.089531
3	0x3ea75c1c	0.3268746
4	0x3f3538d3	0.7078983
5	0x3ebf96dd	0.37419787
6	0x00000000	0.0
7	0x00000000	0.0
8	0x00000000	0.0
9	0x00000000	0.0
10	0x00000000	0.0
11	0x00000000	0.0

naim.embeddings.49.embeddings.weight f4 [2, 6]
0	0xbe7fc22a	-0.24976411
1	0x3e885dcd	0.26634064
2	0x3e9f7690	0.31145144
3	0xbe0ffdf1	-0.14061715
4	0xbec43a6b	-0.3832582
5	0x3ed63ebb	0.41844735
6	0x00000000	0.0
7	0x00000000	0.0
8	0x00000000	0.0
9	0x00000000	0.0
10	0x00000000	0.0
11	0x00000000	0.0

naim.embeddings.50.embeddings.weight f4 [2, 6]
0	0x3f0fa824	0.5611594
1	0x3ed11f3e	0.40844148
2	0xbdfebfe2	-0.124389425
3	0xbe3f152b	-0.18660419
4	0xbe048936	-0.12942967
5	0xbf14b8f8	-0.5809474
6	0x00000000	0.0
7	0x00000000	0.0
8	0x00000000	0.0
9	0x00000000	0.0
10	0x00000000	0.0
11	0x00000000	0.0

naim.embeddings.51.embeddings.weight f4 [2, 6]
0	0x3d44edb9	0.048078272
1	0x3e3449ad	0.1760623
2	0x3f126700	0.57188416
3	0xbf2e5a05	-0.6810611
4	0x3ebca745	0.36846367
5	0xbe114564	-0.14186627
6	0x00000000	0.0
7	0x00000000	0.0
8	0x00000000	0.0
9	0x00000000	0.0
10	0x00000000	0.0
11	0x00000000	0.0

naim.embeddings.52.embeddings.weight f4 [2, 6]
0	0x3ea42796	0.32061452
1	0xbe728278	-0.23682582
2	0xbe75b11e	-0.23993346
3	0xbe6bcf5b	-0.23028319
4	0x3de89e5a	0.11358328
5	0xbec1ec6e	-0.37875694
6	0x00000000	0.0
7	0x00000000	0.0
8	0x00000000	0.0
9	0x00000000	0.0
10	0x00000000	0.0
11	0x00000000	0.0

naim.embeddings.53.embeddings.weight f4 [2, 6]
0	0xbe86431f	-0.26223084
1	0xbe3a679d	-0.18203588
2	0x3e2a6d22	0.16643193
3	0xbd4306ed	-0.047614027
4	0x3f6b1d9c	0.91842055
5	0xbb9fcfdc	-0.0048770737
6	0x00000000	0.0
7	0x00000000	0.0
8	0x00000000	0.0
9	0x00000000	0.0
10	0x00000000	0.0
11	0x00000000	0.0

naim.embeddings.54.embeddings.weight f4 [2, 6]
0	0x3e533bee	0.2062833
1	0x3f0c2e43	0.5475809
2	0x3ecda776	0.40166825
3	0x3e55319b	0.20819704
4	0xbf21960f	-0.63119596
5	0x3dfe6feb	0.124236904
6	0x00000000	0.0
7	0x00000000	0.0
8	0x00000000	0.0
9	0x00000000	0.0
10	0x00000000	0.0
11	0x00000000	0.0

naim.embeddings.55.embeddings.weight f4 [2, 6]
0	0x3ea85a40	0.32881355
1	0xbeaaf156	-0.3338725
2	0xbf149328	-0.5803704
3	0x3f10b482	0.56525433
4	0xbdc45b95	-0.095877804
5	0xbe245bd9	-0.16050662
6	0x00000000	0.0
7	0x00000000	0.0
8	0x00000000	0.0
9	0x00000000	0.0
10	0x00000000	0.0
11	0x00000000	0.0

naim.embeddings.56.embeddings.weight f4 [2, 6]
0	0xbed0896b	-0.40729842
1	0xbeeb852a	-0.46000034
2	0x3e48f1fb	0.19623558
3	0xbd91ba34	-0.071155936
4	0xbed9f78d	-0.4257168
5	0xbd695b1a	-0.056971647
6	0x00000000	0.0
7	0x00000000	0.0
8	0x00000000	0.0
9	0x00000000	0.0
10	0x00000000	0.0
11	0x00000000	0.0

naim.embeddings.57.embeddings.weight f4 [2, 6]
0	0x3eea1ebb	0.4572657
1	0xbeb1788e	-0.34662288
2	0xbe5d75c5	-0.21626957
3	0x3e8c5e2c	0.27415597
4	0x3f399eba	0.7250782
5	0xbcb18d3c	-0.021673791
6	0x00000000	0.0
7	0x00000000	0.0
8	0x00000000	0.0
9	0x00000000	0.0
10	0x00000000	0.0
11	0x00000000	0.0

naim.embeddings.58.embeddings.weight f4 [2, 6]
0	0xbdeb7f22	-0.11498858
1	0x3c86003f	0.01635754
2	0x3d2b17c2	0.041770704
3	0xbd3393bb	-0.04384206
4	0x3dd4541d	0.10367606
5	0xbe8ae72e	-0.271295
6	0x00000000	0.0
7	0x00000000	0.0
8	0x00000000	0.0
9	0x00000000	0.0
10	0x00000000	0.0
11	0x00000000	0.0

naim.embeddings.59.embeddings.weight f4 [2, 6]
0	0x3ea3fcae	0.32028717
1	0xbe3e802f	-0.18603586
2	0xbe85f9cb	-0.2616714
3	0x3f343e0e	0.7040719
4	0x3e8ef0a0	0.27917957
5	0x3ee1bb66	0.44088286
6	0x00000000	0.0
7	0x00000000	0.0
8	0x00000000	0.0
9	0x00000000	0.0
10	0x00000000	0.0
11	0x00000000	0.0

naim.embeddings.60.embeddings.weight f4 [2, 6]
0	0xbf0b5bd3	-0.5443699
1	0xbd589e6f	-0.05288547
2	0x3d7002b7	0.05859634
3	0x3f095ac2	0.5365411
4	0x3e8dbb76	0.27682084
5	0x3ec3ae57	0.38218948
6	0x00000000	0.0
7	0x00000000	0.0
8	0x00000000	0.0
9	0x00000000	0.0
10	0x00000000	0.0
11	0x00000000	0.0

naim.embeddings.61.embeddings.weight f4 [2, 6]
0	0xbe707dc0	-0.2348547
1	0x3d47092d	0.048592735
2	0x3e128977	0.14310251
3	0xbda0f816	-0.07859819
4	0x3e6b57f9	0.22982778
5	0xbde95633	-0.11393394
6	0x00000000	0.0
7	0x00000000	0.0
8	0x00000000	0.0
9	0x00000000	0.0
10	0x00000000	0.0
11	0x00000000	0.0

naim.embeddings.62.embeddings.weight f4 [2, 6]
0	0x3e91b6a0	0.28459644
1	0x3e1e20bd	0.15442176
2	0xbf35586e	-0.7083806
3	0xbd80d66b	-0.06290897
4	0xbec23edb	-0.3793858
5	0xbef0101e	-0.46887296
6	0x00000000	0.0
7	0x00000000	0.0
8	0x00000000	0.0
9	0x00000000	0.0
10	0x00000000	0.0
11	0x00000000	0.0

naim.embeddings.63.embeddings.weight f4 [2, 6]
0	0x3f43184a	0.7620894
1	0x3eac9c38	0.33712935
2	0xbea5bfd3	-0.32372913
3	0x3e36640c	0.17811602
4	0xbe5f5c17	-0.21812473
5	0xbe289742	-0.1646395
6	0x00000000	0.0
7	0x00000000	0.0
8	0x00000000	0.0
9	0x00000000	0.0
10	0x00000000	0.0
11	0x00000000	0.0

naim.encoder.0.layer_norm_1.weight f4 [6]
0	0x3f7cf8a4	0.98816895
1	0x3f7ca9af	0.98696417
2	0x3f7d2b5b	0.9889428
3	0x3f7dcdf4	0.99142385
4	0x3f7cf24b	0.9880721
5	0x3f7cc461	0.9873715

naim.encoder.0.layer_norm_1.bias f4 [6]
0	0x3b533108	0.003222527
1	0xbb102f48	-0.0022000838
2	0x399dd774	0.000301059
3	0xbb2328a7	-0.0024896057
4	0x3a4750c8	0.0007603285
5	0x3b996907	0.0046817097

naim.encoder.0.attn.linear_q.weight f4 [6, 6]
0	0xbdc143d6	-0.09436767
1	0x3ce6259e	0.02809411
2	0xbdc8474d	-0.097792245
3	0xbec5fafc	-0.38668048
4	0xbd3a06e3	-0.045416724
5	0x3e49307b	0.196474
6	0xbd248a2b	-0.04017083
7	0xbe48e379	-0.19618024
8	0x3c90ad0b	0.017660638
9	0x3d912ae3	0.07088258
10	0xbddccf87	-0.1078177
11	0xbea1fd56	-0.31638592
12	0xbe53d44f	-0.20686458
13	0xbd632f2c	-0.05546491
14	0x3e09fd37	0.134755
15	0x3eb3401a	0.35009843
16	0x3c2652f6	0.010151615
17	0x3e0add88	0.1356107
18	0x3e71399d	0.23557134
19	0xbe342d4b	-0.17595403
20	0xbdfd22f8	-0.123601854
21	0x3e846b1a	0.25862962
22	0x3e8fa8cf	0.28058478
23	0x3dab93b0	0.083777785
24	0xbe9b9f9c	-0.3039521
25	0x3e602804	0.21890265
26	0xbea635c2	-0.3246289
27	0x3e456857	0.19278084
28	0x3d333992	0.043756075
29	0x3dfb4ac0	0.12270117
30	0xbec527de	-0.3850698
31	0xbe05bb9c	-0.13059849
32	0x3e244246	0.16040906
33	0x3e9a3573	0.30118904
34	0xbdd4a6ae	-0.10383354
35	0x3eb3d0e3	0.35120305

naim.encoder.0.attn.linear_k.weight f4 [6, 6]
0	0xbdb82bf3	-0.08992758
1	0xbe6ec7a6	-0.23318347
2	0xbe2d57ee	-0.16928074
3	0x3cf2597f	0.02958369
4	0xbd7a99e6	-0.061181925
5	0x3e3f5ece	0.18688509
6	0xbe59ebbd	-0.21281333
7	0xbde972bb	-0.11398836
8	0xbeca19b5	-0.39472738
9	0x3ea87485	0.32901397
10	0xbd9385c3	-0.072032474
11	0xbe9e9758	-0.3097484
12	0xbcbfd964	-0.02341909
13	0xbc16c447	-0.00920207
14	0x3dd030e6	0.10165577
15	0xbd0d7619	-0.034536455
16	0x3e7a29a5	0.24429949
17	0xbe050e6e	-0.12993786
18	0xbddfe63d	-0.10932586
19	0xbdb6d9b5	-0.08928243
20	0x3d816acb	0.06319197
21	0x3ea44042	0.32080275
22	0xbc962496	-0.018327992
23	0x3e9a2e35	0.30113378
24	0x3e9dc989	0.30817822
25	0xbe4cb868	-0.1999222
26	0xbd0b2ca9	-0.033978138
27	0xbe3ab2eb	-0.18232314
28	0x3e21dcbf	0.15806864
29	0xbe05edc7	-0.13078986
30	0x3de7e146	0.113222644
31	0x3cae8843	0.021305209
32	0xbe82a22d	-0.25514355
33	0xbe86cf80	-0.26330185
34	0xbec57b2e	-0.3857054
35	0xbe5ccde0	-0.2156291

naim.encoder.0.attn.linear_v.weight f4 [6, 6]
0	0x3de91b19	0.113821216
1	0x3cb80906	0.02246524
2	0x3e9ba710	0.30400896
3	0xbeb6cd27	-0.35703394
4	0xbcb3df1d	-0.021956975
5	0xbeb6b80b	-0.3568729
6	0x3becfeb2	0.0072325105
7	0x3e13001a	0.14355507
8	0xbeb9f8a5	-0.36322513
9	0x3eb78c90	0.35849428
10	0xbdf2eac9	-0.11861188
11	0x3eb3cd9e	0.3511781
12	0xbd758ade	-0.059946887
13	0x3e63e9ee	0.22257206
14	0x3ebedccb	0.37277827
15	0xbe1b4e59	-0.15166606
16	0xbdce30ab	-0.100678764
17	0x3e5b5474	0.21418935
18	0xbeaf5bd9	-0.34249762
19	0x3e745d3b	0.2386369
20	0xbe801489	-0.25015667
21	0x3ebf2a9f	0.37337205
22	0xbe85e499	-0.2615097
23	0xbe2f284d	-0.17105217
24	0x3e972bd5	0.2952563
25	0xbe2d3d3f	-0.16917895
26	0x3ead1ddf	0.33811852
27	0x3e8aa358	0.27077746
28	0x3eba12a5	0.3634235
29	0xbec5d0e2	-0.38635927
30	0x3aa11aba	0.001229129
31	0xbe031ca0	-0.12803888
32	0x3dc2a0ef	0.09503352
33	0xbe9be003	-0.30444345
34	0x3e25a76e	0.1617715
35	0xbc6aba46	-0.014326638

naim.encoder.0.attn.linear_o.weight f4 [6, 6]
0	0xbe387984	-0.18015105
1	0xbeb56914	-0.3543173
2	0x3e4d63b9	0.20057572
3	0xbe0a2315	-0.13489945
4	0x3e939792	0.28826576
5	0x3d757dc6	0.0599344
6	0x3de3c9ab	0.111224495
7	0xbd48e486	-0.049046062
8	0xbd32fa70	-0.043695867
9	0xbe00c1b6	-0.12573895
10	0xbeae58f8	-0.34052253
11	0x3e798a66	0.24369201
12	0xbe833d5a	-0.25632745
13	0x3e73c284	0.2380467
14	0xbe0dbab4	-0.13840753
15	0x3e8243d4	0.25442374
16	0x3eb2da86	0.34932345
17	0xbe7e640c	-0.24842852
18	0x3ea9681e	0.33087248
19	0x3b8a0128	0.0042115636
20	0xbea21d42	-0.31662947
21	0x3e24a751	0.16079451
22	0x3e663a0b	0.22483079
23	0x3eb4ec11	0.35336354
24	0xbec8a636	-0.3918931
25	0x3eba7f23	0.36425123
26	0x3e9be484	0.3044778
27	0x3ecb3f21	0.396966
28	0x3e5ede80	0.21764565
29	0xbe4ea944	-0.20181757
30	0x3ea065ca	0.3132766
31	0x3ec0bf81	0.37646106
32	0xbe1b102c	-0.15142888
33	0xbd7fc580	-0.06244421
34	0x3ea5cb15	0.32381502
35	0x3ea9d288	0.33168435

naim.encoder.0.layer_norm_2.weight f4 [6]
0	0x3f7dcb4d	0.9913834
1	0x3f7e40eb	0.99317807
2	0x3f804fc1	1.0024339
3	0x3f7f9b22	0.9984609
4	0x3f7ef931	0.99598986
5	0x3f7fce64	0.999243

naim.encoder.0.layer_norm_2.bias f4 [6]
0	0xbb37d6b5	-0.002805156
1	0xbbdc43fd	-0.006721972
2	0x3b981a4d	0.004641807
3	0x3bb1ead4	0.005429605
4	0x3bdcaf7d	0.006734787
5	0xbbcf6266	-0.0063288687

naim.encoder.0.ff.0.weight f4 [1000, 6]
0	0x3e858c03	0.26083383
1	0x3e99f68f	0.30070922
2	0xbe4e2c8d	-0.20134182
3	0xbd887880	-0.066636086
4	0xbe1a4378	-0.150648
5	0x3e4da2cf	0.20081638
6	0x3dbe98a8	0.093064606
7	0xbe9ae55d	-0.30253115
8	0xbd2f1ad2	-0.042750187
9	0xbea3e6fd	-0.32012168
10	0xbebe314e	-0.37146991
11	0x3eb7eae8	0.35921407
12	0xbe455383	-0.19270138
13	0x3e2e6463	0.17030482
14	0xbda07177	-0.07834142
15	0xbd9ee4fe	-0.077585205
16	0x3bd2ef91	0.00643725
17	0x3e9cc625	0.30619922
18	0xbd521368	-0.05128804
19	0x3ea6390b	0.32465395
20	0x3e679d2e	0.22618553
21	0x3e88d360	0.26723766
22	0xbeb6db3f	-0.35714146
23	0xbe36d52e	-0.17854759
24	0xbea3e7b4	-0.32012713
25	0xbd9ae876	-0.0756387
26	0xbd951bce	-0.07280694
27	0x3d9116e5	0.07084445
28	0x3eb4b03b	0.35290703
29	0x3e2fdbda	0.1717371
30	0xbe8c9f97	-0.27465507
31	0xbe79eb5f	-0.24406193
32	0x3e9764f5	0.29569212
33	0x3d0647f5	0.032783467
34	0x3dd86305	0.105657615
35	0xbe4ec1f2	-0.20191172
36	0xbd5c6122	-0.05380357
37	0x3de72f4e	0.112883195
38	0xbe835654	-0.256518
39	0x3e823e8f	0.25438353
40	0x3e464129	0.19360794
41	0xbe68a0e2	-0.22717622
42	0xbe1e8f25	-0.15484293
43	0xbdb0054c	-0.0859476
44	0x3d64ae3d	0.05583023
45	0xbe0fe936	-0.14053807
46	0x3ec1746c	0.37784135
47	0xbec2bd9e	-0.3803529
48	0xbe602dd6	-0.21892485
49	0xbe71a1e0	-0.23596907
50	0x3dc7d1b2	0.09756793
51	0x3d644f5f	0.055739757
52	0xbdd5e816	-0.104446575
53	0x3eac1a06	0.33613604
54	0xbeae013c	-0.33985317
55	0x3e080868	0.13284457
56	0xbe5a6d05	-0.2133065
57	0xbdaaa6bf	-0.083325855
58	0xbec2ab6a	-0.38021404
59	0xbe95a5aa	-0.29227954
60	0xbeab5125	-0.33460346
61	0x3e2a68a7	0.16641484
62	0xbe13eeb5	-0.14446528
63	0x3e4ff4c9	0.20308222
64	0xbe55bf6e	-0.20873806
65	0xbdcff8f1	-0.10154904
66	0x3d3286d0	0.0435856
67	0x3ea8d790	0.3297696
68	0xbdd2a200	-0.10284805
69	0x3e6aeb67	0.22941361
70	0x3dd24d36	0.10268633
71	0x3e72b72a	0.23702684
72	0x3e7c1da1	0.24620678
73	0x3e283ea7	0.1643015
74	0xbded5b37	-0.115896635
75	0xbdd595d2	-0.104289666
76	0x3e1b1d51	0.15147902
77	0x3e58c5be	0.21169183
78	0xbc44c7cb	-0.012010525
79	0x3e452987	0.19254123
80	0xbe72c94e	-0.23709604
81	0x3e5ef9c8	0.21774971
82	0xbd2de59c	-0.0424553
83	0xbe8933ed	-0.2679743
84	0xbe3e7459	-0.1859907
85	0xbe98f086	-0.29871005
86	0x3da262f0	0.07929027
87	0xbe6db71c	-0.23214382
88	0xbddb382c	-0.10704073
89	0xbcafe81b	-0.021472981
90	0xbe72c28b	-0.23707025
91	0x3c5805b7	0.013184956
92	0xbd5b6de1	-0.053571586
93	0x3df91071	0.12161339
94	0x3e906eb4	0.2820946
95	0xbe749edf	-0.2388873
96	0x3e57ba6c	0.21067208
97	0xbc4c6d05	-0.012477164
98	0xbe66a8e0	-0.22525358
99	0xbe330fef	-0.17486547
100	0x3dca9c9c	0.09893152
101	0x3d95a21e	0.07306312
102	0xbc2fc32e	-0.010727687
103	0xbe42aa61	-0.19010307
104	0x3e45d69e	0.19320151
105	0x3d8256d6	0.06364219
106	0xbec48d71	-0.3838916
107	0xbd77844c	-0.060428903
108	0xbdd945fe	-0.10609053
109	0xbe2543b6	-0.16139111
110	0xbe5b5a3c	-0.2142114
111	0xbea35364	-0.3189956
112	0x3ec72abb	0.38899788
113	0xbeb838c2	-0.35980803
114	0x3ec08b1e	0.37606138
115	0xbea2ac37	-0.31772014
116	0xbdc0d468	-0.09415513
117	0xbe214092	-0.15747288
118	0xbe53ffbe	-0.20703027
119	0x3e0b7ac7	0.13621055
120	0x3e66c592	0.22536305
121	0xbe82d747	-0.2555487
122	0xbe37c472	-0.17946032
123	0x3e494da0	0.19658518
124	0xbd2eb725	-0.04265513
125	0x3db87899	0.09007377
126	0x3e4d4ec4	0.20049578
127	0xbe0ec3eb	-0.13941924
128	0xbe5ae5b7	-0.21376692
129	0x3e0df0c4	0.13861376
130	0xbe0c12b4	-0.1367901
131	0xbe849706	-0.25896472
132	0xbe45fbbb	-0.19334309
133	0xbe3711f0	-0.17877936
134	0x3eca0db2	0.39463574
135	0x3d9f1bef	0.07769
136	0x3e27338e	0.1632826
137	0x3d3b362a	0.04570595
138	0xbe8643b9	-0.26223543
139	0x3e903640	0.2816639
140	0xbd5e8511	-0.05432612
141	0xbdbfbbf9	-0.09362025
142	0x3ea3bc61	0.3197966
143	0xbe47be02	-0.19506076
144	0x3d96a520	0.07355714
145	0xbeac1d0a	-0.33615905
146	0x3e4aec5d	0.19816728
147	0x3e1b3a52	0.15158966
148	0xbea573ba	-0.32314855
149	0x3e5c46ed	0.21511431
150	0x3d4562fa	0.048190095
151	0xbe577a45	-0.21042736
152	0x3eac562e	0.336595
153	0x3e2d570a	0.16927734
154	0x3e0f8d5a	0.14018765
155	0xbe1893ec	-0.14900178
156	0xbe589db4	-0.21153909
157	0xbe546421	-0.20741321
158	0x3e12f4a6	0.14351138
159	0x3dd06035	0.101746
160	0xbe6d504b	-0.2317516
161	0x3eb7e4b9	0.3591669
162	0x3e669886	0.2251912
163	0xbe15e0e3	-0.14636569
164	0x3e4cc484	0.1999684
165	0xbe26066f	-0.16213392
166	0x3df2557e	0.118327126
167	0x3ea78c42	0.32724196
168	0xbeb30d93	-0.34971294
169	0xbe49dd34	-0.19713289
170	0xbcb623f9	-0.02223395
171	0x3d7f2475	0.062290628
172	0xbea57a90	-0.3232007
173	0xbe85e094	-0.26147902
174	0xbd07cfdb	-0.03315721
175	0xbd7362b6	-0.05942031
176	0x3d9b05e3	0.07569482
177	0x3d5d85c9	0.054082666
178	0x3d9d9343	0.076941036
179	0x3cc5ff8c	0.024169706
180	0x3d20c903	0.0392542
181	0xbc9fa14b	-0.01948609
182	0x3e10b5b7	0.14131819
183	0x3e890d5d	0.26768008
184	0xbe43f5a4	-0.19136673
185	0xbe4b59a6	-0.19858417
186	0x3e2a6d27	0.16643201
187	0xbe910060	-0.283206
188	0x3e82ab25	0.25521198
189	0x3e36acbb	0.17839329
190	0x3d585844	0.05281855
191	0xbe2a63db	-0.16639654
192	0x3c8dcc4a	0.017309327
193	0xbea0e39b	-0.3142365
194	0xbeb56d31	-0.3543487
195	0x3ebe5b31	0.3717895
196	0xbeb4df13	-0.35326442
197	0xbea7180c	-0.32635534
198	0xbe1ed4bd	-0.1551084
199	0x3c821cf0	0.01588294
200	0x3db993bf	0.090613835
201	0xbe40ca82	-0.1882725
202	0xbcf4263d	-0.02980339
203	0xbda854bd	-0.082192875
204	0x3ea8ba07	0.32954428
205	0x3eaed1ab	0.3414434
206	0x3e220810	0.15823388
207	0xba666061	-0.0008788165
208	0x3e96d905	0.29462448
209	0xbea25995	-0.3170897
210	0x3e217f63	0.1577125
211	0xbe65e002	-0.22448733
212	0x3e9c4f55	0.30529276
213	0xbeb21a7e	-0.34785837
214	0x3e0e16da	0.13875905
215	0xbea52725	-0.32256427
216	0x3e68d96d	0.22739191
217	0x3da1a4b0	0.0789274
218	0x3eaca1ad	0.337171
219	0xbe9c6f90	-0.30553865
220	0x3e803201	0.2503815
221	0xbe857afc	-0.26070392
222	0xbe55277b	-0.20815842
223	0x3e1215a7	0.14266072
224	0xbd8e5be9	-0.06951124
225	0xbea007b0	-0.31255865
226	0xbeab5e98	-0.33470607
227	0xbddb215a	-0.10699721
228	0x3dce5331	0.10074461
229	0x3eb0f469	0.3456147
230	0x3e934aab	0.28767905
231	0x3aa93ede	0.0012912413
232	0xbe7341f7	-0.23755632
233	0xbeb3b55c	-0.35099304
234	0x3eb491a7	0.35267374
235	0xbe5d421f	-0.21607254
236	0xbd82ae43	-0.06380894
237	0xbea20100	-0.31641388
238	0xbe8a0089	-0.26953533
239	0x3d8b6c3d	0.06807754
240	0xbdcbe443	-0.09955647
241	0x3d422926	0.047402523
242	0x3af0c729	0.0018369901
243	0x3c881e42	0.01661599
244	0xbda8dd04	-0.082452804
245	0xbc1b3878	-0.009473912
246	0x3e291183	0.16510586
247	0x3e92454c	0.28568494
248	0x3eaa029d	0.3320512
249	0xbea74c0f	-0.32675216
250	0xbeaa1398	-0.33218074
251	0xbd543455	-0.05180772
252	0xbcbe5fc6	-0.023239028
253	0x3e5c9a0a	0.21543136
254	0x3ebec1bc	0.37257183
255	0x3dd45140	0.1036706

naim.encoder.0.ff.0.bias f4 [1000]
0	0x3e80307b	0.25036988
1	0xbe4bd5cf	-0.1990578
2	0xbd76c8c1	-0.060250048
3	0x3ce88f9f	0.028388796
4	0x3e8f4b9d	0.27987376
5	0x3e2f5a16	0.17124209
6	0x3ec3f503	0.38272867
7	0xbe537a16	-0.20652041
8	0xbd0c13d1	-0.034198586
9	0xbd03520a	-0.03206066
10	0x3ea49752	0.32146698
11	0x3ec08e56	0.37608594
12	0x3dc40458	0.09571141
13	0xbea2a874	-0.31769145
14	0xbe91a76b	-0.28448042
15	0x3d9db70d	0.0770093
16	0xbeb1b321	-0.34706977
17	0xbe055234	-0.13019639
18	0xbe9654d5	-0.29361597
19	0x3e563586	0.20918855
20	0xbd6e8f54	-0.058242157
21	0xbe9d01eb	-0.30665526
22	0x3e829fdd	0.2551259
23	0xbeb2d4f0	-0.34928083
24	0xbd30efb4	-0.04319735
25	0x3ec80c34	0.3907181
26	0x3e48fd7c	0.19627947
27	0xbeb087fb	-0.34478745
28	0x3d2d6de3	0.042341124
29	0xbd5a4740	-0.053290606
30	0x3e2fbc00	0.1716156
31	0x3ebbcd7e	0.36680216
32	0x3eac4702	0.33647925
33	0xbd00d6e1	-0.031454924
34	0x3e3767b9	0.17910661
35	0xbec6d3b8	-0.38833404
36	0x3e9e74e5	0.30948558
37	0x3e53e2ca	0.20691982
38	0xbe8c99da	-0.2746113
39	0xbde37fc1	-0.111083515
40	0xbe180995	-0.14847405
41	0xbe69f1a1	-0.2284608
42	0x3e2cf70a	0.16891113
43	0xbddcc7cf	-0.10780298
44	0x3e252c6b	0.16130225
45	0xbdefd14d	-0.11709843
46	0x3e9ebfd0	0.31005716
47	0xbe1b6637	-0.1517571
48	0xbd9081e4	-0.07056025
49	0xbdeeaf40	-0.1165452
50	0x3c56227f	0.013069748
51	0xbe11b5cf	-0.1422951
52	0xbe8cd6ab	-0.2750753
53	0xbebffa4d	-0.37495652
54	0x3e76abe6	0.24089012
55	0x3d7e0c24	0.062023297
56	0xbe8064d2	-0.2507692
57	0x3e500645	0.20314892
58	0x3d335fb6	0.04379245
59	0xbe0b3036	-0.1359261
60	0xbd03c7ea	-0.032173075
61	0x3d1bedb5	0.038068492
62	0x3e8f65e2	0.28007418
63	0xbeb96e2f	-0.36216876
64	0xbe9b8d0a	-0.30381042
65	0xbea24ece	-0.31700748
66	0xbe9daf55	-0.3079783
67	0xbb4df404	-0.0031425962
68	0x3e6696b2	0.22518423
69	0x3ddf128b	0.10892209
70	0x3e264f83	0.16241269
71	0x3d2d0da4	0.042249337
72	0xb9cdf6bb	-0.00039284475
73	0xbeb6a9bd	-0.35676375
74	0x3eb4cd71	0.3531299
75	0x3ec49ea1	0.38402274
76	0x3b655e40	0.0034998804
77	0x3d88200d	0.06646738
78	0x3d9f0f1b	0.07766553
79	0x3ec93411	0.39297536
80	0xbbb94c0d	-0.005654818
81	0xbd62be3e	-0.05535721
82	0xbe5a1b39	-0.21299447
83	0x3dd250e7	0.10269337
84	0x3e34e092	0.17663792
85	0xbeaa1a7c	-0.3322333
86	0x3e0600f4	0.13086301
87	0x3dbff834	0.09373513
88	0x3e30588b	0.17221276
89	0x3e3840d0	0.17993474
90	0xbdc37ceb	-0.095453106
91	0x3d31addd	0.0433787
92	0xbe8bffc5	-0.27343574
93	0x3e71115d	0.2354178
94	0xbea94058	-0.33056903
95	0xbeb10bbf	-0.34579274
96	0xbe94f49b	-0.2909287
97	0xbe5be748	-0.21474946
98	0x3c332d3a	0.010936076
99	0x3e85d966	0.26142424
100	0xbd39a41e	-0.04532253
101	0x3e94a4ef	0.29032084
102	0xbd8caa86	-0.06868462
103	0x3eab30c3	0.3343564
104	0x3e8ac753	0.27105197
105	0x3e7dee33	0.24797897
106	0x3e1dc5fa	0.15407553
107	0xbe8674ed	-0.26261082
108	0x3ecb35f8	0.39689612
109	0xbec07b26	-0.37593955
110	0xbe8c1fc3	-0.27367982
111	0xbe6f7a62	-0.23386529
112	0xbddfd2cc	-0.10928878
113	0x3e2b8f73	0.1675394
114	0x3db77280	0.08957386
115	0xbead96ee	-0.33904213
116	0x3ec33c02	0.3813172
117	0x3ebde262	0.3708678
118	0x3e44b479	0.1920947
119	0xbec63a7c	-0.38716495
120	0x3e5eb87f	0.21750067
121	0x3df3b32a	0.11899407
122	0xbd288b44	-0.04114844
123	0xbea89400	-0.32925415
124	0x3eaf5e3c	0.34251583
125	0xbde326fd	-0.11091421
126	0xbea29219	-0.3175209
127	0x3e9ae051	0.30249265
128	0x3e19b5e5	0.15010794
129	0x3de453ba	0.11148782
130	0x3e82606e	0.25464195
131	0x3e0c54a1	0.13704158
132	0xbd9f073c	-0.07765052
133	0xbd77d370	-0.060504377
134	0x3ea71681	0.32634357
135	0xbc851eb8	-0.01625
136	0xbea8a822	-0.32940775
137	0xbe8d58b2	-0.27606732
138	0xbe97281b	-0.29522786
139	0x3d15cdc1	0.036573175
140	0x3e93ee7b	0.28892884
141	0x3e775de4	0.2415691
142	0x3dce9249	0.100864954
143	0x3e01f7e0	0.12692213
144	0xbe3bfd1b	-0.18358271
145	0x3ec1a977	0.37824604
146	0x3e14dc96	0.14537272
147	0xbe7a4127	-0.24438916
148	0xbe858691	-0.2607923
149	0xbeb49f7e	-0.35277933
150	0xbdd612ee	-0.10452829
151	0x3e95029d	0.29103556
152	0x3c856f2f	0.016288368
153	0xbe3e3479	-0.18574704
154	0x3dd666f7	0.10468858
155	0xbe8abe03	-0.27098092
156	0x3df2b233	0.11850395
157	0x3e8896c0	0.26677513
158	0x3e41d899	0.18930282
159	0xbde94d95	-0.11391751
160	0xbe03f0f9	-0.12884893
161	0x3e2c5908	0.16830838
162	0x3e707de9	0.23485531
163	0xbdc98540	-0.098398685
164	0xbb1cdc8d	-0.002393517
165	0xbd1e0c66	-0.038586043
166	0xbd1d47f4	-0.038398698
167	0xbeb2da38	-0.34932113
168	0xbea5c7ad	-0.32378903
169	0x3eacd13b	0.3375338
170	0xbe3ed74a	-0.18636814
171	0x3e9a59d4	0.30146658
172	0x3e777a2e	0.24167702
173	0xbd5d256c	-0.053990766
174	0xbe3e3532	-0.1857498
175	0x3bf636a5	0.0075138384
176	0xbd8527e1	-0.06501747
177	0xbe6a9800	-0.22909546
178	0x3ec52397	0.38503715
179	0xbccc80a7	-0.02496369
180	0xbd771cf0	-0.06033033
181	0xbe87c4af	-0.26517245
182	0x3d6f7e5f	0.058470126
183	0x3d7b0a0f	0.06128889
184	0x3ec7f435	0.39053503
185	0xbde8f965	-0.11375693
186	0x3e644a77	0.22294031
187	0x3cb286f8	0.021792874
188	0x3e53c3e6	0.20680198
189	0x3af583b9	0.0018731273
190	0xbd77fa90	-0.06054169
191	0x3e1b1000	0.15142822
192	0xbe2ed0ae	-0.17071792
193	0x3e7526f1	0.23940636
194	0xbea93619	-0.33049086
195	0xbe8f43f7	-0.2798154
196	0x3ec22dd3	0.37925586
197	0xbe18ff52	-0.14941147
198	0xbe9fce67	-0.3121216
199	0xbe923185	-0.28553405
200	0x3ec62dda	0.38706857
201	0xbd3c3ac7	-0.045954492
202	0xbea96aa4	-0.33089173
203	0xbd5990b0	-0.0531165
204	0xbe3f31ca	-0.18671337
205	0xbe8634db	-0.262122
206	0xbe4433e6	-0.19160423
207	0x3e992d12	0.29917198
208	0x3e1d408d	0.15356655
209	0x3e6d7c5d	0.23191972
210	0x3d1dd354	0.038531616
211	0xbe21cf1b	-0.1580166
212	0xbe1db841	-0.15402319
213	0xbe8646af	-0.26225802
214	0xbe906f5c	-0.2820996
215	0xbeadfb80	-0.33980942
216	0x3da06e32	0.07833518
217	0x3e5108c9	0.20413508
218	0x3ea998d7	0.3312442
219	0xbbbf8e6f	-0.005845837
220	0xbd787ec9	-0.060667787
221	0xbcb6385e	-0.022243675
222	0x3e254fcd	0.16143723
223	0xbd6a1da8	-0.05715719
224	0xbe08f367	-0.133741
225	0xbdcdb8b7	-0.10044997
226	0xbec58b56	-0.38582867
227	0xbe9a46ef	-0.30132243
228	0xbe27cf4e	-0.16387674
229	0x3d3ae2cf	0.045626458
230	0xbe7a1fc2	-0.24426177
231	0x3e160754	0.14651233
232	0xbe5c0fad	-0.21490355
233	0x3ec4d460	0.3844328
234	0xbeb21b1e	-0.34786314
235	0x3e60e379	0.21961774
236	0xbe4d82e9	-0.2006947
237	0xbe0a861d	-0.13527723
238	0xbebcd941	-0.36884502
239	0xbebb86f2	-0.36626393
240	0xbebf7b8e	-0.37398952
241	0xbb2b18e6	-0.002610737
242	0x3eba2898	0.36359096
243	0x3e3734b9	0.17891206
244	0x3e81cc86	0.25351351
245	0x3dad2122	0.08453585
246	0xbe149abf	-0.14512156
247	0xbe1e7521	-0.15474369
248	0xbde0093a	-0.1093926
249	0xbebcd7e6	-0.36883467
250	0x3e59292d	0.21207114
251	0xbdf2e79e	-0.11860584
252	0xbe615735	-0.22005923
253	0x3dbb7796	0.091536686
254	0x3a8c1c6a	0.001068962
255	0x3e5f5b57	0.21812187

naim.encoder.0.ff.3.weight f4 [6, 1000]
0	0xbca5279e	-0.020160493
1	0xbc7be74c	-0.01537497
2	0xbb692395	-0.0035574187
3	0xbbca24ba	-0.006168929
4	0xbc09bdad	-0.008407039
5	0x3c36c3b9	0.011155062
6	0xbbeaf2c2	-0.0071700523
7	0xbc81bd41	-0.015837314
8	0x3cb512c9	0.022103684
9	0x3cc65abc	0.024213187
10	0xbb196c0d	-0.002341035
11	0xbbd84106	-0.0065995483
12	0xbd04f609	-0.0324612
13	0xbcf4dcfc	-0.02989053
14	0xbb5e4787	-0.0033917145
15	0xbb948350	-0.004532255
16	0x3bfb1a06	0.0076630143
17	0xbca59a12	-0.020215068
18	0xbc49f7b0	-0.01232712
19	0xb9645ee1	-0.0002177912
20	0x3cd037fa	0.025417317
21	0x3c95824d	0.018250609
22	0xbc5ca60c	-0.013467323
23	0xbc6a65e8	-0.014306523
24	0xbc25bc6b	-0.010115723
25	0x3b9fddba	0.004878727
26	0x3c7eb477	0.015545956
27	0xbbfad5be	-0.0076548746
28	0xbb3f811a	-0.0029221238
29	0xbcd680ec	-0.026184522
30	0xbc7589c4	-0.014986459
31	0xbd0929f9	-0.033487294
32	0x3bd5d877	0.0065260488
33	0xbc90ab48	-0.017659798
34	0xbc6db40b	-0.014508258
35	0xbc86cbb1	-0.01645455
36	0x3cee15b5	0.029063085
37	0xbb2c4eec	-0.0026292158
38	0x3d033daa	0.03204123
39	0xbcad31d5	-0.021141926
40	0x3cbc674c	0.022998475
41	0xba174672	-0.000577069
42	0xbcbf9629	-0.023387032
43	0x3ca54ed9	0.020179199
44	0xbc98ecc1	-0.01866758
45	0xbcbb35bf	-0.022852777
46	0x3c9408ae	0.018070545
47	0xbadf5b55	-0.0017040769
48	0x3b731a12	0.0037094397
49	0x3d0a1e90	0.033720553
50	0xbcb43615	-0.021998445
51	0xbc5a7456	-0.013333401
52	0x3c42fdf9	0.011901372
53	0xbc1da2e3	-0.009621355
54	0xbab2f8b1	-0.0013654438
55	0xbc512bca	-0.012766788
56	0xbbca7cb1	-0.006179415
57	0x3ce8a949	0.028401034
58	0xbbb95cdb	-0.005656821
59	0x3c3211c7	0.010868496
60	0x3ce29b87	0.027662052
61	0x3c972827	0.018451763
62	0x3cb453a0	0.022012532
63	0x3c8485e3	0.016177123
64	0xbbfbbbfe	-0.0076823225
65	0xbb544ed1	-0.003239561
66	0xbc21936d	-0.009861809
67	0xbd0a1df8	-0.033719987
68	0x3cbde3c6	0.0231799
69	0xbce63c6a	-0.02810498
70	0xbcc270d8	-0.023735449
71	0xbbf5d32d	-0.0075019808
72	0xbccfbcb7	-0.025358541
73	0xbcb57b60	-0.022153556
74	0xbcaca63f	-0.021075366
75	0x39b35d88	0.00034211227
76	0xbd012dde	-0.031537883
77	0xbcaacf8d	-0.020850921
78	0xbc5ed84d	-0.013601375
79	0xbcbe8eed	-0.023261512
80	0x3c535ba3	0.012900266
81	0x3b3f6afd	0.0029208057
82	0x3c050454	0.008118708
83	0x3cc1507c	0.023597948
84	0xbc8d5228	-0.01725109
85	0xbc9f3a3f	-0.019436954
86	0x3c2e3c2d	0.010634464
87	0x3ce5f4e1	0.028070869
88	0x3c12df1c	0.008964326
89	0xbbf30f6b	-0.0074176094
90	0x3c5ce183	0.013481501
91	0xbcdabb75	-0.026700715
92	0xbcded768	-0.027202323
93	0xbbf803bc	-0.0075688045
94	0xbcc82146	-0.024429929
95	0xbcd21765	-0.025645921
96	0xbce023f2	-0.02736089
97	0x3c71f8b1	0.014768765
98	0x3beec993	0.007287213
99	0xbb8b7e22	-0.0042569796
100	0xbc566163	-0.013084742
101	0xbb4972fc	-0.0030738702
102	0x3caa83fe	0.020814892
103	0xbce8b157	-0.028404875
104	0x3ceee202	0.029160503
105	0x3c88a3b5	0.016679624
106	0xbc85e0f0	-0.01634261
107	0x3caa4619	0.020785378
108	0xbb2d55d5	-0.0026448865
109	0xbc6c094d	-0.014406514
110	0x3cfa60ea	0.03056379
111	0x3c575cbe	0.01314467
112	0x3cc14bae	0.023595657
113	0xbc628732	-0.013826178
114	0xbcfb32a8	-0.030663803
115	0x3cdc8a27	0.026921345
116	0x3c00cf92	0.007861989
117	0x3c890c92	0.016729627
118	0xbc63c6bf	-0.013902365
119	0x3c29daa1	0.010367067
120	0xbcbafcc6	-0.02282561
121	0xbb2f7725	-0.0026773897
122	0x3caa7300	0.02080679
123	0xbc81dfd2	-0.015853796
124	0x3ccab0d9	0.02474253
125	0x3bcfb39e	0.0063385507
126	0x3c4cd937	0.01250296
127	0x3d1fbdd7	0.038999405
128	0xba3af6e0	-0.0007132124
129	0xba854e7e	-0.0010170487
130	0x3c9c4981	0.019078018
131	0xbc96a433	-0.018388843
132	0xbcea4613	-0.028597867
133	0x3cc11ba4	0.02357275
134	0xbd014a4c	-0.031564996
135	0xbca8a568	-0.020586684
136	0x3ab43ce7	0.001375106
137	0xba1e8e1b	-0.0006048397
138	0xbccac4af	-0.02475199
139	0xbc529da6	-0.012854969
140	0x3ca04fe4	0.019569345
141	0xbc81df91	-0.015853675
142	0x3c505ef8	0.012717955
143	0xb955f773	-0.00020405445
144	0xbc395b71	-0.011313305
145	0xbcf4c2ed	-0.029878104
146	0xbc053865	-0.008131121
147	0x3ca36ce9	0.019949393
148	0xbc8b1291	-0.016976627
149	0xbcbf7f87	-0.02337624
150	0xbb392276	-0.00282493
151	0x3ce3944e	0.027780678
152	0xbbae462a	-0.005318423
153	0x3cd40498	0.025881097
154	0x3cd7a97c	0.026325934
155	0x3caee236	0.0213481
156	0xbc381cc5	-0.011237328
157	0xbc88c6f4	-0.01669643
158	0xbcd819c1	-0.026379468
159	0xbc298b12	-0.010348098
160	0xbcab819c	-0.020935826
161	0x3c0d189f	0.008611827
162	0x3bbc9635	0.0057552108
163	0x3c8d3bdd	0.01724046
164	0xbcc0839f	-0.023500262
165	0xbd03d45d	-0.032184947
166	0xbaf56248	-0.0018721307
167	0x3ba47c30	0.005019687
168	0x3ca8a8a4	0.020588227
169	0xbbc6a5d1	-0.0060622473
170	0x3d056a15	0.03257187
171	0xbba0d4e5	-0.0049081915
172	0xbc036008	-0.008018501
173	0xbc497b9d	-0.012297538
174	0xbc934081	-0.017975094
175	0xbc3fc801	-0.0117053995
176	0xbcf82d2e	-0.03029498
177	0x3a195a19	0.00058499124
178	0xbc722b18	-0.014780782
179	0xbc8fbcc0	-0.017546058
180	0xbce2dabb	-0.02769219
181	0xbd1259d9	-0.035730217
182	0xbc46005a	-0.012085045
183	0xbcc6b5c4	-0.024256594
184	0x3cd59418	0.026071593
185	0xbb6e99d0	-0.0036407597
186	0x3c353956	0.011061033
187	0xbc95f42d	-0.018304909
188	0xbaa94822	-0.0012915174
189	0xbcd72fcc	-0.026267909
190	0x3c01abdc	0.00791451
191	0x3c89752a	0.016779501
192	0xbcff8fe0	-0.031196535
193	0x3caed125	0.021339962
194	0xbb79707f	-0.0038061438
195	0xbc990607	-0.018679632
196	0xbc825da1	-0.015913786
197	0x3cda86ef	0.02667567
198	0xbc36d58a	-0.01115931
199	0x3ced6815	0.028980294
200	0x3ac278da	0.0014837042
201	0x3c967743	0.018367415
202	0xbc7c9201	-0.015415669
203	0x3c5f2dc9	0.013621756
204	0x3b82f78d	0.0039967955
205	0x3ca2e046	0.019882333
206	0xbcdb562a	-0.026774485
207	0xbc753103	-0.014965299
208	0x38c73e4b	9.5006624e-05
209	0xbce026fe	-0.027362343
210	0x3b5c145c	0.003358147
211	0x3c47e4e4	0.012200568
212	0x3cc19a9f	0.0236333
213	0xbc8526f5	-0.016253928
214	0x3c91be4f	0.017790942
215	0xbcec4e46	-0.028845917
216	0x3c95e979	0.018299805
217	0xbcc9fab8	-0.024655685
218	0xbcecf8ec	-0.028927289
219	0x3b9828c8	0.0046435334
220	0xbbfa0890	-0.0076304153
221	0x3c1a9624	0.00943521
222	0x3d15cd84	0.036572948
223	0x3cd53add	0.026029045
224	0x3ca96952	0.020680103
225	0xbcc487a1	-0.023990454
226	0xbb261a52	-0.0025345278
227	0x3b73605f	0.00371363
228	0xbd160294	-0.036623552
229	0x3c9f20b1	0.019424768
230	0x3cd25d83	0.025679355
231	0xbc9694b4	-0.018381454
232	0xbb6fa9ff	-0.0036569831
233	0xbcb74a6a	-0.02237435
234	0x3be35758	0.0069379024
235	0x3b7710ca	0.0037699216
236	0xbc5fb4b1	-0.01365392
237	0x3c81e90d	0.015858198
238	0xbc48a114	-0.012245435
239	0x3ab30094	0.0013656789
240	0x3c76653c	0.015038785
241	0xbc3edd1b	-0.011649395
242	0xbcf4c97b	-0.02988123
243	0x3c7f2628	0.015573062
244	0xbcc9e042	-0.024643067
245	0x3bcf3d89	0.0063244742
246	0xbc0d95db	-0.008641685
247	0x3c867bc1	0.016416432
248	0xbbea085d	-0.0071421103
249	0xbca7803e	-0.020446893
250	0xbcd85c76	-0.026411276
251	0x3ccc30a3	0.024925536
252	0xbcc91135	-0.024544338
253	0x3c816271	0.01579401
254	0x3c93afce	0.018028166
255	0xbcbe808b	-0.023254653

naim.encoder.0.ff.3.bias f4 [6]
0	0xbce98354	-0.028505005
1	0xbc30421d	-0.01075795
2	0xbc49f0ac	-0.012325447
3	0xbbf17288	-0.0073683895
4	0x3cecabb2	0.028890464
5	0xbcfbb75d	-0.030727083

naim.encoder.1.layer_norm_1.weight f4 [6]
0	0x3f7cb94e	0.9872025
1	0x3f7cfdfe	0.9882506
2	0x3f7cbc62	0.9872495
3	0x3f7d07de	0.9884013
4	0x3f7ca9ce	0.986966
5	0x3f7d2e33	0.9889862

naim.encoder.1.layer_norm_1.bias f4 [6]
0	0xbaf6b296	-0.0018821533
1	0x3be5a5fc	0.0070083123
2	0x3add3f41	0.0016879813
3	0xbbb118f5	-0.0054045864
4	0x3bd55cb7	0.0065112966
5	0xbbb60189	-0.005554382

naim.encoder.1.attn.linear_q.weight f4 [6, 6]
0	0xbe91f436	-0.2850663
1	0xbdf236b3	-0.11826839
2	0xbe2cd48d	-0.16877957
3	0x3db5ce39	0.088772245
4	0x3e7f02d2	0.2490342
5	0x3d58b5f9	0.052907918
6	0x3a6944c3	0.0008898491
7	0x3e3b8fe8	0.18316615
8	0x3e6c3e09	0.2307054
9	0x3bc68466	0.0060582636
10	0xbe869e7c	-0.2629279
11	0xbeae6d79	-0.34067896
12	0x3eca19eb	0.394729
13	0x3df65ab9	0.12029023
14	0x3eb8fd30	0.36130667
15	0xbe162268	-0.14661562
16	0x3dcffaee	0.10155283
17	0xbe4f02fb	-0.2021598
18	0xbe4f24ed	-0.2022893
19	0xbe32816d	-0.17432185
20	0x3eca489d	0.39508525
21	0x3e91e7e5	0.28497234
22	0xbe746e99	-0.23870315
23	0xbe8cc076	-0.27490586
24	0x3df92e1e	0.12166999
25	0xbdaa7955	-0.083239235
26	0x3c0388fd	0.008028266
27	0x3d20e2ba	0.039278723
28	0xbeb05c5d	-0.34445468
29	0x3d9e4781	0.07728482
30	0x3b57e64b	0.0032943662
31	0xbe8b9e46	-0.2726919
32	0xbec80956	-0.39069623
33	0x3e4834d1	0.19551398
34	0xbeb88848	-0.36041474
35	0xbe2eed49	-0.17082705

naim.encoder.1.attn.linear_k.weight f4 [6, 6]
0	0x3e74013a	0.23828593
1	0xbe84bcc6	-0.25925273
2	0xbe38f78e	-0.18063185
3	0xbe7aa432	-0.24476698
4	0x3e68f411	0.22749354
5	0x3deaf660	0.114727736
6	0x3cf6cc79	0.030126797
7	0x3e05caa6	0.13065585
8	0x3dd599b0	0.10429704
9	0xbd96c1c4	-0.073611766
10	0xbcd1a1bf	-0.025589822
11	0xbe78515b	-0.24249785
12	0xbe388931	-0.18021084
13	0x3bfb38fb	0.0076667047
14	0xbd1940b4	-0.03741522
15	0x3dbd0f9f	0.09231495
16	0x3e393fe2	0.18090776
17	0x3e9a1317	0.3009269
18	0x3ec1b25a	0.37831384
19	0xbcaff678	-0.02147983
20	0x3e17b906	0.14816675
21	0xbea2bd0d	-0.3178486
22	0x3e64b2f0	0.22333884
23	0xbdc561e7	-0.09637814
24	0xbe9f2b8e	-0.31087917
25	0xbe9c1b9f	-0.30489823
26	0xbea7a0e0	-0.32739925
27	0xbe33cff5	-0.17559798
28	0x3e318851	0.17337157
29	0xbea3dd40	-0.32004738
30	0xbd23b703	-0.039969455
31	0xbd4f2177	-0.050569024
32	0x3e0c7482	0.13716319
33	0xbe1d426d	-0.1535737
34	0x3e466793	0.19375448
35	0xbe7542bf	-0.23951243

naim.encoder.1.attn.linear_v.weight f4 [6, 6]
0	0x3e6ecab3	0.23319511
1	0xbecaf0d1	-0.39636853
2	0xbe8802c8	-0.26564622
3	0x3e086fd2	0.13323906
4	0x3d5bf705	0.053702373
5	0x3e8c905a	0.27453882
6	0x3e52646d	0.20546122
7	0xbeaa86e8	-0.3330605
8	0x3ea03b85	0.3129541
9	0xbdcede91	-0.10101045
10	0xbd953d8f	-0.07287132
11	0xbe2d8d88	-0.16948521
12	0xbd85647f	-0.06513309
13	0xbebf214d	-0.37330094
14	0x3ce2d8af	0.027691213
15	0x3e997c2a	0.29977542
16	0xbdab623b	-0.08368345
17	0x3e9d3b62	0.30709368
18	0xbe39b346	-0.18134794
19	0x3e1ea99e	0.15494391
20	0x3d1bc3c0	0.03802848
21	0xbe1502d3	-0.14551859
22	0x3ec5ee46	0.3865835
23	0x3d159de2	0.036527522
24	0x3caf2be9	0.021383243
25	0xbd22d60d	-0.039754916
26	0xbc940def	-0.01807305
27	0x3ea48867	0.32135317
28	0xbd738dce	-0.059461407
29	0x3e74f7e4	0.23922688
30	0x3e0c2052	0.13684204
31	0x3e81dba5	0.25362888
32	0xbe97bd84	-0.29636776
33	0xbeb1197e	-0.34589761
34	0xbdf87a73	-0.1213273
35	0xbdd0e63a	-0.10200162

naim.encoder.1.attn.linear_o.weight f4 [6, 6]
0	0x3ec3fce8	0.3827889
1	0x3ec9dd30	0.39426565
2	0xbdcddd3d	-0.100519635
3	0xbe44eecc	-0.19231719
4	0xbbaad5ad	-0.0052134604
5	0x3e1abd17	0.15111195
6	0x3e098b82	0.13432124
7	0x3d8d61bd	0.06903408
8	0x3e96ad9e	0.29429334
9	0x3d170cd5	0.036877472
10	0x3ea5cfe3	0.32385167
11	0x3dbbf46e	0.09177481
12	0xbcfaf977	-0.030636532
13	0x3eaf3ae7	0.34224626
14	0x3c9a402d	0.01882943
15	0x3cb37a35	0.021908859
16	0xbd958e67	-0.07302552
17	0x3e785bc6	0.24253759
18	0xbe02b3db	-0.12763922
19	0x3e9e579c	0.30926216
20	0x3e574f72	0.210264
21	0xbc533295	-0.012890478
22	0xbd96944c	-0.07352504
23	0x3e1b5383	0.15168576
24	0xbec57695	-0.38567033
25	0xbdfa06f5	-0.12208358
26	0xbe06824f	-0.13135646
27	0xbd184787	-0.03717759
28	0xbe3ac770	-0.18240142
29	0xbe274b77	-0.16337381
30	0x3e3986cc	0.18117827
31	0xbcf99cfb	-0.030470362
32	0xbe8a3a51	-0.26997617
33	0xbc89bdc9	-0.01681413
34	0x3df373fe	0.11887358
35	0xbe1c19b9	-0.15244187

naim.encoder.1.layer_norm_2.weight f4 [6]
0	0x3f7db092	0.9909755
1	0x3f7e857c	0.9942243
2	0x3f80745b	1.0035509
3	0x3f7ed54b	0.9954421
4	0x3f7ed24d	0.99539644
5	0x3f8048ac	1.0022178

naim.encoder.1.layer_norm_2.bias f4 [6]
0	0x39009d7b	0.00012265697
1	0xbbbe40f2	-0.005806082
2	0x3bbc934c	0.005754864
3	0xbbf293d0	-0.0074028745
4	0x3bc90afd	0.006135343
5	0xbb3ed145	-0.0029116434
