outputs/2025-03-23/17-26-40/outputs/model_epoch_10.pt (torch, 149218 bytes, 92 tensors)

naim.embeddings.0.embeddings.weight f4 [2, 6]
00000000: 8383 9e3e be7a ecbe 2e91 83be 3147 723e
00000010: 0b59 ba3e 250b 763e 0000 0000 0000 0000
00000020: 0000 0000 0000 0000 0000 0000 0000 0000
0.3095971 -0.46187395 -0.256967 0.2365997 0.3639606 0.24027689 0.0 0.0
0.0 0.0 0.0 0.0

naim.embeddings.1.embeddings.weight f4 [2, 6]
00000000: 2d3f 8d3d 8df9 b1bd 7a4e 9fbd 8da5 983e
00000010: 7f9b 193e 01ba 99bd 0000 0000 0000 0000
00000020: 0000 0000 0000 0000 0000 0000 0000 0000
0.068968154 -0.08690176 -0.0777864 0.29813805 0.15000723 -0.075061806 0.0 0.0
0.0 0.0 0.0 0.0

naim.embeddings.2.embeddings.weight f4 [2, 6]
00000000: e160 173f 223f 0b3d be68 dd3b 7e7c 0a3f
00000010: 9c6a 7dbe c31d aa3e 0000 0000 0000 0000
00000020: 0000 0000 0000 0000 0000 0000 0000 0000
0.591322 0.033995755 0.006756871 0.5409621 -0.247477 0.3322583 0.0 0.0
0.0 0.0 0.0 0.0

naim.embeddings.3.embeddings.weight f4 [2, 6]
00000000: 9e98 083f 03c0 d5be ea98 ec3c 1653 d03e
00000010: 397d 0e3e 52c0 883c 0000 0000 0000 0000
00000020: 0000 0000 0000 0000 0000 0000 0000 0000
0.53357875 -0.41748056 0.028881509 0.4068839 0.13914956 0.016693268 0.0 0.0
0.0 0.0 0.0 0.0

naim.embeddings.4.embeddings.weight f4 [2, 6]
00000000: 24ec f2be 8fe4 8abe 55a6 38be 2efc fe3d
00000010: 582a c83d 7737 103c 0000 0000 0000 0000
00000020: 0000 0000 0000 0000 0000 0000 0000 0000
-0.47445786 -0.271275 -0.180322 0.12450443 0.097737014 0.008802286 0.0 0.0
0.0 0.0 0.0 0.0

naim.embeddings.5.embeddings.weight f4 [2, 6]
00000000: f168 86be a932 a23c 529a 0c3f e90d 9b3e
00000010: e30d f0be 0f10 603d 0000 0000 0000 0000
00000020: 0000 0000 0000 0000 0000 0000 0000 0000
-0.2625194 0.019799547 0.54922974 0.3028405 -0.46885595 0.054702815 0.0 0.0
0.0 0.0 0.0 0.0

naim.embeddings.6.embeddings.weight f4 [2, 6]
00000000: 1e03 debe a807 c3bd 0670 d5bd 3941 7dbe
00000010: 59a3 023e c48d 263f 0000 0000 0000 0000
00000020: 0000 0000 0000 0000 0000 0000 0000 0000
-0.43361753 -0.09522945 -0.104217574 -0.24731912 0.12757625 0.6506007 0.0 0.0
0.0 0.0 0.0 0.0

naim.embeddings.7.embeddings.weight f4 [2, 6]
00000000: 168a b0be b1bb 2fbb d2be b63d f1c5 21bf
00000010: ca98 2cbd a800 fe3e 0000 0000 0000 0000
00000020: 0000 0000 0000 0000 0000 0000 0000 0000
-0.3448035 -0.0026814754 0.08923115 -0.6319266 -0.0421379 0.49609876 0.0 0.0
0.0 0.0 0.0 0.0

naim.embeddings.8.embeddings.weight f4 [2, 6]
00000000: fde6 0b3f 35a9 febd 2890 4f3e bade 0bbf
00000010: 6793 3ebe 0a61 413e 0000 0000 0000 0000
00000020: 0000 0000 0000 0000 0000 0000 0000 0000
0.54649335 -0.124346174 0.20269835 -0.5463673 -0.18610917 0.18884674 0.0 0.0
0.0 0.0 0.0 0.0

naim.embeddings.9.embeddings.weight f4 [2, 6]
00000000: 9d10 d23e 2a9c 6fbe 10a3 783d 8890 c2be
00000010: 1ed3 06bf 66df 993b 0000 0000 0000 0000
00000020: 0000 0000 0000 0000 0000 0000 0000 0000
0.410283 -0.23399416 0.060702384 -0.38000894 -0.5266589 0.0046958206 0.0 0.0
0.0 0.0 0.0 0.0

naim.embeddings.10.embeddings.weight f4 [2, 6]
00000000: 7149 ac3d b7f4 ae3d 4e96 753e a2db 703e
00000010: 1d9b 0d3d 0a6b c53e 0000 0000 0000 0000
00000020: 0000 0000 0000 0000 0000 0000 0000 0000
0.08412445 0.085427694 0.23983118 0.23521283 0.034571756 0.38558227 0.0 0.0
0.0 0.0 0.0 0.0

naim.embeddings.11.embeddings.weight f4 [2, 6]
00000000: d768 143e c8cf b7bd 5658 d1be 9e82 f9be
00000010: 483b 0fbd ee62 6ebe 0000 0000 0000 0000
00000020: 0000 0000 0000 0000 0000 0000 0000 0000
0.14493118 -0.08975178 -0.40887707 -0.48732466 -0.034968644 -0.23279926 0.0 0.0
0.0 0.0 0.0 0.0

naim.embeddings.12.embeddings.weight f4 [2, 6]
00000000: 51af 093e 8637 31be 9435 8d3d dc3e cc3e
00000010: bc91 ef3e 439b d83d 0000 0000 0000 0000
00000020: 0000 0000 0000 0000 0000 0000 0000 0000
0.13445784 -0.17306337 0.06894985 0.39891708 0.46790874 0.10576489 0.0 0.0
0.0 0.0 0.0 0.0

naim.embeddings.13.embeddings.weight f4 [2, 6]
00000000: 65e1 75be 6903 cfbd d4a1 86be ce62 1e3f
00000010: 6aac 31be 8d91 a13e 0000 0000 0000 0000
00000020: 0000 0000 0000 0000 0000 0000 0000 0000
-0.24011762 -0.10108072 -0.2629534 0.61869514 -0.17350927 0.3155636 0.0 0.0
0.0 0.0 0.0 0.0

naim.embeddings.14.embeddings.weight f4 [2, 6]
00000000: e62c 253e c4e5 1c3f 8988 14be dcde 9b3d
00000010: 091b 133f 1030 b13c 0000 0000 0000 0000
00000020: 0000 0000 0000 0000 0000 0000 0000 0000
0.16130409 0.61288095 -0.14505209 0.076108664 0.5746313 0.021629363 0.0 0.0
0.0 0.0 0.0 0.0

naim.embeddings.15.embeddings.weight f4 [2, 6]
00000000: b111 0cbf 9054 923e 0179 ab3d c99f 93be
00000010: 27f2 28be 4536 f43e 0000 0000 0000 0000
00000020: 0000 0000 0000 0000 0000 0000 0000 0000
-0.54714495 0.2858014 0.08372689 -0.28832844 -0.16498624 0.47697654 0.0 0.0
0.0 0.0 0.0 0.0

naim.embeddings.16.embeddings.weight f4 [2, 6]
00000000: ac88 dc3e bdcb a53d a8d1 933d 5651 9dbe
00000010: 36ce f93d 8857 b83e 0000 0000 0000 0000
00000020: 0000 0000 0000 0000 0000 0000 0000 0000
0.43073022 0.080955006 0.07217723 -0.30726117 0.12197535 0.3600428 0.0 0.0
0.0 0.0 0.0 0.0

naim.embeddings.17.embeddings.weight f4 [2, 6]
00000000: b7c2 e93d fe78 223e fa5a e13d 471e e3be
00000010: e110 803e 9c96 7abe 0000 0000 0000 0000
00000020: 0000 0000 0000 0000 0000 0000 0000 0000
0.11414092 0.15866467 0.110036805 -0.44359037 0.25012878 -0.24471515 0.0 0.0
0.0 0.0 0.0 0.0

naim.embeddings.18.embeddings.weight f4 [2, 6]
00000000: ba22 fbbe 4917 e1be cd51 95be 5a4c f43e
00000010: 891c e9bc abec f9bb 0000 0000 0000 0000
00000020: 0000 0000 0000 0000 0000 0000 0000 0000
-0.49049932 -0.43963078 -0.29163972 0.47714502 -0.02845599 -0.00762709 0.0 0.0
0.0 0.0 0.0 0.0

naim.embeddings.19.embeddings.weight f4 [2, 6]
00000000: 5e8c f13e 6877 71be a3e6 853e 4d79 59be
00000010: a17d babd 2f3b a03d 0000 0000 0000 0000
00000020: 0000 0000 0000 0000 0000 0000 0000 0000
0.47177404 -0.23580706 0.26152524 -0.21237679 -0.09105993 0.078237884 0.0 0.0
0.0 0.0 0.0 0.0

naim.embeddings.20.embeddings.weight f4 [2, 6]
00000000: 7eee 863e 5255 0b3e 6a2f 94be 0aa0 dcbe
00000010: 5880 e9bd 1a9f 683e 0000 0000 0000 0000
00000020: 0000 0000 0000 0000 0000 0000 0000 0000
0.2635383 0.13606766 -0.28942424 -0.4309085 -0.11401433 0.22716942 0.0 0.0
0.0 0.0 0.0 0.0

naim.embeddings.21.embeddings.weight f4 [2, 6]
00000000: 1d5c 3c3d 9b90 0d3c d572 fc3d 0da4 5bbd
00000010: f8b6 013d d018 f9bd 0000 0000 0000 0000
00000020: 0000 0000 0000 0000 0000 0000 0000 0000
0.045986284 0.008640434 0.1232659 -0.053623248 0.031668633 -0.12162936 0.0 0.0
0.0 0.0 0.0 0.0

naim.embeddings.22.embeddings.weight f4 [2, 6]
00000000: 00a1 993e bea1 66be 0342 d5bc 1a01 f83e
00000010: 2fb4 bd3e b68e 39be 0000 0000 0000 0000
00000020: 0000 0000 0000 0000 0000 0000 0000 0000
0.30005646 -0.22522637 -0.026032453 0.4843834 0.37051532 -0.18120846 0.0 0.0
0.0 0.0 0.0 0.0

naim.embeddings.23.embeddings.weight f4 [2, 6]
00000000: 2822 463e 9a9c 5abb 5195 a8be ba35 3a3f
00000010: 9b25 1abd 6048 82be 0000 0000 0000 0000
00000020: 0000 0000 0000 0000 0000 0000 0000 0000
0.19348967 -0.0033357502 -0.3292642 0.7273823 -0.03763352 -0.25445843 0.0 0.0
0.0 0.0 0.0 0.0

naim.embeddings.24.embeddings.weight f4 [2, 6]
00000000: ce9b eb3b bfc7 223e eec4 27be daa4 c83e
00000010: 1b6f 48bf 94d7 5a3d 0000 0000 0000 0000
00000020: 0000 0000 0000 0000 0000 0000 0000 0000
0.007190204 0.1589651 -0.16383716 0.39188272 -0.78294533 0.053428248 0.0 0.0
0.0 0.0 0.0 0.0

naim.embeddings.25.embeddings.weight f4 [2, 6]
00000000: d6e1 9d3e a64b abbd d4e4 293f 89fd d63e
00000010: 046c b73d 1458 063d 0000 0000 0000 0000
00000020: 0000 0000 0000 0000 0000 0000 0000 0000
0.30836362 -0.08364038 0.6636479 0.41990307 0.08956149 0.03279884 0.0 0.0
0.0 0.0 0.0 0.0

naim.embeddings.26.embeddings.weight f4 [2, 6]
00000000: 1f23 003e 3342 cfbe c8c6 c4be 0076 613e
00000010: 7350 a73e f23a 6b3e 0000 0000 0000 0000
00000020: 0000 0000 0000 0000 0000 0000 0000 0000
0.12513398 -0.40480193 -0.38432908 0.2201767 0.32678565 0.22971705 0.0 0.0
0.0 0.0 0.0 0.0

naim.embeddings.27.embeddings.weight f4 [2, 6]
00000000: 876e 92bd 97bd 9e3e 2eb9 e4be c37f f3be
00000010: e4f8 10be 13ae 753d 0000 0000 0000 0000
00000020: 0000 0000 0000 0000 0000 0000 0000 0000
-0.07149988 0.3100402 -0.4467253 -0.47558412 -0.14157444 0.059980463 0.0 0.0
0.0 0.0 0.0 0.0

naim.embeddings.28.embeddings.weight f4 [2, 6]
00000000: fb8a 19be 18cc 593e 45ab 1ebe dda1 b5be
00000010: 2b6b 023e e8e0 bcbd 0000 0000 0000 0000
00000020: 0000 0000 0000 0000 0000 0000 0000 0000
-0.14994423 0.21269262 -0.15495022 -0.35475054 0.12736194 -0.09222585 0.0 0.0
0.0 0.0 0.0 0.0

naim.embeddings.29.embeddings.weight f4 [2, 6]
00000000: ac2a dfbe bddd 90bc 4386 0b3f b39c 02be
00000010: bd9e 583d 032d 81be 0000 0000 0000 0000
00000020: 0000 0000 0000 0000 0000 0000 0000 0000
-0.43587244 -0.017683858 0.5450174 -0.12755089 0.05288576 -0.25229654 0.0 0.0
0.0 0.0 0.0 0.0

naim.embeddings.30.embeddings.weight f4 [2, 6]
00000000: a9b9 00be e09a 4b3e 38e4 8d3e c2eb 65be
00000010: 1efc 64bd 4b80 aabe 0000 0000 0000 0000
00000020: 0000 0000 0000 0000 0000 0000 0000 0000
-0.12570824 0.19883299 0.2771318 -0.22453216 -0.0559045 -0.33301005 0.0 0.0
0.0 0.0 0.0 0.0

naim.embeddings.31.embeddings.weight f4 [2, 6]
00000000: fcd7 993e ce90 51be b3ab 22bd 2c0f 2bbd
00000010: a0c7 31be 702f 73be 0000 0000 0000 0000
00000020: 0000 0000 0000 0000 0000 0000 0000 0000
0.30047596 -0.20465395 -0.039714526 -0.041762516 -0.17361307 -0.23748565 0.0 0.0
0.0 0.0 0.0 0.0

naim.embeddings.32.embeddings.weight f4 [2, 6]
00000000: 2392 7a3d 3f0d 933e 1e30 9fbe 15ab 36bf
00000010: 4bf2 903e 8382 47be 0000 0000 0000 0000
00000020: 0000 0000 0000 0000 0000 0000 0000 0000
0.061174523 0.28721043 -0.31091398 -0.713548 0.28309855 -0.1948338 0.0 0.0
0.0 0.0 0.0 0.0

naim.embeddings.33.embeddings.weight f4 [2, 6]
00000000: 2fa9 93bd 4c41 b0bd 160a 97be ee15 98be
00000010: 7dec dbbe 7c7d 1b3f 0000 0000 0000 0000
00000020: 0000 0000 0000 0000 0000 0000 0000 0000
-0.072100036 -0.086062044 -0.29499882 -0.2970423 -0.42953864 0.6073835 0.0 0.0
0.0 0.0 0.0 0.0

naim.embeddings.34.embeddings.weight f4 [2, 6]
00000000: 074c e2bd bdec 633d 4735 d63e 51a5 31bd
00000010: 9425 54be 94e7 043d 0000 0000 0000 0000
00000020: 0000 0000 0000 0000 0000 0000 0000 0000
-0.11049657 0.055645693 0.41837522 -0.04337055 -0.2071746 0.032447413 0.0 0.0
0.0 0.0 0.0 0.0

naim.embeddings.35.embeddings.weight f4 [2, 6]
00000000: 7cda 0c3e dab5 e9bd e870 833e 8eac 683e
00000010: 9d78 a93e ebaf e3be 0000 0000 0000 0000
00000020: 0000 0000 0000 0000 0000 0000 0000 0000
0.1375522 -0.114116386 0.25672078 0.22722074 0.33099833 -0.44470152 0.0 0.0
0.0 0.0 0.0 0.0

naim.embeddings.36.embeddings.weight f4 [2, 6]
00000000: aeb0 12be ae6a b53e 6225 dcbe 5fa3 3bbb
00000010: 3601 333c 210d f63d 0000 0000 0000 0000
00000020: 0000 0000 0000 0000 0000 0000 0000 0000
-0.1432521 0.35432953 -0.4299727 -0.0028631312 0.010925582 0.12014223 0.0 0.0
0.0 0.0 0.0 0.0

naim.embeddings.37.embeddings.weight f4 [2, 6]
00000000: 9d4b b33c 847b 9abe b736 bcbd 518b c3bd
00000010: 6af0 473e e3cc b33d 0000 0000 0000 0000
00000020: 0000 0000 0000 0000 0000 0000 0000 0000
0.021886641 -0.3017236 -0.091901235 -0.09548057 0.19525304 0.087793134 0.0 0.0
0.0 0.0 0.0 0.0

naim.embeddings.38.embeddings.weight f4 [2, 6]
00000000: c7a4 103d c432 a1bc e511 253d be43 8a3e
00000010: dce7 5fbe 51e7 453e 0000 0000 0000 0000
00000020: 0000 0000 0000 0000 0000 0000 0000 0000
0.035313394 -0.019677527 0.04030027 0.27004808 -0.21865791 0.19326521 0.0 0.0
0.0 0.0 0.0 0.0

naim.embeddings.39.embeddings.weight f4 [2, 6]
00000000: 99a0 46bd 1990 6abe 32fb cb3e 8dcd 07bf
00000010: 0cbb 3d3e 6fbd 9d3e 0000 0000 0000 0000
00000020: 0000 0000 0000 0000 0000 0000 0000 0000
-0.048493 -0.22906531 0.39840084 -0.5304802 0.18528384 0.3080859 0.0 0.0
0.0 0.0 0.0 0.0

naim.embeddings.40.embeddings.weight f4 [2, 6]
00000000: 9279 34bd f887 353e 3200 c43d 23ee 28be
00000010: 9ce8 b2bc 2275 90be 0000 0000 0000 0000
00000020: 0000 0000 0000 0000 0000 0000 0000 0000
-0.04406125 0.17727649 0.0957035 -0.16497092 -0.021839432 -0.28214365 0.0 0.0
0.0 0.0 0.0 0.0

naim.embeddings.41.embeddings.weight f4 [2, 6]
00000000: a2bf d2bd 794a 36be 6245 953e 6767 2a3e
00000010: f5a2 ab3e dbba 033f 0000 0000 0000 0000
00000020: 0000 0000 0000 0000 0000 0000 0000 0000
-0.10290457 -0.17801847 0.29154497 0.16641007 0.33522764 0.51456994 0.0 0.0
0.0 0.0 0.0 0.0

naim.embeddings.42.embeddings.weight f4 [2, 6]
00000000: acf9 5dbe 78d5 203f 517a 213e c477 9e3e
00000010: 157b 713d 7ca2 ccbd 0000 0000 0000 0000
00000020: 0000 0000 0000 0000 0000 0000 0000 0000
-0.21677274 0.6282573 0.15769316 0.3095075 0.05895527 -0.09991929 0.0 0.0
0.0 0.0 0.0 0.0

naim.embeddings.43.embeddings.weight f4 [2, 6]
00000000: b829 1cbe 60c7 a13b 2a4f 113f 1535 c63e
00000010: 2321 8b3e e5bb 5abc 0000 0000 0000 0000
00000020: 0000 0000 0000 0000 0000 0000 0000 0000
-0.1525029 0.0049370974 0.5676142 0.38712373 0.2717372 -0.013350462 0.0 0.0
0.0 0.0 0.0 0.0

naim.embeddings.44.embeddings.weight f4 [2, 6]
00000000: 5326 c2bc 79de 7b3e 4bc0 3f3e f5e6 a8be
00000010: 9e70 103e 47ee ec3e 0000 0000 0000 0000
00000020: 0000 0000 0000 0000 0000 0000 0000 0000
-0.023699915 0.24596585 0.18725698 -0.32988706 0.1410546 0.4627554 0.0 0.0
0.0 0.0 0.0 0.0

naim.embeddings.45.embeddings.weight f4 [2, 6]
00000000: 0535 d1be fe18 f8be 8cd4 7dbe d9bb 073e
00000010: 8183 e0be e285 63be 0000 0000 0000 0000
00000020: 0000 0000 0000 0000 0000 0000 0000 0000
-0.40860763 -0.48456568 -0.24788111 0.13255252 -0.4385033 -0.22219041 0.0 0.0
0.0 0.0 0.0 0.0

naim.embeddings.46.embeddings.weight f4 [2, 6]
00000000: d3f7 61bd d200 6b3d 42b1 8c3e f449 90bd
00000010: b882 273e d744 2e3e 0000 0000 0000 0000
00000020: 0000 0000 0000 0000 0000 0000 0000 0000
-0.055167984 0.05737383 0.27478987 -0.070453554 0.16358459 0.17018448 0.0 0.0
0.0 0.0 0.0 0.0

naim.embeddings.47.embeddings.weight f4 [2, 6]
00000000: 4f60 7f3e 33a7 f0bd de88 bebe 44b1 68be
00000010: 36cf 453e ddbe 92be 0000 0000 0000 0000
00000020: 0000 0000 0000 0000 0000 0000 0000 0000
0.24939083 -0.11750641 -0.37213796 -0.22723871 0.19317326 -0.28661242 0.0 0.0
0.0 0.0 0.0 0.0

naim.embeddings.48.embeddings.weight f4 [2, 6]
00000000: 4347 7a3c 566d 743e b63e bb3d d745 933e
00000010: 1129 2f3f b738 bb3e 0000 0000 0000 0000
00000020: 0000 0000 0000 0000 0000 0000 0000 0000
0.015275779 0.23869833 0.091428205 0.2876422 0.6842204 0.36566707 0.0 0.0
0.0 0.0 0.0 0.0

naim.embeddings.49.embeddings.weight f4 [2, 6]
00000000: f91d 3cbe 9988 543e 89ab 903e e9a5 09be
00000010: ee15 90be 0f84 b63e 0000 0000 0000 0000
00000020: 0000 0000 0000 0000 0000 0000 0000 0000
-0.18370809 0.20755233 0.2825587 -0.13442196 -0.2814173 0.35647628 0.0 0.0
0.0 0.0 0.0 0.0

naim.embeddings.50.embeddings.weight f4 [2, 6]
00000000: 3fb6 eb3e d663 a83e d06f edbd 9c3e 19be
00000010: 7162 debd 9755 ffbe 0000 0000 0000 0000
00000020: 0000 0000 0000 0000 0000 0000 0000 0000
0.4603748 0.3288867 -0.11593592 -0.1496529 -0.1085862 -0.49869987 0.0 0.0
0.0 0.0 0.0 0.0

naim.embeddings.51.embeddings.weight f4 [2, 6]
00000000: b275 e43c 0db3 033e 2adc f93e bb2f 0fbf
00000010: f445 a23e c169 e7bd 0000 0000 0000 0000
00000020: 0000 0000 0000 0000 0000 0000 0000 0000
0.027888153 0.12861271 0.48800784 -0.55932206 0.31693995 -0.11299468 0.0 0.0
0.0 0.0 0.0 0.0

naim.embeddings.52.embeddings.weight f4 [2, 6]
00000000: 7b4a 5e3e 207f 3bbe 47ba 69be 9da1 2fbe
00000010: 177b b43d ff00 acbe 0000 0000 0000 0000
00000020: 0000 0000 0000 0000 0000 0000 0000 0000
0.217081 -0.18310213 -0.22824965 -0.17151494 0.0881254 -0.3359451 0.0 0.0
0.0 0.0 0.0 0.0

naim.embeddings.53.embeddings.weight f4 [2, 6]
00000000: c4f9 2bbe 8968 0ebe 4ab9 1a3e e33e 66bd
00000010: 18b7 4b3f 2de9 cebc 0000 0000 0000 0000
00000020: 0000 0000 0000 0000 0000 0000 0000 0000
-0.16794497 -0.13907064 0.15109745 -0.056212317 0.79576254 -0.025257671 0.0 0.0
0.0 0.0 0.0 0.0

naim.embeddings.54.embeddings.weight f4 [2, 6]
00000000: c872 133e ebfe e13e 5faf 9c3e 5003 1b3e
00000010: f18a 01bf a564 033e 0000 0000 0000 0000
00000020: 0000 0000 0000 0000 0000 0000 0000 0000
0.14399254 0.441398 0.30602548 0.15137982 -0.5060263 0.12831362 0.0 0.0
0.0 0.0 0.0 0.0

naim.embeddings.55.embeddings.weight f4 [2, 6]
00000000: ca5e 873e 6132 83be 2d9d f6be a23d e93e
00000010: 36fe 6fbd fae1 05be 0000 0000 0000 0000
00000020: 0000 0000 0000 0000 0000 0000 0000 0000
0.26439506 -0.25624374 -0.4816679 0.45554835 -0.058592044 -0.13074484 0.0 0.0
0.0 0.0 0.0 0.0

naim.embeddings.56.embeddings.weight f4 [2, 6]
00000000: 485a b6be f024 d2be 1dd6 353e 5393 82bd
00000010: 37d4 bcbe d3ee 5fbd 0000 0000 0000 0000
00000020: 0000 0000 0000 0000 0000 0000 0000 0000
-0.35615754 -0.41043806 0.17757459 -0.06375756 -0.36880657 -0.05467112 0.0 0.0
0.0 0.0 0.0 0.0

naim.embeddings.57.embeddings.weight f4 [2, 6]
00000000: e8f4 bd3e 5776 8ebe a60a 3dbe bdac 543e
00000010: 70e3 1a3f 768f adbc 0000 0000 0000 0000
00000020: 0000 0000 0000 0000 0000 0000 0000 0000
0.3710091 -0.2782466 -0.18461093 0.2076902 0.6050329 -0.021186572 0.0 0.0
0.0 0.0 0.0 0.0

naim.embeddings.58.embeddings.weight f4 [2, 6]
00000000: 0d54 f2bd 12cc 0b3d 6c11 3d3d 5871 3cbd
00000010: b4e6 af3d 5568 78be 0000 0000 0000 0000
00000020: 0000 0000 0000 0000 0000 0000 0000 0000
-0.11832438 0.034130163 0.046159193 -0.04600653 0.08588925 -0.2425855 0.0 0.0
0.0 0.0 0.0 0.0

naim.embeddings.59.embeddings.weight f4 [2, 6]
00000000: 0ef7 8a3e a982 13be 9d96 51be ca7d 173f
00000010: 77e3 3c3e 0fb2 c53e 0000 0000 0000 0000
00000020: 0000 0000 0000 0000 0000 0000 0000 0000
0.27141613 -0.14405312 -0.2046761 0.59176314 0.18446146 0.3861241 0.0 0.0
0.0 0.0 0.0 0.0

naim.embeddings.60.embeddings.weight f4 [2, 6]
00000000: a21e e4be e7bf 02bd 9b42 493d 5058 f03e
00000010: da96 7e3e 02d9 b03e 0000 0000 0000 0000
00000020: 0000 0000 0000 0000 0000 0000 0000 0000
-0.4455462 -0.031921294 0.049135786 0.46942377 0.24862233 0.34540564 0.0 0.0
0.0 0.0 0.0 0.0

naim.embeddings.61.embeddings.weight f4 [2, 6]
00000000: ee3c 67be 396a bb3d 71ca 0e3e 5ff4 b6bd
00000010: 36d3 1b3e 6c9e a4bd 0000 0000 0000 0000
00000020: 0000 0000 0000 0000 0000 0000 0000 0000
-0.22581837 0.0915112 0.13944413 -0.08933329 0.1521729 -0.08038029 0.0 0.0
0.0 0.0 0.0 0.0

naim.embeddings.62.embeddings.weight f4 [2, 6]
00000000: 7311 483e 7f6d 113e a30e 19bf d600 74bd
00000010: 1a01 96be a906 ccbe 0000 0000 0000 0000
00000020: 0000 0000 0000 0000 0000 0000 0000 0000
0.19537906 0.14201926 -0.5978796 -0.05957111 -0.29297715 -0.3984883 0.0 0.0
0.0 0.0 0.0 0.0

naim.embeddings.63.embeddings.weight f4 [2, 6]
00000000: a33c 303f 1835 a73e aeab 9fbe 7ddf 1b3e
00000010: 4c66 43be ff8e 17be 0000 0000 0000 0000
00000020: 0000 0000 0000 0000 0000 0000 0000 0000
0.68842524 0.32657695 -0.3118567 0.15221973 -0.19081992 -0.14800642 0.0 0.0
0.0 0.0 0.0 0.0

naim.encoder.0.layer_norm_1.weight f4 [6]
00000000: 5d50 623f eba9 5d3f 2443 643f adec 733f
00000010: ef54 613f 3072 623f
0.88403875 0.865874 0.8916495 0.95283014 0.88020223 0.88455486

naim.encoder.0.layer_norm_1.bias f4 [6]
00000000: 57dc 433c f600 61bc 2fed a53c ef89 aebc
00000010: bd1b 7e3c 0392 44bc
0.011954389 -0.013733139 0.0202547 -0.021306006 0.015509543 -0.0119977025

naim.encoder.0.attn.linear_q.weight f4 [6, 6]
00000000: 1ea1 bfbc 36c0 943a 6149 f1bc ca3b 88be
00000010: c08b 3ebc 7a0c bb3d eca7 9fbc f6d1 b8bd
00000020: a6b2 153c c8ad 323d d3db 25bd 9319 5dbe
00000030: 7884 d6bd 8ab9 ec3a eb92 453d 4d4f 6d3e
00000040: b381 a63b 54cf 4e3d cee3 0d3e f71a 9bbd
00000050: 1792 1bbd c40b 1a3e 84b9 323e b32a a73b
00000060: e8bc 47be 8d91 e53d 104b 53be 5b1c c13d
00000070: b089 b93b 13af 273d 4dd9 88be 6c25 11bd
00000080: 3435 7f3d d0e4 3c3e b121 81bc e5e5 6f3e
-0.023392256 0.0011348787 -0.029453935 -0.26608115 -0.011629999 0.09133239 -0.019489251 -0.09024422
0.009136831 0.043622762 -0.040492844 -0.21591787 -0.10474485 0.0018060666 0.048235815 0.23174782
0.0050813793 0.050490692 0.13856432 -0.075735025 -0.03798112 0.1504355 0.17453581 0.0051015257
-0.19505656 0.11209402 -0.20634103 0.094292365 0.0056621656 0.04093845 -0.26728287 -0.03543608
0.062306598 0.1844666 -0.015763136 0.23427542

naim.encoder.0.attn.linear_k.weight f4 [6, 6]
00000000: cf8a 1dbc 5088 f6bd 460b 87bd 58e1 d8ba
00000010: 5d92 86bb e386 aa3d 31f6 d2bd 55d9 d6bc
00000020: e232 8cbe 6767 5b3e f088 48bc a08e 48be
00000030: ab8a 28bc ced9 1c3b 1c80 f73c 8a50 91bb
00000040: 3d1e 073e a7e4 3abd c40c acbc e714 14bc
00000050: f401 803b 85d5 533e cd90 ca3b bfb8 3e3e
00000060: d948 453e bae6 b7bd 5453 573b dff4 c0bd
00000070: b57d 7b3d 91c6 0fbd 85a1 343d 96ba b8bb
00000080: fbd0 0dbe cb9c 33be 52b1 86be c84c dcbd
-0.009615614 -0.12037718 -0.06593947 -0.001654665 -0.0041068033 0.08326509 -0.103008635 -0.026226679
-0.2738257 0.21426164 -0.01223968 -0.19585657 -0.010286967 0.0023933533 0.030212454 -0.00443465
0.13195129 -0.045628216 -0.02100218 -0.009038187 0.003906483 0.2068692 0.0061818124 0.18625163
0.1926607 -0.089795545 0.0032856064 -0.094217055 0.06139918 -0.035101477 0.04409935 -0.005637477
-0.13849251 -0.1754028 -0.2630716 -0.10756832

naim.encoder.0.attn.linear_v.weight f4 [6, 6]
00000000: 5257 fb3d 5a1d 123d a56d 993e 8cac b8be
00000010: 673a 16bd bb4f a2be 1d41 91b9 9800 dd3d
00000020: ea3b a8be 6e47 a83e a132 88bd 73ca 993e
00000030: a2d9 51bd 1c6c 253e bd11 b23e 096c 14be
00000040: d99f a9bd 8115 4f3e 1e8c a2be 3f72 1c3e
00000050: 4e5b 67be 6b8c ba3e 177d 78be a1af 13be
00000060: e0e1 843e 3512 16be b0bd 5f3e 7867 493e
00000070: 2650 9d3e 203a adbe 20c9 a83c a97b cfbd
00000080: dec1 d23d 9adb a1be 0707 283e d260 7e3b
0.122725144 0.035672523 0.29966465 -0.36069143 -0.03667679 -0.31701455 -0.00027705068 0.10791129
-0.3285821 0.32866997 -0.06650282 0.3003727 -0.05123294 0.16154522 0.34779158 -0.14494337
-0.08282442 0.20223047 -0.31747526 0.15277956 -0.22593424 0.36435255 -0.24266468 -0.14422466
0.2595358 -0.14655383 0.21849704 0.19668376 0.3072521 -0.33833408 0.020603716 -0.10131008
0.102908835 -0.31612855 0.1640893 0.0038815034

naim.encoder.0.attn.linear_o.weight f4 [6, 6]
00000000: 2948 95bd ccdd 70be 051a bf3d 2b8a 16bd
00000010: 9d68 323e 79cf af3a e30d e63c 7eb2 cbbb
00000020: 1721 debb 1ec1 1ebd 883e 66be 076f 073e
00000030: c779 8cbe 9261 513e 6442 23be d598 5c3e
00000040: 39d0 9f3e 38c7 86be 4f5c ab3e 1aff 8e3c
00000050: fd32 95be 4d1f 303e cc55 6a3e 052e b63e
00000060: 21a5 c0be bdb0 b83e f7f0 993e 95d3 c83e
00000070: 47d6 5b3e 0e3c 3ebe 0159 a03e 54e4 be3e
00000080: 8a8a 0ebe 1896 5dbd 5eb1 a63e c920 a63e
-0.07289154 -0.23522109 0.09331135 -0.03675286 0.1742272 0.0013413272 0.028082794 -0.0062163463
-0.006778847 -0.03875839 -0.22484791 0.13225947 -0.2743666 0.20447376 -0.15943295 0.21542676
0.3121355 -0.26323867 0.33468863 0.017455626 -0.29140463 0.1719944 0.22884291 0.35581985
-0.37625983 0.3607234 0.30066654 0.39223924 0.21468459 -0.18577597 0.31317905 0.37283576
-0.13920036 -0.05409822 0.32557195 0.32446888

naim.encoder.0.layer_norm_2.weight f4 [6]
00000000: 9260 6e3f e6c1 703f e79b 713f aed6 6e3f
00000010: 9ffb 723f a9d7 773f
0.93116105 0.94045866 0.94378513 0.93296325 0.94915193 0.96813446

naim.encoder.0.layer_norm_2.bias f4 [6]
00000000: e176 9eba 68ac f0bb e5d7 073a ac96 1f3c
00000010: 67e4 333b 39dd b2bb
-0.0012089872 -0.007344771 0.0005182012 0.009740513 0.002744937 -0.0054585007

naim.encoder.0.ff.0.weight f4 [1000, 6]
00000000: 445b 173e bc30 3d3e 6230 d8bd 17f3 fcbc
00000010: 7ba7 7ebd e5fa ea3d bb71 4f3d 30ed 44be
00000020: ba7e a1bc 7698 52be 501f 82be d400 803e
00000030: be43 b8bd 40e6 943d a404 cbbb d115 23bd
00000040: f0d8 cb3b 757e 4b3e c25a 0abc a1ce 533e
00000050: eae7 ed3d f9e6 223e 6b94 76be 9fd6 95bd
00000060: 1d8b 53be bb06 58bc 6040 f7bb bd31 c13b
00000070: 3768 743e 7e25 ab3d b9c7 23be 572b 0abe
00000080: c5ca 393e 0d11 443b d2e2 bb3c b6fd d2bd
00000090: 2c60 5ebc b8df 1b3d feb1 18be afad 173e
000000a0: 35ae ca3d 4772 07be ac2b 62bd a43b 87bc
000000b0: ce15 413c 3504 4abd ee8f 843e 5339 86be
000000c0: 6842 e3bd 4184 04be 09a4 863c 3d4c 3e3c
000000d0: e3fb ddbc 46c3 623e ed34 63be 0ee1 2e3d
000000e0: b28f dcbd 63f6 96bc c781 86be d40c 39be
000000f0: e2a0 62be 60b9 8e3d d1e8 4ebd 4bb6 c63d
00000100: ae4f d4bd f9fb fbbc 5554 f83b 0fc5 5c3e
00000110: 74b1 c0bc 5332 fc3d d2be d43c aaa8 113e
00000120: 5bba 143e bd08 a53d 1395 3fbd dfe3 31bd
00000130: 565f 9c3d 945f f53d c5a5 9a3b fd92 b63d
00000140: 44ea 02be e4e2 e13d 4a76 dcbb f3ba 1abe
00000150: 75cf a9bd f123 3dbe 2e4b f63b 9f97 f5bd
00000160: bbf1 d0bc 537d 99bb 85cf 07be 0b65 a03a
00000170: cb0f 14bc ce28 f13c bed7 2d3e 2916 0cbe
00000180: 3ce5 cb3d 01eb 0bbb ea8a edbd d61a acbd
00000190: 6722 ac3c 66c8 223c d187 dfbb baa4 b2bd
000001a0: 3086 bb3d a18c a83c 8052 87be 5fee beba
000001b0: c594 aebc 9e6c 61bd 5cc9 d9bd dc3b 52be
000001c0: 4467 893e 02b1 76be eb6a 853e 5e87 58be
000001d0: ba0b fabc e6dd 97bd 5651 d4bd 74f3 9d3d
000001e0: 8402 003e 4726 1abe 84f5 b0bd e612 cb3d
000001f0: 7c9e 8dbc ca6e 0e3d cbb7 c13d 13f2 49bd
00000200: ebdf dabd 1ee9 553d 6446 36bd 7778 14be
00000210: 3194 c6bd a52a a9bd fc92 8f3e 945e 1d3c
00000220: 7b7c 863d 752c a33c 9935 18be 3584 2d3e
00000230: 8098 3fbb 729e 83bc f113 503e 9532 adbd
00000240: 7794 103c b963 67be 2d24 d23d f06e 643d
00000250: 6513 57be c839 e53d 60b3 e33c 1480 00be
00000260: 0f96 663e 8634 c63d 5f46 943d 7d62 bebd
00000270: 26dc d7bd 80cd d4bd 50ed 4e3d 777e 133d
00000280: 338c 03be 9333 783e e913 ed3d ea32 72bd
00000290: 3c5e cd3d 3315 8fbd 47b0 073d 03e1 593e
000002a0: 3368 73be 30f8 bbbd 6f22 1a3b 735f 873c
000002b0: a778 58be 255e 22be 8a47 48bc 9fae 96bc
000002c0: ab56 c73b 9278 b13c 6d06 f13c f05d 923c
000002d0: 3ef0 6f3b e29a 213c 4ade 5f3d 2f3f 233e
000002e0: 587d b2bd e231 cebd 8f13 8d3d 0173 30be
000002f0: ca54 133e 55b1 b23d 8a0c 803c 6640 95bd
00000300: a66d 843b 8eca 4ebe 341b 74be 381e 833e
00000310: 8292 74be 36c6 5cbe 277a 64bd 968e b63b
00000320: 980d 863c c53c a7bd 33d0 1e3b d6c1 e5bc
00000330: 336b 5b3e dead 643e a695 863d 8c2e c63a
00000340: 2f4f 3b3e 94f0 4dbe e113 6b3d 2cee e8bd
00000350: 4075 413e 7d28 6cbe 6643 283d 1d2f 52be
00000360: f343 033e fe08 fd3c d4c6 623e f970 4dbe
00000370: 254b 153e adf2 1bbe 3041 d6bd b109 403d
00000380: 6d83 56bc a564 58be ecca 5fbe db9b 00bd
00000390: 26ba c93c b2c0 6a3e 214b 2d3e 9679 873a
000003a0: ab11 03be daa2 70be e1f4 743e e024 e2bd
000003b0: be7e 22bc 6438 50be 63d3 1cbe efc2 a83b
000003c0: 90a4 9cbc 0ded 1d3a 84a3 2cb7 9f86 253a
000003d0: fa25 bcbc e990 a2b9 a422 913d 7a63 2d3e
000003e0: 6172 5c3e 6dd0 5bbe a68c 5abe 9aa1 88bc
000003f0: 392a 663b 6cee 023e 523e 833e 0f38 243d
0.14780909 0.18475622 -0.10556103 -0.030877633 -0.06217144 0.114736356 0.05064557 -0.19231105
-0.019713748 -0.20565972 -0.25414515 0.25000632 -0.08997296 0.07270479 -0.0061956216 -0.039815728
0.0062209293 0.19872458 -0.00844449 0.20684291 0.116165 0.15908422 -0.24080054 -0.07316326
-0.20658536 -0.013185198 -0.007545516 0.005895822 0.2386788 0.083567604 -0.15994157 -0.13493095
0.18143757 0.002991739 0.022935305 -0.10302298 -0.013572734 0.03805515 -0.14911649 0.14812349
0.098965086 -0.13227187 -0.05521743 -0.016507931 0.011784984 -0.04932042 0.2589106 -0.2621561
-0.1109665 -0.12941076 0.01643564 0.011614856 -0.027097648 0.22144803 -0.22188158 0.042695098
-0.10769595 -0.018428033 -0.26270887 -0.180713 -0.22131684 0.06968951 -0.050515 0.097027384
-0.1036676 -0.030759798 0.0075784125 0.21559547 -0.023522116 0.12314286 0.025969896 0.14224496
0.14524214 0.08058307 -0.046773028 -0.043430205 0.076353714 0.11981121 0.0047194683 0.089147545
-0.12784678 0.11029604 -0.0067279683 -0.15110378 -0.082915224 -0.18470742 0.0075162863 -0.1199181
-0.025505891 -0.0046841293 -0.13262756 0.0012237144 -0.009036968 0.029438403 0.1697683 -0.13680328
0.09955832 -0.002134979 -0.115987614 -0.08403556 0.021012498 0.009935474 -0.0068216105 -0.08722825
0.091564536 0.02057487 -0.2643013 -0.001456689 -0.021311173 -0.055035226 -0.106341094 -0.20530647
0.26836598 -0.2409096 0.26058134 -0.21145388 -0.03052317 -0.07415371 -0.10367076 0.077124506
0.1250096 -0.15053664 -0.086405784 0.09915714 -0.017287485 0.034773625 0.09458884 -0.049303126
-0.1068724 0.05222427 -0.044500723 -0.14499079 -0.09696234 -0.08260087 0.28041828 0.009605069
0.065667115 0.01991866 -0.14864196 0.16944964 -0.0029235184 -0.016066764 0.20320107 -0.084569134
0.008824459 -0.22596635 0.10260806 0.05576986 -0.21003492 0.111926615 0.027795494 -0.12548858
0.2251818 0.09677987 0.07239985 -0.09296129 -0.10540037 -0.103907585 0.050519288 0.03600928
-0.1284645 0.24238424 0.11576063 -0.059130587 0.100277394 -0.06986465 0.033127096 0.21277241
-0.23770218 -0.091781974 0.002351906 0.016525006 -0.21139775 -0.15856226 -0.0122240875 -0.018393813
0.0060833297 0.021663938 0.02942201 0.017867059 0.0036611701 0.009863587 0.05465535 0.15942071
-0.08715314 -0.10068108 0.06888496 -0.1723137 0.14387813 0.0872523 0.01563098 -0.07287674
0.0040413914 -0.20194456 -0.23838502 0.25608993 -0.23884013 -0.21559986 -0.055780556 0.005571197
0.016363904 -0.08165888 0.0024232983 -0.02804653 0.21427612 0.2233195 0.06571512 0.0015120073
0.18291925 -0.20111305 0.057392005 -0.11373553 0.18892384 -0.2306232 0.0410799 -0.20525785
0.1281889 0.030888077 0.2214616 -0.20062627 0.14579447 -0.15229292 -0.10461652 0.046884242
-0.013092858 -0.21132143 -0.21854752 -0.031398635 0.024624895 0.2292507 0.1692319 0.0010335918
-0.12799709 -0.23499623 0.23921539 -0.110421896 -0.009917913 -0.20334011 -0.15315013 0.005150191
-0.019121438 0.0006024398 -1.029007e-05 0.00063143106 -0.022967327 -0.00031007014 0.07086685 0.16932479
0.21528007 -0.21466227 -0.21342716 -0.01667862 0.0035120382 0.12786263 0.25633484 0.040092524

naim.encoder.0.ff.0.bias f4 [1000]
00000000: bb3c 183e 6c37 d2bd d4da 58bc 780d 87ba
00000010: a302 343e 66d0 c33d 7e5e 8c3e 5d12 ccbd
00000020: 591b 04bc 3afe 84bb 3710 593e e4c8 853e
00000030: a9fe 693d 5b5c 52be 4955 2fbe cff5 c33c
00000040: 667a 6dbe d19b 17bd 83c3 38be 2395 fd3d
00000050: 6006 1fbc 3481 40be cff9 123e d4d1 6cbe
00000060: 52e5 1cbc 1089 903e 1929 f93d e8f0 66be
00000070: 343a c13b 8baa b4bb 649f af3d 85f6 873e
00000080: 7cb7 633e 6efe 85bb 3ae1 a73d 6cb2 89be
00000090: 7f47 4f3e ae1b d63d b5b9 21be 4a3f eebc
000000a0: 2b96 72bd 0446 06be 8bed 923d 3c43 e7bc
000000b0: 3210 7b3d 29d6 f0bc 489a 483e 8f4f 77bd
000000c0: dbe1 62bc 5de6 f8bc ffe9 cb3a 5706 4fbd
000000d0: 53b0 26be a223 82be 244e 043e 0bf0 043d
000000e0: 50b2 16be 617c 023e fe06 223c 59fb 3dbd
000000f0: b4aa 01bc 2e88 c13b e0ab 2d3e f16c 7abe
00000100: 8cf2 3ebe 5344 50be aef3 44be b5e8 a7bb
00000110: cf2c 053e 3698 063d e366 853d 5b47 953b
00000120: f921 6fb9 b332 74be 7ae1 773e 4d3b 903e
00000130: 9d96 a0ba 0a38 0a3d 3107 c43c c0df 913e
00000140: 603b bd3c 9e08 05bb 847f dbbd dca4 3c3d
00000150: d09e aa3d 3ba2 5dbe 13d0 673d 0630 443d
00000160: 6282 c63d 01dc a23d 5e3d 81bc 3488 213c
00000170: 62f7 25be 4577 0e3e d1f1 57be 0b6e 68be
00000180: ec38 38be 938c d3bd a600 39ba 2419 1e3e
00000190: caea dabb be8e 383e c39d 46bc 938e 633e
000001a0: abf9 2a3e f9fc 1a3e c5d6 5d3d 746e 1cbe
000001b0: dbb8 923e 8933 84be cfcb 21be f95c f7bd
000001c0: 2f9d 08bd ba65 b73d ebcb 243d d53e 6cbe
000001d0: 353c 883e a5ca 843e 99e7 b43d 94d7 88be
000001e0: 2679 073e 4e63 363d 57cb 8ebb b09b 58be
000001f0: fc5f 703e 3c65 f7bc 9bee 4fbe aec2 403e
00000200: da47 8a3d 712a a83c de55 1d3e 7b56 463d
00000210: 3790 1abc 26ff d7bb cc00 5f3e 77bf 2abb
00000220: 3cc1 5ebe 4c7b 29be e8d4 38be a3c3 033c
00000230: 466a 443e 17f5 0c3e db01 3e3d 52f2 943d
00000240: 28fe c8bd 538c 8a3e 0f72 543d 5d97 05be
00000250: 7083 1ebe 78b7 6fbe e34c 8ebc 421a 3b3e
00000260: 748d 993b 358f 9dbd 6e8a 183d fe8e 22be
00000270: 6ced 1c3d c3e4 233e b9e6 e73d 5184 50bd
00000280: 9855 38bd d648 a43d 8fe1 063e e4b8 9abc
00000290: 7cfb a53b 325f b2bb d698 78ba 4c71 6dbe
000002a0: 011e 50be 3cea 643e 08ea b1bd 845d 493e
000002b0: b0d0 0b3e 51ed 1cbc c5a1 afbd 132e 92ba
000002c0: 26ea 23bc 53ef f0bd f4d3 8c3e 058f 85ba
000002d0: 83b4 c43a cb65 20be 6cc8 b53c 2ed2 da3c
000002e0: 592c 8d3e e381 9fbc 8532 eb3d 538c 993b
000002f0: ba8d ee3d 6de3 1fba dda7 29bc dde6 a83d
00000300: c574 b8bd d663 073e 4343 61be 3562 27be
00000310: a327 8f3e f801 91bd 146d 49be d9bd 30be
00000320: 850b 8b3e 90b7 5e3c e462 5dbe 0a14 d6bb
00000330: d226 a6bd 30bd 18be 6638 c8bd 6617 533e
00000340: b45a 803d d8e2 f63d f785 803c 505a 5fbd
00000350: df2c 86bd 4b2d 19be e643 2dbe 5c37 65be
00000360: 0efd ee3c d567 ee3d a472 6a3e 28b6 ff39
00000370: cc8b bbbc eef6 03ba 4c50 a43d af15 29bc
00000380: 989e 59bd 00c2 c1bc d279 87be 2566 3ebe
00000390: e854 8fbd 619e a03c 168d 08be bda7 603d
000003a0: ed53 d4bd bf2c 8f3e 445f 6bbe ea5f f03d
000003b0: a6ce dabd 3a6d 51bd f271 84be 739b 81be
000003c0: 143e 84be 951e 65ba dce4 7f3e 4b2a b73d
000003d0: 14c4 163e bf1f 3e3d c068 4dbd c0bb 5bbd
000003e0: 92ec 00bd 4ddc 80be b7fd e03d dc6e 01bd
000003f0: 73a1 f3bd 95cd ff3c 63cb 0fbb 3489 ec3d
0.14866917 -0.10264477 -0.013235766 -0.0010303697 0.17579131 0.09561233 0.27415842 -0.0996444
-0.008063161 -0.0040586265 0.21197592 0.2612983 0.05712763 -0.20543043 -0.17122377 0.023920922
-0.23191223 -0.037013832 -0.18043332 0.12381961 -0.00970611 -0.18799287 0.14353107 -0.23126918
-0.009576159 0.2822957 0.12166042 -0.22552836 0.005896831 -0.0055134944 0.08575323 0.26555267
0.22237962 -0.0040891683 0.081972554 -0.26893938 0.20242117 0.10454498 -0.15793498 -0.029082913
-0.059225243 -0.13112646 0.07174214 -0.028230302 0.061294742 -0.029398995 0.19590104 -0.060378607
-0.013847793 -0.030383283 0.0015557407 -0.050543156 -0.162782 -0.2541781 0.12920433 0.032455485
-0.14716458 0.1274276 0.009889362 -0.046382282 -0.007914234 0.0059061265 0.16960096 -0.2445562
-0.18647212 -0.20338564 -0.19233581 -0.0051241764 0.13005374 0.032860003 0.06513765 0.0045556254
-0.00022805472 -0.23847465 0.24207106 0.28170243 -0.0012251918 0.03374485 0.02392921 0.2849102
0.023099601 -0.0020299326 -0.10717681 0.04605566 0.08331072 -0.21643917 0.05659492 0.04789736
0.09692837 0.07952119 -0.015776332 0.0098591335 -0.1620765 0.13912685 -0.2108834 -0.22698228
-0.17990464 -0.10329547 -0.00070572866 0.15439278 -0.006680821 0.18023202 -0.012122574 0.22222356
0.16696803 0.15135564 0.0541599 -0.1527651 0.2865666 -0.25820568 -0.15800403 -0.1207828
-0.033353027 0.0895495 0.040233534 -0.23070844 0.26608434 0.25935856 0.08833236 -0.26726973
0.13229808 0.044528298 -0.004357736 -0.2115314 0.23474115 -0.03019964 -0.20305865 0.18824264
0.06751986 0.02052805 0.15364787 0.048422318 -0.009433798 -0.0065916954 0.21777648 -0.0026054063
-0.217534 -0.1655094 -0.18049967 0.008042249 0.19181165 0.1376537 0.04638849 0.072727814
-0.098141015 0.27060184 0.051866587 -0.13046022 -0.15479827 -0.23409832 -0.017370647 0.18271735
0.004686052 -0.0769333 0.03724139 -0.1587486 0.03831236 0.16005234 0.11323304 -0.050907437
-0.045003504 0.08021705 0.13171981 -0.01888699 0.0050653797 -0.005443477 -0.00094832235 -0.2318775
-0.20323946 0.22354978 -0.08687216 0.1966458 0.13653827 -0.009578065 -0.08575777 -0.0011152647
-0.010004556 -0.117643975 0.27505457 -0.0010189718 0.001500741 -0.15663831 0.022190295 0.02671155
0.27572897 -0.019471115 0.11484245 0.0046859174 0.11648126 -0.0006099258 -0.010354963 0.08247159
-0.09006647 0.13221678 -0.21998315 -0.16346057 0.27959928 -0.07080454 -0.19670516 -0.17259921
0.27157226 0.013593569 -0.21619755 -0.0065331506 -0.08112873 -0.1491592 -0.09776382 0.20614395
0.062673 0.12054986 0.01568888 -0.054529488 -0.06551527 -0.14958684 -0.16920432 -0.22384399
0.0291734 0.11640898 0.22895294 0.00048773107 -0.022893809 -0.0005034049 0.08023128 -0.010320111
-0.053129762 -0.023652077 -0.2646013 -0.18593653 -0.069986165 0.019606771 -0.1333507 0.054847468
-0.1036757 0.27963826 -0.2298556 0.11737044 -0.10683946 -0.051129557 -0.25868183 -0.2531391
-0.25828612 -0.0008740214 0.24989647 0.089436136 0.14723235 0.046416994 -0.050148726 -0.05364585
-0.03147561 -0.25168076 0.10985892 -0.031599864 -0.11896028 0.031225959 -0.0021941296 0.11549607

naim.encoder.0.ff.3.weight f4 [6, 1000]
00000000: 0f51 82bc 0d2b 09bb 2eed 953b 4379 66bb
00000010: 43c9 acbb c217 a83c b890 23bc a83c 88bb
00000020: e774 c83c 05cc c53b 8a85 21bb aa5d aebb
00000030: a97b abbc b0fb a7bc b249 023b 5eb4 9c3a
00000040: 51dd a13b aa34 0cbc bfa5 f3ba de01 093b
00000050: e3c7 bd3c 256f be3b 0809 84bb d801 0cbc
00000060: 8d3d 8dbb 19c4 6f3c a588 a73c 3cc6 f53a
00000070: a868 2e3b 22f2 0dbc 4728 0abc 4e45 b7bc
00000080: 5f52 b03b 9b91 b9b8 4677 5dbc 3747 0fbc
00000090: 43da 1d3d a132 f73b 528f 8f3c 187a 93bc
000000a0: 793e 5f37 7b1f 6db9 9a5d 12bc 3c7d 243c
000000b0: 8d39 c4bb c200 adbc 6ca6 b33c 427a 2db8
000000c0: e4c6 4c3c 2050 ea3c 8ebc 80bc e5f7 3bbc
000000d0: 2936 593c 9e84 93bb bf9d a53b 6e04 fdbb
000000e0: 995e b3ba 42ed f73c 2ab5 a4bb c7f9 883c
000000f0: bf74 f23c cf64 cf3b b4ec 053d 73ee 893c
00000100: 8cbb aabb 846c 30bc 1a1e acbb bdbc 03bd
00000110: 0ec3 d23c 90e9 4dbc 73f4 a5bc 3097 b0bb
00000120: b1ae 5ebc 57bd 7dbc 3a34 95bc 264d 7b3b
00000130: cd2a a8bc 906e 32bc 0efe 0cbb 5b7e 60bc
00000140: ea5e a63c c320 ee3a 45de 223c 218f bc3c
00000150: 1225 1ebc c329 aabc 05d0 fd3b 4a1f b23c
00000160: 5e84 273c abdb 81bb 9c79 9b3c d3bb 54bc
00000170: 9bbf bebc 4156 d93b 2eb7 6ebb a19b 2fbc
00000180: 9424 74bc 3805 4e3c 667f 233c a3c9 d0ba
00000190: 61c9 68bc 6f6d 25bb f64c 973b 8629 d0bc
000001a0: c573 023d a717 a83c e2e3 a9bc 2e84 6d3c
000001b0: 6539 5c39 33ed 31bc d371 df3c f706 083c
000001c0: 9d73 863c 2700 56bc 510b bcbc 498d 833c
000001d0: 5186 b83c 9d5f 933c 0117 84bc cd1a 303b
000001e0: 108f 42bc 34ad 623b 8652 b03c 4646 79bc
000001f0: 8782 eb3c 48b5 f13b 2181 ae3b bd16 223d
00000200: ed04 3e3c 0d44 1a3c 49a2 af3c f655 97bc
00000210: 9222 b6bc cb9f fa3c a933 e8bc 6dcd 8cbc
00000220: f1e6 c3ba e8ca 283b 56d9 aabc 65dd 2bbc
00000230: 245a ba3c 23c9 17ba 050d 333c 04e2 293c
00000240: bee7 243b 90a3 c0bc b130 87bb e8bf 573c
00000250: 07b2 cabb d3c9 4ebc 3eb8 dd3b 1c45 0b3d
00000260: a87d 863a 5ec1 203c 54e5 f03c e42c 4a3c
00000270: 931e a1ba 9d39 2fbb dd9f 94bc 6e36 08bb
00000280: 70c7 73bc dd56 073c 5a40 203c 0c25 b9bb
00000290: 7215 aabb 4627 17bd 1925 293c 0c6c 9b3b
000002a0: 54b8 913c 0f36 9fba 65b3 143d 473a 093c
000002b0: cd93 beba 5d4c c9bb 70ef 36bc 530f 53bc
000002c0: a197 a2bc 774f db3b 3ac4 50bc c5c5 44bc
000002d0: 8ac6 94bc 61dc b8bc 19a6 15bc d940 b7bc
000002e0: c19d f63c cd78 aa3b 0908 833b 4622 92bc
000002f0: 99d0 0eba 29a3 57bc 0a9c 48ba f96f a13c
00000300: 50c4 68bc 6f53 eb3c 94a4 85bb 1f3c db3b
00000310: 5d08 45bc f75e c73c 8c4c 17bc 106c 813c
00000320: 7ae4 af3a 17fa 6f3c 95f8 69bc e5f3 a43c
00000330: 78f6 3f3b d437 733c 4b6c 78bc 159e 55bc
00000340: 2ea7 50ba 9ec7 c9bc 536c 043c 476b f4b9
00000350: bf87 503c 2c24 78bb a394 ab3c 5e8c dabc
00000360: 05be 363c 2e87 aabc bf28 b8bc e4b9 76bb
00000370: b5fa 96bb a0d9 903c 0d9a 373d ba6a 3b3c
00000380: 5466 d93c 1d17 a3bb eef7 db3a c597 b3ba
00000390: 589b 04bd fc8e cf3b 1ba0 4f3c c01f a3bc
000003a0: f4b4 c03b 54a5 aabc 5340 263c c435 013c
000003b0: 62ec 68bc 38fb 473b d554 89bc 5813 9b3b
000003c0: 699f 163c 218e 16bb 0eea dcbc 04f5 b43c
000003d0: c265 bbbc cfab 6eb9 21a8 17ba 9306 853c
000003e0: 1504 40bb ed5e d2bc e14d c6bc 0e7a ae3c
000003f0: 6f92 9cbc c895 d73c 63a8 073c 75c2 9cbc
-0.015907792 -0.0020930201 0.004575393 -0.0035167492 -0.0052730157 0.020519141 -0.009983234 -0.0041576214
0.024469806 0.006036284 -0.0024646246 -0.005321224 -0.02093299 -0.020505756 0.0019880352 0.0011955609
0.004939713 -0.008557478 -0.0018588825 0.0020905654 0.023166602 0.0058115893 -0.004029397 -0.008545361
-0.004310316 0.014634156 0.0204509 0.0018751095 0.0026612673 -0.008663686 -0.008432454 -0.022371914
0.005380913 -8.8486086e-05 -0.013517207 -0.008745006 0.03853823 0.007543877 0.017524395 -0.018002555
1.3306381e-05 -0.00022613809 -0.008933449 0.010039624 -0.005988306 -0.021118525 0.021929942 -4.1360276e-05
0.012498591 0.02860266 -0.01571491 -0.011472677 0.013257542 -0.004501893 0.005054205 -0.0077214753
-0.0013684809 0.0302645 -0.0050264793 0.016720666 0.029596685 0.006329156 0.03269644 0.016837334
-0.0052103456 -0.01076806 -0.005252612 -0.032162417 0.025727775 -0.012567893 -0.020258164 -0.0053891167
-0.013591454 -0.015487037 -0.01821338 0.0038345545 -0.020528222 -0.010890618 -0.0021513733 -0.0137020005
0.02030893 0.0018167723 0.0099406885 0.023017468 -0.009652393 -0.020771867 0.007745745 0.021743435
0.01022443 -0.003962954 0.018978886 -0.012984234 -0.023284724 0.0066325967 -0.0036425102 -0.010718257
-0.014901299 0.012574486 0.009979105 -0.0015929233 -0.014208169 -0.002524223 0.0046173288 -0.025410425
0.031848688 0.02051909 -0.020738546 0.014496846 0.00021002216 -0.010859775 0.027275955 0.008302442
0.01641255 -0.01306156 -0.022954615 0.016058581 0.022524985 0.017989928 -0.01612425 0.0026871443
-0.011874929 0.00345881 0.021523725 -0.015214508 0.028748764 0.0073763467 0.005325452 0.039572466
0.011597854 0.009415639 0.021439688 -0.018473607 -0.022233281 0.030593773 -0.028344946 -0.017187798
-0.0014946145 0.0025755707 -0.020855587 -0.010489796 0.02274806 -0.00057901646 0.010928397 0.010368828
0.0025162543 -0.023515493 -0.0041256775 0.013168313 -0.0061857733 -0.012621361 0.006766348 0.034001455
0.0010260837 0.009811727 0.029406227 0.012339804 -0.0012292437 -0.002673722 -0.018142635 -0.0020784396
-0.014879093 0.008260456 0.009780968 -0.0056501683 -0.0051905448 -0.03690269 0.010323786 0.004743105
0.01778809 -0.0012146848 0.036303896 0.008375711 -0.0014539898 -0.0061431364 -0.011165485 -0.012882072
-0.019847693 0.0066928226 -0.012742097 -0.012010043 -0.018161077 -0.022566022 -0.009133839 -0.022369789
0.03010452 0.005202389 0.0039987606 -0.017838608 -0.00054479536 -0.013161459 -0.0007652646 0.019706713
-0.014206961 0.028726308 -0.004078457 0.0066905166 -0.01202592 0.024337275 -0.009234559 0.015798599
0.0013419532 0.014647028 -0.014280458 0.02013583 0.0029291194 0.014844853 -0.015162538 -0.013038178
-0.0007959482 -0.024631318 0.008082467 -0.00046619234 0.012727677 -0.0037863357 0.020944899 -0.02667826
0.011153703 -0.020816412 -0.022480367 -0.003764742 -0.0046075233 0.017681897 0.04482465 0.01143902
0.026538052 -0.0049771206 0.0016782263 -0.0013701847 -0.03237471 0.0063341837 0.012672449 -0.0199126
0.0058809463 -0.020830788 0.010147172 0.007886354 -0.014216514 0.0030514728 -0.016764084 0.0047325306
0.00919328 -0.00229729 -0.026967075 0.022089489 -0.02287567 -0.00022761452 -0.0005785246 0.016238486
-0.0029299308 -0.02568003 -0.024207057 0.021298435 -0.019112794 0.026316538 0.008279893 -0.019135693

naim.encoder.0.ff.3.bias f4 [6]
00000000: 7f5d b3bc 154b 84bc 59e4 78bc 1635 363b
00000010: 757a a33c 4cc4 debc
-0.021895168 -0.016149083 -0.015191161 0.0027802638 0.019955853 -0.027193211

naim.encoder.1.layer_norm_1.weight f4 [6]
00000000: d637 5c3f b0c2 5f3f dfee 5c3f 1a8e 5e3f
00000010: 3263 5c3f e4dc 5e3f
0.860227 0.87406445 0.8630199 0.8693558 0.8608886 0.870558

naim.encoder.1.layer_norm_1.bias f4 [6]
00000000: 9dd7 db38 a3f3 b2bb bf6d 63bb 67ec fa3b
00000010: d359 7dba b74b 093c
0.00010482895 -0.0054611727 -0.0034702865 0.007657576 -0.0009664569 0.008379868

naim.encoder.1.attn.linear_q.weight f4 [6, 6]
00000000: 1d4e 2dbe f002 ddbc ef17 85bd 155b 1d3c
00000010: c1e2 0b3e b14b baba e8f9 d239 c96f 9e3d
00000020: 64a4 f23d 026a 74b7 32b3 18be 2743 64be
00000030: 904a 8d3e d958 e23c 5463 793e 7b4a 53bd
00000040: 382e a43c b916 c0bd 6175 c2bd 7ea8 93bd
00000050: fa3e 8d3e e601 2f3e aa5f 02be 1d2d 23be
00000060: 759d e43c 22b4 f9bb d1b4 f938 2ac2 b03a
00000070: 8c93 67be da66 a43b a9fe 36b8 98ce 21be
00000080: d9bc 8abe 56f4 b23d 98d9 77be 5507 86bd
-0.16924329 -0.02697894 -0.064987056 0.009604235 0.13660719 -0.0014213232 0.00040240516 0.07736165
0.11847761 -1.4568215e-05 -0.14912108 -0.22291242 0.2759595 0.027630256 0.24354297 -0.051584702
0.02004157 -0.09379334 -0.094950445 -0.07209872 0.2758711 0.17090568 -0.12731805 -0.15935178
0.027907113 -0.0076203505 0.00011906925 0.00134856 -0.22614878 0.0050171437 -4.3629352e-05 -0.15801466
-0.27097204 0.0873801 -0.24204099 -0.06544367

naim.encoder.1.attn.linear_k.weight f4 [6, 6]
00000000: 3253 063e 2260 15be 583f 9cbd 1d6b 0abe
00000010: 5fdd ec3d 385b 103d c340 25b9 a144 0a3d
00000020: daaa a53c ab22 84bb d214 a6b9 d912 05be
00000030: 0847 9cbd a593 80bb 4093 24bb d086 863c
00000040: 9a20 983d de70 3e3e 06f3 843e 0200 f0b8
00000050: 67ff 453d 3fb7 4ebe 2045 e73d 25b4 4dbc
00000060: e465 46be ddf5 40be f727 57be 1715 90bd
00000070: e523 8b3d 935b 50be 3906 85ba 130a a6b9
00000080: 334e 1f3d 4fca 53bd 3b95 ae3d af02 02be
0.13117674 -0.14587453 -0.07629269 -0.13517423 0.11565661 0.035243243 -0.00015759752 0.033756856
0.02022307 -0.004032453 -0.000316775 -0.12995471 -0.07630736 -0.0039238506 -0.0025112182 0.016421705
0.07428093 0.18597743 0.25966662 -0.00011444093 0.048339274 -0.2018709 0.112924814 -0.012555157
-0.19374806 -0.1884379 -0.21011339 -0.070352726 0.06793956 -0.20347433 -0.0010148949 -0.00031669493
0.038892936 -0.05170661 0.08524557 -0.12696336

naim.encoder.1.attn.linear_v.weight f4 [6, 6]
00000000: 8fed 193e 5cb3 a6be c8cc 2cbe faed c13d
00000010: 9810 c33c a608 483e c558 103e ec5e 8abe
00000020: 7add 7f3e 6be7 0cbd 8997 3cbd c890 f6bd
00000030: fd0b 77bd c318 a7be faf4 d33b 67e3 7a3e
00000040: 41cd f8bc cbb2 853e e7d9 b7bd 8fe3 a73d
00000050: 88b4 5538 6990 6ebd f72e 8d3e 1f89 f93c
00000060: ba58 023b c26d 4bbd 74b4 8bbc f946 853e
00000070: 6662 2ebc 08fc 493e a26b 4a3d 0efd 0f3e
00000080: d057 3abe 704b 6fbe 8ef1 13bd 3d41 a5bc
0.15032028 -0.32558715 -0.16874993 0.094692186 0.023811623 0.19534549 0.14096363 -0.27025545
0.2498683 -0.034400385 -0.046042953 -0.120393336 -0.060314167 -0.3263608 0.0064684125 0.2450081
-0.03037131 0.2611297 -0.089771084 0.081977 5.095129e-05 -0.05824319 0.27574894 0.030460892
0.001988931 -0.04966522 -0.01705382 0.2603071 -0.010643577 0.19725049 0.049419053 0.14061376
-0.1819756 -0.23368621 -0.036119036 -0.02017271

naim.encoder.1.attn.linear_o.weight f4 [6, 6]
00000000: 4ada a53e 65b1 aa3e 2b6d cabd e426 febd
00000010: 45e6 59bc 2e67 c43d 6251 0d3e 71ec 863d
00000020: a51e 933e 3346 fa3c 7657 933e 81fc 6b3d
00000030: e0eb 06bd a0c7 8f3e 2129 2d3c a0c0 4a3c
00000040: 2f33 89bd 5adb 2b3e 8196 e9bd 596c 763e
00000050: 0d5f 3f3e f521 2fbc fa4e 80bd cda4 c03d
00000060: c357 88be 72e9 e9bc f7cd 0fbd 8733 3437
00000070: c6e1 9bbd 221b 76bd 4abb 993d bf05 38b8
00000080: 463e 1fbe 56fc 8436 0f18 d83c d7ce 51bd
0.32393104 0.33338466 -0.098841034 -0.124097615 -0.013299529 0.095899925 0.13800576 0.06588066
0.28734317 0.030551052 0.28777665 0.057613853 -0.03293979 0.2808199 0.010568888 0.012375027
-0.066992156 0.16782895 -0.114056595 0.24064769 0.18688603 -0.010689248 -0.062650636 0.09406433
-0.26629457 -0.028553698 -0.035108533 1.0740833e-05 -0.07611422 -0.06008447 0.07506426 -4.387437e-05
-0.15551099 3.9632823e-06 0.02637866 -0.05122265

naim.encoder.1.layer_norm_2.weight f4 [6]
00000000: 0a4e 6f3f 38ff 6e3f 9a55 723f 6c93 693f
00000010: 05a4 693f ce7b 723f
0.93478453 0.9335818 0.9466187 0.9124057 0.912659 0.9472016

naim.encoder.1.layer_norm_2.bias f4 [6]
00000000: 9014 be3b 93b8 b83b 9cf9 aa3b cf5a 82bc
00000010: 1189 ee3b 33e6 01bc
0.005800791 0.0056372373 0.005217744 -0.015912442 0.007279523 -0.007928419

naim.encoder.1.ff.0.weight f4 [1000, 6]
00000000: 225b 643e de54 2abe 5ed6 6c3e f063 8b3d
00000010: cb16 e2bd 5eda 84be afe0 8f3d 4dba cfbb
00000020: 0aa2 423d abf3 7e3d bf67 1dbe f0c2 9a3c
00000030: e59b dabc bbf3 7cbe 2396 9c3c fb50 193d
00000040: cefb 39be a234 833e beb3 b73d 076a fa3d
00000050: b505 68be 03d8 6cbe eac1 803d 6c97 f93d
00000060: 536f 60be b60b 853e 8ffd 9fbc a966 4fbe
00000070: b98b 2fbe 33f0 89bc 2b50 dd3d db2d 22be
00000080: 456b 353e 30bd 8e3e 2c9c 823e 6ac6 ab3d
00000090: 778a 8fbd c644 5cbd 6a8d 283e 1e2f d4bc
000000a0: ef6f 333a 3247 923e 54b6 8ebe 60df 2dbd
000000b0: 123c 63bd 86ce 8fbc 3757 833a 19ff 9cbc
000000c0: 7b8f 873e ef1e 9a3d df1f 0dbe 6519 893e
000000d0: 912a c4bc f4ba 143c 4ea6 533c a797 2ebe
000000e0: 7462 be3d 25b7 08be eb39 71be a8f8 663e
000000f0: 0841 fd3d 98b7 81bd 7044 2abe 61d7 773e
00000100: 39bf 183d 0408 16be 8ce8 60be 0fd6 6fbd
00000110: 7685 debd 3576 cbbb 3242 833c 9cd8 8ebe
00000120: 6f5c ac3d 842d ba3d 07d7 73be 7d5d 4d3e
00000130: d20b 4cbd 43c7 c23d 2740 883e 5e64 f83d
00000140: 3928 1e3e 5214 6dbc 4a8c 0a3c 99cc 5ebe
00000150: 98f3 2abe 452c 4d3e 63aa 78be b843 873d
00000160: 1c41 edbd 7e1b 673e bc3e 323e a217 6fbc
00000170: 5196 80bb 82b0 26be 3540 7f3e fa49 f8bd
00000180: 07f2 1c3d d26e 283e 9443 87be 0df3 8bbe
00000190: 8460 22be 28fa 08ba 5f38 073e cf0b 17bd
000001a0: 6073 70bd 2706 1c3e a510 4c3e 07e3 c53d
000001b0: e711 653e f478 73be c341 70be 1ced 8ebb
000001c0: 0a7e 5cbe 8a11 0abd 5724 f93d 37f3 893e
000001d0: 0a89 0fbc e975 76be 2edd b3bd cb43 8a3e
000001e0: a1b6 ffba d3a1 81be c6a8 c0bd 68cf 07be
000001f0: 59e7 33bc 90a5 2cbe 5aa3 f9bc a957 783e
00000200: ff8b a2bd 1326 e6bb c91d de3d be44 80be
00000210: 06dd e1bd 6b0b 15bc 073e 4a3e 6631 2f3c
00000220: 44eb 38bc 01f7 8bbd c0ba a13d fff4 8cbd
00000230: 30eb 42bc c4d3 9abd b12b 6e3d e6f7 8e3e
00000240: 255c 42be a9ac e6bb d4f3 cfbb 5057 e7bd
00000250: 8343 28be 91cc a4bd 644b 58be ecde 4b3e
00000260: c8c7 34be a667 073e f473 593e 67a7 11bd
00000270: 4a9f 803e 215e 2d3e 650a 22be ff98 f33d
00000280: 9862 bc3c 3e55 4c3e 6d89 3abe d6b7 433e
00000290: 8068 613c 8f1d d43d 2a8f d9bd 180c 1c3e
000002a0: 9755 b3bb a24e 523e 3403 f5b9 573a 0a3e
000002b0: 3337 0abe 6df4 6cbe 8198 343d 4c4c da3d
000002c0: 36e9 123d 139f 1f3d 2833 123e 5258 bfbd
000002d0: 7219 cb3d f6eb bb3d 33b2 82bd 6d9c 0ebe
000002e0: 53e2 8cbe f700 393e bade 103b 2c65 733c
000002f0: 320e 25be f02d 39be c524 553e 38b9 253e
00000300: 9edf e33d 7370 563e 08a3 583e bb20 0f3e
00000310: c76d 3c3e deb4 84bc 4346 9f3c bfb2 65be
00000320: 88d4 2cbd c322 a33b f7a6 5c3c 4ddf 893e
00000330: dcd6 523e 3860 103d c415 813e 0f93 c8bd
00000340: 09de f03b 4154 49be 608f 5ebe a345 c93d
00000350: d849 ed3c 3718 b6bb 0a89 0ebe b95e 2c3e
00000360: c1ee d2bb 9e03 1b3e ba14 27be 0a70 463e
00000370: 0d4a 17bb 8a51 5cbd e0af 413b b58d 42be
00000380: aab8 65bc eaa8 d23b 476a 31be 360e e73d
00000390: 775e 803e 90e2 bb3d 7304 b5bd 83ab 08be
000003a0: 6495 47be 8698 ffbd da4d 033e f91a 9e3d
000003b0: f20d 40bd e98e 2ebc 4472 42bc 3485 a33b
000003c0: 92b1 8dbe 266a 623e d35f 4ebd bef7 66be
000003d0: f0e9 2939 f9c1 033d 0a61 8d3d 7dce d5bd
000003e0: 9009 703b 9c5a 43be 5950 3cbe 11a1 13be
000003f0: 70d7 10be c656 083e a580 77be f162 b4bc
0.2230039 -0.16633937 0.2312865 0.06806171 -0.11039504 -0.2594785 0.07025277 -0.0063393475
0.047517814 0.0622441 -0.15371607 0.018891782 -0.026685664 -0.24702351 0.01911456 0.037430745
-0.18162462 0.25626093 0.0896983 0.12227254 -0.22658427 -0.23129277 0.06286986 0.121870846
-0.21917467 0.25985497 -0.019530086 -0.20254005 -0.17143144 -0.016838169 0.108063065 -0.15837805
0.17716701 0.27878714 0.25509775 0.08387454 -0.07008832 -0.053776525 0.16460195 -0.025901373
0.00068449875 0.28569943 -0.2787348 -0.042449355 -0.05547721 -0.017554533 0.0010020499 -0.019164609
0.26476654 0.07525431 -0.13781689 0.26777187 -0.023946078 0.009077776 0.012918068 -0.17050038
0.09296122 -0.13351114 -0.2355725 0.22555792 0.12365919 -0.06333846 -0.1662767 0.24203254
0.03729174 -0.14651495 -0.2196371 -0.05855375 -0.108652994 -0.0062091597 0.016022775 -0.27899635
0.08416068 0.09090713 -0.23812495 0.20055194 -0.04981596 0.095106624 0.26611444 0.121285185
0.15445031 -0.014470177 0.008456299 -0.21757735 -0.16694486 0.20036419 -0.24283747 0.06604713
-0.11584684 0.22569081 0.17406744 -0.014593037 -0.003924169 -0.1627827 0.24926837 -0.12123485
0.038316753 0.16448525 -0.26418746 -0.2733387 -0.1585713 -0.00052252645 0.13205098 -0.036876496
-0.05870378 0.15236722 0.19928224 0.09662443 0.2237011 -0.23776609 -0.23462586 -0.0043617617
-0.21532455 -0.033708133 0.121651344 0.2694337 -0.0087607 -0.24068417 -0.08782421 0.27004847
-0.0019509384 -0.25318775 -0.09407191 -0.13262713 -0.010980451 -0.16860032 -0.0304734 0.2425219
-0.079368584 -0.007023582 0.10845525 -0.25052446 -0.11028485 -0.009096961 0.19750224 0.01069293
-0.01128656 -0.06834222 0.07896948 -0.06882667 -0.011896893 -0.07559922 0.058147136 0.27923506
-0.18980463 -0.0070396257 -0.0063462052 -0.112959504 -0.16432004 -0.080468304 -0.21122509 0.19909257
-0.17654335 0.13223132 0.21235639 -0.035560038 0.25121528 0.16930439 -0.15824278 0.11894416
0.022996232 0.19954392 -0.18216486 0.19113097 0.013757825 0.103572 -0.106230095 0.15238988
-0.0054728496 0.20537809 -0.00046732428 0.13498817 -0.1349762 -0.23140116 0.04409075 0.10659084
0.03586694 0.038970064 0.14277327 -0.09343018 0.09916963 0.09175865 -0.06381645 -0.13926859
-0.27516422 0.18066774 0.0022105412 0.014855664 -0.16118696 -0.1808393 0.20814808 0.16183937
0.11126636 0.20941333 0.21155941 0.1397733 0.18401252 -0.016199525 0.019442683 -0.22431467
-0.042194873 0.004978509 0.013467542 0.26928177 0.20589775 0.03524801 0.25211918 -0.09793674
0.0073506874 -0.19661047 -0.2173438 0.09827735 0.028965876 -0.005557086 -0.13919464 0.16833009
-0.006437153 0.15138099 -0.163165 0.19378677 -0.002308491 -0.0537887 0.0029554293 -0.1899937
-0.014021078 0.0064288275 -0.17325698 0.112820074 0.2507207 0.09174073 -0.08838739 -0.13346677
-0.19490582 -0.124802634 0.12822667 0.077199884 -0.0468883 -0.01065419 -0.011868063 0.0049902443
-0.27674538 0.22110805 -0.050384354 -0.22555444 0.00016204244 0.03216741 0.06903274 -0.10439775
0.0036626793 -0.19077533 -0.18390025 -0.1441691 -0.14144683 0.13314351 -0.24170168 -0.022019835
