outputs/2025-03-23/17-22-43/outputs/model_epoch_0.pt (torch, 206122 bytes, 104 tensors)

naim.embeddings.0.embeddings.weight f4 [2, 6]
00000000: 1aa2 c43e 6f03 15bf 90f8 aebe d9a2 a83e
00000010: 173a e93e 5105 903e 0000 0000 0000 0000
00000020: 0000 0000 0000 0000 0000 0000 0000 0000
0.38404924 -0.58208364 -0.34174013 0.32936743 0.45552132 0.28129056 0.0 0.0
0.0 0.0 0.0 0.0

naim.embeddings.1.embeddings.weight f4 [2, 6]
00000000: ac8d 763d 6cb7 afbd 87dd 20be 1a95 ce3e
00000010: 425f 443e b558 aabd 0000 0000 0000 0000
00000020: 0000 0000 0000 0000 0000 0000 0000 0000
0.060193703 -0.08579907 -0.15709506 0.4034813 0.19176963 -0.08317701 0.0 0.0
0.0 0.0 0.0 0.0

naim.embeddings.2.embeddings.weight f4 [2, 6]
00000000: e7bc 263f cd33 363d 54c9 74bc 4b55 133f
00000010: 8db0 88be f2ca b33e 0000 0000 0000 0000
00000020: 0000 0000 0000 0000 0000 0000 0000 0000
0.6513199 0.044482995 -0.0149405785 0.5755202 -0.26697198 0.35115772 0.0 0.0
0.0 0.0 0.0 0.0

naim.embeddings.3.embeddings.weight f4 [2, 6]
00000000: c5df 293f bb4c 09bf c3fe 4f3d 52b2 fe3e
00000010: d92a 113e 7c6e 203c 0000 0000 0000 0000
00000020: 0000 0000 0000 0000 0000 0000 0000 0000
0.6635707 -0.53632706 0.05078007 0.49745423 0.14176501 0.0097919665 0.0 0.0
0.0 0.0 0.0 0.0

naim.embeddings.4.embeddings.weight f4 [2, 6]
00000000: a0ed 05bf 18f8 8fbe 3001 61be 5ca0 0b3e
00000010: eb97 cf3d 6ff6 543c 0000 0000 0000 0000
00000020: 0000 0000 0000 0000 0000 0000 0000 0000
-0.5231571 -0.28118968 -0.21973109 0.13635391 0.10136398 0.0129982075 0.0 0.0
0.0 0.0 0.0 0.0

naim.embeddings.5.embeddings.weight f4 [2, 6]
00000000: 41df b2be da3a 103d 1e55 263f 82c2 b33e
00000010: cc09 12bf 1bf2 783d 0000 0000 0000 0000
00000020: 0000 0000 0000 0000 0000 0000 0000 0000
-0.34935954 0.035212375 0.6497363 0.35109335 -0.570462 0.060777765 0.0 0.0
0.0 0.0 0.0 0.0

naim.embeddings.6.embeddings.weight f4 [2, 6]
00000000: 7c2e 08bf c8bf ebbd 5dd5 01be 421b 8cbe
00000010: b40d 163e 6f59 443f 0000 0000 0000 0000
00000020: 0000 0000 0000 0000 0000 0000 0000 0000
-0.5319593 -0.11511189 -0.12679048 -0.27364546 0.14653665 0.76698965 0.0 0.0
0.0 0.0 0.0 0.0

naim.embeddings.7.embeddings.weight f4 [2, 6]
00000000: 2ce9 ccbe fed9 2bbc 5bae ce3d b28e 33bf
00000010: b6a3 55bd 4a55 133f 0000 0000 0000 0000
00000020: 0000 0000 0000 0000 0000 0000 0000 0000
-0.40021646 -0.010488985 0.100918494 -0.7013961 -0.05215808 0.57552016 0.0 0.0
0.0 0.0 0.0 0.0

naim.embeddings.8.embeddings.weight f4 [2, 6]
00000000: d0e7 253f f887 0dbe b850 883e 1d1f 20bf
00000010: c599 55be ff07 6f3e 0000 0000 0000 0000
00000020: 0000 0000 0000 0000 0000 0000 0000 0000
0.6480684 -0.13821399 0.26624084 -0.62547475 -0.2085944 0.23342894 0.0 0.0
0.0 0.0 0.0 0.0

naim.embeddings.9.embeddings.weight f4 [2, 6]
00000000: 4587 e73e 025d 8fbe a978 753d 4706 d1be
00000010: 15a3 1cbf 2903 1b3b 0000 0000 0000 0000
00000020: 0000 0000 0000 0000 0000 0000 0000 0000
0.4522039 -0.28000647 0.059929524 -0.40825102 -0.61186343 0.0023653007 0.0 0.0
0.0 0.0 0.0 0.0

naim.embeddings.10.embeddings.weight f4 [2, 6]
00000000: 6ccb c63d 1307 cb3d babf 863e f523 813e
00000010: 6a01 7b3c c716 eb3e 0000 0000 0000 0000
00000020: 0000 0000 0000 0000 0000 0000 0000 0000
0.097067684 0.09913459 0.2631815 0.25222746 0.015320161 0.45915815 0.0 0.0
0.0 0.0 0.0 0.0

naim.embeddings.11.embeddings.weight f4 [2, 6]
00000000: 774c 353e 5914 eabd 0cb5 fcbe 6ae3 03bf
00000010: a5e2 07bd b98e 90be 0000 0000 0000 0000
00000020: 0000 0000 0000 0000 0000 0000 0000 0000
0.1770495 -0.11429662 -0.49356878 -0.5151888 -0.03317513 -0.2823389 0.0 0.0
0.0 0.0 0.0 0.0

naim.embeddings.12.embeddings.weight f4 [2, 6]
00000000: b9f3 223e 6e23 71be c9b0 aa3d b050 e23e
00000010: ab1d 003f 58ba e33d 0000 0000 0000 0000
00000020: 0000 0000 0000 0000 0000 0000 0000 0000
0.15913285 -0.23548672 0.083345 0.44202185 0.5004527 0.111195266 0.0 0.0
0.0 0.0 0.0 0.0

naim.embeddings.13.embeddings.weight f4 [2, 6]
00000000: 4e52 85be 215e e3bd aad7 99be 48db 2b3f
00000010: a0c5 51be 2428 a43e 0000 0000 0000 0000
00000020: 0000 0000 0000 0000 0000 0000 0000 0000
-0.26039356 -0.11101938 -0.3004735 0.6713147 -0.20485544 0.32061875 0.0 0.0
0.0 0.0 0.0 0.0

naim.embeddings.14.embeddings.weight f4 [2, 6]
00000000: d458 3f3e 9e14 2a3f a1bc 22be f26e a93d
00000010: 69f0 1f3f f270 8a3c 0000 0000 0000 0000
00000020: 0000 0000 0000 0000 0000 0000 0000 0000
0.18686229 0.6643771 -0.15892269 0.08273114 0.6247621 0.01689956 0.0 0.0
0.0 0.0 0.0 0.0

naim.embeddings.15.embeddings.weight f4 [2, 6]
00000000: 7d0d 23bf ab36 b53e b314 b13d 38dd 9cbe
00000010: ba56 4fbe 7fe8 103f 0000 0000 0000 0000
00000020: 0000 0000 0000 0000 0000 0000 0000 0000
-0.63692456 0.3539327 0.08646526 -0.30637527 -0.20247927 0.5660476 0.0 0.0
0.0 0.0 0.0 0.0

naim.embeddings.16.embeddings.weight f4 [2, 6]
00000000: 5410 073f 2f38 ca3d 262e 983d 9612 aebe
00000010: fcc7 0d3e eea6 d13e 0000 0000 0000 0000
00000020: 0000 0000 0000 0000 0000 0000 0000 0000
0.5275929 0.098739974 0.07430677 -0.33998555 0.13845819 0.4094767 0.0 0.0
0.0 0.0 0.0 0.0

naim.embeddings.17.embeddings.weight f4 [2, 6]
00000000: 8789 003e 9d3e 3c3e 96e5 083e 22cc 03bf
00000010: e0f3 a23e 236f 98be 0000 0000 0000 0000
00000020: 0000 0000 0000 0000 0000 0000 0000 0000
0.12552463 0.1838326 0.1336883 -0.51483357 0.31826687 -0.2977229 0.0 0.0
0.0 0.0 0.0 0.0

naim.embeddings.18.embeddings.weight f4 [2, 6]
00000000: f607 12bf 41ad fcbe a32f a1be ad84 123f
00000010: fec6 0ebd e7b2 a4bc 0000 0000 0000 0000
00000020: 0000 0000 0000 0000 0000 0000 0000 0000
-0.570434 -0.49350932 -0.31481656 0.572337 -0.034857742 -0.020104839 0.0 0.0
0.0 0.0 0.0 0.0

naim.embeddings.19.embeddings.weight f4 [2, 6]
00000000: a8f3 0b3f 0bd3 90be a780 8d3e 77a8 61be
00000010: e480 e4bd 7dc3 b83d 0000 0000 0000 0000
00000020: 0000 0000 0000 0000 0000 0000 0000 0000
0.54668665 -0.28286013 0.27637216 -0.2203692 -0.111573964 0.090216614 0.0 0.0
0.0 0.0 0.0 0.0

naim.embeddings.20.embeddings.weight f4 [2, 6]
00000000: 6017 933e 4843 193e 4079 aebe 4e70 ffbe
00000010: 7015 02be 19f8 773e 0000 0000 0000 0000
00000020: 0000 0000 0000 0000 0000 0000 0000 0000
0.2872877 0.14967072 -0.3407688 -0.4989037 -0.1270349 0.24215735 0.0 0.0
0.0 0.0 0.0 0.0

naim.embeddings.21.embeddings.weight f4 [2, 6]
00000000: 6b12 8a3d 6a5a c5ba 3675 013e beeb 4bbd
00000010: 038d e23c 8e53 16be 0000 0000 0000 0000
00000020: 0000 0000 0000 0000 0000 0000 0000 0000
0.06741794 -0.0015056853 0.12642369 -0.04978537 0.02765513 -0.14680311 0.0 0.0
0.0 0.0 0.0 0.0

naim.embeddings.22.embeddings.weight f4 [2, 6]
00000000: f935 b53e e433 89be baa6 1fbd dd69 153f
00000010: 8859 e13e bc3c 5fbe 0000 0000 0000 0000
00000020: 0000 0000 0000 0000 0000 0000 0000 0000
0.3539274 -0.26797402 -0.038977362 0.5836466 0.4401362 -0.21800512 0.0 0.0
0.0 0.0 0.0 0.0

naim.embeddings.23.embeddings.weight f4 [2, 6]
00000000: 60d5 613e cd1b 683b e2c4 c0be 510c 5b3f
00000010: a2aa 64bd 5a95 89be 0000 0000 0000 0000
00000020: 0000 0000 0000 0000 0000 0000 0000 0000
0.22054052 0.0035416961 -0.3765021 0.8556567 -0.05582679 -0.2687176 0.0 0.0
0.0 0.0 0.0 0.0

naim.embeddings.24.embeddings.weight f4 [2, 6]
00000000: bb91 4d3c af57 303e 8a7d 41be 5678 d43e
00000010: bbc6 5ebf feb8 5a3d 0000 0000 0000 0000
00000020: 0000 0000 0000 0000 0000 0000 0000 0000
0.012546952 0.17220949 -0.18895546 0.4149806 -0.8702199 0.05339908 0.0 0.0
0.0 0.0 0.0 0.0

naim.embeddings.25.embeddings.weight f4 [2, 6]
00000000: cb2b c03e 9ba5 17be c6f4 443f 0501 f63e
00000010: 0875 c93d b39a 703d 0000 0000 0000 0000
00000020: 0000 0000 0000 0000 0000 0000 0000 0000
0.3753341 -0.14809267 0.76935995 0.48047653 0.09836775 0.058741283 0.0 0.0
0.0 0.0 0.0 0.0

naim.embeddings.26.embeddings.weight f4 [2, 6]
00000000: e383 2b3e 917c 02bf 77d0 04bf 18d4 a73e
00000010: 96a4 e33e f045 b33e 0000 0000 0000 0000
00000020: 0000 0000 0000 0000 0000 0000 0000 0000
0.1674953 -0.50971323 -0.5188059 0.32779002 0.44461507 0.35014296 0.0 0.0
0.0 0.0 0.0 0.0

naim.embeddings.27.embeddings.weight f4 [2, 6]
00000000: d02e b7bd 9add c73e 6eb8 0bbf 5434 0fbf
00000010: 415b 05be 1fcb 293d 0000 0000 0000 0000
00000020: 0000 0000 0000 0000 0000 0000 0000 0000
-0.08944476 0.39036256 -0.5457829 -0.5593922 -0.13023092 0.041453477 0.0 0.0
0.0 0.0 0.0 0.0

naim.embeddings.28.embeddings.weight f4 [2, 6]
00000000: c9a8 4cbe 1e57 723e bb11 5abe f5e9 b3be
00000010: 316d 063e d7ee 91bd 0000 0000 0000 0000
00000020: 0000 0000 0000 0000 0000 0000 0000 0000
-0.19986261 0.23666045 -0.21295826 -0.35139433 0.1312759 -0.07125633 0.0 0.0
0.0 0.0 0.0 0.0

naim.embeddings.29.embeddings.weight f4 [2, 6]
00000000: 6498 11bf 1825 74bc 6a2b 2e3f 2e1c 72be
00000010: c254 bd3d b08a c2be 0000 0000 0000 0000
00000020: 0000 0000 0000 0000 0000 0000 0000 0000
-0.56873155 -0.014901422 0.68034995 -0.23643562 0.09244682 -0.37996435 0.0 0.0
0.0 0.0 0.0 0.0

naim.embeddings.30.embeddings.weight f4 [2, 6]
00000000: c59a 09be 2a44 893e 0b63 ba3e 91e9 a3be
00000010: 7e27 69bd bc5d cfbe 0000 0000 0000 0000
00000020: 0000 0000 0000 0000 0000 0000 0000 0000
-0.13437946 0.26809818 0.3640369 -0.32014135 -0.05692243 -0.405012 0.0 0.0
0.0 0.0 0.0 0.0

naim.embeddings.31.embeddings.weight f4 [2, 6]
00000000: 4c08 d73e 853b 8abe cc44 39bd 290a f2bd
00000010: a2c3 91be a3ba 9bbe 0000 0000 0000 0000
00000020: 0000 0000 0000 0000 0000 0000 0000 0000
0.41998518 -0.26998535 -0.045231625 -0.11818344 -0.28469568 -0.3041583 0.0 0.0
0.0 0.0 0.0 0.0

naim.embeddings.32.embeddings.weight f4 [2, 6]
00000000: 0f54 c33d 1a92 ad3e 536c b1be ae13 4bbf
00000010: 54d9 993e 63ae 3fbe 0000 0000 0000 0000
00000020: 0000 0000 0000 0000 0000 0000 0000 0000
0.09537517 0.3390053 -0.34652957 -0.79326904 0.3004862 -0.18718867 0.0 0.0
0.0 0.0 0.0 0.0

naim.embeddings.33.embeddings.weight f4 [2, 6]
00000000: e8af 50be f2ac 40be b753 d6be 2ffd 77be
00000010: 9cf1 b2be 4144 403f 0000 0000 0000 0000
00000020: 0000 0000 0000 0000 0000 0000 0000 0000
-0.20379603 -0.18815973 -0.41860744 -0.24217676 -0.34949958 0.7510415 0.0 0.0
0.0 0.0 0.0 0.0

naim.embeddings.34.embeddings.weight f4 [2, 6]
00000000: 9d56 3cbe a14b 053e 0138 0c3f b261 ffbc
00000010: f096 98be bf6f 3c3d 0000 0000 0000 0000
00000020: 0000 0000 0000 0000 0000 0000 0000 0000
-0.18392415 0.13017131 0.54772955 -0.031174514 -0.29802656 0.046005007 0.0 0.0
0.0 0.0 0.0 0.0

naim.embeddings.35.embeddings.weight f4 [2, 6]
00000000: dd34 5b3e 7cf5 3cbe 9f8c b33e 1f6b b63e
00000010: e668 e03e 1e2b 13bf 0000 0000 0000 0000
00000020: 0000 0000 0000 0000 0000 0000 0000 0000
0.21406884 -0.1845302 0.35068223 0.35628602 0.4383003 -0.57487667 0.0 0.0
0.0 0.0 0.0 0.0

naim.embeddings.36.embeddings.weight f4 [2, 6]
00000000: 8207 31be 8662 dc3e 59ce 0cbf e637 c93c
00000010: c099 d43b eed2 e03d 0000 0000 0000 0000
00000020: 0000 0000 0000 0000 0000 0000 0000 0000
-0.1728802 0.43043917 -0.5500236 0.024562787 0.006488055 0.10977732 0.0 0.0
0.0 0.0 0.0 0.0

naim.embeddings.37.embeddings.weight f4 [2, 6]
00000000: 4f67 4c3b c560 bdbe 427d 09be d064 9abd
00000010: f6cd 703e 6ed8 fe3d 0000 0000 0000 0000
00000020: 0000 0000 0000 0000 0000 0000 0000 0000
0.0031189506 -0.36987892 -0.13426688 -0.0753876 0.23516068 0.124436244 0.0 0.0
0.0 0.0 0.0 0.0

naim.embeddings.38.embeddings.weight f4 [2, 6]
00000000: c8e1 223d 3023 85bd 74b6 a6ba f921 a43e
00000010: e659 1ebe 0b60 373e 0000 0000 0000 0000
00000020: 0000 0000 0000 0000 0000 0000 0000 0000
0.039766103 -0.06500852 -0.001271917 0.3205717 -0.15463981 0.17907731 0.0 0.0
0.0 0.0 0.0 0.0

naim.embeddings.39.embeddings.weight f4 [2, 6]
00000000: d719 39bd 9462 9dbe c2ac 093f c0a3 29bf
00000010: f157 643e 1c8e b33e 0000 0000 0000 0000
00000020: 0000 0000 0000 0000 0000 0000 0000 0000
-0.04519066 -0.30739272 0.5377923 -0.6626549 0.22299172 0.35069358 0.0 0.0
0.0 0.0 0.0 0.0

naim.embeddings.40.embeddings.weight f4 [2, 6]
00000000: 1f52 c2bd 6389 813e 064a 083e 7af2 1ebe
00000010: 08e2 8cbd a5ab b3be 0000 0000 0000 0000
00000020: 0000 0000 0000 0000 0000 0000 0000 0000
-0.094883196 0.2530013 0.13309488 -0.15522185 -0.068790495 -0.35091892 0.0 0.0
0.0 0.0 0.0 0.0

naim.embeddings.41.embeddings.weight f4 [2, 6]
00000000: dd89 19be 385c 6cbe 6479 ba3e 9fab 5f3e
00000010: 2105 dc3e ac1c 1c3f 0000 0000 0000 0000
00000020: 0000 0000 0000 0000 0000 0000 0000 0000
-0.14993997 -0.23082054 0.3642074 0.21842812 0.42972663 0.6098125 0.0 0.0
0.0 0.0 0.0 0.0

naim.embeddings.42.embeddings.weight f4 [2, 6]
00000000: d1bd adbe 405f 433f 5fe4 853e 1db2 dd3e
00000010: 070b 033e deef 22be 0000 0000 0000 0000
00000020: 0000 0000 0000 0000 0000 0000 0000 0000
-0.3393388 0.76317215 0.26150796 0.43299952 0.12797175 -0.15911815 0.0 0.0
0.0 0.0 0.0 0.0

naim.embeddings.43.embeddings.weight f4 [2, 6]
00000000: 4528 87be 0b4a e93c 50fb 323f bcb0 033f
00000010: 8bf8 cd3e 920c c4bd 0000 0000 0000 0000
00000020: 0000 0000 0000 0000 0000 0000 0000 0000
-0.2639791 0.02847769 0.6991472 0.5144155 0.40228686 -0.0957271 0.0 0.0
0.0 0.0 0.0 0.0

naim.embeddings.44.embeddings.weight f4 [2, 6]
00000000: c2a0 00bd 6b69 a33e e0df 6b3e aae9 bbbe
00000010: d051 183e 5b16 093f 0000 0000 0000 0000
00000020: 0000 0000 0000 0000 0000 0000 0000 0000
-0.03140331 0.31916365 0.2303462 -0.3670171 0.14874959 0.53549737 0.0 0.0
0.0 0.0 0.0 0.0

naim.embeddings.45.embeddings.weight f4 [2, 6]
00000000: 06b4 f8be 3751 20bf 8fd7 91be d71b 353e
00000010: 3e7d f3be 3f2b 33be 0000 0000 0000 0000
00000020: 0000 0000 0000 0000 0000 0000 0000 0000
-0.48574847 -0.62623924 -0.2848477 0.17686401 -0.4755649 -0.17496966 0.0 0.0
0.0 0.0 0.0 0.0

naim.embeddings.46.embeddings.weight f4 [2, 6]
00000000: 2f86 9bbd 7fa7 b03d e9fb 943e bdc9 c8bd
00000010: f592 103e a617 573e 0000 0000 0000 0000
00000020: 0000 0000 0000 0000 0000 0000 0000 0000
-0.07593953 0.08625697 0.29098442 -0.098041035 0.1411856 0.21005115 0.0 0.0
0.0 0.0 0.0 0.0

naim.embeddings.47.embeddings.weight f4 [2, 6]
00000000: fb52 ab3e 4d47 f0bd 9c2e 00bf 229e 86be
00000010: d7fe 9b3e 2870 9fbe 0000 0000 0000 0000
00000020: 0000 0000 0000 0000 0000 0000 0000 0000
0.33461747 -0.117323495 -0.5007112 -0.2629252 0.30467865 -0.31140256 0.0 0.0
0.0 0.0 0.0 0.0

naim.embeddings.48.embeddings.weight f4 [2, 6]
00000000: 4c89 b53c 4e68 893e ef3d ac3d e3b2 a83e
00000010: fc74 343f 632e c23e 0000 0000 0000 0000
00000020: 0000 0000 0000 0000 0000 0000 0000 0000
0.022160195 0.2683739 0.084102504 0.3294898 0.70491004 0.37926015 0.0 0.0
0.0 0.0 0.0 0.0

naim.embeddings.49.embeddings.weight f4 [2, 6]
00000000: c4f7 83be 769d 863e 0d25 9c3e 25e5 08be
00000010: d25b c9be 1ec7 da3e 0000 0000 0000 0000
00000020: 0000 0000 0000 0000 0000 0000 0000 0000
-0.25774968 0.26292008 0.30497018 -0.13368662 -0.39327866 0.4273004 0.0 0.0
0.0 0.0 0.0 0.0

naim.embeddings.50.embeddings.weight f4 [2, 6]
00000000: aca1 0f3f d7e6 d43e 4e3f efbd 0f0d 3fbe
00000010: ed9c 01be 8857 16bf 0000 0000 0000 0000
00000020: 0000 0000 0000 0000 0000 0000 0000 0000
0.56106067 0.41582367 -0.11681996 -0.18657325 -0.12657519 -0.5872731 0.0 0.0
0.0 0.0 0.0 0.0

naim.embeddings.51.embeddings.weight f4 [2, 6]
00000000: 36dd 533d 7ed6 3d3e f114 123f 710c 30bf
00000010: 34a9 bf3e e973 18be 0000 0000 0000 0000
00000020: 0000 0000 0000 0000 0000 0000 0000 0000
0.051724635 0.18538854 0.57063204 -0.68768984 0.3743378 -0.14887966 0.0 0.0
0.0 0.0 0.0 0.0

naim.embeddings.52.embeddings.weight f4 [2, 6]
00000000: 2047 aa3e ef99 7cbe 54bf 79be cd49 6ebe
00000010: 4763 f13d 1590 bfbe 0000 0000 0000 0000
00000020: 0000 0000 0000 0000 0000 0000 0000 0000
0.3325739 -0.24668096 -0.24389392 -0.2327034 0.11786514 -0.37414613 0.0 0.0
0.0 0.0 0.0 0.0

naim.embeddings.53.embeddings.weight f4 [2, 6]
00000000: cc5c 8abe 7477 35be eaf1 253e 8e69 57bd
00000010: c1f5 6d3f 7181 79ba 0000 0000 0000 0000
00000020: 0000 0000 0000 0000 0000 0000 0000 0000
-0.27023923 -0.17721349 0.16205564 -0.0525909 0.92953116 -0.00095178845 0.0 0.0
0.0 0.0 0.0 0.0

naim.embeddings.54.embeddings.weight f4 [2, 6]
00000000: b494 503e 3890 0e3f 01fd d33e 2868 573e
00000010: 5c79 24bf f8ba 003e 0000 0000 0000 0000
00000020: 0000 0000 0000 0000 0000 0000 0000 0000
0.20369226 0.5568881 0.41403964 0.21035826 -0.6424768 0.12571323 0.0 0.0
0.0 0.0 0.0 0.0

naim.embeddings.55.embeddings.weight f4 [2, 6]
00000000: afd1 ab3e fb08 abbe 9972 15bf 7a2d 133f
00000010: 0948 cfbd 94ee 2abe 0000 0000 0000 0000
00000020: 0000 0000 0000 0000 0000 0000 0000 0000
0.33558413 -0.3340529 -0.5837799 0.57491267 -0.101211615 -0.16692573 0.0 0.0
0.0 0.0 0.0 0.0

naim.embeddings.56.embeddings.weight f4 [2, 6]
00000000: e1d7 cdbe 0f93 f1be 5c81 513e 8fe5 99bd
00000010: bf53 ddbe 3faf 65bd 0000 0000 0000 0000
00000020: 0000 0000 0000 0000 0000 0000 0000 0000
-0.40203765 -0.4718251 0.20459503 -0.07514488 -0.43227956 -0.05607533 0.0 0.0
0.0 0.0 0.0 0.0

naim.embeddings.57.embeddings.weight f4 [2, 6]
00000000: a344 e93e 8a4c b0be aec0 62be 1a30 903e
00000010: e6a5 3c3f 8b73 84bc 0000 0000 0000 0000
00000020: 0000 0000 0000 0000 0000 0000 0000 0000
0.45560178 -0.34433395 -0.22143814 0.281617 0.7369064 -0.016168376 0.0 0.0
0.0 0.0 0.0 0.0

naim.embeddings.58.embeddings.weight f4 [2, 6]
00000000: c663 f7bd 5db7 a93c e32a 2d3d 121b 4abd
00000010: e3b9 ca3d fac4 89be 0000 0000 0000 0000
00000020: 0000 0000 0000 0000 0000 0000 0000 0000
-0.12079577 0.020717317 0.042277228 -0.049342223 0.09898736 -0.26908094 0.0 0.0
0.0 0.0 0.0 0.0

naim.embeddings.59.embeddings.weight f4 [2, 6]
00000000: 13ff a63e 227d 3dbe 8ad2 89be f58d 363f
00000010: 539e 933e b18e e03e 0000 0000 0000 0000
00000020: 0000 0000 0000 0000 0000 0000 0000 0000
0.3261648 -0.18504766 -0.2691844 0.7131036 0.2883173 0.43858865 0.0 0.0
0.0 0.0 0.0 0.0

naim.embeddings.60.embeddings.weight f4 [2, 6]
00000000: 631b 0ebf 6c52 7abd fabd 6d3d e655 093f
00000010: 7801 8f3e e904 c83e 0000 0000 0000 0000
00000020: 0000 0000 0000 0000 0000 0000 0000 0000
-0.5551054 -0.06111376 0.058042504 0.53646696 0.27930808 0.39066246 0.0 0.0
0.0 0.0 0.0 0.0

naim.embeddings.61.embeddings.weight f4 [2, 6]
00000000: c436 72be 041d 443d 48b5 103e b048 99bd
00000010: 7103 6f3e 5e6b f6bd 0000 0000 0000 0000
00000020: 0000 0000 0000 0000 0000 0000 0000 0000
-0.23653704 0.047879234 0.14131653 -0.07484567 0.23341157 -0.120321974 0.0 0.0
0.0 0.0 0.0 0.0

naim.embeddings.62.embeddings.weight f4 [2, 6]
00000000: 4988 953e c50c 233e 828f 35bf 5a59 8abd
00000010: 20ba c7be 92c4 f3be 0000 0000 0000 0000
00000020: 0000 0000 0000 0000 0000 0000 0000 0000
0.2920554 0.1592284 -0.709221 -0.06755324 -0.3900919 -0.4761091 0.0 0.0
0.0 0.0 0.0 0.0

naim.embeddings.63.embeddings.weight f4 [2, 6]
00000000: e6d4 443f 54d9 aa3e b313 a3be c0db 333e
00000010: c9f6 65be 253b 20be 0000 0000 0000 0000
00000020: 0000 0000 0000 0000 0000 0000 0000 0000
0.7688736 0.33368933 -0.31850967 0.17564297 -0.22457422 -0.15647562 0.0 0.0
0.0 0.0 0.0 0.0

naim.encoder.0.layer_norm_1.weight f4 [6]
00000000: 46ad 7f3f 61ab 7f3f b8b3 7f3f 0701 803f
00000010: 6fad 7f3f 84b4 7f3f
0.9987377 0.9987088 0.99883604 1.0000314 0.99874014 0.9988482

naim.encoder.0.layer_norm_1.bias f4 [6]
00000000: 20d3 833a fea4 84ba 2c12 823a e538 81ba
00000010: a246 833a 68e1 83ba
0.0010057427 -0.0010119972 0.0009923629 -0.0009858875 0.0010015557 -0.0010061683

naim.encoder.0.attn.linear_q.weight f4 [6, 6]
00000000: 73c5 cfbd 744a 113d 5e24 ddbd 06fe cbbe
00000010: d44f 29bd 07b3 4a3e b9e4 3dbd 8292 4cbe
00000020: 6135 443c 9371 993d 6ab5 eabd 2b75 a1be
00000030: 34ce 5ebe 2bde 85bd 643d 153e b639 b93e
00000040: 276f d73b 2b63 153e aa88 6f3e ce59 35be
00000050: 5771 09be 4fff 893e 00fe 943e 4d88 c33d
00000060: 8fdf a0be 5a06 6c3e a91b acbe 33aa 4f3e
00000070: 97db 423d d493 063e d913 cbbe 61a5 11be
00000080: 3236 303e 9c37 a03e 96ae ecbd c9b9 b93e
-0.10145082 0.035471395 -0.10797952 -0.39842242 -0.041335896 0.19794856 -0.046360705 -0.19977763
0.011975617 0.07492366 -0.11460383 -0.31534705 -0.21758348 -0.06536516 0.145742 0.36176842
0.0065745297 0.14588611 0.23391977 -0.17710039 -0.13422142 0.26952597 0.29100037 0.09547482
-0.31420562 0.23049298 -0.33614853 0.2027977 0.0475727 0.1314233 -0.3966358 -0.14223243
0.17208174 0.31292427 -0.11556737 0.36274555

naim.encoder.0.attn.linear_k.weight f4 [6, 6]
00000000: 684e b8bd efd0 7abe 3eb7 33be ec50 c63c
00000010: 771c 92bd ce15 493e 2d08 66be 0336 ebbd
00000020: 117c cebe 48f7 a93e 28f7 9abd dd1b a4be
00000030: a316 98bc 5647 0039 40e1 e63d ebc4 38bd
00000040: 66d2 823e e1fc 0ebe 2896 f7bd 0d28 c4bd
00000050: bfe2 923d 36d3 a63e 6150 91bc ae29 a03e
00000060: df87 a33e 0b59 58be f870 0abd e207 44be
00000070: bf9f 2c3e c7bb 11be 35b5 fd3d fd7a bd3c
00000080: 2691 88be 0281 8cbe bb82 cbbe c290 68be
-0.0899933 -0.24493764 -0.1755037 0.024208508 -0.071343355 0.19637224 -0.22464056 -0.11484911
-0.4032903 0.33196473 -0.075666726 -0.32052508 -0.018565482 0.00012233606 0.11273432 -0.04510967
0.25551146 -0.13963653 -0.12089187 -0.095779516 0.07172155 0.32583016 -0.017738523 0.312818
0.319396 -0.21127717 -0.03379914 -0.19143632 0.16857813 -0.14231788 0.12388078 0.023129934
-0.2667324 -0.27442175 -0.39748177 -0.2271147

naim.encoder.0.attn.linear_v.weight f4 [6, 6]
00000000: e194 eb3d 934c d23c 96a9 9d3e 0045 b8be
00000010: e135 45bc 386e bbbe 6b59 543b c030 193e
00000020: aefe babe 9718 b83e ad07 01be 88b1 b83e
00000030: f6a7 8cbd 75f4 6b3e 2e76 bd3e 9724 17be
00000040: a118 c9bd cf3a 5a3e 3b68 b2be 8b45 763e
00000050: 4fbe 82be f197 c13e 1f6a 88be fbcc 2cbe
00000060: 697b 9b3e 6734 35be 1f8a b23e d946 8f3e
00000070: 0a95 be3e 7421 cabe 04ad b53b dc50 0abe
00000080: df91 c83d ee45 9ebe c12e 2c3e a9b3 95bc
0.11503006 0.025671279 0.30793446 -0.35990143 -0.0120367715 -0.36607528 0.003240193 0.14960003
-0.3652243 0.3595626 -0.12600584 0.36072946 -0.068679735 0.23042472 0.37004226 -0.14760052
-0.09819151 0.21311496 -0.34845147 0.24049966 -0.2553582 0.37811235 -0.26643464 -0.16875069
0.30367592 -0.17695771 0.34871003 0.2798374 0.37223083 -0.39478648 0.0055443067 -0.13507408
0.09793448 -0.30912727 0.1681471 -0.018274145

naim.encoder.0.attn.linear_o.weight f4 [6, 6]
00000000: b653 44be 9a61 bbbe 4757 593e 6400 16be
00000010: d692 993e 3f85 923d d5a0 fb3d 724a 78bd
00000020: 6751 62bd 03af 0cbe ee53 b4be 23bf 823e
00000030: 5cae 83be f361 733e 804d 0dbe 9ac3 823e
00000040: 7cff b23e 51cb 7fbe faf4 ac3e 76f0 2e3c
00000050: be3a 9fbe 7468 2b3e db75 6d3e 609b b83e
00000060: 467e c7be 1b34 bc3e 09eb 9d3e 7e15 cd3e
00000070: 4cc2 623e 2b3e 4cbe 906c 9e3e b2e4 be3e
00000080: d2cb 1fbe c38d 88bd ec7c a33e 6013 a83e
-0.19172558 -0.36597902 0.212247 -0.14648587 0.2999484 0.07154321 0.12286536 -0.06061787
-0.055253413 -0.13738637 -0.35220283 0.2553645 -0.25718963 0.23767833 -0.13799095 0.25539857
0.34960544 -0.24979903 0.33780652 0.010677448 -0.31099504 0.16739064 0.2318949 0.36056042
-0.38963526 0.36758503 0.3084338 0.4005546 0.22144431 -0.1994559 0.30942202 0.37283856
-0.15605095 -0.06667664 0.31931245 0.32827282

naim.encoder.0.layer_norm_2.weight f4 [6]
00000000: 18c2 7f3f 7d09 803f 9a0c 803f ca0b 803f
00000010: f4b2 7f3f 6a1d 803f
0.9990554 1.0002896 1.0003846 1.0003598 0.99882436 1.0008976

naim.encoder.0.layer_norm_2.bias f4 [6]
00000000: 465f e239 2d22 dab8 38d7 df39 3c84 ae39
00000010: 2512 7eb9 67f6 3dba
0.00043177063 -0.00010401416 0.00042694225 0.00033286388 -0.00024230087 -0.00072464946

naim.encoder.0.ff.0.weight f4 [1000, 6]
00000000: 6670 893e 9c8a 9f3e 7785 55be 77f5 8fbd
00000010: 35b6 25be d300 583e 4e00 d13d 4edc a0be
00000020: 93c3 51bd bfc7 a9be 2f0f c4be a0ea bd3e
00000030: 5afe 50be 506a 393e cac5 b7bd b963 a7bd
00000040: ea28 95b8 7a61 a23e a839 62bd 334c ac3e
00000050: 1647 733e 09b8 8e3e 9ce6 bcbe ba25 42be
00000060: bfad a9be 7910 afbd 61ce aabd d978 a73d
00000070: cba3 ba3e 397a 3a3e 621f 91be a173 82be
00000080: 062f 9d3e 8471 2a3d 2659 ea3d cd74 59be
00000090: 0d6e 4fbd f09f eb3d 3f84 88be c9c4 873e
000000a0: de26 4f3e 6589 72be bf20 2abe 4de3 c1bd
000000b0: 6479 803d c611 18be 0c4a c73e 2faa c8be
000000c0: b572 6cbe de85 7cbe e8b3 df3d 9710 6b3d
000000d0: c3d6 ebbd 9e56 b23e fbc3 b3be 7615 123e
000000e0: 4cc8 64be b6a8 bebd dfa2 c8be 0263 9bbe
000000f0: 4bbb b0be e659 353e 11bc 1bbe cf64 593e
00000100: fac6 61be d32f d0bd 7530 4e3d 507e ae3e
00000110: 6cad debd 8d07 713e 57c9 e43d ec07 7d3e
00000120: e864 833e 87c4 283e 367d fcbd 713f e8bd
00000130: de93 213e 8998 623e 412d b8bc 663f 503e
00000140: 282e 7abe 0756 6a3e 0f44 49bd 062d 8fbe
00000150: d7ca 49be 1dfb 9ebe 8724 a63d 3c9f 76be
00000160: 65f0 ecbd ae1c d9bc b1c2 7dbe f7d2 363c
00000170: 7011 54bd 7632 043e 4d58 963e c80a 7bbe
00000180: 5747 633e a999 17bc 279c 6dbe 3544 3cbe
00000190: 8d43 d23d 769d ab3d 90af 66bc 54ce 4ebe
000001a0: 0992 513e 5b14 7c3d 9f87 cabe 5969 91bd
000001b0: d284 e0bd 3d47 31be d590 66be 5be9 a8be
000001c0: f137 cd3e 5944 bebe 0bd5 c13e 6bab a3be
000001d0: f877 c8bd f7f7 29be b078 5ebe 5a79 133e
000001e0: 300e 713e b3cc 88be 0e8d 41be f823 543e
000001f0: 9b40 45bd 70f9 c93d 8949 593e 2939 19be
00000200: 53b6 66be 439c 183e 59d0 17be 4a7a 8abe
00000210: a49f 51be 20d6 41be 157e cf3e d7a2 a03d
00000220: 13bd 323e 635f 603d 7040 8cbe fc2d 963e
00000230: 1856 80bd 7ee8 d5bd 9bae a93e e1a4 53be
00000240: 0454 a73d 0927 b1be 5deb 543e 7ae7 243e
00000250: 8e3f abbe 326f 693e e4df 3b3d 52bd 56be
00000260: eb9f b13e bb40 323e 25bb 113e 5a09 1bbe
00000270: 0c96 65be 32ed 5fbe 04d5 1b3e 6cb3 e03d
00000280: 26e6 78be efda bd3e e73e 723e d74b 1ebe
00000290: 90fc 563e e9e8 2fbe 0aec 013e eb4d ad3e
000002a0: e83c b8be e7ff 4ebe c44a bcbc dc6c 793d
000002b0: ef3a abbe e8df 88be 7b6d 1bbd f844 6cbd
000002c0: ea4d b23d 208b 4f3d 66f4 a83d 2e2c d43c
000002d0: 9ced 3b3d 7805 babc 21d2 143e 1d09 8e3e
000002e0: 014b 4fbe 03c6 57be e231 363e 0087 96be
000002f0: 1d3c 873e 1309 403e dada 6c3d 2a30 34be
00000300: b4b0 583c 869d a4be 2a63 bbbe 432b c43e
00000310: 77d2 babe bccc acbe fc0e 21be 5731 c03c
00000320: bcf2 bc3d cfae 4cbe 6295 1dbd 121e bbbd
00000330: e139 ae3e d0c5 b43e 967e 2a3e 940e 6bbb
00000340: 6742 9c3e b517 a8be dc5a 2d3e cfb0 71be
00000350: 9959 a23e 301d b8be 16ff 193e 282f abbe
00000360: e6bb 723e 2dd5 9a3d e4b0 b23e f6fd 9cbe
00000370: 3eef 853e 42dc 8abe ee6b 60be b6bb 1d3e
00000380: fe38 8dbd eb62 a4be 2033 b1be ba37 d8bd
00000390: f6e1 e43d b8ed b63e 830f 993e 5836 e53b
000003a0: 1813 7fbe 9eb0 b9be ae13 ba3e 02ce 67be
000003b0: bbbb 93bd da00 a8be abd6 8fbe 7fb6 9f3d
000003c0: 751c ccbd b43a 3b3d c334 36bb f4f8 aa3c
000003d0: 11bb a4bd 5b3c 78bc 8b7a 343e 9d07 983e
000003e0: a804 b03e a2de a9be 0105 b0be 0a71 75bd
000003f0: 096e f6bc 2775 653e 341d c43e 9d21 d43d
0.26843566 0.31160438 -0.20851694 -0.070292406 -0.16182788 0.21094064 0.10205136 -0.3141808
-0.051211905 -0.33160207 -0.38292834 0.37093067 -0.20409527 0.18106961 -0.08973272 -0.081733175
-7.1124945e-05 0.31714994 -0.055230767 0.33651885 0.23757586 0.27874783 -0.3689469 -0.18959704
-0.3314037 -0.08548064 -0.08340145 0.08177347 0.3645309 0.18210687 -0.28344256 -0.25478843
0.3069994 0.041612163 0.11442785 -0.21235962 -0.050642062 0.11505115 -0.26663396 0.26517323
0.2022967 -0.23685224 -0.16614054 -0.09467182 0.062731534 -0.1485053 0.3892368 -0.3919234
-0.23090632 -0.24660441 0.10922986 0.05738887 -0.11515572 0.3483171 -0.3511046 0.14265999
-0.22342032 -0.09309523 -0.3918676 -0.30348974 -0.34517893 0.17710075 -0.1520846 0.21229862
-0.2204856 -0.10165372 0.05033918 0.34080744 -0.10872921 0.23538037 0.11171215 0.24710053
0.25662923 0.16481219 -0.123285696 -0.113402255 0.15779063 0.221285 -0.022482516 0.20336685
-0.2443167 0.2288438 -0.04913717 -0.27964038 -0.19706284 -0.3105096 0.08112436 -0.2408418
-0.11569289 -0.026502933 -0.247813 0.011158696 -0.051774442 0.12909874 0.29364243 -0.24515831
0.22195183 -0.009252944 -0.23204099 -0.18385394 0.102667905 0.08379643 -0.014079943 -0.20195895
0.20465864 0.06154285 -0.39556596 -0.071001716 -0.109628335 -0.17312331 -0.22516187 -0.32990536
0.40081742 -0.3716152 0.3785785 -0.3196672 -0.09788507 -0.16598497 -0.21725726 0.1440176
0.23540568 -0.26718673 -0.18901464 0.20716846 -0.048157316 0.098620296 0.21219458 -0.14963211
-0.22530489 0.14903359 -0.14825572 -0.27046424 -0.20471054 -0.18929338 0.4052588 0.07843559
0.17454939 0.054778468 -0.27392912 0.29331958 -0.06266421 -0.10444735 0.33141026 -0.20668365
0.081703216 -0.34600094 0.20792909 0.16103926 -0.33446926 0.22796324 0.045867816 -0.20970657
0.3469232 0.17407505 0.14231546 -0.15140286 -0.2242052 -0.21867827 0.15217978 0.10971722
-0.24306545 0.37081096 0.23656808 -0.15458618 0.20994782 -0.17178692 0.12687698 0.3384851
-0.35983968 -0.20214806 -0.02298487 0.060894832 -0.334434 -0.26733327 -0.037946206 -0.05768296
0.08706267 0.05066979 0.0824974 0.025899973 0.0458809 -0.022707686 0.14533283 0.27741328
-0.20243455 -0.21071629 0.17792466 -0.29399872 0.2641305 0.18753462 0.0578259 -0.17596498
0.013225723 -0.3215143 -0.36599094 0.38314256 -0.36488697 -0.3374995 -0.15728372 0.023461027
0.092259854 -0.19988559 -0.03847254 -0.09136595 0.34028533 0.3530717 0.16649851 -0.0035866844
0.3051941 -0.32830587 0.16929191 -0.23602603 0.31708983 -0.35959768 0.15038714 -0.33434415
0.2370449 0.07560191 0.34900582 -0.30662507 0.2615909 -0.27121168 -0.21916172 0.15403637
-0.06895636 -0.32106718 -0.34609318 -0.10557504 0.11175911 0.3572824 0.29894647 0.0069950037
-0.24909627 -0.3626756 0.3634314 -0.2263718 -0.07213541 -0.3281315 -0.28093466 0.0779848
-0.09966365 0.04571028 -0.0027802445 0.020870663 -0.080434926 -0.015151109 0.17624871 0.29693308
0.34378552 -0.33177668 -0.34378818 -0.059922256 -0.030081766 0.22407971 0.3830353 0.10357974

naim.encoder.0.ff.0.bias f4 [1000]
00000000: 99ab 813e 860c 57be 4adc 6ebd 2bba 153d
00000010: bce2 8f3e e30d 373e 3001 c93e 0935 5fbe
00000020: 25b5 febc 9d15 09bd f2b8 a93e 8eac c43e
00000030: 43b7 d03d 2940 a8be baf1 96be a04f 973d
00000040: 8378 b7be 447b 10be 7d16 9cbe df9b 553e
00000050: 898b 62bd 09fc a2be 6e5a 883e 84a7 b8be
00000060: f900 20bd 61b8 c83e 4fb3 503e a170 b4be
00000070: 416a 353d d1a3 7cbd 6106 393e 2a7a c03e
00000080: 387e b13e 3b21 1bbd 3b4e 403e 049a ccbe
00000090: 3c0b a43e 88db 5c3e 465d 92be de52 efbd
000000a0: fc47 21be 9e1f 73be 9344 2c3e b042 f1bd
000000b0: 6c97 2d3e cd6e fbbd 8de1 a13e 862d 23be
000000c0: b304 92bd e259 01be 2d6e 983c 18de 18be
000000d0: 1b27 92be 81fc c5be 985e 813e 536e 693d
000000e0: f3bb 85be a194 573e 4585 2d3d 49a5 16be
000000f0: 8c20 d2bc 49fc 343d bb1e 953e cb74 bfbe
00000100: 5094 a1be d9dd a7be 7174 a3be d2f9 ce3a
00000110: c0f8 663e 9a37 db3d ed3c 303e 0e04 453d
00000120: d316 e6bb c4b3 bcbe 4dee b93e ae66 c93e
00000130: 1aaf 44bb 6a58 953d 11b7 9a3d 4e30 ce3e
00000140: 125f 1e38 2408 87bd 8b58 62be f7b2 d73d
00000150: c380 3f3e 0ad4 afbe a0cd 0d3e 4308 cf3d
00000160: 99a4 383e b0b0 423e 1774 d8bd 01f4 5c3d
00000170: 5bf6 91be 5258 7a3e 5031 afbe adba b6be
00000180: b15a 9abe 8ef1 67be 4880 873c 4d8d 883e
00000190: 5ade 5cbd 8cdd 953e 7aa0 86bd 0498 b03e
000001a0: e5c2 8f3e c55b 833e aa6d 293e 3b31 8cbe
000001b0: e13f cc3e 1543 c6be f8dd 91be fa53 7bbe
000001c0: fdd6 dabd e374 343e 9f85 ad3d 2042 b3be
000001d0: 8a27 c93e b596 c33e 12f4 4c3e 6f1e ccbe
000001e0: f139 683e 77df ee3d 2593 49bd 7270 aebe
000001f0: 5282 b03e be4f f7bd 866f a8be 56ab a03e
00000200: c8e9 233e 9ee3 f33d 1674 863e 9c87 103e
00000210: 5584 b4bd 25ce 8ebd bd2e ac3e 5dcc 6abc
00000220: a3ed adbe 02f5 8fbe 3713 9dbe 1601 203d
00000230: 4b60 983e ee83 793e 191c dc3d dc0e 0a3e
00000240: 78c6 44be 5622 c33e 3b3b 1e3e cc12 83be
00000250: 3996 8abe e895 babe 5bbe ebbd 3448 983e
00000260: 3912 bb3c 92d1 44be 3478 e73d d177 90be
00000270: 68f6 f73d 0211 8e3e b10d 4a3e 12f8 fbbd
00000280: 958a 0ebe 53be 2d3e 1d03 793e 3055 cabd
00000290: e0ef d9ba 18ab 3ebd 0add 44bd d0d5 b8be
000002a0: 80ce abbe 5c92 b23e 7706 48be 050b 9a3e
000002b0: d703 813e ad30 80bd 4efa 49be 8f53 5a3c
000002c0: 4101 90bd cbbb 76be 118f ca3e bb48 00bd
000002d0: 3144 7cbd 3ffa 8cbe cabe 853d 943c 683d
000002e0: c975 cd3e e89c ffbd 9fdf 693e 6771 9e3c
000002f0: ddbf 5c3e 9298 ea3b 6bc1 8dbd ee0b 233e
00000300: cff7 38be 2900 7c3e f36d aebe 153d 95be
00000310: 338c c63e f635 1cbe 808a a5be 6624 98be
00000320: a82d ca3e 2bf0 66bd c13c afbe 70bd 6cbd
00000330: f375 4abe 558a 8bbe 38bd 4cbe 1eae 9d3e
00000340: 2a61 273e 5cf5 723e 6a0f 0c3d 5b75 2dbe
00000350: 344c 29be 8ba0 8bbe c25b 96be 738d b3be
00000360: 5cb0 923d c627 5a3e 0af6 a93e 8f06 3bbc
00000370: 2136 70bd 30c7 0bbd f46f 243e 5939 83bd
00000380: 4ab6 11be 0cdb e3bd 2b85 cbbe 1d58 a0be
00000390: 8fdb 31be 3f8c 223d 559d 82be 2cde 1e3e
000003a0: dc65 63be 8493 c93e 8410 b8be f584 683e
000003b0: 3cdd 57be 2ff2 12be d689 c2be 461e c1be
000003c0: b425 c5be beb2 10bc 2ae5 bf3e f19f 3e3e
000003d0: d2a3 823e eaa5 b93d ee3a 20be bac1 21be
000003e0: c0f1 f5bd a8a2 c2be 5781 643e 5634 f6bd
000003f0: 8c41 6cbe 7e05 ce3d 1df1 263a bc52 623e
0.2532623 -0.21000871 -0.058315553 0.036554497 0.28102672 0.17876391 0.39258718 -0.21797575
-0.031092236 -0.033467878 0.33148915 0.384129 0.101912044 -0.3286145 -0.29481298 0.07388234
-0.3583413 -0.14109522 -0.30485907 0.20860241 -0.055308852 -0.31832913 0.26631492 -0.36065304
-0.039063428 0.3920317 0.20380901 -0.3524218 0.044290785 -0.061679665 0.1806884 0.37593204
0.3466661 -0.037873488 0.18779843 -0.39961255 0.3203982 0.2156812 -0.28586787 -0.116857275
-0.15750116 -0.2374253 0.16823034 -0.11780298 0.16952294 -0.12276993 0.31617394 -0.15935335
-0.071298026 -0.12631944 0.018607223 -0.14928472 -0.2854546 -0.38669208 0.25267482 0.05698998
-0.26119956 0.21052791 0.042363424 -0.14711489 -0.025650285 0.04418591 0.29125008 -0.37393793
-0.31558466 -0.32786444 -0.31924775 0.0015791005 0.22555828 0.107039645 0.17210741 0.04809957
-0.007021764 -0.368559 0.36314622 0.3933615 -0.0030011595 0.07292254 0.075544484 0.4027123
3.7758677e-05 -0.065933496 -0.22104089 0.10532182 0.18701462 -0.3434146 0.13847971 0.10108998
0.18031539 0.19012713 -0.105690174 0.053943638 -0.28508267 0.24447754 -0.3421731 -0.35689297
-0.30147317 -0.2265074 0.016540661 0.26670304 -0.05392299 0.2927059 -0.06573577 0.3449098
0.2807838 0.25655952 0.1654574 -0.2738131 0.39892486 -0.38723055 -0.2848966 -0.24543753
-0.10685537 0.17622714 0.08472752 -0.35011387 0.39287978 0.38200918 0.2001498 -0.3986697
0.22678353 0.11663716 -0.049212594 -0.34070164 0.34474427 -0.120757565 -0.32897586 0.3138072
0.16007149 0.11908649 0.26260442 0.14114231 -0.08814303 -0.06972913 0.33629408 -0.014330951
-0.33970365 -0.28116614 -0.30678722 0.039063536 0.29760966 0.24366733 0.10747547 0.13482231
-0.19216335 0.38112134 0.15452282 -0.25600278 -0.27067736 -0.36442494 -0.11510917 0.29742587
0.022835838 -0.1922057 0.11302224 -0.28216413 0.12107545 0.2774735 0.19731785 -0.12303175
-0.13920052 0.16967134 0.24317594 -0.098795295 -0.0016627274 -0.046549886 -0.04806236 -0.36100626
-0.33555984 0.34877288 -0.19533716 0.30086532 0.25198242 -0.06259284 -0.1972439 0.013325586
-0.07031489 -0.24095075 0.39562276 -0.03131936 -0.06158847 -0.27534673 0.06530531 0.056698397
0.40128925 -0.12481099 0.22839211 0.019341184 0.21557565 0.007159301 -0.06921657 0.1592252
-0.18063281 0.24609436 -0.3406826 -0.29148164 0.3877884 -0.1525496 -0.3233223 -0.2971527
0.39487958 -0.056381386 -0.3422604 -0.05779785 -0.19771557 -0.27253976 -0.19994056 0.30796903
0.16345659 0.2372641 0.034194387 -0.16939299 -0.16532975 -0.27270922 -0.2936688 -0.35068855
0.07162544 0.21304235 0.33195525 -0.011415138 -0.05864537 -0.034125507 0.16058332 -0.064074226
-0.14229694 -0.11125764 -0.39750037 -0.31317225 -0.17368911 0.03968453 -0.2551066 0.1551444
-0.22206825 0.39370358 -0.359501 0.22706969 -0.21080488 -0.14350198 -0.37995785 -0.3771841
-0.38505328 -0.008831678 0.37479526 0.186157 0.2551561 0.09064849 -0.1564748 -0.15796557
-0.12009001 -0.38014722 0.22314964 -0.12021701 -0.23071879 0.10059641 0.0006368326 0.22101873

naim.encoder.0.ff.3.weight f4 [6, 1000]
00000000: 9bda 87bc 691e 58bc 2d72 f7bb e8d1 1ebc
00000010: 9dfd 13bc 6ae1 893b 9824 0abb affc 7cbc
00000020: 5191 a53c e4a5 c13c a6d1 81bb f7a9 a5bb
00000030: 1af5 ffbc fe83 b4bc 2c21 15ba 538d 9ebb
00000040: 761a 0b3c e682 71bc cd6f d9bb e6fd 993b
00000050: d5e4 033d e246 c93c 1318 a1bc a7d4 21bb
00000060: 5930 87bb 55c3 5239 a04c 693c 2904 3dbc
00000070: bd51 babb 244e f7bc 4e3c 3ebc ac2d f4bc
00000080: f7dd 393c 0ed5 bebc 8d81 80bc 32d3 b4bc
00000090: 92a2 c13c 4ed5 10bc 5df3 df3c 6d97 86bc
000000a0: 19a1 bb3c 1d11 aabb 99de babc df07 d43c
000000b0: da03 a8bc a0eb 8ebc 0239 8b3c 8cd4 06bb
000000c0: 149b 073a 92c9 043d 1280 c4bc d691 27bc
000000d0: da7f 663c 5095 ccbb dd5b ba3a 961f 1bbc
000000e0: 8a11 73bb 2a0a d83c 42b2 9abb 2443 5f3c
000000f0: 1d6a cc3c e18f c63c a9d1 6e3c d1aa ac3c
00000100: e92a f0bb de76 5d3b 4c34 5cbc f2ea f2bc
00000110: dc22 d33c 7ab5 efbc 712a a7bc 8a57 27bc
00000120: 2e82 edbc 1f97 cebc 59db 88bc 74eb 753b
00000130: 5589 d8bc 895e b0bc 4f90 8dbc d9aa bbbc
00000140: fa23 0a3c 0a0d c83a 3ab6 033c 555b e83c
00000150: 2e99 50bc a518 31bc 7562 383c e724 e03c
00000160: b8de 383c 1f4c 31bb ba4e 3a3c 5725 fcbc
00000170: f1f0 a9bc 3f51 4bbc f5d2 eebc e2d6 c0bc
00000180: 90df c8bc 9eac 0f3c bcb7 2d3c ec64 bdba
00000190: 98eb 01bc f50b fd3a f13b a53c 2e87 bfbc
000001a0: 4a43 c03c 1983 733c 6152 37bc 5c6f be3c
000001b0: 6ccc 71b9 cbdd 59bc d0d6 e63c c4c0 273c
000001c0: 1fac c23c 8bd9 15bc b194 ddbc 207f d93c
000001d0: 849b e23a 4967 843c c8d8 08bc 1792 7f3c
000001e0: 77ee c3bc 3854 153b 14e4 cb3c 071d 00bc
000001f0: 0940 e83c 8754 393c 9763 893c 1c4c 013d
00000200: 5683 ddbb c07d cfbb 3b66 a63c f534 73bc
00000210: d360 b9bc 39f1 a23c 2316 e6bc cbc9 80bc
00000220: 19ba 0f3c 194a ae3b b7fc a2bc 0601 11bc
00000230: 584d b03c 30eb abbc 640b 8f3c 3575 2dbb
00000240: 846b 25bc ff4a edbc bf32 f0bb 2aca ce3c
00000250: ddf8 8fbc 5c8c c7bc e1a0 45bb d706 bc3c
00000260: df1b f4bb 231c 023d b11c 013d ff64 f23c
00000270: 831c 8cbc 0b43 babc 0f8c f4bc 2c5d e6bb
00000280: a549 a0bc 2ff7 803c f8c6 833b 45b4 d63c
00000290: af64 e9bc b092 d0bc 1d0a b6bb 0fde fb3b
000002a0: 4786 e23c cbd1 beba 6a44 e53c 1a7a 14bc
000002b0: cc3a 5bbb 6caa 35bc f15e 48bc ac2a 32bc
000002c0: b80d d6bc 8a90 99bb 33eb 1dbc 5178 a3bc
000002d0: 460b c4bc 4627 fcbc 7ee6 bfbb d51b c9bc
000002e0: bf3c f13c 8286 efbb 9fdb 093c 4193 b0bc
000002f0: 7221 2e3b c5bf e9bc 7d85 643c be69 833c
00000300: c990 f5bc acc6 713c 2b78 a83b 7975 9abc
00000310: 3146 59bc 9ee9 ff3c 1ef5 7cbc 865a ea3c
00000320: 2c24 cc3b 1c23 7f3c e09b 71bc 6431 393c
00000330: ccdb f63b f412 c83c 8374 f7bc fbd1 45bc
00000340: 1ce1 fd3a 2c3c bbbc c61e d83b 8933 af3c
00000350: 87ff a23c 4c84 8cbc 5c5a 613c f407 c3bc
00000360: 746c 9e3c 697c d4bc 1014 e1bc 1dbc 433c
00000370: d6ac e9ba c943 0e3c e2ed f83c 4c17 f73c
00000380: be98 993c 6c2b ecbc 6a63 80bb baf1 983b
00000390: 3f9b fdbc a2f6 d63c b148 a73c 40d6 74bc
000003a0: bed5 b6bb d0e7 99bc f1d2 553c 25ac c53b
000003b0: 440f 20bc 699a 933c 11bb babb ed44 963b
000003c0: 836a bc3c f45b 61bc c205 e5bc 9f55 933c
000003d0: 1bb4 a5bc bfdd 3a3c da31 1cbc 2ec2 b53c
000003e0: fde8 ebba a28e 73bc b514 adbc 7ed0 b63c
000003f0: b537 98bc 8bac 253c a6d7 c73c 6de4 c6bc
-0.016583731 -0.013190844 -0.0075514526 -0.0096936 -0.009032634 0.0042077797 -0.002107894 -0.015441104
0.020210894 0.023638673 -0.0039617596 -0.005055662 -0.031244803 -0.022035595 -0.0005688842 -0.0048386245
0.0084901955 -0.014740681 -0.006635642 0.0046994565 0.032200653 0.024569932 -0.0196648 -0.00246934
-0.0041256365 0.00020099927 0.01423946 -0.011536636 -0.0056860135 -0.030188628 -0.011611057 -0.029806934
0.011344424 -0.023294952 -0.015686775 -0.022073362 0.02363709 -0.008839918 0.027337724 -0.016429627
0.022903966 -0.0051900283 -0.022811221 0.02588266 -0.020509649 -0.01744634 0.016994957 -0.0020573465
0.000517295 0.032418795 -0.02398685 -0.010227641 0.014068568 -0.0062433854 0.0014218051 -0.00946798
-0.0037089312 0.026372034 -0.004720957 0.013626847 0.024952943 0.024238529 0.014576354 0.021077545
-0.007329334 0.0033792774 -0.013440203 -0.029653046 0.025773458 -0.02926134 -0.02040598 -0.010213742
-0.028992739 -0.025218545 -0.016706156 0.0037524374 -0.026432673 -0.021529453 -0.017280726 -0.022908615
0.008431429 0.0015262675 0.008039052 0.028363863 -0.012731833 -0.010809098 0.011253943 0.027361346
0.011283569 -0.0027053428 0.011371309 -0.030779524 -0.020744773 -0.012409507 -0.029153327 -0.023539964
-0.024520665 0.0087691825 0.010602888 -0.0014449633 -0.007929705 0.0019305932 0.020170184 -0.023379888
0.023469586 0.014862799 -0.011189074 0.02324646 -0.00023059704 -0.0132975085 0.028178602 0.01023883
0.023763714 -0.009146105 -0.02704844 0.026549876 0.0017288779 0.016162531 -0.008352466 0.015598795
-0.02391742 0.0022785794 0.02488903 -0.007819421 0.028350847 0.011311657 0.016771121 0.031566724
-0.006760041 -0.0063321292 0.02031242 -0.014844169 -0.022629177 0.019890415 -0.028086727 -0.015721222
0.0087723965 0.0053188917 -0.019895894 -0.008850342 0.021521255 -0.02098617 0.017461486 -0.0026467566
-0.0100964345 -0.028966425 -0.007330268 0.025242884 -0.017574722 -0.02435892 -0.0030155706 0.02295248
-0.0074496116 0.031765115 0.031521503 0.029589174 -0.01710344 -0.022737047 -0.029851941 -0.00703015
-0.019566366 0.015742866 0.0040215217 0.026209006 -0.028490392 -0.025460571 -0.005555405 0.0076863836
0.027651919 -0.0014558373 0.027986724 -0.009062314 -0.0033451794 -0.011087995 -0.012229667 -0.010874432
-0.026129588 -0.00468642 -0.009638595 -0.019954832 -0.023931157 -0.030780446 -0.005856334 -0.024549404
0.029447911 -0.0073097358 0.008414178 -0.021554591 0.0026570228 -0.028533826 0.013947842 0.016041633
-0.029976266 0.01475684 0.0051412783 -0.018854843 -0.013261364 0.031239327 -0.0154393 0.028607618
0.006229898 0.015572336 -0.014746636 0.01130328 0.007533526 0.0244231 -0.030206924 -0.012073989
0.0019369456 -0.02285584 0.0065954654 0.021386879 0.019897236 -0.017152928 0.0137544535 -0.023807503
0.019338824 -0.02593823 -0.027475387 0.011946705 -0.0017827998 0.008683153 0.030386869 0.030162476
0.018749591 -0.028829299 -0.003918101 0.004667488 -0.030957816 0.02624065 0.020420404 -0.014943659
-0.0055796793 -0.018787295 0.013050781 0.006032484 -0.009769265 0.018017964 -0.0056985696 0.0045858533
0.023000007 -0.0137548335 -0.027956847 0.017985163 -0.020227483 0.011405407 -0.00953337 0.022187319
-0.0017998513 -0.014865549 -0.021128038 0.022316214 -0.01858125 0.010111938 0.024394821 -0.024278844

naim.encoder.0.ff.3.bias f4 [6]
00000000: c765 eabc e37d 9bbb 9720 8cbc f7a0 48bc
00000010: 74ca ca3c 6571 cebc
-0.028612984 -0.0047452315 -0.017105384 -0.012245408 0.02475474 -0.025200555

naim.encoder.1.layer_norm_1.weight f4 [6]
00000000: 2dab 7f3f 73b9 7f3f d5aa 7f3f 14aa 7f3f
00000010: 5fab 7f3f 45ab 7f3f
0.9987057 0.9989235 0.99870044 0.99868894 0.99870867 0.9987071

naim.encoder.1.layer_norm_1.bias f4 [6]
00000000: e799 9a3a 1957 90ba 8140 97ba c05b 143a
00000010: 8a24 88ba 44db 493a
0.0011795134 -0.0011012285 -0.0011539609 0.0005659424 -0.0010386866 0.00077002146

naim.encoder.1.attn.linear_q.weight f4 [6, 6]
00000000: 82f2 97be f2cf 04be f23c 38be 04d9 cb3d
00000010: c577 853e df53 833d 2f5f cd3b de77 473e
00000020: eb50 783e 8a02 653c f47b 8cbe e973 b4be
00000030: 86eb cf3e 25a8 063e bbb5 be3e 8f2d 1fbe
00000040: 6fd5 e33d d4cd 5abe 41c1 5abe 2fff 3dbe
00000050: 343c d03e 73bd 973e e2f0 7fbe 4ac9 92be
00000060: 4d8e 083e 067e c2bd 7ebf 963c 0437 503d
00000070: 9a5b b6be 3201 b63d a4c4 2ebb 80a0 91be
00000080: 800b cebe 6a24 543e 7d78 bebe 45fd 3abe
-0.29677206 -0.1296995 -0.17991999 0.09953502 0.2606794 0.064124815 0.0062674503 0.1947932
0.24249618 0.013977656 -0.2743832 -0.35244682 0.40609378 0.1315008 0.37248024 -0.15544723
0.111246936 -0.2136758 -0.21362783 -0.18554376 0.4067093 0.29636726 -0.24994233 -0.28669196
0.13335533 -0.09496693 0.018401857 0.050833717 -0.3561676 0.08886947 -0.00266675 -0.28442764
-0.4024315 0.20717016 -0.372013 -0.18260677

naim.encoder.1.attn.linear_k.weight f4 [6, 6]
00000000: c3d6 7c3e 72e7 8abe dda8 44be c719 83be
00000010: 3cc0 743e 081b 003e 2161 273d a4dd 113e
00000020: bc85 ec3d 50ff adbd 8ac1 14bd 762b 82be
00000030: 9306 43be 6646 a73b 2df4 45bd 49df cf3d
00000040: 8e19 453e fdac 9f3e 7b9e c73e 1039 f4bc
00000050: 4485 233e 939f a8be f69c 703e 4de8 dcbd
00000060: e830 a5be 1015 a2be 3599 adbe 6ec6 3fbe
00000070: 7c8e 3d3e f0d2 a9be 1af5 40bd cee7 7ebd
00000080: 5470 183e 9625 29be bf77 523e f09a 80be
0.246913 -0.27129704 -0.19205041 -0.25605604 0.23901457 0.12510312 0.040864114 0.14244705
0.11548945 -0.084959626 -0.036317386 -0.25423783 -0.19045477 0.0051048277 -0.048328567 0.1015001
0.1924803 0.31186667 0.38988099 -0.029812366 0.15968806 -0.32934245 0.23497376 -0.10786495
-0.32263875 -0.31656694 -0.3390595 -0.18728039 0.18511385 -0.33168745 -0.047108747 -0.062232785
0.148866 -0.16518244 0.20553492 -0.25118208

naim.encoder.1.attn.linear_v.weight f4 [6, 6]
00000000: 9c64 743e 05d1 d0be 3eb4 8ebe 5ccc 133e
00000010: a049 823d 98f7 923e a778 583e bdd6 adbe
00000020: 16c8 a33e d147 d6bd 1657 9bbd c0aa 30be
00000030: 7cdd 90bd da94 c2be d7cb fc3c 25e8 9c3e
00000040: af00 a5bd f96b a03e 83b3 3bbe 2492 293e
00000050: 3392 243d 07f3 20be ef1f cb3e 34c2 043d
00000060: d4cd 8f3c 6b03 36bd f6bb b4bc 6f0d a83e
00000070: 950f 7abd 11c5 7a3e b270 163e 0fad 873e
00000080: 4ac0 9dbe 9b86 b6be d1ef 07be 81c5 e6bd
0.23866504 -0.4078447 -0.2787189 0.14433426 0.06361699 0.28704524 0.21139775 -0.33952895
0.3198859 -0.10462917 -0.0758497 -0.17252636 -0.07073495 -0.3800419 0.030858917 0.30645862
-0.08056771 0.31332377 -0.18330197 0.16559654 0.04017849 -0.15717708 0.396728 0.03241177
0.017554201 -0.044436853 -0.022062283 0.3282275 -0.061050016 0.24489237 0.14691427 0.2649922
-0.30810767 -0.3564957 -0.13275076 -0.1126814

naim.encoder.1.attn.linear_o.weight f4 [6, 6]
00000000: 76c0 c73e 4c62 ce3e f8eb c4bd 2216 47be
00000010: efca 0cba 6728 213e bef0 0e3e b565 9c3d
00000020: a47f 993e 23d9 303d a3d7 a83e 1568 ca3d
00000030: 51c1 16bd 028f ad3e 486c 503c 2d42 823c
00000040: 879b a2bd 39ef 743e db24 f7bd d77c a23e
00000050: b56f 5f3e c433 d4bb f247 88bd 2ec3 223e
00000060: d671 cbbe 64f0 08be 3070 12be 1d87 47bd
00000070: f0b8 46be de3b 33be 3b78 453e fbec 2bbd
00000080: 9b34 90be cdf5 e6bc 88a6 053e 6209 28be
0.39014024 0.4030937 -0.0961532 -0.19442037 -0.00053708156 0.15738069 0.13959023 0.076365866
0.29980195 0.043175828 0.32977018 0.09883133 -0.036805455 0.3389817 0.012721129 0.015900696
-0.07939821 0.23919381 -0.120675765 0.3173587 0.21819957 -0.0064758975 -0.066543475 0.15894768
-0.39735287 -0.13372952 -0.14300609 -0.04871284 -0.19406486 -0.17503306 0.19284146 -0.04197405
-0.28165135 -0.028193379 0.13051808 -0.1640983

naim.encoder.1.layer_norm_2.weight f4 [6]
00000000: 88c3 7f3f f2fd 7f3f f818 803f eeeb 7f3f
00000010: 79b0 7f3f 9b19 803f
0.9990773 0.99996865 1.000762 0.99969375 0.9987865 1.0007814

naim.encoder.1.layer_norm_2.bias f4 [6]
00000000: b1f7 973a 4115 f8b7 3289 f6b9 ac8c 8639
00000010: 9cdc 8bba f7a5 3fba
0.0011594204 -2.9573801e-05 -0.00047022995 0.0002566328 -0.0010670605 -0.00073108025

naim.encoder.1.ff.0.weight f4 [1000, 6]
00000000: d431 b13e 4f7d 90be 3c55 b53e 87a5 1f3e
00000010: dbf8 6ebe 0f39 c5be a22d 223e cd65 99bd
00000020: fa42 f53d 8442 313e 5611 8dbe 5025 403d
00000030: e3b8 b3bd 6a9a bbbe 5828 913d df29 b23d
00000040: 713f 9fbe 79fd c33e 7d5a 5a3e 7953 6c3e
00000050: 5e77 b5be dbee b3be 9345 333e 6934 703e
00000060: b398 b2be f60d c83e 61ee b6bd 67cb a8be
00000070: aaaf 98be c088 bfbd d416 5b3e 1a90 8fbe
00000080: 2255 993e 9a3d d03e 2bd8 c33e 5d26 3d3e
00000090: 9b9f 29be 57b1 1dbe 656f 953e ffa2 b0bd
000000a0: 403d 7e3d 3f54 d03e ce7f cfbe 533d bfbd
000000b0: e0f0 23be fc25 85bd 46d8 893c bd04 b3bd
000000c0: 3545 ca3e 7b64 283e 07aa 82be 7de0 c93e
000000d0: c2b1 e5bd 251b 6c3d b37a 1e3d 3bf6 98be
000000e0: 576c 533e 3cb1 7cbe d78f b9be 1bcb ae3e
000000f0: 94fd 783e 90b8 2dbe 90f3 94be 151b bc3e
00000100: 2b98 123e a717 8abe f40a adbe 6cb3 2bbe
00000110: 3e09 67be a804 e43c 32dd 1b3d 71e0 cbbe
00000120: b074 503e ada1 533e eec0 bcbe 246d a73e
00000130: 2526 25be f9e3 553e 2257 cc3e 8b4f 763e
00000140: dab7 8b3e cd95 793c 72b8 6f3d 9f28 b1be
00000150: 3efd 96be 73b2 a73e 9a5c bebe 6fb4 323e
00000160: 66fb 74be 948c b43e 048c 993e eab5 bbbd
00000170: da40 56bd 6458 90be 7a4d c23e e4a5 7abe
00000180: 24e3 133e 81d1 913e 7a97 c8be 89ed ccbe
00000190: 2608 92be d468 76bd a54f 813e 3fce fbbd
000001a0: 6452 2bbe 226f 8a3e e5f7 a63e faf5 5a3e
000001b0: 3ff9 b33e 6cce bbbe 10bf b9be b379 883d
000001c0: fcb9 aebe bed8 e6bd 4a87 7d3e 9f73 ca3e
000001d0: 0cce a5bd 6bb0 b7be 5bfd 4cbe fa7f ca3e
000001e0: 8733 98bd 32b9 c1be acff 5bbe 88b9 81be
000001f0: 08b5 d7bd 1bac 96be 832a 0cbe 64f6 be3e
00000200: 58a0 44be 4d36 b1bd 6668 693e a5a9 c2be
00000210: b44f 5abe eabe 10bd d9b7 a33e 98c2 633d
00000220: 2c31 09bb 2a1c 0abe 314c 403e 2731 33be
00000230: c289 80bd 98ed 32be 0614 1b3e d8d1 cf3e
00000240: ba0f 9dbe fd16 f2bc 9817 e9bc 8b0e 50be
00000250: b464 94be e016 31be d1c5 a2be 3b30 9e3e
00000260: 6d8a 93be 61c4 7d3e 7b2f ac3e 2761 9bbd
00000270: badd c13e a76b 963e 9223 91be 6753 6d3e
00000280: d837 d53d d60a a43e 87e8 9dbe 4008 a23e
00000290: 254b 683d c626 4b3e c1c6 66be 3904 893e
000002a0: 259b ebbc 05b4 ab3e b73a 0b3d a24f 813e
000002b0: 4070 83be 3595 b8be 95e2 0f3e b61e 5c3e
000002c0: 8ce4 e43d 4d21 023e 4207 893e 8fc7 55be
000002d0: eb6d 5f3e 7f15 473e cd1a 30be e870 77be
000002e0: 06ec cebe 5513 993e d2bc c9bb 647e be3d
000002f0: c44a 93be 6c80 9cbe 6fe6 aa3e 329e 923e
00000300: a9c5 603e ac86 a63e bfaf a73e 17a7 753e
00000310: e366 963e 6392 59bd 793a d83d 7f0c b3be
00000320: 4f99 14be 157b 1ebd 3b7f a4bc ed7f cd3e
00000330: 29ed a93e e353 023e bc3f c23e f7e5 53be
00000340: 4906 a13d 3621 a5be cc21 b1be 4539 5e3e
00000350: 1c3d 053e 51d0 b1bc e594 86be 2403 963e
00000360: 905b 03bd bf0f 8e3e 26c4 8fbe 15f8 9f3e
00000370: f355 95bc a897 01be 0ff7 05bd 3693 a0be
00000380: 2919 9abd 0fb1 ba3c 7e19 9abe af85 603e
00000390: d9c9 c43e 113f 563e 8a01 4cbe ee3c 81be
000003a0: 55fe a4be 0134 80be aa46 783e 0a87 3f3e
000003b0: ef27 1bbe 0907 b93b 7b18 81bd 4f4f cb3b
000003c0: 203b cfbe bbf8 af3e f569 11be 7c62 b3be
000003d0: f636 09bc db75 f73d 662a 3e3e d8fc 51be
000003e0: 6b2e f4bc 41e6 9bbe a1eb 9cbe 4257 89be
000003f0: 432f 83be 34a3 823e 1ae2 bbbe e27d abbd
0.34608328 -0.28220603 0.3541659 0.15590487 -0.23337118 -0.38520095 0.1583772 -0.0749012
0.119756654 0.1731053 -0.2755229 0.046910584 -0.08775499 -0.36641246 0.07087773 0.086993925
-0.3110309 0.38279322 0.21323581 0.23078717 -0.35442632 -0.3514317 0.17507009 0.23457493
-0.34882125 0.3907315 -0.08932186 -0.32967684 -0.2982152 -0.09352255 0.21395427 -0.28039628
0.29947764 0.40671998 0.3825086 0.18471666 -0.16564791 -0.15399681 0.2918655 -0.08624839
0.06207013 0.40689275 -0.40527195 -0.093378685 -0.16009855 -0.065013856 0.01682676 -0.08741138
0.39505926 0.1644458 -0.25520346 0.39429083 -0.11215545 0.057643075 0.038691234 -0.2987536
0.20646797 -0.24676985 -0.36242554 0.34139332 0.24315482 -0.16964936 -0.29092073 0.36739412
0.1431586 -0.2697117 -0.3379742 -0.16767663 -0.2256212 0.027834252 0.038052745 -0.39819673
0.20357013 0.20667143 -0.36865944 0.32700455 -0.16127832 0.20887746 0.39910227 0.2405378
0.27288705 0.015233469 0.05852551 -0.34601304 -0.29490083 0.32753333 -0.37180024 0.17451642
-0.23924026 0.35263503 0.29989636 -0.09165557 -0.05230794 -0.28192437 0.37949735 -0.24477345
0.14442116 0.2848015 -0.39178067 -0.40024975 -0.28521842 -0.060158566 0.25256076 -0.12295198
-0.16730648 0.27037913 0.32611004 0.21382895 0.35151097 -0.36680925 -0.36278582 0.06663837
-0.3412627 -0.11271809 0.2475864 0.39541337 -0.08095941 -0.35876784 -0.20018522 0.39550763
-0.07431703 -0.37836605 -0.2148425 -0.25336862 -0.10532576 -0.2942818 -0.13688092 0.37297356
-0.19201791 -0.08652935 0.22793731 -0.38020054 -0.21319467 -0.03533832 0.31976202 0.0556055
-0.002093385 -0.13487306 0.18779065 -0.17499219 -0.06276275 -0.17473447 0.15144357 0.40589786
-0.3067606 -0.029551977 -0.028453633 -0.20318048 -0.2898308 -0.17293882 -0.31791547 0.30896172
-0.28816548 0.24781944 0.33629975 -0.0758689 0.37864476 0.29379007 -0.2834745 0.23176347
0.10411042 0.32039517 -0.30841467 0.3164692 0.05671229 0.1983901 -0.22536756 0.26761034
-0.028760502 0.33535782 0.03399154 0.25256068 -0.25671577 -0.36051336 0.14051278 0.2149609
0.11176404 0.12708016 0.2676335 -0.20876907 0.21819274 0.19441794 -0.17197724 -0.24164164
-0.40414447 0.29897562 -0.0061565423 0.09301451 -0.2876798 -0.30566728 0.33378932 0.28636318
0.21950401 0.3252462 0.3275127 0.23989521 0.2937537 -0.05311812 0.10558028 -0.3497047
-0.14511608 -0.0386916 -0.0200802 0.40136662 0.3318875 0.12727313 0.3793925 -0.20693193
0.07862527 -0.322519 -0.34596097 0.21701534 0.13011593 -0.021705778 -0.26285473 0.2929927
-0.032069743 0.27746388 -0.28079337 0.3124396 -0.01822946 -0.12655509 -0.032706317 -0.31362313
-0.0752433 0.022789506 -0.30097574 0.21925996 0.38435248 0.20922495 -0.19922462 -0.25241798
-0.3222529 -0.25039676 0.24245706 0.18703857 -0.15151952 0.0056465906 -0.063034974 0.0062045227
-0.40474796 0.34369454 -0.14200576 -0.35036075 -0.00837492 0.12083026 0.18570861 -0.20506608
-0.02980729 -0.30449107 -0.3064852 -0.26824385 -0.25621995 0.2551514 -0.3669594 -0.083736196
