outputs/2025-03-23/17-22-43/outputs/model_epoch_30.pt (torch, 206230 bytes, 104 tensors)

naim.embeddings.0.embeddings.weight f4 [2, 6]
00000000: 7b4a be3e 42fe 0ebf 208c a7be 77a5 a03e
00000010: 74d6 da3e 9e3f 8b3e 0000 0000 0000 0000
00000020: 0000 0000 0000 0000 0000 0000 0000 0000
0.371662 -0.55856717 -0.32724094 0.3137624 0.4274174 0.27196974 0.0 0.0
0.0 0.0 0.0 0.0

naim.embeddings.1.embeddings.weight f4 [2, 6]
00000000: 015a 3b3d 0c1b 98bd bc6b 13be f479 bd3e
00000010: 5dcb 463e 2f5c a6bd 0000 0000 0000 0000
00000020: 0000 0000 0000 0000 0000 0000 0000 0000
0.04574013 -0.07427034 -0.14396566 0.37007105 0.19413514 -0.081230514 0.0 0.0
0.0 0.0 0.0 0.0

naim.embeddings.2.embeddings.weight f4 [2, 6]
00000000: 0b85 203f fda1 2d3d a123 6ebc 863f 0e3f
00000010: 94a6 82be 29c0 ae3e 0000 0000 0000 0000
00000020: 0000 0000 0000 0000 0000 0000 0000 0000
0.6270301 0.042390812 -0.014534862 0.5556568 -0.25517714 0.34130982 0.0 0.0
0.0 0.0 0.0 0.0

naim.embeddings.3.embeddings.weight f4 [2, 6]
00000000: c0fa 223f e816 00bf 0314 343d 49f7 f53e
00000010: 051a 0e3e fad9 3a3b 0000 0000 0000 0000
00000020: 0000 0000 0000 0000 0000 0000 0000 0000
0.63663864 -0.5003495 0.043964397 0.48040226 0.13877113 0.0028511272 0.0 0.0
0.0 0.0 0.0 0.0

naim.embeddings.4.embeddings.weight f4 [2, 6]
00000000: 7942 01bf 1ed8 89be c8fc 5cbe a6e4 093e
00000010: 508f c93d 9595 363c 0000 0000 0000 0000
00000020: 0000 0000 0000 0000 0000 0000 0000 0000
-0.50492054 -0.26922697 -0.21580803 0.13466129 0.09841788 0.011144062 0.0 0.0
0.0 0.0 0.0 0.0

naim.embeddings.5.embeddings.weight f4 [2, 6]
00000000: 997c a5be 8536 103d 98e5 203f c3d4 ad3e
00000010: e9e6 08bf 377a 403d 0000 0000 0000 0000
00000020: 0000 0000 0000 0000 0000 0000 0000 0000
-0.32321623 0.035208244 0.6285033 0.33951387 -0.5347734 0.046991553 0.0 0.0
0.0 0.0 0.0 0.0

naim.embeddings.6.embeddings.weight f4 [2, 6]
00000000: 5047 00bf c777 e4bd 2930 ffbd 4418 87be
00000010: f05c 0b3e ab9f 3a3f 0000 0000 0000 0000
00000020: 0000 0000 0000 0000 0000 0000 0000 0000
-0.50108814 -0.11155658 -0.12460358 -0.263857 0.13609672 0.72899884 0.0 0.0
0.0 0.0 0.0 0.0

naim.embeddings.7.embeddings.weight f4 [2, 6]
00000000: da08 bdbe 7785 43bc 0e2e cf3d f6d1 2abf
00000010: a979 33bd 7f81 0b3f 0000 0000 0000 0000
00000020: 0000 0000 0000 0000 0000 0000 0000 0000
-0.36920816 -0.011933676 0.10116206 -0.66726625 -0.043817196 0.5449447 0.0 0.0
0.0 0.0 0.0 0.0

naim.embeddings.8.embeddings.weight f4 [2, 6]
00000000: ec83 1f3f 51b7 06be 5e08 823e d8fc 16bf
00000010: 9c8c 48be 2144 663e 0000 0000 0000 0000
00000020: 0000 0000 0000 0000 0000 0000 0000 0000
0.6231067 -0.13155867 0.2539701 -0.5897956 -0.19584888 0.22486927 0.0 0.0
0.0 0.0 0.0 0.0

naim.embeddings.9.embeddings.weight f4 [2, 6]
00000000: 8225 e03e 222e 84be d324 6e3d c2ab c9be
00000010: 907c 14bf 1f3e 04ba 0000 0000 0000 0000
00000020: 0000 0000 0000 0000 0000 0000 0000 0000
0.43778616 -0.25816447 0.058140587 -0.39388853 -0.5800257 -0.0005044657 0.0 0.0
0.0 0.0 0.0 0.0

naim.embeddings.10.embeddings.weight f4 [2, 6]
00000000: e6db e23d ab8a cc3d a762 863e ab63 7e3e
00000010: 382e 383c a5af df3e 0000 0000 0000 0000
00000020: 0000 0000 0000 0000 0000 0000 0000 0000
0.110770985 0.09987386 0.2624714 0.24842708 0.011241488 0.43688694 0.0 0.0
0.0 0.0 0.0 0.0

naim.embeddings.11.embeddings.weight f4 [2, 6]
00000000: 7603 2e3e 88b4 e4bd c262 f1be 0163 00bf
00000010: 249f b9bc 3edb 8dbe 0000 0000 0000 0000
00000020: 0000 0000 0000 0000 0000 0000 0000 0000
0.16993508 -0.11167246 -0.4714566 -0.5015107 -0.022658892 -0.2770633 0.0 0.0
0.0 0.0 0.0 0.0

naim.embeddings.12.embeddings.weight f4 [2, 6]
00000000: 3728 213e 45ad 68be c888 a73d ac92 d93e
00000010: b7e2 f83e e3f7 df3d 0000 0000 0000 0000
00000020: 0000 0000 0000 0000 0000 0000 0000 0000
0.15737997 -0.22722347 0.08180386 0.42494714 0.4861047 0.109359525 0.0 0.0
0.0 0.0 0.0 0.0

naim.embeddings.13.embeddings.weight f4 [2, 6]
00000000: 31dc 81be bdcd dabd 6551 8dbe 6b35 253f
00000010: d494 3bbe 9a58 9e3e 0000 0000 0000 0000
00000020: 0000 0000 0000 0000 0000 0000 0000 0000
-0.25363305 -0.10683773 -0.27601162 0.64534634 -0.18318492 0.30926973 0.0 0.0
0.0 0.0 0.0 0.0

naim.embeddings.14.embeddings.weight f4 [2, 6]
00000000: f07b 3c3e 3de4 253f 0e16 1abe b318 a03d
00000010: 605a 1b3f 3b29 ea3b 0000 0000 0000 0000
00000020: 0000 0000 0000 0000 0000 0000 0000 0000
0.18406653 0.6480139 -0.15047476 0.07817211 0.60684776 0.0071460283 0.0 0.0
0.0 0.0 0.0 0.0

naim.embeddings.15.embeddings.weight f4 [2, 6]
00000000: f5af 1cbf 6c5f ac3e 1d3a a43d a25c 95be
00000010: a08e 3cbe 02cb 0b3f 0000 0000 0000 0000
00000020: 0000 0000 0000 0000 0000 0000 0000 0000
-0.6120599 0.3366655 0.08018897 -0.29172236 -0.18413782 0.5460664 0.0 0.0
0.0 0.0 0.0 0.0

naim.embeddings.16.embeddings.weight f4 [2, 6]
00000000: 21d9 043f 7669 c63d c367 9c3d 6589 a9be
00000010: 29c5 063e 0764 cc3e 0000 0000 0000 0000
00000020: 0000 0000 0000 0000 0000 0000 0000 0000
0.5189381 0.09688084 0.076369785 -0.33112636 0.13161148 0.39920065 0.0 0.0
0.0 0.0 0.0 0.0

naim.embeddings.17.embeddings.weight f4 [2, 6]
00000000: b2e8 e83d 51a2 2f3e f891 073e 41a9 f6be
00000010: ddb8 973e 6c7b 8bbe 0000 0000 0000 0000
00000020: 0000 0000 0000 0000 0000 0000 0000 0000
0.11372508 0.17151763 0.13239276 -0.48176005 0.29633227 -0.272426 0.0 0.0
0.0 0.0 0.0 0.0

naim.embeddings.18.embeddings.weight f4 [2, 6]
00000000: 2f6f 0abf e53f f0be 83a6 97be 3a24 0b3f
00000010: 9a33 06bd 09e9 b7bc 0000 0000 0000 0000
00000020: 0000 0000 0000 0000 0000 0000 0000 0000
-0.540759 -0.46923748 -0.29619226 0.5435215 -0.032764055 -0.022449987 0.0 0.0
0.0 0.0 0.0 0.0

naim.embeddings.19.embeddings.weight f4 [2, 6]
00000000: 0918 063f 3a19 8ebe d44d 8b3e 0845 5fbe
00000010: afb4 d4bd 999d ac3d 0000 0000 0000 0000
00000020: 0000 0000 0000 0000 0000 0000 0000 0000
0.52380425 -0.2775362 0.27207816 -0.21803677 -0.10386025 0.08428497 0.0 0.0
0.0 0.0 0.0 0.0

naim.embeddings.20.embeddings.weight f4 [2, 6]
00000000: 287c 8d3e 055d 063e 99c4 a7be 6eb9 f8be
00000010: a3e7 e8bd 54dd 6b3e 0000 0000 0000 0000
00000020: 0000 0000 0000 0000 0000 0000 0000 0000
0.27633786 0.13121422 -0.3276718 -0.48578972 -0.11372306 0.23033649 0.0 0.0
0.0 0.0 0.0 0.0

naim.embeddings.21.embeddings.weight f4 [2, 6]
00000000: 889c 653d 0c53 323c 2f8e e63d 308b 3fbd
00000010: 8460 d63c 9144 08be 0000 0000 0000 0000
00000020: 0000 0000 0000 0000 0000 0000 0000 0000
0.056057483 0.010884058 0.11257588 -0.0467636 0.02616907 -0.13307406 0.0 0.0
0.0 0.0 0.0 0.0

naim.embeddings.22.embeddings.weight f4 [2, 6]
00000000: 02de ac3e 3aca 78be 25b6 18bd 5beb 0c3f
00000010: 4f7f d53e b55e 43be 0000 0000 0000 0000
00000020: 0000 0000 0000 0000 0000 0000 0000 0000
0.3376313 -0.24295893 -0.03728308 0.55046624 0.4169869 -0.19079097 0.0 0.0
0.0 0.0 0.0 0.0

naim.embeddings.23.embeddings.weight f4 [2, 6]
00000000: 81a3 4e3e 6cbf 083b 365a b3be 0288 513f
00000010: b03f 3fbd 5a34 83be 0000 0000 0000 0000
00000020: 0000 0000 0000 0000 0000 0000 0000 0000
0.2017956 0.002086605 -0.35029763 0.81848156 -0.046691597 -0.2562588 0.0 0.0
0.0 0.0 0.0 0.0

naim.embeddings.24.embeddings.weight f4 [2, 6]
00000000: 0e20 4b3c 8853 273e 07f6 32be 1ec6 d03e
00000010: a982 55bf a79c 3f3d 0000 0000 0000 0000
00000020: 0000 0000 0000 0000 0000 0000 0000 0000
0.012397779 0.16340458 -0.17476664 0.4077615 -0.83402497 0.046780255 0.0 0.0
0.0 0.0 0.0 0.0

naim.embeddings.25.embeddings.weight f4 [2, 6]
00000000: e720 b23e 3b34 10be 00fe 3f3f 3fe0 f03e
00000010: 18a1 c93d c671 5b3d 0000 0000 0000 0000
00000020: 0000 0000 0000 0000 0000 0000 0000 0000
0.34790727 -0.14082424 0.7499695 0.47046086 0.09845179 0.0535753 0.0 0.0
0.0 0.0 0.0 0.0

naim.embeddings.26.embeddings.weight f4 [2, 6]
00000000: 2ae2 1e3e 8f1c f4be 6544 fcbe 8d23 9b3e
00000010: 8d42 d23e 9337 b53e 0000 0000 0000 0000
00000020: 0000 0000 0000 0000 0000 0000 0000 0000
0.15515962 -0.47678038 -0.4927093 0.3030056 0.410664 0.35393962 0.0 0.0
0.0 0.0 0.0 0.0

naim.embeddings.27.embeddings.weight f4 [2, 6]
00000000: 027b b7bd d6b9 b93e d539 07bf 487c 08bf
00000010: 62ab e5bd 1511 1c3d 0000 0000 0000 0000
00000020: 0000 0000 0000 0000 0000 0000 0000 0000
-0.08959009 0.36274594 -0.5282262 -0.5331464 -0.11214329 0.03810223 0.0 0.0
0.0 0.0 0.0 0.0

naim.embeddings.28.embeddings.weight f4 [2, 6]
00000000: eebf 4cbe 1247 5a3e 50d1 47be 465d b1be
00000010: b0f8 f33d 26b1 68bd 0000 0000 0000 0000
00000020: 0000 0000 0000 0000 0000 0000 0000 0000
-0.1999509 0.21316174 -0.1951344 -0.34641474 0.11912668 -0.056809567 0.0 0.0
0.0 0.0 0.0 0.0

naim.embeddings.29.embeddings.weight f4 [2, 6]
00000000: cfec 07bf 738b 40bb e182 243f 797d 59be
00000010: b04e 943d 2962 b1be 0000 0000 0000 0000
00000020: 0000 0000 0000 0000 0000 0000 0000 0000
-0.53095716 -0.0029379993 0.64262205 -0.2123927 0.07241571 -0.34645203 0.0 0.0
0.0 0.0 0.0 0.0

naim.embeddings.30.embeddings.weight f4 [2, 6]
00000000: 92fb 0dbe 591c 833e 7614 ae3e b01c 97be
00000010: c00e 3dbd 7428 bfbe 0000 0000 0000 0000
00000020: 0000 0000 0000 0000 0000 0000 0000 0000
-0.13865498 0.25607565 0.33999985 -0.29514074 -0.046156645 -0.3733555 0.0 0.0
0.0 0.0 0.0 0.0

naim.embeddings.31.embeddings.weight f4 [2, 6]
00000000: f402 c63e 2962 7abe 9bbf 09bd d6f8 f1bd
00000010: 1320 83be 7564 8ebe 0000 0000 0000 0000
00000020: 0000 0000 0000 0000 0000 0000 0000 0000
0.38674128 -0.24451508 -0.033629995 -0.1181504 -0.25610408 -0.27811018 0.0 0.0
0.0 0.0 0.0 0.0

naim.embeddings.32.embeddings.weight f4 [2, 6]
00000000: 2452 b63d 6fcd af3e 6d70 b5be fb12 43bf
00000010: bee3 8c3e 5b7c 3cbe 0000 0000 0000 0000
00000020: 0000 0000 0000 0000 0000 0000 0000 0000
0.08902386 0.3433642 -0.35437337 -0.76200837 0.27517503 -0.18406813 0.0 0.0
0.0 0.0 0.0 0.0

naim.embeddings.33.embeddings.weight f4 [2, 6]
00000000: 15aa 30be db6c 28be 0e16 c3be 5bd0 84be
00000010: 8366 b7be 43b1 363f 0000 0000 0000 0000
00000020: 0000 0000 0000 0000 0000 0000 0000 0000
-0.17252381 -0.16447775 -0.38102764 -0.25940213 -0.35820398 0.7136423 0.0 0.0
0.0 0.0 0.0 0.0

naim.embeddings.34.embeddings.weight f4 [2, 6]
00000000: 3457 25be efcc dd3d a599 023f 9872 4ebc
00000010: c6e7 8abe 1060 0e3d 0000 0000 0000 0000
00000020: 0000 0000 0000 0000 0000 0000 0000 0000
-0.16146547 0.108301036 0.5101569 -0.0126005635 -0.27129954 0.03475958 0.0 0.0
0.0 0.0 0.0 0.0

naim.embeddings.35.embeddings.weight f4 [2, 6]
00000000: 7f4f 403e 5756 1bbe 9395 a53e b984 a93e
00000010: c18a ce3e d68e 09bf 0000 0000 0000 0000
00000020: 0000 0000 0000 0000 0000 0000 0000 0000
0.18780325 -0.15169655 0.3234068 0.33109072 0.40340236 -0.53733575 0.0 0.0
0.0 0.0 0.0 0.0

naim.embeddings.36.embeddings.weight f4 [2, 6]
00000000: 3e84 1abe 58c3 ca3e c7bd 03bf 7b58 3b3c
00000010: 6b68 313b aac1 bc3d 0000 0000 0000 0000
00000020: 0000 0000 0000 0000 0000 0000 0000 0000
-0.15089509 0.3960216 -0.5146145 0.01143467 0.0027070295 0.09216626 0.0 0.0
0.0 0.0 0.0 0.0

naim.embeddings.37.embeddings.weight f4 [2, 6]
00000000: 7ad8 543c 9d6f adbe 4e96 01be 0bea b0bd
00000010: 0db6 623e 3d79 f33d 0000 0000 0000 0000
00000020: 0000 0000 0000 0000 0000 0000 0000 0000
0.012991065 -0.33874217 -0.12654993 -0.0863839 0.2213976 0.11888359 0.0 0.0
0.0 0.0 0.0 0.0

naim.embeddings.38.embeddings.weight f4 [2, 6]
00000000: a6e4 313d ff68 98bd 3301 1e3c aa60 993e
00000010: d2ba 15be a92f 383e 0000 0000 0000 0000
00000020: 0000 0000 0000 0000 0000 0000 0000 0000
0.043430947 -0.074419014 0.009643841 0.2995656 -0.14622048 0.17986931 0.0 0.0
0.0 0.0 0.0 0.0

naim.embeddings.39.embeddings.weight f4 [2, 6]
00000000: 2aea 78bd ded2 92be edff 003f 0ba2 20bf
00000010: ec15 5f3e 0ec6 a73e 0000 0000 0000 0000
00000020: 0000 0000 0000 0000 0000 0000 0000 0000
-0.06077019 -0.28676504 0.5039051 -0.6274726 0.21785706 0.3276829 0.0 0.0
0.0 0.0 0.0 0.0

naim.embeddings.40.embeddings.weight f4 [2, 6]
00000000: c4b1 a3bd cc95 733e da9a 033e 833f 19be
00000010: 9ef4 81bd 7ee7 abbe 0000 0000 0000 0000
00000020: 0000 0000 0000 0000 0000 0000 0000 0000
-0.079928905 0.23787612 0.1285204 -0.14965634 -0.06345485 -0.33575052 0.0 0.0
0.0 0.0 0.0 0.0

naim.embeddings.41.embeddings.weight f4 [2, 6]
00000000: 25d4 04be f1ed 4cbe 12f3 ad3e 0023 463e
00000010: 425a cb3e 22d9 123f 0000 0000 0000 0000
00000020: 0000 0000 0000 0000 0000 0000 0000 0000
-0.12971552 -0.20012642 0.3397451 0.19349289 0.397173 0.5736257 0.0 0.0
0.0 0.0 0.0 0.0

naim.embeddings.42.embeddings.weight f4 [2, 6]
00000000: 0d60 9bbe 8ca3 393f 5408 683e ccb8 ca3e
00000010: 2d06 d73d 0f3c 0dbe 0000 0000 0000 0000
00000020: 0000 0000 0000 0000 0000 0000 0000 0000
-0.30346718 0.7251518 0.22659427 0.39594114 0.10499225 -0.13792442 0.0 0.0
0.0 0.0 0.0 0.0

naim.embeddings.43.embeddings.weight f4 [2, 6]
00000000: 3775 6cbe c017 2b3c 7960 293f f5a0 f33e
00000010: db36 bb3e 6ce1 7bbd 0000 0000 0000 0000
00000020: 0000 0000 0000 0000 0000 0000 0000 0000
-0.23091589 0.010442674 0.6616283 0.47583738 0.3656529 -0.061494276 0.0 0.0
0.0 0.0 0.0 0.0

naim.embeddings.44.embeddings.weight f4 [2, 6]
00000000: a6dd c6bc 4f68 973e 9cdc 733e d99d b8be
00000010: 2b12 193e ddb4 023f 0000 0000 0000 0000
00000020: 0000 0000 0000 0000 0000 0000 0000 0000
-0.024275612 0.2957177 0.23814625 -0.36057928 0.14948337 0.51057225 0.0 0.0
0.0 0.0 0.0 0.0

naim.embeddings.45.embeddings.weight f4 [2, 6]
00000000: abac e8be 6c25 17bf 9387 95be c577 4b3e
00000010: 6332 f0be 3c7e 4dbe 0000 0000 0000 0000
00000020: 0000 0000 0000 0000 0000 0000 0000 0000
-0.45444235 -0.59041476 -0.29204997 0.19869907 -0.46913442 -0.20067686 0.0 0.0
0.0 0.0 0.0 0.0

naim.embeddings.46.embeddings.weight f4 [2, 6]
00000000: f9a7 89bd 521f b13d 72ea 8e3e 0180 c3bd
00000010: 30d7 0d3e 687d 433e 0000 0000 0000 0000
00000020: 0000 0000 0000 0000 0000 0000 0000 0000
-0.06721491 0.08648552 0.27913243 -0.09545899 0.13851619 0.19090807 0.0 0.0
0.0 0.0 0.0 0.0

naim.embeddings.47.embeddings.weight f4 [2, 6]
00000000: 8ff3 a13e 6f32 fabd 8b7e efbe 8367 7fbe
00000010: 0b44 8c3e c8d5 97be 0000 0000 0000 0000
00000020: 0000 0000 0000 0000 0000 0000 0000 0000
0.31631133 -0.12216651 -0.46776232 -0.2494183 0.27395663 -0.2965529 0.0 0.0
0.0 0.0 0.0 0.0

naim.embeddings.48.embeddings.weight f4 [2, 6]
00000000: d7c4 a43c fd08 863e c756 af3d 8214 a53e
00000010: 790b 2e3f 8937 c03e 0000 0000 0000 0000
00000020: 0000 0000 0000 0000 0000 0000 0000 0000
0.020113392 0.26178733 0.08561473 0.3224221 0.67986256 0.3754237 0.0 0.0
0.0 0.0 0.0 0.0

naim.embeddings.49.embeddings.weight f4 [2, 6]
00000000: 600d 77be 102b 813e 4ea7 943e a933 febd
00000010: b8f7 c0be dbcb d33e 0000 0000 0000 0000
00000020: 0000 0000 0000 0000 0000 0000 0000 0000
-0.24126196 0.25228167 0.29033893 -0.12412197 -0.37688994 0.41366467 0.0 0.0
0.0 0.0 0.0 0.0

naim.embeddings.50.embeddings.weight f4 [2, 6]
00000000: 959f 063f 0c6c c43e c108 d3bd 5b0c 2ebe
00000010: 9d87 dbbd a057 0dbf 0000 0000 0000 0000
00000020: 0000 0000 0000 0000 0000 0000 0000 0000
0.5258725 0.38363683 -0.10304404 -0.169969 -0.107192256 -0.5521183 0.0 0.0
0.0 0.0 0.0 0.0

naim.embeddings.51.embeddings.weight f4 [2, 6]
00000000: 2cd1 4a3d 1a83 393e 6ea3 0a3f 7c04 27bf
00000010: c326 b43e 0a2d 13be 0000 0000 0000 0000
00000020: 0000 0000 0000 0000 0000 0000 0000 0000
0.049515888 0.18116418 0.54155624 -0.6524122 0.35185823 -0.1437265 0.0 0.0
0.0 0.0 0.0 0.0

naim.embeddings.52.embeddings.weight f4 [2, 6]
00000000: 4a0b 9c3e 1590 6fbe b5ca 6cbe bdc6 61be
00000010: 50ae da3d d0d1 b2be 0000 0000 0000 0000
00000020: 0000 0000 0000 0000 0000 0000 0000 0000
0.30477363 -0.23394807 -0.23124202 -0.22048469 0.10677779 -0.349257 0.0 0.0
0.0 0.0 0.0 0.0

naim.embeddings.53.embeddings.weight f4 [2, 6]
00000000: 763a 7bbe 00cb 2ebe 5ba5 233e 5543 72bd
00000010: 02f8 643f 1800 92bb 0000 0000 0000 0000
00000020: 0000 0000 0000 0000 0000 0000 0000 0000
-0.2453402 -0.17069626 0.15981047 -0.059146244 0.8944093 -0.0044555776 0.0 0.0
0.0 0.0 0.0 0.0

naim.embeddings.54.embeddings.weight f4 [2, 6]
00000000: b285 363e c8eb 063f 0351 c73e af7b 473e
00000010: 06c1 1abf 525a 023e 0000 0000 0000 0000
00000020: 0000 0000 0000 0000 0000 0000 0000 0000
0.17824438 0.52703524 0.38928995 0.19480775 -0.6045078 0.12729767 0.0 0.0
0.0 0.0 0.0 0.0

naim.embeddings.55.embeddings.weight f4 [2, 6]
00000000: 57b5 a23e 15b8 9fbe 84b4 0cbf 0050 0b3f
00000010: f3fc bcbd f9bd 22be 0000 0000 0000 0000
00000020: 0000 0000 0000 0000 0000 0000 0000 0000
0.31778976 -0.3119513 -0.54962945 0.54418945 -0.09227934 -0.15892781 0.0 0.0
0.0 0.0 0.0 0.0

naim.embeddings.56.embeddings.weight f4 [2, 6]
00000000: f89c cbbe 7823 eabe 8e37 3e3e aaee 91bd
00000010: 6e02 d0be 4779 4ebd 0000 0000 0000 0000
00000020: 0000 0000 0000 0000 0000 0000 0000 0000
-0.39768195 -0.45730186 0.1857588 -0.071256 -0.40626854 -0.050408628 0.0 0.0
0.0 0.0 0.0 0.0

naim.embeddings.57.embeddings.weight f4 [2, 6]
00000000: 9dd4 dd3e e7a1 a6be d8eb 4bbe 4eae 833e
00000010: 3b33 333f 1568 7dbc 0000 0000 0000 0000
00000020: 0000 0000 0000 0000 0000 0000 0000 0000
0.43326274 -0.32545397 -0.19914186 0.2571892 0.70000046 -0.01546671 0.0 0.0
0.0 0.0 0.0 0.0

naim.embeddings.58.embeddings.weight f4 [2, 6]
00000000: b7fa e4bd b605 e83b 6c8a 0a3d 97b8 20bd
00000010: 26f6 c23d 2585 82be 0000 0000 0000 0000
00000020: 0000 0000 0000 0000 0000 0000 0000 0000
-0.111806326 0.007080759 0.033823416 -0.03923854 0.09519605 -0.25492206 0.0 0.0
0.0 0.0 0.0 0.0

naim.embeddings.59.embeddings.weight f4 [2, 6]
00000000: 8b56 9e3e ec01 2cbe 2f98 7fbe c51f 2e3f
00000010: 9ab2 8d3e db19 d53e 0000 0000 0000 0000
00000020: 0000 0000 0000 0000 0000 0000 0000 0000
0.30925402 -0.16797608 -0.24960397 0.68017226 0.27675325 0.4162129 0.0 0.0
0.0 0.0 0.0 0.0

naim.embeddings.60.embeddings.weight f4 [2, 6]
00000000: 7a2e 09bf 7042 60bd 5047 703d 4173 043f
00000010: 5b10 873e 3075 c13e 0000 0000 0000 0000
00000020: 0000 0000 0000 0000 0000 0000 0000 0000
-0.5358654 -0.05475086 0.05866176 0.51738364 0.26379666 0.3778472 0.0 0.0
0.0 0.0 0.0 0.0

naim.embeddings.61.embeddings.weight f4 [2, 6]
00000000: 9f52 69be 2fcc 173d 364f 0e3e 95d3 8abd
00000010: 0b1c 643e 2bbd fcbd 0000 0000 0000 0000
00000020: 0000 0000 0000 0000 0000 0000 0000 0000
-0.22785424 0.03705996 0.13897404 -0.06778637 0.22276323 -0.123407684 0.0 0.0
0.0 0.0 0.0 0.0

naim.embeddings.62.embeddings.weight f4 [2, 6]
00000000: 9d2e 8e3e 9269 173e ece8 2cbf 4783 76bd
00000010: 3f3b babe 7c03 e5be 0000 0000 0000 0000
00000020: 0000 0000 0000 0000 0000 0000 0000 0000
0.27769938 0.14786366 -0.6754291 -0.06018379 -0.36373326 -0.4472922 0.0 0.0
0.0 0.0 0.0 0.0

naim.embeddings.63.embeddings.weight f4 [2, 6]
00000000: e4b5 3b3f c9fe 9d3e 6923 96be 0e54 2d3e
00000010: 4b69 4ebe a727 1fbe 0000 0000 0000 0000
00000020: 0000 0000 0000 0000 0000 0000 0000 0000
0.7332442 0.30858448 -0.2932389 0.16926596 -0.20157354 -0.1554247 0.0 0.0
0.0 0.0 0.0 0.0

naim.encoder.0.layer_norm_1.weight f4 [6]
00000000: 16ba 763f 6bfa 753f 6d92 783f 0d41 7d3f
00000010: c8df 763f f495 783f
0.96377695 0.9608523 0.9709843 0.98927385 0.96435213 0.9710381

naim.encoder.0.layer_norm_1.bias f4 [6]
00000000: 4c14 013c c305 03bc 05c6 213c 44fd 04bc
00000010: 4ce0 233c 8cfd 22bc
0.007878374 -0.007996979 0.009873872 -0.008117024 0.010002207 -0.009948146

naim.encoder.0.attn.linear_q.weight f4 [6, 6]
00000000: 2999 8abd 9a71 7b3c 5742 a7bd 7faa b8be
00000010: 66fa cfbc 068a 253e e74e dcbc 4165 27be
00000020: 95c9 693b 5af6 523d 3b82 abbd 9a87 8fbe
00000030: 59bf 3abe f3ab 0fbd 752d ee3d 2387 a53e
00000040: ea70 a43b be62 f03d f63b 473e 4248 11be
00000050: 6da2 cebd deaf 6e3e 5c00 833e 4d0c 813d
00000060: d76d 8dbe 9cc7 463e 9958 98be 53ca 2c3e
00000070: cf35 003d 1179 d23d 82ae b7be a08a d9bd
00000080: b104 0c3e 31b9 8c3e c6cb a7bd a46b a63e
-0.06767494 0.015346909 -0.0816695 -0.36067578 -0.025387954 0.16165933 -0.026893092 -0.16347219
0.003567313 0.05150447 -0.08374449 -0.28033143 -0.18237056 -0.035076093 0.11629764 0.32329664
0.005018343 0.117375836 0.19456467 -0.1418772 -0.10089574 0.23309276 0.25586212 0.06301174
-0.27622864 0.19412082 -0.29755095 0.16874056 0.031301316 0.10276998 -0.35875326 -0.10622144
0.13673665 0.2748504 -0.081931636 0.32503998

naim.encoder.0.attn.linear_k.weight f4 [6, 6]
00000000: b4d4 5ebd d763 54be 73f5 0ebe 2a99 eaba
00000010: 3235 2ebd 601f 243e 0605 40be 1454 a5bd
00000020: 1221 bbbe 2d14 973e d9ab 3bbd e18f 90be
00000030: d58a cebb 2575 7d3a b3d5 a63d 4aae e4bc
00000040: 1736 5f3e 843e d8bd de17 b1bd 51e0 7fbd
00000050: bbf8 293d 8a10 943e 6280 97ba ca02 8d3e
00000060: 4fe7 8f3e 4a9c 31be 246a 3ebc 9158 1ebe
00000070: 8029 063e f0fd dabd 9e20 c93d 0487 0b3b
00000080: 0291 6cbe 4f0f 79be d760 b8be ea73 45be
-0.05440207 -0.20741211 -0.13960819 -0.001789843 -0.0425312 0.16027594 -0.18751916 -0.08072677
-0.36548668 0.2950758 -0.045818184 -0.2823477 -0.006303171 0.000966864 0.08146229 -0.027915139
0.21797977 -0.10558799 -0.086471304 -0.062469784 0.041496973 0.28918868 -0.0011558647 0.2754119
0.28106162 -0.17344776 -0.011621986 -0.15463473 0.13101768 -0.10692966 0.09820674 0.0021290192
-0.23102191 -0.24322246 -0.36011383 -0.19282499

naim.encoder.0.attn.linear_v.weight f4 [6, 6]
00000000: a101 fb3d 8e2f 983c 93c3 9b3e 6ec7 b8be
00000010: 748a b5bc 31a1 b2be 8d1a 7cbb 436d 0d3e
00000020: d33e b8be 93a1 b53e 3f1b fcbd 0175 b63e
00000030: 0937 7abd 5553 583e d5e8 b73e feae 12be
00000040: 3c62 b9bd b9f8 523e 3893 aebe 9d26 5a3e
00000050: 4869 7abe 34d8 bf3e 74ec 85be 6ad0 1dbe
00000060: 3d8f 973e 3809 35be 3853 a13e f2c3 863e
00000070: 711a ba3e cb13 c7be 14a9 8c3c 3a50 16be
00000080: b7aa c43d 587e a0be ea48 2e3e ef0e c2bb
0.1225617 0.018577363 0.3042265 -0.36089653 -0.022160746 -0.34888604 -0.0038467974 0.13811211
-0.3598543 0.35474834 -0.12309884 0.35636142 -0.061087642 0.21125539 0.35919824 -0.14324567
-0.0905194 0.20602693 -0.34096694 0.21303792 -0.24454224 0.37469637 -0.26156962 -0.15411535
0.2960147 -0.17679298 0.31508803 0.2632137 0.36348298 -0.38882288 0.017170466 -0.14679042
0.09602874 -0.31346393 0.17020002 -0.0059221904

naim.encoder.0.attn.linear_o.weight f4 [6, 6]
00000000: 2ba3 1ebe e1eb a7be b708 343e 50eb e1bd
00000010: 86b5 863e 9d2b 303d 83fc b13d f226 e6bc
00000020: 68cc bfbc cb08 cfbd 05e2 a0be fb02 5f3e
00000030: cc89 83be 8ddb 6b3e 9e80 10be a511 7c3e
00000040: 470d ae3e 1065 80be b1f5 af3e 94cc ae3c
00000050: 721a 98be bd78 353e bb4b 773e fbc6 bb3e
00000060: 480e c2be 6073 bc3e 3866 9e3e 7a84 cc3e
00000070: 5ac0 633e f2ea 42be 4b70 9e3e aead be3e
00000080: 6e06 18be ba7e 78bd b98f a43e 64b9 a63e
-0.15491931 -0.3279715 0.1758145 -0.110312104 0.26310366 0.043010343 0.08690741 -0.028094742
-0.023412898 -0.10109099 -0.3142244 0.2177848 -0.25691068 0.2303297 -0.14111564 0.24616106
0.33994505 -0.25077105 0.34367135 0.021337785 -0.29707676 0.17721839 0.24149983 0.36675248
-0.3790152 0.36806774 0.30937362 0.39944822 0.22241345 -0.19034937 0.30945048 0.37241882
-0.14846203 -0.06066773 0.32140902 0.32563317

naim.encoder.0.layer_norm_2.weight f4 [6]
00000000: e7d5 7c3f 18f2 7b3f 3263 7a3f 6fb8 7b3f
00000010: 21c0 7b3f b77b 7c3f
0.9876389 0.9841628 0.9780761 0.983283 0.9834004 0.98626274

naim.encoder.0.layer_norm_2.bias f4 [6]
00000000: 9ad3 b4ba 6f23 d7b9 259f ad3a 7cbe 0bba
00000010: 2edd 9b39 2b20 0539
-0.0013795972 -0.00041034396 0.0013246281 -0.00053308136 0.00029728696 0.00012695852

naim.encoder.0.ff.0.weight f4 [1000, 6]
00000000: 9abe 713e 93b4 8c3e 0dd3 31be aa6d 3ebd
00000010: 2d38 04be 5d99 343e 3e61 a13d 4453 8ebe
00000020: 8357 09bd 3f8e 96be 2e9a b1be c3a2 ac3e
00000030: 7e7d 2fbe 1e29 183e f527 75bd 7205 84bd
00000040: 369b 273b e876 903e 3d5e 05bd c65b 983e
00000050: 9b1b 4d3e eb05 783e 27ec a9be e40f 19be
00000060: b6d6 97be 22a2 83bd b4e5 5dbd f3ec 713d
00000070: 53c0 a73e 57f6 1f3e 6d8a 7dbe 0f0d 60be
00000080: cbe9 8a3e fdd1 ca3c a1f7 ae3d 53d1 39be
00000090: 717f 1dbd fcdf b63d e1f3 6abe e702 6c3e
000000a0: b368 2a3e 53e7 53be b7d5 06be 5b78 87bd
000000b0: ca35 153d 2288 e2bd 54a0 b43e 8a03 b5be
000000c0: a6df 48be b2e5 58be 9cfc ad3d c75a 313d
000000d0: 587d c1bd 485e a03e 4abc a0be 4dc8 d93d
000000e0: 81c2 3fbe e22d 81bd bacb b5be 724d 88be
000000f0: 0f9e 9ebe 72ce 103e 8f27 f0bd 6f20 353e
00000100: 272e 3bbe 5a25 9ebd d254 0f3d a9a0 9b3e
00000110: 0dae 97bd d07a 4d3e c559 a73d bc97 5e3e
00000120: ec7b 673e e14e 0b3e 5dba c6bd d2d9 b3bd
00000130: 9f6f 033e 0e4a 403e 796d a3bb bac1 2a3e
00000140: ca57 54be deb7 443e e537 01bd bd0e 78be
00000150: 1924 25be 281e 8cbe 3091 4d3d d716 50be
00000160: e77a a7bd 17c2 afbc bbf4 57be 9f75 1c3c
00000170: 6de6 f8bc d91d bc3d 6505 843e 9b30 56be
00000180: 74dc 3c3e 28bb 8cbc a2a6 47be ffde 17be
00000190: a856 8e3d 4347 4d3d 53ed 29bc aa62 29be
000001a0: 96c2 2d3e 38ad 2b3d 0fe1 b6be 78ca 3cbd
000001b0: 2f72 97bd cc8f 09be 7537 41be 0a9c 96be
000001c0: 4553 ba3e 3541 abbe 1c91 af3e dd66 91be
000001d0: 9b9c 9dbd d9ce 09be 068e 3bbe 0c4d 033e
000001e0: fcd8 4d3e a512 6dbe 026d 1dbe 9ec3 303e
000001f0: 8aef 22bd 9dbd a93d c13d 333e 3086 e8bd
00000200: a494 40be a0ae eb3d a4e3 ebbd 9494 6ebe
00000210: abaa 2fbe d82e 25be 3c2b bc3e c19e 503d
00000220: ad22 153e 9cc1 293d 743c 72be 63f4 823e
00000230: 0a60 00bd ad0f 96bd 07ec 963e 87bc 2dbe
00000240: fe35 763d 5c3c 9fbe bff2 2f3e b411 023e
00000250: 876e 98be def4 4c3e b139 263d de21 37be
00000260: 487b 9e3e c9a4 163e 287e ea3d 6e53 06be
00000270: 2b5c 44be c188 40be b3d4 ff3d 96ac ab3d
00000280: 195f 5abe b22f ab3e 628c 4d3e aa79 00be
00000290: df6c 303e ff24 0bbe c3d7 c63d f9a3 9b3e
000002a0: a470 a5be d35e 2bbe 67ce 85bc b425 403d
000002b0: 04b2 98be 57fb 6dbe 4b63 dbbc 034f 34bd
000002c0: 0a24 6c3d db68 e53c 9c41 813d ede1 9e3c
000002d0: 355e dd3c bac8 55bc 0c39 e43d 426f 783e
000002e0: a24d 2abe 2d4b 39be d9b6 153e 53cf 85be
000002f0: 6cd3 6b3e df33 1e3e 29b9 2c3d 7bde 12be
00000300: d4aa f33b 2c7a 91be ee62 a8be 3dae b03e
00000310: 9b42 a8be 6ae2 99be 3ac6 fbbd e8bd 053c
00000320: 195f 743d abab 26be 4885 b1bc bd25 8bbd
00000330: 101e 9b3e 4eeb a03e cf08 073e feb9 a6bb
00000340: 3595 883e 89f8 94be 5e10 083e 8ced 4bbe
00000350: f931 8f3e 519f a4be 8efe e83d 37d0 97be
00000360: a49d 4e3e a518 593d a1b9 9f3e 4503 8abe
00000370: c88a 673e 1e27 6ebe 969d 3dbe aa30 f03d
00000380: 0c11 20bd 1037 91be 22d4 9dbe 484b 9ebd
00000390: 9040 993d b860 a33e 71e4 853e cf4b e23a
000003a0: 556b 58be f823 a6be 011a a73e 1185 45be
000003b0: 8094 47bd 092e 95be 48ec 78be 5703 523d
000003c0: 5b30 87bd 8058 8f3c 458a 313a 0e62 833b
000003d0: ecbf 4dbd 858f 8dbb a469 123e 4f7a 843e
000003e0: 7bf0 9c3e 7c71 96be 998d 9cbe 0643 18bd
000003f0: 97da 9dbc 49e3 433e 3a62 b03e ade5 923d
0.23607865 0.27481517 -0.17365666 -0.046491303 -0.12912054 0.17636628 0.078798756 -0.27797902
-0.033530723 -0.294054 -0.34687942 0.33717927 -0.17137715 0.14859435 -0.05985256 -0.06446351
0.002557469 0.28215718 -0.032560576 0.29757518 0.20030062 0.24221008 -0.33187982 -0.14947468
-0.29656 -0.06427409 -0.05417414 0.059063863 0.3276392 0.15621315 -0.24759836 -0.21879981
0.27131495 0.024758333 0.08543325 -0.18146257 -0.038451616 0.089294404 -0.22944595 0.23047982
0.16641502 -0.20693712 -0.13167463 -0.06614753 0.03642825 -0.110611215 0.3527857 -0.35354263
-0.19616565 -0.21181372 0.08495447 0.043299463 -0.094477355 0.3132193 -0.31393653 0.106339075
-0.18726541 -0.063075796 -0.35506994 -0.26621586 -0.30979964 0.14141253 -0.11726295 0.17688154
-0.18279324 -0.07721968 0.034993 0.3039601 -0.074062444 0.2006638 0.08171419 0.2173757
0.22605866 0.13604309 -0.09703515 -0.0878178 0.12835549 0.1877825 -0.0049874154 0.16675463
-0.20736614 0.19210765 -0.031547446 -0.24224372 -0.16127051 -0.27366757 0.05018729 -0.20321213
-0.08177739 -0.021454854 -0.21089451 0.009549527 -0.030383313 0.091853805 0.25785366 -0.20916979
0.18443471 -0.017179087 -0.19497159 -0.1483116 0.06950122 0.05011679 -0.010371524 -0.16541544
0.1696876 0.04191324 -0.3571858 -0.046091527 -0.07394826 -0.1343376 -0.18868811 -0.29415923
0.36391655 -0.33448187 0.34290397 -0.2839879 -0.07695886 -0.13457812 -0.18315896 0.1282236
0.20102304 -0.23151644 -0.15373614 0.17262122 -0.039779224 0.08288119 0.17504026 -0.11353719
-0.18806702 0.115079165 -0.115180284 -0.23298866 -0.17154948 -0.1613115 0.36751735 0.05093265
0.14564009 0.041444406 -0.23655874 0.25577077 -0.03134159 -0.07327209 0.2947695 -0.16966449
0.060110085 -0.31100738 0.17182444 0.12702066 -0.29771826 0.20015284 0.040582363 -0.17884013
0.3095343 0.14711298 0.11449844 -0.13117763 -0.19175784 -0.18802167 0.12491741 0.083825275
-0.2132534 0.33434826 0.20073083 -0.12546411 0.17229031 -0.13588332 0.09709122 0.3039854
-0.323125 -0.16735391 -0.016333772 0.046910957 -0.29823315 -0.2324041 -0.026780745 -0.044020664
0.057651557 0.0280041 0.06311342 0.01939484 0.02702246 -0.013048345 0.11143693 0.24261191
-0.16631177 -0.18095084 0.14620532 -0.26134738 0.2302987 0.15449475 0.04216877 -0.14342682
0.007436136 -0.28413522 -0.32887977 0.34507933 -0.32863316 -0.30055553 -0.12293668 0.008162953
0.059661005 -0.16276424 -0.021669999 -0.067943074 0.30296373 0.31429523 0.13186954 -0.00508809
0.26676336 -0.29095867 0.13287494 -0.19914836 0.27967814 -0.321528 0.113766775 -0.29651043
0.20177323 0.05300202 0.3119631 -0.2695562 0.22611535 -0.2325711 -0.18517146 0.11728032
-0.039078757 -0.28362322 -0.30825907 -0.077292025 0.074830174 0.31909728 0.2615085 0.0017265024
-0.21134694 -0.32449317 0.32637027 -0.19289042 -0.048725605 -0.29136685 -0.24308884 0.051272716
-0.0660102 0.017498255 0.0006772618 0.0040094918 -0.05023186 -0.0043200874 0.14298111 0.25874564
0.30652222 -0.29383457 -0.3057678 -0.037173294 -0.01926927 0.19129671 0.3444994 0.071727134

naim.encoder.0.ff.0.bias f4 [1000]
00000000: be48 653e 8bff 35be 26c2 15bd 8e5a d13c
00000010: 0b38 7d3e 2604 1b3e 21af b73e 0105 3abe
00000020: af05 a9bc 769c 44bc ed88 973e 1053 b23e
00000030: a1d0 b13d d3d5 94be 4fb5 83be e481 6a3d
00000040: 7f61 a4be 1367 dbbd 6567 88be fc0f 3c3e
00000050: 5051 17bd 4cc1 8fbe 0088 713e 1cfb a4be
00000060: bbf3 02bd 29eb b73e a3b5 353e efab a0be
00000070: 094c 1f3d 0be0 34bd f61e 1f3e 0611 b13e
00000080: bcfe 9e3e 71e2 babc 9e18 263e 480e b9be
00000090: c030 933e 2b15 393e 43f1 7ebe 72b3 a8bd
000000a0: 47b8 f9bd d415 4dbe a9c0 113e 664c afbd
000000b0: fe05 143e ea00 b7bd 9206 913e 5b17 03be
000000c0: a978 36bd 7ead c5bd 2ec9 983c 59bd eabd
000000d0: b470 7ebe 5ab7 b2be 5e1f 623e 8278 513d
000000e0: e03c 67be a31a 3b3e 8e17 133d 5d86 e5bd
000000f0: 227c 46bc 31f9 ef3c d5eb 833e 4365 acbe
00000100: 0b37 8ebe 22ae 94be 0fd1 8fbe 77dd c03b
00000110: f062 493e 895b be3d f76e 103e 52cb 183d
00000120: a60f 64bb a945 a9be 1322 a73e 0107 b83e
00000130: 6890 993b e7b1 803d 779d 423d 9de3 bc3e
00000140: b998 03bb c748 0ebd 700b 42be 4f72 ba3d
00000150: 82dc 253e ac22 9dbe 4735 e33d f141 b03d
00000160: 3349 213e 371a 203e a0cf a1bd 107e 3b3d
00000170: 3b74 80be a367 5d3e ea46 9cbe 7bb0 a3be
00000180: ad8b 86be b368 42be aa9a c63b 84a2 6c3e
00000190: 3c40 02bd 07d4 863e faf9 2ebd 56bd 9e3e
000001a0: 9b89 803e 297f 663e 68c9 063e c3a7 75be
000001b0: c61e ba3e 748b b3be 71c3 7ebe fe35 53be
000001c0: c4f3 97bd eba1 1c3e d00d 8c3d c33c a1be
000001d0: 1469 b73e 4b95 b23e cb54 293e 6cc3 b8be
000001e0: c8a8 503e 6b34 c93d 29f5 d7bc 04ba 9abe
000001f0: fad3 a03e c002 b7bd 7e26 97be 74b2 8e3e
00000200: e0b9 093e d2e5 b73d 57b3 6c3e 16f6 de3d
00000210: 03fc 89bd 86bc 26bd c52c 9c3e 7317 5bbb
00000220: 972a 9bbe ccb7 79be 8e47 89be 039d ba3c
00000230: bb25 893e 164a 593e 659e c13d 75a8 f03d
00000240: 2ba9 21be af55 b13e 1a3c fc3d 165f 5fbe
00000250: 001e 6fbe b968 a7be daa4 a1bd f0c6 863e
00000260: c478 a23c 5f16 23be 282d c23d 1ccd 7abe
00000270: f337 cb3d 0904 7d3e fde2 2f3e a60c c3bd
00000280: 8a73 dfbd b54a 143e 789b 563e 59bc 8abd
00000290: 97ad ba3b cef5 cdbc 7775 c1bc 24a3 a5be
000002a0: 64df 98be b138 a03e 7164 24be cbeb 873e
000002b0: bd10 623e 5e37 27bd 1559 26be 578e 4c3b
000002c0: 368e 5cbd e765 51be a7ba b83e eab2 7dbc
000002d0: 3146 10bd ca44 74be d92c 613d 2be1 513d
000002e0: 0204 bc3e 806c babd d4ba 4a3e 5cce a83c
000002f0: 1129 403e 1e20 cf3b fb5b 14bd d3fe 0f3e
00000300: 466a 1abe 2bff 593e 0350 9bbe 7582 82be
00000310: 7de3 b53e 1f9c febd 4b6d 92be 3c46 85be
00000320: d436 b83e c05f dabc f711 9cbe 5401 14bd
00000330: 56f8 24be 3203 70be 2e6b 2abe ae67 8d3e
00000340: 3b3a 073e e56a 533e 50d6 cf3c ab35 07be
00000350: f78a 0bbe 3d59 72be 57b0 83be 3ffe 9fbe
00000360: 13b0 6d3d 8298 423e a248 983e 0f36 eabb
00000370: 4966 12bd 6f07 25bc e11a 093e ce4b 19bd
00000380: 68d0 f1bd 9b75 a2bd d2e3 b7be 1ee1 8dbe
00000390: 2f69 0cbe 5cd3 033d edf4 5ebe f519 fd3d
000003a0: d897 3fbe 621e b83e 2682 a4be 5abc 4c3e
000003b0: 846c 34be 7e23 dfbd 75a8 b0be 9e76 afbe
000003c0: 76aa b2be baf5 d6bb a41c af3e 1412 203e
000003d0: ee6a 653e fd68 9d3d 006b f9bd 6a9e f5bd
000003e0: a390 afbd fb5d afbe f552 403e fd4f c2bd
000003f0: 337b 4bbe a8ef a63d 0a88 a1ba a36e 443e
0.2239103 -0.17773263 -0.036562108 0.025555875 0.2472841 0.15138301 0.358758 -0.18165971
-0.020632593 -0.012000194 0.29596654 0.34828997 0.08682371 -0.29069385 -0.25724265 0.05725278
-0.32105634 -0.10713019 -0.26641384 0.18365473 -0.03694278 -0.2807716 0.23587036 -0.3222283
-0.03197072 0.359216 0.1774507 -0.31381175 0.038890872 -0.044158977 0.15539154 0.345833
0.31053722 -0.022813054 0.16220328 -0.36143708 0.2874813 0.18074481 -0.24896722 -0.082373515
-0.12193351 -0.20027858 0.1423365 -0.08559494 0.14455411 -0.08935721 0.28325325 -0.12801878
-0.044548664 -0.09652232 0.018650617 -0.114618964 -0.2484768 -0.3490551 0.22082278 0.051140316
-0.22581816 0.1827188 0.035911135 -0.112072684 -0.0121145565 0.029293628 0.25765863 -0.33671007
-0.2777637 -0.29039103 -0.28089187 0.0058857757 0.19666648 0.09294803 0.1410483 0.037303276
-0.0034799366 -0.3306096 0.32643184 0.35942844 0.004686404 0.06283932 0.04751345 0.36892405
-0.0020080043 -0.034737375 -0.18949676 0.09103834 0.16197398 -0.30690515 0.11094146 0.08606327
0.1575058 0.15635 -0.079009295 0.04577452 -0.25088677 0.21621566 -0.30522853 -0.3197058
-0.2627844 -0.18985252 0.006060918 0.2310887 -0.03179954 0.2633364 -0.042718865 0.31003827
0.25104985 0.22509445 0.13162768 -0.23989777 0.36351603 -0.35067332 -0.24879242 -0.20626065
-0.074195415 0.15296142 0.06838572 -0.3149167 0.35822356 0.34879526 0.16536252 -0.36086595
0.20376885 0.09824451 -0.026362019 -0.30220044 0.31411725 -0.089360714 -0.29521555 0.27870524
0.13449812 0.089793816 0.23115288 0.10886781 -0.067375205 -0.040707134 0.30502906 -0.0033430725
-0.3030593 -0.24386519 -0.26812404 0.022779947 0.267866 0.21219668 0.094540395 0.11750881
-0.15787189 0.34635684 0.12316151 -0.21813616 -0.23351288 -0.32697085 -0.07892771 0.26323652
0.019832976 -0.15926503 0.09481269 -0.24492306 0.09922781 0.2470857 0.17176433 -0.09523897
-0.10910709 0.14481623 0.20957744 -0.06774206 0.005696963 -0.025141623 -0.023615582 -0.3235103
-0.29857934 0.31293252 -0.1605394 0.26547083 0.22076698 -0.040824287 -0.1624492 0.003121277
-0.05384656 -0.20449029 0.36079904 -0.015484551 -0.03522319 -0.23854366 0.05497441 0.051240128
0.36721808 -0.09102726 0.19797832 0.020606212 0.18765666 0.0063209673 -0.036220532 0.14062051
-0.15079603 0.21288745 -0.30334482 -0.25490156 0.35525122 -0.124321215 -0.2859901 -0.26030147
0.3597933 -0.026656985 -0.30482456 -0.03613408 -0.16110358 -0.23438719 -0.16642448 0.27618164
0.13205807 0.20646246 0.025370747 -0.13204066 -0.1362723 -0.23666854 -0.25720474 -0.31248662
0.058029246 0.1900349 0.29742914 -0.0071475576 -0.035742078 -0.010072573 0.1338916 -0.03742581
-0.118073285 -0.07932588 -0.35916 -0.27710813 -0.13712 0.03218399 -0.2177312 0.123584665
-0.18710268 0.3596068 -0.32130545 0.19993725 -0.1761952 -0.108954415 -0.34503523 -0.34270185
-0.34895676 -0.0065600546 0.3420154 0.15631896 0.22404072 0.076860406 -0.12178612 -0.11993106
-0.08572509 -0.3425139 0.18781646 -0.09487913 -0.19871216 0.081511796 -0.0012323868 0.1918283

naim.encoder.0.ff.3.weight f4 [6, 1000]
00000000: 0199 92bc a523 55bb 0b0f 4abb f4e4 19bb
00000010: 6b8c 1ebc b73d 8c3b ff85 62bb 0dad 30bc
00000020: 08a3 ce3c 5c6c d53c b371 35bb 0624 cebb
00000030: 8c96 00bd 023e 8abc ad81 88bb 02c4 c5bb
00000040: aeb7 143c 1efa 60bb 4942 a9ba ae0b c73b
00000050: 6b25 1c3d 08fb 963c 11dd 9abc f179 dcba
00000060: dece 9a3b 3516 3cba a8c7 963c 00e6 a2bb
00000070: 2b3c b33a 2b1d dabc 0a6a f6bb b059 f1bc
00000080: 7c7e 633c 7c00 5dbc 2418 6bbc 0c62 dbbc
00000090: 3682 ab3c 9bb1 0fbc b6c8 f33c e94e 63bc
000000a0: 4fbe a43b e246 0cbb 5ea4 94bc 570a cf3c
000000b0: 43f4 b7bc bde0 1cbc e6b7 6e3c 04a9 463b
000000c0: 783a 4d3a 5a13 0a3d 6483 9fbc c67f 2bbc
000000d0: 1773 6b3c f39d aeba 1198 193b 4785 0cbc
000000e0: fa8b 433b fd7a e43c 9ddf 14bb a82d 7c3c
000000f0: 9ca1 003d 12a9 cf3c 31a6 3d3c 5c89 e53c
00000100: bb22 edbb 694f da3b bb4c 42bc 4971 00bd
00000110: b66a d13c 6972 f5bc 5082 a8bc 5863 afbb
00000120: 057d c6bc 445e bebc ad61 6fbc 905f bf3b
00000130: 8dda aabc ed8c a3bc 9fb9 14bc f405 c1bc
00000140: 7e4d 4c3c bc1b 913b b386 813c 1fdd ef3c
00000150: 8f68 06bc c139 1ebc 6a5f 343c bb8d e63c
00000160: 1a74 4a3c 0e54 623a a3b1 953c 0ed8 d6bc
00000170: 58ce 56bc 4c4c 7bbc 8bd8 aabc 28a4 b7bc
00000180: c9a3 9bbc 518f 533c 0921 2a3c e114 44bb
00000190: 1869 e5bb 4530 923b 0190 a03c abe7 babc
000001a0: 4d08 b73c b143 653c 2daa 49bc c3ac ae3c
000001b0: 20d3 0139 64e1 92bb 10ff f13c ec45 703c
000001c0: c05c c43c 9fd8 2bbc dfb6 eabc 3493 ce3c
000001d0: 942c f1ba 40c4 653c 776a 1bbc bae4 3b3c
000001e0: 149f a4bc 0b2a c03b 8a31 ae3c 7f42 e6ba
000001f0: f99b f83c 15fa 373c e66f 813c 914a e53c
00000200: 6cda edbb 6c1b c8bb 612c 953c ca9d 8abc
00000210: 6fd3 3ebc b01c a53c a55b d3bc 6b7e cbbb
00000220: b0bf 173c 5a0d 753c e8cd 57bc 02c4 b1bb
00000230: ee0d b73c ed25 b7bc 7085 bb3c 4308 89ba
00000240: fc94 d4bb 4bea d0bc 48ef 28bb 1656 cb3c
00000250: e08c 6dbc c1b7 b7bc 04d5 27bb b2a5 933c
00000260: b0c3 8cbb 06a5 de3c 7a19 063d 8082 f33c
00000270: 5d5a 5cbc 9596 c1bc b058 f0bc 75ae ceba
00000280: 751e 56bc bc2e 883c 4563 b03b a273 033d
00000290: 4489 9ebc 7c03 6ebc 4916 343b 44cc 063c
000002a0: 8f00 d43c e45c acba 3526 c53c 3776 2fbc
000002b0: b5ae 03bb b0cc a6bb 63ac 43bb b6ae 2bbc
000002c0: ea0d cdbc 01d6 f3bb 96d0 0cbc 75d6 59bc
000002d0: 485e b5bc b502 c0bc 8756 ceb9 e2c9 b0bc
000002e0: ba56 023d 2dd5 d63a 8857 a13b 0188 9fbc
000002f0: 2e4d b13b f1b7 a5bc 06a2 823c 7865 523c
00000300: eb47 a4bc 33f3 4c3c a901 d43b f61d 29bc
00000310: 4c02 58bc 56fa e63c fec3 0bbc 5b8c b43c
00000320: 1f55 d63b 9ae9 c73c 9f33 1cbc 79d5 463c
00000330: 9f20 fe3b c727 c93c 6323 cfbc 5031 75bc
00000340: c2f3 9bb9 61ad d0bc 84dc 1c3c 9fbc da3c
00000350: 57fc ba3c 3dd0 84bc 4e9b 723c 542c d3bc
00000360: 35e1 923c 5afe e8bc e5ab cebc a764 103c
00000370: 679d 223b 26a0 213c a20e fa3c bb6e f73c
00000380: c2b0 923c 0e36 d1bc ce90 14bc 7777 1b3b
00000390: cf54 debc 2e38 e13c 8756 a73c ea04 85bc
000003a0: cdde 053a 1f8a aabc dd7e 9c3c 9177 aa3b
000003b0: 8c78 19bc 7aed 9c3c 3181 08bc f794 303c
000003c0: 2279 be3c e03e 5dbc 4999 e0bc 6704 aa3c
000003d0: 0ea0 b5bc 2997 2a3c 9219 83bb 593b 503c
000003e0: add9 e53b 69b7 41bc 424e b1bc 703f d83c
000003f0: c9de 32bc 755a f33b b723 d93c 191b b0bc
-0.017895224 -0.0032522466 -0.003083172 -0.0023482414 -0.009677033 0.004279818 -0.0034564731 -0.010783446
0.025224224 0.026052646 -0.0027686178 -0.0062909154 -0.031393573 -0.01687527 -0.004165849 -0.006035329
0.009076996 -0.003432877 -0.0012913431 0.0060743904 0.038121622 0.018430248 -0.01890424 -0.0016821009
0.0047243675 -0.000717494 0.01840575 -0.004971266 0.0013674548 -0.026625236 -0.007519965 -0.029461712
0.013885137 -0.013488885 -0.014349017 -0.02678015 0.020936113 -0.008770372 0.029758792 -0.013873794
0.0050275694 -0.0021404554 -0.018144783 0.025273485 -0.02245534 -0.009575066 0.014570212 0.0030313144
0.0007828842 0.03370986 -0.019471832 -0.010467475 0.014370701 -0.0013322219 0.0023436586 -0.008576698
0.0029838071 0.027890677 -0.0022716292 0.015391745 0.031404123 0.025349174 0.011575268 0.0280196
-0.007236806 0.0066622985 -0.011859114 -0.031358037 0.025563579 -0.029961782 -0.02056995 -0.005352419
-0.024229536 -0.023238309 -0.01461069 0.0058402494 -0.020856166 -0.01996466 -0.009077459 -0.023562409
0.012469647 0.004428355 0.0158113 0.029280243 -0.00820364 -0.009657324 0.011009077 0.028143754
0.012356782 0.0008633741 0.01827318 -0.02622607 -0.01311072 -0.015338015 -0.020855209 -0.022417143
-0.018998997 0.012912587 0.010383853 -0.0029919671 -0.0070010535 0.0044613206 0.019599916 -0.022815546
0.022342825 0.01399319 -0.0123086395 0.021322614 0.00012381049 -0.004482435 0.029540569 0.014665108
0.023970008 -0.010488658 -0.028651653 0.025216676 -0.0018400126 0.01402384 -0.009485832 0.011468107
-0.020095386 0.005864387 0.021263856 -0.0017567425 0.030347811 0.011229058 0.015800428 0.027989658
-0.007258704 -0.0061067846 0.018209638 -0.016920943 -0.011647089 0.02015528 -0.025800535 -0.0062101386
0.00926201 0.014956797 -0.0131716505 -0.0054249773 0.02234551 -0.022356952 0.022890776 -0.0010454733
-0.006487487 -0.025502345 -0.0025777388 0.024821322 -0.014498919 -0.022426488 -0.0025609145 0.018023346
-0.0042957887 0.027178299 0.03273914 0.029725313 -0.013449279 -0.023631373 -0.029339164 -0.0015768545
-0.013068785 0.016623847 0.0053829276 0.032092698 -0.019352563 -0.014527198 0.0027479103 0.008227412
0.025879173 -0.0013150242 0.02406607 -0.010709337 -0.0020093147 -0.0050903186 -0.002985739 -0.010478666
-0.025031049 -0.0074412827 -0.008594653 -0.013295759 -0.022139683 -0.02343879 -0.0003935585 -0.02158064
0.03182099 0.0016390436 0.0049237646 -0.019474031 0.005410812 -0.020229312 0.0159464 0.012841575
-0.020053824 0.012509155 0.0064699245 -0.010322085 -0.013184141 0.028195541 -0.008530615 0.022039583
0.006540909 0.024403382 -0.009533792 0.012135857 0.0077553536 0.0245551 -0.025285428 -0.01496537
-0.00029745518 -0.025473299 0.009574059 0.02670127 0.022825403 -0.016212577 0.014807535 -0.025777973
0.017929653 -0.028441597 -0.02522845 0.00881306 0.0024813057 0.0098648425 0.030524556 0.030204168
0.01790655 -0.02553847 -0.009067727 0.002372233 -0.02714005 0.027492609 0.020427002 -0.016237695
0.0005106747 -0.020817814 0.019103462 0.0052022417 -0.0093671195 0.019156206 -0.008331583 0.0107777035
0.02325112 -0.01350376 -0.027416842 0.020754052 -0.022171047 0.010412016 -0.004000851 0.012709462
0.0070144744 -0.011823514 -0.021643762 0.026397437 -0.010917374 0.007426555 0.026506288 -0.021497296

naim.encoder.0.ff.3.bias f4 [6]
00000000: 7d8f f6bc da13 b0bb d95b 80bc 9a6d 54bc
00000010: 1996 db3c 1db2 c5bc
-0.030097717 -0.0053734602 -0.015668796 -0.012965584 0.02680497 -0.024132783

naim.encoder.1.layer_norm_1.weight f4 [6]
00000000: 8b01 763f df09 763f b8ae 753f 16f0 753f
00000010: 45d3 753f 3e8a 763f
0.96096104 0.9610881 0.95969725 0.9606947 0.96025497 0.9630469

naim.encoder.1.layer_norm_1.bias f4 [6]
00000000: 1fbc c73b b753 3cbc a32d eeba 6bf0 ab3b
00000010: 9b6c fbbb 8955 ce3b
0.006095424 -0.011494569 -0.001817156 0.005247166 -0.007672859 0.0062968177

naim.encoder.1.attn.linear_q.weight f4 [6, 6]
00000000: 6489 84be 4fff bebd d311 12be 0aed 823d
00000010: b1a9 633e b642 163d b015 82b9 2389 213e
00000020: b20a 523e b276 183b cc55 72be 8b08 a1be
00000030: 5f78 bc3e a391 c13d 8d8b ab3e 1371 f4bd
00000040: 7948 9d3d 5cdf 34be 3e30 34be 367e 18be
00000050: 5eb0 bc3e 0f90 843e f3fc 59be 59f2 7fbe
00000060: 6175 c73d 3aba 75bd 3f9b 963a 0752 9e3c
00000070: 95e4 a2be a570 5e3d 4145 25ba 8bf8 7cbe
00000080: 7c93 babe 6e31 2e3e f1f3 aabe 3604 15be
-0.2588607 -0.0932604 -0.14264612 0.06392868 0.22232701 0.036684714 -0.0002481169 0.1577497
0.20511892 0.0023264107 -0.23665541 -0.3145183 0.36810586 0.09451606 0.33504906 -0.1193563
0.07679839 -0.1766333 -0.17596528 -0.14891896 0.36853307 0.25891158 -0.21287899 -0.24994792
0.09739185 -0.059992053 0.0011490359 0.019326223 -0.3181502 0.054306645 -0.000630457 -0.24704187
-0.36440647 0.17011043 -0.33389238 -0.14552388

naim.encoder.1.attn.linear_k.weight f4 [6, 6]
00000000: 8a23 5a3e 1b5e 71be 7cb5 1ebe 337a 65be
00000010: 5e97 4e3e 73e5 d63d c47b 423c 9078 d93d
00000020: 217e a33d 1be4 4fbd 099d 0abc e3e8 5dbe
00000030: 8294 1dbe e887 6aba 2c84 9bbc ee9a 883d
00000040: 05fc 1e3e c272 8c3e d719 b43e 7821 98bb
00000050: dfac fb3d 0343 95be e467 4a3e 6bbf 94bd
00000060: 82cb 91be a3bd 8ebe 8f26 9abe fac6 19be
00000070: 6882 173e b78c 96be f050 9bbc f61a eebc
00000080: 3b06 e63d 4f2f 04be d570 2c3e 02f3 5abe
0.2130262 -0.23571055 -0.15498918 -0.22409897 0.2017493 0.10492983 0.011870328 0.106186986
0.079830416 -0.050754648 -0.008460292 -0.2167087 -0.15388682 -0.0008946643 -0.018983923 0.066701755
0.15525825 0.27431303 0.35175964 -0.0046426617 0.12288832 -0.29152688 0.19766194 -0.072630726
-0.28475577 -0.27879056 -0.30107543 -0.1501731 0.1479584 -0.29404232 -0.018959492 -0.02906559
0.11231657 -0.12908672 0.16839917 -0.21381763

naim.encoder.1.attn.linear_v.weight f4 [6, 6]
00000000: 0320 5f3e 6814 c8be 8b32 7cbe 1c6d 093e
00000010: a41f 493d 508e 8a3e 82ba 3a3e 7a41 9fbe
00000020: ab8e 933e c103 9fbd d278 39bd b154 0cbe
00000030: f164 9ebd e8c1 bebe ad1d 3c3c 86c0 953e
00000040: 5003 65bd b80f 9e3e 0649 26be e59f 083e
00000050: b045 f63b af6c f4bd f766 b93e 24ee 0a3d
00000060: a163 b43a f555 5dbd 5d31 b6bc cd6e 9e3e
00000070: d6a5 09bd 4f33 793e 98f6 ec3d 6734 6a3e
00000080: 3a24 8abe 8c7b a4be d7d8 cdbd a331 99bd
0.21789555 -0.3907807 -0.24628656 0.13420528 0.04910244 0.270617 0.1823521 -0.31104642
0.28819785 -0.07764388 -0.04528124 -0.13704182 -0.07734097 -0.37257314 0.011481685 0.29248446
-0.055911362 0.30871367 -0.16238794 0.13342245 0.0075156316 -0.11934792 0.36211368 0.033918515
0.0013762602 -0.054037053 -0.022240335 0.3094391 -0.03360542 0.24335979 0.115704715 0.22871552
-0.26980764 -0.3212551 -0.100511245 -0.074801706

naim.encoder.1.attn.linear_o.weight f4 [6, 6]
00000000: c17f c23e bf73 c33e 9eb2 c1bd 9b43 30be
00000010: e450 a7ba 3502 203e ea0d 143e 63f3 853d
00000020: fe5e 9b3e a80b 0b3d 5d6b a63e 02e5 a93d
00000030: 3b59 2abd c637 a63e 4092 c53b 1bd1 9e3c
00000040: b3c4 a8bd 8287 6d3e 9161 f0bd d099 963e
00000050: 8b99 5c3e 37c3 4abc 1112 82bd 05b5 0d3e
00000060: 6cf0 b7be 51b4 c7bd c150 dabd f3c4 92bc
00000070: bdb7 20be a872 0dbe 4b7a 1f3e f470 4ebc
00000080: 47ca 79be e341 73bb 6246 c13d 6e66 02be
0.37988093 0.38174245 -0.09457897 -0.1721329 -0.0012765196 0.15625842 0.14458433 0.06540563
0.3034591 0.033946663 0.32503787 0.08295633 -0.041589003 0.32464427 0.0060293972 0.019386819
-0.082406424 0.23196223 -0.11737359 0.29414225 0.21542947 -0.012375644 -0.06351102 0.13838585
-0.35925615 -0.097511895 -0.10659934 -0.017916178 -0.1569509 -0.13813269 0.15573995 -0.012600172
-0.24393569 -0.003711813 0.094372526 -0.12734386

naim.encoder.1.layer_norm_2.weight f4 [6]
00000000: 0cfc 7c3f 6551 7d3f 742d 7b3f ba3b 7a3f
00000010: 81e9 7a3f 2051 7b3f
0.98822093 0.98952323 0.9811623 0.97747386 0.9801255 0.9817066

naim.encoder.1.layer_norm_2.bias f4 [6]
00000000: 0f16 d83b f080 313b 5b20 11ba 4267 b9ba
00000010: f29d a938 73bb b4bb
0.0065944265 0.002708491 -0.00055361324 -0.0014145153 8.0879676e-05 -0.0055155098

naim.encoder.1.ff.0.weight f4 [1000, 6]
00000000: d040 9e3e 4adc 7dbe 2728 a23e 14d1 fc3d
00000010: 4803 4abe b2a8 b1be 3d87 063e 7018 71bd
00000020: f279 bc3d 397a 123e b00c 77be 770e 1d3d
00000030: 48dd 88bd 248a a9be f207 583d 4af7 893d
00000040: bb11 8dbe adad b03e b518 363e b76f 483e
00000050: ee49 a2be 8221 a1be 4227 103e dd73 4c3e
00000060: af42 9fbe e2cb b43e 7b61 68bd 30ea 95be
00000070: 57da 84be ce14 80bd 4641 363e 35d2 7cbe
00000080: 1729 863e 7581 bd3e 9db3 b03e c066 203e
00000090: 413f 10be 4ad3 febd 0d20 823e 90c5 75bd
000000a0: a9e8 303d 2482 c03e bb17 bdbe 2738 94bd
000000b0: fc01 fbbd 44c7 45bd b725 c03b 35d6 92bd
000000c0: accc b63e b9e2 083e 3443 5fbe 1ac7 b63e
000000d0: 73b1 a8bd 619a 343d e9ff dc3c bfbe 86be
000000e0: 7152 2e3e 912b 57be d66a a6be b092 9c3e
000000f0: 1f9c 533e f8eb 0bbe 28c8 81be 824c a93e
00000100: 7055 e03d 21c9 6ebe e5d4 99be 3dbe 09be
00000110: 1a4b 42be ead6 5a3c b612 883c 6bd0 b8be
00000120: 4179 2c3e 5b6f 2f3e e87a a9be 6ca5 933e
00000130: b481 ffbd 0b4c 313e e0cf b83e c22b 513e
00000140: 4bfa 703e b2fa 4d3c 8855 053d c1d2 9dbe
00000150: 670a 84be 4340 943e b7df aabe a77e 0f3e
00000160: 0054 4fbe 1d66 a13e 3a9a 863e e59c 88bd
00000170: 4f81 efbc 4ed1 7cbe 7c2f af3e b751 55be
00000180: 1f1f e43d 2961 7d3e 7114 b5be 969e b9be
00000190: 330a 7ebe 017c 07bd fff2 5e3e e8d3 c8bd
000001a0: f630 08be 9484 713e 4be1 933e a76d 3a3e
000001b0: c315 a13e e7c9 a8be 362b a6be f182 2a3d
000001c0: 9f3c 9cbe 862a aabd 1cd9 583e 31f1 b63e
000001d0: 6369 4ebd b6b9 a3be 24b7 29be bdd1 b73e
000001e0: 52d9 2bbd 9178 aebe fbaf 35be 4195 5dbe
000001f0: 8b96 92bd 9637 83be 7323 d0bd b293 ab3e
00000200: 3015 1fbe 2861 66bd 8d8f 433e f2d1 aebe
00000210: 89d3 39be 2015 e9bc 7131 903e c1ae 213d
00000220: fe4d ddbb 2f52 e6bd 85e2 1c3e 1fec 10be
00000230: 6f0c 3ebd 882f 12be 12d6 fd3d 6b2f bd3e
00000240: c7fa 89be 48d4 c6bc 0551 67bc 076e 31be
00000250: 59c9 81be ffcc 12be ebe1 92be e7d7 8b3e
00000260: 3cdb 80be fbe5 5d3e 2cea 993e 8965 7ebd
00000270: 20ae af3e 5f81 843e 0acc 7cbe df36 483e
00000280: 3313 953d 35d8 913e a734 8bbe cab3 8e3e
00000290: 896b 1c3d 2d4b 293e 3cbc 43be 0124 6e3e
000002a0: 93f6 86bc 5615 993e d6d2 c13c 794c 5a3e
000002b0: a4ef 5ebe 5786 a5be 0f30 dc3d 6f60 373e
000002c0: 442d a43d 1ad5 bf3d 8e75 6c3e f135 32be
000002d0: c765 3c3e 060c 233e 0cd2 0bbe f207 52be
000002e0: 439c bbbe 9070 883e 9c81 afba d0d2 883d
000002f0: 04e3 80be bd33 8abe c8e7 973e e813 803e
00000300: b84f 413e 9cca 933e e5a9 953e 0491 583e
00000310: 8d4f 833e aa80 18bd df94 9d3d 8f96 a1be
00000320: 12c5 edbd 00e3 d6bc 2139 23ba 3bde ba3e
00000330: 7fdf 963e 0149 c33d 93f9 ae3e 697a 30be
00000340: 49c5 4b3d a79d 91be a690 9dbe 9143 393e
00000350: 43f3 c03d f86f 3abc 8783 67be 5bcb 823e
00000360: e54c 81bc e216 773e 4145 79be 5109 8d3e
00000370: 5536 7bbc 25d2 d7bd 057b a9bc 197f 8fbe
00000380: 3ca4 73bd c10c 7f3c 0c8e 87be 5378 413e
00000390: 9168 b13e dff5 303e 4514 26be 2ae5 5cbe
000003a0: 6352 91be 00a6 5abe 9e0f 533e 5932 1b3e
000003b0: 0dc9 f0bd aa07 713b 439c 2bbd d55d cf3b
000003c0: 7e1e bcbe ce0e 9d3e 71be dfbd 3aa6 a0be
000003d0: 5a45 53ba 0f4d bd3d 6094 193e e048 2cbe
000003e0: 5e08 2fbc de7e 88be aa8d 89be 39de 6ebe
000003f0: 0a54 63be 4214 623e 9178 a8be 2f4d 87bd
0.30908823 -0.24791065 0.3167126 0.12344566 -0.19727814 -0.34699017 0.13137527 -0.058861196
0.09202947 0.14304437 -0.24125934 0.038343873 -0.06682831 -0.33113205 0.052741952 0.0673662
-0.2755259 0.34507504 0.17782862 0.19573866 -0.3169703 -0.31470877 0.14077476 0.19966073
-0.31105563 0.353118 -0.05673359 -0.29280233 -0.2594783 -0.06253968 0.17798337 -0.24689563
0.26203224 0.3701283 0.34512034 0.15664196 -0.1408663 -0.12442644 0.25415078 -0.060002863
0.043190632 0.3759929 -0.36932167 -0.07237273 -0.12256238 -0.048285738 0.005863871 -0.07169763
0.35703027 0.13367738 -0.2180298 0.35698777 -0.08236971 0.04409254 0.026977496 -0.26317403
0.17023636 -0.21012713 -0.32503384 0.30580664 0.20665024 -0.13664234 -0.2534802 0.33066183
0.10953796 -0.23318912 -0.30045238 -0.13451476 -0.18973961 0.013356904 0.016610485 -0.3609651
0.1684313 0.17132322 -0.33101583 0.28837144 -0.12475911 0.17314164 0.36096096 0.20426849
0.23532979 0.012571977 0.032552272 -0.30824855 -0.25789186 0.28955278 -0.33373806 0.14013158
-0.20246887 0.3152322 0.2628954 -0.0667055 -0.029236464 -0.24689218 0.34215915 -0.20831953
0.111387484 0.24744095 -0.35367158 -0.36253804 -0.24808578 -0.033077244 0.21772383 -0.09806043
-0.13299927 0.23585731 0.28882822 0.18205892 0.31461915 -0.3296654 -0.32454842 0.04162878
-0.30515 -0.08308892 0.2117657 0.3573089 -0.050393473 -0.31977624 -0.16573769 0.35902205
-0.0419553 -0.3407636 -0.17742912 -0.21638967 -0.0715762 -0.25628346 -0.101630114 0.3351112
-0.15535426 -0.056245 0.19097729 -0.3414455 -0.181471 -0.028452456 0.2816272 0.0394733
-0.006753682 -0.11246144 0.15320785 -0.14152573 -0.046398576 -0.14275944 0.12394346 0.3695024
-0.2694914 -0.024271145 -0.014118438 -0.17327128 -0.2534893 -0.14336012 -0.28687987 0.27313158
-0.25167263 0.21669762 0.3006147 -0.06210855 0.34312534 0.25879952 -0.2468721 0.19552182
0.072790526 0.28485265 -0.27188608 0.27871543 0.03818849 0.16532584 -0.19114774 0.23255922
-0.016474998 0.2989909 0.023660105 0.21318235 -0.21771103 -0.32329056 0.10751354 0.1790788
0.08016446 0.09366818 0.23091719 -0.1740339 0.183982 0.15922555 -0.13654345 -0.20510843
-0.36642656 0.26648378 -0.0013390067 0.06680834 -0.251732 -0.26992598 0.29669023 0.25015187
0.18878067 0.28865516 0.29231182 0.21149069 0.2564663 -0.03723208 0.076944105 -0.3156018
-0.11609854 -0.026231289 -0.00062264694 0.36497673 0.2946739 0.09535409 0.34174785 -0.17234196
0.049748693 -0.28440592 -0.3077442 0.18092181 0.094213985 -0.0113792345 -0.22608767 0.25545773
-0.015783736 0.24129823 -0.24342825 0.2754617 -0.015332778 -0.10538129 -0.020688543 -0.28026655
-0.059482798 0.015567006 -0.2647556 0.18893556 0.3465009 0.17281292 -0.1621867 -0.21571794
-0.2838317 -0.21352386 0.20611426 0.15155925 -0.117570974 0.003677825 -0.04189707 0.0063283243
-0.36742014 0.30675358 -0.10924996 -0.3137682 -0.00080593454 0.092432134 0.14998007 -0.16824675
-0.010683147 -0.26659292 -0.26865894 -0.23326959 -0.22200027 0.2207804 -0.32904485 -0.066065185
