outputs/2025-03-23/17-22-43/outputs/model_epoch_10.pt (torch, 206230 bytes, 104 tensors)

naim.embeddings.0.embeddings.weight f4 [2, 6]
0.3813405 -0.5742025 -0.3372122 0.32412648 0.4462955 0.27769545 0.0 0.0
0.0 0.0 0.0 0.0
00000000: 103f c33e effe 12bf 14a7 acbe e8f3 a53e
00000010: d880 e43e 192e 8e3e 0000 0000 0000 0000
00000020: 0000 0000 0000 0000 0000 0000 0000 0000

naim.embeddings.1.embeddings.weight f4 [2, 6]
0.055151336 -0.084577814 -0.15142503 0.39135587 0.19324216 -0.08417665 0.0 0.0
0.0 0.0 0.0 0.0
00000000: 5ee6 613d 2237 adbd 2a0f 1bbe cc5f c83e
00000010: 46e1 453e cf64 acbd 0000 0000 0000 0000
00000020: 0000 0000 0000 0000 0000 0000 0000 0000

naim.embeddings.2.embeddings.weight f4 [2, 6]
0.6445755 0.043827288 -0.015056634 0.56942844 -0.26337123 0.34855962 0.0 0.0
0.0 0.0 0.0 0.0
00000000: e602 253f 3e84 333d 1ab0 76bc 10c6 113f
00000010: 98d8 86be 6876 b23e 0000 0000 0000 0000
00000020: 0000 0000 0000 0000 0000 0000 0000 0000

naim.embeddings.3.embeddings.weight f4 [2, 6]
0.6549941 -0.5241565 0.04839391 0.4909229 0.14216053 0.0067856694 0.0 0.0
0.0 0.0 0.0 0.0
00000000: b1ad 273f 1f2f 06bf b138 463d 3f5a fb3e
00000010: 8892 113e 525a de3b 0000 0000 0000 0000
00000020: 0000 0000 0000 0000 0000 0000 0000 0000

naim.embeddings.4.embeddings.weight f4 [2, 6]
-0.51642674 -0.27639666 -0.21829155 0.13459834 0.1010539 0.012459738 0.0 0.0
0.0 0.0 0.0 0.0
00000000: 8b34 04bf dd83 8dbe d287 5fbe 26d4 093e
00000010: 59f5 ce3d ee23 4c3c 0000 0000 0000 0000
00000020: 0000 0000 0000 0000 0000 0000 0000 0000

naim.embeddings.5.embeddings.weight f4 [2, 6]
-0.338158 0.03612802 0.64217556 0.3461627 -0.55847234 0.054573137 0.0 0.0
0.0 0.0 0.0 0.0
00000000: 0c23 adbe fafa 133d 9e65 243f 3d3c b13e
00000010: 0bf8 0ebf 1588 5f3d 0000 0000 0000 0000
00000020: 0000 0000 0000 0000 0000 0000 0000 0000

naim.embeddings.6.embeddings.weight f4 [2, 6]
-0.5224906 -0.11377109 -0.12672347 -0.26902083 0.14102206 0.75402474 0.0 0.0
0.0 0.0 0.0 0.0
00000000: f2c1 05bf d100 e9bd ccc3 01be 19bd 89be
00000010: 1668 103e c407 413f 0000 0000 0000 0000
00000020: 0000 0000 0000 0000 0000 0000 0000 0000

naim.embeddings.7.embeddings.weight f4 [2, 6]
-0.38900837 -0.011552441 0.10144543 -0.6898973 -0.04835624 0.56465274 0.0 0.0
0.0 0.0 0.0 0.0
00000000: 1b2c c7be 7346 3dbc 9fc2 cf3d 1c9d 30bf
00000010: 3111 46bd 158d 103f 0000 0000 0000 0000
00000020: 0000 0000 0000 0000 0000 0000 0000 0000

naim.embeddings.8.embeddings.weight f4 [2, 6]
0.64081585 -0.13643935 0.2624155 -0.61369544 -0.20457847 0.23056805 0.0 0.0
0.0 0.0 0.0 0.0
00000000: 820c 243f c2b6 0bbe 535b 863e 251b 1dbf
00000010: 057d 51be 081a 6c3e 0000 0000 0000 0000
00000020: 0000 0000 0000 0000 0000 0000 0000 0000

naim.embeddings.9.embeddings.weight f4 [2, 6]
0.44887298 -0.27448657 0.05899931 -0.40409955 -0.6013546 0.000992165 0.0 0.0
0.0 0.0 0.0 0.0
00000000: aed2 e53e 8189 8cbe 43a9 713d 23e6 cebe
00000010: 60f2 19bf 880b 823a 0000 0000 0000 0000
00000020: 0000 0000 0000 0000 0000 0000 0000 0000

naim.embeddings.10.embeddings.weight f4 [2, 6]
0.098576374 0.09861178 0.2630121 0.2503018 0.015244538 0.4501202 0.0 0.0
0.0 0.0 0.0 0.0
00000000: 69e2 c93d f9f4 c93d 86a9 863e 8f27 803e
00000010: 3ac4 793c 2876 e63e 0000 0000 0000 0000
00000020: 0000 0000 0000 0000 0000 0000 0000 0000

naim.embeddings.11.embeddings.weight f4 [2, 6]
0.1744504 -0.11311928 -0.4869527 -0.51082355 -0.030354362 -0.28155416 0.0 0.0
0.0 0.0 0.0 0.0
00000000: 20a3 323e 15ab e7bd dd51 f9be 55c5 02bf
00000010: b6a9 f8bc de27 90be 0000 0000 0000 0000
00000020: 0000 0000 0000 0000 0000 0000 0000 0000

naim.embeddings.12.embeddings.weight f4 [2, 6]
0.1590959 -0.23277566 0.08272454 0.43542832 0.49620357 0.11047674 0.0 0.0
0.0 0.0 0.0 0.0
00000000: 09ea 223e be5c 6ebe 7c6b a93d 76f0 de3e
00000010: 650e fe3e a141 e23d 0000 0000 0000 0000
00000020: 0000 0000 0000 0000 0000 0000 0000 0000

naim.embeddings.13.embeddings.weight f4 [2, 6]
-0.25745878 -0.10889412 -0.29175982 0.6613303 -0.19599435 0.31581748 0.0 0.0
0.0 0.0 0.0 0.0
00000000: a3d1 83be e103 dfbd 8b61 95be f14c 293f
00000010: beb2 48be d4b2 a13e 0000 0000 0000 0000
00000020: 0000 0000 0000 0000 0000 0000 0000 0000

naim.embeddings.14.embeddings.weight f4 [2, 6]
0.18687317 0.65916574 -0.15620294 0.08070781 0.6197128 0.012421945 0.0 0.0
0.0 0.0 0.0 0.0
00000000: ae5b 3f3e 16bf 283f aaf3 1fbe 234a a53d
00000010: 80a5 1e3f 6a85 4b3c 0000 0000 0000 0000
00000020: 0000 0000 0000 0000 0000 0000 0000 0000

naim.embeddings.15.embeddings.weight f4 [2, 6]
-0.62899923 0.34784356 0.0846564 -0.30171624 -0.19708559 0.5603854 0.0 0.0
0.0 0.0 0.0 0.0
00000000: 1806 21bf 8d18 b23e 5660 ad3d 8d7a 9abe
00000010: ced0 49be 6b75 0f3f 0000 0000 0000 0000
00000020: 0000 0000 0000 0000 0000 0000 0000 0000

naim.embeddings.16.embeddings.weight f4 [2, 6]
0.5251171 0.09793972 0.07649518 -0.33887604 0.13611007 0.4074838 0.0 0.0
0.0 0.0 0.0 0.0
00000000: 136e 063f 9f94 c83d 81a9 9c3d 2981 adbe
00000010: 7060 0b3e b7a1 d03e 0000 0000 0000 0000
00000020: 0000 0000 0000 0000 0000 0000 0000 0000

naim.embeddings.17.embeddings.weight f4 [2, 6]
0.1214066 0.18103302 0.13344304 -0.5050426 0.31133434 -0.28865814 0.0 0.0
0.0 0.0 0.0 0.0
00000000: 06a4 f83d b860 393e 4ba5 083e 794a 01bf
00000010: 3767 9f3e 00cb 93be 0000 0000 0000 0000
00000020: 0000 0000 0000 0000 0000 0000 0000 0000

naim.embeddings.18.embeddings.weight f4 [2, 6]
-0.56023896 -0.48375332 -0.30865467 0.5617781 -0.033349544 -0.020958884 0.0 0.0
0.0 0.0 0.0 0.0
00000000: d26b 0fbf 84ae f7be fc07 9ebe b1d0 0f3f
00000010: 8899 08bd f7b1 abbc 0000 0000 0000 0000
00000020: 0000 0000 0000 0000 0000 0000 0000 0000

naim.embeddings.19.embeddings.weight f4 [2, 6]
0.5405995 -0.2817915 0.27633947 -0.22003534 -0.108937584 0.08754164 0.0 0.0
0.0 0.0 0.0 0.0
00000000: bb64 0a3f fa46 90be 5e7c 8d3e f250 61be
00000010: ab1a dfbd 0849 b33d 0000 0000 0000 0000
00000020: 0000 0000 0000 0000 0000 0000 0000 0000

naim.embeddings.20.embeddings.weight f4 [2, 6]
0.2841794 0.14299977 -0.33582917 -0.4956083 -0.12248304 0.2387822 0.0 0.0
0.0 0.0 0.0 0.0
00000000: f67f 913e 886e 123e cdf1 abbe 5fc0 fdbe
00000010: 63d8 fabd 5283 743e 0000 0000 0000 0000
00000020: 0000 0000 0000 0000 0000 0000 0000 0000

naim.embeddings.21.embeddings.weight f4 [2, 6]
0.06524523 -0.0020273777 0.12218322 -0.049249724 0.026543723 -0.1411814 0.0 0.0
0.0 0.0 0.0 0.0
00000000: 4b9f 853d c1dd 04bb 323b fa3d 14ba 49bd
00000010: 3972 d93c db91 10be 0000 0000 0000 0000
00000020: 0000 0000 0000 0000 0000 0000 0000 0000

naim.embeddings.22.embeddings.weight f4 [2, 6]
0.34958324 -0.25951454 -0.038871575 0.5717822 0.43366832 -0.20851067 0.0 0.0
0.0 0.0 0.0 0.0
00000000: 93fc b23e 17df 84be cd37 1fbd 5160 123f
00000010: c609 de3e d283 55be 0000 0000 0000 0000
00000020: 0000 0000 0000 0000 0000 0000 0000 0000

naim.embeddings.23.embeddings.weight f4 [2, 6]
0.2144888 0.0026593793 -0.36921245 0.8434691 -0.052952662 -0.26547736 0.0 0.0
0.0 0.0 0.0 0.0
00000000: f4a2 5b3e fb48 2e3b 6a09 bdbe 97ed 573f
00000010: e4e4 58bd a6ec 87be 0000 0000 0000 0000
00000020: 0000 0000 0000 0000 0000 0000 0000 0000

naim.embeddings.24.embeddings.weight f4 [2, 6]
0.012621039 0.16936691 -0.18333383 0.41224465 -0.8579884 0.05170133 0.0 0.0
0.0 0.0 0.0 0.0
00000000: 79c8 4e3c 856e 2d3e ddbb 3bbe bb11 d33e
00000010: 21a5 5bbf c6c4 533d 0000 0000 0000 0000
00000020: 0000 0000 0000 0000 0000 0000 0000 0000

naim.embeddings.25.embeddings.weight f4 [2, 6]
0.36522213 -0.14518845 0.76309586 0.47609085 0.09732014 0.057217896 0.0 0.0
0.0 0.0 0.0 0.0
00000000: 65fe ba3e 48ac 14be 405a 433f 2ec2 f33e
00000010: c84f c73d 505d 6a3d 0000 0000 0000 0000
00000020: 0000 0000 0000 0000 0000 0000 0000 0000

naim.embeddings.26.embeddings.weight f4 [2, 6]
0.16149947 -0.49830693 -0.50850284 0.31811866 0.4327471 0.35560587 0.0 0.0
0.0 0.0 0.0 0.0
00000000: 1e60 253e 1622 ffbe 3e2d 02bf 73e0 a23e
00000010: 0791 dd3e f911 b63e 0000 0000 0000 0000
00000020: 0000 0000 0000 0000 0000 0000 0000 0000

naim.embeddings.27.embeddings.weight f4 [2, 6]
-0.09290327 0.3807603 -0.5414524 -0.5490057 -0.12338011 0.043412477 0.0 0.0
0.0 0.0 0.0 0.0
00000000: 1244 bebd 04f3 c23e a09c 0abf a38b 0cbf
00000010: b6ae fcbd 48d1 313d 0000 0000 0000 0000
00000020: 0000 0000 0000 0000 0000 0000 0000 0000

naim.embeddings.28.embeddings.weight f4 [2, 6]
-0.2005645 0.22756249 -0.20528081 -0.35017458 0.12530023 -0.06489127 0.0 0.0
0.0 0.0 0.0 0.0
00000000: c860 4dbe 2406 693e 2235 52be 154a b3be
00000010: b44e 003e b7e5 84bd 0000 0000 0000 0000
00000020: 0000 0000 0000 0000 0000 0000 0000 0000

naim.embeddings.29.embeddings.weight f4 [2, 6]
-0.55626845 -0.009980238 0.6675452 -0.22851866 0.08983822 -0.3682086 0.0 0.0
0.0 0.0 0.0 0.0
00000000: 9c67 0ebf 2784 23bc 3ee4 2a3f cc00 6abe
00000010: 1afd b73d d685 bcbe 0000 0000 0000 0000
00000020: 0000 0000 0000 0000 0000 0000 0000 0000

naim.embeddings.30.embeddings.weight f4 [2, 6]
-0.13607803 0.26461497 0.35586116 -0.3112597 -0.05330382 -0.39359578 0.0 0.0
0.0 0.0 0.0 0.0
00000000: 0a58 0bbe 9d7b 873e 6f33 b63e 6e5d 9fbe
00000010: 1b55 5abd 6385 c9be 0000 0000 0000 0000
00000020: 0000 0000 0000 0000 0000 0000 0000 0000

naim.embeddings.31.embeddings.weight f4 [2, 6]
0.41020373 -0.26174474 -0.0406052 -0.11897175 -0.27650088 -0.2958947 0.0 0.0
0.0 0.0 0.0 0.0
00000000: 3906 d23e 6803 86be a351 26bd 76a7 f3bd
00000010: 8691 8dbe 837f 97be 0000 0000 0000 0000
00000020: 0000 0000 0000 0000 0000 0000 0000 0000

naim.embeddings.32.embeddings.weight f4 [2, 6]
0.091987215 0.34435412 -0.35455555 -0.7813167 0.29339257 -0.19006519 0.0 0.0
0.0 0.0 0.0 0.0
00000000: cb63 bc3d 2f4f b03e 4e88 b5be 5f04 48bf
00000010: 8d37 963e 73a0 42be 0000 0000 0000 0000
00000020: 0000 0000 0000 0000 0000 0000 0000 0000

naim.embeddings.33.embeddings.weight f4 [2, 6]
-0.18820752 -0.17581819 -0.41614053 -0.25063986 -0.36007217 0.7382579 0.0 0.0
0.0 0.0 0.0 0.0
00000000: 79b9 40be af09 34be 5f10 d5be de53 80be
00000010: 615b b8be 78fe 3c3f 0000 0000 0000 0000
00000020: 0000 0000 0000 0000 0000 0000 0000 0000

naim.embeddings.34.embeddings.weight f4 [2, 6]
-0.17427993 0.124573 0.5363028 -0.026065757 -0.28849077 0.03969282 0.0 0.0
0.0 0.0 0.0 0.0
00000000: 7076 32be 2120 ff3d 244b 093f db87 d5bc
00000010: 10b5 93be f094 223d 0000 0000 0000 0000
00000020: 0000 0000 0000 0000 0000 0000 0000 0000

naim.embeddings.35.embeddings.weight f4 [2, 6]
0.20757104 -0.17251599 0.34011456 0.34924504 0.4263316 -0.5624842 0.0 0.0
0.0 0.0 0.0 0.0
00000000: 818d 543e 08a8 30be 7f23 ae3e 3fd0 b23e
00000010: 2348 da3e f7fe 0fbf 0000 0000 0000 0000
00000020: 0000 0000 0000 0000 0000 0000 0000 0000

naim.embeddings.36.embeddings.weight f4 [2, 6]
-0.16468498 0.42275405 -0.5379627 0.017643735 0.009111854 0.10114998 0.0 0.0
0.0 0.0 0.0 0.0
00000000: 2ea3 28be 3873 d83e ecb7 09bf 9889 903c
00000010: e349 153c b927 cf3d 0000 0000 0000 0000
00000020: 0000 0000 0000 0000 0000 0000 0000 0000

naim.embeddings.37.embeddings.weight f4 [2, 6]
0.009217762 -0.35955605 -0.12469331 -0.084469184 0.23350044 0.123025976 0.0 0.0
0.0 0.0 0.0 0.0
00000000: 1906 173c bb17 b8be 355f ffbd 2efe acbd
00000010: bd1a 6f3e 0bf5 fb3d 0000 0000 0000 0000
00000020: 0000 0000 0000 0000 0000 0000 0000 0000

naim.embeddings.38.embeddings.weight f4 [2, 6]
0.0418114 -0.072355054 0.006322481 0.31400406 -0.14784622 0.17660438 0.0 0.0
0.0 0.0 0.0 0.0
00000000: 6e42 2b3d e32e 94bd d12c cf3b 24c5 a03e
00000010: 0065 17be c7d7 343e 0000 0000 0000 0000
00000020: 0000 0000 0000 0000 0000 0000 0000 0000

naim.embeddings.39.embeddings.weight f4 [2, 6]
-0.052103207 -0.30366772 0.52686244 -0.65055746 0.22210199 0.3460315 0.0 0.0
0.0 0.0 0.0 0.0
00000000: 2c6a 55bd 567a 9bbe 75e0 063f ef8a 26bf
00000010: b46e 633e 0a2b b13e 0000 0000 0000 0000
00000020: 0000 0000 0000 0000 0000 0000 0000 0000

naim.embeddings.40.embeddings.weight f4 [2, 6]
-0.087612174 0.24910744 0.1310144 -0.15492459 -0.067704 -0.34517637 0.0 0.0
0.0 0.0 0.0 0.0
00000000: 036e b3bd 0516 7f3e a428 063e 8da4 1ebe
00000010: 65a8 8abd f5ba b0be 0000 0000 0000 0000
00000020: 0000 0000 0000 0000 0000 0000 0000 0000

naim.embeddings.41.embeddings.weight f4 [2, 6]
-0.14474593 -0.21957397 0.3582187 0.20872931 0.41815558 0.59786713 0.0 0.0
0.0 0.0 0.0 0.0
00000000: 4738 14be 00d8 60be 7168 b73e 23bd 553e
00000010: 7d18 d63e d20d 193f 0000 0000 0000 0000
00000020: 0000 0000 0000 0000 0000 0000 0000 0000

naim.embeddings.42.embeddings.weight f4 [2, 6]
-0.3274158 0.7504317 0.249283 0.4200881 0.120179646 -0.15142165 0.0 0.0
0.0 0.0 0.0 0.0
00000000: 0ba3 a7be 4b1c 403f 0b44 7f3e ca15 d73e
00000010: bf20 f63d 470e 1bbe 0000 0000 0000 0000
00000020: 0000 0000 0000 0000 0000 0000 0000 0000

naim.embeddings.43.embeddings.weight f4 [2, 6]
-0.25241557 0.02079187 0.686418 0.5015811 0.38969302 -0.08269164 0.0 0.0
0.0 0.0 0.0 0.0
00000000: 9d3c 81be b653 aa3c 17b9 2f3f 9e67 003f
00000010: d885 c73e 3c5a a9bd 0000 0000 0000 0000
00000020: 0000 0000 0000 0000 0000 0000 0000 0000

naim.embeddings.44.embeddings.weight f4 [2, 6]
-0.02678932 0.31075454 0.23461786 -0.3660435 0.14968047 0.52755076 0.0 0.0
0.0 0.0 0.0 0.0
00000000: 4775 dbbc 381b 9f3e aa3f 703e 0e6a bbbe
00000010: d645 193e 910d 073f 0000 0000 0000 0000
00000020: 0000 0000 0000 0000 0000 0000 0000 0000

naim.embeddings.45.embeddings.weight f4 [2, 6]
-0.47322714 -0.6138167 -0.29290503 0.18983935 -0.46463272 -0.18571903 0.0 0.0
0.0 0.0 0.0 0.0
00000000: d44a f2be 1723 1dbf a6f7 95be 3f65 423e
00000010: 57e4 edbe 212d 3ebe 0000 0000 0000 0000
00000020: 0000 0000 0000 0000 0000 0000 0000 0000

naim.embeddings.46.embeddings.weight f4 [2, 6]
-0.072757 0.08524461 0.29027703 -0.09918735 0.14218992 0.20287473 0.0 0.0
0.0 0.0 0.0 0.0
00000000: 9f01 95bd ba94 ae3d 319f 943e bd22 cbbd
00000010: 3c9a 113e 65be 4f3e 0000 0000 0000 0000
00000020: 0000 0000 0000 0000 0000 0000 0000 0000

naim.embeddings.47.embeddings.weight f4 [2, 6]
0.33162224 -0.12160506 -0.48911607 -0.25713134 0.29375955 -0.31207043 0.0 0.0
0.0 0.0 0.0 0.0
00000000: 64ca a93e 130c f9bd 6c6d fabe b8a6 83be
00000010: a767 963e b2c7 9fbe 0000 0000 0000 0000
00000020: 0000 0000 0000 0000 0000 0000 0000 0000

naim.embeddings.48.embeddings.weight f4 [2, 6]
0.020383203 0.26490867 0.085774526 0.32633436 0.6962909 0.37875193 0.0 0.0
0.0 0.0 0.0 0.0
00000000: adfa a63c 1ca2 873e 8eaa af3d 4c15 a73e
00000010: 1f40 323f c6eb c13e 0000 0000 0000 0000
00000020: 0000 0000 0000 0000 0000 0000 0000 0000

naim.embeddings.49.embeddings.weight f4 [2, 6]
-0.252583 0.2596524 0.30016088 -0.13039812 -0.38766262 0.42452464 0.0 0.0
0.0 0.0 0.0 0.0
00000000: 8f52 81be 29f1 843e b0ae 993e 1687 05be
00000010: b77b c6be 4b5b d93e 0000 0000 0000 0000
00000020: 0000 0000 0000 0000 0000 0000 0000 0000

naim.embeddings.50.embeddings.weight f4 [2, 6]
0.5497791 0.4042214 -0.11346323 -0.18163124 -0.1203744 -0.5760786 0.0 0.0
0.0 0.0 0.0 0.0
00000000: 53be 0c3f 1bf6 ce3e 695f e8bd 8afd 39be
00000010: da86 f6bd e379 13bf 0000 0000 0000 0000
00000020: 0000 0000 0000 0000 0000 0000 0000 0000

naim.embeddings.51.embeddings.weight f4 [2, 6]
0.05035839 0.18427217 0.5612658 -0.67636293 0.36726555 -0.14748825 0.0 0.0
0.0 0.0 0.0 0.0
00000000: 9944 4e3d d8b1 3c3e 1eaf 0f3f 1f26 2dbf
00000010: 3b0a bc3e 2907 17be 0000 0000 0000 0000
00000020: 0000 0000 0000 0000 0000 0000 0000 0000

naim.embeddings.52.embeddings.weight f4 [2, 6]
0.32372388 -0.24115607 -0.24186875 -0.2280693 0.11541871 -0.36860937 0.0 0.0
0.0 0.0 0.0 0.0
00000000: 23bf a53e 9ef1 76be 71ac 77be 008b 69be
00000010: a560 ec3d 5eba bcbe 0000 0000 0000 0000
00000020: 0000 0000 0000 0000 0000 0000 0000 0000

naim.embeddings.53.embeddings.weight f4 [2, 6]
-0.26145884 -0.17706116 0.15967728 -0.052759085 0.917246 -5.434922e-06 0.0 0.0
0.0 0.0 0.0 0.0
00000000: efdd 85be 854f 35be 7182 233e e919 58bd
00000010: a2d0 6a3f a05d b6b6 0000 0000 0000 0000
00000020: 0000 0000 0000 0000 0000 0000 0000 0000

naim.embeddings.54.embeddings.weight f4 [2, 6]
0.19380869 0.54835385 0.40442017 0.20287277 -0.629787 0.12818865 0.0 0.0
0.0 0.0 0.0 0.0
00000000: c975 463e eb60 0c3f 2910 cf3e e1bd 4f3e
00000010: b939 21bf e343 033e 0000 0000 0000 0000
00000020: 0000 0000 0000 0000 0000 0000 0000 0000

naim.embeddings.55.embeddings.weight f4 [2, 6]
0.32997298 -0.32740077 -0.57256764 0.5653771 -0.09885942 -0.16327979 0.0 0.0
0.0 0.0 0.0 0.0
00000000: 38f2 a83e 13a1 a7be cb93 12bf 8ebc 103f
00000010: cf76 cabd d132 27be 0000 0000 0000 0000
00000020: 0000 0000 0000 0000 0000 0000 0000 0000

naim.embeddings.56.embeddings.weight f4 [2, 6]
-0.4001374 -0.4655928 0.1969928 -0.07330324 -0.42354926 -0.05439452 0.0 0.0
0.0 0.0 0.0 0.0
00000000: cfde ccbe 2e62 eebe 7bb8 493e 0220 96bd
00000010: 73db d8be cacc 5ebd 0000 0000 0000 0000
00000020: 0000 0000 0000 0000 0000 0000 0000 0000

naim.embeddings.57.embeddings.weight f4 [2, 6]
0.44776538 -0.33889675 -0.21375562 0.2730952 0.7245902 -0.0150682265 0.0 0.0
0.0 0.0 0.0 0.0
00000000: 8141 e53e e083 adbe c1e2 5abe 22d3 8b3e
00000010: be7e 393f b9e0 76bc 0000 0000 0000 0000
00000020: 0000 0000 0000 0000 0000 0000 0000 0000

naim.embeddings.58.embeddings.weight f4 [2, 6]
-0.11522297 0.013887627 0.036307763 -0.04235382 0.09921947 -0.26629856 0.0 0.0
0.0 0.0 0.0 0.0
00000000: 05fa ebbd ee88 633c 73b7 143d 337b 2dbd
00000010: 9433 cb3d 4958 88be 0000 0000 0000 0000
00000020: 0000 0000 0000 0000 0000 0000 0000 0000

naim.embeddings.59.embeddings.weight f4 [2, 6]
0.31998128 -0.17941582 -0.2619856 0.70225483 0.28382084 0.42992288 0.0 0.0
0.0 0.0 0.0 0.0
00000000: 96d4 a33e c8b8 37be fa22 86be f9c6 333f
00000010: f750 913e da1e dc3e 0000 0000 0000 0000
00000020: 0000 0000 0000 0000 0000 0000 0000 0000

naim.embeddings.60.embeddings.weight f4 [2, 6]
-0.54978174 -0.05772917 0.060484268 0.5284165 0.27388647 0.38565683 0.0 0.0
0.0 0.0 0.0 0.0
00000000: 7fbe 0cbf 6c75 6cbd 5abe 773d 4e46 073f
00000010: d93a 8c3e d074 c53e 0000 0000 0000 0000
00000020: 0000 0000 0000 0000 0000 0000 0000 0000

naim.embeddings.61.embeddings.weight f4 [2, 6]
-0.23356402 0.041417688 0.1400709 -0.07079684 0.23048338 -0.12184958 0.0 0.0
0.0 0.0 0.0 0.0
00000000: 682b 6fbe 98a5 293d bf6e 0f3e effd 90bd
00000010: d603 6c3e 468c f9bd 0000 0000 0000 0000
00000020: 0000 0000 0000 0000 0000 0000 0000 0000

naim.embeddings.62.embeddings.weight f4 [2, 6]
0.28870788 0.15474007 -0.6979449 -0.06419763 -0.38354856 -0.4667985 0.0 0.0
0.0 0.0 0.0 0.0
00000000: 85d1 933e 2e74 1e3e 84ac 32bf 0c7a 83bd
00000010: 7a60 c4be 3700 efbe 0000 0000 0000 0000
00000020: 0000 0000 0000 0000 0000 0000 0000 0000

naim.embeddings.63.embeddings.weight f4 [2, 6]
0.75830394 0.32508102 -0.3088291 0.17330931 -0.21702121 -0.15681313 0.0 0.0
0.0 0.0 0.0 0.0
00000000: 3520 423f 0571 a63e d91e 9ebe ff77 313e
00000010: cf3a 5ebe 9f93 20be 0000 0000 0000 0000
00000020: 0000 0000 0000 0000 0000 0000 0000 0000

naim.encoder.0.layer_norm_1.weight f4 [6]
0.98704046 0.9861559 0.9889546 0.9946575 0.9869444 0.988433
00000000: afae 7c3f b774 7c3f 212c 7d3f e0a1 7e3f
00000010: 63a8 7c3f f209 7d3f

naim.encoder.0.layer_norm_1.bias f4 [6]
0.0034761236 -0.0040493715 0.0050819814 -0.005001122 0.0043279286 -0.005003019
00000000: adcf 633b 97b0 84bb c086 a63b 74e0 a3bb
00000010: 4cd1 8d3b 5df0 a3bb

naim.encoder.0.attn.linear_q.weight f4 [6, 6]
-0.089599445 0.028134266 -0.097833626 -0.3857475 -0.035696674 0.18485573 -0.03933104 -0.18720505
0.006239048 0.06812948 -0.10663574 -0.30313855 -0.20535295 -0.054559022 0.13516438 0.3485115
0.0071429024 0.13567159 0.22036651 -0.1645818 -0.123319395 0.2578225 0.2788011 0.083373465
-0.30113393 0.21837069 -0.32331222 0.19093014 0.045939196 0.119978555 -0.38382953 -0.12965904
0.15971857 0.29989064 -0.10334774 0.35003346
00000000: ea7f b7bd d579 e63c ff5c c8bd b280 c5be
00000010: ad36 12bd d24a 3d3e 9619 21bd aeb2 3fbe
00000020: ee70 cc3b 7887 8b3d d763 dabd fa34 9bbe
00000030: 0b48 52be 4879 5fbd 8868 0a3e 1970 b23e
00000040: 020f ea3b 7eed 0a3e c2a7 613e 2288 28be
00000050: e18e fcbd 5001 843e 05bf 8e3e b5bf aa3d
00000060: 3a2e 9abe 919c 5f3e 2e89 a5be 3183 433e
00000070: bd2a 3c3d 51b7 f53d 4e85 c4be 57c5 04be
00000080: 448d 233e 448b 993e fba7 d3bd 9637 b33e

naim.encoder.0.attn.linear_k.weight f4 [6, 6]
-0.07762636 -0.23223625 -0.16301267 0.01415189 -0.060164332 0.18391877 -0.21180607 -0.102570206
-0.39048734 0.3193052 -0.0637962 -0.30768877 -0.011125252 -0.0003162645 0.101106204 -0.037309084
0.24252677 -0.12728351 -0.108721405 -0.08391792 0.060700327 0.31354314 -0.010503217 0.30004212
0.30636817 -0.19821894 -0.024460336 -0.17859925 0.15553811 -0.12980941 0.11349968 0.013398737
-0.2541432 -0.2639436 -0.384913 -0.21471097
00000000: 92fa 9ebd 57cf 6dbe cbec 26be 54dd 673c
00000010: e06e 76bd 3455 3c3e b1e3 58be 5410 d2bd
00000020: f5ed c7be f97b a33e 95a7 82bd 6289 9dbe
00000030: b046 36bc 4dd0 a5b9 c510 cf3d 69d1 18bd
00000040: f058 783e 9c56 02be 54a9 debd 29dd abbd
00000050: e8a0 783d ba88 a03e af15 2cbc 1f9f 993e
00000060: 4adc 9c3e e8f9 4abe 0b61 c8bc b9e2 36be
00000070: 6245 1f3e c2ec 04be 8572 e83d 6086 5b3c
00000080: 0f1f 82be 9e23 87be 5113 c5be 31dd 5bbe

naim.encoder.0.attn.linear_v.weight f4 [6, 6]
0.118571766 0.023637319 0.30665365 -0.36055103 -0.019611403 -0.35738605 0.0025600765 0.14766239
-0.3618137 0.3562903 -0.12626682 0.3576715 -0.06623436 0.22374247 0.3654163 -0.14554016
-0.094684586 0.21038304 -0.3459003 0.22970144 -0.2503885 0.37610713 -0.26364818 -0.16311635
0.2985929 -0.17525117 0.33805874 0.27249283 0.36786276 -0.3909374 0.010334186 -0.14071977
0.09691216 -0.31070876 0.16813664 -0.012223364
00000000: c1d5 f23d 0da3 c13c b501 9d3e 259a b8be
00000010: 18a8 a0bc 4efb b6be f5c6 273b cf34 173e
00000020: a53f b9be af6b b63e 174c 01be b820 b73e
00000030: e1a5 87bd bf1c 653e d817 bb3e 7b08 15be
00000040: fee9 c1bd a76e 573e d819 b1be db36 6b3e
00000050: ec32 80be 1d91 c03e e5fc 86be f907 27be
00000060: 2be1 983e 0b75 33be 0916 ad3e 2e84 8b3e
00000070: 8258 bc3e f228 c8be b850 293c d818 10be
00000080: e279 c63d 3815 9fbe 032c 2c3e 8144 48bc

naim.encoder.0.attn.linear_o.weight f4 [6, 6]
-0.17937702 -0.35323784 0.19951694 -0.13414596 0.28717867 0.060338594 0.110185 -0.048279386
-0.042981956 -0.12467161 -0.33931288 0.24251662 -0.25672194 0.2348545 -0.13946876 0.25173032
0.34600657 -0.2500128 0.34003946 0.014574824 -0.30552942 0.17091088 0.23565769 0.36269867
-0.38711104 0.36696932 0.30757725 0.39940035 0.2207243 -0.19725367 0.30791906 0.3713351
-0.15436257 -0.06564537 0.31871974 0.3257194
00000000: 9cae 37be 97db b4be 2b4e 4c3e 8f5d 09be
00000010: 1509 933e 9a25 773d aca8 e13d 9bc0 45bd
00000020: d90d 30bd d453 ffbd 6bba adbe 4756 783e
00000030: 0f71 83be b37d 703e e6d0 0ebe cce2 803e
00000040: c627 b13e ad01 80be a719 ae3e 3ecb 6e3c
00000050: 5a6e 9cbe 4303 2f3e 4050 713e a4b3 b93e
00000060: 6b33 c6be 67e3 bb3e c47a 9d3e 347e cc3e
00000070: 8d05 623e defc 49be 91a7 9d3e a21f be3e
00000080: 3911 1ebe 1471 86bd 3c2f a33e b1c4 a63e

naim.encoder.0.layer_norm_2.weight f4 [6]
0.9953062 0.99387157 0.99301964 0.9935083 0.99273056 0.9967002
00000000: 63cc 7e3f 5e6e 7e3f 8936 7e3f 8f56 7e3f
00000010: 9723 7e3f bf27 7f3f

naim.encoder.0.layer_norm_2.bias f4 [6]
0.00029181634 -0.00018203122 0.0015602289 -0.00068736 0.00014383794 -0.00077380124
00000000: edfe 9839 a2df 3eb9 9880 cc3a f32f 34ba
00000010: 34d3 1639 ecd8 4aba

naim.encoder.0.ff.0.weight f4 [1000, 6]
0.25732192 0.2991662 -0.19668272 -0.06454011 -0.15042706 0.19879963 0.09260116 -0.30254814
-0.044640653 -0.31871948 -0.37027586 0.35945854 -0.19267684 0.16971257 -0.07858522 -0.076030776
0.0020092505 0.30512106 -0.045306787 0.3235007 0.22482029 0.2661085 -0.35611588 -0.17639668
-0.31996116 -0.07775012 -0.074202165 0.07349955 0.35188687 0.17368662 -0.2707358 -0.24231215
0.295058 0.037752777 0.1045518 -0.20216739 -0.045620304 0.1057776 -0.2535151 0.252711
0.18981645 -0.2263826 -0.15423691 -0.08335476 0.053164747 -0.1354322 0.37692446 -0.37906966
-0.21884815 -0.23433976 0.100702114 0.053483676 -0.10717916 0.33618307 -0.33832514 0.13029408
-0.2111811 -0.08306515 -0.37936246 -0.2908047 -0.3334659 0.16452819 -0.1401736 0.20031042
-0.20746514 -0.092279226 0.045347795 0.32800615 -0.09679239 0.22382665 0.1007087 0.23718144
0.24579747 0.15283073 -0.11420817 -0.104059584 0.14683725 0.20928238 -0.015678301 0.19070542
-0.23179151 0.21646626 -0.04290127 -0.2669353 -0.18439876 -0.29808953 0.06975071 -0.22820726
-0.103663854 -0.024876358 -0.23531488 0.009685549 -0.043556795 0.116006896 0.28159353 -0.23231827
0.2089777 -0.014194783 -0.21912341 -0.17171456 0.09050756 0.07098729 -0.013951028 -0.1894336
0.19312303 0.056445815 -0.3825128 -0.06096526 -0.09688958 -0.15977612 -0.21262658 -0.3181049
0.38857117 -0.35910806 0.36591533 -0.30673364 -0.09016769 -0.15413944 -0.20480374 0.13693053
0.22365682 -0.25567663 -0.17703125 0.19483341 -0.04194087 0.09277741 0.1997008 -0.13704798
-0.21255435 0.13737299 -0.13706954 -0.25766715 -0.19293438 -0.17889951 0.39272436 0.06794911
0.1636829 0.04732627 -0.26119992 0.28071198 -0.051346414 -0.09423913 0.3191733 -0.19395739
0.07401409 -0.33368757 0.19605683 0.14941792 -0.32213458 0.21691248 0.043326203 -0.19825314
0.33399987 0.16515864 0.1325458 -0.14193538 -0.21327153 -0.20838901 0.14272892 0.10150884
-0.23272987 0.35823646 0.22448786 -0.14389184 0.19778454 -0.15954906 0.11575734 0.3259214
-0.34746972 -0.19025914 -0.019863987 0.058271844 -0.32177928 -0.25495946 -0.033024117 -0.051756993
0.07622643 0.0426344 0.07412234 0.022131694 0.03721303 -0.018659944 0.13356864 0.26506266
-0.18976688 -0.19975753 0.16711584 -0.282987 0.25296336 0.17516208 0.05132029 -0.16336894
0.010723178 -0.30883804 -0.3532778 0.37058154 -0.35244486 -0.32490954 -0.1451924 0.016215106
0.080934115 -0.18663558 -0.034924876 -0.08245833 0.32750356 0.3399317 0.1546151 -0.0059725717
0.29204902 -0.31566057 0.15692532 -0.2234977 0.3044501 -0.3468062 0.13743061 -0.3214199
0.22522792 0.06936105 0.33660153 -0.29409403 0.24976155 -0.2580247 -0.2079393 0.14145042
-0.059063 -0.30854443 -0.33319134 -0.094833374 0.09865179 0.34429553 0.28622752 0.005511338
-0.23621531 -0.349756 0.3510323 -0.21528982 -0.06468597 -0.31547564 -0.26838407 0.06835636
-0.08789933 0.034865063 0.0003859798 0.012943145 -0.06961311 -0.011134077 0.165233 0.28389746
0.33112013 -0.31894782 -0.33092493 -0.051403753 -0.027821064 0.21333909 0.370124 0.09188916
00000000: b3bf 833e 502c 993e 3267 49be 9b2d 84bd
00000010: 8d09 1abe 2192 4b3e ada5 bd3d 97e7 9abe
00000020: 1ed9 36bd 332f a3be cc94 bdbe f30a b83e
00000030: 144d 45be 22c9 2d3e 4af1 a0bd 06b6 9bbd
00000040: a1ad 033b d438 9c3e 9c93 39bd e2a1 a53e
00000050: 4a37 663e 603f 883e d254 b6be 55a1 34be
00000060: f3d1 a3be 743b 9fbd 4ef7 97bd ef86 963d
00000070: 842a b43e e8da 313e e29d 8abe ad20 78be
00000080: d811 973e a8a2 1a3d 411f d63d f804 4fbe
00000090: 5bdc 3abd eda1 d83d bbcc 81be 5663 813e
000000a0: 3e5f 423e d7d0 67be 48f0 1dbe e7b5 aabd
000000b0: 47c3 593d bdae 0abe 3efc c03e 6b15 c2be
000000c0: bb19 60be c3f6 6fbe e93c ce3d b311 5b3d
000000d0: bf80 dbbd 3020 ac3e f438 adbe d06b 053e
000000e0: dc3f 58be 101e aabd cc3b c2be 5be4 94be
000000f0: 0bbc aabe 147a 283e ab89 0fbe 2d1e 4d3e
00000100: be71 54be e4fc bcbd 9cbe 393d 6cf0 a73e
00000110: 173b c6bd d032 653e 5d40 ce3d b1df 723e
00000120: 55b2 7b3e a97f 1c3e f9e5 e9bd 311d d5bd
00000130: 815c 163e 1f4e 563e c86f 80bc 4848 433e
00000140: c15a 6dbe 55a9 5d3e 3eb9 2fbd beab 88be
00000150: 07d3 3cbe 319f 98be 76d9 8e3d 2aaf 69be
00000160: b74d d4bd 81c9 cbbc 62f6 70be 23b0 1e3c
00000170: 9c68 32bd 0695 ed3d 072d 903e d7e4 6dbe
00000180: 40fe 553e 3c91 68bc e361 60be f1d5 2fbe
00000190: 075c b93d c961 913d da92 64bc e2fa 41be
000001a0: 0bc2 453e ba33 673d b8d8 c3be b5b6 79bd
000001b0: 0b6e c6bd 5a9c 23be c8ba 59be a5de a2be
000001c0: cdf2 c63e 03dd b7be 4159 bb3e 310c 9dbe
000001d0: d6a9 b8bd bbd6 1dbe 12b8 51be 8437 0c3e
000001e0: 4b06 653e 0ce8 82be ae47 35be 6982 473e
000001f0: 31ca 2bbd 1502 be3d 5e7e 4c3e 4e56 0cbe
00000200: d9a7 59be 81ab 0c3e f55b 0cbe f3ec 83be
00000210: 9790 45be 6f31 37be 2b13 c93e e728 8b3d
00000220: 7d9c 273e 31d9 413d ffbb 85be 7bb9 8f3e
00000230: 9e50 52bd 7200 c1bd af6a a33e c49c 46be
00000240: b394 973d 19d9 aabe 1fc3 483e 0301 193e
00000250: d3ee a4be 4e1e 5e3e d176 313d df02 4bbe
00000260: 0802 ab3e 591f 293e 16ba 073e 8257 11be
00000270: da63 5abe ee63 55be 8827 123e dee3 cf3d
00000280: bd50 6ebe c56a b73e 25e0 653e 6258 13be
00000290: 0888 4a3e d460 23be 2f12 ed3d 2bdf a63e
000002a0: 8de7 b1be 4bd3 42be cdb9 a2bc 75ae 6e3d
000002b0: 41c0 a4be 0c8a 82be 4c44 07bd 24ff 53bd
000002c0: 9a1c 9c3d 69a1 2e3d 74cd 973d 874d b53c
000002d0: b16c 183d bddc 98bc 38c6 083e 4bb6 873e
000002e0: 4052 42be 3d8d 4cbe 6a20 2b3e ace3 90be
000002f0: 6a84 813e b05d 333e 3935 523d 304a 27be
00000300: 45b0 2f3c 0520 9ebe d4e0 b4be ddbc bd3e
00000310: a773 b4be 8b5a a6be 51ad 14be 8bd5 843c
00000320: c9c0 a53d 661d 3fbe 630d 0fbd eadf a8bd
00000330: 8cae a73e 870b ae3e 6c53 1e3e 90b5 c3bb
00000340: 7387 953e 439e a1be 08b1 203e 95dc 64be
00000350: e2e0 9b3e 9590 b1be 9cba 0c3e 2691 a4be
00000360: 26a2 663e 2b0d 8e3d 0957 ac3e 7e93 96be
00000370: 7ec1 7f3e d01b 84be 0aee 54be 61d8 103e
00000380: 0bec 71bd 89f9 9dbe 0e98 aabe 0038 c2bd
00000390: f309 ca3d 8147 b03e 6a8c 923e 7498 b43b
000003a0: 6de2 71be 3813 b3be 81ba b33e ef74 5cbe
000003b0: 147a 84bd 0686 a1be a369 89be 6bfe 8b3d
000003c0: 9004 b4bd abce 0e3d 555d ca39 7c0f 543c
000003d0: 5191 8ebd b46b 36bc d732 293e 025b 913e
000003e0: 9488 a93e 214d a3be fe6e a9be be8c 52bd
000003f0: 00e9 e3bc 9075 5a3e e580 bd3e 6230 bc3d

naim.encoder.0.ff.0.bias f4 [1000]
0.24431095 -0.19772667 -0.04990007 0.031285737 0.26977873 0.16958874 0.3812544 -0.2055764
-0.026461422 -0.025440676 0.31940338 0.3721132 0.097542115 -0.3156006 -0.2818831 0.06754362
-0.3458521 -0.1289235 -0.29148546 0.19968493 -0.047020283 -0.30547044 0.25587752 -0.3474112
-0.038354993 0.38089576 0.19540685 -0.33930147 0.042932905 -0.05381054 0.17225477 0.36583027
0.3341927 -0.03235133 0.1799857 -0.3866142 0.30960035 0.20390163 -0.27323723 -0.10419133
-0.14531791 -0.22469115 0.16082235 -0.10673083 0.16096698 -0.11094551 0.3051282 -0.1489402
-0.061521597 -0.1160669 0.019573305 -0.13708971 -0.27277595 -0.37392518 0.24192278 0.05531851
-0.24900365 0.20149592 0.040477667 -0.13454428 -0.019098103 0.03887504 0.2797587 -0.36127177
-0.30285117 -0.31530276 -0.30617255 0.001872446 0.21524175 0.10270993 0.16078219 0.04486722
-0.0065559847 -0.3556199 0.35087302 0.38231835 -0.001331214 0.06918504 0.065902226 0.3915294
-0.0013211002 -0.054500416 -0.2098361 0.100053936 0.17850763 -0.33125335 0.12903973 0.09652175
0.17238124 0.1784494 -0.09453043 0.051847376 -0.2729534 0.23520686 -0.32907256 -0.344386
-0.2880956 -0.21408719 0.014220249 0.25445116 -0.044756275 0.28316948 -0.05884995 0.33299425
0.2704905 0.2454774 0.15370816 -0.2634577 0.38689667 -0.37415057 -0.27274394 -0.23267879
-0.09589747 0.16876228 0.079467684 -0.33823204 0.3814468 0.37079442 0.18844143 -0.38625252
0.21862987 0.11009837 -0.04036296 -0.32748586 0.33402586 -0.109496675 -0.31787926 0.30156237
0.15207087 0.109569624 0.25143948 0.13014875 -0.08062147 -0.059528355 0.32571143 -0.01219013
-0.3271615 -0.26836327 -0.29380694 0.03403936 0.28724635 0.23363177 0.103217974 0.12933923
-0.1805784 0.36937526 0.14370783 -0.24305837 -0.2576801 -0.3515164 -0.10205351 0.28559348
0.021914449 -0.18113835 0.10683595 -0.26960397 0.114805624 0.26753926 0.18941595 -0.11242539
-0.12774481 0.16090472 0.23152156 -0.08814821 0.0009331197 -0.03888298 -0.037804596 -0.3484283
-0.32307476 0.33664688 -0.18382348 0.28908873 0.24105853 -0.05353897 -0.18494505 0.0088908775
-0.06421369 -0.2286747 0.38438573 -0.026281612 -0.05084913 -0.26288012 0.062109582 0.054355968
0.38935205 -0.112939484 0.21848464 0.021161273 0.20539768 0.007063933 -0.056510795 0.1530287
-0.17045842 0.23518983 -0.32813895 -0.2789309 0.37700713 -0.14013584 -0.31054026 -0.28473395
0.3833666 -0.04699763 -0.32948843 -0.049720645 -0.18489258 -0.25953984 -0.1881239 0.29797593
0.1534699 0.22715405 0.031707603 -0.15644313 -0.15363812 -0.26040155 -0.28102803 -0.33759198
0.06691759 0.20522492 0.3205356 -0.010496492 -0.048221868 -0.024421537 0.15115106 -0.055128716
-0.13430254 -0.100295626 -0.38449773 -0.301221 -0.16152214 0.037629988 -0.24233468 0.14367408
-0.21030867 0.38289955 -0.3465965 0.21806076 -0.19878253 -0.13070308 -0.36792386 -0.3654684
-0.3727179 -0.007864155 0.3639216 0.175462 0.24514534 0.08550593 -0.14471619 -0.14497885
-0.10743434 -0.36745647 0.2111144 -0.110779315 -0.21852311 0.09476577 -0.00039716926 0.21096876
00000000: a62c 7a3e dc78 4abe 0464 4cbd 7925 003d
00000010: 7020 8a3e aca8 2d3e c733 c33e 9f82 52be
00000020: a0c5 d8bc f768 d0bc d788 a33e 9f85 be3e
00000030: 29c4 c73d 6796 a1be fb52 90be 4f54 8a3d
00000040: 8713 b1be 8604 04be 953d 95be 357a 4c3e
00000050: 5798 40bd 9f66 9cbe 6102 833e e1df b1be
00000060: 201a 1dbd c504 c33e bc18 483e ecb8 adbe
00000070: 6ada 2f3d 7168 5cbd 8e63 303e 1b4e bb3e
00000080: 4e1b ab3e d482 04bd 2c4e 383e 4cf2 c5be
00000090: f083 9e3e 97cb 503e c0e5 8bbe 4462 d5bd
000000a0: 38ce 14be 7015 66be 9dae 243e b295 dabd
000000b0: 87d4 243e 6637 e3bd c339 9c3e c883 18be
000000c0: 12fe 7bbd 7cb4 edbd 3258 a03c 3f61 0cbe
000000d0: 4aa9 8bbe 1f73 bfbe 9bba 773e a995 623d
000000e0: d0fa 7ebe f254 4e3e e9cb 253d fac5 09be
000000f0: a073 9cbc 6f3b 1f3d 883c 8f3e 9df8 b8be
00000100: 4f0f 9bbe 5d6f a1be a6c2 9cbe dd6c f53a
00000110: 5568 5c3e 9559 d23d 16a4 243e b1c6 373d
00000120: 96d3 d6bb d013 b6be a1a5 b33e 3bbf c33e
00000130: 217c aeba e3b0 8d3d bff7 863d 8b76 c83e
00000140: c428 adba d43b 5fbd 46df 56be 14e9 cc3d
00000150: b4ca 363e 0a9a a9be fe22 043e 32ad c53d
00000160: b584 303e 71bb 363e 2c99 c1bd ea5d 543d
00000170: 8cc0 8bbe 11da 703e 337c a8be 5d53 b0be
00000180: 4481 93be ac39 5bbe 0cfc 683c 6c47 823e
00000190: 5b52 37bd 97fb 903e a50c 71bd 397e aa3e
000001a0: bb7d 8a3e 6d5e 7b3e ac65 1d3e ede3 86be
000001b0: 5217 c63e aa90 bfbe 18a5 8bbe 5943 6ebe
000001c0: e565 c4bd 05d0 2c3e f4bf a23d c02c adbe
000001d0: ff4c c33e c4d8 bd3e caf6 403e e4c2 c5be
000001e0: 82e0 5f3e 417b e13d a253 25bd 3aac a7be
000001f0: 7005 ab3e cb3f e0bd 12c1 a2be 6266 9a3e
00000200: 77b8 1b3e 0a66 e03d adbc 803e b745 053e
00000210: df1c a5bd 01d4 73bd a6c3 a63e 1cb9 47bc
00000220: b681 a7be e966 89be dd6d 96be db6c 0b3d
00000230: f411 933e 2b3d 6f3e f263 d33d 8171 043e
00000240: 8be9 38be c11e bd3e 2528 133e 4be4 78be
00000250: a5ee 83be f5f9 b3be 6e01 d1bd 4f39 923e
00000260: ee85 b33c 557c 39be cecc da3d 8809 8abe
00000270: 361f eb3d e8fa 883e 41f6 413e 483f e6bd
00000280: 89cf 02be 35c4 243e fd13 6d3e 0c87 b4bd
00000290: 9a9c 743a c243 1fbd fed8 1abd 3265 b2be
000002a0: 0e6a a5be fb5c ac3e 393c 3cbe 7003 943e
000002b0: 0cd8 763e ae4b 5bbd 3c62 3dbe 0bab 113c
000002c0: 7882 83bd b329 6abe 35ce c43e 894c d7bc
000002d0: 2d47 50bd 3998 86be 9e66 7e3d 5da4 5e3d
000002e0: 2759 c73e d14c e7bd 70ba 5f3e 685a ad3c
000002f0: c553 523e 9178 e73b dd77 67bd 8eb3 1c3e
00000300: a78c 2ebe 9ad5 703e d401 a8be 08d0 8ebe
00000310: 1407 c13e c57f 0fbe 22ff 9ebe a6c8 91be
00000320: a148 c43e 9680 40bd b5b2 a8be e0a7 4bbd
00000330: 7b54 3dbe 68e2 84be 8da3 40be 4d90 983e
00000340: 3727 1d3e 129b 683e d5df 013d a132 20be
00000350: 5053 1dbe 5a53 85be e8e2 8fbe dbd8 acbe
00000360: 170c 893d 7b26 523e 3e1d a43e 7af9 2bbc
00000370: 4b84 45bd ad0f c8bc 58c7 1a3e a6ce 61bd
00000380: 9b86 09be cb67 cdbd e3dc c4be a439 9abe
00000390: 0f66 25be e721 1a3d 9526 78be 4c1f 133e
000003a0: 285b 57be 690b c43e 1975 b1be 524b 5f3e
000003b0: a68d 4bbe 07d7 05be 8460 bcbe ad1e bbbe
000003c0: e1d4 bebe a8d8 00bc ef53 ba3e 4fac 333e
000003d0: 6107 7b3e bc1d af3d 7b30 14be 5675 14be
000003e0: 8906 dcbd 4123 bcbe 602e 583e 44e0 e2bd
000003f0: 86c4 5fbe 8e14 c23d 283b d0b9 3208 583e

naim.encoder.0.ff.3.weight f4 [6, 1000]
-0.017994259 -0.010003356 -0.0068038977 -0.0061566653 -0.0081493715 0.006144664 -0.0016993182 -0.012643057
0.023126412 0.025359184 -0.003294568 -0.0056850263 -0.031568978 -0.018980734 -0.0017857951 -0.003914365
0.008549582 -0.009728258 -0.004538583 0.005885229 0.03686313 0.024033474 -0.018164081 -0.0023837113
0.0006774894 0.0014336011 0.016618837 -0.008486393 -0.0015197258 -0.027001496 -0.009062342 -0.027957197
0.013795596 -0.020164212 -0.0146737965 -0.024009692 0.022489198 -0.010866567 0.030476252 -0.015005716
0.015163733 -0.0040697004 -0.021486849 0.02631032 -0.020717677 -0.014273897 0.016198162 -0.0005852614
0.00041615585 0.03525686 -0.021065861 -0.00919228 0.015562234 -0.0045893993 0.0035639761 -0.0069064465
0.0010099459 0.028336346 -0.002165338 0.013997203 0.030983483 0.024780441 0.0111504905 0.025037805
-0.006987462 0.005934612 -0.013185958 -0.029816862 0.024216427 -0.028271776 -0.020317426 -0.0073572993
-0.026918054 -0.025161626 -0.015262356 0.005343638 -0.022960208 -0.020402592 -0.011192953 -0.02375493
0.009898067 0.0033451056 0.012795159 0.029284911 -0.009825922 -0.009167504 0.012740936 0.027750077
0.01256838 -0.0004684414 0.017865637 -0.027277624 -0.015537037 -0.012838423 -0.027215667 -0.024981545
-0.02295658 0.011362116 0.011769832 -0.0029620677 -0.006954003 0.0038378183 0.022881797 -0.021789499
0.023115106 0.014837956 -0.011329165 0.023140281 -0.00020176546 -0.0073781474 0.029125711 0.01114946
0.024726951 -0.009396127 -0.027249796 0.028386477 0.00080213824 0.016044086 -0.007864137 0.0123257255
-0.022467744 0.0051948167 0.02482334 -0.0046278923 0.030183468 0.011072081 0.017920457 0.029811861
-0.007785765 -0.006116767 0.020001097 -0.014865671 -0.015924837 0.01879782 -0.028214684 -0.012104292
0.0108729 0.010609505 -0.017096333 -0.00928593 0.023372363 -0.02222135 0.019561797 -0.0040089954
-0.0065942463 -0.02692978 -0.0060590655 0.025398584 -0.01623814 -0.024605583 -0.0036923042 0.01995767
-0.0053782333 0.031041399 0.033598926 0.02920638 -0.0152407205 -0.022818638 -0.029471302 -0.0064057633
-0.016226616 0.017642 0.006215327 0.029491188 -0.02842754 -0.02055 -0.00073792954 0.0072386703
0.030992866 -0.00034269784 0.026127484 -0.0107468385 -0.0021369301 -0.007460336 -0.0064108195 -0.009451115
-0.024453288 -0.0068722605 -0.007909685 -0.016274445 -0.024068186 -0.02640292 -0.0015616273 -0.021166043
0.030623468 -0.00089760445 0.0066340147 -0.018294042 0.0033763084 -0.023363756 0.014394303 0.015015146
-0.027740214 0.01403491 0.0072649266 -0.014077272 -0.011710205 0.028481608 -0.012445325 0.029037327
0.0072790193 0.019978976 -0.010456024 0.011509014 0.006574206 0.024187613 -0.028079096 -0.013723758
0.0021651268 -0.023000462 0.010491407 0.024258152 0.020733245 -0.017021624 0.014945298 -0.024484752
0.01823562 -0.027870366 -0.025273915 0.01054006 0.0017348791 0.010854749 0.029453931 0.02990537
0.017439364 -0.027662013 -0.006096827 0.0051827068 -0.028238937 0.02707827 0.022200156 -0.015750753
-0.0035494391 -0.019418895 0.016208319 0.006178716 -0.00790462 0.019876836 -0.0056505203 0.008938336
0.024306178 -0.013390561 -0.026205389 0.018805418 -0.020418458 0.011249611 -0.007258354 0.018993106
0.0027926737 -0.01315388 -0.02018434 0.025497783 -0.013265393 0.011224691 0.02624751 -0.022169443
00000000: b268 93bc 1ee5 23bc 3bf3 debb dabd c9bb
00000010: f184 05bc 2d59 c93b a8bb deba d324 4fbc
00000020: 9a73 bd3c 10be cf3c aee9 57bb 7549 babb
00000030: 794e 01bd 7c7d 9bbc 5711 eaba 1344 80bb
00000040: 8c13 0c3c 4563 1fbc 65b8 94bb e1d8 c03b
00000050: cbfd 163d d9e1 c43c d7cc 94bc 0a38 1cbb
00000060: 8b99 313a ace7 bb3a 3a24 883c 830a 0bbc
00000070: 8931 c7ba 3e32 ddbc 387a 14bc 7e06 e5bc
00000080: ec06 623c 6b2f a5bc 5d6a 70bc f9af c4bc
00000090: 443b b83c af09 32bc 55a9 f93c 89da 75bc
000000a0: 4e71 783c 1f5b 85bb 3005 b0bc bd88 d73c
000000b0: 1eb8 a9bc 10dd 69bc 02b2 843c 3a6c 19ba
000000c0: 7e2f da39 7f69 103d 5092 acbc 379b 16bc
000000d0: bef8 7e3c ac62 96bb 9991 693b 794f e2bb
000000e0: 2960 843a a021 e83c 58e8 0dbb 8654 653c
000000f0: 13d1 fd3c 5a00 cb3c 8cb0 363c 151c cd3c
00000100: 14f7 e4bb 2277 c23b eb09 58bc 7e42 f4bc
00000110: 8761 c63c 369a e7bc bb70 a6bc 8015 f1bb
00000120: 4083 dcbc c11f cebc f60e 7abc af19 af3b
00000130: 0c17 bcbc 5623 a7bc a662 37bc b399 c2bc
00000140: 812b 223c 8f39 5b3b c9a2 513c e9e6 ef3c
00000150: e7fc 20bc 4c33 16bc 5cbf 503c 2154 e33c
00000160: 9beb 4d3c 2499 f5b9 f55a 923c 5375 dfbc
00000170: 0e8f 7ebc 4058 52bc 64f3 debc 19a6 ccbc
00000180: 700f bcbc 2b28 3a3c 41d6 403c 401f 42bb
00000190: 68de e3bb e883 7b3b 9b72 bb3c e47f b2bc
000001a0: e45b bd3c e61a 733c f69d 39bc b090 bd3c
000001b0: 0191 53b9 63c4 f1bb 0b99 ee3c 3aac 363c
000001c0: 2d90 ca3c 37f2 19bc f73a dfbc c28a e83c
000001d0: 9646 523a e36e 833c 95d8 00bc d7f1 493c
000001e0: 460e b8bc 4839 aa3b 515a cb3c 93a5 97bb
000001f0: 5243 f73c ac67 353c eccd 923c 0138 f43c
00000200: bb1f ffbb 296f c8bb 57d9 a33c 258f 73bc
00000210: ce74 82bc e3fd 993c 7b22 e7bc 1551 46bc
00000220: 3f24 323c 7dd3 2d3c 9c0d 8cbc 0324 18bc
00000230: 6677 bf3c 8c09 b6bc 1040 a03c e45d 83bb
00000240: 8c14 d8bb d89b dcbc 208b c6bb b110 d03c
00000250: d905 85bc a691 c9bc 96fa 71bb 447e a33c
00000260: e43b b0bb 884a fe3c 079f 093d 3842 ef3c
00000270: 37b4 79bc 27ee babc cd6d f1bc 70e7 d1bb
00000280: aeed 84bc f585 903c f1a9 cb3b 8197 f13c
00000290: dfe0 e8bc 7958 a8bc 9d71 41ba 5e32 ed3b
000002a0: c0e4 fd3c 20ac b3b9 4e09 d63c 8213 30bc
000002b0: bd0b 0cbb d675 f4bb da11 d2bb d9d8 1abc
000002c0: 4352 c8bc b330 e1bb a097 01bc fc51 85bc
000002d0: a52a c5bc f04a d8bc 84af ccba 6964 adbc
000002e0: 11de fa3c 374d 6bba 2662 d93b 63dd 95bc
000002f0: 0e45 5d3b 5965 bfbc 15d6 6b3c 1602 763c
00000300: 723f e3bc aef2 653c 9f0e ee3b 5ca4 66bc
00000310: 29dc 3fbc 4352 e93c 7ae7 4bbc b0df ed3c
00000320: d784 ee3b f3aa a33c be4f 2bbc 4e90 3c3c
00000330: 706c d73b 1a25 c63c 2206 e6bc 9dd9 60bc
00000340: cde4 0d3b 776b bcbc 26e4 2b3c 08b9 c63c
00000350: c4d8 a93c ef70 8bbc 20dd 743c 3f94 c8bc
00000360: de62 953c 6550 e4bc 3e0b cfbc 37b0 2c3c
00000370: e264 e33a 1ed8 313c 5f49 f13c 1bfc f43c
00000380: ffdc 8e3c 729b e2bc e4c7 c7bb b2d3 a93b
00000390: 5855 e7bc 40d3 dd3c 1add b53c b907 81bc
000003a0: b59d 68bb 6014 9fbc 4fc7 843c d476 ca3b
000003b0: 6182 01bc bfd4 a23c 0028 b9bb 1972 123c
000003c0: c01d c73c 1564 5bbc afac d6bc d20d 9a3c
000003d0: 9c44 a7bc 4a50 383c 7dd7 edbb 6e97 9b3c
000003e0: 4a05 373b 5f83 57bc a159 a5bc bae0 d03c
000003f0: 1757 59bc c4e7 373c 0505 d73c b19c b5bc

naim.encoder.0.ff.3.bias f4 [6]
-0.028765436 -0.0047984323 -0.015601805 -0.013194133 0.025675608 -0.025361283
00000000: 7ea5 ebbc 2b3c 9dbb b79e 7fbc 342c 58bc
00000010: a755 d23c 77c2 cfbc

naim.encoder.1.layer_norm_1.weight f4 [6]
0.986121 0.9857308 0.98552597 0.9857865 0.9858425 0.98632467
00000000: 6d72 7c3f db58 7c3f 6e4b 7c3f 815c 7c3f
00000010: 2d60 7c3f c67f 7c3f

naim.encoder.1.layer_norm_1.bias f4 [6]
0.004729748 -0.006190005 -0.0037586652 0.003154084 -0.003913445 0.0039622257
00000000: 00fc 9a3b 87d5 cabb f053 76bb c0b4 4e3b
00000010: 5b3c 80bb 8fd5 813b

naim.encoder.1.attn.linear_q.weight f4 [6, 6]
-0.2838332 -0.116742924 -0.16723962 0.08704902 0.24750392 0.054320335 0.000433277 0.18193053
0.22972172 0.008694107 -0.26154113 -0.33955267 0.39320913 0.11825722 0.35990116 -0.14288317
0.09889285 -0.20097224 -0.20039947 -0.1724305 0.39382634 0.28347617 -0.23735917 -0.2744038
0.12071595 -0.08238572 0.009901213 0.038389727 -0.3432692 0.07628668 -0.0020845819 -0.2717383
-0.3895909 0.19450217 -0.35908553 -0.1695675
00000000: 9652 91be ea16 efbd dd40 2bbe c246 b23d
00000010: ab71 7d3e 007f 5e3d 7429 e339 ff4b 3a3e
00000020: 2c3c 6b3e ba71 0e3c b8e8 85be d9d9 adbe
00000030: b552 c93e d730 f23d f744 b83e f74f 12be
00000040: 5688 ca3d abcb 4dbe 8535 4dbe 9f91 30be
00000050: 9ba3 c93e ca23 913e 480e 73be a87e 8cbe
00000060: ed39 f73d d8b9 a8bd b338 223c 8c3e 1d3d
00000070: fbc0 afbe 313c 9c3d 7b9d 08bb 4821 8bbe
00000080: 7578 c7be 942b 473e 0fda b7be 1aa3 2dbe

naim.encoder.1.attn.linear_k.weight f4 [6, 6]
0.2342404 -0.25862235 -0.17912658 -0.24485786 0.22633046 0.11596437 0.02899549 0.12974052
0.10282977 -0.07247104 -0.024460994 -0.24139373 -0.17784461 0.0006988021 -0.03642306 0.08862575
0.17967944 0.29909256 0.3769443 -0.018530516 0.14694095 -0.3164906 0.22219166 -0.095272124
-0.30981752 -0.30377066 -0.32617858 -0.17446557 0.17227882 -0.31879008 -0.035686973 -0.049607787
0.13616693 -0.15292029 0.19278371 -0.23843284
00000000: b7dc 6f3e 266a 84be f56c 37be 05bc 7abe
00000010: 2cc3 673e ba7e ed3d f387 ed3c b3da 043e
00000020: 6a98 d23d b26b 94bd 6c62 c8bc eb2f 77be
00000030: e61c 36be d12f 373a 5930 15bd 6b81 b53d
00000040: e3fd 373e a922 993e d8fe c03e 4fcd 97bc
00000050: b077 163e 0e0b a2be 3686 633e 081e c3bd
00000060: 67a0 9ebe d487 9bbe e100 a7be 1aa7 32be
00000070: dc69 303e 7438 a3be 812c 12bd 8931 4bbd
00000080: 586f 0b3e 2397 1cbe 1869 453e bd27 74be

naim.encoder.1.attn.linear_v.weight f4 [6, 6]
0.23069957 -0.40386003 -0.26761252 0.14335006 0.060558315 0.28336966 0.19944797 -0.32801756
0.30770034 -0.093331486 -0.062873505 -0.16012603 -0.07316672 -0.3756304 0.02205559 0.30030176
-0.069769524 0.31076938 -0.17581142 0.15318148 0.02677245 -0.14360406 0.3850762 0.03180598
0.009624643 -0.04927406 -0.02359968 0.32097128 -0.04851221 0.24498816 0.13486353 0.25228244
-0.2950877 -0.34386158 -0.12032579 -0.10002734
00000000: 823c 6c3e bec6 cebe 8204 89be 5cca 123e
00000010: ff0b 783d d415 913e 173c 4c3e ebf1 a7be
00000020: e68a 9d3e 9424 bfbd d3c3 80bd 14f8 23be
00000030: 6fd8 95bd a152 c0be edad b43c 27c1 993e
00000040: 53e3 8ebd 2a1d 9f3e e907 34be 9bdb 1c3e
00000050: e651 db3c f10c 13be b528 c53e fd46 023d
00000060: aeb0 1d3c 99d3 49bd 1e54 c1bc 5956 a43e
00000070: bdb4 46bd 2dde 7a3e aa19 0a3e 2a2b 813e
00000080: bc15 97be a00e b0be 5e6d f6bd 22db ccbd

naim.encoder.1.attn.linear_o.weight f4 [6, 6]
0.38814664 0.39463213 -0.09366381 -0.18601716 0.0010778268 0.15826935 0.14200965 0.070382275
0.30167812 0.0375607 0.3278215 0.09100421 -0.03904021 0.3337902 0.009699802 0.018375812
-0.08097968 0.23711415 -0.12046325 0.30739757 0.2161473 -0.010524246 -0.066380225 0.15001194
-0.38445032 -0.12102274 -0.13027999 -0.036543943 -0.18126571 -0.16225608 0.1800436 -0.029945895
-0.26878917 -0.016676689 0.11781866 -0.15133634
00000000: 28bb c63e 390d ca3e d0d2 bfbd 487b 3ebe
00000010: de45 8d3a 5c11 223e fa6a 113e 9524 903d
00000020: 8e75 9a3e 40d9 193d 38d8 a73e 6a60 ba3d
00000030: a1e8 1fbd 8de6 aa3e ebeb 1e3c df88 963c
00000040: add8 a5bd 0dce 723e 70b5 f6bd 3763 9d3e
00000050: b855 5d3e e36d 2cbc 5bf2 87bd bb9c 193e
00000060: acd6 c4be c5da f7bd 1e68 05be 1aaf 15bd
00000070: b89d 39be 7526 26be 595d 383e 1851 f5bc
00000080: bc9e 89be 8d9d 88bc e94a f13d eaf7 1abe

naim.encoder.1.layer_norm_2.weight f4 [6]
0.9961818 0.9968675 0.9956107 0.9920726 0.9919829 0.99439
00000000: c505 7f3f b532 7f3f 58e0 7e3f 78f8 7d3f
00000010: 97f2 7d3f 5890 7e3f

naim.encoder.1.layer_norm_2.bias f4 [6]
0.004518373 0.0015587856 -0.0005074015 -0.0013184128 -0.00017110529 -0.0035281163
00000000: dc0e 943b 2a50 cc3a 2303 05ba 98ce acba
00000010: ba6a 33b9 f837 67bb

naim.encoder.1.ff.0.weight f4 [1000, 6]
0.33357394 -0.2707486 0.34161034 0.14395988 -0.22104959 -0.37219885 0.14904858 -0.06756815
0.10930192 0.16271824 -0.263647 0.043946944 -0.081075326 -0.35464835 0.0644318 0.08010133
-0.29900712 0.3699891 0.20099063 0.218497 -0.341805 -0.3390834 0.1638425 0.22286174
-0.33608133 0.37805524 -0.07758371 -0.31728742 -0.28490862 -0.08223751 0.20133895 -0.26921824
0.2864782 0.3942651 0.3700314 0.17499502 -0.1581985 -0.14465606 0.27889302 -0.0774574
0.05432681 0.3971394 -0.3925364 -0.08418226 -0.14721794 -0.058947016 0.011771342 -0.08233925
0.38201505 0.15352467 -0.24274133 0.38225245 -0.10116272 0.051523224 0.034717035 -0.28666532
0.19403248 -0.23384206 -0.34958506 0.32905835 0.23086877 -0.15802154 -0.2782256 0.35463864
0.13222189 -0.25737125 -0.3255363 -0.15592933 -0.2135117 0.022260195 0.030294612 -0.38555342
0.19194329 0.19443463 -0.35587996 0.31366888 -0.14815675 0.19613025 0.3861491 0.22805786
0.26019186 0.017760068 0.04842932 -0.33325908 -0.28241172 0.31452057 -0.3588158 0.16243485
-0.22685213 0.34012648 0.28732237 -0.083852686 -0.043260153 -0.27030084 0.3670625 -0.23245886
0.13204761 0.2720888 -0.37906224 -0.38725358 -0.27243796 -0.050089467 0.2407548 -0.113213085
-0.15522374 0.2583919 0.3135583 0.20220377 0.33891156 -0.35405982 -0.35000643 0.056563746
-0.32895607 -0.101126716 0.2352446 0.3825522 -0.07149893 -0.34537673 -0.1883464 0.38332796
-0.06255142 -0.36549354 -0.20187674 -0.24076469 -0.093776084 -0.28136465 -0.1246325 0.36000663
-0.17912595 -0.07574514 0.21548082 -0.36712676 -0.20232375 -0.03255737 0.3065559 0.049610183
-0.004810492 -0.12459848 0.17610702 -0.16285616 -0.05611141 -0.16394994 0.14191262 0.39316565
-0.2938056 -0.028831901 -0.02094403 -0.19289227 -0.27692026 -0.16325851 -0.3085532 0.29652056
-0.27622008 0.23837051 0.32398275 -0.070281595 0.36710316 0.28244174 -0.2712012 0.21927422
0.092582926 0.30811524 -0.2963058 0.3035913 0.050293744 0.18681897 -0.21362878 0.25589317
-0.025158035 0.32296923 0.030909518 0.23925698 -0.24342917 -0.347892 0.12936623 0.20246455
0.100493655 0.11590612 0.2549077 -0.19692153 0.20615733 0.18189643 -0.15984364 -0.22909941
-0.39128295 0.2878239 -0.0047518057 0.08270248 -0.27562547 -0.29365176 0.32133356 0.27403402
0.2089185 0.31265438 0.31580055 0.23056081 0.28072074 -0.04756325 0.09512392 -0.33825245
-0.1339418 -0.035625156 -0.010205001 0.38870963 0.3193247 0.11602257 0.36662012 -0.19513586
0.06815825 -0.3094377 -0.3329038 0.20458731 0.11740969 -0.01658187 -0.2502702 0.28009897
-0.026347356 0.26520306 -0.26758656 0.29989114 -0.018082742 -0.11961565 -0.029279403 -0.3024584
-0.06987987 0.018283322 -0.28829816 0.20912527 0.37157246 0.19698 -0.1865196 -0.24004683
-0.30906442 -0.23803274 0.22978589 0.17408024 -0.1404581 0.0043008165 -0.05393721 0.008914196
-0.39232096 0.33117017 -0.13038504 -0.33806807 -0.0040103537 0.110290945 0.17347622 -0.1930142
-0.022161119 -0.29183918 -0.29332903 -0.25600675 -0.24454725 0.24346158 -0.3542364 -0.07659294
00000000: 34ca aa3e 8f9f 8abe 8de7 ae3e 386a 133e
00000010: d35a 62be d990 bebe 31a0 183e 2c61 8abd
00000020: afd9 df3d 9c9f 263e bdfc 86be b601 343d
00000030: d20a a6bd 7894 b5be d2f4 833d 2b0c a43d
00000040: 7617 99be 366f bd3e 7dd0 4d3e adbd 5f3e
00000050: 1101 afbe 579c adbe 54c6 273e de35 643e
00000060: da12 acbe 7590 c13e 35e4 9ebd 7f73 a2be
00000070: 8bdf 91be 246c a8bd cc2b 4e3e f9d6 89be
00000080: 45ad 923e 1ddd c93e c174 bd3e e531 333e
00000090: cafe 21be b820 14be 11cb 8e3e fca1 9ebd
000000a0: ca85 5e3d db55 cb3e 88fa c8be c067 acbd
000000b0: 4dc0 16be 6d72 71bd 96dc 403c 7ba1 a8bd
000000c0: 7a97 c33e 9235 1d3e 2f91 78be 98b6 c33e
000000d0: 662e cfbd 040a 533d 7333 0e3d ccc5 92be
000000e0: 73b0 463e 4b74 6fbe d0fc b2be 567a a83e
000000f0: dd68 6c3e 66d0 21be 9673 8ebe 3293 b53e
00000100: 2d65 073e 2ac6 83be b2ac a6be f0ab 1fbe
00000110: d0a2 5abe 035b b63c 682c f83c 4267 c5be
00000120: c88c 443e df19 473e e635 b6be 3599 a03e
00000130: 67b6 17be 5ed6 483e 56b5 c53e 0088 693e
00000140: de37 853e 907d 913c d35d 463d efa0 aabe
00000150: 4598 90be d708 a13e b4b6 b7be 5255 263e
00000160: ed4b 68be 0f25 ae3e eb1b 933e f5ba abbd
00000170: 8f31 31bd df64 8abe 9eef bb3e b209 6ebe
00000180: 7d37 073e 394f 8b3e 7214 c2be 1a46 c6be
00000190: fd7c 8bbe 9d2a 4dbd 6d88 763e 43dc e7bd
000001a0: f9f2 1ebe f14b 843e b78a a03e 810e 4f3e
000001b0: d185 ad3e 5447 b5be 0b34 b3be 63af 673d
000001c0: ee6c a8be 861b cfbd f6e3 703e e2dd c33e
000001d0: 086e 92bd 38d5 b0be e1dd 40be 9043 c43e
000001e0: f51a 80bd f821 bbbe c7b8 4ebe 058b 76be
000001f0: ad0d c0bd 070f 90be 533f ffbd ca52 b83e
00000200: cb6c 37be 4520 9bbd 01a7 5c3e 0af8 bbbe
00000210: f52d 4fbe e05a 05bd e5f4 9c3e 0c34 4b3d
00000220: 55a1 9dbb 7d2d ffbd 6655 343e c4c3 26be
00000230: 14d5 65bd 7ee2 27be 8b51 113e 024d c93e
00000240: b06d 96be e130 ecbc d092 abbc 8d85 45be
00000250: 7ec8 8dbe 3d2d 27be affa 9dbe 8bd1 973e
00000260: b86c 8dbe 6617 743e 11e1 a53e ccef 8fbd
00000270: f2f4 bb3e 349c 903e e2da 8abe 6c89 603e
00000280: 1e9c bd3d 48c1 9d3e 65b5 97be 5270 9b3e
00000290: d000 4e3d 794d 3f3e 81c1 5abe 6e04 833e
000002a0: 3918 cebc 395c a53e f535 fd3c c8ff 743e
000002b0: 7f45 79be e61e b2be 9578 043e de52 4f3e
000002c0: 9ecf cd3d 3060 ed3d 4383 823e cca5 49be
000002d0: e81a 533e 0f43 3a3e 0dae 23be 0999 6abe
000002e0: 3d56 c8be a75d 933e 09b5 9bbb eb5f a93d
000002f0: c81e 8dbe 8659 96be d585 a43e 304e 8c3e
00000300: bbee 553e 3c14 a03e 9cb0 a13e 2218 6c3e
00000310: a1ba 8f3e afd1 42bd 54d0 c23d 6d2f adbe
00000320: 0a28 09be afeb 11bd e032 27bc f304 c73e
00000330: 877e a33e 3e9d ed3d a2b5 bb3e b2d1 47be
00000340: 8d96 8b3d 9e6e 9ebe 5e72 aabe 567f 513e
00000350: 7e74 f03d b4d6 87bc 6a23 80be 2269 8f3e
00000360: 69d6 d7bc b2c8 873e 1b01 89be 558b 993e
00000370: 4222 94bc 0df9 f4bd 5cdb efbc d4db 9abe
00000380: 2d1d 8fbd e8c6 953c d19b 93be ef24 563e
00000390: bf3e be3e 20b5 493e fefe 3ebe d6ce 75be
000003a0: b13d 9ebe dbbe 73be fe4c 6b3e 1742 323e
000003b0: 40d4 0fbe dded 8c3b 44ed 5cbd d90c 123c
000003c0: 4bde c8be 238f a93e a883 05be 4217 adbe
000003d0: 4969 83bb 38e0 e13d c0a3 313e 84a5 45be
000003e0: 3c8b b5bc f26b 95be 392f 96be 5113 83be
000003f0: 986a 7abe fe4d 793e 795e b5be c2dc 9cbd
