outputs/2025-03-23/17-22-43/outputs/model_epoch_40.pt (torch, 206230 bytes, 104 tensors)

naim.embeddings.0.embeddings.weight f4 [2, 6]
0.36714014 -0.551016 -0.3223753 0.3088318 0.41937605 0.2689645 0.0 0.0
0.0 0.0 0.0 0.0
00000000: cbf9 bb3e 620f 0dbf 600e a5be 341f 9e3e
00000010: 75b8 d63e b7b5 893e 0000 0000 0000 0000
00000020: 0000 0000 0000 0000 0000 0000 0000 0000

naim.embeddings.1.embeddings.weight f4 [2, 6]
0.04236591 -0.068429574 -0.14104636 0.36216384 0.19229217 -0.079679884 0.0 0.0
0.0 0.0 0.0 0.0
00000000: e087 2d3d ce24 8cbd 756e 10be 8a6d b93e
00000010: 3de8 443e 352f a3bd 0000 0000 0000 0000
00000020: 0000 0000 0000 0000 0000 0000 0000 0000

naim.embeddings.2.embeddings.weight f4 [2, 6]
0.6172992 0.041771505 -0.014785365 0.5481296 -0.25009567 0.33671927 0.0 0.0
0.0 0.0 0.0 0.0
00000000: 5207 1e3f 9918 2b3d 513e 72bc 3952 0c3f
00000010: 8a0c 80be 7866 ac3e 0000 0000 0000 0000
00000020: 0000 0000 0000 0000 0000 0000 0000 0000

naim.embeddings.3.embeddings.weight f4 [2, 6]
0.62796605 -0.4887271 0.041632455 0.47502044 0.13613066 0.0019797536 0.0 0.0
0.0 0.0 0.0 0.0
00000000: 62c2 203f 703a fabe cb86 2a3d e135 f33e
00000010: d665 0b3e c1be 013b 0000 0000 0000 0000
00000020: 0000 0000 0000 0000 0000 0000 0000 0000

naim.embeddings.4.embeddings.weight f4 [2, 6]
-0.49884504 -0.26517782 -0.21421684 0.13475282 0.09646982 0.010614698 0.0 0.0
0.0 0.0 0.0 0.0
00000000: 9e68 ffbe 63c5 87be a95b 5bbe a5fc 093e
00000010: f891 c53d 45e9 2d3c 0000 0000 0000 0000
00000020: 0000 0000 0000 0000 0000 0000 0000 0000

naim.embeddings.5.embeddings.weight f4 [2, 6]
-0.3159951 0.034362335 0.6203739 0.33605632 -0.5232984 0.0433494 0.0 0.0
0.0 0.0 0.0 0.0
00000000: 1cca a1be 85bf 0c3d d3d0 1e3f 930f ac3e
00000010: e2f6 05bf 248f 313d 0000 0000 0000 0000
00000020: 0000 0000 0000 0000 0000 0000 0000 0000

naim.embeddings.6.embeddings.weight f4 [2, 6]
-0.4920846 -0.11096222 -0.12291588 -0.262282 0.13483573 0.71759653 0.0 0.0
0.0 0.0 0.0 0.0
00000000: 83f2 fbbe 2940 e3bd 52bb fbbd d449 86be
00000010: 6112 0a3e 68b4 373f 0000 0000 0000 0000
00000020: 0000 0000 0000 0000 0000 0000 0000 0000

naim.embeddings.7.embeddings.weight f4 [2, 6]
-0.36074245 -0.011991303 0.100893915 -0.6563463 -0.04214504 0.5346013 0.0 0.0
0.0 0.0 0.0 0.0
00000000: 3cb3 b8be 2c77 44bc 78a1 ce3d 5006 28bf
00000010: 47a0 2cbd a1db 083f 0000 0000 0000 0000
00000020: 0000 0000 0000 0000 0000 0000 0000 0000

naim.embeddings.8.embeddings.weight f4 [2, 6]
0.6133299 -0.1283645 0.24901819 -0.57780266 -0.19127525 0.22175677 0.0 0.0
0.0 0.0 0.0 0.0
00000000: 3003 1d3f fc71 03be a0fe 7e3e e0ea 13bf
00000010: a9dd 43be 3514 633e 0000 0000 0000 0000
00000020: 0000 0000 0000 0000 0000 0000 0000 0000

naim.embeddings.9.embeddings.weight f4 [2, 6]
0.4309552 -0.24908192 0.057726618 -0.3882781 -0.56921643 -0.0012425169 0.0 0.0
0.0 0.0 0.0 0.0
00000000: 29a6 dc3e 550f 7fbe bf72 6c3d 63cc c6be
00000010: 2bb8 11bf f3db a2ba 0000 0000 0000 0000
00000020: 0000 0000 0000 0000 0000 0000 0000 0000

naim.embeddings.10.embeddings.weight f4 [2, 6]
0.113142125 0.100064225 0.26268935 0.24744245 0.010334148 0.43407232 0.0 0.0
0.0 0.0 0.0 0.0
00000000: 0fb7 e73d 79ee cc3d 387f 863e 8e61 7d3e
00000010: 8f50 293c ba3e de3e 0000 0000 0000 0000
00000020: 0000 0000 0000 0000 0000 0000 0000 0000

naim.embeddings.11.embeddings.weight f4 [2, 6]
0.16753724 -0.11116709 -0.46367 -0.49512187 -0.019480897 -0.27374205 0.0 0.0
0.0 0.0 0.0 0.0
00000000: e28e 2b3e 92ab e3bd 2766 edbe 9d80 fdbe
00000010: 6796 9fbc eb27 8cbe 0000 0000 0000 0000
00000020: 0000 0000 0000 0000 0000 0000 0000 0000

naim.embeddings.12.embeddings.weight f4 [2, 6]
0.15712954 -0.22438954 0.081084765 0.42066842 0.48093265 0.10837166 0.0 0.0
0.0 0.0 0.0 0.0
00000000: 91e6 203e 5fc6 65be c50f a63d da61 d73e
00000010: ce3c f63e f6f1 dd3d 0000 0000 0000 0000
00000020: 0000 0000 0000 0000 0000 0000 0000 0000

naim.embeddings.13.embeddings.weight f4 [2, 6]
-0.25188968 -0.10579614 -0.2688945 0.63835627 -0.17976709 0.30613068 0.0 0.0
0.0 0.0 0.0 0.0
00000000: aff7 80be a6ab d8bd 8aac 89be 516b 233f
00000010: dd14 38be 29bd 9c3e 0000 0000 0000 0000
00000020: 0000 0000 0000 0000 0000 0000 0000 0000

naim.embeddings.14.embeddings.weight f4 [2, 6]
0.18149701 0.64194465 -0.1488922 0.077844486 0.5987778 0.006245138 0.0 0.0
0.0 0.0 0.0 0.0
00000000: 5ada 393e 7c56 243f 3277 18be ee6c 9f3d
00000010: 8049 193f 04a4 cc3b 0000 0000 0000 0000
00000020: 0000 0000 0000 0000 0000 0000 0000 0000

naim.embeddings.15.embeddings.weight f4 [2, 6]
-0.60399973 0.3307369 0.07800807 -0.28744367 -0.17940691 0.537962 0.0 0.0
0.0 0.0 0.0 0.0
00000000: ba9f 1abf 5956 a93e b2c2 9f3d d12b 93be
00000010: 72b6 37be e1b7 093f 0000 0000 0000 0000
00000020: 0000 0000 0000 0000 0000 0000 0000 0000

naim.embeddings.16.embeddings.weight f4 [2, 6]
0.514939 0.09609692 0.07570836 -0.32574898 0.12902984 0.39440694 0.0 0.0
0.0 0.0 0.0 0.0
00000000: 0bd3 033f 76ce c43d fc0c 9b3d 92c8 a6be
00000010: 6620 043e b5ef c93e 0000 0000 0000 0000
00000020: 0000 0000 0000 0000 0000 0000 0000 0000

naim.embeddings.17.embeddings.weight f4 [2, 6]
0.110705055 0.16670822 0.13127957 -0.47003374 0.28811625 -0.26532954 0.0 0.0
0.0 0.0 0.0 0.0
00000000: 55b9 e23d 8fb5 2a3e 276e 063e 43a8 f0be
00000010: f983 933e 46d9 87be 0000 0000 0000 0000
00000020: 0000 0000 0000 0000 0000 0000 0000 0000

naim.embeddings.18.embeddings.weight f4 [2, 6]
-0.53113884 -0.46329618 -0.28995302 0.5362277 -0.03287055 -0.02294719 0.0 0.0
0.0 0.0 0.0 0.0
00000000: b7f8 07bf 2835 edbe b974 94be 3846 093f
00000010: 45a3 06bd bffb bbbc 0000 0000 0000 0000
00000020: 0000 0000 0000 0000 0000 0000 0000 0000

naim.embeddings.19.embeddings.weight f4 [2, 6]
0.51508576 -0.2748326 0.2693932 -0.21647042 -0.10108066 0.082308896 0.0 0.0
0.0 0.0 0.0 0.0
00000000: a9dc 033f dcb6 8cbe e8ed 893e 6caa 5dbe
00000010: 6103 cfbd 9191 a83d 0000 0000 0000 0000
00000020: 0000 0000 0000 0000 0000 0000 0000 0000

naim.embeddings.20.embeddings.weight f4 [2, 6]
0.271817 0.12500834 -0.32332355 -0.47946444 -0.1092974 0.22538622 0.0 0.0
0.0 0.0 0.0 0.0
00000000: 992b 8b3e 3002 003e aa8a a5be 5d7c f5be
00000010: 51d7 dfbd a5cb 663e 0000 0000 0000 0000
00000020: 0000 0000 0000 0000 0000 0000 0000 0000

naim.embeddings.21.embeddings.weight f4 [2, 6]
0.052685052 0.015079037 0.10954383 -0.04366471 0.026651 -0.13076961 0.0 0.0
0.0 0.0 0.0 0.0
00000000: 48cc 573d 110e 773c 8458 e03d c4d9 32bd
00000010: 3353 da3c 78e8 05be 0000 0000 0000 0000
00000020: 0000 0000 0000 0000 0000 0000 0000 0000

naim.embeddings.22.embeddings.weight f4 [2, 6]
0.331272 -0.23459002 -0.036885142 0.5407606 0.40850693 -0.18269882 0.0 0.0
0.0 0.0 0.0 0.0
00000000: 7c9c a93e 5e38 70be e014 17bd 496f 0a3f
00000010: d227 d13e 6615 3bbe 0000 0000 0000 0000
00000020: 0000 0000 0000 0000 0000 0000 0000 0000

naim.embeddings.23.embeddings.weight f4 [2, 6]
0.1959455 0.0018986315 -0.34034622 0.80607 -0.043834735 -0.2509501 0.0 0.0
0.0 0.0 0.0 0.0
00000000: f0a5 483e 80db f83a dc41 aebe 9b5a 4e3f
00000010: 0d8c 33bd 887c 80be 0000 0000 0000 0000
00000020: 0000 0000 0000 0000 0000 0000 0000 0000

naim.embeddings.24.embeddings.weight f4 [2, 6]
0.012355677 0.16049975 -0.17033161 0.40417176 -0.822083 0.04473294 0.0 0.0
0.0 0.0 0.0 0.0
00000000: 776f 4a3c 0c5a 243e 696b 2ebe 9aef ce3e
00000010: 0874 52bf e339 373d 0000 0000 0000 0000
00000020: 0000 0000 0000 0000 0000 0000 0000 0000

naim.embeddings.25.embeddings.weight f4 [2, 6]
0.3393437 -0.13907792 0.74270916 0.46826673 0.098516814 0.051872063 0.0 0.0
0.0 0.0 0.0 0.0
00000000: 75be ad3e 716a 0ebe 3022 3e3f a8c0 ef3e
00000010: 2fc3 c93d cd77 543d 0000 0000 0000 0000
00000020: 0000 0000 0000 0000 0000 0000 0000 0000

naim.embeddings.26.embeddings.weight f4 [2, 6]
0.15793918 -0.4670132 -0.48642325 0.2981462 0.39962143 0.34745353 0.0 0.0
0.0 0.0 0.0 0.0
00000000: cfba 213e 5b1c efbe 780c f9be 9ea6 983e
00000010: 2e9b cc3e 6ee5 b13e 0000 0000 0000 0000
00000020: 0000 0000 0000 0000 0000 0000 0000 0000

naim.embeddings.27.embeddings.weight f4 [2, 6]
-0.08633821 0.35177007 -0.5193092 -0.5264007 -0.10509077 0.036424037 0.0 0.0
0.0 0.0 0.0 0.0
00000000: 16d2 b0bd 351b b43e 73f1 04bf 32c2 06bf
00000010: d439 d7bd 5f31 153d 0000 0000 0000 0000
00000020: 0000 0000 0000 0000 0000 0000 0000 0000

naim.embeddings.28.embeddings.weight f4 [2, 6]
-0.19916457 0.20817305 -0.19057678 -0.3445809 0.116167985 -0.053869374 0.0 0.0
0.0 0.0 0.0 0.0
00000000: ccf1 4bbe 512b 553e 8f26 43be e86c b0be
00000010: 7be9 ed3d 22a6 5cbd 0000 0000 0000 0000
00000020: 0000 0000 0000 0000 0000 0000 0000 0000

naim.embeddings.29.embeddings.weight f4 [2, 6]
-0.51823515 -0.0026074522 0.63017106 -0.2049867 0.06645345 -0.33578417 0.0 0.0
0.0 0.0 0.0 0.0
00000000: 0fab 04bf cae1 2abb e452 213f 09e8 51be
00000010: bf18 883d e7eb abbe 0000 0000 0000 0000
00000020: 0000 0000 0000 0000 0000 0000 0000 0000

naim.embeddings.30.embeddings.weight f4 [2, 6]
-0.13857411 0.25091946 0.33187026 -0.2861583 -0.042701755 -0.36422703 0.0 0.0
0.0 0.0 0.0 0.0
00000000: 5fe6 0dbe 8478 803e e6ea a93e 5783 92be
00000010: 09e8 2ebd f77b babe 0000 0000 0000 0000
00000020: 0000 0000 0000 0000 0000 0000 0000 0000

naim.embeddings.31.embeddings.weight f4 [2, 6]
0.37483352 -0.23601374 -0.0303145 -0.11711273 -0.24528702 -0.26978064 0.0 0.0
0.0 0.0 0.0 0.0
00000000: 2eea bf3e 96ad 71be 1d56 f8bc cdd8 efbd
00000010: 852c 7bbe b020 8abe 0000 0000 0000 0000
00000020: 0000 0000 0000 0000 0000 0000 0000 0000

naim.embeddings.32.embeddings.weight f4 [2, 6]
0.08824143 0.3377903 -0.3461281 -0.75325114 0.26694664 -0.1815573 0.0 0.0
0.0 0.0 0.0 0.0
00000000: ecb7 b43d daf2 ac3e b437 b1be 11d5 40bf
00000010: 3bad 883e 28ea 39be 0000 0000 0000 0000
00000020: 0000 0000 0000 0000 0000 0000 0000 0000

naim.embeddings.33.embeddings.weight f4 [2, 6]
-0.17148575 -0.16088393 -0.36388046 -0.25985843 -0.34814394 0.70169276 0.0 0.0
0.0 0.0 0.0 0.0
00000000: f699 2fbe c2be 24be 8a4e babe 2a0c 85be
00000010: ec3f b2be 23a2 333f 0000 0000 0000 0000
00000020: 0000 0000 0000 0000 0000 0000 0000 0000

naim.embeddings.34.embeddings.weight f4 [2, 6]
-0.15652643 0.100671805 0.49728218 -0.009139745 -0.26109573 0.034028683 0.0 0.0
0.0 0.0 0.0 0.0
00000000: 7748 20be 052d ce3d c59b fe3e debe 15bc
00000010: 57ae 85be a961 0b3d 0000 0000 0000 0000
00000020: 0000 0000 0000 0000 0000 0000 0000 0000

naim.embeddings.35.embeddings.weight f4 [2, 6]
0.1772951 -0.14200717 0.316193 0.31913555 0.39284393 -0.5247267 0.0 0.0
0.0 0.0 0.0 0.0
00000000: d98c 353e 546a 11be 0de4 a13e bc65 a33e
00000010: d722 c93e 7d54 06bf 0000 0000 0000 0000
00000020: 0000 0000 0000 0000 0000 0000 0000 0000

naim.embeddings.36.embeddings.weight f4 [2, 6]
-0.14467876 0.3835388 -0.5027417 0.009075304 -0.00025834033 0.087615505 0.0 0.0
0.0 0.0 0.0 0.0
00000000: ab26 14be 335f c43e aeb3 00bf 95b0 143c
00000010: da71 87b9 c26f b33d 0000 0000 0000 0000
00000020: 0000 0000 0000 0000 0000 0000 0000 0000

naim.embeddings.37.embeddings.weight f4 [2, 6]
0.012759252 -0.32607594 -0.12549193 -0.0861095 0.21619006 0.11624881 0.0 0.0
0.0 0.0 0.0 0.0
00000000: 2f0c 513c 6df3 a6be f580 00be 2d5a b0bd
00000010: ed60 5d3e db13 ee3d 0000 0000 0000 0000
00000020: 0000 0000 0000 0000 0000 0000 0000 0000

naim.embeddings.38.embeddings.weight f4 [2, 6]
0.048894983 -0.07301216 0.010378346 0.29479927 -0.1508568 0.17936635 0.0 0.0
0.0 0.0 0.0 0.0
00000000: 1b46 483d 6687 95bd f009 2a3c eeef 963e
00000010: 347a 1abe d0ab 373e 0000 0000 0000 0000
00000020: 0000 0000 0000 0000 0000 0000 0000 0000

naim.embeddings.39.embeddings.weight f4 [2, 6]
-0.063924536 -0.27792165 0.49238324 -0.6159749 0.21657403 0.31694087 0.0 0.0
0.0 0.0 0.0 0.0
00000000: deea 82bd bf4b 8ebe a819 fc3e 88b0 1dbf
00000010: 95c5 5d3e 1346 a23e 0000 0000 0000 0000
00000020: 0000 0000 0000 0000 0000 0000 0000 0000

naim.embeddings.40.embeddings.weight f4 [2, 6]
-0.0785067 0.2310794 0.12747768 -0.14626803 -0.05949174 -0.33038536 0.0 0.0
0.0 0.0 0.0 0.0
00000000: 1fc8 a0bd 14a0 6c3e 8289 023e 49c7 15be
00000010: 9cad 73bd 4528 a9be 0000 0000 0000 0000
00000020: 0000 0000 0000 0000 0000 0000 0000 0000

naim.embeddings.41.embeddings.weight f4 [2, 6]
-0.122579634 -0.19106327 0.3286441 0.18686673 0.386929 0.5611036 0.0 0.0
0.0 0.0 0.0 0.0
00000000: 080b fbbd 17a6 43be 0a44 a83e fe59 3f3e
00000010: 8f1b c63e 7ca4 0f3f 0000 0000 0000 0000
00000020: 0000 0000 0000 0000 0000 0000 0000 0000

naim.embeddings.42.embeddings.weight f4 [2, 6]
-0.29138815 0.71232796 0.21552856 0.38481018 0.09833806 -0.13208404 0.0 0.0
0.0 0.0 0.0 0.0
00000000: d430 95be 205b 363f 85b3 5c3e d705 c53e
00000010: 7765 c93d 0a41 07be 0000 0000 0000 0000
00000020: 0000 0000 0000 0000 0000 0000 0000 0000

naim.embeddings.43.embeddings.weight f4 [2, 6]
-0.21953382 0.00455555 0.64937663 0.46325165 0.35525727 -0.054023128 0.0 0.0
0.0 0.0 0.0 0.0
00000000: 79cd 60be b946 953b 8c3d 263f 522f ed3e
00000010: 48e4 b53e 5b47 5dbd 0000 0000 0000 0000
00000020: 0000 0000 0000 0000 0000 0000 0000 0000

naim.embeddings.44.embeddings.weight f4 [2, 6]
-0.024918376 0.28952417 0.23663588 -0.35535187 0.14737377 0.50245804 0.0 0.0
0.0 0.0 0.0 0.0
00000000: 9f21 ccbc 833c 943e ad50 723e aef0 b5be
00000010: 26e9 163e 17a1 003f 0000 0000 0000 0000
00000020: 0000 0000 0000 0000 0000 0000 0000 0000

naim.embeddings.45.embeddings.weight f4 [2, 6]
-0.44816235 -0.58054966 -0.28817084 0.19216506 -0.46908897 -0.20021765 0.0 0.0
0.0 0.0 0.0 0.0
00000000: 8975 e5be e79e 14bf 218b 93be ebc6 443e
00000010: 6e2c f0be db05 4dbe 0000 0000 0000 0000
00000020: 0000 0000 0000 0000 0000 0000 0000 0000

naim.embeddings.46.embeddings.weight f4 [2, 6]
-0.062338818 0.08945368 0.2751545 -0.0942832 0.13271476 0.18429382 0.0 0.0
0.0 0.0 0.0 0.0
00000000: fd56 7fbd 7e33 b73d 0de1 8c3e 8d17 c1bd
00000010: 61e6 073e 85b7 3c3e 0000 0000 0000 0000
00000020: 0000 0000 0000 0000 0000 0000 0000 0000

naim.embeddings.47.embeddings.weight f4 [2, 6]
0.30677098 -0.121630736 -0.45763177 -0.24464306 0.2649613 -0.28821892 0.0 0.0
0.0 0.0 0.0 0.0
00000000: 1611 9d3e 8919 f9bd b64e eabe b683 7abe
00000010: 02a9 873e 6e91 93be 0000 0000 0000 0000
00000020: 0000 0000 0000 0000 0000 0000 0000 0000

naim.embeddings.48.embeddings.weight f4 [2, 6]
0.020336907 0.259943 0.084896445 0.32082686 0.670584 0.37328056 0.0 0.0
0.0 0.0 0.0 0.0
00000000: 9699 a63c 4017 853e 30de ad3d 6b43 a43e
00000010: 65ab 2b3f a11e bf3e 0000 0000 0000 0000
00000020: 0000 0000 0000 0000 0000 0000 0000 0000

naim.embeddings.49.embeddings.weight f4 [2, 6]
-0.23572764 0.24775979 0.2853576 -0.12115722 -0.37253517 0.40628648 0.0 0.0
0.0 0.0 0.0 0.0
00000000: 9662 71be beb4 7d3e 641a 923e 4721 f8bd
00000010: eebc bebe c804 d03e 0000 0000 0000 0000
00000020: 0000 0000 0000 0000 0000 0000 0000 0000

naim.embeddings.50.embeddings.weight f4 [2, 6]
0.51363826 0.37419 -0.09805932 -0.16573249 -0.10144095 -0.53917825 0.0 0.0
0.0 0.0 0.0 0.0
00000000: cc7d 033f d595 bf3e 53d3 c8bd c7b5 29be
00000010: 46c0 cfbd 9607 0abf 0000 0000 0000 0000
00000020: 0000 0000 0000 0000 0000 0000 0000 0000

naim.embeddings.51.embeddings.weight f4 [2, 6]
0.049158063 0.17926103 0.5312957 -0.6404312 0.34410068 -0.14157233 0.0 0.0
0.0 0.0 0.0 0.0
00000000: f759 493d 3490 373e ff02 083f 4df3 23bf
00000010: f72d b03e 56f8 10be 0000 0000 0000 0000
00000020: 0000 0000 0000 0000 0000 0000 0000 0000

naim.embeddings.52.embeddings.weight f4 [2, 6]
0.29516888 -0.23039319 -0.22599697 -0.21549562 0.1018423 -0.3387207 0.0 0.0
0.0 0.0 0.0 0.0
00000000: 6020 973e 31ec 6bbe c06b 67be e2aa 5cbe
00000010: b292 d03d cd6c adbe 0000 0000 0000 0000
00000020: 0000 0000 0000 0000 0000 0000 0000 0000

naim.embeddings.53.embeddings.weight f4 [2, 6]
-0.23796847 -0.16549951 0.16089632 -0.0635299 0.88410604 -0.008551802 0.0 0.0
0.0 0.0 0.0 0.0
00000000: 02ae 73be b478 29be 01c2 243e f71b 82bd
00000010: c654 623f db1c 0cbc 0000 0000 0000 0000
00000020: 0000 0000 0000 0000 0000 0000 0000 0000

naim.embeddings.54.embeddings.weight f4 [2, 6]
0.1720385 0.5149191 0.38274723 0.18872829 -0.59180593 0.12325097 0.0 0.0
0.0 0.0 0.0 0.0
00000000: dc2a 303e bdd1 033f 72f7 c33e fd41 413e
00000010: 9880 17bf 016b fc3d 0000 0000 0000 0000
00000020: 0000 0000 0000 0000 0000 0000 0000 0000

naim.embeddings.55.embeddings.weight f4 [2, 6]
0.31046993 -0.30412233 -0.53823024 0.53374904 -0.08899672 -0.15676704 0.0 0.0
0.0 0.0 0.0 0.0
00000000: eaf5 9e3e ecb5 9bbe 75c9 09bf c7a3 083f
00000010: ea43 b6bd 8a87 20be 0000 0000 0000 0000
00000020: 0000 0000 0000 0000 0000 0000 0000 0000

naim.embeddings.56.embeddings.weight f4 [2, 6]
-0.3963705 -0.45397827 0.1806205 -0.06956055 -0.40093783 -0.048986964 0.0 0.0
0.0 0.0 0.0 0.0
00000000: 13f1 cabe d76f e8be 95f4 383e c375 8ebd
00000010: b947 cdbe 8ea6 48bd 0000 0000 0000 0000
00000020: 0000 0000 0000 0000 0000 0000 0000 0000

naim.embeddings.57.embeddings.weight f4 [2, 6]
0.42852196 -0.31855586 -0.19246179 0.25013736 0.687417 -0.016101247 0.0 0.0
0.0 0.0 0.0 0.0
00000000: 3b67 db3e c119 a3be b414 45be 0112 803e
00000010: 8ffa 2f3f c3e6 83bc 0000 0000 0000 0000
00000020: 0000 0000 0000 0000 0000 0000 0000 0000

naim.embeddings.58.embeddings.weight f4 [2, 6]
-0.11084263 0.0043676314 0.03330233 -0.039264172 0.09317174 -0.24885605 0.0 0.0
0.0 0.0 0.0 0.0
00000000: 7601 e3bd 591e 8f3b 0668 083d 78d3 20bd
00000010: d3d0 be3d 1fd4 7ebe 0000 0000 0000 0000
00000020: 0000 0000 0000 0000 0000 0000 0000 0000

naim.embeddings.59.embeddings.weight f4 [2, 6]
0.30603158 -0.16185 -0.24415419 0.67002356 0.27294686 0.40998393 0.0 0.0
0.0 0.0 0.0 0.0
00000000: 2cb0 9c3e 02bc 25be 8e03 7abe aa86 2b3f
00000010: b1bf 8b3e 6ae9 d13e 0000 0000 0000 0000
00000020: 0000 0000 0000 0000 0000 0000 0000 0000

naim.embeddings.60.embeddings.weight f4 [2, 6]
-0.5277266 -0.05428645 0.05776374 0.5121097 0.25899562 0.37290558 0.0 0.0
0.0 0.0 0.0 0.0
00000000: 1719 07bf 785b 5ebd ac99 6c3d 9f19 033f
00000010: 139b 843e 7bed be3e 0000 0000 0000 0000
00000020: 0000 0000 0000 0000 0000 0000 0000 0000

naim.embeddings.61.embeddings.weight f4 [2, 6]
-0.22567208 0.038427047 0.13851772 -0.067231536 0.21822198 -0.12401152 0.0 0.0
0.0 0.0 0.0 0.0
00000000: 9516 67be ae65 1d3d 97d7 0d3e b0b0 89bd
00000010: 9575 5f3e c0f9 fdbd 0000 0000 0000 0000
00000020: 0000 0000 0000 0000 0000 0000 0000 0000

naim.embeddings.62.embeddings.weight f4 [2, 6]
0.27194098 0.14453435 -0.66414684 -0.06009707 -0.35270077 -0.43659678 0.0 0.0
0.0 0.0 0.0 0.0
00000000: d93b 8b3e d000 143e 8705 2abf 5828 76bd
00000010: 3295 b4be 9d89 dfbe 0000 0000 0000 0000
00000020: 0000 0000 0000 0000 0000 0000 0000 0000

naim.embeddings.63.embeddings.weight f4 [2, 6]
0.72003883 0.3000628 -0.28633198 0.16851059 -0.19329973 -0.15401237 0.0 0.0
0.0 0.0 0.0 0.0
00000000: 7754 383f d5a1 993e 1b9a 92be 0a8e 2c3e
00000010: 5df0 45be 6bb5 1dbe 0000 0000 0000 0000
00000020: 0000 0000 0000 0000 0000 0000 0000 0000

naim.encoder.0.layer_norm_1.weight f4 [6]
0.95205903 0.9478692 0.962092 0.9881676 0.95311517 0.9616466
00000000: 24ba 733f 8ea7 723f a94b 763f 8df8 7c3f
00000010: 5bff 733f 792e 763f

naim.encoder.0.layer_norm_1.bias f4 [6]
0.010430911 -0.010160875 0.011946148 -0.009100391 0.013264276 -0.012161247
00000000: 69e6 2a3c cc79 26bc c7b9 433c ce19 15bc
00000010: 6852 593c f83f 47bc

naim.encoder.0.attn.linear_q.weight f4 [6, 6]
-0.058196932 0.010417522 -0.07440142 -0.34832427 -0.02283736 0.15169173 -0.022221576 -0.15206267
0.0058467966 0.043008327 -0.071697876 -0.27001688 -0.16994332 -0.027484713 0.10433053 0.31184655
0.002924879 0.10754469 0.18247625 -0.13126566 -0.09011855 0.22103427 0.24483103 0.053182825
-0.26396167 0.18284152 -0.28521508 0.1580594 0.023986544 0.09438247 -0.3464806 -0.09519496
0.12623249 0.26252994 -0.07169926 0.31265643
00000000: e85f 6ebd 41ae 2a3c c65f 98bd 8f57 b2be
00000010: 6a15 bbbc 1455 1b3e 060a b6bc 51b6 1bbe
00000020: 7c96 bf3b 8029 303d 56d6 92bd a73f 8abe
00000030: 9f05 2ebe 9f27 e1bc 3fab d53d 5aaa 9f3e
00000040: 54af 3f3b 6440 dc3d 0edb 3a3e 816a 06be
00000050: 1390 b8bd cf56 623e fcb4 7a3e 3cd6 593d
00000060: fc25 87be cf3a 3b3e b607 92be 53da 213e
00000070: 6e7f c43c 994b c13d e865 b1be 93f5 c2bd
00000080: 1743 013e 536a 863e 10d7 92bd 8114 a03e

naim.encoder.0.attn.linear_k.weight f4 [6, 6]
-0.044040877 -0.19565915 -0.12856065 -0.0076213544 -0.035340182 0.14896642 -0.17612354 -0.07199732
-0.35337925 0.2836624 -0.039437216 -0.26980066 -0.0063163415 -2.3511933e-05 0.071805455 -0.022798432
0.20618705 -0.09525638 -0.076539606 -0.05286853 0.032887436 0.2774008 0.0010634335 0.2635551
0.26876283 -0.1618189 -0.0070317807 -0.1433076 0.119676195 -0.09633128 0.090797596 -0.0009273876
-0.21943824 -0.23498711 -0.34803522 -0.18316457
00000000: 3564 34bd df5a 48be 67a5 03be 8ebc f9bb
00000010: dec0 10bd a78a 183e bb59 34be 5573 93bd
00000020: 20ee b4be 333c 913e eb88 21bd 5023 8abe
00000030: 50f9 cebb 7e3b c5b7 bd0e 933d c7c3 babc
00000040: b322 533e c715 c3bd ccc0 9cbd ac8c 58bd
00000050: fab4 063d 7a07 8e3e e862 8b3a b2f0 863e
00000060: 489b 893e dbb3 25be da6a e6bb 3abf 12be
00000070: cb18 f53d 5649 c5bd 17f4 b93d ee1b 73ba
00000080: 6bb4 60be 76a0 70be ac31 b2be 7e8f 3bbe

naim.encoder.0.attn.linear_v.weight f4 [6, 6]
0.12405442 0.01917466 0.30319178 -0.3617781 -0.020649336 -0.344739 -0.008722451 0.13244224
-0.35894653 0.35458556 -0.117735885 0.35506624 -0.058044944 0.20317405 0.35647216 -0.14181478
-0.08940276 0.20347884 -0.33656725 0.20418751 -0.24270199 0.3738344 -0.2591095 -0.15015881
0.2953086 -0.1779696 0.30328393 0.2583386 0.36034706 -0.3867631 0.020590005 -0.1458035
0.09441897 -0.31598654 0.17231312 -0.0020656665
00000000: 3e10 fe3d 2d14 9d3c f43b 9b3e fb3a b9be
00000010: cc28 a9bc a181 b0be 9ce8 0ebc f09e 073e
00000020: d7c7 b7be 3d8c b53e 831f f1bd 3ecb b53e
00000030: 89c0 6dbd dc0c 503e 8583 b63e e537 11be
00000040: cb18 b7bd c25c 503e 8b52 acbe 8816 513e
00000050: df86 78be 3967 bf3e 00aa 84be 3bc3 19be
00000060: b032 973e aa3d 36be 0848 9b3e f544 843e
00000070: 697f b83e d005 c6be 5fac a83c 834d 15be
00000080: bc5e c13d fdc8 a1be da72 303e 2260 07bb

naim.encoder.0.attn.linear_o.weight f4 [6, 6]
-0.14364819 -0.31581485 0.16422214 -0.099506184 0.2510992 0.034936298 0.07633504 -0.020356426
-0.016223136 -0.0902413 -0.30201754 0.2058945 -0.2581806 0.22696 -0.14280415 0.2423433
0.3367099 -0.2522509 0.34548393 0.024684552 -0.29309976 0.1800641 0.24361175 0.36878186
-0.37454376 0.3688621 0.31063306 0.39960262 0.22398335 -0.18649493 0.31052607 0.37327743
-0.145194 -0.05726854 0.32185578 0.32631782
00000000: 8318 13be 7cb2 a1be d929 283e e6c9 cbbd
00000010: 1390 803e 5d19 0f3d 8c55 9c3d 85c2 a6bc
00000020: 62e6 84bc 6ed0 b8bd 0ba2 9abe 02d6 523e
00000030: 3f30 84be 3468 683e 403b 12be d828 783e
00000040: 3d65 ac3e 0827 81be 45e3 b03e 4237 ca3c
00000050: 2c11 96be b962 383e 5c75 793e fad0 bc3e
00000060: 33c4 bfbe 7edb bc3e 4c0b 9f3e b798 cc3e
00000070: e45b 653e 87f8 3ebe 46fd 9e3e 381e bf3e
00000080: bcad 14be 6b92 6abd 48ca a43e 2113 a73e

naim.encoder.0.layer_norm_2.weight f4 [6]
0.98342204 0.97937983 0.9709524 0.9787067 0.97963 0.98119473
00000000: 8cc1 7b3f a3b8 7a3f 5690 783f 868c 7a3f
00000010: 08c9 7a3f 942f 7b3f

naim.encoder.0.layer_norm_2.bias f4 [6]
-0.0020027896 -0.00035019807 0.00097340706 -0.00021334534 0.0007307377 0.00028371433
00000000: 3c41 03bb ca9a b7b9 3e2c 7f3a 74b5 5fb9
00000010: fa8e 3f3a 7ebf 9439

naim.encoder.0.ff.0.weight f4 [1000, 6]
0.22607714 0.2628343 -0.16323456 -0.03770852 -0.11871014 0.16624133 0.074178055 -0.266857
-0.028761514 -0.28203773 -0.33562207 0.32779226 -0.1612686 0.1385893 -0.05243743 -0.059205525
0.003779867 0.27092227 -0.028520262 0.28508335 0.18846118 0.23066033 -0.32009155 -0.13703126
-0.28518835 -0.05810946 -0.046022315 0.051919047 0.31639767 0.1479439 -0.23648529 -0.20758224
0.25961423 0.019854708 0.076812714 -0.17137031 -0.033988364 0.08147736 -0.21809822 0.2197978
0.1545532 -0.19713622 -0.12095479 -0.05881208 0.029292189 -0.099372 0.34104964 -0.341127
-0.18555452 -0.20112485 0.07814559 0.038714465 -0.08921276 0.30196905 -0.30206427 0.09598727
-0.17571591 -0.055272486 -0.3431185 -0.25449985 -0.2980182 0.13107193 -0.106984116 0.16605553
-0.17191188 -0.0703872 0.030456146 0.29226795 -0.06377265 0.18919678 0.07467275 0.20760936
0.21610841 0.12853515 -0.08855166 -0.08079309 0.11927953 0.17808409 -0.0022086604 0.15542464
-0.19569254 0.18035124 -0.026080413 -0.23033991 -0.15041456 -0.2620701 0.041751716 -0.19120081
-0.07178143 -0.01868904 -0.19930515 0.009226238 -0.025368314 0.081898354 0.246184 -0.19832152
0.17270516 -0.02077523 -0.18358302 -0.13727792 0.062525466 0.04280979 -0.009659712 -0.15442799
0.15861428 0.03692463 -0.3451932 -0.04061277 -0.06373121 -0.12273697 -0.17719406 -0.2823309
0.35188138 -0.32250908 0.33145338 -0.27304998 -0.06996331 -0.12525104 -0.17284283 0.123985864
0.19064371 -0.2210334 -0.14338593 0.16280912 -0.03867395 0.07953352 0.1633186 -0.103105225
-0.17656761 0.104874894 -0.104781955 -0.22100995 -0.16208033 -0.15326653 0.35513988 0.044376735
0.13766485 0.039682526 -0.22469856 0.24370332 -0.023325648 -0.06349017 0.28283334 -0.15814702
0.054861877 -0.3000677 0.16020954 0.11695478 -0.28591695 0.19301742 0.038581368 -0.16952232
0.2978978 0.13788177 0.10617725 -0.12562355 -0.18157487 -0.17843461 0.11680189 0.07637207
-0.20408203 0.32272547 0.18996713 -0.11690541 0.16011721 -0.12493332 0.08852207 0.2938862
-0.31151727 -0.15688944 -0.014272929 0.04105515 -0.28710803 -0.2225897 -0.024380466 -0.041139007
0.050800674 0.023806902 0.05830589 0.018425148 0.023399044 -0.011401695 0.10071572 0.23203166
-0.15547736 -0.1722442 0.13689175 -0.25099412 0.21932875 0.14541328 0.036490403 -0.1353095
0.005840354 -0.27217564 -0.3168828 0.33266076 -0.31703964 -0.28896385 -0.11287162 0.0077001047
0.050578818 -0.15174484 -0.015996678 -0.061951663 0.29110175 0.30190527 0.12106541 -0.0042223274
0.2544991 -0.27891234 0.12145319 -0.18741257 0.2676035 -0.30919918 0.10301888 -0.28444803
0.19020386 0.045763083 0.3001645 -0.2576435 0.21441309 -0.22022013 -0.1739564 0.106489025
-0.03073698 -0.2714966 -0.29618078 -0.0699415 0.06436732 0.30683118 0.2494966 0.00047122664
-0.19947797 -0.31215277 0.31431118 -0.18174382 -0.041643586 -0.27971286 -0.23077355 0.04532095
-0.0561501 0.011321045 0.0003231865 0.0017899182 -0.04150461 -0.0022074499 0.13226956 0.24653228
0.2945335 -0.28164423 -0.29353154 -0.030861614 -0.014670432 0.18017352 0.33213258 0.064478606
00000000: c480 673e 3892 863e f626 27be 4074 1abd
00000010: 4d1e f3bd 2b3b 2a3e aaea 973d 7ba1 88be
00000020: 449d ebbc 4067 90be a8d6 abbe 63d4 a73e
00000030: 9923 25be 5aea 0d3e a1c8 56bd 7e81 72bd
00000040: a5b7 773b 53b6 8a3e 53a3 e9bc 72f6 913e
00000050: f8fb 403e 3932 6c3e 0ae3 a3be ec51 0cbe
00000060: 3504 92be 2f04 6ebd e581 3cbd 11a9 543d
00000070: e0fe a13e 9b7e 173e 3329 72be 7090 54be
00000080: 28ec 843e 57a6 a23c fc4f 9d3d b37b 2fbe
00000090: 6237 0bbd 9add a63d 2455 5fbe ad12 613e
000000a0: 3243 1e3e 14de 49be 25b7 f7bd f0e4 70bd
000000b0: 2cf6 ef3c 8c83 cbbd 0f9e ae3e 33a8 aebe
000000c0: 0102 3ebe acf3 4dbe cc0a a03d 0f93 1e3d
000000d0: 2eb5 b6bd b09b 9a3e 2ba8 9abe f994 c43d
000000e0: dfee 33be 6765 62bd 3aad afbe ce4d 82be
000000f0: d795 98be b837 063e 7d1a dbbd 760a 2a3e
00000100: ab09 30be 2a27 90bd 2b7f f93c 25a4 953e
00000110: 3c9b 82bd cdbc 413e 07ee 983d 8c97 543e
00000120: 864b 5d3e b89e 033e 935a b5bd d976 a5bd
00000130: d448 f43d ad5b 363e 2cbf 10bb a327 1f3e
00000140: a063 48be ffad 383e 97a6 d5bc 3ade 6bbe
00000150: 4606 1abe 0d2e 86be d903 2b3d 25ca 43be
00000160: 2402 93bd c219 99bc a616 4cbe a629 173c
00000170: 36d1 cfbc 53ba a73d a917 7c3e cc14 4bbe
00000180: 9fd9 303e d130 aabc 30fd 3bbe 9592 0cbe
00000190: 5a0d 803d 5159 2f3d c543 1ebc 5f22 1ebe
000001a0: c86b 223e 483e 173d 2abd b0be 9359 26bd
000001b0: 8285 82bd 855d fbbd 5c72 35be ad8d 90be
000001c0: cc29 b43e e91f a5be 42b4 a93e 35cd 8bbe
000001d0: ed48 8fbd cf41 00be b6fd 30be 4dec fd3d
000001e0: 1b38 433e 9456 62be c3d3 12be 6fb7 263e
000001f0: 9368 1ebd 78e2 a23d fe3c 273e d528 d3bd
00000200: 24ce 34be a6c8 d63d ec97 d6bd 6f50 62be
00000210: 63f8 25be e7f1 1cbe e5d4 b53e 61c4 353d
00000220: 04f8 0c3e 258a 223d 6117 66be 5d8d 793e
00000230: 6e15 bfbc 2207 82bd 88cf 903e 4bf1 21be
00000240: d9b6 603d 79a2 99be f80d 243e fd85 ef3d
00000250: b563 92be 5ca6 453e 7f07 1e3d 4297 2dbe
00000260: 0f86 983e e130 0d3e 7573 d93d 76a3 00be
00000270: c3ee 39be 90b7 36be d435 ef3d f668 9c3d
00000280: e1fa 50be 463c a53e be86 423e 1b6c efbd
00000290: c4f5 233e 0add ffbd 0f4b b53d 4178 963e
000002a0: 317f 9fbe a0a7 20be 01d9 69bc 7229 283d
000002b0: d3ff 92be 8eee 63be 8bb9 c7bc 6081 28bd
000002c0: 5e14 503d b106 c33c 28d2 6e3d 56f0 963c
000002d0: 5aaf bf3c 2dce 3abc 0b44 ce3d b599 6d3e
000002e0: 7535 1fbe c960 30be 5a2d 0c3e 4d82 80be
000002f0: b797 603e 38e7 143e f676 153d 938e 0abe
00000300: 7160 bf3b 9b5a 8bbe 763e a2be 8352 aa3e
00000310: 0553 a2be 12f3 93be 3c29 e7bd 2951 fc3b
00000320: bc2b 4f3d 0063 1bbe 770b 83bc 07c1 7dbd
00000330: 4a0b 953e 5493 9a3e 24f1 f73d 735b 8abb
00000340: b54d 823e 99cd 8ebe 73bc f83d 15e9 3fbe
00000350: 5303 893e 5b4f 9ebe 90fb d23d 2ca3 91be
00000360: cdc4 423e 1272 3b3d 29af 993e d9e9 83be
00000370: 1b8f 5b3e 6381 61be a021 32be eb16 da3d
00000380: 1ecc fbbc 9a01 8bbe 02a5 97be 7d3d 8fbd
00000390: 03d3 833d fa18 9d3e 097c 7f3e f80e f739
000003a0: f443 4cbe 7dd2 9fbe 65ed a03e 0d1b 3abe
000003b0: 7792 2abd 8636 8fbe e74f 6cbe 76a2 393d
000003c0: a6fd 65bd e87b 393c 5c71 a939 b09b ea3a
000003d0: bd00 2abd ddaa 10bb ac71 073e f572 7c3e
000003e0: 18cd 963e ac33 90be c449 96be 7fd1 fcbc
000003f0: 405c 70bc 687f 383e 480d aa3e 5c0d 843d

naim.encoder.0.ff.0.bias f4 [1000]
0.2140456 -0.1695955 -0.031267732 0.024089117 0.23647349 0.14243942 0.34739748 -0.17001618
-0.018165497 -0.008018183 0.284622 0.33674285 0.08149497 -0.2786126 -0.24519704 0.052899417
-0.30870542 -0.09702866 -0.25429866 0.17569838 -0.034370184 -0.26871732 0.22676864 -0.3099696
-0.029174328 0.3486356 0.16856803 -0.30192897 0.037291538 -0.042040184 0.14718969 0.3358749
0.29919344 -0.01900169 0.15370713 -0.3492124 0.2763702 0.16947636 -0.23718658 -0.072423846
-0.11094157 -0.18855067 0.13302347 -0.07612409 0.13763952 -0.07934439 0.27253887 -0.119063914
-0.03845246 -0.08678249 0.017744182 -0.10491408 -0.2369075 -0.33684012 0.21091218 0.04952935
-0.21445641 0.17361484 0.033488907 -0.10165057 -0.012258983 0.025043588 0.24738531 -0.3246314
-0.26565045 -0.27834055 -0.26878843 0.0077198213 0.18919171 0.08827733 0.13205504 0.03389233
-0.0017688866 -0.31826165 0.3144671 0.347935 0.0061097792 0.059744608 0.040402792 0.357584
-0.002821776 -0.026744366 -0.17971165 0.086930335 0.15406781 -0.29484484 0.10240367 0.08051856
0.1513157 0.14608003 -0.07286853 0.042387176 -0.24034733 0.20705204 -0.2937877 -0.30744302
-0.25042227 -0.1781985 0.0036036288 0.22013709 -0.026569977 0.25316343 -0.035615515 0.2992912
0.24165751 0.2155937 0.12121599 -0.22833845 0.35198367 -0.33886355 -0.23721541 -0.19344538
-0.064981446 0.14570563 0.063263975 -0.30402935 0.3466872 0.33849257 0.15482022 -0.34860906
0.19643389 0.092955284 -0.021178262 -0.29000643 0.30462953 -0.0804377 -0.2840846 0.26730064
0.12566791 0.080445476 0.22133228 0.10109306 -0.062664054 -0.033231404 0.29512295 -0.0012992125
-0.29140842 -0.2324068 -0.2557413 0.020024063 0.25837317 0.20135581 0.08947507 0.11108617
-0.14657709 0.33503887 0.113654844 -0.20615637 -0.22183046 -0.31505328 -0.06812928 0.25320312
0.018589346 -0.14838046 0.090383485 -0.2329993 0.09192882 0.23751818 0.16270246 -0.08848685
-0.10114512 0.13825978 0.20003122 -0.058831558 0.007072166 -0.018781714 -0.017981114 -0.3113523
-0.28692013 0.30130464 -0.14884365 0.25388753 0.21090677 -0.036285043 -0.15158212 0.001724682
-0.049147427 -0.19278416 0.3497268 -0.01100603 -0.029472513 -0.22695555 0.0510707 0.04941164
0.35655454 -0.081231624 0.18814088 0.019642267 0.17944907 0.005863156 -0.02806314 0.13396329
-0.14112595 0.20188458 -0.29123065 -0.24362515 0.34452352 -0.116840765 -0.2740973 -0.24829589
0.34842676 -0.017334728 -0.2928305 -0.03188914 -0.1500922 -0.22239445 -0.15651472 0.26524097
0.12280029 0.19626914 0.022053724 -0.12076927 -0.12797464 -0.22523685 -0.24577338 -0.3008503
0.054001015 0.18310001 0.28600383 -0.0048579276 -0.033162314 -0.0060408018 0.12658255 -0.029938575
-0.10972945 -0.06974062 -0.34682262 -0.2651922 -0.1255328 0.029592223 -0.20590474 0.11473295
-0.17602797 0.3480492 -0.3090534 0.19103496 -0.16567641 -0.09957101 -0.33374166 -0.3316532
-0.337283 -0.005957697 0.33097646 0.14723332 0.21380572 0.07223722 -0.11117893 -0.10802294
-0.07663837 -0.33032775 0.17723438 -0.087303214 -0.18898754 0.07594994 -0.0018534781 0.18274833
00000000: c52e 5b3e 71aa 2dbe 9812 00bd 8a56 c53c
00000010: 1b26 723e a4db 113e 15de b13e b918 2ebe
00000020: cfcf 94bc b25e 03bc fab9 913e 8f69 ac3e
00000030: d6e6 a63d 50a6 8ebe ef14 7bbe 0fad 583d
00000040: a30e 9ebe f6b6 c6bd 6f33 82be 47ea 333e
00000050: c0c7 0cbd 5195 89be 0a36 683e 56b4 9ebe
00000060: 00ff eebc 5e80 b23e 199d 2c3e 6f96 9abe
00000070: 03bf 183d 5432 2cbd e5b8 163e cbf7 ab3e
00000080: e22f 993e 6fa9 9bbc 6765 1d3e f8cb b2be
00000090: 6580 8d3e 368b 2d3e 0ae1 72be f452 94bd
000000a0: 5535 e3bd 6d13 41be 4e37 083e f2e6 9bbd
000000b0: 60f1 0c3e 507f a2bd 378a 8b3e c8d7 f3bd
000000c0: 5480 1dbd 05bb b1bd 3f5c 913c 31dd d6bd
000000d0: e197 72be 4f76 acbe 5df9 573e 4adf 4a3d
000000e0: 769a 5bbe 17c8 313e aa2b 093d 2d2e d0bd
000000f0: e7d9 48bc 3628 cd3c 9352 7d3e 1636 a6be
00000100: 5603 88be a782 8ebe a39e 89be 8ef6 fc3b
00000110: 79bb 413e bfca b43d 7039 073e afd2 0a3d
00000120: fcd9 e7ba 31f3 a2be d501 a13e 8924 b23e
00000130: 8b34 c83b c3b6 743d 667d 253d 4015 b73e
00000140: 8ced 38bb 0017 dbbc 5506 38be 8808 b23d
00000150: f4c3 1d3e e7f5 96be 04b9 d13d eae6 a43d
00000160: 81f2 1a3e 0196 153e 193c 95bd 2d9e 2d3d
00000170: 9c1d 76be 7305 543e 576b 96be 2c69 9dbe
00000180: 5937 80be ab79 36be dc2a 6c3b 9e6b 613e
00000190: 48a9 d9bc a39e 813e 93e1 11bd b23c 993e
000001a0: 1175 773e 98c4 5c3e 1740 f83d 8ed1 69be
000001b0: 3437 b43e 867f adbe 99e8 72be 8c16 46be
000001c0: fe14 85bd db33 153e 8b90 813d bca9 9bbe
000001d0: fc80 b13e e64e ad3e 3189 1e3e e37c b2be
000001e0: f725 493e 575f be3d 097e adbc b97b 94be
000001f0: 67f8 9b3e 85bc a4bd 8973 91be a1db 883e
00000200: 17af 003e 99c0 a43d eea4 623e e109 cf3d
00000210: 0356 80bd a71d 08bd 5b1a 973e 564a aaba
00000220: 7c33 95be 0cfc 6dbe 86f0 82be 8109 a43c
00000230: 7d49 843e 3830 4e3e b53e b73d 2581 e33d
00000240: 4e18 16be 378a ab3e dfc3 e83d a81a 53be
00000250: 8627 63be aa4e a1be 5d87 8bbd d7a3 813e
00000260: af48 983c 0cf1 17be fa1a b93d 5e97 6ebe
00000270: 2d45 bc3d f737 733e 799b 263e 9838 b5bd
00000280: 2c25 cfbd f993 0d3e fcd4 4c3e 5cf9 70bd
00000290: a1bd e73b 1cdc 99bc 214d 93bc 9269 9fbe
000002a0: 32e7 92be 9a44 9a3e 786a 18be 8cfd 813e
000002b0: f2f7 573e a09f 14bd 5838 1bbe ba0e e23a
000002c0: d04e 49bd 3669 45be 640f b33e a352 34bc
000002d0: 5770 f1bc 0967 68be 832f 513d dc63 4a3d
000002e0: 518e b63e c45c a6bd 01a8 403e d2e8 a03c
000002f0: 7fc1 373e b81f c03b ace4 e5bc ac2d 093e
00000300: 5283 10be d5ba 4e3e 2f1c 95be df78 79be
00000310: 6365 b03e 364a efbd 7b56 8cbe 4741 7ebe
00000320: fe64 b23e 8f01 8ebc e1ed 95be 309e 02bd
00000330: c5b1 19be 5fbb 63be 6545 20be aacd 873e
00000340: b87e fb3d c7fa 483e 03aa b43c e155 f7bd
00000350: c90b 03be 7da4 66be 04ac 7bbe 0d09 9abe
00000360: 2b30 5d3d 927e 3b3e 186f 923e 402f 9fbb
00000370: 35d5 07bd ebf1 c5bb db9e 013e be41 f5bc
00000380: d5b9 e0bd 2cd4 8ebd bc92 b1be 46c7 87be
00000390: ac8b 00be 646b f23c b1d8 52be 1cf9 ea3d
000003a0: ad40 34be 8133 b23e 3f3c 9ebe ab9e 433e
000003b0: 14a7 29be e3eb cbbd 30e0 aabe 73ce a9be
000003c0: 5bb0 acbe c938 c3bb bf75 a93e 55c4 163e
000003d0: e3ef 5a3e 1cf1 933d c7b1 e3bd 223b ddbd
000003e0: 94f4 9cbd b820 a9be ee7c 353e 07cc b2bd
000003f0: f385 41be a48b 9b3d 68f0 f2ba 6122 3b3e

naim.encoder.0.ff.3.weight f4 [6, 1000]
-0.018563708 -0.0022871438 -0.0017279482 -0.0010372646 -0.010002495 0.0037441081 -0.0040374747 -0.009982029
0.025692584 0.026499448 -0.00277792 -0.0065821316 -0.03173788 -0.016515369 -0.0037028969 -0.006643425
0.009332742 -0.0013065296 0.00016742664 0.005920477 0.038375564 0.015521672 -0.018832216 -0.0013560812
0.005539945 -0.0014247214 0.018819492 -0.0047775 0.0019549988 -0.026175173 -0.007476525 -0.03004524
0.013919582 -0.008691741 -0.014636196 -0.026912978 0.020920927 -0.0074671265 0.027630705 -0.013753375
0.0024662737 -0.0010653744 -0.016402679 0.024351569 -0.022270627 -0.008116089 0.014157251 0.0035157902
0.0017051061 0.032016043 -0.019057455 -0.010475857 0.013576094 0.00060584286 0.001033594 -0.009218388
0.003390491 0.027767826 -0.002439338 0.016734742 0.030021688 0.02500838 0.012301287 0.028353957
-0.007494015 0.005888466 -0.0113346195 -0.031794976 0.025368117 -0.030115493 -0.020667149 -0.0048286817
-0.023276271 -0.021952046 -0.014542432 0.0056365975 -0.020105511 -0.019629616 -0.009696024 -0.023487793
0.013233626 0.0046835043 0.016361028 0.028834084 -0.007866176 -0.009728872 0.01045307 0.028235324
0.0120268725 0.0010333062 0.016966624 -0.026582256 -0.012257636 -0.015320313 -0.017028432 -0.021539321
-0.016660273 0.012712944 0.0098526 -0.0038287777 -0.0070182225 0.0045386124 0.018157959 -0.02313952
0.022395695 0.013941217 -0.013039712 0.020015476 6.734958e-05 -0.0034292813 0.029317614 0.016892888
0.02358214 -0.010854281 -0.028549872 0.023735138 -0.0024174436 0.013504883 -0.009606406 0.011492922
-0.01939107 0.005946322 0.020568673 -0.0013002076 0.030236386 0.010862374 0.015351581 0.027734537
-0.0054357746 -0.004549676 0.017818643 -0.01744638 -0.010449522 0.021728028 -0.0253875 -0.0045912303
0.009611608 0.016287059 -0.011137432 -0.0047133383 0.021925254 -0.021468153 0.023672914 0.0001241474
-0.006618888 -0.025273683 -0.0018210255 0.024524128 -0.013460325 -0.021585213 -0.0015297389 0.01803093
-0.0039716414 0.026282413 0.03215087 0.029529165 -0.012792889 -0.023874385 -0.029782686 -0.0010340981
-0.012180362 0.016431982 0.005154907 0.031864192 -0.014639092 -0.012649487 0.0039637093 0.008534092
0.02331027 -0.0016645503 0.026075212 -0.009715602 -0.0019455495 -0.0046208533 -0.0022686105 -0.010709057
-0.024697956 -0.007543993 -0.008953444 -0.0125217475 -0.020893509 -0.02284496 -0.0004897257 -0.021845179
0.03207053 0.0008739459 0.0039908756 -0.020054523 0.005758254 -0.02015094 0.016147248 0.012651653
-0.018351186 0.012981988 0.0054387557 -0.009830854 -0.013731037 0.025891196 -0.007609251 0.019874416
0.0064127217 0.026694003 -0.00901149 0.012783058 0.009593914 0.024040967 -0.024648275 -0.015952816
-0.0009257515 -0.02627583 0.0088066 0.026994627 0.023530295 -0.016872285 0.015938682 -0.024487767
0.017503595 -0.029086374 -0.025323002 0.009033864 0.002551616 0.010062017 0.031291574 0.029604565
0.020543389 -0.023309216 -0.009472275 0.0016067853 -0.026204612 0.027119718 0.018442823 -0.016586768
0.0013986236 -0.021458907 0.019568648 0.004672405 -0.009771036 0.018582277 -0.0087091215 0.010877171
0.023672512 -0.012780731 -0.027890192 0.021612374 -0.022642769 0.0096110245 -0.0027281 0.012672123
0.007869743 -0.011662118 -0.022204282 0.026504062 -0.01023241 0.0067901416 0.026493823 -0.02134675
00000000: eb12 98bc e8e3 15bb 527c e2ba d3f4 87ba
00000010: 81e1 23bc b65f 753b cb4c 84bb aa8b 23bc
00000020: 4179 d23c 5f15 d93c c40d 36bb ecae d7bb
00000030: 94ff 01bd 3d4b 87bc 4dac 72bb 17b1 d9bb
00000040: 5be8 183c dc3f abba 3f8f 2f39 9000 c23b
00000050: b22f 1d3d 9c4e 7e3c 0546 9abc 89be b1ba
00000060: 6d88 b53b b8bd baba 562b 9a3c 938c 9cbb
00000070: 701f 003b 516d d6bc a3fd f4bb 6f21 f6bc
00000080: f50e 643c ce67 0ebc a8cc 6fbc 9b78 dcbc
00000090: 5d62 ab3c ccae f4bb ca59 e23c d655 61bc
000000a0: 35a1 213b 08a4 8bba e95e 86bc f17c c73c
000000b0: e470 b6bc 58f9 04bc d1f3 673c 2c69 663b
000000c0: de7d df3a 4123 033d 611e 9cbc eea2 2bbc
000000d0: 446e 5e3c 6dd1 1e3a a979 873a b908 17bc
000000e0: 0033 5e3b 5a79 e33c 4ddd 1fbb 4c17 893c
000000f0: 0bf0 f53c 60de cc3c 568b 493c 8f46 e83c
00000100: 5b90 f5bb 08f4 c03b d7b4 39bc 733b 02bd
00000110: ccd0 cf3c c4b4 f6bc 274e a9bc eb39 9ebb
00000120: e1ad bebc c7d4 b3bc 6143 6ebc 35b3 b83b
00000130: 50b4 a4bc 4ace a0bc 12dc 1ebc 7969 c0bc
00000140: dad1 583c 1578 993b 9007 863c 7535 ec3c
00000150: 22e1 00bc d965 1fbc 5a43 2b3c c44d e73c
00000160: 5c0c 453c 0170 873a 97fd 8a3c 08c3 d9bc
00000170: 40d4 48bc 0d02 7bbc 367f 8bbc 3b73 b0bc
00000180: 207b 88bc f449 503c cd6c 213c 3bec 7abb
00000190: 1ef9 e5bb a4b8 943b 00c0 943c 178f bdbc
000001a0: 2d77 b73c b469 643c 84a4 55bc 7ff7 a33c
000001b0: 083e 8d38 cbbd 60bb 7e2b f03c f462 8a3c
000001c0: 552f c13c 27d6 31bc 6ce1 e9bc 3170 c23c
000001d0: f96d 1ebb 9643 5d3c 3064 1dbc cf4c 3c3c
000001e0: 05da 9ebc 5dd9 c23b a27f a83c ba6b aaba
000001f0: 4cb2 f73c 19f8 313c 3385 7b3c 8a33 e33c
00000200: 951e b2bb 7315 95bb 67f8 913c b6eb 8ebc
00000210: 7934 2bbc fafe b13c 72f9 cfbc 0872 96bb
00000220: 027a 1d3c 706c 853c c779 36bc 5972 9abb
00000230: 979c b33c fbdd afbc b3ed c13c 902d 0239
00000240: 42e3 d8bb c10a cfbc 7aaf eeba d3e6 c83c
00000250: b288 5cbc 79d3 b0bc 8581 c8ba 9ab5 933c
00000260: 8b24 82bb 374e d73c a1b0 033d 26e7 f13c
00000270: 4499 51bc 3794 c3bc d2fa f3bc 938a 87ba
00000280: 2490 47bc 5d9c 863c 7eea a83b 0784 023d
00000290: cdd8 6fbc cb3f 4fbc 01e2 813b 94d2 0b3c
000002a0: 2ef5 be3c 0a2d daba af9b d53c 302e 1fbc
000002b0: cf01 ffba 876a 97bb f8ac 14bb 0a75 2fbc
000002c0: 5e53 cabc 9a33 f7bb 77b1 12bc 0428 4dbc
000002d0: dd28 abbc 5b25 bbbc ef60 00ba a9f4 b2bc
000002e0: 635c 033d 8419 653a e4c5 823b 6249 a4bc
000002f0: bcaf bc3b 9613 a5bc 3c47 843c e148 4f3c
00000300: 3a55 96bc 67b2 543c 9737 b23b 9711 21bc
00000310: 25f8 60bc c619 d43c 0657 f9bb accf a23c
00000320: cf21 d23b 62ad da3c eea4 13bc 0870 513c
00000330: cb2f 1d3c 90f1 c43c 2eeb c9bc 7baf 82bc
00000340: 22ae 72ba 6940 d7bc 8f49 103c d623 dd3c
00000350: 9bc2 c03c bf37 8abc d791 823c 929a c8bc
00000360: b363 8f3c 8c46 eebc 2f72 cfbc c602 143c
00000370: 0339 273b 28db 243c 982b 003d 4685 f23c
00000380: 9c4a a83c f8f2 bebc 9a31 1bbc c59a d23a
00000390: 0eab d6bc 2c2a de3c 6715 973c f9e0 87bc
000003a0: 0552 b73a 97ca afbc 6e4e a03c f91a 993b
000003b0: b216 20bc dc39 983c b4b0 0ebc 2936 323c
000003c0: dbec c13c 4566 51bc f979 e4bc 6f0c b13c
000003d0: 547d b9bc 8f77 1d3c ecc9 32bb bc9e 4f3c
000003e0: 18f0 003c 7812 3fbc c1e5 b5bc 0c1f d93c
000003f0: d7a5 27bc d67f de3b 9309 d93c 61df aebc

naim.encoder.0.ff.3.bias f4 [6]
-0.030497715 -0.0055581974 -0.016071739 -0.012698414 0.02727357 -0.023689268
00000000: 58d6 f9bc 8a21 b6bb e1a8 83bc 020d 50bc
00000010: d26c df3c ff0f c2bc

naim.encoder.1.layer_norm_1.weight f4 [6]
0.9484825 0.9490931 0.9470157 0.9481547 0.9476227 0.9510529
00000000: c0cf 723f c4f7 723f 9f6f 723f 44ba 723f
00000010: 6797 723f 3478 733f

naim.encoder.1.layer_norm_1.bias f4 [6]
0.006454023 -0.012468093 -0.00093988376 0.005443724 -0.0077883317 0.0065967357
00000000: 457c d33b f946 4cbc 8862 76ba 4461 b23b
00000010: 4335 ffbb 6e29 d83b

naim.encoder.1.attn.linear_q.weight f4 [6, 6]
-0.24680437 -0.08276303 -0.13114384 0.053677235 0.21064791 0.028859245 -0.0006818772 0.1463162
0.19332013 0.0012222587 -0.22463636 -0.30233958 0.3558043 0.08408777 0.32283902 -0.108012274
0.06674035 -0.16520168 -0.16451976 -0.13820103 0.3562 0.24710673 -0.20105962 -0.23786026
0.08661695 -0.05034223 -0.00021953505 0.012912507 -0.30591258 0.044980094 -0.00038846015 -0.23505434
-0.35207018 0.1584958 -0.32165048 -0.13427101
00000000: 49ba 7cbe aa7f a9bd 924a 06be a9dc 5b3d
00000010: 16b4 573e 396a ec3c 01c0 32ba ead3 153e
00000020: b6f5 453e 3234 a03a 1307 66be 41cc 9abe
00000030: fb2b b63e 3536 ac3d 284b a53e 8a35 ddbd
00000040: 2aaf 883d a12a 29be de77 28be 9284 0dbe
00000050: d95f b63e 8c09 7d3e 93e2 4dbe a491 73be
00000060: 3a64 b13d a733 4ebd fe32 66b9 fb8e 533c
00000070: 93a0 9cbe 0c3d 383d 3daa cbb9 16b2 70be
00000080: 8b42 b4be b94c 223e 5faf a4be 577e 09be

naim.encoder.1.attn.linear_k.weight f4 [6, 6]
0.20321359 -0.22504546 -0.14397815 -0.2132056 0.18998878 0.0986283 0.0069320295 0.09527658
0.069485985 -0.041553874 -0.0043398417 -0.20484327 -0.1424863 -0.00052503665 -0.012708233 0.05689144
0.14368695 0.262229 0.33952937 -0.0020575093 0.11171716 -0.27941814 0.1858945 -0.062598154
-0.27256033 -0.2666179 -0.28886172 -0.13874257 0.1364852 -0.28209177 -0.012890668 -0.021443788
0.101269014 -0.11778074 0.1567983 -0.20196742
00000000: 3917 503e 5172 66be 026f 13be 9252 5abe
00000010: 6b8c 423e a2fd c93d 1426 e33b 5e20 c33d
00000020: ab4e 8e3d 6534 2abd 3b35 8ebb 6fc2 51be
00000030: eee7 11be 9da2 09ba 3136 50bc 0007 693d
00000040: ac22 133e e142 863e cbd6 ad3e 47d7 06bb
00000050: f7cb e43d e50f 8fbe 215b 3e3e 7633 80bd
00000060: 078d 8bbe 2482 88be afe5 93be 8812 0ebe
00000070: c7c2 0b3e 556e 90be 6133 53bc e2aa afbc
00000080: 2166 cf3d 0737 f1bd bc8f 203e 8cd0 4ebe

naim.encoder.1.attn.linear_v.weight f4 [6, 6]
0.21344486 -0.3855919 -0.23809995 0.13030913 0.044938512 0.26550716 0.17579715 -0.30291623
0.2796764 -0.07332378 -0.03779337 -0.12805714 -0.07748992 -0.3700146 0.008019746 0.28789723
-0.051125005 0.30616444 -0.15559493 0.12553976 0.0007930793 -0.10877545 0.3510708 0.033758935
-0.00030654427 -0.054559827 -0.021423405 0.30348566 -0.030016571 0.2404803 0.10904237 0.21728258
-0.25768608 -0.31074566 -0.092349894 -0.064348586
00000000: 4a91 5a3e 4d6c c5be 79d0 73be c26f 053e
00000010: 7211 383d 8ef0 873e 2b04 343e d617 9bbe
00000020: bf31 8f3e c72a 96bd 39cd 1abd 6921 03be
00000030: 09b3 9ebd 8e72 bdbe 4165 033c 4467 933e
00000040: 7468 51bd 96c1 9c3e 4754 1fbe 7f8d 003e
00000050: a7e6 4f3a aac5 debd 8dbf b33e cf46 0a3d
00000060: adb7 a0b9 207a 5fbd 2380 afbc 7962 9b3e
00000070: 50e5 f5bc 7840 763e 9b51 df3d 537f 5e3e
00000080: 6eef 83be 0e1a 9fbe f121 bdbd 31c9 83bd

naim.encoder.1.attn.linear_o.weight f4 [6, 6]
0.37649104 0.37616196 -0.09477955 -0.16691259 -0.0021370763 0.15469067 0.14457367 0.0641528
0.3028129 0.03344773 0.32241732 0.08061909 -0.04206148 0.3196769 0.005157589 0.01899143
-0.08228877 0.22820851 -0.1162496 0.28848734 0.2148243 -0.012414456 -0.062497243 0.13410148
-0.34695607 -0.086725935 -0.095658265 -0.011543499 -0.1454347 -0.12678933 0.1442338 -0.0072853686
-0.2319371 -0.0013416825 0.083645776 -0.116119154
00000000: 6fc3 c03e 4d98 c03e c81b c2bd 22eb 2abe
00000010: 310e 0cbb 3b67 1e3e 1f0b 143e 8b62 833d
00000020: 4b0a 9b3e 7d00 093d e213 a53e 9f1b a53d
00000030: a948 2cbd b1ac a33e fe00 a93b ea93 9b3c
00000040: 0487 a8bd 7eaf 693e 4514 eebd 9db4 933e
00000050: e7fa 5b3e 0166 4bbc 1cfd 7fbd e651 093e
00000060: 3aa4 b1be 5e9d b1bd 7be8 c3bd f220 3dbc
00000070: d6ec 14be 10d5 01be 06b2 133e 1aba eebb
00000080: eb80 6dbe 65db afba 7a4e ab3d e1cf edbd

naim.encoder.1.layer_norm_2.weight f4 [6]
0.98350936 0.98535836 0.97380835 0.9692609 0.9746462 0.97604066
00000000: 45c7 7b3f 7240 7c3f 814b 793f 7b21 783f
00000010: 6a82 793f cddd 793f

naim.encoder.1.layer_norm_2.bias f4 [6]
0.0072121904 0.0030386616 -0.00040797517 -0.0014382992 -7.1400566e-05 -0.0061698216
00000000: 3d54 ec3b 4824 473b 80e5 d5b9 5085 bcba
00000010: e3bc 95b8 372c cabb

naim.encoder.1.ff.0.weight f4 [1000, 6]
0.29708776 -0.23637645 0.30461073 0.11341653 -0.1859077 -0.33465996 0.12301768 -0.05479685
0.08424342 0.13317451 -0.23055664 0.035545032 -0.060133975 -0.31948057 0.04736518 0.060760237
-0.26427805 0.33334333 0.16656108 0.18480442 -0.30472794 -0.30284473 0.12981941 0.18840666
-0.29879844 0.3409671 -0.047586434 -0.2808736 -0.24733216 -0.054523867 0.16703492 -0.23584434
0.25039205 0.35846293 0.332837 0.14697005 -0.13208868 -0.11473601 0.24218945 -0.052154545
0.03887005 0.36535394 -0.35768795 -0.0662856 -0.1114674 -0.043769877 0.0025759344 -0.06609675
0.34490505 0.123828605 -0.20612161 0.34472206 -0.073757954 0.03982896 0.024119722 -0.2516093
0.15892072 -0.1988996 -0.31293976 0.29419553 0.19479778 -0.12654631 -0.24157317 0.31902814
0.09879874 -0.22136159 -0.28885156 -0.12584841 -0.17855334 0.011605465 0.0143393 -0.34823886
0.15704514 0.16010459 -0.3187398 0.27628243 -0.11447063 0.16242641 0.34871563 0.19273393
0.22345848 0.008833459 0.025418365 -0.2960391 -0.24598186 0.2774924 -0.3215701 0.1291418
-0.19054726 0.30321017 0.25110924 -0.057503566 -0.023682306 -0.23558585 0.32982156 -0.19669771
0.10134454 0.23554662 -0.34141397 -0.3503076 -0.23625964 -0.025225466 0.2067954 -0.091048285
-0.122693256 0.2246584 0.27686635 0.17236525 0.30260834 -0.3182154 -0.31223178 0.036051974
-0.29328573 -0.07656948 0.20068443 0.34519613 -0.041543867 -0.30741468 -0.15418 0.34655538
-0.033572663 -0.3287723 -0.16590084 -0.20458253 -0.06155658 -0.24402468 -0.09103234 0.32292226
-0.14396259 -0.047560807 0.17925306 -0.3290068 -0.17134686 -0.026532285 0.26986757 0.033490498
-0.0065025548 -0.10702045 0.14255655 -0.1309979 -0.04224577 -0.13263524 0.11512931 0.35837695
-0.257762 -0.022047367 -0.012519547 -0.16324744 -0.24265853 -0.13495551 -0.2758758 0.26166502
-0.239737 0.2056822 0.2893312 -0.058468908 0.33130375 0.24706194 -0.23518682 0.18431607
0.064627655 0.27341393 -0.26015526 0.26674914 0.03243487 0.1548094 -0.18084575 0.22228974
-0.012886221 0.28715292 0.020272298 0.20098974 -0.20543966 -0.31129953 0.097384 0.16803771
0.07082188 0.08330052 0.21923977 -0.16290627 0.17359419 0.14853594 -0.12558359 -0.19313027
-0.35417068 0.25600737 -0.00011325836 0.059887 -0.2399238 -0.25834417 0.2846029 0.23853925
0.17880717 0.2773915 0.28089273 0.20120497 0.24466306 -0.031980887 0.069312006 -0.30418313
-0.1078072 -0.022141151 -0.0005256057 0.35345507 0.28268045 0.08569305 0.3295252 -0.16129425
0.041130465 -0.2721332 -0.29560223 0.16950245 0.08380727 -0.009540353 -0.21421431 0.24340898
-0.011585983 0.22969523 -0.23218043 0.26309472 -0.012867737 -0.0966717 -0.017412258 -0.2692995
-0.054284785 0.0144206835 -0.2534643 0.1796011 0.3343015 0.161325 -0.15070872 -0.20393912
-0.27166328 -0.20177265 0.1947907 0.14097954 -0.107319385 0.0039040723 -0.03640378 0.004544208
-0.35498554 0.29504663 -0.099712946 -0.3018539 -0.0027812333 0.084261976 0.13859963 -0.15662125
-0.0059280675 -0.25436443 -0.25713113 -0.2220773 -0.211265 0.20973453 -0.31667688 -0.06117578
00000000: e31b 983e ab0c 72be f0f5 9b3e ed46 e83d
00000010: 975e 3ebe 8d58 abbe b2f0 fb3d a972 60bd
00000020: d087 ac3d e65e 083e 0a17 6cbe ab97 113d
00000030: 0b4f 76bd f592 a3be fe01 423d badf 783d
00000040: 744f 87be faab aa3e fd8e 2a3e 5f3d 3d3e
00000050: 4d05 9cbe 770e 9bbe 61ef 043e aded 403e
00000060: 1cfc 98be 3d93 ae3e fee9 42bd aace 8fbe
00000070: a444 7dbe 6b54 5fbd 340b 2b3e 2e81 71be
00000080: 6333 803e 7488 b73e 9c69 aa3e 517f 163e
00000090: 4142 07be b7fa eabd 8300 783e 01a0 55bd
000000a0: 3436 1f3d ac0f bb3e e022 b7be bfc0 87bd
000000b0: 0549 e4bd 0b48 33bd 02d1 283b bc5d 87bd
000000c0: 6597 b03e da99 fd3d 8b11 53be 697f b03e
000000d0: 690e 97bd b123 233d b996 c53c efd2 80be
000000e0: 1dbc 223e 56ac 4bbe a439 a0be cca0 963e
000000f0: 1279 473e 5b95 01be f55e 77be a857 a33e
00000100: fe56 ca3d 9dac 62be 5ae4 93be 68de 00be
00000110: b0d6 36be d924 3e3c 62ef 6a3c 5d4c b2be
00000120: 71d0 203e 75f2 233e dd31 a3be e474 8d3e
00000130: 946f eabd 1c53 263e db8a b23e 0b5c 453e
00000140: 4dd2 643e 36ba 103c 2d3a d03c 7092 97be
00000150: abe2 7bbe 7c13 8e3e d6a4 a4be bf3d 043e
00000160: d21e 43be 5d3e 9b3e 6491 803e dc88 6bbd
00000170: 6501 c2bc 6b3d 71be 5fde a83e 206b 49be
00000180: ba8d cf3d 2233 713e d0cd aebe 855b b3be
00000190: 0cee 71be a3a5 cebc 2cc2 533e 8677 babd
000001a0: 9a46 fbbd da0c 663e 6dc1 8d3e 8480 303e
000001b0: 7bef 9a3e 21ed a2be d8dc 9fbe 3cab 133d
000001c0: 8c29 96be 76d0 9cbd 3880 4d3e 8cbd b03e
000001d0: e729 2abd 7565 9dbe 5de1 1dbe b56f b13e
000001e0: 7d83 09bd d854 a8be e9e1 29be 157e 51be
000001f0: c122 7cbd 9be1 79be 2a6f babd 1156 a53e
00000200: ee6a 13be 1fcf 42bd 1d8e 373e 9473 a8be
00000210: 8d75 2fbe 3c5a d9bc 152c 8a3e 552d 093d
00000220: 6213 d5bb 8a2d dbbd 58fa 113e 5024 06be
00000230: e709 2dbd 88d1 07be eac8 eb3d 2f7d b73e
00000240: 62f9 83be ae9c b4bc c91e 4dbc 562a 27be
00000250: 7a7b 78be c731 0abe 983f 8dbe f5f8 853e
00000260: 9e7d 75be 5b9e 523e 3823 943e 187d 6fbd
00000270: a5a0 a93e cefd 7c3e d0d4 70be 5abd 3c3e
00000280: 815b 843d e9fc 8b3e 1233 85be 5893 883e
00000290: 6dda 043d 5b86 1e3e a12f 39be ec9f 633e
000002a0: ba20 53bc b505 933e 1712 a63c 41d0 4d3e
000002b0: c65e 52be a762 9fbe 4371 c73d 1412 2c3e
000002c0: 100b 913d 7799 aa3d 6480 603e e7d0 26be
000002d0: adc2 313e ce19 183e fc98 00be f1c3 45be
000002e0: dc55 b5be 6613 833e 1e85 edb8 124c 753d
000002f0: 96ae 75be b045 84be 79b7 913e a243 743e
00000300: 3a19 373e 4206 8e3e 2cd1 8f3e ad08 4e3e
00000310: f488 7a3e 64fe 02bd 74f3 8d3d e4bd 9bbe
00000320: 05ca dcbd 5c61 b5bc cdc8 09ba 10f8 b43e
00000330: 7ebb 903e d67f af3d 87b7 a83e 522a 25be
00000340: 6b78 283d 0b55 8bbe 2d59 97be 0d92 2d3e
00000350: 25a3 ab3d 244f 1cbc ff5a 5bbe 3440 793e
00000360: 23d3 3dbc 3a35 6b3e b5c0 6dbe 5ab4 863e
00000370: 33d3 52bc d0fb c5bd 27a4 8ebc a0e1 89be
00000380: b959 5ebd bb44 6c3c 13c6 81be 5ae9 373e
00000390: 9129 ab3e 6132 253e 6353 1abe 6bd5 50be
000003a0: 7317 8bbe 7d9d 4ebe 3777 473e f15c 103e
000003b0: 44ca dbbd 77db 7f3b 211c 15bd 94e7 943b
000003c0: aac0 b5be 5a10 973e 4d36 ccbd 988c 9abe
000003d0: 5a45 36bb 8b91 ac3d 10ed 0d3e 5261 20be
000003e0: 3c40 c2bb 0e3c 82be b1a6 83be 3b68 63be
000003f0: da55 58be a6c4 563e 7923 a2be 7493 7abd
