outputs/2025-03-23/17-28-06/outputs/model_epoch_0.pt (torch, 320202 bytes, 128 tensors)

naim.embeddings.0.embeddings.weight f4 [2, 6]
0.3820021 -0.55152994 -0.32473138 0.30177376 0.4224779 0.25975066 0.0 0.0
0.0 0.0 0.0 0.0
00000000: c795 c33e 1131 0dbf 3143 a6be 1782 9a3e
00000010: 064f d83e 0afe 843e 0000 0000 0000 0000
00000020: 0000 0000 0000 0000 0000 0000 0000 0000

naim.embeddings.1.embeddings.weight f4 [2, 6]
0.0705672 -0.07598393 -0.1669421 0.3784864 0.17340805 -0.06851179 0.0 0.0
0.0 0.0 0.0 0.0
00000000: 8985 903d 769d 9bbd dff2 2abe f8c8 c13e
00000010: e191 313e e94f 8cbd 0000 0000 0000 0000
00000020: 0000 0000 0000 0000 0000 0000 0000 0000

naim.embeddings.2.embeddings.weight f4 [2, 6]
0.6234485 0.047372196 -0.0185689 0.5537527 -0.25067824 0.3627252 0.0 0.0
0.0 0.0 0.0 0.0
00000000: 529a 1f3f 5909 423d ce1d 98bc bdc2 0d3f
00000010: e658 80be 1eb7 b93e 0000 0000 0000 0000
00000020: 0000 0000 0000 0000 0000 0000 0000 0000

naim.embeddings.3.embeddings.weight f4 [2, 6]
0.65687084 -0.51248217 0.037459258 0.47402996 0.12037353 0.019441748 0.0 0.0
0.0 0.0 0.0 0.0
00000000: b028 283f 0832 03bf e16e 193d 0eb4 f23e
00000010: 6686 f63d 4d44 9f3c 0000 0000 0000 0000
00000020: 0000 0000 0000 0000 0000 0000 0000 0000

naim.embeddings.4.embeddings.weight f4 [2, 6]
-0.5112123 -0.25270665 -0.20156549 0.11573468 0.10832362 -0.0014717206 0.0 0.0
0.0 0.0 0.0 0.0
00000000: cfde 02bf c462 81be 2f67 4ebe 4e06 ed3d
00000010: c6d8 dd3d c0e6 c0ba 0000 0000 0000 0000
00000020: 0000 0000 0000 0000 0000 0000 0000 0000

naim.embeddings.5.embeddings.weight f4 [2, 6]
-0.3134004 0.0224248 0.61425304 0.31712812 -0.533912 0.07061956 0.0 0.0
0.0 0.0 0.0 0.0
00000000: 0476 a0be 37b4 b73c b03f 1d3f 9e5e a23e
00000010: 75ae 08bf fda0 903d 0000 0000 0000 0000
00000020: 0000 0000 0000 0000 0000 0000 0000 0000

naim.embeddings.6.embeddings.weight f4 [2, 6]
-0.50561607 -0.08260062 -0.098936304 -0.24509971 0.11863672 0.729516 0.0 0.0
0.0 0.0 0.0 0.0
00000000: 0e70 01bf 842a a9bd 1e9f cabd 6bfb 7abe
00000010: cff7 f23d 90c1 3a3f 0000 0000 0000 0000
00000020: 0000 0000 0000 0000 0000 0000 0000 0000

naim.embeddings.7.embeddings.weight f4 [2, 6]
-0.37221533 -0.018635651 0.07394836 -0.66499525 -0.035072654 0.5377744 0.0 0.0
0.0 0.0 0.0 0.0
00000000: 0293 bebe cba9 98bc 3d72 973d 213d 2abf
00000010: 58a8 0fbd 95ab 093f 0000 0000 0000 0000
00000020: 0000 0000 0000 0000 0000 0000 0000 0000

naim.embeddings.8.embeddings.weight f4 [2, 6]
0.6308994 -0.14212318 0.2646174 -0.5894783 -0.19585401 0.22875766 0.0 0.0
0.0 0.0 0.0 0.0
00000000: a082 213f bd88 11be ef7b 873e 0de8 16bf
00000010: f48d 48be 733f 6a3e 0000 0000 0000 0000
00000020: 0000 0000 0000 0000 0000 0000 0000 0000

naim.embeddings.9.embeddings.weight f4 [2, 6]
0.44219527 -0.2851286 0.06713661 -0.38639018 -0.5959496 0.0027002206 0.0 0.0
0.0 0.0 0.0 0.0
00000000: 6b67 e23e 60fc 91be eb7e 893d efd4 c5be
00000010: 2790 18bf 2ff6 303b 0000 0000 0000 0000
00000020: 0000 0000 0000 0000 0000 0000 0000 0000

naim.embeddings.10.embeddings.weight f4 [2, 6]
0.082468 0.084620416 0.27245548 0.22566599 0.005729583 0.4271942 0.0 0.0
0.0 0.0 0.0 0.0
00000000: fce4 a83d 784d ad3d 497f 8b3e fc14 673e
00000010: 3abf bb3b 33b9 da3e 0000 0000 0000 0000
00000020: 0000 0000 0000 0000 0000 0000 0000 0000

naim.embeddings.11.embeddings.weight f4 [2, 6]
0.16240294 -0.11879296 -0.48713413 -0.48929304 -0.016927976 -0.27952486 0.0 0.0
0.0 0.0 0.0 0.0
00000000: f54c 263e b949 f3bd a569 f9be 9e84 fabe
00000010: 8aac 8abc e21d 8fbe 0000 0000 0000 0000
00000020: 0000 0000 0000 0000 0000 0000 0000 0000

naim.embeddings.12.embeddings.weight f4 [2, 6]
0.14094636 -0.21395007 0.08211854 0.41983074 0.48825967 0.124236315 0.0 0.0
0.0 0.0 0.0 0.0
00000000: 3e54 103e ba15 5bbe c42d a83d 0ef4 d63e
00000010: 2cfd f93e 9c6f fe3d 0000 0000 0000 0000
00000020: 0000 0000 0000 0000 0000 0000 0000 0000

naim.embeddings.13.embeddings.weight f4 [2, 6]
-0.24474044 -0.11310721 -0.2731434 0.64220387 -0.1789236 0.29102036 0.0 0.0
0.0 0.0 0.0 0.0
00000000: 3d9d 7abe c1a4 e7bd 74d9 8bbe 7967 243f
00000010: c037 37be 9f00 953e 0000 0000 0000 0000
00000020: 0000 0000 0000 0000 0000 0000 0000 0000

naim.embeddings.14.embeddings.weight f4 [2, 6]
0.1577899 0.65745556 -0.1334703 0.06721496 0.5943975 0.032629583 0.0 0.0
0.0 0.0 0.0 0.0
00000000: ad93 213e 024f 283f 70ac 08be ffa7 893d
00000010: 6f2a 183f 99a6 053d 0000 0000 0000 0000
00000020: 0000 0000 0000 0000 0000 0000 0000 0000

naim.embeddings.15.embeddings.weight f4 [2, 6]
-0.599078 0.32404074 0.0693689 -0.27466434 -0.16979517 0.5419234 0.0 0.0
0.0 0.0 0.0 0.0
00000000: 2d5d 19bf abe8 a53e 4811 8e3d cea0 8cbe
00000010: c9de 2dbe 7ebb 0a3f 0000 0000 0000 0000
00000020: 0000 0000 0000 0000 0000 0000 0000 0000

naim.embeddings.16.embeddings.weight f4 [2, 6]
0.5097452 0.10354776 0.079741 -0.3348018 0.13205315 0.39728802 0.0 0.0
0.0 0.0 0.0 0.0
00000000: a97e 023f d910 d43d 404f a33d 246b abbe
00000010: f138 073e 5669 cb3e 0000 0000 0000 0000
00000020: 0000 0000 0000 0000 0000 0000 0000 0000

naim.embeddings.17.embeddings.weight f4 [2, 6]
0.11131578 0.1485912 0.13408029 -0.47727785 0.31135404 -0.27466407 0.0 0.0
0.0 0.0 0.0 0.0
00000000: 87f9 e33d 4b28 183e 584c 093e c35d f4be
00000010: cc69 9f3e c5a0 8cbe 0000 0000 0000 0000
00000020: 0000 0000 0000 0000 0000 0000 0000 0000

naim.embeddings.18.embeddings.weight f4 [2, 6]
-0.53417295 -0.4665957 -0.28045806 0.53504163 -0.04792775 -0.0044676345 0.0 0.0
0.0 0.0 0.0 0.0
00000000: 8fbf 08bf a2e5 eebe 3398 8fbe 7df8 083f
00000010: e34f 44bd 3c65 92bb 0000 0000 0000 0000
00000020: 0000 0000 0000 0000 0000 0000 0000 0000

naim.embeddings.19.embeddings.weight f4 [2, 6]
0.5212789 -0.29171753 0.2578844 -0.2005607 -0.09844195 0.10839981 0.0 0.0
0.0 0.0 0.0 0.0
00000000: 8972 053f 005c 95be 6d09 843e c95f 4dbe
00000010: ef9b c9bd b800 de3d 0000 0000 0000 0000
00000020: 0000 0000 0000 0000 0000 0000 0000 0000

naim.embeddings.20.embeddings.weight f4 [2, 6]
0.2775378 0.15744868 -0.33677408 -0.476793 -0.12622568 0.2370957 0.0 0.0
0.0 0.0 0.0 0.0
00000000: 6f19 8e3e 3a3a 213e a76d acbe 361e f4be
00000010: 4e41 01be 37c9 723e 0000 0000 0000 0000
00000020: 0000 0000 0000 0000 0000 0000 0000 0000

naim.embeddings.21.embeddings.weight f4 [2, 6]
0.084448606 0.008962602 0.13286416 -0.06501235 0.029028159 -0.13824752 0.0 0.0
0.0 0.0 0.0 0.0
00000000: 64f3 ac3d e1d7 123c 8b0d 083e 3225 85bd
00000010: 76cc ed3c c290 0dbe 0000 0000 0000 0000
00000020: 0000 0000 0000 0000 0000 0000 0000 0000

naim.embeddings.22.embeddings.weight f4 [2, 6]
0.34820968 -0.24284582 -0.0528036 0.5468452 0.42676124 -0.21182999 0.0 0.0
0.0 0.0 0.0 0.0
00000000: 8a48 b23e 93ac 78be 9648 58bd 0cfe 0b3f
00000010: 7380 da3e f6e9 58be 0000 0000 0000 0000
00000020: 0000 0000 0000 0000 0000 0000 0000 0000

naim.embeddings.23.embeddings.weight f4 [2, 6]
0.20608744 0.018119764 -0.357334 0.8198734 -0.04941159 -0.23559055 0.0 0.0
0.0 0.0 0.0 0.0
00000000: 9608 533e e66f 943c 7bf4 b6be 39e3 513f
00000010: cf63 4abd a63e 71be 0000 0000 0000 0000
00000020: 0000 0000 0000 0000 0000 0000 0000 0000

naim.embeddings.24.embeddings.weight f4 [2, 6]
-0.0008798914 0.15109068 -0.16874054 0.40343994 -0.8325649 0.038852543 0.0 0.0
0.0 0.0 0.0 0.0
00000000: 83a8 66ba 84b7 1a3e 52ca 2cbe ae8f ce3e
00000010: f922 55bf d823 1f3d 0000 0000 0000 0000
00000020: 0000 0000 0000 0000 0000 0000 0000 0000

naim.embeddings.25.embeddings.weight f4 [2, 6]
0.36789948 -0.123099975 0.7415928 0.4513548 0.08205678 0.07040351 0.0 0.0
0.0 0.0 0.0 0.0
00000000: 525d bc3e d71b fcbd 07d9 3d3f fa17 e73e
00000010: 630d a83d b72f 903d 0000 0000 0000 0000
00000020: 0000 0000 0000 0000 0000 0000 0000 0000

naim.embeddings.26.embeddings.weight f4 [2, 6]
0.1476531 -0.47173926 -0.48055395 0.29028985 0.40843806 0.31881547 0.0 0.0
0.0 0.0 0.0 0.0
00000000: 6032 173e cf87 f1be 2b0b f6be dfa0 943e
00000010: cb1e d13e c83b a33e 0000 0000 0000 0000
00000020: 0000 0000 0000 0000 0000 0000 0000 0000

naim.embeddings.27.embeddings.weight f4 [2, 6]
-0.06492682 0.3575014 -0.50953084 -0.52304155 -0.11843711 0.041648403 0.0 0.0
0.0 0.0 0.0 0.0
00000000: 5af8 84bd 6c0a b73e 9d70 02bf 0de6 05bf
00000010: 288f f2bd 8497 2a3d 0000 0000 0000 0000
00000020: 0000 0000 0000 0000 0000 0000 0000 0000

naim.embeddings.28.embeddings.weight f4 [2, 6]
-0.2088584 0.24272706 -0.19180377 -0.32752147 0.11585771 -0.080559276 0.0 0.0
0.0 0.0 0.0 0.0
00000000: fade 55be 718d 783e 3568 44be e5b0 a7be
00000010: cf46 ed3d 43fc a4bd 0000 0000 0000 0000
00000020: 0000 0000 0000 0000 0000 0000 0000 0000

naim.embeddings.29.embeddings.weight f4 [2, 6]
-0.5310894 -0.004896973 0.6428579 -0.19881482 0.055244736 -0.34274504 0.0 0.0
0.0 0.0 0.0 0.0
00000000: 7af5 07bf c976 a0bb 5692 243f 1d96 4bbe
00000010: 4e48 623d 477c afbe 0000 0000 0000 0000
00000020: 0000 0000 0000 0000 0000 0000 0000 0000

naim.embeddings.30.embeddings.weight f4 [2, 6]
-0.1214648 0.2491056 0.34271866 -0.29047906 -0.042775773 -0.40574905 0.0 0.0
0.0 0.0 0.0 0.0
00000000: 89c2 f8bd 8a15 7f3e d278 af3e acb9 94be
00000010: a635 2fbd 57be cfbe 0000 0000 0000 0000
00000020: 0000 0000 0000 0000 0000 0000 0000 0000

naim.embeddings.31.embeddings.weight f4 [2, 6]
0.39697838 -0.24043918 -0.05391546 -0.1167493 -0.2570599 -0.31362253 0.0 0.0
0.0 0.0 0.0 0.0
00000000: c040 cb3e b035 76be 75d6 5cbd 421a efbd
00000010: 5b9d 83be 2293 a0be 0000 0000 0000 0000
00000020: 0000 0000 0000 0000 0000 0000 0000 0000

naim.embeddings.32.embeddings.weight f4 [2, 6]
0.099003345 0.309313 -0.32673806 -0.75719035 0.26388127 -0.18591954 0.0 0.0
0.0 0.0 0.0 0.0
00000000: 44c2 ca3d 465e 9e3e 364a a7be 3ad7 41bf
00000010: 721b 873e b161 3ebe 0000 0000 0000 0000
00000020: 0000 0000 0000 0000 0000 0000 0000 0000

naim.embeddings.33.embeddings.weight f4 [2, 6]
-0.16371988 -0.15141714 -0.3812666 -0.20428024 -0.30991688 0.7134033 0.0 0.0
0.0 0.0 0.0 0.0
00000000: 2fa6 27be 180d 1bbe 6035 c3be d72e 51be
00000010: 6dad 9ebe 99a1 363f 0000 0000 0000 0000
00000020: 0000 0000 0000 0000 0000 0000 0000 0000

naim.embeddings.34.embeddings.weight f4 [2, 6]
-0.14796302 0.102878995 0.51048046 -0.024565808 -0.26488432 0.027060466 0.0 0.0
0.0 0.0 0.0 0.0
00000000: 9e83 17be 39b2 d23d d9ae 023f 3c3e c9bc
00000010: eb9e 87be e9ad dd3c 0000 0000 0000 0000
00000020: 0000 0000 0000 0000 0000 0000 0000 0000

naim.embeddings.35.embeddings.weight f4 [2, 6]
0.2061408 -0.16152368 0.31413397 0.3243451 0.40108943 -0.5441905 0.0 0.0
0.0 0.0 0.0 0.0
00000000: 9316 533e 7766 25be 2bd6 a03e 9010 a63e
00000010: 985b cd3e 1250 0bbf 0000 0000 0000 0000
00000020: 0000 0000 0000 0000 0000 0000 0000 0000

naim.embeddings.36.embeddings.weight f4 [2, 6]
-0.13819548 0.39157462 -0.5127599 0.0067678774 -0.007002987 0.10332266 0.0 0.0
0.0 0.0 0.0 0.0
00000000: 1e83 0dbe 787c c83e 3c44 03bf 12c5 dd3b
00000010: 5079 e5bb d59a d33d 0000 0000 0000 0000
00000020: 0000 0000 0000 0000 0000 0000 0000 0000

naim.embeddings.37.embeddings.weight f4 [2, 6]
-0.017359195 -0.34576514 -0.1062129 -0.046540737 0.21839462 0.11900079 0.0 0.0
0.0 0.0 0.0 0.0
00000000: df34 8ebc 2108 b1be 2686 d9bd 80a1 3ebd
00000010: d7a2 5f3e b0b6 f33d 0000 0000 0000 0000
00000020: 0000 0000 0000 0000 0000 0000 0000 0000

naim.embeddings.38.embeddings.weight f4 [2, 6]
0.015285238 -0.075035945 0.009886799 0.28732502 -0.12504612 0.13995002 0.0 0.0
0.0 0.0 0.0 0.0
00000000: ef6e 7a3c 72ac 99bd 3efc 213c 441c 933e
00000010: 170c 00be 0f4f 0f3e 0000 0000 0000 0000
00000020: 0000 0000 0000 0000 0000 0000 0000 0000

naim.embeddings.39.embeddings.weight f4 [2, 6]
-0.040519543 -0.284603 0.5010766 -0.6457617 0.19479711 0.33956918 0.0 0.0
0.0 0.0 0.0 0.0
00000000: d2f7 25bd 7cb7 91be 8e46 003f a450 25bf
00000010: e578 473e 03dc ad3e 0000 0000 0000 0000
00000020: 0000 0000 0000 0000 0000 0000 0000 0000

naim.embeddings.40.embeddings.weight f4 [2, 6]
-0.11041342 0.25477207 0.1063037 -0.13501656 -0.07905781 -0.32319325 0.0 0.0
0.0 0.0 0.0 0.0
00000000: 6e20 e2bd 7c71 823e c1b5 d93d c841 0abe
00000010: 10e9 a1bd 9679 a5be 0000 0000 0000 0000
00000020: 0000 0000 0000 0000 0000 0000 0000 0000

naim.embeddings.41.embeddings.weight f4 [2, 6]
-0.11232653 -0.19324158 0.32636288 0.18067494 0.39211583 0.5721812 0.0 0.0
0.0 0.0 0.0 0.0
00000000: 740b e6bd 1fe1 45be 0919 a73e da02 393e
00000010: 68c3 c83e 787a 123f 0000 0000 0000 0000
00000020: 0000 0000 0000 0000 0000 0000 0000 0000

naim.embeddings.42.embeddings.weight f4 [2, 6]
-0.3017853 0.7255571 0.22450487 0.39542633 0.09102781 -0.12292034 0.0 0.0
0.0 0.0 0.0 0.0
00000000: 9a83 9abe 1cbe 393f 9be4 653e 5275 ca3e
00000010: ca6c ba3d a9bd fbbd 0000 0000 0000 0000
00000020: 0000 0000 0000 0000 0000 0000 0000 0000

naim.embeddings.43.embeddings.weight f4 [2, 6]
-0.22661221 0.0037202502 0.66152287 0.47698745 0.3645682 -0.06251868 0.0 0.0
0.0 0.0 0.0 0.0
00000000: 080d 68be 71cf 733b 9059 293f b337 f43e
00000010: afa8 ba3e cb09 80bd 0000 0000 0000 0000
00000020: 0000 0000 0000 0000 0000 0000 0000 0000

naim.embeddings.44.embeddings.weight f4 [2, 6]
-0.037254874 0.28046274 0.22714326 -0.32854953 0.12466627 0.49986959 0.0 0.0
0.0 0.0 0.0 0.0
00000000: 9198 18bd d098 8f3e 3e98 683e a537 a8be
00000010: 0851 ff3d e8ee ff3e 0000 0000 0000 0000
00000020: 0000 0000 0000 0000 0000 0000 0000 0000

naim.embeddings.45.embeddings.weight f4 [2, 6]
-0.47214985 -0.5894495 -0.26056954 0.1697668 -0.44660923 -0.18435895 0.0 0.0
0.0 0.0 0.0 0.0
00000000: a0bd f1be 2ae6 16bf 5f69 85be 59d7 2d3e
00000010: f7a9 e4be 98c8 3cbe 0000 0000 0000 0000
00000020: 0000 0000 0000 0000 0000 0000 0000 0000

naim.embeddings.46.embeddings.weight f4 [2, 6]
-0.0867758 0.069819584 0.2737915 -0.08279904 0.12150222 0.21838658 0.0 0.0
0.0 0.0 0.0 0.0
00000000: 83b7 b1bd 92fd 8e3d 662e 8c3e 8b92 a9bd
00000010: 28d6 f83d bba0 5f3e 0000 0000 0000 0000
00000020: 0000 0000 0000 0000 0000 0000 0000 0000

naim.embeddings.47.embeddings.weight f4 [2, 6]
0.30577266 -0.09583753 -0.4826501 -0.23775956 0.27350268 -0.28121498 0.0 0.0
0.0 0.0 0.0 0.0
00000000: 3c8e 9c3e 7846 c4bd ea1d f7be 3e77 73be
00000010: 8b08 8c3e 69fb 8fbe 0000 0000 0000 0000
00000020: 0000 0000 0000 0000 0000 0000 0000 0000

naim.embeddings.48.embeddings.weight f4 [2, 6]
0.0072085084 0.24246131 0.09540735 0.30083466 0.69319683 0.35943586 0.0 0.0
0.0 0.0 0.0 0.0
00000000: 5a35 ec3b c747 783e ee64 c33d 0007 9a3e
00000010: 5975 313f fa07 b83e 0000 0000 0000 0000
00000020: 0000 0000 0000 0000 0000 0000 0000 0000

naim.embeddings.49.embeddings.weight f4 [2, 6]
-0.23254263 0.25345084 0.28724244 -0.10374237 -0.37458298 0.41637865 0.0 0.0
0.0 0.0 0.0 0.0
00000000: a81f 6ebe 4fc4 813e 7111 933e e176 d4bd
00000010: 57c9 bfbe 952f d53e 0000 0000 0000 0000
00000020: 0000 0000 0000 0000 0000 0000 0000 0000

naim.embeddings.50.embeddings.weight f4 [2, 6]
0.5297521 0.39658973 -0.106003955 -0.16420846 -0.106791906 -0.55073774 0.0 0.0
0.0 0.0 0.0 0.0
00000000: d59d 073f cf0d cb3e 9a18 d9bd 4326 28be
00000010: b7b5 dabd 26fd 0cbf 0000 0000 0000 0000
00000020: 0000 0000 0000 0000 0000 0000 0000 0000

naim.embeddings.51.embeddings.weight f4 [2, 6]
0.049762055 0.18254311 0.53303736 -0.65028 0.3480987 -0.13957913 0.0 0.0
0.0 0.0 0.0 0.0
00000000: 4cd3 4b3d 95ec 3a3e 2375 083f c078 26bf
00000010: fe39 b23e d5ed 0ebe 0000 0000 0000 0000
00000020: 0000 0000 0000 0000 0000 0000 0000 0000

naim.embeddings.52.embeddings.weight f4 [2, 6]
0.31585038 -0.21058983 -0.24509235 -0.19672382 0.10521937 -0.34840402 0.0 0.0
0.0 0.0 0.0 0.0
00000000: 24b7 a13e dca4 57be 7df9 7abe f871 49be
00000010: 417d d73d 0362 b2be 0000 0000 0000 0000
00000020: 0000 0000 0000 0000 0000 0000 0000 0000

naim.embeddings.53.embeddings.weight f4 [2, 6]
-0.24702567 -0.15251383 0.12311635 -0.058331117 0.89216673 -0.0040220614 0.0 0.0
0.0 0.0 0.0 0.0
00000000: 4cf4 7cbe 962c 1cbe 6d24 fc3d 9cec 6ebd
00000010: 0a65 643f 7fcb 83bb 0000 0000 0000 0000
00000020: 0000 0000 0000 0000 0000 0000 0000 0000

naim.embeddings.54.embeddings.weight f4 [2, 6]
0.17194887 0.5204872 0.38411388 0.1745496 -0.6047153 0.119200684 0.0 0.0
0.0 0.0 0.0 0.0
00000000: 5d13 303e a63e 053f 93aa c43e 21bd 323e
00000010: 9fce 1abf 7d1f f43d 0000 0000 0000 0000
00000020: 0000 0000 0000 0000 0000 0000 0000 0000

naim.embeddings.55.embeddings.weight f4 [2, 6]
0.32231763 -0.31461006 -0.56135887 0.54163396 -0.08524025 -0.15811473 0.0 0.0
0.0 0.0 0.0 0.0
00000000: d106 a53e 9214 a1be 37b5 0fbf 86a8 0a3f
00000010: 7192 aebd d4e8 21be 0000 0000 0000 0000
00000020: 0000 0000 0000 0000 0000 0000 0000 0000

naim.embeddings.56.embeddings.weight f4 [2, 6]
-0.37552902 -0.43330744 0.18001918 -0.057650633 -0.39967382 -0.0658461 0.0 0.0
0.0 0.0 0.0 0.0
00000000: 5745 c0be 79da ddbe f356 383e 1223 6cbd
00000010: 0ca2 ccbe 52da 86bd 0000 0000 0000 0000
00000020: 0000 0000 0000 0000 0000 0000 0000 0000

naim.embeddings.57.embeddings.weight f4 [2, 6]
0.44838098 -0.32317072 -0.18763277 0.249193 0.7090955 -0.016007772 0.0 0.0
0.0 0.0 0.0 0.0
00000000: 3192 e53e a276 a5be ce22 40be 732c 7f3e
00000010: 4887 353f bb22 83bc 0000 0000 0000 0000
00000020: 0000 0000 0000 0000 0000 0000 0000 0000

naim.embeddings.58.embeddings.weight f4 [2, 6]
-0.12374884 0.034804508 0.059816208 -0.05732074 0.08178664 -0.24477609 0.0 0.0
0.0 0.0 0.0 0.0
00000000: 0870 fdbd 2c8f 0e3d d701 753d 27c9 6abd
00000010: c17f a73d 95a6 7abe 0000 0000 0000 0000
00000020: 0000 0000 0000 0000 0000 0000 0000 0000

naim.embeddings.59.embeddings.weight f4 [2, 6]
0.29847118 -0.15843196 -0.23952824 0.67545295 0.26122856 0.4009916 0.0 0.0
0.0 0.0 0.0 0.0
00000000: 37d1 983e fd3b 22be e446 75be 7cea 2c3f
00000010: c0bf 853e c54e cd3e 0000 0000 0000 0000
00000020: 0000 0000 0000 0000 0000 0000 0000 0000

naim.embeddings.60.embeddings.weight f4 [2, 6]
-0.5182715 -0.052845642 0.03305852 0.49845046 0.25014803 0.36245412 0.0 0.0
0.0 0.0 0.0 0.0
00000000: 71ad 04bf ac74 58bd 5f68 073d e634 ff3e
00000010: 6713 803e 9693 b93e 0000 0000 0000 0000
00000020: 0000 0000 0000 0000 0000 0000 0000 0000

naim.embeddings.61.embeddings.weight f4 [2, 6]
-0.21989764 0.03855355 0.11892542 -0.08246221 0.2404478 -0.13093045 0.0 0.0
0.0 0.0 0.0 0.0
00000000: d92c 61be 54ea 1d3d 2c8f f33d f2e1 a8bd
00000010: f337 763e a212 06be 0000 0000 0000 0000
00000020: 0000 0000 0000 0000 0000 0000 0000 0000

naim.embeddings.62.embeddings.weight f4 [2, 6]
0.2807177 0.13347949 -0.6782025 -0.06258254 -0.35885236 -0.4643181 0.0 0.0
0.0 0.0 0.0 0.0
00000000: 3bba 8f3e d9ae 083e ae9e 2dbf 462b 80bd
00000010: 7fbb b7be 1abb edbe 0000 0000 0000 0000
00000020: 0000 0000 0000 0000 0000 0000 0000 0000

naim.embeddings.63.embeddings.weight f4 [2, 6]
0.74356407 0.33764952 -0.30387303 0.16821 -0.203686 -0.1681152 0.0 0.0
0.0 0.0 0.0 0.0
00000000: 375a 3e3f 66e0 ac3e 3f95 9bbe 3e3f 2c3e
00000010: 1093 50be 6426 2cbe 0000 0000 0000 0000
00000020: 0000 0000 0000 0000 0000 0000 0000 0000

naim.encoder.0.layer_norm_1.weight f4 [6]
0.96134275 0.96098566 0.9639821 0.9643158 0.9614392 0.96139944
00000000: 8f1a 763f 2803 763f 88c7 763f 66dd 763f
00000010: e120 763f 461e 763f

naim.encoder.0.layer_norm_1.bias f4 [6]
0.006356888 -0.005303552 -0.0018810786 -0.0063245306 0.0053271754 0.007643554
00000000: 714d d03b 6bc9 adbb 868e f6ba 023e cfbb
00000010: 968f ae3b c776 fa3b

naim.encoder.0.attn.linear_q.weight f4 [6, 6]
-0.071432546 0.013015193 -0.07220547 -0.3610083 -0.018359704 0.16136834 -0.02616451 -0.16314004
0.02277079 0.044612627 -0.0875642 -0.27781543 -0.18037355 -0.02940692 0.11785978 0.3248984
-0.0018348736 0.10824447 0.19845574 -0.14029032 -0.099890366 0.23353522 0.25394833 0.062164534
-0.27687436 0.1931758 -0.29851457 0.16525072 0.016007863 0.09353891 -0.3590899 -0.10523352
0.13459803 0.27560213 -0.07884292 0.3253663
00000000: 3a4b 92bd ad3d 553c 76e0 93bd 14d6 b8be
00000010: 1767 96bc be3d 253e f456 d6bc 2f0e 27be
00000020: cf89 ba3c bbbb 363d dc54 b3bd d33d 8ebe
00000030: d8b3 38be c8e6 f0bc 7860 f13d 1559 a63e
00000040: 2480 f0ba 47af dd3d fb37 4b3e 44a8 0fbe
00000050: 5293 ccbd db23 6f3e 8405 823e 3da0 7e3d
00000060: 7ac2 8dbe e0cf 453e e7d6 98be 7c37 293e
00000070: ec22 833c 5491 bf3d a2da b7be ac84 d7bd
00000080: 11d4 093e b91b 8d3e 6678 a1bd 6996 a63e

naim.encoder.0.attn.linear_k.weight f4 [6, 6]
-0.0625338 -0.20724967 -0.13800916 -0.00029631212 -0.03913302 0.16359241 -0.18710217 -0.077405035
-0.36554688 0.29422063 -0.040311422 -0.2834659 0.0051469975 -0.0049506356 0.07680305 -0.014699605
0.21812685 -0.10331089 -0.08375399 -0.058890685 0.03502226 0.28853226 0.0068473546 0.27525303
0.28192645 -0.17363223 -0.0025484369 -0.15534192 0.13111408 -0.10486553 0.08621508 -2.6227746e-05
-0.22982126 -0.23657554 -0.3600951 -0.18996826
00000000: b911 80bd 4239 54be 4652 0dbe 575a 9bb9
00000010: f249 20bd c584 273e b697 3fbe 8886 9ebd
00000020: f628 bbbe 16a4 963e 971d 25bd 7122 91be
00000030: 25a8 a83b f138 a2bb eb4a 9d3d 9dd6 70bc
00000040: a55c 5f3e a994 d3bd 3687 abbd 5c37 71bd
00000050: 8073 0f3d 80ba 933e c65f e03b f7ed 8c3e
00000060: aa58 903e a6cc 31be ad03 27bb f411 1fbe
00000070: c542 063e bdc3 d6bd 8891 b03d a803 dcb7
00000080: 4456 6bbe dc40 72be 635e b8be 0a87 42be

naim.encoder.0.attn.linear_v.weight f4 [6, 6]
0.11382781 0.009778685 0.30325073 -0.35765785 -0.022701483 -0.3345754 -0.009754376 0.12537263
-0.36058146 0.3562555 -0.0981949 0.3497957 -0.05097544 0.20889258 0.3571707 -0.15060851
-0.08629442 0.19913709 -0.31886986 0.20435342 -0.23190933 0.3571976 -0.24128088 -0.16253382
0.2831486 -0.15129542 0.3115681 0.24483043 0.33833286 -0.36916867 0.0118638985 -0.13241136
0.0970518 -0.30778527 0.16337016 -0.0018545922
00000000: 8e1e e93d c736 203c ae43 9b3e ee1e b7be
00000010: 76f8 b9bc 784d abbe d1d0 1fbc af61 003e
00000020: 229e b8be 1f67 b63e 681a c9bd 6c18 b33e
00000030: 9fcb 50bd f0e7 553e 14df b63e 1e39 1abe
00000040: 21bb b0bd 98ea 4b3e e942 a3be 0642 513e
00000050: a479 6dbe 9be2 b63e 5612 77be 446f 26be
00000060: daf8 903e 30ed 1abe db85 9f3e d4b4 7a3e
00000070: f739 ad3e ad03 bdbe cc60 423c d896 07be
00000080: 18c3 c63d 0896 9dbe 824a 273e ca15 f3ba

naim.encoder.0.attn.linear_o.weight f4 [6, 6]
-0.15434225 -0.32844168 0.17487472 -0.10925173 0.26246446 0.03495279 0.08579145 -0.024520736
-0.01939314 -0.10023326 -0.31469193 0.21793303 -0.25991616 0.21751091 -0.14690144 0.23370868
0.32703307 -0.24982984 0.31659505 -0.0047868877 -0.31819817 0.14871226 0.21302143 0.33700952
-0.37532666 0.35737062 0.29602093 0.3876223 0.21395789 -0.19521973 0.3178566 0.38166055
-0.14029844 -0.052525174 0.328443 0.3350358
00000000: e50b 1ebe 8229 a8be 5c12 333e 5fbf dfbd
00000010: be61 863e a82a 0f3d 6eb3 af3d b6df c8bc
00000020: 5dde 9ebc 1847 cdbd 4d1f a1be d629 5f3e
00000030: bb13 85be 2ebb 5e3e 556d 16be 5451 6f3e
00000040: e170 a73e 65d3 7fbe bf18 a23e 53db 9cbb
00000050: dfea a2be 0748 183e 4a22 5a3e 838c ac3e
00000060: d12a c0be 48f9 b63e 0e90 973e 6e76 c63e
00000070: c717 5b3e aee7 47be 1abe a23e 0369 c33e
00000080: 65aa 0fbe a324 57bd ae29 a83e d089 ab3e

naim.encoder.0.layer_norm_2.weight f4 [6]
0.9871437 0.9653671 0.9657531 0.97190315 0.9675016 0.9906693
00000000: 73b5 7c3f 4c22 773f 983b 773f a5ce 783f
00000010: 2fae 773f 819c 7d3f

naim.encoder.0.layer_norm_2.bias f4 [6]
-0.020115932 0.016970264 -0.0082487 -0.01236485 0.01126829 0.016730696
00000000: 2bca a4bc 3905 8b3c 8e25 07bc f195 4abc
00000010: a29e 383c d00e 893c

naim.encoder.0.ff.0.weight f4 [1000, 6]
0.2315325 0.27420524 -0.17299904 -0.036065925 -0.12924953 0.17440309 0.06730199 -0.2773407
-0.022985045 -0.2945569 -0.34550446 0.33360925 -0.16665296 0.14334026 -0.05268109 -0.044593755
-0.0013563242 0.27954128 -0.024081262 0.2991132 0.20062132 0.2413155 -0.33165318 -0.1521827
-0.29377407 -0.05478989 -0.046190426 0.05419762 0.326793 0.14634475 -0.24714136 -0.22707343
0.2692402 0.017022863 0.07727525 -0.17487398 -0.024745174 0.08291351 -0.22914284 0.22734655
0.1659324 -0.19957517 -0.12924275 -0.05891139 0.028899519 -0.1116886 0.35181203 -0.35465142
-0.19425777 -0.20968762 0.08687239 0.025006387 -0.08157355 0.31025878 -0.31404206 0.10538686
-0.18550882 -0.057305094 -0.35439435 -0.26587278 -0.30773804 0.14126119 -0.11487137 0.17538667
-0.18315607 -0.06610959 0.02967337 0.30296144 -0.08296399 0.19802937 0.075813405 0.21114306
0.2240861 0.13038631 -0.08606625 -0.079965815 0.1339873 0.18589945 0.0030776625 0.16633917
-0.20737405 0.19130199 -0.037700705 -0.24271847 -0.16021965 -0.27296048 0.04384333 -0.20399594
-0.079272136 -0.0035865488 -0.21063775 0.0050330674 -0.018023167 0.09129918 0.2569749 -0.20781796
0.19712044 -0.00022783036 -0.19435544 -0.14838098 0.071436785 0.04858045 0.0033154506 -0.17837615
0.16882494 0.030319871 -0.35770175 -0.0366582 -0.0732958 -0.1361658 -0.18864863 -0.29246935
0.36329618 -0.33380228 0.3422245 -0.2829468 -0.0625455 -0.12862419 -0.19046359 0.108449586
0.20015217 -0.23031093 -0.15147094 0.17049715 -0.019845232 0.06453509 0.17668435 -0.1128253
-0.18828595 0.11234576 -0.11411741 -0.23266764 -0.16776608 -0.15323232 0.36791027 0.044237714
0.13826582 0.030903406 -0.23666462 0.25629148 -0.030505257 -0.068267345 0.294075 -0.1692582
0.0492752 -0.30934712 0.1705742 0.12565513 -0.29722363 0.18930654 0.021036785 -0.17404999
0.30904695 0.1402239 0.107723475 -0.11664946 -0.18783914 -0.19264401 0.1281568 0.07566895
-0.20568429 0.33368328 0.19952625 -0.11734481 0.1722894 -0.13407505 0.09050314 0.30056146
-0.32231575 -0.16515937 0.0051446785 0.027042767 -0.2972734 -0.23001352 -0.021788463 -0.024607468
0.051438387 0.017007291 0.049350336 -0.004134493 0.01895647 -0.012889267 0.10851141 0.2395726
-0.16531622 -0.17390326 0.14805165 -0.25723583 0.22745004 0.15171365 0.04117883 -0.14069217
0.021242442 -0.2842151 -0.32849547 0.34631684 -0.3276298 -0.30020773 -0.12041771 -0.0050810487
0.05607549 -0.16242132 -0.014660348 -0.054558713 0.3031306 0.31598142 0.1329181 0.005395089
0.2671652 -0.29085878 0.1319185 -0.19864738 0.27949777 -0.3224107 0.11360268 -0.29676273
0.20106873 0.044335406 0.3114297 -0.271208 0.2248017 -0.2339189 -0.18384579 0.11698605
-0.03554287 -0.28322262 -0.30937758 -0.07871398 0.07562376 0.3199574 0.2617668 -0.0016394228
-0.21184333 -0.32531676 0.32749698 -0.19107538 -0.03973029 -0.29094818 -0.24376142 0.047410514
-0.0629715 0.011899457 -0.00018188044 -0.005123584 -0.04472127 0.005242424 0.13896053 0.25967553
0.30611053 -0.2947318 -0.30637717 -0.027202258 -0.011571223 0.18858002 0.34664 0.066194266
00000000: db16 6d3e a164 8c3e a926 31be ddb9 13bd
00000010: fd59 04be b996 323e a0d5 893d 9aff 8dbe
00000020: 224b bcbc 29d0 96be f6e5 b0be d5ce aa3e
00000030: 13a7 2abe cac7 123e 20c8 57bd f1a7 36bd
00000040: b0c6 b1ba 0920 8f3e 1146 c5bc 5e25 993e
00000050: ad6f 4d3e 691b 773e 72ce a9be c8d5 1bbe
00000060: 8e69 96be 5d6b 60bd 2c32 3dbd 53fe 5d3d
00000070: 6951 a73e 66db 153e a012 7dbe f085 68be
00000080: dad9 893e 8873 8b3c 7c42 9e3d 2a12 33be
00000090: 64b6 cabc 8fce a93d 6ca4 6abe 89cd 683e
000000a0: 2fea 293e 6f5d 4cbe 3658 04be 124d 71bd
000000b0: afbe ec3c febc e4bd b520 b43e df94 b5be
000000c0: 82eb 46be 5ab8 56be 27ea b13d 32da cc3c
000000d0: 0910 a7bd 3dda 9e3e 1fca a0be 11d5 d73d
000000e0: 06f6 3dbe bfb8 6abd 2d73 b5be 7a20 88be
000000f0: d78f 9dbe c6a6 103e ae41 ebbd 9098 333e
00000100: 448d 3bbe 7764 87bd 9115 f33c c31d 9b3e
00000110: 06e9 a9bd 36c8 4a3e 0f44 9b3d e335 583e
00000120: d476 653e fd83 053e 8143 b0bd 1ec5 a3bd
00000130: f733 093e 6d5c 3e3e 9cb2 493b d154 2a3e
00000140: dd59 54be abe4 433e 0e6c 1abd 318b 78be
00000150: 9f10 24be 7ac1 8bbe 1095 333d 50e4 50be
00000160: 6e59 a2bd 4e0c 6bbb 6cb1 57be 6eec a43b
00000170: 52a5 93bc 11fb ba3d 3792 833e 3bce 54be
00000180: f1d9 493e bfe5 6eb9 1d05 47be 2ff1 17be
00000190: 734d 923d 4bfc 463d 0848 593b 3da8 36be
000001a0: 72e0 2c3e 6161 f83c af24 b7be e926 16bd
000001b0: 1c1c 96bd 0c6f 0bbe 1b2d 41be 8bbe 95be
000001c0: f501 ba3e 22e8 aabe 0d38 af3e 67de 90be
000001d0: db17 80bd 0fb6 03be e308 43be d11a de3d
000001e0: b1f4 4c3e a1d6 6bbe 331b 1bbe ce96 2e3e
000001f0: 7892 a2bc f92a 843d beec 343e f310 e7bd
00000200: 08ce 40be 8915 e63d 63b6 e9bd 6d40 6ebe
00000210: dfca 2bbe efe8 1cbe bc5e bc3e 9b32 353d
00000220: 8e95 0d3e 2429 fd3c 3658 72be a338 833e
00000230: 29e6 f9bc c0cf 8bbd 0091 963e 0652 2dbe
00000240: cbd4 493d bf62 9ebe 01ab 2e3e bdab 003e
00000250: b22d 98be 93d9 413e 5655 ac3c 293a 32be
00000260: 673b 9e3e db96 0f3e 209e dc3d e9e5 eebd
00000270: e758 40be 7944 45be 893b 033e 53f8 9a3d
00000280: e79e 52be 89d8 aa3e 9c50 4c3e 7a52 f0bd
00000290: a26c 303e f84a 09be b659 b93d 31e3 993e
000002a0: 9206 a5be 8a1f 29be b194 a83b cb88 dd3c
000002b0: 3834 98be aa88 6bbe b87d b2bc 9a95 c9bc
000002c0: 0fb1 523d e052 8b3c 9423 4a3d a47a 87bb
000002d0: 994a 9b3c 812d 53bc 3b3b de3d 8552 753e
000002e0: a848 29be b213 32be da9a 173e 6ab4 83be
000002f0: aae8 683e d35a 1b3e 22ab 283d 9c11 10be
00000300: a104 ae3c a484 91be 8f30 a8be 7150 b13e
00000310: 18bf a7be d4b4 99be 8f9d f6bd ed7e a6bb
00000320: 6aaf 653d c651 26be f531 70bc f578 5fbd
00000330: ef33 9b3e 51c8 a13e af1b 083e 49c9 b03b
00000340: e1c9 883e 71eb 94be a515 073e 386a 4bbe
00000350: 551a 8f3e 0413 a5be 86a8 e83d 49f1 97be
00000360: f6e4 4d3e 0b99 353d b773 9f3e c6db 8abe
00000370: 6b32 663e 7088 6fbe 1242 3cbe 6296 ef3d
00000380: 6795 11bd 8e02 91be bd66 9ebe cc34 a1bd
00000390: a1e0 9a3d 75d1 a33e 4c06 863e e7e1 d6ba
000003a0: 75ed 58be eb8f a6be afad a73e 44a9 43be
000003b0: 3bbc 22bd 29f7 94be 989c 79be 8731 423d
000003c0: 34f7 80bd f1f5 423c 29b7 3eb9 bde3 a7bb
000003d0: a72d 37bd a4c8 ab3b ab4b 0e3e 31f4 843e
000003e0: 85ba 9c3e 16e7 96be 78dd 9cbe 45d7 debc
000003f0: 3a95 3dbc 1f1b 413e cc7a b13e dc90 873d

naim.encoder.0.ff.0.bias f4 [1000]
0.21545257 -0.17241101 -0.02440728 0.027644217 0.24491341 0.1545486 0.3556738 -0.18073185
-0.007710452 -0.00726801 0.3039339 0.34663484 0.103531286 -0.29100302 -0.25743213 0.04528859
-0.32215473 -0.109250344 -0.26746172 0.17144145 -0.039725814 -0.2817155 0.23012464 -0.32298157
-0.012829864 0.3544308 0.17698012 -0.31546113 0.029964184 -0.024741335 0.1427938 0.3472502
0.30936623 -0.0053234235 0.15157944 -0.3621312 0.28829637 0.19323839 -0.24828461 -0.083278425
-0.11991301 -0.20007445 0.15729114 -0.08508586 0.131498 -0.0867501 0.2788173 -0.12312955
-0.034449026 -0.09288261 0.028919967 -0.11261948 -0.24783649 -0.3492286 0.22010392 0.030205317
-0.22428846 0.1868499 0.0128707355 -0.110443816 -0.025245285 0.012383757 0.25516486 -0.33726314
-0.27775887 -0.29088914 -0.28211942 0.015452835 0.19423081 0.074281074 0.15704362 0.05147231
0.008360463 -0.33138317 0.32566032 0.35561278 0.011440635 0.072039254 0.04737607 0.36511195
-0.0012075757 -0.034337938 -0.1844581 0.075217016 0.15380125 -0.30636084 0.11461757 0.07405827
0.1442746 0.15438724 -0.07077851 0.03426525 -0.24707781 0.20798795 -0.30458105 -0.3195615
-0.26385686 -0.1896997 0.012919944 0.23259984 -0.018040404 0.25566456 -0.035020187 0.31768245
0.24370341 0.21867315 0.12931441 -0.2361262 0.36640668 -0.34998423 -0.24715257 -0.208149
-0.08158191 0.14009859 0.05781806 -0.31233516 0.35943735 0.34540984 0.16498256 -0.36089206
0.19331722 0.086382166 -0.021980938 -0.30318284 0.30872837 -0.08472087 -0.29131976 0.27762088
0.13739114 0.09142916 0.23412791 0.10363736 -0.05468757 -0.03738789 0.30726758 0.0035134468
-0.30269074 -0.24395755 -0.26912433 0.037671257 0.26915196 0.21922769 0.08264967 0.10457233
-0.16630074 0.34346592 0.13107176 -0.21840025 -0.23305975 -0.32695267 -0.077528045 0.2612147
0.033040635 -0.15508224 0.08009942 -0.24459484 0.08346962 0.239457 0.17193355 -0.087744445
-0.10312138 0.13383852 0.20629121 -0.06135736 0.013092487 -0.015733661 -0.010964936 -0.32443035
-0.2981077 0.31941038 -0.15789786 0.26580286 0.21854624 -0.035191208 -0.15888144 0.0050113136
-0.035307452 -0.20401406 0.3579573 -0.0056902575 -0.037219506 -0.23924255 0.06561452 0.030311007
0.36464992 -0.08875807 0.19309187 0.029069752 0.18048996 0.018143013 -0.04343967 0.13142551
-0.14734499 0.21349718 -0.30277875 -0.2544764 0.3633071 -0.12511861 -0.28586563 -0.25985852
0.35884064 -0.03516094 -0.30475435 -0.03302259 -0.16077131 -0.23548776 -0.16372493 0.27018458
0.13392933 0.20496908 0.016072873 -0.1323245 -0.12852709 -0.23512097 -0.25593796 -0.31401044
0.045641407 0.1754859 0.31079754 0.0005142242 -0.032310497 -0.010639146 0.12758748 -0.045223117
-0.10562684 -0.075903215 -0.3602173 -0.27554104 -0.13750346 0.019055547 -0.21782891 0.13799538
-0.18446665 0.35720915 -0.32197568 0.190388 -0.17395121 -0.105903216 -0.34298006 -0.3393446
-0.34794202 0.0046539963 0.33676374 0.1494313 0.21897495 0.07227657 -0.11919119 -0.12063738
-0.08515286 -0.3431952 0.1863088 -0.08430404 -0.19328433 0.09342735 -0.011472034 0.18378495
00000000: 999f 5c3e 838c 30be c7f1 c7bc 2076 e23c
00000010: 95ca 7a3e fd41 1e3e e01a b63e c511 39be
00000020: f6a7 fcbb 7d28 eebb 399d 9b3e 1f7a b13e
00000030: 3608 d43d 59fe 94be 25ce 83be 8780 393d
00000040: 77f1 a4be a5be dfbd bef0 88be 598e 2f3e
00000050: 89b7 22bd 043d 90be cba5 6b3e d75d a5be
00000060: 5a34 52bc f477 b53e 473a 353e 1f84 a1be
00000070: 7377 f53c 57ae cabc 8a38 123e c7ca b13e
00000080: 4065 9e3e 1d70 aebb a437 1b3e 4369 b9be
00000090: 959b 933e 49e0 453e 523e 7ebe e18d aabd
000000a0: f494 f5bd 51e0 4cbe ee10 213e 7f41 aebd
000000b0: 69a7 063e 09aa b1bd 24c1 8e3e 582b fcbd
000000c0: 6c1a 0dbd 3d39 bebd 91e9 ec3c 0ba5 e6bd
000000d0: d9c8 7dbe 17ce b2be ec62 613e 2471 f73c
000000e0: e0ab 65be 9555 3f3e c7df 523c 5e30 e2bd
000000f0: 33cf cebc 3ee5 4a3c f8a4 823e c1ad acbe
00000100: 6936 8ebe 6cef 94be f571 90be e32d 7d3c
00000110: 71e4 463e ad20 983d 0bd0 203e a1d4 523d
00000120: 53fa 083c 0eab a9be f3bc a63e e112 b63e
00000130: 8071 3b3c 5189 933d 690d 423d f4ef ba3e
00000140: 8447 9eba f0a5 0cbd 96e2 3cbe 610b 9a3d
00000150: 137e 1d3e 54db 9cbe 9ebc ea3d ddab 973d
00000160: b9bc 133e b017 1e3e 53f4 90bd b859 0c3d
00000170: f701 7dbe cbfa 543e 0cf2 9bbe 919d a3be
00000180: 3f18 87be a340 42be 2cae 533c a72e 6e3e
00000190: 78c9 93bc 77e6 823e 5471 0fbd 46a7 a23e
000001a0: 638d 793e dbeb 5f3e ff6a 043e 11cb 71be
000001b0: a899 bb3e 2231 b3be 9015 7dbe 0325 55be
000001c0: 6b14 a7bd 0176 0f3e a1d2 6c3d 65ea 9fbe
000001d0: 2c08 b83e 8fd9 b03e 30f1 283e d8c6 b8be
000001e0: f3f4 453e 22e9 b03d 5e11 b4bc c83a 9bbe
000001f0: a511 9e3e 2382 adbd dd27 95be 5324 8e3e
00000200: 43b0 0c3e 363f bb3d 3abf 6f3e d33f d43d
00000210: 1300 60bd 0b24 19bd 2d52 9d3e db41 663b
00000220: 48fa 9abe 02d0 79be aaca 89be 2d4d 1a3d
00000230: 49ce 893e 397d 603e 3b44 a93d 052a d63d
00000240: be4a 2abe c4da af3e ad37 063e 51a4 5fbe
00000250: 37a7 6ebe 5766 a7be 06c7 9ebd efbd 853e
00000260: 9e55 073d e1cd 1ebe 2a0b a43d 1277 7abe
00000270: 1ff2 aa3d 3734 753e 590f 303e 5cb3 b3bd
00000280: 4d31 d3bd f70c 093e 013e 533e db51 7bbd
00000290: df81 563c e1e3 80bc 46a6 33bc bc1b a6be
000002a0: 93a1 98be c289 a33e faaf 21be 5017 883e
000002b0: 96ca 5f3e a824 10bd d1b1 22be f235 a43b
000002c0: 8c9e 10bd 10e9 50be 2e46 b73e 5775 babb
000002d0: 7b73 18bd 00fc 74be e860 863d ca4e f83c
000002e0: 65b3 ba3e cac6 b5bd e0b9 453e b023 ee3c
000002f0: 5cd2 383e a8a0 943c cced 31bd 6994 063e
00000300: 9be1 16be 019f 5a3e d105 9bbe bb4a 82be
00000310: 6303 ba3e 181f 00be fb5c 92be 2d0c 85be
00000320: f6b9 b73e eb04 10bd c308 9cbe b242 07bd
00000330: 3ca1 24be b423 71be 82a7 27be a255 8a3e
00000340: c524 093e 6ae3 513e 42ab 833c 1380 07be
00000350: 9b9c 03be 8dc3 70be 4d0a 83be fac5 a0be
00000360: 7cf2 3a3d 93b2 333e db20 9f3e 00cd 063a
00000370: 0358 04bd d04f 2ebc 4ba6 023e e03b 39bd
00000380: e252 d8bd 2573 9bbd 676e b8be b713 8dbe
00000390: b5cd 0cbe 611a 9c3c 8b0e 5fbe a94e 0d3e
000003a0: d3e4 3cbe 1ee4 b63e ffd9 a4be 12f5 423e
000003b0: 4420 32be c9e3 d8bd 159b afbe 93be adbe
000003c0: 7525 b2be 8d80 983b 4c6c ac3e 8504 193e
000003d0: f83a 603e bd05 943d 831a f4bd bb10 f7bd
000003e0: 9f64 aebd 48b7 afbe bcc7 3e3e 99a7 acbd
000003f0: 54ec 45be d756 bf3d 33f5 3bbc 1f32 3c3e

naim.encoder.0.ff.3.weight f4 [6, 1000]
-0.03298359 -0.035177555 -0.020373123 -0.026137352 -0.025512034 -0.016759425 -0.021952353 -0.024793709
0.0011821825 0.004131425 -0.023107342 -0.022986703 -0.04757091 -0.0274252 -0.010376194 -0.025216063
0.0051870663 -0.031836875 -0.017180545 -0.010308748 0.025193658 0.028210232 -0.039210297 -0.017822405
-0.021552656 -0.020442156 -0.005358335 -0.031907987 -0.024039954 -0.024199693 -0.025458656 -0.046645626
-0.004413714 -0.03425005 -0.02961284 -0.0395502 0.00387301 -0.02358467 0.009454903 -0.023194332
-0.004543121 -0.024518931 -0.040682483 0.011683391 -0.04324009 -0.030252567 -0.0033365947 -0.018480482
-0.013846285 0.018725704 -0.04165478 -0.02435625 -0.0016202332 -0.014697599 -0.013424996 -0.011432505
-0.022418763 0.006523526 -0.023422431 -0.009115586 0.016176822 0.008889967 -0.0030671223 0.01603104
-0.013793971 0.0017083673 -0.025048753 -0.04532208 0.0072884914 -0.034728285 -0.03548191 -0.027903328
-0.041405257 -0.04375593 -0.032797195 -0.012370479 -0.024326663 -0.041335396 -0.01908886 -0.041256517
-0.009267853 -0.006082755 -0.011442709 0.012153809 -0.031216102 -0.030868433 -0.007753403 0.009948316
-0.0077493433 -0.018377043 0.008041338 -0.042458136 -0.025374403 -0.029356243 -0.034998916 -0.035316806
-0.033176377 -0.006317311 -0.008985157 -0.018059943 -0.020066375 -0.016930738 0.018358652 -0.040265635
0.0062556705 -0.0011368569 -0.028270192 0.0064128214 -0.017767748 -0.03306794 0.01373923 -0.01014179
0.016067287 -0.022732178 -0.040887315 0.007951226 -0.017875792 -0.0010930613 -0.014779838 -0.002226171
-0.044818927 -0.015800763 0.017290521 -0.007814235 0.0078025665 -0.0033360063 -0.0022710902 0.012303142
-0.023806855 -0.023157371 0.00105994 -0.031812694 -0.02572497 -0.0007865836 -0.044233397 -0.028575478
0.009939377 -0.007005599 -0.033206753 -0.02404464 0.00016713177 -0.039378095 0.0021009122 -0.024127804
-0.0012005558 -0.048017148 -0.024398364 0.009249046 -0.03228996 -0.03170282 -0.016271405 0.0054830885
-0.02587743 0.007423265 0.025320238 0.015568969 -0.03374528 -0.038002875 -0.043726042 -0.022784708
-0.037152592 0.010884873 -0.016538596 0.0097655095 -0.04127148 -0.040551353 -0.018718176 -0.0070462427
0.032485418 -0.0208575 0.005243626 -0.0244154 -0.02082524 -0.029676212 -0.028420206 -0.027908193
-0.036613546 -0.018236589 -0.02863376 -0.032083184 -0.034563966 -0.033964925 -0.021793745 -0.045630306
0.009516184 -0.009908531 -0.0050989175 -0.041760113 -0.013431754 -0.036012642 0.0015005035 -0.0017244989
-0.04403281 -0.0037668692 0.006813277 -0.016355462 -0.03380718 0.015815388 -0.028480446 0.022513064
-0.008086593 -0.002843696 -0.034767758 -0.0033860244 -0.010283325 0.008436219 -0.04857115 -0.027664507
-0.015349594 -0.038401965 0.0044024517 0.0032170808 0.0029338654 -0.03335051 0.014759728 -0.03385602
0.0059023118 -0.038894314 -0.047075547 -0.00721572 -0.018800369 -0.0059760306 0.010707903 0.018340748
0.004103493 -0.046415336 -0.024154503 -0.009621133 -0.03145973 0.011081352 0.0038103014 -0.030340917
-0.02864897 -0.036278244 0.0041256747 -0.01350242 -0.028271755 -0.0016671427 -0.023457874 -0.013004413
0.027261453 -0.030589014 -0.048147034 -0.002417845 -0.03811206 -0.0043584467 -0.018886441 0.014395901
-0.0009651369 -0.024822572 -0.04051209 0.00325046 -0.03145409 -0.01043482 0.018050937 -0.042853672
00000000: cd19 07bd 5716 10bd 89e5 a6bc 001e d6bc
00000010: 9dfe d0bc 104b 89bc 6cd5 b3bc 2d1c cbbc
00000020: 76f3 9a3a e860 873b 9c4b bdbc 9c4e bcbc
00000030: b7d9 42bd d0aa e0bc e900 2abc eb91 cebc
00000040: 44f8 a93b 6267 02bd 37be 8cbc 06e6 28bc
00000050: ee62 ce3c 2519 e73c fa9a 20bd 4b00 92bc
00000060: 328f b0bc 4f76 a7bc f994 afbb f3b1 02bd
00000070: 70ef c4bc 6f3e c6bc ac8e d0bc 7c0f 3fbd
00000080: eba0 90bb c849 0cbd a096 f2bc 64ff 21bd
00000090: 53d2 7d3b a334 c1bc bde8 1a3c 0a02 bebc
000000a0: 76de 94bb eddb c8bc ada2 26bd b26b 3f3c
000000b0: 851c 31bd 3bd4 f7bc c5aa 5abb 6164 97bc
000000c0: 87db 62bc a666 993c 349e 2abd c286 c7bc
000000d0: 015e d4ba 33ce 70bc 84f4 5bbc 674f 3bbc
000000e0: 8ea7 b7bc 4dc3 d53b 66e0 bfbc 8a59 15bc
000000f0: 4185 843c 39a7 113c c601 49bb 8753 833c
00000100: 1c00 62bc 4beb df3a 0b33 cdbc a5a3 39bd
00000110: 4cd4 ee3b 3f3f 0ebd 7b55 11bd 8595 e4bc
00000120: 8f98 29bd 6b39 33bd 5a56 06bd 8dad 4abc
00000130: b648 c7bc 4e4f 29bd 3e60 9cbc 98fc 28bd
00000140: 31d8 17bc d951 c7bb 337a 3bbc c520 473c
00000150: e9b8 ffbc ccdf fcbc 4210 febb 43fe 223c
00000160: 34ee fdbb 748b 96bc d1bf 033c 95e8 2dbd
00000170: fbdd cfbc 817c f0bc 065b 0fbd 5ba8 10bd
00000180: f4e3 07bd 7201 cfbb 7b36 13bc 72f2 93bc
00000190: 3d62 a4bc 55b2 8abc e264 963c 94ed 24bd
000001a0: 5efc cc3b 9602 95ba e496 e7bc a522 d23b
000001b0: ab8d 91bc 4072 07bd 821a 613c c029 26bc
000001c0: 8b9f 833c d538 babc 7579 27bd dc45 023c
000001d0: 4170 92bc 0d45 8fba 2227 72bc f4e4 11bb
000001e0: 0d94 37bd 9a70 81bc daa4 8d3c 4707 00bc
000001f0: acac ff3b e6a0 5abb 92d6 14bb 1e93 493c
00000200: 9806 c3bc 87b4 bdbc afed 8a3a 074e 02bd
00000210: 2cbd d2bc bb32 4eba 142e 35bd 1f17 eabc
00000220: c5d8 223c 398f e5bb ce03 08bd 44f9 c4bc
00000230: 1840 2f39 ed4a 21bd 75af 093b aca7 c5bc
00000240: f85b 9dba a1ad 44bd 14df c7bc 5089 173c
00000250: 7a42 04bd d1da 01bd 9c4b 85bc 7bab b33b
00000260: e7fc d3bc dc3e f33b 636c cf3c fd14 7f3c
00000270: 7e38 0abd e7a8 1bbd 141a 33bd ffa6 babc
00000280: 512d 18bd 7756 323c f37b 87bc 84ff 1f3c
00000290: 490c 29bd 2d19 26bd dc56 99bc 2be4 e6bb
000002a0: 6e0f 053d 59dd aabc b9d2 ab3b ce02 c8bc
000002b0: b299 aabc 871b f3bc 7ed1 e8bc b99f e4bc
000002c0: 16f8 15bd e664 95bc 5991 eabc a869 03bd
000002d0: f292 0dbd ce1e 0bbd cc88 b2bc d8e6 3abd
000002e0: c5e9 1b3c 6457 22bc d214 a7bb a70c 2bbd
000002f0: dc10 5cbc fe81 13bd 8bac c43a 9508 e2ba
00000300: bf5b 34bd 94dd 76bb e941 df3b e4fb 85bc
00000310: 6679 0abd 468f 813c d34f e9bc 516d b83c
00000320: a17d 04bc 4d5d 3abb a368 0ebd 10e8 5dbb
00000330: 647b 28bc 1138 0a3c 8bf2 46bd ada0 e2bc
00000340: dd7c 7bbc 614b 1dbd 7142 903b a9d5 523b
00000350: 1846 403b 8b9a 08bd c9d2 713c 9cac 0abd
00000360: 2e68 c13b a54f 1fbd 4ad2 40bd d971 ecbb
00000370: 3b03 9abc 94d2 c3bb 3370 2f3c 563f 963c
00000380: 9876 863b 021e 3ebd aadf c5bc f5a1 1dbc
00000390: ebdb 00bd 8f8e 353c 40b6 793b 848d f8bc
000003a0: 3fb1 eabc 7f98 14bd ab30 873b 4139 5dbc
000003b0: 2b9a e7bc 0784 daba ba2a c0bc 7610 55bc
000003c0: 6953 df3c d095 fabc d335 45bd b574 1ebb
000003d0: 641b 1cbd 4dd1 8ebb bdb7 9abc c9dc 6b3c
000003e0: 3e01 7dba b558 cbbc 01f0 25bd ab05 553b
000003f0: 01d6 00bd cff6 2abc 8fdf 933c 5587 2fbd

naim.encoder.0.ff.3.bias f4 [6]
-0.048083708 0.011932198 -0.02939551 -0.024235528 0.03780219 -0.0067786686
00000000: 6cf3 44bd 447f 433c dace f0bc 9689 c6bc
00000010: 78d6 1a3d 981f debb

naim.encoder.1.layer_norm_1.weight f4 [6]
0.9608269 0.9624111 0.9614801 0.96127284 0.960879 0.961852
00000000: c0f8 753f 9360 763f 8f23 763f fa15 763f
00000010: 2bfc 753f ef3b 763f

naim.encoder.1.layer_norm_1.bias f4 [6]
-0.01838946 0.017374061 0.017998919 -0.00302174 0.014613705 -0.0042346083
00000000: 7ea5 96bc 0c54 8e3c 7872 933c 6208 46bb
00000010: 526e 6f3c 78c2 8abb

naim.encoder.1.attn.linear_q.weight f4 [6, 6]
-0.25948945 -0.093151815 -0.14308465 0.06434326 0.22323084 0.029823992 -0.0024115504 0.15745276
0.20500365 -0.0048316615 -0.23692365 -0.3149572 0.36856452 0.09432663 0.3355417 -0.118564
0.073591165 -0.17623371 -0.17616287 -0.14893633 0.36914226 0.25893044 -0.21225378 -0.2494817
0.09622507 -0.05810588 -0.0069119553 0.015333595 -0.31868422 0.052116953 0.0010397135 -0.24713537
-0.3649214 0.16984893 -0.33439323 -0.14567938
00000000: cddb 84be 61c6 bebd c884 12be 66c6 833d
00000010: a096 643e 7251 f43c 1a0b 1ebb 4c3b 213e
00000020: 7aec 513e ea52 9ebb 1d9c 72be 1242 a1be
00000030: 7db4 bc3e 522e c13d 1fcc ab3e afd1 f2bd
00000040: f7b6 963d 9c76 34be 0a64 34be c482 18be
00000050: 3700 bd3e 8892 843e 0e59 59be 2178 7fbe
00000060: a611 c53d 6e00 6ebd af7d e2bb c239 7b3c
00000070: 942a a3be 9678 553d ff46 883a 0e11 7dbe
00000080: fad6 babe e1ec 2d3e 9735 abbe fa2c 15be

naim.encoder.1.attn.linear_k.weight f4 [6, 6]
0.2097103 -0.23362185 -0.15469095 -0.21849684 0.20164582 0.08785336 0.0063483813 0.10522636
0.07838885 -0.048121467 -0.0024011526 -0.21679991 -0.15326251 0.0097583225 -0.0135530075 0.06632051
0.15542826 0.27450138 0.35233295 0.0031509858 0.122428104 -0.2918452 0.1975864 -0.07095231
-0.28528887 -0.27928796 -0.3016244 -0.14988247 0.14773335 -0.2941335 -0.01236979 -0.025944639
0.11176021 -0.12805207 0.16821142 -0.21381384
00000000: 4cbe 563e 913a 6fbe 4e67 1ebe a3bd 5fbe
00000010: 3e7c 4e3e 76ec b33d 1506 d03b eb80 d73d
00000020: 558a a03d 041b 45bd a85c 1dbb cc00 5ebe
00000030: d9f0 1cbe 5fe1 1f3c 6f0d 5ebc 0cd3 873d
00000040: 9628 1f3e 728b 8c3e fc64 b43e c580 4e3b
00000050: 96bb fa3d bc6c 95be 1754 4a3e 724f 91bd
00000060: 6211 92be d5fe 8ebe 836e 9abe ca7a 19be
00000070: 6947 173e ab98 96be a9aa 4abc da89 d4bc
00000080: 89e2 e43d 1520 03be 9d3f 2c3e 04f2 5abe

naim.encoder.1.attn.linear_v.weight f4 [6, 6]
0.23755464 -0.37338147 -0.24119744 0.11418768 0.03476681 0.25491804 0.17587848 -0.304192
0.28490043 -0.076423936 -0.045528337 -0.1425262 -0.06584858 -0.3457016 0.0019671936 0.26956767
-0.06240667 0.2885483 -0.1797621 0.12862219 0.009568384 -0.13074613 0.3638848 0.046524446
0.020259628 -0.034234565 -0.017119028 0.29054654 -0.057446294 0.22054455 0.1103898 0.22861737
-0.2707486 -0.3206906 -0.09831821 -0.07577194
00000000: 8641 733e db2b bfbe 76fc 76be 3bdb e93d
00000010: a467 0e3d 9e84 823e 7d19 343e 0ebf 9bbe
00000020: 78de 913e 2784 9cbd ec7b 3abd 63f2 11be
00000030: 9fdb 86bd cdff b0be 08ec 003b c604 8a3e
00000040: 239e 7fbd 9abc 933e 8e13 38be 89b5 033e
00000050: b6c4 1c3c 50e2 05be 1c4f ba3e 6b90 3e3d
00000060: 85f7 a53c 8b39 0cbd 343d 8cbc 84c2 943e
00000070: ce4c 6bbd 6ed6 613e 0c14 e23d ac1a 6a3e
00000080: 8f9f 8abe 8f31 a4be 0f5b c9bd 522e 9bbd

naim.encoder.1.attn.linear_o.weight f4 [6, 6]
0.36026528 0.3660827 -0.11364868 -0.20334645 -0.020142289 0.12822646 0.12647696 0.06699474
0.27995327 0.041890103 0.29884294 0.09899213 -0.036966756 0.30119747 -0.0025660207 0.007405793
-0.0617333 0.20302223 -0.1198216 0.28139877 0.19339308 -0.007335294 -0.06671032 0.12965521
-0.35981902 -0.09659442 -0.10582736 -0.013247282 -0.1567302 -0.13774435 0.15550946 -0.0071169306
-0.24419236 0.0037800344 0.0933998 -0.12684157
00000000: b174 b83e 316f bb3e a4c0 e8bd 0d3a 50be
00000010: 7101 a5bc cc4d 033e 2d83 013e 8a34 893d
00000020: 0956 8f3e f594 2b3d f101 993e 63bc ca3d
00000030: 746a 17bd 8e36 9a3e af2a 28bb 4bac f23b
00000040: 0fdc 7cbd 0fe5 4f3e 0765 f5bd 8013 903e
00000050: d608 463e e85c f0bb 6c9f 88bd 56c4 043e
00000060: 333a b8be 4cd3 c5bd 04bc d8bd 210b 59bc
00000070: e27d 20be db0c 0dbe df3d 1f3e 2435 e9bb
00000080: 900d 7abe 74ba 773b 6548 bf3d c2e2 01be

naim.encoder.1.layer_norm_2.weight f4 [6]
0.99915797 0.98116654 0.9649771 0.97001183 0.9677473 0.9834699
00000000: d1c8 7f3f bb2d 7b3f bd08 773f b252 783f
00000010: 49be 773f afc4 7b3f

naim.encoder.1.layer_norm_2.bias f4 [6]
-0.019937944 0.009302706 -0.011080257 -0.004553354 0.0066562537 0.022772927
00000000: e654 a3bc 616a 183c f789 35bc 4d34 95bb
00000010: b41c da3b 4a8e ba3c

naim.encoder.1.ff.0.weight f4 [1000, 6]
0.3100258 -0.24435201 0.31681877 0.13350025 -0.19731227 -0.34755436 0.12594241 -0.04945064
0.08793424 0.13588038 -0.2393029 0.01691019 -0.053866293 -0.32989946 0.04864235 0.0716543
-0.27400258 0.34654137 0.18038188 0.1932901 -0.3172384 -0.313805 0.13978355 0.20019476
-0.3121778 0.35334197 -0.052971162 -0.29225376 -0.26059142 -0.07080229 0.17632416 -0.24278301
0.2617362 0.3690219 0.3457352 0.14717145 -0.13192923 -0.116897814 0.2548727 -0.04883925
0.02926326 0.3695723 -0.36755878 -0.055332135 -0.12422372 -0.03808932 0.00317278 -0.05987768
0.3583631 0.12682274 -0.21793215 0.35881296 -0.08416894 0.03674814 0.007840903 -0.26280558
0.17095937 -0.20953088 -0.32475716 0.30365235 0.20831017 -0.1324068 -0.25388223 0.3295313
0.10693291 -0.23256797 -0.30142778 -0.13503149 -0.18931067 0.00920117 0.011590422 -0.36182186
0.16685154 0.17083465 -0.33226034 0.28942442 -0.12431881 0.17127623 0.3614839 0.20343384
0.23670346 0.013691279 0.02124775 -0.30834386 -0.25823647 0.28983143 -0.3341577 0.13889144
-0.20200923 0.31526074 0.2619936 -0.07963037 -0.02368226 -0.24524121 0.3421722 -0.20825632
0.10889327 0.24717565 -0.35420743 -0.36256334 -0.2479357 -0.024252595 0.215286 -0.0892436
-0.13093658 0.23495874 0.2884847 0.17642839 0.3144027 -0.3305995 -0.32496995 0.03636741
-0.30392718 -0.0750631 0.20976587 0.35771978 -0.057301853 -0.32119086 -0.16240886 0.35816678
-0.040824305 -0.3406147 -0.17703597 -0.21697995 -0.069718726 -0.25662965 -0.10042554 0.3361799
-0.15484972 -0.055085793 0.19063428 -0.34257495 -0.1777768 -0.003046774 0.28226462 0.029309575
-0.00085325097 -0.10149143 0.16340265 -0.1379626 -0.030515626 -0.13689606 0.11772425 0.36806166
-0.2706901 -0.031550217 -0.007084037 -0.16583903 -0.25264558 -0.13700137 -0.28395706 0.27114356
-0.2509059 0.20988683 0.2992714 -0.06429666 0.3411162 0.25593615 -0.24615027 0.19603474
0.06775756 0.2831066 -0.27048892 0.27942365 0.026683798 0.1606854 -0.18798472 0.23095796
-0.0012630519 0.29838943 0.008349515 0.21455131 -0.2194421 -0.32287902 0.10690355 0.17755437
0.07556663 0.09147611 0.23099567 -0.17133397 0.18522106 0.15678203 -0.1357933 -0.204424
-0.36641657 0.26337814 -0.0010762142 0.054973364 -0.2505355 -0.26834866 0.29623246 0.2501901
0.18354638 0.28917405 0.29046592 0.21363124 0.25664046 -0.034408577 0.07846427 -0.3116895
-0.10863742 -0.01591033 -0.017451894 0.3634226 0.2952161 0.09168723 0.3417146 -0.17112817
0.04150171 -0.28487322 -0.30831802 0.17934237 0.09318765 0.0034901958 -0.22542812 0.2558214
-0.010220672 0.24146235 -0.24309368 0.27491444 -0.0014530984 -0.10277599 -0.030585593 -0.27588525
-0.038107052 0.017782617 -0.26384765 0.18173006 0.34703648 0.17240293 -0.16190231 -0.21442012
-0.28442198 -0.21370563 0.20583612 0.15033291 -0.11504003 0.009715408 -0.03232797 -0.008842978
-0.36736625 0.3065791 -0.10544001 -0.31382078 0.0004669812 0.08877291 0.14800343 -0.16881958
-0.0045701344 -0.26749113 -0.26853153 -0.23160109 -0.21970883 0.2182053 -0.3294498 -0.055880044
00000000: b4bb 9e3e 6a37 7abe 1236 a23e 4ab4 083e
00000010: 3a0c 4abe a5f2 b1be 0cf7 003e c18c 4abd
00000020: de16 b43d 3a24 0b3e d20b 75be 3d87 8a3c
00000030: e7a2 5cbd 95e8 a8be 333d 473d 7dbf 923d
00000040: 114a 8cbe df6d b13e 07b6 383e d7ed 453e
00000050: 126d a2be 0dab a0be 6b23 0f3e dbff 4c3e
00000060: c5d5 9fbe 3de9 b43e 4af8 58bd 49a2 95be
00000070: 3d6c 85be cb00 91bd 528e 343e 1c9c 78be
00000080: 4a02 863e 70f0 bc3e 3404 b13e 1db4 163e
00000090: 7518 07be 1f68 efbd ad7e 823e aa0b 48bd
000000a0: 81b9 ef3c 9538 bd3e aa30 bcbe f3a3 62bd
000000b0: 0169 febd 8c03 1cbd 6aee 4f3b 4c42 75bd
000000c0: 5e7b b73e d2dd 013e 9b29 5fbe 55b6 b73e
000000d0: c460 acbd 3885 163d 2177 003c 748e 86be
000000e0: f90f 2f3e 438f 56be 9246 a6be 5278 9b3e
000000f0: 434f 553e a695 07be dafc 81be 54b8 a83e
00000100: a4ff da3d 4c26 6ebe be54 9abe b245 0abe
00000110: a8da 41be 81c0 163c c1e5 3d3c b740 b9be
00000120: 21db 2a3e 47ef 2e3e 071e aabe 702f 943e
00000130: dc9a febd 0963 2f3e 6b14 b93e f650 503e
00000140: 6462 723e 6351 603c c30f ae3c 3fdf 9dbe
00000150: 9237 84be c964 943e b816 abbe 8f39 0e3e
00000160: 82db 4ebe db69 a13e 0624 863e 3f15 a3bd
00000170: 4d01 c2bc 8320 7bbe 3231 af3e 2541 55be
00000180: 6f03 df3d 9d1b 7d3e ad5a b5be e7a1 b9be
00000190: dbe2 7dbe 61ad c6bc ef73 5c3e 59c5 b6bd
000001a0: 3d14 06be 0699 703e 44b4 933e a5a9 343e
000001b0: 64f9 a03e 5644 a9be 7662 a6be fef5 143d
000001c0: 589c 9bbe afba 99bd ddcc 563e 0c27 b73e
000001d0: 59b5 6abd 2173 a4be 824e 26be a361 b73e
000001e0: 6337 27bd 0d65 aebe eb48 35be fe2f 5ebe
000001f0: b1c8 8ebd f664 83be e8ab cdbd c61f ac3e
00000200: ed90 1ebe a4a1 61bd a235 433e fc65 afbe
00000210: 1f0b 36be 63ac 47bb fd84 903e a21a f03c
00000220: b4ac 5fba bdda cfbd 0653 273e 1146 0dbe
00000230: e8fb f9bc 7b2e 0cbe 6919 f13d 9472 bc3e
00000240: e597 8abe cd3a 01bd 3621 e8bb b5d1 29be
00000250: c35a 81be 164a 0cbe d262 91be 54d3 8a3e
00000260: bd76 80be 93ec 563e 1a3a 993e f8ad 83bd
00000270: c8a6 ae3e 100a 833e d10e 7cbe 55bd 483e
00000280: 7ac4 8a3d 59f3 903e 867d 8abe 9e10 8f3e
00000290: fb97 da3c b78a 243e 117f 40be 3e80 6c3e
000002a0: fd8c a5ba 80c6 983e 67cc 083c 57b3 5b3e
000002b0: 6eb5 60be 6650 a5be 40f0 da3d d0d0 353e
000002c0: adc2 9a3d d457 bb3d 218a 6c3e 2c72 2fbe
000002d0: 97aa 3d3e 788b 203e 660d 0bbe 8654 51be
000002e0: f49a bbbe 80d9 863e c20f 8dba c02b 613d
000002f0: 3046 80be ff64 89be c8ab 973e eb18 803e
00000300: 95f3 3b3e 9f0e 943e f3b7 943e 26c2 5a3e
00000310: 6166 833e 02f0 0cbd e0b1 a03d c495 9fbe
00000320: 4c7d debd 6156 82bc 46f7 8ebc 8712 ba3e
00000330: 9126 973e 84c6 bb3d 37f5 ae3e 393c 2fbe
00000340: b2fd 293d e7da 91be dcdb 9dbe 87a5 373e
00000350: 2bd9 be3d c5bb 643b a1d6 66be 06fb 823e
00000360: 9b74 27bc e841 773e 8ded 78be 96c1 8c3e
00000370: e475 beba 387c d2bd a38e fabc d540 8dbe
00000380: 2416 1cbd daac 913c 0a17 87be 7217 3a3e
00000390: c4ae b13e 658a 303e b8c9 25be f390 5bbe
000003a0: c29f 91be a6d5 5abe b4c6 523e dff0 193e
000003b0: 1b9a ebbd 602d 1f3c 556a 04bd 23e2 10bc
000003c0: 6e17 bcbe f0f7 9c3e eff0 d7bd 1ead a0be
000003d0: 28d5 f439 92ce b53d 368e 173e 0adf 2cbe
000003e0: 11c1 95bb 99f4 88be f77c 89be d628 6dbe
000003f0: 5afb 60be 3671 5f3e a5ad a8be 79e2 64bd
