outputs/2025-03-23/17-26-23/outputs/model_epoch_10.pt (torch, 206230 bytes, 104 tensors)

naim.embeddings.0.embeddings.weight f4 [2, 6]
0	0x3eacf8c9	0.33783558
1	0xbf018b69	-0.5060335
2	0xbe981f6f	-0.29711482
3	0x3e887bc1	0.26656917
4	0x3eba8fd3	0.36437854
5	0x3e601b89	0.21885504
6	0x00000000	0.0
7	0x00000000	0.0
8	0x00000000	0.0
9	0x00000000	0.0
10	0x00000000	0.0
11	0x00000000	0.0

naim.embeddings.1.embeddings.weight f4 [2, 6]
0	0x3d5d9bc6	0.054103635
1	0xbd279196	-0.040910326
2	0xbe013cac	-0.126208
3	0x3ea29538	0.3175447
4	0x3de0f378	0.10983938
5	0xbdb74c49	-0.08950097
6	0x00000000	0.0
7	0x00000000	0.0
8	0x00000000	0.0
9	0x00000000	0.0
10	0x00000000	0.0
11	0x00000000	0.0

naim.embeddings.2.embeddings.weight f4 [2, 6]
0	0x3f0e2e3f	0.55539316
1	0x3d17c09e	0.03704893
2	0xbc3fe51e	-0.011712341
3	0x3efa6105	0.48902145
4	0xbe5c6eb7	-0.2152661
5	0x3e9c3796	0.3051116
6	0x00000000	0.0
7	0x00000000	0.0
8	0x00000000	0.0
9	0x00000000	0.0
10	0x00000000	0.0
11	0x00000000	0.0

naim.embeddings.3.embeddings.weight f4 [2, 6]
0	0x3f122eee	0.5710286
1	0xbed0f29f	-0.40810105
2	0x3ce3c8ae	0.027805652
3	0x3ede74c1	0.4344845
4	0x3df7ff0a	0.12109192
5	0xbb77ca09	-0.0037809631
6	0x00000000	0.0
7	0x00000000	0.0
8	0x00000000	0.0
9	0x00000000	0.0
10	0x00000000	0.0
11	0x00000000	0.0

naim.embeddings.4.embeddings.weight f4 [2, 6]
0	0xbee16813	-0.44024715
1	0xbe67d0f2	-0.226383
2	0xbe4586e9	-0.19289745
3	0x3df6cdc4	0.120509654
4	0x3d9ac33a	0.07556768
5	0x3c7920c2	0.015205564
6	0x00000000	0.0
7	0x00000000	0.0
8	0x00000000	0.0
9	0x00000000	0.0
10	0x00000000	0.0
11	0x00000000	0.0

naim.embeddings.5.embeddings.weight f4 [2, 6]
0	0xbe85f2ea	-0.2616189
1	0x3cd6bb98	0.026212499
2	0x3f0c650b	0.5484168
3	0x3e981042	0.29699904
4	0xbee4fb57	-0.44723007
5	0x3ce854c3	0.02836073
6	0x00000000	0.0
7	0x00000000	0.0
8	0x00000000	0.0
9	0x00000000	0.0
10	0x00000000	0.0
11	0x00000000	0.0

naim.embeddings.6.embeddings.weight f4 [2, 6]
0	0xbee57662	-0.4481688
1	0xbdc505c7	-0.096202426
2	0xbde7bdd7	-0.11315506
3	0xbe72d54a	-0.23714176
4	0x3de8bd9c	0.1136429
5	0x3f249851	0.64294916
6	0x00000000	0.0
7	0x00000000	0.0
8	0x00000000	0.0
9	0x00000000	0.0
10	0x00000000	0.0
11	0x00000000	0.0

naim.embeddings.7.embeddings.weight f4 [2, 6]
0	0xbea8a43c	-0.329378
1	0xbbed49bc	-0.007241456
2	0x3dc7b795	0.09751812
3	0xbf1df12a	-0.6169611
4	0xbd068503	-0.032841694
5	0x3ef3a07a	0.4758337
6	0x00000000	0.0
7	0x00000000	0.0
8	0x00000000	0.0
9	0x00000000	0.0
10	0x00000000	0.0
11	0x00000000	0.0

naim.embeddings.8.embeddings.weight f4 [2, 6]
0	0x3f09cb76	0.5382608
1	0xbdd548cc	-0.104142755
2	0x3e5ca523	0.2154737
3	0xbf021fa7	-0.5082955
4	0xbe209372	-0.15681246
5	0x3e47a62c	0.19496983
6	0x00000000	0.0
7	0x00000000	0.0
8	0x00000000	0.0
9	0x00000000	0.0
10	0x00000000	0.0
11	0x00000000	0.0

naim.embeddings.9.embeddings.weight f4 [2, 6]
0	0x3ebb730e	0.36611217
1	0xbe48c50e	-0.1960642
2	0x3d74ccd3	0.059765648
3	0xbeb50722	-0.35357004
4	0xbf000ab5	-0.5001634
5	0xbc1b5cb1	-0.009482549
6	0x00000000	0.0
7	0x00000000	0.0
8	0x00000000	0.0
9	0x00000000	0.0
10	0x00000000	0.0
11	0x00000000	0.0

naim.embeddings.10.embeddings.weight f4 [2, 6]
0	0x3de79c8a	0.11309154
1	0x3dd7f374	0.10544482
2	0x3e8d2472	0.27566868
3	0x3e71e304	0.23621756
4	0x3be31b1f	0.0069307233
5	0x3ecddba3	0.40206632
6	0x00000000	0.0
7	0x00000000	0.0
8	0x00000000	0.0
9	0x00000000	0.0
10	0x00000000	0.0
11	0x00000000	0.0

naim.embeddings.11.embeddings.weight f4 [2, 6]
0	0x3e0e8b3e	0.13920304
1	0xbdd289cc	-0.10280189
2	0xbed90da0	-0.42393208
3	0xbeded791	-0.4352384
4	0xbc7a49d9	-0.015276396
5	0xbe84c51b	-0.2593163
6	0x00000000	0.0
7	0x00000000	0.0
8	0x00000000	0.0
9	0x00000000	0.0
10	0x00000000	0.0
11	0x00000000	0.0

naim.embeddings.12.embeddings.weight f4 [2, 6]
0	0x3e2c2bfd	0.16813655
1	0xbe5718ad	-0.21005507
2	0x3db24552	0.08704628
3	0x3ec4b698	0.38420558
4	0x3ed43c2e	0.41452163
5	0x3db96a52	0.09053482
6	0x00000000	0.0
7	0x00000000	0.0
8	0x00000000	0.0
9	0x00000000	0.0
10	0x00000000	0.0
11	0x00000000	0.0

naim.embeddings.13.embeddings.weight f4 [2, 6]
0	0xbe6ca782	-0.23110774
1	0xbdc0361e	-0.09385322
2	0xbe699280	-0.22809792
3	0x3f173656	0.59067285
4	0xbe0e4fdf	-0.13897656
5	0x3e94fa0c	0.2909702
6	0x00000000	0.0
7	0x00000000	0.0
8	0x00000000	0.0
9	0x00000000	0.0
10	0x00000000	0.0
11	0x00000000	0.0

naim.embeddings.14.embeddings.weight f4 [2, 6]
0	0x3e295d16	0.16539416
1	0x3f1ac439	0.6045566
2	0xbe16a745	-0.14712246
3	0x3d99f2a2	0.07516982
4	0x3f0ab4ab	0.5418193
5	0x3c0056df	0.007833212
6	0x00000000	0.0
7	0x00000000	0.0
8	0x00000000	0.0
9	0x00000000	0.0
10	0x00000000	0.0
11	0x00000000	0.0

naim.embeddings.15.embeddings.weight f4 [2, 6]
0	0xbf0d81ad	-0.55275995
1	0x3ea1f8d9	0.31635168
2	0x3d73b884	0.05950214
3	0xbe8a51f8	-0.27015662
4	0xbe318b94	-0.17338401
5	0x3ef4711d	0.4774255
6	0x00000000	0.0
7	0x00000000	0.0
8	0x00000000	0.0
9	0x00000000	0.0
10	0x00000000	0.0
11	0x00000000	0.0

naim.embeddings.16.embeddings.weight f4 [2, 6]
0	0x3ef5af4c	0.47985303
1	0x3da66229	0.08124191
2	0x3d99a5d9	0.07502336
3	0xbe8e45cc	-0.27787626
4	0x3de96f21	0.11398149
5	0x3ebcfd9d	0.36912242
6	0x00000000	0.0
7	0x00000000	0.0
8	0x00000000	0.0
9	0x00000000	0.0
10	0x00000000	0.0
11	0x00000000	0.0

naim.embeddings.17.embeddings.weight f4 [2, 6]
0	0x3dc5f2c6	0.09665446
1	0x3e0a9958	0.13535058
2	0x3dfa0c33	0.12209358
3	0xbecb58ff	-0.39716336
4	0x3e60553a	0.21907511
5	0xbe574825	-0.21023615
6	0x00000000	0.0
7	0x00000000	0.0
8	0x00000000	0.0
9	0x00000000	0.0
10	0x00000000	0.0
11	0x00000000	0.0

naim.embeddings.18.embeddings.weight f4 [2, 6]
0	0xbee6f39c	-0.45107734
1	0xbec7c0ed	-0.39014378
2	0xbe852ca1	-0.26010612
3	0x3efa1f37	0.4885194
4	0xbd107314	-0.035265997
5	0xbcc05ec3	-0.023482686
6	0x00000000	0.0
7	0x00000000	0.0
8	0x00000000	0.0
9	0x00000000	0.0
10	0x00000000	0.0
11	0x00000000	0.0

naim.embeddings.19.embeddings.weight f4 [2, 6]
0	0x3ee533aa	0.4476598
1	0xbe7e2f57	-0.24822746
2	0x3e80246d	0.2502779
3	0xbe5387c7	-0.20657264
4	0xbd9a475c	-0.07533142
5	0x3d7a2ada	0.061076023
6	0x00000000	0.0
7	0x00000000	0.0
8	0x00000000	0.0
9	0x00000000	0.0
10	0x00000000	0.0
11	0x00000000	0.0

naim.embeddings.20.embeddings.weight f4 [2, 6]
0	0x3e746ab9	0.23868836
1	0x3d986d58	0.07442731
2	0xbe92217f	-0.2854118
3	0xbedc8c28	-0.4307568
4	0xbd93e7e9	-0.07221968
5	0x3e4a0a16	0.1973041
6	0x00000000	0.0
7	0x00000000	0.0
8	0x00000000	0.0
9	0x00000000	0.0
10	0x00000000	0.0
11	0x00000000	0.0

naim.embeddings.21.embeddings.weight f4 [2, 6]
0	0x3d74ea62	0.059793837
1	0x3cb8c7a6	0.022556137
2	0x3de13e11	0.10998166
3	0xbd679b5a	-0.05654464
4	0x3ce53153	0.027977621
5	0xbdfe6570	-0.124216914
6	0x00000000	0.0
7	0x00000000	0.0
8	0x00000000	0.0
9	0x00000000	0.0
10	0x00000000	0.0
11	0x00000000	0.0

naim.embeddings.22.embeddings.weight f4 [2, 6]
0	0x3e964a6e	0.2935366
1	0xbe3bdefc	-0.1834678
2	0xbd3477bf	-0.04405951
3	0x3efbdfd9	0.4919422
4	0x3eabe356	0.3357188
5	0xbe1b4729	-0.15163864
6	0x00000000	0.0
7	0x00000000	0.0
8	0x00000000	0.0
9	0x00000000	0.0
10	0x00000000	0.0
11	0x00000000	0.0

naim.embeddings.23.embeddings.weight f4 [2, 6]
0	0x3e413ca4	0.18870789
1	0xbbc6b486	-0.0060640005
2	0xbe9061e4	-0.28199685
3	0x3f3bf9a7	0.73427814
4	0xbcec4090	-0.02883938
5	0xbe6e8a57	-0.2329496
6	0x00000000	0.0
7	0x00000000	0.0
8	0x00000000	0.0
9	0x00000000	0.0
10	0x00000000	0.0
11	0x00000000	0.0

naim.embeddings.24.embeddings.weight f4 [2, 6]
0	0x3b435003	0.002980233
1	0x3e11fd8c	0.14256877
2	0xbe0e5d7d	-0.1390285
3	0x3ec134e4	0.37735665
4	0xbf3e376a	-0.74303305
5	0x3d137fb7	0.03601047
6	0x00000000	0.0
7	0x00000000	0.0
8	0x00000000	0.0
9	0x00000000	0.0
10	0x00000000	0.0
11	0x00000000	0.0

naim.embeddings.25.embeddings.weight f4 [2, 6]
0	0x3e982ccb	0.29721674
1	0xbdfb749b	-0.122781
2	0x3f2ff568	0.68733835
3	0x3ee166b1	0.4402366
4	0x3db78ff1	0.089630015
5	0x3d3525bc	0.04422544
6	0x00000000	0.0
7	0x00000000	0.0
8	0x00000000	0.0
9	0x00000000	0.0
10	0x00000000	0.0
11	0x00000000	0.0

naim.embeddings.26.embeddings.weight f4 [2, 6]
0	0x3e12a520	0.14320803
1	0xbed1fa3c	-0.41011226
2	0xbee56508	-0.44803643
3	0x3e779b94	0.24180442
4	0x3ea98242	0.3310719
5	0x3e96dddd	0.29466143
6	0x00000000	0.0
7	0x00000000	0.0
8	0x00000000	0.0
9	0x00000000	0.0
10	0x00000000	0.0
11	0x00000000	0.0

naim.embeddings.27.embeddings.weight f4 [2, 6]
0	0xbd82b066	-0.063813016
1	0x3e9042bd	0.28175917
2	0xbee0334c	-0.43789136
3	0xbef980a7	-0.48730966
4	0xbd45e5b9	-0.048314784
5	0x3c8e541a	0.017374087
6	0x00000000	0.0
7	0x00000000	0.0
8	0x00000000	0.0
9	0x00000000	0.0
10	0x00000000	0.0
11	0x00000000	0.0

naim.embeddings.28.embeddings.weight f4 [2, 6]
0	0xbe55f53e	-0.20894334
1	0x3e407273	0.18793659
2	0xbe20e63d	-0.15712829
3	0xbea489cb	-0.32136378
4	0x3db91a6a	0.09038241
5	0xbd11baf1	-0.03557867
6	0x00000000	0.0
7	0x00000000	0.0
8	0x00000000	0.0
9	0x00000000	0.0
10	0x00000000	0.0
11	0x00000000	0.0

naim.embeddings.29.embeddings.weight f4 [2, 6]
0	0xbee26bd2	-0.44222885
1	0x3b1ed2d8	0.002423456
2	0x3f0b3854	0.54382825
3	0xbe2b12a2	-0.16706327
4	0x3d052adc	0.032511577
5	0xbe8193c0	-0.25308037
6	0x00000000	0.0
7	0x00000000	0.0
8	0x00000000	0.0
9	0x00000000	0.0
10	0x00000000	0.0
11	0x00000000	0.0

naim.embeddings.30.embeddings.weight f4 [2, 6]
0	0xbd9b5c9e	-0.07586025
1	0x3e513670	0.20430923
2	0x3e8c7262	0.27431017
3	0xbe7c3b47	-0.24631988
4	0xbca3a2ae	-0.019975033
5	0xbe969ee7	-0.29418108
6	0x00000000	0.0
7	0x00000000	0.0
8	0x00000000	0.0
9	0x00000000	0.0
10	0x00000000	0.0
11	0x00000000	0.0

naim.embeddings.31.embeddings.weight f4 [2, 6]
0	0x3e97fe05	0.2968599
1	0xbe33ae56	-0.17546973
2	0xbcbafb58	-0.022824928
3	0xbdcb1474	-0.099160105
4	0xbe40f8b3	-0.18844871
5	0xbe4853f2	-0.19563273
6	0x00000000	0.0
7	0x00000000	0.0
8	0x00000000	0.0
9	0x00000000	0.0
10	0x00000000	0.0
11	0x00000000	0.0

naim.embeddings.32.embeddings.weight f4 [2, 6]
0	0x3d9974c4	0.074929744
1	0x3e80298a	0.25031692
2	0xbe7f3872	-0.24923876
3	0xbf2e8506	-0.6817173
4	0x3e5811d6	0.21100554
5	0xbe29b1d0	-0.16571736
6	0x00000000	0.0
7	0x00000000	0.0
8	0x00000000	0.0
9	0x00000000	0.0
10	0x00000000	0.0
11	0x00000000	0.0

naim.embeddings.33.embeddings.weight f4 [2, 6]
0	0xbe090a1a	-0.1338276
1	0xbdeb7f4a	-0.11498888
2	0xbe9696c4	-0.294119
3	0xbe8d9c48	-0.27658296
4	0xbec50a70	-0.38484526
5	0x3f1d5cff	0.61470026
6	0x00000000	0.0
7	0x00000000	0.0
8	0x00000000	0.0
9	0x00000000	0.0
10	0x00000000	0.0
11	0x00000000	0.0

naim.embeddings.34.embeddings.weight f4 [2, 6]
0	0xbe06c5fa	-0.1316146
1	0x3d7f551a	0.06233702
2	0x3ed6c03e	0.41943544
3	0xba551edc	-0.00081299036
4	0xbe50f868	-0.2040726
5	0x3cec0b5c	0.02881401
6	0x00000000	0.0
7	0x00000000	0.0
8	0x00000000	0.0
9	0x00000000	0.0
10	0x00000000	0.0
11	0x00000000	0.0

naim.embeddings.35.embeddings.weight f4 [2, 6]
0	0x3dd76a91	0.10518373
1	0xbdad1236	-0.08450739
2	0x3e78af82	0.24285701
3	0x3e83635a	0.25661737
4	0x3ea0537c	0.31313694
5	0xbee0a9e7	-0.43879625
6	0x00000000	0.0
7	0x00000000	0.0
8	0x00000000	0.0
9	0x00000000	0.0
10	0x00000000	0.0
11	0x00000000	0.0

naim.embeddings.36.embeddings.weight f4 [2, 6]
0	0xbdc9cd40	-0.098536015
1	0x3ea5dec2	0.32396513
2	0xbed50646	-0.4160635
3	0xbc962733	-0.018329239
4	0xbc959d95	-0.018263618
5	0x3d428680	0.04749155
6	0x00000000	0.0
7	0x00000000	0.0
8	0x00000000	0.0
9	0x00000000	0.0
10	0x00000000	0.0
11	0x00000000	0.0

naim.embeddings.37.embeddings.weight f4 [2, 6]
0	0x3bb98cd5	0.0056625404
1	0xbe97f521	-0.29679206
2	0xbdd9654e	-0.106150255
3	0xbdb8f3c6	-0.09030871
4	0x3e43c54f	0.19118236
5	0x3df09e49	0.117489405
6	0x00000000	0.0
7	0x00000000	0.0
8	0x00000000	0.0
9	0x00000000	0.0
10	0x00000000	0.0
11	0x00000000	0.0

naim.embeddings.38.embeddings.weight f4 [2, 6]
0	0x3d8189f6	0.06325142
1	0xbd6ee814	-0.058326796
2	0x3c0daead	0.008647603
3	0x3e875af3	0.26436576
4	0xbe2605f5	-0.1621321
5	0x3e2a7e16	0.1664966
6	0x00000000	0.0
7	0x00000000	0.0
8	0x00000000	0.0
9	0x00000000	0.0
10	0x00000000	0.0
11	0x00000000	0.0

naim.embeddings.39.embeddings.weight f4 [2, 6]
0	0xbd224144	-0.039613023
1	0xbe5d35a4	-0.21602494
2	0x3ed286e4	0.41118538
3	0xbf0a335d	-0.53984624
4	0x3e1dd4dc	0.1541323
5	0x3e7440dc	0.23852867
6	0x00000000	0.0
7	0x00000000	0.0
8	0x00000000	0.0
9	0x00000000	0.0
10	0x00000000	0.0
11	0x00000000	0.0

naim.embeddings.40.embeddings.weight f4 [2, 6]
0	0xbd5ac20c	-0.053407714
1	0x3e365c0e	0.17808554
2	0x3debf678	0.115216196
3	0xbdec0314	-0.115240246
4	0xbd2e775d	-0.042594302
5	0xbe8947d2	-0.26812607
6	0x00000000	0.0
7	0x00000000	0.0
8	0x00000000	0.0
9	0x00000000	0.0
10	0x00000000	0.0
11	0x00000000	0.0

naim.embeddings.41.embeddings.weight f4 [2, 6]
0	0xbdb213b4	-0.08695164
1	0xbe05a080	-0.13049507
2	0x3e87a0ce	0.26489872
3	0x3e20f58e	0.15718672
4	0x3e9df3b5	0.30849996
5	0x3ef39b42	0.4757939
6	0x00000000	0.0
7	0x00000000	0.0
8	0x00000000	0.0
9	0x00000000	0.0
10	0x00000000	0.0
11	0x00000000	0.0

naim.embeddings.42.embeddings.weight f4 [2, 6]
0	0xbe6426d0	-0.22280431
1	0x3f20469f	0.6260776
2	0x3e176022	0.14782766
3	0x3ea04fea	0.3131097
4	0x3d4d0513	0.050053667
5	0xbdd74dcd	-0.10512886
6	0x00000000	0.0
7	0x00000000	0.0
8	0x00000000	0.0
9	0x00000000	0.0
10	0x00000000	0.0
11	0x00000000	0.0

naim.embeddings.43.embeddings.weight f4 [2, 6]
0	0xbe16e574	-0.14735967
1	0xbbb996d9	-0.0056637344
2	0x3f10101b	0.56274575
3	0x3ec4efe9	0.38464287
4	0x3e8b4ad6	0.27205533
5	0xbc8f1758	-0.017467186
6	0x00000000	0.0
7	0x00000000	0.0
8	0x00000000	0.0
9	0x00000000	0.0
10	0x00000000	0.0
11	0x00000000	0.0

naim.embeddings.44.embeddings.weight f4 [2, 6]
0	0xbc81b26a	-0.015832145
1	0x3e7d5ab8	0.24741638
2	0x3e6d5250	0.23175931
3	0xbeaf1044	-0.34192097
4	0x3dfb1da7	0.12261515
5	0x3ee73525	0.45157734
6	0x00000000	0.0
7	0x00000000	0.0
8	0x00000000	0.0
9	0x00000000	0.0
10	0x00000000	0.0
11	0x00000000	0.0

naim.embeddings.45.embeddings.weight f4 [2, 6]
0	0xbed5ea98	-0.41780543
1	0xbf04a7fa	-0.5181881
2	0xbe84fdb2	-0.25974804
3	0x3e1dd817	0.15414463
4	0xbee47b9e	-0.44625562
5	0xbe58e7e7	-0.21182214
6	0x00000000	0.0
7	0x00000000	0.0
8	0x00000000	0.0
9	0x00000000	0.0
10	0x00000000	0.0
11	0x00000000	0.0

naim.embeddings.46.embeddings.weight f4 [2, 6]
0	0xbd6cc3c2	-0.057803877
1	0x3db95989	0.090502806
2	0x3e8c5cb4	0.27414477
3	0xbdae9d5f	-0.0852611
4	0x3e1a5c99	0.15074386
5	0x3e32baf9	0.17454137
6	0x00000000	0.0
7	0x00000000	0.0
8	0x00000000	0.0
9	0x00000000	0.0
10	0x00000000	0.0
11	0x00000000	0.0

naim.embeddings.47.embeddings.weight f4 [2, 6]
0	0x3e810b9d	0.25204173
1	0xbdc4b7df	-0.09605383
2	0xbecf2845	-0.4046041
3	0xbe600c87	-0.21879779
4	0x3e4c8272	0.19971636
5	0xbe65955c	-0.22420257
6	0x00000000	0.0
7	0x00000000	0.0
8	0x00000000	0.0
9	0x00000000	0.0
10	0x00000000	0.0
11	0x00000000	0.0

naim.embeddings.48.embeddings.weight f4 [2, 6]
0	0x3c85cebd	0.016333932
1	0x3e789c8b	0.24278466
2	0x3d98c514	0.07459465
3	0x3e9adfe1	0.3024893
4	0x3f208832	0.6270782
5	0x3eb87f0a	0.36034423
6	0x00000000	0.0
7	0x00000000	0.0
8	0x00000000	0.0
9	0x00000000	0.0
10	0x00000000	0.0
11	0x00000000	0.0

naim.embeddings.49.embeddings.weight f4 [2, 6]
0	0xbe4adf91	-0.19811846
1	0x3e63fff6	0.2226561
2	0x3e8528a3	0.26007566
3	0xbde6f865	-0.11277846
4	0xbea4f8c8	-0.32221055
5	0x3eb76949	0.35822514
6	0x00000000	0.0
7	0x00000000	0.0
8	0x00000000	0.0
9	0x00000000	0.0
10	0x00000000	0.0
11	0x00000000	0.0

naim.embeddings.50.embeddings.weight f4 [2, 6]
0	0x3eda9a86	0.42696017
1	0x3e9daaa2	0.30794245
2	0xbd85e825	-0.06538419
3	0xbdf8ed4e	-0.12154637
4	0xbd9918cb	-0.07475432
5	0xbeeaf4df	-0.45889947
6	0x00000000	0.0
7	0x00000000	0.0
8	0x00000000	0.0
9	0x00000000	0.0
10	0x00000000	0.0
11	0x00000000	0.0

naim.embeddings.51.embeddings.weight f4 [2, 6]
0	0x3cffaecc	0.03121128
1	0x3e1fbe21	0.15599872
2	0x3eebb0d0	0.46033335
3	0xbf0f98ea	-0.56092703
4	0x3e8f272f	0.27959582
5	0xbdea0b4c	-0.11427936
6	0x00000000	0.0
7	0x00000000	0.0
8	0x00000000	0.0
9	0x00000000	0.0
10	0x00000000	0.0
11	0x00000000	0.0

naim.embeddings.52.embeddings.weight f4 [2, 6]
0	0x3e80a534	0.2512604
1	0xbe561940	-0.2090807
2	0xbe4e485e	-0.20144793
3	0xbe4fd2fa	-0.20295325
4	0x3da4aeb4	0.080411345
5	0xbe97def6	-0.29662293
6	0x00000000	0.0
7	0x00000000	0.0
8	0x00000000	0.0
9	0x00000000	0.0
10	0x00000000	0.0
11	0x00000000	0.0

naim.embeddings.53.embeddings.weight f4 [2, 6]
0	0xbe50b5d4	-0.20381862
1	0xbe166799	-0.14687957
2	0x3e3db2fb	0.18525307
3	0xbdb022ea	-0.08600409
4	0x3f51e243	0.81985873
5	0xbcf69fc9	-0.030105488
6	0x00000000	0.0
7	0x00000000	0.0
8	0x00000000	0.0
9	0x00000000	0.0
10	0x00000000	0.0
11	0x00000000	0.0

naim.embeddings.54.embeddings.weight f4 [2, 6]
0	0x3e015726	0.126309
1	0x3ee1bec6	0.4409086
2	0x3ea8656b	0.32889876
3	0x3deedf68	0.11663705
4	0xbf01d338	-0.5071292
5	0x3dc4cbf4	0.096092135
6	0x00000000	0.0
7	0x00000000	0.0
8	0x00000000	0.0
9	0x00000000	0.0
10	0x00000000	0.0
11	0x00000000	0.0

naim.embeddings.55.embeddings.weight f4 [2, 6]
0	0x3e9197ae	0.28436035
1	0xbe84aede	-0.25914663
2	0xbef3ff40	-0.47655678
3	0x3ef1bd94	0.4721495
4	0xbdadb85d	-0.0848243
5	0xbdd14577	-0.102183275
6	0x00000000	0.0
7	0x00000000	0.0
8	0x00000000	0.0
9	0x00000000	0.0
10	0x00000000	0.0
11	0x00000000	0.0

naim.embeddings.56.embeddings.weight f4 [2, 6]
0	0xbeb187c4	-0.34673893
1	0xbed0967b	-0.40739807
2	0x3e3cd0f4	0.18439084
3	0xbd66b34f	-0.056323346
4	0xbeb909ea	-0.36140376
5	0xbd8f6002	-0.07000734
6	0x00000000	0.0
7	0x00000000	0.0
8	0x00000000	0.0
9	0x00000000	0.0
10	0x00000000	0.0
11	0x00000000	0.0

naim.embeddings.57.embeddings.weight f4 [2, 6]
0	0x3ed22b0b	0.41048464
1	0xbe88fc53	-0.26755008
2	0xbe0d2c0d	-0.13786335
3	0x3e69c302	0.22828296
4	0x3f1b8f57	0.60765594
5	0xbce5a213	-0.028031385
6	0x00000000	0.0
7	0x00000000	0.0
8	0x00000000	0.0
9	0x00000000	0.0
10	0x00000000	0.0
11	0x00000000	0.0

naim.embeddings.58.embeddings.weight f4 [2, 6]
0	0xbde4bf64	-0.11169317
1	0xbc2d9e3e	-0.01059681
2	0x3cdef93d	0.027218455
3	0xbd20f573	-0.03929658
4	0x3daa7fc8	0.083251536
5	0xbe4b5097	-0.19854961
6	0x00000000	0.0
7	0x00000000	0.0
8	0x00000000	0.0
9	0x00000000	0.0
10	0x00000000	0.0
11	0x00000000	0.0

naim.embeddings.59.embeddings.weight f4 [2, 6]
0	0x3e93b799	0.2885101
1	0xbe05809e	-0.13037345
2	0xbe56be22	-0.20970967
3	0x3f183ab3	0.5946457
4	0x3e818af1	0.25301316
5	0x3ec34b6d	0.38143483
6	0x00000000	0.0
7	0x00000000	0.0
8	0x00000000	0.0
9	0x00000000	0.0
10	0x00000000	0.0
11	0x00000000	0.0

naim.embeddings.60.embeddings.weight f4 [2, 6]
0	0xbee0632c	-0.43825662
1	0xbd2bd5ac	-0.04195182
2	0x3d1d16ae	0.038351707
3	0x3ee12263	0.43971547
4	0x3e48dc48	0.1961528
5	0x3eaa20a6	0.33228034
6	0x00000000	0.0
7	0x00000000	0.0
8	0x00000000	0.0
9	0x00000000	0.0
10	0x00000000	0.0
11	0x00000000	0.0

naim.embeddings.61.embeddings.weight f4 [2, 6]
0	0xbe510184	-0.20410734
1	0x3d2038c1	0.039116625
2	0x3e0d51ca	0.13800731
3	0xbd8ae43a	-0.06781812
4	0x3e4415e4	0.19148976
5	0xbe0510bd	-0.12994666
6	0x00000000	0.0
7	0x00000000	0.0
8	0x00000000	0.0
9	0x00000000	0.0
10	0x00000000	0.0
11	0x00000000	0.0

naim.embeddings.62.embeddings.weight f4 [2, 6]
0	0x3e66d180	0.22540855
1	0x3de72ad9	0.112874694
2	0xbf16d94a	-0.58925307
3	0xbd5e3b52	-0.05425579
4	0xbe96564c	-0.29362714
5	0xbebd62dd	-0.3698949
6	0x00000000	0.0
7	0x00000000	0.0
8	0x00000000	0.0
9	0x00000000	0.0
10	0x00000000	0.0
11	0x00000000	0.0

naim.embeddings.63.embeddings.weight f4 [2, 6]
0	0x3f24bef7	0.6435389
1	0x3e7167b1	0.23574711
2	0xbe7a10ae	-0.24420425
3	0x3e235e15	0.15953858
4	0xbe07a710	-0.13247323
5	0xbe1665cd	-0.14687271
6	0x00000000	0.0
7	0x00000000	0.0
8	0x00000000	0.0
9	0x00000000	0.0
10	0x00000000	0.0
11	0x00000000	0.0

naim.encoder.0.layer_norm_1.weight f4 [6]
0	0x3f638ac4	0.88883615
1	0x3f5d17ac	0.86364245
2	0x3f6aa67b	0.9166028
3	0x3f7c41a4	0.9853766
4	0x3f672de0	0.90304375
5	0x3f687d53	0.9081623

naim.encoder.0.layer_norm_1.bias f4 [6]
0	0x3cf6aa4b	0.030110499
1	0xbce551a1	-0.027993025
2	0x3cdc879a	0.026920129
3	0xbc88c19b	-0.01669388
4	0x3d19ce5c	0.037550315
5	0xbd098029	-0.03356949

naim.encoder.0.attn.linear_q.weight f4 [6, 6]
0	0xbcbcc5b8	-0.023043498
1	0xbb868b33	-0.0041059493
2	0xbcd8cc1b	-0.026464513
3	0xbe8a805c	-0.27051055
4	0xbc709f79	-0.014686459
5	0x3dc65540	0.09684229
6	0xbcca0c9e	-0.02466422
7	0xbdcff212	-0.10153593
8	0xb9a2131c	-0.00030913285
9	0x3d50d532	0.05098457
10	0xbd3c28bb	-0.04593728
11	0xbe522751	-0.2052281
12	0xbdc7ff01	-0.09765435
13	0x3bec20ab	0.0072060428
14	0x3d3e7418	0.046497434
15	0x3e708fd2	0.23492363
16	0x3c17b07f	0.009258389
17	0x3d3f4b9f	0.046702977
18	0x3de0d2eb	0.109777294
19	0xbd7a31b9	-0.061082575
20	0xbd05f7b3	-0.032706928
21	0x3e134a3c	0.14383787
22	0x3e2f25b9	0.17104234
23	0x3b423115	0.0029631306
24	0xbe42ec4b	-0.19035451
25	0x3de2aaa6	0.11067705
26	0xbe52e0e7	-0.20593606
27	0x3ddf2636	0.1089596
28	0x3ba487da	0.0050210776
29	0x3d250603	0.040288936
30	0xbe89aac5	-0.268881
31	0xbd1bb04b	-0.038009923
32	0x3d9d6816	0.076858684
33	0x3e3cfc63	0.18455653
34	0xbc4851b5	-0.012226512
35	0x3e6f9875	0.23398001

naim.encoder.0.attn.linear_k.weight f4 [6, 6]
0	0xbb8900ac	-0.0041809883
1	0xbe021a41	-0.12705328
2	0xbd823c76	-0.06359188
3	0xbd00c07d	-0.03143357
4	0xbc4468f3	-0.0119879125
5	0x3db19bd5	0.08672301
6	0xbdd84e21	-0.10561777
7	0xbd08995e	-0.033349387
8	0xbe8d503e	-0.27600282
9	0x3e5bae06	0.21453103
10	0xbc4b3ce7	-0.012404657
11	0xbe43e97d	-0.19132037
12	0xbca6f602	-0.020380978
13	0xbc322398	-0.010872744
14	0x3c93d0b6	0.018043857
15	0x3bd767f7	0.006573673
16	0x3e035629	0.12825836
17	0xbcff9965	-0.031201074
18	0xbc87a82e	-0.016559687
19	0xbc511d22	-0.012763293
20	0xbb3e4f2d	-0.0029038892
21	0x3e4bcfb7	0.19903456
22	0x3c6d1274	0.014469732
23	0x3e3ca806	0.18423471
24	0x3e44159d	0.1914887
25	0xbdbd21d3	-0.09234967
26	0x3c02fa73	0.007994282
27	0xbd9b4235	-0.07580987
28	0x3d73c648	0.059515268
29	0xbd2ad614	-0.041708067
30	0x3d77e304	0.060519233
31	0xbb0b4eab	-0.0021256607
32	0xbe154276	-0.14576134
33	0xbe44e755	-0.19228871
34	0xbe89e1e2	-0.26930147
35	0xbe0861f4	-0.13318616

naim.encoder.0.attn.linear_v.weight f4 [6, 6]
0	0x3e08d656	0.13363013
1	0x3d769c37	0.06020757
2	0x3e9971b9	0.29969576
3	0xbec0f650	-0.37687922
4	0x3c250c65	0.010073756
5	0xbea65edd	-0.3249425
6	0x3b1490c2	0.002266929
7	0x3dca1d31	0.09868849
8	0xbeb6c1df	-0.35694787
9	0x3eb5a5c5	0.35478035
10	0xbd27e24a	-0.04098729
11	0x3ea9f38c	0.33193624
12	0xbd25f348	-0.040515214
13	0x3e0e7763	0.1391273
14	0x3ea9d17a	0.3316763
15	0xbdf9d3e1	-0.12198616
16	0xbda7f108	-0.0820027
17	0x3e2ed0c6	0.17071828
18	0xbe97de65	-0.2966186
19	0x3e28b07e	0.16473576
20	0xbe6b3610	-0.22969842
21	0x3eb9472a	0.36187106
22	0xbe715cc9	-0.23570551
23	0xbe085f5d	-0.13317628
24	0x3e9561db	0.2917622
25	0xbe37aa7c	-0.17936128
26	0x3e7262d7	0.23670517
27	0x3e6419cd	0.22275467
28	0x3ead5ec2	0.33861357
29	0xbebe2114	-0.37134612
30	0x3d1444a7	0.036198284
31	0xbdf764e7	-0.120797925
32	0x3dbf003c	0.093262166
33	0xbead15bf	-0.33805653
34	0x3e48af48	0.19598114
35	0x3cbc38ef	0.022976367

naim.encoder.0.attn.linear_o.weight f4 [6, 6]
0	0xbd9bcd7d	-0.07607553
1	0xbe72237c	-0.23646349
2	0x3dbdab9d	0.09261248
3	0xbd1efbaf	-0.038814243
4	0x3e31f4b6	0.17378506
5	0x3b18914f	0.002327997
6	0x3caf77e0	0.021419466
7	0x38d33f13	0.000100730125
8	0x38f0b3ad	0.00011477559
9	0xbcfeb3e6	-0.031091642
10	0xbe63fd51	-0.22264601
11	0x3e062df2	0.13103464
12	0xbe8c6506	-0.27420825
13	0x3e4f94fa	0.20271674
14	0xbe2096b1	-0.15682484
15	0x3e5d1c26	0.21592769
16	0x3ea1d573	0.3160816
17	0xbe896e74	-0.26842082
18	0x3eb80ee1	0.35948852
19	0x3d2b5a57	0.0418342
20	0xbe896070	-0.26831388
21	0x3e4702fb	0.1943473
22	0x3e805b20	0.25069523
23	0x3ec36afa	0.38167554
24	0xbeb3a1d3	-0.350844
25	0x3ebdfb86	0.3710596
26	0x3e9ff99d	0.31245127
27	0x3ecc055d	0.39847842
28	0x3e6f500a	0.23370376
29	0xbe2ab8c2	-0.16672042
30	0x3ea1716a	0.3153184
31	0x3ec0a6b1	0.37627175
32	0xbe08a323	-0.13343482
33	0xbd3a7402	-0.04552079
34	0x3ea6f5bb	0.32609352
35	0x3eaa3365	0.33242336

naim.encoder.0.layer_norm_2.weight f4 [6]
0	0x3f790ac8	0.97282076
1	0x3f6db084	0.92847466
2	0x3f76e83e	0.96448123
3	0x3f717dc9	0.9433256
4	0x3f765ec3	0.96238345
5	0x3f7876ff	0.97056574

naim.encoder.0.layer_norm_2.bias f4 [6]
0	0x3c0a91c9	0.008457609
1	0x3c996843	0.018726474
2	0x3c46be09	0.012130269
3	0xbc2a8d7c	-0.010409709
4	0xbc3b757d	-0.011441586
5	0xbc6d2fa9	-0.014476695

naim.encoder.0.ff.0.weight f4 [1000, 6]
0	0x3e1ac34a	0.1511356
1	0x3e3f8805	0.18704231
2	0xbdc35b13	-0.095388554
3	0xbc5a330d	-0.0133178355
4	0xbd8dbea0	-0.069211245
5	0x3ddf8563	0.109141134
6	0x3d7dfb42	0.062007196
7	0xbe55236f	-0.20814298
8	0xbc1d2f81	-0.009593845
9	0xbe579dfc	-0.2105636
10	0xbe8970bc	-0.26843822
11	0x3e8daaf6	0.27669495
12	0xbdb0295e	-0.0860164
13	0x3d9779d1	0.073962815
14	0xbc276d77	-0.01021897
15	0xbd1df6d5	-0.038565475
16	0x3c89345c	0.0167486
17	0x3e4656a0	0.19368982
18	0xbc181d3f	-0.009284317
19	0x3e5b9b07	0.21445857
20	0x3df9421d	0.12170813
21	0x3e2badf0	0.1676557
22	0xbe7d961e	-0.24764296
23	0xbdc019a1	-0.09379888
24	0xbe562c4e	-0.20915338
25	0xbca4f45b	-0.020136049
26	0xbbd7d4fc	-0.006586669
27	0x3c8142c9	0.015778916
28	0x3e732f8c	0.23748606
29	0x3daddf2c	0.08489832
30	0xbe24bd68	-0.16087878
31	0xbe06ecbb	-0.13176243
32	0x3e399731	0.18124081
33	0x3ab0b408	0.0013481388
34	0x3cbff915	0.023434201
35	0xbdcdc07f	-0.10046481
36	0xba153ee6	-0.00056932715
37	0x3d13e19e	0.036103837
38	0xbe12f56b	-0.14351432
39	0x3e12608b	0.1429464
40	0x3db139d4	0.08653608
41	0xbdfdde56	-0.12395923
42	0xbd6bc60c	-0.05756192
43	0xbcfd0d3a	-0.030890096
44	0xba0b495f	-0.00053133623
45	0xbd34f69a	-0.04418049
46	0x3e88683c	0.26642025
47	0xbe8583b8	-0.26077056
48	0xbdfa377f	-0.12217616
49	0xbe034fe1	-0.1282344
50	0x3cb2a2e5	0.02180619
51	0x3c23ba2b	0.009993116
52	0xbd1a9f86	-0.03774979
53	0x3e6c07f3	0.23049907
54	0xbe66315c	-0.22479767
55	0x3d472a9f	0.04862463
56	0xbdd13824	-0.10215786
57	0xbce0b77e	-0.027431246
58	0xbe88b6dd	-0.26702014
59	0xbe3ad072	-0.18243578
60	0xbe603be9	-0.21897854
61	0x3d89691b	0.067095004
62	0xbd3e1e00	-0.04641533
63	0x3dc9483f	0.09828233
64	0xbdce4657	-0.1007201
65	0xbcd658c5	-0.026165375
66	0x3cbad045	0.022804389
67	0x3e61f5e1	0.22066452
68	0xbc987906	-0.018612396
69	0x3dfadee6	0.12249546
70	0x3d0a0896	0.033699594
71	0x3e16fec7	0.14745627
72	0x3e0f5285	0.13996322
73	0x3d891f33	0.06695404
74	0xbd2b43f2	-0.041812845
75	0xbcfafa19	-0.030636834
76	0x3d792c93	0.060833525
77	0x3de07a5d	0.10960839
78	0xb8fdd51a	-0.00012103673
79	0x3daf4411	0.085579045
80	0xbdfc0de3	-0.12307336
81	0x3ddc08f1	0.10743893
82	0xbb6922a9	-0.0035573638
83	0xbe1d8d17	-0.15385853
84	0xbda5426e	-0.08069311
85	0xbe3cce4b	-0.1843807
86	0x397b2d68	0.0002395414
87	0xbdee55fb	-0.11637493
88	0xbcb534dd	-0.022119934
89	0xbb9d8b37	-0.0048078555
90	0xbdff65e8	-0.12470609
91	0x3ba77453	0.0051103025
92	0xbbc213df	-0.005922779
93	0x3cdd794b	0.027035376
94	0x3e2e5a29	0.17026581
95	0xbe0388d3	-0.12845163
96	0x3dcdfc65	0.10057906
97	0x3880fd3e	6.150686e-05
98	0xbde18ddd	-0.110133864
99	0xbd8e1cec	-0.0693911
100	0x3c22c033	0.009933519
101	0x3b4115c5	0.0029462439
102	0xba0fa679	-0.00054798234
103	0xbdb26d92	-0.08712305
104	0x3db7f4d7	0.08982246
105	0x3c2ac602	0.010423185
106	0xbe889f68	-0.26684117
107	0xbc5403e1	-0.012940378
108	0xbc5e9e38	-0.013587527
109	0xbd8dd117	-0.06924646
110	0xbdd6a44f	-0.10480558
111	0xbe4fc0a9	-0.20288338
112	0x3e8c4a93	0.27400646
113	0xbe7c01cb	-0.24610059
114	0x3e833310	0.25624895
115	0xbe606325	-0.2191282
116	0xbcad4092	-0.021148954
117	0xbda4cd00	-0.08046913
118	0xbe0510b6	-0.12994656
119	0x3db7fb4c	0.08983478
120	0x3e02076a	0.1269814
121	0xbe2e045e	-0.16993853
122	0xbda34a2c	-0.079731315
123	0x3de826f2	0.11335553
124	0xbd0254e7	-0.03181925
125	0x3d675f3a	0.0564873
126	0x3dbc2390	0.091864705
127	0xbd276a57	-0.040872898
128	0xbdd4fd0f	-0.103998296
129	0x3d338f8d	0.043838073
130	0xbd319eb9	-0.04336426
131	0xbe14e90a	-0.14542022
132	0xbdcd7507	-0.10032087
133	0xbdb8d02c	-0.09024081
134	0x3e8c7566	0.27433318
135	0x3b814e30	0.0039460883
136	0x3db49c0d	0.08818827
137	0x3cafcd0a	0.021460075
138	0xbe18692e	-0.14883873
139	0x3e2a32d8	0.16620958
140	0x3a465082	0.0007565097
141	0xbc5d039f	-0.013489633
142	0x3e515fe2	0.20446733
143	0xbdb3a017	-0.08770769
144	0x3cbf2f6c	0.023338042
145	0xbe620fbc	-0.22076315
146	0x3dbd6649	0.09248025
147	0x3d5dc65b	0.054144245
148	0xbe546fb7	-0.20745741
149	0x3e071bd7	0.13194214
150	0x3cd264f1	0.025682898
151	0xbdeadd3c	-0.11467978
152	0x3e666f91	0.22503497
153	0x3da643da	0.081184104
154	0x3d5c108c	0.053726718
155	0xbdb182d5	-0.08667532
156	0xbdf26e51	-0.118374474
157	0xbdd679ae	-0.10472427
158	0x3d4a9a3f	0.049463507
159	0x3d1627de	0.036659114
160	0xbe04ec74	-0.12980825
161	0x3e7b474a	0.24538913
162	0x3df13ec8	0.11779553
163	0xbd485eb7	-0.048918452
164	0x3db9a3fc	0.09064481
165	0xbd80819c	-0.06274721
166	0x3cde3a10	0.027127296
167	0x3e5cb2cb	0.21552579
168	0xbe6ecf0b	-0.23321168
169	0xbdaf0d06	-0.08547406
170	0xba147f3f	-0.0005664713
171	0x3bc39fbe	0.0059699705
172	0xbe546ccb	-0.20744626
173	0xbe1d89d5	-0.1538461
174	0xbca7e4c4	-0.020494826
175	0xbcec2e7c	-0.02883076
176	0x3c43c749	0.011949369
177	0x3c6b2cb3	0.014353919
178	0x3d230973	0.039803933
179	0x3cb8adc7	0.022543801
180	0x3b303971	0.0026889706
181	0xba626355	-0.00086360174
182	0x3d3d24de	0.046177737
183	0x3e25d9e8	0.16196406
184	0xbdbcfade	-0.092275366
185	0xbddef794	-0.108870655
186	0x3da61ff4	0.08111563
187	0xbe38f64b	-0.18062703
188	0x3e152d2a	0.1456801
189	0x3db39a02	0.08769609
190	0x3c5a714b	0.013332675
191	0xbdacd5b8	-0.08439201
192	0x3b98ef88	0.004667226
193	0xbe4a6705	-0.19765861
194	0xbe72a5b6	-0.23696026
195	0x3e8227c7	0.25420973
196	0xbe72aa91	-0.23697878
197	0xbe5a66d9	-0.21328296
198	0xbd689db1	-0.05679101
199	0x3b95c8e3	0.0045710667
200	0x3c60fe8b	0.013732563
201	0xbdab8760	-0.0837543
202	0xbb1b753b	-0.0023720998
203	0xbd102ef2	-0.03520102
204	0x3e56f315	0.20991166
205	0x3e637e00	0.22216034
206	0x3d6c6267	0.05771103
207	0xbb2cd865	-0.0026374098
208	0x3e39da69	0.18149723
209	0xbe4d73fe	-0.20063779
210	0x3d63ef6d	0.055648256
211	0xbdea2e17	-0.11434572
212	0x3e41ee5b	0.18938582
213	0xbe6b1b5b	-0.22959654
214	0x3d288744	0.041144624
215	0xbe526460	-0.20546103
216	0x3dfda76c	0.12385449
217	0x3c99d34f	0.018777518
218	0x3e6476ca	0.2231094
219	0xbe3a50be	-0.18194863
220	0x3e153322	0.14570287
221	0xbe1bf97c	-0.1523189
222	0xbdec56f5	-0.11540023
223	0x3d6c6f11	0.05772311
224	0xbbc703a5	-0.0060734325
225	0xbe49d279	-0.19709195
226	0xbe63cb5a	-0.22245541
227	0xbd4a0c50	-0.04932815
228	0x3c6c8259	0.014435374
229	0x3e693b18	0.22776449
230	0x3e2fad30	0.1715591
231	0xb863a552	-5.4274984e-05
232	0xbe009f24	-0.12560707
233	0xbe6da4e5	-0.23207434
234	0x3e709ce1	0.23497345
235	0xbde0b68e	-0.109723195
236	0xbbd4c22a	-0.0064928727
237	0xbe4dc637	-0.20095144
238	0xbe1f4bbb	-0.15556233
239	0x3c37bca1	0.011214406
240	0xbc13c07e	-0.009018062
241	0x37e742f7	2.7568529e-05
242	0xb610402f	-2.1495032e-06
243	0xb6c41461	-5.8436276e-06
244	0xbb65b2c4	-0.003504918
245	0x3723fec5	9.774875e-06
246	0x3d8651df	0.065585844
247	0x3e2d5b0e	0.16929266
248	0x3e5ce0c6	0.2157012
249	0xbe4f66ab	-0.20254008
250	0xbe5bc3ac	-0.21461362
251	0xbb9a835f	-0.0047153677
252	0xbb92b930	-0.0044776425
253	0x3dff0030	0.12451208
254	0x3e86317d	0.26209632
255	0x3d246293	0.04013307

naim.encoder.0.ff.0.bias f4 [1000]
0	0x3e13c5c3	0.14430909
1	0xbe03a97a	-0.12857619
2	0xbc973aac	-0.018460594
3	0x3c6d3e74	0.014480222
4	0x3e22de9b	0.1590523
5	0x3d8b0f7f	0.06790065
6	0x3e868056	0.26269788
7	0xbdc79abb	-0.09746309
8	0xbc824f9e	-0.015907105
9	0xbad76d56	-0.0016435783
10	0x3e520796	0.20510706
11	0x3e85ff50	0.2617135
12	0x3cf6bda5	0.030119726
13	0xbe4d640e	-0.20057699
14	0xbe2ccfae	-0.16876099
15	0x3c0ec9cf	0.008715107
16	0xbe6b7320	-0.22993135
17	0xbd188974	-0.03724046
18	0xbe38c2f7	-0.18043123
19	0x3e06e23c	0.13172239
20	0xbcae7ea5	-0.021300623
21	0xbe43bf27	-0.19115888
22	0x3e21bee9	0.15795483
23	0xbe6beb11	-0.2303889
24	0xbc675cba	-0.014121229
25	0x3e8cdd1b	0.2751244
26	0x3dbb082c	0.09132418
27	0xbe62f7af	-0.22164796
28	0x3bbd9e8d	0.005786723
29	0xbcee5f10	-0.029098064
30	0x3daf5a68	0.085621655
31	0x3e827e66	0.2548706
32	0x3e6466ab	0.2230479
33	0xbc226ae1	-0.009913177
34	0x3dafd956	0.085863754
35	0xbe896a2a	-0.2683881
36	0x3e4e641c	0.20155376
37	0x3de6988d	0.112595655
38	0xbe24d72d	-0.16097708
39	0xbc9ca68f	-0.01912239
40	0xbd4025a8	-0.04691091
41	0xbdec78eb	-0.11546501
42	0x3db24cf6	0.087060854
43	0xbc996168	-0.018723205
44	0x3d9d31ea	0.07675536
45	0xbcc3b4aa	-0.023889858
46	0x3e488192	0.19580677
47	0xbdae7600	-0.085186005
48	0xbc4f8f40	-0.012668431
49	0xbce9e768	-0.028552726
50	0x3aea547f	0.0017877965
51	0xbd7e2ff8	-0.062057465
52	0xbe2797d4	-0.16366512
53	0xbe830db1	-0.25596383
54	0x3e104956	0.14090475
55	0x3ca6181b	0.020275166
56	0xbe18bbc3	-0.14915375
57	0x3dc87a87	0.09788995
58	0x3bb10047	0.0054016444
59	0xbd3b8976	-0.04578539
60	0xbc0a383e	-0.008436261
61	0xb8fbfbd4	-0.00012015519
62	0x3e435f05	0.19079216
63	0xbe7b398c	-0.24533671
64	0xbe3ff705	-0.18746574
65	0xbe4cc497	-0.19996868
66	0xbe4378ef	-0.19089101
67	0x3b4eda05	0.0031563055
68	0x3e1b75e9	0.15181698
69	0x3d1bda79	0.03805015
70	0x3d8d7d63	0.06908681
71	0x3be4cbff	0.006982326
72	0xba97a81a	-0.0011570484
73	0xbe74606c	-0.23864907
74	0x3e7302ae	0.23731491
75	0x3e88b3dc	0.26699722
76	0xbc00f102	-0.007869961
77	0x3ca0c1f1	0.019623728
78	0x3c3694ac	0.011143845
79	0x3e8ce3d7	0.27517578
80	0xba300ec3	-0.0006716067
81	0xbb840e9f	-0.0040300633
82	0xbdeb1d53	-0.114802025
83	0x3d86d02c	0.065826744
84	0x3da07c17	0.07836168
85	0xbe5d883d	-0.21634002
86	0x3d46b040	0.04850793
87	0x3d2159bd	0.03939222
88	0x3dcbe1cf	0.09955179
89	0x3da28bec	0.07936844
90	0xbd0eab26	-0.03483119
91	0x3ac9e9dc	0.0015404779
92	0xbe2da32b	-0.16956775
93	0x3e03b6f7	0.12862764
94	0xbe585fb3	-0.21130256
95	0xbe68fe0a	-0.22753158
96	0xbe3275d0	-0.17427754
97	0xbdd8c2c9	-0.10584027
98	0xbc812b24	-0.015767641
99	0x3e25434b	0.16138951
100	0xbc416c06	-0.01180554
101	0x3e3863dd	0.18006845
102	0xbbf1372e	-0.0073613143
103	0x3e60b603	0.21944432
104	0x3e268e24	0.1626516
105	0x3e1db5cc	0.15401381
106	0x3d615b31	0.055018608
107	0xbe25243d	-0.16127105
108	0x3e8fbc6a	0.28073436
109	0xbe85ca72	-0.26131016
110	0xbe2416d8	-0.16024339
111	0xbe09d931	-0.13461758
112	0xbcaaa46b	-0.020830354
113	0x3dcad6b1	0.099042304
114	0x3c77fea0	0.015136391
115	0xbe6bde5e	-0.23034045
116	0x3e881e66	0.26585692
117	0x3e882a60	0.2659483
118	0x3dc2e4f7	0.09516328
119	0xbe89655e	-0.2683515
120	0x3e029d57	0.12755333
121	0x3d272913	0.040810656
122	0xbb073480	-0.0020630658
123	0xbe580819	-0.21096839
124	0x3e7d0b09	0.24711241
125	0xbd15a408	-0.036533386
126	0xbe5945ab	-0.21217982
127	0x3e54a05e	0.207643
128	0x3d945b8b	0.07244023
129	0x3cd0acff	0.025473116
130	0x3e1d970d	0.15389653
131	0x3d3b0bc9	0.045665536
132	0xbd036e45	-0.032087583
133	0xbc3dbb8a	-0.011580357
134	0x3e5afafa	0.21384802
135	0x3a31b298	0.00067786267
136	0xbe5a8b7f	-0.21342276
137	0xbe2c5458	-0.1682905
138	0xbe37bd1d	-0.17943235
139	0x3b8b67a0	0.0042542964
140	0x3e37da91	0.1795447
141	0x3e08de97	0.13366161
142	0x3d6e128f	0.058123168
143	0x3d3411e3	0.04396237
144	0xbdaec209	-0.08533103
145	0x3e85ff67	0.2617142
146	0x3d39abb9	0.045329783
147	0xbe047346	-0.12934598
148	0xbe16d91a	-0.14731255
149	0xbe70b9a9	-0.23508324
150	0xbca902e0	-0.020631254
151	0x3e43f060	0.19134665
152	0x3a875255	0.001032422
153	0xbda33f6a	-0.0797108
154	0x3d7581e4	0.059938326
155	0xbe20f4fe	-0.15718457
156	0x3d068f88	0.032851726
157	0x3e235df8	0.15953815
158	0x3db29bac	0.08721098
159	0xbd487f8a	-0.048949756
160	0xbd58ef9b	-0.05296288
161	0x3dbc4adb	0.09193965
162	0x3e0799cf	0.13242267
163	0xbc5d8b6a	-0.013522008
164	0xb9366df3	-0.00017397832
165	0x3c0188ac	0.00790612
166	0x3b2b13d9	0.002610436
167	0xbe6d6157	-0.23181663
168	0xbe50df31	-0.20397641
169	0x3e65874b	0.22414891
170	0xbdb58d5a	-0.08864851
171	0x3e361654	0.17781955
172	0x3e0b3da6	0.13597736
173	0xbcb13716	-0.021632712
174	0xbdb09111	-0.08621419
175	0xbc110135	-0.008850385
176	0xbc62817d	-0.013824818
177	0xbdf2bc32	-0.11852302
178	0x3e8c93a8	0.27456403
179	0x3ba8608b	0.005138462
180	0xbb86806c	-0.0041046645
181	0xbe1db470	-0.15400863
182	0x3bd244fe	0.006416916
183	0x3cbfaddf	0.023398338
184	0x3e95be63	0.29246816
185	0xbccd1261	-0.025033178
186	0x3df12aab	0.117757164
187	0x3be9696d	0.0071231634
188	0x3dfecc69	0.12441332
189	0x3bb7be5f	0.005607411
190	0xbb05f3fc	-0.0020439615
191	0x3d8580b6	0.0651869
192	0xbda403d0	-0.0800854
193	0x3dff3352	0.124609604
194	0xbe597142	-0.2123461
195	0xbe2e983a	-0.17050257
196	0x3e87abc9	0.2649825
197	0xbd84910c	-0.06472978
198	0xbe4b2f26	-0.19842204
199	0xbe2fffbe	-0.17187402
200	0x3e9036d6	0.28166837
201	0xbb5b2f18	-0.0033444818
202	0xbe6270bd	-0.22113319
203	0xbc7fe70c	-0.015619051
204	0xbda90502	-0.08252908
205	0xbe159b71	-0.14610077
206	0xbdc6057a	-0.09669013
207	0x3e3bdf17	0.18346821
208	0x3d7100bf	0.058838602
209	0x3df596ce	0.11991654
210	0xbaf7362f	-0.0018860752
211	0xbd622d36	-0.055218898
212	0xbd87f513	-0.06638541
213	0xbe22ac7c	-0.1588611
214	0xbe303c57	-0.17210518
215	0xbe62adb1	-0.2213657
216	0x3c05d799	0.008169078
217	0x3dd19281	0.102330215
218	0x3e5f2d59	0.21794643
219	0xbac3ac6b	-0.0014928704
220	0xbcecbef4	-0.028899647
221	0xbb32fbd0	-0.0027310736
222	0x3daeae80	0.08529377
223	0xba7fae29	-0.000975343
224	0xbd531aa9	-0.051539097
225	0xbd2ccb53	-0.042186093
226	0xbe88279c	-0.2659272
227	0xbe4369e0	-0.19083357
228	0xbd6e02a3	-0.058107983
229	0xba3c6877	-0.00071871973
230	0xbe061034	-0.13092119
231	0x3d511901	0.051049236
232	0xbddeca4b	-0.10878428
233	0x3e87c383	0.2651635
234	0xbe6c41b3	-0.23071937
235	0x3dfe9a67	0.12431794
236	0xbdf00850	-0.117203355
237	0xbd20860a	-0.03919033
238	0xbe85049d	-0.25980082
239	0xbe815c72	-0.25265843
240	0xbe877243	-0.26454362
241	0xbbd00d6b	-0.006349256
242	0x3e83076a	0.25591594
243	0x3dd0be49	0.10192544
244	0x3e1047d6	0.14089903
245	0x3c81b302	0.015832428
246	0xbd6d7bf5	-0.057979543
247	0xbd43bb85	-0.047786254
248	0xbd10c7e1	-0.03534687
249	0xbe801315	-0.25014558
250	0x3dd8dc10	0.105888486
251	0xbd1c14ff	-0.03810596
252	0xbdf3bcc7	-0.11901241
253	0x3d141e11	0.036161486
254	0xbad30069	-0.0016098145
255	0x3de2a7f6	0.11067192

naim.encoder.0.ff.3.weight f4 [6, 1000]
0	0xbb79e79b	-0.0038132432
1	0x3bc9d1ea	0.006159057
2	0xbbb77e48	-0.0055997707
3	0x3c8c4795	0.017123977
4	0xbc540691	-0.012941019
5	0x3c509df7	0.012732974
6	0xbab1d264	-0.001356673
7	0x3c5b37e9	0.013380029
8	0x3cb222d2	0.02174512
9	0x3cd8a125	0.026444027
10	0x3a576944	0.0008217285
11	0xbbbf3d7b	-0.0058361865
12	0xbcc42b97	-0.023946567
13	0xbbb6feca	-0.0055845724
14	0xba422467	-0.0007405937
15	0x3b179234	0.0023127915
16	0x3b9f7194	0.0048658345
17	0x3c65e13d	0.014030752
18	0x3c284a40	0.010271609
19	0x3c562e37	0.013072542
20	0x3d162c8d	0.03666358
21	0x3c27a575	0.010232319
22	0xbc5e897a	-0.013582582
23	0x3a97a352	0.0011569059
24	0x3c085f27	0.008323467
25	0x3c08bfac	0.008346479
26	0x3c9466de	0.018115457
27	0x3b66463d	0.003513708
28	0x3c03c650	0.008042887
29	0xbc948f40	-0.018134713
30	0x3b8c0bd9	0.0042738733
31	0xbc91134b	-0.017709395
32	0x3c99dfa0	0.01878339
33	0x3a771174	0.0009424903
34	0xbc147492	-0.009060996
35	0xbc3df8f9	-0.011595004
36	0x3d15b487	0.036549117
37	0x3ba6a253	0.0050852685
38	0x3bec2003	0.0072059645
39	0x3a829e04	0.0009965305
40	0xb78c45b6	-1.6721762e-05
41	0x3b4b124e	0.0030986252
42	0x3bc71923	0.0060759946
43	0x3cc6f375	0.024286011
44	0xbc7e77e7	-0.015531517
45	0xb9c369e1	-0.00037272184
46	0x3c8d210b	0.01722767
47	0x387aa7ce	5.9760925e-05
48	0x3a8ee04e	0.0010900588
49	0x3d30e57c	0.043187603
50	0xbcb885a0	-0.022524655
51	0xbc530e3c	-0.012881812
52	0x3bbe646c	0.005810311
53	0x3bdb5414	0.0066933725
54	0x3c9b1809	0.01893236
55	0xbbcf494b	-0.006325876
56	0xbb4f9c2b	-0.0031678777
57	0x3cd3d307	0.025857462
58	0xbc0a2773	-0.008432257
59	0x3cc5af1d	0.024131352
60	0x3d14d730	0.03633803
61	0x3cb90a2e	0.022587862
62	0x3cbd5b78	0.023114905
63	0x3cfee6d1	0.031115921
64	0xbb993b79	-0.004676279
65	0x3b7dec06	0.0038745417
66	0xbbae7959	-0.0053245244
67	0xbd1e7c30	-0.038692653
68	0x3d2085d1	0.039190117
69	0xbcaffd4f	-0.021483092
70	0xbb23a429	-0.0024969673
71	0xbc0399dc	-0.008032288
72	0xbc489d9e	-0.01224461
73	0xbc6343f6	-0.013871184
74	0xbbf803a5	-0.007568794
75	0x3c9d321b	0.019188931
76	0xbbdd76af	-0.006758533
77	0xbc9fce56	-0.019507568
78	0x3c154f3d	0.00911313
79	0xbca7bc79	-0.020475613
80	0x3c18c047	0.009323186
81	0x3c34f5a8	0.011044897
82	0x3c4966e4	0.012292597
83	0x3d007ce7	0.031369116
84	0xbb86853d	-0.0041052387
85	0x3b3bc5c7	0.002865182
86	0x3bb46e80	0.0055063367
87	0x3cd3bf35	0.02584801
88	0x3c084083	0.008316162
89	0x3bb8b624	0.005636947
90	0x3cea548c	0.028604768
91	0xbc157bfd	-0.009123799
92	0xbc093f80	-0.008376956
93	0x3b7f387a	0.0038943575
94	0x3ba6534f	0.005075849
95	0xbc707fa6	-0.014678871
96	0xba269311	-0.0006354312
97	0x3b25dd5c	0.0025308942
98	0x3c0a3f81	0.008437992
99	0x3c1dff97	0.009643457
100	0x3bb70617	0.0055854428
101	0x3bb00fe8	0.00537299
102	0x3cc5dbe9	0.024152713
103	0xbc9bc15e	-0.019013103
104	0x3cbca98a	0.023030061
105	0x3c246743	0.010034385
106	0xbc1a1aa5	-0.009405767
107	0x3c2f6a46	0.01070649
108	0x3c14e773	0.009088385
109	0xbc153466	-0.009106731
110	0x3caef779	0.021358239
111	0x3d096923	0.03354753
112	0x3ca778b4	0.020443298
113	0x38c16f4f	9.22369e-05
114	0xbc1b1c90	-0.009467259
115	0x3c6b0197	0.014343641
116	0x3c644ac0	0.013933837
117	0x3c2a2add	0.010386196
118	0xbaf8e3e9	-0.0018988821
119	0x3b41767c	0.0029520085
120	0xbc5a1732	-0.013311194
121	0x3c084603	0.008317473
122	0x3cc0af48	0.02352108
123	0x3b72f8a8	0.003707448
124	0x3d029d23	0.03188814
125	0x3c518129	0.012787142
126	0x3bd37314	0.0064529274
127	0x3d229f26	0.039702557
128	0x3c0f03be	0.00872892
129	0x3c0858ea	0.00832198
130	0x3c82f093	0.015983855
131	0xbcb138ba	-0.021633495
132	0x3aa7c456	0.0012799602
133	0x3cfa1a44	0.030530103
134	0xbc952381	-0.018205406
135	0x3aba0499	0.0014192044
136	0x3c368fb0	0.011142656
137	0x3ca9e855	0.020740667
138	0xbacdec5d	-0.00157107
139	0x3bd170e6	0.0063916324
140	0x3cb3605c	0.021896534
141	0xbc316bf0	-0.010828957
142	0x3cf9a732	0.030475233
143	0x3c89474e	0.016757634
144	0x3c0f2115	0.008735915
145	0xbcbc652d	-0.022997463
146	0xbb29624b	-0.002584594
147	0x3cea1462	0.028574172
148	0xbc632a60	-0.013865083
149	0xbc26401d	-0.010147122
150	0x3bdfdaf2	0.0068315202
151	0x3cb2a347	0.021806372
152	0xbc112b55	-0.008860429
153	0x3cc80c84	0.02442003
154	0x3d365217	0.04451188
155	0x3c8f69fe	0.017506596
156	0xba3c0ea7	-0.0007173814
157	0xbb775404	-0.0037739286
158	0xbcb1c178	-0.021698698
159	0x3c128194	0.008942027
160	0xbc718fb3	-0.014743733
161	0x3cbbb5a4	0.022913761
162	0x3bd6dd22	0.006557123
163	0x3cb1a6fe	0.021686073
164	0xbc444e72	-0.011981593
165	0x3a9fe7d3	0.0012199826
166	0x3c964a0c	0.018345855
167	0x3b9dec77	0.0048194486
168	0x3d38f05f	0.04515111
169	0x3bbdf12c	0.005796572
170	0x3d35ac76	0.044353925
171	0x3a33980e	0.0006850966
172	0x3c6022e9	0.013680198
173	0xbbde63fb	-0.006786821
174	0xbba541d9	-0.00504325
175	0xbc98d7b1	-0.018657537
176	0xbcb893f7	-0.022531493
177	0xbbd07da2	-0.006362633
178	0xbb8b08af	-0.0042429785
179	0xbbbf53f7	-0.005838867
180	0xbc9ca254	-0.019120373
181	0xbc3d5de9	-0.011558034
182	0x3ab3b184	0.001370952
183	0xbc8826e8	-0.016620114
184	0x3d18d2a6	0.037310265
185	0x3c6141d2	0.013748603
186	0xb6ed37ca	-7.069645e-06
187	0xbcad207f	-0.02113366
188	0x3c377a9f	0.011198669
189	0xbb415512	-0.0029500169
190	0x3c48c8e0	0.012254924
191	0x3c3f289c	0.011667397
192	0xbc25e2a3	-0.010124835
193	0x3ccc2769	0.024921136
194	0x3c09ff4e	0.008422686
195	0x3c85cc3f	0.016332744
196	0xbc5baa5c	-0.013407316
197	0x3ce7314f	0.028221754
198	0xbc3c6f94	-0.011501212
199	0x3cea84ff	0.02862787
200	0x3c877ae5	0.016538093
201	0x3ce819f5	0.02833269
202	0xbc88ebbe	-0.016713973
203	0x3c0a7ce9	0.008452632
204	0x3c10ff30	0.008849904
205	0x3cc8311b	0.024437478
206	0xbcdc6320	-0.026902735
207	0xbc128065	-0.008941744
208	0xbbba17a2	-0.005679087
209	0xbcae0773	-0.021243786
210	0x3c842694	0.016131677
211	0x3cdcc21f	0.026948033
212	0x3c9ea8f0	0.019367665
213	0xbbe691ab	-0.007036408
214	0x3ccc5a55	0.024945417
215	0xbc0de162	-0.0086596925
216	0x3c386be4	0.011256192
217	0xbc88358a	-0.016627092
218	0xbcb6e8a1	-0.022327723
219	0x3b737abe	0.0037152017
220	0xb77dd265	-1.5128961e-05
221	0x3ce0abd6	0.027425688
222	0x3d0d49f0	0.03449434
223	0x3c80f906	0.015743744
224	0x3c9c00f3	0.019043421
225	0x3ab6c6de	0.0013944765
226	0xbb6701c7	-0.0035248862
227	0x3a580469	0.0008240403
228	0xbc9a6db2	-0.018851135
229	0x3cc95576	0.024576884
230	0x3b635673	0.003468898
231	0xbb0c3349	-0.0021392873
232	0x3b94d846	0.0045423834
233	0xbc8d05f5	-0.017214755
234	0x3cd65e66	0.02616806
235	0x3b63708e	0.003470454
236	0xbc90ea40	-0.017689824
237	0x3c8a24ca	0.016863246
238	0xbc8025cb	-0.015643021
239	0x3b167171	0.00229558
240	0x3cd715ae	0.026255455
241	0xbc558d16	-0.013034126
242	0xbce67424	-0.028131552
243	0x3cfa0c39	0.030523406
244	0xbc92a9bb	-0.0179032
245	0x3c76a545	0.015054052
246	0x3c20fa75	0.009825339
247	0x3cd883a0	0.026429951
248	0x3c797343	0.015225234
249	0xbb919ccc	-0.0044437405
250	0xbccb93a2	-0.02485067
251	0x3ca6fe2c	0.02038487
252	0xbc3d7977	-0.011564604
253	0x3cc7c3cc	0.024385355
254	0x3cb33332	0.021874998
255	0xbcc72f5d	-0.024314577

naim.encoder.0.ff.3.bias f4 [6]
0	0xbcc59ea0	-0.02412349
1	0x3b1f2565	0.0024283763
2	0xbb9d0839	-0.00479224
3	0xbc9b8928	-0.0189863
4	0x3c981812	0.018566165
5	0xbd0076fc	-0.031363472

naim.encoder.1.layer_norm_1.weight f4 [6]
0	0x3f5cb954	0.8622029
1	0x3f5f6e26	0.8727745
2	0x3f5d9345	0.8655284
3	0x3f5dc18d	0.8662346
4	0x3f5c80d1	0.8613406
5	0x3f5e0d82	0.8673936

naim.encoder.1.layer_norm_1.bias f4 [6]
0	0x3bf920b8	0.0076027773
1	0xbc04e9f3	-0.008112418
2	0xb9881612	-0.00025956385
3	0x3b836a77	0.0040104943
4	0xbc502161	-0.012703271
5	0x3bad7412	0.0052933777

naim.encoder.1.attn.linear_q.weight f4 [6, 6]
0	0xbe2e3c1d	-0.17015119
1	0xbcd209d9	-0.025639461
2	0xbd811d81	-0.063044555
3	0x3bc8502d	0.0061130733
4	0x3e0a6121	0.13513614
5	0x3a23e91a	0.00062526914
6	0xb9022738	-0.00012412376
7	0x3da058d8	0.078294456
8	0x3df474fd	0.11936376
9	0x37222628	9.664836e-06
10	0xbe18588a	-0.14877525
11	0xbe642d1f	-0.22282837
12	0x3e8c84c4	0.27445042
13	0x3cd48eb6	0.025946956
14	0x3e7988cd	0.24368592
15	0xbd332367	-0.043734934
16	0x3c81dde8	0.015852883
17	0xbdc08d54	-0.09401956
18	0xbdbd93d3	-0.09256711
19	0xbd909e2d	-0.0706142
20	0x3e8d3256	0.27577466
21	0x3e2dcd2a	0.16972795
22	0xbe024f43	-0.12725548
23	0xbe246946	-0.16055784
24	0x3ce920c0	0.028458
25	0xbbebc61c	-0.0071952473
26	0xba972243	-0.0011530597
27	0xb94ee389	-0.00019730454
28	0xbe67d5e6	-0.2264019
29	0x3bac06fe	0.005249857
30	0x380f6062	3.418362e-05
31	0xbe225006	-0.15850839
32	0xbe8aeca5	-0.2713367
33	0x3db36408	0.08759314
34	0xbe776cbf	-0.24162577
35	0xbd875c73	-0.0660943

naim.encoder.1.attn.linear_k.weight f4 [6, 6]
0	0x3dfd78ca	0.12376554
1	0xbe189444	-0.14900309
2	0xbd9c73aa	-0.07639249
3	0xbe08fc1a	-0.13377419
4	0x3dec9697	0.1155216
5	0x3d06f340	0.032946825
6	0xb8deeca6	-0.00010629864
7	0x3d0c8162	0.034303077
8	0x3c986095	0.018600741
9	0xbb7da7a8	-0.0038704667
10	0x39a1b058	0.000308397
11	0xbe05b8c0	-0.13058758
12	0xbd964351	-0.07337058
13	0xb91a4213	-0.00014711199
14	0x39bc9f0a	0.00035976648
15	0x3c46c003	0.01213074
16	0x3d9a03e1	0.07520271
17	0x3e3d79ca	0.1850349
18	0x3e84cf5b	0.2593945
19	0x3b317ea5	0.0027083543
20	0x3d3f9315	0.046771128
21	0xbe4e021a	-0.20117989
22	0x3de5fff6	0.11230461
23	0xbc4dd65e	-0.012563316
24	0xbe46c4a4	-0.1941095
25	0xbe40ff1d	-0.18847318
26	0xbe56ff45	-0.20995815
27	0xbd908b0c	-0.07057771
28	0x3d8c2182	0.068423286
29	0xbe50b3a8	-0.20381033
30	0x3a3d6b58	0.00072257733
31	0xb89015e4	-6.8705325e-05
32	0x3d1e3880	0.0386281
33	0xbd57edbd	-0.05271696
34	0x3db1b751	0.08677543
35	0xbe023268	-0.12714541

naim.encoder.1.attn.linear_v.weight f4 [6, 6]
0	0x3e2c38e0	0.16818571
1	0xbeb7a0b5	-0.35864797
2	0xbe5e9c9e	-0.21739432
3	0x3dfdce52	0.12392868
4	0x3d26c1c9	0.04071215
5	0x3e75e3cb	0.24012677
6	0x3e21c522	0.15797856
7	0xbe827084	-0.25476468
8	0x3e7e6483	0.2484303
9	0xbd82bb80	-0.06383419
10	0xbd2dfea4	-0.042479172
11	0xbe0bb2a9	-0.13642372
12	0xbd4f7a5b	-0.050653797
13	0xbea1f575	-0.3163258
14	0x3ab87629	0.00140733
15	0x3e6c2ae3	0.23063235
16	0xbc9ae9fa	-0.018910397
17	0x3e843b2a	0.2582639
18	0xbdb09169	-0.08621485
19	0x3d839d45	0.06426481
20	0x3abd27f0	0.0014431458
21	0xbd809339	-0.062780805
22	0x3e890ad9	0.2676609
23	0x3bec0917	0.007203232
24	0xbb81861d	-0.003952755
25	0xbd3fbc4b	-0.04681043
26	0xbc46b412	-0.012127893
27	0x3e78b480	0.24287605
28	0x3b652aff	0.0034968255
29	0x3e3f0a15	0.1865619
30	0x3db393ad	0.08768401
31	0x3e2ea228	0.17054045
32	0xbe4147e4	-0.1887508
33	0xbe82a40b	-0.2551578
34	0xbd855398	-0.06510085
35	0xbd2b668f	-0.041845854

naim.encoder.1.attn.linear_o.weight f4 [6, 6]
0	0x3eb821ef	0.3596339
1	0x3eb577ee	0.35443062
2	0xbdbca8f7	-0.09211915
3	0xbde5c958	-0.11220044
4	0xbb5f0391	-0.0034029225
5	0x3e151d17	0.14561878
6	0x3e0ab50f	0.13545631
7	0x3d822a46	0.06355719
8	0x3e8ee5ec	0.2790979
9	0x3ca6b952	0.02035204
10	0x3e8e72ea	0.27822047
11	0x3d8e9e96	0.069638416
12	0xbd2e4898	-0.0425497
13	0x3e914050	0.2836938
14	0x3b0cfdde	0.0021513621
15	0x3c3fef8f	0.01171483
16	0xbd9e5007	-0.07730108
17	0x3e46206c	0.19348305
18	0xbddaef73	-0.106902026
19	0x3e81a340	0.25319862
20	0x3e5226ce	0.20522615
21	0xbc21237b	-0.009835119
22	0xbd5df6b7	-0.054190364
23	0x3de1dee0	0.11028838
24	0xbe8857c3	-0.26629457
25	0xbce9e972	-0.028553698
26	0xbd0fcdf7	-0.035108533
27	0x37343387	1.0740833e-05
28	0xbd9be1c6	-0.07611422
29	0xbd761b22	-0.06008447
30	0x3d99bb4a	0.07506426
31	0xb83805bf	-4.387437e-05
32	0xbe1f3e46	-0.15551099
33	0x3684fc56	3.9632823e-06
34	0x3cd8180f	0.02637866
35	0xbd51ced7	-0.05122265

naim.encoder.1.layer_norm_2.weight f4 [6]
0	0x3f70ef28	0.94114923
1	0x3f6c454d	0.92293245
2	0x3f735339	0.9504886
3	0x3f6a82eb	0.91606015
4	0x3f6cca71	0.924964
5	0x3f77fd84	0.9687121

naim.encoder.1.layer_norm_2.bias f4 [6]
0	0x3c34e338	0.011040501
1	0x3c3e70a9	0.01162354
2	0x3a3d32a9	0.0007217327
3	0xbbabc017	-0.0052414048
4	0xb96c4319	-0.0002253171
5	0xbc5cc821	-0.013475449
