outputs/2025-03-23/17-06-23/outputs/model_epoch_30.pt (torch, 377354 bytes, 140 tensors)

naim.embeddings.0.embeddings.weight f4 [2, 6]
00000000: ea9e 723e 409d 94be e3c3 07be 6bbf 2c3e
00000010: 2238 a13e 6044 583e 0000 0000 0000 0000
00000020: 0000 0000 0000 0000 0000 0000 0000 0000
0.23693433 -0.29026222 -0.13258319 0.16869895 0.31488138 0.21119833 0.0 0.0
0.0 0.0 0.0 0.0

naim.embeddings.1.embeddings.weight f4 [2, 6]
00000000: 4b72 ec3c 3dd8 23bd a74b c7bd 9449 a33e
00000010: 1705 ff3d 9c5e aebc 0000 0000 0000 0000
00000020: 0000 0000 0000 0000 0000 0000 0000 0000
0.028863093 -0.040001143 -0.097312264 0.31892073 0.12452143 -0.021285348 0.0 0.0
0.0 0.0 0.0 0.0

naim.embeddings.2.embeddings.weight f4 [2, 6]
00000000: c436 153f baab 243d 6b69 1bbc 8860 fd3e
00000010: 8f40 56be ffda 8b3e 0000 0000 0000 0000
00000020: 0000 0000 0000 0000 0000 0000 0000 0000
0.5828669 0.040202834 -0.009485583 0.4948771 -0.20923065 0.27315518 0.0 0.0
0.0 0.0 0.0 0.0

naim.embeddings.3.embeddings.weight f4 [2, 6]
00000000: 8f13 d23e 4d46 5cbe a28c 963d 947d ba3e
00000010: 2e83 cf3c ec5a f0bc 0000 0000 0000 0000
00000020: 0000 0000 0000 0000 0000 0000 0000 0000
0.41030547 -0.21511193 0.07351042 0.36423934 0.025331106 -0.02934023 0.0 0.0
0.0 0.0 0.0 0.0

naim.embeddings.4.embeddings.weight f4 [2, 6]
00000000: 2936 8ebe f86b 2fbe 5fd5 bfbd eb26 833d
00000010: f922 033d bfa8 d03c 0000 0000 0000 0000
00000020: 0000 0000 0000 0000 0000 0000 0000 0000
-0.27775696 -0.1713103 -0.09366869 0.064039074 0.032015774 0.02547109 0.0 0.0
0.0 0.0 0.0 0.0

naim.embeddings.5.embeddings.weight f4 [2, 6]
00000000: 866d 2dbe cd7f 813b 62c0 d73e 7f91 493e
00000010: d152 a1be f820 563d 0000 0000 0000 0000
00000020: 0000 0000 0000 0000 0000 0000 0000 0000
-0.16936311 0.0039520026 0.42138964 0.19684409 -0.31508496 0.052277535 0.0 0.0
0.0 0.0 0.0 0.0

naim.embeddings.6.embeddings.weight f4 [2, 6]
00000000: bd7c abbe 3023 10bd 95e4 6bbd b145 ffbd
00000010: e0e8 a83d 6ab2 e43e 0000 0000 0000 0000
00000020: 0000 0000 0000 0000 0000 0000 0000 0000
-0.33493605 -0.035189807 -0.05759104 -0.124644645 0.082475424 0.4466737 0.0 0.0
0.0 0.0 0.0 0.0

naim.embeddings.7.embeddings.weight f4 [2, 6]
00000000: e521 a3be 283d 10bc a5df 9f3d 22a3 08bf
00000010: c5ec 26bd 2e8e c83e 0000 0000 0000 0000
00000020: 0000 0000 0000 0000 0000 0000 0000 0000
-0.31861797 -0.008803643 0.07806329 -0.5337392 -0.040753145 0.39170974 0.0 0.0
0.0 0.0 0.0 0.0

naim.embeddings.8.embeddings.weight f4 [2, 6]
00000000: 373a ab3e e5d4 05bd fb46 043e b0aa a6be
00000010: 3151 cbbd 00c6 0c3e 0000 0000 0000 0000
00000020: 0000 0000 0000 0000 0000 0000 0000 0000
0.33442852 -0.032673735 0.12917702 -0.325521 -0.099275954 0.13747406 0.0 0.0
0.0 0.0 0.0 0.0

naim.embeddings.9.embeddings.weight f4 [2, 6]
00000000: 546b 3b3e 0d4f 6cbd 0173 a63d 053c 50be
00000010: 6957 c7be cd0d 82bc 0000 0000 0000 0000
00000020: 0000 0000 0000 0000 0000 0000 0000 0000
0.18302661 -0.057692576 0.08127404 -0.20335396 -0.38933876 -0.015875721 0.0 0.0
0.0 0.0 0.0 0.0

naim.embeddings.10.embeddings.weight f4 [2, 6]
00000000: ed69 703d 1b66 a13c c9ff 073e 0420 243e
00000010: f23b c73c c879 403e 0000 0000 0000 0000
00000020: 0000 0000 0000 0000 0000 0000 0000 0000
0.05869477 0.019702008 0.13281168 0.16027838 0.024320576 0.18796456 0.0 0.0
0.0 0.0 0.0 0.0

naim.embeddings.11.embeddings.weight f4 [2, 6]
00000000: 51b3 9a3d 1fc9 54bd e2a8 adbe 6729 a9be
00000010: ddf8 80bc 7d90 48be 0000 0000 0000 0000
00000020: 0000 0000 0000 0000 0000 0000 0000 0000
0.07553733 -0.051949617 -0.3391791 -0.330394 -0.015743667 -0.19586368 0.0 0.0
0.0 0.0 0.0 0.0

naim.embeddings.12.embeddings.weight f4 [2, 6]
00000000: ee74 1d3e 4918 45be d664 b63d 87ee ce3e
00000010: 451b e13e a8be a33d 0000 0000 0000 0000
00000020: 0000 0000 0000 0000 0000 0000 0000 0000
0.15376636 -0.19247545 0.08905952 0.40416357 0.43966118 0.07995349 0.0 0.0
0.0 0.0 0.0 0.0

naim.embeddings.13.embeddings.weight f4 [2, 6]
00000000: 9f1d dbbd f190 c5bb 8993 f8bd 4542 af3e
00000010: 1a70 85bc 73f7 e93d 0000 0000 0000 0000
00000020: 0000 0000 0000 0000 0000 0000 0000 0000
-0.10699009 -0.0060292413 -0.12137515 0.34230247 -0.016288806 0.1142415 0.0 0.0
0.0 0.0 0.0 0.0

naim.embeddings.14.embeddings.weight f4 [2, 6]
00000000: b776 213e d688 eb3e 842d 92bd 704a 173d
00000010: f713 e03e 657e 01bc 0000 0000 0000 0000
00000020: 0000 0000 0000 0000 0000 0000 0000 0000
0.15767942 0.46002835 -0.07137588 0.036936224 0.43765232 -0.00790367 0.0 0.0
0.0 0.0 0.0 0.0

naim.embeddings.15.embeddings.weight f4 [2, 6]
00000000: 348e afbe 4b1d 2f3e 3d5c 443d 189f 2cbe
00000010: ec3e a6bd 3c24 933e 0000 0000 0000 0000
00000020: 0000 0000 0000 0000 0000 0000 0000 0000
-0.3428818 0.17101018 0.047939528 -0.16857564 -0.0811747 0.28738582 0.0 0.0
0.0 0.0 0.0 0.0

naim.embeddings.16.embeddings.weight f4 [2, 6]
00000000: 8774 943e 02fc 7d3c 5fd7 433d 0dd2 37be
00000010: 5d5b ab3d 774c 8f3e 0000 0000 0000 0000
00000020: 0000 0000 0000 0000 0000 0000 0000 0000
0.28995153 0.015501978 0.047812816 -0.17951222 0.083670355 0.27988026 0.0 0.0
0.0 0.0 0.0 0.0

naim.embeddings.17.embeddings.weight f4 [2, 6]
00000000: 4883 893d f341 903d 0a64 993d 6d4b 81be
00000010: 89ff dd3d 38b2 39be 0000 0000 0000 0000
00000020: 0000 0000 0000 0000 0000 0000 0000 0000
0.06714493 0.07043829 0.07489784 -0.25252858 0.10839755 -0.18134391 0.0 0.0
0.0 0.0 0.0 0.0

naim.embeddings.18.embeddings.weight f4 [2, 6]
00000000: 3ca7 92be 03bb 5fbe db71 bbbd 47b2 883e
00000010: 8f0b 84b9 65bb 6ebc 0000 0000 0000 0000
00000020: 0000 0000 0000 0000 0000 0000 0000 0000
-0.28643215 -0.21848683 -0.091525756 0.26698515 -0.00025185614 -0.0145710455 0.0 0.0
0.0 0.0 0.0 0.0

naim.embeddings.19.embeddings.weight f4 [2, 6]
00000000: a0c4 8a3e a47b 97bd 3f28 493e 4927 f2bd
00000010: 2b07 17bd 1653 0a3d 0000 0000 0000 0000
00000020: 0000 0000 0000 0000 0000 0000 0000 0000
0.27103138 -0.073966295 0.19644259 -0.11823899 -0.03687207 0.033770643 0.0 0.0
0.0 0.0 0.0 0.0

naim.embeddings.20.embeddings.weight f4 [2, 6]
00000000: 0099 633e baab a03d d53e 42be 4356 c2be
00000010: a4f8 80bd 99e2 3a3e 0000 0000 0000 0000
00000020: 0000 0000 0000 0000 0000 0000 0000 0000
0.22226334 0.07845254 -0.18969281 -0.37956437 -0.062974244 0.18250503 0.0 0.0
0.0 0.0 0.0 0.0

naim.embeddings.21.embeddings.weight f4 [2, 6]
00000000: 7ca4 973d b788 773c 2d21 ef3d dede 7ebd
00000010: 7fdd 0c3d 2926 1dbe 0000 0000 0000 0000
00000020: 0000 0000 0000 0000 0000 0000 0000 0000
0.0740442 0.015108279 0.1167625 -0.06222426 0.034390923 -0.15346588 0.0 0.0
0.0 0.0 0.0 0.0

naim.embeddings.22.embeddings.weight f4 [2, 6]
00000000: ca22 953e 66d5 edbd 625e 2abd 880c cc3e
00000010: 541c 943e 0f21 dabd 0000 0000 0000 0000
00000020: 0000 0000 0000 0000 0000 0000 0000 0000
0.29128104 -0.11612968 -0.041593917 0.3985331 0.28927863 -0.10650837 0.0 0.0
0.0 0.0 0.0 0.0

naim.embeddings.23.embeddings.weight f4 [2, 6]
00000000: a4fd 273e e477 cb3b 016c 83be ac03 333f
00000010: c747 68bd 761e 51be 0000 0000 0000 0000
00000020: 0000 0000 0000 0000 0000 0000 0000 0000
0.1640535 0.0062093604 -0.25668338 0.6992748 -0.056709077 -0.20421776 0.0 0.0
0.0 0.0 0.0 0.0

naim.embeddings.24.embeddings.weight f4 [2, 6]
00000000: 8f5c 5ab9 f500 aa3c 401f 93bd 6aa5 2f3e
00000010: 7fa0 04bf ece8 ba3c 0000 0000 0000 0000
00000020: 0000 0000 0000 0000 0000 0000 0000 0000
-0.00020824581 0.02075241 -0.07183695 0.17152944 -0.518074 0.022816144 0.0 0.0
0.0 0.0 0.0 0.0

naim.embeddings.25.embeddings.weight f4 [2, 6]
00000000: 497b a73e fe83 a6bd 4abe 063f fcae d23e
00000010: 18a0 933d e6f2 223d 0000 0000 0000 0000
00000020: 0000 0000 0000 0000 0000 0000 0000 0000
0.32711247 -0.08130644 0.5263411 0.41149127 0.0720827 0.039782427 0.0 0.0
0.0 0.0 0.0 0.0

naim.embeddings.26.embeddings.weight f4 [2, 6]
00000000: 2bdf 193e 269a 94be 85a0 81be a8a2 4a3e
00000010: 684d 833e a292 533e 0000 0000 0000 0000
00000020: 0000 0000 0000 0000 0000 0000 0000 0000
0.15026538 -0.29023856 -0.2531778 0.19788611 0.25644994 0.20661405 0.0 0.0
0.0 0.0 0.0 0.0

naim.embeddings.27.embeddings.weight f4 [2, 6]
00000000: dbc5 aabd 183c 593e 6c5a 8cbe cb9e e9be
00000010: e350 b3bd 50b1 1d3d 0000 0000 0000 0000
00000020: 0000 0000 0000 0000 0000 0000 0000 0000
-0.08338519 0.2121433 -0.27412736 -0.45628962 -0.08755662 0.038499177 0.0 0.0
0.0 0.0 0.0 0.0

naim.embeddings.28.embeddings.weight f4 [2, 6]
00000000: a0ff 29be 85c0 073e 54c4 b1bd 3aa5 9ebe
00000010: 80dd 073e f18c b3bd 0000 0000 0000 0000
00000020: 0000 0000 0000 0000 0000 0000 0000 0000
-0.1660142 0.13257034 -0.08680025 -0.30985433 0.1326809 -0.08767117 0.0 0.0
0.0 0.0 0.0 0.0

naim.embeddings.29.embeddings.weight f4 [2, 6]
00000000: 3b15 87be 6499 00bb 27c0 ac3e b74d 51bd
00000010: d502 853b 649f 16be 0000 0000 0000 0000
00000020: 0000 0000 0000 0000 0000 0000 0000 0000
-0.26383385 -0.0019622678 0.3374035 -0.051099505 0.0040591755 -0.1470924 0.0 0.0
0.0 0.0 0.0 0.0

naim.embeddings.30.embeddings.weight f4 [2, 6]
00000000: 667f 59bd fe41 e83d 5d70 f03d e80f 6cbe
00000010: aff8 6e3b fa44 4fbe 0000 0000 0000 0000
00000020: 0000 0000 0000 0000 0000 0000 0000 0000
-0.053100012 0.11340712 0.117401816 -0.23052943 0.0036464145 -0.20241156 0.0 0.0
0.0 0.0 0.0 0.0

naim.embeddings.31.embeddings.weight f4 [2, 6]
00000000: 2487 263e 1625 24bd ecc5 93bb 1f23 e3bd
00000010: e812 34bd a592 03be 0000 0000 0000 0000
00000020: 0000 0000 0000 0000 0000 0000 0000 0000
0.1626249 -0.04007443 -0.004509678 -0.11090683 -0.043963343 -0.12848909 0.0 0.0
0.0 0.0 0.0 0.0

naim.embeddings.32.embeddings.weight f4 [2, 6]
00000000: 320a a33d 0de3 1c3e 1915 1ebe 37cc e0be
00000010: 5e8a da3d fdeb 31bd 0000 0000 0000 0000
00000020: 0000 0000 0000 0000 0000 0000 0000 0000
0.07960929 0.15320988 -0.15437736 -0.43905804 0.10670923 -0.043437947 0.0 0.0
0.0 0.0 0.0 0.0

naim.embeddings.33.embeddings.weight f4 [2, 6]
00000000: c1c0 483c 3396 c9bd b6f1 a9be d4ba 80be
00000010: 0c2a e2bd f00f d53e 0000 0000 0000 0000
00000020: 0000 0000 0000 0000 0000 0000 0000 0000
0.012252987 -0.09843101 -0.33192223 -0.2514254 -0.11043176 0.41613722 0.0 0.0
0.0 0.0 0.0 0.0

naim.embeddings.34.embeddings.weight f4 [2, 6]
00000000: 58cb dcbd ee57 393d 22c1 b83e c697 28bd
00000010: d904 35be fc87 2a3d 0000 0000 0000 0000
00000020: 0000 0000 0000 0000 0000 0000 0000 0000
-0.10780972 0.045249872 0.3608485 -0.041160367 -0.1767763 0.04163359 0.0 0.0
0.0 0.0 0.0 0.0

naim.embeddings.35.embeddings.weight f4 [2, 6]
00000000: 3034 053e d122 e2bc 2856 fc3d abda 3d3e
00000010: 2264 7a3e 40fc a0be 0000 0000 0000 0000
00000020: 0000 0000 0000 0000 0000 0000 0000 0000
0.13008189 -0.027604492 0.123211205 0.18540446 0.2445226 -0.3144245 0.0 0.0
0.0 0.0 0.0 0.0

naim.embeddings.36.embeddings.weight f4 [2, 6]
00000000: 5c29 64bd 5098 3d3e d1a3 9fbe c376 37bd
00000010: 4fa8 4a3c 4d0a 8a3d 0000 0000 0000 0000
00000020: 0000 0000 0000 0000 0000 0000 0000 0000
-0.055703506 0.18515134 -0.3117967 -0.044790994 0.012369229 0.06740246 0.0 0.0
0.0 0.0 0.0 0.0

naim.embeddings.37.embeddings.weight f4 [2, 6]
00000000: cd7a 853c 418a 00be 4e41 98bd d080 9fbd
00000010: ca07 273e d74c b93d 0000 0000 0000 0000
00000020: 0000 0000 0000 0000 0000 0000 0000 0000
0.016293908 -0.1255274 -0.07434331 -0.07788241 0.16311565 0.09047859 0.0 0.0
0.0 0.0 0.0 0.0

naim.embeddings.38.embeddings.weight f4 [2, 6]
00000000: 74a9 c83c 7066 50bc cd3d 3f3d 0ad9 b73d
00000010: 28b6 7d3c c365 1dbd 0000 0000 0000 0000
00000020: 0000 0000 0000 0000 0000 0000 0000 0000
0.024494864 -0.0127197355 0.046689797 0.08976944 0.015485324 -0.038427126 0.0 0.0
0.0 0.0 0.0 0.0

naim.embeddings.39.embeddings.weight f4 [2, 6]
00000000: 615b ea3c 6d5e 86bd 8116 7b3e ba07 a8be
00000010: 6149 773d b6f6 0c3e 0000 0000 0000 0000
00000020: 0000 0000 0000 0000 0000 0000 0000 0000
0.028608026 -0.06560979 0.24520303 -0.32818395 0.060372714 0.13765988 0.0 0.0
0.0 0.0 0.0 0.0

naim.embeddings.40.embeddings.weight f4 [2, 6]
00000000: 3e81 6cbd 159e b33d ae5c 273d 6c70 f4bd
00000010: 2363 08bd 3c30 33be 0000 0000 0000 0000
00000020: 0000 0000 0000 0000 0000 0000 0000 0000
-0.057740442 0.08770386 0.04085987 -0.11935505 -0.03329767 -0.17498869 0.0 0.0
0.0 0.0 0.0 0.0

naim.embeddings.41.embeddings.weight f4 [2, 6]
00000000: a17a 0ebd d1a9 5ebd 5d50 043e 3cf0 8b3d
00000010: b68c 153e 9f15 963e 0000 0000 0000 0000
00000020: 0000 0000 0000 0000 0000 0000 0000 0000
-0.034784917 -0.05436117 0.12921281 0.068329304 0.14604458 0.2931337 0.0 0.0
0.0 0.0 0.0 0.0

naim.embeddings.42.embeddings.weight f4 [2, 6]
00000000: e0ba fcbd fee5 e03e 1892 9d3d 5eaa 5e3e
00000010: 3636 a03d d710 11be 0000 0000 0000 0000
00000020: 0000 0000 0000 0000 0000 0000 0000 0000
-0.12340331 0.4392547 0.07693881 0.21744677 0.0782284 -0.1416658 0.0 0.0
0.0 0.0 0.0 0.0

naim.embeddings.43.embeddings.weight f4 [2, 6]
00000000: ddcc b8bd a217 733c 1b56 b73e e36c 863e
00000010: 72c8 493e 6f26 6ebd 0000 0000 0000 0000
00000020: 0000 0000 0000 0000 0000 0000 0000 0000
-0.090234496 0.0148371775 0.3580788 0.2625495 0.1970537 -0.058142122 0.0 0.0
0.0 0.0 0.0 0.0

naim.embeddings.44.embeddings.weight f4 [2, 6]
00000000: 7690 1cbd c2a5 083e 7509 ef3d 16bf 8abe
00000010: 66d7 b23d 0aca ca3e 0000 0000 0000 0000
00000020: 0000 0000 0000 0000 0000 0000 0000 0000
-0.038223706 0.13344482 0.11671726 -0.27098912 0.0873249 0.3960727 0.0 0.0
0.0 0.0 0.0 0.0

naim.embeddings.45.embeddings.weight f4 [2, 6]
00000000: 2ef1 47be 69e9 98be 4132 0bbd ee6a 0ebd
00000010: fa8f 01be 8f8c 50be 0000 0000 0000 0000
00000020: 0000 0000 0000 0000 0000 0000 0000 0000
-0.19525596 -0.29865578 -0.033983473 -0.034769945 -0.12652579 -0.20366119 0.0 0.0
0.0 0.0 0.0 0.0

naim.embeddings.46.embeddings.weight f4 [2, 6]
00000000: c3b3 6ebc 2a63 c13d 02c9 8d3e 0653 bcbd
00000010: 4448 123e 3c5d 303e 0000 0000 0000 0000
00000020: 0000 0000 0000 0000 0000 0000 0000 0000
-0.014569226 0.09442742 0.2769242 -0.09195523 0.1428538 0.17223066 0.0 0.0
0.0 0.0 0.0 0.0

naim.embeddings.47.embeddings.weight f4 [2, 6]
00000000: 5bd4 c83d 3d1d 21bd 55e6 89be 5e9d 14be
00000010: 6d0c cd3d e844 0bbe 0000 0000 0000 0000
00000020: 0000 0000 0000 0000 0000 0000 0000 0000
0.098061286 -0.039334524 -0.26933542 -0.14513156 0.10012136 -0.13600504 0.0 0.0
0.0 0.0 0.0 0.0

naim.embeddings.48.embeddings.weight f4 [2, 6]
00000000: 47ca b03c 0647 4b3e 21d0 b23d 716a 943e
00000010: 173e 263f f37c b03e 0000 0000 0000 0000
00000020: 0000 0000 0000 0000 0000 0000 0000 0000
0.021580828 0.19851312 0.08731104 0.28987458 0.6493849 0.3447033 0.0 0.0
0.0 0.0 0.0 0.0

naim.embeddings.49.embeddings.weight f4 [2, 6]
00000000: f463 c3bd 48da f03d 5a23 273e 08ca d1bc
00000010: 8fcc 34be 3484 843e 0000 0000 0000 0000
00000020: 0000 0000 0000 0000 0000 0000 0000 0000
-0.09540549 0.11760384 0.1632208 -0.025609031 -0.17656158 0.25882113 0.0 0.0
0.0 0.0 0.0 0.0

naim.embeddings.50.embeddings.weight f4 [2, 6]
00000000: c904 813e 6e41 193e 036f 55bd 84b5 b0bd
00000010: 58ca b3bc f96d 98be 0000 0000 0000 0000
00000020: 0000 0000 0000 0000 0000 0000 0000 0000
0.25198963 0.14966366 -0.052107822 -0.08628371 -0.021947071 -0.29771402 0.0 0.0
0.0 0.0 0.0 0.0

naim.embeddings.51.embeddings.weight f4 [2, 6]
00000000: bab6 6e3d 9f6a 043d ace5 813e ff05 c2be
00000010: 3f16 113e c04a 90bd 0000 0000 0000 0000
00000020: 0000 0000 0000 0000 0000 0000 0000 0000
0.05827973 0.032328244 0.25370538 -0.378952 0.14168642 -0.070455074 0.0 0.0
0.0 0.0 0.0 0.0

naim.embeddings.52.embeddings.weight f4 [2, 6]
00000000: 27a0 a63d 0745 b7bd 4800 2bbe 6d15 e4bd
00000010: f14d ae38 3e2c 37be 0000 0000 0000 0000
00000020: 0000 0000 0000 0000 0000 0000 0000 0000
0.081360154 -0.08948713 -0.16699326 -0.11136899 8.311484e-05 -0.17887971 0.0 0.0
0.0 0.0 0.0 0.0

naim.embeddings.53.embeddings.weight f4 [2, 6]
00000000: 2b54 5fbe 2f55 7fbd 31aa ad3d 7562 f4bc
00000010: c134 1f3f 3221 d5ba 0000 0000 0000 0000
00000020: 0000 0000 0000 0000 0000 0000 0000 0000
-0.21809451 -0.062337097 0.08479727 -0.029832104 0.6218987 -0.0016260503 0.0 0.0
0.0 0.0 0.0 0.0

naim.embeddings.54.embeddings.weight f4 [2, 6]
00000000: a530 483e 6ec2 963e c838 913e a0a0 ab3d
00000010: 73af a7be 9c22 82ba 0000 0000 0000 0000
00000020: 0000 0000 0000 0000 0000 0000 0000 0000
0.19549806 0.29445213 0.28363633 0.08380246 -0.32751045 -0.0009928527 0.0 0.0
0.0 0.0 0.0 0.0

naim.embeddings.55.embeddings.weight f4 [2, 6]
00000000: 99b8 ab3e 1683 7ebe 23ed e7be fe1a f53e
00000010: b2c4 60bd f97d 01be 0000 0000 0000 0000
00000020: 0000 0000 0000 0000 0000 0000 0000 0000
0.33539274 -0.24854693 -0.45298108 0.47872156 -0.054875083 -0.12645711 0.0 0.0
0.0 0.0 0.0 0.0

naim.embeddings.56.embeddings.weight f4 [2, 6]
00000000: acaf 3abe 67fe 85be 3a06 863d 0def 23bd
00000010: 3bf6 48be 3975 e1bc 0000 0000 0000 0000
00000020: 0000 0000 0000 0000 0000 0000 0000 0000
-0.18231076 -0.26170656 0.065441564 -0.0400229 -0.1962518 -0.027521716 0.0 0.0
0.0 0.0 0.0 0.0

naim.embeddings.57.embeddings.weight f4 [2, 6]
00000000: 15ea 763e 9b91 cbbd 2fd9 92bd 116e de3d
00000010: c421 d73e f5f6 943b 0000 0000 0000 0000
00000020: 0000 0000 0000 0000 0000 0000 0000 0000
0.24112733 -0.099398814 -0.07170331 0.10860837 0.4201795 0.004546041 0.0 0.0
0.0 0.0 0.0 0.0

naim.embeddings.58.embeddings.weight f4 [2, 6]
00000000: 5963 4ebd 74e6 393d 901a bf3c 274a bfbd
00000010: 1233 e33d 8637 41be 0000 0000 0000 0000
00000020: 0000 0000 0000 0000 0000 0000 0000 0000
-0.050387714 0.045385793 0.023328096 -0.09340315 0.11093725 -0.18868837 0.0 0.0
0.0 0.0 0.0 0.0

naim.embeddings.59.embeddings.weight f4 [2, 6]
00000000: 8e3c af3e eb04 fabd 5c55 84be d463 073f
00000010: aad0 693e c54f 9b3e 0000 0000 0000 0000
00000020: 0000 0000 0000 0000 0000 0000 0000 0000
0.34225887 -0.12207969 -0.25846374 0.528867 0.22833505 0.30334297 0.0 0.0
0.0 0.0 0.0 0.0

naim.embeddings.60.embeddings.weight f4 [2, 6]
00000000: f9d8 84be 1a12 473c 8130 043d e819 803e
00000010: 1591 ce3d 6ad3 3e3e 0000 0000 0000 0000
00000020: 0000 0000 0000 0000 0000 0000 0000 0000
-0.25946787 0.012150312 0.03227282 0.25019765 0.10086266 0.18635336 0.0 0.0
0.0 0.0 0.0 0.0

naim.embeddings.61.embeddings.weight f4 [2, 6]
00000000: 61c1 1abe c564 833d a6eb e93d 088d d4bd
00000010: 99b6 593e 7c90 15be 0000 0000 0000 0000
00000020: 0000 0000 0000 0000 0000 0000 0000 0000
-0.1511283 0.06415705 0.114218995 -0.10378462 0.21261062 -0.14605898 0.0 0.0
0.0 0.0 0.0 0.0

naim.embeddings.62.embeddings.weight f4 [2, 6]
00000000: a037 233e 7540 243d 4a42 d7be 6e77 1cbd
00000010: 2580 2cbe 2a0d 83be 0000 0000 0000 0000
00000020: 0000 0000 0000 0000 0000 0000 0000 0000
0.15939188 0.040100534 -0.42042762 -0.038199835 -0.16845758 -0.2559598 0.0 0.0
0.0 0.0 0.0 0.0

naim.embeddings.63.embeddings.weight f4 [2, 6]
00000000: c002 f83e 2170 ff3d 2fa8 fbbd ce07 773d
00000010: 4bf2 8dbd d337 f8bd 0000 0000 0000 0000
00000020: 0000 0000 0000 0000 0000 0000 0000 0000
0.48439598 0.12472559 -0.12287938 0.060310178 -0.06930979 -0.121200226 0.0 0.0
0.0 0.0 0.0 0.0

naim.encoder.0.layer_norm_1.weight f4 [6]
00000000: 19f3 393f f81b 263f e382 393f 6495 6b3f
00000010: 3887 3b3f 5b3b 373f
0.7263656 0.64886427 0.7246534 0.92024827 0.732532 0.71574944

naim.encoder.0.layer_norm_1.bias f4 [6]
00000000: fcdc 1c3d f2cc 0abd 4d9f 153d fa08 23bd
00000010: 9b8d 0b3d 8543 1dbd
0.038296685 -0.033886857 0.036528874 -0.039803483 0.034070592 -0.03839447

naim.encoder.0.attn.linear_q.weight f4 [6, 6]
00000000: a1fb 2abb 5d69 49b9 a6f9 ecba fa66 efbd
00000010: 4b0c 8cba 49ce 2a3c e00c 9bbb e3ac 40bc
00000020: 9d9b 943b 12a1 ea3b 8622 9639 8bba 19be
00000030: aa1d 0bbc 5257 d2b6 2eb4 9b39 740c 9e3d
00000040: d6c6 5038 f9fa 5e39 9812 693c 353b 26bb
00000050: 6104 b1b9 d6cf 063d 7fe2 273d 0528 f439
00000060: dd2a 67bd 8614 0c3d 9094 93bd 1e5c ce3c
00000070: ccc9 4d3a ef7a 0538 dce9 d8bd 7111 a9b9
00000080: eae3 8f3c c06e 4c3d 358a 6e3a 52c8 a43d
-0.0026089924 -0.00019208105 -0.0018079772 -0.11689563 -0.0010684816 0.010425159 -0.0047317594 -0.011759969
0.004535152 0.0071603144 0.00028635951 -0.15012567 -0.008490959 -6.268653e-06 0.00029698148 0.07717219
4.9776245e-05 0.00021265064 0.0142256245 -0.002536488 -0.00033763333 0.03291305 0.040987488 0.00046569124
-0.056437362 0.03419926 -0.072060704 0.02519041 0.00078501995 3.1824162e-05 -0.1059148 -0.00032247187
0.017564733 0.049910307 0.0009099574 0.080460206

naim.encoder.0.attn.linear_k.weight f4 [6, 6]
00000000: 7929 003c 1cef bbbc 0627 82bb 35c8 e2bc
00000010: f1d8 02bc dd4e 723c 535b 3dbc 5113 25bc
00000020: c156 01be b98f d73d 5074 d139 74ac 89bd
00000030: 453f dd38 5eed 0b39 f801 c1b8 6f19 4c39
00000040: e010 a43c 9c29 b7b9 40b5 4cba 6597 e836
00000050: af5b 6f39 9fcc 6f3d 7696 df38 cb6c 583d
00000060: a891 633d 47c1 18bc 1e20 30b7 34a3 76bc
00000070: 072d c13b a2c7 98ba 1939 d13b d6df ec38
00000080: 7fde eebc e1b8 96bd f802 dbbd fae3 3fbc
0.007822388 -0.022941165 -0.003971937 -0.027683357 -0.007986293 0.01478931 -0.011557418 -0.010075406
-0.1263075 0.1052546 0.00039950246 -0.06722346 0.00010549886 0.00013344499 -9.203324e-05 0.00019464431
0.020027578 -0.0003493548 -0.0007808991 6.9317634e-06 0.00022826971 0.05854475 0.00010661494 0.052838128
0.05555883 -0.009323425 -1.0497895e-05 -0.015053559 0.0058952603 -0.0011656175 0.0063849804 0.000112950496
-0.029158829 -0.073594816 -0.106939256 -0.011712069

naim.encoder.0.attn.linear_v.weight f4 [6, 6]
00000000: b323 0a3e 86d9 103d a1c2 973e 4b8a bdbe
00000010: 7e88 17bc 303f 9abe 9aeb b13c a4fa bd3d
00000020: e0de 4dbe 4411 493e 7e2a bcbc c776 203e
00000030: 9caa 42bd 9a97 ed3d f00b 973e a0da c2bd
00000040: 75f4 48bd 0a43 123e d9d9 3ebe aaf3 8f3d
00000050: 879e 0bbe 8e2d 983e b490 11be 6219 8abd
00000060: 0104 793e d024 20be 5f5c f13d 520f 443e
00000070: ba80 903e 5377 9fbe 960f e43c 7d68 9ebd
00000080: 1d63 c43d 1b28 a4be a914 2c3e 50b9 e43c
0.1349018 0.035363697 0.29640678 -0.37019572 -0.009248851 -0.30126333 0.021718789 0.092763215
-0.20104551 0.19635493 -0.02296948 0.1567031 -0.047525987 0.11601181 0.29501295 -0.09514356
-0.049061257 0.14283386 -0.1863779 0.07028897 -0.13634692 0.29722255 -0.14215356 -0.06743123
0.24317934 -0.15639043 0.117851965 0.19146469 0.2822321 -0.31145725 0.027839463 -0.07734773
0.09589217 -0.32061848 0.16804756 0.027920395

naim.encoder.0.attn.linear_o.weight f4 [6, 6]
00000000: 31fd 30bd 3f82 0bbe 51aa 043d 1bd8 a7bc
00000010: 1002 b93d 24e4 77bb 899e 9d37 86c4 b8ad
00000020: d985 89ad c910 04b9 3e6c 90bd 1fc0 a63c
00000030: 27da 5dbe fdc5 593e 9aa6 e1bd 0a17 623e
00000040: 75e8 a03e 429e 4ebe d263 b63e 317d 423d
00000050: eb8f 79be bfda 483e 8eb5 813e 008d bd3e
00000060: fcd1 c6be 08ea 963e 3ca3 733e ec46 9f3e
00000070: 6dd0 293e 6e79 57be 4ae4 8c3e 7c93 ad3e
00000080: a0eb 0bbe 95f7 42bd 7d8e 943e 3316 903e
-0.043210212 -0.13623904 0.03238899 -0.02048879 0.090335965 -0.0037825191 1.8789682e-05 -2.1005652e-11
-1.5634537e-11 -0.00012594754 -0.070518956 0.020355282 -0.2166525 0.21266933 -0.11018105 0.22079101
0.3142735 -0.20177558 0.35623032 0.047482673 -0.24371307 0.19614695 0.25333828 0.37021637
-0.3883208 0.29475427 0.23792738 0.31108797 0.16583414 -0.21042415 0.2751792 0.33901584
-0.13664103 -0.047599394 0.2901496 0.28141937

naim.encoder.0.layer_norm_2.weight f4 [6]
00000000: 7cbf 6b3f c56e 503f 69f7 623f d700 6a3f
00000010: 464a 603f 45de 643f
0.92089057 0.8141902 0.8865877 0.9140753 0.8761333 0.89401656

naim.encoder.0.layer_norm_2.bias f4 [6]
00000000: 663d 05bc cb5e de3c 4a65 38bc b780 1e3b
00000010: 7a40 26bc 7c30 a83b
-0.008132314 0.02714481 -0.011254618 0.0024185607 -0.010147208 0.005132733

naim.encoder.0.ff.0.weight f4 [1000, 6]
00000000: 8bce 113d 6a0a 4e3d 19da 79bc 2753 b4ba
00000010: 9482 5f3a 3290 c53b faeb 1d3a e7d6 49bd
00000020: 8308 9cba 0fba 80bd 094c b9bd 21be ac3d
00000030: 38b7 b7bc 4142 f03b a816 0b3c 4f30 b23a
00000040: 8d67 54bc 75e1 873d cd79 1b3b 5988 783d
00000050: 5ee3 843c 4542 083d 0c3f a9bd caa2 42bb
00000060: b0e0 a0bd a449 80bb d421 be3b 2c7c 183c
00000070: 5a52 b03d 0b35 653c f019 11bd c6fd c2bc
00000080: 84d4 3e3d d2e4 8a3b 52d7 5d3b c2f9 64bc
00000090: 32b0 05bb 46e0 333b ca05 18bd 8f2d 213d
000000a0: db29 b13c 3d87 d9bc 307e bcba ad9b 84bb
000000b0: e00d e43b f688 e539 8289 cd3d ae09 cfbd
000000c0: a8ef 02bd ed04 b9bc 38da 993b 8285 9e3b
000000d0: 6a02 02bc 2c2c af3d bf28 8ebd 8dfb 673b
000000e0: dfb5 96bc ec7d c1ba c1ff ccbd db3c 47bd
000000f0: 59ae 7ebd 172c 223b 8619 60bb de1f 723c
00000100: 1875 41bc 3f84 39bc ffda 973b 21c0 813d
00000110: 2c61 703a a85a 883c 835f 4f3b 0e76 913c
00000120: b976 143d 30f0 c93b cd5b 18bc c68c e6bb
00000130: 450b 273c 9385 1b3c 23e4 3f39 7ed8 da3b
00000140: 4752 abbc c51c 5a3c e5d2 78b8 107e 00bd
00000150: 6ba5 9cbb fe72 40bd f494 afb9 dc57 80bc
00000160: fb6a 9bb9 b639 04b7 9008 abbc f51b 17bb
00000170: 8bab c03b 1634 56bb 9407 1f3d da24 91bc
00000180: fac8 1a3c b0f7 90b6 23a8 a3bc ed7a 91bb
00000190: 8291 1c36 e891 3b38 0afa 093a 2937 1bbc
000001a0: f4ef 563c 61c8 4aba 024e d5bd c074 e33a
000001b0: e1aa 51bb 69af 67bc b068 4bbc d26c 83bd
000001c0: 28df ea3d 0679 b8bd 179a c93d 1cad adbd
000001d0: fbdc c1bc b70f edbc 7db1 d0bc 0b3e 523c
000001e0: 158d 9c3c 6c94 16bd 7a07 a0bc a195 af3c
000001f0: 0e73 213c e523 933a fd04 163c 993e 13bb
00000200: 5476 80bc b079 ca3b 36eb 22ba 297a ecbc
00000210: 8c87 cbbc e496 f9bc 571c e83d a39d 913c
00000220: 7040 43bb 354f e63c 543c 10bd 4f17 2d3d
00000230: 6c4e 063b 0dcc 35bb dd90 8a3d 2058 1dbc
00000240: b5d5 2dbc 73ea a4bd f68e f33c fe53 543c
00000250: 71dd 88bd de90 053d 252e 9c3b d8ef 82bc
00000260: 7cf0 bb3d c569 643c 8e59 3d3b 0eee 3cbc
00000270: 35f7 eebc 919a 44bc 4d69 033c 9d87 c13b
00000280: 9af4 bbbc 3b44 c43d 3a98 6d3c bffb 01bb
00000290: 875e 193c ed68 0fbb 4a5c f33a aaf6 843d
000002a0: f16e 9ebd abb1 12bc cd78 4539 ea6b f6b6
000002b0: 4990 81bd 1bf8 a6bc 7f0c 72b7 a525 0238
000002c0: 6760 29b8 eba5 2bb7 4946 9437 db51 5736
000002d0: 9f6c 7abb 9c38 c4ba 512f de3b 1836 363d
000002e0: c1c3 5ebc 7747 90bb 2941 ab3c 9295 60bd
000002f0: 985e 463d 1810 f83c 5231 f5ba 82f2 a7bc
00000300: d745 a93b 6a1a 6abd 03d3 b1bd c6d3 c53d
00000310: 6b5b a6bd f344 8abd 27e9 6abb 3b2b e839
00000320: 398f 0d3b 788e 2bbc 7164 393a 1495 3ebb
00000330: d3dc 923d 3f02 9d3d b000 f73b f8a8 323a
00000340: 698b 3d3d 010c 6fbd c4aa 21b9 1dd1 6ebc
00000350: e882 5d3d b022 9dbd 3ffa c9ba 757d 74bd
00000360: a374 ad3c 190d 02bb 733b 993d 537d 46bd
00000370: a9b0 ca3c c796 00bd 531e 98bc 07da e33b
00000380: 2b7b abba b515 85bd 2239 88bd 6095 27bc
00000390: 68c6 893b a530 9b3d 0706 453d 6ccc f9ba
000003a0: 7e72 c0bc aca9 a4bd 3b9e a53d e235 45bc
000003b0: efb6 b6ba 52fa 70bd 30b3 0dbd 1dde 77b9
000003c0: 690b 8b33 f7b0 962e aae5 952b af8d e72d
000003d0: d8ed 31b0 5061 e6ac 375a b43c e6ff 433d
000003e0: 02d1 c73d 3cf5 a4bd 1b71 87bd d17d 91bc
000003f0: de50 a23b 392b a53c aaf7 f23d 28f4 b2ba
0.035597365 0.0503029 -0.015249752 -0.0013757691 0.00085262326 0.0060291523 0.0006024238 -0.049277212
-0.0011904392 -0.06285488 -0.09047706 0.08434702 -0.022426233 0.007332117 0.008489288 0.0013594719
-0.012964142 0.066347994 0.0023723722 0.060676906 0.016221698 0.033266325 -0.08263978 -0.002969908
-0.07855356 -0.0039150286 0.0058023725 0.009306949 0.08609457 0.013989697 -0.035425127 -0.02380265
0.04658939 0.0042387033 0.0033850265 -0.0139755625 -0.002039921 0.002744691 -0.037114896 0.03935009
0.021626404 -0.026553744 -0.0014380869 -0.0040468783 0.006959662 0.00043780328 0.10035993 -0.10109268
-0.031966835 -0.022585357 0.004695203 0.0048376927 -0.007935146 0.08553347 -0.069413655 0.0035397739
-0.01839727 -0.0014762259 -0.10009719 -0.04864202 -0.06217799 0.0024745518 -0.00341949 0.014778106
-0.0118077025 -0.011323034 0.0046342607 0.06335474 0.0009169753 0.01664479 0.0031642623 0.017756488
0.036246035 0.006162666 -0.009299231 -0.0070358245 0.010195558 0.009492296 0.00018300167 0.00667864
-0.020913256 0.013312523 -5.932422e-05 -0.031370223 -0.0047804615 -0.046984665 -0.0003348958 -0.015666895
-0.0002964361 -7.88125e-06 -0.020878106 -0.0023057435 0.0058798245 -0.0032684854 0.038825586 -0.017717768
0.009447331 -4.320369e-06 -0.019977635 -0.0044397027 2.3330508e-06 4.472016e-05 0.0005263394 -0.0094736
0.013118733 -0.0007735547 -0.104152694 0.001735352 -0.003199272 -0.014140942 -0.012415096 -0.0641724
0.11468345 -0.090074584 0.098438434 -0.084802836 -0.023664942 -0.028938157 -0.025475258 0.012832175
0.019110242 -0.03676264 -0.019534815 0.021433653 0.009854091 0.0011225907 0.009156463 -0.002246773
-0.015681423 0.006179057 -0.0006214859 -0.028866844 -0.024844907 -0.030467458 0.113335304 0.017775362
-0.0029793046 0.02811394 -0.035213783 0.042258557 0.002049352 -0.0027740032 0.06765912 -0.00960353
-0.010610034 -0.0805253 0.029731255 0.012959478 -0.066828616 0.03260886 0.004766243 -0.015983507
0.09176728 0.013941233 0.002889249 -0.011531366 -0.029170612 -0.011999742 0.008020711 0.005906059
-0.022943784 0.095833264 0.014501626 -0.001983389 0.009360916 -0.002188261 0.0018566933 0.0649236
-0.07736004 -0.008953492 0.00018832386 -7.343934e-06 -0.06326348 -0.020381978 -1.44272335e-05 3.1029474e-05
-4.038252e-05 -1.0231025e-05 1.7675704e-05 3.2085143e-06 -0.0038211716 -0.0014970484 0.006780543 0.04448518
-0.013596476 -0.0044030505 0.020905094 -0.05483014 0.048430055 0.030281112 -0.0018706715 -0.020501379
0.0051657963 -0.057154097 -0.086828254 0.09659533 -0.08122905 -0.06751432 -0.0035844536 0.00044282697
0.002160026 -0.010470979 0.0007072157 -0.0029080557 0.07171025 0.07666444 0.0075379238 0.00068153394
0.04627553 -0.058361057 -0.00015417772 -0.014576224 0.05407992 -0.07672632 -0.0015409662 -0.059689958
0.02117378 -0.0019844233 0.07482042 -0.048459362 0.024742441 -0.031393792 -0.018569147 0.006953481
-0.0013082972 -0.06498281 -0.06651522 -0.010228485 0.00420456 0.075776376 0.04810145 -0.0019058115
-0.023492094 -0.08040175 0.08086821 -0.012036772 -0.0013940017 -0.058832474 -0.034594715 -0.00023638499
6.4747674e-08 6.8526455e-11 1.0650831e-12 2.632458e-11 -6.473022e-10 -6.547797e-12 0.022015674 0.047851466
0.09756662 -0.08054587 -0.0661337 -0.01776019 0.004953488 0.020162212 0.118636444 -0.0013653086

naim.encoder.0.ff.0.bias f4 [1000]
00000000: be2c fd3c bd09 45bc b1e0 6cbb 4596 e4ba
00000010: b888 6c3d 3235 d33b 3867 ea3d cdb3 06bc
00000020: da69 d4bb 5aac f2bb 32ea 803d b157 cd3d
00000030: 5e3e 503c 35e3 6abd 1b61 22bd cb10 29bb
00000040: bc36 a4bd 7af0 b7bb 48d0 58bd 1e87 483d
00000050: 2a0a 59bb f9a3 59bd dcdc 913d 07e3 a2bd
00000060: 60eb 43bb 36f9 003e 6e41 d33c 3b89 91bd
00000070: 4824 22bb 6672 f6b8 1cd1 aa3c 76d4 f13d
00000080: 72f2 ad3d a4ee a63a d4b6 7c3c 7cf3 cdbd
00000090: 5fba 613d ea4f c53c a82c 06bd 7b2f c0ba
000000a0: 50d7 33ba 15cc 03bd 0460 ab3c 2c7f e4bb
000000b0: 95ce b63b a02e c8b9 bfc9 c63d e10f 0ebc
000000c0: 3b7e d2ba cfc3 b3b9 ccd6 2fbc dffd 9dbb
000000d0: 9d5e 09bd 1dff c1bd 760e ea3c 66c3 01bb
000000e0: e9c8 d9bc b72b 003d a0cc 92bb 31d7 4bbb
000000f0: b5e4 e2bb e67f 2e39 00ea 843d 52c9 b3bd
00000100: 4368 45bd c4a7 6dbd a2a4 59bd df25 a33b
00000110: fe33 a73c 0d2a d13a 619a 783c c4e7 07bc
00000120: 1aa3 08b9 df9b aabd e048 bc3d 54cf d43d
00000130: 33a5 a8ba 037f 4d3c 75df 02bb 8146 013e
00000140: dfeb a9bb 8eee 3fbb e9d4 cabc f916 eb3b
00000150: 27df 203d d349 85bd 5d13 cc3a d2ac 793c
00000160: ddda 513c 76b3 2a3c 76cf cc39 7aa2 f93b
00000170: 2418 1dbd 0b06 243d ae6e 80bd 14e7 95bd
00000180: 687c 33bd 6ae0 bbba 5302 4438 aa21 053d
00000190: 9e92 45bb 4c18 273d b155 d839 501e a03d
000001a0: e669 2b3d e93a 313d 9dc2 413c 55b3 2bbd
000001b0: 218f 003e ceb0 c4bd abc0 0bbd 8d87 2dbd
000001c0: 4652 613b d7d8 8b3c 9deb 263b 55d4 9bbd
000001d0: e022 ff3d 2219 e63d 2bdc 0a3c 4d3f d1bd
000001e0: 77f8 bf3d 6de0 cd3a 2e29 803a 54cc 84bd
000001f0: 03e8 c03d 4739 b9bb 8485 76bd a387 733d
00000200: 5f3d 283d efca 2dbb e4a0 b43d 9aa1 f63a
00000210: b423 76bb da0d 7cba 2d12 c83d 3ed0 35ba
00000220: 4110 a8bd 8f87 fabc 5f95 42bd 1056 19bb
00000230: fd7f 953d 65eb 4d3d 1cc4 db3b d21c ad3c
00000240: b817 50bc 20c0 d33d ac0b 193c d682 cbbc
00000250: 62a1 16bd c521 a0bd 41e4 afbb 6d80 613d
00000260: 04dc 4c3c 74e0 68bb 76ea 383b e4b7 05bd
00000270: c9f7 1c3c 2c41 523d aced a93c a9bf 21bc
00000280: bdad 32bc d9ad 1e3d 486f de3c d3a8 e2bb
00000290: 506b 083a a1ab 29bb 131b e6ba 3571 9ebd
000002a0: 6ac6 75bd 0a59 953d 4e24 8bbb 13c7 3e3d
000002b0: 9ff7 6a3d 7fd5 81bb d0e8 9bbb 868a f4ba
000002c0: 6962 cb38 f67e b5bc 5755 e33d e939 d0b8
000002d0: 3b75 2abb 7c9d 22bd 50c5 19bb 274b 303c
000002e0: 782f 003e c828 9d3b d0f5 053c b3a0 c1b9
000002f0: fa08 443d 16a1 7d3a f189 e8b9 34d2 353c
00000300: e9f8 e8bb d394 003d afb9 89bd 8d71 1bbd
00000310: 09ab e43d 4e67 6fbb d176 a1bd 9180 3fbd
00000320: 9ccd d33d c75f 8dbb a48b 88bd 09ff 4bbb
00000330: 9c2c 98bc bab7 dcbc 8980 f5bc ab46 7d3d
00000340: ba40 fe3b f641 003d 0c4e 15bb b948 30bb
00000350: 19b4 d8bb 3161 1cbd 0694 4cbd 773f 87bd
00000360: 7e38 18bb 3155 0a3d 9f7a b53d bb39 54ba
00000370: 28c2 46bc bba4 66bb 3e6d b53a 7cd8 91bb
00000380: db3a 8ab9 ff8c 0abb 5ca0 d4bd a6d9 4ebd
00000390: 143d 893a b53a 2eb9 56e8 9dbc e32d 7b3c
000003a0: 14b6 0dbc c8e4 f03d ca57 99bd ee8d 163d
000003b0: e4b4 10bc 9338 02bb 6781 d8bd ede8 acbd
000003c0: ed1b e1bd b0ce b23a 49d7 0f3e 5a6d 0e3c
000003d0: 2cb4 063d 2dfd a83c 6581 8a3b f65e 2bb9
000003e0: 7bb3 8eba 8d14 b1bd 04ca 813c 9bd4 3ebc
000003f0: aca4 6cbc c510 f9b8 c92f 013a a606 2c3d
0.030905124 -0.012026248 -0.0036144669 -0.0017439803 0.057747573 0.0064455504 0.11445469 -0.008221579
-0.006482345 -0.0074058 0.06294669 0.100264914 0.012710182 -0.057345588 -0.03964339 -0.0025797363
-0.08018252 -0.005613384 -0.052933007 0.048956983 -0.003311763 -0.053134892 0.07122204 -0.07953458
-0.0029894933 0.12595066 0.025788035 -0.07106253 -0.0024740864 -0.000117515025 0.020851664 0.11808102
0.084935084 0.0012735915 0.015424449 -0.100562066 0.055109378 0.024085958 -0.03275743 -0.0014662588
-0.0006860392 -0.03217705 0.020919807 -0.006973168 0.0055788257 -0.0003818171 0.09706449 -0.008670778
-0.0016059348 -0.0003428743 -0.010732364 -0.0048215236 -0.033537496 -0.09472487 0.028571349 -0.0019800304
-0.02658506 0.03129169 -0.0044799596 -0.0031103606 -0.0069242367 0.00016641579 0.064899445 -0.08778633
-0.048195135 -0.058021322 -0.05313552 0.00497888 0.020410534 0.0015957967 0.015173526 -0.008295003
-0.00013030731 -0.08330511 0.09193587 0.10391107 -0.0012866616 0.012542489 -0.0019969617 0.12624551
-0.0051855887 -0.0029286477 -0.024759727 0.0071743694 0.039275315 -0.065082215 0.0015569736 0.0152389575
0.012808529 0.010418763 0.00039064483 0.0076182457 -0.0383531 0.040044826 -0.062711105 -0.07319465
-0.043819815 -0.0014333848 4.6732206e-05 0.032502808 -0.0030147205 0.040794656 0.00041262576 0.07818282
0.04184904 0.04326907 0.011826185 -0.04191907 0.125546 -0.09604035 -0.03411929 -0.0423656
0.0034381314 0.01707117 0.0025470026 -0.076088585 0.12457824 0.112352625 0.008475344 -0.10217152
0.09373563 0.0015707143 0.0009777898 -0.06484285 0.09419253 -0.00565258 -0.060185924 0.059455525
0.041074153 -0.0026518663 0.0881975 0.0018816472 -0.0037557902 -0.0009615101 0.09769092 -0.00069356326
-0.08206225 -0.030582217 -0.047505733 -0.0023397245 0.072998025 0.050273318 0.0067067277 0.021131907
-0.0127009675 0.10339379 0.009341162 -0.02484266 -0.036775 -0.07818941 -0.005367786 0.055054117
0.012503628 -0.0035534175 0.0028215921 -0.032646075 0.009580561 0.051331684 0.020743214 -0.0098723555
-0.01090568 0.038740013 0.027152672 -0.006917098 0.0005203979 -0.0025889652 -0.0017555676 -0.07736436
-0.060003676 0.072923735 -0.004246271 0.04657657 0.057365056 -0.0039622183 -0.004757978 -0.0018657006
9.6981246e-05 -0.022155266 0.11100262 -9.9289995e-05 -0.0026009816 -0.03970097 -0.0023463555 0.010760105
0.12518108 0.0047961213 0.008176282 -0.0003693156 0.047860123 0.0009675188 -0.00044353263 0.01109748
-0.0071097505 0.03139193 -0.067248695 -0.037950087 0.11165435 -0.003653008 -0.078839906 -0.04675347
0.10341951 -0.004314396 -0.06667259 -0.0031127355 -0.018575959 -0.026943076 -0.029968517 0.061834972
0.007759181 0.031312905 -0.0022782115 -0.0026898815 -0.006613266 -0.038178626 -0.049945854 -0.06603902
-0.0023227031 0.03377265 0.08861279 -0.0008095761 -0.012131251 -0.0035193402 0.0013841761 -0.004450856
-0.00026365262 -0.002114117 -0.103821486 -0.050500534 0.0010470473 -0.00016615803 -0.019275825 0.015330764
-0.008649368 0.117623866 -0.074874476 0.03675645 -0.00883219 -0.0019870147 -0.105715565 -0.084428646
-0.109916545 0.001364192 0.14046969 0.008693064 0.03288667 0.020628536 0.004226851 -0.00016343207
-0.001088723 -0.08646498 0.015843399 -0.011647369 -0.014443558 -0.00011876369 0.000492808 0.041998528

naim.encoder.0.ff.3.weight f4 [6, 1000]
00000000: 2064 5abb 18d5 2b3c a437 c43b f69f f2bb
00000010: ea07 14bc bbec b23b 24fb c2bb 9005 e13b
00000020: 7c8b 943c e2bc 113c 9864 6bbc 0be0 19bc
00000030: 30af bdbb 7d07 c5bb f7c6 bc3a 3794 bf39
00000040: 04a2 d639 87bd 5ebc 1dca 263c e7fb 343c
00000050: dd8b 043d a421 673c f21d a0bc 6b7a 0b3c
00000060: 72fc dfba 7946 25bc 36a2 fe3b 6339 e43b
00000070: 27b7 50bb 9482 e9ba dd11 55bc 6ca3 06bd
00000080: 7564 cb3b 0904 ed3a f354 75b8 d7a5 50ba
00000090: 39eb 913c b671 163a e329 943c eca0 66bb
000000a0: 9a61 382d 7090 9c3c 4880 2ebc cbc2 e13c
000000b0: 6ef1 91bb 5b9b 5c3b 1be9 e83b 71b5 823b
000000c0: bd1d 543c 6e58 c23c 2de3 82bc 58fa 76b8
000000d0: 4020 963c 332e 733b b388 06ba 7414 95ba
000000e0: 2a0a 703b 6f25 a43c 37aa f13a 97c6 d63c
000000f0: 5525 733c 754e d73c 1d8b 863c 98e5 5c3c
00000100: a813 23ba 556e 533b 36b9 15bb 8019 e6bb
00000110: 7f76 943c dbe4 2abc c8d0 75bc 610a 35bc
00000120: ca7a 973a b14d 4f3a 858f 33bc b9be 17bc
00000130: d3f7 7cbb a185 9dbb 9740 30bc bf9c 40bc
00000140: 3dd2 9e3c 3914 ee3b ca6e 1ebc d345 d03c
00000150: 04f5 36bc c409 b43b 3849 ec3b 708e 943c
00000160: 50d9 213c 1341 d03b d2eb 103c de24 19ba
00000170: 200e a83a 2cd0 0d39 7922 f73a 0c42 29bb
00000180: 12d9 77ba 1342 a73c 20fe e83c 7991 3b3b
00000190: 85a3 663c 416b 643a 1a2a db3b 0451 a5bc
000001a0: b427 403c b1c5 7a3c fd53 7bba 105d 823c
000001b0: 04b7 fdbb 996d 82bc d809 eb3c 1ac7 a63c
000001c0: 765d 0b3c 2e1f 003c 31e6 e7bb f49d 213c
000001d0: 6440 a6b9 4964 153c 80ef 3b3a 356c cc3b
000001e0: b3dc 93bc 0e19 133c c25e 8d3c a496 043b
000001f0: 8304 a93c 0c8e cd3c 7eed 7f3c c0de 923c
00000200: 56b4 b73b f52c 4e3c 6122 ab3c 674b a83a
00000210: cd65 86bc 6bec e63c 2dce a3bc f773 3abb
00000220: 2590 933c 7358 013c 9972 b7bb ae25 5f3c
00000230: 5aae 8d3c ae93 2dbc 2818 5a3c a297 5c3c
00000240: 2de1 603b d12c e8bc 3f53 14ba e3f9 9a3c
00000250: a7e7 003c dc97 d7b9 3a38 0e3c a8fe 833c
00000260: 8d07 8f3b 5bb7 6b3c 99ea c93c 8fe5 763c
00000270: ca74 4cbc 3038 42bc 6ac5 c6bb 80bf c63c
00000280: 8045 5abc e1f9 c63c 0536 3bbb 2e77 bb3c
00000290: edbb 18b9 72e2 1dbb d220 cc3c fcbf 3f3c
000002a0: 18a7 aa3c 00ab 62bb e25e ea3c 1d17 dbba
000002b0: 1603 f1bb 3e9c 6ebb c649 3fbb c3ad b4bb
000002c0: 55f8 cebb b6e4 993c d314 78bc 81a1 133c
000002d0: 14c9 023c 73db 50bc e850 8f3b 49b1 aabc
000002e0: 2689 673c 181c 0d3a 3682 e63b 9883 a0bc
000002f0: 10aa 263c 854f 17bc ca7c 733c bdba cb3b
00000300: 11ec 44bb 6448 943c a42e a63b 91df b0bb
00000310: 16cc 0cbc b4dd 143d e8d2 40bc 1b43 a73c
00000320: 4dd5 f039 91af 133d 7a99 4ebc 36da 8a3c
00000330: 0add 3b3c 1715 8c3c 0c21 b4bb 3ae2 edbb
00000340: 56ab 323b e53a 36bc 2861 103c 0119 cb3c
00000350: 8c6d 443c 92b4 0d3c 1c58 c33c 51a6 0f3c
00000360: 8750 b03c 43e8 5ebc 4b53 eabc 0094 3e3c
00000370: f0c6 2e3c cc5d 863c 5413 003d dd44 bd3c
00000380: 5e31 c03c ce33 c53a 95e4 ce3b 86d9 893a
00000390: 87d2 bdba ebc4 0b3d 0629 003c e485 9cbb
000003a0: 30aa a63c f3ea 25bc a1d3 5e3b 525d 6e3c
000003b0: 5c2f 3c3b 6751 663c 438b 533b 38b2 db3b
000003c0: 31d9 013d 2c76 213b 4329 f4bc 805e 693c
000003d0: 0189 72bc 80e3 b73c 14be 003c 1201 523c
000003e0: d973 213a 40f9 97b9 6687 5ebc 40b0 173b
000003f0: 9e46 a0bb 0d3e 8f3c 5061 8e3c eeba c6bc
-0.003332384 0.010487817 0.005988078 -0.0074043227 -0.00903509 0.0054603494 -0.0059503485 0.006867118
0.018132918 0.008895131 -0.014367245 -0.009391795 -0.0057887062 -0.0060128556 0.0014402558 0.00036540788
0.00040937972 -0.0135949915 0.0101800235 0.011046386 0.032359947 0.014107142 -0.019545529 0.008513073
-0.0017088784 -0.010087603 0.007770802 0.006964849 -0.0031847449 -0.0017815405 -0.013004747 -0.032870695
0.006207044 0.0018082868 -5.8491667e-05 -0.00079592824 0.017812358 0.000573899 0.01808638 -0.0035191132
1.0480861e-11 0.019111842 -0.010650702 0.027558705 -0.0044538295 0.0033661935 0.0071078665 0.0039889147
0.012946543 0.023723807 -0.015977466 -5.888412e-05 0.018325925 0.0037106394 -0.0005132064 -0.0011373893
0.0036627152 0.020037381 0.0018437569 0.026217742 0.014840444 0.026282528 0.016423756 0.013482474
-0.00062208856 0.0032261808 -0.002284599 -0.007022083 0.01812291 -0.01043054 -0.015003391 -0.011049838
0.001155698 0.0007908 -0.010959511 -0.00926178 -0.0038599863 -0.0048071896 -0.010757587 -0.011756121
0.019387359 0.0072655943 -0.009669969 0.02542392 -0.011166815 0.005494328 0.007210877 0.018134326
0.0098784715 0.0063554137 0.008845286 -0.00058419805 0.0012821592 0.00013524358 0.0018854878 -0.002582672
-0.0009454648 0.020417249 0.028441489 0.0028620644 0.014077072 0.0008713492 0.0066883685 -0.020180233
0.011728216 0.015305922 -0.00095874054 0.015913516 -0.0077427644 -0.0159214 0.028691217 0.02035861
0.00850617 0.007819934 -0.0070770015 0.009864319 -0.00031709962 0.009118148 0.0007169172 0.006238485
-0.018049574 0.0089781415 0.017257098 0.002023139 0.020632034 0.025092147 0.015620587 0.017928481
0.0056062145 0.012583961 0.020890417 0.0012839854 -0.016405964 0.028188905 -0.019995773 -0.0028450468
0.01801307 0.007894623 -0.005598378 0.013619823 0.017295051 -0.010594292 0.013311423 0.013463886
0.0034313903 -0.028341683 -0.00056581566 0.018917983 0.00786773 -0.0004112114 0.008680398 0.01611264
0.004364914 0.014386977 0.024647998 0.0150693795 -0.012479017 -0.011854216 -0.006066014 0.024261236
-0.013322234 0.024289073 -0.0028566134 0.022883978 -0.00014565857 -0.002409127 0.024917994 0.0117034875
0.02083163 -0.0034586787 0.028609697 -0.0016715262 -0.007355104 -0.0036409046 -0.002918826 -0.005513878
-0.0063162246 0.018785816 -0.015141684 0.0090106735 0.007982511 -0.012747633 0.0043736584 -0.02083649
0.01413182 0.00053829094 0.0070345653 -0.019593999 0.010172382 -0.0092352675 0.014861295 0.0062173293
-0.0030047933 0.018100925 0.005071478 -0.005397745 -0.00859358 0.036344245 -0.011769034 0.02041774
0.0004593529 0.036056105 -0.012609834 0.016949754 0.011466274 0.0170999 -0.0054971036 -0.0072596343
0.0027262769 -0.01112244 0.008812226 0.024792196 0.011989009 0.008649008 0.023845725 0.00876768
0.021522773 -0.01360518 -0.02860417 0.011631966 0.010667548 0.016402148 0.031268433 0.023104126
0.02346104 0.0015045346 0.00631387 0.0010517098 -0.0014482298 0.034123342 0.007822281 -0.004776703
0.020344824 -0.010126817 0.0034000652 0.0145486165 0.0028714752 0.014057494 0.0032279051 0.006704595
0.03170127 0.0024637086 -0.029804831 0.014243722 -0.014803172 0.022447348 0.007857818 0.012817638
0.0006158925 -0.0002898667 -0.013582086 0.0023145825 -0.0048912307 0.017485643 0.017380387 -0.024259057

naim.encoder.0.ff.3.bias f4 [6]
00000000: f6e2 1abd 87d3 c83c 51a8 03bd 4d2c 08bc
00000010: 6ff6 5a3c 203f 81bc
-0.037814103 0.024514927 -0.03214294 -0.008311343 0.013364418 -0.01577717

naim.encoder.1.layer_norm_1.weight f4 [6]
00000000: 8f92 233f 88d0 233f 3f78 233f 275b 233f
00000010: fb20 233f 6ab2 233f
0.63895506 0.6399007 0.63855356 0.6381096 0.637222 0.63944113

naim.encoder.1.layer_norm_1.bias f4 [6]
00000000: 6be8 f33b 26a6 d9bb 0302 ffbb dc3a 9ebb
00000010: 0cec ac3a 5a1f 823b
0.007443478 -0.006642121 -0.0077822222 -0.004828794 0.0013192906 0.0039710226

naim.encoder.1.attn.linear_q.weight f4 [6, 6]
00000000: 7b6a 1fbd 0d3b 2db8 9a27 1fbb d4ae acb7
00000010: a40d b63c 8d99 3835 71e8 50b7 345d 8c3b
00000020: 727c 813c ccff c437 76bc e6bc f7ee 90bd
00000030: d353 df3d 53cf f338 2125 b13d 6db5 86ba
00000040: 8ba1 45b8 cdd7 f2bb 9483 21bc 0684 3fbb
00000050: 2967 e03d 5462 203d 57f5 a3bc 6e83 08bd
00000060: 7934 bb38 c6cc 49b6 66ac 4433 3fe4 7db6
00000070: 7517 96bd 1d3e 7db6 3e4e 2e36 b5a9 06bd
00000080: ea6f d6bd 7fd1 db3b 5e3d abbd cd59 22bb
-0.038919907 -4.130141e-05 -0.002428508 -2.0585408e-05 0.022223301 6.876879e-07 -1.2451886e-05 0.0042835716
0.01580641 2.3484135e-05 -0.028166037 -0.07076829 0.1090466 0.0001162576 0.0864966 -0.0010277458
-4.711891e-05 -0.0074109794 -0.009858031 -0.002922298 0.10957176 0.039156273 -0.020014448 -0.033328466
8.926629e-05 -3.0070528e-06 4.57916e-08 -3.7832795e-06 -0.07328693 -3.7736093e-06 2.5973563e-06 -0.03287669
-0.10470565 0.0067083235 -0.08361314 -0.0024772764

naim.encoder.1.attn.linear_k.weight f4 [6, 6]
00000000: f486 8d3c 437e debc 6e7f 81bb 9444 b2bc
00000010: 5703 723c 0a64 a038 eca6 db36 f142 4d39
00000020: dca9 3fb8 f2fc 3138 843e c0b5 d058 a3bc
00000030: 84e5 8ebb f2b0 d836 ceb5 9937 e304 b037
00000040: 5570 833b 3ff2 493d c955 c53d cb70 9c38
00000050: 0815 683a 13d1 6dbd 78ba 603c f54f cbb7
00000060: 5ecd 5abd a8dd 4cbd 844d 7fbd 38d0 49bb
00000070: 2ee5 403b 125a 6bbd 3b79 ddb6 ee2a b1b6
00000080: 5763 cb39 38ef 95ba 2cc6 cd3b dffd 9abc
0.017276265 -0.027159816 -0.0039519584 -0.021761216 0.014771304 7.648028e-05 6.546141e-06 0.00019575261
-4.5696142e-05 4.2435662e-05 -1.4323309e-06 -0.01993981 -0.0043608565 6.457901e-06 1.832368e-05 2.098311e-05
0.0040111938 0.04930329 0.09635503 7.459669e-05 0.00088532316 -0.058060717 0.013716333 -2.4236719e-05
-0.05341851 -0.050016075 -0.062329784 -0.0030794274 0.0029433477 -0.057458945 -6.6004263e-06 -5.2800087e-06
0.0003879319 -0.0011439091 0.0062797274 -0.018919883

naim.encoder.1.attn.linear_v.weight f4 [6, 6]
00000000: e97c 863d 86e6 2abe 17d1 0dbe 7029 423d
00000010: d55e 3a3b f18a 403e 80a5 083d c21d 9ebd
00000020: 44c9 693d d6c7 d7bb 3879 91b9 9634 0cbb
00000030: fe89 25bc 7dc2 ecbd 498d 833c d54c e13d
00000040: 2cd3 4ebc f4e8 303e f085 47bc 705b 823b
00000050: 6d4d 9c3a fcff aabb baa2 d83d 4bb0 1b3b
00000060: 56fa 083c 506d d2b9 ca0f 323b 7346 9b3d
00000070: 8900 6cba 7461 533d a51e 8a3b 08be d53c
00000080: 2ddb 3ebd a15b b0bd a7ac 093b 0707 4a3b
0.065667935 -0.166895 -0.13849293 0.0474028 0.0028437872 0.18803002 0.033360958 -0.077205196
0.057076707 -0.0065851016 -0.0002774687 -0.0021393648 -0.010103701 -0.11560533 0.016058581 0.11000983
-0.0126235895 0.17276365 -0.012177929 0.0039781854 0.001192493 -0.005218504 0.10577913 0.0023756202
0.008360466 -0.00040135765 0.0027170056 0.075817965 -0.00090027653 0.05160661 0.004215079 0.02609159
-0.04659574 -0.08611227 0.002100745 0.0030826943

naim.encoder.1.attn.linear_o.weight f4 [6, 6]
00000000: 96cd 863e 9472 2f3e b0ba 2cbd 9aa9 47bd
00000010: 0b09 6c3c 989c 983d 7783 5f3d 9dad c93b
00000020: 7131 063e 6d5a f839 c1fb f43d 0015 763c
00000030: 3588 02bc 4de5 c83d 1b17 403c 3a33 c03b
00000040: fe69 ebbc 8cef 6b3d 759f a8bd f6a6 f53d
00000050: 745e 103e 4211 c7bb 7c2b 2ebd acb1 6e3d
00000060: 97d6 cebd d882 b0b8 3eba 64b9 5c3d 85ae
00000070: 1b3f 87bb fe09 f1ba 4531 813b 192a e72d
00000080: 6c8f 00bd 1104 e6ad 42c6 6e38 3fed 85ba
0.26328725 0.17133552 -0.042170227 -0.04874573 0.014406453 0.07451743 0.054568734 0.0061547295
0.13104798 0.0004736962 0.11962081 0.015019655 -0.007967045 0.09809361 0.011724259 0.0058654817
-0.028737064 0.057601497 -0.08233539 0.11994736 0.14098531 -0.0060750553 -0.04252194 0.05827491
-0.100995235 -8.4167055e-05 -0.00021813155 -6.0590394e-11 -0.004127396 -0.0018389819 0.003942641 2.6280355e-11
-0.031386778 -2.6149779e-11 5.6928264e-05 -0.00102178

naim.encoder.1.layer_norm_2.weight f4 [6]
00000000: 3710 5e3f 5c9a 453f 4163 4c3f 425a 603f
00000010: 05eb 543f da94 533f
0.8674349 0.7718866 0.7983895 0.8763772 0.8317111 0.82649004

naim.encoder.1.layer_norm_2.bias f4 [6]
00000000: 0f26 bd3c ff23 adbb 6ec7 ee3b abc7 5bbc
00000010: 7505 2e3c c210 b6bc
0.023089437 -0.005283832 0.0072869575 -0.013414304 0.010621418 -0.022224788

naim.encoder.1.ff.0.weight f4 [1000, 6]
00000000: 47b1 8e3d 43eb 13bd 2f75 a53d 044e a23b
00000010: 814c 9dbc 15e0 bbbd 333f 983b 5560 cfbb
00000020: 1955 553c 564b 863c 3a45 22bd d797 d13b
00000030: 8cf4 f6b9 4364 a4bd c328 55bb 5ebb 543b
00000040: 16de 34bd 5089 b73d 1675 e83c 28f1 a53c
00000050: bea3 b4bd b6a4 8fbd c2c4 153c c1e1 e13c
00000060: 819d 8fbd 4839 cb3d 99eb 80ba 6567 6fbd
00000070: 15c9 2fbd d558 89bb b3e2 3c3c cc71 03bd
00000080: 8da5 393d 19d8 e43d a35c ba3d 3a3a 833b
00000090: f8bb aeba 1080 51bb 3ded 223d 80ff 6c3b
000000a0: ca4f 4bbb 72ec e73d 44d2 d9bd f633 85ba
000000b0: 8730 99bb 2433 773b 07e1 0fbb 1f42 3a3a
000000c0: 54d4 d23d cff8 b53b 3f3c 06bd 0889 d73d
000000d0: a4e9 30bb 1744 4a38 94e1 79bb d026 2fbd
000000e0: b927 353c 629c 91bc fd48 a5bd 0246 933d
000000f0: ef47 a33c 6fac 93ba 89f3 0fbd f519 a63d
00000100: d423 0c3b d178 efbc 8ee0 91bd cc28 95bb
00000110: dafc 06bc 2191 00bc e2c0 273a 2078 d3bd
00000120: b91d 143c 1fbe f63b abed a3bd b8e8 643d
00000130: 338b 9fb9 2ce1 983b 782e d53d 1410 cc3c
00000140: dbb2 0d3d c80a 51bb 006e 493b a561 97bd
00000150: 1e76 25bd bbb6 733d 8659 aebd b32a a03b
00000160: 9811 83bc 07f6 8f3d 01d9 2f3d 77a7 1f3b
00000170: 3b4d 88bb b682 05bd b0a1 bb3d 20f0 cabc
00000180: 794a e63b 68b5 103d 3fad cfbd 4c1b d0bd
00000190: 9a27 0cbd 6111 87bb f1f4 ca3c 2212 f5b8
000001a0: 9d2d ccba a128 dd3c ed24 5e3d 9e84 1d3c
000001b0: 4bd6 9a3d 4570 a3bd 7d6c a8bd 8a0c 523b
000001c0: 81bb 86bd e9ed 98bb 5a1f c13c 65ae d03d
000001d0: aa2c 853a 662d 9bbd 1a52 aebb b1db cc3d
000001e0: c955 7cb9 5119 b5bd 1691 05bc 7ea9 a3bc
000001f0: 6139 96b9 8362 18bd a294 fb3a c987 b23d
00000200: 8d8a a5ba bce1 f7b9 04af 573c 856b bcbd
00000210: 7096 a6bc 8dae 1e3b d6a2 8c3d 95fb dfbb
00000220: 7052 1a3c b524 8fbc 1f93 583c 9346 c6bb
00000230: 91aa 3cbb 4fca dcbb 7ddd c93b 5a86 eb3d
00000240: dbc0 47bd 2c7b 6a3a 1e3f 943b 617f 75bc
00000250: 56cf 18bd 5d95 d9bb 35d6 89bd 915d 523d
00000260: 3020 27bd 0e91 ca3c 3a15 863d 0276 dfbb
00000270: 6503 be3d 4ab0 1a3d 5e43 03bd 83b0 2e3c
00000280: 3e81 793a bd07 5c3d 27f3 82bd 87ce 783d
00000290: 3759 babb ef59 b83c 3d1b 63bc b288 243d
000002a0: a107 023c edaf 843d da01 523b f821 aa3c
000002b0: 4ea4 ddbc 4cd0 a1bd cf37 943a 6f6c 203c
000002c0: b5c4 103a d2cd 613a 8147 ec3c 7b1f 01bc
000002d0: 938e ed3c 6939 4b3c 2911 27bc 4895 dabc
000002e0: 8dfa ddbd 9bf9 393d 7ecd 703c 7610 f8bb
000002f0: 03c6 31bd 705e 2abd 0cd3 743d 02c4 3f3d
00000300: 9aaf 983c 8f10 823d eea4 803d 318a c33c
00000310: bf5a 413d 8011 08bb d144 f33b f28f 8ebd
00000320: 135f cabb 8405 31ba 6f1a e93b 352b d53d
00000330: 54e3 6f3d 5184 883b a4e7 b93d b1c5 f8bb
00000340: 0685 303b b083 6abd e34e 98bd d36c 213c
00000350: 0c70 043c 4c8d 0fba b75a ecbc 8433 403d
00000360: 0b47 b0bb f0eb f43c 6232 fdbc 5a39 593d
00000370: 2ef6 903b 0996 1dbb 2951 3c3b fbf6 65bd
00000380: d68c 783a db9c 983b 428e 2dbd a12e 2d3c
00000390: 9ccd c13d c229 6e3c 723f 67bc c63e a1bc
000003a0: 943b 6cbd d4e7 9abc 6bdc a73c 4ec9 2d3b
000003b0: 95d9 8137 b262 fbba 5713 7e3b 7a84 febb
000003c0: f9cc e4bd 1f9c 8a3d c635 12ba 8ff0 8cbd
000003d0: 9b98 d3ba 076f adbb 6e7e b73c dfa7 49bc
000003e0: 19b5 b7bb f057 46bd 736a 45bd b85e 27bd
000003f0: ae25 b7bc 08ba c03c f928 acbd 7864 b9ba
0.06967407 -0.036113035 0.080789916 0.004953148 -0.019201519 -0.091736 0.004646206 -0.0063286223
0.013020777 0.016393345 -0.0396168 0.0063962745 -0.00047102978 -0.08026936 -0.0032525517 0.0032460312
-0.04415711 0.08961737 0.028376143 0.020256594 -0.08820294 -0.07013838 0.009141149 0.027573468
-0.07012463 0.09923035 -0.0009835839 -0.058448214 -0.042916376 -0.004191498 0.011528659 -0.032090947
0.045323897 0.1117403 0.090997 0.004004744 -0.0013331166 -0.00319672 0.03977703 0.0036163032
-0.00310229 0.11324395 -0.10635808 -0.001016258 -0.0046749744 0.0037719691 -0.0021954195 0.000710519
0.102944046 0.005553342 -0.0327723 0.105241835 -0.002699473 4.8223967e-05 -0.003812884 -0.042761624
0.011056834 -0.017774764 -0.08070562 0.07191087 0.019931762 -0.0011266599 -0.035144363 0.0811042
0.002138366 -0.029232414 -0.071229085 -0.0045519825 -0.008238995 -0.007847101 0.0006399286 -0.103256464
0.00904029 0.0075299884 -0.08004316 0.055886 -0.00030430555 0.0046655145 0.10409254 0.02491001
0.034594398 -0.0031897295 0.003073573 -0.07391671 -0.04039585 0.059500437 -0.08513169 0.0048879026
-0.0159996 0.07029348 0.04293156 0.0024361291 -0.004159597 -0.03259536 0.09161699 -0.024772704
0.007027921 0.035329252 -0.10140466 -0.101614565 -0.034217454 -0.004121945 0.024775 -0.00011685888
-0.0015577559 0.026996912 0.054234434 0.009614138 0.075604044 -0.07980398 -0.082238175 0.003205093
-0.06578732 -0.004667033 0.02357452 0.10189513 0.0010160406 -0.075770184 -0.005319846 0.1000284
-0.0002406455 -0.08842719 -0.008152267 -0.019978281 -0.0002865298 -0.037203323 0.0019194076 0.08717305
-0.0012629792 -0.00047279696 0.013164286 -0.09200195 -0.020335406 0.0024212927 0.06866996 -0.006835411
0.009419069 -0.017473558 0.01321867 -0.0060508936 -0.002878819 -0.0067379843 0.0061604367 0.11500235
-0.048767906 0.00089447456 0.0045241257 -0.014983983 -0.037307106 -0.00664012 -0.0673031 0.051358763
-0.04080218 0.02472737 0.065470174 -0.0068194875 0.09277991 0.03776578 -0.03204667 0.010662201
0.0009517855 0.053718317 -0.06394034 0.060743835 -0.005686905 0.022503821 -0.013861475 0.040169425
0.007936389 0.06478868 0.003204456 0.02076815 -0.027055886 -0.079010576 0.0011308136 0.009791478
0.00055224757 0.00086137385 0.02884269 -0.007881041 0.028998649 0.012403824 -0.010196962 -0.026682511
-0.108388044 0.045404058 0.014697431 -0.0075703217 -0.04340173 -0.04159397 0.059771582 0.046817787
0.01863842 0.063508146 0.06281458 0.023869606 0.047205683 -0.0020762384 0.007423975 -0.06961049
-0.0061758845 -0.0006752836 0.007113747 0.10408632 0.058566406 0.004166164 0.09077385 -0.007591926
0.0026934757 -0.057254493 -0.074369214 0.009852606 0.008083355 -0.0005476072 -0.02885185 0.04692413
-0.0053795627 0.02989766 -0.030907813 0.05303321 0.004423878 -0.0024045727 0.0028734899 -0.056143742
0.00094814354 0.0046573705 -0.042371996 0.010570199 0.09463045 0.014536323 -0.014114248 -0.019683253
-0.057674006 -0.018909372 0.020490846 0.0026517692 1.5479318e-05 -0.0019179194 0.0038768852 -0.0077672573
-0.11171908 0.06768059 -0.0005577471 -0.068818204 -0.0016143502 -0.0052927765 0.022399154 -0.01230809
-0.0056063053 -0.048423707 -0.04819722 -0.040861815 -0.022356834 0.023526207 -0.084062524 -0.0014144322
