outputs/2025-03-23/17-26-00/outputs/model_epoch_0.pt (torch, 263130 bytes, 116 tensors)

naim.embeddings.0.embeddings.weight f4 [2, 6]
000000 1f af be 3e 49 81 13 bf 14 ad a9 be c2 28 a6 3e
       0.37242982 -0.5761915 -0.3313986 0.3245297
000010 83 f6 e3 3e 08 0c 91 3e 00 00 00 00 00 00 00 00
       0.4452401 0.28329492 0.0 0.0
000020 00 00 00 00 00 00 00 00 00 00 00 00 00 00 00 00
       0.0 0.0 0.0 0.0

naim.embeddings.1.embeddings.weight f4 [2, 6]
000000 0b bf 5e 3d 73 c5 b0 bd 94 ea 19 be 0d de c8 3e
       0.05438141 -0.086314104 -0.1503089 0.3923191
000010 f9 69 44 3e 0c e2 b5 bd 00 00 00 00 00 00 00 00
       0.1918105 -0.08881006 0.0 0.0
000020 00 00 00 00 00 00 00 00 00 00 00 00 00 00 00 00
       0.0 0.0 0.0 0.0

naim.embeddings.2.embeddings.weight f4 [2, 6]
000000 ef 3a 25 3f 10 74 3b 3d b0 dd 1c bc 12 f3 12 3f
       0.6454305 0.045764983 -0.009574339 0.57402146
000010 39 54 89 be 20 9b b2 3e 00 00 00 00 00 00 00 00
       -0.2682207 0.34883976 0.0 0.0
000020 00 00 00 00 00 00 00 00 00 00 00 00 00 00 00 00
       0.0 0.0 0.0 0.0

naim.embeddings.3.embeddings.weight f4 [2, 6]
000000 6d 84 27 3f 6b bd 08 bf d9 74 52 3d a6 e4 f8 3e
       0.6543644 -0.5341403 0.051380966 0.48611945
000010 b4 04 0d 3e fe 24 7e 3c 00 00 00 00 00 00 00 00
       0.13771325 0.015511749 0.0 0.0
000020 00 00 00 00 00 00 00 00 00 00 00 00 00 00 00 00
       0.0 0.0 0.0 0.0

naim.embeddings.4.embeddings.weight f4 [2, 6]
000000 b2 b2 04 bf 48 dc 90 be 2a 93 62 be 2e 83 0f 3e
       -0.5183517 -0.2829306 -0.22126451 0.14014885
000010 2b e4 cc 3d 2c 2a 2d 3c 00 00 00 00 00 00 00 00
       0.10004457 0.010569137 0.0 0.0
000020 00 00 00 00 00 00 00 00 00 00 00 00 00 00 00 00
       0.0 0.0 0.0 0.0

naim.embeddings.5.embeddings.weight f4 [2, 6]
000000 4a 58 b0 be a1 a6 01 3d 4d 9f 23 3f 06 19 b4 3e
       -0.3444236 0.03165305 0.6391495 0.3517534
000010 eb 18 11 bf e9 03 83 3d 00 00 00 00 00 00 00 00
       -0.56678647 0.0639723 0.0 0.0
000020 00 00 00 00 00 00 00 00 00 00 00 00 00 00 00 00
       0.0 0.0 0.0 0.0

naim.embeddings.6.embeddings.weight f4 [2, 6]
000000 32 cc 07 bf b0 64 e2 bd 01 e5 f4 bd af f2 86 be
       -0.5304595 -0.11054361 -0.119577415 -0.26357028
000010 3e 77 18 3e eb 01 42 3f 00 00 00 00 00 00 00 00
       0.14889237 0.75784177 0.0 0.0
000020 00 00 00 00 00 00 00 00 00 00 00 00 00 00 00 00
       0.0 0.0 0.0 0.0

naim.embeddings.7.embeddings.weight f4 [2, 6]
000000 a9 03 cc be 19 7e ee bb 18 92 c6 3d 3c 37 32 bf
       -0.39846542 -0.0072782156 0.09695834 -0.6961553
000010 f6 06 58 bd 7a b7 12 3f 00 00 00 00 00 00 00 00
       -0.052741013 0.57311213 0.0 0.0
000020 00 00 00 00 00 00 00 00 00 00 00 00 00 00 00 00
       0.0 0.0 0.0 0.0

naim.embeddings.8.embeddings.weight f4 [2, 6]
000000 84 39 23 3f 69 19 06 be e6 7a 83 3e ce 5d 1e bf
       0.63759637 -0.1309563 0.25679702 -0.61861885
000010 88 61 58 be d3 de 70 3e 00 00 00 00 00 00 00 00
       -0.21130955 0.235225 0.0 0.0
000020 00 00 00 00 00 00 00 00 00 00 00 00 00 00 00 00
       0.0 0.0 0.0 0.0

naim.embeddings.9.embeddings.weight f4 [2, 6]
000000 34 e2 e6 3e 3c f6 8c be c4 87 65 3d 39 af cf be
       0.45094454 -0.27531612 0.05603768 -0.40563372
000010 06 70 1c bf 82 7f e6 3a 00 00 00 00 00 00 00 00
       -0.61108434 0.0017585608 0.0 0.0
000020 00 00 00 00 00 00 00 00 00 00 00 00 00 00 00 00
       0.0 0.0 0.0 0.0

naim.embeddings.10.embeddings.weight f4 [2, 6]
000000 35 3b b9 3d 32 8b bd 3d 3c 21 89 3e a8 7a 83 3e
       0.09044496 0.09255065 0.26783168 0.25679517
000010 f8 ac a2 3c 93 72 e6 3e 00 00 00 00 00 00 00 00
       0.019857869 0.45009288 0.0 0.0
000020 00 00 00 00 00 00 00 00 00 00 00 00 00 00 00 00
       0.0 0.0 0.0 0.0

naim.embeddings.11.embeddings.weight f4 [2, 6]
000000 31 ce 34 3e 29 0e ec bd ef cf fa be 55 ce 04 bf
       0.17656781 -0.11526138 -0.48986766 -0.5187734
000010 3e 58 0d bd 3e 70 8c be 00 00 00 00 00 00 00 00
       -0.034507982 -0.27429384 0.0 0.0
000020 00 00 00 00 00 00 00 00 00 00 00 00 00 00 00 00
       0.0 0.0 0.0 0.0

naim.embeddings.12.embeddings.weight f4 [2, 6]
000000 9d 03 1d 3e ea 47 6a be 15 bc b0 3d d4 0d e3 3e
       0.1533341 -0.22878996 0.08629624 0.44346488
000010 5b ba f9 3e 63 02 da 3d 00 00 00 00 00 00 00 00
       0.4877499 0.106449865 0.0 0.0
000020 00 00 00 00 00 00 00 00 00 00 00 00 00 00 00 00
       0.0 0.0 0.0 0.0

naim.embeddings.13.embeddings.weight f4 [2, 6]
000000 e5 82 84 be 0e 71 d8 bd a9 fd 95 be c4 f6 2b 3f
       -0.25881115 -0.105684385 -0.2929509 0.6717341
000010 75 51 4f be 47 c8 a0 3e 00 00 00 00 00 00 00 00
       -0.20245917 0.314028 0.0 0.0
000020 00 00 00 00 00 00 00 00 00 00 00 00 00 00 00 00
       0.0 0.0 0.0 0.0

naim.embeddings.14.embeddings.weight f4 [2, 6]
000000 78 df 37 3e 52 8b 29 3f a0 9c 1f be 05 02 a7 3d
       0.1795634 0.6622821 -0.15587091 0.08154682
000010 f9 a7 1f 3f 1e 58 a3 3c 00 00 00 00 00 00 00 00
       0.6236568 0.019939478 0.0 0.0
000020 00 00 00 00 00 00 00 00 00 00 00 00 00 00 00 00
       0.0 0.0 0.0 0.0

naim.embeddings.15.embeddings.weight f4 [2, 6]
000000 0e 39 20 bf 73 ad b5 3e c6 04 b0 3d 36 39 99 be
       -0.6258706 0.35483894 0.085946605 -0.2992646
000010 87 11 4f be 5a 66 0e 3f 00 00 00 00 00 00 00 00
       -0.2022153 0.55624926 0.0 0.0
000020 00 00 00 00 00 00 00 00 00 00 00 00 00 00 00 00
       0.0 0.0 0.0 0.0

naim.embeddings.16.embeddings.weight f4 [2, 6]
000000 d0 ed 05 3f a5 ff d2 3d 4c 8f 88 3d cf b7 ac be
       0.52316 0.103026666 0.06667957 -0.33733985
000010 2e dd 0d 3e 53 b3 cf 3e 00 00 00 00 00 00 00 00
       0.13853905 0.405665 0.0 0.0
000020 00 00 00 00 00 00 00 00 00 00 00 00 00 00 00 00
       0.0 0.0 0.0 0.0

naim.embeddings.17.embeddings.weight f4 [2, 6]
000000 7b 63 f8 3d 66 6d 38 3e 4c 3e 06 3e 6a b0 02 bf
       0.121283494 0.18010482 0.13109702 -0.51050436
000010 ab 96 a3 3e 9f 78 97 be 00 00 00 00 00 00 00 00
       0.31950888 -0.29584214 0.0 0.0
000020 00 00 00 00 00 00 00 00 00 00 00 00 00 00 00 00
       0.0 0.0 0.0 0.0

naim.embeddings.18.embeddings.weight f4 [2, 6]
000000 c6 fa 0f bf 13 2e fc be 0d 8b 9c be c2 65 0f 3f
       -0.56242025 -0.49253902 -0.30574837 0.56014645
000010 a6 33 01 bd 4f 52 d2 bc 00 00 00 00 00 00 00 00
       -0.031543396 -0.025674013 0.0 0.0
000020 00 00 00 00 00 00 00 00 00 00 00 00 00 00 00 00
       0.0 0.0 0.0 0.0

naim.embeddings.19.embeddings.weight f4 [2, 6]
000000 6a f5 0b 3f a1 ee 8c be 6b 42 8d 3e be 2a 61 be
       0.5467135 -0.2752581 0.27589735 -0.21988961
000010 c6 62 f3 bd 37 86 ba 3d 00 00 00 00 00 00 00 00
       -0.11884074 0.09107631 0.0 0.0
000020 00 00 00 00 00 00 00 00 00 00 00 00 00 00 00 00
       0.0 0.0 0.0 0.0

naim.embeddings.20.embeddings.weight f4 [2, 6]
000000 3d 5d 91 3e 9a bd 16 3e 10 50 ac be 7f c3 fa be
       0.28391448 0.14720765 -0.33654833 -0.48977277
000010 c2 47 08 be cc d5 79 3e 00 00 00 00 00 00 00 00
       -0.13308623 0.24397963 0.0 0.0
000020 00 00 00 00 00 00 00 00 00 00 00 00 00 00 00 00
       0.0 0.0 0.0 0.0

naim.embeddings.21.embeddings.weight f4 [2, 6]
000000 d1 73 83 3d 98 f7 d9 bb dc 5f 06 3e 6a 96 31 bd
       0.064185746 -0.00665183 0.13122505 -0.043356337
000010 b9 21 bc 3c df 99 11 be 00 00 00 00 00 00 00 00
       0.022965299 -0.14218853 0.0 0.0
000020 00 00 00 00 00 00 00 00 00 00 00 00 00 00 00 00
       0.0 0.0 0.0 0.0

naim.embeddings.22.embeddings.weight f4 [2, 6]
000000 00 01 b4 3e 84 09 85 be d2 dd 1f bd 7e 1f 14 3f
       0.35157013 -0.25983822 -0.039029904 0.57860553
000010 64 cf de 3e 9e 0c 56 be 00 00 00 00 00 00 00 00
       0.435176 -0.2090325 0.0 0.0
000020 00 00 00 00 00 00 00 00 00 00 00 00 00 00 00 00
       0.0 0.0 0.0 0.0

naim.embeddings.23.embeddings.weight f4 [2, 6]
000000 14 d8 60 3e 12 c4 95 3b d4 90 bf be a1 64 59 3f
       0.21957427 0.0045704925 -0.37415183 0.8491917
000010 99 c8 66 bd f1 17 88 be 00 00 00 00 00 00 00 00
       -0.05634365 -0.26580766 0.0 0.0
000020 00 00 00 00 00 00 00 00 00 00 00 00 00 00 00 00
       0.0 0.0 0.0 0.0

naim.embeddings.24.embeddings.weight f4 [2, 6]
000000 a7 aa 71 3c 56 9c 2d 3e d2 1c 41 be c0 8b d2 3e
       0.014750159 0.16954169 -0.1885865 0.41122246
000010 0c a1 5c bf 2d 0f 69 3d 00 00 00 00 00 00 00 00
       -0.8618324 0.05689924 0.0 0.0
000020 00 00 00 00 00 00 00 00 00 00 00 00 00 00 00 00
       0.0 0.0 0.0 0.0

naim.embeddings.25.embeddings.weight f4 [2, 6]
000000 06 e6 be 3e 90 08 10 be f6 90 42 3f 7b 1c f7 3e
       0.3728487 -0.14065766 0.7600244 0.48263916
000010 16 ab ca 3d ce dc 59 3d 00 00 00 00 00 00 00 00
       0.09895913 0.05318909 0.0 0.0
000020 00 00 00 00 00 00 00 00 00 00 00 00 00 00 00 00
       0.0 0.0 0.0 0.0

naim.embeddings.26.embeddings.weight f4 [2, 6]
000000 fb c9 27 3e 85 c6 00 bf 40 f2 01 bf 16 e8 a4 3e
       0.16385643 -0.50302917 -0.5076027 0.32208318
000010 bf 0e e0 3e 87 b8 af 3e 00 00 00 00 00 00 00 00
       0.4376125 0.3432047 0.0 0.0
000020 00 00 00 00 00 00 00 00 00 00 00 00 00 00 00 00
       0.0 0.0 0.0 0.0

naim.embeddings.27.embeddings.weight f4 [2, 6]
000000 f6 5c ac bd e4 0d c3 3e ce 32 0a bf 6d 62 0f bf
       -0.084161684 0.38096535 -0.5398377 -0.5600956
000010 44 35 fa bd 2f 6a 1e 3d 00 00 00 00 00 00 00 00
       -0.12217191 0.038675483 0.0 0.0
000020 00 00 00 00 00 00 00 00 00 00 00 00 00 00 00 00
       0.0 0.0 0.0 0.0

naim.embeddings.28.embeddings.weight f4 [2, 6]
000000 89 3b 4a be 98 4c 68 3e ac cd 56 be 99 91 b1 be
       -0.19749273 0.22685468 -0.20976895 -0.34681395
000010 b7 65 0f 3e ac ee 99 bd 00 00 00 00 00 00 00 00
       0.14003645 -0.07516226 0.0 0.0
000020 00 00 00 00 00 00 00 00 00 00 00 00 00 00 00 00
       0.0 0.0 0.0 0.0

naim.embeddings.29.embeddings.weight f4 [2, 6]
000000 3a a3 0e bf 29 f3 14 bc dc 2a 2b 3f 60 3b 66 be
       -0.55717814 -0.009091177 0.66862273 -0.22483587
000010 d2 6b ba 3d be 8f bc be 00 00 00 00 00 00 00 00
       0.09102596 -0.36828417 0.0 0.0
000020 00 00 00 00 00 00 00 00 00 00 00 00 00 00 00 00
       0.0 0.0 0.0 0.0

naim.embeddings.30.embeddings.weight f4 [2, 6]
000000 cf fb 08 be 70 94 89 3e 0c 91 b4 3e 89 ba a4 be
       -0.13377307 0.2687106 0.35266912 -0.32173565
000010 0b f1 64 bd 67 41 ca be 00 00 00 00 00 00 00 00
       -0.05589394 -0.39503023 0.0 0.0
000020 00 00 00 00 00 00 00 00 00 00 00 00 00 00 00 00
       0.0 0.0 0.0 0.0

naim.embeddings.31.embeddings.weight f4 [2, 6]
000000 c1 cc d3 3e 4b 1d 87 be 6d 54 29 bd 9b 53 f8 bd
       0.41367152 -0.26389536 -0.04134028 -0.121253215
000010 df 24 8e be cf 52 9a be 00 00 00 00 00 00 00 00
       -0.27762505 -0.30141303 0.0 0.0
000020 00 00 00 00 00 00 00 00 00 00 00 00 00 00 00 00
       0.0 0.0 0.0 0.0

naim.embeddings.32.embeddings.weight f4 [2, 6]
000000 22 ac b4 3d 12 5d af 3e 85 38 ae be 12 1c 48 bf
       0.08821894 0.34250695 -0.34027496 -0.7816783
000010 80 ee 95 3e 99 30 35 be 00 00 00 00 00 00 00 00
       0.29283524 -0.1769432 0.0 0.0
000020 00 00 00 00 00 00 00 00 00 00 00 00 00 00 00 00
       0.0 0.0 0.0 0.0

naim.embeddings.33.embeddings.weight f4 [2, 6]
000000 bb 63 47 be 59 ad 35 be b2 22 d1 be c7 39 75 be
       -0.19471638 -0.17741908 -0.40846783 -0.23947822
000010 47 3e ac be 51 45 3d 3f 00 00 00 00 00 00 00 00
       -0.33641264 0.73933893 0.0 0.0
000020 00 00 00 00 00 00 00 00 00 00 00 00 00 00 00 00
       0.0 0.0 0.0 0.0

naim.embeddings.34.embeddings.weight f4 [2, 6]
000000 96 d1 3d be c2 0a 02 3e 15 5c 09 3f a0 3f eb bc
       -0.18536982 0.12699416 0.5365613 -0.028716862
000010 ab 53 95 be e6 bb 3c 3d 00 00 00 00 00 00 00 00
       -0.29165396 0.04607763 0.0 0.0
000020 00 00 00 00 00 00 00 00 00 00 00 00 00 00 00 00
       0.0 0.0 0.0 0.0

naim.embeddings.35.embeddings.weight f4 [2, 6]
000000 3f 7d 56 3e fe b5 38 be 93 06 ae 3e b0 5e b0 3e
       0.20946215 -0.18038175 0.3398939 0.3444724
000010 7c bb da 3e fb 19 11 bf 00 00 00 00 00 00 00 00
       0.42721164 -0.5668027 0.0 0.0
000020 00 00 00 00 00 00 00 00 00 00 00 00 00 00 00 00
       0.0 0.0 0.0 0.0

naim.embeddings.36.embeddings.weight f4 [2, 6]
000000 25 b9 2e be 6b 2c dd 3e 0c 18 0a bf 05 78 ae 3c
       -0.17062815 0.4319795 -0.5394294 0.021297464
000010 c6 c2 12 3c 75 0d db 3d 00 00 00 00 00 00 00 00
       0.00895757 0.10695926 0.0 0.0
000020 00 00 00 00 00 00 00 00 00 00 00 00 00 00 00 00
       0.0 0.0 0.0 0.0

naim.embeddings.37.embeddings.weight f4 [2, 6]
000000 eb 70 fd bb 9e 3a b8 be 7c ad 07 be d9 4d ad bd
       -0.007734408 -0.3598222 -0.13249773 -0.08462114
000010 65 bb 7a 3e 67 bb 04 3e 00 00 00 00 00 00 00 00
       0.24485548 0.12962113 0.0 0.0
000020 00 00 00 00 00 00 00 00 00 00 00 00 00 00 00 00
       0.0 0.0 0.0 0.0

naim.embeddings.38.embeddings.weight f4 [2, 6]
000000 c6 e2 10 3d 93 35 6c bd cd bb 4c bc 1e d0 a1 3e
       0.035372518 -0.05766828 -0.012495947 0.31604093
000010 da 4d 19 be f2 cf 36 3e 00 00 00 00 00 00 00 00
       -0.14971104 0.17852762 0.0 0.0
000020 00 00 00 00 00 00 00 00 00 00 00 00 00 00 00 00
       0.0 0.0 0.0 0.0

naim.embeddings.39.embeddings.weight f4 [2, 6]
000000 27 b4 47 bd e1 76 9a be 07 f3 06 3f b8 ad 26 bf
       -0.04875579 -0.30168822 0.5271458 -0.65108824
000010 6a a1 61 3e 29 7b b5 3e 00 00 00 00 00 00 00 00
       0.22034231 0.35445526 0.0 0.0
000020 00 00 00 00 00 00 00 00 00 00 00 00 00 00 00 00
       0.0 0.0 0.0 0.0

naim.embeddings.40.embeddings.weight f4 [2, 6]
000000 3e 36 c0 bd da 2b 83 3e 54 15 04 3e 80 c2 20 be
       -0.09385346 0.25619394 0.12898761 -0.15699196
000010 6f e8 90 bd e3 e3 af be 00 00 00 00 00 00 00 00
       -0.07075583 -0.3435355 0.0 0.0
000020 00 00 00 00 00 00 00 00 00 00 00 00 00 00 00 00
       0.0 0.0 0.0 0.0

naim.embeddings.41.embeddings.weight f4 [2, 6]
000000 61 7c 0d be 22 e1 5f be 97 6e b4 3e 66 fb 53 3e
       -0.13816978 -0.21863225 0.35240623 0.2070137
000010 9f 47 d6 3e 1e 2c 19 3f 00 00 00 00 00 00 00 00
       0.41851518 0.5983294 0.0 0.0
000020 00 00 00 00 00 00 00 00 00 00 00 00 00 00 00 00
       0.0 0.0 0.0 0.0

naim.embeddings.42.embeddings.weight f4 [2, 6]
000000 5a 27 a8 be ef 60 40 3f 2b 1c 80 3e a6 47 d8 3e
       -0.32842523 0.7514791 0.2502149 0.42242163
000010 ff e2 ee 3d cd db 20 be 00 00 00 00 00 00 00 00
       0.1166439 -0.15708847 0.0 0.0
000020 00 00 00 00 00 00 00 00 00 00 00 00 00 00 00 00
       0.0 0.0 0.0 0.0

naim.embeddings.43.embeddings.weight f4 [2, 6]
000000 cc 37 81 be e1 4d c0 3c 10 fc 2f 3f 65 b3 00 3f
       -0.25237882 0.023474636 0.6874399 0.50273734
000010 f1 f1 c7 3e 45 9f ad bd 00 00 00 00 00 00 00 00
       0.39051774 -0.08477644 0.0 0.0
000020 00 00 00 00 00 00 00 00 00 00 00 00 00 00 00 00
       0.0 0.0 0.0 0.0

naim.embeddings.44.embeddings.weight f4 [2, 6]
000000 b6 a6 d2 bc 22 11 a0 3e c5 39 61 3e 2d 72 b8 be
       -0.02571426 0.3126307 0.21994694 -0.3602461
000010 53 60 12 3e e7 6d 08 3f 00 00 00 00 00 00 00 00
       0.14294557 0.532927 0.0 0.0
000020 00 00 00 00 00 00 00 00 00 00 00 00 00 00 00 00
       0.0 0.0 0.0 0.0

naim.embeddings.45.embeddings.weight f4 [2, 6]
000000 cd bc f3 be 53 83 1d bf 1f 67 8b be 86 1a 2a 3e
       -0.4760498 -0.6152851 -0.27227113 0.1661168
000010 78 53 f8 be f3 b5 29 be 00 00 00 00 00 00 00 00
       -0.48501182 -0.16573314 0.0 0.0
000020 00 00 00 00 00 00 00 00 00 00 00 00 00 00 00 00
       0.0 0.0 0.0 0.0

naim.embeddings.46.embeddings.weight f4 [2, 6]
000000 4d 20 98 bd 33 ce a6 3d 37 85 93 3e a9 1c cb bd
       -0.07428036 0.08144798 0.28812572 -0.09917576
000010 ad d7 10 3e d8 54 56 3e 00 00 00 00 00 00 00 00
       0.14144774 0.20930803 0.0 0.0
000020 00 00 00 00 00 00 00 00 00 00 00 00 00 00 00 00
       0.0 0.0 0.0 0.0

naim.embeddings.47.embeddings.weight f4 [2, 6]
000000 f9 3b a8 3e b8 fe fa bd 4d df fe be 47 04 84 be
       0.32858256 -0.12255615 -0.4977974 -0.25784513
000010 6f 04 99 3e 37 07 9f be 00 00 00 00 00 00 00 00
       0.29886195 -0.31060192 0.0 0.0
000020 00 00 00 00 00 00 00 00 00 00 00 00 00 00 00 00
       0.0 0.0 0.0 0.0

naim.embeddings.48.embeddings.weight f4 [2, 6]
000000 c2 4b 8b 3c f1 c0 86 3e 76 17 b4 3d c8 72 a9 3e
       0.017003898 0.26319078 0.08793537 0.33095384
000010 94 d0 31 3f a6 80 bd 3e 00 00 00 00 00 00 00 00
       0.6945889 0.37012213 0.0 0.0
000020 00 00 00 00 00 00 00 00 00 00 00 00 00 00 00 00
       0.0 0.0 0.0 0.0

naim.embeddings.49.embeddings.weight f4 [2, 6]
000000 e9 1c 84 be 85 bf 87 3e cd a4 98 3e 2b 7d 03 be
       -0.25803307 0.26513305 0.29813233 -0.12840717
000010 a9 2b c8 be f9 ad d6 3e 00 00 00 00 00 00 00 00
       -0.3909581 0.41929606 0.0 0.0
000020 00 00 00 00 00 00 00 00 00 00 00 00 00 00 00 00
       0.0 0.0 0.0 0.0

naim.embeddings.50.embeddings.weight f4 [2, 6]
000000 4e 5e 0d 3f fd bd d1 3e db 56 e9 bd f9 5d 39 be
       0.5522202 0.40965262 -0.113935195 -0.18102254
000010 18 4b 01 be 69 77 15 bf 00 00 00 00 00 00 00 00
       -0.12626302 -0.5838533 0.0 0.0
000020 00 00 00 00 00 00 00 00 00 00 00 00 00 00 00 00
       0.0 0.0 0.0 0.0

naim.embeddings.51.embeddings.weight f4 [2, 6]
000000 b4 90 6b 3d c4 0a 36 3e 6b 89 10 3f 55 5e 2d bf
       0.057511047 0.17777544 0.56459683 -0.67722064
000010 97 47 c0 3e 80 be 16 be 00 00 00 00 00 00 00 00
       0.3755462 -0.14721107 0.0 0.0
000020 00 00 00 00 00 00 00 00 00 00 00 00 00 00 00 00
       0.0 0.0 0.0 0.0

naim.embeddings.52.embeddings.weight f4 [2, 6]
000000 5e 2d a8 3e 34 80 7c be fc 23 79 be c6 0f 66 be
       0.32847112 -0.2465828 -0.24330133 -0.22466955
000010 15 86 f4 3d 0d a1 bf be 00 00 00 00 00 00 00 00
       0.119396366 -0.3742756 0.0 0.0
000020 00 00 00 00 00 00 00 00 00 00 00 00 00 00 00 00
       0.0 0.0 0.0 0.0

naim.embeddings.53.embeddings.weight f4 [2, 6]
000000 83 60 85 be 06 fc 2f be a3 ad 1c 3e e6 b5 54 bd
       -0.26050195 -0.17185983 0.15300612 -0.051931284
000010 4e fc 6a 3f 95 af 07 3b 00 00 00 00 00 00 00 00
       0.91791236 0.002070402 0.0 0.0
000020 00 00 00 00 00 00 00 00 00 00 00 00 00 00 00 00
       0.0 0.0 0.0 0.0

naim.embeddings.54.embeddings.weight f4 [2, 6]
000000 1f 63 4a 3e d3 b5 0b 3f 27 f0 cd 3e 55 71 4e 3e
       0.19764374 0.54574317 0.40222284 0.2016042
000010 8e 7f 21 bf 77 c0 fd 3d 00 00 00 00 00 00 00 00
       -0.6308526 0.123902254 0.0 0.0
000020 00 00 00 00 00 00 00 00 00 00 00 00 00 00 00 00
       0.0 0.0 0.0 0.0

naim.embeddings.55.embeddings.weight f4 [2, 6]
000000 a1 ed a7 3e 11 ab aa be d6 60 13 bf 8a 1b 11 3f
       0.32798484 -0.33333638 -0.57569635 0.56682646
000010 fe 75 c3 bd 20 72 2c be 00 00 00 00 00 00 00 00
       -0.095439896 -0.1684041 0.0 0.0
000020 00 00 00 00 00 00 00 00 00 00 00 00 00 00 00 00
       0.0 0.0 0.0 0.0

naim.embeddings.56.embeddings.weight f4 [2, 6]
000000 7c 65 ca be 67 89 ef be 7d 3b 4f 3e 3d 39 9d bd
       -0.3953055 -0.46784517 0.20237537 -0.07676933
000010 97 cd d9 be 64 c3 5f bd 00 00 00 00 00 00 00 00
       -0.42539665 -0.0546297 0.0 0.0
000020 00 00 00 00 00 00 00 00 00 00 00 00 00 00 00 00
       0.0 0.0 0.0 0.0

naim.embeddings.57.embeddings.weight f4 [2, 6]
000000 b6 d4 e4 3e b8 5e b1 be ab f0 5b be cc f0 90 3e
       0.44693536 -0.34642577 -0.21478526 0.28308713
000010 e8 22 3a 3f 8d e7 94 bc 00 00 00 00 00 00 00 00
       0.7270951 -0.018176818 0.0 0.0
000020 00 00 00 00 00 00 00 00 00 00 00 00 00 00 00 00
       0.0 0.0 0.0 0.0

naim.embeddings.58.embeddings.weight f4 [2, 6]
000000 60 d9 f7 bd 9e e6 a8 3c 52 16 21 3d 4f b0 46 bd
       -0.12102008 0.02061778 0.039327927 -0.048507985
000010 b7 0e ca 3d 0d 01 89 be 00 00 00 00 00 00 00 00
       0.09866088 -0.26758614 0.0 0.0
000020 00 00 00 00 00 00 00 00 00 00 00 00 00 00 00 00
       0.0 0.0 0.0 0.0

naim.embeddings.59.embeddings.weight f4 [2, 6]
000000 8d 77 a3 3e 45 79 33 be 33 8e 88 be fb 1e 35 3f
       0.31927148 -0.1752673 -0.2667099 0.707504
000010 63 a4 90 3e f0 a4 e0 3e 00 00 00 00 00 00 00 00
       0.28250417 0.43875837 0.0 0.0
000020 00 00 00 00 00 00 00 00 00 00 00 00 00 00 00 00
       0.0 0.0 0.0 0.0

naim.embeddings.60.embeddings.weight f4 [2, 6]
000000 42 0f 0b bf 89 88 69 bd a8 22 50 3d dd 58 06 3f
       -0.54320157 -0.057014976 0.0508143 0.52479345
000010 3f dd 8c 3e 00 67 c1 3e 00 00 00 00 00 00 00 00
       0.27512547 0.37773895 0.0 0.0
000020 00 00 00 00 00 00 00 00 00 00 00 00 00 00 00 00
       0.0 0.0 0.0 0.0

naim.embeddings.61.embeddings.weight f4 [2, 6]
000000 de 3a 6d be 5d a6 22 3d 3d 53 0c 3e 1b 1f 8a bd
       -0.23166987 0.039709438 0.13703628 -0.06744214
000010 5e 55 72 3e 86 f2 ff bd 00 00 00 00 00 00 00 00
       0.23665377 -0.124974295 0.0 0.0
000020 00 00 00 00 00 00 00 00 00 00 00 00 00 00 00 00
       0.0 0.0 0.0 0.0

naim.embeddings.62.embeddings.weight f4 [2, 6]
000000 2c 5f 93 3e 78 52 22 3e 84 94 32 bf 32 c3 88 bd
       0.28783548 0.15851772 -0.69757867 -0.066778556
000010 27 47 c4 be 64 63 f1 be 00 00 00 00 00 00 00 00
       -0.38335535 -0.47146142 0.0 0.0
000020 00 00 00 00 00 00 00 00 00 00 00 00 00 00 00 00
       0.0 0.0 0.0 0.0

naim.embeddings.63.embeddings.weight f4 [2, 6]
000000 75 58 42 3f e4 37 a6 3e 3c 25 9e be b7 2c 34 3e
       0.75916225 0.32464516 -0.30887783 0.17595182
000010 e9 dc 61 be 7c 2d 1e be 00 00 00 00 00 00 00 00
       -0.22056927 -0.15447038 0.0 0.0
000020 00 00 00 00 00 00 00 00 00 00 00 00 00 00 00 00
       0.0 0.0 0.0 0.0

naim.encoder.0.layer_norm_1.weight f4 [6]
000000 9f ad 7d 3f 83 af 7c 3f 11 10 7d 3f ce 39 7e 3f
       0.9909305 0.9870531 0.9885264 0.9930695
000010 4c e6 7c 3f 19 ac 7e 3f
       0.98788905 0.9948135

naim.encoder.0.layer_norm_1.bias f4 [6]
000000 16 93 17 bb 95 82 bb 3a 80 ae 87 bb 8f d1 80 3b
       -0.0023128442 0.0014305884 -0.004140675 0.0039312313
000010 9d b4 c6 ba 1c 8e 73 ba
       -0.0015160028 -0.00092908903

naim.encoder.0.attn.linear_q.weight f4 [6, 6]
000000 a7 62 d0 bd b2 70 28 3d 06 d0 ca bd ce 03 c6 be
       -0.101750664 0.0411231 -0.099029586 -0.38674778
000010 f3 1b 06 bd e8 78 42 3e d0 d0 44 bd 21 c8 40 be
       -0.0327415 0.18991435 -0.0480507 -0.18826343
000020 ac 94 16 3c e1 fc 90 3d 2b 5e d0 bd a3 ca 9b be
       0.00919072 0.07079483 -0.10174211 -0.30428037
000030 b9 d9 54 be 95 8c 64 bd 58 0c 0b 3e 0c 3d b3 3e
       -0.2078618 -0.055798132 0.13578928 0.35007513
000040 04 8a 87 3b f9 4a 0b 3e 81 30 64 3e 2d 4c 2a be
       0.004136326 0.13602819 0.22284128 -0.16630621
000050 07 cf fc bd 3c f9 83 3e a7 2d 8f 3e a9 4a af 3d
       -0.12344175 0.25776088 0.27964517 0.08559162
000060 20 0f 9b be 98 ac 60 3e 6f 3a a6 be c4 72 44 3e
       -0.30284977 0.2194084 -0.32466456 0.19184405
000070 79 ec 18 3d 8b 32 f6 3d a4 2a c5 be c7 d5 05 be
       0.037334893 0.12021359 -0.38509095 -0.13069831
000080 64 53 24 3e 53 3b 9a 3e 0b be d4 bd 7b d6 b3 3e
       0.16047436 0.30123386 -0.1038781 0.35124573

naim.encoder.0.attn.linear_k.weight f4 [6, 6]
000000 3f fb b4 bd a9 fd 6e be 85 ff 27 be cc 4b e3 3c
       -0.08836984 -0.23338951 -0.16406067 0.027746104
000010 51 83 88 bd 11 6b 42 3e 9d 2b 5a be db 29 d4 bd
       -0.066656716 0.18986155 -0.213057 -0.10359546
000020 dc 7f c8 be 10 1a a4 3e 7a 87 85 bd 93 1d 9e be
       -0.3916005 0.32051134 -0.06519981 -0.30881938
000030 90 91 95 bc b5 ff 60 bb 7b 51 d4 3d 9a 8c 1c bd
       -0.018257886 -0.00343321 0.10367104 -0.038220026
000040 c7 0a 7a 3e ac 3e 06 be eb 97 e0 bd 45 8f ad bd
       0.24418174 -0.13109845 -0.10966476 -0.08474592
000050 8f 14 7b 3d 76 2e a1 3e 1e ef 50 bc 80 42 9a 3e
       0.061298903 0.3148076 -0.0127523225 0.3012886
000060 be af 9d 3e 0b 86 4c be 52 1b 02 bd 58 7f 39 be
       0.30798143 -0.19973008 -0.031764336 -0.18114984
000070 17 2a 21 3e 99 59 06 be a8 cc e9 3d 34 71 a3 3c
       0.15738712 -0.13120116 0.11415988 0.01995144
000080 4b 2d 84 be 72 d2 87 be 0e b1 c5 be eb cc 5c be
       -0.25815806 -0.26527745 -0.38611645 -0.21562545

naim.encoder.0.attn.linear_v.weight f4 [6, 6]
000000 23 ca e1 3d 05 c4 b8 3c 0c 97 9a 3e 1b c7 b5 be
       0.11024883 0.022554407 0.30193365 -0.35503468
000010 74 c3 bd bb a0 79 b6 be 9b d2 ea 38 f9 79 12 3e
       -0.005791122 -0.35639668 0.00011197218 0.14304341
000020 12 08 bc be 12 00 b9 3e 78 ab f5 bd 8a 80 b9 3e
       -0.36724907 0.36132866 -0.11995596 0.3623088
000030 be 91 73 bd e4 fa 61 3e 56 a1 b9 3e f6 82 11 be
       -0.059465162 0.22068363 0.36255902 -0.14210114
000040 7c fb bd bd f4 75 53 3e 32 fd b2 be 36 db 6b 3e
       -0.092764825 0.20650464 -0.34958798 0.23032841
000050 ff 0e 85 be 76 2f c4 3e c6 50 8a be 1d 65 25 be
       -0.25988004 0.3831746 -0.2701475 -0.16151853
000060 22 b1 9d 3e 28 72 3a be 98 ba ac 3e aa 50 90 3e
       0.30799204 -0.1820761 0.3373611 0.28186542
000070 39 c6 bf 3e 9d f3 cb be cb 71 a9 3a 7f e3 01 be
       0.3745592 -0.398343 0.001292759 -0.12684439
000080 eb c5 bc 3d e6 ec 9b be 46 16 28 3e 3f 0b bc bc
       0.09217437 -0.30454177 0.16414747 -0.022954581

naim.encoder.0.attn.linear_o.weight f4 [6, 6]
000000 30 65 38 be 8e 66 b5 be 8e 6b 4d 3e ea 14 0a be
       -0.1800735 -0.35429806 0.2006056 -0.1348454
000010 b5 98 93 3e 92 d0 75 3d ab c9 e3 3d 86 e4 48 bd
       0.28827444 0.06001336 0.111224495 -0.049046062
000020 70 fa 32 bd b6 c1 00 be f8 58 ae be 66 8a 79 3e
       -0.043695867 -0.12573895 -0.34052253 0.24369201
000030 f3 61 81 be ee 96 77 3e 79 88 08 be 73 dd 84 3e
       -0.25270042 0.24178669 -0.1333331 0.25950202
000040 19 1e b5 3e 77 16 7b be f8 0c ad 3e 4d a9 3f 3c
       0.35374525 -0.24520288 0.33798957 0.011698079
000050 b4 4e 9e be 1e af 2b 3e a7 aa 6d 3e fb 3f b8 3e
       -0.3091942 0.1676602 0.2320963 0.35986313
000060 34 5a c5 be 54 b3 bb 3e 15 70 9e 3e 04 21 cc 3e
       -0.38545382 0.36660254 0.30944887 0.3986894
000070 28 ac 62 3e f2 b4 4a be 00 56 9a 3e 2b c2 ba 3e
       0.22135985 -0.19795588 0.30143738 0.36476263
000080 9d 9b 25 be d7 0e 96 bd 2a 7a 9f 3e c8 c3 a3 3e
       -0.16172643 -0.07327049 0.3114789 0.31985307

naim.encoder.0.layer_norm_2.weight f4 [6]
000000 36 3a 7e 3f d7 f4 7f 3f c9 73 7d 3f b7 12 80 3f
       0.9930757 0.9998297 0.990048 1.0005711
000010 d4 04 80 3f 8e 2f 7e 3f
       1.0001473 0.9929131

naim.encoder.0.layer_norm_2.bias f4 [6]
000000 5d 32 24 bb ab 22 6c bb fe 21 90 3b 0d f6 fe 39
       -0.0025054433 -0.0036031406 0.0043985834 0.00048629977
000010 af 7b 01 bc 7e 6c 0e bb
       -0.007903024 -0.0021732147

naim.encoder.0.ff.0.weight f4 [1000, 6]
000000 80 e3 83 3e 6f 8d 99 3e 1c b9 4a be ee 21 86 bd
       0.25759506 0.29990718 -0.19797176 -0.0654944
000010 b1 ab 1a be 54 43 4c 3e 97 7e c0 3d 09 6b 9c be
       -0.15104558 0.19947559 0.09399145 -0.3055041
000020 eb 14 3d bd 3f d5 a3 be cd 14 be be 5f db b9 3e
       -0.046162527 -0.3199863 -0.37125245 0.3630018
000030 86 18 49 be cc 5c 2e 3e 5a 23 ac bd 77 31 94 bd
       -0.19638261 0.17027587 -0.0840518 -0.07235997
000040 64 3e b4 3b 79 a5 9c 3e 75 70 43 bd 7e 4f a6 3e
       0.0055006016 0.30594996 -0.04771467 0.32482523
000050 61 6d 67 3e bd c4 88 3e 55 eb b6 be 51 5b 36 be
       0.22600318 0.267126 -0.3572642 -0.17808272
000060 cb 01 a6 be ad cc af bd 5c fd a9 bd e9 2e a9 3d
       -0.32423243 -0.08583961 -0.083002776 0.082609005
000070 09 a6 b4 3e 48 96 37 3e c8 af 8b be 0d 05 7b be
       0.35282925 0.17928421 -0.27282548 -0.24513645
000080 67 44 97 3e 0e 0e 00 3d 77 3f d8 3d e3 a7 55 be
       0.29544374 0.031263404 0.1055898 -0.20864825
000090 be 38 2e bd ee 49 e3 3d 8c d7 82 be ea 64 82 3e
       -0.042534582 0.11098085 -0.25555074 0.25467616
0000a0 dc 36 44 3e 17 c8 6d be 0b 52 1e be eb a2 ab bd
       0.19161552 -0.2322086 -0.15460984 -0.083806835
0000b0 d3 49 5e 3d d6 c2 0c be c8 5b c1 3e 3f b4 c2 be
       0.054269623 -0.13746199 0.37765336 -0.38028142
0000c0 27 da 5f be 1c 27 72 be 58 28 cb 3d b4 7e 45 3d
       -0.21860562 -0.23647732 0.09919804 0.048216537
0000d0 39 3e d4 bd f8 9c ac 3e 63 c7 ad be f2 56 06 3e
       -0.103634305 0.33713508 -0.33941182 0.13119105
0000e0 5b ca 58 be 86 a6 a5 bd 56 b8 c2 be 9a 76 95 be
       -0.21170942 -0.080884025 -0.38031262 -0.29192048
0000f0 dd c2 aa be c0 ba 2c 3e 2f 6a 12 be 0e bf 4d 3e
       -0.33351794 0.16868114 -0.14298318 0.20092413
000100 e7 9c 55 be 62 57 bb bd 58 68 27 3d a1 2b a9 3e
       -0.20860635 -0.09147526 0.040870994 0.330411
000110 a7 a7 cd bd b8 26 65 3e 88 b6 cc 3d 2c 65 77 3e
       -0.10041743 0.22378051 0.099957526 0.24159688
000120 c7 85 7b 3e 6e d3 20 3e 6e 39 e6 bd 34 a2 ec bd
       0.24562751 0.15705654 -0.112414226 -0.11554375
000130 ac 20 18 3e a4 1e 59 3e e5 49 93 bc 5b 8c 44 3e
       0.14856213 0.21203095 -0.017979572 0.19194166
000140 01 c2 6e be 28 44 5f 3e 6d 44 2d bd d8 6d 89 be
       -0.23316194 0.21803343 -0.042301584 -0.26841617
000150 95 27 3e be 09 3a 99 be 98 2b 8f 3d 25 a5 6a be
       -0.18569787 -0.2992709 0.06990737 -0.2291456
000160 0a cd d5 bd 8c 04 a1 bc 32 f7 71 be 6f 6f d6 3a
       -0.10439499 -0.019655488 -0.23629454 0.0016360114
000170 79 d2 28 bd c4 d1 ee 3d e3 58 90 3e b0 6a 6f be
       -0.041216347 0.11661103 0.28192815 -0.23380542
000180 4e dd 58 3e a0 dd cc bb 47 26 62 be 4f 9e 30 be
       0.21178171 -0.0062520057 -0.22084914 -0.1724789
000190 a8 47 c2 3d 92 b4 9a 3d f3 52 6a bc af fe 42 be
       0.094863236 0.07553972 -0.014302003 -0.19042467
0001a0 96 c1 45 3e 38 77 6f 3d 3c c6 c4 be b6 38 8e bd
       0.19312128 0.058463305 -0.3843249 -0.069444105
0001b0 53 fe cc bd 85 13 26 be 69 23 5b be a0 23 a3 be
       -0.10009446 -0.16218384 -0.21400227 -0.31863117
0001c0 b2 66 c7 3e 2c 76 b8 be 96 28 bc 3e aa 5d 9f be
       0.38945538 -0.36027658 0.36749715 -0.31126148
0001d0 2e 47 c1 bd 23 69 1f be df 46 53 be d9 23 11 3e
       -0.094374046 -0.1556745 -0.20632504 0.14173831
0001e0 ea 98 69 3e 39 3b 83 be e5 91 35 be b5 08 49 3e
       0.22812238 -0.2563112 -0.17731436 0.19632228
0001f0 62 f7 47 bd ca da b5 3d f5 fe 4d 3e 0b a0 0e be
       -0.048819907 0.08879621 0.2011679 -0.13928239
000200 11 73 5b be 07 d1 0d 3e b8 36 0c be e7 98 84 be
       -0.21430613 0.13849269 -0.13692749 -0.25897905
000210 71 c4 46 be 0f 97 35 be 57 88 c9 3e 27 2a 90 3d
       -0.19410874 -0.17733406 0.39361832 0.0703929
000220 8f 0e 27 3e 11 0c 43 3d 53 3b 86 be 0f 59 90 3e
       0.16314147 0.04761893 -0.26217136 0.28192946
000230 55 4e 74 bd 08 6e ca bd 4a ad a3 3e 3f ed 47 be
       -0.059645016 -0.09884268 0.31968147 -0.19524096
000240 b9 65 9a 3d 80 76 ab be c7 0c 49 3e 82 e1 19 3e
       0.07538933 -0.33488846 0.1963378 0.1502743
000250 40 61 a5 be a7 7b 5e 3e 80 fc 20 3d d3 06 51 be
       -0.32300758 0.21726857 0.039303303 -0.2041276
000260 bc df ab 3e ef 5e 2c 3e fe 15 10 3e 53 29 13 be
       0.33569133 0.1683309 0.1407089 -0.14371233
000270 b0 12 59 be 7f 8d 56 be eb b9 11 3e 7d 5e ca 3d
       -0.21198535 -0.20952414 0.14231078 0.098813035
000280 94 0a 6d be e7 a6 b8 3e 55 ee 66 3e cf aa 14 be
       -0.23148566 0.36064836 0.22551854 -0.14518283
000290 d8 b4 4b 3e 81 7a 24 be 12 45 ef 3d 22 67 a7 3e
       0.19893205 -0.16062357 0.11683096 0.32695872
0002a0 db 33 b2 be ae bf 42 be 9d 71 57 bc fd 93 47 3d
       -0.34805188 -0.19018432 -0.013149646 0.048725117
0002b0 dc 49 a5 be 87 e9 82 be bb b5 05 bd b7 a1 60 bd
       -0.32282913 -0.25568792 -0.032644015 -0.054841723
0002c0 b8 68 a4 3d 18 0a 22 3d da c4 98 3d 03 08 97 3c
       0.08027786 0.039560407 0.074594215 0.018436437
0002d0 7a 2d 44 3d 2c 22 e0 bc 62 09 0d 3e 44 7f 88 3e
       0.047894932 -0.027360044 0.1377311 0.26659596
0002e0 d6 e5 43 be c1 5f 4b be 72 aa 2a 3e 77 7d 90 be
       -0.19130644 -0.19860746 0.16666582 -0.28220722
0002f0 f7 42 81 3e 5c cf 34 3e 46 aa 4c 3d a8 2e 29 be
       0.25246403 0.17657226 0.049967073 -0.16521704
000300 fc 0e bc 3b 01 d2 9e be 63 75 b5 be 13 30 be 3e
       0.005739091 -0.31019595 -0.3544112 0.37146053
000310 5f ee b4 be 66 c9 a6 be bf 87 15 be 9a 13 67 3c
       -0.35338113 -0.3257553 -0.14602564 0.0141037945
000320 c5 85 a6 3d 83 f1 40 be 86 ee 11 bd 4b 63 a4 bd
       0.08130983 -0.1884213 -0.035627864 -0.08026751
000330 b9 6b a8 3e 07 ef ae 3e a1 5f 20 3e ca 55 92 bb
       0.32894686 0.34166738 0.1566148 -0.0044657933
000340 f9 30 96 3e 7f 1f a2 be a2 91 21 3e 63 9e 65 be
       0.29334238 -0.31664655 0.15778211 -0.22423701
000350 38 53 9c 3e 58 30 b2 be e1 10 0e 3e ef 3a a5 be
       0.3053224 -0.34802508 0.13873626 -0.32271525
000360 9f 17 67 3e 24 bd 8b 3d 0b 3b ad 3e 2d 58 97 be
       0.22567604 0.06823185 0.3383411 -0.2955946
000370 8f 1d 80 3e ae e0 84 be 66 ce 54 be 21 fc 14 3e
       0.2502255 -0.25952667 -0.2078186 0.14549305
000380 7e 5c 80 bd df c7 9e be 91 5f ab be 24 cf c1 bd
       -0.062676415 -0.31011865 -0.3347135 -0.09463337
000390 cb cc cc 3d c3 e8 b0 3e 28 30 93 3e 1a 7e 86 3b
       0.09999999 0.34552583 0.28747678 0.004104388
0003a0 ee 7c 73 be 7b b6 b3 be 5c 25 b4 3e cb d7 5b be
       -0.23778126 -0.3510016 0.35184753 -0.21469037
0003b0 d3 dd 76 bd ca 1e a2 be 24 e1 89 be 7e 7b 9e 3d
       -0.06027014 -0.31664115 -0.2692958 0.07738398
0003c0 7f 9a ba bd 1f 99 1a 3d a0 dd 42 bb d9 f6 68 3c
       -0.09111499 0.037743684 -0.002973415 0.014219009
0003d0 01 a2 94 bd 41 a8 2c bc dd e9 28 3e e9 1b 92 3e
       -0.07257462 -0.010538162 0.16495462 0.2853692
0003e0 63 06 aa 3e 07 39 a4 be 6d 07 aa be 45 c9 4d bd
       0.33207998 -0.32074758 -0.3320879 -0.050240774
0003f0 67 c6 05 bd 91 c0 5a 3e cd 37 be 3e 16 f2 cf 3d
       -0.032659914 0.21362521 0.37151948 0.10153596

naim.encoder.0.ff.0.bias f4 [1000]
000000 ed d1 77 3e 29 0b 4d be 1a 7d 48 bd 7d 63 ff 3c
       0.24201174 -0.20023789 -0.04894743 0.03117537
000010 8d f6 8d 3e 50 db 30 3e 97 0c c4 3e 76 2f 53 be
       0.27727166 0.17271161 0.38290855 -0.20623574
000020 a1 e0 09 bd 65 09 e7 bc 8d 6e a4 3e df 4f c0 3e
       -0.03366149 -0.028202722 0.32115594 0.37560937
000030 44 1c c9 3d 62 4f a2 be 35 39 91 be 65 21 93 3d
       0.09819844 -0.3170119 -0.28363958 0.07184104
000040 b5 72 b1 be db ad 08 be 39 13 96 be 11 7b 50 3e
       -0.34657827 -0.1334757 -0.2931154 0.20359446
000050 1f c8 46 bd 9f 17 9d be 69 9f 82 3e e3 be b2 be
       -0.048530694 -0.30682084 0.25512245 -0.3491126
000060 d4 ce 1d bd 68 94 c5 3e 48 f1 49 3e e1 77 ae be
       -0.038527325 0.38589787 0.19720948 -0.34075835
000070 4a 69 0c 3d c8 d9 49 bd 3f 77 32 3e 70 40 bc 3e
       0.0342801 -0.049279958 0.17428301 0.36767912
000080 0d d2 ab 3e fd 07 e7 bc d8 d4 34 3e 27 b0 c6 be
       0.33558694 -0.028202051 0.17659318 -0.3880627
000090 53 3e a1 3e ca d1 52 3e 31 8c 8c be 38 b2 db bd
       0.31492862 0.2058784 -0.27450708 -0.10727352
0000a0 b4 24 16 be 0b 80 67 be 5b b2 24 3e 8e 8c dc bd
       -0.14662439 -0.22607438 0.16083662 -0.10768996
0000b0 97 e7 20 3e 97 86 e5 bd 61 03 9c 3e 0d e0 17 be
       0.15713345 -0.112073116 0.30471328 -0.14831562
0000c0 c1 01 7f bd 91 d5 ef bd 3f ab ad 3c 78 07 0d be
       -0.062257532 -0.117106564 0.02119982 -0.1377238
0000d0 14 2f 8c be d4 26 c0 be ea 80 78 3e 64 78 59 3d
       -0.27379668 -0.37529624 0.24267927 0.05309333
0000e0 5c 9e 7f be ef 40 50 3e 0e 82 3e 3d 04 0f 0a be
       -0.24962753 0.2033727 0.04651075 -0.1348229
0000f0 4c 3e e5 bc 85 77 27 3d b5 41 8f 3e 0a 98 b9 be
       -0.027983807 0.040885467 0.27979818 -0.3624881
000100 99 b3 9b be 27 f6 a1 be 23 7a 9d be 75 2d 0d bb
       -0.3041046 -0.31633112 -0.30757245 -0.0021541987
000110 d3 47 62 3e 14 48 d7 3d 26 77 26 3e 1f 61 2e 3d
       0.22097711 0.10511795 0.16256389 0.04257309
000120 a9 db 6a bc 34 ce b6 be 5b c7 b4 3e 2d 24 c4 3e
       -0.014334598 -0.35704195 0.35308346 0.3830885
000130 e3 e8 a4 bb e3 b6 8d 3d d1 7b 9e 3d 80 46 c9 3e
       -0.005032645 0.069196485 0.0773846 0.393116
000140 13 83 8a bb be 28 73 bd aa f9 5b be f1 fc d1 3d
       -0.004227051 -0.059365027 -0.21481958 0.10253323
000150 6f 9e 36 3e 88 b9 a9 be cd e5 06 3e 9c 42 c8 3d
       0.17833875 -0.33149362 0.131736 0.0977833
000160 37 9a 32 3e 78 ac 37 3e 45 41 c2 bd 0f fe 5d 3d
       0.17441641 0.17936885 -0.094851054 0.054197367
000170 a0 09 8d be 6e 16 71 3e 04 3a a9 be 3b 22 b1 be
       -0.27546406 0.23543712 -0.33052075 -0.34596428
000180 fc 79 94 be 72 ea 5b be f6 f3 54 3c ed ab 85 3e
       -0.28999317 -0.21476153 0.012997618 0.2610773
000190 03 8a 39 bd a3 b5 8f 3e 77 11 76 bd 12 29 ab 3e
       -0.045297634 0.28068265 -0.06007525 0.33429772
0001a0 ad bf 89 3e 71 f7 7d 3e e2 e9 1d 3e f8 dc 88 be
       0.2690405 0.24801423 0.1542125 -0.26731086
0001b0 ae 44 ca 3e c6 12 c1 be fb f4 8b be c7 2c 6f be
       0.39505523 -0.37709635 -0.27335343 -0.23356925
0001c0 d7 b5 c4 bd 63 df 2e 3e a2 ca a6 3d af 3c ad be
       -0.09604996 0.17077403 0.08144118 -0.3383536
0001d0 ef 60 c6 3e 55 13 be 3e ce 15 44 3e d5 17 c6 be
       0.3874583 0.37124124 0.19148943 -0.38690057
0001e0 2a 93 61 3e 4c 5f e5 3d ea db 2a bd a9 76 a8 be
       0.22028795 0.11199817 -0.041713633 -0.3290303
0001f0 4e 04 ab 3e db 94 e2 bd aa 84 a4 be 94 1d 9b 3e
       0.33401722 -0.11063548 -0.32132465 0.30296004
000200 5f 16 1b 3e fe c3 dd 3d b8 10 81 3e de d2 0e 3e
       0.15145253 0.10828398 0.25208068 0.13947627
000210 fa d0 aa bd a1 b9 85 bd 4f db a6 3e 8d c7 26 bc
       -0.0834064 -0.065295465 0.32589194 -0.010179413
000220 25 08 a8 be 99 03 8a be 5c 41 97 be 4a 3e 05 3d
       -0.32818714 -0.2695587 -0.29542053 0.032530107
000230 d3 bd 92 3e 74 ea 71 3e fc 84 cc 3d 4e 4c 06 3e
       0.2866045 0.23624593 0.09986302 0.13115045
000240 96 d3 39 be f4 df c1 3e 59 64 17 3e 70 37 7a be
       -0.1814712 0.37866175 0.14784373 -0.2443521
000250 78 05 85 be a6 a0 b4 be 25 ed d3 bd aa 94 92 3e
       -0.25980735 -0.35278815 -0.10347966 0.28629047
000260 98 f6 b9 3c 9e 9f 39 be b4 fa d9 3d 5a 7a 8a be
       0.022700593 -0.18127295 0.10643521 -0.27046472
000270 a7 38 ec 3d e1 37 89 3e 58 4a 43 3e 91 e6 ea bd
       0.11534243 0.26800445 0.19071329 -0.11469758
000280 28 0d 04 be 27 73 28 3e da e1 6d 3e c4 0c bc bd
       -0.12895644 0.16450177 0.23230687 -0.09182122
000290 c7 48 ed 3b e2 cc 28 bd 9e b4 13 bd 6d e1 b2 be
       0.0072413418 -0.041211016 -0.03606092 -0.3493761
0002a0 62 c6 a5 be 73 23 ad 3e 16 57 3c be 0f f9 96 3e
       -0.32377917 0.33816108 -0.18392596 0.29486892
0002b0 60 c7 7a 3e f6 f2 61 bd 89 1f 40 be 3d 76 e9 3b
       0.24490118 -0.055163346 -0.1876203 0.007124691
0002c0 97 f4 71 bd 0e c6 6a be 2f 70 c5 3e 8a f7 ae bc
       -0.05907115 -0.22927114 0.38562152 -0.02135827
0002d0 6e fb 52 bd 94 1a 87 be 40 77 7f 3d 9b 30 4f 3d
       -0.051509313 -0.26387465 0.062369585 0.050583463
0002e0 1b 5c c8 3e e6 95 e7 bd 39 5e 60 3e 22 79 af 3c
       0.3913277 -0.11307888 0.21910943 0.021420065
0002f0 e8 60 55 3e 85 98 da 3b 82 a3 6f bd 98 2c 1c 3e
       0.20837748 0.006671014 -0.058505543 0.15251386
000300 a2 4d 2d be 48 0e 77 3e ed 9a a8 be b3 27 8f be
       -0.16924146 0.24126542 -0.329307 -0.27959976
000310 24 05 c2 3e 17 5e 10 be ae 8c 9f be 3d 3b 92 be
       0.37894547 -0.14098392 -0.31162018 -0.2856082
000320 3a b2 c7 3e 16 e5 39 bd 3b 39 a9 be da 31 4e bd
       0.39003164 -0.04538449 -0.33051476 -0.05034051
000330 5c f0 3e be 5b d0 85 be 2f 0c 41 be 22 81 99 3e
       -0.18646377 -0.26135525 -0.18852304 0.29981333
000340 0f 99 1f 3e e0 f0 6c 3e 04 54 1b 3d 64 a1 21 be
       0.15585731 0.23138762 0.03792192 -0.15784222
000350 92 e5 1f be f8 01 86 be 10 64 90 be d8 bb ad be
       -0.15614918 -0.26173377 -0.28201342 -0.33932376
000360 39 a9 8f 3d 0d 3c 52 3e 55 49 a7 3e 14 6c 87 bb
       0.070146985 0.2053072 0.32673135 -0.004132757
000370 de 17 4f bd 2f 37 be bc dc 01 1e 3e 23 06 5d bd
       -0.05055987 -0.023219673 0.15430397 -0.05396093
000380 3e 52 0d be 17 2c ce bd 70 7e c5 be ef ca 9b be
       -0.13800904 -0.10067003 -0.38573027 -0.30428264
000390 69 9f 27 be a4 07 21 3d 89 58 79 be 56 98 16 3e
       -0.16369404 0.039313927 -0.2435018 0.14706549
0003a0 65 a6 5a be 91 cf c4 3e d3 1e b2 be 89 1b 5d 3e
       -0.21352537 0.3843961 -0.34789142 0.21592535
0003b0 4e 13 4c be 58 73 07 be 8a bd bc be 73 27 bb be
       -0.19929239 -0.13227594 -0.36863357 -0.36553535
0003c0 fe 3e bf be 59 d2 1d bb 57 cd ba 3e 8b 4c 37 3e
       -0.37352747 -0.0024081676 0.36484787 0.17900293
0003d0 82 bd 79 3e a6 d5 ae 3d e8 43 14 be 2e d9 15 be
       0.24388698 0.08536844 -0.14479029 -0.14633629
0003e0 1b d8 df bd 2e a3 bc be 6d a6 5c 3e 87 10 f3 bd
       -0.10929891 -0.36843246 0.21547861 -0.11868387
0003f0 2c 02 63 be 20 44 c6 3d 6c 76 a9 3b ba 76 60 3e
       -0.22168797 0.096809626 0.0051715877 0.2192029

naim.encoder.0.ff.3.weight f4 [6, 1000]
000000 61 f8 71 bc 4d 66 9b bc 55 41 42 bc 49 97 03 bc
       -0.014768691 -0.01896968 -0.011856397 -0.008031675
000010 0d c5 76 bc 23 ce c3 ba d5 e4 8a ba 6e a5 af bc
       -0.015061629 -0.0014938753 -0.0010596762 -0.021441188
000020 53 48 74 3c bf a4 d6 3c 4b 0f 17 bb bc 25 fa bb
       0.014909822 0.026201604 -0.0023049887 -0.007633893
000030 7d a0 19 bd 7f 68 a8 bc 90 99 2e bb cf ff cf bb
       -0.03750657 -0.02055764 -0.0026641823 -0.0063476334
000040 56 88 02 3b 4e 57 a2 bc b7 df 89 bc 7a c7 18 b9
       0.0019917688 -0.01981702 -0.016830308 -0.0001457016
000050 e7 b3 d6 3c 66 2a d5 3c 70 e6 cb bc fd 84 88 bb
       0.026208831 0.026021194 -0.024890155 -0.004166244
000060 4f 02 16 bc 11 87 87 bb 6e de 16 3c 2f 4c 8e bc
       -0.009155824 -0.004135974 0.009208305 -0.017370312
000070 ec 1c 14 bc 48 94 0f bd a5 0d 1c bc 20 21 0a bd
       -0.009040099 -0.03505352 -0.0095247375 -0.033722997
000080 25 ae 47 3c 6b c6 c2 bc 6b 6e 74 bc 34 f7 d8 bc
       0.012187515 -0.023776254 -0.014918904 -0.026485063
000090 8a e1 b3 3c 91 e9 d0 bb 79 1e ee 3c c0 f9 a9 bc
       0.021958131 -0.0063754995 0.029067265 -0.020748973
0000a0 7f 0d 8b 3c 36 e8 db bb 93 13 b8 bc 71 28 e4 3c
       0.016974209 -0.0067110313 -0.022470271 0.027851315
0000b0 1c 4e e4 bc d1 0a 91 bc 8b 06 35 3c 07 94 bb bb
       -0.027869277 -0.017705353 0.011048923 -0.0057244333
0000c0 75 1c d2 bb 5d 44 04 3d fd d6 f1 bc 87 bf 93 bc
       -0.0064120837 0.03229176 -0.02952146 -0.018035663
0000d0 53 4f e2 3b d0 67 62 bc af 4a 01 3b 5f b6 80 bc
       0.006906429 -0.013818696 0.0019728353 -0.015711961
0000e0 39 08 22 bc 9d 9f a9 3c ee 16 34 bc 89 96 12 3c
       -0.009889656 0.020705992 -0.010991795 0.008947023
0000f0 d4 a8 c7 3c 3d 6a de 3c 2d 3b 6a 3c 3f 7c bb 3c
       0.024372496 0.027150268 0.014296335 0.022886394
000100 30 d3 35 bc d6 9b e2 3b b3 54 13 bc 22 fc 0c bd
       -0.011097714 0.0069155497 -0.008992362 -0.03442014
000110 88 65 d8 3c c2 89 15 bd 5e 57 8b bc d9 8d 7c bc
       0.026415601 -0.03650833 -0.017009433 -0.0154146785
000120 ac 3d 16 bd f1 92 04 bd bd 7b a5 bc a6 5f af 3b
       -0.03667991 -0.032366697 -0.020200605 0.0053519784
000130 0d b2 01 bd 53 9e e7 bc 36 2f 93 bc 55 d5 ef bc
       -0.031663943 -0.028273737 -0.017966848 -0.02927653
000140 74 11 3d 3b 5d 90 b8 bb bf 46 3a 3b 4e 27 bf 3c
       0.0028849514 -0.005632444 0.0028423516 0.023334172
000150 be 75 92 bc fe f4 25 bc 8c c9 b2 3b a1 3a 9d 3c
       -0.01787841 -0.0101292115 0.005456155 0.019192996
000160 2e 99 ab 3b fa 87 fa bb 7b 25 eb 3b e4 51 0b bd
       0.0052367663 -0.007645604 0.007176099 -0.034013644
000170 f8 e9 d1 bc 4e 4f 3e bc 0b 5f ff bc 46 4f f2 bc
       -0.02562426 -0.011615587 -0.03117325 -0.029578816
000180 a0 88 0c bd 3d fb f0 3b f0 37 4f 3b 12 6d 38 b8
       -0.034309983 0.0073541687 0.0031619035 -4.39706e-05
000190 1b 6a b4 bb ef a4 02 bb 1f 65 6f 3c 6f 18 e0 bc
       -0.005505813 -0.0019934734 0.0146115115 -0.0273554
0001a0 7b 60 a0 3c 6e 76 0d 3c 65 1a fb bb 10 07 90 3c
       0.019577255 0.008634193 -0.0076630586 0.017581493
0001b0 01 78 07 3b 4b 6f 98 bc fc 64 b5 3c 18 8a 23 3c
       0.0020670893 -0.018607756 0.02214288 0.009981655
0001c0 d1 db 87 3c 0c d1 03 bc a8 b3 00 bd 6e 61 a4 3c
       0.016584309 -0.008045446 -0.031421334 0.02006599
0001d0 b7 eb 64 3a 61 d9 28 3c 2d b8 0a bc 73 1b 8c 3c
       0.0008732634 0.010305733 -0.0084667625 0.017102933
0001e0 ce ff ef bc fd 6c 58 bb 76 e7 9e 3c 49 64 20 bb
       -0.029296782 -0.0033023946 0.019397479 -0.0024473837
0001f0 0e 58 b9 3c 23 bd d3 3b 42 c0 23 3c e2 b6 07 3d
       0.022624996 0.006461756 0.009994568 0.033133395
000200 a2 aa d6 bb 1f 43 bd bb 6a ea 4b 3c 15 ef b2 bc
       -0.0065511027 -0.0057758237 0.012446025 -0.021842519
000210 83 5b d4 bc 56 2f 41 3c e8 81 ec bc dc 90 69 bc
       -0.025922542 0.011791071 -0.028870538 -0.014255729
000220 68 58 55 3b af de a3 3a 54 4f 91 bc 2a 90 24 bc
       0.0032553915 0.0012502278 -0.017738022 -0.010044137
000230 a0 b5 7d 3c f6 97 be bc bd 15 9e 3c 27 5e 10 bc
       0.015485197 -0.02326582 0.019297475 -0.00881151
000240 58 9a 84 bc 01 12 0c bd d7 8b 39 bc 70 d3 de 3c
       -0.016186878 -0.034196857 -0.011324844 0.02720043
000250 ce 40 d9 bc c1 76 b3 bc 59 5a 19 bc 48 5c ba 3c
       -0.02652016 -0.021907212 -0.0093599195 0.022749081
000260 37 a2 5c bc 0c 8b fa 3c 33 e7 db 3c 26 69 b1 3c
       -0.013466409 0.03058388 0.026843643 0.021656584
000270 9e da 7b bc 6a d0 b5 bc a7 f9 f7 bc bc 63 2f bc
       -0.015371947 -0.022194106 -0.03027041 -0.010704931
000280 0a 40 c5 bc 3b a3 2e 3c 9c 40 d4 ba 8a 40 ec 3c
       -0.024078388 0.010659034 -0.0016193572 0.028839368
000290 4f cf 09 bd 81 3e b4 bc 06 2f e3 bb 16 41 3b 3a
       -0.03364497 -0.02200246 -0.006933096 0.00071431824
0002a0 94 25 b4 3c 42 67 ec bb 06 fb ae 3c fc 77 10 bc
       0.021990575 -0.0072144577 0.021359932 -0.008817669
0002b0 a4 cd 00 bc 0d 5b 85 bc 9e 72 96 bc 46 83 89 bc
       -0.007861529 -0.016278768 -0.0183652 -0.016786229
0002c0 03 e6 0e bd e2 1e 25 bc 85 19 68 bc 04 02 aa bc
       -0.034887325 -0.010078164 -0.014166241 -0.020752914
0002d0 f1 4b ff bc ab 05 e7 bc 71 b6 42 bc 5b 71 e8 bc
       -0.031164141 -0.028200945 -0.011884318 -0.028374365
0002e0 c2 d3 cc 3c 73 25 ff bb fa 6d 4b 3c 67 d6 d7 bc
       0.025003318 -0.0077864467 0.012416357 -0.026347352
0002f0 94 0d 8a 3a 4a 53 e0 bc ac 05 1f 3c bc 72 00 3c
       0.0010532611 -0.027383465 0.009705942 0.007839855
000300 33 2f 0a bd 60 b2 7a 3c 6a 33 b4 3b 2a 2c 97 bc
       -0.03373642 0.015301317 0.005499293 -0.018453676
000310 1f ab a0 bc b1 37 e7 3c c7 c5 a8 bc d5 f9 e7 3c
       -0.019612847 0.028224798 -0.02060212 0.028317371
000320 26 ab f1 3b 30 13 75 3c 82 38 a4 bc 74 b0 97 3b
       0.007375139 0.014958188 -0.020046476 0.004629189
000330 f9 7d 0c 3c ac 98 a7 3c d2 cd 11 bd 50 77 16 bc
       0.008574956 0.020458542 -0.035596676 -0.00918372
000340 5a 68 93 bb 13 83 e4 bc 7b 19 35 3a bf 51 ad 3c
       -0.0044985237 -0.027894532 0.0006908399 0.021157144
000350 20 11 9f 3c 29 f3 b4 bc 9c e4 44 3c ff 3b 9d bc
       0.019417346 -0.022088604 0.012017395 -0.019193647
000360 a0 5a 95 3c 40 34 ae bc 97 3a 06 bd 11 8f 4f 3c
       0.01823169 -0.02126515 -0.03277072 0.012668387
000370 92 ea 0b bc b7 a0 aa 3a 58 d9 c6 3c 74 de d3 3c
       -0.008539813 0.0013017867 0.02427356 0.02586291
000380 b9 bd 54 3c 12 9a 0f bd f7 9e 24 bc 2d b5 2f bb
       0.0129846865 -0.035059042 -0.010047666 -0.002681087
000390 cd 52 12 bd b3 20 d6 3c 53 49 be 3c c2 e6 2a bc
       -0.035723496 0.02613864 0.023228323 -0.0104309935
0003a0 31 0a 35 bc 25 de 95 bc 64 ae 04 3c df 43 6d b9
       -0.011049793 -0.018294403 0.008098219 -0.00022627365
0003b0 6e 4b 87 bc 57 e6 9b 3c 16 36 3e bc 3c fe c9 ba
       -0.01651546 0.019030733 -0.011609575 -0.0015410851
0003c0 db f6 a8 3c 9d ca ad bc c5 1c 09 bd 5e 8d 79 3c
       0.020625522 -0.021214778 -0.033474702 0.0152314585
0003d0 e8 a1 9b bc 5a 27 6f 3c bc 35 9b bc c5 de 72 3c
       -0.018998101 0.0145967845 -0.018946521 0.01482362
0003e0 4d 8d c6 b9 92 1d 4b bc 77 a0 df bc 03 34 89 3c
       -0.0003787078 -0.012397187 -0.027298195 0.016748434
0003f0 46 40 ca bc 94 15 04 3c 55 7e 9e 3c 25 e0 f2 bc
       -0.024688851 0.008061785 0.01934735 -0.029647896

naim.encoder.0.ff.3.bias f4 [6]
000000 f1 8a 03 bd d0 fa 02 bc 9c 0b 57 bc 43 5f 29 bc
       -0.032114927 -0.007994369 -0.0131253265 -0.010337654
000010 f3 d5 8f 3c fe c0 d2 bc
       0.017558074 -0.025726791

naim.encoder.1.layer_norm_1.weight f4 [6]
000000 ce c5 7c 3f 58 44 7d 3f ca b1 7c 3f ff e1 7c 3f
       0.98739326 0.9893241 0.98708785 0.9878234
000010 49 aa 7c 3f a7 30 7d 3f
       0.98697335 0.9890236

naim.encoder.1.layer_norm_1.bias f4 [6]
000000 46 75 a5 bb b8 91 ab 3b 4f 21 8f 3b 14 c4 96 bb
       -0.0050493805 0.005235877 0.0043679844 -0.004601011
000010 8e 55 c1 3b 7e 57 99 bb
       0.0059000915 -0.0046796193

naim.encoder.1.attn.linear_q.weight f4 [6, 6]
000000 5f f3 91 be b2 68 f2 bd 98 48 2c be 36 a2 b4 3d
       -0.2850599 -0.11836375 -0.16824567 0.08820002
000010 06 e7 7e 3e bf 70 53 3d fe 31 33 3b bc 88 3b 3e
       0.24892816 0.051621195 0.002734303 0.18313879
000020 e7 56 6c 3e 23 0c 87 3b b3 82 86 be 47 7c ae be
       0.23080026 0.00412132 -0.2627159 -0.3407919
000030 41 f4 c9 3e 02 0f f7 3d 59 a9 b8 3e f3 70 14 be
       0.39444163 0.120634094 0.36066702 -0.14496212
000040 91 4d ce 3d c1 63 4f be ee c9 4e be 56 1c 32 be
       0.10073388 -0.20252897 -0.20194218 -0.17393622
000050 ac 47 ca 3e 64 b3 91 3e 29 22 74 be 6d fe 8c be
       0.39507806 0.28457177 -0.23841156 -0.2753786
000060 71 56 f9 3d 6c a1 aa bd 34 04 ec 3b 0d d0 21 3d
       0.121746905 -0.0833157 0.0072026495 0.039505053
000070 66 60 b0 be 73 2e 9e 3d 90 f5 4c bb 61 9b 8b be
       -0.34448546 0.07723703 -0.0031274296 -0.27266982
000080 5f 0d c8 be c9 19 48 3e 88 85 b8 be 58 4d 2f be
       -0.390727 0.19541086 -0.36039376 -0.17119348

naim.encoder.1.attn.linear_k.weight f4 [6, 6]
000000 0d 3c 75 3e f4 75 85 be f6 6e 39 be 48 25 80 be
       0.23948689 -0.26066554 -0.18108734 -0.25028443
000010 f6 31 69 3e 4c 5c ed 3d 00 0e f1 3c 36 e9 05 3e
       0.22772965 0.1158987 0.029425621 0.13077244
000020 df db d4 3d 7c 40 96 bd 12 81 cc bc 4b 65 78 be
       0.103934996 -0.07336518 -0.02496389 -0.2425739
000030 2a 23 37 be 85 67 2e 3b 2e ca 16 bd b4 e4 b8 3d
       -0.17884508 0.0026611995 -0.036813907 0.09027997
000040 76 3e 39 3e 1b b1 99 3e 71 a0 c1 3e 83 b8 99 bc
       0.18090233 0.30017933 0.3781772 -0.01876474
000050 ae 84 17 3e 2d 9c a2 be bd a3 64 3e 60 fc c4 bd
       0.14796707 -0.31759778 0.22328086 -0.09618449
000060 d6 37 9f be 24 28 9c be 9a 9f a7 be 6f 30 34 be
       -0.31097287 -0.30499375 -0.32738954 -0.17596601
000070 2c 9d 31 3e 49 e0 a3 be ea 16 12 bd c2 a2 50 bd
       0.17345113 -0.32007053 -0.035666384 -0.050936468
000080 6e 88 0c 3e 1d 3e 1d be 55 80 46 3e 19 36 75 be
       0.13723919 -0.15355726 0.19384892 -0.23946418

naim.encoder.1.attn.linear_v.weight f4 [6, 6]
000000 3c 0b 77 3e 47 b3 cc be f7 2b 8a be 23 5c 0c 3e
       0.2412538 -0.39980528 -0.26986668 0.13707022
000010 77 39 6c 3d b7 e5 8e 3e a5 bd 4e 3e ec 1c a9 be
       0.05767199 0.27909634 0.20189531 -0.33029878
000020 45 01 9f 3e 8e 07 ca bd e5 98 87 bd aa b5 25 be
       0.31055656 -0.09864722 -0.06620959 -0.1618258
000030 8e cd 81 bd 10 e9 bd be 55 7c d0 3c e4 12 98 3e
       -0.063380346 -0.37091875 0.025449911 0.29701912
000040 d2 fc a3 bd ae f9 9b 3e 81 87 3d be 38 19 20 3e
       -0.08007206 0.30463928 -0.18508722 0.1563462
000050 b7 71 16 3d 70 4b 16 be f4 f4 c6 3e 82 7f 1a 3d
       0.03672954 -0.14677215 0.3885876 0.037719257
000060 73 26 b4 3c 6d 40 21 bd b6 fa a0 bc d4 7a a4 3e
       0.02199099 -0.03936808 -0.019650798 0.3212496
000070 86 9c 7e bd 5b 64 74 3e 20 99 0d 3e 1d c6 81 3e
       -0.06216099 0.23866408 0.13827944 0.2534646
000080 93 c7 97 be 75 eb b0 be ad fb f7 bd 66 96 cf bd
       -0.2964445 -0.3455464 -0.1210855 -0.10136108

naim.encoder.1.attn.linear_o.weight f4 [6, 6]
000000 2a 4e c3 3e 33 3d c9 3e 01 46 d1 bd 3d 38 4a be
       0.38145572 0.39304504 -0.1021843 -0.19748016
000010 eb 97 e5 bb 3d 43 17 3e 74 37 09 3e 4d a8 90 3d
       -0.0070066354 0.14771743 0.1340006 0.07063351
000020 37 73 96 3e cf 92 1e 3d df 65 a5 3e 5c dd bc 3d
       0.29384777 0.038714226 0.32304284 0.092219085
000030 47 e1 01 bd c2 c6 ad 3e 00 22 91 3c 3b c8 a3 3c
       -0.03170898 0.33940703 0.017716408 0.019992938
000040 5f be 97 bd 24 38 75 3e 25 28 ff bd 17 21 9d 3e
       -0.07409357 0.23947197 -0.12458829 0.30689308
000050 81 21 57 3e 19 10 34 bc 87 78 93 bd 16 d6 18 3e
       0.21008874 -0.010990166 -0.07200723 0.14925417
000060 95 76 c5 be f5 06 fa bd 4f 82 06 be 87 47 18 bd
       -0.38567033 -0.12208358 -0.13135646 -0.03717759
000070 70 c7 3a be 77 4b 27 be cc 86 39 3e fb 9c f9 bc
       -0.18240142 -0.16337381 0.18117827 -0.030470362
000080 51 3a 8a be c9 bd 89 bc fe 73 f3 3d b9 19 1c be
       -0.26997617 -0.01681413 0.11887358 -0.15244187

naim.encoder.1.layer_norm_2.weight f4 [6]
000000 d8 04 7f 3f 37 23 7f 3f 77 6c 7d 3f 1b 82 80 3f
       0.99616766 0.9966311 0.9899363 1.0039705
000010 6c 93 80 3f b7 1c 7e 3f
       1.004499 0.99262565

naim.encoder.1.layer_norm_2.bias f4 [6]
000000 f9 a7 ab bb 6a 9a 94 bb 4a b7 73 3b 8c b9 f1 bb
       -0.0052385298 -0.004535009 0.0037188106 -0.0073768552
000010 19 a0 08 bb 68 09 0e 3b
       -0.0020847379 0.0021673087
