outputs/2025-03-23/17-12-43/outputs/model_epoch_0.pt (torch, 377210 bytes, 140 tensors)

naim.embeddings.0.embeddings.weight f4 [2, 6]
00000000: 0a95 c33e b458 15bf a92e aebe c7cf a83e
00000010: d81c e93e 03ca 903e 0000 0000 0000 0000
00000020: 0000 0000 0000 0000 0000 0000 0000 0000
0.38199645 -0.58338475 -0.34019974 0.32971022 0.4552982 0.28279123 0.0 0.0
0.0 0.0 0.0 0.0

naim.embeddings.1.embeddings.weight f4 [2, 6]
00000000: b4c4 763d 427a afbd 24db 20be bc07 cf3e
00000010: f3f5 423e de97 a9bd 0000 0000 0000 0000
00000020: 0000 0000 0000 0000 0000 0000 0000 0000
0.060246184 -0.08568241 -0.15708596 0.40435588 0.19039135 -0.082809195 0.0 0.0
0.0 0.0 0.0 0.0

naim.embeddings.2.embeddings.weight f4 [2, 6]
00000000: 2718 273f cb7e 363d ecf2 8abc 6941 133f
00000010: 5176 88be 7fb7 b23e 0000 0000 0000 0000
00000020: 0000 0000 0000 0000 0000 0000 0000 0000
0.6527123 0.044554513 -0.016961537 0.5752168 -0.26652768 0.3490562 0.0 0.0
0.0 0.0 0.0 0.0

naim.embeddings.3.embeddings.weight f4 [2, 6]
00000000: 40dd 293f c79e 09bf e53c 563d dbb8 fd3e
00000010: eb22 113e 1765 2b3c 0000 0000 0000 0000
00000020: 0000 0000 0000 0000 0000 0000 0000 0000
0.66353226 -0.537579 0.052304167 0.49555096 0.14173476 0.010461113 0.0 0.0
0.0 0.0 0.0 0.0

naim.embeddings.4.embeddings.weight f4 [2, 6]
00000000: 92e9 05bf 9a1d 91be 2022 60be 237a 0d3e
00000010: cf1b ce3d 75f2 483c 0000 0000 0000 0000
00000020: 0000 0000 0000 0000 0000 0000 0000 0000
-0.52309525 -0.28342897 -0.21888018 0.13816123 0.10063898 0.0122648375 0.0 0.0
0.0 0.0 0.0 0.0

naim.embeddings.5.embeddings.weight f4 [2, 6]
00000000: 83d6 b2be 70a6 103d 7bf9 253f 6ec1 b43e
00000010: c16c 12bf 341b 743d 0000 0000 0000 0000
00000020: 0000 0000 0000 0000 0000 0000 0000 0000
-0.34929284 0.035314977 0.648338 0.35303825 -0.57197195 0.059596255 0.0 0.0
0.0 0.0 0.0 0.0

naim.embeddings.6.embeddings.weight f4 [2, 6]
00000000: 8c36 08bf faa6 e7bd d762 01be 1840 8cbe
00000010: 2fd1 153e 4e8b 443f 0000 0000 0000 0000
00000020: 0000 0000 0000 0000 0000 0000 0000 0000
-0.5320823 -0.11311145 -0.1263536 -0.2739265 0.14630578 0.7677506 0.0 0.0
0.0 0.0 0.0 0.0

naim.embeddings.7.embeddings.weight f4 [2, 6]
00000000: f9db ccbe e74e 11bc 5bd7 ca3d 038e 33bf
00000010: bb6a 5bbd 64dc 133f 0000 0000 0000 0000
00000020: 0000 0000 0000 0000 0000 0000 0000 0000
-0.40011576 -0.008868909 0.09904357 -0.7013857 -0.053568583 0.57758164 0.0 0.0
0.0 0.0 0.0 0.0

naim.embeddings.8.embeddings.weight f4 [2, 6]
00000000: 51d8 253f 4796 0dbe 9a34 883e 3338 20bf
00000010: 9eb7 55be 600b 6f3e 0000 0000 0000 0000
00000020: 0000 0000 0000 0000 0000 0000 0000 0000
0.647832 -0.13826858 0.26602632 -0.62585753 -0.20870826 0.23344183 0.0 0.0
0.0 0.0 0.0 0.0

naim.embeddings.9.embeddings.weight f4 [2, 6]
00000000: e045 e73e 9e49 90be bc25 7d3d 94d8 d0be
00000010: 1aab 1cbf b540 113b 0000 0000 0000 0000
00000020: 0000 0000 0000 0000 0000 0000 0000 0000
0.45170498 -0.28181165 0.061803564 -0.40790236 -0.6119858 0.0022163813 0.0 0.0
0.0 0.0 0.0 0.0

naim.embeddings.10.embeddings.weight f4 [2, 6]
00000000: 57bc c53d 3f7d ce3d 149e 863e b742 813e
00000010: fc25 5c3c 29a8 ea3e 0000 0000 0000 0000
00000020: 0000 0000 0000 0000 0000 0000 0000 0000
0.096550636 0.100824825 0.2629248 0.25246212 0.013436791 0.4583142 0.0 0.0
0.0 0.0 0.0 0.0

naim.embeddings.11.embeddings.weight f4 [2, 6]
00000000: 822a 353e 585e edbd dcc2 fcbe 3104 04bf
00000010: 65c6 06bd cc87 90be 0000 0000 0000 0000
00000020: 0000 0000 0000 0000 0000 0000 0000 0000
0.17691997 -0.1159026 -0.49367416 -0.51568896 -0.032904048 -0.28228605 0.0 0.0
0.0 0.0 0.0 0.0

naim.embeddings.12.embeddings.weight f4 [2, 6]
00000000: 00b2 223e d2fe 71be 4020 a73d 5eaf e23e
00000010: 126e ff3e b07b e73d 0000 0000 0000 0000
00000020: 0000 0000 0000 0000 0000 0000 0000 0000
0.15888214 -0.23632362 0.08160448 0.4427442 0.49888664 0.113028884 0.0 0.0
0.0 0.0 0.0 0.0

naim.embeddings.13.embeddings.weight f4 [2, 6]
00000000: a68a 84be 146c e0bd 16ed 9abe b7e4 2b3f
00000010: 5e9b 53be 600b a43e 0000 0000 0000 0000
00000020: 0000 0000 0000 0000 0000 0000 0000 0000
-0.2588703 -0.10958114 -0.30259007 0.67145866 -0.20664737 0.32039928 0.0 0.0
0.0 0.0 0.0 0.0

naim.embeddings.14.embeddings.weight f4 [2, 6]
00000000: 6017 3f3e 4b95 2a3f 3925 21be 9925 a83d
00000010: 6a8a 1f3f 9f65 8e3c 0000 0000 0000 0000
00000020: 0000 0000 0000 0000 0000 0000 0000 0000
0.1866126 0.66634053 -0.15736856 0.08210296 0.6232058 0.017382441 0.0 0.0
0.0 0.0 0.0 0.0

naim.embeddings.15.embeddings.weight f4 [2, 6]
00000000: a00f 23bf 3c5a b53e d87b b13d e91d 9cbe
00000010: 1cda 4dbe 8382 103f 0000 0000 0000 0000
00000020: 0000 0000 0000 0000 0000 0000 0000 0000
-0.63695717 0.35420406 0.086661994 -0.3049157 -0.20102733 0.56449145 0.0 0.0
0.0 0.0 0.0 0.0

naim.embeddings.16.embeddings.weight f4 [2, 6]
00000000: 4b8d 073f 5883 c93d a3ae 973d 5f24 aebe
00000010: 96cc 0f3e 779f d03e 0000 0000 0000 0000
00000020: 0000 0000 0000 0000 0000 0000 0000 0000
0.5294997 0.09839505 0.07406356 -0.34012124 0.14042887 0.40746662 0.0 0.0
0.0 0.0 0.0 0.0

naim.embeddings.17.embeddings.weight f4 [2, 6]
00000000: 6f72 003e 45c1 3b3e 90af 083e 3d1a 04bf
00000010: 4fd2 a23e 5d25 98be 0000 0000 0000 0000
00000020: 0000 0000 0000 0000 0000 0000 0000 0000
0.12543653 0.18335445 0.13348222 -0.51602536 0.31801078 -0.29716006 0.0 0.0
0.0 0.0 0.0 0.0

naim.embeddings.18.embeddings.weight f4 [2, 6]
00000000: e729 12bf c76e fdbe 50f2 a0be c971 123f
00000010: 9095 14bd 970a a1bc 0000 0000 0000 0000
00000020: 0000 0000 0000 0000 0000 0000 0000 0000
-0.5709519 -0.4949858 -0.3143487 0.5720487 -0.036275446 -0.01965837 0.0 0.0
0.0 0.0 0.0 0.0

naim.embeddings.19.embeddings.weight f4 [2, 6]
00000000: 5bea 0b3f 4372 90be 4e5a 8d3e 93d2 62be
00000010: f5a0 e6bd c33a bb3d 0000 0000 0000 0000
00000020: 0000 0000 0000 0000 0000 0000 0000 0000
0.54654473 -0.28212175 0.2760796 -0.2215064 -0.11261169 0.09142067 0.0 0.0
0.0 0.0 0.0 0.0

naim.embeddings.20.embeddings.weight f4 [2, 6]
00000000: a819 933e 6056 193e 793f afbe 8799 febe
00000010: 0b11 04be a505 783e 0000 0000 0000 0000
00000020: 0000 0000 0000 0000 0000 0000 0000 0000
0.28730512 0.14974356 -0.34228113 -0.49726507 -0.12897126 0.24220903 0.0 0.0
0.0 0.0 0.0 0.0

naim.embeddings.21.embeddings.weight f4 [2, 6]
00000000: de60 8a3d 0f95 01ba d687 023e 45ff 4bbd
00000010: e84c e63c c1c6 16be 0000 0000 0000 0000
00000020: 0000 0000 0000 0000 0000 0000 0000 0000
0.06756757 -0.0004943171 0.1274713 -0.04980399 0.028112844 -0.14724256 0.0 0.0
0.0 0.0 0.0 0.0

naim.embeddings.22.embeddings.weight f4 [2, 6]
00000000: 4515 b53e 5bd0 88be ed1c 1dbd 8fa8 153f
00000010: 0b6b e13e 9e66 61be 0000 0000 0000 0000
00000020: 0000 0000 0000 0000 0000 0000 0000 0000
0.3536779 -0.26721463 -0.038357664 0.58460325 0.4402698 -0.22011802 0.0 0.0
0.0 0.0 0.0 0.0

naim.embeddings.23.embeddings.weight f4 [2, 6]
00000000: 611b 603e 8f4a b43b f07d c0be 0712 5b3f
00000010: a25e 65bd 9b56 8abe 0000 0000 0000 0000
00000020: 0000 0000 0000 0000 0000 0000 0000 0000
0.21885444 0.005502052 -0.37596083 0.8557438 -0.055998452 -0.270192 0.0 0.0
0.0 0.0 0.0 0.0

naim.embeddings.24.embeddings.weight f4 [2, 6]
00000000: 265b 663c 8a8b 303e ddfe 40be 835b d43e
00000010: 76fb 5ebf eeb5 543d 0000 0000 0000 0000
00000020: 0000 0000 0000 0000 0000 0000 0000 0000
0.014059817 0.1724073 -0.18847223 0.41476068 -0.8710245 0.051931314 0.0 0.0
0.0 0.0 0.0 0.0

naim.embeddings.25.embeddings.weight f4 [2, 6]
00000000: 0c3c c13e bdeb 17be ec91 443f e32a f63e
00000010: 4cde c73d e33c 713d 0000 0000 0000 0000
00000020: 0000 0000 0000 0000 0000 0000 0000 0000
0.37741125 -0.14836021 0.7678516 0.48079595 0.09759197 0.058895957 0.0 0.0
0.0 0.0 0.0 0.0

naim.embeddings.26.embeddings.weight f4 [2, 6]
00000000: c68e 293e f883 02bf df95 04bf 8c88 a83e
00000010: 90fd e33e 6883 b23e 0000 0000 0000 0000
00000020: 0000 0000 0000 0000 0000 0000 0000 0000
0.1655837 -0.5098262 -0.51791185 0.32916677 0.4452939 0.3486588 0.0 0.0
0.0 0.0 0.0 0.0

naim.embeddings.27.embeddings.weight f4 [2, 6]
00000000: cfc7 b7bd f3d8 c73e b0ae 0bbf 50fc 0ebf
00000010: e7e1 06be d10b 2e3d 0000 0000 0000 0000
00000020: 0000 0000 0000 0000 0000 0000 0000 0000
-0.08973657 0.39032707 -0.54563427 -0.5585375 -0.13172112 0.042491738 0.0 0.0
0.0 0.0 0.0 0.0

naim.embeddings.28.embeddings.weight f4 [2, 6]
00000000: a03a 4ebe 2340 713e 5e2b 5abe 760f b3be
00000010: e759 083e 1c80 91bd 0000 0000 0000 0000
00000020: 0000 0000 0000 0000 0000 0000 0000 0000
-0.20139551 0.23559622 -0.21305606 -0.34972733 0.13315545 -0.07104513 0.0 0.0
0.0 0.0 0.0 0.0

naim.embeddings.29.embeddings.weight f4 [2, 6]
00000000: e199 11bf 216a 62bc f82b 2e3f 05c4 71be
00000010: 3859 bc3d 2574 c2be 0000 0000 0000 0000
00000020: 0000 0000 0000 0000 0000 0000 0000 0000
-0.56875426 -0.013819248 0.6803584 -0.23609932 0.091967046 -0.37979236 0.0 0.0
0.0 0.0 0.0 0.0

naim.embeddings.30.embeddings.weight f4 [2, 6]
00000000: 65f8 0abe 47d8 893e d0a7 b93e 54ef a3be
00000010: d663 6bbd 822e cfbe 0000 0000 0000 0000
00000020: 0000 0000 0000 0000 0000 0000 0000 0000
-0.13571317 0.2692282 0.36260843 -0.3201853 -0.057468258 -0.4046517 0.0 0.0
0.0 0.0 0.0 0.0

naim.embeddings.31.embeddings.weight f4 [2, 6]
00000000: cee7 d63e 3833 8abe 0929 3cbd 28a6 f0bd
00000010: 9c0b 92be 4d8e 9bbe 0000 0000 0000 0000
00000020: 0000 0000 0000 0000 0000 0000 0000 0000
0.41973728 -0.26992202 -0.04593757 -0.11750442 -0.28524482 -0.30382004 0.0 0.0
0.0 0.0 0.0 0.0

naim.embeddings.32.embeddings.weight f4 [2, 6]
00000000: d0ad c33d 91fc ac3e aa09 b2be 6204 4bbf
00000010: 9001 9a3e c132 3dbe 0000 0000 0000 0000
00000020: 0000 0000 0000 0000 0000 0000 0000 0000
0.095546365 0.33786443 -0.34772998 -0.7930356 0.30079317 -0.18476392 0.0 0.0
0.0 0.0 0.0 0.0

naim.embeddings.33.embeddings.weight f4 [2, 6]
00000000: 9544 4ebe 9d4f 42be fea5 d6be 4cfc 77be
00000010: a3c8 b1be 3944 403f 0000 0000 0000 0000
00000020: 0000 0000 0000 0000 0000 0000 0000 0000
-0.2014335 -0.18975683 -0.41923517 -0.24217337 -0.34723386 0.751041 0.0 0.0
0.0 0.0 0.0 0.0

naim.embeddings.34.embeddings.weight f4 [2, 6]
00000000: ee82 3dbe b81b 043e b332 0c3f ffe4 04bd
00000010: 1193 98be a149 433d 0000 0000 0000 0000
00000020: 0000 0000 0000 0000 0000 0000 0000 0000
-0.18506977 0.12901199 0.5476486 -0.03244495 -0.29799703 0.04767764 0.0 0.0
0.0 0.0 0.0 0.0

naim.embeddings.35.embeddings.weight f4 [2, 6]
00000000: 7cfb 5a3e a20d 3dbe 0e6e b33e b1d8 b53e
00000010: eb6f e03e 7431 13bf 0000 0000 0000 0000
00000020: 0000 0000 0000 0000 0000 0000 0000 0000
0.21384996 -0.18462232 0.35044903 0.35516885 0.43835387 -0.57497334 0.0 0.0
0.0 0.0 0.0 0.0

naim.embeddings.36.embeddings.weight f4 [2, 6]
00000000: 7a5e 32be 6bc5 db3e 92e6 0cbf 465d db3c
00000010: 211c d93b e45c e53d 0000 0000 0000 0000
00000020: 0000 0000 0000 0000 0000 0000 0000 0000
-0.17418852 0.42924055 -0.5503932 0.026777875 0.0066256677 0.11199358 0.0 0.0
0.0 0.0 0.0 0.0

naim.embeddings.37.embeddings.weight f4 [2, 6]
00000000: b259 2d3b d3a7 bdbe 4dca 0abe ba97 97bd
00000010: ad39 713e 939e fe3d 0000 0000 0000 0000
00000020: 0000 0000 0000 0000 0000 0000 0000 0000
0.0026451168 -0.37042102 -0.13553734 -0.074019864 0.23557158 0.124325894 0.0 0.0
0.0 0.0 0.0 0.0

naim.embeddings.38.embeddings.weight f4 [2, 6]
00000000: 4481 1d3d 21ed 84bd 7a3f b6ba 78b2 a43e
00000010: 6b8b 1dbe 5334 363e 0000 0000 0000 0000
00000020: 0000 0000 0000 0000 0000 0000 0000 0000
0.038453355 -0.06490541 -0.0013904416 0.3216741 -0.15385215 0.17793398 0.0 0.0
0.0 0.0 0.0 0.0

naim.embeddings.39.embeddings.weight f4 [2, 6]
00000000: ad30 39bd ee88 9cbe c4a5 093f dfa5 29bf
00000010: d0ad 623e b520 b43e 0000 0000 0000 0000
00000020: 0000 0000 0000 0000 0000 0000 0000 0000
-0.045212436 -0.3057322 0.53768563 -0.66268724 0.22136617 0.35181203 0.0 0.0
0.0 0.0 0.0 0.0

naim.embeddings.40.embeddings.weight f4 [2, 6]
00000000: 2903 c6bd 254c 813e c88e 083e ed1b 1ebe
00000010: da7a 89bd f03c b4be 0000 0000 0000 0000
00000020: 0000 0000 0000 0000 0000 0000 0000 0000
-0.096685715 0.25253406 0.13335717 -0.1544034 -0.06712885 -0.35202742 0.0 0.0
0.0 0.0 0.0 0.0

naim.embeddings.41.embeddings.weight f4 [2, 6]
00000000: ad34 19be 919b 6cbe d567 ba3e 7924 603e
00000010: db0a dc3e 3627 1c3f 0000 0000 0000 0000
00000020: 0000 0000 0000 0000 0000 0000 0000 0000
-0.149615 -0.23106219 0.36407343 0.21888913 0.42977032 0.6099733 0.0 0.0
0.0 0.0 0.0 0.0

naim.embeddings.42.embeddings.weight f4 [2, 6]
00000000: adb9 adbe 9761 433f 1601 863e 8fc5 dd3e
00000010: 4148 023e 0dfb 22be 0000 0000 0000 0000
00000020: 0000 0000 0000 0000 0000 0000 0000 0000
-0.33930722 0.76320785 0.26172704 0.43314788 0.12722875 -0.15916081 0.0 0.0
0.0 0.0 0.0 0.0

naim.embeddings.43.embeddings.weight f4 [2, 6]
00000000: b92c 87be a37d ea3c 73fa 323f 6eb2 033f
00000010: eaf4 cd3e f87e c4bd 0000 0000 0000 0000
00000020: 0000 0000 0000 0000 0000 0000 0000 0000
-0.26401308 0.028624361 0.69913405 0.5144414 0.40225917 -0.0959453 0.0 0.0
0.0 0.0 0.0 0.0

naim.embeddings.44.embeddings.weight f4 [2, 6]
00000000: c906 02bd 65e1 a23e d66f 6b3e adcf bbbe
00000010: 5b92 193e a51d 093f 0000 0000 0000 0000
00000020: 0000 0000 0000 0000 0000 0000 0000 0000
-0.031744752 0.31812587 0.22991881 -0.36681882 0.14997236 0.5356086 0.0 0.0
0.0 0.0 0.0 0.0

naim.embeddings.45.embeddings.weight f4 [2, 6]
00000000: 31e4 f8be 0e54 20bf dea2 91be 9f87 323e
00000010: 9825 f4be 123d 31be 0000 0000 0000 0000
00000020: 0000 0000 0000 0000 0000 0000 0000 0000
-0.48611596 -0.6262826 -0.2844457 0.17434548 -0.47684932 -0.17308453 0.0 0.0
0.0 0.0 0.0 0.0

naim.embeddings.46.embeddings.weight f4 [2, 6]
00000000: 2659 9dbd f1ac b03d 65b6 943e fb2b c5bd
00000010: a61b 0f3e eadf 573e 0000 0000 0000 0000
00000020: 0000 0000 0000 0000 0000 0000 0000 0000
-0.07683019 0.08626736 0.29045406 -0.09627529 0.13975391 0.2108151 0.0 0.0
0.0 0.0 0.0 0.0

naim.embeddings.47.embeddings.weight f4 [2, 6]
00000000: 79f0 aa3e b445 edbd 4697 00bf 75b2 86be
00000010: b01a 9c3e ca73 9ebe 0000 0000 0000 0000
00000020: 0000 0000 0000 0000 0000 0000 0000 0000
0.3338659 -0.115855604 -0.50230825 -0.26308027 0.3048911 -0.30947715 0.0 0.0
0.0 0.0 0.0 0.0

naim.embeddings.48.embeddings.weight f4 [2, 6]
00000000: 4e3d c73c e342 893e 8f2d ab3d 444a a93e
00000010: acfd 343f 4e34 c13e 0000 0000 0000 0000
00000020: 0000 0000 0000 0000 0000 0000 0000 0000
0.024321225 0.26808843 0.08358299 0.33064473 0.7069957 0.37735218 0.0 0.0
0.0 0.0 0.0 0.0

naim.embeddings.49.embeddings.weight f4 [2, 6]
00000000: 8de1 84be b7a9 863e 3719 9d3e be60 0abe
00000010: 9185 c8be 6d75 da3e 0000 0000 0000 0000
00000020: 0000 0000 0000 0000 0000 0000 0000 0000
-0.25953332 0.26301357 0.306833 -0.13513467 -0.39164403 0.42667714 0.0 0.0
0.0 0.0 0.0 0.0

naim.embeddings.50.embeddings.weight f4 [2, 6]
00000000: eeb3 0f3f f2e2 d43e d895 eebd 6a23 3fbe
00000010: d584 01be ec58 16bf 0000 0000 0000 0000
00000020: 0000 0000 0000 0000 0000 0000 0000 0000
0.56133926 0.41579396 -0.11649674 -0.18665853 -0.12648328 -0.58729434 0.0 0.0
0.0 0.0 0.0 0.0

naim.embeddings.51.embeddings.weight f4 [2, 6]
00000000: 8ced 533d 6f08 3c3e 1602 123f 950e 30bf
00000010: 7382 c03e 8a36 18be 0000 0000 0000 0000
00000020: 0000 0000 0000 0000 0000 0000 0000 0000
0.051740214 0.18362592 0.5703443 -0.6877225 0.37599525 -0.14864555 0.0 0.0
0.0 0.0 0.0 0.0

naim.embeddings.52.embeddings.weight f4 [2, 6]
00000000: 7de5 a93e aac0 7bbe a5a9 7abe 117d 6fbe
00000010: f3e2 f13d 1e9c bfbe 0000 0000 0000 0000
00000020: 0000 0000 0000 0000 0000 0000 0000 0000
0.33182898 -0.24585214 -0.24478777 -0.23387553 0.11810865 -0.37423795 0.0 0.0
0.0 0.0 0.0 0.0

naim.embeddings.53.embeddings.weight f4 [2, 6]
00000000: ffdb 89be 4f8d 36be f786 243e f152 50bd
00000010: c206 6e3f cd57 95ba 0000 0000 0000 0000
00000020: 0000 0000 0000 0000 0000 0000 0000 0000
-0.26925656 -0.17827342 0.1606711 -0.05086035 0.9297906 -0.0011393965 0.0 0.0
0.0 0.0 0.0 0.0

naim.embeddings.54.embeddings.weight f4 [2, 6]
00000000: d061 513e c283 0e3f 4ac9 d33e 1eae 573e
00000010: bb7a 24bf cb8f 003e 0000 0000 0000 0000
00000020: 0000 0000 0000 0000 0000 0000 0000 0000
0.20447469 0.55669796 0.4136451 0.21062514 -0.6424977 0.12554853 0.0 0.0
0.0 0.0 0.0 0.0

naim.embeddings.55.embeddings.weight f4 [2, 6]
00000000: 32a4 ac3e f19e abbe 06db 15bf 3ae7 123f
00000010: dfaf d0bd 985c 29be 0000 0000 0000 0000
00000020: 0000 0000 0000 0000 0000 0000 0000 0000
0.3371902 -0.335197 -0.5853733 0.57384074 -0.10189795 -0.16539228 0.0 0.0
0.0 0.0 0.0 0.0

naim.embeddings.56.embeddings.weight f4 [2, 6]
00000000: 2346 cebe a0ad f1be 63bf 513e 4c3e 9abd
00000010: 016e ddbe 2ef2 64bd 0000 0000 0000 0000
00000020: 0000 0000 0000 0000 0000 0000 0000 0000
-0.40287885 -0.47202778 0.20483164 -0.075314134 -0.4324799 -0.055895023 0.0 0.0
0.0 0.0 0.0 0.0

naim.embeddings.57.embeddings.weight f4 [2, 6]
00000000: 8e40 e93e ad06 b1be ec7a 62be a718 903e
00000010: 13d1 3c3f 2d30 79bc 0000 0000 0000 0000
00000020: 0000 0000 0000 0000 0000 0000 0000 0000
0.45557064 -0.34575406 -0.22117203 0.28143808 0.7375652 -0.01520924 0.0 0.0
0.0 0.0 0.0 0.0

naim.embeddings.58.embeddings.weight f4 [2, 6]
00000000: c2ee f4bd 5d08 b63c dcf7 2d3d 77a1 4ebd
00000010: 8b31 c83d 6550 8abe 0000 0000 0000 0000
00000020: 0000 0000 0000 0000 0000 0000 0000 0000
-0.11959602 0.022220785 0.042472705 -0.050446954 0.097750746 -0.2701446 0.0 0.0
0.0 0.0 0.0 0.0

naim.embeddings.59.embeddings.weight f4 [2, 6]
00000000: 5ac5 a73e 83cb 3dbe 78d6 89be d192 363f
00000010: 422e 933e 4291 e03e 0000 0000 0000 0000
00000020: 0000 0000 0000 0000 0000 0000 0000 0000
0.32767755 -0.18534665 -0.2692144 0.71317774 0.2874623 0.43860823 0.0 0.0
0.0 0.0 0.0 0.0

naim.embeddings.60.embeddings.weight f4 [2, 6]
00000000: 3477 0ebf 84dc 75bd 9285 733d 091f 093f
00000010: 9fb4 8f3e 065c c73e 0000 0000 0000 0000
00000020: 0000 0000 0000 0000 0000 0000 0000 0000
-0.5565064 -0.060024753 0.059453554 0.5356298 0.2806749 0.38937396 0.0 0.0
0.0 0.0 0.0 0.0

naim.embeddings.61.embeddings.weight f4 [2, 6]
00000000: b525 71be 2e48 413d e6c5 103e c0bf 9abd
00000010: 2291 703e 958d f7bd 0000 0000 0000 0000
00000020: 0000 0000 0000 0000 0000 0000 0000 0000
-0.2354954 0.047187977 0.14137992 -0.07556105 0.23492864 -0.120875515 0.0 0.0
0.0 0.0 0.0 0.0

naim.embeddings.62.embeddings.weight f4 [2, 6]
00000000: d681 953e 6e4b 243e d999 35bf fe3b 89bd
00000010: caab c8be 2ed0 f3be 0000 0000 0000 0000
00000020: 0000 0000 0000 0000 0000 0000 0000 0000
0.2920062 0.16044399 -0.7093788 -0.06700896 -0.39193565 -0.47619766 0.0 0.0
0.0 0.0 0.0 0.0

naim.embeddings.63.embeddings.weight f4 [2, 6]
00000000: 2b6d 443f 0e9f ab3e b837 a3be ca08 343e
00000010: 351c 67be 248b 20be 0000 0000 0000 0000
00000020: 0000 0000 0000 0000 0000 0000 0000 0000
0.7672908 0.33519787 -0.31878448 0.17581478 -0.22569354 -0.15678078 0.0 0.0
0.0 0.0 0.0 0.0

naim.encoder.0.layer_norm_1.weight f4 [6]
00000000: 54b3 7f3f 11ae 7f3f 6bb6 7f3f 19c7 7f3f
00000010: 6fb4 7f3f 5db6 7f3f
0.9988301 0.9987498 0.9988772 0.99913174 0.99884695 0.9988764

naim.encoder.0.layer_norm_1.bias f4 [6]
00000000: 581b d9b8 6fff c139 c1c8 6f39 6d26 4537
00000010: 044c a3b9 1a0c 333a
-0.000103524595 0.00037002141 0.00022867603 1.1751062e-05 -0.0003114642 0.00068301114

naim.encoder.0.attn.linear_q.weight f4 [6, 6]
00000000: 82f8 cfbd 0059 173d 0de6 dfbd 1a10 ccbe
00000010: b857 2abd 43bb 4a3e 0e00 3ebd b197 4cbe
00000020: fb30 563c 3621 963d 9cb5 e6bd 0d7d a1be
00000030: c77d 5fbe 7cf6 89bd 9ae2 163e 4e41 b93e
00000040: 2614 e63b e2e4 153e c650 6f3e 0cfb 34be
00000050: 643b 0abe be06 8a3e b253 953e d110 c63d
00000060: 68e8 a0be 77f9 6b3e 5920 acbe 111c 503e
00000070: ae39 433d 62c0 053e 4114 cbbe 33a3 11be
00000080: d433 303e 0038 a03e 88af ecbd 6dba b93e
-0.10154821 0.03695011 -0.109325506 -0.39856035 -0.04158756 0.19797997 -0.04638677 -0.1997974
0.013073201 0.07330553 -0.11265108 -0.3154072 -0.21825324 -0.06736466 0.14734879 0.36182636
0.007021445 0.14638093 0.23370656 -0.17673892 -0.13499218 0.2695827 0.29165417 0.09671176
-0.31427312 0.23044382 -0.3361843 0.20323206 0.04766243 0.1306167 -0.3966389 -0.14222412
0.17207271 0.31292725 -0.115569174 0.36275044

naim.encoder.0.attn.linear_k.weight f4 [6, 6]
00000000: 0c85 b8bd fbce 7abe c88b 34be 9140 d53c
00000010: d68d 93bd a120 493e 3a04 66be 13f8 ebbd
00000020: 927c cebe 55f9 a93e 1cff 9abd 5c20 a4be
00000030: e667 97bc bff1 c939 6678 e63d 0263 3bbd
00000040: 1fd1 823e e735 10be 78ad f7bd a5e0 c3bd
00000050: d3f8 923d d8d6 a63e 7845 9bbc 5e29 a03e
00000060: 5c8e a33e c25d 58be 05ed 11bd 0250 44be
00000070: 2db6 2c3e 00b3 11be 354e fe3d e729 be3c
00000080: 0a92 88be e8d1 8cbe 1a82 cbbe fb8b 68be
-0.09009752 -0.2449302 -0.17631447 0.026031764 -0.072047874 0.19641353 -0.2246255 -0.11521926
-0.40329415 0.33198038 -0.075681895 -0.32055938 -0.01848216 0.00038517822 0.11253433 -0.045748718
0.25550172 -0.14083062 -0.120936334 -0.09564332 0.07176366 0.32585788 -0.018954024 0.3128156
0.3194455 -0.21129516 -0.03562643 -0.19171146 0.1686637 -0.1422844 0.124172606 0.02321334
-0.2667392 -0.27503896 -0.39747697 -0.22709648

naim.encoder.0.attn.linear_v.weight f4 [6, 6]
00000000: c270 e83d b706 cc3c 09fa 9c3e b693 b7be
00000010: 6df0 3dbc 0369 bbbe 6607 253b 91cf 173e
00000020: a450 bbbe 085e b83e 7f5a 01be 190f b93e
00000030: b723 8abd 7b61 6c3e ec38 be3e 6aa8 18be
00000040: fdbc ccbd 72e8 5b3e a1a7 b2be 0472 763e
00000050: 94e3 82be 6bda c13e ddb7 88be 3de7 2bbe
00000060: 6e85 9b3e f527 35be 0290 b23e ff56 8f3e
00000070: 8e93 be3e 5327 cabe 8333 833b e3ad 08be
00000080: 3228 c63d 8f89 9dbe 57f0 2a3e cfc4 a5bc
0.11349632 0.024905546 0.30659512 -0.35854882 -0.0115929665 -0.36603555 0.0025181412 0.14825274
-0.3658496 0.3600924 -0.12632178 0.3614433 -0.06745093 0.23084061 0.37152803 -0.14907995
-0.09996984 0.2147539 -0.34893516 0.24066931 -0.25564253 0.37861952 -0.26702777 -0.16787429
0.30375236 -0.17691024 0.34875494 0.2799606 0.3722195 -0.39483127 0.0040039434 -0.13347583
0.096756354 -0.3076901 0.16693245 -0.020235447

naim.encoder.0.attn.linear_o.weight f4 [6, 6]
00000000: d950 44be 0e61 bbbe 3559 593e a7fe 15be
00000010: 1e93 993e ea8c 923d d5a0 fb3d 724a 78bd
00000020: 6751 62bd 03af 0cbe ee53 b4be 23bf 823e
00000030: 1a72 83be 9fee 733e 34b1 0cbe 030d 833e
00000040: d243 b33e 474c 7fbe a928 ac3e 6243 153c
00000050: a716 a0be f3cb 293e f8cf 6b3e a9ce b73e
00000060: 6722 c7be fa8c bc3e e14d 9e3e d667 cd3e
00000070: ad65 633e 1774 4bbe 2e96 9e3e 1402 bf3e
00000080: 7bd4 1fbe 1763 88bd 489d a33e 9a33 a83e
-0.19171466 -0.36597484 0.21225436 -0.14647923 0.29995054 0.071557835 0.12286536 -0.06061787
-0.055253413 -0.13738637 -0.35220283 0.2553645 -0.2567299 0.23821495 -0.13739473 0.25595865
0.3501268 -0.24931441 0.3362477 0.009110304 -0.31267282 0.16581707 0.23028553 0.35899857
-0.38893434 0.36826307 0.30918792 0.40118283 0.22206755 -0.19868504 0.30973953 0.37306273
-0.15608399 -0.06659525 0.31955934 0.3285187

naim.encoder.0.layer_norm_2.weight f4 [6]
00000000: 67c9 7f3f 73cd 7f3f 19c2 7f3f 48e6 7f3f
00000010: 9ae6 7f3f 651a 803f
0.9991669 0.99922866 0.99905545 0.99960756 0.99961245 1.0008055

naim.encoder.0.layer_norm_2.bias f4 [6]
00000000: 3aa5 383a caf9 683a 1684 53b9 87be 0eba
00000010: 6814 7cba 3f70 d6b9
0.00070436636 0.0008887319 -0.00020171734 -0.0005445261 -0.0009616078 -0.0004090089

naim.encoder.0.ff.0.weight f4 [1000, 6]
00000000: 4978 893e 377b 9f3e d1b3 55be cfcb 8dbd
00000010: c1be 25be c30a 583e c6ca cd3d c80e a1be
00000020: 01b9 50bd eacc a9be c50c c4be e1eb bd3e
00000030: b9ec 51be 984f 393e e529 b8bd 4fc2 a6bd
00000040: 0fd8 c939 de6d a23e fe47 62bd 9f4c ac3e
00000050: 594a 733e ccb7 8e3e 45e7 bcbe 3e21 42be
00000060: 2edc a9be a6c9 afbd 8784 abbd 3ec2 a83d
00000070: 2eac ba3e ceb9 3a3e f4e5 90be 848a 82be
00000080: 0335 9d3e ce3d 243d cd47 ea3d 8288 59be
00000090: fbdd 49bd d7a4 eb3d 2c0a 89be 2d43 883e
000000a0: ae5c 4f3e 7695 72be fe81 2abe a125 c2bd
000000b0: 0a4a 803d 0525 18be 7f4b c73e 67b1 c8be
000000c0: ed24 6bbe 47a6 7cbe 7275 e03d 971e 683d
000000d0: 9209 ecbd 5ac5 b13e 93ca b3be 5986 123e
000000e0: 8ab7 64be 82c8 bbbd 879f c8be 4a5c 9bbe
000000f0: 48ae b0be 337f 353e e7d9 1bbe b45f 593e
00000100: fc49 61be c150 cdbd b3f6 473d 6887 ae3e
00000110: 46cd debd e606 713e 151d e53d bb16 7d3e
00000120: ae6c 833e d474 283e 5881 fdbd 4062 e8bd
00000130: 26b0 213e 38ae 623e cafa b6bc fc47 503e
00000140: eb4e 7abe 9067 6a3e 2571 4cbd 1234 8fbe
00000150: 1ed8 49be affc 9ebe fd4f a63d 229b 76be
00000160: 68de ecbd edd6 c8bc 3ce1 7dbe ce1a 3c3c
00000170: 4436 50bd e620 033e 215a 963e 4325 7bbe
00000180: e2ee 633e dc8a 17bc f6b4 6dbe af98 3dbe
00000190: d934 d23d 232d ac3d 43f0 53bc b00b 4fbe
000001a0: 4bc7 513e d6a7 733d 5195 cabe 765a 91bd
000001b0: 4573 e0bd 2863 31be 3d9e 66be b8ee a8be
000001c0: 6b33 cd3e ef43 bebe a065 c23e 18de a3be
000001d0: 2eae c8bd c626 2cbe 324c 5fbe 6874 133e
000001e0: cd03 713e 500d 89be 7d79 41be 0ec1 553e
000001f0: cf91 4cbd 4256 c93d 4b47 593e 8d4e 19be
00000200: bdbb 66be 87b5 183e 8ee0 18be 7f77 8abe
00000210: cfc7 52be 7e33 41be 1776 cf3e fb1d 9f3d
00000220: 2ebd 323e 0bb1 643d 3440 8cbe 0d32 963e
00000230: bc6b 7fbd 0937 d6bd 4faf a93e d7a4 53be
00000240: 6995 a73d 2c33 b1be 31f7 543e 38ca 243e
00000250: e23a abbe af22 683e 01c9 3b3d a2a7 56be
00000260: a136 b23e 8953 323e a402 123e 5b5c 1bbe
00000270: 3a37 64be bb25 60be b340 1c3e 1f9e e03d
00000280: a8ff 78be cd95 bd3e d846 723e 5c80 1ebe
00000290: d808 573e a4f4 2fbe 39f3 013e 0d55 ad3e
000002a0: a239 b8be 1489 4ebe 5a40 b3bc d73a 743d
000002b0: 3046 abbe 51e8 88be dbed 1bbd c4a0 6dbd
000002c0: f43e b23d 156b 503d e23e a93d 5686 e53c
000002d0: 18be 413d 7a50 babc 20f6 143e b710 8e3e
000002e0: 2b4d 4fbe 8439 57be 7f52 363e d398 96be
000002f0: 0342 873e bd9b 403e ee1c 753d 032a 34be
00000300: d447 413c 3e9a a4be af66 bbbe 2f2d c43e
00000310: e8da babe e2cb acbe ab26 21be 9b7d bf3c
00000320: d316 bd3d 1bb4 4cbe 6dad 1ebd 195c babd
00000330: c141 ae3e aed1 b43e e997 2a3e ab3c b0ba
00000340: a817 9c3e f419 a8be 6e57 2d3e e0bd 71be
00000350: a660 a23e e51e b8be c20a 1a3e 8f30 abbe
00000360: 01c4 723e 0dc9 973d 29b6 b23e 550e 9dbe
00000370: 8ffa 853e 24df 8abe b759 60be 69c3 1d3e
00000380: 3e99 8abd eb5f a4be 9634 b1be 3ec7 d9bd
00000390: 6578 e63d 56ed b63e c313 993e 7406 fd3b
000003a0: 301a 7fbe 7faf b9be 601a ba3e 39da 67be
000003b0: a6af 94bd 5903 a8be f5d9 8fbe 3ced 9f3d
000003c0: b422 ccbd 2266 3a3d dd19 5fbb 3eac b03c
000003d0: 52c3 a4bd de8f 89bc 016a 343e 2e06 983e
000003e0: 130c b03e dadc a9be 110a b0be 3bf2 74bd
000003f0: 94ab f5bc c195 653e 5619 c43e 9845 d43d
0.26849583 0.31148693 -0.20869376 -0.06923639 -0.16186048 0.21097855 0.100484416 -0.3145659
-0.050957683 -0.3316415 -0.38290992 0.37094024 -0.20500459 0.18096769 -0.08992366 -0.0814253
0.00038498684 0.31724447 -0.05524444 0.33652207 0.2375883 0.278746 -0.36895195 -0.18957993
-0.33175796 -0.08583383 -0.08374887 0.08240174 0.36459488 0.18234941 -0.2830044 -0.25496304
0.30704507 0.040098004 0.11439476 -0.2124348 -0.049283963 0.1150605 -0.26765573 0.2661375
0.20250198 -0.23689827 -0.1665115 -0.094798334 0.06264122 -0.14857872 0.38924786 -0.39197847
-0.22963305 -0.24672805 0.10959901 0.056669798 -0.11525263 0.3472088 -0.3511549 0.14309062
-0.2233564 -0.09169103 -0.3918421 -0.30343848 -0.34507966 0.17724304 -0.15219842 0.21227914
-0.22000879 -0.10025168 0.048819255 0.34087682 -0.108789966 0.23537788 0.111871876 0.24715702
0.25668854 0.16450816 -0.12378186 -0.11346865 0.15789852 0.22136772 -0.022336382 0.2033996
-0.24444167 0.22891068 -0.04991259 -0.27969414 -0.19711348 -0.31052157 0.08120725 -0.24082616
-0.11565858 -0.024516547 -0.24792951 0.011481 -0.050833 0.12805519 0.29365638 -0.24525933
0.22259095 -0.009249415 -0.23213562 -0.18515275 0.10263986 0.08407047 -0.012935701 -0.20219302
0.2048618 0.059486233 -0.39567044 -0.07097332 -0.10959486 -0.17322981 -0.225213 -0.32994628
0.4007829 -0.37161204 0.3796816 -0.32005382 -0.09798847 -0.16811666 -0.2180641 0.14399874
0.23536606 -0.2676797 -0.18894 0.20874426 -0.04994374 0.098309055 0.21218602 -0.14971371
-0.22532554 0.14912997 -0.14929411 -0.27044293 -0.20584033 -0.18867299 0.40519783 0.0776939
0.17454979 0.055832904 -0.27392733 0.2933506 -0.062358603 -0.10459716 0.33141562 -0.2066835
0.081827946 -0.34609354 0.20797421 0.16092765 -0.33443362 0.2266948 0.04584599 -0.20962384
0.34807304 0.17414679 0.1425882 -0.1517195 -0.22286692 -0.21889393 0.15259056 0.10967659
-0.24316275 0.3702835 0.23659837 -0.15478653 0.20999467 -0.17183167 0.12690438 0.3385395
-0.3598147 -0.20169479 -0.021881271 0.059626427 -0.33451986 -0.26739743 -0.038068634 -0.058014646
0.087034136 0.05088337 0.08263947 0.028018158 0.04730043 -0.022743452 0.14547014 0.27747127
-0.20244281 -0.21018034 0.17804907 -0.2941347 0.2641755 0.1880941 0.059842043 -0.17594151
0.01179691 -0.32148927 -0.3660178 0.38315722 -0.36495137 -0.337493 -0.15737407 0.023375323
0.09232869 -0.1999058 -0.03873961 -0.090995975 0.3403454 0.35316223 0.16659512 -0.0013445815
0.30486798 -0.328323 0.16927883 -0.23607588 0.31714362 -0.3596107 0.15043166 -0.33435485
0.23707582 0.07411394 0.34904602 -0.30674997 0.26167724 -0.27123368 -0.21909223 0.15406574
-0.0676751 -0.3210443 -0.34610432 -0.106337056 0.11253432 0.35727948 0.2989789 0.0077217165
-0.24912333 -0.36266705 0.36348248 -0.22641839 -0.07260065 -0.32815054 -0.28095976 0.07808921
-0.099675566 0.045507558 -0.0034042515 0.021566506 -0.08045067 -0.016792234 0.17618562 0.29692215
0.34384212 -0.3317631 -0.3438268 -0.05980132 -0.029989041 0.22420408 0.3830058 0.103648365

naim.encoder.0.ff.0.bias f4 [1000]
00000000: 506f 813e a1dd 56be d17c 69bd 7eeb 1b3d
00000010: f7de 8f3e ad83 383e fe3c c93e cd26 5fbe
00000020: b58c 03bd c7e4 07bd 37b3 a93e 54b0 c43e
00000030: ad7d d43d 8592 a8be 9bf4 96be 556d 973d
00000040: 687a b7be bb0f 12be 0611 9cbe e423 553e
00000050: 91ea 61bd 7f02 a3be b912 883e 41a8 b8be
00000060: 2412 25bd 2a9e c83e 519e 513e 1d70 b4be
00000070: c6da 2f3d 8b35 7bbd 87da 383e 4e8e c03e
00000080: 1580 b13e 791c 23bd 5fab 3f3e 3598 ccbe
00000090: a925 a43e 3128 5d3e 1363 92be 8196 f1bd
000000a0: c039 21be 5618 73be 3b4f 2b3e d58e f1bd
000000b0: 3f27 2d3e 1593 fbbd b6c0 a13e e944 23be
000000c0: d9b8 8ebd 4cd8 00be cc0a 923c eebd 18be
000000d0: 002b 92be d600 c6be 90d9 813e ac73 643d
000000e0: b1ba 85be dce3 583e 0e5c 2a3d 15a0 15be
000000f0: 226a d4bc 4a70 3a3d 2eca 953e 987d bfbe
00000100: 6e90 a1be 3be5 a7be 2180 a3be 6ef0 563b
00000110: 0db6 673e f29f d83d fb18 303e 4fb6 4a3d
00000120: 72ce f4bb 88b7 bcbe 6fe9 b93e c162 c93e
00000130: bdb8 5abb fbbc 983d d8b4 983d a53b ce3e
00000140: b644 a1ba 59a9 88bd 2663 62be 8e76 d73d
00000150: 46c5 403e d5c4 afbe e8c7 0f3e 1f0a d23d
00000160: 28c3 393e 8ad8 423e 7bdb d9bd 0fa5 5d3d
00000170: 56d4 91be ddb8 7a3e 2135 afbe 3cb8 b6be
00000180: ca56 9abe 7d01 68be 1e6a 923c 9787 883e
00000190: 467b 5cbd a58b 953e 5305 89bd 0aa0 b03e
000001a0: 13a6 8f3e 8f7f 833e 645f 293e 8232 8cbe
000001b0: 1d3c cc3e 4d51 c6be 9cdf 91be 465b 7bbe
000001c0: 2f06 dabd acee 353e 786e ab3d 0357 b3be
000001d0: e24b c93e bd95 c33e 6be6 4c3e 841b ccbe
000001e0: aba4 683e 4fcd ec3d 13d0 49bd 946f aebe
000001f0: 191d b13e 1983 f7bd 6573 a8be 923c a13e
00000200: e43e 233e 7060 f43d 877a 863e 90da 103e
00000210: 05f4 b6bd 0860 8fbd b442 ac3e 308e 53bc
00000220: 09f6 adbe 29c6 8fbe 5714 9dbe 2de2 203d
00000230: 2582 983e bd1e 793e ea7b dc3d 7fb9 0a3e
00000240: d2c2 44be 2403 c33e 724e 1e3e 1a15 83be
00000250: 38a5 8abe 7696 babe 1d35 ebbd 74df 983e
00000260: ca58 c93c 5ae3 44be 3bee e93d 14cd 90be
00000270: f3f4 f63d 60cf 8e3e b72e 4a3e fd49 fcbd
00000280: 5311 0dbe 47f8 2e3e 9020 793e 817d cabd
00000290: b802 d7b8 e211 3fbd 0255 45bd 84de b8be
000002a0: 3cd0 abbe 9491 b23e 2323 48be 5fee 993e
000002b0: 3e30 813e c209 81bd 90ed 48be 4ec3 6b3c
000002c0: a477 8fbd fdb3 76be 5a30 cb3e b3f5 ffbc
000002d0: a7ae 7fbd 0a4c 8dbe 0ec0 893d d03d 653d
000002e0: 3c09 ce3e 76de ffbd a31f 6a3e 57f4 983c
000002f0: 089c 5d3e fa31 cd3b d6dd 8ebd 70d1 233e
00000300: 60ee 38be 5858 7c3e b571 aebe a85d 95be
00000310: e583 c63e ad57 1cbe 248d a5be 8327 98be
00000320: dd2c ca3e 0971 66bd 5339 afbe 413d 6dbd
00000330: 5d77 4abe 7e90 8bbe 4e4b 4bbe 1d0b 9e3e
00000340: d55d 293e f650 733e 5d6b 063d 4278 2dbe
00000350: 0199 29be efaf 8bbe 0561 96be 4f90 b3be
00000360: 63bf 923d 6552 5a3e f5fa a93e 0e8a 2dbc
00000370: b9d7 6fbd 3c0d 0ebd 5d2e 253e 3d0c 82bd
00000380: 4268 12be 2c34 e6bd 7a86 cbbe 8d54 a0be
00000390: ff34 32be 4c3c 1f3d 8fa0 82be 9c10 1f3e
000003a0: 955c 63be 1cf3 c93e 190e b8be d8f9 673e
000003b0: 96bc 57be a3ea 12be e486 c2be 860e c1be
000003c0: b336 c5be bd12 f0bb 7ef8 bf3e b296 3f3e
000003d0: df5d 823e 6162 bb3d 5250 20be a889 21be
000003e0: ba8f f6bd 0a9e c2be 5245 653e b657 f6bd
000003f0: f057 6bbe fad8 d03d a269 423a 3936 623e
0.25280237 -0.20982982 -0.0570038 0.03806638 0.28099796 0.1801898 0.39304346 -0.21792145
-0.03211661 -0.033177163 0.33144543 0.38415778 0.10375533 -0.32924286 -0.29483494 0.073939
-0.35835576 -0.14263813 -0.30481738 0.20814472 -0.05515534 -0.31837842 0.26576784 -0.36065868
-0.040300503 0.3918317 0.20470549 -0.35241786 0.042933248 -0.06133036 0.18052112 0.3760857
0.3466803 -0.039822076 0.18717717 -0.39959875 0.32059982 0.21597363 -0.28591213 -0.117962845
-0.15744686 -0.23739752 0.16729443 -0.11794821 0.16909502 -0.12283913 0.3159234 -0.15944256
-0.06968851 -0.1258251 0.017827414 -0.14916202 -0.2854843 -0.38672513 0.253613 0.055774376
-0.26118997 0.21180671 0.041591696 -0.14611848 -0.025929514 0.045517243 0.29255813 -0.37400508
-0.31555504 -0.32792076 -0.31933692 0.0032797116 0.2262804 0.10577382 0.1719703 0.04949027
-0.0074708993 -0.36858773 0.36310908 0.39333156 -0.0033374273 0.0745792 0.07456368 0.4027988
-0.0012303803 -0.066729255 -0.22108135 0.105206594 0.18825254 -0.34329858 0.14041102 0.10255837
0.18140852 0.19027916 -0.10637566 0.05411249 -0.28482312 0.24484582 -0.34220222 -0.35687435
-0.3014434 -0.22656818 0.017872866 0.26665947 -0.0538285 0.29208103 -0.06690469 0.344971
0.28056392 0.25683257 0.16540295 -0.27382284 0.39889613 -0.38733903 -0.28490913 -0.24546537
-0.10645711 0.17766827 0.083706796 -0.35027322 0.39315706 0.3820018 0.20009772 -0.39864743
0.22719066 0.11562597 -0.0492707 -0.34069502 0.34592512 -0.12085552 -0.3290054 0.31491524
0.1594196 0.119324565 0.26265356 0.14145875 -0.08933262 -0.070007384 0.3364464 -0.012912318
-0.33976772 -0.28080872 -0.3067958 0.039278198 0.29786792 0.24328132 0.10765822 0.13547324
-0.19214943 0.38088334 0.15459612 -0.25602037 -0.27079177 -0.36442918 -0.1148474 0.2985798
0.02457847 -0.19227353 0.11422392 -0.28281462 0.12058439 0.2789259 0.19744383 -0.123188
-0.1377614 0.17086898 0.24328828 -0.09887219 -0.00010252505 -0.046647914 -0.048176773 -0.36107266
-0.33557308 0.34876692 -0.19544654 0.30064675 0.25232118 -0.06300689 -0.19621873 0.014389826
-0.070052415 -0.24092098 0.39685327 -0.031245088 -0.06242242 -0.27597076 0.06726085 0.055967152
0.4024142 -0.12493603 0.22863631 0.018671198 0.21641552 0.006262061 -0.069759056 0.15997863
-0.18059683 0.24643075 -0.34071127 -0.29173017 0.38772503 -0.1526782 -0.32334244 -0.29717645
0.39487353 -0.056260142 -0.34223422 -0.057919744 -0.19772096 -0.27258676 -0.19852945 0.30867854
0.165397 0.23761353 0.032817233 -0.16940406 -0.16562273 -0.27282664 -0.29370895 -0.35071036
0.0716541 0.21320494 0.33199278 -0.010591997 -0.05855534 -0.03468059 0.16130967 -0.063499905
-0.14297584 -0.1124042 -0.39751035 -0.31314507 -0.17403029 0.038875863 -0.2551312 0.1553368
-0.22203286 0.3944329 -0.35948256 0.22653902 -0.21068034 -0.1434732 -0.37993538 -0.37706393
-0.38518295 -0.0073264525 0.37494272 0.1870983 0.25462243 0.09149624 -0.1565564 -0.15775168
-0.120391324 -0.380112 0.22389725 -0.12028448 -0.22982764 0.10197635 0.0007416253 0.22090997

naim.encoder.0.ff.3.weight f4 [6, 1000]
00000000: 71de 7cbc 9bfe 5bbc 63e7 15bc 5cd2 0dbc
00000010: f704 1ebc 67f2 7f3b 5457 06bb 9951 6bbc
00000020: ba4e 9e3c 426f bb3c 22d3 90bb 82ee b9bb
00000030: 158a fdbc 8d01 bebc 1dbf dcb9 02c2 a9bb
00000040: bf6d 0a3c dc97 72bc 6189 b0bb 20e7 ae3b
00000050: ef27 fe3c fd1d cc3c 27c5 a3bc 3bc1 d0ba
00000060: 4acd 92bb b371 2eb9 e9a9 603c 7223 41bc
00000070: f45f c2bb 680b fabc 4cbb 2abc c853 f7bc
00000080: 399c 403c 5ca4 bebc 18d7 73bc 71f0 b3bc
00000090: e0f2 cc3c db4b 0ebc c004 e43c d811 78bc
000000a0: ad3e c53c 4c15 aebb 9605 bbbc 1416 d83c
000000b0: ef5d a8bc 7f2c 96bc d257 943c 20cd 80bb
000000c0: b835 0ab9 4a3b 043d cf93 cfbc e665 3abc
000000d0: 6233 463c 31dc e0bb 4fc8 b93a e8c6 24bc
000000e0: 8e4d a5bb a67d d33c 1119 c1bb 3733 603c
000000f0: 96a0 ca3c 8f88 c63c 4553 7f3c 3374 b53c
00000100: c13d ecbb 6ee2 243b eb60 53bc e4e0 f9bc
00000110: 2b8d de3c 07e8 efbc 43a3 9dbc 6c6a 35bc
00000120: 93b7 e3bc 6753 cebc b1c6 84bc 9f4f 963b
00000130: 72b7 dabc d453 c0bc 4720 90bc ec42 c3bc
00000140: bb8d e03b 4df0 0a3b acd0 ef3b d12b ed3c
00000150: 2e48 56bc fa19 38bc fb8f 2c3c 1b94 e23c
00000160: a8d7 243c 3471 23bb 57bb 363c 2a18 f7bc
00000170: 15e9 b1bc 77c0 49bc a868 e2bc 0a63 bfbc
00000180: e13f ccbc b730 073c e149 0c3c a657 c4b9
00000190: 912c f4bb 7af8 893a b37e a43c a0a0 bfbc
000001a0: 2439 be3c 86cf 643c 7996 31bc e9a2 af3c
000001b0: 5604 333a 8695 6dbc bb77 e83c 7b63 263c
000001c0: 7dd8 bd3c 38ad 08bc bc50 d6bc a266 d13c
000001d0: 89b3 373b 7015 7e3c eeb0 fdbb 7982 813c
000001e0: 32a3 c6bc 61cf f23a 396f cc3c fb01 15bc
000001f0: 89d7 e23c 6dd2 333c ac44 7a3c b0c0 033d
00000200: d90f ddbb 68f6 cfbb 6f52 a73c eb2d 81bc
00000210: a83b b9bc 72fd ad3c 07e4 dfbc eb59 6fbc
00000220: df90 f23b fd96 b13b 0f49 99bc 7270 04bc
00000230: 931d aa3c f9e0 9fbc f4af 993c f992 20bb
00000240: bb4a 2abc 1ede f3bc b13e 06bc 0925 d63c
00000250: c4f0 93bc 761c d1bc d628 37bb cca4 be3c
00000260: b813 16bc 4373 023d 1f76 003d b7a5 e53c
00000270: c9a5 8cbc b0ce b0bc 44cf ebbc 895e cebb
00000280: c5f2 acbc 20b6 7b3c 89ae 693b e1c3 ce3c
00000290: 9731 f0bc 28ea d6bc 94ee a1bb 139d f53b
000002a0: e9c7 e13c 8f5b f4ba 2fca e53c 1126 f8bb
000002b0: 23e2 69bb ba40 42bc 8a19 5dbc 41ba 40bc
000002c0: 0061 d9bc 264d 94bb 440f 27bc 8333 a3bc
000002d0: cc82 c5bc 6ca9 f6bc 772f debb 44ba cdbc
000002e0: 2b3b ef3c f213 fabb 39bf 0b3c 82f7 b3bc
000002f0: 3783 593b ba68 ecbc 7678 643c 7f54 813c
00000300: 1c50 fabc bf44 713c 440f 893b ee92 9cbc
00000310: 1a7e 66bc 5099 f93c d4da 8abc 96b2 ea3c
00000320: b8df e63b d71b 683c 2e91 81bc d894 223c
00000330: 4e40 013c 06b8 ce3c cfcc 02bd 5eab 37bc
00000340: 0133 a33a 7651 b3bc 8ae3 c93b 2bd6 a13c
00000350: 034f a13c 07d2 81bc f52c 613c 8e65 b8bc
00000360: 3ba5 9d3c 9328 d5bc 53d8 e5bc fcb8 3c3c
00000370: fe05 84bb 9c05 103c f9f9 f63c ff51 f33c
00000380: b119 9a3c 17a8 e2bc f649 7dbb a672 813b
00000390: a31f ffbc 5824 d53c 1ac5 a13c e545 6bbc
000003a0: 384b bcbb ef52 95bc e8ec 553c 8391 a83b
000003b0: 4150 39bc e53d 913c eaba dfbb c756 363b
000003c0: 69dd ad3c a95d 6abc f4f6 eabc b340 933c
000003d0: 4e43 a4bc 78b7 443c d8e9 08bc 340a b63c
000003e0: 7b92 ffb9 dd6c 69bc fa73 b5bc 3050 b03c
000003f0: 1c23 a3bc 1089 223c 3915 cd3c d70a cebc
-0.015433894 -0.013427402 -0.009149405 -0.008656111 -0.009644738 0.0039054395 -0.002049883 -0.014362716
0.01932465 0.0228802 -0.0044197002 -0.0056741843 -0.030949632 -0.023194099 -0.0004210406 -0.0051805982
0.008449017 -0.014806714 -0.0053874706 0.005337611 0.031024901 0.024916643 -0.01999147 -0.0015926728
-0.004480039 -0.0001663629 0.013712385 -0.011788236 -0.0059318487 -0.030523017 -0.010420632 -0.030191317
0.011755996 -0.023271732 -0.014882825 -0.021965237 0.025018156 -0.008685078 0.027834296 -0.015140973
0.024077738 -0.0053125974 -0.022829812 0.026377715 -0.020552604 -0.018331764 0.018108282 -0.003930703
-0.00013180717 0.032283105 -0.025339035 -0.011376834 0.012097212 -0.0068621864 0.0014174076 -0.010057189
-0.0050446456 0.02581675 -0.0058928807 0.013684086 0.024734776 0.024235038 0.015583818 0.022150135
-0.00720951 0.0025159377 -0.012901525 -0.030502744 0.027166924 -0.029285444 -0.019242888 -0.011072736
-0.027797496 -0.025186254 -0.016208025 0.0045871283 -0.026698802 -0.023477472 -0.017593516 -0.023835622
0.006852833 0.002120036 0.007318577 0.028951557 -0.013078732 -0.011236662 0.0105323745 0.027658513
0.010061182 -0.00249393 0.011153064 -0.03016289 -0.021717587 -0.012313954 -0.027637795 -0.023362655
-0.024932804 0.008251361 0.008562536 -0.00037449336 -0.007451602 0.0010526322 0.020079946 -0.023392022
0.023220606 0.013965493 -0.010839098 0.021439986 0.0006828954 -0.014500981 0.028377404 0.010155554
0.023174519 -0.00834208 -0.026161544 0.025561634 0.0028030595 0.015508041 -0.007742039 0.015809285
-0.02424774 0.0018524938 0.024955379 -0.00909471 0.027690666 0.010975462 0.015275162 0.032166183
-0.006746274 -0.0063465126 0.02042505 -0.015768966 -0.022611454 0.021239016 -0.027330412 -0.01460884
0.007402524 0.0054196105 -0.018711595 -0.00808345 0.020766055 -0.019516455 0.018760659 -0.0024501665
-0.010393794 -0.029769 -0.008193658 0.026140707 -0.018059142 -0.025526267 -0.0027947924 0.02327194
-0.009159975 0.031848203 0.03136265 0.02803312 -0.017168896 -0.021582931 -0.028785355 -0.0062978906
-0.021111855 0.015363246 0.003565701 0.025239887 -0.029320521 -0.026234701 -0.004941771 0.0074955313
0.027561145 -0.0018643009 0.02805051 -0.0075728972 -0.0035687767 -0.011856252 -0.0134948585 -0.011763156
-0.026535511 -0.0045257984 -0.010196511 -0.019922024 -0.02411022 -0.030110084 -0.0067805606 -0.025113232
0.029203018 -0.007631772 0.008529478 -0.021968607 0.0033189782 -0.028858531 0.013944736 0.015787361
-0.030555777 0.014725863 0.004182728 -0.01911303 -0.014068151 0.030468613 -0.016950049 0.02864961
0.0070457123 0.014166794 -0.015816297 0.009923182 0.007888867 0.025234234 -0.031933602 -0.011210291
0.0012451113 -0.02188943 0.006161158 0.019755444 0.019690996 -0.01584722 0.013743629 -0.022509363
0.019243827 -0.026020324 -0.028057253 0.011518713 -0.0040290346 0.0087904 0.030148493 0.029702185
0.018811079 -0.027668042 -0.003864882 0.0039504347 -0.031143015 0.026018307 0.019747306 -0.014359926
-0.0057462715 -0.018228022 0.013056971 0.0051442995 -0.011310638 0.017729709 -0.006827702 0.002782272
0.02122374 -0.014304557 -0.02868221 0.017975187 -0.020051625 0.012006633 -0.008356534 0.022221662
-0.00048746527 -0.014247146 -0.022150028 0.021522611 -0.019914202 0.009920374 0.025034534 -0.025151653

naim.encoder.0.ff.3.bias f4 [6]
00000000: 73e2 ecbc 0e26 7abb c39a 8ebc aa8f 55bc
00000010: c51b c83c 22bf ccbc
-0.028916573 -0.0038169655 -0.01740778 -0.01303474 0.024427304 -0.024993483

naim.encoder.1.layer_norm_1.weight f4 [6]
00000000: 51ad 7f3f 9ecf 7f3f 79a9 7f3f 1caa 7f3f
00000010: 18ac 7f3f 51a9 7f3f
0.99873835 0.99926174 0.9986797 0.9986894 0.9987197 0.9986773

naim.encoder.1.layer_norm_1.bias f4 [6]
00000000: 0ceb 253a f7d8 2cba 271d 2fba 0fdc 21ba
00000010: 36ac 65ba a285 ec39
0.0006329275 -0.00065936096 -0.0006680064 -0.0006174454 -0.0008761318 0.00045112992

naim.encoder.1.attn.linear_q.weight f4 [6, 6]
00000000: 01f4 97be 9dba 04be 3235 38be 68bf cb3d
00000010: 2673 853e dca5 803d a980 ed3b 5874 473e
00000020: da53 783e a96a 5a3c 597d 8cbe 9b74 b4be
00000030: 17ef cf3e ebba 063e efb6 be3e 3729 1fbe
00000040: e38c e43d f4c8 5abe 5bc0 5abe e2f7 3dbe
00000050: a33b d03e baba 973e f7ed 7fbe 8dc9 92be
00000060: 9f90 083e e78b c2bd 678b 963c a852 503d
00000070: c75c b6be 7d0b b63d 1453 22bb c0a0 91be
00000080: 5f0b cebe 1229 543e 4979 bebe 10fd 3abe
-0.29678348 -0.12961812 -0.17989042 0.09948617 0.26064414 0.06281635 0.0072480035 0.19477975
0.24250737 0.013331094 -0.27439383 -0.35245213 0.406121 0.13157241 0.37248942 -0.15543066
0.111596845 -0.2136572 -0.2136244 -0.18551591 0.406705 0.2963465 -0.2499312 -0.28669396
0.13336419 -0.094993405 0.01837702 0.050860077 -0.35617658 0.0888891 -0.0024768757 -0.28442955
-0.4024305 0.20718792 -0.37201908 -0.18260598

naim.encoder.1.attn.linear_k.weight f4 [6, 6]
00000000: 9cce 7c3e 09a4 8abe 84a6 44be 6c11 83be
00000010: 6cc1 743e ed3d 003e 4763 273d 9ae4 113e
00000020: 9489 ec3d cf16 aebd 68ba 14bd 782c 82be
00000030: 690f 43be 19bd f33b 86b9 45bd efed cf3d
00000040: 7718 453e 7baf 9f3e 3b9d c73e 6a8f f5bc
00000050: c895 233e 799e a8be 1da3 703e c8ee dcbd
00000060: 5234 a5be 3b17 a2be 7c98 adbe 7abc 3fbe
00000070: 7991 3d3e 0bd1 a9be a791 40bd 3191 7ebd
00000080: c675 183e 2724 29be c17e 523e 6f9a 80be
0.2468819 -0.27078274 -0.19204146 -0.2559923 0.2390191 0.12523623 0.040866163 0.14247361
0.115496784 -0.08500444 -0.036310583 -0.25424552 -0.19048847 0.0074383137 -0.048272632 0.10152804
0.19247614 0.31188568 0.38987145 -0.029975612 0.15975106 -0.32933405 0.23499723 -0.107877314
-0.3226648 -0.31658348 -0.339054 -0.18724242 0.18512525 -0.331673 -0.047013905 -0.062150184
0.14888677 -0.16517697 0.20556165 -0.25117823

naim.encoder.1.attn.linear_v.weight f4 [6, 6]
00000000: 0ca8 743e 247d d0be 1a54 8ebe ef28 133e
00000010: e0cd 813d 27ac 923e 06bf 593e 7c30 aebe
00000020: df3d a43e 7f33 d8bd c189 9bbd 08a5 30be
00000030: 8f25 8fbd 24a7 c2be 484e 033d 32fc 9c3e
00000040: 8a3b a8bd c638 a03e 28f2 3bbe 8630 293e
00000050: a4a4 213d 8430 21be 622c cb3e 612e 063d
00000060: 1ebd 983c 15ee 31bd ff2f adbc 77d9 a73e
00000070: a613 7bbd 7502 7a3e 56b3 173e 25fb 873e
00000080: 70be 9dbe 1d17 b7be 7402 08be 45cd e6bd
0.2389223 -0.40720475 -0.2779854 0.14371084 0.06338096 0.28646967 0.21264276 -0.34021366
0.32078454 -0.10556697 -0.07594634 -0.17250454 -0.069895856 -0.38018143 0.032057077 0.3066116
-0.08214481 0.31293315 -0.18354094 0.16522416 0.039463654 -0.15741163 0.396823 0.032759074
0.018644866 -0.043439943 -0.02114105 0.327831 -0.061298035 0.24415 0.14814505 0.26558796
-0.30809355 -0.35759822 -0.13282186 -0.11269621

naim.encoder.1.attn.linear_o.weight f4 [6, 6]
00000000: fb76 c73e 03f7 cd3e a4c8 c5bd 207f 47be
00000010: 71aa 86ba 3080 203e a6e1 0e3e 5b3e 9e3d
00000020: 5962 993e 1f93 323d 96d5 a83e b18a cb3d
00000030: 7cda 11bd 36f0 ad3e 2ac7 643c 69f4 893c
00000040: 0923 a0bd fc9b 753e 336a f8bd 39b3 a23e
00000050: 71bb 5e3e a921 ddbb 7c8a 89bd 5d62 233e
00000060: d671 cbbe 64f0 08be 3070 12be 1d87 47bd
00000070: f0b8 46be de3b 33be 3b78 453e fbec 2bbd
00000080: 9b34 90be cdf5 e6bc 88a6 053e 6209 28be
0.38957962 0.40227517 -0.0965741 -0.19482088 -0.0010274184 0.156739 0.13953266 0.07726737
0.29957846 0.043597337 0.32975453 0.09938563 -0.035608754 0.3397233 0.0139635 0.016840177
-0.078191824 0.23985285 -0.12129631 0.3177736 0.2175119 -0.0067483974 -0.06715867 0.15955491
-0.39735287 -0.13372952 -0.14300609 -0.04871284 -0.19406486 -0.17503306 0.19284146 -0.04197405
-0.28165135 -0.028193379 0.13051808 -0.1640983

naim.encoder.1.layer_norm_2.weight f4 [6]
00000000: a7da 7f3f 35bb 7f3f 7fc7 7f3f ec05 803f
00000010: 4cf3 7f3f c7fc 7f3f
0.9994301 0.9989503 0.9991378 1.0001807 0.99980617 0.9999508

naim.encoder.1.layer_norm_2.bias f4 [6]
00000000: 9b3c 283a e806 3f3a 7154 0e3a e5c5 bdb9
00000010: d5b6 77ba d345 1bba
0.00064177223 0.0007287101 0.0005429453 -0.00036196332 -0.00094495463 -0.00059231854

naim.encoder.1.ff.0.weight f4 [1000, 6]
00000000: 892c b13e 8c74 90be 2166 b53e 8abd 213e
00000010: 2909 6fbe 7b35 c5be d8d7 213e 751b 9cbd
00000020: 6478 f53d 0cac 333e c30d 8dbe 2ca3 483d
00000030: b73e b1bd 198c bbbe b9c6 913d 5efd b33d
00000040: 2240 9fbe 52fb c33e db78 5b3e 1872 6c3e
00000050: 4779 b5be 7110 b4be e348 333e 4f23 703e
00000060: 1c9e b2be ac0d c83e 71c4 b6bd 12cc a8be
00000070: 99af 98be 7c6b bfbd 456b 5c3e a985 8fbe
00000080: aa6f 993e 303d d03e 4ad1 c33e 3f0b 3d3e
00000090: a516 2abe 0995 1ebe 3b71 953e 42d4 acbd
000000a0: d783 7f3d ca80 d03e 4030 cfbe 6cea bebd
000000b0: 8f14 24be 0854 86bd c4e8 833c db0f b3bd
000000c0: e847 ca3e 7a5f 283e dfb8 82be 4fe3 c93e
000000d0: 67b6 e9bd c86a 6c3d 79f2 1d3d 8600 99be
000000e0: c16a 533e a809 7dbe 3d92 b9be 8bd9 ae3e
000000f0: 5319 7a3e 15c5 2dbe 0603 95be 0722 bc3e
00000100: ac94 123e ab15 8abe e75b adbe ccbd 2bbe
00000110: 9321 67be 1813 e43c c23e 213d aceb cbbe
00000120: 02a6 513e 90bd 533e 23bf bcbe 8d68 a73e
00000130: 252c 25be d8e7 553e 7759 cc3e c156 763e
00000140: 09b5 8b3e aa24 6e3c 87dd 6f3d 5023 b1be
00000150: d3fe 96be 9ab6 a73e 935d bebe 75ed 333e
00000160: 2e09 75be ab8a b43e 908d 993e b540 bcbd
00000170: 50bb 52bd ea64 90be 424c c23e 6aa7 7abe
00000180: 6144 143e 7f56 923e cbb0 c8be 11eb ccbe
00000190: e60b 92be 5546 7dbd 2a55 813e 8a06 fdbd
000001a0: 5072 2bbe 6e84 8a3e 5bfc a63e 8751 5c3e
000001b0: a6fb b33e 98de bbbe b4ce b9be cd01 8d3d
000001c0: a7c0 aebe ef00 e7bd 5a25 7d3e 5b74 ca3e
000001d0: fc9c a5bd 48ae b7be e903 4dbe 647d ca3e
000001e0: 764d 98bd 56bd c1be 9b05 5cbe 32b5 81be
000001f0: f4a8 d7bd fcab 96be 257c 0cbe cafa be3e
00000200: 0cb3 44be a375 b1bd 9971 693e f1aa c2be
00000210: 5c46 5abe f162 0fbd d304 a43e a3a0 673d
00000220: 1e0e 3cbb 7c72 0abe 2f69 423e 507a 32be
00000230: 2d10 82bd 0233 35be 06f4 1a3e 9dd7 cf3e
00000240: ad11 9dbe 74ed e3bc e76c e4bc b860 52be
00000250: e566 94be 9148 31be bb1a a3be 6158 9e3e
00000260: 0c86 93be 36cb 7d3e e634 ac3e a30d 98bd
00000270: d9da c13e b466 963e ef1b 91be 165d 6d3e
00000280: 7d1a d53d 8bd5 a33e cef8 9dbe 9507 a23e
00000290: 5a92 683d e861 4b3e d727 67be 7e41 893e
000002a0: 1554 eabc 2cb6 ab3e 40a2 0c3d 091a 813e
000002b0: 716f 83be 5696 b8be 1b94 113e 09b6 5d3e
000002c0: 2e26 e53d f944 023e 1514 893e dbc7 55be
000002d0: 4172 5e3e 6d2e 473e d53b 30be 7360 77be
000002e0: a8e9 cebe 1516 993e 086b adbb 24f3 bd3d
000002f0: 5244 93be 6f85 9cbe a9e1 aa3e ef9f 923e
00000300: bc7e 613e a0a9 a63e 17b4 a73e 554c 763e
00000310: 3060 963e 519d 58bd 5979 db3d c9ff b2be
00000320: ea5b 15be df78 20bd dc96 9cbc c180 cd3e
00000330: 55e1 a93e 1970 023e 993f c23e 06dd 53be
00000340: 56fd 9f3d 0624 a5be 8524 b1be 4f31 5e3e
00000350: f0e2 043e f0ce aabc 0496 86be 6307 963e
00000360: 8dbd 03bd 7010 8e3e 7ec0 8fbe 617b a03e
00000370: 90ce a1bc e30e 02be 3646 0cbd 81a4 a0be
00000380: 96aa 9abd f105 cb3c 371c 9abe 1f16 613e
00000390: dcc9 c43e bf4d 563e 4e25 4cbe 5341 81be
000003a0: bdfd a4be d932 80be 4633 783e 765f 3f3e
000003b0: 0640 1bbe 6d92 fd3b 7f30 81bd dd26 a23b
000003c0: 6137 cfbe 7422 b03e 3b75 11be 26e1 b3be
000003d0: 1545 06bc 1974 f73d 106e 3f3e fcf5 51be
000003e0: a83d f8bc 2a23 9cbe adf2 9cbe 0958 89be
000003f0: 88de 82be 72ac 823e 35e3 bbbe 1b0e acbd
0.3460429 -0.28213918 0.3542948 0.1579496 -0.23343338 -0.38517365 0.15804994 -0.076224245
0.11985853 0.175461 -0.27549562 0.048983738 -0.0865454 -0.36630324 0.071179815 0.0878856
-0.31103617 0.3827768 0.21432821 0.23090398 -0.3544409 -0.35168794 0.17508273 0.23450969
-0.34886253 0.3907293 -0.08924187 -0.32968193 -0.2982147 -0.09346673 0.21525295 -0.28031662
0.29968005 0.40671682 0.38245612 0.18461321 -0.166102 -0.1548654 0.2918795 -0.084389225
0.06238159 0.40723258 -0.404665 -0.09322056 -0.16023467 -0.065589964 0.016102202 -0.087432586
0.39507985 0.16442671 -0.2553167 0.39431235 -0.114117436 0.057719022 0.038561318 -0.29883212
0.20646192 -0.24710715 -0.36244383 0.34150347 0.24423723 -0.16969712 -0.2910387 0.3674471
0.14314526 -0.26969656 -0.33859178 -0.1677162 -0.22571401 0.027841136 0.03936649 -0.3982824
0.20473483 0.20677781 -0.36864576 0.32696953 -0.16130121 0.20889223 0.39912006 0.24056531
0.27286556 0.014535109 0.058560874 -0.34597254 -0.2949129 0.327565 -0.37180766 0.17571051
-0.23929283 0.35262045 0.29990816 -0.091920294 -0.051448166 -0.2820199 0.37948805 -0.24477926
0.1447921 0.28581616 -0.39197382 -0.4002309 -0.28524703 -0.061834652 0.25260288 -0.12354763
-0.16742826 0.2705416 0.32614407 0.21515475 0.3515293 -0.36693263 -0.36290514 0.06885109
-0.34131357 -0.11279475 0.2472128 0.39541897 -0.08086583 -0.35875154 -0.20021023 0.3954879
-0.074366495 -0.37839764 -0.21486513 -0.25333554 -0.10530272 -0.2942809 -0.13719232 0.37300712
-0.19208926 -0.086650155 0.2279724 -0.38021043 -0.21315902 -0.035006467 0.3203493 0.05654968
-0.0028694938 -0.13520235 0.18985437 -0.17429471 -0.063507415 -0.17695239 0.1513215 0.40594187
-0.30677548 -0.027823187 -0.02788396 -0.20544708 -0.28984752 -0.17312838 -0.3185633 0.30926803
-0.28813207 0.2478455 0.33634108 -0.07424476 0.3786228 0.2937523 -0.28341624 0.2318004
0.10405443 0.31998858 -0.30853885 0.3164641 0.056780197 0.19861567 -0.22573791 0.2680778
-0.028604547 0.33537424 0.03433442 0.25215176 -0.2567096 -0.36052197 0.14216654 0.21651472
0.11188923 0.12721623 0.26773134 -0.2087702 0.21723272 0.19451304 -0.17210324 -0.24157886
-0.4041264 0.2989966 -0.0052923 0.09274891 -0.28763062 -0.30570552 0.3337529 0.28637645
0.22021002 0.3255129 0.32754585 0.24052556 0.2937026 -0.052884404 0.107165046 -0.34960774
-0.14585844 -0.03917777 -0.019114904 0.40137294 0.33179727 0.12738074 0.37939146 -0.20689783
0.07811992 -0.32254046 -0.34598175 0.21698497 0.12977195 -0.020850629 -0.26286328 0.2930251
-0.03216319 0.27746916 -0.28076547 0.3134413 -0.019751817 -0.12700991 -0.034246646 -0.31375507
-0.07552068 0.024783107 -0.3009965 0.21981095 0.38435256 0.20928095 -0.19936106 -0.2524515
-0.32224837 -0.25038794 0.2423831 0.18688759 -0.15161142 0.0077384026 -0.06308078 0.0049484805
-0.40471938 0.34401286 -0.14204876 -0.35132712 -0.008195181 0.12082691 0.1869433 -0.20503992
-0.030302837 -0.30495578 -0.30653897 -0.26824978 -0.25560403 0.2552219 -0.36696783 -0.08401128
