outputs/2025-03-23/17-10-18/outputs/model_epoch_10.pt (torch, 377354 bytes, 140 tensors)

naim.embeddings.0.embeddings.weight f4 [2, 6]
00000000: 209e c23e 1a16 13bf 5bc6 aabe cbb5 a73e
00000010: db77 e73e 1767 903e 0000 0000 0000 0000
00000020: 0000 0000 0000 0000 0000 0000 0000 0000
0.38011265 -0.574556 -0.33354458 0.32755885 0.4520863 0.2820365 0.0 0.0
0.0 0.0 0.0 0.0

naim.embeddings.1.embeddings.weight f4 [2, 6]
00000000: 0500 6a3d 31fd a4bd 5ba9 1abe 4709 ca3e
00000010: 7fee 3c3e 7f2f a4bd 0000 0000 0000 0000
00000020: 0000 0000 0000 0000 0000 0000 0000 0000
0.057128925 -0.08056105 -0.15103666 0.39460203 0.18450354 -0.08016872 0.0 0.0
0.0 0.0 0.0 0.0

naim.embeddings.2.embeddings.weight f4 [2, 6]
00000000: 91e0 253f b57f 333d 2641 99bc a0c7 113f
00000010: 06e3 84be 17cf b03e 0000 0000 0000 0000
00000020: 0000 0000 0000 0000 0000 0000 0000 0000
0.64795786 0.043822963 -0.018707823 0.5694523 -0.25954455 0.34532997 0.0 0.0
0.0 0.0 0.0 0.0

naim.embeddings.3.embeddings.weight f4 [2, 6]
00000000: 1d94 273f ab44 06bf f4ad 533d 4cfa f93e
00000010: 92ea 0e3e 1a58 2a3c 0000 0000 0000 0000
00000020: 0000 0000 0000 0000 0000 0000 0000 0000
0.6546038 -0.5244853 0.051679567 0.48823774 0.13956669 0.010396982 0.0 0.0
0.0 0.0 0.0 0.0

naim.embeddings.4.embeddings.weight f4 [2, 6]
00000000: 946b 04bf a7ac 8fbe ef3e 59be fea7 0d3e
00000010: 06dc c33d d586 3d3c 0000 0000 0000 0000
00000020: 0000 0000 0000 0000 0000 0000 0000 0000
-0.5172665 -0.2806141 -0.21215414 0.13833615 0.095634505 0.011567791 0.0 0.0
0.0 0.0 0.0 0.0

naim.embeddings.5.embeddings.weight f4 [2, 6]
00000000: 3a16 b0be 1241 0f3d 0ed7 233f f1c3 b23e
00000010: f7c1 0fbf 417a 703d 0000 0000 0000 0000
00000020: 0000 0000 0000 0000 0000 0000 0000 0000
-0.34391958 0.034974165 0.6400002 0.34915116 -0.5615534 0.05871034 0.0 0.0
0.0 0.0 0.0 0.0

naim.embeddings.6.embeddings.weight f4 [2, 6]
00000000: 75cb 05bf c077 d6bd 5057 fabd 5837 87be
00000010: 1afc 113e d85b 413f 0000 0000 0000 0000
00000020: 0000 0000 0000 0000 0000 0000 0000 0000
-0.52263576 -0.10472059 -0.12223685 -0.2640941 0.14256325 0.7553077 0.0 0.0
0.0 0.0 0.0 0.0

naim.embeddings.7.embeddings.weight f4 [2, 6]
00000000: 37f8 cabe 208e 07bc 176f c63d b0df 31bf
00000010: 063e 5dbd f410 123f 0000 0000 0000 0000
00000020: 0000 0000 0000 0000 0000 0000 0000 0000
-0.39642498 -0.008273631 0.096891575 -0.69481945 -0.05401423 0.5705712 0.0 0.0
0.0 0.0 0.0 0.0

naim.embeddings.8.embeddings.weight f4 [2, 6]
00000000: 2439 233f 92ad 0bbe 0550 863e ebed 1cbf
00000010: 7dd8 53be 45fc 6c3e 0000 0000 0000 0000
00000020: 0000 0000 0000 0000 0000 0000 0000 0000
0.63759065 -0.1364043 0.26232925 -0.61300534 -0.20688052 0.23143108 0.0 0.0
0.0 0.0 0.0 0.0

naim.embeddings.9.embeddings.weight f4 [2, 6]
00000000: b727 e53e 9255 8ebe 497c 7a3d 9594 cdbe
00000010: dd5d 1bbf f9d8 b73a 0000 0000 0000 0000
00000020: 0000 0000 0000 0000 0000 0000 0000 0000
0.44756863 -0.2779966 0.061153684 -0.40152422 -0.606901 0.0014026455 0.0 0.0
0.0 0.0 0.0 0.0

naim.embeddings.10.embeddings.weight f4 [2, 6]
00000000: 7162 c33d c38b ce3d e042 833e 2b41 803e
00000010: 6aac 313c 1147 e53e 0000 0000 0000 0000
00000020: 0000 0000 0000 0000 0000 0000 0000 0000
0.095402606 0.10085251 0.2563696 0.2504972 0.010844329 0.44780782 0.0 0.0
0.0 0.0 0.0 0.0

naim.embeddings.11.embeddings.weight f4 [2, 6]
00000000: f40c 323e cc1e ebbd a5d0 fabe b9aa 02bf
00000010: 4a70 02bd 4572 8fbe 0000 0000 0000 0000
00000020: 0000 0000 0000 0000 0000 0000 0000 0000
0.17387754 -0.114804834 -0.48987308 -0.5104175 -0.03184537 -0.28016868 0.0 0.0
0.0 0.0 0.0 0.0

naim.embeddings.12.embeddings.weight f4 [2, 6]
00000000: 747d 233e 46b4 71be ac86 a33d 3c3e e03e
00000010: 3cc4 fc3e a016 e83d 0000 0000 0000 0000
00000020: 0000 0000 0000 0000 0000 0000 0000 0000
0.15965825 -0.23603925 0.07984671 0.4379748 0.49368465 0.113324404 0.0 0.0
0.0 0.0 0.0 0.0

naim.embeddings.13.embeddings.weight f4 [2, 6]
00000000: 9c04 82be 4152 d4bd 451b 98be a5ca 283f
00000010: d32e 4abe fbc1 9f3e 0000 0000 0000 0000
00000020: 0000 0000 0000 0000 0000 0000 0000 0000
-0.25394142 -0.10367251 -0.29708305 0.6593421 -0.19744425 0.31202683 0.0 0.0
0.0 0.0 0.0 0.0

naim.embeddings.14.embeddings.weight f4 [2, 6]
00000000: 56b3 3c3e 66b3 293f 8cd4 1ebe e418 a83d
00000010: 8f4a 1e3f 0f6a 8e3c 0000 0000 0000 0000
00000020: 0000 0000 0000 0000 0000 0000 0000 0000
0.18427786 0.66289365 -0.15510768 0.082078725 0.6183252 0.017384557 0.0 0.0
0.0 0.0 0.0 0.0

naim.embeddings.15.embeddings.weight f4 [2, 6]
00000000: 5283 1fbf b6dd b03e 4737 ab3d 1ea9 97be
00000010: 7edc 48be f646 0d3f 0000 0000 0000 0000
00000020: 0000 0000 0000 0000 0000 0000 0000 0000
-0.62309754 0.34544152 0.08360153 -0.29621214 -0.19615361 0.551864 0.0 0.0
0.0 0.0 0.0 0.0

naim.embeddings.16.embeddings.weight f4 [2, 6]
00000000: 64d3 063f 846e c63d b2e2 983d 44af abbe
00000010: d5bf 0f3e dcec ce3e 0000 0000 0000 0000
00000020: 0000 0000 0000 0000 0000 0000 0000 0000
0.52666306 0.09689048 0.07465114 -0.33532155 0.14038022 0.40415084 0.0 0.0
0.0 0.0 0.0 0.0

naim.embeddings.17.embeddings.weight f4 [2, 6]
00000000: cda6 fa3d 6228 3a3e f9f7 063e 9731 02bf
00000010: aa15 9f3e 82c6 96be 0000 0000 0000 0000
00000020: 0000 0000 0000 0000 0000 0000 0000 0000
0.12238846 0.18179467 0.13180532 -0.5085692 0.31071216 -0.29448324 0.0 0.0
0.0 0.0 0.0 0.0

naim.embeddings.18.embeddings.weight f4 [2, 6]
00000000: 3027 10bf 1f46 f7be aeef 9dbe fd3a 103f
00000010: 8d4f 13bd 3c7f 9fbc 0000 0000 0000 0000
00000020: 0000 0000 0000 0000 0000 0000 0000 0000
-0.56309795 -0.48295686 -0.30846924 0.5634001 -0.035964537 -0.01946985 0.0 0.0
0.0 0.0 0.0 0.0

naim.embeddings.19.embeddings.weight f4 [2, 6]
00000000: ab45 0a3f 93fd 8dbe 3fa2 8c3e 5431 5ebe
00000010: a634 e4bd d83c ba3d 0000 0000 0000 0000
00000020: 0000 0000 0000 0000 0000 0000 0000 0000
0.54012555 -0.27732524 0.27467534 -0.21698505 -0.111428544 0.09093636 0.0 0.0
0.0 0.0 0.0 0.0

naim.embeddings.20.embeddings.weight f4 [2, 6]
00000000: b50a 923e 857d 173e 7190 adbe a9ef fcbe
00000010: a774 03be f1e9 773e 0000 0000 0000 0000
00000020: 0000 0000 0000 0000 0000 0000 0000 0000
0.28523794 0.14793976 -0.33899263 -0.49401596 -0.12837468 0.24210335 0.0 0.0
0.0 0.0 0.0 0.0

naim.embeddings.21.embeddings.weight f4 [2, 6]
00000000: 9ffb 8c3d 4276 633b a2dc 003e cd17 58bd
00000010: 18ea d53c 9a3e 15be 0000 0000 0000 0000
00000020: 0000 0000 0000 0000 0000 0000 0000 0000
0.068839304 0.0034707938 0.12584165 -0.052757073 0.026112601 -0.14574662 0.0 0.0
0.0 0.0 0.0 0.0

naim.embeddings.22.embeddings.weight f4 [2, 6]
00000000: 850b b23e 0d63 84be 4304 19bd b86f 133f
00000010: 002f de3e 79e8 5cbe 0000 0000 0000 0000
00000020: 0000 0000 0000 0000 0000 0000 0000 0000
0.34774414 -0.2585682 -0.03735758 0.57592344 0.43395233 -0.21573056 0.0 0.0
0.0 0.0 0.0 0.0

naim.embeddings.23.embeddings.weight f4 [2, 6]
00000000: b263 5a3e 7554 cd3b 7929 bbbe fde5 573f
00000010: c25d 5ebd 24e3 86be 0000 0000 0000 0000
00000020: 0000 0000 0000 0000 0000 0000 0000 0000
0.21327093 0.0062661716 -0.3655508 0.8433531 -0.054288633 -0.2634517 0.0 0.0
0.0 0.0 0.0 0.0

naim.embeddings.24.embeddings.weight f4 [2, 6]
00000000: 2841 4c3c 5a92 2b3e 3ffd 3cbe 0db8 d03e
00000010: 35a6 5bbf f43f 4e3d 0000 0000 0000 0000
00000020: 0000 0000 0000 0000 0000 0000 0000 0000
0.012466706 0.16755047 -0.1845598 0.4076542 -0.85800487 0.05035396 0.0 0.0
0.0 0.0 0.0 0.0

naim.embeddings.25.embeddings.weight f4 [2, 6]
00000000: dd6d c03e 9aa0 15be be51 423f e60e f33e
00000010: d2b3 c43d a614 6e3d 0000 0000 0000 0000
00000020: 0000 0000 0000 0000 0000 0000 0000 0000
0.3758382 -0.14612046 0.7590598 0.47472304 0.096046105 0.05812516 0.0 0.0
0.0 0.0 0.0 0.0

naim.embeddings.26.embeddings.weight f4 [2, 6]
00000000: 96e7 2c3e 1ac0 ffbe a498 01bf fd51 a43e
00000010: 61a2 de3e 62ac ae3e 0000 0000 0000 0000
00000020: 0000 0000 0000 0000 0000 0000 0000 0000
0.16885218 -0.4995125 -0.50623536 0.32093802 0.4348326 0.34115893 0.0 0.0
0.0 0.0 0.0 0.0

naim.embeddings.27.embeddings.weight f4 [2, 6]
00000000: aa39 b7bd 8671 c23e a793 08bf d75c 0cbf
00000010: b8dc febd eca1 1e3d 0000 0000 0000 0000
00000020: 0000 0000 0000 0000 0000 0000 0000 0000
-0.089465454 0.37977237 -0.533503 -0.5482916 -0.124444425 0.03872864 0.0 0.0
0.0 0.0 0.0 0.0

naim.embeddings.28.embeddings.weight f4 [2, 6]
00000000: f709 52be 4212 6f3e 39b1 52be 326a afbe
00000010: da45 083e 8b65 97bd 0000 0000 0000 0000
00000020: 0000 0000 0000 0000 0000 0000 0000 0000
-0.20511614 0.23346809 -0.20575418 -0.34260708 0.13307896 -0.07392415 0.0 0.0
0.0 0.0 0.0 0.0

naim.embeddings.29.embeddings.weight f4 [2, 6]
00000000: 226f 0ebf 5038 65bc 2ddc 2a3f 502d 66be
00000010: 9245 ad3d 45f1 bbbe 0000 0000 0000 0000
00000020: 0000 0000 0000 0000 0000 0000 0000 0000
-0.55638325 -0.013990477 0.6674221 -0.22478223 0.08460535 -0.36707512 0.0 0.0
0.0 0.0 0.0 0.0

naim.embeddings.30.embeddings.weight f4 [2, 6]
00000000: 5e11 10be 61d2 883e 03ea b33e 4881 9ebe
00000010: 00a8 73bd 9bb7 cabe 0000 0000 0000 0000
00000020: 0000 0000 0000 0000 0000 0000 0000 0000
-0.14069125 0.26723006 0.35139474 -0.3095801 -0.05948639 -0.39593205 0.0 0.0
0.0 0.0 0.0 0.0

naim.embeddings.31.embeddings.weight f4 [2, 6]
00000000: 7439 d03e b1d1 85be 4aae 3bbd 1107 e3bd
00000010: 6d69 8ebe a1f0 99be 0000 0000 0000 0000
00000020: 0000 0000 0000 0000 0000 0000 0000 0000
0.40668833 -0.26136544 -0.045820512 -0.11085332 -0.27814808 -0.30066398 0.0 0.0
0.0 0.0 0.0 0.0

naim.embeddings.32.embeddings.weight f4 [2, 6]
00000000: a9a2 c93d 8f73 aa3e feee b1be 721f 48bf
00000010: adfc 973e 1d7d 37be 0000 0000 0000 0000
00000020: 0000 0000 0000 0000 0000 0000 0000 0000
0.09845478 0.3329129 -0.3475265 -0.7817298 0.29684964 -0.1791882 0.0 0.0
0.0 0.0 0.0 0.0

naim.embeddings.33.embeddings.weight f4 [2, 6]
00000000: cb88 3dbe 759b 37be 8a05 d5be 3e2b 77be
00000010: 3925 adbe 3702 3d3f 0000 0000 0000 0000
00000020: 0000 0000 0000 0000 0000 0000 0000 0000
-0.18509214 -0.17930396 -0.41605788 -0.2413759 -0.3381746 0.73831505 0.0 0.0
0.0 0.0 0.0 0.0

naim.embeddings.34.embeddings.weight f4 [2, 6]
00000000: 58ca 39be e611 fd3d e350 093f 6df6 13bd
00000010: c336 92be 73c2 463d 0000 0000 0000 0000
00000020: 0000 0000 0000 0000 0000 0000 0000 0000
-0.18143594 0.123569295 0.5363905 -0.03612368 -0.28557405 0.048525285 0.0 0.0
0.0 0.0 0.0 0.0

naim.embeddings.35.embeddings.weight f4 [2, 6]
00000000: 21a2 503e 31b3 33be d350 ad3e 73ff b23e
00000010: 29af da3e 84d8 0fbf 0000 0000 0000 0000
00000020: 0000 0000 0000 0000 0000 0000 0000 0000
0.20374347 -0.17548825 0.33850726 0.34960517 0.42711762 -0.5618975 0.0 0.0
0.0 0.0 0.0 0.0

naim.embeddings.36.embeddings.weight f4 [2, 6]
00000000: 4183 28be f7c5 d63e 9a2a 0abf 314a 9e3c
00000010: fcf2 66ba 68e8 e63d 0000 0000 0000 0000
00000020: 0000 0000 0000 0000 0000 0000 0000 0000
-0.1645632 0.4194791 -0.53971255 0.019322487 -0.0008810011 0.11274797 0.0 0.0
0.0 0.0 0.0 0.0

naim.embeddings.37.embeddings.weight f4 [2, 6]
00000000: f9fa 0d3b 49f9 b9be ab2e 09be f35e 99bd
00000010: ce89 703e 18b3 fd3d 0000 0000 0000 0000
00000020: 0000 0000 0000 0000 0000 0000 0000 0000
0.0021664484 -0.36323002 -0.13396709 -0.07488813 0.23490068 0.12387675 0.0 0.0
0.0 0.0 0.0 0.0

naim.embeddings.38.embeddings.weight f4 [2, 6]
00000000: d520 1b3d a235 83bd 8ef1 2a3b beef a33e
00000010: a48d 19be ed1f 2e3e 0000 0000 0000 0000
00000020: 0000 0000 0000 0000 0000 0000 0000 0000
0.037873108 -0.06406714 0.002608392 0.32018846 -0.14995438 0.17004366 0.0 0.0
0.0 0.0 0.0 0.0

naim.embeddings.39.embeddings.weight f4 [2, 6]
00000000: 0e63 52bd 6597 99be adf2 063f bd73 26bf
00000010: 6ae0 5e3e 1c16 b53e 0000 0000 0000 0000
00000020: 0000 0000 0000 0000 0000 0000 0000 0000
-0.051363997 -0.29998317 0.52714044 -0.6502035 0.21765295 0.3536843 0.0 0.0
0.0 0.0 0.0 0.0

naim.embeddings.40.embeddings.weight f4 [2, 6]
00000000: 8a3a babd b4e6 793e 4405 0b3e 4949 1cbe
00000010: 19f8 7ebd 4cfa b4be 0000 0000 0000 0000
00000020: 0000 0000 0000 0000 0000 0000 0000 0000
-0.09093197 0.24404413 0.13576227 -0.15262331 -0.062248323 -0.3534721 0.0 0.0
0.0 0.0 0.0 0.0

naim.embeddings.41.embeddings.weight f4 [2, 6]
00000000: 289f 0fbe 1a3f 64be 66de b43e 77a1 553e
00000010: e9a1 d53e 645f 193f 0000 0000 0000 0000
00000020: 0000 0000 0000 0000 0000 0000 0000 0000
-0.14025557 -0.22289696 0.35325927 0.20862375 0.4172509 0.5991118 0.0 0.0
0.0 0.0 0.0 0.0

naim.embeddings.42.embeddings.weight f4 [2, 6]
00000000: 0556 a7be 4314 403f f3e8 803e 3fd1 d73e
00000010: 9145 f13d 88f6 21be 0000 0000 0000 0000
00000020: 0000 0000 0000 0000 0000 0000 0000 0000
-0.32682815 0.75030917 0.25177726 0.4215183 0.11780847 -0.158167 0.0 0.0
0.0 0.0 0.0 0.0

naim.embeddings.43.embeddings.weight f4 [2, 6]
00000000: dfa6 80be e632 b53c 0bbb 2f3f 4972 003f
00000010: e7ee c73e 3c9b bbbd 0000 0000 0000 0000
00000020: 0000 0000 0000 0000 0000 0000 0000 0000
-0.25127313 0.022118997 0.6864478 0.50174385 0.39049456 -0.09160468 0.0 0.0
0.0 0.0 0.0 0.0

naim.embeddings.44.embeddings.weight f4 [2, 6]
00000000: 4a96 16bd 0064 a03e 417a 643e 4c7d b7be
00000010: 7218 123e 55b8 073f 0000 0000 0000 0000
00000020: 0000 0000 0000 0000 0000 0000 0000 0000
-0.03676442 0.31326294 0.22312261 -0.3583778 0.14267138 0.53015643 0.0 0.0
0.0 0.0 0.0 0.0

naim.embeddings.45.embeddings.weight f4 [2, 6]
00000000: 2ce8 f4be 338a 1dbf cce6 93be a5c7 293e
00000010: 68af eebe 4ae1 28be 0000 0000 0000 0000
00000020: 0000 0000 0000 0000 0000 0000 0000 0000
-0.47833383 -0.61539 -0.28887022 0.16580065 -0.466182 -0.16492191 0.0 0.0
0.0 0.0 0.0 0.0

naim.embeddings.46.embeddings.weight f4 [2, 6]
00000000: 5cf2 9ebd b76d b43d 42fd 953e 8568 c3bd
00000010: 24af 0d3e 2e55 543e 0000 0000 0000 0000
00000020: 0000 0000 0000 0000 0000 0000 0000 0000
-0.0776107 0.08809989 0.29294783 -0.0954142 0.13836342 0.20735618 0.0 0.0
0.0 0.0 0.0 0.0

naim.embeddings.47.embeddings.weight f4 [2, 6]
00000000: 149c a43e b67e eabd 8e19 ffbe b80e 82be
00000010: f3a1 983e de48 9abe 0000 0000 0000 0000
00000020: 0000 0000 0000 0000 0000 0000 0000 0000
0.32150328 -0.114499494 -0.49824184 -0.25401855 0.29811057 -0.30133718 0.0 0.0
0.0 0.0 0.0 0.0

naim.embeddings.48.embeddings.weight f4 [2, 6]
00000000: 6475 ca3c 5f34 883e 8292 a83d 040a a93e
00000010: fe4a 343f 5986 c03e 0000 0000 0000 0000
00000020: 0000 0000 0000 0000 0000 0000 0000 0000
0.02471418 0.26602456 0.08231069 0.33015454 0.7042693 0.376025 0.0 0.0
0.0 0.0 0.0 0.0

naim.embeddings.49.embeddings.weight f4 [2, 6]
00000000: 7698 80be 53a1 843e 4456 9a3e f982 05be
00000010: 4929 c5be 050b d73e 0000 0000 0000 0000
00000020: 0000 0000 0000 0000 0000 0000 0000 0000
-0.25116318 0.2590433 0.3014394 -0.13038243 -0.3850806 0.42000595 0.0 0.0
0.0 0.0 0.0 0.0

naim.embeddings.50.embeddings.weight f4 [2, 6]
00000000: b19e 0c3f 5184 cf3e 1384 e6bd bfd5 3ebe
00000010: 3e53 fcbd 8d4a 13bf 0000 0000 0000 0000
00000020: 0000 0000 0000 0000 0000 0000 0000 0000
0.54929644 0.40530637 -0.1125566 -0.18636225 -0.12320565 -0.5753563 0.0 0.0
0.0 0.0 0.0 0.0

naim.embeddings.51.embeddings.weight f4 [2, 6]
00000000: 2cf9 4d3d 1905 393e db14 0f3f aa7b 2dbf
00000010: 604e bd3e 0f4d 16be 0000 0000 0000 0000
00000020: 0000 0000 0000 0000 0000 0000 0000 0000
0.050286457 0.18068351 0.558912 -0.6776682 0.36973858 -0.14677833 0.0 0.0
0.0 0.0 0.0 0.0

naim.embeddings.52.embeddings.weight f4 [2, 6]
00000000: 4633 a53e e033 7abe 3a56 76be 556e 6cbe
00000010: 4f24 df3d 51aa bdbe 0000 0000 0000 0000
00000020: 0000 0000 0000 0000 0000 0000 0000 0000
0.3226568 -0.24433851 -0.2405633 -0.23088963 0.10895597 -0.37044004 0.0 0.0
0.0 0.0 0.0 0.0

naim.embeddings.53.embeddings.weight f4 [2, 6]
00000000: 420d 89be 8ab2 32be ef7e 223e 2c9f 4fbd
00000010: 5cb3 6a3f c680 0cba 0000 0000 0000 0000
00000020: 0000 0000 0000 0000 0000 0000 0000 0000
-0.26767927 -0.1745092 0.15868734 -0.050688908 0.9167993 -0.0005359765 0.0 0.0
0.0 0.0 0.0 0.0

naim.embeddings.54.embeddings.weight f4 [2, 6]
00000000: c2f9 503e 5b1d 0b3f f4d4 d13e ee77 4f3e
00000010: da2e 21bf 0332 ee3d 0000 0000 0000 0000
00000020: 0000 0000 0000 0000 0000 0000 0000 0000
0.20407775 0.5434167 0.40982783 0.20260593 -0.62962115 0.11630633 0.0 0.0
0.0 0.0 0.0 0.0

naim.embeddings.55.embeddings.weight f4 [2, 6]
00000000: 47e4 aa3e 3e80 a7be bc45 14bf 0ac4 113f
00000010: 1ce5 c9bd f8cf 28be 0000 0000 0000 0000
00000020: 0000 0000 0000 0000 0000 0000 0000 0000
0.33377287 -0.3271503 -0.57918906 0.56939757 -0.09858152 -0.16485584 0.0 0.0
0.0 0.0 0.0 0.0

naim.embeddings.56.embeddings.weight f4 [2, 6]
00000000: ddf4 cabe 9df3 eebe 4e37 4c3e 473d 99bd
00000010: a20b dabe a303 63bd 0000 0000 0000 0000
00000020: 0000 0000 0000 0000 0000 0000 0000 0000
-0.3963994 -0.46670237 0.19942972 -0.07482391 -0.42587 -0.05542339 0.0 0.0
0.0 0.0 0.0 0.0

naim.embeddings.57.embeddings.weight f4 [2, 6]
00000000: 8210 e63e 1257 adbe 47fc 5ebe 1f3a 8f3e
00000010: c93a 3a3f ff90 68bc 0000 0000 0000 0000
00000020: 0000 0000 0000 0000 0000 0000 0000 0000
0.4493447 -0.33855492 -0.21775924 0.2797403 0.7274595 -0.014194726 0.0 0.0
0.0 0.0 0.0 0.0

naim.embeddings.58.embeddings.weight f4 [2, 6]
00000000: a264 f2bd 491d a63c e8cc 313d 3e67 50bd
00000010: b1f1 c73d b343 87be 0000 0000 0000 0000
00000020: 0000 0000 0000 0000 0000 0000 0000 0000
-0.118356004 0.020277636 0.043408304 -0.05087971 0.09762896 -0.26418838 0.0 0.0
0.0 0.0 0.0 0.0

naim.embeddings.59.embeddings.weight f4 [2, 6]
00000000: 8a44 a63e 9e4c 3bbe eefe 87be 7cb8 333f
00000010: b023 8f3e 7f69 dd3e 0000 0000 0000 0000
00000020: 0000 0000 0000 0000 0000 0000 0000 0000
0.32474166 -0.18290946 -0.26561683 0.70203376 0.27956915 0.4324455 0.0 0.0
0.0 0.0 0.0 0.0

naim.embeddings.60.embeddings.weight f4 [2, 6]
00000000: 65bb 0bbf 860c 67bd dce7 6d3d 4f10 073f
00000010: 22ec 8c3e a1fe c33e 0000 0000 0000 0000
00000020: 0000 0000 0000 0000 0000 0000 0000 0000
-0.54582816 -0.056408428 0.058082446 0.5275926 0.27523905 0.38280204 0.0 0.0
0.0 0.0 0.0 0.0

naim.embeddings.61.embeddings.weight f4 [2, 6]
00000000: 8cb9 6ebe d521 463d 939e 0f3e 43ec 9bbd
00000010: cd17 6c3e f2e1 f2bd 0000 0000 0000 0000
00000020: 0000 0000 0000 0000 0000 0000 0000 0000
-0.23312968 0.04837211 0.14025335 -0.07613423 0.23055954 -0.11859502 0.0 0.0
0.0 0.0 0.0 0.0

naim.embeddings.62.embeddings.weight f4 [2, 6]
00000000: 27b3 923e 8986 223e 0d8b 34bf 7e27 82bd
00000010: 45d6 c5be 0a6d f0be 0000 0000 0000 0000
00000020: 0000 0000 0000 0000 0000 0000 0000 0000
0.28652307 0.15871634 -0.70524675 -0.06355189 -0.38640037 -0.4695819 0.0 0.0
0.0 0.0 0.0 0.0

naim.embeddings.63.embeddings.weight f4 [2, 6]
00000000: 7ccf 423f 9968 a83e dddf 9fbe 0340 303e
00000010: 0835 62be 2932 21be 0000 0000 0000 0000
00000020: 0000 0000 0000 0000 0000 0000 0000 0000
0.76097846 0.32892302 -0.31225482 0.17211919 -0.22090542 -0.15741791 0.0 0.0
0.0 0.0 0.0 0.0

naim.encoder.0.layer_norm_1.weight f4 [6]
00000000: 34e4 7c3f eb7d 7c3f 31fb 7c3f ecb5 7e3f
00000010: dd11 7d3f 26cd 7c3f
0.9878571 0.98629636 0.9882079 0.9949634 0.9885538 0.9875053

naim.encoder.0.layer_norm_1.bias f4 [6]
00000000: 8f20 01bb 5616 393b 5adb 98b9 88b0 0f3b
00000010: 871b 0abb ac17 013b
-0.0019703244 0.0028242073 -0.0002915513 0.002192529 -0.0021073536 0.0019697947

naim.encoder.0.attn.linear_q.weight f4 [6, 6]
00000000: 762f c0bd f597 073d 2b3d cdbd abab c5be
00000010: 85c6 12bd 5985 3e3e 2e24 29bd f1cc 3fbe
00000020: 2ed1 5d3c 78e4 8b3d 8097 d2bd fd8d 9dbe
00000030: a192 51be f4dc 55bd a038 083e 399f b23e
00000040: e6d5 8e3b ba40 073e eac1 623e 5590 29be
00000050: c3b1 fdbd 2852 843e 4b5b 8f3e 04d4 ad3d
00000060: d096 9abe 495f 603e 32d3 a5be 6edd 423e
00000070: 379e 333d 686d f13d 2e69 c4be 7964 04be
00000080: 9465 223e 3cbf 993e c1b8 d2bd 361b b33e
-0.093840525 0.033103902 -0.100214325 -0.38607535 -0.035833854 0.18605556 -0.04129427 -0.18730523
0.013538642 0.06830686 -0.102828026 -0.3077239 -0.2046609 -0.05221267 0.1330285 0.34887102
0.004358995 0.13208285 0.22144285 -0.16558965 -0.12387421 0.2584393 0.27999339 0.084877044
-0.30193186 0.21911348 -0.32387692 0.19029781 0.043852057 0.11788446 -0.38361496 -0.12928952
0.15859061 0.30028713 -0.10289145 0.34981698

naim.encoder.0.attn.linear_k.weight f4 [6, 6]
00000000: 6b85 a4bd f80c 6ebe 351b 28be d972 ba3c
00000010: 252a 7dbd 05a3 3c3e 1501 59be 5618 dbbd
00000020: cca1 c7be fc68 a33e 27d9 8cbd 5dc8 9dbe
00000030: c7b7 23bc 6e9a 41bb 1fa8 cc3d 44e6 03bd
00000040: a845 783e cb94 01be f97b dfbd f83a b0bd
00000050: 884d 6f3d f651 a13e 4633 4fbc da72 993e
00000060: 7339 9d3e 6aab 4bbe 23b7 ebbc 3e79 39be
00000070: 2c67 203e e995 05be fdb9 e33d d567 6d3c
00000080: d327 82be 6d19 86be 7014 c5be f3a2 5bbe
-0.0803326 -0.23247135 -0.16416629 0.022759842 -0.06180777 0.18421562 -0.21191819 -0.10698001
-0.3899063 0.31916034 -0.06877356 -0.30816928 -0.009992546 -0.002954151 0.09993004 -0.03220202
0.24245322 -0.12654416 -0.10912318 -0.086049974 0.05842355 0.31507844 -0.012646502 0.29970437
0.30707893 -0.19889608 -0.02877385 -0.18112656 0.15664357 -0.13045467 0.11119459 0.0144900875
-0.25421008 -0.26191273 -0.38492155 -0.21448879

naim.encoder.0.attn.linear_v.weight f4 [6, 6]
00000000: 592b e23d 1776 c93c 67d9 9b3e a168 b6be
00000010: 6802 41bc d177 b9be 42eb 71b9 8fe5 0e3e
00000020: d297 babe e2f3 b73e efb0 fcbd cbf5 b73e
00000030: ffc9 7abd 36c5 633e 5fa5 bd3e 61df 17be
00000040: c81f cfbd ec3d 5a3e 61dc b0be 4d91 6a3e
00000050: 2861 82be 0af5 c13e 11d6 87be 8b6e 24be
00000060: fc5e 993e caef 35be 580e ad3e 4b6f 8d3e
00000070: 5a00 bd3e 5b8b c8be 2d21 fa3a c986 03be
00000080: fd2e c53d 85c6 9cbe 5247 293e b4f6 aabc
0.11043424 0.024592442 0.30439302 -0.356267 -0.011780359 -0.36224225 -0.00023071191 0.13954757
-0.36443955 0.35928255 -0.12338435 0.35929713 -0.061227795 0.22243199 0.3704023 -0.14831306
-0.10113484 0.21312684 -0.34543136 0.2290699 -0.2546475 0.37882262 -0.26530507 -0.16057794
0.2995528 -0.17767254 0.33800006 0.27623972 0.3691433 -0.3916882 0.0019083373 -0.12844385
0.09628103 -0.30620208 0.16531113 -0.02086959

naim.encoder.0.attn.linear_o.weight f4 [6, 6]
00000000: fafb 37be aaf6 b4be d1e2 4b3e 1acb 09be
00000010: 18d4 923e 3866 753d aca8 e13d 9bc0 45bd
00000020: d90d 30bd d453 ffbd 6bba adbe 4756 783e
00000030: 9dcb 81be 09da 743e 762c 0abe f332 833e
00000040: 549b b33e 63ac 7bbe f1fa ab3e 6bfd 213c
00000050: 2e4e 9fbe 0561 2a3e 4ad3 6a3e fd70 b73e
00000060: 568d c4be 7eff bc3e 71e1 9e3e 8257 cd3e
00000070: 9c01 653e 229c 46be c287 9d3e 5f27 be3e
00000080: 09ad 1fbe ab98 87bd b6b3 a23e 2ad1 a63e
-0.17967215 -0.3534444 0.19910742 -0.13456383 0.2867744 0.059911937 0.110185 -0.048279386
-0.042981956 -0.12467161 -0.33931288 0.24251662 -0.25350657 0.23911299 -0.13493523 0.2562481
0.35079443 -0.24577479 0.3358989 0.00988708 -0.31114334 0.16638573 0.22932163 0.3582839
-0.3838908 0.36913675 0.31031373 0.40105826 0.22363895 -0.19395497 0.30767637 0.37139413
-0.15593351 -0.06620916 0.31777734 0.32581455

naim.encoder.0.layer_norm_2.weight f4 [6]
00000000: 95cf 7f3f b294 7d3f 6ff2 7d3f 28a6 7e3f
00000010: 25fc 7d3f 3ebc 7e3f
0.9992612 0.99055016 0.9919805 0.99472284 0.9921287 0.99505985

naim.encoder.0.layer_norm_2.bias f4 [6]
00000000: d170 b8b7 32e3 473b 6515 54bb 3679 5dba
00000010: b8aa 4d3a 4cd8 bc3a
-2.1987044e-05 0.003050041 -0.0032361385 -0.0008448543 0.00078455685 0.0014407723

naim.encoder.0.ff.0.weight f4 [1000, 6]
00000000: 67fe 833e 7446 993e 3e1a 4bbe 26a5 80bd
00000010: a7c3 18be df55 4b3e c5d7 b83d 717d 9abe
00000020: 9b8f 22bd 16b7 a3be 208e bdbe 7e31 b73e
00000030: 0db3 45be 9b6d 2e3e 0ce4 9fbd 113f 96bd
00000040: 248c 0a3b e7af 9b3e 9370 35bd 71c9 a53e
00000050: 523f 663e 270b 883e e846 b6be 0fda 34be
00000060: 4274 a3be 12ba a3bd bae1 97bd 94eb 9c3d
00000070: 719b b43e 06f8 2f3e 66ce 8abe a60e 78be
00000080: f5e4 963e 8efd 063d 2047 d43d 6313 4fbe
00000090: 565a 3abd 2f04 db3d 06c0 82be ce64 813e
000000a0: 6104 453e 1d69 67be 8804 1fbe eaa2 b0bd
000000b0: 5b2b 613d 3eef 0abe ba43 c13e 935b c2be
000000c0: 6c00 60be 226d 70be f545 cd3d 1cfe 443d
000000d0: fc6c dabd bad0 ab3e 855d adbe d825 063e
000000e0: bf2a 58be 806d a2bd 100d c2be bea4 94be
000000f0: 4237 aabe 1645 283e 3432 0fbe 371f 4d3e
00000100: bc12 54be 03cc b7bd 4bc9 2e3d cbe8 a73e
00000110: 18ca c8bd 408c 633e 9ba4 d13d 671e 713e
00000120: 3d75 7c3e 28b9 1f3e 4970 e8bd 6425 dabd
00000130: 1047 173e 0cf7 543e a297 89bc 2dc1 433e
00000140: e2e0 6ebe 072d 5e3e 3edf 1abd fbc6 88be
00000150: 7235 3cbe c586 98be ca87 933d 9de7 69be
00000160: f553 d5bd 1c49 99bc 06fa 71be 8aa8 563c
00000170: 9ec0 32bd a6d7 f03d fdd0 8f3e 8978 6dbe
00000180: d90a 583e 21e6 14bc 6954 63be 3e35 31be
00000190: bc34 c13d 2f45 9e3d 792f 58bc aeab 44be
000001a0: bacb 473e 6a31 553d 756d c4be 2509 71bd
000001b0: 3689 c7bd 26a7 25be f546 5abe a500 a2be
000001c0: 2886 c63e cc04 b8be 03c4 bb3e c936 9ebe
000001d0: 1cc6 bfbd ec67 21be 2468 53be 4305 0b3e
000001e0: 3b6e 653e eafb 82be c97e 35be 794b 493e
000001f0: 02c7 33bd 3718 b43d afbf 4c3e f623 0ebe
00000200: c92b 5abe 1a30 0c3e c9a9 0bbe a9d8 83be
00000210: c13b 46be 617e 36be 13f8 c83e 9f56 883d
00000220: 1459 273e ca61 493d 18a4 85be 34c0 8f3e
00000230: ed40 5abd d271 bcbd e20e a33e 47c5 46be
00000240: 7639 933d 143a abbe 5969 483e c84f 193e
00000250: b993 a4be 6d0d 5c3e 04f8 303d e011 4cbe
00000260: 629a ab3e 944b 2a3e 576e 073e 0239 11be
00000270: b00c 5abe 92af 54be 2c9b 143e 9bca cf3d
00000280: c347 6ebe f8b5 b73e a09e 653e 6911 15be
00000290: 8a62 4b3e b22e 23be 99ae ed3d 009a a63e
000002a0: a014 b2be 71f7 42be e82d 8fbc b455 553d
000002b0: da98 a4be 46e1 81be 1699 0fbd a390 5bbd
000002c0: 0f00 a73d c1a6 373d 8baa 973d 0e0b d13c
000002d0: 5abf 243d 9516 b0bc 4d8c 0b3e 42bb 873e
000002e0: 23d0 42be 673c 4abe bd74 2b3e e7e7 90be
000002f0: 0b5b 823e 0ef5 333e dbfa 663d a960 29be
00000300: bb24 2b3c 0594 9ebe 9336 b5be 3507 be3e
00000310: 316b b4be 9514 a6be d115 15be d612 5d3c
00000320: d1a2 a83d 2c7b 40be 4e12 f1bc 6a0f 9fbd
00000330: ea45 a83e f450 ae3e f474 213e 169b a83a
00000340: 4628 963e 938a a1be 0bcf 203e d94d 65be
00000350: 970d 9c3e 4bae b1be 8f3b 0d3e 0a9d a4be
00000360: 6407 683e ca98 8a3d e57e ac3e e900 97be
00000370: b397 7e3e 460d 85be 54e4 53be 1f80 113e
00000380: 8c8a 73bd 1fd9 9dbe 2d9a aabe fab5 c0bd
00000390: 2c5c cc3d 1952 b03e f0d2 923e b32e f43b
000003a0: a391 71be bd28 b3be c712 b43e ea8d 5cbe
000003b0: df3b 87bd d2b6 a1be 7cfe 89be 1cc6 893d
000003c0: 9ac0 b4bd 7047 0c3d ffcb 59ba 0412 753c
000003d0: a86f 8bbd 3692 2fbc 9e1c 273e 9059 913e
000003e0: 85e6 a93e 3b28 a3be f49a a9be f668 4ebd
000003f0: de55 e7bc f78c 593e 7366 bd3e 2beb c13d
0.2578003 0.29936564 -0.1983423 -0.062814996 -0.14918385 0.19856976 0.0902553 -0.3017383
-0.039687734 -0.3197562 -0.37022495 0.35779947 -0.19306584 0.17033999 -0.07807168 -0.07336248
0.002114066 0.3040764 -0.044296812 0.3238025 0.22485092 0.2657101 -0.35600972 -0.17661308
-0.31924635 -0.079944745 -0.07416101 0.076621205 0.35274842 0.17184457 -0.27110595 -0.24224338
0.29471555 0.032956652 0.103651285 -0.20222239 -0.045496307 0.10694157 -0.25537127 0.2527222
0.19239952 -0.22598691 -0.15529072 -0.086248234 0.054972988 -0.13567826 0.37746984 -0.3796049
-0.21875161 -0.23479131 0.10023109 0.0480939 -0.10665318 0.33557683 -0.33860412 0.13100374
-0.21110056 -0.07931042 -0.3790059 -0.29031938 -0.33245283 0.16432604 -0.13983995 0.20031439
-0.20710272 -0.08974459 0.042672437 0.32794794 -0.09804171 0.2222147 0.10236474 0.23546754
0.24654098 0.15597975 -0.11349542 -0.10651663 0.14773202 0.20797366 -0.016795937 0.1911666
-0.23327973 0.21696864 -0.037810557 -0.2671431 -0.18379763 -0.2979032 0.07203634 -0.2284226
-0.10416404 -0.01871162 -0.23630533 0.013101706 -0.043640725 0.11759882 0.28089133 -0.23190512
0.21097888 -0.00908807 -0.22200169 -0.17305467 0.094338864 0.077280395 -0.013194912 -0.19206116
0.1951131 0.052049078 -0.3836476 -0.05884661 -0.09742968 -0.16177043 -0.2131613 -0.31641117
0.38774228 -0.3594116 0.36672983 -0.30901173 -0.09363958 -0.157623 -0.20645195 0.13576226
0.22405331 -0.2558282 -0.17724146 0.19657697 -0.04389096 0.08793681 0.19994996 -0.13880906
-0.21305765 0.13690224 -0.13638987 -0.25751236 -0.19358732 -0.17821647 0.39251766 0.06657147
0.16342574 0.049165525 -0.26101756 0.28076327 -0.053284574 -0.09201397 0.31847292 -0.19411193
0.07188694 -0.33442748 0.19571437 0.1497184 -0.32143953 0.21489497 0.043205276 -0.19928694
0.33516222 0.16630393 0.13225685 -0.14181903 -0.21293902 -0.207701 0.14512318 0.10146066
-0.23269562 0.3588102 0.22423792 -0.14557423 0.19861808 -0.15935782 0.116055675 0.32539368
-0.3478136 -0.19039704 -0.017477944 0.052083686 -0.32147866 -0.25367182 -0.035058104 -0.053604733
0.08154308 0.044836763 0.07405575 0.025517967 0.04022155 -0.021495143 0.13627739 0.26510054
-0.1902471 -0.19749604 0.16743751 -0.28301927 0.25460085 0.1757395 0.05639158 -0.16540779
0.010445769 -0.30972305 -0.353932 0.37114874 -0.3523803 -0.32437578 -0.14559104 0.01349326
0.0823418 -0.18796986 -0.029427674 -0.07766612 0.3286584 0.34046137 0.1576727 0.0012863602
0.293276 -0.31551036 0.1570398 -0.22392978 0.30479118 -0.34703287 0.13792251 -0.3215106
0.2265907 0.067674235 0.33690563 -0.29492882 0.24862556 -0.2598669 -0.20692569 0.1420903
-0.0594583 -0.30829713 -0.33320752 -0.09409709 0.09978518 0.34437636 0.28676558 0.007451856
-0.23590712 -0.34992018 0.35170576 -0.21538511 -0.066032164 -0.31584793 -0.2695197 0.067272395
-0.08825798 0.034247816 -0.0008308291 0.014957909 -0.06808406 -0.010716012 0.1631951 0.28388643
0.33183685 -0.3186663 -0.33126032 -0.050393067 -0.028239187 0.2124518 0.36992225 0.09468683

naim.encoder.0.ff.0.bias f4 [1000]
00000000: 5c2a 783e 6bad 4abe 9de8 49bd 952e 0e3d
00000010: f101 8a3e 3e22 2d3e cd52 c23e c6f7 51be
00000020: 5006 efbc e748 d1bc 202e a43e 589d be3e
00000030: 9acb cc3d c0c8 a1be 4864 90be 8d12 8c3d
00000040: c813 b1be d3c5 07be 73e2 95be da43 4c3e
00000050: 249b 4cbd 886c 9cbe 5842 823e 9a1d b2be
00000060: 9d6d 16bd 320d c33e ebd8 483e 67ff adbe
00000070: 47a3 243d 9830 61bd 70a3 2b3e 231b bb3e
00000080: 1ebc ab3e e723 00bd dd1e 353e 75cc c5be
00000090: f8bd 9d3e ff8b 523e ffe1 8bbe a43a dbbd
000000a0: 3416 14be 65fa 65be 7afa 223e a230 dfbd
000000b0: 0ece 213e 4d25 e0bd 493a 9c3e 5878 16be
000000c0: f8b5 71bd 773f ecbd 6888 863c be4b 0cbe
000000d0: 8ab0 8bbe aaf9 bfbe 1f8a 763e 855f 543d
000000e0: e60f 7ebe 5c54 503e 4dd7 0f3d 30b1 08be
000000f0: 1c6f c4bc 2bba 313d e1fd 8f3e 15e8 b8be
00000100: 99c7 9abe b4a2 a1be 4f25 9dbe 4a8d e83b
00000110: 3040 5c3e 5251 ca3d 3fdc 263e 3dfa 493d
00000120: 0372 19bc e936 b6be a271 b33e fcd1 c23e
00000130: baba 84bb 7ab0 903d 8947 883d aeb0 c73e
00000140: 097e c1ba 3d92 66bd 8442 57be 2c1a ca3d
00000150: 0cb4 363e e8f1 a8be 3a07 073e 660b cc3d
00000160: 8a6b 303e 2c32 383e 3952 c0bd 1c12 543d
00000170: c034 8cbe 2415 713e 8179 a8be da4a b0be
00000180: 94c3 93be 3fc7 5bbe 641c 923c a2e5 813e
00000190: 8ce3 30bd 2e61 8f3e fd01 63bd 95f6 aa3e
000001a0: 299e 8a3e 7b7a 7a3e 0070 1d3e 44ee 85be
000001b0: a903 c63e 58c0 bfbe a496 8bbe f97f 6ebe
000001c0: f6da c2bd d319 2c3e af02 a03d a12c adbe
000001d0: bb67 c33e 36e4 bd3e 293a 403e ed61 c5be
000001e0: 11f3 5f3e 9999 dd3d b7af 31bd e5cc a7be
000001f0: a864 ab3e 789e dfbd 5f4d a2be 952a 9b3e
00000200: c1e7 1b3e 590c e23d 84bb 813e 4a88 063e
00000210: 5a7f abbd 1ff3 7ebd dc0b a73e 79f3 01bc
00000220: 5fd7 a7be 3f2c 89be 238a 96be 7173 193d
00000230: 9f93 933e aa53 6f3e 3cda d13d b240 033e
00000240: 4f2a 39be e94e bd3e 88cc 143e 70ce 78be
00000250: 0bec 84be 9ffa b3be 3343 d3bd 38f1 923e
00000260: a31b cc3c 56cb 38be d36d de3d c823 8abe
00000270: 4818 e93d 80e5 883e d6eb 3f3e 7266 e9bd
00000280: e20f 02be 925e 283e 41f6 6d3e 18c7 b5bd
00000290: 00a0 fd3a 0c8e 1fbd 9c75 1bbd 378e b2be
000002a0: c971 a5be 0d7d ac3e dafe 3abe 43d8 933e
000002b0: 97f5 763e aefe 64bd 3f41 3cbe a554 603c
000002c0: f1c3 77bd cb73 69be 60bf c43e ce01 c8bc
000002d0: 2069 61bd d31c 87be e075 813d cd6b 613d
000002e0: 875c c83e 5aad e4bd 7de6 5d3e 9c34 953c
000002f0: 059d 543e 9897 9e3b b7f7 70bd ec2d 1b3e
00000300: ef04 2ebe 6441 703e f5d6 a7be d399 8ebe
00000310: 04c4 c03e 96ef 0fbe 7d73 9fbe 28ce 91be
00000320: 88e8 c33e 59b8 43bd ff7f a8be d2b0 40bd
00000330: 3932 3ebe d40a 85be 2fc1 40be 7ba2 973e
00000340: b6fe 1d3e be25 6a3e 6296 e63c aac4 20be
00000350: 42d4 1bbe 4d66 85be 6722 90be 930f adbe
00000360: 18d2 883d 8b7a 513e fdf8 a43e 8bcc 0dbc
00000370: fdfb 4fbd 8d8c dcbc 6424 1c3e 52d1 5dbd
00000380: df66 08be 53e3 cdbd c30f c5be ace1 99be
00000390: 4505 28be 9c9e 113d 030d 78be 1c01 173e
000003a0: 8337 56be 3560 c33e 8f70 b1be 55df 5c3e
000003b0: 47bb 4abe 163d 07be a9e2 bcbe 5744 babe
000003c0: aff8 bebe 2c92 ccbb 987b ba3e f964 353e
000003d0: 5236 7a3e 8502 b63d dc51 13be dc82 15be
000003e0: 65fd ddbd c807 bcbe 4376 583e 2a48 e5bd
000003f0: dd28 5fbe 67a1 c23d 9adc 303a 6db5 593e
0.24234909 -0.19792716 -0.049294103 0.034712393 0.26954606 0.16907594 0.37953797 -0.20504674
-0.029177815 -0.025547458 0.3206644 0.3722942 0.099997714 -0.31598473 -0.2820151 0.06839476
-0.34585404 -0.13259058 -0.2927433 0.19947758 -0.04995264 -0.30551553 0.2544124 -0.3478821
-0.03672563 0.38096005 0.19613998 -0.3398392 0.040194776 -0.054977983 0.16761565 0.3654414
0.3354196 -0.03128424 0.17687555 -0.3863255 0.30808997 0.20561217 -0.2732086 -0.10704544
-0.14461595 -0.22458799 0.15915862 -0.10897948 0.1580126 -0.109446146 0.30513218 -0.14694345
-0.05901143 -0.115355425 0.016422465 -0.13700768 -0.27283126 -0.37495166 0.24076127 0.051848907
-0.24810752 0.2034468 0.035117436 -0.13348842 -0.023978762 0.043390434 0.28123382 -0.36114565
-0.30230406 -0.31569445 -0.30692527 0.007096921 0.2150886 0.09878792 0.16294955 0.04931091
-0.009365561 -0.35588768 0.35047632 0.3805083 -0.00405058 0.0706491 0.06654269 0.39001983
-0.0014762293 -0.056291807 -0.21021467 0.09868273 0.1784212 -0.3299706 0.1318635 0.099631116
0.17228523 0.17987889 -0.09390683 0.051775083 -0.27383995 0.23543221 -0.329052 -0.34432107
-0.28860152 -0.21462725 0.017835803 0.25370508 -0.043185756 0.2800383 -0.055421818 0.33391252
0.27073792 0.24460785 0.15374756 -0.26158345 0.38674667 -0.37451434 -0.27263367 -0.23291005
-0.0951442 0.16806726 0.07813012 -0.33823112 0.38165078 0.37088174 0.18772186 -0.38551274
0.21870066 0.10820312 -0.043380465 -0.3277351 0.33475232 -0.109188974 -0.31699654 0.30305925
0.15225126 0.110375114 0.25338376 0.13137928 -0.083739 -0.062243577 0.32626235 -0.007931584
-0.32781503 -0.2679157 -0.29402265 0.03746361 0.28823563 0.23371759 0.10246703 0.12817648
-0.18082546 0.36974266 0.14531147 -0.242975 -0.25961336 -0.35152146 -0.103155516 0.2869966
0.024915522 -0.18046317 0.10860791 -0.26980424 0.113815844 0.26737595 0.18742308 -0.11396493
-0.12701371 0.16442326 0.2323847 -0.08875865 0.0019350052 -0.038953826 -0.037953958 -0.34874126
-0.32313374 0.33689156 -0.1826128 0.28875932 0.24117123 -0.055906944 -0.18384264 0.013692056
-0.0604896 -0.22798078 0.38427258 -0.024414923 -0.055031896 -0.2638918 0.06321311 0.055034447
0.39133093 -0.11165877 0.21669956 0.018213563 0.20763023 0.0048398487 -0.05882999 0.15154237
-0.1699407 0.23462445 -0.32781187 -0.27851734 0.37649548 -0.14056239 -0.31142798 -0.28477597
0.38263345 -0.04778323 -0.32910153 -0.04704363 -0.18573846 -0.25984824 -0.18823694 0.2961615
0.15429196 0.2286596 0.02814788 -0.15700021 -0.15217689 -0.26054612 -0.28151247 -0.33800945
0.06680697 0.20456903 0.32221213 -0.008654724 -0.050777424 -0.026922489 0.15248257 -0.0541547
-0.13320492 -0.10053124 -0.38488588 -0.30054986 -0.1640826 0.035551652 -0.24223714 0.14746517
-0.20919614 0.38159338 -0.34656188 0.2156957 -0.19798003 -0.13206896 -0.36891678 -0.36380264
-0.37299106 -0.006243011 0.3642242 0.177143 0.24434784 0.08887199 -0.14386696 -0.146007
-0.10839347 -0.36724687 0.21138863 -0.11195405 -0.21792932 0.09503441 0.00067467394 0.21260615

naim.encoder.0.ff.3.weight f4 [6, 1000]
00000000: e557 5bbc aedc 47bc 1f16 1cbc a0a9 c5bb
00000010: 736c 4fbc 59a6 323b 3603 4ebb 6a57 58bc
00000020: 2afc 863c 9445 d43c 24ea acbb e6ec d6bb
00000030: abd1 f1bc c9e0 b9bc 71ec 05bb b655 dbbb
00000040: 3a2b 273c 8c7a 53bc da79 6dbb 657e cb3b
00000050: ec99 fa3c 5c8b c83c 2be0 b3bc 0f65 9aba
00000060: 2d56 8abb 8a86 2eba bd28 3e3c cbd9 46bc
00000070: f796 b9bb 9ac8 00bd c817 19bc 52ae f5bc
00000080: 7a17 3e3c 4626 c4bc 92a9 47bc 44dd a0bc
00000090: 3441 d23c c8ed 03bc dba3 e93c 7bf6 48bc
000000a0: cc2f 783c a314 fdba b9ab aebc afe2 db3c
000000b0: bd5c acbc 165b 5dbc 8902 9b3c ef0f 12bb
000000c0: 1ef3 94bb e753 043d 2148 e4bc 5160 60bc
000000d0: 37f8 2e3c 00ba e7bb 77f0 2e3b e6c8 32bc
000000e0: fbb1 dcbb 197e be3c f2e2 09bc 415b 513c
000000f0: 5059 cc3c 52a0 d03c 4412 823c 02cb b03c
00000100: 70db 8cbb 8d25 8a3b 7999 26bc 50c8 04bd
00000110: 31f5 ed3c aa13 e9bc a6e8 96bc b5b8 5dbc
00000120: 1dc4 acbc bcef b7bc ee72 80bc 8a32 b53b
00000130: 59f8 c4bc 880d d0bc 8686 84bc 1fb6 c9bc
00000140: 5ae7 8c3b e5c0 b13b 73be a53b b122 f13c
00000150: d7bd 5bbc ca49 3ebc 3ee4 f43b e045 023d
00000160: 8b13 0d3c a62e 0cbb 89fe 403c 6345 e4bc
00000170: 70dc abbc fbc9 46bc c5e8 d4bc d277 b2bc
00000180: 2f3c bbbc de11 2e3c d0cd ec3b 0b6f dc3a
00000190: bc80 e2bb 4f02 4a39 ada4 b13c 7f42 c4bc
000001a0: 7750 a13c d23d 323c 544d 2dbc 6a5b 9f3c
000001b0: bd61 b03a 4274 85bc 1e67 023d a9bb 2b3c
000001c0: 9e17 c63c c676 dcbb 7889 b9bc 538d b33c
000001d0: 52c2 433b 0caa 4a3c 7eae ddbb c298 853c
000001e0: e3cf c9bc 0442 a43a 570e d13c 2d7d 12bc
000001f0: 789f d83c 07bf 4a3c b30f 553c e4e4 033d
00000200: 5c7d dabb 6925 e2bb c0af 983c ffe2 94bc
00000210: 782c b0bc 7b78 cb3c 771d d6bc 5ba0 4dbc
00000220: e055 103c 2064 e83b 6270 92bc d85e b8bb
00000230: 0a97 9b3c 2c5e a0bc 72f3 a33c 460c 99ba
00000240: 79b3 0fbc 4b89 f9bc 2d30 ecbb 3d4f dd3c
00000250: 446f 8dbc 6c3b 8ebc 72fa 7eba 4f5b ae3c
00000260: 9834 3cbc 14cb fa3c 1936 033d 9a0c df3c
00000270: 6efe 84bc 703d a8bc ba62 d7bc 3674 51bb
00000280: 9ce4 acbc 7dfc 7e3c 4768 e93a ce4e dc3c
00000290: cb42 f2bc 5be1 bebc 9a83 63bb c44e 013c
000002a0: fb6d e73c 2b87 ebba 4f64 e03c 3cfc 04bc
000002b0: bd32 32bb 1233 62bc 71f8 68bc dcd5 71bc
000002c0: fd67 dfbc 5e13 8bb9 2da1 34bc b8b8 87bc
000002d0: 8dd2 b8bc 7df3 f5bc 221d efbb cdfb ddbc
000002e0: 7b48 ed3c 8fd8 e0bb 0be0 183c 567b c9bc
000002f0: e9b3 8c3b 5227 e2bc 0781 8b3c 7bd4 593c
00000300: a3b2 bdbc 0342 733c ba24 1f3b dbb0 99bc
00000310: c535 80bc 5e30 043d db1b 91bc 93c6 ea3c
00000320: ac1f 013c f717 523c 0088 92bc ab1d cd3b
00000330: fcaa f43b b09b df3c f39a 08bd f577 1ebc
00000340: cd6b eeba 67cd a7bc 2ef8 be3b 4096 a33c
00000350: 3f66 ac3c 61be 5abc 167c 543c 93e3 a8bc
00000360: 95f6 af3c 589e c8bc 1c0c efbc cb3b 2b3c
00000370: 9f85 a9bb 2dd6 143c 8705 e13c f6bc 063d
00000380: 8a2f 6e3c d041 d6bc 9d52 46ba 0544 833a
00000390: 3818 efbc e0c9 dc3c 5bf0 a93c 3868 55bc
000003a0: 7139 dfbb 8010 8cbc f470 6a3c 7ca8 8e3b
000003b0: ebdb 5cbc dcee 8d3c 3a5f 08bc b5b5 ca3a
000003c0: 2794 b33c a5fb 8ebc a565 fbbc 7a06 973c
000003d0: c72e adbc f6fa 4f3c 964c 9dbb af24 ad3c
000003e0: 111d 2f39 9a2a 61bc 9b60 c4bc 94c5 933c
000003f0: 8325 a8bc 9a74 1a3c f394 e53c 3a92 e1bc
-0.013387655 -0.01219861 -0.009526758 -0.0060321838 -0.012660134 0.0027259795 -0.003143502 -0.013204435
0.016477663 0.025912084 -0.005276935 -0.006559002 -0.029518923 -0.022690194 -0.002043512 -0.006693567
0.010203177 -0.012907635 -0.003623596 0.0062101358 0.030590974 0.024480514 -0.021957478 -0.0011779385
-0.0042216987 -0.0006657621 0.011606392 -0.012136887 -0.0056637484 -0.03144131 -0.009344049 -0.029990349
0.011602277 -0.023944031 -0.012186425 -0.019636758 0.025665857 -0.008052297 0.028520515 -0.012265797
0.015148114 -0.0019308518 -0.021322118 0.02684149 -0.021040315 -0.013510486 0.018922107 -0.002228733
-0.0045455834 0.032306578 -0.027866425 -0.013694839 0.010679296 -0.0070717335 0.0026693621 -0.010912156
-0.006735084 0.023253487 -0.008415924 0.012778104 0.024944931 0.025467072 0.01587785 0.021581177
-0.00429862 0.004215902 -0.010168427 -0.032417595 0.02904758 -0.02845176 -0.018421482 -0.013532807
-0.021089608 -0.022453181 -0.015679803 0.0055297064 -0.024044203 -0.025397077 -0.016177427 -0.024622975
0.00430004 0.005424606 0.0050581037 0.029435487 -0.013411961 -0.011614272 0.0074734977 0.03180492
0.008610616 -0.002139011 0.011779436 -0.027865117 -0.020979136 -0.012133117 -0.0259899 -0.02178565
-0.022855846 0.010624377 0.007226683 0.0016817761 -0.006912319 0.00019265081 0.021684969 -0.023957489
0.019691689 0.010878997 -0.0105775185 0.01945277 0.0013456863 -0.016290788 0.03183662 0.010481753
0.024181183 -0.006728026 -0.022648558 0.021917975 0.0029870463 0.012369644 -0.006765186 0.016308192
-0.02463526 0.0012531881 0.025519533 -0.008940977 0.026443228 0.012374646 0.013004231 0.03220071
-0.006667776 -0.0069014323 0.018638492 -0.018174646 -0.02150558 0.024837723 -0.026137097 -0.012550439
0.008809537 0.007092014 -0.017875854 -0.0056265406 0.01899292 -0.019576155 0.020013545 -0.0011676631
-0.008770817 -0.030460974 -0.0072078914 0.027015323 -0.01726497 -0.017362319 -0.00097266503 0.021283774
-0.011487149 0.030614413 0.032034013 0.027227689 -0.016234603 -0.020537108 -0.026292194 -0.0031960136
-0.021105103 0.015563128 0.0017807566 0.026893046 -0.029572865 -0.023300817 -0.0034715892 0.007892314
0.028250685 -0.001796936 0.02739158 -0.008116778 -0.0027190887 -0.013806121 -0.014219389 -0.014760461
-0.027271265 -0.00026526576 -0.011024755 -0.016567573 -0.022561336 -0.03002333 -0.007297174 -0.027097607
0.028965225 -0.0068617533 0.00933076 -0.024594944 0.004293908 -0.02760664 0.017029298 0.013295288
-0.02315647 0.014847281 0.0024283365 -0.01876109 -0.01565064 0.03227269 -0.017713478 0.02865914
0.007881086 0.0128230965 -0.017887115 0.00625964 0.007466672 0.027295917 -0.033350896 -0.009672155
-0.0018190086 -0.020483686 0.005827925 0.019969106 0.021044848 -0.013351054 0.0129690375 -0.020616328
0.021479884 -0.024489567 -0.029180579 0.0104512675 -0.0051733996 0.009084267 0.027468456 0.03289505
0.014537701 -0.026154429 -0.0007565411 0.0010014778 -0.029186353 0.02695173 0.020744493 -0.013025336
-0.0068122675 -0.017097712 0.014309157 0.004353581 -0.013480167 0.017325811 -0.008323485 0.001546553
0.02192123 -0.017453978 -0.030688116 0.018435705 -0.02114047 0.012694111 -0.0048003895 0.021135656
0.00016700129 -0.013743067 -0.023971846 0.018038549 -0.0205257 0.009427214 0.028025126 -0.027535547

naim.encoder.0.ff.3.bias f4 [6]
00000000: be2c f3bc 3011 0bbb 3603 a4bc 18cd 5fbc
00000010: be1f d73c 5204 c5bc
-0.02968442 -0.0021219961 -0.020021062 -0.013659738 0.026260253 -0.024049912

naim.encoder.1.layer_norm_1.weight f4 [6]
00000000: 1c8d 7c3f 6390 7c3f 5461 7c3f 036a 7c3f
00000010: 395e 7c3f c262 7c3f
0.98652816 0.98657817 0.9858601 0.9859926 0.9858127 0.9858819

naim.encoder.1.layer_norm_1.bias f4 [6]
00000000: a12d 0e39 2c55 08ba e705 a9b9 b631 b8b9
00000010: 2e4b 8bba 5f2e db39
0.00013559173 -0.000520068 -0.0003223859 -0.00035132252 -0.0010627264 0.00041805484

naim.encoder.1.attn.linear_q.weight f4 [6, 6]
00000000: d448 91be 0bbc f1bd 9794 2bbe fe33 b33d
00000010: 0cad 7d3e 1873 5a3d fac6 3c3b f321 3a3e
00000020: aa42 6b3e 86c9 c53b aeea 85be 17de adbe
00000030: 9b8c c93e 9d00 f93d 8b84 b83e 5d20 14be
00000040: 880e cb3d da2b 4dbe d1e3 4ebe f3b1 31be
00000050: 40a1 c93e 6d81 913e 1283 73be abe4 8bbe
00000060: 2b5e f73d dde7 a8bd bb29 0f3c 7bde 1d3d
00000070: 5ac8 afbe 3d98 9c3d 9a7e 99ba 1c19 8bbe
00000080: 5878 c7be db46 473e 24e0 b7be 4d72 2dbe
-0.28375876 -0.118034445 -0.16755901 0.08750151 0.24773043 0.05333242 0.0028805123 0.18177013
0.22974649 0.0060359864 -0.2615561 -0.33958504 0.39365086 0.1215832 0.36038622 -0.1446547
0.09914881 -0.2003626 -0.20204093 -0.17353038 0.39380836 0.28419057 -0.23780468 -0.27322897
0.12078508 -0.082473494 0.008737977 0.038542252 -0.34332544 0.07646225 -0.0011710704 -0.27167594
-0.38959002 0.19460623 -0.35913193 -0.16938134

naim.encoder.1.attn.linear_k.weight f4 [6, 6]
00000000: e19c 6f3e 2ca9 84be 3111 38be a3e0 79be
00000010: 06b1 673e d84d e83d 9fad ec3c 7ef4 043e
00000020: 6675 d23d c088 94bd e217 c8bc 9b31 77be
00000030: 1cdf 36be 794d ee3b a5d6 16bd 07e4 ba3d
00000040: d434 383e 4b69 993e 0c08 c13e 1700 a0bc
00000050: 8593 163e c12b a2be 56be 633e 43a7 c3bd
00000060: 82bd 9ebe 16a6 9bbe 9c01 a7be e059 32be
00000070: 0c73 303e f819 a3be 2f79 10bd a1c5 4cbd
00000080: 9191 0b3e 4e2d 1cbe 4981 453e 3c1f 74be
0.23399688 -0.25910318 -0.17975308 -0.24402098 0.22626123 0.113429725 0.028891383 0.12983891
0.10276298 -0.072526455 -0.02442545 -0.24140017 -0.17858547 0.007272419 -0.036825795 0.09125524
0.17988902 0.29963145 0.37701452 -0.019531293 0.14704712 -0.31674007 0.22240576 -0.09553387
-0.31003958 -0.3040015 -0.32618415 -0.17417097 0.17231387 -0.3185575 -0.03527182 -0.04999316
0.13629748 -0.15251657 0.192876 -0.2384004

naim.encoder.1.attn.linear_v.weight f4 [6, 6]
00000000: 34d7 703e 66ca ccbe f4e8 89be 81fc 0e3e
00000010: 8de8 663d 81f9 8f3e 778f 4e3e a79b a8be
00000020: ea5c 9e3e 71b0 c3bd 4bac 82bd 1b40 24be
00000030: cea4 8ebd 48ea bebe 0bbc e53c c5ce 993e
00000040: 3dad 8ebd a2ed 9d3e 51b7 36be db23 1d3e
00000050: 37c4 ff3c f6a3 14be 9734 c53e f389 063d
00000060: 8b88 8a3c 2aa5 26bd 5021 83bc f958 a23e
00000070: fc67 49bd d88f 713e 5a09 0c3e 528b 813e
00000080: 1c35 97be 68d9 b0be f0c0 f5bd 0505 cfbd
0.23519593 -0.39998168 -0.26935542 0.1396351 0.05637412 0.28120044 0.20171915 -0.32931253
0.30930263 -0.09555138 -0.063805185 -0.1604008 -0.06965028 -0.37288117 0.028043767 0.30040565
-0.06966636 0.30845362 -0.17843367 0.15345709 0.031221492 -0.14515671 0.38516685 0.032846402
0.016910812 -0.040684856 -0.016007096 0.31708506 -0.049171433 0.23590028 0.13675442 0.25301605
-0.29532707 -0.34540868 -0.119996905 -0.10108379

naim.encoder.1.attn.linear_o.weight f4 [6, 6]
00000000: 795d c53e 4d7a c93e 89cc c5bd 79f8 43be
00000010: 2a7f ddba 7b70 1c3e c4ef 0b3e 064d 923d
00000020: fc09 973e c15e 273d f800 a53e c221 bb3d
00000030: 2154 0cbd e904 aa3e f4d3 713c 551a 8d3c
00000040: af9e 9cbd 49b8 6f3e 64f9 f4bd 0c2a 9e3e
00000050: 9ca7 5d3e 3dde c9bb 7f84 86bd da9f 1d3e
00000060: acd6 c4be c5da f7bd 1e68 05be 1aaf 15bd
00000070: b89d 39be 7526 26be 595d 383e 1851 f5bc
00000080: bc9e 89be 8d9d 88bc e94a f13d eaf7 1abe
0.38547876 0.3935112 -0.096581526 -0.19137754 -0.001689886 0.15277283 0.13665682 0.07143597
0.29499805 0.04086185 0.32227302 0.09137298 -0.03425992 0.3320687 0.014760006 0.01722447
-0.07647454 0.23410143 -0.1196163 0.30891454 0.21645969 -0.006160526 -0.065682404 0.1539301
-0.38445032 -0.12102274 -0.13027999 -0.036543943 -0.18126571 -0.16225608 0.1800436 -0.029945895
-0.26878917 -0.016676689 0.11781866 -0.15133634

naim.encoder.1.layer_norm_2.weight f4 [6]
00000000: 60ee 7f3f 49c7 7d3f 24bb 7d3f 55b9 7e3f
00000010: 87e3 7d3f 9ce6 7d3f
0.99973106 0.9913221 0.9911368 0.99501544 0.99175304 0.99180007

naim.encoder.1.layer_norm_2.bias f4 [6]
00000000: eb8f c738 d03b 093a 2a84 ac3a d13d ef38
00000010: 5da4 79b9 e652 a7ba
9.515866e-05 0.0005235048 0.0013161947 0.00011407922 -0.0002380772 -0.0012765795

naim.encoder.1.ff.0.weight f4 [1000, 6]
00000000: 31c0 aa3e 4ef7 89be e8f3 af3e ddfe 163e
00000010: eb99 63be 0e8c bebe 535d 193e 3527 91bd
00000020: 2e67 ea3d 7342 2b3e 5ba3 86be 5e73 3e3d
00000030: fef5 a3bd 52bb b4be ac53 843d 1cc0 9e3d
00000040: f6f9 98be 02a2 bd3e 271c 4f3e 8b84 603e
00000050: f01b afbe 7371 adbe f7e7 263e baa4 633e
00000060: 526f acbe 805b c13e c76f 9fbd 93de a1be
00000070: 0c38 92be e6d9 a4bd 7136 503e 8b04 89be
00000080: fe86 933e 6e0f ca3e 4319 bd3e 8b70 313e
00000090: 2e74 20be 76c8 13be f880 8f3e 34f4 9abd
000000a0: 738d 6a3d f714 ca3e b7b8 c8be 22c2 a9bd
000000b0: 3a00 18be 17e1 69bd 3e75 5c3c 2b19 a6bd
000000c0: c42a c33e 8f09 1d3e 757f 7bbe 7f0f c43e
000000d0: b983 d2bd d29d 5b3d 9d4e 073d a3cd 92be
000000e0: 1e08 473e cc0f 70be 020e b3be 0c5a a83e
000000f0: e912 6d3e b42b 22be e93f 8ebe 60cc b53e
00000100: aaef 063e 4fa8 83be 5e66 a7be a1b5 1fbe
00000110: a16d 5bbe c6b2 c53c ad43 063d 5a44 c5be
00000120: 318e 433e 1699 463e 7603 b6be 0451 a13e
00000130: 55f1 18be 62db 493e 65d8 c53e 929c 693e
00000140: d90a 853e d2b1 313c efaf 443d 81a8 aabe
00000150: fc08 90be 5f60 a13e c9cd b7be 12e6 253e
00000160: e1d5 67be 09c5 ad3e aef5 923e 17e9 a5bd
00000170: a25c 39bd 4187 89be 92ae bb3e c7fc 6ebe
00000180: 6d59 083e dfb1 8b3e f8e4 c1be 6879 c6be
00000190: 0d97 8bbe c90a 58bd 94fd 773e d425 e8bd
000001a0: 89fa 1ebe 10f0 833e 7d98 a03e 138c 503e
000001b0: 794c ae3e 1e1a b5be 25a5 b3be 9cbb 803d
000001c0: 440b a8be cb32 d4bd 0d0f 703e a52f c43e
000001d0: 8444 8fbd 636c b1be 750a 40be 1013 c43e
000001e0: cfbc 7ebd ff43 bbbe 3d35 4fbe 4149 76be
000001f0: b9cf bdbd e908 90be afc9 febd 877f b83e
00000200: 8d16 38be acca 9abd 192d 5c3e 3b20 bcbe
00000210: feca 4ebe 3e65 fbbc 0259 9d3e 3cd5 473d
00000220: 0e14 30bb a119 fdbd 2233 373e 691c 28be
00000230: 6a44 69bd 7b59 29be 4295 0e3e 9dbd c93e
00000240: 6f84 97be f3e5 bcbc e27c d9bc 4da4 46be
00000250: 290d 8ebe bf51 24be dc0f 9dbe ed20 983e
00000260: dd16 8dbe 1238 713e e91c a63e 6905 8abd
00000270: 5842 bb3e a0bd 8f3e 359c 8abe 81ed 603e
00000280: 52a9 bc3d d1bb 9d3e 6582 97be dbf3 9b3e
00000290: 1a22 4c3d 3a43 3e3e 9076 5abe 082c 823e
000002a0: 7dfb c3bc 014a a53e f807 e23c 288a 753e
000002b0: f8f9 79be 8b1c b2be 31c6 073e c2e9 503e
000002c0: 4129 d43d 9c4a f23d d246 833e 7653 48be
000002d0: d5f1 513e 5508 3c3e f3da 24be 514f 6bbe
000002e0: 6b2d c8be 2fb4 923e 97b0 0fbb fe73 aa3d
000002f0: 1fb0 8cbe 18da 95be 4e62 a43e f953 8c3e
00000300: 5b68 553e 5632 a03e 7f77 a23e 313d 693e
00000310: 37ba 903e 2530 35bd 6eef c93d fd90 acbe
00000320: 0e4a 0abe 57c2 18bd 1f84 84bc 2e3f c73e
00000330: 7375 a33e aada ec3d 49ac bb3e 298b 47be
00000340: 05ea 853d bd8b 9ebe 6d84 aabe b447 513e
00000350: 02f3 ef3d ecdb 7abc 4efa 7fbe f779 8f3e
00000360: 0143 ebbc 9891 873e 2248 89be c99b 993e
00000370: 2034 82bc dca5 f0bd ab56 0cbd d764 9abe
00000380: e536 8cbd 113c be3c 2ec9 93be 933f 543e
00000390: 2d0b be3e 2e00 4b3e 2c5b 41be 39d3 74be
000003a0: 1750 9ebe 0d98 73be 0d8a 6b3e 5c96 323e
000003b0: c153 0ebe 63a6 093c 99a5 53bd 33ad 163b
000003c0: af91 c9be 5b28 a93e 5c8e 06be 6989 acbe
000003d0: 44d7 f7bb d019 e63d 8fb6 323e 3a59 45be
000003e0: 61c6 c7bc b87c 95be 8496 96be 79de 82be
000003f0: a171 79be ae7e 7a3e a2e4 b5be 2d2b 9dbd
0.33349755 -0.2694649 0.34365773 0.1474566 -0.22226684 -0.37216228 0.14977007 -0.07087556
0.11445461 0.16724567 -0.26296505 0.04649674 -0.08005904 -0.35299164 0.06461272 0.07751486
-0.29878205 0.37037665 0.20225583 0.21925561 -0.34201002 -0.33875617 0.16299425 0.22230807
-0.3367868 0.3776512 -0.07784992 -0.31615123 -0.28558385 -0.08049373 0.20333268 -0.2676128
0.28813928 0.39464897 0.36933336 0.17328088 -0.15669319 -0.14431939 0.28028083 -0.07566109
0.057263803 0.3946912 -0.39203426 -0.08288981 -0.14843836 -0.057099428 0.013455687 -0.08110269
0.38118565 0.15335678 -0.2456034 0.38293073 -0.1027903 0.053617306 0.033033956 -0.28672513
0.1943669 -0.23443526 -0.34971625 0.328812 0.23151745 -0.15836984 -0.27783135 0.35507488
0.13177362 -0.25714347 -0.32695287 -0.1559663 -0.21428539 0.024133097 0.032779384 -0.3852871
0.1909721 0.19394335 -0.35549515 0.31507123 -0.14935811 0.19712594 0.38641658 0.22813633
0.2598484 0.010845618 0.048019346 -0.33331683 -0.28131855 0.31518838 -0.3589919 0.16201046
-0.22640182 0.33939388 0.28703064 -0.08101099 -0.045254357 -0.26861003 0.36656624 -0.23338614
0.13315363 0.27284142 -0.37870002 -0.387645 -0.2726368 -0.05274466 0.24217826 -0.1133534
-0.15525259 0.2576909 0.3136634 0.20365934 0.3404272 -0.35371488 -0.35086933 0.06285784
-0.32821095 -0.103612505 0.23443241 0.383176 -0.0699549 -0.34653005 -0.18753989 0.38295794
-0.06219178 -0.36575314 -0.20235153 -0.24051382 -0.092681356 -0.28131798 -0.12440812 0.36034796
-0.17977352 -0.07558188 0.21501578 -0.3674334 -0.20194623 -0.030687924 0.3073197 0.04878734
-0.0026867422 -0.12358404 0.178906 -0.16417088 -0.05695001 -0.1653804 0.13924125 0.39402476
-0.29593226 -0.023058867 -0.026548807 -0.19398613 -0.27744415 -0.16046809 -0.30676162 0.2971262
-0.27556506 0.23556545 0.32443932 -0.06739313 0.36574054 0.2807436 -0.27072302 0.219656
0.09211983 0.30807355 -0.2959167 0.30459484 0.04983721 0.18580332 -0.2133429 0.25424218
-0.02392363 0.32283023 0.02759169 0.23978484 -0.24411762 -0.34787402 0.13259198 0.20401672
0.10359431 0.11830637 0.2563997 -0.19563088 0.20502408 0.18362553 -0.16099147 -0.22979476
-0.3909715 0.28653094 -0.0021925324 0.08322905 -0.2747812 -0.29267955 0.3210625 0.27407816
0.2084059 0.31288403 0.31731793 0.22777249 0.2826707 -0.044235367 0.09860121 -0.33704367
-0.13504812 -0.037294712 -0.016176281 0.3891539 0.31925544 0.11565144 0.3665488 -0.19486679
0.06538776 -0.30965987 -0.33304158 0.20437509 0.11716272 -0.0153112225 -0.24997827 0.2802274
-0.028718473 0.26478267 -0.26812845 0.30001667 -0.015893996 -0.11750385 -0.03426234 -0.3015506
-0.06846408 0.023222001 -0.28864425 0.20727377 0.371179 0.19824287 -0.18882436 -0.239087
-0.3092048 -0.23788472 0.23001881 0.1744017 -0.13899137 0.008401486 -0.051671598 0.0022991418
-0.3936896 0.330386 -0.13140243 -0.33698586 -0.0075635035 0.11235392 0.17452453 -0.19272318
-0.024386587 -0.29196715 -0.2941171 -0.25560358 -0.24359752 0.24462387 -0.35525995 -0.07674251
