outputs/2025-03-23/17-10-18/outputs/model_epoch_50.pt (torch, 377354 bytes, 140 tensors)

naim.embeddings.0.embeddings.weight f4 [2, 6]
0	0x3ebe7834	0.37201083
1	0xbf09ca77	-0.5382456
2	0xbe9f3a0a	-0.31098968
3	0x3ea46cac	0.3211416
4	0x3eded781	0.4352379
5	0x3e8c06bc	0.27348888
6	0x00000000	0.0
7	0x00000000	0.0
8	0x00000000	0.0
9	0x00000000	0.0
10	0x00000000	0.0
11	0x00000000	0.0

naim.embeddings.1.embeddings.weight f4 [2, 6]
0	0x3d225b89	0.039638076
1	0xbd858dcd	-0.06521187
2	0xbdf5a1f1	-0.119937785
3	0x3eb27b2a	0.34859592
4	0x3e265fec	0.16247529
5	0xbd880386	-0.06641297
6	0x00000000	0.0
7	0x00000000	0.0
8	0x00000000	0.0
9	0x00000000	0.0
10	0x00000000	0.0
11	0x00000000	0.0

naim.embeddings.2.embeddings.weight f4 [2, 6]
0	0x3f20ef93	0.6286556
1	0x3d2f51cb	0.042802613
2	0xbca3e8b0	-0.020008415
3	0x3f0c32c8	0.54764986
4	0xbe70166c	-0.23446053
5	0x3ea97928	0.33100247
6	0x00000000	0.0
7	0x00000000	0.0
8	0x00000000	0.0
9	0x00000000	0.0
10	0x00000000	0.0
11	0x00000000	0.0

naim.embeddings.3.embeddings.weight f4 [2, 6]
0	0x3f1c9d0c	0.61177135
1	0xbef24c4a	-0.4732383
2	0x3d48a519	0.048985574
3	0x3eeb00fe	0.45899194
4	0x3de9d053	0.11416688
5	0x3ba4b0f6	0.005025978
6	0x00000000	0.0
7	0x00000000	0.0
8	0x00000000	0.0
9	0x00000000	0.0
10	0x00000000	0.0
11	0x00000000	0.0

naim.embeddings.4.embeddings.weight f4 [2, 6]
0	0xbef80fe9	-0.48449638
1	0xbe82e426	-0.25564688
2	0xbe494606	-0.19655618
3	0x3e0c0b9b	0.13676302
4	0x3d97942f	0.07401311
5	0x3c54e7ff	0.012994765
6	0x00000000	0.0
7	0x00000000	0.0
8	0x00000000	0.0
9	0x00000000	0.0
10	0x00000000	0.0
11	0x00000000	0.0

naim.embeddings.5.embeddings.weight f4 [2, 6]
0	0xbeab2c7b	-0.33432373
1	0x3d0759aa	0.033044495
2	0x3f1a9dbc	0.60396934
3	0x3ea78bd7	0.32723877
4	0xbf071e35	-0.5278047
5	0x3d70fd15	0.058835108
6	0x00000000	0.0
7	0x00000000	0.0
8	0x00000000	0.0
9	0x00000000	0.0
10	0x00000000	0.0
11	0x00000000	0.0

naim.embeddings.6.embeddings.weight f4 [2, 6]
0	0xbefd8bd8	-0.49520755
1	0xbda831e6	-0.08212642
2	0xbde472f8	-0.11154741
3	0xbe7332be	-0.23749825
4	0x3e098648	0.1343013
5	0x3f3763dd	0.71636754
6	0x00000000	0.0
7	0x00000000	0.0
8	0x00000000	0.0
9	0x00000000	0.0
10	0x00000000	0.0
11	0x00000000	0.0

naim.embeddings.7.embeddings.weight f4 [2, 6]
0	0xbec5bd16	-0.38620824
1	0xbc03ae95	-0.008037229
2	0x3db6196a	0.08891566
3	0xbf2b2aef	-0.66862386
4	0xbd5da573	-0.054112863
5	0x3f0c4488	0.5479207
6	0x00000000	0.0
7	0x00000000	0.0
8	0x00000000	0.0
9	0x00000000	0.0
10	0x00000000	0.0
11	0x00000000	0.0

naim.embeddings.8.embeddings.weight f4 [2, 6]
0	0x3f16fb17	0.5897688
1	0xbdf45c4d	-0.119316675
2	0x3e7675bc	0.2406835
3	0xbf10c968	-0.5655732
4	0xbe46d3a9	-0.1941668
5	0x3e633d0a	0.22191253
6	0x00000000	0.0
7	0x00000000	0.0
8	0x00000000	0.0
9	0x00000000	0.0
10	0x00000000	0.0
11	0x00000000	0.0

naim.embeddings.9.embeddings.weight f4 [2, 6]
0	0x3ed6990e	0.41913646
1	0xbe7e2b3a	-0.24821177
2	0x3d60acf3	0.054852437
3	0xbebfbc38	-0.37448287
4	0xbf14292f	-0.5787534
5	0x3ad2fa39	0.0016096301
6	0x00000000	0.0
7	0x00000000	0.0
8	0x00000000	0.0
9	0x00000000	0.0
10	0x00000000	0.0
11	0x00000000	0.0

naim.embeddings.10.embeddings.weight f4 [2, 6]
0	0x3dd79e74	0.105282694
1	0x3de08fb4	0.10964909
2	0x3e60d235	0.21955188
3	0x3e72d5e3	0.23714404
4	0x3bbf6b16	0.005841623
5	0x3ed7cd8f	0.42149016
6	0x00000000	0.0
7	0x00000000	0.0
8	0x00000000	0.0
9	0x00000000	0.0
10	0x00000000	0.0
11	0x00000000	0.0

naim.embeddings.11.embeddings.weight f4 [2, 6]
0	0x3e26f780	0.16305351
1	0xbdde1935	-0.108446516
2	0xbef3b7ba	-0.4760111
3	0xbef4a49f	-0.47781846
4	0xbce9447f	-0.028475044
5	0xbe88fbe1	-0.26754668
6	0x00000000	0.0
7	0x00000000	0.0
8	0x00000000	0.0
9	0x00000000	0.0
10	0x00000000	0.0
11	0x00000000	0.0

naim.embeddings.12.embeddings.weight f4 [2, 6]
0	0x3e2772ec	0.16352433
1	0xbe6f8613	-0.23390989
2	0x3d92d200	0.071689606
3	0x3ed584b1	0.41702798
4	0x3ef24357	0.47317
5	0x3dd97db7	0.10619681
6	0x00000000	0.0
7	0x00000000	0.0
8	0x00000000	0.0
9	0x00000000	0.0
10	0x00000000	0.0
11	0x00000000	0.0

naim.embeddings.13.embeddings.weight f4 [2, 6]
0	0xbe7509c3	-0.23929505
1	0xbda0d493	-0.07853045
2	0xbe8f1107	-0.27942678
3	0x3f1caca3	0.6120092
4	0xbe42e5d5	-0.19032986
5	0x3e8d5dfc	0.27610767
6	0x00000000	0.0
7	0x00000000	0.0
8	0x00000000	0.0
9	0x00000000	0.0
10	0x00000000	0.0
11	0x00000000	0.0

naim.embeddings.14.embeddings.weight f4 [2, 6]
0	0x3e3154c8	0.17317498
1	0x3f214ce1	0.6300793
2	0xbe178747	-0.14797698
3	0x3db25106	0.0870686
4	0x3f171766	0.5902008
5	0x3c8a3cf8	0.016874775
6	0x00000000	0.0
7	0x00000000	0.0
8	0x00000000	0.0
9	0x00000000	0.0
10	0x00000000	0.0
11	0x00000000	0.0

naim.embeddings.15.embeddings.weight f4 [2, 6]
0	0xbf175ccb	-0.59125966
1	0x3ea444f0	0.32083845
2	0x3d909d05	0.07061199
3	0xbe8b6f06	-0.27233142
4	0xbe4041d8	-0.18775117
5	0x3f058feb	0.52172726
6	0x00000000	0.0
7	0x00000000	0.0
8	0x00000000	0.0
9	0x00000000	0.0
10	0x00000000	0.0
11	0x00000000	0.0

naim.embeddings.16.embeddings.weight f4 [2, 6]
0	0x3f02d22f	0.51101965
1	0x3dbad636	0.09122889
2	0x3d92e001	0.071716316
3	0xbe9c0bbf	-0.30477712
4	0x3e0838ad	0.1330287
5	0x3eca06f5	0.39458433
6	0x00000000	0.0
7	0x00000000	0.0
8	0x00000000	0.0
9	0x00000000	0.0
10	0x00000000	0.0
11	0x00000000	0.0

naim.embeddings.17.embeddings.weight f4 [2, 6]
0	0x3de1634c	0.110052675
1	0x3e29a589	0.16567053
2	0x3e01baaa	0.12668863
3	0xbef15b49	-0.47139958
4	0x3e8ea091	0.27856877
5	0xbe90a783	-0.282528
6	0x00000000	0.0
7	0x00000000	0.0
8	0x00000000	0.0
9	0x00000000	0.0
10	0x00000000	0.0
11	0x00000000	0.0

naim.embeddings.18.embeddings.weight f4 [2, 6]
0	0xbf0b1484	-0.5432818
1	0xbee0fc49	-0.43942478
2	0xbe941bcf	-0.28927466
3	0x3f09bc4c	0.53802943
4	0xbd0e0f51	-0.034682576
5	0xbca7cc6d	-0.02048322
6	0x00000000	0.0
7	0x00000000	0.0
8	0x00000000	0.0
9	0x00000000	0.0
10	0x00000000	0.0
11	0x00000000	0.0

naim.embeddings.19.embeddings.weight f4 [2, 6]
0	0x3f01775a	0.5057274
1	0xbe79d54f	-0.24397777
2	0x3e86ba36	0.26313943
3	0xbe4a04cb	-0.19728391
4	0xbdd0dd26	-0.10198431
5	0x3daaab55	0.0833346
6	0x00000000	0.0
7	0x00000000	0.0
8	0x00000000	0.0
9	0x00000000	0.0
10	0x00000000	0.0
11	0x00000000	0.0

naim.embeddings.20.embeddings.weight f4 [2, 6]
0	0x3e8ba044	0.2727071
1	0x3e0db2ed	0.13837786
2	0xbea41d18	-0.32053447
3	0xbef1403e	-0.47119325
4	0xbdfc07ce	-0.12306176
5	0x3e720199	0.23633422
6	0x00000000	0.0
7	0x00000000	0.0
8	0x00000000	0.0
9	0x00000000	0.0
10	0x00000000	0.0
11	0x00000000	0.0

naim.embeddings.21.embeddings.weight f4 [2, 6]
0	0x3d915d70	0.070979
1	0xb8162d8c	-3.5805206e-05
2	0x3df37763	0.118880056
3	0xbd5a948a	-0.053364314
4	0x3c9b5551	0.01896158
5	0xbe125f7d	-0.14294238
6	0x00000000	0.0
7	0x00000000	0.0
8	0x00000000	0.0
9	0x00000000	0.0
10	0x00000000	0.0
11	0x00000000	0.0

naim.embeddings.22.embeddings.weight f4 [2, 6]
0	0x3ea699fd	0.3253936
1	0xbe61c8d3	-0.22049265
2	0xbd150c7a	-0.03638885
3	0x3f0b1fd8	0.54345465
4	0x3ecd0a8a	0.40047103
5	0xbe3f19a0	-0.18662119
6	0x00000000	0.0
7	0x00000000	0.0
8	0x00000000	0.0
9	0x00000000	0.0
10	0x00000000	0.0
11	0x00000000	0.0

naim.embeddings.23.embeddings.weight f4 [2, 6]
0	0x3e4d373b	0.200406
1	0x3ba7567d	0.0051067458
2	0xbea90a12	-0.33015496
3	0x3f4b896a	0.7950655
4	0xbd472dbb	-0.048627596
5	0xbe6fd858	-0.23422372
6	0x00000000	0.0
7	0x00000000	0.0
8	0x00000000	0.0
9	0x00000000	0.0
10	0x00000000	0.0
11	0x00000000	0.0

naim.embeddings.24.embeddings.weight f4 [2, 6]
0	0x3c203f61	0.009780736
1	0x3e12bd10	0.14329934
2	0xbe347580	-0.17622948
3	0x3ec350ae	0.3814749
4	0xbf4f2138	-0.8091006
5	0x3d442da3	0.047895085
6	0x00000000	0.0
7	0x00000000	0.0
8	0x00000000	0.0
9	0x00000000	0.0
10	0x00000000	0.0
11	0x00000000	0.0

naim.embeddings.25.embeddings.weight f4 [2, 6]
0	0x3ebc53fe	0.3678283
1	0xbe0a5048	-0.13507187
2	0x3f38cee1	0.7219067
3	0x3eebca17	0.4605262
4	0x3dbd7d10	0.092523694
5	0x3d60f0fc	0.05491732
6	0x00000000	0.0
7	0x00000000	0.0
8	0x00000000	0.0
9	0x00000000	0.0
10	0x00000000	0.0
11	0x00000000	0.0

naim.embeddings.26.embeddings.weight f4 [2, 6]
0	0x3e3d0fa8	0.18463004
1	0xbee9080f	-0.4551396
2	0xbef52fca	-0.47888023
3	0x3e92cbf9	0.28671244
4	0x3ecb45fb	0.39701828
5	0x3e9bc206	0.30421466
6	0x00000000	0.0
7	0x00000000	0.0
8	0x00000000	0.0
9	0x00000000	0.0
10	0x00000000	0.0
11	0x00000000	0.0

naim.embeddings.27.embeddings.weight f4 [2, 6]
0	0xbdce6d17	-0.10079401
1	0x3eaf1dfa	0.34202558
2	0xbef8e54c	-0.4861244
3	0xbf010147	-0.50392574
4	0xbdda42a6	-0.106572434
5	0x3d19e888	0.037575275
6	0x00000000	0.0
7	0x00000000	0.0
8	0x00000000	0.0
9	0x00000000	0.0
10	0x00000000	0.0
11	0x00000000	0.0

naim.embeddings.28.embeddings.weight f4 [2, 6]
0	0xbe4fbe3b	-0.20287411
1	0x3e54d498	0.20784223
2	0xbe320ddc	-0.173881
3	0xbea44b9f	-0.32088944
4	0x3e12477d	0.14285083
5	0xbdbdfb35	-0.092764296
6	0x00000000	0.0
7	0x00000000	0.0
8	0x00000000	0.0
9	0x00000000	0.0
10	0x00000000	0.0
11	0x00000000	0.0

naim.embeddings.29.embeddings.weight f4 [2, 6]
0	0xbf005812	-0.50134385
1	0xbc9e2d08	-0.019308582
2	0x3f1e7133	0.6189148
3	0xbe425cb5	-0.18980677
4	0x3d81a9e6	0.06331234
5	0xbea67dcb	-0.32517847
6	0x00000000	0.0
7	0x00000000	0.0
8	0x00000000	0.0
9	0x00000000	0.0
10	0x00000000	0.0
11	0x00000000	0.0

naim.embeddings.30.embeddings.weight f4 [2, 6]
0	0xbe09806d	-0.13427897
1	0x3e69a562	0.22816995
2	0x3e9e501b	0.3092049
3	0xbe90b115	-0.28260103
4	0xbd1152a3	-0.0354792
5	0xbebd2f85	-0.36950317
6	0x00000000	0.0
7	0x00000000	0.0
8	0x00000000	0.0
9	0x00000000	0.0
10	0x00000000	0.0
11	0x00000000	0.0

naim.embeddings.31.embeddings.weight f4 [2, 6]
0	0x3eb81734	0.35955203
1	0xbe5fb7ba	-0.2184743
2	0xbd2c6ce5	-0.042096037
3	0xbdc79b47	-0.09746414
4	0xbe72db6f	-0.2371652
5	0xbe886bef	-0.26644847
6	0x00000000	0.0
7	0x00000000	0.0
8	0x00000000	0.0
9	0x00000000	0.0
10	0x00000000	0.0
11	0x00000000	0.0

naim.embeddings.32.embeddings.weight f4 [2, 6]
0	0x3dcc01d5	0.09961287
1	0x3e9f39e5	0.31098858
2	0xbea60664	-0.3242675
3	0xbf3d5b06	-0.73967016
4	0x3e8d8fe8	0.27648854
5	0xbe341bdd	-0.17588754
6	0x00000000	0.0
7	0x00000000	0.0
8	0x00000000	0.0
9	0x00000000	0.0
10	0x00000000	0.0
11	0x00000000	0.0

naim.embeddings.33.embeddings.weight f4 [2, 6]
0	0xbe287a19	-0.16452827
1	0xbe0d7a3b	-0.13816158
2	0xbec02c28	-0.3753369
3	0xbe63c4a5	-0.22242983
4	0xbe9c665e	-0.3054685
5	0x3f302f1f	0.688219
6	0x00000000	0.0
7	0x00000000	0.0
8	0x00000000	0.0
9	0x00000000	0.0
10	0x00000000	0.0
11	0x00000000	0.0

naim.embeddings.34.embeddings.weight f4 [2, 6]
0	0xbe37a714	-0.17934829
1	0x3de019c1	0.10942412
2	0x3f01f3a7	0.5076241
3	0xbd2cafa2	-0.042159684
4	0xbe80e9e3	-0.2517844
5	0x3d5a2263	0.05325545
6	0x00000000	0.0
7	0x00000000	0.0
8	0x00000000	0.0
9	0x00000000	0.0
10	0x00000000	0.0
11	0x00000000	0.0

naim.embeddings.35.embeddings.weight f4 [2, 6]
0	0x3e34673e	0.17617509
1	0xbe08876f	-0.13332914
2	0x3e980e56	0.29698437
3	0x3eaa716c	0.3328966
4	0x3ec34b00	0.38143158
5	0xbf036b0d	-0.5133522
6	0x00000000	0.0
7	0x00000000	0.0
8	0x00000000	0.0
9	0x00000000	0.0
10	0x00000000	0.0
11	0x00000000	0.0

naim.embeddings.36.embeddings.weight f4 [2, 6]
0	0xbe0722a7	-0.13196813
1	0x3ec01d87	0.37522528
2	0xbf01c3f4	-0.50689626
3	0xbc1e0210	-0.009644046
4	0xbcfe801e	-0.03106695
5	0x3dfe0281	0.12402821
6	0x00000000	0.0
7	0x00000000	0.0
8	0x00000000	0.0
9	0x00000000	0.0
10	0x00000000	0.0
11	0x00000000	0.0

naim.embeddings.37.embeddings.weight f4 [2, 6]
0	0x3b2f5ea9	0.0026759303
1	0xbeb6369b	-0.35588536
2	0xbe032f68	-0.12811053
3	0xbd9ade0f	-0.075618856
4	0x3e6e14e0	0.2325015
5	0x3df5eebd	0.12008426
6	0x00000000	0.0
7	0x00000000	0.0
8	0x00000000	0.0
9	0x00000000	0.0
10	0x00000000	0.0
11	0x00000000	0.0

naim.embeddings.38.embeddings.weight f4 [2, 6]
0	0x3bf80810	0.0075693205
1	0xbd543649	-0.051809583
2	0x3cccc1e9	0.024994807
3	0x3ea070b2	0.3133598
4	0xbdf2b5b3	-0.118510626
5	0x3e1910a1	0.1494775
6	0x00000000	0.0
7	0x00000000	0.0
8	0x00000000	0.0
9	0x00000000	0.0
10	0x00000000	0.0
11	0x00000000	0.0

naim.embeddings.39.embeddings.weight f4 [2, 6]
0	0xbd7061d5	-0.05868705
1	0xbe8c34c7	-0.27384016
2	0x3efc054a	0.49222785
3	0xbf1b21d4	-0.6059849
4	0x3e505213	0.20343809
5	0x3eaf44d9	0.34232214
6	0x00000000	0.0
7	0x00000000	0.0
8	0x00000000	0.0
9	0x00000000	0.0
10	0x00000000	0.0
11	0x00000000	0.0

naim.embeddings.40.embeddings.weight f4 [2, 6]
0	0xbd9157c6	-0.070968196
1	0x3e5b897a	0.21439162
2	0x3e0e359a	0.13887635
3	0xbe1ad7e2	-0.15121415
4	0xbd5c3231	-0.053758804
5	0xbeacd438	-0.3375566
6	0x00000000	0.0
7	0x00000000	0.0
8	0x00000000	0.0
9	0x00000000	0.0
10	0x00000000	0.0
11	0x00000000	0.0

naim.embeddings.41.embeddings.weight f4 [2, 6]
0	0xbdd13049	-0.10214288
1	0xbe406d5f	-0.18791722
2	0x3e9f16a5	0.31071964
3	0x3e2b41fa	0.16724387
4	0x3ebfd25b	0.37465176
5	0x3f0d18d5	0.55116016
6	0x00000000	0.0
7	0x00000000	0.0
8	0x00000000	0.0
9	0x00000000	0.0
10	0x00000000	0.0
11	0x00000000	0.0

naim.embeddings.42.embeddings.weight f4 [2, 6]
0	0xbe8ecc1a	-0.27890092
1	0x3f334499	0.70026547
2	0x3e5c667d	0.21523471
3	0x3ec069ce	0.37580723
4	0x3dafca0c	0.08583459
5	0xbe1d7478	-0.1537646
6	0x00000000	0.0
7	0x00000000	0.0
8	0x00000000	0.0
9	0x00000000	0.0
10	0x00000000	0.0
11	0x00000000	0.0

naim.embeddings.43.embeddings.weight f4 [2, 6]
0	0xbe532f35	-0.20623477
1	0x3c271c19	0.01019957
2	0x3f235355	0.6379903
3	0x3ee69184	0.45032895
4	0x3eafeb9c	0.34359443
5	0xbdad642b	-0.08466371
6	0x00000000	0.0
7	0x00000000	0.0
8	0x00000000	0.0
9	0x00000000	0.0
10	0x00000000	0.0
11	0x00000000	0.0

naim.embeddings.44.embeddings.weight f4 [2, 6]
0	0xbcad8281	-0.021180393
1	0x3e8db24f	0.276751
2	0x3e492a05	0.19644935
3	0xbeaf6a7d	-0.34260932
4	0x3dfd8acd	0.1237999
5	0x3f020ca5	0.50800544
6	0x00000000	0.0
7	0x00000000	0.0
8	0x00000000	0.0
9	0x00000000	0.0
10	0x00000000	0.0
11	0x00000000	0.0

naim.embeddings.45.embeddings.weight f4 [2, 6]
0	0xbee6fd6c	-0.4511522
1	0xbf14e611	-0.58163553
2	0xbe9fff44	-0.3124944
3	0x3e0ed37d	0.13947864
4	0xbeea4c31	-0.45761254
5	0xbe196b11	-0.14982249
6	0x00000000	0.0
7	0x00000000	0.0
8	0x00000000	0.0
9	0x00000000	0.0
10	0x00000000	0.0
11	0x00000000	0.0

naim.embeddings.46.embeddings.weight f4 [2, 6]
0	0xbd83f7af	-0.06443726
1	0x3dc4aed7	0.096036606
2	0x3e977421	0.29580787
3	0xbdd400d8	-0.103517234
4	0x3e09e3d6	0.13465819
5	0x3e47c751	0.19509627
6	0x00000000	0.0
7	0x00000000	0.0
8	0x00000000	0.0
9	0x00000000	0.0
10	0x00000000	0.0
11	0x00000000	0.0

naim.embeddings.47.embeddings.weight f4 [2, 6]
0	0x3e8e5d1b	0.2780541
1	0xbdc02642	-0.09382297
2	0xbef94c6b	-0.48691115
3	0xbe5e2c48	-0.2169658
4	0x3e85a08c	0.2609905
5	0xbe8a67db	-0.2703236
6	0x00000000	0.0
7	0x00000000	0.0
8	0x00000000	0.0
9	0x00000000	0.0
10	0x00000000	0.0
11	0x00000000	0.0

naim.embeddings.48.embeddings.weight f4 [2, 6]
0	0x3ca018de	0.019543108
1	0x3e82397e	0.25434488
2	0x3d92e9be	0.07173489
3	0x3ea72162	0.32642657
4	0x3f2d2fc1	0.6765099
5	0x3ebd4a41	0.36970714
6	0x00000000	0.0
7	0x00000000	0.0
8	0x00000000	0.0
9	0x00000000	0.0
10	0x00000000	0.0
11	0x00000000	0.0

naim.embeddings.49.embeddings.weight f4 [2, 6]
0	0xbe7ceffc	-0.24700922
1	0x3e7af5b0	0.24507785
2	0x3e9228a0	0.2854662
3	0xbded0d61	-0.115748174
4	0xbebe5c17	-0.37179634
5	0x3ed0a6b1	0.40752175
6	0x00000000	0.0
7	0x00000000	0.0
8	0x00000000	0.0
9	0x00000000	0.0
10	0x00000000	0.0
11	0x00000000	0.0

naim.embeddings.50.embeddings.weight f4 [2, 6]
0	0x3f010a95	0.5040677
1	0x3eb8f8af	0.3612723
2	0xbdd6df45	-0.10491804
3	0xbe36aaf4	-0.17838651
4	0xbddf8354	-0.10913721
5	0xbf09e3d3	-0.5386326
6	0x00000000	0.0
7	0x00000000	0.0
8	0x00000000	0.0
9	0x00000000	0.0
10	0x00000000	0.0
11	0x00000000	0.0

naim.embeddings.51.embeddings.weight f4 [2, 6]
0	0x3d28de01	0.041227344
1	0x3e247726	0.16061077
2	0x3f043c8c	0.5165489
3	0xbf224538	-0.6338687
4	0x3eac1578	0.3361013
5	0xbe0b9020	-0.13629198
6	0x00000000	0.0
7	0x00000000	0.0
8	0x00000000	0.0
9	0x00000000	0.0
10	0x00000000	0.0
11	0x00000000	0.0

naim.embeddings.52.embeddings.weight f4 [2, 6]
0	0x3e90d6a8	0.2828877
1	0xbe62cba1	-0.22147991
2	0xbe6a75a9	-0.22896446
3	0xbe6230e5	-0.22088964
4	0x3da85c40	0.0822072
5	0xbeb4c1a6	-0.35303992
6	0x00000000	0.0
7	0x00000000	0.0
8	0x00000000	0.0
9	0x00000000	0.0
10	0x00000000	0.0
11	0x00000000	0.0

naim.embeddings.53.embeddings.weight f4 [2, 6]
0	0xbe81d52f	-0.2535796
1	0xbe1d0bae	-0.15336487
2	0x3e191f23	0.14953284
3	0xbd51f1c7	-0.051255967
4	0x3f5e2d6b	0.8678805
5	0xbb8c369f	-0.0042789723
6	0x00000000	0.0
7	0x00000000	0.0
8	0x00000000	0.0
9	0x00000000	0.0
10	0x00000000	0.0
11	0x00000000	0.0

naim.embeddings.54.embeddings.weight f4 [2, 6]
0	0x3e474335	0.19459231
1	0x3efe300f	0.4964604
2	0x3ec8b7c0	0.3920269
3	0x3e31d8ef	0.1736791
4	0xbf14ee54	-0.5817616
5	0x3dd3ff41	0.1035142
6	0x00000000	0.0
7	0x00000000	0.0
8	0x00000000	0.0
9	0x00000000	0.0
10	0x00000000	0.0
11	0x00000000	0.0

naim.embeddings.55.embeddings.weight f4 [2, 6]
0	0x3ea5fc1c	0.32418907
1	0xbe97b45b	-0.29629788
2	0xbf0d9b3d	-0.55315
3	0x3f0c68dc	0.548475
4	0xbdae52fe	-0.08511923
5	0xbe20a869	-0.15689243
6	0x00000000	0.0
7	0x00000000	0.0
8	0x00000000	0.0
9	0x00000000	0.0
10	0x00000000	0.0
11	0x00000000	0.0

naim.embeddings.56.embeddings.weight f4 [2, 6]
0	0xbec6a035	-0.38794103
1	0xbee4ab55	-0.44661966
2	0x3e338517	0.17531238
3	0xbd874502	-0.06604959
4	0xbeceda13	-0.40400752
5	0xbd694953	-0.056954693
6	0x00000000	0.0
7	0x00000000	0.0
8	0x00000000	0.0
9	0x00000000	0.0
10	0x00000000	0.0
11	0x00000000	0.0

naim.embeddings.57.embeddings.weight f4 [2, 6]
0	0x3edaa9ce	0.42707676
1	0xbe9b3d26	-0.3032009
2	0xbe523db8	-0.20531356
3	0x3e8c29c1	0.27375606
4	0x3f304087	0.6884846
5	0xbc0b1153	-0.008488017
6	0x00000000	0.0
7	0x00000000	0.0
8	0x00000000	0.0
9	0x00000000	0.0
10	0x00000000	0.0
11	0x00000000	0.0

naim.embeddings.58.embeddings.weight f4 [2, 6]
0	0xbde848f8	-0.11342043
1	0x3c95e20b	0.018296262
2	0x3d458df8	0.048231095
3	0xbd69c278	-0.057070225
4	0x3dc022f9	0.093816705
5	0xbe814fdc	-0.2525624
6	0x00000000	0.0
7	0x00000000	0.0
8	0x00000000	0.0
9	0x00000000	0.0
10	0x00000000	0.0
11	0x00000000	0.0

naim.embeddings.59.embeddings.weight f4 [2, 6]
0	0x3e9fdb18	0.31221843
1	0xbe28b926	-0.16476879
2	0xbe7a7c88	-0.24461567
3	0x3f28fa06	0.66006505
4	0x3e837667	0.2567627
5	0x3ecc90a2	0.39954096
6	0x00000000	0.0
7	0x00000000	0.0
8	0x00000000	0.0
9	0x00000000	0.0
10	0x00000000	0.0
11	0x00000000	0.0

naim.embeddings.60.embeddings.weight f4 [2, 6]
0	0xbeff659e	-0.49882215
1	0xbd289d92	-0.041165896
2	0x3d443cc8	0.047909528
3	0x3efa01f8	0.48829627
4	0x3e7ee4c6	0.24891958
5	0x3eb0437d	0.3442649
6	0x00000000	0.0
7	0x00000000	0.0
8	0x00000000	0.0
9	0x00000000	0.0
10	0x00000000	0.0
11	0x00000000	0.0

naim.embeddings.61.embeddings.weight f4 [2, 6]
0	0xbe65b757	-0.2243322
1	0x3d3ec14a	0.046571054
2	0x3e0237c4	0.12716585
3	0xbd8f1c9b	-0.06987878
4	0x3e53d17f	0.20685385
5	0xbde1ae00	-0.11019516
6	0x00000000	0.0
7	0x00000000	0.0
8	0x00000000	0.0
9	0x00000000	0.0
10	0x00000000	0.0
11	0x00000000	0.0

naim.embeddings.62.embeddings.weight f4 [2, 6]
0	0x3e8c0eaf	0.27354953
1	0x3e0dd6e5	0.13851507
2	0xbf2e0d60	-0.6798916
3	0xbd75dd44	-0.06002547
4	0xbeb6fbda	-0.35739022
5	0xbee8114e	-0.45325702
6	0x00000000	0.0
7	0x00000000	0.0
8	0x00000000	0.0
9	0x00000000	0.0
10	0x00000000	0.0
11	0x00000000	0.0

naim.embeddings.63.embeddings.weight f4 [2, 6]
0	0x3f397b85	0.724541
1	0x3e9975fa	0.2997282
2	0xbe92d9c0	-0.28681755
3	0x3e29e837	0.16592489
4	0xbe51e94c	-0.20499152
5	0xbe1e08bc	-0.1543302
6	0x00000000	0.0
7	0x00000000	0.0
8	0x00000000	0.0
9	0x00000000	0.0
10	0x00000000	0.0
11	0x00000000	0.0

naim.encoder.0.layer_norm_1.weight f4 [6]
0	0x3f7379b0	0.95107555
1	0x3f6fd991	0.93691355
2	0x3f74bf2c	0.95604205
3	0x3f7dc2e7	0.9912552
4	0x3f74e819	0.9566665
5	0x3f76530e	0.9622048

naim.encoder.0.layer_norm_1.bias f4 [6]
0	0xbc3c6ead	-0.011500997
1	0x3c32650b	0.010888348
2	0xbc802eb7	-0.015647275
3	0x3c7b9e68	0.015357591
4	0xbc0fe76e	-0.0087832045
5	0x3b348a91	0.0027548412

naim.encoder.0.attn.linear_q.weight f4 [6, 6]
0	0xbd85a6e3	-0.06525972
1	0x3c80e29d	0.015733058
2	0xbd7b83dd	-0.06140505
3	0xbead45c6	-0.33842295
4	0xbcd4ab7d	-0.025960678
5	0x3e1f35bb	0.1554784
6	0xbd26badf	-0.040705558
7	0xbe1d84aa	-0.15382639
8	0x3be6a93b	0.007039217
9	0x3d93e372	0.07221116
10	0xbda0f5b4	-0.07859364
11	0xbe8a366d	-0.2699465
12	0xbe1f9249	-0.15583147
13	0xbc9378ed	-0.018001998
14	0x3db214ec	0.08695397
15	0x3e995904	0.29950726
16	0x3be71178	0.007051643
17	0x3daef297	0.08542364
18	0x3e302aaf	0.17203782
19	0xbe1f32ce	-0.15546724
20	0xbdc2cd58	-0.095118225
21	0x3e5f6e05	0.21819313
22	0x3e7aacba	0.24479952
23	0x3d97408d	0.07385359
24	0xbe8307e4	-0.25591958
25	0x3e31ff19	0.17382468
26	0xbe8cadd1	-0.2747636
27	0x3e14b0e8	0.1452061
28	0x3c2a9c65	0.010413264
29	0x3daefbf1	0.08544148
30	0xbeaac0c4	-0.33350194
31	0xbdab9be5	-0.08379344
32	0x3de55c3f	0.11199235
33	0x3e809dad	0.25120297
34	0xbd71bf2b	-0.059020203
35	0x3e9947cf	0.29937598

naim.encoder.0.attn.linear_k.weight f4 [6, 6]
0	0xbd645e76	-0.055754147
1	0xbe40251b	-0.18764155
2	0xbe0216d0	-0.12704015
3	0x3ce96128	0.02848871
4	0xbd0bef40	-0.034163713
5	0x3e11b1f6	0.14228043
6	0xbe277c36	-0.16355976
7	0xbd9bce08	-0.07607657
8	0xbeaf02f4	-0.3418194
9	0x3e8de179	0.27711084
10	0xbd5b9177	-0.053605523
11	0xbe856713	-0.26055202
12	0xbcb7232f	-0.022355644
13	0x3bfb01ae	0.0076601123
14	0x3d7a6664	0.061132804
15	0xbb0b9059	-0.0021295755
16	0x3e450ef5	0.19243987
17	0xbda09d6a	-0.07842524
18	0xbda9f503	-0.082986854
19	0xbd7b8979	-0.0614104
20	0x3d021dc3	0.031766664
21	0x3e9612e8	0.293113
22	0xbcbc66fe	-0.02299833
23	0x3e82d036	0.25549477
24	0x3e84d9ce	0.25947422
25	0xbe219919	-0.15781058
26	0xbba72320	-0.005100623
27	0xbe08cf68	-0.13360369
28	0x3dea267a	0.1143312
29	0xbdbf8bde	-0.093528494
30	0x3d99f358	0.07517117
31	0xbc97071a	-0.018436003
32	0xbe51bc4b	-0.20481984
33	0xbe564faa	-0.20928827
34	0xbeab36d7	-0.33440277
35	0xbe3b09e8	-0.18265498

naim.encoder.0.attn.linear_v.weight f4 [6, 6]
0	0x3dd1054d	0.10206089
1	0x3d1d36c9	0.038382325
2	0x3e9998c6	0.2999937
3	0xbeb54003	-0.354004
4	0xbc37d909	-0.011221179
5	0xbeb4d6b3	-0.35320053
6	0xbc80e485	-0.015733967
7	0x3de9ee49	0.114224024
8	0xbebb36b1	-0.36565164
9	0x3eba56b4	0.36394274
10	0xbdc4a37b	-0.09601494
11	0x3eb7a280	0.35866165
12	0xbd242707	-0.040076282
13	0x3e40c5b4	0.18825418
14	0x3eb8f42d	0.3612379
15	0xbe110555	-0.1416219
16	0xbdd1f0ab	-0.10250982
17	0x3e55e00b	0.20886247
18	0xbeafa176	-0.34302872
19	0x3e3c66c0	0.18398571
20	0xbe83d478	-0.25748038
21	0x3ec60195	0.38673082
22	0xbe86e48b	-0.2634624
23	0xbe056a41	-0.13028814
24	0x3e96ec13	0.29476985
25	0xbe3d6036	-0.18493733
26	0x3e9c4162	0.30518633
27	0x3e8c071f	0.27349183
28	0x3eb8c746	0.36089534
29	0xbec61144	-0.38685048
30	0xbc08bbf9	-0.008345597
31	0xbdc977c7	-0.09837299
32	0x3dd2e4e5	0.102975644
33	0xbe9da0c7	-0.30786726
34	0x3e283091	0.16424777
35	0xbc852df0	-0.016257256

naim.encoder.0.attn.linear_o.weight f4 [6, 6]
0	0xbe08c24a	-0.13355365
1	0xbe9bdb49	-0.3044074
2	0x3e1af420	0.15132189
3	0xbdb88dfc	-0.09011456
4	0x3e7340b8	0.23755157
5	0x3cb6ac34	0.02229891
6	0x3d882b02	0.06648828
7	0xbc682924	-0.014169965
8	0xbc2f5e0a	-0.010703573
9	0xbda3e5fd	-0.08002851
10	0xbe947ec9	-0.2900298
11	0x3e46fb13	0.19431715
12	0xbe7e154b	-0.2481281
13	0x3e7431db	0.23847143
14	0xbe04fcd2	-0.12987068
15	0x3e81efe6	0.2537834
16	0x3eb333c9	0.35000446
17	0xbe737da3	-0.23778395
18	0x3eaf0ed8	0.34191012
19	0x3c93739b	0.01799946
20	0xbe984bbe	-0.29745287
21	0x3e3384fe	0.17531201
22	0x3e6cf2d0	0.231395
23	0x3eba0c24	0.36337388
24	0xbebaedac	-0.36509454
25	0x3ec14bdd	0.37753192
26	0x3ea293d5	0.31753412
27	0x3ed0845f	0.4072599
28	0x3e6ea0d3	0.23303537
29	0xbe32ffda	-0.17480412
30	0x3e9c8bc0	0.3057537
31	0x3ebced05	0.36899582
32	0xbe1b86ec	-0.15188187
33	0xbd80365a	-0.06260367
34	0x3ea0d426	0.31411856
35	0x3ea506e3	0.32231817

naim.encoder.0.layer_norm_2.weight f4 [6]
0	0x3f7e5ec4	0.9936335
1	0x3f781e82	0.9692155
2	0x3f77caf7	0.96794075
3	0x3f7acb4f	0.97966474
4	0x3f7a9e5a	0.97897875
5	0x3f79c1c2	0.97561276

naim.encoder.0.layer_norm_2.bias f4 [6]
0	0xbaaf603d	-0.0013380122
1	0x3c002f5c	0.007823791
2	0xbb3f5a29	-0.0029198027
3	0xba493962	-0.0007676092
4	0x3a8cc835	0.0010740819
5	0x3b03fa88	0.0020138342

naim.encoder.0.ff.0.weight f4 [1000, 6]
0	0x3e5a1de9	0.21300472
1	0x3e8125e7	0.2522423
2	0xbe22029d	-0.1582131
3	0xbd287082	-0.04112292
4	0xbddbfc40	-0.10741472
5	0x3e20ac80	0.15690804
6	0x3d625b95	0.05526312
7	0xbe84f7fc	-0.25970447
8	0xbcab0a0d	-0.020878816
9	0xbe8b05ef	-0.27152964
10	0xbea562e5	-0.32302013
11	0x3e9eab5b	0.3099011
12	0xbe18a4c0	-0.14906597
13	0x3e0d0939	0.1377305
14	0xbd6f9b8c	-0.05849795
15	0xbd3b4969	-0.045724306
16	0x3c90f01a	0.017692614
17	0x3e88122f	0.26576373
18	0xbc892f9b	-0.016746333
19	0x3e8c97ff	0.27459714
20	0x3e37405a	0.17895642
21	0x3e5ee310	0.21766305
22	0xbe9d566d	-0.3073
23	0xbe051620	-0.12996721
24	0xbe8bed6c	-0.27329576
25	0xbd9ac140	-0.07556391
26	0xbd800dd3	-0.06252637
27	0x3d622beb	0.055217665
28	0x3ea9a1fd	0.331314
29	0x3e1cd335	0.15314944
30	0xbe682397	-0.22669826
31	0xbe61f27f	-0.22065161
32	0x3e8152da	0.25258523
33	0x3cb4f9a6	0.022091698
34	0x3db75912	0.08952536
35	0xbe34566b	-0.17611091
36	0xbcef948f	-0.029245643
37	0x3dabf10b	0.08395585
38	0xbe59dea3	-0.21276335
39	0x3e531c46	0.20616254
40	0x3e1f3235	0.15546496
41	0xbe3ad435	-0.18245013
42	0xbde822a3	-0.113347314
43	0xbd9ffd14	-0.07811943
44	0x3d2b0aa9	0.041758213
45	0xbdc767fd	-0.09736631
46	0x3eb286b3	0.34868392
47	0xbeaf55a4	-0.34245026
48	0xbe370190	-0.1787169
49	0xbe5e81fc	-0.21729273
50	0x3da889b7	0.08229392
51	0x3cf52dfd	0.029929155
52	0xbdc734b8	-0.09726852
53	0x3e9ba759	0.30401114
54	0xbe954f49	-0.29162052
55	0x3db4e30d	0.08832369
56	0xbe325f96	-0.17419276
57	0xbd185ceb	-0.03719799
58	0xbeaa1603	-0.3321992
59	0xbe788cff	-0.24272536
60	0xbe91cacf	-0.28475043
61	0x3df6bdff	0.12047958
62	0xbdc521db	-0.09625598
63	0x3e1ed9f3	0.15512829
64	0xbe252d68	-0.16130602
65	0xbd6d8c02	-0.05799485
66	0x3ccc0b7b	0.024907818
67	0x3e931dc8	0.2873366
68	0xbd890164	-0.06689718
69	0x3e33be50	0.17553067
70	0x3da74053	0.08166566
71	0x3e470284	0.19434553
72	0x3e5208cb	0.20511167
73	0x3e0b4ee3	0.13604312
74	0xbda19257	-0.0788924
75	0xbd99fe03	-0.07519152
76	0x3dfafd4a	0.12255342
77	0x3e306f9e	0.17230079
78	0xbb2b501d	-0.002614028
79	0x3e149557	0.14510094
80	0xbe3fa09c	-0.18713611
81	0x3e2e582a	0.1702582
82	0xbc21da2a	-0.0098786745
83	0xbe6000a8	-0.2187525
84	0xbe0c535e	-0.13703677
85	0xbe8601ca	-0.2617324
86	0x3d3d3075	0.04618879
87	0xbe396e89	-0.18108572
88	0xbda5c4f8	-0.080942094
89	0xbc4fd39f	-0.012684732
90	0xbe422148	-0.18958008
91	0x3c5d9fdd	0.013526884
92	0xbca4a686	-0.020098936
93	0x3d9d58fb	0.07682987
94	0x3e70caa1	0.23514797
95	0xbe3df74b	-0.18551366
96	0x3e29cbc5	0.16581638
97	0xbc2fa7f5	-0.010721196
98	0xbe3de39d	-0.18543859
99	0xbe04ca4c	-0.12967795
100	0x3dab92bb	0.08377596
101	0x3d846b31	0.06465758
102	0xbc2a1fbc	-0.010383543
103	0xbe1a89b7	-0.15091597
104	0x3e1d4314	0.1535762
105	0x3cd23ac2	0.025662784
106	0xbeac3752	-0.33635956
107	0xbd05898c	-0.032601878
108	0xbd719605	-0.05898096
109	0xbe13552c	-0.14387959
110	0xbe34308c	-0.17596644
111	0xbe88ea9e	-0.267415
112	0x3eb47169	0.35242775
113	0xbea3a420	-0.31961155
114	0x3ea3cc1e	0.31991667
115	0xbe8df66f	-0.27727076
116	0xbd95e806	-0.073196456
117	0xbdf03f7c	-0.11730859
118	0xbe3785ae	-0.17922089
119	0x3de1d3dc	0.11026737
120	0x3e383364	0.17988354
121	0xbe700a37	-0.23441397
122	0xbe13ee0f	-0.14446281
123	0x3e1d3f03	0.15356068
124	0xbd1db3f4	-0.038501695
125	0x3d967b2a	0.073477104
126	0x3e1d5a6b	0.15366523
127	0xbdc2960f	-0.09501278
128	0xbe2a6fb4	-0.16644174
129	0x3dbecdac	0.093165725
130	0xbdbf687f	-0.09346103
131	0xbe5628ed	-0.2091405
132	0xbe196abd	-0.14982124
133	0xbe24b4cc	-0.16084594
134	0x3eb22a96	0.34798115
135	0x3d280f48	0.0410302
136	0x3e14183d	0.14462371
137	0x3d286da0	0.04112017
138	0xbe5a1c1f	-0.2129979
139	0x3e6d67e0	0.23184156
140	0xbc9ea3a0	-0.019365132
141	0xbd4fc958	-0.050729126
142	0x3e8a2a96	0.26985615
143	0xbe16c36a	-0.14722982
144	0x3d2846f6	0.0410833
145	0xbe94c6c3	-0.29057893
146	0x3e1bdb47	0.15220366
147	0x3ddf27d9	0.10896272
148	0xbe8d236a	-0.2756608
149	0x3e2f8746	0.17141446
150	0x3cece7bf	0.028919099
151	0xbe28634d	-0.1644413
152	0x3e9442cf	0.2895722
153	0x3e023bca	0.1271812
154	0x3dd06ea9	0.10177357
155	0xbdde23c4	-0.108466655
156	0xbe344366	-0.17603835
157	0xbe48c9e0	-0.19608259
158	0x3e01bd09	0.12669767
159	0x3da3e214	0.08002105
160	0xbe5fa179	-0.2183894
161	0x3ea9df31	0.33178094
162	0x3e36affe	0.17840573
163	0xbe04b0c0	-0.1295805
164	0x3e25509c	0.16144031
165	0xbdec51f0	-0.11539066
166	0x3dce16f6	0.10062973
167	0x3e92e9c2	0.28693968
168	0xbe999027	-0.29992792
169	0xbe15db35	-0.14634402
170	0xbbb51f2d	-0.005527398
171	0x3cd7e781	0.026355507
172	0xbe8c5637	-0.27409527
173	0xbe5172d5	-0.20453961
174	0xbcdf8922	-0.02728707
175	0xbd41b98e	-0.0472961
176	0x3d8c21e3	0.06842401
177	0x3d03567c	0.0320649
178	0x3d854959	0.065081306
179	0x3cac0491	0.020998271
180	0x3cb5cf73	0.022193646
181	0xbc401e37	-0.011725954
182	0x3dc74af0	0.0973109
183	0x3e5e6e42	0.21721748
184	0xbe15accb	-0.14616697
185	0xbe1cd850	-0.15316892
186	0x3e061e96	0.13097605
187	0xbe84b263	-0.25917348
188	0x3e6289e0	0.22122908
189	0x3e0a3d10	0.13499856
190	0x3d4cc2db	0.049990516
191	0xbe125bc9	-0.14292826
192	0x3b6b5a4b	0.0035911973
193	0xbe8c654b	-0.2742103
194	0xbe9d88e8	-0.30768514
195	0x3ea56a04	0.32307446
196	0xbe9fdc63	-0.3122283
197	0xbe8f82ec	-0.28029573
198	0xbdcb333f	-0.09921884
199	0x3a8eff2d	0.0010909789
200	0x3d3060a4	0.043060914
201	0xbe12007d	-0.14257999
202	0xbc2151fc	-0.009846207
203	0xbd256cd7	-0.040387
204	0x3e90f128	0.28308988
205	0x3e95e3fa	0.29275495
206	0x3dffc42a	0.12488587
207	0x3b14fc2e	0.0022733319
208	0x3e7cc912	0.24686077
209	0xbe88ccfb	-0.26718888
210	0x3de54cac	0.111962646
211	0xbe34b150	-0.17645764
212	0x3e832366	0.25612944
213	0xbe986768	-0.29766393
214	0x3dbcdbe1	0.09221626
215	0xbe8ba2a7	-0.2727253
216	0x3e3d6bbf	0.18498133
217	0x3d7fcd4c	0.062451646
218	0x3e99266b	0.29912123
219	0xbe8070c6	-0.2508604
220	0x3e6a3726	0.228726
221	0xbe6e735f	-0.23286198
222	0xbe267bcb	-0.16258161
223	0x3dc5bb3d	0.096548535
224	0xbcfc9385	-0.030832062
225	0xbe84ef26	-0.25963706
226	0xbe91bef1	-0.2846599
227	0xbd663052	-0.056198426
228	0x3d81c5a1	0.06336523
229	0x3e9739a6	0.2953617
230	0x3e761972	0.24033144
231	0x3adf5e8b	0.0017041726
232	0xbe4141e5	-0.18872793
233	0xbe9a4d84	-0.30137265
234	0x3e9bdbf4	0.30441248
235	0xbe3c3246	-0.18378553
236	0xbd286ade	-0.04111754
237	0xbe892148	-0.26783204
238	0xbe6e22e8	-0.23255503
239	0x3d3e5f44	0.04647757
240	0xbd4225c6	-0.047399305
241	0x3bd010e1	0.0063496684
242	0xb94fb525	-0.0001980854
243	0x3a0fa443	0.0005479494
244	0xbcf409ee	-0.029789891
245	0xbaa533a3	-0.001260389
246	0x3dfc426a	0.12317355
247	0x3e7189b0	0.2358768
248	0x3e9127db	0.2835072
249	0xbe8a1b13	-0.2697378
250	0xbe91927e	-0.28432077
251	0xbd0fbc70	-0.035091817
252	0xbcab93e6	-0.020944547
253	0x3e2cc193	0.16870718
254	0x3ea424d4	0.32059348
255	0x3d8a0b8a	0.06740482

naim.encoder.0.ff.0.bias f4 [1000]
0	0x3e5f2ef9	0.21795262
1	0xbe203b5b	-0.15647642
2	0xbcdb5bde	-0.026777204
3	0x3cb4c039	0.022064315
4	0x3e82485d	0.25445834
5	0x3e1e354b	0.15450017
6	0x3eaf44a9	0.3423207
7	0xbe3a0cfb	-0.18169014
8	0xbcc43b3c	-0.023954026
9	0xbbda0365	-0.0066532367
10	0x3e8d9684	0.27653897
11	0x3ead4ddd	0.33848467
12	0x3db2cf7a	0.08730979
13	0xbe889aca	-0.26680595
14	0xbe771ee1	-0.24132873
15	0x3d38ddd6	0.045133434
16	0xbe9dd0b7	-0.308233
17	0xbdc3200c	-0.09527597
18	0xbe847006	-0.25866717
19	0x3e32b7b4	0.1745289
20	0xbd23c247	-0.0399802
21	0xbe836eaf	-0.25670382
22	0x3e6aa3a2	0.22913983
23	0xbe98f74a	-0.29876167
24	0xbcc9c0ec	-0.024628125
25	0x3eb00cba	0.3438471
26	0x3e3e2b6f	0.18571256
27	0xbe9bbff5	-0.3041989
28	0x3d00e7a1	0.0314709
29	0xbd4914cd	-0.049092103
30	0x3e05cce7	0.13066445
31	0x3eaa7364	0.3329116
32	0x3e9641ae	0.29346985
33	0xbc31f4a4	-0.0108615495
34	0x3e1eeafb	0.15519325
35	0xbeac6706	-0.3367235
36	0x3e9323cf	0.28738257
37	0x3e3271c1	0.17426206
38	0xbe669954	-0.22519428
39	0xbda96326	-0.08270864
40	0xbdcb069a	-0.099133685
41	0xbe384628	-0.17995512
42	0x3e16ee6c	0.14739388
43	0xbd960107	-0.07324415
44	0x3e146811	0.14492823
45	0xbd81a587	-0.063304
46	0x3e8cd760	0.27508068
47	0xbdd1b722	-0.10240008
48	0xbd315e77	-0.04330298
49	0xbd9ff091	-0.07809556
50	0x3c7b7715	0.015348216
51	0xbdebb501	-0.11509133
52	0xbe6cc641	-0.23122503
53	0xbea7225d	-0.32643405
54	0x3e4c9ab5	0.19980891
55	0x3d4bacea	0.04972545
56	0xbe518b11	-0.20463206
57	0x3e44eeb7	0.19231687
58	0x3cccfef7	0.02502392
59	0xbdb8a127	-0.09015112
60	0xbc2b9f0d	-0.010474932
61	0x3d17f820	0.037101865
62	0x3e83c660	0.25737286
63	0xbea0215c	-0.3127545
64	0xbe81b269	-0.2533143
65	0xbe88f34f	-0.2674813
66	0xbe842274	-0.25807536
67	0x3bfec4f6	0.0077749444
68	0x3e3267ad	0.17422362
69	0x3dc04a07	0.093891196
70	0x3e0d3c7a	0.13792601
71	0x3d2c6276	0.042086087
72	0xbba749ff	-0.0051052566
73	0xbea44221	-0.32081702
74	0x3ea04bb4	0.31307757
75	0x3eb307af	0.349668
76	0xbbdcc0e1	-0.00673686
77	0x3d817b92	0.06322397
78	0x3d535cbe	0.051602118
79	0x3eb63ad0	0.35591745
80	0xba141f5b	-0.0005650424
81	0xbd294b03	-0.041331302
82	0xbe2a2f9c	-0.16619724
83	0x3db710d0	0.089387536
84	0x3e24da11	0.1609881
85	0xbe90355f	-0.2816572
86	0x3dd5f6fb	0.104474984
87	0x3dc08031	0.093994506
88	0x3e18c66a	0.14919439
89	0x3e11fcbf	0.14256571
90	0xbd771e8b	-0.060331862
91	0x3d3aec6d	0.04563563
92	0xbe7761d2	-0.24158409
93	0x3e4acede	0.19805476
94	0xbe90c3de	-0.28274435
95	0xbe9ce79e	-0.3064546
96	0xbe79dff2	-0.24401835
97	0xbe2d8c95	-0.16948159
98	0x3c7f5a26	0.015585458
99	0x3e59cbf7	0.21269213
100	0xbca2d63f	-0.019877551
101	0x3e83a67d	0.25712958
102	0xbd393535	-0.045216758
103	0x3e96f931	0.29486993
104	0x3e7ae6b6	0.24502072
105	0x3e50c1ac	0.2038638
106	0x3df7e5c0	0.12104368
107	0xbe6d9f52	-0.23205307
108	0x3eb0761c	0.3446511
109	0xbea753fd	-0.32681265
110	0xbe6a5393	-0.22883444
111	0xbe3f4cd2	-0.18681648
112	0xbda8392f	-0.08214032
113	0x3e0bc154	0.13647968
114	0x3d8a664b	0.06757792
115	0xbe9bbf37	-0.30419323
116	0x3eb08c5c	0.34482086
117	0x3eae4f7c	0.34045017
118	0x3e25abf4	0.16178876
119	0xbeac5b7d	-0.3366355
120	0x3e4b9e9a	0.1988472
121	0x3db155fe	0.0865898
122	0xbcf97f9a	-0.030456353
123	0xbe8e53f3	-0.27798423
124	0x3e99a7cc	0.3001083
125	0xbdbe98da	-0.09306498
126	0xbe90940b	-0.28237948
127	0x3e8c8eff	0.27452847
128	0x3e119405	0.14216621
129	0x3dc7be77	0.09753125
130	0x3e6c43dd	0.23072763
131	0x3dfc753d	0.12327049
132	0xbd8f095d	-0.06984208
133	0xbd57ca72	-0.0526833
134	0x3e979111	0.29602864
135	0xba3fd27a	-0.0007317435
136	0xbe9396df	-0.28826043
137	0xbe614041	-0.21997167
138	0xbe7b1fcf	-0.24523853
139	0x3cd5c4c1	0.026094796
140	0x3e8894b5	0.26675954
141	0x3e5cfd91	0.21581103
142	0x3dbefb7a	0.09325309
143	0x3dec2638	0.11530727
144	0xbe22adba	-0.15886584
145	0x3eb130f9	0.34607676
146	0x3df597b0	0.11991823
147	0xbe45da98	-0.19321668
148	0xbe63da07	-0.2225114
149	0xbe9a9406	-0.30191058
150	0xbd7f2b7a	-0.06229732
151	0x3e811727	0.25212976
152	0x3ccc657b	0.024950733
153	0xbe1fe026	-0.1561285
154	0x3dd136bb	0.10215517
155	0xbe628eb1	-0.22124745
156	0x3dcc0f69	0.09963877
157	0x3e6382d8	0.22217882
158	0x3e28b04f	0.16473506
159	0xbda03cbc	-0.07824084
160	0xbdb8ff0b	-0.090330206
161	0x3e0f71a3	0.14008193
162	0x3e407d07	0.18797694
163	0xbd48af4e	-0.04899531
164	0x3b90df47	0.004421148
165	0xbd031f40	-0.032012224
166	0xbc1285b3	-0.008943009
167	0xbe99a5c9	-0.30009297
168	0xbe8b88d2	-0.27252823
169	0x3e9c85e5	0.30570903
170	0xbe1d84dd	-0.15382715
171	0x3e840114	0.25782073
172	0x3e5b7613	0.2143176
173	0xbd412f8e	-0.047164492
174	0xbe23d3ad	-0.15998717
175	0x3c35d99b	0.0110992445
176	0xbd596b10	-0.05308062
177	0xbe39b3b5	-0.18134959
178	0x3eac9bc2	0.33712584
179	0xbbb23599	-0.0054385182
180	0xbd454d68	-0.048169523
181	0xbe6174c0	-0.22017193
182	0x3d52e454	0.051487282
183	0x3d5f9ec2	0.054594763
184	0x3ebd0967	0.36921236
185	0xbd8dab67	-0.06917458
186	0x3e31fd07	0.17381679
187	0x3c9b103b	0.018928638
188	0x3e31bea9	0.17357887
189	0x3bc47b27	0.005996126
190	0xbcd9afd4	-0.0265731
191	0x3e124be1	0.14286758
192	0xbe0155e1	-0.12630416
193	0x3e539e57	0.2066587
194	0xbe8ee114	-0.27906096
195	0xbe6bdbb3	-0.23033027
196	0x3eadf935	0.33979192
197	0xbdd35100	-0.10318184
198	0xbe87057b	-0.2637137
199	0xbe72a723	-0.2369657
200	0x3eb0ab64	0.3450576
201	0xbce2dffa	-0.027694691
202	0xbe8f09b3	-0.27937087
203	0xbca10e71	-0.019660207
204	0xbe0f51eb	-0.13996093
205	0xbe5857a0	-0.21127176
206	0xbe326bad	-0.17423888
207	0x3e881481	0.26578143
208	0x3e06442c	0.13111943
209	0x3e4fcd62	0.20293191
210	0x3c8f1a8f	0.017468719
211	0xbde55566	-0.11197929
212	0xbde0c4fd	-0.109750725
213	0xbe5b623f	-0.21424197
214	0xbe707d3f	-0.23485278
215	0xbe94077c	-0.2891196
216	0x3d2cfdd6	0.042234264
217	0x3e38f97b	0.18063919
218	0x3e9d5312	0.3072744
219	0xbb8ae825	-0.0042390996
220	0xbcf5a772	-0.02998707
221	0xbca87bce	-0.020566847
222	0x3e01b474	0.12666494
223	0xbcb8e3f7	-0.02256964
224	0xbdc9fbff	-0.098625176
225	0xbda5865a	-0.08082266
226	0xbeabc35a	-0.3354748
227	0xbe82e85d	-0.25567904
228	0xbe1cb0f2	-0.15301874
229	0x3ca2ca78	0.019871935
230	0xbe473db7	-0.19457136
231	0x3df10958	0.1176936
232	0xbe274197	-0.16333614
233	0x3ead1ff6	0.33813447
234	0xbe98e5c8	-0.2986281
235	0x3e3dd719	0.18539084
236	0xbe2699a0	-0.16269541
237	0xbdb777b3	-0.08958378
238	0xbeac4850	-0.3364892
239	0xbea1b994	-0.31586897
240	0xbeac1eca	-0.3361724
241	0xbbe5a67d	-0.0070083723
242	0x3eaff33b	0.34365258
243	0x3e0e9d85	0.13927276
244	0x3e6347da	0.22195378
245	0x3daa5108	0.08316237
246	0xbddd427b	-0.10803696
247	0xbdfc481b	-0.123184405
248	0xbd9173bc	-0.07102153
249	0xbea2d920	-0.31806278
250	0x3e439eeb	0.19103591
251	0xbda6f59a	-0.081523135
252	0xbe45b3c7	-0.19306861
253	0x3dabe7e5	0.0839384
254	0x3a98e5bb	0.0011665145
255	0x3e493b85	0.19651611

naim.encoder.0.ff.3.weight f4 [6, 1000]
0	0xbc39df0a	-0.011344681
1	0xbc010406	-0.007874494
2	0xbb519b1f	-0.0031983329
3	0x39e855b3	0.0004431434
4	0xbc6247e6	-0.013811087
5	0x3a82271e	0.0009929871
6	0xbb932af6	-0.0044912053
7	0xbc34f2fe	-0.011044262
8	0x3c87b715	0.016566793
9	0x3d130367	0.035891917
10	0xbbbfb0b5	-0.0058499225
11	0xbbe680b6	-0.0070343865
12	0xbce7242c	-0.02821549
13	0xbc7e2446	-0.015511578
14	0xbb8aeb80	-0.0042394996
15	0xbc023337	-0.007946781
16	0x3c83180d	0.01600268
17	0xbc18dc60	-0.009329885
18	0xbb4eab9b	-0.003153539
19	0x3beb703a	0.0071850093
20	0x3d021238	0.031755656
21	0x3cb3c628	0.021945074
22	0xbcbf2956	-0.02333514
23	0xbb592333	-0.0033132553
24	0xbb167b6f	-0.0022961756
25	0xbaeee762	-0.0018226916
26	0x3c37718c	0.011196505
27	0xbc377bd5	-0.011198957
28	0xbb93739e	-0.0044998666
29	0xbcfd4b85	-0.0309198
30	0xbc0ed699	-0.008718156
31	0xbcf8d27e	-0.030373808
32	0x3c3c3b94	0.011488814
33	0xbc96b427	-0.01839645
34	0xbc629967	-0.013830519
35	0xbc8319d0	-0.01600352
36	0x3ccf41f7	0.02530001
37	0xbbeedde0	-0.007289633
38	0x3cfe918d	0.031075263
39	0xbb8e5bd9	-0.004344445
40	0x3b13fbf5	0.0022580598
41	0x3bc976c4	0.006148191
42	0xbc9ac9f0	-0.01889512
43	0x3cf0c24b	0.029389521
44	0xbcaa5448	-0.020792142
45	0xbb2f07c3	-0.0026707507
46	0x3c96fe40	0.018431783
47	0x3c291d22	0.010321887
48	0xbbcb7cca	-0.0062099444
49	0x3d0668bd	0.03281473
50	0xbce116f2	-0.027476761
51	0xbc628d47	-0.013827628
52	0x3c39708e	0.011318339
53	0xbc690f1a	-0.014224792
54	0x3b1dc5a0	0.0024074093
55	0xbc2d6059	-0.010582053
56	0xbbb10145	-0.0054017627
57	0x3cb8c425	0.022554467
58	0xbc096ffe	-0.008388517
59	0x3c70490e	0.014665855
60	0x3cdc6e22	0.026907984
61	0x3ce2de56	0.027693909
62	0x3c84e8c5	0.016224274
63	0x3cc2e769	0.023791986
64	0xb9682820	-0.00022140192
65	0x3be89dc3	0.007098885
66	0xbb78a4f6	-0.0037940121
67	0xbd012a0f	-0.03153425
68	0x3cffa8f7	0.031208498
69	0xbce48319	-0.027894543
70	0xbc99ef03	-0.018790727
71	0xbc6a60bd	-0.014305291
72	0xbc51a413	-0.012795466
73	0xbca4c757	-0.020114584
74	0xbc6f277d	-0.014596817
75	0x3b9d1e2d	0.004794857
76	0xbcae31a0	-0.021263897
77	0xbccd77c6	-0.025081526
78	0xbc57174e	-0.013128115
79	0xbcc61474	-0.024179675
80	0x3b9d6293	0.0048030107
81	0x3beb11c7	0.00717375
82	0x3ba13e30	0.0049207434
83	0x3cf8e47d	0.03038239
84	0xbc563362	-0.013073774
85	0xbc3cfb27	-0.011534489
86	0x3bc9a8e3	0.006154166
87	0x3d0c1c90	0.034206927
88	0x3c14aaa6	0.009073889
89	0xba499098	-0.00076890877
90	0x3c601edf	0.013679235
91	0xbccc3a37	-0.024930103
92	0xbc97475e	-0.018466648
93	0xbc5cab1a	-0.013468528
94	0xbcae3e8b	-0.021270057
95	0xbc8905b4	-0.016726352
96	0xbcb2c090	-0.021820337
97	0x3c80aed9	0.015708374
98	0x3bfa22e0	0.007633552
99	0x3b72547f	0.0036976633
100	0xbb40aa95	-0.002939855
101	0x3a6749b9	0.0008822936
102	0x3cd42ac2	0.025899295
103	0xbcc4ea6c	-0.024037562
104	0x3c80af9c	0.015708737
105	0x3c245a75	0.010031332
106	0xbc451317	-0.012028477
107	0x3ca4f07e	0.020134207
108	0x3a406bbb	0.0007340272
109	0xbc3bc4de	-0.011460511
110	0x3d09200d	0.03347783
111	0x3c62fc15	0.013854046
112	0x3ccbbcba	0.024870265
113	0xbb882c59	-0.0041556773
114	0xbc96a713	-0.018390214
115	0x3ca84631	0.020541282
116	0x3b0317e3	0.0020003251
117	0x3c322603	0.0108733205
118	0xbbcfb4a7	-0.006338674
119	0x3cb13fdc	0.021636896
120	0xbcc35b80	-0.023847342
121	0x3af2402c	0.001848226
122	0x3cd844d4	0.026400007
123	0xbbc08a69	-0.005875875
124	0x3cd9303c	0.026512258
125	0x3ca20e55	0.019782225
126	0x3c5497c1	0.012975634
127	0x3cf4d4b8	0.029886588
128	0xbbeba9f7	-0.0071918922
129	0xbbebefb5	-0.007200206
130	0x3c9534d2	0.018213663
131	0xbc983f60	-0.018584907
132	0xbc92bb9c	-0.017911725
133	0x3cfef9c1	0.031124951
134	0xbcb84c60	-0.022497356
135	0xbb3d3514	-0.0028870748
136	0x3c2a8d1f	0.010409622
137	0x3c4cb21f	0.012493639
138	0xbc4df9ec	-0.012571793
139	0x3b455229	0.0030108786
140	0x3c9a64f7	0.018846972
141	0xbca36463	-0.019945329
142	0x3cbed833	0.023296451
143	0x3a8be2cf	0.0010672453
144	0xbbe36083	-0.0069389953
145	0xbcf290d1	-0.02961007
146	0xba34253e	-0.00068720046
147	0x3cfb7894	0.030697145
148	0xbc88b973	-0.016689992
149	0xbb3b7fd9	-0.0028610139
150	0xbb4a604a	-0.0030880147
151	0x3c9796e6	0.018504571
152	0xbc33a6ec	-0.01096509
153	0x3cd8b029	0.026451187
154	0x3d051b8a	0.032496966
155	0x3cb5182f	0.022106258
156	0xbc83d400	-0.0160923
157	0xbcb017b6	-0.021495681
158	0xbcde649c	-0.027147584
159	0x3c32079d	0.010866073
160	0xbc3d9627	-0.011571444
161	0x3c820610	0.015872031
162	0x3a5ac214	0.000834496
163	0x3d044cc6	0.03229978
164	0xbcc55797	-0.024089618
165	0xbc19e8f0	-0.0093939155
166	0x3a2bd119	0.00065542903
167	0x3bad0508	0.005280141
168	0x3cf2b622	0.029627863
169	0xbad4f8dc	-0.0016248482
170	0x3cf33bd4	0.029691614
171	0xbc1c5f54	-0.009544212
172	0xbb29af4e	-0.0025891843
173	0xbc5919e4	-0.013250802
174	0xbc3ee596	-0.011651417
175	0xbc7cc848	-0.01542861
176	0xbcdcbd6a	-0.026945788
177	0x3b8c4e5c	0.004281802
178	0xbc38a9c9	-0.011270949
179	0xbc3d7203	-0.011562827
180	0xbcae1dc2	-0.021254424
181	0xbcd0db63	-0.025495237
182	0xbbcff409	-0.00634623
183	0xbce5aa3e	-0.02803528
184	0x3ce552fe	0.027993675
185	0xbb517364	-0.0031959647
186	0x3c1f6227	0.009727991
187	0xbce8f4a4	-0.028436966
188	0x3c114f0a	0.008868942
189	0xbca72fff	-0.020408629
190	0x3cb4e26a	0.022080619
191	0x3c49695f	0.012293189
192	0xbc050306	-0.008118397
193	0x3c617855	0.0137616
194	0xbb6993a4	-0.003564098
195	0xbc4b2a2e	-0.012400193
196	0xbc800ebf	-0.015632031
197	0x3d2a56d4	0.041586712
198	0xbc7d0efb	-0.015445466
199	0x3cf0a372	0.029374812
200	0x3bff4e2e	0.007791302
201	0x3c88793b	0.01665937
202	0xbc8c923c	-0.017159574
203	0x3bb05bc6	0.005382034
204	0x3c0a0a59	0.008425319
205	0x3d135200	0.035966873
206	0xbd01f586	-0.03172829
207	0xbc1e7c9c	-0.009673264
208	0xbb412146	-0.0029469295
209	0xbca601f9	-0.020264613
210	0x3bd1505e	0.0063877543
211	0x3c901b5e	0.017591175
212	0x3cd71596	0.02625541
213	0xbc1ff58e	-0.009763135
214	0x3c5e68f3	0.0135748265
215	0xbc2fbd89	-0.010726341
216	0x3cdb6791	0.026782783
217	0xbcbb329d	-0.022851283
218	0xbcf0db4b	-0.029401442
219	0x3c7ae071	0.0153123
220	0xbb842bf2	-0.004033559
221	0x3c241276	0.010014167
222	0x3cd9338b	0.026513835
223	0x3d45d15f	0.048295375
224	0x3c2062b0	0.009789154
225	0xbcc1eaeb	-0.023671588
226	0x3b836a51	0.0040104766
227	0x396bcd13	0.00022487743
228	0xbcd85a7f	-0.02641034
229	0x3cd1c5a4	0.025606938
230	0x3cda82e0	0.026673734
231	0xbc2a2d10	-0.01038672
232	0xbbb6543c	-0.0055642407
233	0xbc8fce6a	-0.01755448
234	0x3c834237	0.016022785
235	0x3b9f86f5	0.004868383
236	0xbc588c68	-0.013217069
237	0x3c8c05ff	0.017092703
238	0xbbd5f994	-0.006529996
239	0x3b4bfddf	0.003112666
240	0x3cc2e170	0.023789138
241	0xbc931aec	-0.017957173
242	0xbd0069ba	-0.03135083
243	0x3c97a499	0.018511103
244	0xbcb948fe	-0.022617813
245	0x3c65a184	0.014015559
246	0xbb2a66e9	-0.002600128
247	0x3cadc418	0.021211669
248	0x3b47dee2	0.0030497839
249	0xbc1f85ec	-0.009736519
250	0xbcc62d1b	-0.02419143
251	0x3c7fd439	0.015614563
252	0xbc9941a9	-0.018708067
253	0x3beebdf2	0.007285827
254	0x3ce4a0d5	0.027908722
255	0xbce37ccd	-0.02776947

naim.encoder.0.ff.3.bias f4 [6]
0	0xbcfbff2a	-0.03076132
1	0x38a31673	7.776627e-05
2	0xbca018b1	-0.019543024
3	0xbc5e27dd	-0.013559309
4	0x3cd83200	0.02639103
5	0xbcc4d7cf	-0.024028687

naim.encoder.1.layer_norm_1.weight f4 [6]
0	0x3f740179	0.9531475
1	0x3f7170ae	0.9431256
2	0x3f71f5b9	0.9451557
3	0x3f715258	0.9426627
4	0x3f6fe890	0.9371424
5	0x3f6f92f5	0.93583614

naim.encoder.1.layer_norm_1.bias f4 [6]
0	0x3a40a9db	0.0007349529
1	0xbb293794	-0.002582048
2	0x39faec97	0.0004785999
3	0x3b0965b5	0.0020965163
4	0xbba6476a	-0.005074431
5	0x3ae886b6	0.0017740342

naim.encoder.1.attn.linear_q.weight f4 [6, 6]
0	0xbe72e278	-0.23719203
1	0xbdcb534d	-0.09927998
2	0xbe02a7fd	-0.12759395
3	0x3d531ec4	0.051543012
4	0x3e5ad6b4	0.21370965
5	0x3d1d958e	0.038472705
6	0xb95d3179	-0.00021094632
7	0x3e099263	0.13434748
8	0x3e3a9a3e	0.18222901
9	0x3a24e3b9	0.0006290037
10	0xbe5a3319	-0.21308555
11	0xbe949bad	-0.2902502
12	0x3eb07b50	0.3446908
13	0x3da3f0df	0.08004927
14	0x3ea09ad1	0.31368116
15	0xbdd08963	-0.101824544
16	0x3d7b1764	0.061301604
17	0xbe1d9676	-0.15389428
18	0xbe20d6e3	-0.15706973
19	0xbe03c2d4	-0.1286729
20	0x3eb0bc7f	0.3451881
21	0x3e71a7a5	0.23599108
22	0xbe466373	-0.19373874
23	0xbe66a70d	-0.22524662
24	0x3d9ca130	0.076479316
25	0xbd2b06cf	-0.04175454
26	0xb8923d8f	-6.973289e-05
27	0x3c1327d0	0.00898166
28	0xbe968920	-0.29401493
29	0x3d14c6bd	0.036322344
30	0x3a46c15f	0.0007581915
31	0xbe6470e5	-0.22308691
32	0xbeae1372	-0.3399921
33	0x3e16fb6a	0.14744344
34	0xbe9e8d51	-0.3096719
35	0xbdfba5b5	-0.122874655

naim.encoder.1.attn.linear_k.weight f4 [6, 6]
0	0x3e4e4f04	0.2014733
1	0xbe70229b	-0.23450701
2	0xbe154635	-0.14577563
3	0xbe5bc5c0	-0.21462154
4	0x3e37c584	0.1794644
5	0x3da56b7a	0.0807714
6	0x3b4c0126	0.0031128614
7	0x3dae8cc9	0.085229464
8	0x3d736f2d	0.059432197
9	0xbd04e6c2	-0.03244663
10	0xbb2dcd56	-0.0026520095
11	0xbe45dd13	-0.19322614
12	0xbe0a5b5d	-0.13511415
13	0x3b294ae1	0.0025831985
14	0xbc0adb53	-0.0084751425
15	0x3d6211c8	0.05519274
16	0x3e08f00f	0.13372825
17	0x3e80fe1c	0.2519387
18	0x3ea80a20	0.32820225
19	0x3988a7b6	0.00026064896
20	0x3dcf977e	0.10136317
21	0xbe8994f2	-0.2687145
22	0x3e32a91f	0.17447327
23	0xbd5a9307	-0.053362872
24	0xbe85d1e8	-0.26136708
25	0xbe82bfa3	-0.25536832
26	0xbe8dd72c	-0.27703226
27	0xbe026e1a	-0.12737313
28	0x3e009671	0.12557389
29	0xbe89d38d	-0.26919213
30	0xbbed88f8	-0.007248994
31	0xbc827a4f	-0.015927462
32	0x3dbaac71	0.09114922
33	0xbdda35b5	-0.10654775
34	0x3e153fcb	0.14575116
35	0xbe42e135	-0.19031222

naim.encoder.1.attn.linear_v.weight f4 [6, 6]
0	0x3e74521c	0.23859447
1	0xbec65db1	-0.38743356
2	0xbe8785d0	-0.26469278
3	0x3e0716c8	0.13192284
4	0x3d13f482	0.036121853
5	0x3e8cf66b	0.27531752
6	0x3e3937f5	0.18087752
7	0xbe981e98	-0.2971084
8	0x3e8da9a3	0.27668485
9	0xbdaf36ab	-0.08555349
10	0xbd2a56c7	-0.041586664
11	0xbdfbd4d7	-0.12296455
12	0xbd94a4ca	-0.072579935
13	0xbeb98cf3	-0.36240348
14	0x3ccb560d	0.024821306
15	0x3e9701f8	0.2949369
16	0xbd218052	-0.039429016
17	0x3e9b1e96	0.30296773
18	0xbe3403fa	-0.17579642
19	0x3de7ae64	0.11312559
20	0x3cef026b	0.029175958
21	0xbddd80e2	-0.10815598
22	0x3ebb4a6b	0.36580214
23	0x3d06532b	0.03279416
24	0x3c3dfcd0	0.01159592
25	0xbd12f3c1	-0.035876993
26	0xbbea0277	-0.007141407
27	0x3e93f6cb	0.28899226
28	0xbc8dbca1	-0.01730186
29	0x3e582266	0.21106872
30	0x3dcd64b4	0.10028973
31	0x3e536fdd	0.20648141
32	0xbe7d11ba	-0.24713793
33	0xbe9a0a8e	-0.30086178
34	0xbd9bd730	-0.07609403
35	0xbd7ad383	-0.06123687

naim.encoder.1.attn.linear_o.weight f4 [6, 6]
0	0x3ec3b9e2	0.38227755
1	0x3ec4da3e	0.38447756
2	0xbdc6926b	-0.09695896
3	0xbe4075d9	-0.18794955
4	0xbb0aced7	-0.0021180415
5	0x3e1dc80d	0.15408345
6	0x3e061d37	0.13097082
7	0x3d7ecf6b	0.062209528
8	0x3e942758	0.28936267
9	0x3d1f090b	0.038826983
10	0x3e9eb659	0.30998495
11	0x3da2dec0	0.079526424
12	0xbd08ad4b	-0.03336839
13	0x3e9ce2dc	0.3064183
14	0x3c82583c	0.015911214
15	0x3c84c401	0.016206743
16	0xbd958e37	-0.07302516
17	0x3e5cacc1	0.21550275
18	0xbdefc739	-0.117079206
19	0x3e94d1f1	0.29066423
20	0x3e5d5fe9	0.21618618
21	0xbb927064	-0.0044689644
22	0xbd7e175b	-0.062033992
23	0x3e12c22c	0.14331883
24	0xbeab7136	-0.3348481
25	0xbd9cdf11	-0.07659734
26	0xbdaebeee	-0.08532511
27	0xbbe49460	-0.0069756955
28	0xbe0991e3	-0.13434558
29	0xbded6b13	-0.115926884
30	0x3e085a86	0.13315782
31	0xbb7cff45	-0.00386043
32	0xbe61810a	-0.22021881
33	0xb9d2631a	-0.00040128158
34	0x3d96b91d	0.07359526
35	0xbdd7e286	-0.10541253

naim.encoder.1.layer_norm_2.weight f4 [6]
0	0x3f7e4727	0.9932732
1	0x3f79e015	0.9760755
2	0x3f77ff17	0.9687361
3	0x3f7a2d1d	0.9772509
4	0x3f78438c	0.9697807
5	0x3f771527	0.9651665

naim.encoder.1.layer_norm_2.bias f4 [6]
0	0x3abff0e1	0.0014643931
1	0xba03a254	-0.0005021442
2	0x39cfb722	0.0003961856
3	0x39fbec88	0.0004805068
4	0xba99686a	-0.0011704091
5	0xbb141d82	-0.0022600596
