outputs/2025-03-23/17-10-18/outputs/model_epoch_0.pt (torch, 377210 bytes, 140 tensors)

naim.embeddings.0.embeddings.weight f4 [2, 6]
00000000: 5096 c33e 8557 15bf 6536 aebe 53ce a83e
00000010: 521d e93e 8ec9 903e 0000 0000 0000 0000
00000020: 0000 0000 0000 0000 0000 0000 0000 0000
0.38200617 -0.5833667 -0.34025875 0.32969913 0.45530182 0.28278774 0.0 0.0
0.0 0.0 0.0 0.0

naim.embeddings.1.embeddings.weight f4 [2, 6]
00000000: cec1 763d 806b afbd c8dc 20be 8004 cf3e
00000010: 39f3 423e 598f a9bd 0000 0000 0000 0000
00000020: 0000 0000 0000 0000 0000 0000 0000 0000
0.06024342 -0.08565426 -0.15709221 0.4043312 0.19038095 -0.082792945 0.0 0.0
0.0 0.0 0.0 0.0

naim.embeddings.2.embeddings.weight f4 [2, 6]
00000000: 0a17 273f 528d 363d e9fb 8abc 0b42 133f
00000010: 2f76 88be e2b8 b23e 0000 0000 0000 0000
00000020: 0000 0000 0000 0000 0000 0000 0000 0000
0.6526953 0.044568367 -0.016965823 0.5752265 -0.26652667 0.3490668 0.0 0.0
0.0 0.0 0.0 0.0

naim.embeddings.3.embeddings.weight f4 [2, 6]
00000000: 4fdd 293f 129f 09bf 4e44 563d f1b9 fd3e
00000010: 4421 113e 7c3d 2b3c 0000 0000 0000 0000
00000020: 0000 0000 0000 0000 0000 0000 0000 0000
0.66353315 -0.5375835 0.052311234 0.49555925 0.14172846 0.010451671 0.0 0.0
0.0 0.0 0.0 0.0

naim.embeddings.4.embeddings.weight f4 [2, 6]
00000000: cde9 05bf 221d 91be b134 60be e378 0d3e
00000010: fb32 ce3d aa13 493c 0000 0000 0000 0000
00000020: 0000 0000 0000 0000 0000 0000 0000 0000
-0.52309877 -0.2834254 -0.218951 0.13815646 0.100683175 0.012272755 0.0 0.0
0.0 0.0 0.0 0.0

naim.embeddings.5.embeddings.weight f4 [2, 6]
00000000: 71d5 b2be 3fbb 103d 5cfa 253f c7bf b43e
00000010: ab6b 12bf 7a17 743d 0000 0000 0000 0000
00000020: 0000 0000 0000 0000 0000 0000 0000 0000
-0.34928468 0.03533482 0.64835143 0.35302565 -0.5719554 0.0595927 0.0 0.0
0.0 0.0 0.0 0.0

naim.embeddings.6.embeddings.weight f4 [2, 6]
00000000: bc36 08bf 38a9 e7bd 5d5a 01be cd44 8cbe
00000010: e0d2 153e 588b 443f 0000 0000 0000 0000
00000020: 0000 0000 0000 0000 0000 0000 0000 0000
-0.5320852 -0.11311573 -0.12632127 -0.2739624 0.14631224 0.7677512 0.0 0.0
0.0 0.0 0.0 0.0

naim.embeddings.7.embeddings.weight f4 [2, 6]
00000000: 6ddc ccbe c14a 11bc 8dde ca3d 488f 33bf
00000010: 6f64 5bbd 25da 133f 0000 0000 0000 0000
00000020: 0000 0000 0000 0000 0000 0000 0000 0000
-0.40011922 -0.00886792 0.099057294 -0.70140505 -0.053562578 0.5775474 0.0 0.0
0.0 0.0 0.0 0.0

naim.embeddings.8.embeddings.weight f4 [2, 6]
00000000: 9dd8 253f 2c97 0dbe 2a33 883e 7635 20bf
00000010: f0b8 55be 3b0d 6f3e 0000 0000 0000 0000
00000020: 0000 0000 0000 0000 0000 0000 0000 0000
0.6478365 -0.13827199 0.26601535 -0.62581575 -0.2087133 0.23344891 0.0 0.0
0.0 0.0 0.0 0.0

naim.embeddings.9.embeddings.weight f4 [2, 6]
00000000: d343 e73e c065 90be a52e 7d3d 03dc d0be
00000010: faaa 1cbf 6b7b 113b 0000 0000 0000 0000
00000020: 0000 0000 0000 0000 0000 0000 0000 0000
0.45168933 -0.2820263 0.06181206 -0.40792856 -0.6119839 0.0022198807 0.0 0.0
0.0 0.0 0.0 0.0

naim.embeddings.10.embeddings.weight f4 [2, 6]
00000000: 60c4 c53d 987a ce3d 829c 863e 1e3a 813e
00000010: 2a2c 5c3c 29b3 ea3e 0000 0000 0000 0000
00000020: 0000 0000 0000 0000 0000 0000 0000 0000
0.09656596 0.10081977 0.2629128 0.25239652 0.013438264 0.45839813 0.0 0.0
0.0 0.0 0.0 0.0

naim.embeddings.11.embeddings.weight f4 [2, 6]
00000000: e02b 353e 845d edbd 5ac3 fcbe 2403 04bf
00000010: dbcb 06bd c986 90be 0000 0000 0000 0000
00000020: 0000 0000 0000 0000 0000 0000 0000 0000
0.17692518 -0.11590102 -0.4936779 -0.5156729 -0.032909255 -0.28227833 0.0 0.0
0.0 0.0 0.0 0.0

naim.embeddings.12.embeddings.weight f4 [2, 6]
00000000: b6af 223e 59fe 71be 222b a73d b4b2 e23e
00000010: 096e ff3e 987a e73d 0000 0000 0000 0000
00000020: 0000 0000 0000 0000 0000 0000 0000 0000
0.15887341 -0.23632182 0.08162524 0.44276965 0.49888638 0.1130268 0.0 0.0
0.0 0.0 0.0 0.0

naim.embeddings.13.embeddings.weight f4 [2, 6]
00000000: 6c8b 84be 1e6e e0bd b5ec 9abe 8be4 2b3f
00000010: e49b 53be 0a0a a43e 0000 0000 0000 0000
00000020: 0000 0000 0000 0000 0000 0000 0000 0000
-0.2588762 -0.10958503 -0.30258718 0.67145604 -0.20664936 0.3203891 0.0 0.0
0.0 0.0 0.0 0.0

naim.embeddings.14.embeddings.weight f4 [2, 6]
00000000: 6c16 3f3e 3295 2a3f f620 21be cd20 a83d
00000010: 768a 1f3f aa63 8e3c 0000 0000 0000 0000
00000020: 0000 0000 0000 0000 0000 0000 0000 0000
0.18660897 0.66633904 -0.1573523 0.08209381 0.6232065 0.017381508 0.0 0.0
0.0 0.0 0.0 0.0

naim.embeddings.15.embeddings.weight f4 [2, 6]
00000000: 680c 23bf 8d5a b53e 377e b13d c71d 9cbe
00000010: 80da 4dbe da81 103f 0000 0000 0000 0000
00000020: 0000 0000 0000 0000 0000 0000 0000 0000
-0.63690805 0.35420647 0.08666652 -0.30491468 -0.20102882 0.5644814 0.0 0.0
0.0 0.0 0.0 0.0

naim.embeddings.16.embeddings.weight f4 [2, 6]
00000000: 1b8d 073f 7281 c93d 46bb 973d e425 aebe
00000010: fbcb 0f3e db9f d03e 0000 0000 0000 0000
00000020: 0000 0000 0000 0000 0000 0000 0000 0000
0.52949685 0.09839143 0.074087664 -0.34013283 0.14042656 0.4074696 0.0 0.0
0.0 0.0 0.0 0.0

naim.embeddings.17.embeddings.weight f4 [2, 6]
00000000: 5372 003e aec2 3b3e 96b1 083e 191a 04bf
00000010: 23d1 a23e ff25 98be 0000 0000 0000 0000
00000020: 0000 0000 0000 0000 0000 0000 0000 0000
0.12543611 0.18335983 0.13348994 -0.5160232 0.31800184 -0.2971649 0.0 0.0
0.0 0.0 0.0 0.0

naim.embeddings.18.embeddings.weight f4 [2, 6]
00000000: 1e2b 12bf 846f fdbe 61f1 a0be d371 123f
00000010: c98c 14bd 3a0c a1bc 0000 0000 0000 0000
00000020: 0000 0000 0000 0000 0000 0000 0000 0000
-0.5709704 -0.49499142 -0.31434157 0.5720493 -0.036267076 -0.01965915 0.0 0.0
0.0 0.0 0.0 0.0

naim.embeddings.19.embeddings.weight f4 [2, 6]
00000000: 10ea 0b3f 3071 90be 7559 8d3e b4d4 62be
00000010: c088 e6bd a02b bb3d 0000 0000 0000 0000
00000020: 0000 0000 0000 0000 0000 0000 0000 0000
0.54654026 -0.28211355 0.27607313 -0.22151452 -0.11256552 0.0913918 0.0 0.0
0.0 0.0 0.0 0.0

naim.embeddings.20.embeddings.weight f4 [2, 6]
00000000: 491a 933e 6855 193e d73f afbe 8799 febe
00000010: 2610 04be f804 783e 0000 0000 0000 0000
00000020: 0000 0000 0000 0000 0000 0000 0000 0000
0.2873099 0.14973986 -0.34228393 -0.49726507 -0.12896785 0.24220645 0.0 0.0
0.0 0.0 0.0 0.0

naim.embeddings.21.embeddings.weight f4 [2, 6]
00000000: 1f5c 8a3d 8f9f e7b9 b1c7 023e 3ef6 4bbd
00000010: 6384 e53c 3bc8 16be 0000 0000 0000 0000
00000020: 0000 0000 0000 0000 0000 0000 0000 0000
0.06755852 -0.00044178634 0.12771489 -0.04979538 0.028017228 -0.1472482 0.0 0.0
0.0 0.0 0.0 0.0

naim.embeddings.22.embeddings.weight f4 [2, 6]
00000000: c214 b53e 52d1 88be d44d 1dbd b8a4 153f
00000010: fe6b e13e 396b 61be 0000 0000 0000 0000
00000020: 0000 0000 0000 0000 0000 0000 0000 0000
0.353674 -0.267222 -0.0384043 0.58454466 0.44027704 -0.22013558 0.0 0.0
0.0 0.0 0.0 0.0

naim.embeddings.23.embeddings.weight f4 [2, 6]
00000000: fa18 603e bf12 b43b 107d c0be 7611 5b3f
00000010: 8a53 65bd 0054 8abe 0000 0000 0000 0000
00000020: 0000 0000 0000 0000 0000 0000 0000 0000
0.21884528 0.005495399 -0.37595415 0.8557352 -0.055987872 -0.27017212 0.0 0.0
0.0 0.0 0.0 0.0

naim.embeddings.24.embeddings.weight f4 [2, 6]
00000000: 145f 663c 9b8a 303e 31ff 40be e45b d43e
00000010: 1cfb 5ebf 6d8c 543d 0000 0000 0000 0000
00000020: 0000 0000 0000 0000 0000 0000 0000 0000
0.014060754 0.17240374 -0.18847348 0.41476357 -0.8710191 0.051891733 0.0 0.0
0.0 0.0 0.0 0.0

naim.embeddings.25.embeddings.weight f4 [2, 6]
00000000: 193b c13e 07f1 17be 1192 443f 492b f63e
00000010: c131 c83d 3241 713d 0000 0000 0000 0000
00000020: 0000 0000 0000 0000 0000 0000 0000 0000
0.377404 -0.14838038 0.7678538 0.480799 0.09775115 0.058900066 0.0 0.0
0.0 0.0 0.0 0.0

naim.embeddings.26.embeddings.weight f4 [2, 6]
00000000: c38d 293e c883 02bf e195 04bf 9f8b a83e
00000010: 4afd e33e d081 b23e 0000 0000 0000 0000
00000020: 0000 0000 0000 0000 0000 0000 0000 0000
0.16557984 -0.5098233 -0.517912 0.32919022 0.44529182 0.34864664 0.0 0.0
0.0 0.0 0.0 0.0

naim.embeddings.27.embeddings.weight f4 [2, 6]
00000000: eecd b7bd 36da c73e 75ae 0bbf 2afc 0ebf
00000010: a0e1 06be ca07 2e3d 0000 0000 0000 0000
00000020: 0000 0000 0000 0000 0000 0000 0000 0000
-0.08974825 0.3903367 -0.54563075 -0.5585352 -0.13172007 0.042487897 0.0 0.0
0.0 0.0 0.0 0.0

naim.embeddings.28.embeddings.weight f4 [2, 6]
00000000: e238 4ebe 5043 713e 5a2b 5abe 2c10 b3be
00000010: c556 083e a070 91bd 0000 0000 0000 0000
00000020: 0000 0000 0000 0000 0000 0000 0000 0000
-0.20138887 0.23560834 -0.213056 -0.34973276 0.1331435 -0.0710156 0.0 0.0
0.0 0.0 0.0 0.0

naim.embeddings.29.embeddings.weight f4 [2, 6]
00000000: f799 11bf dadf 61bc f62b 2e3f e1c3 71be
00000010: 8b52 bc3d 3974 c2be 0000 0000 0000 0000
00000020: 0000 0000 0000 0000 0000 0000 0000 0000
-0.56875557 -0.0137862805 0.6803583 -0.23609878 0.09195431 -0.37979296 0.0 0.0
0.0 0.0 0.0 0.0

naim.embeddings.30.embeddings.weight f4 [2, 6]
00000000: 98f4 0abe 13dd 893e 4ca8 b93e b9ec a3be
00000010: c18e 6bbd 542e cfbe 0000 0000 0000 0000
00000020: 0000 0000 0000 0000 0000 0000 0000 0000
-0.13569868 0.2692648 0.36261213 -0.32016543 -0.057509188 -0.40465033 0.0 0.0
0.0 0.0 0.0 0.0

naim.embeddings.31.embeddings.weight f4 [2, 6]
00000000: 3005 d73e d032 8abe 671e 3cbd c1aa f0bd
00000010: ee0a 92be 838c 9bbe 0000 0000 0000 0000
00000020: 0000 0000 0000 0000 0000 0000 0000 0000
0.41996145 -0.26991892 -0.04592743 -0.11751319 -0.28523964 -0.3038064 0.0 0.0
0.0 0.0 0.0 0.0

naim.embeddings.32.embeddings.weight f4 [2, 6]
00000000: cdb0 c33d 1efb ac3e ca0b b2be 0504 4bbf
00000010: 0003 9a3e a532 3dbe 0000 0000 0000 0000
00000020: 0000 0000 0000 0000 0000 0000 0000 0000
0.095552064 0.33785337 -0.3477462 -0.7930301 0.30080414 -0.1847635 0.0 0.0
0.0 0.0 0.0 0.0

naim.embeddings.33.embeddings.weight f4 [2, 6]
00000000: 8e44 4ebe d34b 42be 1eb0 d6be a7fc 77be
00000010: a9c8 b1be 3944 403f 0000 0000 0000 0000
00000020: 0000 0000 0000 0000 0000 0000 0000 0000
-0.20143339 -0.18974237 -0.41931242 -0.24217473 -0.34723404 0.751041 0.0 0.0
0.0 0.0 0.0 0.0

naim.embeddings.34.embeddings.weight f4 [2, 6]
00000000: 147d 3dbe bd1f 043e 3d33 0c3f 16e1 04bd
00000010: 9f93 98be 4d2d 433d 0000 0000 0000 0000
00000020: 0000 0000 0000 0000 0000 0000 0000 0000
-0.18504745 0.12902732 0.54765683 -0.03244122 -0.29800126 0.047650624 0.0 0.0
0.0 0.0 0.0 0.0

naim.embeddings.35.embeddings.weight f4 [2, 6]
00000000: 55fc 5a3e df0f 3dbe fc6d b33e 50d7 b53e
00000010: 906f e03e 6631 13bf 0000 0000 0000 0000
00000020: 0000 0000 0000 0000 0000 0000 0000 0000
0.2138532 -0.18463086 0.3504485 0.35515833 0.43835115 -0.5749725 0.0 0.0
0.0 0.0 0.0 0.0

naim.embeddings.36.embeddings.weight f4 [2, 6]
00000000: b159 32be 6ec5 db3e f6e6 0cbf 4b4e db3c
00000010: 10ef d83b 3e5e e53d 0000 0000 0000 0000
00000020: 0000 0000 0000 0000 0000 0000 0000 0000
-0.17417027 0.42924064 -0.5503992 0.026770731 0.0066202953 0.11199616 0.0 0.0
0.0 0.0 0.0 0.0

naim.embeddings.37.embeddings.weight f4 [2, 6]
00000000: 4f68 2b3b 6ea5 bdbe 65d0 0abe 3078 97bd
00000010: 6237 713e 7fa6 fe3d 0000 0000 0000 0000
00000020: 0000 0000 0000 0000 0000 0000 0000 0000
0.0026154702 -0.37040275 -0.13556059 -0.07395971 0.23556283 0.124341 0.0 0.0
0.0 0.0 0.0 0.0

naim.embeddings.38.embeddings.weight f4 [2, 6]
00000000: 9e89 1d3d 3fe4 84bd 87a4 b7ba 38b6 a43e
00000010: 6e8a 1dbe 7e27 363e 0000 0000 0000 0000
00000020: 0000 0000 0000 0000 0000 0000 0000 0000
0.03846132 -0.06488847 -0.0014010825 0.32170272 -0.15384838 0.17788503 0.0 0.0
0.0 0.0 0.0 0.0

naim.embeddings.39.embeddings.weight f4 [2, 6]
00000000: 4362 39bd e08a 9cbe a1a5 093f e6a5 29bf
00000010: 3aae 623e 9623 b43e 0000 0000 0000 0000
00000020: 0000 0000 0000 0000 0000 0000 0000 0000
-0.045259725 -0.30574703 0.53768355 -0.66268766 0.22136775 0.351834 0.0 0.0
0.0 0.0 0.0 0.0

naim.embeddings.40.embeddings.weight f4 [2, 6]
00000000: 82fe c5bd 9d4b 813e ed92 083e 5717 1ebe
00000010: c979 89bd ee3d b4be 0000 0000 0000 0000
00000020: 0000 0000 0000 0000 0000 0000 0000 0000
-0.09667684 0.25253 0.13337298 -0.15438591 -0.06712682 -0.352035 0.0 0.0
0.0 0.0 0.0 0.0

naim.embeddings.41.embeddings.weight f4 [2, 6]
00000000: 9f32 19be da9c 6cbe d767 ba3e 7521 603e
00000010: 780b dc3e 4f27 1c3f 0000 0000 0000 0000
00000020: 0000 0000 0000 0000 0000 0000 0000 0000
-0.14960717 -0.23106709 0.3640735 0.21887763 0.429775 0.6099748 0.0 0.0
0.0 0.0 0.0 0.0

naim.embeddings.42.embeddings.weight f4 [2, 6]
00000000: e8b9 adbe 6b61 433f aa03 863e 03c5 dd3e
00000010: af54 023e c90b 23be 0000 0000 0000 0000
00000020: 0000 0000 0000 0000 0000 0000 0000 0000
-0.33930898 0.76320523 0.2617467 0.4331437 0.12727617 -0.15922464 0.0 0.0
0.0 0.0 0.0 0.0

naim.embeddings.43.embeddings.weight f4 [2, 6]
00000000: 1e2d 87be 3297 ea3c 7dfa 323f a5b2 033f
00000010: 9bf4 cd3e d682 c4bd 0000 0000 0000 0000
00000020: 0000 0000 0000 0000 0000 0000 0000 0000
-0.2640161 0.028636549 0.69913465 0.51444465 0.40225682 -0.095952675 0.0 0.0
0.0 0.0 0.0 0.0

naim.embeddings.44.embeddings.weight f4 [2, 6]
00000000: 18f1 01bd abe0 a23e 9674 6b3e 90d1 bbbe
00000010: 1d92 193e 971d 093f 0000 0000 0000 0000
00000020: 0000 0000 0000 0000 0000 0000 0000 0000
-0.031724066 0.31812033 0.22993693 -0.3668332 0.14997144 0.53560776 0.0 0.0
0.0 0.0 0.0 0.0

naim.embeddings.45.embeddings.weight f4 [2, 6]
00000000: 49e4 f8be fe53 20bf eca3 91be ee87 323e
00000010: 2927 f4be b03c 31be 0000 0000 0000 0000
00000020: 0000 0000 0000 0000 0000 0000 0000 0000
-0.48611668 -0.6262816 -0.28445375 0.17434666 -0.47686127 -0.17308307 0.0 0.0
0.0 0.0 0.0 0.0

naim.embeddings.46.embeddings.weight f4 [2, 6]
00000000: 854b 9dbd 85ad b03d 87b7 943e b133 c5bd
00000010: 7a18 0f3e 52df 573e 0000 0000 0000 0000
00000020: 0000 0000 0000 0000 0000 0000 0000 0000
-0.0768042 0.08626846 0.2904627 -0.09629 0.13974181 0.21081284 0.0 0.0
0.0 0.0 0.0 0.0

naim.embeddings.47.embeddings.weight f4 [2, 6]
00000000: fbec aa3e 474c edbd 6f96 00bf 35b0 86be
00000010: dc1b 9c3e 8472 9ebe 0000 0000 0000 0000
00000020: 0000 0000 0000 0000 0000 0000 0000 0000
0.33383927 -0.115868144 -0.50229543 -0.2630631 0.30490005 -0.30946743 0.0 0.0
0.0 0.0 0.0 0.0

naim.embeddings.48.embeddings.weight f4 [2, 6]
00000000: dc3f c73c 0042 893e 5815 ab3d ba4c a93e
00000010: dffc 343f f035 c13e 0000 0000 0000 0000
00000020: 0000 0000 0000 0000 0000 0000 0000 0000
0.024322443 0.26808167 0.0835368 0.3306635 0.7069835 0.37736464 0.0 0.0
0.0 0.0 0.0 0.0

naim.embeddings.49.embeddings.weight f4 [2, 6]
00000000: bee1 84be efa9 863e 4b19 9d3e f65f 0abe
00000010: d785 c8be ec73 da3e 0000 0000 0000 0000
00000020: 0000 0000 0000 0000 0000 0000 0000 0000
-0.25953478 0.26301524 0.3068336 -0.13513169 -0.39164612 0.42666566 0.0 0.0
0.0 0.0 0.0 0.0

naim.embeddings.50.embeddings.weight f4 [2, 6]
00000000: bab4 0f3f 73e2 d43e a814 efbd b923 3fbe
00000010: 0c83 01be 7f58 16bf 0000 0000 0000 0000
00000020: 0000 0000 0000 0000 0000 0000 0000 0000
0.5613514 0.41579017 -0.11673862 -0.18665971 -0.12647647 -0.58728784 0.0 0.0
0.0 0.0 0.0 0.0

naim.embeddings.51.embeddings.weight f4 [2, 6]
00000000: f6f1 533d 2a08 3c3e 3e03 123f 710e 30bf
00000010: 7181 c03e 9f32 18be 0000 0000 0000 0000
00000020: 0000 0000 0000 0000 0000 0000 0000 0000
0.051744424 0.1836249 0.570362 -0.68772036 0.37598756 -0.1486306 0.0 0.0
0.0 0.0 0.0 0.0

naim.embeddings.52.embeddings.weight f4 [2, 6]
00000000: c3e4 a93e 93c5 7bbe 28b5 7abe f076 6fbe
00000010: 7ee3 f13d 9c9b bfbe 0000 0000 0000 0000
00000020: 0000 0000 0000 0000 0000 0000 0000 0000
0.33182344 -0.24587087 -0.24483168 -0.23385215 0.11810969 -0.37423408 0.0 0.0
0.0 0.0 0.0 0.0

naim.embeddings.53.embeddings.weight f4 [2, 6]
00000000: 4cdc 89be 5a90 36be bb87 243e bd5c 50bd
00000010: d706 6e3f bd8c 94ba 0000 0000 0000 0000
00000020: 0000 0000 0000 0000 0000 0000 0000 0000
-0.26925886 -0.17828503 0.16067402 -0.050869692 0.92979187 -0.0011333447 0.0 0.0
0.0 0.0 0.0 0.0

naim.embeddings.54.embeddings.weight f4 [2, 6]
00000000: 1e5c 513e b583 0e3f 6cca d33e 8aae 573e
00000010: bc7a 24bf 3391 003e 0000 0000 0000 0000
00000020: 0000 0000 0000 0000 0000 0000 0000 0000
0.20445296 0.5566972 0.41365373 0.21062675 -0.6424978 0.12555389 0.0 0.0
0.0 0.0 0.0 0.0

naim.embeddings.55.embeddings.weight f4 [2, 6]
00000000: 34a5 ac3e 099b abbe abda 15bf 39e7 123f
00000010: 89af d0bd 395e 29be 0000 0000 0000 0000
00000020: 0000 0000 0000 0000 0000 0000 0000 0000
0.3371979 -0.3351672 -0.58536786 0.5738407 -0.10189731 -0.1653985 0.0 0.0
0.0 0.0 0.0 0.0

naim.embeddings.56.embeddings.weight f4 [2, 6]
00000000: 7f4e cebe 4aa5 f1be 87bd 513e 0e3e 9abd
00000010: 6c6f ddbe 6cef 64bd 0000 0000 0000 0000
00000020: 0000 0000 0000 0000 0000 0000 0000 0000
-0.40294263 -0.47196418 0.20482455 -0.07531367 -0.4324907 -0.055892393 0.0 0.0
0.0 0.0 0.0 0.0

naim.embeddings.57.embeddings.weight f4 [2, 6]
00000000: da40 e93e ba06 b1be 4a7a 62be 9117 903e
00000010: 5ed0 3c3f b801 79bc 0000 0000 0000 0000
00000020: 0000 0000 0000 0000 0000 0000 0000 0000
0.4555729 -0.34575444 -0.22116962 0.2814298 0.73755443 -0.015198164 0.0 0.0
0.0 0.0 0.0 0.0

naim.embeddings.58.embeddings.weight f4 [2, 6]
00000000: 2deb f4bd 0ef2 b53c 92e4 2d3d 69a1 4ebd
00000010: 2f31 c83d dd4f 8abe 0000 0000 0000 0000
00000020: 0000 0000 0000 0000 0000 0000 0000 0000
-0.11958919 0.022210147 0.04245431 -0.0504469 0.09775006 -0.27014056 0.0 0.0
0.0 0.0 0.0 0.0

naim.embeddings.59.embeddings.weight f4 [2, 6]
00000000: c0c5 a73e eccd 3dbe 29d5 89be 9e92 363f
00000010: c434 933e e391 e03e 0000 0000 0000 0000
00000020: 0000 0000 0000 0000 0000 0000 0000 0000
0.3276806 -0.18535584 -0.2692044 0.7131747 0.28751194 0.43861303 0.0 0.0
0.0 0.0 0.0 0.0

naim.embeddings.60.embeddings.weight f4 [2, 6]
00000000: f976 0ebf 8eda 75bd 2a86 733d e91e 093f
00000010: 2db4 8f3e 495c c73e 0000 0000 0000 0000
00000020: 0000 0000 0000 0000 0000 0000 0000 0000
-0.5565029 -0.060022883 0.05945412 0.5356279 0.2806715 0.38937595 0.0 0.0
0.0 0.0 0.0 0.0

naim.embeddings.61.embeddings.weight f4 [2, 6]
00000000: fc21 71be 1a63 413d 49c7 103e d5b7 9abd
00000010: 7690 703e a58f f7bd 0000 0000 0000 0000
00000020: 0000 0000 0000 0000 0000 0000 0000 0000
-0.2354812 0.04721365 0.14138521 -0.075545944 0.23492607 -0.12087945 0.0 0.0
0.0 0.0 0.0 0.0

naim.embeddings.62.embeddings.weight f4 [2, 6]
00000000: a780 953e f947 243e fe99 35bf cf33 89bd
00000010: 1dac c8be 47d2 f3be 0000 0000 0000 0000
00000020: 0000 0000 0000 0000 0000 0000 0000 0000
0.29199716 0.1604308 -0.709381 -0.06699335 -0.39193812 -0.47621366 0.0 0.0
0.0 0.0 0.0 0.0

naim.embeddings.63.embeddings.weight f4 [2, 6]
00000000: d66c 443f 3ba0 ab3e 4237 a3be 8508 343e
00000010: ca1d 67be 3f90 20be 0000 0000 0000 0000
00000020: 0000 0000 0000 0000 0000 0000 0000 0000
0.7672857 0.33520684 -0.31878096 0.17581375 -0.22569957 -0.15680026 0.0 0.0
0.0 0.0 0.0 0.0

naim.encoder.0.layer_norm_1.weight f4 [6]
00000000: 62b3 7f3f 06ae 7f3f 26b8 7f3f c7c7 7f3f
00000010: e7b4 7f3f 43b4 7f3f
0.9988309 0.99874914 0.99890363 0.9991421 0.9988541 0.9988443

naim.encoder.0.layer_norm_1.bias f4 [6]
00000000: 05e8 28b9 eae9 c939 f066 5139 73fc f537
00000010: 95d7 bfb9 f906 263a
-0.00016108163 0.00038511987 0.0001997014 2.9323832e-05 -0.0003659098 0.00063334365

naim.encoder.0.attn.linear_q.weight f4 [6, 6]
00000000: 6b00 d0bd d448 173d 3228 e0bd d92c ccbe
00000010: 8cff 2abd f5c0 4a3e 67fc 3dbd 389b 4cbe
00000020: 198c 633c 8149 963d 30d6 e6bd e655 a2be
00000030: 54d4 5ebe 83a8 85bd 1f37 153e 9536 b93e
00000040: ab5b f53b 6d5b 143e 6b66 6f3e e109 35be
00000050: 0530 0abe f807 8a3e a955 953e 85c8 c63d
00000060: e4e2 a0be c1f8 6b3e 8e1d acbe aef5 4f3e
00000070: 4383 423d 2abd 053e 7313 cbbe 39a1 11be
00000080: 3a33 303e 6b38 a03e d2b2 ecbd 96b9 b93e
-0.1015633 0.03693469 -0.10945167 -0.39877966 -0.041747615 0.1980017 -0.046383288 -0.19981086
0.013888382 0.073382385 -0.11271322 -0.3170616 -0.21760684 -0.06526282 0.14571808 0.36174455
0.0074877343 0.14488001 0.23378913 -0.1767955 -0.1349488 0.26959205 0.29166916 0.09706215
-0.31423104 0.23044111 -0.33616298 0.20308563 0.047488462 0.13060442 -0.39663276 -0.14221658
0.17207041 0.31293043 -0.11557545 0.36274403

naim.encoder.0.attn.linear_k.weight f4 [6, 6]
00000000: 1dc7 b8bd 8bd3 7abe 862d 34be 7946 d43c
00000010: 0968 95bd 492a 493e b606 66be dc7a eebd
00000020: 7e7a cebe 4f07 aa3e 4d27 9bbd 3520 a4be
00000030: 4463 97bc c922 f5ba f48c e53d 993b 32bd
00000040: 78d3 823e 8cea 0ebe e525 f8bd 211b c4bd
00000050: 7fc6 923d 5fd0 a63e f1b1 9abc b328 a03e
00000060: 7b8a a33e df5b 58be 40d5 11bd 1446 44be
00000070: 9eab 2c3e f2b0 11be 9817 fe3d 0d8c c03c
00000080: f28f 88be 1da2 8cbe 3d80 cbbe 158b 68be
-0.09022353 -0.2449476 -0.17595491 0.02591251 -0.07295234 0.19645037 -0.22463498 -0.11644527
-0.4032783 0.332087 -0.075758554 -0.32055822 -0.01847995 -0.0018702383 0.11208525 -0.043513868
0.25551963 -0.1395666 -0.12116603 -0.09575487 0.071667664 0.3258085 -0.018883677 0.3128105
0.3194159 -0.21128796 -0.03560376 -0.19167358 0.16862342 -0.14227656 0.12406844 0.023504281
-0.26672322 -0.27467433 -0.39746276 -0.22709306

naim.encoder.0.attn.linear_v.weight f4 [6, 6]
00000000: 1671 e83d f2f0 cb3c 76fa 9c3e 3494 b7be
00000010: 2776 3fbc 9a5f bbbe 68a3 253b 2adb 173e
00000020: 452c bbbe 0a39 b83e 6b45 01be d009 b93e
00000030: 6930 8abd d761 6c3e 893b be3e acab 18be
00000040: 03b8 ccbd 7fe7 5b3e 49a6 b2be 13a0 763e
00000050: 0be5 82be beda c13e cbbd 88be e6e5 2bbe
00000060: 8c85 9b3e 0528 35be a692 b23e 3757 8f3e
00000070: 1f94 be3e c327 cabe 11b2 833b 9ea8 08be
00000080: fc26 c63d ed8a 9dbe 6eef 2a3e 5bd0 a5bc
0.113496944 0.024895165 0.30659837 -0.35855258 -0.011685885 -0.36596376 0.00252744 0.14829698
-0.36557212 0.35981017 -0.12624137 0.361403 -0.06747515 0.23084198 0.37154797 -0.14909238
-0.09996035 0.21475028 -0.3489249 0.24084501 -0.2556537 0.378622 -0.267073 -0.16786918
0.30375326 -0.17691047 0.3487751 0.27996227 0.37222382 -0.3948346 0.00401903 -0.13345572
0.096754044 -0.30770054 0.16692898 -0.020240953

naim.encoder.0.attn.linear_o.weight f4 [6, 6]
00000000: 0a59 44be b663 bbbe 5164 593e 620a 16be
00000010: 439b 993e 1344 943d d5a0 fb3d 724a 78bd
00000020: 6751 62bd 03af 0cbe ee53 b4be 23bf 823e
00000030: da6f 83be 87f1 733e 2fad 0cbe bb0f 833e
00000040: ac45 b33e f248 7fbe bd2b ac3e f78b 153c
00000050: 3715 a0be 22d1 293e 4ad5 6b3e d3d1 b73e
00000060: 3821 c7be ea8c bc3e 4b4e 9e3e b66a cd3e
00000070: a568 633e 4e74 4bbe da92 9e3e 46fe be3e
00000080: dae1 1fbe 017e 88bd dc97 a33e ba2e a83e
-0.1917459 -0.3659951 0.21229674 -0.14652398 0.30001268 0.072395466 0.12286536 -0.06061787
-0.055253413 -0.13738637 -0.35220283 0.2553645 -0.25671273 0.23822604 -0.1373794 0.2559794
0.35014093 -0.2493017 0.3362712 0.0091276085 -0.31266186 0.16583684 0.23030582 0.3590227
-0.3889253 0.3682626 0.30919108 0.40120476 0.22207887 -0.19868585 0.30971414 0.3730337
-0.156135 -0.06664658 0.31951797 0.3284815

naim.encoder.0.layer_norm_2.weight f4 [6]
00000000: 45c9 7f3f 78cd 7f3f 24c3 7f3f ebe9 7f3f
00000010: 23e6 7f3f 111a 803f
0.9991649 0.99922895 0.99907136 0.99966305 0.99960536 1.0007955

naim.encoder.0.layer_norm_2.bias f4 [6]
00000000: 69ea 373a c14c 683a 65c5 4ab9 093f 0dba
00000010: 434b 7bba 5597 d9b9
0.0007015826 0.0008861535 -0.00019337756 -0.0005388116 -0.0009586105 -0.00041502216

naim.encoder.0.ff.0.weight f4 [1000, 6]
00000000: 0f78 893e 6a7b 9f3e 57b4 55be ebcb 8dbd
00000010: 89be 25be de0b 583e c1ca cd3d bd0d a1be
00000020: 9d96 50bd c3cc a9be 9e0c c4be a6eb bd3e
00000030: 7dec 51be 3d4f 393e 382d b8bd edc0 a6bd
00000040: e1c1 c439 466e a23e 3849 62bd ba4c ac3e
00000050: 1d4a 733e bdb7 8e3e 3ee7 bcbe 3021 42be
00000060: 39dc a9be efcc afbd e176 abbd acd8 a83d
00000070: 91ab ba3e b4b7 3a3e a4e5 90be d289 82be
00000080: 0735 9d3e 8611 243d 4a4f ea3d 7788 59be
00000090: 64e0 49bd 2aa2 eb3d 93f9 88be 4046 883e
000000a0: e75f 4f3e ce95 72be ae7b 2abe ce27 c2bd
000000b0: b846 803d 881f 18be b74b c73e 70b1 c8be
000000c0: 4924 6bbe 52a0 7cbe f874 e03d 612c 683d
000000d0: c307 ecbd 1cc5 b13e 97ca b3be 6889 123e
000000e0: 5ab8 64be 7ac8 bbbd 919f c8be 465c 9bbe
000000f0: 27ae b0be 2a7a 353e 45d2 1bbe 9d5f 593e
00000100: 5149 61be 1353 cdbd 9cf3 473d c586 ae3e
00000110: bccc debd a207 713e 1214 e53d 2a16 7d3e
00000120: dd6c 833e f472 283e 0181 fdbd 3560 e8bd
00000130: 90b3 213e f4ad 623e 76f7 b6bc b547 503e
00000140: e74e 7abe e967 6a3e 5381 4cbd 0534 8fbe
00000150: 64d6 49be aafc 9ebe ca4e a63d d99a 76be
00000160: 1bdd ecbd ece0 c8bc 85e0 7dbe 4f44 3c3c
00000170: 9045 50bd f81f 033e 145a 963e 1726 7bbe
00000180: 14e9 633e 1abb 16bc 7db4 6dbe 9c95 3dbe
00000190: 8335 d23d 3a29 ac3d 4756 53bc 8a0a 4fbe
000001a0: 0dc6 513e 61a5 733d f695 cabe e250 91bd
000001b0: 1f61 e0bd 6962 31be ee9e 66be 7bed a8be
000001c0: 5933 cd3e c943 bebe 9264 c23e 7ae1 a3be
000001d0: 8bb0 c8bd 0725 2cbe ca41 5fbe d573 133e
000001e0: c703 713e 0b0a 89be 8c7a 41be c5bb 553e
000001f0: 7b9b 4cbd 1a56 c93d 2d47 593e c14e 19be
00000200: abbb 66be 61b4 183e 44e2 18be 9077 8abe
00000210: 55c8 52be a535 41be 4876 cf3e 834a 9f3d
00000220: dbbd 323e dbb3 643d 5a40 8cbe 1532 963e
00000230: e870 7fbd 1936 d6bd 63af a93e dca4 53be
00000240: f493 a73d 6a33 b1be 48f2 543e 58ca 243e
00000250: df39 abbe e222 683e 8ad5 3b3d d0a8 56be
00000260: 6e35 b23e d452 323e efff 113e 5961 1bbe
00000270: 8536 64be 8318 60be d340 1c3e 8b87 e03d
00000280: 4100 79be 1095 bd3e 2a47 723e c680 1ebe
00000290: 3a09 573e 8ef4 2fbe 5ff3 013e fe54 ad3e
000002a0: 7a39 b8be 1c89 4ebe 1355 b3bc 913a 743d
000002b0: 8e46 abbe 52e8 88be 04e8 1bbd 27ac 6dbd
000002c0: 6f3d b23d b370 503d 8a44 a93d 2974 e53c
000002d0: f2ae 413d 275b babc aaf6 143e b410 8e3e
000002e0: 714d 4fbe 9d39 57be bd54 363e 199a 96be
000002f0: 0f42 873e 6197 403e 4906 753d 7729 34be
00000300: a639 413c 609a a4be ca66 bbbe 292d c43e
00000310: 95da babe 1ecc acbe d225 21be 7df6 be3c
00000320: 4d14 bd3d e2b3 4cbe 0f9e 1ebd 574c babd
00000330: 6241 ae3e 1dfe b43e d39a 2a3e 157a b0ba
00000340: 6e18 9c3e 0d1a a8be c457 2d3e 56be 71be
00000350: bb60 a23e f91e b8be ef0a 1a3e 8d30 abbe
00000360: 18c4 723e b9b9 973d 4bb6 b23e 1b0e 9dbe
00000370: f5f9 853e c2de 8abe 3459 60be 36c3 1d3e
00000380: 7799 8abd f35f a4be 5734 b1be 0bbf d9bd
00000390: 4271 e63d 34ed b63e 3714 993e 2204 fd3b
000003a0: 1918 7fbe 86af b9be 961a ba3e eadb 67be
000003b0: d4b1 94bd 1103 a8be 20da 8fbe d5ee 9f3d
000003c0: 2423 ccbd 6b64 3a3d dabf 5dbb 60b1 b03c
000003d0: c6c7 a4bd 368f 89bc 9c6b 343e 2d06 983e
000003e0: 120c b03e e5dc a9be 2b0a b0be f8f2 74bd
000003f0: 4aab f5bc fb98 653e 2119 c43e 0044 d43d
0.2684941 0.31148845 -0.20869575 -0.0692366 -0.16185965 0.21098277 0.10048438 -0.31455794
-0.050924886 -0.33164033 -0.38290876 0.37093848 -0.2050037 0.18096633 -0.08993 -0.081422664
0.00037528484 0.31724757 -0.055245608 0.33652288 0.2375874 0.27874556 -0.36895174 -0.18957973
-0.3317583 -0.0858401 -0.08372284 0.08244452 0.3645902 0.1823414 -0.28300202 -0.25495774
0.3070452 0.040055774 0.114409044 -0.21243463 -0.04928626 0.1150554 -0.2675291 0.26616096
0.20251428 -0.23689958 -0.16648743 -0.094802484 0.062634885 -0.14855778 0.38924953 -0.39197874
-0.2296306 -0.24670532 0.1095981 0.056682948 -0.11524918 0.34720695 -0.351155 0.14310229
-0.2233595 -0.09169097 -0.3918424 -0.30343837 -0.34507868 0.17722383 -0.1521693 0.2122788
-0.22000624 -0.10025611 0.04881631 0.34087196 -0.10878894 0.23538068 0.11185469 0.24715486
0.25668994 0.16450101 -0.12378121 -0.11346475 0.15791154 0.2213667 -0.022334795 0.20339854
-0.24444161 0.22891201 -0.04992802 -0.27969375 -0.1971069 -0.31052142 0.081204966 -0.24082507
-0.1156561 -0.024521314 -0.24792679 0.011490895 -0.05084759 0.12805164 0.293656 -0.24526249
0.22256881 -0.009199882 -0.23213382 -0.18514103 0.10264113 0.08406301 -0.012898988 -0.20218864
0.20485707 0.05948389 -0.39567536 -0.07095505 -0.109560244 -0.17322697 -0.22521564 -0.32993683
0.40078238 -0.3716109 0.37967354 -0.32007962 -0.09799298 -0.16811 -0.2180244 0.14399655
0.23536597 -0.26765475 -0.18894404 0.2087241 -0.049952965 0.09830876 0.21218558 -0.14971448
-0.22532527 0.14912559 -0.14930063 -0.27044344 -0.20584233 -0.1886812 0.4051993 0.07777884
0.17455237 0.055835586 -0.27392846 0.29335085 -0.062363535 -0.10459537 0.33141622 -0.20668358
0.08182517 -0.34609538 0.20795548 0.16092813 -0.3344259 0.22669557 0.045857944 -0.20962834
0.3480639 0.17414409 0.14257787 -0.15173854 -0.22286423 -0.2188435 0.15259103 0.10963353
-0.24316503 0.37027788 0.2365996 -0.1547881 0.20999613 -0.17183134 0.12690495 0.33853906
-0.3598135 -0.2016949 -0.021891152 0.059626166 -0.33452266 -0.26739746 -0.038063064 -0.058025505
0.08703124 0.05088873 0.08265026 0.028009491 0.04728598 -0.022748543 0.1454722 0.27747118
-0.20244385 -0.21018071 0.17805763 -0.29414442 0.26417586 0.18807746 0.059820447 -0.17593943
0.01179353 -0.3214903 -0.3660186 0.38315704 -0.3649489 -0.3374948 -0.15737084 0.023310894
0.09232388 -0.19990495 -0.038724955 -0.09096592 0.34034258 0.35350123 0.16660623 -0.0013464118
0.30487388 -0.32832375 0.16928011 -0.23607764 0.31714424 -0.3596113 0.15043233 -0.3343548
0.23707616 0.07408471 0.34904703 -0.30674824 0.26167265 -0.27123076 -0.21909028 0.15406498
-0.06767552 -0.32104453 -0.34610245 -0.10632142 0.11252071 0.35727847 0.29898235 0.00772144
-0.24911536 -0.36266726 0.36348408 -0.22642484 -0.072604805 -0.3281484 -0.28096104 0.078092255
-0.0996764 0.045505922 -0.0033836276 0.021568954 -0.08045916 -0.016791921 0.17619175 0.29692212
0.3438421 -0.33176342 -0.34382758 -0.059802026 -0.029988904 0.22421639 0.38300422 0.103645325

naim.encoder.0.ff.0.bias f4 [1000]
00000000: 856e 813e 9bdd 56be 0b75 69bd b1e5 1b3d
00000010: bade 8f3e 4780 383e 043f c93e fc26 5fbe
00000020: 95b6 03bd 68e3 07bd 0eb3 a93e cab0 c43e
00000030: df78 d43d 4e92 a8be 97f4 96be 7f6e 973d
00000040: 8a7a b7be 1a0f 12be 9a11 9cbe 7a24 553e
00000050: c7f7 61bd 7a02 a3be 0b13 883e 4da8 b8be
00000060: a71c 25bd 2d9e c83e a499 513e 8870 b4be
00000070: ddd6 2f3d c534 7bbd 56da 383e ac8e c03e
00000080: 2080 b13e b614 23bd 18ab 3f3e 4098 ccbe
00000090: 9327 a43e b028 5d3e d762 92be 3ea6 f1bd
000000a0: d139 21be 1618 73be 1d50 2b3e 108f f1bd
000000b0: 3524 2d3e 1194 fbbd 5fc0 a13e 1343 23be
000000c0: baba 8ebd c3da 00be 870d 923c 03be 18be
000000d0: 7b2a 92be 1c01 c6be a7d7 813e ba61 643d
000000e0: 9fba 85be 8ee2 583e 065d 2a3d 959f 15be
000000f0: d44a d4bc 6f6f 3a3d 4ac9 953e bf7d bfbe
00000100: 6490 a1be 56e5 a7be 3e80 a3be b866 563b
00000110: d0b5 673e 1f9c d83d 6719 303e 35aa 4a3d
00000120: d833 f5bb 51b7 bcbe 6ae9 b93e 0d63 c93e
00000130: 7f6b 5abb 5faf 983d 66b7 983d cd3b ce3e
00000140: 0ba3 a1ba 3da0 88bd 8b61 62be d27c d73d
00000150: 32be 403e 09c5 afbe e5c6 0f3e fa0c d23d
00000160: 2cc1 393e ced8 423e 2cf5 d9bd fa9d 5d3d
00000170: 4fd4 91be d6b8 7a3e cb35 afbe 20b8 b6be
00000180: bf56 9abe 3b01 68be b85d 923c 8187 883e
00000190: b977 5cbd 0e8c 953e ee0f 89bd 26a0 b03e
000001a0: 06a6 8f3e 4f7f 833e 665f 293e ee31 8cbe
000001b0: 703c cc3e 9e50 c6be 1ae0 91be 375b 7bbe
000001c0: 1804 dabd d1ec 353e d96e ab3d 4c57 b3be
000001d0: 964c c93e d495 c33e 57e5 4c3e 6a1b ccbe
000001e0: baa5 683e 07cf ec3d 33d0 49bd 8a6f aebe
000001f0: 081d b13e ef82 f7bd ff72 a8be ec3b a13e
00000200: 113f 233e b163 f43d 5e7a 863e fbd6 103e
00000210: 96db b6bd 486b 8fbd d942 ac3e f9ce 53bc
00000220: 3df6 adbe 04c6 8fbe 5514 9dbe e9c1 203d
00000230: 3283 983e 4c21 793e a47c dc3d 69b9 0a3e
00000240: 64c2 44be e802 c33e 1d4e 1e3e 3815 83be
00000250: afa5 8abe 6596 babe 5436 ebbd 34df 983e
00000260: 937f c73c cfe2 44be cbec e93d 60cd 90be
00000270: 63f5 f63d 16ce 8e3e f42e 4a3e cb4c fcbd
00000280: d60e 0dbe 3df6 2e3e 6620 793e 627c cabd
00000290: 3f76 ebb8 9610 3fbd cd6a 45bd d6de b8be
000002a0: 54d0 abbe 9491 b23e 9d22 48be 82ee 993e
000002b0: 2e31 813e 8107 81bd 5feb 48be 799b 6b3c
000002c0: 516a 8fbd 12b4 76be eb2e cb3e 6bfe ffbc
000002d0: e5bd 7fbd 344c 8dbe c3c0 893d 2b4b 653d
000002e0: 1108 ce3e ead4 ffbd fe1c 6a3e 61ef 983c
000002f0: d09b 5d3e 6f6a cd3b 1eeb 8ebd 3bd3 233e
00000300: b6ed 38be 8d5a 7c3e ca71 aebe 5e5e 95be
00000310: d583 c63e 2b58 1cbe 2d8d a5be 9c27 98be
00000320: c82d ca3e 658e 66bd 6c39 afbe 5354 6dbd
00000330: 5177 4abe 5d90 8bbe aa4b 4bbe fb09 9e3e
00000340: 445c 293e 3852 733e f96e 063d 9a78 2dbe
00000350: c89e 29be 77b0 8bbe 3861 96be 8790 b3be
00000360: 2ec1 923d 8a52 5a3e eafd a93e 4726 2dbc
00000370: 5af1 6fbd 2f17 0ebd 8a2d 253e 4709 82bd
00000380: 0a69 12be d41a e6bd 8986 cbbe 3a54 a0be
00000390: 4431 32be c540 1f3d 8aa0 82be ee0f 1f3e
000003a0: 855b 63be 7aee c93e 330e b8be 8dfa 673e
000003b0: e5bc 57be 0bea 12be fd86 c2be 2e0e c1be
000003c0: 3c37 c5be b192 f0bb f2f8 bf3e 8897 3f3e
000003d0: 1f5e 823e 116e bb3d 354f 20be 138a 21be
000003e0: 6198 f6bd e69d c2be 5940 653e 8455 f6bd
000003f0: 1856 6bbe c9d7 d03d ac47 413a 1e36 623e
0.25279632 -0.20982973 -0.056996386 0.038060848 0.28099614 0.18017684 0.3930589 -0.21792215
-0.032156546 -0.033175856 0.3314442 0.3841613 0.10374617 -0.32924122 -0.29483482 0.07394122
-0.35835677 -0.14263573 -0.3048218 0.20814696 -0.05516794 -0.31837827 0.2657703 -0.36065903
-0.040310528 0.3918318 0.20468765 -0.35242105 0.04292952 -0.06132962 0.18052039 0.3760885
0.34668064 -0.039814673 0.18717611 -0.39959908 0.32061443 0.21597552 -0.28591034 -0.11799286
-0.15744711 -0.23739657 0.1672978 -0.11794865 0.16908343 -0.12284101 0.3159208 -0.15943556
-0.06969209 -0.12583451 0.017828716 -0.14916234 -0.28548035 -0.3867272 0.25359842 0.05575726
-0.26118943 0.21180174 0.04159262 -0.14611657 -0.025914587 0.045516428 0.29255134 -0.37400624
-0.31555474 -0.32792157 -0.3193378 0.0032715034 0.2262795 0.10576653 0.1719719 0.04947873
-0.007482987 -0.3685861 0.36310893 0.39333382 -0.0033328233 0.074553244 0.074568555 0.4028
-0.0012331916 -0.06671188 -0.22107522 0.105218545 0.18822554 -0.34330013 0.14040716 0.10256381
0.18140095 0.19028017 -0.10642466 0.054105736 -0.2848229 0.24484572 -0.34220728 -0.3568735
-0.30144307 -0.2265672 0.017866954 0.2666588 -0.053825114 0.29208416 -0.066924915 0.34497184
0.28056353 0.25683066 0.16540298 -0.27381843 0.3988986 -0.3873338 -0.28491288 -0.24546514
-0.10645312 0.1776612 0.08370752 -0.3502754 0.39316243 0.38200247 0.20009361 -0.39864665
0.2271947 0.11562925 -0.04927082 -0.34069473 0.34592462 -0.120855205 -0.32900235 0.3149103
0.15942027 0.11933077 0.26265234 0.14144509 -0.089286014 -0.07002884 0.3364475 -0.012927764
-0.33976927 -0.2808076 -0.30679575 0.039247427 0.29787594 0.24329108 0.10765961 0.13547291
-0.19214779 0.38088155 0.15459485 -0.25602126 -0.27079532 -0.36442867 -0.11484972 0.2985779
0.024352824 -0.19227146 0.11422118 -0.2828169 0.120585226 0.27891606 0.19744474 -0.123193346
-0.1377519 0.1708612 0.24328765 -0.098870054 -0.00011227698 -0.046646677 -0.048197556 -0.3610751
-0.3355738 0.34876692 -0.19544454 0.3006478 0.25232834 -0.063002594 -0.19621037 0.014380329
-0.070027 -0.24092129 0.39684233 -0.031249246 -0.062436957 -0.275972 0.067262195 0.05597989
0.4024053 -0.12491782 0.22862622 0.018668832 0.21641469 0.0062687914 -0.06978439 0.15998547
-0.1805943 0.24643917 -0.3407119 -0.2917356 0.38772455 -0.15268008 -0.3233427 -0.2971772
0.39488053 -0.05628814 -0.34223497 -0.057941746 -0.19772078 -0.27258578 -0.19853082 0.3086699
0.16539103 0.23761833 0.032820676 -0.16940537 -0.16564476 -0.2728307 -0.29371047 -0.35071203
0.07165752 0.21320549 0.33201534 -0.010568208 -0.05857978 -0.03469008 0.16130653 -0.06349426
-0.14297882 -0.11235586 -0.3975108 -0.3131426 -0.17401606 0.03888013 -0.25513107 0.1553342
-0.2220288 0.39439756 -0.35948333 0.22654171 -0.21068151 -0.14347093 -0.37993613 -0.3770613
-0.38518703 -0.0073417057 0.37494618 0.18710148 0.25462434 0.09151853 -0.15655215 -0.15775327
-0.12040783 -0.38011092 0.22387828 -0.120280296 -0.22982061 0.10197408 0.00073730457 0.22090957

naim.encoder.0.ff.3.weight f4 [6, 1000]
00000000: 90c4 7cbc 2244 5cbc e1a4 15bc 3cc6 0dbc
00000010: 80ec 1dbc 888e 7f3b a85d 06bb ec71 6bbc
00000020: 8e40 9e3c a869 bb3c 480a 91bb 68b4 b9bb
00000030: 1269 fdbc d5e0 bdbc 58b2 ddb9 dbfb a9bb
00000040: ca98 0a3c 50a2 72bc 0e07 b1bb e3ad ae3b
00000050: 641f fe3c 3447 cc3c cace a3bc 23bd d0ba
00000060: d33a 93bb c35b 35b9 1f86 603c 4923 41bc
00000070: 96b2 c2bb c118 fabc d5d4 2abc 4664 f7bc
00000080: 4a87 403c ccb5 bebc 3ca2 73bc f309 b4bc
00000090: dfe9 cc3c 014b 0ebc 6303 e43c 163c 78bc
000000a0: fdf4 c43c 2420 aebb 1409 bbbc 9633 d83c
000000b0: e665 a8bc 64f1 95bc b25f 943c 7205 81bb
000000c0: 2e15 94b8 3c31 043d 4992 cfbc 3458 36bc
000000d0: 0854 463c 5d3c e0bb eb18 b93a 6be9 24bc
000000e0: 9e54 a5bb 6477 d33c f5bf c0bb be3a 603c
000000f0: 608e ca3c 369e c63c e774 7f3c dd67 b53c
00000100: e09e ecbb e4a8 263b d07a 53bc 89be f9bc
00000110: 4890 de3c e8f8 efbc 43a2 9dbc 4094 35bc
00000120: 78b0 e3bc 2021 cebc 1ccd 84bc ca1f 963b
00000130: f6cd dabc fb3f c0bc 432c 90bc ea18 c3bc
00000140: be96 e03b 944a 0a3b 7241 ef3b 0d1b ed3c
00000150: 476d 56bc 1611 38bc 6ba2 2c3c 9305 e33c
00000160: 67f2 243c ece0 23bb ef96 363c ea28 f7bc
00000170: 2eef b1bc 5fce 49bc 73d0 e1bc 120c bfbc
00000180: c3e8 cbbc 1124 073c 5754 0c3c 8b40 c0b9
00000190: 23dd f3bb 8c83 893a 5a68 a43c c0a5 bfbc
000001a0: 2746 be3c a970 653c 1d52 31bc d6ae af3c
000001b0: 3abd 313a 6baf 6dbc d68d e93c da55 263c
000001c0: c5f8 bd3c ee8e 08bc c061 d6bc 2173 d13c
000001d0: 7e71 373b 1a47 7e3c 8095 fdbb f583 813c
000001e0: 52aa c6bc 15a5 f13a d162 cc3c e7ca 14bc
000001f0: 5ac7 e23c 2900 343c 8bdb 7d3c 3abf 033d
00000200: 4e0a ddbb 12f4 cfbb a482 a73c dc0e 81bc
00000210: a24c b9bc 3f6b ae3c b2e0 dfbc 6855 6fbc
00000220: fcdd f23b 0a1f b13b 334c 99bc 8557 04bc
00000230: 5f14 aa3c 9cde 9fbc 63a7 993c c1b4 20bb
00000240: b779 2abc 80f0 f3bc 0e57 06bc 5b33 d63c
00000250: 80ca 93bc 5bff d0bc a816 31bb 0bbe be3c
00000260: cde1 15bc d969 023d 3c6e 003d ecaa e53c
00000270: beab 8cbc abd5 b0bc 59c4 ebbc 6160 cebb
00000280: c3ba acbc ed9c 7b3c 233f 693b 03df ce3c
00000290: a3f3 efbc bde3 d6bc de25 a2bb 4bcd f53b
000002a0: 9ab9 e13c 0d2f f5ba 3ebf e53c 0307 f8bb
000002b0: 2d3e 6abb cb82 42bc 524c 5dbc ed74 40bc
000002c0: 4f54 d9bc 8ada 93bb 0d2f 27bc 8ef6 a2bc
000002d0: 7458 c5bc d4ad f6bc 71a8 debb edcc cdbc
000002e0: bf2d ef3c 2c6a fabb 6c05 0c3c 8c07 b4bc
000002f0: 1cd9 593b 1a79 ecbc 8ba9 643c 5562 813c
00000300: 3599 fabc b646 713c ac5a 893b f09e 9cbc
00000310: 4e85 66bc 039c f93c e819 8bbc 82a2 ea3c
00000320: 39b3 e63b b06d 683c a796 81bc 1a66 233c
00000330: 7c3b 013c 9bc4 ce3c e0d0 02bd 1576 37bc
00000340: 8782 a53a 425b b3bc 838c c93b 390c a23c
00000350: f605 a13c faf6 81bc 503d 613c 7a62 b8bc
00000360: 82c6 9d3c 5403 d5bc 1ae9 e5bc 0ebd 3c3c
00000370: f7e5 83bb d9e7 0f3c 21fd f63c 706b f33c
00000380: 343e 9a3c a7bc e2bc c8d3 7dbb b0f2 813b
00000390: 5317 ffbc 424d d53c 92be a13c 5823 6bbc
000003a0: 2864 bcbb 2831 95bc 2eda 553c 3338 a93b
000003b0: 430b 39bc 473b 913c 2b3e dfbb 1157 363b
000003c0: 9401 ae3c eacf 69bc d3fd eabc 493d 933c
000003d0: 6b3d a4bc fdd4 443c a409 09bc adfb b53c
000003e0: 7f26 00ba b237 69bc 6069 b5bc 5f36 b03c
000003f0: bc31 a3bc 6f75 223c 140b cd3c a414 cebc
-0.0154277235 -0.0134439785 -0.0091335485 -0.00865322 -0.0096389055 0.0038994867 -0.00205026 -0.014370423
0.019317891 0.02287753 -0.0044262744 -0.005667258 -0.03093389 -0.023178497 -0.0004228528 -0.005187494
0.008459279 -0.014809206 -0.0054024523 0.0053307875 0.031020828 0.024936296 -0.019996066 -0.0015925508
-0.0044930964 -0.00017295689 0.013703852 -0.011788198 -0.0059416993 -0.030529382 -0.01042672 -0.030199181
0.011751005 -0.023280047 -0.014870223 -0.0219774 0.025013862 -0.0086848745 0.027833646 -0.015151044
0.0240426 -0.00531389 -0.022831477 0.026391786 -0.020556401 -0.01830358 0.018112037 -0.0039374167
-7.061135e-05 0.032273516 -0.025338309 -0.011129428 0.012104996 -0.0068431334 0.0014121806 -0.010065417
-0.0050454875 0.025813766 -0.005882258 0.01368588 0.024726093 0.024245363 0.015591837 0.022144252
-0.007221088 0.0025430257 -0.012907699 -0.030486362 0.027168408 -0.029293492 -0.019242411 -0.011082709
-0.027794108 -0.02516228 -0.016211085 0.0045814263 -0.026709538 -0.023468008 -0.01759923 -0.02381559
0.0068539074 0.002110158 0.007301503 0.028943563 -0.013087577 -0.011234542 0.01053677 0.027712619
0.010067559 -0.002500589 0.011144384 -0.030170877 -0.021720495 -0.012317269 -0.027565217 -0.023321185
-0.024891263 0.008248345 0.00856503 -0.00036669182 -0.007442133 0.0010491475 0.02006929 -0.023394465
0.02322681 0.014003911 -0.0108228 0.021445673 0.0006780211 -0.014507155 0.028510015 0.010152305
0.023189912 -0.008334858 -0.026169658 0.025567593 0.002799123 0.015519882 -0.007738769 0.015809992
-0.024251137 0.0018436039 0.024949463 -0.009081579 0.027682949 0.010986366 0.015494238 0.03216479
-0.006745613 -0.006346234 0.020448036 -0.015754156 -0.02261955 0.021291373 -0.027328823 -0.014607765
0.0074117165 0.0054053115 -0.018713092 -0.008077507 0.020761667 -0.019515328 0.018756574 -0.00245218
-0.010404996 -0.029777765 -0.008199466 0.026147535 -0.018040895 -0.025512388 -0.002702156 0.023283979
-0.009148073 0.031839225 0.031355128 0.028035603 -0.017171737 -0.02158626 -0.02878015 -0.0062981104
-0.021085149 0.015357238 0.003559061 0.025252825 -0.02929098 -0.026231641 -0.004948362 0.0075012795
0.027554322 -0.0018706039 0.028045293 -0.0075691952 -0.0035742626 -0.011872004 -0.013506966 -0.011746627
-0.02652946 -0.004512136 -0.010204089 -0.019892957 -0.02409003 -0.030112185 -0.006794982 -0.02512213
0.029196618 -0.007642051 0.008546215 -0.021976255 0.003324098 -0.02886634 0.013956438 0.015793959
-0.030590633 0.014726331 0.004191717 -0.019118756 -0.014069868 0.0304699 -0.016980127 0.028641943
0.007040408 0.014186308 -0.015818907 0.009973073 0.007887717 0.025240233 -0.03193748 -0.011197587
0.0012627401 -0.021894101 0.0061507835 0.019781219 0.019656163 -0.015864838 0.013747528 -0.022507895
0.019259695 -0.026002564 -0.028065253 0.0115196835 -0.0040252167 0.008783304 0.030149998 0.029714316
0.018828489 -0.027677847 -0.0038730968 0.003965698 -0.031139052 0.026037816 0.019744191 -0.014351688
-0.0057492442 -0.018211916 0.013052506 0.00516417 -0.011294189 0.017728461 -0.006812831 0.0027822892
0.021240987 -0.014270762 -0.028685486 0.017973559 -0.020048818 0.012013671 -0.008364115 0.022214735
-0.0004888549 -0.01423447 -0.022144973 0.021510301 -0.019921176 0.009915694 0.025029697 -0.025156327

naim.encoder.0.ff.3.bias f4 [6]
00000000: a1e6 ecbc d259 7abb 4291 8ebc 4b7f 55bc
00000010: 6a18 c83c 74b4 ccbc
-0.028918566 -0.003820051 -0.017403249 -0.013030837 0.024425704 -0.02498839

naim.encoder.1.layer_norm_1.weight f4 [6]
00000000: afad 7f3f 4fd2 7f3f 7ba9 7f3f 88aa 7f3f
00000010: 0bac 7f3f 90a9 7f3f
0.99874395 0.9993028 0.9986798 0.99869585 0.9987189 0.99868107

naim.encoder.1.layer_norm_1.bias f4 [6]
00000000: e3ef 233a 4898 32ba 26fa 34ba 6194 16b9
00000010: 7ee8 5bba 4b5d 203a
0.00062537024 -0.0006812853 -0.000690373 -0.0001436039 -0.0008388831 0.00061174174

naim.encoder.1.attn.linear_q.weight f4 [6, 6]
00000000: acf2 97be f3b7 04be 7e34 38be 88b4 cb3d
00000010: c472 853e cba7 803d 50d0 d23b 9c73 473e
00000020: 9f51 783e 58a7 593c ff7b 8cbe 0875 b4be
00000030: 85ed cf3e 3425 083e adb9 be3e e421 1fbe
00000040: 3d57 e33d 00ce 5abe 2cd3 5abe 91fd 3dbe
00000050: 5c41 d03e 2dba 973e c9fe 7fbe 7dda 92be
00000060: 8290 083e 8a85 c2bd a725 973c ef24 503d
00000070: 9d5c b6be bf09 b63d 1cd5 20bb d79f 91be
00000080: b20b cebe 6124 543e d978 bebe 31fc 3abe
-0.2967733 -0.12960796 -0.17988774 0.09946543 0.26064122 0.06282004 0.006433524 0.19477695
0.24249886 0.013284527 -0.27438352 -0.35245538 0.406109 0.13295442 0.37251034 -0.15540272
0.11100624 -0.21367645 -0.21369618 -0.18553759 0.40674865 0.29634228 -0.24999537 -0.28682318
0.13336375 -0.09498127 0.018450571 0.050816473 -0.35617533 0.08888578 -0.0024541086 -0.2844226
-0.40243298 0.20717002 -0.37201574 -0.18260266

naim.encoder.1.attn.linear_k.weight f4 [6, 6]
00000000: 73cd 7c3e 7da8 8abe 8fa7 44be f621 83be
00000010: 9cc1 743e 6a0b 003e 2642 273d 56e2 113e
00000020: 6888 ec3d 8007 aebd fabc 14bd 032c 82be
00000030: a20f 43be 2d14 f33b 2fae 45bd 4af8 cf3d
00000040: 8e18 453e bfaf 9f3e 3b9d c73e 25f1 fbbc
00000050: 0d86 233e 6fa1 a8be 68a3 703e 1ef7 dcbd
00000060: 1634 a5be d218 a2be bb98 adbe 4fbd 3fbe
00000070: fe8e 3d3e 8ad0 a9be dd12 40bd 4686 7ebd
00000080: e173 183e 5c1d 29be e478 523e 919a 80be
0.24687748 -0.2708167 -0.19204544 -0.25611848 0.23901981 0.12504354 0.04083457 0.14246497
0.11549455 -0.08497524 -0.036313035 -0.25424203 -0.19048932 0.0074181766 -0.048261818 0.10154779
0.19247648 0.3118877 0.38987145 -0.030754635 0.15969105 -0.32935664 0.23499835 -0.10789321
-0.322663 -0.3165956 -0.33905587 -0.18724559 0.18511578 -0.33166915 -0.04689299 -0.062139772
0.14887954 -0.16515106 0.20553929 -0.25117925

naim.encoder.1.attn.linear_v.weight f4 [6, 6]
00000000: 3ba9 743e d07c d0be ea54 8ebe 8927 133e
00000010: 72bc 813d 43ab 923e 90d1 593e 1834 aebe
00000020: 8f43 a43e 478d d8bd 1ea8 9bbd 6fa5 30be
00000030: 3b4a 8fbd 03a8 c2be 0b29 043d 7201 9d3e
00000040: af95 a8bd 423c a03e 3deb 3bbe c933 293e
00000050: f57d 213d 043b 21be 8e2a cb3e 231f 063d
00000060: e69f 963c ce99 32bd 0d96 aebc addb a73e
00000070: cc2b 7bbd 4914 7a3e 5167 173e f7ed 873e
00000080: 3fbe 9dbe 29f5 b6be 9ffb 07be 10d2 e6bd
0.23892681 -0.40720224 -0.2779916 0.1437055 0.06334771 0.28646287 0.21271348 -0.3402412
0.32082793 -0.105738215 -0.07600425 -0.17250608 -0.0699658 -0.38018808 0.032265704 0.30665165
-0.08231675 0.31295973 -0.18351455 0.1652366 0.039426763 -0.15745169 0.39680904 0.032744538
0.018386792 -0.04360371 -0.021311784 0.32784787 -0.061321065 0.244218 0.14785506 0.2654874
-0.3080921 -0.35733917 -0.1327958 -0.11270535

naim.encoder.1.attn.linear_o.weight f4 [6, 6]
00000000: 7d75 c73e 1dfb cd3e 2ad9 c5bd 8d7b 47be
00000010: e763 82ba 5b54 203e e906 0f3e 00c0 9d3d
00000020: ef5b 993e 3962 323d 4be6 a83e 8523 cb3d
00000030: a7eb 11bd 5901 ae3e 40d7 643c b800 8a3c
00000040: b725 a0bd 119f 753e 1b62 f8bd 20b2 a23e
00000050: b7bb 5e3e 87b0 ddbb a790 89bd c061 233e
00000060: d671 cbbe 64f0 08be 3070 12be 1d87 47bd
00000070: f0b8 46be de3b 33be 3b78 453e fbec 2bbd
00000080: 9b34 90be cdf5 e6bc 88a6 053e 6209 28be
0.38956824 0.40230647 -0.096605614 -0.19480725 -0.0009947986 0.15657179 0.1396748 0.07702637
0.29952952 0.043550704 0.329882 0.09918884 -0.035625126 0.33985403 0.013967335 0.016846046
-0.078196935 0.2398646 -0.12128087 0.31776524 0.21751295 -0.0067654285 -0.06717043 0.15955257
-0.39735287 -0.13372952 -0.14300609 -0.04871284 -0.19406486 -0.17503306 0.19284146 -0.04197405
-0.28165135 -0.028193379 0.13051808 -0.1640983

naim.encoder.1.layer_norm_2.weight f4 [6]
00000000: 46da 7f3f 5fbb 7f3f 61c8 7f3f fc07 803f
00000010: 15f2 7f3f 67fa 7f3f
0.99942434 0.9989528 0.9991513 1.0002437 0.9997876 0.9999146

naim.encoder.1.layer_norm_2.bias f4 [6]
00000000: 0363 273a e4df 413a 9e44 0e3a 1f99 bcb9
00000010: dbe1 75ba 4785 1aba
0.00063852983 0.0007395728 0.0005427095 -0.00035972238 -0.00093796634 -0.00058944937

naim.encoder.1.ff.0.weight f4 [1000, 6]
00000000: 8d2c b13e 4875 90be 5966 b53e 92b5 213e
00000010: 4108 6fbe 9235 c5be 73d7 213e bf16 9cbd
00000020: 627c f53d 2bad 333e 420e 8dbe 6dac 483d
00000030: 613b b1bd cd8b bbbe d8cc 913d edc0 b33d
00000040: 3740 9fbe cffa c33e 5078 5b3e b770 6c3e
00000050: 7a79 b5be 4110 b4be 5848 333e d922 703e
00000060: 299e b2be a40d c83e acd0 b6bd 04cc a8be
00000070: 96af 98be 8c6a bfbd ed6b 5c3e b385 8fbe
00000080: d66f 993e f23c d03e 40d1 c33e aa0a 3d3e
00000090: 3216 2abe 1392 1ebe b070 953e 06d2 acbd
000000a0: d16d 7f3d f57f d03e 2530 cfbe 43ed bebd
000000b0: 9e15 24be 7b4c 86bd 802b 843c 730d b3bd
000000c0: 6e48 ca3e 6860 283e 2bb9 82be 54e3 c93e
000000d0: c2a8 e9bd 0b91 6c3d 78e6 1d3d 4700 99be
000000e0: 936d 533e 0e00 7dbe 0a92 b9be a0d9 ae3e
000000f0: 011a 7a3e 32c5 2dbe d401 95be 0b22 bc3e
00000100: 5a96 123e ab15 8abe dc5e adbe ccbb 2bbe
00000110: fe21 67be e304 e43c 7b32 213d 13eb cbbe
00000120: 079c 513e 8cbe 533e 07bf bcbe 7668 a73e
00000130: 8b2c 25be 99e6 553e 6a59 cc3e 2657 763e
00000140: 11b4 8b3e c3ee 6d3c a1e5 6f3d 5a23 b1be
00000150: fafe 96be 80b6 a73e a75d bebe f1e6 333e
00000160: 9b09 75be a78a b43e e88d 993e f35e bcbd
00000170: 88f6 52bd ea65 90be 4c4c c23e 79a7 7abe
00000180: 4e45 143e 9c56 923e 17b0 c8be 1deb ccbe
00000190: d10b 92be c010 7dbd 2955 813e 9107 fdbd
000001a0: 2d72 2bbe 8484 8a3e 2efc a63e 2750 5c3e
000001b0: 67fb b33e 14df bbbe 08cf b9be a203 8d3d
000001c0: 0ec1 aebe 1afb e6bd 4a25 7d3e 6374 ca3e
000001d0: 749b a5bd 48ae b7be 6903 4dbe 087d ca3e
000001e0: 9f4b 98bd 4abd c1be 4b05 5cbe 31b5 81be
000001f0: c2a7 d7bd fdab 96be 827c 0cbe ccfa be3e
00000200: 61b3 44be 2e76 b1bd b071 693e e4aa c2be
00000210: f045 5abe 9568 0fbd be08 a43e 9448 673d
00000220: 7356 3fbb 3960 0abe 0c6d 423e a27a 32be
00000230: 9311 82bd 4934 35be d1f3 1a3e 7dd7 cf3e
00000240: a511 9dbe fdfb e3bc 3d90 e4bc c361 52be
00000250: 8a67 94be 4846 31be 571a a3be e757 9e3e
00000260: 2886 93be f7ca 7d3e b134 ac3e 060b 98bd
00000270: e2da c13e 7366 963e ec1b 91be 5e5c 6d3e
00000280: 4e33 d53d 81d5 a33e 64f9 9dbe 7d07 a23e
00000290: 13ac 683d 8c5b 4b3e de65 67be cc40 893e
000002a0: a18d eabc 26b6 ab3e 48c6 0c3d 141a 813e
000002b0: 706f 83be 6496 b8be 2e91 113e 99ae 5d3e
000002c0: 6625 e53d cd42 023e c014 893e 5ac8 55be
000002d0: 7671 5e3e c02d 473e 883b 30be 8d5f 77be
000002e0: 91e9 cebe 1d16 993e 3f50 adbb b9fc bd3d
000002f0: 5c44 93be 1d85 9cbe e0e1 aa3e 919f 923e
00000300: 6a80 613e 67a9 a63e f1b3 a73e 624a 763e
00000310: b061 963e 50c1 58bd a27a db3d ceff b2be
00000320: da5c 15be 8988 20bd a881 9cbc b580 cd3e
00000330: 31e1 a93e 3170 023e 6d3f c23e 5edc 53be
00000340: 4bf8 9f3d e223 a5be 8f24 b1be ac31 5e3e
00000350: 7de2 043e 59bd aabc 3e96 86be 4c07 963e
00000360: b59a 03bd aa0f 8e3e afc0 8fbe df76 a03e
00000370: e6c4 a1bc b20f 02be 5a4d 0cbd 2aa5 a0be
00000380: a5ac 9abd aedf ca3c e81b 9abe 9911 613e
00000390: d4c9 c43e 664d 563e 2625 4cbe 2840 81be
000003a0: 93fd a4be db32 80be 7733 783e 5e61 3f3e
000003b0: 8a42 1bbe 2d29 fd3b 4a2e 81bd 8b27 a23b
000003c0: 7f37 cfbe 6625 b03e 8075 11be 5ee4 b3be
000003d0: 2555 06bc d672 f73d 3167 3f3e 98f5 51be
000003e0: 23df f7bc b120 9cbe 86f2 9cbe e457 89be
000003f0: 76de 82be 1bac 823e 2fe3 bbbe 7514 acbd
0.34604302 -0.28214478 0.35429648 0.1579192 -0.23342992 -0.38517433 0.15804844 -0.07621526
0.11986615 0.17546527 -0.2754994 0.048992563 -0.08653904 -0.36630097 0.07119149 0.08777032
-0.3110368 0.3827729 0.21432614 0.23089872 -0.35444242 -0.3516865 0.17508066 0.23450793
-0.34886292 0.39072907 -0.0892652 -0.32968152 -0.2982146 -0.09346494 0.21525545 -0.28031692
0.29968137 0.40671498 0.38245583 0.184611 -0.1661003 -0.1548541 0.29187536 -0.08438496
0.06236059 0.40722623 -0.4046642 -0.09322598 -0.16023871 -0.06557556 0.016134024 -0.087427996
0.39508384 0.16443026 -0.25531897 0.3943125 -0.11409141 0.05775551 0.03854987 -0.29883024
0.20647268 -0.24707052 -0.3624423 0.3415041 0.24423982 -0.16969755 -0.29102957 0.36744723
0.14315167 -0.26969656 -0.33861434 -0.16770858 -0.2257156 0.027834361 0.039354783 -0.39827785
0.20469676 0.20678157 -0.36864492 0.32696885 -0.16130273 0.20888747 0.39911968 0.24056682
0.27285817 0.014522257 0.0585686 -0.34597284 -0.29491407 0.32756424 -0.37180826 0.17568566
-0.23929445 0.35262033 0.29991078 -0.091977976 -0.05150464 -0.28202754 0.37948835 -0.24477948
0.14479563 0.28581703 -0.39196846 -0.40023127 -0.2852464 -0.061783552 0.25260285 -0.12354959
-0.16742773 0.27054226 0.32614273 0.2151495 0.35152742 -0.36693633 -0.36290765 0.068854585
-0.34131664 -0.112783626 0.24721256 0.3954192 -0.08086291 -0.35875154 -0.20020832 0.39548516
-0.074362986 -0.3783973 -0.21486394 -0.2533355 -0.10530044 -0.29428092 -0.13719371 0.37300718
-0.19209053 -0.08665119 0.22797275 -0.38021004 -0.21315742 -0.035011847 0.3203792 0.0564657
-0.0029195815 -0.13513269 0.1898691 -0.17429593 -0.06351008 -0.17695726 0.15132071 0.40594092
-0.30677524 -0.027830118 -0.02790081 -0.20545106 -0.28985244 -0.17311966 -0.31856033 0.3092644
-0.2881329 0.24784456 0.3363395 -0.074239776 0.37862307 0.29375038 -0.28341615 0.23179767
0.10410176 0.31998828 -0.30854332 0.31646338 0.056804728 0.19859141 -0.22597453 0.2680725
-0.028631987 0.33537406 0.034368783 0.2521521 -0.25670958 -0.3605224 0.14215538 0.21648635
0.11188774 0.12720795 0.26773643 -0.2087721 0.2172297 0.19451046 -0.1721021 -0.24157543
-0.40412572 0.29899684 -0.005289107 0.09276719 -0.28763092 -0.30570307 0.33375454 0.28637365
0.22021642 0.3255112 0.32754472 0.24051812 0.29371405 -0.052918732 0.1071675 -0.34960788
-0.14586201 -0.03919271 -0.019104794 0.40137258 0.3317962 0.1273811 0.37939015 -0.20689532
0.0781103 -0.3225394 -0.34598204 0.21698636 0.12977023 -0.020842241 -0.262865 0.29302442
-0.032129962 0.27746326 -0.28076693 0.3134069 -0.019747209 -0.127013 -0.034253456 -0.3137601
-0.075524606 0.024764862 -0.30099416 0.21979369 0.38435233 0.20927963 -0.19936046 -0.2524426
-0.32224712 -0.250388 0.24238382 0.18689486 -0.15162101 0.007725856 -0.06307657 0.0049485615
-0.40472028 0.34403533 -0.14204979 -0.35135168 -0.008199011 0.1208245 0.18691708 -0.20503843
-0.030257767 -0.30493692 -0.3065378 -0.26824868 -0.2556035 0.2552193 -0.36696765 -0.08402339
