outputs/2025-03-23/17-10-18/outputs/model_epoch_60.pt (torch, 377354 bytes, 140 tensors)

naim.embeddings.0.embeddings.weight f4 [2, 6]
0.3695884 -0.5285728 -0.30492675 0.3192301 0.43031296 0.27038068 0.0 0.0
0.0 0.0 0.0 0.0
00000000: b13a bd3e 8c50 07bf 5c1f 9cbe 2172 a33e
00000010: fb51 dc3e 566f 8a3e 0000 0000 0000 0000
00000020: 0000 0000 0000 0000 0000 0000 0000 0000

naim.embeddings.1.embeddings.weight f4 [2, 6]
0.039369293 -0.06600913 -0.11534869 0.3390624 0.15607831 -0.06477392 0.0 0.0
0.0 0.0 0.0 0.0
00000000: b241 213d cb2f 87bd ef3b ecbd 9699 ad3e
00000010: fed2 1f3e 30a8 84bd 0000 0000 0000 0000
00000020: 0000 0000 0000 0000 0000 0000 0000 0000

naim.embeddings.2.embeddings.weight f4 [2, 6]
0.6225718 0.043054014 -0.020666387 0.5413868 -0.22804104 0.32696515 0.0 0.0
0.0 0.0 0.0 0.0
00000000: de60 1f3f 6859 303d 8e4c a9bc 5398 0a3f
00000010: 9783 69be fa67 a73e 0000 0000 0000 0000
00000020: 0000 0000 0000 0000 0000 0000 0000 0000

naim.embeddings.3.embeddings.weight f4 [2, 6]
0.600919 -0.4608704 0.048197623 0.45065773 0.10779105 0.0033209198 0.0 0.0
0.0 0.0 0.0 0.0
00000000: d4d5 193f 34f7 ebbe df6a 453d 9cbc e63e
00000010: 8ec1 dc3d caa3 593b 0000 0000 0000 0000
00000020: 0000 0000 0000 0000 0000 0000 0000 0000

naim.embeddings.4.embeddings.weight f4 [2, 6]
-0.47531483 -0.24903096 -0.19531159 0.13666694 0.06979188 0.013723481 0.0 0.0
0.0 0.0 0.0 0.0
00000000: 775c f3be f901 7fbe c3ff 47be 6bf2 0b3e
00000010: 0cef 8e3d 74d8 603c 0000 0000 0000 0000
00000020: 0000 0000 0000 0000 0000 0000 0000 0000

naim.embeddings.5.embeddings.weight f4 [2, 6]
-0.33339894 0.03299275 0.5971335 0.32381064 -0.522596 0.057803098 0.0 0.0
0.0 0.0 0.0 0.0
00000000: 44b3 aabe 6823 073d bedd 183f 82ca a53e
00000010: dac8 05bf f1c2 6c3d 0000 0000 0000 0000
00000020: 0000 0000 0000 0000 0000 0000 0000 0000

naim.embeddings.6.embeddings.weight f4 [2, 6]
-0.48722777 -0.07785556 -0.109304875 -0.231739 0.13215053 0.7060802 0.0 0.0
0.0 0.0 0.0 0.0
00000000: eb75 f9be bc72 9fbd 3cdb dfbd fd4c 6dbe
00000010: 7852 073e acc1 343f 0000 0000 0000 0000
00000020: 0000 0000 0000 0000 0000 0000 0000 0000

naim.embeddings.7.embeddings.weight f4 [2, 6]
-0.38391298 -0.007959865 0.08774518 -0.66410065 -0.054153536 0.5433993 0.0 0.0
0.0 0.0 0.0 0.0
00000000: 3e90 c4be 186a 02bc bfb3 b33d 8002 2abf
00000010: 19d0 5dbd 371c 0b3f 0000 0000 0000 0000
00000020: 0000 0000 0000 0000 0000 0000 0000 0000

naim.embeddings.8.embeddings.weight f4 [2, 6]
0.5778695 -0.114096574 0.2347962 -0.55432695 -0.19007033 0.21860224 0.0 0.0
0.0 0.0 0.0 0.0
00000000: 41ef 133f 77ab e9bd 6a6e 703e 5fe8 0dbf
00000010: cca1 42be 44d9 5f3e 0000 0000 0000 0000
00000020: 0000 0000 0000 0000 0000 0000 0000 0000

naim.embeddings.9.embeddings.weight f4 [2, 6]
0.41062507 -0.23967616 0.054160114 -0.36853477 -0.57061374 0.001598229 0.0 0.0
0.0 0.0 0.0 0.0
00000000: 733d d23e ab6d 75be ffd6 5d3d 97b0 bcbe
00000010: be13 12bf ab7b d13a 0000 0000 0000 0000
00000020: 0000 0000 0000 0000 0000 0000 0000 0000

naim.embeddings.10.embeddings.weight f4 [2, 6]
0.10693124 0.11226585 0.21373811 0.23600425 0.004508959 0.4192225 0.0 0.0
0.0 0.0 0.0 0.0
00000000: c4fe da3d a3eb e53d 2ade 5a3e 19ab 713e
00000010: e4bf 933b 55a4 d63e 0000 0000 0000 0000
00000020: 0000 0000 0000 0000 0000 0000 0000 0000

naim.embeddings.11.embeddings.weight f4 [2, 6]
0.16047834 -0.10726361 -0.472216 -0.47044754 -0.026941564 -0.26513773 0.0 0.0
0.0 0.0 0.0 0.0
00000000: 6f54 243e 06ad dbbd 4cc6 f1be 80de f0be
00000010: 8eb4 dcbc 22c0 87be 0000 0000 0000 0000
00000020: 0000 0000 0000 0000 0000 0000 0000 0000

naim.embeddings.12.embeddings.weight f4 [2, 6]
0.16464001 -0.23362036 0.06934844 0.4123651 0.46930343 0.10421428 0.0 0.0
0.0 0.0 0.0 0.0
00000000: 6497 283e 2d3a 6fbe 8e06 8e3d 8521 d33e
00000010: 8a48 f03e 4c6e d53d 0000 0000 0000 0000
00000020: 0000 0000 0000 0000 0000 0000 0000 0000

naim.embeddings.13.embeddings.weight f4 [2, 6]
-0.2370905 -0.07330288 -0.27778915 0.60157824 -0.19020489 0.26715547 0.0 0.0
0.0 0.0 0.0 0.0
00000000: dac7 72be d21f 96bd 613a 8ebe 0801 1a3f
00000010: 12c5 42be 9ac8 883e 0000 0000 0000 0000
00000020: 0000 0000 0000 0000 0000 0000 0000 0000

naim.embeddings.14.embeddings.weight f4 [2, 6]
0.17109725 0.62018025 -0.1468004 0.0879373 0.5826286 0.017123051 0.0 0.0
0.0 0.0 0.0 0.0
00000000: 1e34 2f3e 22c4 1e3f d852 16be 7918 b43d
00000010: 2627 153f a445 8c3c 0000 0000 0000 0000
00000020: 0000 0000 0000 0000 0000 0000 0000 0000

naim.embeddings.15.embeddings.weight f4 [2, 6]
-0.5839956 0.31610346 0.067744784 -0.2678469 -0.18602316 0.5141997 0.0 0.0
0.0 0.0 0.0 0.0
00000000: bc80 15bf 50d8 a13e c7bd 8a3d 3b23 89be
00000010: db7c 3ebe 97a2 033f 0000 0000 0000 0000
00000020: 0000 0000 0000 0000 0000 0000 0000 0000

naim.embeddings.16.embeddings.weight f4 [2, 6]
0.50650966 0.089840345 0.070833795 -0.2976444 0.13136904 0.39199743 0.0 0.0
0.0 0.0 0.0 0.0
00000000: 9eaa 013f 37fe b73d 4f11 913d d964 98be
00000010: 9b85 063e e3b3 c83e 0000 0000 0000 0000
00000020: 0000 0000 0000 0000 0000 0000 0000 0000

naim.embeddings.17.embeddings.weight f4 [2, 6]
0.108478196 0.16057102 0.12591864 -0.46174845 0.2712036 -0.28008458 0.0 0.0
0.0 0.0 0.0 0.0
00000000: d129 de3d bb6c 243e d1f0 003e 4b6a ecbe
00000010: 33db 8a3e 3f67 8fbe 0000 0000 0000 0000
00000020: 0000 0000 0000 0000 0000 0000 0000 0000

naim.embeddings.18.embeddings.weight f4 [2, 6]
-0.53958726 -0.4298696 -0.28651917 0.5336503 -0.034915138 -0.021102773 0.0 0.0
0.0 0.0 0.0 0.0
00000000: 6422 0abf de17 dcbe a4b2 92be 4e9d 083f
00000010: 2d03 0fbd b9df acbc 0000 0000 0000 0000
00000020: 0000 0000 0000 0000 0000 0000 0000 0000

naim.embeddings.19.embeddings.weight f4 [2, 6]
0.4962398 -0.23614861 0.25997287 -0.19255233 -0.09879455 0.080334276 0.0 0.0
0.0 0.0 0.0 0.0
00000000: 2513 fe3e f1d0 71be 2a1b 853e 702c 45be
00000010: cc54 cabd 4c86 a43d 0000 0000 0000 0000
00000020: 0000 0000 0000 0000 0000 0000 0000 0000

naim.embeddings.20.embeddings.weight f4 [2, 6]
0.2688875 0.13508673 -0.3161422 -0.46489418 -0.12130811 0.23438336 0.0 0.0
0.0 0.0 0.0 0.0
00000000: 9fab 893e 2d54 0a3e 64dd a1be 9c06 eebe
00000010: 6370 f8bd 3102 703e 0000 0000 0000 0000
00000020: 0000 0000 0000 0000 0000 0000 0000 0000

naim.embeddings.21.embeddings.weight f4 [2, 6]
0.07061474 -0.0003645223 0.11786988 -0.052588142 0.01862284 -0.14245664 0.0 0.0
0.0 0.0 0.0 0.0
00000000: 769e 903d 5b1d bfb9 c365 f13d aa66 57bd
00000010: ed8e 983c 27e0 11be 0000 0000 0000 0000
00000020: 0000 0000 0000 0000 0000 0000 0000 0000

naim.embeddings.22.embeddings.weight f4 [2, 6]
0.32026127 -0.21230873 -0.036198955 0.5367371 0.3909533 -0.17906 0.0 0.0
0.0 0.0 0.0 0.0
00000000: 49f9 a33e 7667 59be 5b45 14bd 9a67 093f
00000010: 082b c83e 815b 37be 0000 0000 0000 0000
00000020: 0000 0000 0000 0000 0000 0000 0000 0000

naim.embeddings.23.embeddings.weight f4 [2, 6]
0.19766894 0.004766987 -0.3218162 0.783312 -0.04759701 -0.2265119 0.0 0.0
0.0 0.0 0.0 0.0
00000000: ba69 4a3e 6334 9c3b 18c5 a4be 2387 483f
00000010: 15f5 42bd bcf2 67be 0000 0000 0000 0000
00000020: 0000 0000 0000 0000 0000 0000 0000 0000

naim.embeddings.24.embeddings.weight f4 [2, 6]
0.008787644 0.13613237 -0.17411278 0.37566555 -0.7973478 0.047658943 0.0 0.0
0.0 0.0 0.0 0.0
00000000: 0dfa 0f3c 4966 0b3e 9f4a 32be 3c57 c03e
00000010: fc1e 4cbf 0636 433d 0000 0000 0000 0000
00000020: 0000 0000 0000 0000 0000 0000 0000 0000

naim.embeddings.25.embeddings.weight f4 [2, 6]
0.3655875 -0.13206452 0.7122629 0.4569552 0.09142025 0.054342605 0.0 0.0
0.0 0.0 0.0 0.0
00000000: 492e bb3e ec3b 07be dd56 363f 08f6 e93e
00000010: 8a3a bb3d 5a96 5e3d 0000 0000 0000 0000
00000020: 0000 0000 0000 0000 0000 0000 0000 0000

naim.embeddings.26.embeddings.weight f4 [2, 6]
0.18665096 -0.44300312 -0.47306427 0.2792928 0.38896626 0.29561347 0.0 0.0
0.0 0.0 0.0 0.0
00000000: 6e21 3f3e 4ed1 e2be 7b35 f2be 77ff 8e3e
00000010: 9626 c73e a65a 973e 0000 0000 0000 0000
00000020: 0000 0000 0000 0000 0000 0000 0000 0000

naim.embeddings.27.embeddings.weight f4 [2, 6]
-0.100270726 0.33040217 -0.47651896 -0.4938528 -0.10383364 0.037086293 0.0 0.0
0.0 0.0 0.0 0.0
00000000: bd5a cdbd 792a a93e 4bfa f3be 46da fcbe
00000010: bba6 d4bd cce7 173d 0000 0000 0000 0000
00000020: 0000 0000 0000 0000 0000 0000 0000 0000

naim.embeddings.28.embeddings.weight f4 [2, 6]
-0.19805731 0.20139621 -0.16712897 -0.3174586 0.14316405 -0.09488663 0.0 0.0
0.0 0.0 0.0 0.0
00000000: 89cf 4abe cf3a 4e3e db23 2bbe ef89 a2be
00000010: 9999 123e ec53 c2bd 0000 0000 0000 0000
00000020: 0000 0000 0000 0000 0000 0000 0000 0000

naim.embeddings.29.embeddings.weight f4 [2, 6]
-0.48813686 -0.017060677 0.6071292 -0.1832789 0.05833128 -0.31556264 0.0 0.0
0.0 0.0 0.0 0.0
00000000: 13ed f9be d5c2 8bbc d26c 1b3f 77ad 3bbe
00000010: c8ec 6e3d 6d91 a1be 0000 0000 0000 0000
00000020: 0000 0000 0000 0000 0000 0000 0000 0000

naim.embeddings.30.embeddings.weight f4 [2, 6]
-0.133187 0.2205316 0.30071273 -0.27453288 -0.031156914 -0.3644805 0.0 0.0
0.0 0.0 0.0 0.0
00000000: 2c62 08be 09d3 613e 05f7 993e 938f 8cbe
00000010: c93c ffbc 309d babe 0000 0000 0000 0000
00000020: 0000 0000 0000 0000 0000 0000 0000 0000

naim.embeddings.31.embeddings.weight f4 [2, 6]
0.34825256 -0.20734048 -0.041934043 -0.094609365 -0.22855623 -0.25673872 0.0 0.0
0.0 0.0 0.0 0.0
00000000: 294e b23e 1051 54be 08c3 2bbd 8ec2 c1bd
00000010: a50a 6abe 4273 83be 0000 0000 0000 0000
00000020: 0000 0000 0000 0000 0000 0000 0000 0000

naim.embeddings.32.embeddings.weight f4 [2, 6]
0.10054452 0.3041967 -0.31767324 -0.72948563 0.27040446 -0.1749669 0.0 0.0
0.0 0.0 0.0 0.0
00000000: 49ea cd3d abbf 9b3e 11a6 a2be 92bf 3abf
00000010: 7472 8a3e 862a 33be 0000 0000 0000 0000
00000020: 0000 0000 0000 0000 0000 0000 0000 0000

naim.embeddings.33.embeddings.weight f4 [2, 6]
-0.15963894 -0.13515764 -0.36055574 -0.21819045 -0.29517972 0.6762372 0.0 0.0
0.0 0.0 0.0 0.0
00000000: 6478 23be c466 0abe c39a b8be 516d 5fbe
00000010: cc21 97be e21d 2d3f 0000 0000 0000 0000
00000020: 0000 0000 0000 0000 0000 0000 0000 0000

naim.embeddings.34.embeddings.weight f4 [2, 6]
-0.17910591 0.1077715 0.5035928 -0.0411595 -0.24913852 0.05382509 0.0 0.0
0.0 0.0 0.0 0.0
00000000: 8a67 37be 4eb7 dc3d 75eb 003f dd96 28bd
00000010: 2b1e 7fbe b377 5c3d 0000 0000 0000 0000
00000020: 0000 0000 0000 0000 0000 0000 0000 0000

naim.embeddings.35.embeddings.weight f4 [2, 6]
0.1715446 -0.12583601 0.28730324 0.3313872 0.36958444 -0.50258625 0.0 0.0
0.0 0.0 0.0 0.0
00000000: 63a9 2f3e 28db 00be 6919 933e 95ab a93e
00000010: 2c3a bd3e 7ea9 00bf 0000 0000 0000 0000
00000020: 0000 0000 0000 0000 0000 0000 0000 0000

naim.embeddings.36.embeddings.weight f4 [2, 6]
-0.12679762 0.3648327 -0.49553436 -0.012660552 -0.034948412 0.12182169 0.0 0.0
0.0 0.0 0.0 0.0
00000000: 3cd7 01be 5acb ba3e aeb6 fdbe 346e 4fbc
00000010: 1126 0fbd a67d f93d 0000 0000 0000 0000
00000020: 0000 0000 0000 0000 0000 0000 0000 0000

naim.embeddings.37.embeddings.weight f4 [2, 6]
0.0027719785 -0.35526982 -0.12764566 -0.07570503 0.2320153 0.1197181 0.0 0.0
0.0 0.0 0.0 0.0
00000000: 15aa 353b ede5 b5be 8bb5 02be 3d0b 9bbd
00000010: 6b95 6d3e c32e f53d 0000 0000 0000 0000
00000020: 0000 0000 0000 0000 0000 0000 0000 0000

naim.embeddings.38.embeddings.weight f4 [2, 6]
0.003676933 -0.049461637 0.02649008 0.31336024 -0.11469136 0.14635365 0.0 0.0
0.0 0.0 0.0 0.0
00000000: b3f8 703b 4998 4abd b901 d93c c170 a03e
00000010: 4ee3 eabd bbdd 153e 0000 0000 0000 0000
00000020: 0000 0000 0000 0000 0000 0000 0000 0000

naim.embeddings.39.embeddings.weight f4 [2, 6]
-0.059425574 -0.26838747 0.48219758 -0.5957911 0.19956556 0.33940992 0.0 0.0
0.0 0.0 0.0 0.0
00000000: 3b68 73bd 156a 89be 9ae2 f63e c485 18bf
00000010: ea5a 4c3e 23c7 ad3e 0000 0000 0000 0000
00000020: 0000 0000 0000 0000 0000 0000 0000 0000

naim.embeddings.40.embeddings.weight f4 [2, 6]
-0.06663716 0.20730254 0.13850518 -0.15013416 -0.052527443 -0.33332163 0.0 0.0
0.0 0.0 0.0 0.0
00000000: 1079 88bd 1e47 543e 4dd4 0d3e c5bc 19be
00000010: 0427 57bd 22a9 aabe 0000 0000 0000 0000
00000020: 0000 0000 0000 0000 0000 0000 0000 0000

naim.embeddings.41.embeddings.weight f4 [2, 6]
-0.093642905 -0.1791748 0.30054733 0.15622391 0.36510837 0.53849065 0.0 0.0
0.0 0.0 0.0 0.0
00000000: dac7 bfbd 9979 37be 57e1 993e 29f9 1f3e
00000010: 7cef ba3e 86da 093f 0000 0000 0000 0000
00000020: 0000 0000 0000 0000 0000 0000 0000 0000

naim.embeddings.42.embeddings.weight f4 [2, 6]
-0.26812974 0.687851 0.20748241 0.36579573 0.08004548 -0.15121594 0.0 0.0
0.0 0.0 0.0 0.0
00000000: 4d48 89be 0117 303f 4576 543e 9449 bb3e
00000010: e2ee a33d 5ad8 1abe 0000 0000 0000 0000
00000020: 0000 0000 0000 0000 0000 0000 0000 0000

naim.embeddings.43.embeddings.weight f4 [2, 6]
-0.19673629 0.008593898 0.6262965 0.4378923 0.33211502 -0.08216887 0.0 0.0
0.0 0.0 0.0 0.0
00000000: 3d75 49be 6ccd 0c3c f854 203f 6b33 e03e
00000010: fb0a aa3e 2748 a8bd 0000 0000 0000 0000
00000020: 0000 0000 0000 0000 0000 0000 0000 0000

naim.embeddings.44.embeddings.weight f4 [2, 6]
-0.021565013 0.2717999 0.19377862 -0.34014156 0.123696335 0.50167656 0.0 0.0
0.0 0.0 0.0 0.0
00000000: 1ca9 b0bc 5b29 8b3e e76d 463e 0927 aebe
00000010: 8154 fd3d e06d 003f 0000 0000 0000 0000
00000020: 0000 0000 0000 0000 0000 0000 0000 0000

naim.embeddings.45.embeddings.weight f4 [2, 6]
-0.44843552 -0.57634056 -0.31229776 0.13310426 -0.4571508 -0.15152062 0.0 0.0
0.0 0.0 0.0 0.0
00000000: 5799 e5be 0e8b 13bf 7ee5 9fbe 7c4c 083e
00000010: ab0f eabe 3928 1bbe 0000 0000 0000 0000
00000020: 0000 0000 0000 0000 0000 0000 0000 0000

naim.embeddings.46.embeddings.weight f4 [2, 6]
-0.055806644 0.096884355 0.29656714 -0.10612599 0.13355285 0.1917558 0.0 0.0
0.0 0.0 0.0 0.0
00000000: 8295 64bd 4e6b c63d a6d7 973e 9558 d9bd
00000010: 14c2 083e a25b 443e 0000 0000 0000 0000
00000020: 0000 0000 0000 0000 0000 0000 0000 0000

naim.embeddings.47.embeddings.weight f4 [2, 6]
0.26856697 -0.088216856 -0.4847908 -0.20764627 0.25195915 -0.26266617 0.0 0.0
0.0 0.0 0.0 0.0
00000000: 9c81 893e 0aab b4bd 8036 f8be 39a1 54be
00000010: ca00 813e 2e7c 86be 0000 0000 0000 0000
00000020: 0000 0000 0000 0000 0000 0000 0000 0000

naim.embeddings.48.embeddings.weight f4 [2, 6]
0.018216545 0.25030428 0.06948901 0.32549042 0.6687005 0.36756992 0.0 0.0
0.0 0.0 0.0 0.0
00000000: dd3a 953c e227 803e 4150 8e3d aea6 a63e
00000010: f52f 2b3f 2032 bc3e 0000 0000 0000 0000
00000020: 0000 0000 0000 0000 0000 0000 0000 0000

naim.embeddings.49.embeddings.weight f4 [2, 6]
-0.24637339 0.24412695 0.2833331 -0.115104474 -0.37155253 0.40523192 0.0 0.0
0.0 0.0 0.0 0.0
00000000: 4e49 7cbe 6afc 793e 0911 913e e5bb ebbd
00000010: 223c bebe 8f7a cf3e 0000 0000 0000 0000
00000020: 0000 0000 0000 0000 0000 0000 0000 0000

naim.embeddings.50.embeddings.weight f4 [2, 6]
0.49248067 0.35056365 -0.10241712 -0.17552288 -0.10449165 -0.5301088 0.0 0.0
0.0 0.0 0.0 0.0
00000000: 6d26 fc3e 147d b33e 11c0 d1bd 45bc 33be
00000010: b8ff d5bd 36b5 07bf 0000 0000 0000 0000
00000020: 0000 0000 0000 0000 0000 0000 0000 0000

naim.embeddings.51.embeddings.weight f4 [2, 6]
0.03850615 0.15562555 0.50579256 -0.6224636 0.32819274 -0.13364199 0.0 0.0
0.0 0.0 0.0 0.0
00000000: a0b8 1d3d 4e5c 1f3e 9f7b 013f c659 1fbf
00000010: e108 a83e 72d9 08be 0000 0000 0000 0000
00000020: 0000 0000 0000 0000 0000 0000 0000 0000

naim.embeddings.52.embeddings.weight f4 [2, 6]
0.27278525 -0.21521603 -0.22567031 -0.21808118 0.07828267 -0.3493504 0.0 0.0
0.0 0.0 0.0 0.0
00000000: 82aa 8b3e 9761 5cbe 1e16 67be ac50 5fbe
00000010: aa52 a03d 0ede b2be 0000 0000 0000 0000
00000020: 0000 0000 0000 0000 0000 0000 0000 0000

naim.embeddings.53.embeddings.weight f4 [2, 6]
-0.24735747 -0.14637047 0.14855947 -0.05371363 0.8560505 -0.007820733 0.0 0.0
0.0 0.0 0.0 0.0
00000000: 474b 7dbe 24e2 15be f91f 183e d302 5cbd
00000010: 2026 5b3f 8822 00bc 0000 0000 0000 0000
00000020: 0000 0000 0000 0000 0000 0000 0000 0000

naim.embeddings.54.embeddings.weight f4 [2, 6]
0.1908016 0.485184 0.38531432 0.16762252 -0.5701245 0.10156746 0.0 0.0
0.0 0.0 0.0 0.0
00000000: 7f61 433e 0a6a f83e eb47 c53e 3da5 2b3e
00000010: aef3 11bf 9a02 d03d 0000 0000 0000 0000
00000020: 0000 0000 0000 0000 0000 0000 0000 0000

naim.embeddings.55.embeddings.weight f4 [2, 6]
0.320927 -0.2886874 -0.5450547 0.54243743 -0.08176972 -0.15425768 0.0 0.0
0.0 0.0 0.0 0.0
00000000: 8b50 a43e d6ce 93be b488 0bbf 2edd 0a3f
00000010: e276 a7bd baf5 1dbe 0000 0000 0000 0000
00000020: 0000 0000 0000 0000 0000 0000 0000 0000

naim.embeddings.56.embeddings.weight f4 [2, 6]
-0.38736117 -0.44294354 0.17095363 -0.063713975 -0.39994073 -0.058558274 0.0 0.0
0.0 0.0 0.0 0.0
00000000: 3454 c6be 7fc9 e2be 780e 2f3e 797c 82bd
00000010: 08c5 ccbe cdda 6fbd 0000 0000 0000 0000
00000020: 0000 0000 0000 0000 0000 0000 0000 0000

naim.embeddings.57.embeddings.weight f4 [2, 6]
0.4223053 -0.29577807 -0.2017924 0.27225417 0.68004704 -0.0074984413 0.0 0.0
0.0 0.0 0.0 0.0
00000000: 6638 d83e 3970 97be aba2 4ebe e664 8b3e
00000010: 9017 2e3f 7cb5 f5bb 0000 0000 0000 0000
00000020: 0000 0000 0000 0000 0000 0000 0000 0000

naim.embeddings.58.embeddings.weight f4 [2, 6]
-0.1117411 0.016686749 0.051581554 -0.060838524 0.0935917 -0.25014842 0.0 0.0
0.0 0.0 0.0 0.0
00000000: 85d8 e4bd a6b2 883c 2e47 533d d131 79bd
00000010: 01ad bf3d 7413 80be 0000 0000 0000 0000
00000020: 0000 0000 0000 0000 0000 0000 0000 0000

naim.embeddings.59.embeddings.weight f4 [2, 6]
0.30883414 -0.16028073 -0.23767528 0.6499796 0.25013986 0.38951784 0.0 0.0
0.0 0.0 0.0 0.0
00000000: 821f 9e3e a220 24be 2661 73be 1065 263f
00000010: 5512 803e e26e c73e 0000 0000 0000 0000
00000020: 0000 0000 0000 0000 0000 0000 0000 0000

naim.embeddings.60.embeddings.weight f4 [2, 6]
-0.48731452 -0.03898652 0.04518586 0.4783426 0.24235976 0.33416143 0.0 0.0
0.0 0.0 0.0 0.0
00000000: 4a81 f9be 54b0 1fbd cf14 393d 52e9 f43e
00000010: 282d 783e 3517 ab3e 0000 0000 0000 0000
00000020: 0000 0000 0000 0000 0000 0000 0000 0000

naim.embeddings.61.embeddings.weight f4 [2, 6]
-0.22160439 0.044427786 0.12506522 -0.06849233 0.20107988 -0.109623685 0.0 0.0
0.0 0.0 0.0 0.0
00000000: 43ec 62be e9f9 353d 1911 003e b545 8cbd
00000010: e2e7 4d3e 6282 e0bd 0000 0000 0000 0000
00000020: 0000 0000 0000 0000 0000 0000 0000 0000

naim.embeddings.62.embeddings.weight f4 [2, 6]
0.2690337 0.13206817 -0.67321926 -0.057980582 -0.34973636 -0.4481453 0.0 0.0
0.0 0.0 0.0 0.0
00000000: c9be 893e e13c 073e 1958 2cbf 0c7d 6dbd
00000010: a510 b3be 4d73 e5be 0000 0000 0000 0000
00000020: 0000 0000 0000 0000 0000 0000 0000 0000

naim.embeddings.63.embeddings.weight f4 [2, 6]
0.7150127 0.29127696 -0.2811657 0.16430084 -0.19976084 -0.15352412 0.0 0.0
0.0 0.0 0.0 0.0
00000000: 130b 373f 4122 953e f3f4 8fbe 7b3e 283e
00000010: 1b8e 4cbe 6d35 1dbe 0000 0000 0000 0000
00000020: 0000 0000 0000 0000 0000 0000 0000 0000

naim.encoder.0.layer_norm_1.weight f4 [6]
0.9440247 0.9256467 0.95057243 0.99182034 0.9511837 0.9579926
00000000: 9aab 713f 2ff7 6c3f b758 733f f0e7 7d3f
00000010: c680 733f 013f 753f

naim.encoder.0.layer_norm_1.bias f4 [6]
-0.012953077 0.012044988 -0.018261328 0.017673459 -0.009460649 0.0026927078
00000000: 2539 54bc 5758 453c c898 95bc eec7 903c
00000010: d700 1bbc 2478 303b

naim.encoder.0.attn.linear_q.weight f4 [6, 6]
-0.05957957 0.013484444 -0.056566186 -0.32698056 -0.025205307 0.15077624 -0.04404907 -0.15326686
0.0062826225 0.07925664 -0.08008625 -0.26090616 -0.14465968 -0.011040844 0.0772197 0.28739148
0.008037524 0.0758956 0.15955234 -0.15471001 -0.08976872 0.21278092 0.23652491 0.07361006
-0.24535656 0.16227047 -0.26317963 0.13677703 0.0051394263 0.081279494 -0.32156554 -0.07353597
0.102028206 0.2392679 -0.050865762 0.28757516
00000000: b509 74bd dbed 5c3c f2b1 67bd ff69 a7be
00000010: 5c7b cebc 1665 1a3e cc6c 34bd fdf1 1cbe
00000020: 75de cd3b 4e51 a23d 4304 a4bd 7e95 85be
00000030: ab21 14be a8e4 34bc 5d25 9e3d fa24 933e
00000040: d2af 033c 276f 9b3d b061 233e 4d6c 1ebe
00000050: aad8 b7bd 3ee3 593e 9633 723e dfc0 963d
00000060: c03e 7bbe 3b2a 263e 7bbf 86be 470f 0c3e
00000070: a268 a83b dd75 a63d 3da4 a4be 079a 96bd
00000080: 2af4 d03d a502 753e 9e58 50bd 0d3d 933e

naim.encoder.0.attn.linear_k.weight f4 [6, 6]
-0.05105171 -0.17728935 -0.119730204 0.028686829 -0.031019347 0.13308175 -0.15277755 -0.07105051
-0.33143976 0.26923507 -0.051308364 -0.2489671 -0.025809707 0.006516923 0.05423907 0.0026779717
0.18037795 -0.06804955 -0.08003077 -0.056660872 0.0277924 0.28887534 -0.02570907 0.24541046
0.24830846 -0.14980933 -0.003032303 -0.12279394 0.10559379 -0.08802899 0.07066452 -0.0227049
-0.19341753 -0.19850956 -0.32226586 -0.17913716
00000000: 991b 51bd 578b 35be 1c35 f5bd a400 eb3c
00000010: 491c febc 9546 083e b871 1cbe ee82 91bd
00000020: 79b2 a9be 2ed9 893e b828 52bd 3bf1 7ebe
00000030: e16e d3bc ea8b d53b c929 5e3d e980 2f3b
00000040: ffb4 383e 905d 8bbd 2ce7 a3bd 3b15 68bd
00000050: e3ac e33c 78e7 933e d49b d2bc e14c 7b3e
00000060: 9344 7e3e 9e67 19be 9ab9 46bb 647b fbbd
00000070: 8f41 d83d 8b48 b4bd 8fb8 903d a0ff b9bc
00000080: 3f0f 46be 1746 4bbe 0800 a5be bb6f 37be

naim.encoder.0.attn.linear_v.weight f4 [6, 6]
0.10102632 0.04102033 0.29934824 -0.35431772 -0.009220492 -0.3519888 -0.017328385 0.109229095
-0.36694285 0.3660838 -0.09082487 0.3583959 -0.035009395 0.18278608 0.35942122 -0.13992113
-0.10309459 0.20684403 -0.3421763 0.1774699 -0.25752008 0.38805142 -0.26344454 -0.12756102
0.2951762 -0.1869058 0.2987047 0.273321 0.3606214 -0.38707012 -0.010214596 -0.09387625
0.10343 -0.30903497 0.16533552 -0.013487956
00000000: e3e6 ce3d ef04 283d 2c44 993e 2269 b5be
00000010: 8c11 17bc e037 b4be 42f4 8dbc 81b3 df3d
00000020: efdf bbbe 566f bb3e 6402 babd ab7f b73e
00000030: 0366 0fbd 462c 3b3e 0f06 b83e 7c47 0fbe
00000040: 4223 d3bd ecce 533e bb31 afbe abba 353e
00000050: acd9 83be adae c63e 34e2 86be 5b9f 02be
00000060: 5621 973e 3c64 3fbe d3ef 983e bbf0 8b3e
00000070: 5ea3 b83e 0e2e c6be 1f5b 27bc 3142 c0bd
00000080: 1cd3 d33d d539 9ebe b74d 293e 96fc 5cbc

naim.encoder.0.attn.linear_o.weight f4 [6, 6]
-0.12299225 -0.29262546 0.14039844 -0.08035382 0.22595614 0.01623361 0.05737781 -0.009437494
-0.0066932645 -0.070461065 -0.27825722 0.18305035 -0.24764003 0.23791753 -0.12935473 0.25303003
0.34960416 -0.23702417 0.34349373 0.019906877 -0.29448333 0.17738932 0.23212229 0.36508054
-0.3615804 0.37880924 0.31898317 0.408627 0.23498866 -0.17135143 0.3065476 0.36975998
-0.15009114 -0.06069716 0.3143499 0.32311592
00000000: 5ce3 fbbd 01d3 95be 9cc4 0f3e 8b90 a4bd
00000010: 0c61 673e 59fc 843c ff04 6b3d b89f 1abc
00000020: 2c53 dbbb e44d 90bd bb77 8ebe 8d71 3b3e
00000030: 5995 7dbe a7a0 733e 9175 04be 278d 813e
00000040: 51ff b23e 77b6 72be 69de af3e bf13 a33c
00000050: 85c6 96be 8ca5 353e 77b1 6d3e d6eb ba3e
00000060: 1121 b9be 49f3 c13e c351 a33e 8f37 d13e
00000070: dea0 703e c076 2fbe cff3 9c3e 2e51 bd3e
00000080: 7eb1 19be 969d 78bd 78f2 a03e 736f a53e

naim.encoder.0.layer_norm_2.weight f4 [6]
0.9925779 0.966855 0.9638341 0.9763114 0.9773775 0.97217566
00000000: 9619 7e3f cf83 773f d5bd 763f 8bef 793f
00000010: 6935 7a3f 81e0 783f

naim.encoder.0.layer_norm_2.bias f4 [6]
-0.0013940297 0.008661422 -0.00283851 -0.000817799 0.0011198608 0.0018850111
00000000: e0b7 b6ba a3e8 0d3c 4c06 3abb 9061 56ba
00000010: 4bc8 923a 7a12 f73a

naim.encoder.0.ff.0.weight f4 [1000, 6]
0.20289578 0.24092714 -0.14905907 -0.036314115 -0.09967481 0.14951311 0.04882856 -0.2505967
-0.019145578 -0.26024005 -0.31233457 0.2987324 -0.14054418 0.13441299 -0.055702806 -0.041741636
0.018214421 0.25890723 -0.014660716 0.2629288 0.16972807 0.2066778 -0.2964433 -0.120884046
-0.26368716 -0.07498342 -0.061608538 0.05163203 0.32810917 0.15074368 -0.21735802 -0.21676841
0.24332365 0.02053633 0.08701218 -0.17160301 -0.025453709 0.08057468 -0.20304714 0.19494018
0.14892465 -0.17372437 -0.1044445 -0.0769235 0.039885927 -0.089644894 0.34334075 -0.3348623
-0.17087357 -0.21476889 0.07934076 0.027926786 -0.09596863 0.29880655 -0.2818307 0.08184175
-0.16804388 -0.033505123 -0.32328552 -0.23318613 -0.2737915 0.11126061 -0.08817115 0.14584884
-0.15115373 -0.053701866 0.022172263 0.2790174 -0.06182257 0.16547087 0.07802498 0.18642454
0.19461592 0.13329965 -0.07308956 -0.068834566 0.11926853 0.16654712 -0.001696971 0.13456637
-0.17635533 0.1593882 -0.006465611 -0.20729983 -0.12655924 -0.2559939 0.042883616 -0.17023909
-0.07834393 -0.012331083 -0.17854966 0.013526947 -0.017283846 0.06777257 0.22496095 -0.17494187
0.15571232 -0.01088751 -0.1788705 -0.12111079 0.082734354 0.06320435 -0.009725763 -0.14180505
0.14442825 0.022584634 -0.32523867 -0.029974626 -0.0516922 -0.14108138 -0.16857424 -0.25603187
0.34575707 -0.31143838 0.30894402 -0.27176514 -0.069360964 -0.108438596 -0.17524087 0.10582067
0.16990054 -0.23106411 -0.13804546 0.14503089 -0.037845552 0.071515426 0.14290147 -0.08533324
-0.1555183 0.083513625 -0.08393033 -0.19784111 -0.14123528 -0.15827267 0.33803874 0.036607426
0.14189552 0.040092662 -0.20165572 0.22026856 -0.013858905 -0.042655457 0.2583362 -0.13645646
0.03639277 -0.28043154 0.14266805 0.10049043 -0.2647638 0.16143578 0.026639309 -0.1574168
0.27905527 0.118467815 0.096262656 -0.10232492 -0.16925313 -0.19444151 0.123414345 0.07600943
-0.21623616 0.32752398 0.16782732 -0.12736979 0.15466999 -0.106518045 0.09858274 0.2794444
-0.28836113 -0.13652836 -0.004199855 0.023137055 -0.26293918 -0.19371144 -0.026642278 -0.04663433
0.066553876 0.030160924 0.064032845 0.020572895 0.019458732 -0.010399824 0.08929416 0.206034
-0.13631926 -0.14293341 0.123009846 -0.25591984 0.21497788 0.12724169 0.04923612 -0.13967802
0.0034329623 -0.26777118 -0.2972542 0.31151053 -0.3048738 -0.27130497 -0.08900657 0.00064273324
0.03562941 -0.1319344 -0.007272277 -0.03387849 0.27200568 0.28166202 0.1178472 0.0031850836
0.23602867 -0.25582778 0.10203636 -0.16550413 0.24450691 -0.28580108 0.082306236 -0.26110414
0.17576589 0.061719555 0.2915289 -0.24126649 0.22595249 -0.22831576 -0.15232043 0.08753075
-0.02720186 -0.24826808 -0.2734262 -0.051626626 0.057865955 0.2836563 0.23053695 0.0011343599
-0.17867802 -0.28964332 0.29294068 -0.17769329 -0.036607742 -0.25631344 -0.22462514 0.04322913
-0.039446864 0.0034595563 -5.266126e-05 0.000172984 -0.02309365 -0.00051587436 0.11697642 0.22470121
0.2723642 -0.25812548 -0.2742185 -0.03441547 -0.020671852 0.1607801 0.30957854 0.06445013
00000000: e9c3 4f3e 9bb5 763e f1a2 18be 1cbe 14bd
00000010: 4f22 ccbd f719 193e 7500 483d 364e 80be
00000020: 30d7 9cbc 2f3e 85be 51ea 9fbe 74f3 983e
00000030: d0ea 0fbe 8fa3 093e a028 64bd 47f9 2abd
00000040: 6936 953c 7d8f 843e 8033 70bc 9b9e 863e
00000050: 32cd 2d3e 58a3 533e 6bc7 97be 0e92 f7bd
00000060: 0102 87be e890 99bd 3c59 7cbd 1c7c 533d
00000070: edfd a73e 8d5c 1a3e 1a93 5ebe 8af8 5dbe
00000080: d629 793e ce3b a83c 7133 b23d b3b8 2fbe
00000090: 4c84 d0bc 5604 a53d 97eb 4fbe 669e 473e
000000a0: b47f 183e cde4 31be ffe6 d5bd 118a 9dbd
000000b0: 6d5f 233d be97 b7bd 5cca af3e 1273 abbe
000000c0: 7bf9 2ebe 60ec 5bbe 697d a23d b7c6 e43c
000000d0: 338b c4bd 2cfd 983e 1d4c 90be a69c a73d
000000e0: b213 2cbe ab3c 09bd ae85 a5be 58c8 6ebe
000000f0: 662e 8cbe 9adc e33d 1393 b4bd 6659 153e
00000100: 0bc8 1abe 7df6 5bbd 9ba2 b53c 5edb 8e3e
00000110: aa39 7dbd 3271 293e 90cb 9f3d 13e6 3e3e
00000120: 6549 473e b47f 083e fbaf 95bd 23f9 8cbd
00000130: 0f43 f43d 548b 2a3e e66c deba c4cb 093e
00000140: 7e96 34be a936 233e 7add d3bb 6846 54be
00000150: bf98 01be a211 83be bba6 2f3d 2853 2ebe
00000160: c872 a0bd 5008 4abc b9d5 36be 21a0 5d3c
00000170: da96 8dbc 58cc 8a3d 2a5c 663e f623 33be
00000180: 0d73 1f3e 8761 32bc d429 37be ef08 f8bd
00000190: a170 a93d 4871 813d cf58 1fbc 5835 11be
000001a0: 00e5 133e 6903 b93c af85 a6be 598d f5bc
000001b0: 33bb 53bd a377 10be ba9e 2cbe 9c16 83be
000001c0: 1207 b13e da74 9fbe e92d 9e3e cd24 8bbe
000001d0: 1f0d 8ebd 0e15 debd 5872 33be 82b8 d83d
000001e0: 68fa 2d3e 129c 6cbe ca5b 0dbe fa82 143e
000001f0: f003 1bbd ae76 923d c354 123e 32c3 aebd
00000200: 3040 1fbe 3109 ab3d aae3 abbd dc96 4abe
00000210: fb9f 10be 3b12 22be 6a13 ad3e abf1 153d
00000220: 0f4d 113e 3438 243d d67e 4ebe 158e 613e
00000230: 7610 63bc 7db7 2ebd a444 843e 3ebb 0bbe
00000240: 9610 153d b994 8fbe 9317 123e edcd cd3d
00000250: 1f8f 87be 6c4f 253e ae3a da3c df31 21be
00000260: 55e0 8e3e 419f f23d 5b25 c53d ba8f d1bd
00000270: b150 2dbe ad1b 47be a9c0 fc3d d5aa 9b3d
00000280: 036d 5dbe 39b1 a73e edda 2b3e 3a6d 02be
00000290: cf61 1e3e 2226 dabd bfe5 c93d 5613 8f3e
000002a0: 12a4 93be 17ce 0bbe f09e 89bb ec89 bd3c
000002b0: f79f 86be 4b5c 46be e840 dabc a403 3fbd
000002c0: 664d 883d 0b14 f73c a723 833d 7d88 a83c
000002d0: eb67 9f3c 0664 2abc dbdf b63d 94fa 523e
000002e0: 4797 0bbe 235d 12be 96ec fb3d ed07 83be
000002f0: 2923 5c3e a54b 023e d0ab 493d c107 0fbe
00000300: 8dfb 603b 4e19 89be b431 98be 4f7e 9f3e
00000310: 6b18 9cbe 7ce8 8abe 1449 b6bd 197d 283a
00000320: 25f0 113d d019 07be 484c eebb 2cc4 0abd
00000330: 5444 8b3e 0136 903e df59 f13d d6bc 503b
00000340: 80b1 713e dcfb 82be 70f8 d03d ea79 29be
00000350: 0560 7a3e 8554 92be 2c90 a83d 71af 85be
00000360: f9fb 333e a5cd 7c3d 4743 953e 900e 77be
00000370: 1760 673e 9bcb 69be e3f9 1bbe 5243 b33d
00000380: 6fd6 debc fd39 7ebe 85fe 8bbe 7176 53bd
00000390: da04 6d3d 663b 913e e111 6c3e cdae 943a
000003a0: 5ff7 36be 214c 94be 52fc 953e 3bf5 35be
000003b0: 00f2 15bd 843b 83be 2204 66be 0711 313d
000003c0: 0993 21bd b9b9 623b 99e0 5cb8 0a63 3539
000003d0: e52e bdbc be3b 07ba 5591 ef3d 1318 663e
000003e0: 5273 8b3e 0629 84be 5e66 8cbe 3cf7 0cbd
000003f0: 0458 a9bc 8aa3 243e 1481 9e3e 6efe 833d

naim.encoder.0.ff.0.bias f4 [1000]
0.21309726 -0.1479464 -0.025688497 0.020698247 0.25179964 0.15194274 0.3337881 -0.17777115
-0.023379643 -0.005415802 0.26688874 0.331404 0.08508933 -0.25505608 -0.23394918 0.04160092
-0.30190656 -0.08831002 -0.25228992 0.16984782 -0.038535427 -0.2450859 0.22504972 -0.28696913
-0.022745928 0.3357345 0.18399455 -0.2971655 0.029810343 -0.04835518 0.12296329 0.32724506
0.2848243 -0.008977247 0.15071149 -0.32486966 0.2839008 0.16805974 -0.21474646 -0.07811277
-0.08906126 -0.17146876 0.14545244 -0.064805575 0.14273246 -0.05280855 0.270376 -0.09492292
-0.041861966 -0.07060963 0.015038157 -0.111753464 -0.22296895 -0.3146093 0.19149563 0.049567673
-0.19551255 0.1905497 0.023451354 -0.08136256 -0.009576649 0.035944108 0.25363234 -0.30220205
-0.24174525 -0.2559104 -0.24636227 0.007652163 0.16712074 0.09292975 0.13362002 0.041233175
-0.0040074848 -0.31434155 0.30537954 0.34334505 -0.006918791 0.061819598 0.047569923 0.34989348
-0.00043251063 -0.03946272 -0.15635124 0.08827007 0.15807585 -0.2701327 0.09883623 0.092958584
0.14527255 0.1355956 -0.056044824 0.043663267 -0.23595592 0.18960996 -0.27198887 -0.29786992
-0.23410763 -0.16004807 0.015237174 0.20300403 -0.015652677 0.25276655 -0.04435033 0.28760582
0.239989 0.19646056 0.114186056 -0.2272068 0.3344244 -0.31555858 -0.21879552 -0.17613989
-0.0806143 0.13084447 0.06533449 -0.29859328 0.33623868 0.33380297 0.15634997 -0.32492432
0.19529651 0.08277167 -0.028588416 -0.26619247 0.29365343 -0.09082706 -0.27612498 0.26988983
0.14023976 0.095268965 0.22697303 0.12175054 -0.06662155 -0.05186714 0.29019615 -0.00033370036
-0.28048173 -0.20893529 -0.23381352 0.023646334 0.26302898 0.21256737 0.09163172 0.11265161
-0.15488748 0.3416575 0.114971854 -0.18167752 -0.21511373 -0.29001948 -0.05784366 0.24573359
0.024532048 -0.15187146 0.10124878 -0.20980155 0.09713956 0.211044 0.15962294 -0.07334938
-0.08331729 0.13503471 0.17858928 -0.040900808 0.0037938654 -0.029136527 -0.0050361007 -0.28822923
-0.26100874 0.30040634 -0.1493217 0.2515434 0.20866 -0.046259083 -0.15612856 0.010611581
-0.052448712 -0.17037784 0.3270015 -0.0038574068 -0.047232606 -0.2102314 0.04962575 0.054635935
0.3657793 -0.06045676 0.16498573 0.018994985 0.1659192 0.0057726423 -0.019830873 0.14142203
-0.11848395 0.20078388 -0.2673992 -0.21912824 0.33093852 -0.09850844 -0.252706 -0.2257384
0.33796474 -0.02514574 -0.2682293 -0.016005153 -0.12945384 -0.20123823 -0.17258267 0.25932896
0.12760101 0.19802837 0.015035849 -0.101975374 -0.10290084 -0.20341152 -0.22437349 -0.27737665
0.03795307 0.17483793 0.30492556 -0.0028069238 -0.027490985 -0.019818446 0.122498706 -0.019930122
-0.09033975 -0.07846536 -0.32338336 -0.24571194 -0.15133603 0.017272128 -0.18412837 0.11135713
-0.15306577 0.32843608 -0.28728542 0.17937247 -0.15612234 -0.08019276 -0.33051512 -0.3047692
-0.32966414 -0.007287134 0.34034494 0.13115965 0.21795411 0.08211287 -0.101691924 -0.12002566
-0.06442709 -0.30620956 0.1876739 -0.07600791 -0.18917534 0.08219698 -0.00019549276 0.1939178
00000000: 2b36 5a3e 437f 17be af70 d2bc 5f8f a93c
00000010: e2eb 803e e196 1b3e 46e6 aa3e a409 36be
00000020: aa86 bfbc 0a77 b1bb a4a5 883e c9ad a93e
00000030: 5143 ae3d b696 82be 6090 6fbe ba65 2a3d
00000040: 7f93 9abe e2db b4bd 252c 81be 96ec 2d3e
00000050: 53d7 1dbd ccf7 7abe 6f73 663e 9eed 92be
00000060: ab55 babc 64e5 ab3e 1169 3c3e 1426 98be
00000070: d234 f43c 1510 46bd 2dd4 fb3d aa8c a73e
00000080: 7ed4 913e 4e15 13bc 1d54 1a3e 5155 a6be
00000090: 725b 913e da17 2c3e 7fe6 5bbe 97f9 9fbd
000000a0: c065 b6bd 8295 2fbe 7cf1 143e c9b8 84bd
000000b0: 7528 123e c74d 58bd b96e 8a3e f366 c2bd
000000c0: 7477 2bbd c89b 90bd 9a62 763c 00df e4bd
000000d0: f951 64be 7814 a1be 6e17 443e 7907 4b3d
000000e0: 7134 48be 761f 433e 0e1d c03c 6aa1 a6bd
000000f0: 61e7 1cbc 213a 133d 19dc 813e 3aba 9abe
00000100: 118c 77be b006 83be 6446 7cbe ffbe fa3b
00000110: b321 2b3e f451 be3d b0d3 083e 1ee4 283d
00000120: 3851 83bb 60f1 a0be b55a 9c3e ecca af3e
00000130: 07b7 e2bb 8c36 7d3d aed8 423d 3d25 b33e
00000140: 98c2 e2b9 a9a3 21bd 8a1a 20be f0c6 b43d
00000150: a3de 213e d54e 8abe a66a ca3d 1261 be3d
00000160: 54c2 143e 93d9 0a3e 428f 65bd 41d8 323d
00000170: 6e9e 71be 1d29 423e 2042 8bbe 6882 98be
00000180: e9b9 6fbe a4e3 23be 57a5 793c 4ae0 4f3e
00000190: 0b3a 80bc 9e6a 813e b1a8 35bd 1241 933e
000001a0: adbf 753e f52c 493e 61da e93d e6a8 68be
000001b0: ad39 ab3e e590 a1be ef0b 60be 045e 34be
000001c0: 1c19 a5bd 18fc 053e 17ce 853d 38e1 98be
000001d0: 7a27 ac3e 39e8 aa3e 351a 203e 7b5c a6be
000001e0: cffb 473e 3184 a93d 4132 eabc 614a 88be
000001f0: be59 963e 8a03 babd 4160 8dbe 002f 8a3e
00000200: 039b 0f3e 601c c33d 9e6b 683e 5958 f93d
00000210: e170 88bd a372 54bd 9794 943e 81f4 aeb9
00000220: 4d9b 8fbe 22f3 55be d06c 6fbe f5b5 c13c
00000230: bcab 863e 43ab 593e 69a9 bb3d e3b5 e63d
00000240: d39a 1ebe bbed ae3e 5d76 eb3d ac09 3abe
00000250: c646 5cbe 6f7d 94be 79ed 6cbd 96a1 7b3e
00000260: 6ff7 c83c 3184 1bbe 855b cf3d 38d6 56be
00000270: 1bf1 c63d eb1b 583e 3274 233e 3338 96bd
00000280: 41a2 aabd 8a46 0a3e 1ce0 363e 9b87 27bd
00000290: 80a2 783b baaf eebc e005 a5bb c892 93be
000002a0: f0a2 85be dcce 993e cae7 18be 4cca 803e
000002b0: f8aa 553e 2a7a 3dbd 2ae0 1fbe 32dc 2d3c
000002c0: 76d4 56bd 8777 2ebe be6c a73e 8ccc 7cbb
000002d0: fa76 41bd e646 57be 5f44 4b3d eec9 5f3d
000002e0: 6d47 bb3e 82a1 77bd 05f2 283e 5f9b 9b3c
000002f0: b9e6 293e 6f28 bd3b 5b74 a2bc f0d0 103e
00000300: b7a7 f2bd 4a9a 4d3e 8ce8 88be 2763 60be
00000310: c670 a93e cbbe c9bd ae62 81be f827 67be
00000320: b709 ad3e 70fe cdbc 5a55 89be 3d1d 83bc
00000330: 8c8f 04be 6511 4ebe 83b9 30be c4c6 843e
00000340: d7a9 023e f3c7 4a3e ec58 763c 77d8 d0bd
00000350: adbd d2bd 1c4b 50be 2ac2 65be 5004 8ebe
00000360: ae74 1b3d b708 333e 341f 9c3e 5ef4 37bb
00000370: c634 e1bc 4b5a a2bc 9ae0 fa3d 7f44 a3bc
00000380: 0c04 b9bd 72b2 a0bd 8192 a5be e99b 7bbe
00000390: d5f7 1abe 477e 8d3c 268c 3cbe 350f e43d
000003a0: 46bd 1cbe c628 a83e 1317 93be 6bad 373e
000003b0: 89de 1fbe 1a3c a4bd 4739 a9be b50a 9cbe
000003c0: bdc9 a8be e9c8 eebb b141 ae3e b74e 063e
000003d0: 5d2f 5f3e cb2a a83d db43 d0bd 03d0 f5bd
000003e0: 5af2 83bd 80c7 9cbe 962d 403e 09aa 9bbd
000003f0: 2eb7 41be e456 a83d 30fd 4cb9 6392 463e

naim.encoder.0.ff.3.weight f4 [6, 1000]
-0.011042127 -0.0074377344 -0.003054259 0.0020165567 -0.013939282 0.0007165802 -0.00457976 -0.010888995
0.016558405 0.037486147 -0.005727081 -0.0070163487 -0.028107721 -0.014691584 -0.004252304 -0.008154408
0.01704721 -0.008450776 -0.0030768232 0.0073138694 0.031921964 0.021235535 -0.023465075 -0.0031198943
-0.0020576753 -0.0019608298 0.011227045 -0.011057167 -0.00425248 -0.030938612 -0.008360374 -0.030425947
0.011644347 -0.01718627 -0.014360066 -0.015974706 0.025229236 -0.0067790993 0.031298365 -0.003184515
0.0010944157 0.0071447347 -0.018084893 0.029522672 -0.020725695 0.0003180426 0.018391542 0.011016096
-0.0060618147 0.032756727 -0.027454339 -0.013741918 0.011363978 -0.015485473 0.0023158162 -0.010562828
-0.0053165043 0.02246435 -0.008438951 0.015198096 0.026903495 0.02782241 0.01673364 0.026063897
-0.0003671334 0.007600541 -0.0026749482 -0.031727925 0.03170479 -0.027823161 -0.018461853 -0.014322676
-0.012208421 -0.019818433 -0.0143993795 0.0048839077 -0.021082336 -0.02506312 -0.012650675 -0.024028728
0.0048503764 0.0072835586 0.0049513797 0.030501481 -0.012999355 -0.011604755 0.0059737777 0.03434907
0.009078195 -0.00058011606 0.013782354 -0.024842525 -0.018123053 -0.01363792 -0.019959414 -0.015765307
-0.021629492 0.016140185 0.007714713 0.0041104644 -0.0023408832 0.0010344414 0.025859972 -0.024016978
0.01545922 0.009955705 -0.012322956 0.020132026 0.0008551946 -0.010834039 0.033614922 0.014493325
0.024941145 -0.0035745334 -0.018062409 0.020333823 0.0018705629 0.010715398 -0.006234088 0.021605259
-0.023674797 0.0018932206 0.026099132 -0.0053131967 0.026535492 0.020396776 0.012841211 0.029770091
-0.006914143 -0.006953266 0.018229539 -0.018678771 -0.017012002 0.032078356 -0.021817219 -0.00092684
0.010606954 0.014626066 -0.009016284 0.0042286105 0.018821415 -0.019877395 0.024254186 0.0014645957
-0.006824978 -0.029470244 -6.450789e-05 0.031119166 -0.016577158 -0.0019277161 -0.0023485892 0.018440923
-0.010931102 0.026038717 0.032443583 0.021440962 -0.015832458 -0.021667998 -0.027337493 0.012700291
-0.010844146 0.015926903 0.0007204521 0.032581396 -0.02301453 -0.007459863 0.0010872711 0.0053669442
0.029315833 -0.0016036183 0.030026773 -0.009526749 -0.0025129605 -0.013197853 -0.011390448 -0.015576689
-0.026842386 0.0059420015 -0.011267018 -0.0106027145 -0.021052822 -0.023521028 -0.006248981 -0.02807983
0.028069012 -0.0019675086 0.010036942 -0.02904015 0.009670566 -0.018457782 0.023508426 0.012293048
-0.0070760604 0.013811078 -0.0046855137 -0.008564935 -0.015636535 0.042137083 -0.0154154515 0.029272534
0.007932905 0.017320208 -0.017410347 0.005519112 0.0085936 0.03796148 -0.031635743 -0.0096288435
-0.003085702 -0.02025901 0.0064261076 0.016780451 0.026594147 -0.009450767 0.013801586 -0.00923757
0.028133886 -0.02241252 -0.029398678 0.015789384 -0.00394369 0.010064917 0.026817288 0.05147073
0.009857753 -0.023454415 0.003995347 0.0002633491 -0.026105698 0.02502321 0.027660938 -0.009760168
-0.0053550024 -0.0176056 0.016244333 0.0048866007 -0.013252571 0.016676402 -0.006714069 0.0030977281
0.023961654 -0.017862095 -0.031427298 0.018830638 -0.022698697 0.014148379 -0.002495442 0.021173693
0.0048075216 -0.009020515 -0.024239203 0.01551171 -0.018464923 0.0066611054 0.026654989 -0.027789978
00000000: 0aea 34bc 3db8 f3bb f729 48bb 3528 043b
00000010: 9661 64bc e2d8 3b3a d011 96bb c167 32bc
00000020: 7ea5 873c 138b 193d 3daa bbbb 66e9 e5bb
00000030: 2a42 e6bc f8b4 70bc e956 8bbb 119a 05bc
00000040: 97a6 8b3c 2075 0abc 87a4 49bb 2fa9 ef3b
00000050: 9bc0 023d 25f6 ad3c d439 c0bc 2477 4cbb
00000060: 10da 06bb 4481 00bb a4f1 373c 1f29 35bc
00000070: 6358 8bbb f972 fdbc f3f9 08bc d63f f9bc
00000080: eec7 3e3c 38ca 8cbc 7b46 6bbc 63dd 82bc
00000090: 8bad ce3c 3523 debb b732 003d 4cb3 50bb
000000a0: 7f72 8f3a 611e ea3b c526 94bc 88d9 f13c
000000b0: efc8 a9bc f5be a639 dca9 963c db7c 343c
000000c0: 30a2 c6bb eb2b 063d ece7 e0bc c825 61bc
000000d0: fa2f 3a3c c8b6 7dbc f3c4 173b b60f 2dbc
000000e0: 1236 aebb 2807 b83c 8743 0abc 6f01 793c
000000f0: b864 dc3c d3eb e33c fd14 893c f483 d53c
00000100: d07b c0b9 f60d f93b 2f4e 2fbb 24f5 01bd
00000110: e2dc 013d 66ed e3bc 503d 97bc a8a9 6abc
00000120: d405 48bc 445a a2bc 60eb 6bbc 3009 a03b
00000130: ddb4 acbc 2c51 cdbc c744 4fbc e5d7 c4bc
00000140: e8ef 9e3b ebaa ee3b 2f3f a23b 3ede f93c
00000150: 3ffb 54bc df21 3ebc aebf c33b 9cb1 0c3d
00000160: b6bc 143c ee12 18ba 62cf 613c 8d82 cbbc
00000170: cc76 94bc 9571 5fbc ed81 a3bc 3f26 81bc
00000180: 5530 b1bc 6c38 843c b4cb fc3b 13b1 863b
00000190: 8169 19bb 1896 873a 4bd8 d33c 41bf c4bc
000001a0: ab48 7d3c 411d 233c 39e6 49bc ebeb a43c
000001b0: 232f 603a 4181 31bc cdaf 093d 6975 6d3c
000001c0: 5f51 cc3c b842 6abb 9ef7 93bc 1e93 a63c
000001d0: ad2d f53a a38f 2f3c 5247 ccbb 83fd b03c
000001e0: a6f1 c1bc f125 f83a d9cd d53c 531a aebb
000001f0: f660 d93c 2417 a73c f163 523c 68e0 f33c
00000200: 0990 e2bb 39d8 e3bb 1d56 953c 3904 99bc
00000210: c15c 8bbc 9864 033d 06ba b2bc 2ef7 72ba
00000220: cac8 2d3c 2ba2 6f3c 09b9 13bc 2890 8a3b
00000230: 5e2f 9a3c ebd5 a2bc b7b0 c63c adf7 bf3a
00000240: 11a4 dfbb 956b f1bc 6948 87b8 9fed fe3c
00000250: d2cc 87bc 6bab fcba caea 19bb 6b11 973c
00000260: 5d18 33bc 264f d53c 90e3 043d f5a4 af3c
00000270: 12b3 81bc 1681 b1bc e1f2 dfbc e214 503c
00000280: a5ab 31bc 2379 823c b9dc 3c3a 1274 053d
00000290: f888 bcbc de71 f4bb c482 8e3a 31dd af3b
000002a0: c227 f03c 8030 d2ba b5fa f53c 1516 1cbc
000002b0: 7bb0 24bb cf3b 58bc 009f 3abc 5e35 7fbc
000002c0: 90e4 dbbc 1fb5 c23b 4c99 38bc 02b7 2dbc
000002d0: f876 acbc 2caf c0bc 41c4 ccbb ac07 e6bc
000002e0: fcf0 e53c 51f1 00bb fc71 243c 9ce5 edbc
000002f0: 4b71 1e3c c634 97bc be94 c03c c868 493c
00000300: 4cde e7bb dc47 623c f088 99bb f153 0cbc
00000310: 3118 80bc ef97 2c3d 1791 7cbc f4cc ef3c
00000320: 04f9 013c 1ce3 8d3c 25a0 8ebc abd9 b43b
00000330: 2ccc 0c3c 7f7d 1b3d 7b94 01bd 4cc2 1dbc
00000340: 7d39 4abb 39f6 a5bc 1992 d23b 2877 893c
00000350: f8db d93c 64d7 1abc 0c20 623c 2d59 17bc
00000360: 0979 e63c 769a b7bc 7fd5 f0bc bd58 813c
00000370: 123a 81bb 52e7 243c eeaf db3c f9d2 523d
00000380: 6a82 213c 7923 c0bc 66eb 823b 1e12 8a39
00000390: 9edb d5bc 7afd cc3c 3199 e23c 1de9 1fbc
000003a0: 0479 afbb 9f39 90bc d612 853c c71f a03b
000003b0: 5021 59bc f39c 883c b101 dcbb 4103 4b3b
000003c0: 3b4b c43c 8753 92bc e9b9 00bd b642 9a3c
000003d0: 9ef2 b9bc 9ace 673c 928a 23bb 7474 ad3c
000003e0: 6a88 9d3b c8ca 13bc 4b91 c6bc d424 7e3c
000003f0: c043 97bc 6745 da3b 905b da3c cfa7 e3bc

naim.encoder.0.ff.3.bias f4 [6]
-0.030813932 0.00023955847 -0.019456634 -0.013595664 0.026551876 -0.024134986
00000000: 806d fcbc fd31 7b39 8563 9fbc 59c0 5ebc
00000010: 5283 d93c bcb6 c5bc

naim.encoder.1.layer_norm_1.weight f4 [6]
0.9472711 0.93409586 0.9371645 0.93370503 0.92606187 0.9236872
00000000: 5c80 723f e820 6f3f 03ea 6f3f 4b07 6f3f
00000010: 6412 6d3f c476 6c3f

naim.encoder.1.layer_norm_1.bias f4 [6]
0.0008737165 -0.0029629061 0.00051741424 0.002487061 -0.0055988273 0.0028267947
00000000: 1f0a 653a 512d 42bb 15a3 073a f6fd 223b
00000010: 5e76 b7bb bf41 393b

naim.encoder.1.attn.linear_q.weight f4 [6, 6]
-0.22710104 -0.09654161 -0.119497485 0.04561375 0.20732574 0.036498874 -0.00047484378 0.123643324
0.17117284 0.00067372393 -0.20173228 -0.27845025 0.33283067 0.0710809 0.3026361 -0.09194029
0.05359759 -0.14347573 -0.14747465 -0.11845951 0.3336043 0.22486152 -0.1845442 -0.214422
0.06704576 -0.033985134 -0.0001629921 0.005783727 -0.28221738 0.028861377 0.0015104278 -0.21158655
-0.32805517 0.13662086 -0.29785496 -0.112495884
00000000: 2d8d 68be 9cb7 c5bd 19bb f4bd 7cd5 3a3d
00000010: 334d 543e d87f 153d 74f4 f8b9 b638 fd3d
00000020: ef47 2f3e d99c 303a e892 4ebe 0891 8ebe
00000030: c868 aa3e dd92 913d 1ef3 9a3e 314b bcbd
00000040: 2689 5b3d 4deb 12be 9803 17be e69a f2bd
00000050: 2fce aa3e 1942 663e 28f9 3cbe 7191 5bbe
00000060: 4a4f 893d ff33 0bbd dce8 2ab9 6b85 bd3b
00000070: cc7e 90be b26e ec3c 8cf9 c53a 25aa 58be
00000080: d9f6 a7be 57e6 0b3e 7280 98be 3e64 e6bd

naim.encoder.1.attn.linear_k.weight f4 [6, 6]
0.19594109 -0.22974926 -0.13971736 -0.20890224 0.16967279 0.07509662 0.0007484127 0.07568497
0.05070305 -0.025163556 -0.0016046101 -0.18199447 -0.12550366 0.0017252573 -0.005044341 0.047972012
0.12326321 0.24062045 0.31663564 0.0010316945 0.09154608 -0.25750238 0.16325338 -0.04475442
-0.24973817 -0.2437648 -0.2653273 -0.11695078 0.11503394 -0.25747296 -0.004226223 -0.010893092
0.08125606 -0.09641803 0.13497728 -0.17908841
00000000: c8a4 483e 6443 6bbe 1112 0fbe 78ea 55be
00000010: b4be 2d3e 42cc 993d 2031 443a b900 9b3d
00000020: 00ae 4f3d cd23 cebc c851 d2ba c25c 3abe
00000030: 0884 00be 0722 e23a 004b a5bb 4d7e 443d
00000040: 6c71 fc3d 3565 763e 111e a23e ec39 873a
00000050: 837c bb3d 5ad7 83be e52b 273e 6950 37bd
00000060: 5dbb 7fbe 7b9d 79be fbd8 87be e483 efbd
00000070: ea96 eb3d 7fd3 83be 217c 8abb f078 32bc
00000080: 9469 a63d d176 c5bd 7c37 0a3e f462 37be

naim.encoder.1.attn.linear_v.weight f4 [6, 6]
0.23907499 -0.38571948 -0.26433402 0.13103293 0.03251418 0.27478567 0.17868933 -0.29170427
0.27130944 -0.08468389 -0.040166788 -0.11715196 -0.07292285 -0.36086562 0.025025379 0.29418957
-0.03604776 0.3021089 -0.175495 0.10703782 0.029777031 -0.105269164 0.36327857 0.032619406
0.011227103 -0.03553962 -0.00633353 0.28547084 -0.01458505 0.20738076 0.09330688 0.19602866
-0.23583336 -0.29126605 -0.067028165 -0.053171232
00000000: 13d0 743e 067d c5be ca56 87be 7f2d 063e
00000010: 972d 053d b5b0 8c3e 56fa 363e 435a 95be
00000020: 12e9 8a3e bf6e adbd ee85 24bd 5eed efbd
00000030: 9358 95bd 61c3 b8be 0602 cd3c 04a0 963e
00000040: d1a6 13bd 05ae 9a3e f6b4 33be a536 db3d
00000050: f6ee f33c 5c97 d7bd a6ff b93e ed9b 053d
00000060: e2f1 373c fe91 11bd 8089 cfbb 3c29 923e
00000070: 22f6 6ebc 9f5b 543e ad17 bf3d bdbb 483e
00000080: 4d7e 71be d320 95be 1046 89bd 14ca 59bd

naim.encoder.1.attn.linear_o.weight f4 [6, 6]
0.38203105 0.38337106 -0.09698689 -0.18768767 -0.0021051944 0.15420775 0.13025972 0.061268512
0.2887189 0.038842384 0.30845925 0.078374386 -0.033323318 0.3018921 0.015995488 0.016103966
-0.07256279 0.21256854 -0.11699793 0.28740203 0.2159745 -0.0040401984 -0.061632097 0.14154206
-0.32292816 -0.06713503 -0.07560729 -0.0039333473 -0.12368463 -0.1055483 0.122513294 -0.0018646854
-0.20877798 -9.874173e-05 0.06423048 -0.09522836
00000000: 9399 c33e 3649 c43e 10a1 c6bd 3231 40be
00000010: 4df7 09bb a3e8 1d3e ce62 053e b1f4 7a3d
00000020: f7d2 933e 3119 1f3d 5fee 9d3e c082 a03d
00000030: 087e 08bd 9a91 9a3e f808 833c 77ec 833c
00000040: cd9b 94bd 91ab 593e 9c9c efbd 5c26 933e
00000050: 6b28 5d3e a463 84bb f071 7cbd 67f0 103e
00000060: d756 a5be 177e 89bd ffd7 9abd 4fe3 80bb
00000070: 5e4e fdbd b529 d8bd 40e8 fa3d 7668 f4ba
00000080: e5c9 55be 9013 cfb8 458b 833d 1607 c3bd

naim.encoder.1.layer_norm_2.weight f4 [6]
0.99236494 0.97371423 0.96453005 0.97230875 0.9662404 0.9597335
00000000: a10b 7e3f 5645 793f 71eb 763f 3ae9 783f
00000010: 885b 773f 18b1 753f

naim.encoder.1.layer_norm_2.bias f4 [6]
0.0016594944 -0.00046193978 0.0002885174 0.00038612806 -0.0011480724 -0.0025991248
00000000: 6483 d93a 8230 f2b9 2644 9739 3b71 ca39
00000010: eb7a 96ba 1456 2abb

naim.encoder.1.ff.0.weight f4 [1000, 6]
0.27478147 -0.20892522 0.28598964 0.09451214 -0.16713722 -0.31137887 0.11315145 -0.05867093
0.08786615 0.12440289 -0.21934706 0.03588683 -0.05502031 -0.30797106 0.046085704 0.051306464
-0.2530544 0.32016596 0.1459288 0.16832346 -0.28270993 -0.27834702 0.11724602 0.16806123
-0.27759323 0.31662107 -0.03200131 -0.2560371 -0.22559637 -0.03890235 0.14915033 -0.21030922
0.22931644 0.33501437 0.3082646 0.12226861 -0.1255455 -0.12464718 0.22826354 -0.03225512
0.047332436 0.34904155 -0.33329445 -0.055573005 -0.098595604 -0.02105959 0.011087741 -0.043769702
0.31886357 0.09960835 -0.19172722 0.32525727 -0.05630846 0.026418969 0.015445118 -0.23161247
0.13761565 -0.17521483 -0.29117554 0.2746314 0.17473044 -0.11299244 -0.218919 0.29516712
0.086947806 -0.20057355 -0.2693776 -0.1193167 -0.1607882 0.005606812 0.02465266 -0.32947913
0.1337052 0.1409201 -0.29437876 0.25624445 -0.100227475 0.14320323 0.32601133 0.17192823
0.20364477 -0.0018720896 0.02147684 -0.27284807 -0.22054228 0.25512606 -0.29859984 0.105534725
-0.16788454 0.2783487 0.23066153 -0.06266585 -0.026240502 -0.21151543 0.31591418 -0.18987916
0.08111654 0.2141059 -0.31705162 -0.32721943 -0.21371202 -0.019599134 0.19304061 -0.09505721
-0.115349665 0.19919643 0.27262107 0.16874208 0.28242895 -0.29536074 -0.29185748 0.025622303
-0.27081835 -0.06620765 0.17775296 0.3238859 -0.030006895 -0.28682062 -0.13117506 0.32320893
-0.01804686 -0.3043835 -0.14427216 -0.18123737 -0.043882597 -0.22131263 -0.0726637 0.30050567
-0.122800104 -0.034866553 0.15647538 -0.3061701 -0.15223551 -0.017901853 0.25124744 0.0133058885
-0.00032268194 -0.08650627 0.1263475 -0.12739453 -0.029105244 -0.112895824 0.10362187 0.33801138
-0.24066524 -0.012802391 -0.015951337 -0.13892129 -0.22045206 -0.110284515 -0.25950155 0.25826856
-0.22450103 0.18690759 0.27931488 -0.050255697 0.30572966 0.22450088 -0.21197473 0.16394421
0.05277343 0.25163326 -0.23659945 0.24638247 0.028045205 0.12952486 -0.15859784 0.19635676
-0.011577489 0.26511884 0.01196338 0.18369803 -0.18735793 -0.28932038 0.0891974 0.14780247
0.061082784 0.07365327 0.19778751 -0.13938442 0.15068698 0.12990211 -0.11046586 -0.17361784
-0.32943165 0.22732922 0.0018485178 0.053542275 -0.2161249 -0.23379764 0.2643461 0.21822421
0.15986317 0.25553918 0.26574203 0.17242144 0.23036702 -0.021014797 0.063706 -0.27905282
-0.08702736 -0.021858264 -0.009369476 0.32975984 0.2598266 0.06538014 0.30554327 -0.13787693
0.024350544 -0.24921177 -0.27292177 0.14934672 0.06497238 -0.0047389674 -0.1919429 0.22172286
-0.009569748 0.20632203 -0.21042797 0.24387117 0.002986214 -0.07972838 -0.024647577 -0.25565836
-0.04498661 0.012764024 -0.2440462 0.16625778 0.30956608 0.1441455 -0.13351902 -0.18035595
-0.24809949 -0.17949219 0.1744321 0.11902872 -0.088355936 1.1509622e-05 -0.014004908 -0.0022894712
-0.33472916 0.27004525 -0.078589045 -0.2764988 -0.004266934 0.06578063 0.11912485 -0.13778068
-0.007776204 -0.23227395 -0.23412447 -0.1983417 -0.19790407 0.20931739 -0.30212477 -0.047522444
00000000: 28b0 8c3e 7ef0 55be 3c6d 923e 958f c13d
00000010: 0526 2bbe 0d6d 9fbe f3bb e73d ee50 70bd
00000020: 2bf3 b33d f1c6 fe3d 849c 60be 12fe 123d
00000030: fa5c 61bd 62ae 9dbe 5dc4 3c3d ba26 523d
00000040: 5990 81be cbec a33e 5c6e 153e fc5c 2c3e
00000050: 5bbf 90be 8083 8ebe ae1e f03d 3e18 2c3e
00000060: b320 8ebe 281c a23e ce13 03bd 4b17 83be
00000070: bc02 67be 1258 1fbd ddba 183e 4d5b 57be
00000080: eed1 6a3e 0187 ab3e dcd4 9d3e f767 fa3d
00000090: 008f 00be 0547 ffbd ebbd 693e f21d 04bd
000000a0: a8df 413d 93b5 b23e 92a5 aabe 85a0 63bd
000000b0: 7eec c9bd 2985 acbc 5ba9 353c dc47 33bd
000000c0: 1642 a33e 76ff cb3d 2454 44be 1f88 a63e
000000d0: b3a3 66bd 986c d83c 850d 7d3c d22b 6dbe
000000e0: 1eeb 0c3e 846b 33be f614 95be 7d9c 8c3e
000000f0: 89ec 323e 9568 e7bd 4d2c 60be 2520 973e
00000100: b111 b23d 2763 4dbe dceb 89be 505c f4bd
00000110: a9a5 24be 59b9 b73b 60f4 c93c 7db1 a8be
00000120: 04ea 083e 5c4d 103e d0b8 96be 7932 833e
00000130: 1044 cdbd dea3 123e f5ea a63e f40d 303e
00000140: 4188 503e e760 f5ba 33f0 af3c beb2 8bbe
00000150: d6d5 61be e29f 823e 14e2 98be 9722 d83d
00000160: ede9 2bbe b983 8e3e 8932 6c3e f456 80bd
00000170: 52f6 d6bc 8097 58be 81bf a13e af6f 42be
00000180: 6e20 a63d 943e 5b3e 9754 a2be 4e89 a7be
00000190: 53d7 5abe 5d8e a0bc 70ac 453e 5bad c2bd
000001a0: 723c ecbd 26fa 4b3e fd94 8b3e b9ca 2c3e
000001b0: 879a 903e 8639 97be 586e 95be dde5 d13c
000001c0: b4a8 8abe e097 87bd df04 363e 5fd4 a53e
000001d0: 05d1 f5bc 27da 92be c152 06be a47b a53e
000001e0: 02d7 93bc 27d8 9bbe 15bc 13be 4a96 39be
000001f0: 3dbe 33bd c79f 62be b5d0 94bd e1db 993e
00000200: 9f7e fbbd 3bd0 0ebd 153b 203e 54c2 9cbe
00000210: a0e3 1bbe e8a6 92bc 81a3 803e f100 5a3c
00000220: a32d a9b9 332a b1bd 3d61 013e b673 02be
00000230: 1f6e eebc ed35 e7bd b437 d43d d40f ad3e
00000240: f370 76be 1fc1 51bc 61ac 82bc 6241 0ebe
00000250: 2fbe 61be d9dc e1bd 63dd 84be c73b 843e
00000260: 99e3 65be b464 3f3e 5c02 8f3e ebd8 4dbd
00000270: 9988 9c3e 8fe3 653e e70f 59be fee0 273e
00000280: f428 583d 13d6 803e 2047 72be b04b 7c3e
00000290: 0fbf e53c 2aa2 043e 7967 22be bf11 493e
000002a0: 82af 3dbc a8bd 873e 0d02 443c 561b 3c3e
000002b0: c2da 3fbe cd21 94be 20ad b63d 8859 173e
000002c0: f131 7a3d 87d7 963d cf88 4a3e caba 0ebe
000002d0: b04d 1a3e 0f05 053e ed3b e2bd e0c8 31be
000002e0: 44ab a8be fec8 683e f749 f23a 254f 5b3d
000002f0: d94f 5dbe a668 6fbe 5f58 873e 2b76 5f3e
00000300: 2cb3 233e 08d6 823e 570f 883e 3f8f 303e
00000310: 55e5 6b3e 3927 acbc 4b78 823d 03e0 8ebe
00000320: 673b b2bd 1a10 b3bc 6e82 19bc 48d6 a83e
00000330: fe07 853e 06e6 853d 2b70 9c3e 9c2f 0dbe
00000340: cb7a c73c 5f31 7fbe 67bc 8bbe 59ee 183e
00000350: 3d10 853d 5749 9bbb ae8c 44be 510b 633e
00000360: 6fca 1cbc 1546 533e 6e7a 57be 5db9 793e
00000370: 5bb4 433b a248 a3bd b7e9 c9bc a7e5 82be
00000380: e143 38bd 3220 513c 3fe7 79be 7b3f 2a3e
00000390: 727f 9e3e e19a 133e 36b9 08be 3baf 38be
000003a0: cb0d 7ebe cdcc 37be 549e 323e 54c5 f33d
000003b0: f5f3 b4bd 7319 4137 d774 65bc f40a 16bb
000003c0: 9f61 abbe 5f43 8a3e 4bf3 a0bd 4091 8dbe
000003d0: a3d1 8bbb ffb7 863d bbf7 f33d 6116 0dbe
000003e0: 87cf febb 39d9 6dbe 53be 6fbe 161a 4bbe
000003f0: 5da7 4abe 4c57 563e 19b0 9abe e5a6 42bd
