outputs/2025-03-23/17-27-01/outputs/model_epoch_0.pt (torch, 149122 bytes, 92 tensors)

naim.embeddings.0.embeddings.weight f4 [2, 6]
000000 a9 27 c3 3e 19 d6 13 bf 10 d8 a9 be 59 8d a4 3e
       0.38116196 -0.5774856 -0.33172655 0.3213909
000010 14 08 e8 3e 4b be 8d 3e 00 00 00 00 00 00 00 00
       0.45318663 0.27684245 0.0 0.0
000020 00 00 00 00 00 00 00 00 00 00 00 00 00 00 00 00
       0.0 0.0 0.0 0.0

naim.embeddings.1.embeddings.weight f4 [2, 6]
000000 7f 4c 8a 3d 44 39 be bd a1 1b 19 be 0c 9c cd 3e
       0.06752872 -0.09288266 -0.14951946 0.40158117
000010 52 a1 3c 3e c4 e3 a1 bd 00 00 00 00 00 00 00 00
       0.18420914 -0.07904771 0.0 0.0
000020 00 00 00 00 00 00 00 00 00 00 00 00 00 00 00 00
       0.0 0.0 0.0 0.0

naim.embeddings.2.embeddings.weight f4 [2, 6]
000000 35 bc 24 3f 82 20 1e 3d 88 b5 09 bc ba 4e 14 3f
       0.6434968 0.03860522 -0.008405097 0.5793263
000010 c6 2f 86 be d3 aa b1 3e 00 00 00 00 00 00 00 00
       -0.26208323 0.3470064 0.0 0.0
000020 00 00 00 00 00 00 00 00 00 00 00 00 00 00 00 00
       0.0 0.0 0.0 0.0

naim.embeddings.3.embeddings.weight f4 [2, 6]
000000 78 d7 26 3f 4e 85 08 bf 92 72 3d 3d 98 7f fa 3e
       0.6517253 -0.53328407 0.04625184 0.4892547
000010 d7 f1 14 3e 64 49 80 3c 00 00 00 00 00 00 00 00
       0.1454538 0.015659995 0.0 0.0
000020 00 00 00 00 00 00 00 00 00 00 00 00 00 00 00 00
       0.0 0.0 0.0 0.0

naim.embeddings.4.embeddings.weight f4 [2, 6]
000000 86 bd 04 bf 11 5b 93 be 2e 89 57 be 71 16 0f 3e
       -0.5185169 -0.28780416 -0.21048424 0.13973404
000010 0e f9 d8 3d 0d 4e 06 3c 00 00 00 00 00 00 00 00
       0.105943784 0.00819732 0.0 0.0
000020 00 00 00 00 00 00 00 00 00 00 00 00 00 00 00 00
       0.0 0.0 0.0 0.0

naim.embeddings.5.embeddings.weight f4 [2, 6]
000000 2e 24 ae be 31 7c ec 3c a7 52 25 3f ec e5 b0 3e
       -0.34011978 0.028867813 0.6457924 0.34550416
000010 5d 3b 11 bf 2d 54 83 3d 00 00 00 00 00 00 00 00
       -0.56731206 0.0641254 0.0 0.0
000020 00 00 00 00 00 00 00 00 00 00 00 00 00 00 00 00
       0.0 0.0 0.0 0.0

naim.embeddings.6.embeddings.weight f4 [2, 6]
000000 f6 a2 08 bf 0d 20 ea bd 9a 6a f5 bd ce 6a 8d be
       -0.5337366 -0.114318945 -0.11983223 -0.27620548
000010 29 53 1a 3e 79 ed 41 3f 00 00 00 00 00 00 00 00
       0.15070786 0.7575298 0.0 0.0
000020 00 00 00 00 00 00 00 00 00 00 00 00 00 00 00 00
       0.0 0.0 0.0 0.0

naim.embeddings.7.embeddings.weight f4 [2, 6]
000000 1b 26 cf be 08 45 b5 bb 6e 6e c5 3d 71 bc 31 bf
       -0.4045876 -0.005531911 0.096402034 -0.69428164
000010 0a f8 6c bd 19 e6 13 3f 00 00 00 00 00 00 00 00
       -0.057853736 0.57772976 0.0 0.0
000020 00 00 00 00 00 00 00 00 00 00 00 00 00 00 00 00
       0.0 0.0 0.0 0.0

naim.embeddings.8.embeddings.weight f4 [2, 6]
000000 a8 21 25 3f bf 07 12 be 31 78 88 3e 58 41 1e bf
       0.6450448 -0.14260767 0.266542 -0.61818457
000010 19 d4 58 be 2c e0 69 3e 00 00 00 00 00 00 00 00
       -0.21174659 0.22839421 0.0 0.0
000020 00 00 00 00 00 00 00 00 00 00 00 00 00 00 00 00
       0.0 0.0 0.0 0.0

naim.embeddings.9.embeddings.weight f4 [2, 6]
000000 5a e6 e3 3e e4 c2 8b be ef 4a 8d 3d da e0 d3 be
       0.44511682 -0.27297127 0.06899058 -0.41382486
000010 0a 78 1a bf bd 64 fd 3b 00 00 00 00 00 00 00 00
       -0.60339415 0.007732956 0.0 0.0
000020 00 00 00 00 00 00 00 00 00 00 00 00 00 00 00 00
       0.0 0.0 0.0 0.0

naim.embeddings.10.embeddings.weight f4 [2, 6]
000000 89 f4 cb 3d 10 07 c3 3d ed 8c 85 3e 7b ee 7a 3e
       0.09958751 0.095228314 0.2608408 0.24505036
000010 93 19 a1 3c b6 bc ea 3e 00 00 00 00 00 00 00 00
       0.019665515 0.458471 0.0 0.0
000020 00 00 00 00 00 00 00 00 00 00 00 00 00 00 00 00
       0.0 0.0 0.0 0.0

naim.embeddings.11.embeddings.weight f4 [2, 6]
000000 4b fe 30 3e 70 d1 e3 bd b5 df f7 be cb 3f 05 bf
       0.17284505 -0.111239314 -0.48412862 -0.52050465
000010 bf 9e fe bc bd af 8b be 00 00 00 00 00 00 00 00
       -0.031081555 -0.27282515 0.0 0.0
000020 00 00 00 00 00 00 00 00 00 00 00 00 00 00 00 00
       0.0 0.0 0.0 0.0

naim.embeddings.12.embeddings.weight f4 [2, 6]
000000 06 10 23 3e 80 8c 6b be ca b8 9d 3d 35 18 df 3e
       0.15924081 -0.23002815 0.07701261 0.43573156
000010 c8 54 01 3f 92 4f ef 3d 00 00 00 00 00 00 00 00
       0.5051999 0.11685099 0.0 0.0
000020 00 00 00 00 00 00 00 00 00 00 00 00 00 00 00 00
       0.0 0.0 0.0 0.0

naim.embeddings.13.embeddings.weight f4 [2, 6]
000000 64 8a 87 be 7d bc db bd 60 c9 95 be 22 18 2a 3f
       -0.2647277 -0.10729311 -0.292552 0.66443074
000010 4f 22 52 be cb 13 a6 3e 00 00 00 00 00 00 00 00
       -0.205209 0.32436976 0.0 0.0
000020 00 00 00 00 00 00 00 00 00 00 00 00 00 00 00 00
       0.0 0.0 0.0 0.0

naim.embeddings.14.embeddings.weight f4 [2, 6]
000000 33 c4 36 3e bf d4 28 3f e2 6c 24 be 9f 08 b0 3d
       0.17848282 0.65949625 -0.1605716 0.08595394
000010 db b2 1f 3f 94 b3 b7 3c 00 00 00 00 00 00 00 00
       0.62382287 0.022424497 0.0 0.0
000020 00 00 00 00 00 00 00 00 00 00 00 00 00 00 00 00
       0.0 0.0 0.0 0.0

naim.embeddings.15.embeddings.weight f4 [2, 6]
000000 d1 00 21 bf ad 62 b5 3e a4 fb bb 3d 4c 4c 9f be
       -0.6289187 0.35426846 0.09178856 -0.31112897
000010 fa 60 53 be 57 a3 0e 3f 00 00 00 00 00 00 00 00
       -0.20642462 0.55717987 0.0 0.0
000020 00 00 00 00 00 00 00 00 00 00 00 00 00 00 00 00
       0.0 0.0 0.0 0.0

naim.embeddings.16.embeddings.weight f4 [2, 6]
000000 de 75 06 3f c7 3f bb 3d ba 94 8b 3d df 73 aa be
       0.525236 0.09143024 0.06815477 -0.33291528
000010 02 08 14 3e ac 72 d3 3e 00 00 00 00 00 00 00 00
       0.1445618 0.41298425 0.0 0.0
000020 00 00 00 00 00 00 00 00 00 00 00 00 00 00 00 00
       0.0 0.0 0.0 0.0

naim.embeddings.17.embeddings.weight f4 [2, 6]
000000 92 1b 07 3e 03 4a 35 3e 58 33 01 3e 78 cb 04 bf
       0.13194111 0.17704014 0.12617242 -0.5187297
000010 63 6e a1 3e e6 73 94 be 00 00 00 00 00 00 00 00
       0.3152953 -0.28994673 0.0 0.0
000020 00 00 00 00 00 00 00 00 00 00 00 00 00 00 00 00
       0.0 0.0 0.0 0.0

naim.embeddings.18.embeddings.weight f4 [2, 6]
000000 c2 86 10 bf 0f 8b f8 be 36 76 a3 be 97 8d 0f 3f
       -0.56455624 -0.48543593 -0.31926125 0.56075424
000010 10 93 2b bd a3 15 49 bc 00 00 00 00 00 00 00 00
       -0.041888297 -0.012273225 0.0 0.0
000020 00 00 00 00 00 00 00 00 00 00 00 00 00 00 00 00
       0.0 0.0 0.0 0.0

naim.embeddings.19.embeddings.weight f4 [2, 6]
000000 23 d7 0c 3f b6 5c 8d be 2a 90 8f 3e 82 a7 67 be
       0.5501577 -0.27609795 0.28039676 -0.22622493
000010 f2 16 da bd 56 26 af 3d 00 00 00 00 00 00 00 00
       -0.10648908 0.08552234 0.0 0.0
000020 00 00 00 00 00 00 00 00 00 00 00 00 00 00 00 00
       0.0 0.0 0.0 0.0

naim.embeddings.20.embeddings.weight f4 [2, 6]
000000 60 a7 93 3e 7c 39 15 3e 4a 57 ab be eb a1 fe be
       0.28838634 0.1457271 -0.33465034 -0.4973291
000010 02 33 08 be 22 98 7d 3e 00 00 00 00 00 00 00 00
       -0.13300708 0.24765065 0.0 0.0
000020 00 00 00 00 00 00 00 00 00 00 00 00 00 00 00 00
       0.0 0.0 0.0 0.0

naim.embeddings.21.embeddings.weight f4 [2, 6]
000000 ad 82 77 3d 18 eb a7 3b e9 37 07 3e 3b 0a 62 bd
       0.060427357 0.005124461 0.13204922 -0.055185538
000010 d0 d0 ca 3c 8b 34 10 be 00 00 00 00 00 00 00 00
       0.024757773 -0.14082544 0.0 0.0
000020 00 00 00 00 00 00 00 00 00 00 00 00 00 00 00 00
       0.0 0.0 0.0 0.0

naim.embeddings.22.embeddings.weight f4 [2, 6]
000000 f9 6a b1 3e 58 f7 8b be a5 f2 1b bd 78 9c 13 3f
       0.34651926 -0.27337146 -0.0380732 0.5766063
000010 2a 74 e3 3e bd 3a 59 be 00 00 00 00 00 00 00 00
       0.44424564 -0.21213813 0.0 0.0
000020 00 00 00 00 00 00 00 00 00 00 00 00 00 00 00 00
       0.0 0.0 0.0 0.0

naim.embeddings.23.embeddings.weight f4 [2, 6]
000000 c3 a3 63 3e 3d f3 d4 ba 21 fa bc be d0 90 58 3f
       0.22230439 -0.0016246807 -0.36909583 0.84595966
000010 46 02 54 bd ab e0 8b be 00 00 00 00 00 00 00 00
       -0.05175998 -0.27319846 0.0 0.0
000020 00 00 00 00 00 00 00 00 00 00 00 00 00 00 00 00
       0.0 0.0 0.0 0.0

naim.embeddings.24.embeddings.weight f4 [2, 6]
000000 b6 63 10 3c 5d 7a 34 3e 07 44 44 be 03 d3 d1 3e
       0.008812835 0.17624803 -0.19166575 0.40981302
000010 3b 6b 5d bf 93 45 6e 3d 00 00 00 00 00 00 00 00
       -0.86491746 0.05817182 0.0 0.0
000020 00 00 00 00 00 00 00 00 00 00 00 00 00 00 00 00
       0.0 0.0 0.0 0.0

naim.embeddings.25.embeddings.weight f4 [2, 6]
000000 9f f7 bf 3e 8a e3 0d be e1 9c 44 3f e0 57 f1 3e
       0.37493607 -0.1385633 0.7680188 0.47137356
000010 4d 85 ca 3d 2d ec 68 3d 00 00 00 00 00 00 00 00
       0.09888706 0.05686586 0.0 0.0
000020 00 00 00 00 00 00 00 00 00 00 00 00 00 00 00 00
       0.0 0.0 0.0 0.0

naim.embeddings.26.embeddings.weight f4 [2, 6]
000000 8a 4a 24 3e b6 45 ff be ef 2c 02 bf 43 b7 a3 3e
       0.1604406 -0.49857873 -0.50849813 0.31975755
000010 1a c8 dd 3e e8 d4 ae 3e 00 00 00 00 00 00 00 00
       0.43316728 0.3414681 0.0 0.0
000020 00 00 00 00 00 00 00 00 00 00 00 00 00 00 00 00
       0.0 0.0 0.0 0.0

naim.embeddings.27.embeddings.weight f4 [2, 6]
000000 3c 08 b6 bd c3 7f c9 3e 26 42 09 bf c8 d3 0e bf
       -0.08888289 0.39355287 -0.5361656 -0.557919
000010 4c 81 0f be 14 a1 31 3d 00 00 00 00 00 00 00 00
       -0.14014167 0.043366507 0.0 0.0
000020 00 00 00 00 00 00 00 00 00 00 00 00 00 00 00 00
       0.0 0.0 0.0 0.0

naim.embeddings.28.embeddings.weight f4 [2, 6]
000000 d5 ec 45 be c1 aa 72 3e 0d dd 54 be 0e b4 b5 be
       -0.19328626 0.2369795 -0.20787449 -0.35488933
000010 11 2b 09 3e 9d 72 a2 bd 00 00 00 00 00 00 00 00
       0.13395335 -0.07932017 0.0 0.0
000020 00 00 00 00 00 00 00 00 00 00 00 00 00 00 00 00
       0.0 0.0 0.0 0.0

naim.embeddings.29.embeddings.weight f4 [2, 6]
000000 0a 97 0e bf 57 8d 94 bc c3 2f 2b 3f 5c 3c 67 be
       -0.5569922 -0.018133802 0.66869754 -0.22581619
000010 1f 4f b2 3d 36 ef bc be 00 00 00 00 00 00 00 00
       0.087064974 -0.36901253 0.0 0.0
000020 00 00 00 00 00 00 00 00 00 00 00 00 00 00 00 00
       0.0 0.0 0.0 0.0

naim.embeddings.30.embeddings.weight f4 [2, 6]
000000 47 a2 10 be 46 07 87 3e 19 98 b6 3e d9 61 9f be
       -0.14124404 0.26372737 0.35662916 -0.3112934
000010 07 6b 61 bd 86 62 ca be 00 00 00 00 00 00 00 00
       -0.05503371 -0.39528292 0.0 0.0
000020 00 00 00 00 00 00 00 00 00 00 00 00 00 00 00 00
       0.0 0.0 0.0 0.0

naim.embeddings.31.embeddings.weight f4 [2, 6]
000000 ae 2d d2 3e 71 00 8b be 75 fe 19 bd 0d e3 e2 bd
       0.41050476 -0.27148774 -0.037596185 -0.11078463
000010 e6 84 8f be 39 a7 97 be 00 00 00 00 00 00 00 00
       -0.2803108 -0.29619768 0.0 0.0
000020 00 00 00 00 00 00 00 00 00 00 00 00 00 00 00 00
       0.0 0.0 0.0 0.0

naim.embeddings.32.embeddings.weight f4 [2, 6]
000000 f8 e5 b4 3d c5 39 b1 3e 84 8e b4 be a7 48 48 bf
       0.088329256 0.34614387 -0.3526498 -0.7823586
000010 4f 04 9e 3e 02 28 47 be 00 00 00 00 00 00 00 00
       0.30862662 -0.19448856 0.0 0.0
000020 00 00 00 00 00 00 00 00 00 00 00 00 00 00 00 00
       0.0 0.0 0.0 0.0

naim.embeddings.33.embeddings.weight f4 [2, 6]
000000 e8 33 46 be d4 a4 37 be 35 95 d0 be f3 1b 7d be
       -0.19355738 -0.1793397 -0.40738836 -0.24717693
000010 17 bc b7 be f3 44 3d 3f 00 00 00 00 00 00 00 00
       -0.3588569 0.73933333 0.0 0.0
000020 00 00 00 00 00 00 00 00 00 00 00 00 00 00 00 00
       0.0 0.0 0.0 0.0

naim.embeddings.34.embeddings.weight f4 [2, 6]
000000 27 19 31 be d8 6d f5 3d 4b b0 09 3f ed 2c eb bc
       -0.17294751 0.11983842 0.53784627 -0.028707946
000010 7a 87 94 be c2 04 16 3d 00 00 00 00 00 00 00 00
       -0.2900961 0.03662563 0.0 0.0
000020 00 00 00 00 00 00 00 00 00 00 00 00 00 00 00 00
       0.0 0.0 0.0 0.0

naim.embeddings.35.embeddings.weight f4 [2, 6]
000000 4e af 5f 3e b8 77 42 be b5 8a b1 3e a9 ff af 3e
       0.21844217 -0.18990982 0.34676138 0.3437474
000010 63 1d db 3e 24 5c 10 bf 00 00 00 00 00 00 00 00
       0.42795858 -0.56390595 0.0 0.0
000020 00 00 00 00 00 00 00 00 00 00 00 00 00 00 00 00
       0.0 0.0 0.0 0.0

naim.embeddings.36.embeddings.weight f4 [2, 6]
000000 fa 67 36 be c8 08 d6 3e 09 66 0a bf 26 8e 7b 3c
       -0.17813101 0.41803575 -0.54061943 0.015353715
000010 53 80 cc 3b 56 b2 f9 3d 00 00 00 00 00 00 00 00
       0.0062408834 0.12192218 0.0 0.0
000020 00 00 00 00 00 00 00 00 00 00 00 00 00 00 00 00
       0.0 0.0 0.0 0.0

naim.embeddings.37.embeddings.weight f4 [2, 6]
000000 82 76 1c 3a 37 ca b9 be 4f a8 08 be 68 fc 9f bd
       0.0005968587 -0.3628709 -0.13345455 -0.078118145
000010 46 d5 75 3e a6 01 ff 3d 00 00 00 00 00 00 00 00
       0.24007139 0.12451486 0.0 0.0
000020 00 00 00 00 00 00 00 00 00 00 00 00 00 00 00 00
       0.0 0.0 0.0 0.0

naim.embeddings.38.embeddings.weight f4 [2, 6]
000000 d4 e9 2f 3d 7c b9 83 bd aa 8b df 3a 47 17 a3 3e
       0.042947605 -0.06431863 0.0017055173 0.31853697
000010 21 47 27 be 96 ee 37 3e 00 00 00 00 00 00 00 00
       -0.16335727 0.17962107 0.0 0.0
000020 00 00 00 00 00 00 00 00 00 00 00 00 00 00 00 00
       0.0 0.0 0.0 0.0

naim.embeddings.39.embeddings.weight f4 [2, 6]
000000 be 59 37 bd 70 2b 99 be e7 75 07 3f 0b bd 27 bf
       -0.04476332 -0.29915953 0.5291428 -0.6552283
000010 4d ae 5e 3e de 73 b2 3e 00 00 00 00 00 00 00 00
       0.21746178 0.34854025 0.0 0.0
000020 00 00 00 00 00 00 00 00 00 00 00 00 00 00 00 00
       0.0 0.0 0.0 0.0

naim.embeddings.40.embeddings.weight f4 [2, 6]
000000 32 3f b4 bd 62 37 7f 3e d9 f2 00 3e d1 1c 23 be
       -0.08801116 0.2492347 0.12592639 -0.15928961
000010 66 0b 76 bd 23 14 b7 be 00 00 00 00 00 00 00 00
       -0.060069464 -0.3575755 0.0 0.0
000020 00 00 00 00 00 00 00 00 00 00 00 00 00 00 00 00
       0.0 0.0 0.0 0.0

naim.embeddings.41.embeddings.weight f4 [2, 6]
000000 1e 06 17 be bc 94 63 be 4a 81 b4 3e 82 02 5c 3e
       -0.14748427 -0.22224706 0.3525489 0.21485332
000010 1a 2a d6 3e 85 2d 19 3f 00 00 00 00 00 00 00 00
       0.41828996 0.5983508 0.0 0.0
000020 00 00 00 00 00 00 00 00 00 00 00 00 00 00 00 00
       0.0 0.0 0.0 0.0

naim.embeddings.42.embeddings.weight f4 [2, 6]
000000 8a bb a7 be 45 60 40 3f ac c0 80 3e 3f 35 d8 3e
       -0.32760268 0.75146896 0.25146997 0.42228124
000010 40 ca f4 3d c9 ee 19 be 00 00 00 00 00 00 00 00
       0.119526386 -0.15032496 0.0 0.0
000020 00 00 00 00 00 00 00 00 00 00 00 00 00 00 00 00
       0.0 0.0 0.0 0.0

naim.embeddings.43.embeddings.weight f4 [2, 6]
000000 ea 81 81 be cb ab c2 3c 1c 07 30 3f 23 c0 00 3f
       -0.2529443 0.023763558 0.6876085 0.5029318
000010 82 96 c8 3e e3 5e be bd 00 00 00 00 00 00 00 00
       0.39177328 -0.09295442 0.0 0.0
000020 00 00 00 00 00 00 00 00 00 00 00 00 00 00 00 00
       0.0 0.0 0.0 0.0

naim.embeddings.44.embeddings.weight f4 [2, 6]
000000 80 15 d5 bc fe a6 a2 3e ca ab 64 3e 47 1a b9 be
       -0.026011229 0.3176803 0.22331157 -0.3615286
000010 0a 99 14 3e f8 32 08 3f 00 00 00 00 00 00 00 00
       0.14511505 0.5320277 0.0 0.0
000020 00 00 00 00 00 00 00 00 00 00 00 00 00 00 00 00
       0.0 0.0 0.0 0.0

naim.embeddings.45.embeddings.weight f4 [2, 6]
000000 86 51 f3 be f5 37 1f bf 48 f2 95 be ad 65 40 3e
       -0.47523135 -0.6219476 -0.29286408 0.18788786
000010 3d 9d ed be c2 0a 3f be 00 00 00 00 00 00 00 00
       -0.46409026 -0.18656448 0.0 0.0
000020 00 00 00 00 00 00 00 00 00 00 00 00 00 00 00 00
       0.0 0.0 0.0 0.0

naim.embeddings.46.embeddings.weight f4 [2, 6]
000000 fa 35 8d bd 7a 2b 9e 3d a4 7c 99 3e 74 b0 d5 bd
       -0.06895061 0.07723136 0.29977906 -0.104340464
000010 5a ce 0c 3e ab 13 55 3e 00 00 00 00 00 00 00 00
       0.13750592 0.20808284 0.0 0.0
000020 00 00 00 00 00 00 00 00 00 00 00 00 00 00 00 00
       0.0 0.0 0.0 0.0

naim.embeddings.47.embeddings.weight f4 [2, 6]
000000 43 83 a7 3e 4f 52 f7 bd f8 a4 fc be 48 e3 83 be
       0.32717332 -0.12076246 -0.4934461 -0.2575934
000010 33 5d 99 3e 9e 2a a1 be 00 00 00 00 00 00 00 00
       0.29953918 -0.31477827 0.0 0.0
000020 00 00 00 00 00 00 00 00 00 00 00 00 00 00 00 00
       0.0 0.0 0.0 0.0

naim.embeddings.48.embeddings.weight f4 [2, 6]
000000 87 5a 8e 3c f4 98 88 3e 7e 81 b7 3d 63 36 a7 3e
       0.017377151 0.26679194 0.089602455 0.3265868
000010 94 3d 35 3f 1b 9a bf 3e 00 00 00 00 00 00 00 00
       0.70797086 0.3742226 0.0 0.0
000020 00 00 00 00 00 00 00 00 00 00 00 00 00 00 00 00
       0.0 0.0 0.0 0.0

naim.embeddings.49.embeddings.weight f4 [2, 6]
000000 ed c3 7f be ec 66 88 3e 22 6f 9f 3e 8d 03 10 be
       -0.24977084 0.26641023 0.31139475 -0.14063855
000010 98 2e c4 be 61 43 d6 3e 00 00 00 00 00 00 00 00
       -0.38316798 0.4184828 0.0 0.0
000020 00 00 00 00 00 00 00 00 00 00 00 00 00 00 00 00
       0.0 0.0 0.0 0.0

naim.embeddings.50.embeddings.weight f4 [2, 6]
000000 bb a0 0f 3f 2b 29 d1 3e 4e b1 fe bd 9f f0 3e be
       0.5610463 0.4085172 -0.12436162 -0.18646477
000010 76 97 04 be 77 b7 14 bf 00 00 00 00 00 00 00 00
       -0.12948403 -0.58092445 0.0 0.0
000020 00 00 00 00 00 00 00 00 00 00 00 00 00 00 00 00
       0.0 0.0 0.0 0.0

naim.embeddings.51.embeddings.weight f4 [2, 6]
000000 b6 ed 45 3d b2 2d 34 3e b2 5e 12 3f e6 6c 2e bf
       0.048322402 0.17595556 0.57175744 -0.68134916
000010 b3 a5 bc 3e 2a 48 11 be 00 00 00 00 00 00 00 00
       0.36845168 -0.14187685 0.0 0.0
000020 00 00 00 00 00 00 00 00 00 00 00 00 00 00 00 00
       0.0 0.0 0.0 0.0

naim.embeddings.52.embeddings.weight f4 [2, 6]
000000 df 14 a4 3e c1 a7 72 be e4 b2 75 be 2b 6d 6e be
       0.32047173 -0.23696806 -0.23994023 -0.23283832
000010 b2 e7 e8 3d c9 e8 c1 be 00 00 00 00 00 00 00 00
       0.113723174 -0.37872913 0.0 0.0
000020 00 00 00 00 00 00 00 00 00 00 00 00 00 00 00 00
       0.0 0.0 0.0 0.0

naim.embeddings.53.embeddings.weight f4 [2, 6]
000000 49 4d 86 be 9e 66 3a be 96 9e 2a 3e 53 3d 43 bd
       -0.2623084 -0.18203208 0.16662058 -0.047665905
000010 4f 1b 6b 3f 74 a0 9b bb 00 00 00 00 00 00 00 00
       0.91838545 -0.004749352 0.0 0.0
000020 00 00 00 00 00 00 00 00 00 00 00 00 00 00 00 00
       0.0 0.0 0.0 0.0

naim.embeddings.54.embeddings.weight f4 [2, 6]
000000 94 39 53 3e 2d 29 0c 3f 76 a7 cd 3e a4 13 55 3e
       0.20627433 0.5475033 0.40166825 0.20808274
000010 07 97 21 bf d1 92 fe 3d 00 00 00 00 00 00 00 00
       -0.63121074 0.12430347 0.0 0.0
000020 00 00 00 00 00 00 00 00 00 00 00 00 00 00 00 00
       0.0 0.0 0.0 0.0

naim.embeddings.55.embeddings.weight f4 [2, 6]
000000 c8 5e a8 3e d5 d8 aa be d5 9f 14 bf 3b ce 10 3f
       0.32884812 -0.33368555 -0.58056384 0.5656468
000010 3a 48 c4 bd f9 5c 24 be 00 00 00 00 00 00 00 00
       -0.095840886 -0.16051091 0.0 0.0
000020 00 00 00 00 00 00 00 00 00 00 00 00 00 00 00 00
       0.0 0.0 0.0 0.0

naim.embeddings.56.embeddings.weight f4 [2, 6]
000000 30 91 d0 be 7e 90 eb be 25 f1 48 3e 62 99 91 bd
       -0.4073577 -0.46008676 0.1962324 -0.071093336
000010 4e f3 d9 be 97 54 69 bd 00 00 00 00 00 00 00 00
       -0.4256844 -0.056965437 0.0 0.0
000020 00 00 00 00 00 00 00 00 00 00 00 00 00 00 00 00
       0.0 0.0 0.0 0.0

naim.embeddings.57.embeddings.weight f4 [2, 6]
000000 2c 1a ea 3e 78 79 b1 be 72 79 5d be 59 5e 8c 3e
       0.45723093 -0.34662986 -0.21628359 0.27415732
000010 72 a0 39 3f 50 9f b1 bc 00 00 00 00 00 00 00 00
       0.72510445 -0.021682411 0.0 0.0
000020 00 00 00 00 00 00 00 00 00 00 00 00 00 00 00 00
       0.0 0.0 0.0 0.0

naim.embeddings.58.embeddings.weight f4 [2, 6]
000000 55 89 eb bd 5b bc 85 3c 84 1b 2a 3d d5 86 33 bd
       -0.115008034 0.016325166 0.041530147 -0.043829758
000010 b6 92 d4 3d 26 e0 8b be 00 00 00 00 00 00 00 00
       0.103795454 -0.2731945 0.0 0.0
000020 00 00 00 00 00 00 00 00 00 00 00 00 00 00 00 00
       0.0 0.0 0.0 0.0

naim.embeddings.59.embeddings.weight f4 [2, 6]
000000 28 fe a3 3e 3f 03 3e be de 03 86 be f9 3a 34 3f
       0.32029843 -0.18555926 -0.26174825 0.70402485
000010 33 c9 8e 3e 4e bf e1 3e 00 00 00 00 00 00 00 00
       0.27887878 0.44091266 0.0 0.0
000020 00 00 00 00 00 00 00 00 00 00 00 00 00 00 00 00
       0.0 0.0 0.0 0.0

naim.embeddings.60.embeddings.weight f4 [2, 6]
000000 8e 5e 0b bf 6c c7 58 bd dd 21 6e 3d 37 61 09 3f
       -0.54441154 -0.05292456 0.058137763 0.53663963
000010 86 aa 8d 3e 4b b3 c3 3e 00 00 00 00 00 00 00 00
       0.27669162 0.38222727 0.0 0.0
000020 00 00 00 00 00 00 00 00 00 00 00 00 00 00 00 00
       0.0 0.0 0.0 0.0

naim.embeddings.61.embeddings.weight f4 [2, 6]
000000 f0 97 70 be b0 d6 48 3d 87 5e 12 3e 76 f8 a0 bd
       -0.2349546 0.049032867 0.14293872 -0.0785989
000010 06 5c 6b 3e d6 57 e9 bd 00 00 00 00 00 00 00 00
       0.22984323 -0.113937065 0.0 0.0
000020 00 00 00 00 00 00 00 00 00 00 00 00 00 00 00 00
       0.0 0.0 0.0 0.0

naim.embeddings.62.embeddings.weight f4 [2, 6]
000000 7c c1 91 3e 93 0a 1e 3e 92 5e 35 bf b1 c2 80 bd
       0.2846793 0.15433721 -0.7084743 -0.062871344
000010 76 39 c2 be 99 13 f0 be 00 00 00 00 00 00 00 00
       -0.37934464 -0.46889952 0.0 0.0
000020 00 00 00 00 00 00 00 00 00 00 00 00 00 00 00 00
       0.0 0.0 0.0 0.0

naim.embeddings.63.embeddings.weight f4 [2, 6]
000000 32 11 43 3f 45 a4 ac 3e 2a c3 a5 be 07 b0 36 3e
       0.7619811 0.33719078 -0.3237546 0.17840587
000010 0a 67 5f be 44 9f 28 be 00 00 00 00 00 00 00 00
       -0.2181665 -0.16467005 0.0 0.0
000020 00 00 00 00 00 00 00 00 00 00 00 00 00 00 00 00
       0.0 0.0 0.0 0.0

naim.encoder.0.layer_norm_1.weight f4 [6]
000000 05 de 7c 3f 1c ae 7c 3f 61 55 7d 3f 7f da 7d 3f
       0.98776275 0.9870317 0.989584 0.99161524
000010 6d f1 7c 3f 4e c2 7c 3f
       0.98805887 0.98733985

naim.encoder.0.layer_norm_1.bias f4 [6]
000000 e7 f2 54 3b 46 ca 17 bb 91 65 ea 38 ab 05 1d bb
       0.0032493414 -0.0023161336 0.00011176908 -0.0023959677
000010 0f 45 4d 3a bb 8c 99 3b
       0.000783042 0.004685966

naim.encoder.0.attn.linear_q.weight f4 [6, 6]
000000 67 39 bf bd 1e a1 f1 3c 2a 99 ca bd 96 0f c6 be
       -0.093371205 0.029495772 -0.09892495 -0.38683766
000010 5b 52 3b bd 5b 70 4a 3e 9b 89 1f bd c8 6b 45 be
       -0.045732837 0.19769423 -0.03894959 -0.19279397
000020 27 72 90 3c 00 74 96 3d d8 06 e0 bd 74 9f a2 be
       0.017632557 0.07346344 -0.10938805 -0.31762278
000030 80 d2 52 be b3 58 5b bd ce 54 09 3e 9c 3a b3 3e
       -0.20588112 -0.053551387 0.13411257 0.35005653
000040 a9 49 7e 3b 03 53 08 3e af b3 72 3e f0 a2 33 be
       0.003880123 0.13312916 0.23701356 -0.17542624
000050 74 98 04 be af 54 84 3e ed f8 8f 3e 1d 62 ac 3d
       -0.12948781 0.25845858 0.28119603 0.08417151
000060 7e f4 9a be b2 45 60 3e d0 18 a6 be 3c 3b 48 3e
       -0.30264658 0.21901587 -0.32440805 0.19553846
000070 39 72 2b 3d d0 6c f8 3d 99 29 c5 be 5f d8 05 be
       0.041856978 0.12130129 -0.385083 -0.1307082
000080 dc 44 24 3e 7b 53 9a 3e e5 8c d4 bd 75 d1 b3 3e
       0.16041893 0.30141816 -0.10378436 0.3512074

naim.encoder.0.attn.linear_k.weight f4 [6, 6]
000000 b8 da bb bd fa 07 6f be b0 a0 2e be 6e 55 09 3d
       -0.09172577 -0.23342887 -0.17053485 0.033528738
000010 7b 5b 78 bd 33 a2 3d 3e c3 ea 59 be 14 09 e1 bd
       -0.060634118 0.18518905 -0.2128096 -0.1098806
000020 d9 3d ca be e0 4f a9 3e 92 98 9f bd 2c 7f 9e be
       -0.3950031 0.33068752 -0.07792772 -0.309564
000030 53 28 9d bc a1 25 8c 3b 18 25 db 3d 58 59 2f bd
       -0.019184267 0.0042769467 0.107004344 -0.042809814
000040 e2 f4 79 3e a5 54 03 be 35 95 ef bd 51 f5 ab bd
       0.24409822 -0.12825258 -0.11698381 -0.083964
000050 0a 37 84 3d 1e 15 a5 3e dc b1 a9 bc c5 1c 9a 3e
       0.0645581 0.32242674 -0.020714693 0.30100074
000060 1a 92 9d 3e e7 fa 4c be cd 09 bc bc 0e 30 38 be
       0.3077553 -0.20017587 -0.022953892 -0.17987081
000070 7e 10 21 3e 80 d5 06 be 39 03 e8 3d f6 81 d0 3c
       0.15728948 -0.13167381 0.1132874 0.025452595
000080 0a ae 82 be 9f df 86 be ab 8b c5 be 1d 78 5c be
       -0.25523406 -0.26342484 -0.3858312 -0.21530195

naim.encoder.0.attn.linear_v.weight f4 [6, 6]
000000 59 08 e9 3d 74 60 bb 3c 5b aa 9b 3e 36 d5 b6 be
       0.11378545 0.02287314 0.30403408 -0.35709542
000010 35 96 b4 bc 8a c5 b6 be 83 02 da 3b 96 46 11 3e
       -0.02204428 -0.35697585 0.0066531315 0.14187083
000020 eb 66 bb be 5f 0f b9 3e 72 ed f3 bd 73 33 b5 3e
       -0.36601958 0.3614454 -0.119105235 0.35390815
000030 66 b8 76 bd 82 4d 64 3e d4 e5 be 3e 52 51 1b be
       -0.06023445 0.22295192 0.3728472 -0.1516774
000040 84 81 c9 bd 3a 1d 5b 3e c2 4c af be d2 7c 70 3e
       -0.09839156 0.21397868 -0.3423825 0.23485115
000050 04 04 80 be 66 16 bf 3e 4f c0 85 be 5c ed 2e be
       -0.25003064 0.37321776 -0.26123282 -0.17082733
000060 5b 23 97 3e 3a 5b 2d be 7a 36 ad 3e ef b8 8a 3e
       0.29519162 -0.16929331 0.33830625 0.27094218
000070 da 22 ba 3e 7b db c5 be 21 73 56 3a 47 63 04 be
       0.36354715 -0.38644013 0.00081806077 -0.12928496
000080 a7 cc c3 3d b6 df 9b be 7a f6 25 3e c5 69 6e bc
       0.09560519 -0.30444115 0.16207305 -0.014551585

naim.encoder.0.attn.linear_o.weight f4 [6, 6]
000000 57 7b 3c be 3e 6f b5 be e5 02 4e 3e 85 59 10 be
       -0.18406425 -0.35436434 0.20118292 -0.14096649
000010 8f fb 93 3e 8a 8c 7a 3d ab c9 e3 3d 86 e4 48 bd
       0.2890286 0.061169185 0.111224495 -0.049046062
000020 70 fa 32 bd b6 c1 00 be f8 58 ae be 66 8a 79 3e
       -0.043695867 -0.12573895 -0.34052253 0.24369201
000030 95 2f 83 be e8 07 74 3e 26 4e 0d be 4d 6a 82 3e
       -0.2562224 0.23831141 -0.13799343 0.25471726
000040 8f 0e b3 3e 37 74 7e be f9 52 a9 3e 80 c5 81 3b
       0.34972045 -0.2484902 0.33071116 0.0039603114
000050 b2 46 a2 be 56 5a 24 3e d6 f7 65 3e 39 d5 b4 3e
       -0.3169456 0.16050085 0.22457823 0.35318926
000060 f4 ae c8 be 6a 80 ba 3e b9 d8 9b 3e bf 31 cb 3e
       -0.3919598 0.36426097 0.30438784 0.3968639
000070 7e b3 5e 3e 68 9d 4e be 4c 95 a0 3e 6d f7 c0 3e
       0.21748158 -0.20177233 0.31363904 0.3768877
000080 c7 bf 1a be 88 3e 7e bd 94 f6 a5 3e 61 00 aa 3e
       -0.1511222 -0.062071353 0.32414687 0.33203414

naim.encoder.0.layer_norm_2.weight f4 [6]
000000 79 cd 7d 3f e7 3a 7e 3f 95 4f 80 3f c8 a1 7f 3f
       0.9914165 0.9930863 1.0024287 0.99856234
000010 fe f2 7e 3f b4 d4 7f 3f
       0.99589527 0.99933934

naim.encoder.0.layer_norm_2.bias f4 [6]
000000 a0 55 36 bb a8 a1 d9 bb 54 ca 9a 3b d8 a6 ad 3b
       -0.0027822033 -0.0066415854 0.0047238264 0.0052994303
000010 bb 12 da 3b a6 8e cd bb
       0.006655065 -0.0062731085

naim.encoder.0.ff.0.weight f4 [1000, 6]
000000 0d 85 85 3e fa f8 99 3e 5c 53 4e be 8e 6b 88 bd
       0.26078072 0.30072767 -0.20148987 -0.066611394
000010 af 41 1a be 51 99 4d 3e fb 8e be 3d ee e8 9a be
       -0.15064119 0.20078017 0.09304615 -0.30255836
000020 22 52 2f bd ca e5 a3 be 4c 31 be be 02 eb b7 3e
       -0.042802937 -0.32011253 -0.37146986 0.35921484
000030 a4 4d 45 be 06 79 2e 3e 05 73 a0 bd bc 18 9f bd
       -0.19267899 0.17038354 -0.07834438 -0.077683896
000040 42 29 cb 3b fe c4 9c 3e 61 ce 51 bd a7 38 a6 3e
       0.0061999867 0.30619043 -0.05122221 0.32465097
000050 2f a0 67 3e 71 d4 88 3e 2f db b6 be 01 d4 36 be
       0.22619699 0.2672458 -0.357141 -0.1785431
000060 2d e7 a3 be ab c8 9a bd e3 3d 95 bd a4 0e 91 3d
       -0.3201231 -0.07557806 -0.072871946 0.070828706
000070 c6 b2 b4 3e 2c df 2f 3e 86 ae 8c be 4d f0 79 be
       0.35292643 0.17174977 -0.274769 -0.24408074
000080 be 62 97 3e e2 1e 06 3d cc 95 d8 3d 8a b9 4e be
       0.29567522 0.032744296 0.105754465 -0.20187965
000090 bd 97 5c bd 0b d0 e6 3d 41 66 83 be b0 44 82 3e
       -0.053855646 0.1127015 -0.2566395 0.2544303
0000a0 e0 45 46 3e c8 aa 68 be 47 79 1e be c0 4f b0 bd
       0.19362593 -0.22721398 -0.15475951 -0.08608961
0000b0 7f 8b 64 3d 81 e1 0f be 18 7b c1 3e c3 ba c2 be
       0.055797096 -0.14050867 0.37789226 -0.38033113
0000c0 ed 61 60 be 7c a6 71 be 1c ba c7 3d 37 36 62 3d
       -0.21912356 -0.23598665 0.097522944 0.055227485
0000d0 ab 05 d6 bd 7d 1a ac 3e 91 00 ae be 74 0e 08 3e
       -0.104503 0.3361396 -0.33984807 0.13286763
0000e0 26 6e 5a be 1d cc aa bd 33 aa c2 be 3a a6 95 be
       -0.21331081 -0.08339713 -0.38020477 -0.29228383
0000f0 5e 53 ab be f9 7e 2a 3e ac df 13 be 80 22 50 3e
       -0.33462042 0.16649999 -0.14440793 0.2032566
000100 77 c7 55 be ad 1c d0 bd 88 88 33 3d c2 db a8 3e
       -0.20876871 -0.101617195 0.04383138 0.32980162
000110 63 6f d2 bd 46 f3 6a 3e e1 22 d2 3d c6 b7 72 3e
       -0.102751516 0.22944364 0.10260559 0.23702917
000120 03 1e 7c 3e 22 0f 28 3e b2 40 ed bd a3 5a d5 bd
       0.24620824 0.16412023 -0.11584605 -0.10417678
000130 1c 21 1b 3e 03 d6 58 3e bf 37 43 bc 3a 2b 45 3e
       0.15149349 0.21175389 -0.011915146 0.19254771
000140 ab 0b 73 be fb 02 5f 3e a2 1c 2e bd f9 32 89 be
       -0.2373492 0.2177848 -0.042507775 -0.26796702
000150 44 8f 3e be 2c f1 98 be ec 62 a2 3d a6 bf 6d be
       -0.18609339 -0.298715 0.07929024 -0.2321764
000160 d4 43 db bd 8f 98 af bc 22 b2 72 be 0b 19 5a 3c
       -0.107062966 -0.02143505 -0.23700765 0.013311635
000170 f3 a5 5b bd 65 a8 f9 3d b7 69 90 3e 64 ab 74 be
       -0.05362506 0.12190322 0.28205654 -0.23893505
000180 ef b4 57 3e 45 37 51 bc 37 a5 66 be 9d 0f 33 be
       0.21065114 -0.012769525 -0.22523962 -0.17486425
000190 af c1 ca 3d 10 99 95 3d a0 01 37 bc a5 aa 42 be
       0.099002235 0.07304585 -0.011169821 -0.19010408
0001a0 a2 d2 45 3e 53 64 82 3d 04 8e c4 be 4e 6a 77 bd
       0.19318631 0.063667916 -0.383896 -0.060404114
0001b0 d7 c5 d9 bd 96 51 25 be cd 40 5b be a2 48 a3 be
       -0.10633438 -0.16144404 -0.21411438 -0.31891352
0001c0 a8 29 c7 3e 4e 37 b8 be 57 7e c0 3e 91 ba a2 be
       0.3889897 -0.35979694 0.3759639 -0.31782964
0001d0 1d b8 c0 bd 0c 5c 21 be 2a 05 54 be bc 77 0b 3e
       -0.09410117 -0.1575777 -0.20705095 0.13619894
0001e0 e3 c1 66 3e 42 dc 82 be 72 c7 37 be a8 55 49 3e
       0.225349 -0.25558668 -0.17947176 0.19661582
0001f0 51 9e 2e bd 62 c9 b8 3d 54 4e 4d 3e c6 ce 0e be
       -0.04263145 0.09022786 0.20049411 -0.13946065
000200 e5 e4 5a be 47 f6 0d 3e 7e 17 0c be c1 97 84 be
       -0.21376379 0.13863479 -0.13680837 -0.2589703
000210 4e f2 45 be f6 16 37 be 27 0f ca 3e b3 71 9f 3d
       -0.19330713 -0.17879853 0.39464685 0.07785358
000220 21 45 27 3e 91 fb 3a 3d 34 45 86 be 9b 35 90 3e
       0.16334964 0.04565007 -0.26224673 0.28165898
000230 6c 1c 5e bd 00 bc bf bd 1f bd a3 3e c1 be 47 be
       -0.054226324 -0.0936203 0.31980225 -0.1950636
000240 9d 1b 97 3d 05 23 ac be d7 e8 4a 3e f8 34 1b 3e
       0.07378314 -0.33620468 0.19815384 0.15156925
000250 da 74 a5 be 57 4f 5c 3e 83 89 45 3d 32 81 57 be
       -0.32315713 0.21514641 0.048226845 -0.21045378
000260 9e 53 ac 3e db 59 2d 3e 31 8e 0f 3e a1 c7 18 be
       0.33657545 0.16928808 0.14019085 -0.14919902
000270 59 99 58 be dc 72 54 be 58 1a 13 3e 7f a7 d0 3d
       -0.21152247 -0.2074694 0.14365518 0.10188197
000280 93 52 6d be dc e7 b7 3e bd 92 66 3e e2 f7 15 be
       -0.23176031 0.35919082 0.22516914 -0.14645341
000290 b4 db 4c 3e 37 12 26 be 22 b9 f2 3d 97 89 a7 3e
       0.20005685 -0.16217886 0.118517175 0.3272216
0002a0 97 0e b3 be 3d 0f 4a be a8 70 b4 bc be 66 7f 3d
       -0.3497207 -0.19732375 -0.022026375 0.062353842
0002b0 79 7a a5 be 91 e7 85 be ee 52 08 bd 98 06 74 bd
       -0.32320002 -0.26153234 -0.033282213 -0.0595766
0002c0 81 ce 9a 3d 52 50 5d 3d 42 dc 9d 3d 5d 52 c5 3c
       0.07558919 0.054031678 0.077080265 0.024087125
0002d0 8d ee 20 3d 18 e0 a1 bc 36 c4 10 3e fa 10 89 3e
       0.03929 -0.019760177 0.14137349 0.26770765
0002e0 b2 fa 43 be b4 57 4b be 8b 7b 2a 3e f2 02 91 be
       -0.19138601 -0.19857675 0.1664869 -0.2832256
0002f0 4f a9 82 3e 4f b1 36 3e bc ce 58 3d de 5e 2a be
       0.25519797 0.17841075 0.052931532 -0.16637751
000300 26 c9 8d 3c ef 0a a1 be 50 6c b5 be 1e 5d be 3e
       0.01730783 -0.31453654 -0.35434198 0.37180418
000310 2c e1 b4 be 95 1b a7 be e3 1f 1f be 98 b1 8c 3c
       -0.35328043 -0.3263823 -0.15539508 0.017174527
000320 38 c1 b8 3d 0d c7 40 be 98 ce e5 bc 83 ca a8 bd
       0.090212286 -0.18825932 -0.028052613 -0.08241751
000330 2d b9 a8 3e c7 d3 ae 3e 80 fb 21 3e aa 13 41 ba
       0.32953778 0.34145948 0.15818596 -0.0007365296
000340 67 da 96 3e e3 58 a2 be 31 81 21 3e 21 df 65 be
       0.29463503 -0.3170844 0.15771939 -0.22448398
000350 dd 4f 9c 3e 54 1b b2 be 7c 12 0e 3e 52 27 a5 be
       0.3052968 -0.34786475 0.13874239 -0.32256562
000360 f0 bf 68 3e 2d 11 a2 3d 0e a6 ac 3e d8 78 9c be
       0.22729468 0.07913432 0.3372044 -0.30560946
000370 a3 1e 80 3e 57 71 85 be 82 1e 55 be f8 18 12 3e
       0.25023374 -0.26063034 -0.20812419 0.14267337
000380 8c 47 8e bd 78 07 a0 be 8b 5a ab be 0f 34 db bd
       -0.0694724 -0.31255698 -0.33467516 -0.10703289
000390 36 1c ce 3d d8 f2 b0 3e 77 2f 93 3e 6a 13 e1 3a
       0.100639746 0.34560275 0.2874715 0.0017171924
0003a0 6d 3c 73 be f6 b4 b3 be 64 8e b4 3e ee 45 5d be
       -0.2375352 -0.35099 0.35264885 -0.21608707
0003b0 9b f2 82 bd 16 00 a2 be 9a 08 8a be 60 fa 8a 3d
       -0.063939296 -0.3164069 -0.26959687 0.067860365
0003c0 ed f3 cb bd e6 22 42 3d ab dd f3 3a 2d 53 87 3c
       -0.099586345 0.047396563 0.0018605491 0.016519153
0003d0 ee d2 a8 bd ab e1 1a bc 7c 1e 29 3e 18 52 92 3e
       -0.08243357 -0.0094532175 0.16515535 0.28578258
0003e0 75 01 aa 3e 37 43 a7 be a8 15 aa be fc e8 54 bd
       0.33204237 -0.32668468 -0.33219647 -0.051980004
0003f0 08 a9 bd bc 1d 82 5c 3e 72 de be 3e 24 c8 d4 3d
       -0.02315189 0.2153401 0.37279087 0.10389736

naim.encoder.0.ff.0.bias f4 [1000]
000000 ab 2c 80 3e 01 c9 4b be d6 aa 77 bd eb cc e7 3c
       0.2503408 -0.19900896 -0.060465656 0.028295955
000010 9f 49 8f 3e 0f 64 2f 3e 5e ee c3 3e 1a 90 53 be
       0.27985856 0.17128013 0.38267797 -0.20660439
000020 86 11 0b bd 32 67 03 bd 12 96 a4 3e 27 8d c0 3e
       -0.03395226 -0.032080837 0.32145745 0.3760769
000030 d7 09 c4 3d 79 ab a2 be cb a6 91 be 7d 6c 9d 3d
       0.09572189 -0.31771448 -0.28447565 0.07686708
000040 3b af b1 be aa 61 05 be 62 53 96 be 77 36 56 3e
       -0.34704003 -0.13025537 -0.2936049 0.20919214
000050 ee 71 6e bd c5 01 9d be c3 99 82 3e 0e d5 b2 be
       -0.05821412 -0.30665413 0.25507936 -0.34928173
000060 4b 44 31 bd 85 08 c8 3e b5 05 49 3e 99 99 b0 be
       -0.04327802 0.39069 0.19631083 -0.34492186
000070 47 1e 2d 3d 10 46 5a bd 7a b5 2f 3e e9 cd bb 3e
       0.042265203 -0.053289473 0.17159072 0.36680534
000080 75 49 ac 3e d3 b6 fc bc f2 58 37 3e 3d d5 c6 be
       0.33649793 -0.030848896 0.17905024 -0.38834563
000090 ab 7f 9e 3e a0 d8 53 3e 7c a0 8c be 74 a0 e3 bd
       0.30956778 0.20688105 -0.2746619 -0.111145884
0000a0 aa 06 18 be 1e fd 69 be ed 47 2d 3e 83 83 dc bd
       -0.14846292 -0.22850463 0.16921969 -0.10767271
0000b0 69 18 25 3e cc 8e ef bd 45 b1 9e 3e 41 57 1b be
       0.16122593 -0.11697158 0.3099462 -0.15170003
0000c0 16 60 90 bd 86 b4 ee bd 67 8f 59 3c 02 b0 11 be
       -0.07049577 -0.11655526 0.013278819 -0.14227298
0000d0 98 d4 8c be 4f f8 bf be a4 b3 76 3e 4b d9 7d 3d
       -0.27505946 -0.37494132 0.24091965 0.061974805
0000e0 e2 6a 80 be f7 0f 50 3e a1 c8 33 3d c1 28 0b be
       -0.25081545 0.2031859 0.043892507 -0.13589765
0000f0 9e cc 04 bd d0 e9 1b 3d f5 67 8f 3e ce 6d b9 be
       -0.0324217 0.038064778 0.28009 -0.36216587
000100 11 8e 9b be 4f 50 a2 be 22 ad 9d be 66 94 4f bb
       -0.30381826 -0.31701896 -0.30796152 -0.0031674146
000110 3a ae 66 3e cf 04 df 3d 47 49 26 3e 77 2a 2d 3d
       0.225274 0.10889589 0.1623889 0.042276826
000120 1b 35 c9 b9 c4 a9 b6 be dc cb b4 3e 1f 9f c4 3e
       -0.00038377274 -0.35676396 0.35311782 0.3840265
000130 3a b6 65 3b 21 38 88 3d 1f 08 9f 3d 03 35 c9 3e
       0.0035051242 0.06651331 0.07765221 0.39298257
000140 9e 1b b7 bb 8e 04 63 bd 9a 66 5c be 23 3b d2 3d
       -0.005588009 -0.055424266 -0.21523514 0.10265186
000150 34 d1 34 3e 30 1d aa be a2 03 06 3e 09 f6 bf 3d
       0.1765793 -0.33225393 0.13087323 0.09373099
000160 90 5b 30 3e 82 38 38 3e e5 73 c3 bd 4e fc 31 3d
       0.17222428 0.17990306 -0.095435895 0.043453507
000170 29 ff 8b be 2b 0e 71 3e ab 3f a9 be f3 0a b1 be
       -0.2734311 0.23540561 -0.33056387 -0.34578666
000180 00 f4 94 be 7e e3 5b be bd 52 34 3c 58 05 86 3e
       -0.29092407 -0.214735 0.0110060545 0.26175952
000190 aa 1b 39 bd b6 9e 94 3e 7f ec 8c bd 0c 33 ab 3e
       -0.045192398 0.29027337 -0.068810456 0.33437383
0001a0 e7 d8 8a 3e 4d f9 7d 3e 1c d4 1d 3e 15 7a 86 be
       0.27118608 0.24802132 0.15412945 -0.26265016
0001b0 ca 22 cb 3e 5e 7c c0 be f7 1f 8c be 48 7e 6f be
       0.3967498 -0.37594885 -0.27368137 -0.23388016
0001c0 66 16 e0 bd 81 8e 2b 3e 1f 73 b7 3d 87 98 ad be
       -0.10941772 0.1675358 0.089575045 -0.33905432
0001d0 8f 40 c3 3e fd e1 bd 3e 7c 69 44 3e 03 3c c6 be
       0.38135192 0.37086478 0.19180864 -0.3871766
0001e0 ef c8 5e 3e 8a c8 f3 3d 4c ae 28 bd d8 91 a8 be
       0.21756338 0.11903484 -0.041181847 -0.3292377
0001f0 0f 55 af 3e 88 79 e3 bd 66 95 a2 be b5 e5 9a 3e
       0.34244582 -0.111071646 -0.31754607 0.30253378
000200 d9 9d 19 3e 55 54 e4 3d 0d 5a 82 3e f3 6b 0c 3e
       0.1500162 0.111488976 0.25459328 0.13713054
000210 31 14 9f bd af 38 77 bd c0 0e a7 3e d2 ad 82 bc
       -0.07767523 -0.060356792 0.3262844 -0.015952025
000220 2a aa a8 be 0a 48 8d be 45 2b 97 be 78 8a 15 3d
       -0.32942325 -0.27594024 -0.295252 0.036509007
000230 50 eb 93 3e 0d 75 77 3e ed 63 ce 3d 5b 08 02 3e
       0.28890467 0.24165745 0.10077653 0.126985
000240 06 70 3c be de bd c1 3e dc 39 15 3e 8e 41 7a be
       -0.18402109 0.3784017 0.14572853 -0.2443907
000250 7e 8d 85 be a9 a5 b4 be 64 d1 d5 bd c3 08 95 3e
       -0.26084512 -0.3528264 -0.10440329 0.29108247
000260 bf a3 85 3c 45 3a 3e be cf 8f d6 3d b8 bc 8a be
       0.016313432 -0.18576916 0.10476648 -0.27097106
000270 a9 b0 f2 3d 33 92 88 3e f1 d2 41 3e 1a 4f e9 bd
       0.118501015 0.2667404 0.18928124 -0.113920406
000280 91 d1 03 be 43 5d 2c 3e 99 66 70 3e 67 3d c9 bd
       -0.12872912 0.16832452 0.23476638 -0.09826165
000290 10 17 17 bb ac c1 1d bd 46 9a 1a bd 13 de b2 be
       -0.0023054518 -0.038514778 -0.037744783 -0.34935054
0002a0 52 c8 a5 be 7f d5 ac 3e d9 d9 3e be d1 52 9a 3e
       -0.32379395 0.33756635 -0.1863779 0.3014131
0002b0 b5 95 77 3e a4 7d 5d bd c2 3b 3e be 00 4b f7 3b
       0.24178202 -0.0540749 -0.18577483 0.0075467825
0002c0 f9 5f 85 bd b0 9c 6a be c8 22 c5 3e 81 5b cd bc
       -0.06512446 -0.22911334 0.38503098 -0.025068047
0002d0 a7 23 77 bd bf c8 87 be 56 c2 6f 3d bc b7 7a 3d
       -0.060336735 -0.26520345 0.058534943 0.06121038
0002e0 fc f8 c7 3e e4 bf e8 bd e9 25 64 3e b2 36 b5 3c
       0.39057148 -0.11364725 0.22280087 0.022120807
0002f0 37 c6 53 3e 61 8c 01 3b 4f 3e 78 bd c7 13 1b 3e
       0.20681082 0.001976751 -0.060606297 0.15144263
000300 04 cc 2e be 2b 16 75 3e 53 37 a9 be a6 42 8f be
       -0.17070013 0.23934238 -0.33050022 -0.27980536
000310 9a 2a c2 3e e0 d3 18 be 89 cd 9f be 39 31 92 be
       0.37923127 -0.14924574 -0.31211498 -0.2855318
000320 80 2d c6 3e f3 ec 3c bd 0f 6a a9 be a4 c8 5a bd
       0.3870659 -0.04612441 -0.3308873 -0.053414002
000330 7f 39 3f be 7d 39 86 be 61 34 44 be 46 2a 99 3e
       -0.18674277 -0.26215735 -0.19160606 0.29915065
000340 87 43 1d 3e 67 53 6d 3e 40 b1 1d 3d cf c1 21 be
       0.15357791 0.23176347 0.038499117 -0.15796588
000350 6b bb 1d be 16 43 86 be d2 6e 90 be d7 fb ad be
       -0.15403526 -0.26223058 -0.2820955 -0.339812
000360 90 78 a0 3d 43 10 51 3e c5 a6 a9 3e a2 94 c2 bb
       0.078354955 0.2041636 0.33135048 -0.0059381286
000370 5a 5a 7a bd 0c bd c7 bc 6d 4d 25 3e 81 42 6a bd
       -0.061121322 -0.024382137 0.16142817 -0.05719233
000380 79 da 08 be 84 df cd bd 8b 8d c5 be da 47 9a be
       -0.1336459 -0.10052398 -0.3858455 -0.30132943
000390 ce d1 27 be 85 ea 3a 3d 67 1a 7a be f3 f4 15 3e
       -0.16388628 0.04563381 -0.24424134 0.14644222
0003a0 e3 78 5c be 77 d2 c4 3e 05 1b b2 be da d7 60 3e
       -0.2153049 0.38441822 -0.3478624 0.21957341
0003b0 b3 84 4d be 1c 7d 0a be 96 d8 bc be e1 87 bb be
       -0.20070152 -0.13524288 -0.36883992 -0.36627105
0003c0 09 7a bf be ee 09 30 bb 26 2c ba 3e ee 5c 37 3e
       -0.37397793 -0.0026861387 0.36361808 0.17906544
0003d0 f2 bc 81 3e db d1 ac 3d 55 72 14 be a5 51 1e be
       0.25339466 0.08438464 -0.14496739 -0.15460832
0003e0 2b f5 df bd 87 d6 bc be fd 25 59 3e 62 41 f3 bd
       -0.10935434 -0.3688242 0.21205898 -0.11877705
0003f0 ec 4d 61 be b1 87 bb 3d 4e 07 8b 3a ba 4a 5f 3e
       -0.22002381 0.091567405 0.0010607035 0.2180585

naim.encoder.0.ff.3.weight f4 [6, 1000]
000000 51 9c a4 bc 15 ac 7d bc f3 83 5d bb 5e e7 cc bb
       -0.020094069 -0.015482922 -0.0033800572 -0.006253167
000010 4d 24 09 bc 72 7e 36 3c aa 48 e6 bb db e1 81 bc
       -0.008370471 0.011138545 -0.007027705 -0.015854767
000020 ea b1 b4 3c 58 c0 c7 3c 81 57 12 bb f5 ad d3 bb
       0.022057492 0.024383709 -0.0022329988 -0.0064599463
000030 b9 93 04 bd 5b 46 f5 bc 75 d9 74 bb fc 2b 91 bb
       -0.03236744 -0.029940775 -0.003736106 -0.004430292
000040 58 83 f9 3b f6 22 a5 bc c6 7f 49 bc f4 f8 7e b9
       0.0076145343 -0.020158272 -0.01229853 -0.0002431607
000050 01 54 d0 3c e7 1e 95 3c 55 90 5d bc 10 40 65 bc
       0.025430681 0.018203212 -0.013523181 -0.0139923245
000060 5a d2 24 bc 82 df 96 3b 54 57 7e 3c 29 26 05 bc
       -0.010059917 0.004604281 0.01552375 -0.008126774
000070 82 de 36 bb 9a d8 d7 bc 99 ff 73 bc 9b 22 09 bd
       -0.002790362 -0.0263484 -0.014892482 -0.033480268
000080 74 2c d7 3b 85 d4 90 bc 52 66 6a bc 25 44 87 bc
       0.0065665785 -0.017679462 -0.014306622 -0.016511986
000090 ec 26 ee 3c 3c e8 24 bb b7 3c 03 3d cc aa ad bc
       0.029071294 -0.0025162837 0.032040324 -0.021199606
0000a0 b6 38 bc 3c dd a5 1a ba 77 4f bd bc b2 fe a4 3c
       0.02297626 -0.00058993493 -0.02310918 0.02014098
0000b0 c3 b0 9a bc 1d a1 be bc f5 e0 92 3c 61 64 cd ba
       -0.018883115 -0.023270184 0.017929533 -0.0015670174
0000c0 88 76 6e 3b 5a 60 0a 3d f9 95 b4 bc 7d 48 5c bc
       0.0036386568 0.033783294 -0.022044169 -0.013445017
0000d0 5d c0 44 3c 26 47 1c bc 6e 74 a4 ba 7e f8 52 bc
       0.012008754 -0.0095384475 -0.0012546906 -0.012876628
0000e0 71 f0 c5 bb c6 e7 e7 3c f2 a2 b7 bb 11 25 31 3c
       -0.0060406257 0.02830876 -0.0056041414 0.01081206
0000f0 05 26 e3 3c 7e 51 97 3c 52 2a b5 3c 23 a0 84 3c
       0.02772809 0.018471476 0.022114906 0.01618964
000100 4c dc f7 bb f3 16 6d bb ef 5d 21 bc c9 3c 09 bd
       -0.007564103 -0.003617701 -0.009849056 -0.033505235
000110 d0 f0 bd 3c 0e 9a ea bc 3d 79 c2 bc 00 fa f3 bb
       0.023186117 -0.028637912 -0.023739452 -0.007445574
000120 ad c0 cf bc 26 9d b5 bc cf a2 ac bc 40 be d8 39
       -0.02536043 -0.02216966 -0.021073727 0.00041340478
000130 e6 07 02 bd 10 ed aa bc 4e 02 5c bc 8f 6c bd bc
       -0.031745814 -0.020864993 -0.013428284 -0.023123054
000140 41 09 54 3c 2e 61 31 3b b6 30 06 3c ce 3f c1 3c
       0.012941659 0.002706598 0.0081903245 0.023589995
000150 5e 02 8d bc 59 c5 9e bc 19 33 30 3c e6 12 e6 3c
       -0.017213043 -0.019381212 0.01075437 0.028085183
000160 45 d1 14 3c 58 6f f3 bb 2a 90 5e 3c 02 68 da bc
       0.009083097 -0.0074290447 0.013584176 -0.026660923
000170 f1 d8 de bc 0c 56 f7 bb ee b0 c8 bc 84 b7 cf bc
       -0.027203055 -0.0075480994 -0.02449843 -0.025356062
000180 41 6e df bc 44 00 72 3c 14 e7 ea 3b f8 f6 88 bb
       -0.027274253 0.014770571 0.00716866 -0.0041798316
000190 43 9a 56 bc 4a cf 44 bb 54 3c ab 3c 2e 75 e8 bc
       -0.013098302 -0.003003078 0.02090279 -0.028376188
0001a0 b7 b0 ee 3c 87 b1 88 3c 96 38 85 bc 55 0f ab 3c
       0.029136999 0.016686214 -0.016262334 0.020881334
0001b0 e4 94 29 bb 0e 99 6a bc 83 a4 fa 3c b7 dc 57 3c
       -0.00258761 -0.014318718 0.030596023 0.013175181
0001c0 b8 ac be 3c 69 b0 62 bc 81 88 fb bc 50 5b db 3c
       0.023275718 -0.013836005 -0.030704739 0.02677694
0001d0 c2 b1 fe 3b ea d2 89 3c ac 5d 64 bc b3 fd 2b 3c
       0.007772655 0.016824204 -0.013938349 0.010497498
0001e0 e5 61 bb bc 50 9a 30 bb 46 86 aa 3c 52 da 82 bc
       -0.022873828 -0.0026947446 0.02081598 -0.015973244
0001f0 0f 85 ca 3c 01 28 d2 3b 5c 2d 4f 3c 23 45 1f 3d
       0.02472165 0.0064134602 0.012645092 0.038884293
000200 2a e2 27 ba b0 5b 7f ba bc 48 9c 3c 8b 08 95 bc
       -0.00064042455 -0.00097411405 0.019077651 -0.01819255
000210 49 e1 e9 bc 0a 56 c1 3c e5 16 01 bd 71 ce a8 bc
       -0.028549807 0.023600597 -0.031515975 -0.020606251
000220 34 70 af 3a 0f c7 19 ba 56 d5 ca bc c5 b1 51 bc
       0.001338488 -0.0005866149 -0.02475993 -0.012798731
000230 f2 fa 9f 3c 1e ca 81 bc 2b 70 50 3c d0 f5 cd b9
       0.01952884 -0.015843447 0.012722055 -0.00039283792
000240 2b 31 3e bc 6f 80 f4 bc 65 47 03 bc b4 14 a3 3c
       -0.011608402 -0.029846398 -0.008012627 0.019907333
000250 29 ca 8b bc 92 ef bb bc cc ae 2d bb 87 2a e4 3c
       -0.01706417 -0.022941384 -0.0026501892 0.02785231
000260 4c 1e ae bb 25 e5 d6 3c 46 b8 d7 3c 0b 2b b0 3c
       -0.0053136703 0.026232312 0.026332986 0.0215049
000270 8a 61 37 bc 8b 9f 88 bc 77 c2 d6 bc 3a f4 28 bc
       -0.011192689 -0.016677639 -0.026215775 -0.010312134
000280 a1 9b aa bc 27 08 0d 3c c4 cb b9 3b d4 5b 8e 3c
       -0.020826163 0.008607901 0.0056700427 0.017377771
000290 7c 22 bf bc 3d 7a 03 bd 50 69 f8 ba d8 cf a8 3b
       -0.023331873 -0.032098997 -0.0018952284 0.00515173
0002a0 3f cb a8 3c 98 69 c7 bb 73 55 04 3d 4e 17 9d bb
       0.020604728 -0.006085586 0.032308053 -0.004794038
0002b0 2a 31 03 bc ef b5 49 bc 86 bf 92 bc be d8 3c bc
       -0.008007327 -0.012311443 -0.017913591 -0.011526285
0002c0 b1 39 fa bc 35 2e 33 3a 81 96 71 bc 93 83 8e bc
       -0.030545088 0.00068351935 -0.014745356 -0.017396724
0002d0 21 68 e1 bc 15 4f 12 bd b1 e2 45 bc 84 7c c5 bc
       -0.027515473 -0.03571995 -0.012077973 -0.024107225
0002e0 1d 04 d6 3c 45 10 67 bb db 43 37 3c 53 6b 95 bc
       0.026125008 -0.00352575 0.011185612 -0.018239653
0002f0 3d 22 a5 ba b0 bf d5 bc 41 a3 01 3c 4f 9a 89 3c
       -0.0012598705 -0.02609238 0.007912458 0.016797213
000300 73 d5 fe bc 3d 45 af 3c 69 5e 79 bb 8e e4 9a bc
       -0.03110764 0.02139532 -0.0038050658 -0.018907811
000310 dc 98 82 bc 30 c1 db 3c 40 a5 35 bc 6b dc ec 3c
       -0.01594203 0.026825517 -0.011086762 0.028913697
000320 d6 bd c4 3a 01 cd 97 3c 66 8a 7a bc 57 17 5f 3c
       0.0015010189 0.01853037 -0.015291786 0.0136164045
000330 ca 3a 9c 3b 4b b1 a2 3c cb e6 da bc c1 ab 73 bc
       0.0047677504 0.01985993 -0.026721379 -0.014872492
000340 5a 0a 83 39 a2 e0 e0 bc a9 ac 5a 3b 06 13 49 3c
       0.0002499398 -0.027450863 0.0033367074 0.012272602
000350 3e f8 c1 3c 8a cf 85 bc bb 18 92 3c 91 65 ec bc
       0.023677941 -0.016334314 0.017834058 -0.028857024
000360 50 4c 97 3c 80 96 c8 bc bd f0 ec bc 62 fc 9a 3b
       0.018469006 -0.024485826 -0.028923387 0.0047297934
000370 1c f9 f9 bb c9 72 17 3c cd fb 15 3d ad 9d d5 3c
       -0.007628573 0.0092436755 0.03661709 0.026076162
000380 cb 98 a9 3c b3 ae c5 bc 5f ba 1e bb 4e cb 58 3b
       0.02070274 -0.024131155 -0.0024219973 0.0033080163
000390 48 2e 16 bd bb 10 9f 3c 2a 76 d2 3c 64 16 96 bc
       -0.03666523 0.019417157 0.02569111 -0.018321224
0003a0 a1 4b 8d bb 99 0f b7 bc c0 c2 e3 3b b1 d7 7a 3b
       -0.004311994 -0.022346305 0.0069507062 0.0038275535
0003b0 f2 2f 5e bc ff fd 83 3c 6d c2 47 bc 3f 55 bf 3a
       -0.013561236 0.016112326 -0.012192351 0.0014597549
0003c0 62 3d 76 3c 40 72 40 bc 5a 31 f4 bc d9 c5 80 3c
       0.015029283 -0.011745989 -0.029808689 0.015719341
0003d0 34 5f c8 bc 3a c2 cf 3b eb b7 10 bc 7d 07 83 3c
       -0.024459459 0.0063402923 -0.008832912 0.015994782
0003e0 03 83 ea bb f3 f7 a7 bc 37 7c d7 bc 1b d9 cc 3c
       -0.007156731 -0.020503974 -0.026304347 0.025005868
0003f0 79 c1 c8 bc 14 3c 81 3c 72 94 92 3c 35 01 be bc
       -0.024506317 0.015775718 0.01789305 -0.023193935

naim.encoder.0.ff.3.bias f4 [6]
000000 a7 45 e9 bc 07 b3 2e bc 27 da 49 bc 6c 04 f4 bb
       -0.028475596 -0.010662801 -0.012320078 -0.007446816
000010 68 78 eb 3c 61 44 fb bc
       0.028743938 -0.030672254

naim.encoder.1.layer_norm_1.weight f4 [6]
000000 f6 c1 7c 3f ce fe 7c 3f 17 c2 7c 3f 2a 0d 7d 3f
       0.9873346 0.988263 0.9873366 0.9884821
000010 93 a9 7c 3f bf 33 7d 3f
       0.9869625 0.98907083

naim.encoder.1.layer_norm_1.bias f4 [6]
000000 33 68 fe ba 37 24 e8 3b 6f 84 86 ba 3c 16 b1 bb
       -0.0019409716 0.0070843953 -0.0010262857 -0.005404262
000010 f1 4c d6 3b c3 1c b4 bb
       0.006539934 -0.0054965927

naim.encoder.1.attn.linear_q.weight f4 [6, 6]
000000 f5 ec 91 be ce 8d f1 bd 3b 84 2c be 60 ee b3 3d
       -0.28501096 -0.11794625 -0.16847317 0.08785701
000010 26 0a 7f 3e bd 76 53 3d a0 a6 c2 3a e0 90 3b 3e
       0.24906215 0.05162691 0.0014850684 0.18316984
000020 63 5f 6c 3e 67 2e 60 3b 96 91 86 be 13 75 ae be
       0.23083262 0.0034207345 -0.26282948 -0.34073696
000030 d8 39 ca 3e 8f df f7 3d 80 69 b9 3e d7 f3 16 be
       0.39497256 0.12103187 0.36213303 -0.14741455
000040 e5 65 d0 3d de 1c 4f be 9f d8 4e be d1 f9 31 be
       0.10175685 -0.20225856 -0.20199822 -0.17380454
000050 df 40 ca 3e 17 c0 91 3e e6 f5 73 be 43 d1 8c be
       0.39502618 0.28466865 -0.23824272 -0.27503404
000060 f8 49 f9 3d 50 98 aa bd f9 b9 f9 3b 7b bb 21 3d
       0.121723115 -0.083298326 0.0076210466 0.039485436
000070 c5 62 b0 be b6 3f 9e 3d ed 61 4a 3b e0 a9 8b be
       -0.34450355 0.07726996 0.0030881122 -0.27278042
000080 b3 0f c8 be d7 3e 48 3e 7c 7f b8 be 47 06 2f be
       -0.39074478 0.19555221 -0.36034763 -0.17092238

naim.encoder.1.attn.linear_k.weight f4 [6, 6]
000000 c4 e0 70 3e b8 bf 84 be 2f b7 38 be ce 6d 7a be
       0.23523241 -0.2592752 -0.18038629 -0.2445595
000010 a4 cc 68 3e 96 a0 e8 3d c5 98 f0 3c 8b f6 05 3e
       0.22734314 0.11358754 0.029369721 0.1308233
000020 f7 3a d6 3d 73 1c 97 bd 4a 14 cc bc 89 69 78 be
       0.104604654 -0.07378473 -0.024912018 -0.24259008
000030 42 04 39 be f9 10 14 3c 27 2c 18 bd 2a 9e c0 3d
       -0.1806803 0.00903725 -0.037151482 0.094051674
000040 74 4d 39 3e 47 40 9a 3e ae a3 c1 3e 82 bf 9c bc
       0.18095952 0.30127165 0.3782019 -0.019134287
000050 4f 91 17 3e b6 a6 a2 be 77 ad 64 3e 33 12 c5 bd
       0.14801525 -0.31767815 0.22331797 -0.09622612
000060 3f 34 9f be 18 1b 9c be 73 9e a7 be 2a e2 33 be
       -0.31094548 -0.3048942 -0.32738075 -0.17566743
000070 0a a4 31 3e 23 e2 a3 be 06 a4 1c bd b6 de 4f bd
       0.17347732 -0.32008466 -0.038242362 -0.050749503
000080 d6 64 0c 3e 8a 87 1d be c1 8d 46 3e 23 52 75 be
       0.13710341 -0.15383735 0.19390012 -0.23957114

naim.encoder.1.attn.linear_v.weight f4 [6, 6]
000000 49 c7 6f 3e 61 f8 ca be 12 01 88 be 5c 72 08 3e
       0.23415865 -0.39642623 -0.26563317 0.13324875
000010 55 99 5d 3d e7 a3 8c 3e 5d 58 52 3e 2a 67 aa be
       0.054101307 0.27468798 0.2054152 -0.33281833
000020 53 51 a0 3e fa c1 ce bd d4 38 95 bd bb ba 2d be
       0.31312045 -0.10095592 -0.0728623 -0.16965763
000030 ec 48 85 bd b9 23 bf be d7 12 e0 3c 9a 7d 99 3e
       -0.06508049 -0.37331942 0.027352734 0.2997864
000040 aa d0 ab bd 85 44 9d 3e 24 83 39 be db 96 1e 3e
       -0.08389409 0.3071634 -0.18116432 0.15487234
000050 6c dc 18 3d fc 3e 15 be 9d d4 c5 3e 48 f4 16 3d
       0.037319586 -0.14574808 0.38638774 0.03685406
000060 00 43 b0 3c 26 ab 22 bd 50 58 98 bc 6b 79 a4 3e
       0.021516323 -0.039714 -0.018596798 0.32123885
000070 97 43 73 bd 18 ff 74 3e 81 41 0e 3e 08 e1 81 3e
       -0.05939063 0.23925436 0.13892175 0.25366998
000080 29 bd 97 be 8c 1f b1 be 1d 51 f8 bd ff c7 d0 bd
       -0.29636505 -0.3459438 -0.12124846 -0.10194396

naim.encoder.1.attn.linear_o.weight f4 [6, 6]
000000 7e 09 c4 3e 4d c6 c9 3e d8 94 cd bd 26 0d 44 be
       0.38288492 0.39409104 -0.10038155 -0.1914564
000010 d0 dc a9 bb 4a 76 1a 3e 4e 81 09 3e 14 b1 8d 3d
       -0.0051837936 0.15084186 0.13428232 0.069185406
000020 70 b5 96 3e 19 e0 16 3d 65 be a5 3e e8 33 bc 3d
       0.294353 0.03683481 0.32371822 0.09189588
000030 0b 5a fb bc 70 2a af 3e 44 42 99 3c d5 d4 b2 3c
       -0.030682584 0.34212065 0.018708356 0.021830002
000040 2d 8b 95 bd 11 24 78 3e 2e be 02 be 5d 6a 9e 3e
       -0.07301936 0.24232508 -0.1276786 0.30940524
000050 a3 51 57 3e b5 9d 54 bc 05 c7 96 bd ba 12 1b 3e
       0.21027236 -0.012977053 -0.07362179 0.15143862
000060 95 76 c5 be f5 06 fa bd 4f 82 06 be 87 47 18 bd
       -0.38567033 -0.12208358 -0.13135646 -0.03717759
000070 70 c7 3a be 77 4b 27 be cc 86 39 3e fb 9c f9 bc
       -0.18240142 -0.16337381 0.18117827 -0.030470362
000080 51 3a 8a be c9 bd 89 bc fe 73 f3 3d b9 19 1c be
       -0.26997617 -0.01681413 0.11887358 -0.15244187

naim.encoder.1.layer_norm_2.weight f4 [6]
000000 da b2 7d 3f 77 82 7e 3f 33 75 80 3f e8 da 7e 3f
       0.9910103 0.99417824 1.0035766 0.99552774
000010 0a c6 7e 3f 05 4f 80 3f
       0.99520934 1.0024115

naim.encoder.1.layer_norm_2.bias f4 [6]
000000 f7 38 1d 39 02 7b be bb 39 22 ba 3b bf 2b f7 bb
       0.00014993908 -0.0058130035 0.005680349 -0.0075430567
000010 83 ba c4 3b d7 c0 2f bb
       0.0060036792 -0.0026817822
