outputs/2025-03-23/17-24-29/outputs/model_epoch_0.pt (torch, 605370 bytes, 188 tensors)

naim.embeddings.0.embeddings.weight f4 [2, 6]
0.40031415 -0.47327417 -0.31267032 0.25806454 0.36028787 0.15817077 0.0 0.0
0.0 0.0 0.0 0.0
00000000: faf5 cc3e fe50 f2be 5316 a0be 0921 843e
00000010: a777 b83e 85f7 213e 0000 0000 0000 0000
00000020: 0000 0000 0000 0000 0000 0000 0000 0000

naim.embeddings.1.embeddings.weight f4 [2, 6]
0.008547126 -0.110754006 -0.09027424 0.2766572 0.0974411 -0.030105684 0.0 0.0
0.0 0.0 0.0 0.0
00000000: 3f09 0c3c ffd2 e2bd b3e1 b8bd 03a6 8d3e
00000010: 338f c73d 32a0 f6bc 0000 0000 0000 0000
00000020: 0000 0000 0000 0000 0000 0000 0000 0000

naim.embeddings.2.embeddings.weight f4 [2, 6]
0.5482524 0.08970727 -0.060209204 0.55922395 -0.26764077 0.27694458 0.0 0.0
0.0 0.0 0.0 0.0
00000000: 455a 0c3f 72b8 b73d ed9d 76bd 4d29 0f3f
00000010: 3608 89be aecb 8d3e 0000 0000 0000 0000
00000020: 0000 0000 0000 0000 0000 0000 0000 0000

naim.embeddings.3.embeddings.weight f4 [2, 6]
0.57649976 -0.44903764 0.08910804 0.48836932 0.10254953 -0.033814237 0.0 0.0
0.0 0.0 0.0 0.0
00000000: 7d95 133f 43e8 e5be 477e b63d 8b0b fa3e
00000010: 7d05 d23d cc80 0abd 0000 0000 0000 0000
00000020: 0000 0000 0000 0000 0000 0000 0000 0000

naim.embeddings.4.embeddings.weight f4 [2, 6]
-0.5095209 -0.1642159 -0.1612888 0.026666205 0.04967529 0.05542686 0.0 0.0
0.0 0.0 0.0 0.0
00000000: f66f 02bf 3628 28be e428 25be 1673 da3c
00000010: 5178 4b3d 4607 633d 0000 0000 0000 0000
00000020: 0000 0000 0000 0000 0000 0000 0000 0000

naim.embeddings.5.embeddings.weight f4 [2, 6]
-0.35713616 -0.012225157 0.54354537 0.3586003 -0.49287984 0.095274195 0.0 0.0
0.0 0.0 0.0 0.0
00000000: 8dda b6be 064c 48bc ca25 0b3f 759a b73e
00000010: bf5a fcbe 1e1f c33d 0000 0000 0000 0000
00000020: 0000 0000 0000 0000 0000 0000 0000 0000

naim.embeddings.6.embeddings.weight f4 [2, 6]
-0.45064187 -0.106788 -0.11913321 -0.2169768 0.0914183 0.72400695 0.0 0.0
0.0 0.0 0.0 0.0
00000000: 88ba e6be abb3 dabd 1dfc f3bd 2b2f 5ebe
00000010: 8539 bb3d 8558 393f 0000 0000 0000 0000
00000020: 0000 0000 0000 0000 0000 0000 0000 0000

naim.embeddings.7.embeddings.weight f4 [2, 6]
-0.33598158 0.033110473 0.10951473 -0.6934134 -0.08485579 0.47740984 0.0 0.0
0.0 0.0 0.0 0.0
00000000: c705 acbe d99e 073d 4249 e03d 8a83 31bf
00000010: dfc8 adbd 106f f43e 0000 0000 0000 0000
00000020: 0000 0000 0000 0000 0000 0000 0000 0000

naim.embeddings.8.embeddings.weight f4 [2, 6]
0.5503501 -0.039501313 0.28912878 -0.51420414 -0.2382593 0.19548018 0.0 0.0
0.0 0.0 0.0 0.0
00000000: bfe3 0c3f 21cc 21bd b008 943e e2a2 03bf
00000010: 3ffa 73be f52b 483e 0000 0000 0000 0000
00000020: 0000 0000 0000 0000 0000 0000 0000 0000

naim.embeddings.9.embeddings.weight f4 [2, 6]
0.37933195 -0.22666068 0.101315744 -0.40175855 -0.62618047 -0.02530737 0.0 0.0
0.0 0.0 0.0 0.0
00000000: cc37 c23e bd19 68be a17e cf3d 4cb3 cdbe
00000010: 5d4d 20bf 6751 cfbc 0000 0000 0000 0000
00000020: 0000 0000 0000 0000 0000 0000 0000 0000

naim.embeddings.10.embeddings.weight f4 [2, 6]
0.12542464 0.049371555 0.20709111 0.27214703 0.05858572 0.36657175 0.0 0.0
0.0 0.0 0.0 0.0
00000000: 516f 003e d439 4a3d b10f 543e db56 8b3e
00000010: 94f7 6f3d 4baf bb3e 0000 0000 0000 0000
00000020: 0000 0000 0000 0000 0000 0000 0000 0000

naim.embeddings.11.embeddings.weight f4 [2, 6]
0.11884854 -0.06794628 -0.41059318 -0.4853166 0.010177629 -0.31525362 0.0 0.0
0.0 0.0 0.0 0.0
00000000: dd66 f33d 6b27 8bbd 4539 d2be 6b7b f8be
00000010: 12c0 263c ec68 a1be 0000 0000 0000 0000
00000020: 0000 0000 0000 0000 0000 0000 0000 0000

naim.embeddings.12.embeddings.weight f4 [2, 6]
0.1362368 -0.26325804 0.12390154 0.3145204 0.4238496 0.042490758 0.0 0.0
0.0 0.0 0.0 0.0
00000000: a981 0b3e c2c9 86be 17c0 fd3d d108 a13e
00000010: d102 d93e ca0a 2e3d 0000 0000 0000 0000
00000020: 0000 0000 0000 0000 0000 0000 0000 0000

naim.embeddings.13.embeddings.weight f4 [2, 6]
-0.16174167 -0.14019082 -0.2308407 0.5724742 -0.22819152 0.33954084 0.0 0.0
0.0 0.0 0.0 0.0
00000000: 9c9f 25be 2f8e 0fbe 8161 6cbe ab8d 123f
00000010: 0aab 69be 4cd8 ad3e 0000 0000 0000 0000
00000020: 0000 0000 0000 0000 0000 0000 0000 0000

naim.embeddings.14.embeddings.weight f4 [2, 6]
0.13146004 0.5356041 -0.1557456 0.02912805 0.49520043 0.06327977 0.0 0.0
0.0 0.0 0.0 0.0
00000000: 769d 063e 5a1d 093f c67b 1fbe f39d ee3c
00000010: e98a fd3e d398 813d 0000 0000 0000 0000
00000020: 0000 0000 0000 0000 0000 0000 0000 0000

naim.embeddings.15.embeddings.weight f4 [2, 6]
-0.5642606 0.25533283 0.02743521 -0.22345205 -0.128754 0.4367258 0.0 0.0
0.0 0.0 0.0 0.0
00000000: 6273 10bf fcba 823e cebf e03c 9dd0 64be
00000010: 17d8 03be 869a df3e 0000 0000 0000 0000
00000020: 0000 0000 0000 0000 0000 0000 0000 0000

naim.embeddings.16.embeddings.weight f4 [2, 6]
0.40070876 0.14242363 0.025760613 -0.36121845 0.17647077 0.343658 0.0 0.0
0.0 0.0 0.0 0.0
00000000: b329 cd3e 80d7 113e ec07 d33c a0f1 b8be
00000010: c1b4 343e f1f3 af3e 0000 0000 0000 0000
00000020: 0000 0000 0000 0000 0000 0000 0000 0000

naim.embeddings.17.embeddings.weight f4 [2, 6]
0.13937187 0.1915032 0.08302166 -0.5016253 0.20807025 -0.22867998 0.0 0.0
0.0 0.0 0.0 0.0
00000000: 80b7 0e3e 6a19 443e 4307 aa3d 846a 00bf
00000010: 5e10 553e 162b 6abe 0000 0000 0000 0000
00000020: 0000 0000 0000 0000 0000 0000 0000 0000

naim.embeddings.18.embeddings.weight f4 [2, 6]
-0.47545227 -0.42500037 -0.29774404 0.44402316 0.011758807 -0.061731227 0.0 0.0
0.0 0.0 0.0 0.0
00000000: 7b6e f3be a699 d9be e871 98be 0157 e33e
00000010: 03a8 403c e2d9 7cbd 0000 0000 0000 0000
00000020: 0000 0000 0000 0000 0000 0000 0000 0000

naim.embeddings.19.embeddings.weight f4 [2, 6]
0.47450024 -0.3067003 0.14757946 -0.16824655 -0.15327217 0.13198607 0.0 0.0
0.0 0.0 0.0 0.0
00000000: b2f1 f23e d207 9dbe 121f 173e d348 2cbe
00000010: 61f3 1cbe 5b27 073e 0000 0000 0000 0000
00000020: 0000 0000 0000 0000 0000 0000 0000 0000

naim.embeddings.20.embeddings.weight f4 [2, 6]
0.20469657 0.065707296 -0.36636716 -0.42125413 -0.067897044 0.23710075 0.0 0.0
0.0 0.0 0.0 0.0
00000000: fa9b 513e 8c91 863d 7a94 bbbe 9fae d7be
00000010: 9b0d 8bbd 8aca 723e 0000 0000 0000 0000
00000020: 0000 0000 0000 0000 0000 0000 0000 0000

naim.embeddings.21.embeddings.weight f4 [2, 6]
0.10619601 0.044423882 0.16186053 -0.09495604 0.072953224 -0.1870947 0.0 0.0
0.0 0.0 0.0 0.0
00000000: 4b7d d93d d1f5 353d c4be 253e 5078 c2bd
00000010: 8068 953d c195 3fbe 0000 0000 0000 0000
00000020: 0000 0000 0000 0000 0000 0000 0000 0000

naim.embeddings.22.embeddings.weight f4 [2, 6]
0.29361996 -0.24784529 0.007931697 0.49352053 0.46637443 -0.22136244 0.0 0.0
0.0 0.0 0.0 0.0
00000000: 5b55 963e 28cb 7dbe f3f3 013c b9ae fc3e
00000010: a1c8 ee3e d6ac 62be 0000 0000 0000 0000
00000020: 0000 0000 0000 0000 0000 0000 0000 0000

naim.embeddings.23.embeddings.weight f4 [2, 6]
0.13295402 -0.038128782 -0.29907355 0.7269965 -0.0035727567 -0.19460657 0.0 0.0
0.0 0.0 0.0 0.0
00000000: 1925 083e ed2c 1cbd 2b20 99be 711c 3a3f
00000010: e924 6abb f246 47be 0000 0000 0000 0000
00000020: 0000 0000 0000 0000 0000 0000 0000 0000

naim.embeddings.24.embeddings.weight f4 [2, 6]
-0.0319732 0.11484668 -0.1342596 0.32955652 -0.798602 0.09481814 0.0 0.0
0.0 0.0 0.0 0.0
00000000: 55f6 02bd bc34 eb3d 597b 09be a2bb a83e
00000010: 2e71 4cbf 0330 c23d 0000 0000 0000 0000
00000020: 0000 0000 0000 0000 0000 0000 0000 0000

naim.embeddings.25.embeddings.weight f4 [2, 6]
0.38160852 -0.060571887 0.6851615 0.5004779 0.12692238 0.011307115 0.0 0.0
0.0 0.0 0.0 0.0
00000000: 3162 c33e 3a1a 78bd be66 2f3f 521f 003f
00000010: f1f7 013e 7a41 393c 0000 0000 0000 0000
00000020: 0000 0000 0000 0000 0000 0000 0000 0000

naim.embeddings.26.embeddings.weight f4 [2, 6]
0.053826038 -0.38245618 -0.3975363 0.22450088 0.33473203 0.32057703 0.0 0.0
0.0 0.0 0.0 0.0
00000000: b178 5c3d 4cd1 c3be e189 cbbe 8fe3 653e
00000010: ff61 ab3e ac22 a43e 0000 0000 0000 0000
00000020: 0000 0000 0000 0000 0000 0000 0000 0000

naim.embeddings.27.embeddings.weight f4 [2, 6]
-0.030928701 0.30049258 -0.4617384 -0.4307779 -0.07242503 -0.0059057446 0.0 0.0
0.0 0.0 0.0 0.0
00000000: 305e fdbc 2ada 993e fa68 ecbe ec8e dcbe
00000010: 9353 94bd fa84 c1bb 0000 0000 0000 0000
00000020: 0000 0000 0000 0000 0000 0000 0000 0000

naim.embeddings.28.embeddings.weight f4 [2, 6]
-0.14775448 0.26676884 -0.23811492 -0.37092626 0.077323966 -0.10149567 0.0 0.0
0.0 0.0 0.0 0.0
00000000: f34c 17be ed95 883e 66d4 73be 0cea bdbe
00000010: 075c 9e3d f6dc cfbd 0000 0000 0000 0000
00000020: 0000 0000 0000 0000 0000 0000 0000 0000

naim.embeddings.29.embeddings.weight f4 [2, 6]
-0.44374967 -0.017733563 0.5530101 -0.11267897 0.041220248 -0.2536575 0.0 0.0
0.0 0.0 0.0 0.0
00000000: 2833 e3be fa45 91bc 1292 0d3f 3bc4 e6bd
00000010: 90d6 283d 65df 81be 0000 0000 0000 0000
00000020: 0000 0000 0000 0000 0000 0000 0000 0000

naim.embeddings.30.embeddings.weight f4 [2, 6]
-0.07316579 0.26437053 0.32708368 -0.3051033 -0.10021165 -0.3324349 0.0 0.0
0.0 0.0 0.0 0.0
00000000: f2d7 95bd 935b 873e 8377 a73e 8036 9cbe
00000010: c43b cdbd e834 aabe 0000 0000 0000 0000
00000020: 0000 0000 0000 0000 0000 0000 0000 0000

naim.embeddings.31.embeddings.weight f4 [2, 6]
0.2920291 -0.14594595 -0.0110097965 -0.009878027 -0.18714824 -0.24753284 0.0 0.0
0.0 0.0 0.0 0.0
00000000: d784 953e db72 15be 6f62 34bc 73d7 21bc
00000010: caa3 3fbe 4079 7dbe 0000 0000 0000 0000
00000020: 0000 0000 0000 0000 0000 0000 0000 0000

naim.embeddings.32.embeddings.weight f4 [2, 6]
0.012452582 0.23883241 -0.2195711 -0.67243856 0.28630158 -0.16534188 0.0 0.0
0.0 0.0 0.0 0.0
00000000: ea05 4c3c 7c90 743e 3fd7 60be ef24 2cbf
00000010: 1f96 923e 624f 29be 0000 0000 0000 0000
00000020: 0000 0000 0000 0000 0000 0000 0000 0000

naim.embeddings.33.embeddings.weight f4 [2, 6]
-0.106890246 -0.14086372 -0.33005723 -0.1230374 -0.24011044 0.6240925 0.0 0.0
0.0 0.0 0.0 0.0
00000000: 46e9 dabd 943e 10be 43fd a8be 08fb fbbd
00000010: 83df 75be 87c4 1f3f 0000 0000 0000 0000
00000020: 0000 0000 0000 0000 0000 0000 0000 0000

naim.embeddings.34.embeddings.weight f4 [2, 6]
-0.116125464 0.07162411 0.4197997 -0.005452781 -0.2629066 -0.0051224167 0.0 0.0
0.0 0.0 0.0 0.0
00000000: 30d3 edbd a9af 923d fcef d63e 3ead b2bb
00000010: b29b 86be f2d9 a7bb 0000 0000 0000 0000
00000020: 0000 0000 0000 0000 0000 0000 0000 0000

naim.embeddings.35.embeddings.weight f4 [2, 6]
0.0913169 -0.07056425 0.22395803 0.2405558 0.31061184 -0.44708478 0.0 0.0
0.0 0.0 0.0 0.0
00000000: 5b04 bb3d fd83 90bd 4155 653e 4254 763e
00000010: 8408 9f3e 4ce8 e4be 0000 0000 0000 0000
00000020: 0000 0000 0000 0000 0000 0000 0000 0000

naim.embeddings.36.embeddings.weight f4 [2, 6]
-0.09437007 0.30798006 -0.4226172 -0.013942311 -0.035980444 0.11982152 0.0 0.0
0.0 0.0 0.0 0.0
00000000: 1845 c1bd 90af 9d3e 4861 d8be 4a6e 64bc
00000010: 3b60 13bd fc64 f53d 0000 0000 0000 0000
00000020: 0000 0000 0000 0000 0000 0000 0000 0000

naim.embeddings.37.embeddings.weight f4 [2, 6]
0.046110317 -0.24275532 -0.072151825 -0.11016867 0.17479593 0.16062261 0.0 0.0
0.0 0.0 0.0 0.0
00000000: 2cde 3c3d da94 78be 56c4 93bd 1da0 e1bd
00000010: b4fd 323e 417a 243e 0000 0000 0000 0000
00000020: 0000 0000 0000 0000 0000 0000 0000 0000

naim.embeddings.38.embeddings.weight f4 [2, 6]
0.06024827 -0.09681247 0.013364813 0.23169944 -0.076931186 0.17974328 0.0 0.0
0.0 0.0 0.0 0.0
00000000: e4c6 763d 9e45 c6bd 17f8 5a3c 9e42 6d3e
00000010: 198e 9dbd 9f0e 383e 0000 0000 0000 0000
00000020: 0000 0000 0000 0000 0000 0000 0000 0000

naim.embeddings.39.embeddings.weight f4 [2, 6]
-0.08369617 -0.25805488 0.42429087 -0.56476104 0.15892896 0.3768528 0.0 0.0
0.0 0.0 0.0 0.0
00000000: e668 abbd c51f 84be a73c d93e 2e94 10bf
00000010: 46be 223e daf2 c03e 0000 0000 0000 0000
00000020: 0000 0000 0000 0000 0000 0000 0000 0000

naim.embeddings.40.embeddings.weight f4 [2, 6]
-0.036657657 0.18554863 0.1657961 -0.09880852 -0.10768029 -0.338688 0.0 0.0
0.0 0.0 0.0 0.0
00000000: 5726 16bd 7600 3e3e 74c6 293e 1f5c cabd
00000010: 7c87 dcbd 8368 adbe 0000 0000 0000 0000
00000020: 0000 0000 0000 0000 0000 0000 0000 0000

naim.embeddings.41.embeddings.weight f4 [2, 6]
-0.031098656 -0.107029274 0.24478117 0.14188506 0.30217907 0.48464242 0.0 0.0
0.0 0.0 0.0 0.0
00000000: 9cc2 febc 2a32 dbbd eaa7 7a3e 514a 113e
00000010: 37b7 9a3e 0d23 f83e 0000 0000 0000 0000
00000020: 0000 0000 0000 0000 0000 0000 0000 0000

naim.embeddings.42.embeddings.weight f4 [2, 6]
-0.2149774 0.6347255 0.13876426 0.31163144 0.026481649 -0.036684435 0.0 0.0
0.0 0.0 0.0 0.0
00000000: 0923 5cbe 5f7d 223f 3818 0e3e 288e 9f3e
00000010: 0bf0 d83c 6b42 16bd 0000 0000 0000 0000
00000020: 0000 0000 0000 0000 0000 0000 0000 0000

naim.embeddings.43.embeddings.weight f4 [2, 6]
-0.14008513 -0.0020708896 0.57173806 0.38891336 0.27471164 -0.024741055 0.0 0.0
0.0 0.0 0.0 0.0
00000000: 7a72 0fbe c3b7 07bb 6d5d 123f a71f c73e
00000010: 01a7 8c3e c1ad cabc 0000 0000 0000 0000
00000020: 0000 0000 0000 0000 0000 0000 0000 0000

naim.embeddings.44.embeddings.weight f4 [2, 6]
0.018279864 0.29138547 0.16752785 -0.2680404 0.03446443 0.4620594 0.0 0.0
0.0 0.0 0.0 0.0
00000000: a7bf 953c 7a30 953e 6c8c 2b3e 973c 89be
00000010: 932a 0d3d 0d93 ec3e 0000 0000 0000 0000
00000020: 0000 0000 0000 0000 0000 0000 0000 0000

naim.embeddings.45.embeddings.weight f4 [2, 6]
-0.4605933 -0.51617044 -0.17168808 0.18670738 -0.3915977 -0.20290115 0.0 0.0
0.0 0.0 0.0 0.0
00000000: e3d2 ebbe bf23 04bf 00cf 2fbe 3830 3f3e
00000010: 7e7f c8be 52c5 4fbe 0000 0000 0000 0000
00000020: 0000 0000 0000 0000 0000 0000 0000 0000

naim.embeddings.46.embeddings.weight f4 [2, 6]
-0.10134601 0.035495955 0.22907084 -0.046725493 0.14523944 0.22933164 0.0 0.0
0.0 0.0 0.0 0.0
00000000: 7f8e cfbd 3564 113d 8c91 6a3e 3b63 3fbd
00000010: a6b9 143e ead5 6a3e 0000 0000 0000 0000
00000020: 0000 0000 0000 0000 0000 0000 0000 0000

naim.embeddings.47.embeddings.weight f4 [2, 6]
0.33333662 -0.1344749 -0.377066 -0.1568834 0.22649913 -0.23012662 0.0 0.0
0.0 0.0 0.0 0.0
00000000: 19ab aa3e cab3 09be cb0e c1be 0ba6 20be
00000010: 63ef 673e 50a6 6bbe 0000 0000 0000 0000
00000020: 0000 0000 0000 0000 0000 0000 0000 0000

naim.embeddings.48.embeddings.weight f4 [2, 6]
-0.023029977 0.19606654 0.12305401 0.2025716 0.63750297 0.41514927 0.0 0.0
0.0 0.0 0.0 0.0
00000000: 5da9 bcbc abc5 483e be03 fc3d ee6e 4f3e
00000010: 6533 233f 728e d43e 0000 0000 0000 0000
00000020: 0000 0000 0000 0000 0000 0000 0000 0000

naim.embeddings.49.embeddings.weight f4 [2, 6]
-0.20291536 0.18795365 0.18118976 -0.15160964 -0.41041252 0.37774983 0.0 0.0
0.0 0.0 0.0 0.0
00000000: 0bc9 4fbe ec76 403e cf89 393e 8f3f 1bbe
00000010: 9721 d2be 6d68 c13e 0000 0000 0000 0000
00000020: 0000 0000 0000 0000 0000 0000 0000 0000

naim.embeddings.50.embeddings.weight f4 [2, 6]
0.44348004 0.32831442 -0.057010345 -0.1117792 -0.07115352 -0.57088083 0.0 0.0
0.0 0.0 0.0 0.0
00000000: d10f e33e d418 a83e ae83 69bd 7eec e4bd
00000010: f0b8 91bd 3f25 12bf 0000 0000 0000 0000
00000020: 0000 0000 0000 0000 0000 0000 0000 0000

naim.embeddings.51.embeddings.weight f4 [2, 6]
0.08405307 0.079922594 0.46480918 -0.56884915 0.36473483 -0.17557721 0.0 0.0
0.0 0.0 0.0 0.0
00000000: 0424 ac3d 75ae a33d 78fb ed3e 19a0 11bf
00000010: 86be ba3e 83ca 33be 0000 0000 0000 0000
00000020: 0000 0000 0000 0000 0000 0000 0000 0000

naim.embeddings.52.embeddings.weight f4 [2, 6]
0.2401005 -0.13303216 -0.17857984 -0.12175152 0.10562333 -0.37633768 0.0 0.0
0.0 0.0 0.0 0.0
00000000: e8dc 753e 9539 08be a2dd 36be dc58 f9bd
00000010: 0b51 d83d 55af c0be 0000 0000 0000 0000
00000020: 0000 0000 0000 0000 0000 0000 0000 0000

naim.embeddings.53.embeddings.weight f4 [2, 6]
-0.1997876 -0.05286609 0.07056866 -0.07547712 0.8044119 -0.040646672 0.0 0.0
0.0 0.0 0.0 0.0
00000000: 1f95 4cbe 1d8a 58bd 4d86 903d c093 9abd
00000010: f0ed 4d3f 207d 26bd 0000 0000 0000 0000
00000020: 0000 0000 0000 0000 0000 0000 0000 0000

naim.embeddings.54.embeddings.weight f4 [2, 6]
0.14270876 0.43182215 0.28708932 0.1056662 -0.5177335 0.052268393 0.0 0.0
0.0 0.0 0.0 0.0
00000000: 3f22 123e cb17 dd3e 5ffd 923e 8567 d83d
00000010: 2f8a 04bf 6217 563d 0000 0000 0000 0000
00000020: 0000 0000 0000 0000 0000 0000 0000 0000

naim.embeddings.55.embeddings.weight f4 [2, 6]
0.3257628 -0.2090095 -0.46238437 0.46947038 -0.034652382 -0.17503315 0.0 0.0
0.0 0.0 0.0 0.0
00000000: 62ca a63e 9606 56be a5bd ecbe 6c5e f03e
00000010: a8ef 0dbd e43b 33be 0000 0000 0000 0000
00000020: 0000 0000 0000 0000 0000 0000 0000 0000

naim.embeddings.56.embeddings.weight f4 [2, 6]
-0.27444494 -0.34644115 0.11568634 -0.0197355 -0.30590016 -0.08867793 0.0 0.0
0.0 0.0 0.0 0.0
00000000: 0c84 8cbe bc60 b1be f6ec ec3d 58ac a1bc
00000010: f29e 9cbe c69c b5bd 0000 0000 0000 0000
00000020: 0000 0000 0000 0000 0000 0000 0000 0000

naim.embeddings.57.embeddings.weight f4 [2, 6]
0.33152404 -0.27014244 -0.22287098 0.18623877 0.63082004 -0.046936207 0.0 0.0
0.0 0.0 0.0 0.0
00000000: 85bd a93e 1c50 8abe 4a38 64be 60b5 3e3e
00000010: 6c7d 213f 2e40 40bd 0000 0000 0000 0000
00000020: 0000 0000 0000 0000 0000 0000 0000 0000

naim.embeddings.58.embeddings.weight f4 [2, 6]
-0.16877827 0.06783885 0.08581263 -0.091102116 0.04706944 -0.20475104 0.0 0.0
0.0 0.0 0.0 0.0
00000000: 36d4 2cbe 18ef 8a3d 88be af3d bf93 babd
00000010: e3cb 403d 42aa 51be 0000 0000 0000 0000
00000020: 0000 0000 0000 0000 0000 0000 0000 0000

naim.embeddings.59.embeddings.weight f4 [2, 6]
0.26594758 -0.0676686 -0.18329924 0.5872247 0.201793 0.45970696 0.0 0.0
0.0 0.0 0.0 0.0
00000000: 482a 883e d695 8abd ccb2 3bbe 5c54 163f
00000010: d3a2 4e3e b65e eb3e 0000 0000 0000 0000
00000020: 0000 0000 0000 0000 0000 0000 0000 0000

naim.embeddings.60.embeddings.weight f4 [2, 6]
-0.46482068 -0.010266832 2.9393908e-05 0.45804542 0.2624351 0.31682488 0.0 0.0
0.0 0.0 0.0 0.0
00000000: fafc edbe 3736 28bc f092 f637 ee84 ea3e
00000010: e55d 863e df36 a23e 0000 0000 0000 0000
00000020: 0000 0000 0000 0000 0000 0000 0000 0000

naim.embeddings.61.embeddings.weight f4 [2, 6]
-0.18072736 0.07686675 0.08797827 -0.03406407 0.2577192 -0.16032681 0.0 0.0
0.0 0.0 0.0 0.0
00000000: 9810 39be 516c 9d3d f42d b43d c486 0bbd
00000010: c5f3 833e b62c 24be 0000 0000 0000 0000
00000020: 0000 0000 0000 0000 0000 0000 0000 0000

naim.embeddings.62.embeddings.weight f4 [2, 6]
0.17591847 0.09239661 -0.616628 -0.013564371 -0.32989615 -0.50511515 0.0 0.0
0.0 0.0 0.0 0.0
00000000: f923 343e 6f3a bd3d 55db 1dbf 183d 5ebc
00000010: 26e8 a8be 3a4f 01bf 0000 0000 0000 0000
00000020: 0000 0000 0000 0000 0000 0000 0000 0000

naim.embeddings.63.embeddings.weight f4 [2, 6]
0.7462383 0.26822644 -0.24878652 0.11511449 -0.18973769 -0.09130438 0.0 0.0
0.0 0.0 0.0 0.0
00000000: 7909 3f3f fa54 893e e5c1 7ebe 25c1 eb3d
00000010: 994a 42be cafd babd 0000 0000 0000 0000
00000020: 0000 0000 0000 0000 0000 0000 0000 0000

naim.encoder.0.layer_norm_1.weight f4 [6]
0.8698933 0.871024 0.88952076 0.8993168 0.8743563 0.8696445
00000000: 54b1 5e3f 6efb 5e3f a2b7 633f a039 663f
00000010: d1d5 5f3f 06a1 5e3f

naim.encoder.0.layer_norm_1.bias f4 [6]
0.04570054 -0.043959755 -0.04145746 0.04557955 0.044625744 -0.040139318
00000000: 7d30 3b3d 250f 34bd 4ccf 29bd 9fb1 3a3d
00000010: 7cc9 363d 2069 24bd

naim.encoder.0.attn.linear_q.weight f4 [6, 6]
0.008034627 -0.013144402 -0.05250536 -0.28100067 0.017825296 0.08163853 0.015863843 -0.07563143
-0.01606146 0.022800203 -0.027222363 -0.24577917 -0.097363934 0.02044366 0.027336538 0.24153651
0.006864633 0.07401061 0.109496765 -0.06193409 -0.04023116 0.14299555 0.1647549 0.012911347
-0.1922936 0.11661625 -0.20919 0.12142158 0.020828951 0.012488065 -0.26996377 -0.022543445
0.049156304 0.18809527 5.712121e-05 0.23595883
00000000: aba3 033c 9e5b 57bc dc0f 57bd 52df 8fbe
00000010: 5b06 923c 1a32 a73d e4f4 813c a7e4 9abd
00000020: 5393 83bc 7ec7 ba3c 6f01 dfbc 89ad 7bbe
00000030: be66 c7bd 7679 a73c e0f0 df3c 5955 773e
00000040: b7f0 e03b e092 973d d73f e03d 9aae 7dbd
00000050: 6ec9 24bd 6d6d 123e 82b5 283e 1d8a 533c
00000060: 9de8 44be 80d4 ee3d e735 56be e1ab f83d
00000070: 7aa1 aa3c be9a 4c3c b138 8abe 08ad b8bc
00000080: 1f58 493d 0c9c 403e 6f95 6f38 319f 713e

naim.encoder.0.attn.linear_k.weight f4 [6, 6]
0.005984274 -0.12854886 -0.0752143 -0.019725392 0.02073691 0.07605852 -0.09919578 -0.043627623
-0.27726674 0.23593473 0.0015398997 -0.20374131 -0.0039988845 -0.008508301 -0.0040971246 0.009474551
0.13071945 -0.018892797 -0.019739332 -0.040831752 -0.013076626 0.22935615 0.0015268371 0.19387469
0.19293237 -0.090917 0.016721409 -0.0709506 0.07714375 -0.050744306 0.03402994 -0.010621492
-0.14733814 -0.18141748 -0.27507234 -0.10169859
00000000: bb17 c43b 50a2 03be f409 9abd 2597 a1bc
00000010: 74e0 a93c 92c4 9b3d 2827 cbbd e1b2 32bd
00000020: e8f5 8dbe e098 713e 76d6 c93a 90a1 50be
00000030: 1309 83bb 6766 0bbc 2c41 86bb 263b 1b3c
00000040: 52db 053e 11c5 9abc 61b4 a1bc 323f 27bd
00000050: 583f 56bc 57dc 6a3e 2720 c83a 1687 463e
00000060: 1090 453e b132 babd 56fb 883c 8c4e 91bd
00000070: 8bfd 9d3d 43d9 4fbd fa62 0b3d c405 2ebc
00000080: cfdf 16be 81c5 39be 48d6 8cbe 5a47 d0bd

naim.encoder.0.attn.linear_v.weight f4 [6, 6]
0.0389536 0.02484992 0.17826441 -0.23340058 0.02860484 -0.26469734 -0.031954717 0.05370172
-0.30309224 0.30129525 -0.02936633 0.27577323 0.012341629 0.13939103 0.3028964 -0.095660634
-0.042526122 0.14924106 -0.24949607 0.11581798 -0.18582359 0.31044483 -0.17709328 -0.081254676
0.28452674 -0.18731764 0.23889881 0.20844921 0.3304667 -0.34412992 -0.032554746 -0.05702688
0.029602122 -0.24478969 0.10741032 -0.048501678
00000000: cf8d 1f3d 0f92 cb3c f28a 363e 9000 6fbe
00000010: b354 ea3c 6986 87be f3e2 02bd 56f6 5b3d
00000020: e82e 9bbe 5f43 9a3e a891 f0bc 2632 8d3e
00000030: 8b34 4a3c 86bc 0e3e 3d15 9b3e b9e9 c3bd
00000040: df2f 2ebd a6d2 183e e67b 7fbe fa31 ed3d
00000050: 8a48 3ebe a0f2 9e3e f157 35be da68 a6bd
00000060: 7dad 913e 32d0 3fbe e4a1 743e b673 553e
00000070: ee32 a93e cc31 b0be 2058 05bd 0595 69bd
00000080: 2680 f23c 26aa 7abe f1f9 db3d b2a9 46bd

naim.encoder.0.attn.linear_o.weight f4 [6, 6]
-0.068910904 -0.23969688 0.08860751 -0.02686938 0.17435561 -0.023316806 0.006503468 0.02288144
0.021119477 -0.01882924 -0.22604883 0.1305665 -0.20565566 0.2790478 -0.08852815 0.29551625
0.389128 -0.19663885 0.28151625 -0.036603816 -0.34652895 0.115115784 0.17947094 0.3006751
-0.42535937 0.31415358 0.2557529 0.34512183 0.17208733 -0.23764679 0.34164312 0.3990334
-0.10003323 -0.014956232 0.35363156 0.3520661
00000000: 2921 8dbd 1973 75be db77 b53d 2d1d dcbc
00000010: 478a 323e e302 bfbc 0b1b d53b dc71 bb3c
00000020: c102 ad3c c73f 9abc 5879 67be 39b3 053e
00000030: 6697 52be 5adf 8e3e 3f4e b5bd e84d 973e
00000040: c93b c73e b25b 49be e622 903e e2ed 15bd
00000050: 3e6c b1be d3c1 eb3d 3bc7 373e 16f2 993e
00000060: b4c8 d9be bdd8 a03e 0bf2 823e cfb3 b03e
00000070: a937 303e ae59 73be d9eb ae3e 1b4e cc3e
00000080: 39de ccbd fc0a 75bc 320f b53e 0242 b43e

naim.encoder.0.layer_norm_2.weight f4 [6]
0.9337673 0.8699017 0.92097193 0.8705479 0.8817392 1.0261931
00000000: 600b 6f3f e1b1 5e3f d1c4 6b3f 3adc 5e3f
00000010: a9b9 613f 4c5a 833f

naim.encoder.0.layer_norm_2.bias f4 [6]
-0.05148807 -0.046268623 0.045420818 0.045080025 -0.047855895 0.05076646
00000000: 28e5 52bd 2b84 3dbd 2e0b 3a3d d5a5 383d
00000010: 8b04 44bd 7ef0 4f3d

naim.encoder.0.ff.0.weight f4 [1000, 6]
0.22806308 0.18618843 -0.08623109 -0.08148419 -0.04535577 0.08890072 0.06733086 -0.18803489
0.010333695 -0.20443553 -0.25569153 0.24364798 -0.09389093 0.05928287 -0.0031942886 0.022106696
-0.008674169 0.20552962 0.018449983 0.21097791 0.11566998 0.15538433 -0.24402934 -0.06661074
-0.21229148 -0.071607254 -0.019073455 0.0670618 0.24191332 0.08102913 -0.15643106 -0.14198647
0.18140154 -0.0107064005 -0.0014613934 -0.10770338 -0.06018339 0.021013118 -0.14243193 0.1462381
0.076975115 -0.1398437 -0.06395946 0.006789037 -0.022708641 -0.032001045 0.27112803 -0.2646903
-0.17463033 -0.122998424 0.010612941 -0.021810945 -0.022779297 0.259353 -0.22864899 0.025415307
-0.1012201 0.016812883 -0.26783812 -0.1779114 -0.23056306 0.055663418 -0.030507654 0.087222576
-0.095074475 -0.07652627 0.072603196 0.21587506 -0.033704646 0.12297455 -0.0026601946 0.14154135
0.13096376 0.05705164 -0.010648979 -0.09741141 0.040713098 0.14556777 0.018422203 0.0823037
-0.118956044 0.10366267 0.01937715 -0.15423863 -0.07444264 -0.18362677 -0.011777735 -0.11509499
-0.009718051 0.016978174 -0.12835602 -0.0033370578 0.018792674 0.013102611 0.17656302 -0.11947421
0.14710169 0.005120733 -0.15270115 -0.0633566 -0.009062821 -0.021145577 -0.04013332 -0.09811684
0.088106535 0.012844468 -0.2706978 0.019696638 0.005290322 -0.04943557 -0.103974886 -0.20427315
0.2734491 -0.24446654 0.2515518 -0.20247887 -0.059508856 -0.07163844 -0.11717693 0.06960386
0.11265578 -0.14244205 -0.065035395 0.09152105 0.015649417 0.056968637 0.09382931 -0.033757284
-0.10041658 0.049590863 -0.032922585 -0.14517815 -0.10149651 -0.07492354 0.28196263 -0.020470459
0.0827726 -0.0070100864 -0.15732381 0.1678041 0.022959184 -0.029972471 0.20612523 -0.084054515
-0.0010638842 -0.2187382 0.11017828 0.06822919 -0.21029206 0.102843076 -0.013948947 -0.0859831
0.2216214 0.14884187 0.051090885 -0.12436883 -0.17055823 -0.10656604 0.053458016 0.013417994
-0.13518684 0.27869636 0.11121293 -0.040484898 0.08684503 -0.04847609 0.019629102 0.21163774
-0.23545201 -0.0854438 0.01873203 -0.014221774 -0.20760679 -0.14324635 0.014955132 0.0048187007
0.021569032 -0.02002479 0.011683199 -0.01902102 0.0025951972 0.0075474647 0.028729353 0.15353787
-0.07850958 -0.093313 0.0631973 -0.17082499 0.13800518 0.06648235 -0.012300745 -0.08146257
0.0055591734 -0.21099156 -0.244526 0.25739032 -0.23873326 -0.2517273 -0.04509728 -0.008204343
-0.016725846 -0.07503415 0.017840786 0.0006085897 0.2151677 0.22804995 0.044861864 -0.02885863
0.18060027 -0.20832595 0.045556504 -0.11350401 0.19064516 -0.23239143 0.041888643 -0.20952432
0.13856825 0.027756976 0.26479813 -0.18177329 0.15610518 -0.1527488 -0.120222084 0.03388519
-0.06419057 -0.22746256 -0.23290278 0.007116731 0.00036735187 0.23018736 0.1733535 0.0046849838
-0.12589514 -0.23596705 0.23581748 -0.14612585 0.0047447085 -0.20366774 -0.15563884 0.06852487
0.0008539077 -0.0113136275 -0.008319337 -0.012618338 0.015699944 0.0013720567 0.06620853 0.17294727
0.22336568 -0.21067134 -0.2208564 0.021975284 -0.00036255943 0.100552045 0.26331115 0.08822164
00000000: 5e89 693e 2ea8 3e3e ed99 b0bd 2fe1 a6bd
00000010: f9c6 39bd 9511 b63d c3e4 893d 388c 40be
00000020: a94e 293c 8c57 51be 00ea 82be db7e 793e
00000030: e349 c0bd 98d2 723d 4557 51bb 1a19 b53c
00000040: 1a1e 0ebc 5b76 523e 6b24 973c 980a 583e
00000050: 62e4 ec3d 121d 1f3e d4e2 79be 366b 88bd
00000060: f062 59be d3a6 92bd ef3f 9cbc b257 893d
00000070: 20b8 773e 9af2 a53d 772f 20be e764 11be
00000080: 53c1 393e e669 2fbc 3a8c bfba 9793 dcbd
00000090: dc82 76bd b423 ac3c add9 11be 71bf 153e
000000a0: 21a5 9d3d 3033 0fbe 2dfd 82bd 9276 de3b
000000b0: 7907 babc 8713 03bd 4bd1 8a3e 7d85 87be
000000c0: 4bd2 32be 99e6 fbbd e7e1 2d3c deac b2bc
000000d0: a69b babc ebc9 843e f622 6abe c333 d03c
000000e0: 7c4c cfbd 2cbb 893c 1422 89be 682e 36be
000000f0: b918 6cbe 53ff 633d 30eb f9bc c0a1 b23d
00000100: 68b6 c2bd ceb9 9cbd fcb0 943d 5a0e 5d3e
00000110: e20d 0abd 15da fb3d a956 2ebb 37f0 103e
00000120: 5d1b 063e fbae 693d 0e79 2ebc a27f c7bd
00000130: c7c2 263d b80f 153e 29ea 963c d88e a83d
00000140: 3a9f f3bd 184d d43d d4bc 9e3c bbf0 1dbe
00000150: 6275 98bd a808 3cbe 67f7 40bc ecb6 ebbd
00000160: 7638 1fbc d015 8b3c c36f 03be 8ab2 5abb
00000170: 18f3 993c 55ac 563c f0cc 343e e5ae f4bd
00000180: d3a1 163e d2cb a73b b15d 1cbe 1bc1 81bd
00000190: 3a7c 14bc 7d39 adbc d662 24bd 7bf1 c8bd
000001a0: 3371 b43d 9a71 523c e798 8abe d85a a13c
000001b0: 705a ad3b f47c 4abd c9f0 d4bd fb2c 51be
000001c0: 8501 8c3e 7055 7abe 66cb 803e 9f56 4fbe
000001d0: 8fbf 73bd 2db7 92bd 75fa efbd 788c 8e3d
000001e0: 13b8 e63d 54dc 11be 4731 85bd 636f bb3d
000001f0: 3533 803c f257 693d 9529 c03d 1445 0abd
00000200: 35a7 cdbd ca1f 4b3d d5d9 06bd 95a9 14be
00000210: 67dd cfbd 8371 99bd 685d 903e aab1 a7bc
00000220: ae84 a93d deb4 e5bb 7e19 21be d7d4 2b3e
00000230: e614 bc3c d488 f5bc 7e12 533e c624 acbd
00000240: 0872 8bba e8fc 5fbe 26a5 e13d bfbb 8b3d
00000250: cd56 57be 649f d23d 208a 64bc e817 b0bd
00000260: b8f0 623e 016a 183e ad44 513d 16b5 febd
00000270: d1a6 2ebe 4c3f dabd cbf6 5a3d 25d7 5b3c
00000280: 6b6e 0abe 4ab1 8e3e 9bc3 e33d 7ed3 25bd
00000290: cfdb b13d dd8e 46bd 36cd a03c 90b7 583e
000002a0: 551a 71be 29fd aebd ea73 993c 7202 69bc
000002b0: e096 54be 2caf 12be 5f06 753c 31e6 9d3b
000002c0: 8ab1 b03c 070b a4bc e36a 3f3c f8d1 9bbc
000002d0: 2f14 2a3b b950 f73b d259 eb3c 0839 1d3e
000002e0: a1c9 a0bd e31a bfbd 966d 813d bfec 2ebe
000002f0: 3b51 0d3e e627 883d 1089 49bc d9d5 a6bd
00000300: ba29 b63b 2c0e 58be 0665 7abe aac8 833e
00000310: 7e76 74be 67e2 80be edb7 38bd 826b 06bc
00000320: a404 89bc 81ab 99bd d726 923c c389 1f3a
00000330: ec54 5c3e ed85 693e 13c1 373d ef68 ecbc
00000340: 47ef 383e 6653 55be 7599 3a3d ca74 e8bd
00000350: 7c38 433e 05f8 6dbe 6d93 2b3d 8b8d 56be
00000360: d6e4 0d3e 9962 e33c 9f93 873e c722 3abe
00000370: 09da 1f3e 2e6a 1cbe ff36 f6bd 32cb 0a3d
00000380: 5876 83bd f2eb 68be 117e 6ebe 7733 e93b
00000390: 2299 c039 3cb6 6b3e 9483 313e 7e84 993b
000003a0: a8ea 00be 59a1 71be 237a 713e 04a2 15be
000003b0: 8079 9b3b 478e 50be ca5f 1fbe c456 8c3d
000003c0: c7d8 5f3a cb5c 39bc d44d 08bc 25bd 4ebc
000003d0: 2b9d 803c 95d6 b33a 5698 873d 1719 313e
000003e0: f9b9 643e 3aba 57be 2e28 62be 8305 b43c
000003f0: e715 beb9 3bee cd3d b8d0 863e 8cad b43d

naim.encoder.0.ff.0.bias f4 [1000]
0.12828337 -0.10072448 -0.047368336 -0.014639214 0.16232243 0.055064697 0.2646632 -0.12580273
0.016303886 0.016876549 0.219039 0.26384124 0.012987619 -0.20381196 -0.17216249 -0.0009490367
-0.23972228 -0.053126745 -0.18221556 0.092118315 0.014652422 -0.19158638 0.14295353 -0.23340432
0.014728738 0.27327466 0.080038585 -0.2257999 -0.016441727 -0.015108354 0.0880204 0.24784298
0.23357108 0.014642084 0.067822695 -0.27274388 0.19572517 0.10375201 -0.1605111 -0.004982846
-0.035068545 -0.120385244 0.07839984 -0.07731486 0.04864218 -0.023979146 0.20080158 -0.045049917
-0.031173697 -0.019466465 0.015017419 -0.053636 -0.16292381 -0.26517382 0.12914526 -0.007874497
-0.18189155 0.093310714 0.04887038 -0.02879132 -0.042537574 -0.013763928 0.17098051 -0.24909884
-0.19809711 -0.20167644 -0.19235712 -0.011181847 0.100738734 0.051917084 0.055081684 -0.0049830987
0.027557243 -0.24382608 0.24066833 0.27065986 -0.0025538125 0.06858164 0.028956726 0.27603093
0.009670234 0.021502923 -0.09876476 -0.009520484 0.105857834 -0.21621361 0.033213276 0.016896706
0.0565292 0.071418464 -0.0560375 -0.01871316 -0.1787165 0.12284316 -0.21560277 -0.22991802
-0.1769348 -0.108404376 -0.010445647 0.1684885 0.011287569 0.18244886 0.022631513 0.21876824
0.18679807 0.13104433 0.051238816 -0.15545122 0.30761704 -0.27106255 -0.16003078 -0.121227354
-0.06826337 0.051769927 0.046045884 -0.22507922 0.26594168 0.25592604 0.07682761 -0.27247506
0.18552881 -0.0010017562 -0.034967415 -0.21354568 0.23188438 -0.022141356 -0.2089408 0.19252034
0.07293836 0.026497068 0.15815298 0.018296728 0.019159943 0.003981938 0.20944217 0.015152247
-0.2140238 -0.16897938 -0.18759745 -0.010659711 0.18440053 0.14769629 0.0033561857 0.11105428
-0.080809206 0.25889271 0.032890018 -0.13160929 -0.14896208 -0.23828965 0.0016790217 0.17142798
0.045568418 -0.07024483 0.035447225 -0.15725607 0.0027165452 0.1582734 0.07996246 -0.03962159
-0.01969133 0.062087856 0.13014963 0.009261812 -0.010186758 0.017541377 0.014577019 -0.24342223
-0.21188769 0.22351363 -0.08393286 0.1766245 0.16781282 -0.027580557 -0.09390375 -0.012598116
0.023163471 -0.12002509 0.2692644 -0.0004862224 0.00095492613 -0.15790446 -0.022830011 -0.00120803
0.2879245 -0.006920634 0.105388775 -0.015139119 0.11972622 0.00901683 -0.017197499 0.07737898
-0.06630388 0.16629471 -0.22017165 -0.1723994 0.2660049 -0.053099558 -0.19634666 -0.17098647
0.26862478 0.01998302 -0.2157454 -0.0062478385 -0.07323711 -0.17493714 -0.08587355 0.18120348
0.046435982 0.11552746 0.049252562 -0.048376143 -0.05938997 -0.14823774 -0.16859692 -0.22590896
-0.020485915 0.0907674 0.21889023 0.017535983 0.0043338533 0.011930912 0.04466734 -0.02658544
-0.055472195 -0.03188042 -0.2699953 -0.18946867 -0.08436114 -0.015460198 -0.13121656 0.053785015
-0.105903774 0.26707107 -0.23354179 0.13669862 -0.13093784 -0.030960007 -0.25402656 -0.2920856
-0.26250845 -0.03521738 0.27482036 0.08683958 0.13548169 0.011927564 -0.044328794 -0.04598606
-0.04027896 -0.2541142 0.09699682 -0.05159341 -0.12562779 -0.008516493 -0.016603721 0.12817472
00000000: b75c 033e a348 cebd 4d05 42bd 50d9 6fbc
00000010: da37 263e 858b 613d ef81 873e 6ed2 00be
00000020: ba8f 853c b040 8a3c c24b 603e 3316 873e
00000030: 06ca 543c 15b4 50be 5d4b 30be c6c8 78ba
00000040: c279 75be 6e9b 59bd b796 3abe 87a8 bc3d
00000050: b610 703c 382f 44be 6962 123e 8b01 6fbe
00000060: ce50 713c a8ea 8b3e 45eb a33d 1738 67be
00000070: cdb0 86bc 0889 77bc 0a44 b43d 8dca 7d3e
00000080: 422d 6f3e 5ae5 6f3c a0e6 8a3d 16a5 8bbe
00000090: 2e6c 483e ef7b d43d 065d 24be 2447 a3bb
000000a0: 09a4 0fbd 8a8c f6bd 1890 a03d 4157 9ebd
000000b0: 063d 473d ea6f c4bc ee9e 4d3e 4386 38bd
000000c0: fb5f ffbc 2378 9fbc 9f0b 763c 6cb1 5bbd
000000d0: 80d5 26be ddc4 87be a83e 043e 0904 01bc
000000e0: c741 3abe b019 bf3d 4f2c 483d c6db ebbc
000000f0: e13b 2ebd 1982 61bc 8415 2f3e c413 7fbe
00000100: f8d9 4abe 4584 4ebe 44f9 44be 1134 37bc
00000110: 1c50 ce3d 02a7 543d 559d 613d 4349 a3bb
00000120: babf e13c 8bad 79be c271 763e ee93 8a3e
00000130: dd5d 27bb 8874 8c3d a836 ed3c ed53 8d3e
00000140: e76f 1e3c e626 b03c 2e45 cabd cefb 1bbc
00000150: fecb d83d 1a67 5dbe a50a 083d f66a 8a3c
00000160: 2a8b 673d d843 923d 9487 65bd 574c 99bc
00000170: 7501 37be 3295 fb3d f9c6 5cbe a16f 6bbe
00000180: 652e 35be 1d03 debd 3824 2bbc 4088 2c3e
00000190: 7fef 383c e0d3 3a3e b965 b93c c804 603e
000001a0: fe47 3f3e 7c30 063e cbdf 513d 9b2e 1fbe
000001b0: fb7f 9d3e b6c8 8abe 1cdf 23be 0c46 f8bd
000001c0: aacd 8bbd b40c 543d 9c9a 3c3d 2b7b 66be
000001d0: 8229 883e bd08 833e cb57 9d3d da81 8bbe
000001e0: 44fb 3d3e 5c4d 83ba fe39 0fbd b8ab 5abe
000001f0: 1973 6d3e ca61 b5bc 94f4 55be 0d24 453e
00000200: b560 953d 6110 d93c dbf2 213e 05e3 953c
00000210: 50f5 9c3c eb7a 823b 0278 563e 2141 783c
00000220: 0e29 5bbe ee08 2dbe 8c19 40be 12a6 2ebc
00000230: 7ed3 3c3e b23d 173e 74f3 5b3b 6d70 e33d
00000240: 4c7f a5bd 968d 843e afb7 063d 96c4 06be
00000250: 8489 18be 3402 74be 9f12 dc3a d18a 2f3e
00000260: f3a5 3a3d 85dc 8fbd 1c31 113d bc07 21be
00000270: 1108 323b 6c12 223e 5cc3 a33d 404a 22bd
00000280: b64f a1bc d64f 7e3d f245 053e dbbe 173c
00000290: 5ce6 26bc efb2 8f3c 73d4 6e3c ad43 79be
000002a0: 16f9 58be c2e0 643e fee4 abbd 0edd 343e
000002b0: 20d7 2b3e 9ff0 e1bc 9c50 c0bd 5468 4ebc
000002c0: 52c1 bd3c b7cf f5bd 06dd 893e aaeb feb9
000002d0: 0254 7a3a b5b1 21be 0106 bbbc c356 9eba
000002e0: d76a 933e 7cc6 e2bb 12d6 d73d 110a 78bc
000002f0: 0533 f53d 53bb 133c c5e1 8cbc df78 9e3d
00000300: 54ca 87bd 2949 2a3e ad74 61be 7889 30be
00000310: cb31 883e ec7e 59bd 190f 49be 1417 2fbe
00000320: 3089 893e 6eb3 a33c 5dec 5cbe abba ccbb
00000330: 57fd 95bd b922 33be 79de afbd 688d 393e
00000340: a833 3e3d a999 ec3d 0ebd 493d 1026 46bd
00000350: e642 73bd a2cb 17be aca4 2cbe ae54 67be
00000360: 14d2 a7bc 42e4 b93d c324 603e 9fa7 8f3c
00000370: ff02 8e3b df79 433c 1af5 363d b5c9 d9bc
00000380: d036 63bd 0b95 02bd d33c 8abe 1304 42be
00000390: 89c5 acbd c54c 7dbc a25d 06be ad4d 5c3d
000003a0: 14e4 d8bd 8abd 883e 9425 6fbe b9fa 0b3e
000003b0: 9214 06be d79f fdbc c50f 82be 3e8c 95be
000003c0: 8267 86be 1940 10bd 41b5 8c3e f3d8 b13d
000003d0: b6bb 0a3e d46b 433c 1c92 35bd e15b 3cbd
000003e0: 8dfb 24bd 421b 82be 45a6 c63d 9d53 53bd
000003f0: 92a4 00be c388 0bbc 8704 88bc 3c40 033e

naim.encoder.0.ff.3.weight f4 [6, 1000]
-0.060992133 -0.055559963 0.036684208 -0.04973555 0.03038542 -0.043966368 -0.05110579 -0.03681786
0.060433332 -0.025777843 -0.049903426 0.0062178643 -0.070834674 -0.037009586 0.0058092084 -0.053119715
-0.03405386 -0.05762522 -0.054965507 -0.041892406 -0.016736787 -0.023407785 0.01991589 -0.032228574
-0.04958383 -0.04947872 0.049984664 -0.054159224 -0.04681206 0.014453912 -0.05677011 -0.07733856
-0.036143597 0.019025166 -0.067749836 -0.053211853 -0.03294918 0.0318765 -0.020227224 -0.060899302
-0.005126255 -0.04183412 -0.049774416 -0.024879398 -0.06924456 -0.060354713 -0.03303223 0.0414527
0.044061407 -0.01842627 0.02051484 0.027227249 0.051548377 -0.055475824 -0.047133137 -0.056630395
-0.027565697 0.064610705 0.022609571 0.052742608 -0.024720322 -0.0291279 -0.034556877 -0.024909507
-0.052676845 0.031921506 -0.020356726 -0.056236822 -0.021515774 -0.07753019 -0.06383379 0.029876975
-0.06890858 -0.069343075 -0.062877804 -0.043138333 -0.073188774 0.01779825 -0.06337612 0.011689975
0.051909924 -0.04771708 -0.033508603 -0.018829068 -0.05815972 -0.057756376 -0.037961837 -0.025330722
0.03822057 -0.048995875 -0.036496893 -0.0075791264 -0.06553866 -0.01963329 0.012803852 0.016714737
-0.071761414 0.03147514 -0.039025977 -0.048924025 -0.050009187 -0.045229923 -0.028269114 -0.07051363
0.06545906 0.057847846 -0.05821439 0.053484797 -0.046135075 -0.055741154 0.03793285 0.043241777
-0.024241889 -0.054950982 -0.0725157 -0.024636056 -0.053797178 0.05250943 -0.055422235 -0.024627063
-0.06454017 -0.044626843 -0.024925081 0.017230825 -0.020379605 -0.02570707 -0.029887328 -0.026575942
0.031849682 0.032856807 -0.0350263 -0.05890986 -0.067917414 -0.032640565 -0.00082819787 -0.055200297
-0.038200077 -0.039442755 -0.05481667 -0.0036716391 -0.028137596 -0.07013502 -0.028270971 -0.049157165
-0.060167175 -0.057099584 0.036087833 -0.0221287 -0.04755112 0.020706117 -0.017288718 0.058376078
0.03596676 -0.01719758 -0.017460011 -0.024142096 0.0114402585 -0.0084309 -0.040167354 0.0042803395
0.017941147 -0.034331825 -0.045315627 -0.029381603 0.016301967 -0.06163071 0.023416363 -0.040486142
0.028657269 -0.049508255 0.06080632 0.016119074 -0.050296504 0.022075491 -0.05237733 0.02434567
-0.073967025 -0.012388769 -0.057176676 0.005562282 -0.06310624 -0.0684559 -0.052130528 -0.07157992
-0.017986793 -0.05480332 0.035517458 -0.066305175 -0.042528924 -0.072548226 -0.03617616 0.03186965
0.016264414 0.052490324 -0.042341117 -0.06078562 -0.06166504 0.040345993 0.02770168 -0.026092624
-0.041020613 0.038278952 -0.05823261 0.05413774 -0.034760725 -0.022931188 0.015334732 -0.059542786
-0.03195272 -0.06947569 -0.041814465 -0.032201383 0.052696902 -0.060357954 0.04758656 -0.048273224
-0.029827135 0.012005557 -0.07191101 -0.034556374 -0.048636496 -0.02814101 0.07083055 -0.026661228
0.05726096 -0.067900404 -0.048187118 -0.037135426 -0.07481015 -0.026180007 0.02871639 -0.012785912
-0.04511976 -0.06649108 -0.033050794 -0.04331667 -0.048429176 -0.031425748 -0.0372797 0.041561097
-0.027616361 0.029064247 -0.07456043 -0.018100388 -0.06718951 -0.03714973 -0.05540357 0.04458381
-0.046534047 0.0112523 -0.06602757 -0.025415154 -0.06266377 -0.0068421084 -0.024698047 0.017008437
00000000: e3d2 79bd d892 63bd 2e42 163d 81b7 4bbd
00000010: d8ea f83c 1416 34bd 4e54 51bd 53ce 16bd
00000020: f188 773d 0e2c d3bc 8967 4cbd 3abf cb3b
00000030: c511 91bd 5d97 17bd 2c5b be3b 0f94 59bd
00000040: 0f7c 0bbd 6c08 6cbd 8323 61bd 5f97 2bbd
00000050: 961b 89bc afc1 bfbc a626 a33c 1c02 04bd
00000060: 6a18 4bbd 33aa 4abd b8bc 4c3d 10d6 5dbd
00000070: 01be 3fbd 1ad0 6c3c c687 68bd ae63 9ebd
00000080: 4f0b 14bd aada 9b3c 6dc0 8abd acf4 59bd
00000090: b8f5 06bd ef90 023d 90b3 a5bc 8c71 79bd
000000a0: 25fa a7bb 415a 2bbd 42e0 4bbd e1cf cbbc
000000b0: 18d0 8dbd 8136 77bd ce4c 07bd 4eca 293d
000000c0: bc79 343d b0f2 96bc bd0e a83c ae0b df3c
000000d0: 6424 533d 9e3a 63bd ad0e 41bd 46f5 67bd
000000e0: 75d1 e1bc 9e52 843d b537 b93c a208 583d
000000f0: 4682 cabc a29d eebc 838b 0dbd 060f ccbc
00000100: adc3 57bd 20c0 023d 26c3 a6bc 9558 66bd
00000110: d941 b0bc 26c8 9ebd 4abb 82bd 8fc0 f43c
00000120: f11f 8dbd be03 8ebd 14c6 80bd d2b1 30bd
00000130: ffe3 95bd a3cd 913c 57cb 81bd 4f87 3f3c
00000140: 809f 543d fc72 43bd 5140 09bd 6b3f 9abc
00000150: e338 6ebd f391 6cbd df7d 1bbd 6082 cfbc
00000160: 2c8d 1c3d e6af 48bd c47d 15bd 525a f8bb
00000170: 2239 86bd fed5 a0bc 3fc7 513c 58ed 883c
00000180: a6f7 92bd 14ec 003d b4d9 1fbd 8f64 48bd
00000190: 6fd6 4cbd 0343 39bd a194 e7bc 7369 90bd
000001a0: 660f 863d ddf1 6c3d 3672 6ebd e012 5b3d
000001b0: 22f8 3cbd d650 64bd 7a5f 1b3d 4a1e 313d
000001c0: ed96 c6bc 4814 61bd 1c83 94bd 8ed1 c9bc
000001d0: 6e5a 5cbd 2114 573d 6d02 63bd b2be c9bc
000001e0: a32d 84bd a3ca 36bd af2f ccbc a927 8d3c
000001f0: 21f3 a6bc a297 d2bc 45d6 f4bc cab5 d9bc
00000200: d074 023d dc94 063d bd77 0fbd 774b 71bd
00000210: 4918 8bbd 1db2 05bd 6b1b 59ba b519 62bd
00000220: af77 1cbd ba8e 21bd 7287 60bd e29f 70bb
00000230: d180 e6bc f3a2 8fbd 8698 e7bc 0659 49bd
00000240: db71 76bd 41e1 69bd d6d0 133d 3f47 b5bc
00000250: f7c4 42bd e09f a93c 12a1 8dbc c11b 6f3d
00000260: e251 133d f0e1 8cbc 4c08 8fbc a5c5 c5bc
00000270: ec6f 3b3c c221 0abc 8686 24bd 1742 8c3b
00000280: 50f9 923c 879f 0cbd e19c 39bd b0b1 f0bc
00000290: b48b 853c 7c70 7cbd acd3 bf3c ccd4 25bd
000002a0: a6c2 ea3c 2bc9 4abd 0c10 793d 260c 843c
000002b0: b503 4ebd a9d7 b43c 9c89 56bd 9270 c73c
000002c0: 067c 97bd 43fa 4abc 1732 6abd ce43 b63b
000002d0: d83d 81bd 9b32 8cbd d286 55bd 7e98 92bd
000002e0: 0a59 93bc 7279 60bd c17a 113d 02cb 87bd
000002f0: cf32 2ebd 2a94 94bd 742d 14bd c089 023d
00000300: f33c 853c 1800 573d e16d 2dbd 58fa 78bd
00000310: 7b94 7cbd d741 253d a2ee e23c 33c0 d5bc
00000320: 3b05 28bd 64ca 1c3d 5185 6ebd 89bf 5d3d
00000330: 4361 0ebd 30da bbbc 873e 7b3c 23e3 73bd
00000340: dbe0 02bd 4549 8ebd a545 2bbd 99e5 03bd
00000350: b5d8 573d e739 77bd 20ea 423d 25ba 45bd
00000360: 0958 f4bc f5b2 443c 1446 93bd fc8a 0dbd
00000370: 1037 47bd fa87 e6bc 9b0f 913d a668 dabc
00000380: 788a 6a3d 5e0f 8bbd db5f 45bd 511b 18bd
00000390: 1036 99bd 7477 d6bc a23e eb3c 007c 51bc
000003a0: 7fcf 38bd 7a2c 88bd 4560 07bd d26c 31bd
000003b0: ac5d 46bd 49b8 00bd 99b2 18bd f83b 2a3d
000003c0: b53b e2bc 2518 ee3c 24b3 98bd 4447 94bc
000003d0: a79a 89bd 512a 18bd dbee 62bd 839d 363d
000003e0: 7c9a 3ebd 915b 383c 7639 87bd 7133 d0bc
000003f0: dd55 80bd c433 e0bb 8f53 cabc 4755 8b3c

naim.encoder.0.ff.3.bias f4 [6]
-0.07939864 -0.047399588 0.029775431 0.034379747 -0.02285736 0.02761375
00000000: c19b a2bd 1226 42bd 9beb f33c c7d1 0c3d
00000010: 5c3f bbbc 3b36 e23c

naim.encoder.1.layer_norm_1.weight f4 [6]
0.873955 0.87146866 0.8705903 0.8718512 0.8700598 0.8713099
00000000: 84bb 5f3f 9218 5f3f 02df 5e3f a431 5f3f
00000010: 3dbc 5e3f 2a0e 5f3f

naim.encoder.1.layer_norm_1.bias f4 [6]
-0.030978791 0.021900466 0.036421902 -0.018943358 -0.009149805 -0.027588999
00000000: 3cc7 fdbc 9b68 b33c 222f 153d 1a2f 9bbc
00000010: 10e9 15bc 5302 e2bc

naim.encoder.1.attn.linear_q.weight f4 [6, 6]
-0.17050731 -0.015193731 -0.0579856 -0.009869861 0.1349756 0.027984291 -0.0012766788 0.071108796
0.11893714 -0.013071321 -0.14804287 -0.22683874 0.27852482 0.030277422 0.24511564 -0.089072414
-0.004104419 -0.10407226 -0.09122355 -0.06363791 0.28030533 0.17118752 -0.12467841 -0.16589381
0.014709908 0.015229705 0.007082954 -0.019927265 -0.23006263 -0.01871864 0.0090014255 -0.15811542
-0.27594605 0.082605466 -0.24539696 -0.061296046
00000000: 7899 2ebe 20ef 78bc 4f82 6dbd 33b5 21bc
00000010: 0b37 0a3e 503f e53c 3b56 a7ba 7da1 913d
00000020: 5195 f33d 1829 56bc 8d98 17be 6a48 68be
00000030: ce9a 8e3e 5b08 f83c 98ff 7a3e 996b b6bd
00000040: 5d7e 86bb d623 d5bd 6ad3 babd 9854 82bd
00000050: 2e84 8f3e c84b 2f3e 6557 ffbd 11e0 29be
00000060: d301 713c 0386 793c 2018 e83b 813e a3bc
00000070: 8a95 6bbe d557 99bc b77a 133c 02e9 21be
00000080: cd48 8dbe 0e2d a93d 5749 7bbe 9011 7bbd

naim.encoder.1.attn.linear_k.weight f4 [6, 6]
0.16945404 -0.1568135 -0.07303372 -0.17662866 0.11766108 0.031983737 -0.008206156 0.022632856
-0.00065295456 0.020742936 0.006008169 -0.1291772 -0.06691196 -0.013333705 0.018106854 0.017591149
0.069509335 0.18503463 0.26268113 0.012411068 0.039037846 -0.20239611 0.10971627 0.006488638
-0.19684054 -0.19249034 -0.21301843 -0.06320506 0.061744563 -0.20544456 0.014625858 0.02001528
0.028436508 -0.043434203 0.08070881 -0.1257778
00000000: 5c85 2d3e b893 20be b492 95bd 25de 34be
00000010: 4bf8 f03d 6101 033d 1d73 06bc 8a68 b93c
00000020: 0a2b 2bba 17ed a93c 2de0 c43b 0747 04be
00000030: 2309 89bd 9d75 5abc d354 943c 501b 903c
00000040: e95a 8e3d b879 3d3e 247e 863e cb57 4b3c
00000050: 26e6 1f3d ed40 4fbe ecb2 e03d a49e d43b
00000060: 9190 49be 301c 45be 8121 5abe a871 81bd
00000070: dee7 7c3d 0f60 52be 4ba1 6f3c 16f7 a33c
00000080: aef3 e83c 10e8 31bd a94a a53d e5cb 00be

naim.encoder.1.attn.linear_v.weight f4 [6, 6]
0.21193402 -0.3095173 -0.16662963 0.0652694 0.011215458 0.19798803 0.11291732 -0.24735558
0.19970375 0.011595614 0.016611235 -0.05428444 -0.09561708 -0.32044777 -0.004268494 0.24758795
-0.010212558 0.27852184 -0.15552206 0.074344486 -0.0074993223 -0.04711621 0.2987415 0.055516127
-0.0027635652 0.007189767 -0.007973521 0.20101891 0.022317966 0.118566155 0.080977425 0.14426267
-0.18135814 -0.26893908 -0.01595924 -6.7210516e-05
00000000: 3b05 593e 0d79 9ebe f5a0 2abe f7ab 853d
00000010: 0ac1 373c 60bd 4a3e 3241 e73d c84a 7dbe
00000020: 247f 4c3e 88fb 3d3c 4914 883c 5c59 5ebd
00000030: e3d2 c3bd bb11 a4be b9de 8bbb b287 7d3e
00000040: 9352 27bc 6a9a 8e3e 2d41 1fbe ec41 983d
00000050: e0bc f5bb edfc 40bd a5f4 983e e164 633d
00000060: ee1c 35bb 2398 eb3b 5fa3 02bc e7d7 4d3e
00000070: 2bd4 b63c d0d2 f23d 7ed7 a53d 98b9 133e
00000080: f3b5 39be 62b2 89be f4bc 82bc 5ff3 8cb8

naim.encoder.1.attn.linear_o.weight f4 [6, 6]
0.30719417 0.2847106 -0.13958706 -0.17679769 -0.04906294 0.06839685 0.1450326 0.001478094
0.2978975 0.04224335 0.27988905 0.01661872 0.010884522 0.31253 0.058940403 0.057355803
-0.02827977 0.23987241 -0.045804776 0.19513647 0.104188286 0.0012579025 -0.009836783 0.040373363
-0.27084032 -0.01565639 -0.023778016 0.017409224 -0.07117189 -0.053143114 0.07000449 0.011796145
-0.15636404 -0.003114003 0.012905087 -0.042944517
00000000: 8e48 9d3e 96c5 913e e9ef 0ebe 740a 35be
00000010: 39f6 48bd a613 8c3d 6d83 143e 9bbc c13a
00000020: 0586 983e 5d07 2d3d 9e4d 8f3e fb23 883c
00000030: ff54 323c ef03 a03e 7e6b 713d ebed 6a3d
00000040: faaa e7bc 1da1 753e ca9d 3bbd dbd1 473e
00000050: ab60 d53d 34e0 a43a 752a 21bc 8a5e 253d
00000060: 95ab 8abe d441 80bc 1dca c2bc ca9d 8e3c
00000070: 91c2 91bd 98ac 59bd 845e 8f3d 9e44 413c
00000080: e51d 20be 4d14 4cbb dc6f 533c 97e6 2fbd

naim.encoder.1.layer_norm_2.weight f4 [6]
0.9360673 0.96380466 0.9245629 0.87473524 0.8727297 1.0211691
00000000: 1ba2 6f3f e7bb 763f 27b0 6c3f a6ee 5f3f
00000010: 376b 5f3f abb5 823f

naim.encoder.1.layer_norm_2.bias f4 [6]
-0.05466214 -0.03212465 0.04631329 0.030605344 -0.048509773 0.012332408
00000000: 68e5 5fbd 2395 03bd 01b3 3d3d 0fb8 fa3c
00000010: 2fb2 46bd de0d 4a3c

naim.encoder.1.ff.0.weight f4 [1000, 6]
0.24725379 -0.16113164 0.22687833 0.072158515 -0.15685855 -0.26854733 0.15067947 0.020291058
0.06462112 0.093337156 -0.19752988 -0.011888563 -0.08738632 -0.24102345 0.0015895261 0.0129840365
-0.19641215 0.32611594 0.12737152 0.13832407 -0.22826368 -0.22430773 0.052668888 0.12472843
-0.22202212 0.2639837 -0.01226296 -0.20754577 -0.17562003 0.015617953 0.10071117 -0.15549587
0.18025546 0.2794028 0.2572816 0.06615306 -0.08776484 -0.03949256 0.16574351 -0.034327235
-0.014460192 0.2957341 -0.27745643 0.0073685343 -0.040212117 -0.0027303689 0.0063338606 0.0074916636
0.26897308 0.08739036 -0.12904043 0.26689777 -0.006437023 -0.0012797541 0.04536213 -0.17206076
0.12990905 -0.12967846 -0.2686001 0.22822137 0.13456437 -0.052286442 -0.17019734 0.2436988
0.056644883 -0.14582928 -0.211042 -0.12524629 -0.10151775 0.052605085 -0.017577605 -0.27077648
0.11553735 0.097143 -0.24496764 0.25807488 -0.041753657 0.08516114 0.27851248 0.116188765
0.14809507 -0.01317902 0.03350573 -0.21996222 -0.18506938 0.20088157 -0.24543814 0.086979024
-0.115429804 0.22637282 0.18342945 0.017239751 0.016395504 -0.15869072 0.25254658 -0.122040235
0.02329461 0.16670808 -0.26857883 -0.27599445 -0.18638311 0.012429402 0.12714098 -0.03821616
-0.04431044 0.1457863 0.2004177 0.08923087 0.27479303 -0.24001524 -0.23571196 0.006209617
-0.21433903 -0.006852873 0.200948 0.2688941 -0.043523684 -0.27074477 -0.07642903 0.27154654
0.02316914 -0.2530318 -0.09172926 -0.12811942 0.00817332 -0.17165434 -0.04256059 0.24611048
-0.07900056 -0.006977724 0.10786207 -0.25684467 -0.13973512 0.0043461896 0.20117882 0.051565412
0.033714592 -0.05472071 0.086677335 -0.051614687 0.011479458 -0.07599912 0.058868356 0.2876242
-0.23725776 0.010883655 0.013165112 -0.114156015 -0.1689589 -0.05453251 -0.23053204 0.23497808
-0.16881436 0.1525764 0.21126005 -0.099873334 0.25982627 0.17393787 -0.16120367 0.13939886
-0.0005908528 0.19308099 -0.18157698 0.19201215 -0.0049414732 0.078997724 -0.10889849 0.14232013
0.014904635 0.20872279 -0.0070722876 0.13541263 -0.14089951 -0.23452786 0.049859684 0.10009616
0.0061725536 0.06637954 0.17700487 -0.08342248 0.19724472 0.142718 -0.11729408 -0.19469322
-0.28141326 0.19411899 -0.031507257 0.0017387966 -0.16110772 -0.1901679 0.20955807 0.15985675
0.10537753 0.19854207 0.23213263 0.15293165 0.16790847 0.005107887 0.032448646 -0.24946374
-0.025411995 0.012587871 0.021094253 0.27391288 0.21050656 0.01067106 0.2526367 -0.08664416
-0.017577043 -0.19536705 -0.21934846 0.09655054 0.010765734 0.015199022 -0.13785926 0.16680773
0.017331053 0.15456681 -0.15480202 0.2167688 0.020050855 -0.02526101 0.014242793 -0.1876954
0.020039938 -0.020312335 -0.1806346 0.09796291 0.25706193 0.11404829 -0.12595166 -0.13280244
-0.20204583 -0.12698466 0.11808926 0.06375905 -0.042963047 -0.021515802 -0.017124727 0.004497105
-0.280887 0.22619627 -0.05656428 -0.2434079 0.021900255 0.009118704 0.08898984 -0.08094007
-0.025647456 -0.18772398 -0.18619269 -0.16975321 -0.13819966 0.18008724 -0.24038878 -0.092899755
00000000: 1930 7d3e b1ff 24be cb52 683e d8c7 933d
00000010: 879f 20be 097f 89be b84b 1a3e 6f39 a63c
00000020: 1458 843d 8d27 bf3d 4645 4abe 3fc8 42bc
00000030: 99f7 b2bd dace 76be a557 d03a ffba 543c
00000040: 4420 49be abf8 a63e ae6d 023e d3a4 0d3e
00000050: f4bd 69be edb0 65be 55bb 573d 9e71 ff3d
00000060: c459 63be df28 873e 95ea 48bc e186 54be
00000070: bdd5 33be 71e2 7f3c a841 ce3d 4f3a 1fbe
00000080: e394 383e e20d 8f3e 6aba 833e 417b 873d
00000090: 0dbe b3bd f3c2 21bd abb8 293e b79a 0cbd
000000a0: 71ea 6cbc 766a 973e c50e 8ebe bf73 f13b
000000b0: 76b5 24bd fdef 32bb 468c cf3b a17c f53b
000000c0: d7b6 893e b8f9 b23d 2d23 04be d3a6 883e
000000d0: aaed d2bb 6cbd a7ba a4cd 393d b230 30be
000000e0: e106 053e 6eca 04be f485 89be ddb2 693e
000000f0: 3ecb 093e 4f2a 56bd 3648 2ebe 2e8c 793e
00000100: 7704 683d 4554 15be 651b 58be 9040 00be
00000110: 8ae8 cfbd 6e78 573d e9fe 8fbc 37a3 8abe
00000120: d99e ec3d e9f2 c63d ccd8 7abe 6422 843e
00000130: e205 2bbd f768 ae3d 3099 8e3e 60f4 ed3d
00000140: 3ca6 173e d1ec 57bc 4e3d 093d c73d 61be
00000150: d482 3dbe e6b3 4d3e 2354 7bbe 0f22 b23d
00000160: 7666 ecbd 47ce 673e eed4 3b3e 613a 8d3c
00000170: dd4f 863c d27f 22be c94d 813e 3bf0 f9bd
00000180: 57d4 be3c 86b5 2a3e 2a83 89be 254f 8dbe
00000190: 37db 3ebe b1a4 4b3c 3f31 023e 8c88 1cbd
000001a0: dd7e 35bd 0149 153e 4c3a 4d3e adbe b63d
000001b0: acb1 8c3e 8ec6 75be 7a5e 71be 0b7a cb3b
000001c0: b17b 5bbe 118e e0bb 50c5 4d3e 7dac 893e
000001d0: e445 32bd 0f9f 8abe d386 9cbd 2608 8b3e
000001e0: 35cd bd3c 628d 81be 8ddc bbbd bd31 03be
000001f0: 64e9 053c 28c6 2fbe 0354 2ebd 6304 7c3e
00000200: 0ccb a1bd 64a5 e4bb cae6 dc3d 2581 83be
00000210: b916 0fbe 7b6a 8e3b d201 4e3e 4136 533d
00000220: 5018 0a3d d322 60bd e383 b13d ec69 53bd
00000230: 5614 3c3c 6da5 9bbd f21f 713d 7b43 933e
00000240: b3f3 72be 5c51 323c 7bb2 573c a1ca e9bd
00000250: 9003 2dbe 7b5d 5fbd 9710 6cbe 189e 703e
00000260: acdd 2cbe fd3c 1c3e 8e54 583e 648a ccbd
00000270: f307 853e c51c 323e 9312 25be 93be 0e3e
00000280: 76e3 1aba 06b7 453e 51ef 39be d59e 443e
00000290: 15ec a1bb 8fc9 a13d 2c06 dfbd 5ebc 113e
000002a0: 9232 743c 6dbb 553e a6be e7bb 9ca9 0a3e
000002b0: f647 10be 1228 70be ab39 4c3d 37ff cc3d
000002c0: 2243 ca3b fff1 873d c440 353e 68d9 aabd
000002d0: 85fa 493e ab24 123e e137 f0bd a95d 47be
000002e0: 6615 90be 21c7 463e c10d 01bd 55e8 e33a
000002f0: 6cf9 24be 60bb 42be 6496 563e 7db1 233e
00000300: 2dd0 d73d 9d4e 4b3e 2db4 6d3e 1d9a 1c3e
00000310: 33f0 2b3e 1060 a73b dfe8 043d 6c73 7fbe
00000320: d12c d0bc 5c3d 4e3c dbcd ac3c 4f3e 8c3e
00000330: 088f 573e abd5 2e3c 9959 813e 7e72 b1bd
00000340: bbfd 8fbc 4d0e 48be e29c 60be 4abc c53d
00000350: c362 303c 5205 793c fa2a 0dbe a5cf 2a3e
00000360: daf9 8d3c c346 1e3e 6c84 1ebe a4f8 5d3e
00000370: b141 a43c 2df0 cebc 9b5a 693c 3933 40be
00000380: cc2a a43c 0e66 a6bc 47f8 38be c7a0 c83d
00000390: 9f9d 833e 2692 e93d 79f9 00be 5dfd 07be
000003a0: 1ae5 4ebe 4408 02be c8d8 f13d 1b94 823d
000003b0: 05fa 2fbd e841 b0bc 2849 8cbc 735c 933b
000003c0: 6cd0 8fbe ff9f 673e f2af 67bd ec3f 79be
000003d0: 2a68 b33c 9e66 153c 4e40 b63d e8c3 a5bd
000003e0: 9d1a d2bc b73a 40be 4ca9 3ebe c9d3 2dbe
000003f0: 3684 0dbe ca68 383e 7a28 76be 3a42 bebd
