outputs/2025-03-23/17-09-27/outputs/model_epoch_10.pt (torch, 377354 bytes, 140 tensors)

naim.embeddings.0.embeddings.weight f4 [2, 6]
0	0x3ec15ad6	0.37764615
1	0xbf0e3bf7	-0.5556025
2	0xbea38dce	-0.31944126
3	0x3ea51a29	0.3224652
4	0x3ee2f935	0.44330755
5	0x3e8f0f52	0.27941376
6	0x00000000	0.0
7	0x00000000	0.0
8	0x00000000	0.0
9	0x00000000	0.0
10	0x00000000	0.0
11	0x00000000	0.0

naim.embeddings.1.embeddings.weight f4 [2, 6]
0	0x3d5321dd	0.051545966
1	0xbd8c512a	-0.06851418
2	0xbe101c7b	-0.14073364
3	0x3ebe797b	0.37202057
4	0x3e2d3541	0.16914846
5	0xbd966092	-0.07342638
6	0x00000000	0.0
7	0x00000000	0.0
8	0x00000000	0.0
9	0x00000000	0.0
10	0x00000000	0.0
11	0x00000000	0.0

naim.embeddings.2.embeddings.weight f4 [2, 6]
0	0x3f24c7fc	0.6436765
1	0x3d25f386	0.040515445
2	0xbc84337c	-0.01613783
3	0x3f0fe5ac	0.56209826
4	0xbe807978	-0.25092673
5	0x3ead931b	0.33901295
6	0x00000000	0.0
7	0x00000000	0.0
8	0x00000000	0.0
9	0x00000000	0.0
10	0x00000000	0.0
11	0x00000000	0.0

naim.embeddings.3.embeddings.weight f4 [2, 6]
0	0x3f232bfe	0.63739
1	0xbefe6a21	-0.49690345
2	0x3d500f68	0.050795943
3	0x3ef474de	0.47745413
4	0x3e08c791	0.13357379
5	0x3befa45e	0.0073132953
6	0x00000000	0.0
7	0x00000000	0.0
8	0x00000000	0.0
9	0x00000000	0.0
10	0x00000000	0.0
11	0x00000000	0.0

naim.embeddings.4.embeddings.weight f4 [2, 6]
0	0xbeff9274	-0.49916422
1	0xbe8bc054	-0.27295172
2	0xbe43af21	-0.19109775
3	0x3e07d97c	0.13266557
4	0x3dbf7308	0.09348112
5	0x3c29535d	0.010334817
6	0x00000000	0.0
7	0x00000000	0.0
8	0x00000000	0.0
9	0x00000000	0.0
10	0x00000000	0.0
11	0x00000000	0.0

naim.embeddings.5.embeddings.weight f4 [2, 6]
0	0xbeab2ffb	-0.33435044
1	0x3d0c9092	0.03431756
2	0x3f1fdf75	0.62450343
3	0x3eae2592	0.3401304
4	0xbf09da19	-0.53848416
5	0x3d6bf1d4	0.057603672
6	0x00000000	0.0
7	0x00000000	0.0
8	0x00000000	0.0
9	0x00000000	0.0
10	0x00000000	0.0
11	0x00000000	0.0

naim.embeddings.6.embeddings.weight f4 [2, 6]
0	0xbf008981	-0.50209814
1	0xbdc00353	-0.09375634
2	0xbdde71f7	-0.10861581
3	0xbe7b0c38	-0.2451638
4	0x3e09aefc	0.13445657
5	0x3f3a958f	0.7288446
6	0x00000000	0.0
7	0x00000000	0.0
8	0x00000000	0.0
9	0x00000000	0.0
10	0x00000000	0.0
11	0x00000000	0.0

naim.embeddings.7.embeddings.weight f4 [2, 6]
0	0xbec7acae	-0.38998932
1	0xbbc879f6	-0.0061180545
2	0x3dc16e00	0.09444809
3	0xbf2e96db	-0.6819894
4	0xbd552d0b	-0.05204491
5	0x3f0da724	0.5533316
6	0x00000000	0.0
7	0x00000000	0.0
8	0x00000000	0.0
9	0x00000000	0.0
10	0x00000000	0.0
11	0x00000000	0.0

naim.embeddings.8.embeddings.weight f4 [2, 6]
0	0x3f1d12cf	0.61356825
1	0xbe040b5a	-0.12894955
2	0x3e82ee2c	0.25572336
3	0xbf162037	-0.58642906
4	0xbe4c413c	-0.1994676
5	0x3e65f709	0.22457518
6	0x00000000	0.0
7	0x00000000	0.0
8	0x00000000	0.0
9	0x00000000	0.0
10	0x00000000	0.0
11	0x00000000	0.0

naim.embeddings.9.embeddings.weight f4 [2, 6]
0	0x3edbef08	0.42955804
1	0xbe8661d7	-0.2624652
2	0x3d79954a	0.06093339
3	0xbec6a21d	-0.38795558
4	0xbf16b5e4	-0.58871293
5	0x39906edc	0.00027548417
6	0x00000000	0.0
7	0x00000000	0.0
8	0x00000000	0.0
9	0x00000000	0.0
10	0x00000000	0.0
11	0x00000000	0.0

naim.embeddings.10.embeddings.weight f4 [2, 6]
0	0x3dc64374	0.096808344
1	0x3dc45172	0.09585847
2	0x3e73b58d	0.23799725
3	0x3e70fe85	0.23534591
4	0x3c1cd00e	0.0095710885
5	0x3eda572d	0.42644635
6	0x00000000	0.0
7	0x00000000	0.0
8	0x00000000	0.0
9	0x00000000	0.0
10	0x00000000	0.0
11	0x00000000	0.0

naim.embeddings.11.embeddings.weight f4 [2, 6]
0	0x3e2aa5eb	0.16664855
1	0xbde4c059	-0.111695
2	0xbef4a830	-0.47784567
3	0xbefe856c	-0.49711168
4	0xbcf0087e	-0.029300924
5	0xbe8dbf47	-0.27684996
6	0x00000000	0.0
7	0x00000000	0.0
8	0x00000000	0.0
9	0x00000000	0.0
10	0x00000000	0.0
11	0x00000000	0.0

naim.embeddings.12.embeddings.weight f4 [2, 6]
0	0x3e25bf74	0.16186315
1	0xbe70ba0e	-0.23508474
2	0x3da72524	0.08161381
3	0x3eda2326	0.4260494
4	0x3ef6d256	0.4820735
5	0x3de2a649	0.110668726
6	0x00000000	0.0
7	0x00000000	0.0
8	0x00000000	0.0
9	0x00000000	0.0
10	0x00000000	0.0
11	0x00000000	0.0

naim.embeddings.13.embeddings.weight f4 [2, 6]
0	0xbe757fb4	-0.23974496
1	0xbdb64ff2	-0.08901967
2	0xbe90304e	-0.28161854
3	0x3f221636	0.6331514
4	0xbe34ad64	-0.17644268
5	0x3e979b7d	0.29610816
6	0x00000000	0.0
7	0x00000000	0.0
8	0x00000000	0.0
9	0x00000000	0.0
10	0x00000000	0.0
11	0x00000000	0.0

naim.embeddings.14.embeddings.weight f4 [2, 6]
0	0x3e3b1293	0.18268804
1	0x3f26f5ba	0.652187
2	0xbe16274f	-0.14663433
3	0x3da75e3e	0.08172272
4	0x3f1b1b79	0.60588795
5	0x3c786a63	0.015162083
6	0x00000000	0.0
7	0x00000000	0.0
8	0x00000000	0.0
9	0x00000000	0.0
10	0x00000000	0.0
11	0x00000000	0.0

naim.embeddings.15.embeddings.weight f4 [2, 6]
0	0xbf188cde	-0.59589946
1	0x3ea6264b	0.3245109
2	0x3d9f571e	0.07780288
3	0xbe909cfd	-0.28244773
4	0xbe3999fd	-0.18125148
5	0x3f06b982	0.5262681
6	0x00000000	0.0
7	0x00000000	0.0
8	0x00000000	0.0
9	0x00000000	0.0
10	0x00000000	0.0
11	0x00000000	0.0

naim.embeddings.16.embeddings.weight f4 [2, 6]
0	0x3f03c0f5	0.51466304
1	0x3dc11409	0.094276495
2	0x3d959cdc	0.07305309
3	0xbea64697	-0.3247573
4	0x3e0dfb89	0.13865484
5	0x3ecbb540	0.3978672
6	0x00000000	0.0
7	0x00000000	0.0
8	0x00000000	0.0
9	0x00000000	0.0
10	0x00000000	0.0
11	0x00000000	0.0

naim.embeddings.17.embeddings.weight f4 [2, 6]
0	0x3defc08b	0.117066465
1	0x3e2e88b8	0.17044342
2	0x3e04ee31	0.12981488
3	0xbefa0dcc	-0.4883865
4	0x3e9458f5	0.2897412
5	0xbe92a149	-0.28638676
6	0x00000000	0.0
7	0x00000000	0.0
8	0x00000000	0.0
9	0x00000000	0.0
10	0x00000000	0.0
11	0x00000000	0.0

naim.embeddings.18.embeddings.weight f4 [2, 6]
0	0xbf0a49e6	-0.5401901
1	0xbee9a593	-0.45634136
2	0xbe94b48c	-0.29043996
3	0x3f0a53ca	0.540341
4	0xbcfa67ba	-0.030567039
5	0xbca3fc0a	-0.020017643
6	0x00000000	0.0
7	0x00000000	0.0
8	0x00000000	0.0
9	0x00000000	0.0
10	0x00000000	0.0
11	0x00000000	0.0

naim.embeddings.19.embeddings.weight f4 [2, 6]
0	0x3f057d72	0.5214454
1	0xbe84b72c	-0.25921
2	0x3e8b0fc1	0.27160457
3	0xbe59ddf5	-0.21276076
4	0xbdda8e32	-0.10671653
5	0x3db04b14	0.0860807
6	0x00000000	0.0
7	0x00000000	0.0
8	0x00000000	0.0
9	0x00000000	0.0
10	0x00000000	0.0
11	0x00000000	0.0

naim.embeddings.20.embeddings.weight f4 [2, 6]
0	0x3e90a366	0.28249663
1	0x3e132331	0.14368893
2	0xbea8e616	-0.32988042
3	0xbefa03d6	-0.48831052
4	0xbe0171d9	-0.12641086
5	0x3e75920c	0.23981494
6	0x00000000	0.0
7	0x00000000	0.0
8	0x00000000	0.0
9	0x00000000	0.0
10	0x00000000	0.0
11	0x00000000	0.0

naim.embeddings.21.embeddings.weight f4 [2, 6]
0	0x3d89c81f	0.06727623
1	0x3baa8bb2	0.0052046413
2	0x3df81a88	0.121144354
3	0xbd5bd24b	-0.053667348
4	0x3cbf5484	0.02335573
5	0xbe0d9685	-0.1382695
6	0x00000000	0.0
7	0x00000000	0.0
8	0x00000000	0.0
9	0x00000000	0.0
10	0x00000000	0.0
11	0x00000000	0.0

naim.embeddings.22.embeddings.weight f4 [2, 6]
0	0x3eaf551e	0.34244627
1	0xbe7b5131	-0.24542691
2	0xbd1aeac6	-0.037821554
3	0x3f0ef580	0.55843353
4	0x3ed5c153	0.41749057
5	0xbe522e58	-0.20525491
6	0x00000000	0.0
7	0x00000000	0.0
8	0x00000000	0.0
9	0x00000000	0.0
10	0x00000000	0.0
11	0x00000000	0.0

naim.embeddings.23.embeddings.weight f4 [2, 6]
0	0x3e5019df	0.20322369
1	0x3bb8b45e	0.005636736
2	0xbeaf8248	-0.34279084
3	0x3f50cc93	0.81562155
4	0xbd46b52c	-0.048512623
5	0xbe810ba4	-0.25204194
6	0x00000000	0.0
7	0x00000000	0.0
8	0x00000000	0.0
9	0x00000000	0.0
10	0x00000000	0.0
11	0x00000000	0.0

naim.embeddings.24.embeddings.weight f4 [2, 6]
0	0x3c1c0ee8	0.009525038
1	0x3e1f80af	0.15576433
2	0xbe34fbf4	-0.17674237
3	0x3ec78d24	0.3897487
4	0xbf54c919	-0.8311935
5	0x3d4eff33	0.050536346
6	0x00000000	0.0
7	0x00000000	0.0
8	0x00000000	0.0
9	0x00000000	0.0
10	0x00000000	0.0
11	0x00000000	0.0

naim.embeddings.25.embeddings.weight f4 [2, 6]
0	0x3ebec360	0.37258434
1	0xbe0e4d71	-0.13896729
2	0x3f3d59b6	0.73965013
3	0x3eefe197	0.468518
4	0x3dc1af9f	0.09457325
5	0x3d5faa1d	0.054605592
6	0x00000000	0.0
7	0x00000000	0.0
8	0x00000000	0.0
9	0x00000000	0.0
10	0x00000000	0.0
11	0x00000000	0.0

naim.embeddings.26.embeddings.weight f4 [2, 6]
0	0x3e344545	0.17604549
1	0xbef25675	-0.47331586
2	0xbef6198e	-0.48066372
3	0x3e97a8ea	0.2962106
4	0x3ed2f978	0.41205955
5	0x3ea3a06f	0.3195834
6	0x00000000	0.0
7	0x00000000	0.0
8	0x00000000	0.0
9	0x00000000	0.0
10	0x00000000	0.0
11	0x00000000	0.0

naim.embeddings.27.embeddings.weight f4 [2, 6]
0	0xbdbafb31	-0.09129942
1	0x3eb8325c	0.3597592
2	0xbf0183cb	-0.50591725
3	0xbf081591	-0.5315791
4	0xbdda8cc9	-0.10671384
5	0x3d068483	0.032841217
6	0x00000000	0.0
7	0x00000000	0.0
8	0x00000000	0.0
9	0x00000000	0.0
10	0x00000000	0.0
11	0x00000000	0.0

naim.embeddings.28.embeddings.weight f4 [2, 6]
0	0xbe4a3ccf	-0.19749759
1	0x3e6bc1f7	0.2302321
2	0xbe440e1d	-0.19146009
3	0xbeb01885	-0.34393707
4	0x3e0d6dee	0.13811466
5	0xbdb50a5d	-0.08839867
6	0x00000000	0.0
7	0x00000000	0.0
8	0x00000000	0.0
9	0x00000000	0.0
10	0x00000000	0.0
11	0x00000000	0.0

naim.embeddings.29.embeddings.weight f4 [2, 6]
0	0xbf075fcd	-0.52880555
1	0xbc83fd86	-0.0161121
2	0x3f23b2f2	0.63944924
3	0xbe4d3a0a	-0.20041671
4	0x3d8bf87e	0.068345055
5	0xbeae7e1b	-0.34080586
6	0x00000000	0.0
7	0x00000000	0.0
8	0x00000000	0.0
9	0x00000000	0.0
10	0x00000000	0.0
11	0x00000000	0.0

naim.embeddings.30.embeddings.weight f4 [2, 6]
0	0xbe0d2dbd	-0.13786979
1	0x3e7459a1	0.23862316
2	0x3ea6cdb6	0.3257882
3	0xbe952951	-0.29133084
4	0xbd44ffb7	-0.04809543
5	0xbebd9d18	-0.37033916
6	0x00000000	0.0
7	0x00000000	0.0
8	0x00000000	0.0
9	0x00000000	0.0
10	0x00000000	0.0
11	0x00000000	0.0

naim.embeddings.31.embeddings.weight f4 [2, 6]
0	0x3ec2c0c0	0.38037682
1	0xbe78444c	-0.24244803
2	0xbd1791bc	-0.037004218
3	0xbdca22f0	-0.09869945
4	0xbe826b97	-0.2547271
5	0xbe93a234	-0.2883469
6	0x00000000	0.0
7	0x00000000	0.0
8	0x00000000	0.0
9	0x00000000	0.0
10	0x00000000	0.0
11	0x00000000	0.0

naim.embeddings.32.embeddings.weight f4 [2, 6]
0	0x3dd1bed0	0.10241473
1	0x3ea452e1	0.32094482
2	0xbeae5a2b	-0.34053168
3	0xbf41abbc	-0.7565267
4	0x3e9122ec	0.28346956
5	0xbe2d68fb	-0.16934578
6	0x00000000	0.0
7	0x00000000	0.0
8	0x00000000	0.0
9	0x00000000	0.0
10	0x00000000	0.0
11	0x00000000	0.0

naim.embeddings.33.embeddings.weight f4 [2, 6]
0	0xbe1a7855	-0.15084966
1	0xbe2056ff	-0.15658186
2	0xbec87146	-0.3914892
3	0xbe7fe501	-0.24989702
4	0xbea0b629	-0.31388977
5	0x3f35ebb5	0.71062785
6	0x00000000	0.0
7	0x00000000	0.0
8	0x00000000	0.0
9	0x00000000	0.0
10	0x00000000	0.0
11	0x00000000	0.0

naim.embeddings.34.embeddings.weight f4 [2, 6]
0	0xbe3176f8	-0.17330539
1	0x3dd83d88	0.10558611
2	0x3f051710	0.51988316
3	0xbd2c2519	-0.042027567
4	0xbe878b2f	-0.26473376
5	0x3d3a4757	0.04547819
6	0x00000000	0.0
7	0x00000000	0.0
8	0x00000000	0.0
9	0x00000000	0.0
10	0x00000000	0.0
11	0x00000000	0.0

naim.embeddings.35.embeddings.weight f4 [2, 6]
0	0x3e4019cc	0.1875984
1	0xbe19a08f	-0.15002654
2	0x3ea24d13	0.31699428
3	0x3eaab023	0.33337507
4	0x3ece7260	0.40321636
5	0xbf08d394	-0.5344784
6	0x00000000	0.0
7	0x00000000	0.0
8	0x00000000	0.0
9	0x00000000	0.0
10	0x00000000	0.0
11	0x00000000	0.0

naim.embeddings.36.embeddings.weight f4 [2, 6]
0	0xbe11cf87	-0.14239322
1	0x3ec9cd1c	0.394143
2	0xbf04332a	-0.5164057
3	0x3a14d5d3	0.0005677614
4	0xbc8bbf44	-0.017058976
5	0x3dfabe62	0.12243344
6	0x00000000	0.0
7	0x00000000	0.0
8	0x00000000	0.0
9	0x00000000	0.0
10	0x00000000	0.0
11	0x00000000	0.0

naim.embeddings.37.embeddings.weight f4 [2, 6]
0	0x3b4f7de0	0.003166072
1	0xbeb2c572	-0.34916264
2	0xbe0073e9	-0.12544216
3	0xbd9de044	-0.07708791
4	0x3e72595f	0.23666905
5	0x3df25261	0.11832119
6	0x00000000	0.0
7	0x00000000	0.0
8	0x00000000	0.0
9	0x00000000	0.0
10	0x00000000	0.0
11	0x00000000	0.0

naim.embeddings.38.embeddings.weight f4 [2, 6]
0	0x3d1713f0	0.03688425
1	0xbd835286	-0.064122245
2	0x3c95ac1e	0.018270548
3	0x3e9f2780	0.31084824
4	0xbe09c84c	-0.13455313
5	0x3e17cf07	0.14825068
6	0x00000000	0.0
7	0x00000000	0.0
8	0x00000000	0.0
9	0x00000000	0.0
10	0x00000000	0.0
11	0x00000000	0.0

naim.embeddings.39.embeddings.weight f4 [2, 6]
0	0xbd35e14b	-0.04440431
1	0xbe8d3c04	-0.2758485
2	0x3f005bef	0.5014028
3	0xbf1f8631	-0.62314135
4	0x3e512702	0.20425037
5	0x3eafe5b0	0.34354925
6	0x00000000	0.0
7	0x00000000	0.0
8	0x00000000	0.0
9	0x00000000	0.0
10	0x00000000	0.0
11	0x00000000	0.0

naim.embeddings.40.embeddings.weight f4 [2, 6]
0	0xbdac6417	-0.08417528
1	0x3e6c36cb	0.23067777
2	0x3e07b0a8	0.13250983
3	0xbe1cfb59	-0.15330257
4	0xbd726971	-0.059182588
5	0xbeac787c	-0.33685672
6	0x00000000	0.0
7	0x00000000	0.0
8	0x00000000	0.0
9	0x00000000	0.0
10	0x00000000	0.0
11	0x00000000	0.0

naim.embeddings.41.embeddings.weight f4 [2, 6]
0	0xbdf56049	-0.119812556
1	0xbe50cd8d	-0.20390911
2	0x3ea7a988	0.3274653
3	0x3e3e8fff	0.18609618
4	0x3ec72f81	0.3890343
5	0x3f130bf4	0.57440114
6	0x00000000	0.0
7	0x00000000	0.0
8	0x00000000	0.0
9	0x00000000	0.0
10	0x00000000	0.0
11	0x00000000	0.0

naim.embeddings.42.embeddings.weight f4 [2, 6]
0	0xbe99be99	-0.30028227
1	0x3f38f999	0.72255856
2	0x3e745310	0.23859811
3	0x3eca5287	0.39516088
4	0x3dcce58b	0.10004719
5	0xbe266fc8	-0.16253579
6	0x00000000	0.0
7	0x00000000	0.0
8	0x00000000	0.0
9	0x00000000	0.0
10	0x00000000	0.0
11	0x00000000	0.0

naim.embeddings.43.embeddings.weight f4 [2, 6]
0	0xbe6a61bd	-0.22888847
1	0x3c4b1940	0.012396157
2	0x3f28b616	0.6590284
3	0x3ef3f736	0.47649544
4	0x3eb9a9ab	0.3626226
5	0xbdb6d15c	-0.08926651
6	0x00000000	0.0
7	0x00000000	0.0
8	0x00000000	0.0
9	0x00000000	0.0
10	0x00000000	0.0
11	0x00000000	0.0

naim.embeddings.44.embeddings.weight f4 [2, 6]
0	0xbd400c87	-0.046886947
1	0x3e95cdcc	0.29258573
2	0x3e5167e6	0.2044979
3	0xbeae5b82	-0.3405419
4	0x3e045d2d	0.12926169
5	0x3f074cf6	0.5285181
6	0x00000000	0.0
7	0x00000000	0.0
8	0x00000000	0.0
9	0x00000000	0.0
10	0x00000000	0.0
11	0x00000000	0.0

naim.embeddings.45.embeddings.weight f4 [2, 6]
0	0xbeea21ed	-0.45729008
1	0xbf16c56b	-0.58894986
2	0xbe85437b	-0.26028046
3	0x3e1be27d	0.15223117
4	0xbedf21bd	-0.43580428
5	0xbe213d95	-0.15746148
6	0x00000000	0.0
7	0x00000000	0.0
8	0x00000000	0.0
9	0x00000000	0.0
10	0x00000000	0.0
11	0x00000000	0.0

naim.embeddings.46.embeddings.weight f4 [2, 6]
0	0xbd5e20e9	-0.054230604
1	0x3db4409a	0.08801384
2	0x3e995ada	0.29952127
3	0xbdd14aa8	-0.10219318
4	0x3e0e860c	0.13918322
5	0x3e4a2c51	0.19743468
6	0x00000000	0.0
7	0x00000000	0.0
8	0x00000000	0.0
9	0x00000000	0.0
10	0x00000000	0.0
11	0x00000000	0.0

naim.embeddings.47.embeddings.weight f4 [2, 6]
0	0x3e98aefc	0.29821002
1	0xbde11de4	-0.10992029
2	0xbef4bdae	-0.47800964
3	0xbe774979	-0.24149121
4	0x3e8f728a	0.28017074
5	0xbe91ebdb	-0.28500256
6	0x00000000	0.0
7	0x00000000	0.0
8	0x00000000	0.0
9	0x00000000	0.0
10	0x00000000	0.0
11	0x00000000	0.0

naim.embeddings.48.embeddings.weight f4 [2, 6]
0	0x3cd0a776	0.025470477
1	0x3e84e242	0.2595387
2	0x3da6239d	0.081122614
3	0x3ea6a6ea	0.3254922
4	0x3f3297d6	0.69762933
5	0x3ebf09a3	0.3731204
6	0x00000000	0.0
7	0x00000000	0.0
8	0x00000000	0.0
9	0x00000000	0.0
10	0x00000000	0.0
11	0x00000000	0.0

naim.embeddings.49.embeddings.weight f4 [2, 6]
0	0xbe71346d	-0.23555155
1	0x3e7b1598	0.24519956
2	0x3e9310b2	0.28723675
3	0xbdf1bb42	-0.11803295
4	0xbebc00d3	-0.3671938
5	0x3ed2cb60	0.41170788
6	0x00000000	0.0
7	0x00000000	0.0
8	0x00000000	0.0
9	0x00000000	0.0
10	0x00000000	0.0
11	0x00000000	0.0

naim.embeddings.50.embeddings.weight f4 [2, 6]
0	0x3f061ef6	0.5239099
1	0x3ec51e97	0.384999
2	0xbddd5394	-0.10806957
3	0xbe3be1da	-0.18347874
4	0xbdeec8c2	-0.11659385
5	0xbf0e6996	-0.5562986
6	0x00000000	0.0
7	0x00000000	0.0
8	0x00000000	0.0
9	0x00000000	0.0
10	0x00000000	0.0
11	0x00000000	0.0

naim.embeddings.51.embeddings.weight f4 [2, 6]
0	0x3d3d2abd	0.046183337
1	0x3e2bdca6	0.1678339
2	0x3f08945b	0.5335137
3	0xbf270732	-0.65245354
4	0x3eb388cf	0.35065314
5	0xbe1093fa	-0.14118949
6	0x00000000	0.0
7	0x00000000	0.0
8	0x00000000	0.0
9	0x00000000	0.0
10	0x00000000	0.0
11	0x00000000	0.0

naim.embeddings.52.embeddings.weight f4 [2, 6]
0	0x3e99ed27	0.30063745
1	0xbe724149	-0.23657717
2	0xbe6d5bff	-0.23179625
3	0xbe671552	-0.22566727
4	0x3db8ff68	0.0903309
5	0xbeb830ca	-0.35974723
6	0x00000000	0.0
7	0x00000000	0.0
8	0x00000000	0.0
9	0x00000000	0.0
10	0x00000000	0.0
11	0x00000000	0.0

naim.embeddings.53.embeddings.weight f4 [2, 6]
0	0xbe889e73	-0.26683387
1	0xbe25939e	-0.16169593
2	0x3e1d2b4f	0.15348552
3	0xbd47f894	-0.048821047
4	0x3f64ad20	0.8932667
5	0x3a95cd89	0.0011429052
6	0x00000000	0.0
7	0x00000000	0.0
8	0x00000000	0.0
9	0x00000000	0.0
10	0x00000000	0.0
11	0x00000000	0.0

naim.embeddings.54.embeddings.weight f4 [2, 6]
0	0x3e4c8291	0.19971682
1	0x3f0438ee	0.5164937
2	0x3eca2ace	0.39485782
3	0x3e4279e3	0.18991809
4	0xbf1a6650	-0.60312366
5	0x3dde985a	0.108689025
6	0x00000000	0.0
7	0x00000000	0.0
8	0x00000000	0.0
9	0x00000000	0.0
10	0x00000000	0.0
11	0x00000000	0.0

naim.embeddings.55.embeddings.weight f4 [2, 6]
0	0x3ea95a15	0.3307654
1	0xbe9e10d7	-0.30872223
2	0xbf11338f	-0.567193
3	0x3f0f2946	0.55922353
4	0xbdc4d8e2	-0.096116796
5	0xbe26743e	-0.1625528
6	0x00000000	0.0
7	0x00000000	0.0
8	0x00000000	0.0
9	0x00000000	0.0
10	0x00000000	0.0
11	0x00000000	0.0

naim.embeddings.56.embeddings.weight f4 [2, 6]
0	0xbec42fca	-0.3831771
1	0xbee70a93	-0.45125255
2	0x3e40f8de	0.18844935
3	0xbd92ebf0	-0.07173908
4	0xbed0a199	-0.4074829
5	0xbd5c4b12	-0.05378253
6	0x00000000	0.0
7	0x00000000	0.0
8	0x00000000	0.0
9	0x00000000	0.0
10	0x00000000	0.0
11	0x00000000	0.0

naim.embeddings.57.embeddings.weight f4 [2, 6]
0	0x3edfac72	0.43686253
1	0xbea0571e	-0.31316465
2	0xbe5b50dd	-0.21417566
3	0x3e8f324a	0.27968055
4	0x3f355470	0.70831966
5	0xbc199483	-0.009373787
6	0x00000000	0.0
7	0x00000000	0.0
8	0x00000000	0.0
9	0x00000000	0.0
10	0x00000000	0.0
11	0x00000000	0.0

naim.embeddings.58.embeddings.weight f4 [2, 6]
0	0xbddbcc6e	-0.10732351
1	0x3caca6ea	0.021075685
2	0x3d5e26d5	0.05423625
3	0xbd6cda52	-0.057825394
4	0x3dc56ec5	0.09640268
5	0xbe871d93	-0.2638975
6	0x00000000	0.0
7	0x00000000	0.0
8	0x00000000	0.0
9	0x00000000	0.0
10	0x00000000	0.0
11	0x00000000	0.0

naim.embeddings.59.embeddings.weight f4 [2, 6]
0	0x3ea14c7f	0.31503674
1	0xbe33442a	-0.17506471
2	0xbe82e084	-0.25561917
3	0x3f2e0415	0.6797498
4	0x3e84c060	0.2592802
5	0x3ed392d2	0.41322953
6	0x00000000	0.0
7	0x00000000	0.0
8	0x00000000	0.0
9	0x00000000	0.0
10	0x00000000	0.0
11	0x00000000	0.0

naim.embeddings.60.embeddings.weight f4 [2, 6]
0	0xbf05e704	-0.52305627
1	0xbd495b7d	-0.049159516
2	0x3d67d315	0.056597788
3	0x3f019a46	0.5062603
4	0x3e8664e9	0.26248863
5	0x3ebb2d8f	0.36558196
6	0x00000000	0.0
7	0x00000000	0.0
8	0x00000000	0.0
9	0x00000000	0.0
10	0x00000000	0.0
11	0x00000000	0.0

naim.embeddings.61.embeddings.weight f4 [2, 6]
0	0xbe68090c	-0.22659701
1	0x3d3cddcf	0.04610997
2	0x3e07788a	0.13229576
3	0xbd9852bd	-0.07437656
4	0x3e6372d8	0.22211778
5	0xbded8b74	-0.11598864
6	0x00000000	0.0
7	0x00000000	0.0
8	0x00000000	0.0
9	0x00000000	0.0
10	0x00000000	0.0
11	0x00000000	0.0

naim.embeddings.62.embeddings.weight f4 [2, 6]
0	0x3e915222	0.28382975
1	0x3e18e614	0.14931518
2	0xbf30ed7e	-0.69112384
3	0xbd87cc42	-0.06630756
4	0xbebf63e9	-0.37380913
5	0xbeeb341c	-0.45938194
6	0x00000000	0.0
7	0x00000000	0.0
8	0x00000000	0.0
9	0x00000000	0.0
10	0x00000000	0.0
11	0x00000000	0.0

naim.embeddings.63.embeddings.weight f4 [2, 6]
0	0x3f3f178d	0.7464531
1	0x3ea2aad1	0.31770948
2	0xbe97abd3	-0.2962328
3	0x3e2b7776	0.1674479
4	0xbe5b45e6	-0.21413383
5	0xbe26ed07	-0.16301356
6	0x00000000	0.0
7	0x00000000	0.0
8	0x00000000	0.0
9	0x00000000	0.0
10	0x00000000	0.0
11	0x00000000	0.0

naim.encoder.0.layer_norm_1.weight f4 [6]
0	0x3f7674ef	0.96272177
1	0x3f756c32	0.9586822
2	0x3f765af8	0.9623256
3	0x3f7d450d	0.9893349
4	0x3f76c00d	0.96386796
5	0x3f75e5da	0.9605385

naim.encoder.0.layer_norm_1.bias f4 [6]
0	0x3b8cf32a	0.0043014484
1	0xbb304142	-0.0026894365
2	0x3ba3a2f7	0.004993792
3	0xbb4c4e98	-0.0031174775
4	0x3b8418d3	0.0040312796
5	0xbb126cb7	-0.002234263

naim.encoder.0.attn.linear_q.weight f4 [6, 6]
0	0xbd963625	-0.07334546
1	0x3cdbdcbf	0.026838658
2	0xbdbeaada	-0.09309931
3	0xbeb7b5cd	-0.3588089
4	0xbce19882	-0.027538542
5	0x3e23af37	0.15984808
6	0xbd1074c2	-0.0352676
7	0xbe265aeb	-0.1624562
8	0x3c38a5a7	0.011269963
9	0x3d6fad84	0.058515087
10	0xbda3ef26	-0.08004598
11	0xbe93d0bd	-0.28870192
12	0xbe35b987	-0.17746554
13	0xbcf3ece7	-0.02977605
14	0x3dda94ed	0.106729366
15	0x3ea470f9	0.3211744
16	0x3b1c2919	0.0023828207
17	0x3dd92c67	0.10604172
18	0x3e4704de	0.1943545
19	0xbe10530f	-0.14094184
20	0xbdcfd2aa	-0.10147603
21	0x3e6e029d	0.23243184
22	0x3e82ffa6	0.2558567
23	0x3d84ed81	0.06490613
24	0xbe8cb99d	-0.27485362
25	0x3e45b50e	0.19307348
26	0xbe97a649	-0.29619053
27	0x3e29140e	0.16511557
28	0x3d0844a9	0.033268604
29	0x3dbd345e	0.09238504
30	0xbeb6e909	-0.35724667
31	0xbdd32dea	-0.10311492
32	0x3e0d81c8	0.13819039
33	0x3e8b2005	0.27172866
34	0xbd9d3cd1	-0.076776154
35	0x3ea56f25	0.3231136

naim.encoder.0.attn.linear_k.weight f4 [6, 6]
0	0xbd77dc82	-0.060513027
1	0xbe533a1b	-0.20627634
2	0xbe0dc1a4	-0.138434
3	0x3c2f0b46	0.01068384
4	0xbd42479b	-0.04743157
5	0x3e228e46	0.15874586
6	0xbe3d8d18	-0.18510854
7	0xbdb44259	-0.08801717
8	0xbeb9ab49	-0.36263493
9	0x3e9620ff	0.2932205
10	0xbd467280	-0.04844904
11	0xbe904468	-0.2817719
12	0xba06b7d2	-0.00051390857
13	0xba8622a0	-0.0010233708
14	0x3d98a238	0.07452816
15	0xbc432cc3	-0.0119125275
16	0x3e5c1257	0.21491371
17	0xbdcd0a20	-0.10011697
18	0xbdb24d59	-0.08706159
19	0xbd80910e	-0.06277667
20	0x3d1b5471	0.037922326
21	0x3e935012	0.28772026
22	0xbbff9600	-0.007799864
23	0x3e8bc266	0.27296752
24	0x3e8f1870	0.27948332
25	0xbe303f55	-0.17211659
26	0xbcb12587	-0.02162434
27	0xbe220b03	-0.15824513
28	0x3e05812e	0.1303756
29	0xbdd56ef2	-0.10421552
30	0x3dc229d7	0.094806366
31	0x3c30427b	0.010758038
32	0xbe683a6a	-0.22678533
33	0xbe798323	-0.24366431
34	0xbeb6e271	-0.35719636
35	0xbe408750	-0.18801618

naim.encoder.0.attn.linear_v.weight f4 [6, 6]
0	0x3dea222c	0.11432299
1	0x3ce7ce5d	0.028296644
2	0x3e9d9f5c	0.30785644
3	0xbeb878ba	-0.36029607
4	0xbc04d873	-0.008108246
5	0xbeb7ffde	-0.359374
6	0xb9faf110	-0.0004786332
7	0x3e01c729	0.1267363
8	0xbeb3fd4a	-0.35154182
9	0x3eb250f6	0.34827393
10	0xbdc3882b	-0.09547456
11	0x3eae968b	0.3409923
12	0xbd4bd559	-0.04976401
13	0x3e4eefb5	0.20208628
14	0x3eb7621d	0.35817042
15	0xbe0cf2be	-0.13764474
16	0xbdbfe174	-0.09369174
17	0x3e4ce19e	0.20007941
18	0xbea83470	-0.32852507
19	0x3e4f049e	0.20216605
20	0xbe74479a	-0.23855439
21	0x3ebccbbf	0.36874196
22	0xbe7f039f	-0.24903725
23	0xbe1cbc05	-0.15306099
24	0x3e9498ea	0.29022914
25	0xbe34cc79	-0.17656125
26	0x3e9f4259	0.31105307
27	0x3e8744b1	0.26419595
28	0x3eb6f864	0.35736382
29	0xbec3305c	-0.38122833
30	0x3be2f80b	0.0069265417
31	0xbdf84004	-0.12121585
32	0x3dd472ca	0.10373457
33	0xbe9f7ed1	-0.3115144
34	0x3e2d17ac	0.16903561
35	0xbc7b81b9	-0.0153507525

naim.encoder.0.attn.linear_o.weight f4 [6, 6]
0	0xbe1d42d3	-0.15357523
1	0xbea6ee83	-0.32603845
2	0x3e300400	0.17189026
3	0xbddf54f7	-0.10904878
4	0x3e84abef	0.25912425
5	0x3d1932df	0.03740203
6	0x3dacb4fa	0.08432956
7	0xbcd2913c	-0.025704019
8	0xbcacad61	-0.021078767
9	0xbdc9bc6c	-0.09850392
10	0xbe9f8c2f	-0.3116164
11	0x3e5c57a8	0.21517813
12	0xbe81f8c8	-0.25385118
13	0x3e6c9c32	0.23106459
14	0xbe0ce475	-0.13759024
15	0x3e7d3b3b	0.24729626
16	0x3eaf873f	0.34282872
17	0xbe7b4872	-0.24539354
18	0x3eadf81a	0.3397835
19	0x3c8b611f	0.017014084
20	0xbe9a9e80	-0.3019905
21	0x3e2f99b4	0.17148477
22	0x3e6da128	0.23206007
23	0x3eb8dd51	0.3610635
24	0xbec38140	-0.38184547
25	0x3eb6e657	0.3572261
26	0x3e994191	0.29932836
27	0x3ec6d9fa	0.38838178
28	0x3e5c727b	0.21528046
29	0xbe46bd26	-0.19408092
30	0x3e9ee8b2	0.31036907
31	0x3ec04fae	0.3756079
32	0xbe15705d	-0.14593644
33	0xbd69a6c4	-0.057043806
34	0x3ea50b9d	0.32235423
35	0x3ea74e16	0.32676762

naim.encoder.0.layer_norm_2.weight f4 [6]
0	0x3f7e0998	0.9923339
1	0x3f7926b1	0.97324663
2	0x3f7b2c9f	0.9811496
3	0x3f7cf864	0.98816514
4	0x3f7a34c3	0.9773676
5	0x3f7cdd7e	0.9877547

naim.encoder.0.layer_norm_2.bias f4 [6]
0	0xbafa5995	-0.0019100184
1	0x3be24bf4	0.006906027
2	0xbbc46c39	-0.0059943465
3	0xba036456	-0.00050122046
4	0x3a29b1d0	0.00064733345
5	0x3b598b9f	0.0033194793

naim.encoder.0.ff.0.weight f4 [1000, 6]
0	0x3e6e7b1a	0.23289147
1	0x3e8c41b3	0.27393875
2	0xbe320d2c	-0.17387837
3	0xbd4f7098	-0.050644487
4	0xbdfd037d	-0.12354181
5	0x3e2ffe11	0.17186762
6	0x3d91353e	0.07090233
7	0xbe8cfa06	-0.27534503
8	0xbca80a35	-0.02051268
9	0xbe95d1d3	-0.29261646
10	0xbeaf6065	-0.3425323
11	0x3ea90eb4	0.3301903
12	0xbe2d61ec	-0.16931885
13	0x3e128d5f	0.14311741
14	0xbd75a7c6	-0.059974454
15	0xbd5e7bb1	-0.05431718
16	0x3c2b56b8	0.010457687
17	0x3e8e3cb4	0.27780688
18	0xbcc64ac5	-0.024205575
19	0x3e97b510	0.29630327
20	0x3e4aaca8	0.19792426
21	0x3e73eafb	0.23820107
22	0xbea7f9c9	-0.32807758
23	0xbe197dbe	-0.14989373
24	0xbe9681b6	-0.29395837
25	0xbd81da0c	-0.06340417
26	0xbd64075b	-0.055671077
27	0x3d805429	0.06266052
28	0x3ea6fcdb	0.32614788
29	0x3e17cc67	0.14824067
30	0xbe7b04e1	-0.2451358
31	0xbe5df280	-0.21674538
32	0x3e895c51	0.26828244
33	0x3ca2cc38	0.01987277
34	0x3dab69c1	0.0836978
35	0xbe3702fc	-0.17872232
36	0xbd1e197c	-0.038598523
37	0x3db91899	0.09037895
38	0xbe6c6586	-0.23085603
39	0x3e675f25	0.22594889
40	0x3e303d96	0.17210993
41	0xbe4f47c1	-0.20242216
42	0xbe061a3a	-0.13095942
43	0xbd8afe1c	-0.06786749
44	0x3d143ded	0.03619187
45	0xbde07f40	-0.10961771
46	0x3eb3aea0	0.35094166
47	0xbeb46502	-0.35233313
48	0xbe482614	-0.19545776
49	0xbe56c17c	-0.20972246
50	0x3da3421f	0.07971596
51	0x3ce4d162	0.027931873
52	0xbdac08ea	-0.08400138
53	0x3e9ea498	0.3098495
54	0xbe9f90a0	-0.31165028
55	0x3dd889bd	0.105731465
56	0xbe3e8f5c	-0.18609375
57	0xbd661285	-0.056170005
58	0xbeb384c6	-0.35062236
59	0xbe868a3b	-0.26277336
60	0xbe9c1057	-0.30481216
61	0x3e0e1c13	0.13877897
62	0xbded00f3	-0.11572447
63	0x3e32c012	0.17456082
64	0xbe390a6a	-0.18070379
65	0xbd8b6670	-0.06806648
66	0x3d08d52e	0.03340643
67	0x3e9a2c88	0.301121
68	0xbda400b2	-0.08007945
69	0x3e49146d	0.19636698
70	0x3daa70d6	0.08322303
71	0x3e571dba	0.21007434
72	0x3e679ab6	0.22617611
73	0x3e0aa56c	0.13539666
74	0xbdc04c08	-0.09389502
75	0xbdb77186	-0.089572
76	0x3e054061	0.1301284
77	0x3e390b6c	0.18070763
78	0xbbf04803	-0.007332803
79	0x3e290c0d	0.16508503
80	0xbe54ca44	-0.20780283
81	0x3e432209	0.19055952
82	0xbc9c42dd	-0.019074852
83	0xbe75e6db	-0.24013846
84	0xbe202bb1	-0.15641667
85	0xbe8aaad1	-0.27083448
86	0x3d47a55c	0.048741683
87	0xbe4dc4fa	-0.20094672
88	0xbda02574	-0.078196436
89	0xbbb74e7d	-0.0055940733
90	0xbe5884d6	-0.21144423
91	0x3bc544d6	0.006020169
92	0xbcecac16	-0.02889065
93	0x3dc1409d	0.09436152
94	0x3e81f837	0.25384685
95	0xbe50bad1	-0.20383765
96	0x3e3f4168	0.18677294
97	0xbc595c4b	-0.013266633
98	0xbe4c3289	-0.19941153
99	0xbe18695a	-0.14883938
100	0x3da4b0d7	0.08041542
101	0x3d84638d	0.064643
102	0xbc548f70	-0.012973651
103	0xbe2c511c	-0.16827816
104	0x3e31158f	0.1729338
105	0x3d0f2910	0.03495127
106	0xbeb6b2ae	-0.35683197
107	0xbd19c05a	-0.037536956
108	0xbd9ae311	-0.07562841
109	0xbe10b7dc	-0.14132637
110	0xbe3f6c65	-0.18693693
111	0xbe93f03d	-0.28894225
112	0x3eb8a4c3	0.36063203
113	0xbeaa2fd4	-0.33239615
114	0x3eadd6c7	0.33952925
115	0xbe92e614	-0.2869116
116	0xbdad6a5a	-0.084675506
117	0xbe0b2ded	-0.13591738
118	0xbe3b9351	-0.18317915
119	0x3def1c3f	0.116753094
120	0x3e4bb00f	0.1989138
121	0xbe6c2750	-0.23061872
122	0xbe1c0bba	-0.15238848
123	0x3e2ff9c0	0.17185116
124	0xbcf224e0	-0.029558599
125	0x3d83cdbe	0.064357266
126	0x3e31fa4b	0.17380635
127	0xbdec2a68	-0.11531526
128	0xbe3f30d2	-0.18670967
129	0x3de528b4	0.11189404
130	0xbde6606c	-0.1124886
131	0xbe6bc25b	-0.2302336
132	0xbe2e4a48	-0.17020524
133	0xbe1e7c1e	-0.15477034
134	0x3ebb5027	0.3658459
135	0x3d52b3b9	0.051440928
136	0x3e0ddfc2	0.13854888
137	0x3d01b43d	0.03166603
138	0xbe6fcaf9	-0.23417272
139	0x3e81c119	0.25342634
140	0xbd0db3c9	-0.034595285
141	0xbd8a095b	-0.06740066
142	0x3e954b8a	0.29159194
143	0xbe2b29e3	-0.16715197
144	0x3d6795c3	0.05653931
145	0xbe9e545b	-0.30923733
146	0x3e3392db	0.1753649
147	0x3e047395	0.12934716
148	0xbe9680fe	-0.29395288
149	0x3e42916d	0.19000788
150	0x3d1beff9	0.038070653
151	0xbe35cbf7	-0.17753588
152	0x3e9f73ab	0.31142935
153	0x3e169da1	0.14708568
154	0x3deae456	0.11469333
155	0xbdfd0ad2	-0.123555794
156	0xbe445afc	-0.19175333
157	0xbe3d2311	-0.18470408
158	0x3e028783	0.12747006
159	0x3dad1433	0.08451118
160	0xbe54230d	-0.20716496
161	0x3eaa6c5a	0.3328579
162	0x3e4ba0dd	0.19885583
163	0xbdfb205b	-0.12262031
164	0x3e30eac9	0.17277063
165	0xbe0891de	-0.13336894
166	0x3db9dd47	0.090754084
167	0x3e985810	0.29754686
168	0xbea417ea	-0.32049495
169	0xbe28afa2	-0.16473249
170	0xbc1d0153	-0.009582835
171	0x3d12ec9a	0.035870172
172	0xbe966c71	-0.2937961
173	0xbe67516f	-0.22589658
174	0xbcc47d22	-0.02398545
175	0xbd2b621b	-0.041841608
176	0x3d888a2e	0.06666981
177	0x3d15335c	0.036425933
178	0x3d66e199	0.05636749
179	0x3c596069	0.013267615
180	0x3cd89b18	0.026441142
181	0xbc767a6d	-0.015043837
182	0x3deb31c2	0.114841
183	0x3e745f66	0.23864517
184	0xbe27d37b	-0.16389267
185	0xbe2e72dc	-0.17036003
186	0x3e19bee7	0.1501423
187	0xbe840827	-0.2578747
188	0x3e6e1d87	0.23253451
189	0x3e1a9efc	0.1509971
190	0x3d3e7711	0.04650027
191	0xbe10aae4	-0.1412769
192	0x3be6c7a9	0.0070428443
193	0xbe90c34b	-0.28273997
194	0xbea794b5	-0.32730642
195	0x3eb028e3	0.34406194
196	0xbea69b28	-0.3254025
197	0xbe97aea6	-0.29625434
198	0xbdf6b728	-0.12046653
199	0x3c2bdd9e	0.010489849
200	0x3d77ce2f	0.060499366
201	0xbe25a692	-0.16176823
202	0xbc816763	-0.015796369
203	0xbd72d287	-0.059282806
204	0x3e9b5290	0.30336428
205	0x3ea0fe19	0.3144386
206	0x3e0bc685	0.13649948
207	0x3b096c41	0.0020969065
208	0x3e88f6aa	0.2675069
209	0xbe93c423	-0.28860578
210	0x3e05a397	0.13050686
211	0xbe49ea19	-0.19718207
212	0x3e8e1caf	0.2775626
213	0xbea37e9a	-0.31932527
214	0x3de4a107	0.11163526
215	0xbe9681c9	-0.29395893
216	0x3e4d9589	0.20076574
217	0x3d48b59e	0.04900133
218	0x3e9edcbf	0.3102779
219	0xbe89b363	-0.26894674
220	0x3e6482ed	0.22315569
221	0xbe6dd024	-0.2322393
222	0xbe384451	-0.1799481
223	0x3df21dbb	0.11822077
224	0xbd368c8a	-0.044567622
225	0xbe8fca78	-0.2808416
226	0xbe9cb80a	-0.3060916
227	0xbd995bb0	-0.07488191
228	0x3d9d327b	0.07675644
229	0x3ea20d7e	0.3165092
230	0x3e84ed08	0.2596209
231	0x3b231f1a	0.0024890364
232	0xbe554e7c	-0.2083072
233	0xbea51579	-0.32242945
234	0x3ea6a0d7	0.32544586
235	0xbe422c92	-0.18962315
236	0xbd4f0e43	-0.05055071
237	0xbe93d65d	-0.28874484
238	0xbe79a5eb	-0.24379699
239	0x3d3e6263	0.046480548
240	0xbd828b74	-0.06374255
241	0x3c6a8dd5	0.014316042
242	0xba178dc6	-0.0005781319
243	0x3b99fbaf	0.0046991925
244	0xbd3665c7	-0.044530656
245	0xbb00a50f	-0.0019629633
246	0x3e0e6aa4	0.13907868
247	0x3e837357	0.25673935
248	0x3e9b9d3b	0.30393395
249	0xbe9490f0	-0.2901683
250	0xbe9bbb4b	-0.3041633
251	0xbd1e57fa	-0.03865812
252	0xbcc45a07	-0.02396871
253	0x3e409c12	0.18809536
254	0x3eafd7da	0.3434437
255	0x3d9f143c	0.07767531

naim.encoder.0.ff.0.bias f4 [1000]
0	0x3e6386e3	0.22219424
1	0xbe30afde	-0.17254588
2	0xbd06f409	-0.032947574
3	0x3cd06413	0.025438344
4	0x3e7f2045	0.24914654
5	0x3e19c99b	0.15018313
6	0x3eb5d41e	0.35513395
7	0xbe37b090	-0.17938447
8	0xbca7d60e	-0.020487811
9	0xbc53303b	-0.012889917
10	0x3e965661	0.29362777
11	0x3eb19109	0.34680966
12	0x3db99fd8	0.09063691
13	0xbe93eb83	-0.2889062
14	0xbe8255e6	-0.2545616
15	0x3d65cb42	0.056102045
16	0xbea3e531	-0.32010797
17	0xbde12d28	-0.10994941
18	0xbe882ddd	-0.2659749
19	0x3e395336	0.18098149
20	0xbd14694d	-0.036233235
21	0xbe8e95c8	-0.2784865
22	0x3e6dc22e	0.23218605
23	0xbea3f306	-0.3202135
24	0xbcea7e68	-0.028624728
25	0x3eb6b1ca	0.35682517
26	0x3e3912c3	0.18073563
27	0xbea02c2c	-0.312837
28	0x3cfa00ce	0.030517962
29	0xbd3b9e83	-0.045805465
30	0x3e132537	0.14369665
31	0x3eaf539f	0.34243485
32	0x3e9e6b0a	0.3094104
33	0xbca453e0	-0.020059526
34	0x3e2532e9	0.16132702
35	0xbeb791ce	-0.35853428
36	0x3e91620b	0.28395113
37	0x3e3931c7	0.18085395
38	0xbe7be289	-0.24598135
39	0xbdad6b61	-0.084677465
40	0xbdf21477	-0.118203096
41	0xbe4bca47	-0.19901381
42	0x3e10cdbc	0.14140981
43	0xbdb806fa	-0.08985706
44	0x3e0ca43d	0.13734527
45	0xbdaa03f6	-0.08301537
46	0x3e90b2df	0.28261468
47	0xbdf724da	-0.12067576
48	0xbd1ea3f1	-0.038730565
49	0xbdcad898	-0.09904593
50	0x3c5947ba	0.01326173
51	0xbde7d990	-0.11320794
52	0xbe7a29af	-0.24429964
53	0xbeb2332b	-0.34804663
54	0x3e5bd5ea	0.2146832
55	0x3d382353	0.044955563
56	0xbe624c1f	-0.2209935
57	0x3e4051bf	0.18781184
58	0x3cae7a5d	0.021298582
59	0xbddd3ad6	-0.10802238
60	0xbc7aa3ce	-0.015297843
61	0x3d18f7b8	0.037345618
62	0x3e84396e	0.25825065
63	0xbeaaf16c	-0.33387315
64	0xbe8cbc45	-0.27487388
65	0xbe93f4ee	-0.28897804
66	0xbe8f4538	-0.27982497
67	0x3c82f68d	0.015986705
68	0x3e450850	0.19241452
69	0x3daf130c	0.08548555
70	0x3e0efa66	0.13962707
71	0x3d20b381	0.03923369
72	0xbbdde313	-0.006771454
73	0xbea82a9e	-0.32845014
74	0x3ea577cb	0.32317957
75	0x3eb5973f	0.35466954
76	0xbba15ddd	-0.0049245195
77	0x3d8aae3e	0.06771515
78	0x3d5af293	0.053453993
79	0x3ebaf209	0.36512783
80	0xbb177f2a	-0.0023116567
81	0xbd233669	-0.03984681
82	0xbe3e2d5a	-0.18571988
83	0x3db09d6c	0.08623776
84	0x3e268985	0.16263397
85	0xbe9adaf9	-0.30245188
86	0x3de58172	0.1120633
87	0x3dbb5822	0.091476694
88	0x3e1c38e2	0.15256074
89	0x3e1f0928	0.15530837
90	0xbd8f26fb	-0.06989857
91	0x3d48965e	0.048971526
92	0xbe7d5e89	-0.24743094
93	0x3e5ff111	0.21869303
94	0xbe9ab978	-0.30219626
95	0xbea23438	-0.31680465
96	0xbe85ee02	-0.26158148
97	0xbe4145a2	-0.18874219
98	0x3c7e60f4	0.015526045
99	0x3e69dd8e	0.22838423
100	0xbcfa84e8	-0.030580953
101	0x3e8376d4	0.25676596
102	0xbd0fbe43	-0.035093557
103	0x3e9d71a3	0.3075076
104	0x3e7da36f	0.24769376
105	0x3e628a5d	0.22123094
106	0x3e053d97	0.13011776
107	0xbe712a85	-0.23551376
108	0x3eb8a96b	0.36066756
109	0xbeb15142	-0.34632307
110	0xbe7c43a5	-0.2463518
111	0xbe52dab4	-0.20591241
112	0xbd9053b2	-0.070472136
113	0x3e163d29	0.14671768
114	0x3d8ba67e	0.06818865
115	0xbe9fc8f2	-0.31207997
116	0x3eb7818b	0.3584102
117	0x3eb1d458	0.34732318
118	0x3e2715f4	0.16316968
119	0xbeb79cb5	-0.35861745
120	0x3e5382a0	0.20655298
121	0x3dbb686e	0.09150778
122	0xbcfef6d0	-0.031123549
123	0xbe997d73	-0.29978523
124	0x3e9f9a40	0.3117237
125	0xbdae2c65	-0.08504561
126	0xbe95800a	-0.2919925
127	0x3e8ed9db	0.27900586
128	0x3e0ed2c0	0.13947582
129	0x3dc05eec	0.09393105
130	0x3e6e0f07	0.2324792
131	0x3de98cca	0.114038065
132	0xbd85fe73	-0.06542673
133	0xbd5344a5	-0.051579136
134	0x3e9c0370	0.30471373
135	0xbad631c2	-0.0016341733
136	0xbe9a6a41	-0.3015919
137	0xbe76b9e0	-0.24094343
138	0xbe887868	-0.26654363
139	0x3d17224b	0.03689794
140	0x3e8910e6	0.26770705
141	0x3e58f37b	0.2118663
142	0x3db9c49f	0.090707056
143	0x3df09c7c	0.11748597
144	0xbe2083e5	-0.15675314
145	0x3eb06d66	0.34458464
146	0x3dff8755	0.124769844
147	0xbe5d39c6	-0.2160407
148	0xbe700da8	-0.2344271
149	0xbea5c6c2	-0.32378203
150	0xbda698c1	-0.08134604
151	0x3e86e05e	0.26343054
152	0x3cca97d3	0.024730599
153	0xbe1db287	-0.15400134
154	0x3dcbe580	0.09955883
155	0xbe798573	-0.24367313
156	0x3dc5db12	0.09660925
157	0x3e795f34	0.24352723
158	0x3e299d11	0.16563822
159	0xbdbd5d2b	-0.09246286
160	0xbdd0f08d	-0.102021314
161	0x3e19934c	0.14997596
162	0x3e5455b9	0.20735826
163	0xbd849576	-0.0647382
164	0x3ba47cb2	0.0050197477
165	0xbcd8235c	-0.026384048
166	0xbc8a710b	-0.016899606
167	0xbea4c203	-0.3217927
168	0xbe979220	-0.29603672
169	0x3e9e7d8f	0.3095517
170	0xbe1eda18	-0.15512884
171	0x3e86dfdb	0.26342663
172	0x3e633dd9	0.22191562
173	0xbd2d6c9d	-0.04233991
174	0xbe2055dc	-0.15657753
175	0x3c1ac2e4	0.00944588
176	0xbd2fb7bd	-0.042899836
177	0xbe4dc380	-0.20094109
178	0x3eb74285	0.35792938
179	0xbc3ee2e0	-0.011650771
180	0xbd2c997d	-0.042138565
181	0xbe74ad84	-0.23894316
182	0x3d69d419	0.057087038
183	0x3d5d0079	0.05395553
184	0x3ebc62be	0.36794084
185	0xbdb0d477	-0.086342745
186	0x3e42c9a0	0.19022226
187	0x3c66a7a7	0.014078057
188	0x3e40718e	0.18793318
189	0x3b991ab1	0.0046723713
190	0xbd25b999	-0.040460203
191	0x3e0c197f	0.13681601
192	0xbe13dc61	-0.14439537
193	0x3e58ba97	0.21164928
194	0xbe9a01b8	-0.30079436
195	0xbe80f4b8	-0.25186706
196	0x3eb326e4	0.3499061
197	0xbdef7aaa	-0.11693318
198	0xbe91b7be	-0.28460497
199	0xbe83d182	-0.2574578
200	0x3eb6985d	0.3566312
201	0xbd11f5c2	-0.035634764
202	0xbe9a1c12	-0.3009954
203	0xbceda04b	-0.029007098
204	0xbe233c38	-0.1594094
205	0xbe6e8da0	-0.23296213
206	0xbe2919eb	-0.16513793
207	0x3e8b27e7	0.2717888
208	0x3e08bc5c	0.13353103
209	0x3e57393a	0.21017924
210	0x3cac927e	0.021065947
211	0xbe05d91c	-0.13071102
212	0xbe0233ed	-0.1271512
213	0xbe703804	-0.23458868
214	0xbe834d05	-0.256447
215	0xbe9ed807	-0.3102419
216	0x3d53ffbe	0.051757567
217	0x3e41b7bc	0.18917745
218	0x3e9a702b	0.30163702
219	0xbb6a3f8f	-0.003574345
220	0xbd162a91	-0.03666169
221	0xbc82c6d9	-0.015963959
222	0x3e0a3c18	0.13499486
223	0xbd2064ad	-0.039158512
224	0xbde84501	-0.113412865
225	0xbda063dd	-0.078315474
226	0xbeb6e363	-0.35720357
227	0xbe8be929	-0.27326325
228	0xbe1234ba	-0.14277926
229	0x3cb4af94	0.022056378
230	0xbe5c1bd5	-0.21494992
231	0x3e01ddfa	0.12682334
232	0xbe3b2818	-0.18277013
233	0x3eb61018	0.35559154
234	0xbea34ff1	-0.31896928
235	0x3e43cc8e	0.19121
236	0xbe2f9631	-0.17147137
237	0xbdddc078	-0.10827726
238	0xbeb039fd	-0.34419242
239	0xbeabea41	-0.3357716
240	0xbeb18c30	-0.34677267
241	0xbbae0164	-0.0053102244
242	0x3eaf003e	0.34179872
243	0x3e20146f	0.15632795
244	0x3e653b7e	0.22385976
245	0x3da7d41b	0.08194753
246	0xbdf1bfa5	-0.118041314
247	0xbdf5bce8	-0.11998922
248	0xbdad0c49	-0.08449609
249	0xbeadc1c5	-0.33936897
250	0x3e3fb530	0.18721461
251	0xbdb83afb	-0.08995625
252	0xbe450e04	-0.19243628
253	0x3da4e63e	0.08051728
254	0x39837e8f	0.0002508056
255	0x3e4520f3	0.1925085

naim.encoder.0.ff.3.weight f4 [6, 1000]
0	0xbc6f6801	-0.014612199
1	0xbbbf721d	-0.005842461
2	0xbb7016a9	-0.00366346
3	0xbbdc8675	-0.0067298957
4	0xbc6031a3	-0.013683709
5	0x3b203eff	0.002445161
6	0xbbb5e828	-0.005551357
7	0xbc617f93	-0.013763326
8	0x3c9c270e	0.019061591
9	0x3cd75c7b	0.026289215
10	0xbc023d00	-0.007949114
11	0xbc0edbef	-0.008719428
12	0xbcf3c965	-0.029759118
13	0xbc8487f7	-0.016178114
14	0x3b967403	0.0045914664
15	0xbc09b4ad	-0.008404893
16	0x3c1828b5	0.009287049
17	0xbc4f3c47	-0.012648649
18	0xbb82de1b	-0.003993762
19	0x3bd7601a	0.0065727355
20	0x3d067006	0.032821678
21	0x3cda44ed	0.026644194
22	0xbcb55421	-0.022134842
23	0x399453e6	0.0002829127
24	0xbb34320e	-0.0027495655
25	0xbb1bf52f	-0.0023797264
26	0x3c45edea	0.012080649
27	0xbc0abc77	-0.008467785
28	0xbbea8d49	-0.007157956
29	0xbce36b55	-0.02776114
30	0xbc3178b3	-0.010832
31	0xbd00f1a7	-0.031480458
32	0x3c354764	0.011064384
33	0xbc7bd421	-0.0153704
34	0xbc6a64f3	-0.014306295
35	0xbc8dbfb2	-0.017303322
36	0x3cbac107	0.02279712
37	0xbc1e55df	-0.009664028
38	0x3ce1057f	0.027468441
39	0xbc217780	-0.009855151
40	0x3b903def	0.0044019143
41	0xbb531384	-0.0032207677
42	0xbcbb39cb	-0.022854706
43	0x3cebdc46	0.028791558
44	0xbca7096c	-0.020390235
45	0xbbfcd23b	-0.007715491
46	0x3c7fe807	0.0156192845
47	0x3ab02f49	0.0013441826
48	0xba274ed4	-0.0006382291
49	0x3cff07fb	0.031131735
50	0xbcd3bd96	-0.025847238
51	0xbc5f5c8b	-0.013632904
52	0x3c2caba2	0.010538967
53	0xbc086484	-0.008324746
54	0x3a2bdf6b	0.0006556424
55	0xbc37dd8a	-0.011222253
56	0xbbcc16c3	-0.0062282993
57	0x3cbfbbe5	0.023405025
58	0xbbfb1cfb	-0.007663367
59	0x3c8e20c9	0.017349618
60	0x3cc93cfa	0.024565209
61	0x3cda643d	0.026659125
62	0x3c75c55c	0.015000667
63	0x3cb36f06	0.021903526
64	0xbab8671e	-0.0014068817
65	0x3c0f3bd2	0.00874229
66	0xbb2155b0	-0.0024617724
67	0xbd006ba8	-0.03135267
68	0x3cd8554b	0.026407858
69	0xbce644b4	-0.028108932
70	0xbca326a9	-0.019915896
71	0xbc4cf5ab	-0.012509744
72	0xbc421b6e	-0.01184736
73	0xbcaec9f5	-0.021336535
74	0xbc80db58	-0.015729591
75	0x3b3a67f1	0.0028443302
76	0xbcaa0b84	-0.020757444
77	0xbcc8db13	-0.024518525
78	0xbc82d5ca	-0.015971083
79	0xbccc8b92	-0.024968896
80	0x3c030a8e	0.007998122
81	0x3beecd1d	0.007287635
82	0xb993cbbd	-0.00028189822
83	0x3cef3992	0.029202256
84	0xbc4e91ea	-0.012608031
85	0xbc27f4fe	-0.010251282
86	0x3bb851bb	0.0056249774
87	0x3cec33a9	0.028833227
88	0x3c01d9ad	0.007925433
89	0xbabe93ff	-0.0014539956
90	0x3c4427c1	0.011972369
91	0xbce2d6bb	-0.027690282
92	0xbc9115be	-0.017710563
93	0xbc523dfb	-0.01283216
94	0xbca68170	-0.020325392
95	0xbca83147	-0.02053131
96	0xbcbfe489	-0.023424404
97	0x3c367947	0.011137313
98	0x3be9a459	0.0071301875
99	0xba744892	-0.0009318675
100	0xbb77185e	-0.0037703733
101	0xba0cb814	-0.0005368006
102	0x3cb50ce7	0.022100879
103	0xbcc8589b	-0.024456313
104	0x3c9fb6d3	0.019496357
105	0x3c3563ba	0.01107114
106	0xbc386924	-0.011255536
107	0x3c979010	0.018501312
108	0xba944a4e	-0.0011313648
109	0xbc892885	-0.016742954
110	0x3d034b6b	0.032054346
111	0x3c06b09b	0.008220817
112	0x3cc00af0	0.023442715
113	0xbbc77c3d	-0.0060878084
114	0xbcb04d32	-0.021521185
115	0x3c90ac7e	0.017660376
116	0x3a81281a	0.000985387
117	0x3c2c1f4f	0.010505511
118	0xbbcf1a49	-0.006320272
119	0x3c74976a	0.014928678
120	0xbcbdec08	-0.023183838
121	0x3b4c264b	0.0031150754
122	0x3cd4df02	0.025985245
123	0xbb64c26d	-0.0034905926
124	0x3cd7685b	0.026294878
125	0x3c830299	0.01599245
126	0x3c3f39f4	0.011671532
127	0x3ced4750	0.028964669
128	0xbbdf2c69	-0.006810714
129	0xbba2d3a9	-0.0049690795
130	0x3c8712dc	0.016488485
131	0xbc9b7834	-0.018978216
132	0xbca1e3db	-0.01976197
133	0x3cd5e414	0.026109733
134	0xbcde0929	-0.027103977
135	0xbc14f2af	-0.009091063
136	0x3c385505	0.011250739
137	0x3c0dc03f	0.008651792
138	0xbc8217d0	-0.015880495
139	0xbb2693c6	-0.002541767
140	0x3c9a550c	0.018839382
141	0xbcb12263	-0.021622842
142	0x3ca47800	0.020076752
143	0x3aadc826	0.0013258501
144	0xbbedda7c	-0.0072587114
145	0xbcfa4308	-0.030549541
146	0xbbd617a9	-0.006533582
147	0x3ceb0fda	0.028694082
148	0xbc8fa50a	-0.017534751
149	0xbbf7bf88	-0.007560674
150	0xbb078ca8	-0.0020683203
151	0x3c9ce69e	0.019152936
152	0xbc166f7f	-0.009181856
153	0x3ce3c390	0.027803212
154	0x3d0145ff	0.031560894
155	0x3cd54f61	0.026038827
156	0xbc8c2483	-0.017107254
157	0xbcbc553a	-0.022989858
158	0xbce5ac92	-0.02803639
159	0x398657b5	0.00025623819
160	0xbc9da5e1	-0.019244136
161	0x3c840de3	0.016119903
162	0x3aac0171	0.0013122988
163	0x3cf0fec4	0.029418357
164	0xbcb659b7	-0.022259576
165	0xbc96819d	-0.018372351
166	0xbb2461e6	-0.0025082766
167	0x3bea85ba	0.0071570547
168	0x3ce0ce7d	0.027442211
169	0xbb083ce1	-0.002078824
170	0x3cf80ad8	0.030278608
171	0xbc281a5e	-0.010260193
172	0xbb62ff52	-0.0034637046
173	0xbc2fcfae	-0.010730667
174	0xbc4b6ebe	-0.01241654
175	0xbc682ffe	-0.0141715985
176	0xbcdbc333	-0.026826477
177	0xba1bce5f	-0.00059435325
178	0xbc471243	-0.01215035
179	0xbc29ca98	-0.0103632435
180	0xbcbcc42f	-0.023042766
181	0xbcd8462f	-0.026400654
182	0xbbb48869	-0.0055094254
183	0xbcee2092	-0.029068265
184	0x3cdf1867	0.027233316
185	0xbba20db0	-0.0049454793
186	0x3b99ab89	0.004689638
187	0xbcd18b50	-0.025579125
188	0x3b999af0	0.0046876594
189	0xbcc4fc12	-0.024045978
190	0x3c989068	0.018623546
191	0x3c365568	0.011128761
192	0xbc888cf5	-0.016668776
193	0x3c6dbdcc	0.014510583
194	0x3b5563ee	0.0032560783
195	0xbc7e1fa9	-0.015510478
196	0xbc80f7b1	-0.015743108
197	0x3d0baedc	0.034102306
198	0xbc600c85	-0.01367486
199	0x3ce7fa82	0.028317694
200	0x3beacff7	0.0071659046
201	0x3c8941f1	0.016755076
202	0xbc97789f	-0.018490134
203	0x3c0bcc34	0.008532573
204	0x3c1330e7	0.008983827
205	0x3ce5fa90	0.02807358
206	0xbce3d1df	-0.027810035
207	0xbc4dcdf6	-0.012561312
208	0xbb603b55	-0.0034215052
209	0xbcabe5c6	-0.020983588
210	0x3bbc8bc9	0.0057539684
211	0x3cb25c2b	0.021772465
212	0x3cbffd78	0.023436293
213	0xbc525255	-0.012837012
214	0x3c9b002a	0.018920977
215	0xbc62619f	-0.01381722
216	0x3ca516e8	0.020152524
217	0xbcde87f0	-0.02716443
218	0xbcf1feb4	-0.029540397
219	0x3c39c17b	0.011337633
220	0xbb83f0da	-0.0040265145
221	0x3c208f62	0.00979981
222	0x3cf2fd3e	0.02966177
223	0x3d0e3414	0.034717634
224	0x3c96ba90	0.018399507
225	0xbcc4d7f0	-0.024028748
226	0x3b11e9d1	0.002226461
227	0xbaa40a82	-0.0012515339
228	0xbcd4c058	-0.025970623
229	0x3ce8d39f	0.028421221
230	0x3cad500a	0.02115633
231	0xbc5a0b21	-0.013308317
232	0xbad86b8a	-0.0016511541
233	0xbc9d3638	-0.019190893
234	0x3c7fd565	0.015614842
235	0x3b8d18ff	0.0043059583
236	0xbc65d45e	-0.014027683
237	0x3c9a6e3e	0.018851396
238	0xbbda5202	-0.006662608
239	0x3b23e27d	0.0025006824
240	0x3cc195ed	0.02363106
241	0xbc6ffa08	-0.014647014
242	0xbd0242c2	-0.031801946
243	0x3c8f5ff0	0.017501801
244	0xbcc29b10	-0.02375558
245	0x3c5d441f	0.013505011
246	0xbb8a6a50	-0.004224099
247	0x3cbd3bdc	0.023099832
248	0x3aaed2a4	0.0013337922
249	0xbc2e832d	-0.010651392
250	0xbccc9a3c	-0.024975888
251	0x3c7383c5	0.014862959
252	0xbc92e7b9	-0.01793276
253	0x3c2c8aad	0.01053111
254	0x3cf9732f	0.030450432
255	0xbce0bf6b	-0.027435025

naim.encoder.0.ff.3.bias f4 [6]
0	0xbd0229e5	-0.031778235
1	0x3ab975fb	0.0014149541
2	0xbcb67337	-0.022271736
3	0xbc537441	-0.012906135
4	0x3cd0d0fb	0.025490275
5	0xbcb8d4f2	-0.022562478

naim.encoder.1.layer_norm_1.weight f4 [6]
0	0x3f757a1f	0.95889467
1	0x3f757285	0.9587787
2	0x3f752ced	0.95771676
3	0x3f752dde	0.9577311
4	0x3f752077	0.9575266
5	0x3f752941	0.95766073

naim.encoder.1.layer_norm_1.bias f4 [6]
0	0x3b23658d	0.0024932355
1	0xbb37f2ae	-0.0028068232
2	0xbaa84aa0	-0.0012839623
3	0xbb113b56	-0.002216061
4	0xbbc1db12	-0.005916008
5	0xbae7eb2f	-0.0017693992

naim.encoder.1.attn.linear_q.weight f4 [6, 6]
0	0xbe835adf	-0.25655267
1	0xbdbea707	-0.09309202
2	0xbe104a22	-0.1409078
3	0x3d83c19a	0.06433411
4	0x3e61dae4	0.22056156
5	0x3d0a3a90	0.033747256
6	0x3a9fee44	0.0012201746
7	0x3e1e6c4b	0.15470998
8	0x3e4f600e	0.20251486
9	0x3a22d1b9	0.00062110607
10	0xbe6fc03a	-0.23413172
11	0xbe9fb7d6	-0.31194943
12	0x3ebb9155	0.36634317
13	0x3dc81dbb	0.09771296
14	0x3eaab6a3	0.33342466
15	0xbdf46d53	-0.119349144
16	0x3d97a507	0.07404523
17	0xbe319ad4	-0.17344218
18	0xbe34a539	-0.17641152
19	0xbe16f82b	-0.14743106
20	0x3ebb914c	0.3663429
21	0x3e838867	0.25690004
22	0xbe58015e	-0.21094272
23	0xbe7bb9b9	-0.24582566
24	0x3dc205c9	0.0947376
25	0xbd6bb22a	-0.057542957
26	0x3a5047c9	0.0007945267
27	0x3c8c3139	0.017113315
28	0xbea19fb1	-0.31567147
29	0x3d546b25	0.051859993
30	0xba6f1ba3	-0.00091212447
31	0xbe7a2565	-0.24428327
32	0xbeb940f9	-0.36182383
33	0x3e2bdd48	0.16783631
34	0xbea9aeaf	-0.33141086
35	0xbe11cc27	-0.14238034

naim.encoder.1.attn.linear_k.weight f4 [6, 6]
0	0x3e546b88	0.20744145
1	0xbe6d5ad9	-0.23179187
2	0xbe1c4657	-0.15261208
3	0xbe5e63b8	-0.21717727
4	0x3e4bb503	0.19893269
5	0x3db2602e	0.08709751
6	0x3c1ba002	0.009498598
7	0x3dd4ad3a	0.10384603
8	0x3d9d9e06	0.07696156
9	0xbd44cc66	-0.048046492
10	0xbbe34589	-0.0069357795
11	0xbe5b37d5	-0.21408017
12	0xbe1c8159	-0.15283717
13	0x3b54bd35	0.003246141
14	0xbc8aa287	-0.016923202
15	0x3d8d0fe4	0.068877965
16	0x3e1ce459	0.15321483
17	0x3e8ba319	0.2727287
18	0x3eb2d505	0.34928146
19	0xbb8c86fa	-0.0042885514
20	0x3df71866	0.120652005
21	0xbe943180	-0.28944016
22	0x3e480de2	0.19536546
23	0xbd905281	-0.07046986
24	0xbe90bd9d	-0.28269663
25	0xbe8da436	-0.27664346
26	0xbe98d926	-0.2985317
27	0xbe16ada7	-0.1471468
28	0x3e14f507	0.14546596
29	0xbe94e65b	-0.29081997
30	0xbc762cf5	-0.015025367
31	0xbce0232d	-0.027360523
32	0x3de16ad2	0.110067025
33	0xbe012ff0	-0.12615943
34	0x3e2a0b92	0.16605976
35	0xbe5837c2	-0.2111502

naim.encoder.1.attn.linear_v.weight f4 [6, 6]
0	0x3e65b218	0.22431219
1	0xbec36235	-0.38160864
2	0xbe817541	-0.2528477
3	0x3e0597be	0.13046166
4	0x3d33d9d9	0.043908928
5	0x3e8aa93c	0.2708224
6	0x3e379a88	0.17930043
7	0xbe9c3456	-0.3050868
8	0x3e91d831	0.28485253
9	0xbda6e662	-0.08149411
10	0xbd2892b3	-0.04115553
11	0xbe0994bb	-0.13435642
12	0xbd86d3bb	-0.06583353
13	0xbeb2ff1c	-0.34960258
14	0x3cd95f59	0.026534723
15	0x3e9105f4	0.28324854
16	0xbd754001	-0.059875492
17	0x3e97e14f	0.29664084
18	0xbe261999	-0.16220702
19	0x3e0372a5	0.12836702
20	0x3cbf7ab0	0.023373932
21	0xbdf77362	-0.120825544
22	0x3eb71eaf	0.35765597
23	0x3ce8cb9e	0.028417405
24	0x3c8ee92d	0.017445171
25	0xbd0025d2	-0.03128607
26	0xbc1d9af8	-0.009619467
27	0x3e957f09	0.29198483
28	0xbd05b6d0	-0.032645047
29	0x3e5bfa10	0.2148211
30	0x3de8ec1c	0.11373159
31	0x3e683182	0.22675136
32	0xbe8919f9	-0.26777628
33	0xbea412dd	-0.32045642
34	0xbdc13484	-0.09433845
35	0xbd9e8b45	-0.07741407

naim.encoder.1.attn.linear_o.weight f4 [6, 6]
0	0x3ec12148	0.37720704
1	0x3ebf664a	0.37382728
2	0xbdbcd8de	-0.09221052
3	0xbe34fd98	-0.17674863
4	0x399a979a	0.0002948612
5	0x3e183f29	0.14867844
6	0x3e02d4bc	0.12776464
7	0x3d7a0dad	0.0610482
8	0x3e90388b	0.2816814
9	0x3d09113c	0.0334637
10	0x3e9bd2d0	0.30434275
11	0x3da0de13	0.07854857
12	0xbd061276	-0.03273245
13	0x3ea080fc	0.31348407
14	0x3c67485f	0.014116376
15	0x3c8d4965	0.017246911
16	0xbd97fb4c	-0.07420978
17	0x3e634cd8	0.22197282
18	0xbdef8ecf	-0.116971605
19	0x3e95048a	0.29105026
20	0x3e59d270	0.21271682
21	0xbc0455f5	-0.008077134
22	0xbd825e87	-0.06365686
23	0x3e0f9f09	0.14025511
24	0xbeb69a9d	-0.35664836
25	0xbdc268f8	-0.094926775
26	0xbdd502f1	-0.10400952
27	0xbc8073ca	-0.015680213
28	0xbe1e0d82	-0.1543484
29	0xbe0ac93e	-0.1355333
30	0x3e1cd01d	0.15313764
31	0xbc2c57db	-0.010518993
32	0xbe771ec3	-0.24132828
33	0xbb1718d1	-0.0023055563
34	0x3dbbfc0c	0.091789335
35	0xbdff7b62	-0.12474705

naim.encoder.1.layer_norm_2.weight f4 [6]
0	0x3f7d7e9b	0.9902131
1	0x3f798cb1	0.97480303
2	0x3f79de3e	0.9760474
3	0x3f7ccd1b	0.98750466
4	0x3f79b616	0.97543466
5	0x3f7b1c01	0.98089606

naim.encoder.1.layer_norm_2.bias f4 [6]
0	0x3b4aad94	0.0030926215
1	0x3a388490	0.00070387963
2	0x3b0462e2	0.002020054
3	0xbaac0a85	-0.0013125694
4	0xb983fc27	-0.00025174135
5	0xbb4332ce	-0.002978492
