outputs/2025-03-23/17-09-27/outputs/model_epoch_50.pt (torch, 377354 bytes, 140 tensors)

naim.embeddings.0.embeddings.weight f4 [2, 6]
0.36078358 -0.44261885 -0.25580984 0.3002239 0.39118332 0.2547369 0.0 0.0
0.0 0.0 0.0 0.0
00000000: a0b8 b83e f09e e2be 82f9 82be f2b6 993e
00000010: 2e49 c83e e06c 823e 0000 0000 0000 0000
00000020: 0000 0000 0000 0000 0000 0000 0000 0000

naim.embeddings.1.embeddings.weight f4 [2, 6]
0.0016223857 -0.021325262 -0.06442673 0.25577408 0.10702067 -0.026004354 0.0 0.0
0.0 0.0 0.0 0.0
00000000: 3ba6 d43a 51b2 aebc 29f2 83bd d2f4 823e
00000010: a72d db3d 1507 d5bc 0000 0000 0000 0000
00000020: 0000 0000 0000 0000 0000 0000 0000 0000

naim.embeddings.2.embeddings.weight f4 [2, 6]
0.5964536 0.029448232 -0.012037689 0.5153285 -0.18072262 0.2952577 0.0 0.0
0.0 0.0 0.0 0.0
00000000: 2fb1 183f 6b3d f13c ba39 45bc 92ec 033f
00000010: 5a0f 39be 042c 973e 0000 0000 0000 0000
00000020: 0000 0000 0000 0000 0000 0000 0000 0000

naim.embeddings.3.embeddings.weight f4 [2, 6]
0.55040514 -0.3637369 0.035487957 0.43003857 0.07839833 0.011290038 0.0 0.0
0.0 0.0 0.0 0.0
00000000: 5ae7 0c3f b93b babe d25b 113d 042e dc3e
00000010: 4e8f a03d daf9 383c 0000 0000 0000 0000
00000020: 0000 0000 0000 0000 0000 0000 0000 0000

naim.embeddings.4.embeddings.weight f4 [2, 6]
-0.39041775 -0.22264768 -0.13423654 0.102757595 0.06576552 0.015134811 0.0 0.0
0.0 0.0 0.0 0.0
00000000: d6e4 c7be c1fd 63be 4e75 09be 9372 d23d
00000010: 13b0 863d 00f8 773c 0000 0000 0000 0000
00000020: 0000 0000 0000 0000 0000 0000 0000 0000

naim.embeddings.5.embeddings.weight f4 [2, 6]
-0.3015157 0.025031745 0.5559923 0.28704917 -0.42051256 0.055623155 0.0 0.0
0.0 0.0 0.0 0.0
00000000: 4460 9abe 600f cd3c 8355 0e3f 1cf8 923e
00000010: 6c4d d7be 1bd5 633d 0000 0000 0000 0000
00000020: 0000 0000 0000 0000 0000 0000 0000 0000

naim.embeddings.6.embeddings.weight f4 [2, 6]
-0.45154694 -0.064664915 -0.08549653 -0.23010962 0.11104066 0.6183014 0.0 0.0
0.0 0.0 0.0 0.0
00000000: 2931 e7be 0a6f 84bd ce18 afbd dba1 6bbe
00000010: 4969 e33d 0049 1e3f 0000 0000 0000 0000
00000020: 0000 0000 0000 0000 0000 0000 0000 0000

naim.embeddings.7.embeddings.weight f4 [2, 6]
-0.3496171 -0.0060066734 0.09008899 -0.63224614 -0.04031493 0.49040917 0.0 0.0
0.0 0.0 0.0 0.0
00000000: 0301 b3be a1d3 c4bb 9480 b83d e2da 21bf
00000010: 4521 25bd e916 fb3e 0000 0000 0000 0000
00000020: 0000 0000 0000 0000 0000 0000 0000 0000

naim.embeddings.8.embeddings.weight f4 [2, 6]
0.47501972 -0.069078565 0.22227788 -0.4798476 -0.16046295 0.19432384 0.0 0.0
0.0 0.0 0.0 0.0
00000000: c935 f33e 1079 8dbd d09c 633e 96ae f5be
00000010: 6650 24be d4fc 463e 0000 0000 0000 0000
00000020: 0000 0000 0000 0000 0000 0000 0000 0000

naim.embeddings.9.embeddings.weight f4 [2, 6]
0.32098395 -0.15767014 0.0582063 -0.34793618 -0.50900453 -0.00256185 0.0 0.0
0.0 0.0 0.0 0.0
00000000: 0258 a43e 4874 21be bb69 6e3d b124 b2be
00000010: 1f4e 02bf b6e4 27bb 0000 0000 0000 0000
00000020: 0000 0000 0000 0000 0000 0000 0000 0000

naim.embeddings.10.embeddings.weight f4 [2, 6]
0.13363867 0.10294062 0.18187894 0.1979393 0.008738291 0.40084213 0.0 0.0
0.0 0.0 0.0 0.0
00000000: 93d8 083e 88d2 d23d 793e 3a3e 9ab0 4a3e
00000010: 0d2b 0f3c 2e3b cd3e 0000 0000 0000 0000
00000020: 0000 0000 0000 0000 0000 0000 0000 0000

naim.embeddings.11.embeddings.weight f4 [2, 6]
0.13118823 -0.08443892 -0.44471505 -0.44584388 -0.024936823 -0.24738295 0.0 0.0
0.0 0.0 0.0 0.0
00000000: 3556 063e 50ee acbd b1b1 e3be a645 e4be
00000010: 4f48 ccbc f551 7dbe 0000 0000 0000 0000
00000020: 0000 0000 0000 0000 0000 0000 0000 0000

naim.embeddings.12.embeddings.weight f4 [2, 6]
0.16303843 -0.21892087 0.06735089 0.3737817 0.42060274 0.101129115 0.0 0.0
0.0 0.0 0.0 0.0
00000000: 8cf3 263e cb2c 60be 43ef 893d 5160 bf3e
00000010: 3e59 d73e c81c cf3d 0000 0000 0000 0000
00000020: 0000 0000 0000 0000 0000 0000 0000 0000

naim.embeddings.13.embeddings.weight f4 [2, 6]
-0.17960915 -0.045095544 -0.20595229 0.5161473 -0.10392906 0.24084921 0.0 0.0
0.0 0.0 0.0 0.0
00000000: 76eb 37be 1bb6 38bd 28e5 52be 3b22 043f
00000010: c2d8 d4bd 2da1 763e 0000 0000 0000 0000
00000020: 0000 0000 0000 0000 0000 0000 0000 0000

naim.embeddings.14.embeddings.weight f4 [2, 6]
0.16947019 0.54792047 -0.11843029 0.075251274 0.5261491 0.009647777 0.0 0.0
0.0 0.0 0.0 0.0
00000000: 9889 2d3e 8444 0c3f 948b f2bd 571d 9a3d
00000010: b5b1 063f b611 1e3c 0000 0000 0000 0000
00000020: 0000 0000 0000 0000 0000 0000 0000 0000

naim.embeddings.15.embeddings.weight f4 [2, 6]
-0.5414398 0.27951622 0.071785904 -0.2639942 -0.14922947 0.44170564 0.0 0.0
0.0 0.0 0.0 0.0
00000000: cc9b 0abf c01c 8f3e 7d04 933d 3f2a 87be
00000010: 9ccf 18be 3e27 e23e 0000 0000 0000 0000
00000020: 0000 0000 0000 0000 0000 0000 0000 0000

naim.embeddings.16.embeddings.weight f4 [2, 6]
0.44969252 0.07076815 0.07078666 -0.2750008 0.116887406 0.36483872 0.0 0.0
0.0 0.0 0.0 0.0
00000000: 193e e63e e4ee 903d 99f8 903d e8cc 8cbe
00000010: aa62 ef3d 24cc ba3e 0000 0000 0000 0000
00000020: 0000 0000 0000 0000 0000 0000 0000 0000

naim.embeddings.17.embeddings.weight f4 [2, 6]
0.08232196 0.14816394 0.12279833 -0.38362506 0.17634831 -0.23412825 0.0 0.0
0.0 0.0 0.0 0.0
00000000: 6a98 a83d 4ab8 173e b17d fb3d 816a c4be
00000010: a794 343e 51bf 6fbe 0000 0000 0000 0000
00000020: 0000 0000 0000 0000 0000 0000 0000 0000

naim.embeddings.18.embeddings.weight f4 [2, 6]
-0.45619732 -0.33909926 -0.19791245 0.44345054 -0.022531012 -0.014281756 0.0 0.0
0.0 0.0 0.0 0.0
00000000: b292 e9be 6b9e adbe 90a9 4abe f30b e33e
00000010: f592 b8bc 07fe 69bc 0000 0000 0000 0000
00000020: 0000 0000 0000 0000 0000 0000 0000 0000

naim.embeddings.19.embeddings.weight f4 [2, 6]
0.4048849 -0.17795067 0.24846837 -0.19604857 -0.08282287 0.073186696 0.0 0.0
0.0 0.0 0.0 0.0
00000000: 134d cf3e b338 36be 7e6e 7e3e f5c0 48be
00000010: 099f a9bd e8e2 953d 0000 0000 0000 0000
00000020: 0000 0000 0000 0000 0000 0000 0000 0000

naim.embeddings.20.embeddings.weight f4 [2, 6]
0.24743667 0.11593502 -0.27967563 -0.44584388 -0.10368765 0.21437824 0.0 0.0
0.0 0.0 0.0 0.0
00000000: 0a60 7d3e 576f ed3d a531 8fbe a645 e4be
00000010: 315a d4bd f885 5b3e 0000 0000 0000 0000
00000020: 0000 0000 0000 0000 0000 0000 0000 0000

naim.embeddings.21.embeddings.weight f4 [2, 6]
0.06922841 0.026600748 0.11000139 -0.06729983 0.028202973 -0.12936974 0.0 0.0
0.0 0.0 0.0 0.0
00000000: a0c7 8d3d d0e9 d93c 6948 e13d 7ed4 89bd
00000010: ec09 e73c 8079 04be 0000 0000 0000 0000
00000020: 0000 0000 0000 0000 0000 0000 0000 0000

naim.embeddings.22.embeddings.weight f4 [2, 6]
0.29762906 -0.15902995 -0.03513444 0.46220565 0.31535614 -0.12928148 0.0 0.0
0.0 0.0 0.0 0.0
00000000: d662 983e bfd8 22be 21e9 0fbd 38a6 ec3e
00000010: 5c76 a13e 5d62 04be 0000 0000 0000 0000
00000020: 0000 0000 0000 0000 0000 0000 0000 0000

naim.embeddings.23.embeddings.weight f4 [2, 6]
0.17293116 -0.00038104245 -0.24461964 0.6814659 -0.028808942 -0.19373424 0.0 0.0
0.0 0.0 0.0 0.0
00000000: de14 313e a7c6 c7b9 927d 7abe 8d74 2e3f
00000010: bb00 ecbc 4562 46be 0000 0000 0000 0000
00000020: 0000 0000 0000 0000 0000 0000 0000 0000

naim.embeddings.24.embeddings.weight f4 [2, 6]
0.014291602 0.097497635 -0.14073974 0.2959572 -0.7017343 0.046140816 0.0 0.0
0.0 0.0 0.0 0.0
00000000: 5327 6a3c d7ac c73d 141e 10be b487 973e
00000010: dca4 33bf 27fe 3c3d 0000 0000 0000 0000
00000020: 0000 0000 0000 0000 0000 0000 0000 0000

naim.embeddings.25.embeddings.weight f4 [2, 6]
0.34463012 -0.1040827 0.6372733 0.43403375 0.07970309 0.04743297 0.0 0.0
0.0 0.0 0.0 0.0
00000000: 5c73 b03e 5029 d5bd 5824 233f ac39 de3e
00000010: 603b a33d 1349 423d 0000 0000 0000 0000
00000020: 0000 0000 0000 0000 0000 0000 0000 0000

naim.embeddings.26.embeddings.weight f4 [2, 6]
0.21570936 -0.36240184 -0.40690795 0.22745728 0.3167296 0.2267232 0.0 0.0
0.0 0.0 0.0 0.0
00000000: eae2 5c3e bc8c b9be 3d56 d0be 90ea 683e
00000010: 622a a23e 202a 683e 0000 0000 0000 0000
00000020: 0000 0000 0000 0000 0000 0000 0000 0000

naim.embeddings.27.embeddings.weight f4 [2, 6]
-0.06902792 0.2432942 -0.3790581 -0.45399308 -0.056213934 0.0031813073 0.0 0.0
0.0 0.0 0.0 0.0
00000000: 835e 8dbd 1d22 793e e713 c2be c871 e8be
00000010: 9540 66bd 7b7d 503b 0000 0000 0000 0000
00000020: 0000 0000 0000 0000 0000 0000 0000 0000

naim.embeddings.28.embeddings.weight f4 [2, 6]
-0.16656758 0.18972166 -0.1539047 -0.3334552 0.13001774 -0.10409479 0.0 0.0
0.0 0.0 0.0 0.0
00000000: b190 2abe 6546 423e 3299 1dbe a4ba aabe
00000010: 5f23 053e a62f d5bd 0000 0000 0000 0000
00000020: 0000 0000 0000 0000 0000 0000 0000 0000

naim.embeddings.29.embeddings.weight f4 [2, 6]
-0.3795734 -0.02346649 0.50055826 -0.11574328 0.038762357 -0.22522137 0.0 0.0
0.0 0.0 0.0 0.0
00000000: 7257 c2be cc3c c0bc 9624 003f d00a edbd
00000010: 47c5 1e3d 6ea0 66be 0000 0000 0000 0000
00000020: 0000 0000 0000 0000 0000 0000 0000 0000

naim.embeddings.30.embeddings.weight f4 [2, 6]
-0.10267553 0.18201017 0.21454571 -0.2460568 -0.022527209 -0.26023775 0.0 0.0
0.0 0.0 0.0 0.0
00000000: 8c47 d2bd e060 3a3e dfb1 5b3e 50f6 7bbe
00000010: fb8a b8bc e23d 85be 0000 0000 0000 0000
00000020: 0000 0000 0000 0000 0000 0000 0000 0000

naim.embeddings.31.embeddings.weight f4 [2, 6]
0.25475037 -0.124319255 0.0011293194 -0.09167651 -0.15983498 -0.21507427 0.0 0.0
0.0 0.0 0.0 0.0
00000000: a46e 823e 189b febd ac05 943a e5c0 bbbd
00000010: c8ab 23be 6e3c 5cbe 0000 0000 0000 0000
00000020: 0000 0000 0000 0000 0000 0000 0000 0000

naim.embeddings.32.embeddings.weight f4 [2, 6]
0.08453711 0.24169374 -0.2785133 -0.63299733 0.20453618 -0.14172678 0.0 0.0
0.0 0.0 0.0 0.0
00000000: cb21 ad3d 907e 773e 4c99 8ebe 1d0c 22bf
00000010: ef71 513e d320 11be 0000 0000 0000 0000
00000020: 0000 0000 0000 0000 0000 0000 0000 0000

naim.embeddings.33.embeddings.weight f4 [2, 6]
-0.09297626 -0.0468025 -0.23948026 -0.2072608 -0.22738492 0.5672328 0.0 0.0
0.0 0.0 0.0 0.0
00000000: 566a bebd fab3 3fbd 503a 75be 2d3c 54be
00000010: 98d7 68be 2b36 113f 0000 0000 0000 0000
00000020: 0000 0000 0000 0000 0000 0000 0000 0000

naim.embeddings.34.embeddings.weight f4 [2, 6]
-0.18525708 0.044835627 0.41945654 -0.013766487 -0.22249956 0.07210955 0.0 0.0
0.0 0.0 0.0 0.0
00000000: 08b4 3dbe 90a5 373d 02c3 d63e d58c 61bc
00000010: edd6 63be 2cae 933d 0000 0000 0000 0000
00000020: 0000 0000 0000 0000 0000 0000 0000 0000

naim.embeddings.35.embeddings.weight f4 [2, 6]
0.11792107 -0.08133834 0.22279309 0.28792608 0.27903724 -0.39654508 0.0 0.0
0.0 0.0 0.0 0.0
00000000: 9a80 f13d b794 a6bd df23 643e 0c6b 933e
00000010: f8dd 8e3e f507 cbbe 0000 0000 0000 0000
00000020: 0000 0000 0000 0000 0000 0000 0000 0000

naim.embeddings.36.embeddings.weight f4 [2, 6]
-0.090798 0.28403133 -0.39385977 -0.03647346 -0.029312305 0.09401299 0.0 0.0
0.0 0.0 0.0 0.0
00000000: 4df4 b9bd 8e6c 913e fda7 c9be 3265 15bd
00000010: 5c20 f0bc e289 c03d 0000 0000 0000 0000
00000020: 0000 0000 0000 0000 0000 0000 0000 0000

naim.embeddings.37.embeddings.weight f4 [2, 6]
-0.004579002 -0.30818316 -0.0875577 -0.067536615 0.21200472 0.09534324 0.0 0.0
0.0 0.0 0.0 0.0
00000000: 740b 96bb 2fca 9dbe 7451 b3bd a350 8abd
00000010: c417 593e 5143 c33d 0000 0000 0000 0000
00000020: 0000 0000 0000 0000 0000 0000 0000 0000

naim.embeddings.38.embeddings.weight f4 [2, 6]
0.03183759 -0.048613634 0.01922757 0.24569316 -0.07857137 0.110012785 0.0 0.0
0.0 0.0 0.0 0.0
00000000: 2268 023d 171f 47bd 2383 9d3c fd96 7b3e
00000010: 07ea a0bd 624e e13d 0000 0000 0000 0000
00000020: 0000 0000 0000 0000 0000 0000 0000 0000

naim.embeddings.39.embeddings.weight f4 [2, 6]
0.0055120112 -0.16159849 0.38446778 -0.49289346 0.13875827 0.26539633 0.0 0.0
0.0 0.0 0.0 0.0
00000000: 1a9e b43b 137a 25be f6d8 c43e 885c fcbe
00000010: a616 0e3e 07e2 873e 0000 0000 0000 0000
00000020: 0000 0000 0000 0000 0000 0000 0000 0000

naim.embeddings.40.embeddings.weight f4 [2, 6]
-0.042739056 0.16385417 0.10867994 -0.1485359 -0.023048842 -0.26421463 0.0 0.0
0.0 0.0 0.0 0.0
00000000: 260f 2fbd 63c9 273e 9793 de3d cc19 18be
00000010: edd0 bcbc 2447 87be 0000 0000 0000 0000
00000020: 0000 0000 0000 0000 0000 0000 0000 0000

naim.embeddings.41.embeddings.weight f4 [2, 6]
-0.060374565 -0.11016583 0.21081479 0.12365274 0.27479425 0.44639128 0.0 0.0
0.0 0.0 0.0 0.0
00000000: 524b 77bd 9f9e e1bd d5df 573e a63d fd3d
00000010: d5b1 8c3e 668d e43e 0000 0000 0000 0000
00000020: 0000 0000 0000 0000 0000 0000 0000 0000

naim.embeddings.42.embeddings.weight f4 [2, 6]
-0.18658194 0.5829372 0.15394828 0.28239635 0.04591498 -0.14414611 0.0 0.0
0.0 0.0 0.0 0.0
00000000: 560f 3fbe 5f3b 153f 9ea4 1d3e 4196 903e
00000010: 5911 3c3d 0a9b 13be 0000 0000 0000 0000
00000020: 0000 0000 0000 0000 0000 0000 0000 0000

naim.embeddings.43.embeddings.weight f4 [2, 6]
-0.12188209 0.004254742 0.5190055 0.3462411 0.23647791 -0.07443488 0.0 0.0
0.0 0.0 0.0 0.0
00000000: 519d f9bd 5d6b 8b3b 8bdd 043f 8346 b13e
00000010: 4427 723e 5071 98bd 0000 0000 0000 0000
00000020: 0000 0000 0000 0000 0000 0000 0000 0000

naim.embeddings.44.embeddings.weight f4 [2, 6]
-0.023557758 0.20045651 0.15673228 -0.30044395 0.108717225 0.4482128 0.0 0.0
0.0 0.0 0.0 0.0
00000000: 33fc c0bc 7944 4d3e 6d7e 203e cad3 99be
00000010: 23a7 de3d 267c e53e 0000 0000 0000 0000
00000020: 0000 0000 0000 0000 0000 0000 0000 0000

naim.embeddings.45.embeddings.weight f4 [2, 6]
-0.35618368 -0.5022674 -0.18034488 0.08579965 -0.35719243 -0.20792904 0.0 0.0
0.0 0.0 0.0 0.0
00000000: b55d b6be 9994 00bf 54ac 38be bab7 af3d
00000010: ede1 b6be 5aeb 54be 0000 0000 0000 0000
00000020: 0000 0000 0000 0000 0000 0000 0000 0000

naim.embeddings.46.embeddings.weight f4 [2, 6]
-0.04239488 0.09133591 0.30227724 -0.102134764 0.13463001 0.189293 0.0 0.0
0.0 0.0 0.0 0.0
00000000: 41a6 2dbd 520e bb3d 15c4 9a3e 082c d1bd
00000010: 73dc 093e 06d6 413e 0000 0000 0000 0000
00000020: 0000 0000 0000 0000 0000 0000 0000 0000

naim.embeddings.47.embeddings.weight f4 [2, 6]
0.18691826 -0.06407145 -0.42180362 -0.19057399 0.18821725 -0.21626954 0.0 0.0
0.0 0.0 0.0 0.0
00000000: 8067 3f3e e437 83bd a5f6 d7be d425 43be
00000010: 06bc 403e c375 5dbe 0000 0000 0000 0000
00000020: 0000 0000 0000 0000 0000 0000 0000 0000

naim.embeddings.48.embeddings.weight f4 [2, 6]
0.030235825 0.21766089 0.072459005 0.29918018 0.6405041 0.35230562 0.0 0.0
0.0 0.0 0.0 0.0
00000000: 1fb1 f73c 7fe2 5e3e 6365 943d 252e 993e
00000010: 14f8 233f 6761 b43e 0000 0000 0000 0000
00000020: 0000 0000 0000 0000 0000 0000 0000 0000

naim.embeddings.49.embeddings.weight f4 [2, 6]
-0.21498053 0.20898928 0.25406954 -0.101836205 -0.3048221 0.3803713 0.0 0.0
0.0 0.0 0.0 0.0
00000000: db23 5cbe 4901 563e 6715 823e 808f d0bd
00000010: a411 9cbe 07c0 c23e 0000 0000 0000 0000
00000020: 0000 0000 0000 0000 0000 0000 0000 0000

naim.embeddings.50.embeddings.weight f4 [2, 6]
0.39945102 0.2966067 -0.10070804 -0.15601824 -0.0824865 -0.47495535 0.0 0.0
0.0 0.0 0.0 0.0
00000000: d884 cc3e d5dc 973e 0440 cebd 3fc3 1fbe
00000010: afee a8bd 592d f3be 0000 0000 0000 0000
00000020: 0000 0000 0000 0000 0000 0000 0000 0000

naim.embeddings.51.embeddings.weight f4 [2, 6]
0.024087343 0.118379325 0.4063598 -0.5298389 0.2361104 -0.10199205 0.0 0.0
0.0 0.0 0.0 0.0
00000000: d252 c53c dc70 f23d 640e d03e 86a3 07bf
00000010: edc6 713e 35e1 d0bd 0000 0000 0000 0000
00000020: 0000 0000 0000 0000 0000 0000 0000 0000

naim.embeddings.52.embeddings.weight f4 [2, 6]
0.19795574 -0.1912382 -0.22754423 -0.17901406 0.02871209 -0.30561286 0.0 0.0
0.0 0.0 0.0 0.0
00000000: e9b4 4a3e f2d3 43be 5b01 69be 764f 37be
00000010: 9e35 eb3c 4a79 9cbe 0000 0000 0000 0000
00000020: 0000 0000 0000 0000 0000 0000 0000 0000

naim.embeddings.53.embeddings.weight f4 [2, 6]
-0.23488793 -0.11226894 0.13829808 -0.058448516 0.7661008 -0.004355177 0.0 0.0
0.0 0.0 0.0 0.0
00000000: 7686 70be 42ed e5bd 039e 0d3e b667 6fbd
00000010: 2f1f 443f dfb5 8ebb 0000 0000 0000 0000
00000020: 0000 0000 0000 0000 0000 0000 0000 0000

naim.embeddings.54.embeddings.weight f4 [2, 6]
0.153143 0.3894087 0.32300696 0.16922168 -0.46539706 0.08710467 0.0 0.0
0.0 0.0 0.0 0.0
00000000: 85d1 1c3e 9460 c73e 2b61 a53e 7348 2d3e
00000010: 8648 eebe ef63 b23d 0000 0000 0000 0000
00000020: 0000 0000 0000 0000 0000 0000 0000 0000

naim.embeddings.55.embeddings.weight f4 [2, 6]
0.3118 -0.22985414 -0.4910041 0.5064266 -0.054413084 -0.14027555 0.0 0.0
0.0 0.0 0.0 0.0
00000000: 40a4 9f3e e25e 6bbe e464 fbbe 2ca5 013f
00000010: 41e0 5ebd 65a4 0fbe 0000 0000 0000 0000
00000020: 0000 0000 0000 0000 0000 0000 0000 0000

naim.embeddings.56.embeddings.weight f4 [2, 6]
-0.32789084 -0.38281432 0.16376886 -0.07910184 -0.3403117 -0.04490837 0.0 0.0
0.0 0.0 0.0 0.0
00000000: 4fe1 a7be 3d00 c4be 06b3 273e 2500 a2bd
00000010: 563d aebe d7f1 37bd 0000 0000 0000 0000
00000020: 0000 0000 0000 0000 0000 0000 0000 0000

naim.embeddings.57.embeddings.weight f4 [2, 6]
0.39379355 -0.23388109 -0.1779889 0.25472182 0.59420514 -0.00049396104 0.0 0.0
0.0 0.0 0.0 0.0
00000000: 4f9f c93e 867e 6fbe b942 36be e66a 823e
00000010: d41d 183f 2a7d 01ba 0000 0000 0000 0000
00000020: 0000 0000 0000 0000 0000 0000 0000 0000

naim.embeddings.58.embeddings.weight f4 [2, 6]
-0.104249895 0.039238878 0.03670914 -0.046267156 0.07866978 -0.21361633 0.0 0.0
0.0 0.0 0.0 0.0
00000000: f880 d5bd f2b8 203d 535c 163d a182 3dbd
00000010: 9f1d a13d 3dbe 5abe 0000 0000 0000 0000
00000020: 0000 0000 0000 0000 0000 0000 0000 0000

naim.embeddings.59.embeddings.weight f4 [2, 6]
0.27596715 -0.12708217 -0.18419091 0.59687185 0.19582264 0.32272112 0.0 0.0
0.0 0.0 0.0 0.0
00000000: 914b 8d3e d421 02be 8b9c 3cbe 98cc 183f
00000010: bb85 483e b43b a53e 0000 0000 0000 0000
00000020: 0000 0000 0000 0000 0000 0000 0000 0000

naim.embeddings.60.embeddings.weight f4 [2, 6]
-0.38883728 -0.019777564 0.031365644 0.39706632 0.1754305 0.28610003 0.0 0.0
0.0 0.0 0.0 0.0
00000000: ae15 c7be 8f04 a2bc 4379 003d 474c cb3e
00000010: 0ea4 333e b47b 923e 0000 0000 0000 0000
00000020: 0000 0000 0000 0000 0000 0000 0000 0000

naim.embeddings.61.embeddings.weight f4 [2, 6]
-0.20924665 0.079471834 0.12358306 -0.0751922 0.17836355 -0.122980885 0.0 0.0
0.0 0.0 0.0 0.0
00000000: c144 56be 21c2 a23d 1e19 fd3d 5efe 99bd
00000010: efa4 363e 67dd fbbd 0000 0000 0000 0000
00000020: 0000 0000 0000 0000 0000 0000 0000 0000

naim.embeddings.62.embeddings.weight f4 [2, 6]
0.23868598 0.11268355 -0.6041265 -0.06353501 -0.29637313 -0.40632284 0.0 0.0
0.0 0.0 0.0 0.0
00000000: 196a 743e a2c6 e63d 09a8 1abf a51e 82bd
00000010: 38be 97be 8c09 d0be 0000 0000 0000 0000
00000020: 0000 0000 0000 0000 0000 0000 0000 0000

naim.embeddings.63.embeddings.weight f4 [2, 6]
0.636933 0.23519005 -0.2276502 0.14026868 -0.15423863 -0.16870181 0.0 0.0
0.0 0.0 0.0 0.0
00000000: 0b0e 233f a9d5 703e 221d 69be 98a2 0f3e
00000010: bbf0 1dbe 2bc0 2cbe 0000 0000 0000 0000
00000020: 0000 0000 0000 0000 0000 0000 0000 0000

naim.encoder.0.layer_norm_1.weight f4 [6]
0.87261146 0.82118 0.87578434 0.986492 0.8772465 0.875963
00000000: 7763 5f3f da38 523f 6733 603f bd8a 7c3f
00000010: 3a93 603f 1c3f 603f

naim.encoder.0.layer_norm_1.bias f4 [6]
0.0133239115 -0.010294292 0.021041237 -0.017523307 0.01391418 -0.012238432
00000000: 894c 5a3c 64a9 28bc ac5e ac3c 0a8d 8fbc
00000010: 4df8 633c b483 48bc

naim.encoder.0.attn.linear_q.weight f4 [6, 6]
-0.028348014 0.0076473663 -0.053342 -0.24608527 -0.007437695 0.07019426 -0.01918307 -0.08285651
0.015387378 0.045709424 -0.018839825 -0.20944636 -0.06522292 0.0014553608 0.019067008 0.19091399
0.00063867064 0.018302929 0.077517785 -0.052665792 -0.020317037 0.11459849 0.13946083 0.010385081
-0.15086012 0.07962543 -0.17109819 0.06971655 -0.0115297865 0.035268363 -0.25827262 -0.025587706
0.11068832 0.18981369 -0.01717823 0.21902679
00000000: 183a e8bc c296 fa3b 247d 5abd c7fd 7bbe
00000010: e8b7 f3bb 02c2 8f3d d025 9dbc adb0 a9bd
00000020: 571b 7c3c ce39 3b3d fa55 9abc 1b79 56be
00000030: 9893 85bd cec1 be3a 6a32 9c3c f57e 433e
00000040: 766c 273a 06f0 953c a5c1 9e3d 16b8 57bd
00000050: ea6f a6bc 9db2 ea3d d2ce 0e3e 3026 2a3c
00000060: 137b 1abe a812 a33d 5d34 2fbe 8dc7 8e3d
00000070: 6ee7 3cbc 8f75 103d 4f3c 84be 4f9d d1bc
00000080: 8fb0 e23d 855e 423e 5cb9 8cbc 8f48 603e

naim.encoder.0.attn.linear_k.weight f4 [6, 6]
-0.033370335 -0.10982815 -0.06670303 -0.013498029 -0.03683993 0.07446935 -0.07041547 -0.037606984
-0.24367365 0.18938538 -0.010265231 -0.15972169 -0.0071033873 0.00096829236 0.010925306 0.0037651577
0.094426796 -0.0141347805 -0.014993911 -0.008934506 -0.0032839323 0.16475615 -0.0024722249 0.1505923
0.15504678 -0.06566728 0.00020694408 -0.058139812 0.037701756 -0.022284461 0.076052636 -0.0026999381
-0.1439872 -0.21065532 -0.24798386 -0.101922624
00000000: 55af 08bd 95ed e0bd 999b 88bd d626 5dbc
00000010: 77e5 16bd 6383 983d fc35 90bd c809 1abd
00000020: 9685 79be 3eee 413e 802f 28bc 158e 23be
00000030: 88c3 e8bb 00d5 7d3a 0e00 333c ddc0 763b
00000040: d662 c13d 9195 67bc 05a9 75bc 0962 12bc
00000050: 3e37 57bb d6b5 283e 0d05 22bb de34 1a3e
00000060: 95c4 1e3e 917c 86bd 21ff 5839 0324 6ebd
00000070: 286d 1a3d e78d b6bc 7cc1 9b3d 72f1 30bb
00000080: 6171 13be 07b6 57be 7bef 7dbe cfbc d0bd

naim.encoder.0.attn.linear_v.weight f4 [6, 6]
0.11896419 0.049306635 0.3035894 -0.36765906 -0.015086466 -0.32676664 0.00061678846 0.099659495
-0.33805555 0.3439939 -0.04215551 0.30280933 -0.038383145 0.12241125 0.3467144 -0.12039244
-0.099550456 0.18357803 -0.28548503 0.14057606 -0.2082554 0.35006753 -0.21051967 -0.13070875
0.2655193 -0.17543118 0.22324722 0.2603268 0.31922394 -0.3464661 0.013133254 -0.09643831
0.10268381 -0.32338428 0.1729929 0.020173088
00000000: 7fa3 f33d c1f5 493d 1270 9b3e cf3d bcbe
00000010: 3a2d 77bc f54d a7be f9af 213a 471a cc3d
00000020: 9e15 adbe f81f b03e 42ab 2cbd d309 9b3e
00000030: a537 1dbd c0b2 fa3d 8d84 b13e 5090 f6bd
00000040: 1ce1 cbbd e1fb 3b3e 182b 92be 2cf3 0f3e
00000050: e740 55be 0d3c b33e 7892 57be 84d8 05be
00000060: 25f2 873e 3ba4 33be eb9a 643e 8e49 853e
00000070: 5271 a33e 0164 b1be dc2c 573c 7381 c5bd
00000080: e44b d23d a092 a5be 0d25 313e 0842 a53c

naim.encoder.0.attn.linear_o.weight f4 [6, 6]
-0.048713684 -0.19535574 0.062213484 -0.02075547 0.13487086 0.00032254605 0.00943432 -2.6895075e-05
-6.2861245e-06 -0.015374157 -0.1819997 0.09677133 -0.2627317 0.20788254 -0.14954427 0.21971369
0.3238859 -0.2558278 0.3474662 0.033410635 -0.28401947 0.18625246 0.2334974 0.37077445
-0.3446496 0.34939498 0.29181468 0.37095603 0.22616369 -0.16595034 0.30722806 0.37856698
-0.13935797 -0.04351688 0.32089743 0.32401904
00000000: 0088 47bd 560b 48be 91d3 7e3d 6007 aabc
00000010: 961b 0a3e 661b a939 6892 1a3c bc9c e1b7
00000020: 66ed d2b6 e3e3 7bbc 215e 3abe 0c30 c63d
00000030: c584 86be 29df 543e 2222 19be a0fc 603e
00000040: 5fd4 a53e ddfb 82be 17e7 b13e 97d9 083d
00000050: 006b 91be f7b8 3e3e f119 6f3e 26d6 bd3e
00000060: ea75 b0be e6e3 b23e bc68 953e f3ed bd3e
00000070: 7497 673e e3ee 29be ff4c 9d3e 88d3 c13e
00000080: dbb3 0ebe c23e 32bd ab4c a43e d3e5 a53e

naim.encoder.0.layer_norm_2.weight f4 [6]
0.96554846 0.9112439 0.9627687 0.970914 0.9104609 0.97100127
00000000: 2f2e 773f 4847 693f 0278 763f d28d 783f
00000010: f713 693f 8a93 783f

naim.encoder.0.layer_norm_2.bias f4 [6]
-0.0038059703 0.00962083 -0.0071148635 0.00090118044 0.00082065334 0.0025927094
00000000: 966d 79bb b0a0 1d3c cd23 e9bb 323d 6c3a
00000010: 1d21 573a 72ea 293b

naim.encoder.0.ff.0.weight f4 [1000, 6]
0.11934605 0.15121354 -0.07230395 -0.0068166447 -0.033435572 0.07754537 0.038001053 -0.15377998
-0.009198107 -0.1791812 -0.2141684 0.21541366 -0.09164568 0.073754616 -0.023253374 -0.025465569
0.011070072 0.17905329 0.0003373798 0.16680977 0.084668875 0.11885491 -0.19971451 -0.042573664
-0.20538488 -0.036744487 -0.03243622 0.032793447 0.21634309 0.10103454 -0.14918622 -0.121528044
0.16205637 0.009054088 0.027537197 -0.10955269 -0.0026416515 0.031058725 -0.121887304 0.10739378
0.078197494 -0.09235325 -0.037073966 -0.021038696 0.005622656 -0.023202252 0.22487323 -0.22244193
-0.124194615 -0.11581433 0.043908775 0.013057891 -0.036172092 0.21537994 -0.18383493 0.026467204
-0.07748061 -0.0061084377 -0.22418271 -0.14306667 -0.17945161 0.044929285 -0.032936174 0.0748234
-0.07317686 -0.016990494 0.018048104 0.17863882 -0.043293748 0.11034928 0.022437455 0.12632711
0.13218208 0.066010796 -0.019502075 -0.035221756 0.04429212 0.08262741 -0.00022408579 0.059172284
-0.09317003 0.07809124 -0.000630075 -0.11795895 -0.053348996 -0.14782767 0.0033383241 -0.08641454
-0.013520286 0.00051312154 -0.11297777 0.0036430352 -0.012036767 0.034549132 0.13296439 -0.102503635
0.074321635 -0.0033815377 -0.088551074 -0.046104003 0.016441077 0.006957998 -0.001610298 -0.073174626
0.075437844 0.0035263484 -0.22851408 -0.01043045 -0.014019557 -0.06404507 -0.077536486 -0.16335481
0.2387625 -0.21129107 0.20764674 -0.17783357 -0.027126126 -0.043879878 -0.094724104 0.0431199
0.092846036 -0.12070578 -0.05184724 0.06572082 -0.0123048965 0.0143221915 0.064729474 -0.02658341
-0.07545927 0.024210561 -0.023751492 -0.10987828 -0.08977531 -0.08230735 0.24603914 0.019143527
0.06302425 0.016878385 -0.11629925 0.1296514 -0.00010743751 -0.0043471437 0.16748288 -0.059584938
0.031000981 -0.1973327 0.10688188 0.07199968 -0.1755344 0.11568807 0.022636704 -0.084741704
0.21114182 0.08102363 0.04323257 -0.07092447 -0.12619402 -0.11330525 0.07698643 0.045624033
-0.12194745 0.24272524 0.11179046 -0.047017626 0.08467401 -0.05455165 0.025139334 0.19058383
-0.19252478 -0.062301505 0.00014095996 0.0044042943 -0.16758016 -0.10971842 -0.01171972 -0.014006914
0.032651894 0.020990284 0.015967326 0.00648693 0.004629596 0.0030616059 0.031462587 0.11779961
-0.062251125 -0.07053308 0.10150833 -0.15437385 0.1576669 0.09086336 0.021275748 -0.090599865
0.0015840044 -0.15991129 -0.19789876 0.21386155 -0.19997242 -0.1702869 -0.06883892 0.005012122
0.029942015 -0.0864222 0.0018300847 -0.0336702 0.18013355 0.18786561 0.04781821 -0.00026753868
0.14417534 -0.16230375 0.03490321 -0.08208322 0.15117319 -0.18915564 0.021388883 -0.16644488
0.1161463 0.0064576375 0.19567008 -0.15903093 0.11182914 -0.13618547 -0.100131124 0.0388258
-0.024918597 -0.1717637 -0.18079485 -0.036199678 0.009164982 0.1861007 0.13725115 -0.00022295497
-0.09137491 -0.19209337 0.19777831 -0.08788616 -0.004833427 -0.16157502 -0.12803675 0.023036022
-0.0035963156 1.9664064e-07 -2.1466447e-15 -7.7221893e-13 -0.000686145 1.8858713e-14 0.047566302 0.13226438
0.18066624 -0.1673611 -0.17507793 -0.010768245 -0.015808629 0.10275097 0.25809038 0.05096079
00000000: b46b f43d b9d7 1a3e 1814 94bd 295e dfbb
00000010: bdf3 08bd 1bd0 9e3d fea6 1b3d 8078 1dbe
00000020: a8b3 16bc 477b 37be f64e 5bbe 6695 5c3e
00000030: bbb0 bbbd a90c 973d dc7d bebc 2b9d d0bc
00000040: 3f5f 353c bf59 373e 5ae2 b039 2ed0 2a3e
00000050: e066 ad3d 346a f33d f681 4cbe b961 2ebd
00000060: 6a50 52be 6381 16bd d8db 04bd 6c52 063d
00000070: 0b89 5d3e 32eb ce3d 46c4 18be b2e3 f8bd
00000080: 1bf2 253e 9957 143c b095 e13c 295d e0bd
00000090: 8f1f 2dbb de6e fe3c 0da0 f9bd 45f1 db3d
000000a0: 0226 a03d b323 bdbd dfda 17bd 5859 acbc
000000b0: 423e b83b a612 bebc 2b45 663e d1c7 63be
000000c0: bf59 febd 1030 edbd b0d9 333d c4f0 553c
000000d0: 3029 14bd 8f8c 5c3e 393f 3cbe c0d1 d83c
000000e0: 27ae 9ebd 4a29 c8bb 2790 65be 1280 12be
000000f0: 2ac2 37be c507 383d 15e8 06bd 033d 993d
00000100: c0dd 95bd a62f 8bbc 9ed9 933c 18ed 363e
00000110: c954 31bd cefe e13d c1ce b73c e55b 013e
00000120: bd5a 073e ab30 873d d1c2 9fbc b044 10bd
00000130: a76b 353d 8f38 a93d 92f8 6ab9 a35e 723d
00000140: eecf bebd 4dee 9f3d 9e2b 25ba 7694 f1bd
00000150: 7a84 5abd 2360 17be c9c7 5a3b 1bfa b0bd
00000160: 3184 5dbc 0183 063a e460 e7bd fdbf 6e3b
00000170: dc35 45bc 6483 0d3d d127 083e 6ded d1bd
00000180: f135 983d ca9c 5dbb 445a b5bd 8dd7 3cbd
00000190: 70af 863c ebff e33b a210 d3ba 94dc 95bd
000001a0: 287f 9a3d 4f1a 673b 98ff 69be 7ae4 2abc
000001b0: 49b2 65bc 102a 83bd 73cb 9ebd 7c46 27be
000001c0: 287e 743e b05c 58be 59a1 543e 011a 36be
000001d0: 9c37 debc 63bb 33bd b6fe c1bd 7e9e 303d
000001e0: 1026 be3d 9834 f7bd c65d 54bd a398 863d
000001f0: 7a9a 49bc a0a7 6a3c e390 843d 74c5 d9bc
00000200: 648a 9abd 3a55 c63c 7d92 c2bc dd07 e1bd
00000210: 1edc b7bd c290 a8bd aff1 7b3e e3d2 9c3c
00000220: dc12 813d 8a44 8a3c 4d2e eebd 56c3 043e
00000230: 1350 e1b8 7c72 8ebb a280 2b3e 560f 74bd
00000240: c5f5 fd3c 9511 4abe e3e4 da3d 9174 933d
00000250: 4abf 33be deed ec3d 9c70 b93c 0f8d adbd
00000260: 9035 583e b8ef a53d a314 313d d940 91bd
00000270: 0139 01be 950c e8bd 10ab 9d3d 44e0 3a3d
00000280: 96bf f9bd f78c 783e 66f2 e43d 8e95 40bd
00000290: 9169 ad3d 8d71 5fbd 01f1 cd3c 6828 433e
000002a0: 3725 45be dd2f 7fbd a7ce 1339 e651 903b
000002b0: 229a 2bbe 0db4 e0bd 1204 40bc 417d 65bc
000002c0: febd 053d d1f3 ab3c e9cd 823c 5090 d43b
000002d0: deb3 973b 39a5 483b eade 003d ec40 f13d
000002e0: 09fb 7ebd a673 90bd 99e3 cf3d 2e14 1ebe
000002f0: 6f73 213e 9216 ba3d 7a4a ae3c 6c8c b9bd
00000300: 5e9e cf3a c9bf 23be f9a5 4abe 86fe 5a3e
00000310: 92c5 4cbe b05f 2ebe 6bfb 8cbd ba3c a43b
00000320: f548 f53c 1ffe b0bd 74df ef3a c3e9 09bd
00000330: ee74 383e d85f 403e 07dd 433d 6f44 8cb9
00000340: b3a2 133e f432 26be abf6 0e3d 3f1b a8bd
00000350: 25cd 1a3e 04b2 41be bd37 af3c 8770 2abe
00000360: 1dde ed3d 979a d33b bd5d 483e 01d9 22be
00000370: ad06 e53d 3474 0bbe 8c11 cdbd cd07 1f3d
00000380: 1622 ccbc d3e2 2fbe 4922 39be 1d46 14bd
00000390: b828 163c 2f91 3e3e 918b 0c3e 05c9 69b9
000003a0: c522 bbbd 20b4 44be 6686 4a3e a9fd b3bd
000003b0: b961 9ebb ec73 25be 111c 03be 0ab6 bc3c
000003c0: 2ab0 6bbb 2b24 5334 9bae 1aa7 3d5c 59ab
000003d0: 69de 33ba 3bdd a928 e2d4 423d 5070 073e
000003e0: 9200 393e b560 2bbe a147 33be 4b6d 30bc
000003f0: 1981 81bc 1a6f d23d 6c24 843e 43bc 503d

naim.encoder.0.ff.0.bias f4 [1000]
0.13178454 -0.088089265 -0.014830894 0.008474092 0.18607302 0.093460135 0.23248196 -0.07565777
-0.012743856 -0.0023514186 0.17433803 0.24141787 0.053860325 -0.16120167 -0.13485219 0.016704936
-0.19440666 -0.039167162 -0.15238939 0.10300848 -0.004168357 -0.15251324 0.14702493 -0.18916352
-0.014763919 0.2512793 0.13470346 -0.19584404 0.0063247522 -0.023995088 0.056404304 0.24633783
0.18626034 -0.010440392 0.08914462 -0.22575326 0.18665156 0.107053764 -0.12411072 -0.0056447648
-0.025693495 -0.0861514 0.10243203 -0.017766725 0.07747688 -0.009253749 0.18327677 -0.0749389
-0.0036924023 -0.0233843 0.0054217214 -0.045661237 -0.13885012 -0.21625027 0.10020351 0.030191561
-0.10514129 0.13606508 0.00355828 -0.03288405 -0.0040380484 0.021071667 0.17150818 -0.20457064
-0.14927664 -0.16288191 -0.15346198 0.015175492 0.108493485 0.04968855 0.057443876 0.010438867
-0.0011876194 -0.20010653 0.20747848 0.24805258 -0.0071050925 0.04411789 0.018436626 0.2533012
-0.0068457983 -0.006334876 -0.08661449 0.04515051 0.09858871 -0.17465827 0.04404765 0.07198203
0.083704524 0.051760335 -0.0077265203 0.032767028 -0.1289952 0.14152874 -0.17496172 -0.18765004
-0.13965587 -0.07904899 0.0068634544 0.122289635 -0.0016166336 0.17833696 -0.0057482244 0.1849024
0.15666455 0.13104664 0.053985216 -0.13412419 0.24931881 -0.21622835 -0.12575068 -0.14180583
-0.013159951 0.06941657 0.03504068 -0.18426298 0.25807598 0.25533777 0.074739136 -0.22776711
0.1567832 0.042127702 -0.012058503 -0.17104398 0.22156288 -0.028386384 -0.16949388 0.16879822
0.110650145 0.055380616 0.14797564 0.07467648 -0.017047174 -0.027737604 0.19516687 -0.00096474955
-0.18263248 -0.11972027 -0.14158832 0.008352404 0.18857975 0.14114752 0.0600034 0.084267154
-0.059454504 0.2416192 0.03796614 -0.09840098 -0.117239706 -0.19380176 -0.020682685 0.16829902
0.013703814 -0.04931501 0.067500405 -0.12122281 0.048067056 0.1413926 0.105877675 -0.022241715
-0.033734236 0.08358261 0.09868928 -0.0030605388 -0.0016465414 -0.0035069392 -0.003910521 -0.19170754
-0.1655787 0.18592034 -0.07236888 0.17271392 0.14851901 -0.009236468 -0.06817129 -0.0012079055
-0.015860135 -0.08526252 0.2288952 0.0026701342 -0.008291721 -0.12135957 0.022594301 0.047347937
0.2604774 -0.009827841 0.089031726 0.0072478307 0.10475675 0.0010812217 -0.0031189194 0.097898215
-0.050955 0.1176144 -0.17226341 -0.12847109 0.256711 -0.038921863 -0.16487983 -0.13784093
0.23321028 -0.026130611 -0.18123227 -0.009152806 -0.06597378 -0.116137065 -0.07434286 0.18927886
0.056296967 0.120589726 0.0030543588 -0.03232461 -0.06124372 -0.12932606 -0.171976 -0.18090686
0.006618615 0.13267626 0.22737727 0.0025675907 -0.019299 -0.0023759373 0.08029951 -0.006193892
-0.047771946 -0.04039943 -0.22572401 -0.16964993 -0.061736036 -0.00091624114 -0.096911475 0.06450312
-0.07610842 0.23782045 -0.18937482 0.10980227 -0.0718425 -0.022740576 -0.2272363 -0.21151564
-0.22569251 -0.005642407 0.24464738 0.089036025 0.14153266 0.06538601 -0.029275024 -0.044620756
-0.01672941 -0.20741908 0.09163644 -0.038503844 -0.08805535 0.053468462 -0.002443033 0.11329812
00000000: 87f2 063e 2568 b4bd 47fd 72bc ebd6 0a3c
00000010: ed89 3e3e 0768 bf3d c00f 6e3e 76f2 9abd
00000020: 9bcb 50bc 421a 1abb ab85 323e 3f36 773e
00000030: a59c 5c3d 0d12 25be b116 0abe cad8 883c
00000040: 8a12 47be bf6d 20bd f70b 1cbe 1cf6 d23d
00000050: b696 88bb 6e2c 1cbe b48d 163e 15b4 41be
00000060: 5de4 71bc aea7 803e b4ef 093e 578b 48be
00000070: de3f cf3b 5991 c4bc 3308 673d fc3f 7c3e
00000080: 08bb 3e3e 2e0e 2bbc 7491 b63d dd2b 67be
00000090: 9621 3f3e 013f db3d c32d febd b8f7 b8bb
000000a0: 2a7b d2bc 2570 b0bd e2c7 d13d 868b 91bc
000000b0: 33ac 9e3d 099d 17bc e8ac 3b3e 9179 99bd
000000c0: 3bfc 71bb 6e90 bfbc b2a8 b13b 4707 3bbd
000000d0: ba2e 0ebe b670 5dbe 7f37 cd3d 4b54 f73c
000000e0: 5154 d7bd a554 0b3e 0832 693b 6db1 06bd
000000f0: 9b51 84bb 7d9e ac3c d79f 2f3e f77a 51be
00000100: fadb 18be 84ca 26be 2325 1dbe a0a2 783c
00000110: d531 de3d 3986 4b3d 454a 6b3d c807 2b3c
00000120: e5a9 9bba bae8 4cbe 3d75 543e 7f01 7e3e
00000130: d6d1 e8bb f6b4 343d 6808 973c b2b0 813e
00000140: b852 e0bb cb94 cfbb f062 b1bd beef 383d
00000150: e1e8 c93d 9ed9 32be 4f6b 343d 516b 933d
00000160: 476d ab3d a502 543d c02e fdbb b836 063d
00000170: 5117 04be e9ec 103e 2a29 33be 5527 40be
00000180: f301 0fbe 70e4 a1bd d4e6 e03b fd72 fa3d
00000190: 39e5 d3ba f79d 363e 9a5b bcbb 0e57 3d3e
000001a0: ac6c 203e 1731 063e 9a1f 5d3d da57 09be
000001b0: 6e4d 7f3e f76a 5dbe c9c4 00be 8c35 11be
000001c0: d69c 57bc 462a 8e3d d186 0f3d 6faf 3cbe
000001d0: 8922 843e a2bb 823e d510 993d c83b 69be
000001e0: c68b 203e 198e 2c3d 0791 45bc 2726 2fbe
000001f0: 61e1 623e 908a e8bc ce8f 2dbe 71d9 2c3e
00000200: 8b9c e23d c9d6 623d ed86 173e fbef 983d
00000210: 84a6 8bbc f939 e3bc d3d9 473e 3fe7 7cba
00000220: 0204 3bbe e72f f5bd 87fc 10be 86d8 083c
00000230: 0d1b 413e fa88 103e 20c6 753d 4294 ac3d
00000240: 9186 73bd 066b 773e 6282 1b3d 7486 c9bd
00000250: 5f1b f0bd f873 46be bc6e a9bc 9456 2c3e
00000260: f685 603c 89fe 49bd a73d 8a3d aa43 f8bd
00000270: f6e1 443d 39c9 103e 65d6 d83d 4234 b6bc
00000280: e92c 0abd 5c2d ab3d 9b1d ca3d 5293 48bb
00000290: c3d0 d7ba add4 65bb d423 80bb fb4e 44be
000002a0: 768d 29be e761 3e3e 2336 94bd ebdb 303e
000002b0: 5e15 183e 8e54 17bc 649d 8bbd 9552 9eba
000002c0: 1ded 81bc 1e9e aebd 8163 6a3e 6bfd 2e3b
000002d0: 00da 07bc 5e8b f8bd af17 b93c e9ef 413d
000002e0: 4b5d 853e f404 21bc 4456 b63d 367f ed3b
000002f0: b58a d63d c8b7 8d3a c966 4cbb dc7e c83d
00000300: 31b6 50bd d2df f03d d265 30be ed8d 03be
00000310: a06f 833e 886c 1fbd 42d6 28be 2c26 0dbe
00000320: adce 6e3e dd0f d6bc f494 39be a7f5 15bc
00000330: 431d 87bd 45d9 edbd 1241 98bd 51d2 413e
00000340: a697 663d bff7 f63d a32b 483b cf66 04bd
00000350: b2da 7abd 0d6e 04be 7a1a 30be a63f 39be
00000360: f7e0 d83b 49dc 073e 96d5 683e 0645 283b
00000370: f018 9ebc 9db5 1bbb 1274 a43d 22f6 cabb
00000380: 84ac 43bd df79 25bd 3224 67be b6b8 2dbe
00000390: edde 7cbd e72f 70ba 8679 c6bd 361a 843d
000003a0: bbde 9bbd 3487 733e 79eb 41be 03e0 e03d
000003b0: 2922 93bd 724a babc a2b0 68be 8e97 58be
000003c0: f01b 67be f1e3 b8bb d884 7a3e 8558 b63d
000003d0: f0ed 103e 1ae9 853d 2dd2 efbc 41c4 36bd
000003e0: 1e0c 89bc ab65 54be e3ab bb3d 35b6 1dbd
000003f0: 5d56 b4bd bf01 5b3d 4b1b 20bb d808 e83d

naim.encoder.0.ff.3.weight f4 [6, 1000]
-0.008045547 0.0055619013 0.004469383 0.005736727 -0.017354468 0.002542509 -0.008045055 0.0015827445
0.0190709 0.028400566 -0.008114593 -0.00992298 -0.020911248 -0.0040403893 0.00509251 -0.0059476728
0.0032604272 -8.064104e-05 0.0054936255 0.009819405 0.031122651 0.019621141 -0.02114623 0.00956992
0.0025053709 -0.00372365 0.011190668 0.0002705007 -0.0012866643 -0.013283942 -0.0070040952 -0.030227894
0.010555851 -0.0030121624 -0.013515421 -0.006331568 0.022517147 -0.0034146686 0.0073992126 0.0063207606
1.9829984e-12 -0.0097638015 -0.012730713 0.029984698 -0.01637117 0.003383263 0.012779856 0.00840946
0.0030559467 0.034772407 -0.024925282 -0.014425286 0.006328756 -0.008195303 0.003376967 -0.0128328595
-0.010899973 0.020475388 -0.011044993 0.023286674 0.02945722 0.027596736 0.020767264 0.031300966
0.0022885262 0.0062853117 0.0020302155 -0.03495918 0.03104374 -0.02471807 -0.014290427 -0.01241248
0.0012682269 -0.008197598 -0.012664962 0.0032410424 -0.010297096 -0.021178268 -0.0032581796 -0.020749265
0.011984759 0.011063909 -0.0016637346 0.029281221 -0.010318381 -0.0049190056 -0.0012991762 0.031435117
0.005873881 0.0020871195 0.020198047 -0.021303955 -0.013813395 -0.007143169 -0.001653687 -0.0074504125
-0.0113413315 0.008603827 0.004980774 0.0021820096 0.0061679566 -0.0014595134 0.022027187 -0.02516397
0.018233951 0.009608706 -0.009191225 0.0113457795 -0.0013867455 -0.018238164 0.030527337 0.0020007922
0.022511207 0.00017045811 -0.011500443 0.006576027 0.000814984 0.00588995 -0.005097543 0.015463247
-0.019895565 0.006046054 0.020825194 0.000986836 0.024622364 0.023775669 0.003737852 0.027336841
-0.003563358 -0.0010312955 0.01435705 -0.025171239 -0.008209887 0.043512363 -0.021052536 0.0020121988
0.014022286 0.013257122 -0.0042766295 0.01218616 0.016035875 -0.017505914 0.025443826 0.009923883
-0.00085839134 -0.02906007 -7.716881e-05 0.032604516 -0.013700019 0.006160108 0.010123839 0.018952252
-0.008021442 0.019507067 0.033549156 0.019106686 -0.010695486 -0.02580464 -0.02154851 0.019989496
-0.010915907 0.017225582 -0.001128501 0.027819965 -0.009312779 0.0005955577 0.007618046 0.006624938
0.03264983 -0.0012516975 0.032962687 -0.0037839126 0.0012328285 -0.0091776885 -0.010434048 -0.019992443
-0.024483152 0.0015973116 -0.013728829 0.0037092827 -0.00949241 -0.014782274 -0.004171987 -0.026914295
0.026034756 0.009325404 0.0005828203 -0.032099035 0.01016221 9.8178505e-05 0.016652513 0.009834574
0.0009229156 0.012940091 -0.001150824 0.008500107 -0.018659197 0.037969325 -0.010244522 0.026034134
0.009532271 0.021660263 -0.031669114 0.011485185 0.019020997 0.02447516 -0.02216146 -0.012031751
-0.00939032 -0.02048491 0.01140858 0.019073611 0.022656696 -0.0027498927 0.019381259 0.004385486
0.01673667 -0.021061543 -0.030388676 0.010551144 -0.0048082094 0.015464629 0.033262137 0.027738767
0.025517792 -0.010989559 0.0076077473 -0.0069832057 -0.017378734 0.026164157 0.011976548 -0.0060346047
0.004510805 -0.018934388 0.016528593 0.0037808164 -0.02122887 0.02112463 -0.025648823 -0.0057557
0.02800676 -0.010914566 -0.035063088 0.02145852 -0.022874203 0.016155774 0.003386587 0.023774998
0.0143091185 -0.0037400797 -0.029053587 0.0055528614 -0.015878214 0.015910795 0.024475478 -0.02803246
00000000: 78d1 03bc 9c40 b63b e773 923b 27fb bb3b
00000010: f52a 8ebc 39a0 263b 68cf 03bc 1874 cf3a
00000020: 933a 9c3c 4ea8 e83c 12f3 04bc ff93 22bc
00000030: 114e abbc 3e65 84bb 12df a63b b2e4 c2bb
00000040: e4ac 553b d41d a9b8 df03 b43b 92e1 203c
00000050: eef4 fe3c 84bc a03c dc3a adbc 27cb 1c3c
00000060: 2631 243b 7b08 74bb 1059 373c fdd1 8d39
00000070: 4aa5 a8ba e4a4 59bc 9c82 e5bb 7da0 f7bc
00000080: 73f2 2c3c b367 45bb c96f 5dbc 0b79 cfbb
00000090: e175 b83c a2c8 5fbb 1875 f23b 621e cf3b
000000a0: 868a 0b2c 5af8 1fbc 7b94 50bc 78a2 f53c
000000b0: d51c 86bc bcb9 5d3b 9a62 513c d5c7 093c
000000c0: 4746 483b 836d 0e3d 1b30 ccbc 0958 6cbc
000000d0: 7461 cf3b 9845 06bc 1b50 5d3b ea40 52bc
000000e0: cd95 32bc 00bc a73c 0ff6 34bc b2c3 be3c
000000f0: 4550 f13c 8d12 e23c 1c20 aa3c 7135 003d
00000100: 19fb 153b 04f5 cd3b 5d0d 053b 5b31 0fbd
00000110: 714f fe3c 8d7d cabc 6522 6abc b75d 4bbc
00000120: a23a a63a 384f 06bc b380 4fbc ab67 543b
00000130: 27b5 28bc 0c7e adbc 2f87 55bb 5dfa a9bc
00000140: b95b 443c 6645 353c ab11 daba 2cdf ef3c
00000150: 6d0e 29bc 9c2f a1bb 1f49 aaba 1cc2 003d
00000160: af79 c03b 0ec8 083b 6076 a53c a285 aebc
00000170: 9451 62bc 3f11 eabb 87c0 d8ba 9722 f4bb
00000180: fed0 39bc 11f7 0c3c c335 a33b 0c00 0f3b
00000190: 921c ca3b 254d bfba 5c72 b43c ac24 cebc
000001a0: 5e5f 953c d66d 1d3c cb96 16bc a6e3 393c
000001b0: 75c3 b5ba 3468 95bc 7714 fa3c b91f 033b
000001c0: 6c69 b83c 00bd 3239 5b6c 3cbc b67b d73b
000001d0: a7a4 553a 7b00 c13b 4a09 a7bb 8f59 7d3c
000001e0: 06fc a2bc fa1d c63b 9999 aa3c b958 813a
000001f0: d7b4 c93c 31c5 c23c c0f6 743b 83f1 df3c
00000200: 3a87 69bb 892c 87ba d539 6b3c ea33 cebc
00000210: c382 06bc 053a 323d 5e76 acbc 18df 033b
00000220: bbbd 653c 6634 593c f822 8cbb 76a8 473c
00000230: ab5d 833c 9068 8fbc 926f d03c c897 223c
00000240: ab05 61ba 620f eebc b0d5 a1b8 508c 053d
00000250: 0b76 60bc bbda c93b 75de 253c c141 9b3c
00000260: 5e6c 03bc 49cd 9f3c d76a 093d a085 9c3c
00000270: 1f3c 2fbc 4164 d3bc 8086 b0bc 03c1 a33c
00000280: a2d8 32bc aa1c 8d3c 36ea 93ba b2e6 e33c
00000290: a094 18bc 331f 1c3a cda0 f93b 0216 d93b
000002a0: d4bb 053d 0010 a4ba e203 073d 85fb 77bb
000002b0: dc96 a13a 045e 16bc 92f3 2abc 31c7 a3bc
000002c0: e490 c8bc e25c d13a e2ee 60bc 7017 733b
000002d0: 0e86 1bbc 5a31 72bc 2ab5 88bb 5e7b dcbc
000002e0: d746 d53c 94c9 183c 69c8 183a 477a 03bd
000002f0: 667f 263c 2fe5 cd38 da6a 883c 3121 213c
00000300: d1ef 713a ad02 543c 3fd7 96ba 0844 0b3c
00000310: 2cdb 98bc b985 1b3d a4d8 27bc 8945 d53c
00000320: 3e2d 1c3c dd70 b13c 79b7 01bd 5b2c 3c3c
00000330: ecd1 9b3c 2180 c83c f38b b5bc d220 45bc
00000340: dbd9 19bc f8cf a7bc 0deb 3a3c 4340 9c3c
00000350: 899a b93c 8b37 34bb 72c5 9e3c 1fb4 8f3b
00000360: 571b 893c 4289 acbc acf1 f8bc b5de 2c3c
00000370: 2f8e 9dbb 5b5f 7d3c e13d 083d 693c e33c
00000380: b00a d13c 8d0d 34bc 694a f93b 60d3 e4bb
00000390: d95d 8ebc 3756 d63c 4839 443c efbd c5bb
000003a0: 60cf 933b 4a1c 9bbc f966 873c 93c7 773b
000003b0: 2be8 adbc 8f0d ad3c 7b1d d2bc 509a bcbb
000003c0: 6f6e e53c 02d3 32bc 509e 0fbd c7c9 af3c
000003d0: ae62 bbbc 1d59 843c 80f1 5d3b c9c3 c23c
000003e0: cb70 6a3c 201c 75bb ca01 eebc c7f4 b53b
000003f0: 0713 82bc 5b57 823c cc80 c83c 54a4 e5bc

naim.encoder.0.ff.3.bias f4 [6]
-0.03334831 0.0033731596 -0.022301205 -0.011525896 0.02404822 -0.021821992
00000000: 3d98 08bd 3a10 5d3b 04b1 b6bc 1dd7 3cbc
00000010: c600 c53c 09c4 b2bc

naim.encoder.1.layer_norm_1.weight f4 [6]
0.81784326 0.81272215 0.8174017 0.81996405 0.81077814 0.8142991
00000000: 2d5e 513f 8f0e 503f 3d41 513f 2ae9 513f
00000010: 288f 4f3f e875 503f

naim.encoder.1.layer_norm_1.bias f4 [6]
0.0049363803 -0.009502098 -0.0020224869 0.0021637545 -0.006259354 0.0054246928
00000000: 5cc1 a13b b0ae 1bbc b38b 04bb c7cd 0d3b
00000010: 441b cdbb 9fc1 b13b

naim.encoder.1.attn.linear_q.weight f4 [6, 6]
-0.13317396 -0.015816867 -0.04213343 0.006462505 0.10222801 0.001996842 0.0005102061 0.04955295
0.08669653 -0.0019222457 -0.11299396 -0.18216607 0.23318633 0.015958626 0.20450169 -0.028011274
0.0065648854 -0.064185366 -0.06812746 -0.04507248 0.23386909 0.13427374 -0.09606026 -0.124439105
0.013669359 -0.002063984 -0.00010224258 -0.00026004005 -0.18570773 0.0013265803 8.737082e-05 -0.121794134
-0.22860345 0.059353754 -0.20022225 -0.040896885
00000000: c15e 08be 6092 81bc 1a94 2cbd 6cc3 d33b
00000010: eb5c d13d 73dd 023b 5abf 053a 09f8 4a3d
00000020: f38d b13d ddf3 fbba 6169 e7bd be89 3abe
00000030: 66c8 6e3e aabb 823c e468 513e e677 e5bc
00000040: 401e d73b 9e73 83bd 6986 8bbd ec9d 38bd
00000050: 617b 6f3e 0e7f 093e 3ebb c4bd eed9 febd
00000060: 72f5 5f3c e843 07bb 116b d6b8 fc55 88b9
00000070: 2b2a 3ebe a6e0 ad3a da3a b738 346f f9bd
00000080: 0617 6abe ec1c 733d 1007 4dbe 7e83 27bd

naim.encoder.1.attn.linear_k.weight f4 [6, 6]
0.091328226 -0.11331195 -0.04999785 -0.10044641 0.08396991 0.011640634 0.00041623355 0.017975153
0.0068652905 -0.0007107099 -0.0004203517 -0.09592891 -0.050941613 -0.00015905539 -0.00014522999 0.0073033804
0.04874536 0.14843465 0.21729971 -0.00012826368 0.027529305 -0.16278923 0.08021069 -0.00499761
-0.15601099 -0.1505845 -0.17003642 -0.044099987 0.042876147 -0.16291302 0.00014648278 0.00028955544
0.021279724 -0.03061029 0.057933014 -0.09353781
00000000: 4b0a bb3d 1810 e8bd 8cca 4cbd d9b6 cdbd
00000010: 6bf8 ab3d 5cb8 3e3c ec39 da39 a140 933c
00000020: 3bf6 e03b ef4e 3aba a662 dcb9 6076 c4bd
00000030: 27a8 50bd 1bc8 26b9 e148 18b9 3251 ef3b
00000040: 37a9 473d 41ff 173e d183 5e3e 857e 06b9
00000050: 2385 e13c 38b2 26be 8145 a43d fec2 a3bb
00000060: 58c1 1fbe d332 1abe 071e 2ebe 30a2 34bd
00000070: e69e 2f3d acd2 26be 2c99 1939 79cf 9739
00000080: d152 ae3c 6ec2 fabc 2b4b 6d3d c090 bfbd

naim.encoder.1.attn.linear_v.weight f4 [6, 6]
0.20008111 -0.2931353 -0.21556345 0.1033341 0.0035817735 0.22992557 0.09102349 -0.18210274
0.17257364 -0.039886672 -0.0070100604 -0.035579175 -0.065222405 -0.257041 0.011075012 0.24898185
-0.020648189 0.2609345 -0.11044751 0.032841835 0.009245439 -0.04709681 0.23205203 0.02062365
0.013321587 -0.0116815595 -0.008655778 0.21705973 -0.0083208075 0.14618392 0.041395668 0.11573677
-0.14649749 -0.22165228 -0.012425854 -0.024865737
00000000: 10e2 4c3e d415 96be aabc 5cbe d4a0 d33d
00000010: 30bc 6a3b 9c71 6b3e 866a ba3d 2479 3abe
00000020: 25b7 303e 3560 23bd a6b4 e5bb 78bb 11bd
00000030: 5393 85bd e19a 83be f873 353c 19f5 7e3e
00000040: 6426 a9bc 3599 853e 4e32 e2bd 2985 063d
00000050: 2f7a 173c 96e8 40bd 0c9f 6d3e eef2 a83c
00000060: c942 5a3c 0364 3fbc f7d0 0dbc e844 5e3e
00000070: ff53 08bc 3db1 153e 818e 293d 6607 ed3d
00000080: 7003 16be d1f8 62be cf95 4bbc 3bb3 cbbc

naim.encoder.1.attn.linear_o.weight f4 [6, 6]
0.34119913 0.2792306 -0.08573734 -0.12875247 -2.4064791e-05 0.12941371 0.110514715 0.029072775
0.24920456 0.017742438 0.25442597 0.047198113 -0.03080805 0.22959648 0.007413865 0.009840756
-0.07234873 0.17654295 -0.10553001 0.21241783 0.20716414 -0.005204036 -0.05165878 0.102733314
-0.22377275 -0.013748806 -0.018030677 -4.9759933e-07 -0.049151596 -0.036304396 0.04829029 -4.9561995e-09
-0.1190685 7.761318e-15 0.012391618 -0.029530179
00000000: a7b1 ae3e 50f7 8e3e 0f97 afbd b0d7 03be
00000010: bfde c9b7 0785 043e 8a55 e23d 072a ee3c
00000020: 7b2f 7f3e 9758 913c 1f44 823e cf52 413d
00000030: 2a61 fcbc 571b 6b3e 02f0 f23b 1f3b 213c
00000040: 922b 94bd adc7 343e 1e20 d8bd 0f84 593e
00000050: d622 543e 9e86 aabb 2898 53bd d865 d23d
00000060: af24 65be ac42 61bc 12b5 93bc c492 05b5
00000070: 2f53 49bd ebb3 14bd 0acc 453d 314b aab1
00000080: 30da f3bd c3d0 0b28 3706 4b3c 46e9 f1bc

naim.encoder.1.layer_norm_2.weight f4 [6]
0.9609714 0.90036374 0.9444725 0.95795405 0.8839345 0.9537587
00000000: 3902 763f 3d7e 663f f3c8 713f 7a3c 753f
00000010: 8849 623f 8829 743f

naim.encoder.1.layer_norm_2.bias f4 [6]
0.009411436 0.0012451821 0.0019130104 -0.0010339004 0.0020263933 -0.007075551
00000000: 6c32 1a3c 6135 a33a fabd fa3a f183 87ba
00000010: 3dcd 043b 06da e7bb

naim.encoder.1.ff.0.weight f4 [1000, 6]
0.17937918 -0.11881116 0.19208266 0.030957004 -0.085546106 -0.21296203 0.06414184 -0.023107447
0.05027107 0.068930775 -0.12380911 0.020987837 -0.028379656 -0.1975726 0.016047731 0.015187746
-0.14845416 0.22114007 0.079259284 0.091184914 -0.18715547 -0.18788423 0.041184932 0.09216996
-0.18916717 0.21942465 -0.017654115 -0.163962 -0.13467805 -0.012439643 0.07837954 -0.11960829
0.14263842 0.23980796 0.21019769 0.05223988 -0.05388868 -0.03100111 0.13617219 -0.012565511
0.006502822 0.24113095 -0.2551495 -0.021658394 -0.06978017 0.00018147692 -0.0075787148 -0.024441807
0.22262082 0.03782985 -0.11253157 0.22985199 -0.027720619 0.013057933 0.0022274032 -0.13764268
0.06367776 -0.091312736 -0.19311433 0.18352003 0.09151221 -0.03901047 -0.12896192 0.20050138
0.026910769 -0.11378908 -0.17713948 -0.04340842 -0.077205114 -0.0006659492 0.003452916 -0.22707811
0.058846626 0.061050046 -0.19710885 0.16256575 -0.031926543 0.06298249 0.22724225 0.08852888
0.11274491 -0.0035709771 0.006078261 -0.17725548 -0.12961799 0.16176458 -0.20118155 0.03871117
-0.0847352 0.18155801 0.13721956 -0.019000242 -0.011656764 -0.12942089 0.21350206 -0.09545951
0.024281925 0.12778154 -0.21946031 -0.2284343 -0.12366524 -0.0007525756 0.10173454 -0.02218706
-0.044408932 0.11397833 0.16292416 0.07276044 0.18988346 -0.19597317 -0.19744377 0.018170662
-0.17400885 -0.012317815 0.120115764 0.226892 -0.0061239474 -0.19608726 -0.050405756 0.22490685
-0.00040130253 -0.20638427 -0.06500119 -0.095461495 -0.004550794 -0.1304062 -0.021035971 0.20287393
-0.050777417 -0.0061243544 0.07755328 -0.20868085 -0.113091834 -0.005905347 0.1831545 0.011786552
0.0007888307 -0.055360697 0.09684098 -0.052412048 -0.018368224 -0.06587243 0.03231087 0.254181
-0.15660334 0.00053542596 -0.0021120834 -0.06702084 -0.13359313 -0.06274028 -0.18527234 0.1516227
-0.14977427 0.116335 0.17340319 -0.0260936 0.21300626 0.1318665 -0.123504005 0.08835987
0.0073433733 0.16201632 -0.15722778 0.15626419 0.0121479975 0.06491275 -0.08044377 0.1168656
-0.0051451884 0.1728833 0.0026302724 0.102458425 -0.09964197 -0.19446401 0.030089006 0.07135265
0.01419211 0.028568177 0.10968699 -0.06098123 0.11024547 0.06457031 -0.07123171 -0.10839603
-0.23387925 0.1521598 0.004811676 0.018857336 -0.13150692 -0.1446201 0.16908708 0.1319387
0.09729672 0.16583559 0.18356478 0.101105206 0.13671492 -0.0026172737 0.019813262 -0.1812891
-0.030173587 -0.013329035 -0.0019556766 0.23218961 0.16477874 0.0126811685 0.20669305 -0.05993307
0.0031825483 -0.15576282 -0.17790793 0.06905815 0.014975134 -0.003315426 -0.1043508 0.13268243
-0.0024850937 0.117806405 -0.1194307 0.14827283 0.0020049335 -0.020689942 -0.013120057 -0.15129282
-0.018218445 0.0055553312 -0.14315814 0.08969802 0.21117422 0.06629292 -0.05781582 -0.09656548
-0.15387096 -0.09545027 0.09332606 0.04577646 -0.02388261 0.0017083901 -0.00047720055 -0.0010461251
-0.24328391 0.17849423 -0.033088703 -0.18327302 0.00544247 0.028338512 0.062096197 -0.06186714
-0.0017591987 -0.14568129 -0.14269407 -0.11588248 -0.1239343 0.107982114 -0.2114196 -0.017574714
00000000: 2daf 373e 4453 f3bd 51b1 443e 8b99 fd3c
00000010: cc32 afbd b812 5abe cc5c 833d d44b bdbc
00000020: 0ae9 4d3d 942b 8d3d a18f fdbd afee ab3c
00000030: 747c e8bc 7950 4abe 8876 833c 06d6 783c
00000040: 5e04 18be 8b72 623e b152 a23d 28bf ba3d
00000050: afa5 3fbe b964 40be 88b1 283d 9bc3 bc3d
00000060: 0ab5 41be dbb0 603e 5d9f 90bc a8e5 27be
00000070: 0be9 09be a5cf 4bbc 7485 a03d 31f5 f4bd
00000080: ce0f 123e 3890 753e 103e 573e 7cf9 553d
00000090: 60ba 5cbd 0af6 fdbc b970 0b3e 93df 4dbc
000000a0: a015 d53b 08eb 763e f5a2 82be f26c b1bc
000000b0: e8e8 8ebd d74a 3e39 de56 f8bb 2f3a c8bc
000000c0: b6f6 633e 79f3 1a3d f476 e6bd 525e 6b3e
000000d0: 5a16 e3bc f1f0 553c a0f9 113b 34f2 0cbe
000000e0: 7c69 823d 2c02 bbbd c3bf 45be adec 3b3e
000000f0: c16a bb3d 71c9 1fbd 980e 04be 3c50 4d3e
00000100: f973 dc3c 400a e9bd 0d64 35be 07cd 31bd
00000110: b71d 9ebd 1893 2eba 514a 623b 2a87 68be
00000120: 2909 713d 9d0f 7a3d e7d6 49be a377 263e
00000130: 68c5 02bd f7fc 803d 31b2 683e a14e b53d
00000140: cee6 e63d 0e07 6abb 262c c73b 7682 35be
00000150: 94ba 04be 9da5 253e 8902 4ebe 9b8f 1e3d
00000160: a689 adbd 58ea 393e 4983 0c3e 65a6 9bbc
00000170: 03fc 3ebc e986 04be 49a0 5a3e 4780 c3bd
00000180: e3ea c63c 2ad9 023e 34ba 60be aeea 69be
00000190: 3444 fdbd 7e48 45ba 335a d03d a3c1 b5bc
000001a0: 24e6 35bd 786d e93d 97d5 263e 6d03 953d
000001b0: cf70 423e 31ad 48be b32e 4abe a4da 943c
000001c0: 602f 32be a9d0 49bc 41ff f53d 6056 683e
000001d0: 65ab c8bb 19cb 48be 4476 4ebd fb4d 663e
000001e0: ea65 d2b9 6656 53be 581f 85bd 5181 c3bd
000001f0: d41e 95bb 3489 05be a153 acbc 2fbe 4f3e
00000200: fbfb 4fbd cfae c8bb 41d4 9e3d 6fb0 55be
00000210: b19c e7bd a481 c1bb da8c 3b3e 621c 413c
00000220: 88c9 4e3a e6c1 62bd 9054 c63d 04ae 56bd
00000230: f578 96bc 20e8 86bd 6758 043d 0324 823e
00000240: a05c 20be d45b 0c3a e16a 0abb 3942 89bd
00000250: a3cc 08be fa7d 80bd 08b8 3dbe fb42 1b3e
00000260: 6d5e 19be 0b41 ee3d 9b90 313e 3fc2 d5bc
00000270: 501e 5a3e 0308 073e abef fcbd 05f6 b43d
00000280: aea0 f03b 9be7 253e 5200 21be b803 203e
00000290: 6508 473c faf0 843d b4bf a4bd 3b57 ef3d
000002a0: f898 a8bb 5208 313e a660 2c3b b9d5 d13d
000002b0: 1711 ccbd 9321 47be 387d f63c 5721 923d
000002c0: 0686 683c cf07 ea3c 93a3 e03d 74c7 79bd
000002d0: 61c8 e13d 703d 843d eee1 91bd bdfe ddbd
000002e0: 0b7e 6fbe c7cf 1b3e 44ab 9d3b b37a 9a3c
000002f0: c0a9 06be 4b17 14be 2a25 2d3e f01a 073e
00000300: 8143 c73d ced0 293e 68f8 3b3e 3f10 cf3d
00000310: fffe 0b3e 9186 2bbb 6c4f a23c daa3 39be
00000320: 992e f7bc 0662 5abc cf2a 00bb 1dc3 6d3e
00000330: c2bb 283e adc4 4f3c 58a7 533e 617c 75bd
00000340: 4d92 503b 4a80 1fbe 7f2d 36be 5c6e 8d3d
00000350: 445a 753c 9e47 59bb dfb5 d5bd e7dd 073e
00000360: f4dc 22bb 7c44 f13d 1598 f4bd d5d4 173e
00000370: 3465 033b f47d a9bc 82f5 56bc 81ec 1abe
00000380: d93e 95bc 7f09 b63b 0c98 12be 98b3 b73d
00000390: 0e3e 583e 95c4 873d 48d0 6cbd 1fc4 c5bd
000003a0: 5990 1dbe 6e7b c3bd bc21 bf3d 1980 3b3d
000003b0: 77a5 c3bc 0fec df3a c630 fab9 221e 89ba
000003c0: 6b1f 79be 31c7 363e 0588 07bd ecab 3bbe
000003d0: bf56 b23b 2b26 e83c 9558 7e3d 6668 7dbd
000003e0: ea94 e6ba 7a2d 15be 651e 12be cb53 edbd
000003f0: 44d1 fdbd ba25 dd3d 617e 58be d9f8 8fbc
