outputs/2025-03-23/17-09-27/outputs/model_epoch_30.pt (torch, 377354 bytes, 140 tensors)

naim.embeddings.0.embeddings.weight f4 [2, 6]
0.37120432 -0.49968743 -0.28615543 0.3111565 0.41615978 0.26851058 0.0 0.0
0.0 0.0 0.0 0.0
00000000: 7e0e be3e 08d7 ffbe f782 92be e84f 9f3e
00000010: e512 d53e 387a 893e 0000 0000 0000 0000
00000020: 0000 0000 0000 0000 0000 0000 0000 0000

naim.embeddings.1.embeddings.weight f4 [2, 6]
0.016492411 -0.04116908 -0.09593327 0.30123377 0.13629764 -0.042358674 0.0 0.0
0.0 0.0 0.0 0.0
00000000: 181b 873c e9a0 28bd aa78 c4bd 503b 9a3e
00000010: 9c91 0b3e 4a80 2dbd 0000 0000 0000 0000
00000020: 0000 0000 0000 0000 0000 0000 0000 0000

naim.embeddings.2.embeddings.weight f4 [2, 6]
0.62245315 0.034907017 -0.013494327 0.54092664 -0.2166197 0.31976232 0.0 0.0
0.0 0.0 0.0 0.0
00000000: 1759 1f3f a9fa 0e3d 4f17 5dbc 2b7a 0a3f
00000010: 8ed1 5dbe e3b7 a33e 0000 0000 0000 0000
00000020: 0000 0000 0000 0000 0000 0000 0000 0000

naim.embeddings.3.embeddings.weight f4 [2, 6]
0.59106696 -0.42628807 0.041231375 0.45588273 0.103960164 0.00896726 0.0 0.0
0.0 0.0 0.0 0.0
00000000: 2a50 173f 6e42 dabe 3be2 283d 7669 e93e
00000010: 11e9 d43d 6aeb 123c 0000 0000 0000 0000
00000020: 0000 0000 0000 0000 0000 0000 0000 0000

naim.embeddings.4.embeddings.weight f4 [2, 6]
-0.44339523 -0.24638587 -0.15874036 0.11486951 0.07906287 0.013197912 0.0 0.0
0.0 0.0 0.0 0.0
00000000: b304 e3be 944c 7cbe d58c 22be b540 eb3d
00000010: b7eb a13d 0e3c 583c 0000 0000 0000 0000
00000020: 0000 0000 0000 0000 0000 0000 0000 0000

naim.embeddings.5.embeddings.weight f4 [2, 6]
-0.3163289 0.028011205 0.5905025 0.3141986 -0.47393173 0.05697261 0.0 0.0
0.0 0.0 0.0 0.0
00000000: ddf5 a1be c177 e53c 2c2b 173f a4de a03e
00000010: 2ea7 f2be 1d5c 693d 0000 0000 0000 0000
00000020: 0000 0000 0000 0000 0000 0000 0000 0000

naim.embeddings.6.embeddings.weight f4 [2, 6]
-0.47507283 -0.075267896 -0.093938895 -0.23494342 0.12059106 0.6709438 0.0 0.0
0.0 0.0 0.0 0.0
00000000: bf3c f3be 0e26 9abd 0963 c0bd 0295 70be
00000010: 72f8 f63d f9c2 2b3f 0000 0000 0000 0000
00000020: 0000 0000 0000 0000 0000 0000 0000 0000

naim.embeddings.7.embeddings.weight f4 [2, 6]
-0.3709731 -0.006998228 0.091216765 -0.65688586 -0.045816522 0.5192098 0.0 0.0
0.0 0.0 0.0 0.0
00000000: 30f0 bdbe 6451 e5bb dbcf ba3d ac29 28bf
00000010: 1baa 3bbd efea 043f 0000 0000 0000 0000
00000020: 0000 0000 0000 0000 0000 0000 0000 0000

naim.embeddings.8.embeddings.weight f4 [2, 6]
0.54239744 -0.09938041 0.23830865 -0.5264042 -0.17770436 0.2091114 0.0 0.0
0.0 0.0 0.0 0.0
00000000: 8fda 0a3f f587 cbbd 2f07 743e 6dc2 06bf
00000010: 22f8 35be 4d21 563e 0000 0000 0000 0000
00000020: 0000 0000 0000 0000 0000 0000 0000 0000

naim.embeddings.9.embeddings.weight f4 [2, 6]
0.37511528 -0.20851204 0.0574353 -0.36310473 -0.5453958 -0.0008034745 0.0 0.0
0.0 0.0 0.0 0.0
00000000: 1c0f c03e 2e84 55be 4741 6b3d dde8 b9be
00000010: 0f9f 0bbf 43a0 52ba 0000 0000 0000 0000
00000020: 0000 0000 0000 0000 0000 0000 0000 0000

naim.embeddings.10.embeddings.weight f4 [2, 6]
0.12176313 0.09851284 0.19828282 0.20528153 0.010634666 0.41603205 0.0 0.0
0.0 0.0 0.0 0.0
00000000: f35e f93d 1ac1 c93d a70a 4b3e 5235 523e
00000010: 063d 2e3c 2702 d53e 0000 0000 0000 0000
00000020: 0000 0000 0000 0000 0000 0000 0000 0000

naim.embeddings.11.embeddings.weight f4 [2, 6]
0.15017565 -0.09766891 -0.46031713 -0.4651312 -0.027113484 -0.2618309 0.0 0.0
0.0 0.0 0.0 0.0
00000000: a5c7 193e a306 c8bd b0ae ebbe ad25 eebe
00000010: 191d debc b30e 86be 0000 0000 0000 0000
00000020: 0000 0000 0000 0000 0000 0000 0000 0000

naim.embeddings.12.embeddings.weight f4 [2, 6]
0.16214418 -0.2261616 0.07412583 0.40143985 0.44686735 0.105884634 0.0 0.0
0.0 0.0 0.0 0.0
00000000: 2009 263e e896 67be 48cf 973d 8689 cd3e
00000010: cccb e43e 0bda d83d 0000 0000 0000 0000
00000020: 0000 0000 0000 0000 0000 0000 0000 0000

naim.embeddings.13.embeddings.weight f4 [2, 6]
-0.198965 -0.061305333 -0.23777649 0.56977606 -0.13426505 0.2677443 0.0 0.0
0.0 0.0 0.0 0.0
00000000: 7bbd 4bbe 4d1b 7bbd ae7b 73be d8dc 113f
00000010: c77c 09be c815 893e 0000 0000 0000 0000
00000020: 0000 0000 0000 0000 0000 0000 0000 0000

naim.embeddings.14.embeddings.weight f4 [2, 6]
0.17530136 0.60157824 -0.12982367 0.07988085 0.5691901 0.01043257 0.0 0.0
0.0 0.0 0.0 0.0
00000000: 3382 333e 0801 1a3f 7ff0 04be 9298 a33d
00000010: 71b6 113f 5fed 2a3c 0000 0000 0000 0000
00000020: 0000 0000 0000 0000 0000 0000 0000 0000

naim.embeddings.15.embeddings.weight f4 [2, 6]
-0.55913186 0.2964346 0.07166011 -0.27227294 -0.16371925 0.4800032 0.0 0.0
0.0 0.0 0.0 0.0
00000000: 4423 0fbf 47c6 973e 89c2 923d 5c67 8bbe
00000010: 05a6 27be fbc2 f53e 0000 0000 0000 0000
00000020: 0000 0000 0000 0000 0000 0000 0000 0000

naim.embeddings.16.embeddings.weight f4 [2, 6]
0.48513964 0.08319727 0.07094829 -0.29601988 0.12645169 0.38154244 0.0 0.0
0.0 0.0 0.0 0.0
00000000: 3964 f83e 5563 aa3d 564d 913d eb8f 97be
00000010: 8d7c 013e 8859 c33e 0000 0000 0000 0000
00000020: 0000 0000 0000 0000 0000 0000 0000 0000

naim.embeddings.17.embeddings.weight f4 [2, 6]
0.098978944 0.15705527 0.12392196 -0.433162 0.23046166 -0.26084325 0.0 0.0
0.0 0.0 0.0 0.0
00000000: 79b5 ca3d 19d3 203e ccca fd3d 69c7 ddbe
00000010: 24fe 6b3e 3f8d 85be 0000 0000 0000 0000
00000020: 0000 0000 0000 0000 0000 0000 0000 0000

naim.embeddings.18.embeddings.weight f4 [2, 6]
-0.49028054 -0.39463452 -0.24119344 0.4838457 -0.02368419 -0.016394844 0.0 0.0
0.0 0.0 0.0 0.0
00000000: 0d06 fbbe 890d cabe 6afb 76be a0ba f73e
00000010: 5905 c2bc 7b4e 86bc 0000 0000 0000 0000
00000020: 0000 0000 0000 0000 0000 0000 0000 0000

naim.embeddings.19.embeddings.weight f4 [2, 6]
0.46344 -0.21497297 0.2601968 -0.20262964 -0.091554455 0.07808275 0.0 0.0
0.0 0.0 0.0 0.0
00000000: 0248 ed3e e021 5cbe 8438 853e 257e 4fbe
00000010: e780 bbbd d9e9 9f3d 0000 0000 0000 0000
00000020: 0000 0000 0000 0000 0000 0000 0000 0000

naim.embeddings.20.embeddings.weight f4 [2, 6]
0.26755196 0.13090913 -0.30373502 -0.46652332 -0.11443602 0.22799258 0.0 0.0
0.0 0.0 0.0 0.0
00000000: 92fc 883e 0b0d 063e 2883 9bbe 25dc eebe
00000010: 6f5d eabd e376 693e 0000 0000 0000 0000
00000020: 0000 0000 0000 0000 0000 0000 0000 0000

naim.embeddings.21.embeddings.weight f4 [2, 6]
0.07019672 0.01521117 0.11193965 -0.06482321 0.029589787 -0.13077694 0.0 0.0
0.0 0.0 0.0 0.0
00000000: 4cc3 8f3d 4538 793c 9d40 e53d 08c2 84bd
00000010: 4866 f23c 64ea 05be 0000 0000 0000 0000
00000020: 0000 0000 0000 0000 0000 0000 0000 0000

naim.embeddings.22.embeddings.weight f4 [2, 6]
0.3211234 -0.20285125 -0.037901554 0.5091379 0.36598074 -0.16701756 0.0 0.0
0.0 0.0 0.0 0.0
00000000: 496a a43e 3db8 4fbe a93e 1bbd dd56 023f
00000010: d461 bb3e a706 2bbe 0000 0000 0000 0000
00000020: 0000 0000 0000 0000 0000 0000 0000 0000

naim.embeddings.23.embeddings.weight f4 [2, 6]
0.18803668 -0.0010882234 -0.29047802 0.74641657 -0.03640769 -0.22310555 0.0 0.0
0.0 0.0 0.0 0.0
00000000: b08c 403e b8a2 8eba 89b9 94be 2815 3f3f
00000010: 3b20 15bd c875 64be 0000 0000 0000 0000
00000020: 0000 0000 0000 0000 0000 0000 0000 0000

naim.embeddings.24.embeddings.weight f4 [2, 6]
0.008334455 0.12286478 -0.157003 0.33860046 -0.7643644 0.05002957 0.0 0.0
0.0 0.0 0.0 0.0
00000000: 3d8d 083c 88a0 fb3d 65c5 20be 0a5d ad3e
00000010: 63ad 43bf ceeb 4c3d 0000 0000 0000 0000
00000020: 0000 0000 0000 0000 0000 0000 0000 0000

naim.embeddings.25.embeddings.weight f4 [2, 6]
0.35736844 -0.1195248 0.6887382 0.45230833 0.08796334 0.050542094 0.0 0.0
0.0 0.0 0.0 0.0
00000000: fff8 b63e 6bc9 f4bd 2651 303f f594 e73e
00000010: 2026 b43d 3a05 4f3d 0000 0000 0000 0000
00000020: 0000 0000 0000 0000 0000 0000 0000 0000

naim.embeddings.26.embeddings.weight f4 [2, 6]
0.20853484 -0.4128725 -0.44726825 0.25093052 0.3626303 0.27467114 0.0 0.0
0.0 0.0 0.0 0.0
00000000: 288a 553e 0664 d3be 5800 e5be f779 803e
00000010: aeaa b93e b2a1 8c3e 0000 0000 0000 0000
00000020: 0000 0000 0000 0000 0000 0000 0000 0000

naim.embeddings.27.embeddings.weight f4 [2, 6]
-0.08559487 0.30046293 -0.43352142 -0.4896301 -0.0746554 0.016780822 0.0 0.0
0.0 0.0 0.0 0.0
00000000: 5d4c afbd 47d6 993e 85f6 ddbe ccb0 fabe
00000010: eee4 98bd ef77 893c 0000 0000 0000 0000
00000020: 0000 0000 0000 0000 0000 0000 0000 0000

naim.embeddings.28.embeddings.weight f4 [2, 6]
-0.18145394 0.2176914 -0.17151397 -0.34074122 0.13815238 -0.10208892 0.0 0.0
0.0 0.0 0.0 0.0
00000000: 10cf 39be 7fea 5e3e 5ca1 2fbe a275 aebe
00000010: d177 0d3e ff13 d1bd 0000 0000 0000 0000
00000020: 0000 0000 0000 0000 0000 0000 0000 0000

naim.embeddings.29.embeddings.weight f4 [2, 6]
-0.45285136 -0.017339202 0.56785333 -0.14721376 0.03976614 -0.27851412 0.0 0.0
0.0 0.0 0.0 0.0
00000000: 22dc e7be f10a 8ebc d65e 113f 34bf 16be
00000010: d2e1 223d 6799 8ebe 0000 0000 0000 0000
00000020: 0000 0000 0000 0000 0000 0000 0000 0000

naim.embeddings.30.embeddings.weight f4 [2, 6]
-0.11486344 0.20004974 0.26433793 -0.26440072 -0.027423041 -0.31029832 0.0 0.0
0.0 0.0 0.0 0.0
00000000: 863d ebbd d7d9 4c3e 4d57 873e 885f 87be
00000010: 49a6 e0bc 6cdf 9ebe 0000 0000 0000 0000
00000020: 0000 0000 0000 0000 0000 0000 0000 0000

naim.embeddings.31.embeddings.weight f4 [2, 6]
0.31265354 -0.18045782 -0.009749451 -0.09438342 -0.1962422 -0.2519544 0.0 0.0
0.0 0.0 0.0 0.0
00000000: 2014 a03e efc9 38be 29bc 1fbc 184c c1bd
00000010: b7f3 48be 2b00 81be 0000 0000 0000 0000
00000020: 0000 0000 0000 0000 0000 0000 0000 0000

naim.embeddings.32.embeddings.weight f4 [2, 6]
0.10317021 0.27792776 -0.31329566 -0.6929234 0.24721989 -0.15637578 0.0 0.0
0.0 0.0 0.0 0.0
00000000: e74a d33d 8c4c 8e3e 4a68 a0be 6e63 31bf
00000010: 3627 7d3e f920 20be 0000 0000 0000 0000
00000020: 0000 0000 0000 0000 0000 0000 0000 0000

naim.embeddings.33.embeddings.weight f4 [2, 6]
-0.12371652 -0.086754605 -0.31740695 -0.23007289 -0.251878 0.63611925 0.0 0.0
0.0 0.0 0.0 0.0
00000000: 165f fdbd 66ac b1bd 2a83 a2be 3a98 6bbe
00000010: 27f6 80be b6d8 223f 0000 0000 0000 0000
00000020: 0000 0000 0000 0000 0000 0000 0000 0000

naim.embeddings.34.embeddings.weight f4 [2, 6]
-0.17535457 0.06352042 0.46554938 -0.030371431 -0.2367502 0.05685049 0.0 0.0
0.0 0.0 0.0 0.0
00000000: 2690 33be fe16 823d 7d5c ee3e 82cd f8bc
00000010: a56e 72be 0fdc 683d 0000 0000 0000 0000
00000020: 0000 0000 0000 0000 0000 0000 0000 0000

naim.embeddings.35.embeddings.weight f4 [2, 6]
0.1526134 -0.107629396 0.26773262 0.30198783 0.336374 -0.46255556 0.0 0.0
0.0 0.0 0.0 0.0
00000000: b046 1c3e cd6c dcbd 4014 893e 269e 9a3e
00000010: 3739 ac3e 15d4 ecbe 0000 0000 0000 0000
00000020: 0000 0000 0000 0000 0000 0000 0000 0000

naim.embeddings.36.embeddings.weight f4 [2, 6]
-0.109617665 0.33795825 -0.45683253 -0.02729923 -0.028132746 0.11419079 0.0 0.0
0.0 0.0 0.0 0.0
00000000: 3a7f e0bd dd08 ad3e f4e5 e9be a3a2 dfbc
00000010: a576 e6bc dcdc e93d 0000 0000 0000 0000
00000020: 0000 0000 0000 0000 0000 0000 0000 0000

naim.embeddings.37.embeddings.weight f4 [2, 6]
-0.0036910335 -0.32681832 -0.10436676 -0.068997845 0.23055202 0.10560326 0.0 0.0
0.0 0.0 0.0 0.0
00000000: 44e5 71bb bb54 a7be 3dbe d5bd be4e 8dbd
00000010: d415 6c3e 8646 d83d 0000 0000 0000 0000
00000020: 0000 0000 0000 0000 0000 0000 0000 0000

naim.embeddings.38.embeddings.weight f4 [2, 6]
0.037940294 -0.05663373 0.022029176 0.27526256 -0.10056783 0.12647088 0.0 0.0
0.0 0.0 0.0 0.0
00000000: 4867 1b3d c5f8 67bd 8876 b43c 37ef 8c3e
00000010: 82f6 cdbd 9581 013e 0000 0000 0000 0000
00000020: 0000 0000 0000 0000 0000 0000 0000 0000

naim.embeddings.39.embeddings.weight f4 [2, 6]
-0.014655667 -0.21920013 0.438486 -0.5559938 0.16938739 0.3101063 0.0 0.0
0.0 0.0 0.0 0.0
00000000: 531e 70bc 0076 60be 3d81 e03e 9c55 0ebf
00000010: e373 2d3e 41c6 9e3e 0000 0000 0000 0000
00000020: 0000 0000 0000 0000 0000 0000 0000 0000

naim.embeddings.40.embeddings.weight f4 [2, 6]
-0.06306196 0.1993021 0.1148542 -0.14610821 -0.047321197 -0.29589623 0.0 0.0
0.0 0.0 0.0 0.0
00000000: a126 81bd da15 4c3e ae38 eb3d 649d 15be
00000010: dfd3 41bd b67f 97be 0000 0000 0000 0000
00000020: 0000 0000 0000 0000 0000 0000 0000 0000

naim.embeddings.41.embeddings.weight f4 [2, 6]
-0.08546798 -0.14983998 0.27102816 0.14852186 0.32494405 0.5115128 0.0 0.0
0.0 0.0 0.0 0.0
00000000: d609 afbd a76f 19be 34c4 8a3e 1d16 183e
00000010: 115f a63e 81f2 023f 0000 0000 0000 0000
00000020: 0000 0000 0000 0000 0000 0000 0000 0000

naim.embeddings.42.embeddings.weight f4 [2, 6]
-0.23786078 0.6496637 0.19328018 0.33349338 0.060763896 -0.15368392 0.0 0.0
0.0 0.0 0.0 0.0
00000000: c791 73be 5c50 263f 3deb 453e a5bf aa3e
00000010: 90e3 783d 515f 1dbe 0000 0000 0000 0000
00000020: 0000 0000 0000 0000 0000 0000 0000 0000

naim.embeddings.43.embeddings.weight f4 [2, 6]
-0.17131674 0.00824695 0.5861807 0.40990666 0.29357612 -0.07652164 0.0 0.0
0.0 0.0 0.0 0.0
00000000: a86d 2fbe 371e 073c f00f 163f 49df d13e
00000010: 9c4f 963e 61b7 9cbd 0000 0000 0000 0000
00000020: 0000 0000 0000 0000 0000 0000 0000 0000

naim.embeddings.44.embeddings.weight f4 [2, 6]
-0.033548705 0.24260893 0.17546028 -0.3203763 0.1191669 0.48777488 0.0 0.0
0.0 0.0 0.0 0.0
00000000: 5e6a 09bd 7a6e 783e dcab 333e 5d08 a4be
00000010: c70d f43d a1bd f93e 0000 0000 0000 0000
00000020: 0000 0000 0000 0000 0000 0000 0000 0000

naim.embeddings.45.embeddings.weight f4 [2, 6]
-0.38426644 -0.5400953 -0.203014 0.15463763 -0.37730756 -0.19969735 0.0 0.0
0.0 0.0 0.0 0.0
00000000: 92be c4be b043 0abf e7e2 4fbe 5459 1e3e
00000010: 752e c1be 767d 4cbe 0000 0000 0000 0000
00000020: 0000 0000 0000 0000 0000 0000 0000 0000

naim.embeddings.46.embeddings.weight f4 [2, 6]
-0.04546564 0.09113493 0.3022803 -0.102876954 0.13780305 0.19107723 0.0 0.0
0.0 0.0 0.0 0.0
00000000: 2e3a 3abd f3a4 ba3d 7cc4 9a3e 27b1 d2bd
00000010: 3e1c 0d3e c0a9 433e 0000 0000 0000 0000
00000020: 0000 0000 0000 0000 0000 0000 0000 0000

naim.embeddings.47.embeddings.weight f4 [2, 6]
0.23774758 -0.08731147 -0.4438298 -0.2142815 0.23195268 -0.25039104 0.0 0.0
0.0 0.0 0.0 0.0
00000000: 1a74 733e 5bd0 b2bd a93d e3be 9c6c 5bbe
00000010: 0185 6d3e 4133 80be 0000 0000 0000 0000
00000020: 0000 0000 0000 0000 0000 0000 0000 0000

naim.embeddings.48.embeddings.weight f4 [2, 6]
0.028674178 0.23645078 0.07637661 0.31235883 0.6705233 0.362924 0.0 0.0
0.0 0.0 0.0 0.0
00000000: 1ce6 ea3c 2720 723e 576b 9c3d 7fed 9f3e
00000010: 6aa7 2b3f 2dd1 b93e 0000 0000 0000 0000
00000020: 0000 0000 0000 0000 0000 0000 0000 0000

naim.embeddings.49.embeddings.weight f4 [2, 6]
-0.22121559 0.22321787 0.26640344 -0.110139094 -0.32826668 0.40083516 0.0 0.0
0.0 0.0 0.0 0.0
00000000: 5786 62be 3a93 643e 0866 883e 9b90 e1bd
00000010: 9212 a8be 443a cd3e 0000 0000 0000 0000
00000020: 0000 0000 0000 0000 0000 0000 0000 0000

naim.embeddings.50.embeddings.weight f4 [2, 6]
0.46111068 0.3379244 -0.106697164 -0.17004918 -0.09971592 -0.5134096 0.0 0.0
0.0 0.0 0.0 0.0
00000000: b316 ec3e 6d04 ad3e 0b84 dabd 5f21 2ebe
00000010: dc37 ccbd d06e 03bf 0000 0000 0000 0000
00000020: 0000 0000 0000 0000 0000 0000 0000 0000

naim.embeddings.51.embeddings.weight f4 [2, 6]
0.031006658 0.14045013 0.46618226 -0.58935875 0.29080576 -0.11790052 0.0 0.0
0.0 0.0 0.0 0.0
00000000: ad01 fe3c 29d2 0f3e 71af ee3e 37e0 16bf
00000010: 7ee4 943e d475 f1bd 0000 0000 0000 0000
00000020: 0000 0000 0000 0000 0000 0000 0000 0000

naim.embeddings.52.embeddings.weight f4 [2, 6]
0.24986753 -0.2142662 -0.23417933 -0.1972618 0.04745749 -0.33112857 0.0 0.0
0.0 0.0 0.0 0.0
00000000: 46dd 7f3e 9968 5bbe b5cc 6fbe fffe 49be
00000010: c962 423d af89 a9be 0000 0000 0000 0000
00000020: 0000 0000 0000 0000 0000 0000 0000 0000

naim.embeddings.53.embeddings.weight f4 [2, 6]
-0.25369737 -0.13644807 0.14222713 -0.050115563 0.82799876 0.0014464015 0.0 0.0
0.0 0.0 0.0 0.0
00000000: 9fe4 81be 0bb9 0bbe fda3 113e fa45 4dbd
00000010: baf7 533f 2e95 bd3a 0000 0000 0000 0000
00000020: 0000 0000 0000 0000 0000 0000 0000 0000

naim.embeddings.54.embeddings.weight f4 [2, 6]
0.17770103 0.44711563 0.353038 0.17599173 -0.53190553 0.098880745 0.0 0.0
0.0 0.0 0.0 0.0
00000000: 42f7 353e 57ec e43e 66c1 b43e 2d37 343e
00000010: f62a 08bf fd81 ca3d 0000 0000 0000 0000
00000020: 0000 0000 0000 0000 0000 0000 0000 0000

naim.embeddings.55.embeddings.weight f4 [2, 6]
0.32433754 -0.266537 -0.5318032 0.5335529 -0.074660175 -0.15568234 0.0 0.0
0.0 0.0 0.0 0.0
00000000: 920f a63e 8a77 88be 4124 08bf ec96 083f
00000010: 6fe7 98bd 316b 1fbe 0000 0000 0000 0000
00000020: 0000 0000 0000 0000 0000 0000 0000 0000

naim.embeddings.56.embeddings.weight f4 [2, 6]
-0.35587618 -0.41161743 0.16841176 -0.07343113 -0.36361668 -0.046289254 0.0 0.0
0.0 0.0 0.0 0.0
00000000: 6735 b6be 85bf d2be 2274 2c3e 0f63 96bd
00000010: f72b babe cd99 3dbd 0000 0000 0000 0000
00000020: 0000 0000 0000 0000 0000 0000 0000 0000

naim.embeddings.57.embeddings.weight f4 [2, 6]
0.4151324 -0.26666275 -0.19832435 0.27040133 0.6493414 -0.0037093654 0.0 0.0
0.0 0.0 0.0 0.0
00000000: 3c8c d43e 0588 88be 8a15 4bbe 0b72 8a3e
00000010: 3d3b 263f d318 73bb 0000 0000 0000 0000
00000020: 0000 0000 0000 0000 0000 0000 0000 0000

naim.embeddings.58.embeddings.weight f4 [2, 6]
-0.11549816 0.039659843 0.033332407 -0.038386546 0.07623485 -0.23690356 0.0 0.0
0.0 0.0 0.0 0.0
00000000: 4d8a ecbd 5c72 223d 9087 083d 363b 1dbd
00000010: 0421 9c3d d996 72be 0000 0000 0000 0000
00000020: 0000 0000 0000 0000 0000 0000 0000 0000

naim.embeddings.59.embeddings.weight f4 [2, 6]
0.29452458 -0.15008937 -0.22034004 0.6427259 0.2288382 0.36916247 0.0 0.0
0.0 0.0 0.0 0.0
00000000: edcb 963e 07b1 19be d2a0 61be af89 243f
00000010: 9054 6a3e dd02 bd3e 0000 0000 0000 0000
00000020: 0000 0000 0000 0000 0000 0000 0000 0000

naim.embeddings.60.embeddings.weight f4 [2, 6]
-0.4542854 -0.030341528 0.044264358 0.44893783 0.21854863 0.3241495 0.0 0.0
0.0 0.0 0.0 0.0
00000000: 1998 e8be cc8e f8bc 8b4e 353d 2edb e53e
00000010: 36cb 5f3e ecf6 a53e 0000 0000 0000 0000
00000020: 0000 0000 0000 0000 0000 0000 0000 0000

naim.embeddings.61.embeddings.weight f4 [2, 6]
-0.22247 0.06362652 0.12049485 -0.06793072 0.18969823 -0.11218761 0.0 0.0
0.0 0.0 0.0 0.0
00000000: 2dcf 63be 9f4e 823d 01c6 f63d 431f 8bbd
00000010: 4140 423e 9ec2 e5bd 0000 0000 0000 0000
00000020: 0000 0000 0000 0000 0000 0000 0000 0000

naim.embeddings.62.embeddings.weight f4 [2, 6]
0.26372936 0.13245735 -0.6498592 -0.06543857 -0.33625343 -0.43426245 0.0 0.0
0.0 0.0 0.0 0.0
00000000: 8907 873e e6a2 073e 2c5d 26bf a804 86bd
00000010: 6929 acbe a657 debe 0000 0000 0000 0000
00000020: 0000 0000 0000 0000 0000 0000 0000 0000

naim.embeddings.63.embeddings.weight f4 [2, 6]
0.69278693 0.27410218 -0.25705114 0.15637441 -0.1874186 -0.169108 0.0 0.0
0.0 0.0 0.0 0.0
00000000: 7c5a 313f 1f57 8c3e 359c 83be 9d20 203e
00000010: a9ea 3fbe a62a 2dbe 0000 0000 0000 0000
00000020: 0000 0000 0000 0000 0000 0000 0000 0000

naim.encoder.0.layer_norm_1.weight f4 [6]
0.9117791 0.88735443 0.91298956 0.9863199 0.91258687 0.9086616
00000000: 5b6a 693f a929 633f afb9 693f 767f 7c3f
00000010: 4b9f 693f 0c9e 683f

naim.encoder.0.layer_norm_1.bias f4 [6]
0.011133527 -0.0090191 0.014165449 -0.010903715 0.011332877 -0.00944824
00000000: 6669 363c d9c4 13bc 3316 683c 7fa5 32bc
00000010: 88ad 393c cacc 1abc

naim.encoder.0.attn.linear_q.weight f4 [6, 6]
-0.050882287 0.014091823 -0.06641671 -0.30270407 -0.006610052 0.10910244 -0.020697208 -0.10876605
0.012074854 0.038478512 -0.0305544 -0.2439185 -0.1132541 -0.002268812 0.0508946 0.25191674
0.0016889863 0.04939518 0.12934346 -0.08829057 -0.05124483 0.1665501 0.1938208 0.026061745
-0.20743766 0.13148327 -0.2290653 0.10891156 -0.00019303609 0.050092798 -0.30362022 -0.050509326
0.124486774 0.22050108 -0.03418738 0.26545885
00000000: f269 50bd 64e1 663c 7c05 88bd 07fc 9abe
00000010: 2399 d8bb 1a71 df3d 318d a9bc bcc0 debd
00000020: 9cd5 453c a59b 1d3d 394d fabc c5c5 79be
00000030: c4f1 e7bd 59b0 14bb db76 503d 3bfb 803e
00000040: fa60 dd3a 9a52 4a3d 9d72 043e b0d1 b4bd
00000050: 19e6 51bd 1c8c 2a3e f678 463e 717f d53c
00000060: 8a6a 54be 8da3 063e 1890 6abe 060d df3d
00000070: bb69 4ab9 1b2e 4d3d 1c74 9bbe dee2 4ebd
00000080: ecf2 fe3d 09cb 613e 1108 0cbd 39ea 873e

naim.encoder.0.attn.linear_k.weight f4 [6, 6]
-0.04325547 -0.16017595 -0.09761681 -0.0029210553 -0.04228374 0.117384404 -0.11999932 -0.053908613
-0.29811898 0.23339671 -0.024744106 -0.2142252 -0.004262486 -0.00025021 0.026905127 0.0038267705
0.14852403 -0.044991486 -0.04009787 -0.024714466 0.0061520645 0.22176017 -0.001813805 0.20701453
0.21204412 -0.11068713 -0.0034812095 -0.101540335 0.07448493 -0.05124844 0.08614053 0.0011553441
-0.18069236 -0.22488327 -0.2994462 -0.13676827
00000000: a62c 31bd 2a05 24be 52eb c7bd 2d6f 3fbb
00000010: b731 2dbd 3c67 f03d 34c2 f5bd 47cf 5cbd
00000020: 0da3 98be 8cff 6e3e 27b4 cabc da5d 5bbe
00000030: 53ac 8bbb 9e2e 83b9 2468 dc3c 8eca 7a3b
00000040: af16 183e fe48 38bd aa3d 24bd fe75 cabc
00000050: 4297 c93b 1915 633e 32bd edba 9efb 533e
00000060: 1822 593e efaf e2bd 0125 64bb 61f4 cfbd
00000070: 8e8b 983d e2e9 51bd 726a b03d ea6e 973a
00000080: 6b07 39be cd47 66be 0351 99be fb0c 0cbe

naim.encoder.0.attn.linear_v.weight f4 [6, 6]
0.11729096 0.03749602 0.30601576 -0.36399457 -0.020828463 -0.33345634 0.0026032368 0.10917971
-0.34477276 0.34516376 -0.050459854 0.32035527 -0.0466258 0.14983465 0.3493954 -0.123369694
-0.093655854 0.18583795 -0.30590498 0.16923787 -0.21784157 0.35739988 -0.22715287 -0.14671016
0.27809554 -0.1781516 0.2492851 0.260226 0.33460793 -0.36048642 0.011203525 -0.10673279
0.10166335 -0.31844816 0.1681001 0.014212764
00000000: 3e36 f03d 6d95 193d 19ae 9c3e 7f5d babe
00000010: 74a0 aabc caba aabe 119b 2a3b 9d99 df3d
00000020: 0e86 b0be 4eb9 b03e feae 4ebd 9b05 a43e
00000030: b2fa 3ebd 416e 193e f4e3 b23e 40a9 fcbd
00000040: a4ce bfbd 4e4c 3e3e 949f 9cbe b14c 2d3e
00000050: dc11 5fbe 1efd b63e c39a 68be 303b 16be
00000060: 8a62 8e3e 5f6d 36be 9844 7f3e 583c 853e
00000070: bb51 ab3e ad91 b8be fd8e 373c b996 dabd
00000080: e034 d03d a30b a3be 6f22 2c3e a7dc 683c

naim.encoder.0.attn.linear_o.weight f4 [6, 6]
-0.092252225 -0.25636795 0.10899509 -0.05342542 0.19157572 0.0056918464 0.033595987 -0.0018069743
-0.00094970036 -0.044636868 -0.2422543 0.14939532 -0.25456354 0.21919234 -0.14149642 0.23284955
0.33499128 -0.24742068 0.34447196 0.027653031 -0.29034126 0.1805894 0.23187338 0.36686167
-0.36213064 0.34774247 0.29132217 0.37368447 0.21753539 -0.17979172 0.3074156 0.3782088
-0.14153956 -0.048710693 0.3218088 0.32457456
00000000: bcee bcbd a942 83be d138 df3d 9dd4 5abd
00000010: 6d2c 443e ab82 ba3b f29b 093d ffd7 ecba
00000020: 50f5 78ba 26d5 36bd 8311 78be 16fb 183e
00000030: 2756 82be f573 603e 70e4 10be 1d70 6e3e
00000040: fa83 ab3e d95b 7dbe a15e b03e 9c88 e23c
00000050: 9ca7 94be 6dec 383e 3770 6d3e 4bd5 bb3e
00000060: 3069 b9be 4d0b b23e 2e28 953e 9253 bf3e
00000070: 99c1 5e3e 521b 38be 9465 9d3e 95a4 c13e
00000080: bfef 10be dd84 47bd 1fc4 a43e a32e a63e

naim.encoder.0.layer_norm_2.weight f4 [6]
0.9760521 0.9421694 0.9716386 0.9800546 0.93661445 0.9783782
00000000: 8dde 793f 0432 713f 4fbd 783f dce4 7a3f
00000010: f7c5 6f3f fe76 7a3f

naim.encoder.0.layer_norm_2.bias f4 [6]
-0.0035478103 0.008043163 -0.006699323 0.0010140425 0.0011325557 0.0027265195
00000000: 6182 68bb 79c7 033c ff85 dbbb 9fe9 843a
00000010: 4372 943a 68af 323b

naim.encoder.0.ff.0.weight f4 [1000, 6]
0.1704278 0.20798166 -0.11677669 -0.022467833 -0.067764 0.114795126 0.049804043 -0.20780632
-0.012618969 -0.23115994 -0.27379075 0.26713783 -0.12686113 0.097530395 -0.034866203 -0.034343224
0.012241912 0.22146352 -0.0058209957 0.22675568 0.13399015 0.17184575 -0.25883937 -0.08616284
-0.24618082 -0.04477943 -0.040729865 0.0458075 0.26266873 0.11988782 -0.19318756 -0.15925409
0.21075165 0.013831855 0.043442614 -0.1385781 -0.013938376 0.050639108 -0.1694916 0.16011454
0.11633537 -0.140538 -0.07400446 -0.03886526 0.011016619 -0.054756027 0.28404588 -0.2828711
-0.15607911 -0.1537954 0.057830065 0.019639459 -0.051411718 0.2574061 -0.24411955 0.050314713
-0.12786257 -0.011654513 -0.2822021 -0.19305472 -0.23731525 0.080527835 -0.06448307 0.11563964
-0.11714156 -0.03168541 0.02363426 0.2348084 -0.05740355 0.14714617 0.044723004 0.16358209
0.17766112 0.0969827 -0.04924627 -0.05690817 0.07792526 0.12608542 0.0003375013 0.104500294
-0.14420976 0.12708108 -0.0025570432 -0.17318876 -0.09795017 -0.20439002 0.013910236 -0.13548921
-0.03354793 0.006274426 -0.1560164 0.000744691 -0.018633293 0.0584161 0.18810162 -0.14598277
0.12332011 -0.008498994 -0.13835615 -0.08814359 0.041535877 0.025913265 -0.0032633136 -0.11247813
0.1157892 0.007921945 -0.28865138 -0.016224029 -0.033533733 -0.08948366 -0.12322217 -0.22081687
0.29209554 -0.26599595 0.2689828 -0.22542301 -0.052100036 -0.08144469 -0.12770544 0.070019364
0.13958056 -0.16596113 -0.09795962 0.11131743 -0.018744178 0.026126964 0.11192937 -0.060983703
-0.123976246 0.057375304 -0.057903707 -0.16397351 -0.1216119 -0.107205056 0.30198914 0.031923234
0.08854937 0.019398103 -0.16910197 0.18608359 -0.005845251 -0.02215828 0.22467002 -0.10520627
0.040599044 -0.2470114 0.13642018 0.097867385 -0.22748336 0.14439145 0.028943967 -0.12394569
0.257481 0.10927363 0.07181182 -0.09227338 -0.15638296 -0.13947994 0.09892689 0.06295003
-0.15571438 0.28239667 0.15052275 -0.07637738 0.12086232 -0.08631131 0.049284175 0.23767525
-0.2522521 -0.10534225 -0.0025836956 0.0127389 -0.22567874 -0.16148587 -0.015050223 -0.024181863
0.046046387 0.02773823 0.030829975 0.0070209736 0.008693194 -0.00202944 0.06343645 0.17260247
-0.10479267 -0.111805156 0.12319679 -0.19851498 0.19019367 0.11556296 0.030067857 -0.11199474
0.0020760377 -0.21522869 -0.25892705 0.27530625 -0.25807846 -0.22759737 -0.08943883 0.008570979
0.041688316 -0.11787945 -0.005283687 -0.04333476 0.23839305 0.24722067 0.08523886 0.00039024427
0.2003427 -0.2205072 0.07227864 -0.13299909 0.20961884 -0.24989717 0.05547132 -0.22526938
0.15439866 0.020816121 0.24908309 -0.20991018 0.16087145 -0.17961846 -0.13345073 0.06966716
-0.031703882 -0.22104688 -0.2386451 -0.05050639 0.030699704 0.24659306 0.19347133 -5.5938817e-05
-0.14293976 -0.2531699 0.257863 -0.13066946 -0.017020106 -0.22039917 -0.17930554 0.02181894
-0.019584319 0.00023119249 -1.6174015e-09 3.8557173e-06 -0.008384257 1.6491605e-08 0.08792804 0.18923116
0.23702362 -0.22303443 -0.2355479 -0.025097722 -0.018487519 0.14037411 0.29731718 0.060682874
00000000: a084 2e3e 25f9 543e 9e28 efbd 760e b8bc
00000010: dac7 8abd b519 eb3d 53ff 4b3d 2ecb 54be
00000020: cbbf 4ebc 31b5 6cbe 4d2e 8cbe 4ac6 883e
00000030: e2e7 01be 04be c73d ddcf 0ebd 7bab 0cbd
00000040: 4d92 483c 55c7 623e 0dbe bebb a432 683e
00000050: b734 093e 55f8 2f3e 9886 84be 2576 b0bd
00000060: d316 7cbe a36a 37bd 5cd4 26bd a5a0 3b3d
00000070: 847c 863e bf87 f53d f6d2 45be 8113 23be
00000080: 48cf 573e 019f 623c e2f0 313d 6be7 0dbe
00000090: c95d 64bc f46a 4f3d 358f 2dbe 11f5 233e
000000a0: 3d41 ee3d 32e9 0fbe a68f 97bd 2e31 1fbd
000000b0: 0d7f 343c db47 60bd 766e 913e 7bd4 90be
000000c0: 34d3 1fbe 8b7c 1dbe 38df 6c3d eee2 a03c
000000d0: 1895 52bd bbca 833e 7afa 79be cd16 4e3d
000000e0: 68ee 02be 92f2 3ebc cb7c 90be 23b0 45be
000000f0: c502 73be c7eb a43d b30f 84bd 7ad4 ec3d
00000100: eae7 efbd 8fc8 01bd a39c c13c 9d71 703e
00000110: fc1f 6bbd 7cad 163e 782f 373d 1082 273e
00000120: ccec 353e de9e c63d 75b6 49bd 8b18 69bd
00000130: 4797 9f3d 891c 013e a8f2 b039 4004 d63d
00000140: b9ab 13be 8b21 023e 1194 27bb 6558 31be
00000150: 199a c8bd 9e4b 51be c2e7 633c afbd 0abe
00000160: 8e69 09bd b399 cd3b c3c2 1fbe 5e37 433a
00000170: d9a4 98bc b845 6f3d b69d 403e 827c 15be
00000180: 418f fc3d 5d3f 0bbc 3cad 0dbe a084 b4bd
00000190: 8621 2a3d 0e48 d43c 51dd 55bb ef5a e6bd
000001a0: e322 ed3d 0ccb 013c 1dca 93be 41e8 84bc
000001b0: ab5a 09bd 3643 b7bd e85b fcbd d11d 62be
000001c0: 8c8d 953e 9f30 88be 1db8 893e 4ad5 66be
000001d0: d966 55bd 79cc a6bd 37c5 02be 5066 8f3d
000001e0: 35ee 0e3e b7f1 29be 0e9f c8bd 65fa e33d
000001f0: 648d 99bc 3708 d63c 3a3b e53d 0cca 79bd
00000200: 42e7 fdbd 5e02 6b3d 702c 6dbd ace8 27be
00000210: a90f f9bd 538e dbbd 529e 9a3e f0c1 023d
00000220: 5f59 b53d c5e8 9e3c 1129 2dbe b28c 3e3e
00000230: 8589 bfbb 4885 b5bc e60f 663e 6376 d7bd
00000240: 2f4b 263d 8ef0 7cbe bbb1 0b3e b26e c83d
00000250: 66f1 68be 5adb 133e e61b ed3c 3dd7 fdbd
00000260: 8dd4 833e daca df3d 1312 933d d3f9 bcbd
00000270: db22 20be d4d3 0ebe 2e9a ca3d f2eb 803d
00000280: 9773 1fbe 4c96 903e a322 1a3e be6b 9cbd
00000290: aa86 f73d fcc3 b0bd 34de 493d 2461 733e
000002a0: 3027 81be adbd d7bd 3853 29bb d2b6 503c
000002b0: 5418 67be 8d5c 25be 3695 76bc 0b19 c6bc
000002c0: 239b 3c3d 493b e33c 258f fc3c 3210 e63b
000002d0: e66d 0e3c 5a00 05bb f8ea 813d b4be 303e
000002e0: 8a9d d6bd 1afa e4bd 994e fc3d 8347 4bbe
000002f0: 21c2 423e 46ac ec3d de50 f63c 805d e5bd
00000300: 220e 083b e964 5cbe 1692 84be f1f4 8c3e
00000310: dc22 84be 490f 69be b52b b7bd 4b6d 0c3c
00000320: 5ec1 2a3d c86a f1bd c722 adbb ca7f 31bd
00000330: 4f1d 743e 6a27 7d3e b691 ae3d b399 cc39
00000340: a326 4d3e a4cc 61be d306 943d ea30 08be
00000350: 52a6 563e 0be5 7fbe e535 633d 04ad 66be
00000360: af1a 1e3e 9286 aa3c a30f 7f3e b2f2 56be
00000370: 7cbb 243e e7ed 37be 4fa7 08be a8ad 8e3d
00000380: eedb 01bd 1d5a 62be 625f 74be cadf 4ebd
00000390: f27d fb3c e482 7c3e 591d 463e d99f 6ab8
000003a0: cd5e 12be 7c9f 81be 9e06 843e 37ce 05be
000003b0: c06d 8bbc 52b0 61be df9b 37be a2bd b23c
000003c0: 4b6f a0bc 436c 7239 424b deb0 5c60 8136
000003d0: 1f5e 09bc 6ca9 8d32 9e13 b43d d0c5 413e
000003e0: 52b6 723e 2363 64be 7833 71be bd99 cdbc
000003f0: 2373 97bc 3bbe 0f3e f539 983e 9b8e 783d

naim.encoder.0.ff.0.bias f4 [1000]
0.17452146 -0.12267598 -0.02016034 0.012985119 0.21593018 0.11876737 0.29008436 -0.12063157
-0.015726749 -0.00019383706 0.22896865 0.2915431 0.06966254 -0.22024524 -0.18780412 0.03142111
-0.2540286 -0.06537568 -0.20079102 0.13786773 -0.0175041 -0.21066839 0.1832059 -0.2501855
-0.01904357 0.30140907 0.15552962 -0.24930033 0.014344929 -0.033307113 0.09241985 0.28990427
0.24282406 -0.014044983 0.12156144 -0.28797695 0.23268661 0.13862374 -0.1791412 -0.032878038
-0.06100711 -0.13723688 0.119803034 -0.04801051 0.104170784 -0.032700818 0.22883302 -0.09396397
-0.01196387 -0.05228557 0.008583865 -0.0706135 -0.18361622 -0.27822906 0.15180922 0.038288806
-0.15555401 0.15884241 0.009150403 -0.05683263 -0.004865394 0.027970675 0.20634507 -0.26419282
-0.20717898 -0.2213085 -0.211799 0.01588972 0.14523637 0.06744188 0.09157146 0.01759037
0.0005230455 -0.25954902 0.26110205 0.29938218 -0.0035635096 0.053723294 0.034605876 0.30556858
-0.002581681 -0.012361194 -0.12995829 0.061800845 0.1256026 -0.23442489 0.070810005 0.08069645
0.11227694 0.095923536 -0.027720202 0.040286347 -0.18209015 0.17697135 -0.23444664 -0.24799515
-0.19463383 -0.12718876 0.010110651 0.16946341 -0.007279334 0.21579458 -0.0092327595 0.24204366
0.1981851 0.16999446 0.08495452 -0.1764252 0.30167818 -0.2767178 -0.1800632 -0.16928935
-0.028260142 0.09975331 0.05134311 -0.24344304 0.3048045 0.29917067 0.11332365 -0.28958762
0.17898645 0.061891165 -0.019010285 -0.23052323 0.26326314 -0.04968799 -0.22406065 0.21764031
0.12391977 0.07211259 0.1847036 0.088919416 -0.02987549 -0.036426302 0.24524578 -0.00044543744
-0.2357457 -0.17520653 -0.19832072 0.018397953 0.22468355 0.1735781 0.07301397 0.0999481
-0.099366896 0.29001316 0.07413204 -0.14964882 -0.17007385 -0.2540615 -0.036370628 0.21062322
0.018094772 -0.09357182 0.07981213 -0.17654271 0.06972164 0.18631425 0.13322088 -0.044737887
-0.054508455 0.11516928 0.14598165 -0.019337155 0.0013476723 -0.0062698335 -0.0058428324 -0.25230756
-0.22619501 0.24298626 -0.10407991 0.21439998 0.18147777 -0.016100923 -0.09853308 0.0016930149
-0.024052203 -0.13698132 0.28925475 -0.0010553653 -0.01736481 -0.17546253 0.037229422 0.051970176
0.30843052 -0.035808317 0.13255823 0.009704135 0.14142165 0.0021748464 -0.009947148 0.115818836
-0.090365656 0.16091911 -0.23189239 -0.18456516 0.30006477 -0.065366 -0.21952336 -0.19198738
0.2918285 -0.02862727 -0.23241706 -0.014959374 -0.10308992 -0.16924094 -0.116787896 0.22841337
0.08330846 0.16115066 0.011912276 -0.07132312 -0.085460804 -0.17313695 -0.20811823 -0.24116565
0.023044832 0.16033877 0.2630492 0.00041353545 -0.020323379 -0.0047284868 0.103127986 -0.012679872
-0.07607474 -0.055912513 -0.2856618 -0.21494032 -0.09097229 0.0042569316 -0.15049316 0.08937909
-0.12279506 0.29273465 -0.24972127 0.14659731 -0.11144643 -0.05555073 -0.27618003 -0.2667037
-0.27987537 -0.0052599274 0.28630778 0.11739107 0.1784612 0.07265854 -0.06131948 -0.07563416
-0.038152166 -0.26921475 0.13154553 -0.055182386 -0.13066089 0.06323128 0.00033695565 0.14684713
00000000: c1b5 323e 8b3d fbbd 4c27 a5bc 89bf 543c
00000010: cd1c 5d3e 4f3c f33d f085 943e af0d f7bd
00000020: 62d5 80bc bd40 4bb9 c276 6a3e 2345 953e
00000030: 3cab 8e3d f887 61be b94f 40be 6cb3 003d
00000040: 0910 82be afe3 85bd 299c 4dbe 332d 0d3e
00000050: c264 8fbc 74b9 57be 549a 3b3e 5018 80be
00000060: 4301 9cbc 4a52 9a3e 2843 1f3e 9648 7fbe
00000070: fe06 6b3c 0a6d 08bd 9e46 bd3d 556e 943e
00000080: dfa6 783e ee1c 66bc 34f5 f83d b771 93be
00000090: 6645 6e3e 62f3 0d3e ca70 37be 1fab 06bd
000000a0: 97e2 79bd d387 0cbe 4b5b f53d aba6 44bd
000000b0: 7e57 d53d 4bf1 05bd 3453 6a3e 2f70 c0bd
000000c0: 1c04 44bc 6529 56bd 57a3 0c3c d09d 90bd
000000d0: e405 3cbe 0a74 8ebe e073 1b3e b9d4 1c3d
000000e0: 8d49 1fbe 96a7 223e 92eb 153c 55c9 68bd
000000f0: e26d 9fbb c222 e53c 1f4c 533e 4844 87be
00000100: ba26 54be b29e 62be d6e1 58be 282b 823c
00000110: d8b8 143e f81e 8a3d d189 bb3d ae19 903c
00000120: fd1c 093a 9ce3 84be 2baf 853e 9f48 993e
00000130: c589 69bb f50c 5c3d e4be 0d3d 7c73 9c3e
00000140: 6b31 29bb 9b86 4abc c913 05be e222 7d3d
00000150: f89d 003e 140d 70be d604 913d 2e44 a53d
00000160: 74f1 e53d 8f73 c43d 7a15 e3bc 4c03 253d
00000170: d775 3abe fa37 353e c812 70be 71f2 7dbe
00000180: 174e 47be c53d 02be 25a7 253c d187 2d3e
00000190: 7b87 eebb 41f9 5c3e 0045 17bc 4bda 773e
000001a0: 09f1 4a3e 0713 2e3e a3fc ad3d cfa8 34be
000001b0: 9075 9a3e f5ad 8dbe 7d62 38be 305a 2dbe
000001c0: d081 e7bc 774b cc3d 274d 523d 2249 79be
000001d0: 560f 9c3e e62c 993e 3b16 e83d d444 94be
000001e0: 3948 373e 9781 7d3d 75bb 9bbc 480e 6cbe
000001f0: 6dca 863e a285 4bbd 2870 65be 1add 5e3e
00000200: a6c9 fd3d c4af 933d f122 3d3e 621b b63d
00000210: 72bd f4bc bf33 15bd b621 7b3e 9a89 e9b9
00000220: 5267 71be 5769 33be 9614 4bbe 4eb7 963c
00000230: 7213 663e 75be 313e 5988 953d 97b1 cc3d
00000240: df80 cbbd 9b7c 943e 8ad2 973d 8a3d 19be
00000250: d727 2ebe 5914 82be 5ef9 14bd 9dad 573e
00000260: 7d3b 943c 95a2 bfbd 8b74 a33d 9dc7 34be
00000270: 38ca 8e3d 2ac9 3e3e 0e6b 083e 133f 37bd
00000280: 4244 5fbd dfdd eb3d 377c 153e f468 9ebc
00000290: 61a4 b03a 2d73 cdbb 3b75 bfbb 752e 81be
000002a0: aa9f 67be 64d1 783e d927 d5bd ab8b 5b3e
000002b0: 4fd5 393e 15e6 83bc b6cb c9bd 27e8 dd3a
000002c0: 2009 c5bc d544 0cbe 3319 943e 2f54 8aba
000002d0: a540 8ebc 73ac 33be e17d 183d aede 543d
000002e0: 9bea 9d3e beab 12bd 58bd 073e 18fe 1e3c
000002f0: d6d0 103e de87 0e3b 5df9 22bc 6d32 ed3d
00000300: a111 b9bd fbc7 243e 3375 6dbe a6fe 3cbe
00000310: 17a2 993e 9cde 85bd bbca 60be 5798 44be
00000320: 8c6a 953e bd83 eabc bdfe 6dbe 2a18 75bc
00000330: cf20 d3bd 7f4d 2dbe 7e2e efbd 32e5 693e
00000340: a09d aa3d ae04 253e b52b 433c db11 92bd
00000350: 1306 afbd d04a 31be f21c 55be 21f4 76be
00000360: 84c8 bc3c d92f 243e 62ae 863e cacf d839
00000370: 377d a6bc 6cf1 9abb c434 d33d 3dbf 4fbc
00000380: 13cd 9bbd 8504 65bd 4342 92be 5119 5cbe
00000390: ae4f babd bb7d 8b3b e11a 1abe 620c b73d
000003a0: fa7b fbbd 51e1 953e efb6 7fbe 9b1d 163e
000003b0: 073e e4bd 2a89 63bd 7867 8dbe 638d 88be
000003c0: d34b 8fbe 785b acbb ef96 923e bb6a f03d
000003d0: 88be 363e 00ce 943d 232a 7bbd 15e6 9abd
000003e0: 7245 1cbd 84d6 89be dfb3 063e ed06 62bd
000003f0: f8cb 05be 677f 813d 6ca9 b039 185f 163e

naim.encoder.0.ff.3.weight f4 [6, 1000]
-0.011350161 0.00040338014 0.0026025625 -0.00483061 -0.015416511 0.0014794895 -0.006579543 -0.0059433444
0.019960763 0.028057065 -0.007912021 -0.008549315 -0.024881866 -0.0068907742 0.0056361533 -0.008455977
0.0063530663 -0.008427186 -0.00092602905 0.0073548025 0.03300378 0.024422739 -0.022373531 0.0055515254
-0.00031545328 -0.0046613514 0.011616596 -0.0050343005 -0.004317977 -0.021308377 -0.010719367 -0.03251809
0.011023814 -0.006032479 -0.01311064 -0.009688567 0.022764781 -0.0058767134 0.016266402 -0.005303792
2.0118962e-06 -0.004487857 -0.0198183 0.02910554 -0.018170847 0.0019458599 0.013448027 0.009012833
0.0015321984 0.03238893 -0.024573848 -0.015402297 0.007968478 -0.008175659 -0.0004144402 -0.0122634005
-0.0066339993 0.021679569 -0.008675731 0.021708779 0.026371133 0.029169565 0.018472154 0.023641389
0.0026586757 0.009903608 0.002032933 -0.028458074 0.027273001 -0.026597902 -0.020054983 -0.011303333
0.001156331 -0.014953122 -0.014529024 0.00095401023 -0.013916559 -0.023278425 -0.011847134 -0.022829603
0.010548389 0.009595302 -0.0019713046 0.02859253 -0.012035374 -0.0073589706 0.0025516234 0.029925916
0.007687538 0.00018031115 0.015129481 -0.022500694 -0.013849986 -0.01031671 -0.0072082896 -0.011266312
-0.018658597 0.011682151 0.005099921 0.00029055384 0.0018991558 -0.00023904581 0.02350581 -0.025336789
0.019355247 0.011089592 -0.009734175 0.012623699 -0.0020671024 -0.013087677 0.032518823 0.007837117
0.022821505 -0.0029742226 -0.015535083 0.010273527 0.00034906578 0.008434367 -0.0059832768 0.019219115
-0.021728562 0.004232697 0.024508273 0.0009823116 0.02494116 0.023094878 0.0073997932 0.027069733
-0.0033933856 -0.0006382028 0.0142274005 -0.02097742 -0.013525572 0.036708742 -0.02282203 -0.0013635103
0.013330476 0.011702837 -0.011717525 0.006787531 0.016876027 -0.019545132 0.02300925 0.0056600804
-0.0035500992 -0.029659575 -0.0009140917 0.029583039 -0.015706835 0.0062378165 0.0034467673 0.019450234
-0.007557271 0.02294026 0.030833028 0.024394 -0.014105485 -0.023721624 -0.02367322 0.012921716
-0.011483233 0.01638909 -0.0007752511 0.0329759 -0.01240568 -0.004861511 0.0048630466 0.008666801
0.027840605 -0.002678374 0.034149602 -0.0069965837 -0.003099415 -0.00942032 -0.01006342 -0.015913872
-0.026381433 0.001984273 -0.013544774 0.00020444789 -0.014261047 -0.020267235 -0.005106373 -0.0278111
0.025723131 0.0006459931 0.0036476264 -0.027892157 0.009341892 -0.013447459 0.020835549 0.009682382
-0.00424592 0.015300533 0.0012839963 -0.009061188 -0.017818335 0.04034625 -0.0100010885 0.028455708
0.0071858126 0.022898298 -0.02041512 0.010279806 0.01669419 0.027689686 -0.0239852 -0.012444235
-0.0065921615 -0.021371197 0.0076429374 0.023098348 0.02776666 -0.0086812675 0.021075053 -0.00046132877
0.021425499 -0.023760566 -0.03061373 0.016399208 -0.0036694275 0.012968065 0.03176393 0.03544256
0.0229462 -0.016220711 0.010187494 -0.00764837 -0.020755803 0.029967636 0.01815006 -0.009549006
0.00154677 -0.01944343 0.013334446 0.0040831543 -0.016608011 0.021072257 -0.008950762 -8.179314e-05
0.0273892 -0.012656315 -0.03381184 0.019196723 -0.023680352 0.015183975 0.00013214034 0.024545861
0.005407721 -0.0063383244 -0.026792418 0.010505403 -0.015240254 0.01335594 0.030839298 -0.026970698
00000000: 07f6 39bc c47c d339 c18f 2a3b 184a 9ebb
00000010: 8995 7cbc 6eeb c13a 3599 d7bb 63c0 c2bb
00000020: c184 a33c eed7 e53c 6ca1 01bc 6d12 0cbc
00000030: 0ed5 cbbc 01cc e1bb 7baf b83b f08a 0abc
00000040: 622d d03b 2e12 0abc c2c0 72ba 8e00 f13b
00000050: f92e 073d 3212 c83c b248 b7bc 92e9 b53b
00000060: 6c63 a5b9 40be 98bb 8953 3e3c c6f6 a4bb
00000070: d17d 8dbb e88e aebc 49a0 2fbc b031 05bd
00000080: 3a9d 343c 1aac c5bb 03ce 56bc ccbc 1ebc
00000090: 357d ba3c 7291 c0bb 1e41 853c 6fcb adbb
000000a0: 1d04 0736 e00e 93bb fd59 a2bc be6e ee3c
000000b0: 07db 94bc 390c ff3a 1d55 5c3c 90aa 133c
000000c0: 0cd4 c83a 41aa 043d 184f c9bc ea59 7cbc
000000d0: 388e 023c 33f3 05bc 3949 d9b9 6eec 48bc
000000e0: 0562 d9bb 5a99 b13c a724 0ebc 9cd6 b13c
000000f0: 4608 d83c 03f5 ee3c ea52 973c 96ab c13c
00000100: 2d3d 2e3b be42 223c f53a 053b e820 e9bc
00000110: a16b df3c d8e3 d9bc 594a a4bc 9d31 39bc
00000120: 0890 973a f0fd 74bc 250b 6ebc 8b16 7a3a
00000130: 4702 64bc 65b2 bebc 7b1a 42bc 2605 bbbc
00000140: 26d3 2c3c 9d35 1d3c 0131 01bb e23a ea3c
00000150: 0430 45bc 8523 f1bb 2339 273b 3227 f53c
00000160: bee7 fb3b e811 3d39 a5e1 773c 6053 b8bc
00000170: 0deb 62bc 6b07 29bc 8433 ecbb 5696 38bc
00000180: ead9 98bc 7e66 3f3c 3d1d a73b 7a55 9839
00000190: 18ed f83a 5fa8 7ab9 428f c03c 198f cfbc
000001a0: e58e 9e3c 1fb1 353c 177c 1fbc a2d3 4e3c
000001b0: 3978 07bb b26d 56bc 7532 053d 4067 003c
000001c0: 2af4 ba3c 2deb 42bb dc86 7ebc 4c52 283c
000001d0: d102 b739 4d30 0a3c 5d0f c4bb 6871 9d3c
000001e0: 1900 b2bc 70b2 8a3b 93c5 c83c e8c0 803a
000001f0: 6751 cc3c 7831 bd3c f779 f23b 58c1 dd3c
00000200: 9063 5ebb 114d 27ba 0b1a 693c d7d8 abbc
00000210: 5c9a 5dbc e85b 163d 44f5 babc d0b7 b2ba
00000220: 1268 5a3c 42bd 3f3c ddfa 3fbc f069 de3b
00000230: 983f 8a3c 1d1d a0bc e57d bc3c 3278 b93b
00000240: c8a8 68bb a3f8 f2bc a89f 6fba 2158 f23c
00000250: 9fab 80bc 9966 cc3b 29e3 613b 1956 9f3c
00000260: fca2 f7bb 36ed bb3c 8c95 fc3c edd5 c73c
00000270: b11a 67bc da53 c2bc 57ee c1bc 9bb5 533c
00000280: 2c24 3cbc 6a42 863c 383a 4bba bd11 073d
00000290: 3141 4bbc 4f4d 9fbb 315a 9f3b 33ff 0d3c
000002a0: fb11 e43c a987 2fbb 74e0 0b3d 9943 e5bb
000002b0: 8e1f 4bbb b057 1abc 0be1 24bc cf5d 82bc
000002c0: e01d d8bc 940a 023b e6ea 5dbc 1061 5639
000002d0: 2ba7 69bc 7907 a6bc 5d53 a7bb 1bd4 e3bc
000002e0: 51b9 d23c dd57 293a 040d 6f3b 187e e4bc
000002f0: bc0e 193c bb52 5cbc 50af aa3c dba2 1e3c
00000300: 5c21 8bbb 16af 7a3c c44b a83a 6175 14bc
00000310: c2f7 91bc 1c42 253d 9bdb 23bc f21b e93c
00000320: f776 eb3b 3695 bb3c 9c3d a7bc a26c 283c
00000330: 41c2 883c 7bd5 e23c 9c7c c4bc e8e2 4bbc
00000340: 0f03 d8bb a612 afbc 9b71 fa3b bf38 bd3c
00000350: e876 e33c e03b 0ebc 97a5 ac3c 80de f1b9
00000360: 8784 af3c 85a5 c2bc a5c9 fabc a257 863c
00000370: c77a 70bb 0278 543c e51a 023d 382c 113d
00000380: abf9 bb3c 4ce1 84bc 72e9 263c 2e9f fabb
00000390: 1308 aabc b07e f53c 6faf 943c 6f73 1cbc
000003a0: fdbc ca3a d447 9fbc b878 5a3c fbcb 853b
000003b0: 860d 88bc ba9f ac3c 38a6 12bc 5c88 abb8
000003c0: 515f e03c 6f5c 4fbc 497e 0abd 7242 9d3c
000003d0: 4cfd c1bc 35c6 783c 278f 0a39 6714 c93c
000003e0: 4033 b13b b8b1 cfbb c67b dbbc db1e 2c3c
000003f0: 42b2 79bc dfd2 5a3c b2a2 fc3c a7f1 dcbc

naim.encoder.0.ff.3.bias f4 [6]
-0.033268232 0.0026494793 -0.021967975 -0.011466696 0.024418823 -0.022564095
00000000: 4544 08bd e3a2 2d3b 2ff6 b3bc cfde 3bbc
00000010: fc09 c83c 56d8 b8bc

naim.encoder.1.layer_norm_1.weight f4 [6]
0.88608193 0.88433015 0.8848193 0.88638926 0.88256145 0.8842807
00000000: 44d6 623f 7663 623f 8583 623f 68ea 623f
00000010: 8cef 613f 3860 623f

naim.encoder.1.layer_norm_1.bias f4 [6]
0.00497725 -0.0061182613 -0.0021547943 -0.0047003007 -0.005857231 -0.0013749177
00000000: 3318 a33b b27b c8bb 7337 0dbb fb04 9abb
00000010: 04ee bfbb 9536 b4ba

naim.encoder.1.attn.linear_q.weight f4 [6, 6]
-0.18972273 -0.04261611 -0.082076736 0.02330008 0.1550561 0.009181948 -0.00036836354 0.09322527
0.13772668 -0.0007006362 -0.16763268 -0.24246252 0.2960677 0.045518253 0.26501375 -0.063590914
0.027056811 -0.11088099 -0.11483439 -0.087200664 0.2964781 0.1900047 -0.14703242 -0.17956069
0.04164748 -0.015341623 0.0002009226 6.222865e-05 -0.24619573 0.01212723 -0.0007463478 -0.17733139
-0.29132092 0.10553275 -0.26148674 -0.08216101
00000000: ad46 42be 3b8e 2ebd d917 a8bd cfdf be3c
00000010: 07c7 1e3e e26f 163c eb20 c1b9 e4ec be3d
00000020: 3908 0d3e e6aa 37ba e7a7 2bbe 1848 78be
00000030: 3096 973e 5971 3a3d e2af 873e f43b 82bd
00000040: 3fa6 dd3c 9315 e3bd 4b2e ebbd 4396 b2bd
00000050: facb 973e 9890 423e ab8f 16be c2de 37be
00000060: 8c96 2a3d 6e5b 7bbc c0ae 5239 c180 8238
00000070: bc1a 7cbe 4ab1 463c 8ea6 43ba 5c96 35be
00000080: 0428 95be 8e21 d83d 97e1 85be 0844 a8bd

naim.encoder.1.attn.linear_k.weight f4 [6, 6]
0.14269358 -0.1668858 -0.09250131 -0.15230455 0.13427894 0.03691922 -0.00021004243 0.04935075
0.028215963 -0.0104546305 -6.184835e-05 -0.14843768 -0.09359425 -0.00016849027 -0.00016372609 0.02589026
0.09222742 0.2056048 0.2793089 -0.00051444356 0.063330814 -0.22130908 0.13058074 -0.024045734
-0.21441276 -0.20856258 -0.22953553 -0.0862651 0.08476705 -0.22193676 -4.1803734e-05 -0.0017100007
0.054180145 -0.06826643 0.10377921 -0.14562133
00000000: 441e 123e 1ce4 2abe 5471 bdbd b9f5 1bbe
00000010: 6b80 093e 9c38 173d d63e 5cb9 0324 4a3d
00000020: 2a25 e73c e649 2bbc 94b4 81b8 0c00 18be
00000030: 58ae bfbd c3ac 30b9 e3ad 2bb9 cf17 d43c
00000040: bbe1 bc3d 118a 523e 9301 8f3e b9db 06ba
00000050: 96b3 813d d99e 62be f5b6 053e 8ffb c4bc
00000060: 058f 5bbe 6e91 55be 5d0b 6bbe c2ab b0bd
00000070: 599a ad3d 6443 63be 6b56 2fb8 1a22 e0ba
00000080: 00ec 5d3d 45cf 8bbd 328a d43d c21d 15be

naim.encoder.1.attn.linear_v.weight f4 [6, 6]
0.20773979 -0.3301651 -0.22886682 0.113289446 0.013010457 0.24707839 0.12943296 -0.23947275
0.2260721 -0.060318194 -0.013740814 -0.07551818 -0.06320261 -0.29550812 0.01808253 0.25919613
-0.03257794 0.2740438 -0.13270932 0.06960523 0.011226711 -0.066379614 0.2895382 0.02466947
0.018324919 -0.0148057025 -0.0065326467 0.24725093 -0.015964447 0.17456889 0.0704146 0.16743255
-0.20267352 -0.26937044 -0.037721694 -0.04643253
00000000: bdb9 543e 660b a9be 105c 6abe 4c04 e83d
00000010: d029 553c 1e02 7d3e 138a 043e 5838 75be
00000020: 727f 673e 3610 77bd 2721 61bc 47a9 9abd
00000030: 5f70 81bd d74c 97be d021 943c 5bb5 843e
00000040: 7270 05bd 784f 8c3e f4e4 07be 308d 8e3d
00000050: 3df0 373c 09f2 87bd 5a3e 943e a117 ca3c
00000060: 241e 963c 9e93 72bc d00f d6bb 592f 7d3e
00000070: dfc7 82bc 30c2 323e 8835 903d 7073 2b3e
00000080: a689 4fbe ecea 89be 1082 1abd 0930 3ebd

naim.encoder.1.attn.linear_o.weight f4 [6, 6]
0.3555943 0.32222977 -0.0870131 -0.14775488 0.0011586542 0.1385423 0.11695458 0.04311747
0.26166448 0.022321826 0.27544317 0.059939716 -0.03100944 0.27155992 0.010656537 0.013285531
-0.07339348 0.1998053 -0.110196784 0.24815537 0.20889397 -0.0059482395 -0.05702557 0.1183561
-0.28624403 -0.04178434 -0.049102597 -0.0003308249 -0.09284503 -0.07601579 0.09174946 -6.508079e-05
-0.17431387 1.4625269e-08 0.03931711 -0.06659206
00000000: 7510 b63e 4dfb a43e ed33 b2bd 0e4d 17be
00000010: fcdd 973a 08de 0d3e e285 ef3d f29b 303d
00000020: e3f8 853e 43dc b63c e306 8d3e 5983 753d
00000030: 8207 febc e709 8b3e c198 2e3c 8eab 593c
00000040: 524f 96bd c399 4c3e daae e1bd 711c 7e3e
00000050: 4de8 553e 73e9 c2bb a593 69bd af64 f23d
00000060: 948e 92be 0e26 2bbd ce1f 49bd 9172 adb9
00000070: 8925 bebd 2bae 9bbd 24e7 bb3d fc7b 88b8
00000080: 567f 32be 9d42 7b32 fa0a 213d 6b61 88bd

naim.encoder.1.layer_norm_2.weight f4 [6]
0.9724556 0.93679565 0.9610689 0.97421074 0.92788535 0.9663726
00000000: daf2 783f d7d1 6f3f 9d08 763f e065 793f
00000010: e589 6d3f 3264 773f

naim.encoder.1.layer_norm_2.bias f4 [6]
0.007935384 0.00013585889 0.0023462125 -0.0011123333 0.00071459846 -0.0056628804
00000000: 6a03 023c 5875 0e39 eac2 193b b6cb 91ba
00000010: e453 3b3a af8f b9bb

naim.encoder.1.ff.0.weight f4 [1000, 6]
0.23852402 -0.17428516 0.25179094 0.06807497 -0.13503204 -0.27439848 0.093726784 -0.03354964
0.07255444 0.10502868 -0.1722141 0.026287261 -0.043750755 -0.25697064 0.02856679 0.029110873
-0.20406596 0.27648017 0.12014466 0.13593508 -0.24595304 -0.24572465 0.08060867 0.13552132
-0.24534462 0.28073457 -0.030486554 -0.22133125 -0.19068149 -0.025203962 0.12172608 -0.17385177
0.19847126 0.29917425 0.2714084 0.09418195 -0.08660587 -0.06625402 0.18850866 -0.024798391
0.010731403 0.30095807 -0.3043415 -0.032998 -0.092479594 -0.015441135 0.0030760434 -0.039143946
0.28258124 0.07113041 -0.16162838 0.2898621 -0.041127276 0.019851971 0.0137379 -0.19278014
0.110435694 -0.14453544 -0.25255898 0.23617016 0.14307044 -0.07583517 -0.18417671 0.25911468
0.055420473 -0.16517596 -0.23646882 -0.080341205 -0.12728396 0.006447872 0.006431391 -0.28729156
0.10358916 0.105973415 -0.257991 0.22058555 -0.06703202 0.10939595 0.28895107 0.1386121
0.16735235 0.0007651182 0.009791537 -0.23699039 -0.18519601 0.22012575 -0.26211432 0.07777904
-0.13537084 0.2415698 0.19225417 -0.03572985 -0.018884607 -0.18074487 0.27259335 -0.1419153
0.055613253 0.18170694 -0.28111115 -0.29046935 -0.17904937 -0.008163818 0.15342064 -0.04398435
-0.07718923 0.16606319 0.2191979 0.11634757 0.24758717 -0.25653097 -0.2568688 0.03254701
-0.23206562 -0.03688797 0.15954453 0.28748393 -0.02158091 -0.25354794 -0.096849605 0.28614226
-0.0060207588 -0.26805967 -0.11231588 -0.14779359 -0.022362249 -0.18665919 -0.047049023 0.26354587
-0.09283224 -0.01993205 0.12554526 -0.27021137 -0.14189872 -0.010517531 0.22770736 0.018280594
-0.00091977156 -0.0729737 0.12315614 -0.08740208 -0.02937771 -0.09608688 0.06134688 0.30650115
-0.20993204 -0.0040188744 -0.008275128 -0.1116827 -0.18504864 -0.090529166 -0.22864474 0.20592341
-0.19446805 0.1557507 0.23035342 -0.037101146 0.27171475 0.18677004 -0.17766866 0.13525242
0.024756802 0.21645801 -0.20745787 0.21203089 0.020240426 0.10212136 -0.12653543 0.16530971
-0.008319537 0.22983086 0.007998324 0.15074265 -0.1509253 -0.25350285 0.062245194 0.11837424
0.038241114 0.055865385 0.16324802 -0.106587104 0.1395199 0.1045805 -0.09922961 -0.149004
-0.2941535 0.20054837 0.003721336 0.034110922 -0.18483719 -0.19913614 0.22635049 0.18421876
0.13738886 0.22240822 0.23410806 0.14653586 0.1902843 -0.009793767 0.037907593 -0.24095505
-0.06229828 -0.020535925 -0.003427619 0.29309785 0.22311643 0.039455537 0.26889345 -0.1058521
0.009544469 -0.21403316 -0.23720734 0.11511306 0.0414734 -0.00042654955 -0.15717535 0.18678251
-0.008809663 0.17228143 -0.1741397 0.20563298 0.000734719 -0.049242895 -0.016874162 -0.20789641
-0.031532288 0.007923443 -0.19633251 0.12728956 0.27291244 0.112359084 -0.10326873 -0.14772898
-0.21238801 -0.14704013 0.142121 0.08790731 -0.0588372 0.0068027163 -0.0034811958 -0.0021109274
-0.30265003 0.23603326 -0.06411313 -0.2407993 -0.005805912 0.055458836 0.094871886 -0.107338026
-0.00025348453 -0.20025852 -0.19989215 -0.16534083 -0.16552888 0.1560374 -0.26568094 -0.032451265
00000000: a43f 743e cf77 32be beea 803e e46a 8b3d
00000010: d745 0abe f57d 8cbe d4f3 bf3d 596b 09bd
00000020: 6c97 943d 4719 d73d e558 30be 6258 d73c
00000030: fe33 33bd a891 83be e704 ea3c ed79 ee3c
00000040: abf6 50be cf8e 8d3e 670e f63d 9132 0b3e
00000050: 1ddb 7bbe 3e9f 7bbe 2916 a53d 1ac6 0a3e
00000060: 9f3b 7bbe 71bc 8f3e f0be f9bc a9a4 62be
00000070: 0242 43be 8a78 cebc 864b f93d 3306 32be
00000080: 0d3c 4b3e 5e2d 993e 0bf6 8a3e 77e2 c03d
00000090: 6b5e b1bd 30b0 87bd 6a08 413e ff25 cbbc
000000a0: c4d2 2f3c 2d17 9a3e a6d2 9bbe e928 07bd
000000b0: f165 bdbd d0fc 7cbc 7297 493b 6755 20bd
000000c0: 7dae 903e d2ac 913d e981 25be ce68 943e
000000d0: 1375 28bd 9aa0 a23c ee14 613c 2868 45be
000000e0: 1c2c e23d 1901 14be 694f 81be 97d6 713e
000000f0: 0f81 123e 784f 9bbd d298 3cbe aeaa 843e
00000100: 9400 633d e323 29be e224 72be ee89 a4bd
00000110: ba56 02be ac48 d33b 6bbe d23b e117 93be
00000120: 8e26 d43d 9708 d93d 6517 84be 2ee1 613e
00000130: 1548 89bd fc0a e03d 65f1 933e 55f0 0d3e
00000140: 6a5e 2b3e 3792 483a af6c 203c 9cad 72be
00000150: 06a4 3dbe a568 613e d933 86be 9e4a 9f3d
00000160: a79e 0abe 135e 773e 47de 443e 7759 12bd
00000170: e4b3 9abc 2f15 39be 5b91 8b3e 3f52 11be
00000180: b9ca 633d 6211 3a3e cded 8fbe 66b8 94be
00000190: b858 37be 89c1 05bc 4d1a 1d3e ef28 34bd
000001a0: 6315 9ebd 780c 2a3e 6a75 603e a347 ee3d
000001b0: 7e87 7d3e 0758 83be 4f84 83be 0350 053d
000001c0: 9ca2 6dbe d717 17bd a45f 233e 1831 933e
000001d0: 73ca b0bc 09d1 81be 1659 c6bd 3d81 923e
000001e0: c949 c5bb 1e3f 89be de05 e6bd 3457 17be
000001f0: 0931 b7bc 9623 3fbe 7ab6 40bd 7cef 863e
00000200: d41e bebd 8a48 a3bc f08e 003e 2559 8abe
00000210: e64d 11be b951 2cbc 1e2c 693e 2fc1 953c
00000220: d31c 71ba 3c73 95bd 4939 fc3d ddff b2bd
00000230: 86a9 f0bc 33c9 c4bd de46 7b3d b8ed 9c3e
00000240: 6df8 56be c3b0 83bb 6794 07bc e6b9 e4bd
00000250: 647d 3dbe 5b67 b9bd d921 6abe 96dd 523e
00000260: a222 47be 1d7d 1f3e c4e1 6b3e 5ff7 17bd
00000270: 321e 8b3e a540 3f3e c6ee 35be 9c7f 0a3e
00000280: c7ce ca3c 2ba7 5d3e d66f 54be a01e 593e
00000290: 40cf a53c 0125 d13d 8192 01be f346 293e
000002a0: ab4e 08bc c858 6b3e 670b 033c 485c 1a3e
000002b0: 298c 1abe 20cb 81be d1f4 7e3d 326e f23d
000002c0: b7a2 1c3d 1ad3 643d 7d2a 273e 574a dabd
000002d0: 4ede 0e3e 4d2e d63d e538 cbbd 8194 18be
000002e0: 4a9b 96be 8d5c 4d3e a8e1 733b e5b7 0b3d
000002f0: f645 3dbe 58ea 4bbe 6cc8 673e d8a3 3c3e
00000300: aaaf 0c3e fbbe 633e 06ba 6f3e 7f0d 163e
00000310: e3d9 423e 0976 20bc fe44 1b3d ecbc 76be
00000320: 7b2c 7fbd f53a a8bc e8a1 60bb ec10 963e
00000330: a278 643e 219c 213d 67ac 893e fcc8 d8bd
00000340: 6860 1c3c 822b 5bbe 7be6 72be 65c0 eb3d
00000350: 03e0 293d 83a2 dfb9 93f2 20be ea43 3f3e
00000360: 6856 10bc 8b6a 303e ad51 32be 7491 523e
00000370: 289a 403a ebb2 49bd af3b 8abc cce2 54be
00000380: 0028 01bd 54d1 013c 640b 49be 3258 023e
00000390: 2ebb 8b3e 851c e63d 8e7e d3bd 4446 17be
000003a0: 3e7c 59be b091 16be 2b88 113e bf08 b43d
000003b0: 47ff 70bd 52e9 de3b c624 64bb 7c57 0abb
000003c0: f2f4 9abe b4b2 713e bf4d 83bd 1794 76be
000003d0: 853f bebb ce28 633d 314c c23d 0ad4 dbbd
000003e0: 1ee6 84b9 9210 4dbe 87b0 4cbe 1b4f 29be
000003f0: 6780 29be 45c8 1f3e 5507 88be 9eeb 04bd
