outputs/2025-03-23/17-22-00/outputs/model_epoch_80.pt (torch, 92146 bytes, 80 tensors)

naim.embeddings.0.embeddings.weight f4 [2, 6]
000000 09 08 a8 3e 25 39 07 bf 27 87 a2 be 02 55 94 3e
       0.3281863 -0.5282157 -0.31743738 0.28971106
000010 20 12 c7 3e f0 40 7b 3e 00 00 00 00 00 00 00 00
       0.38881016 0.2453649 0.0 0.0
000020 00 00 00 00 00 00 00 00 00 00 00 00 00 00 00 00
       0.0 0.0 0.0 0.0

naim.embeddings.1.embeddings.weight f4 [2, 6]
000000 a8 ad 8e 3d c9 54 b9 bd 19 c2 da bd 58 e4 a0 3e
       0.06966716 -0.090493746 -0.106815524 0.31424212
000010 81 55 17 3e e1 1f 91 bd 00 00 00 00 00 00 00 00
       0.14778711 -0.070861585 0.0 0.0
000020 00 00 00 00 00 00 00 00 00 00 00 00 00 00 00 00
       0.0 0.0 0.0 0.0

naim.embeddings.2.embeddings.weight f4 [2, 6]
000000 86 fb 1d 3f 02 d6 44 3d 22 55 99 bc 4a 3e 0a 3f
       0.6171192 0.048055656 -0.018717352 0.54001296
000010 00 d1 7e be d5 4f ad 3e 00 00 00 00 00 00 00 00
       -0.24884415 0.3384997 0.0 0.0
000020 00 00 00 00 00 00 00 00 00 00 00 00 00 00 00 00
       0.0 0.0 0.0 0.0

naim.embeddings.3.embeddings.weight f4 [2, 6]
000000 40 33 19 3f 56 1d e5 be 7f 01 0c 3d 25 fe e4 3e
       0.59843826 -0.44748944 0.034181114 0.44725147
000010 ae f3 03 3e 28 bb 64 3a 00 00 00 00 00 00 00 00
       0.12885925 0.0008725398 0.0 0.0
000020 00 00 00 00 00 00 00 00 00 00 00 00 00 00 00 00
       0.0 0.0 0.0 0.0

naim.embeddings.4.embeddings.weight f4 [2, 6]
000000 06 e9 01 bf 69 d9 82 be 95 06 54 be 85 ff 01 3e
       -0.5074619 -0.25556496 -0.20705636 0.12695129
000010 97 39 ba 3d 94 3a 95 3c 00 00 00 00 00 00 00 00
       0.09093016 0.018216409 0.0 0.0
000020 00 00 00 00 00 00 00 00 00 00 00 00 00 00 00 00
       0.0 0.0 0.0 0.0

naim.embeddings.5.embeddings.weight f4 [2, 6]
000000 af c8 91 be 5f 20 c5 3c 24 10 13 3f 51 5e a7 3e
       -0.28473422 0.024063287 0.57446504 0.32689145
000010 f2 a3 ff be 9c c9 44 3d 00 00 00 00 00 00 00 00
       -0.49929768 0.048043832 0.0 0.0
000020 00 00 00 00 00 00 00 00 00 00 00 00 00 00 00 00
       0.0 0.0 0.0 0.0

naim.embeddings.6.embeddings.weight f4 [2, 6]
000000 6a 2a fd be 10 d7 d0 bd a3 df e6 bd ef 90 67 be
       -0.49446422 -0.1019727 -0.11273124 -0.22613882
000010 3c 4d 06 3e 66 be 31 3f 00 00 00 00 00 00 00 00
       0.131154 0.6943115 0.0 0.0
000020 00 00 00 00 00 00 00 00 00 00 00 00 00 00 00 00
       0.0 0.0 0.0 0.0

naim.embeddings.7.embeddings.weight f4 [2, 6]
000000 d5 7f b0 be bf e1 a1 bb 13 79 a7 3d 65 8e 1d bf
       -0.34472528 -0.004940241 0.0817739 -0.615454
000010 c2 6a 32 bd 4f 6e fe 3e 00 00 00 00 00 00 00 00
       -0.043558843 0.49693534 0.0 0.0
000020 00 00 00 00 00 00 00 00 00 00 00 00 00 00 00 00
       0.0 0.0 0.0 0.0

naim.embeddings.8.embeddings.weight f4 [2, 6]
000000 26 1d 10 3f a4 f0 03 be f2 40 5e 3e 72 20 0a bf
       0.56294477 -0.12884766 0.21704462 -0.5395576
000010 da 09 3b be fa 7f 54 3e 00 00 00 00 00 00 00 00
       -0.18265477 0.20751944 0.0 0.0
000020 00 00 00 00 00 00 00 00 00 00 00 00 00 00 00 00
       0.0 0.0 0.0 0.0

naim.embeddings.9.embeddings.weight f4 [2, 6]
000000 46 e4 cf 3e d1 bf 82 be 73 09 47 3d 33 1d bd be
       0.40603846 -0.2553697 0.048592996 -0.3693634
000010 1b 0b 0c bf 83 61 a4 3b 00 00 00 00 00 00 00 00
       -0.54704446 0.005016507 0.0 0.0
000020 00 00 00 00 00 00 00 00 00 00 00 00 00 00 00 00
       0.0 0.0 0.0 0.0

naim.embeddings.10.embeddings.weight f4 [2, 6]
000000 43 c5 b9 3d dc 77 c0 3d 46 64 81 3e 13 1e 7d 3e
       0.09070828 0.09397861 0.25271815 0.24718504
000010 80 96 14 3c 6b b6 d9 3e 00 00 00 00 00 00 00 00
       0.009069085 0.42521986 0.0 0.0
000020 00 00 00 00 00 00 00 00 00 00 00 00 00 00 00 00
       0.0 0.0 0.0 0.0

naim.embeddings.11.embeddings.weight f4 [2, 6]
000000 75 90 29 3e 4d 81 e8 bd 40 34 e9 be c2 59 f5 be
       0.16559012 -0.11352787 -0.45547676 -0.47920042
000010 4e 82 03 bd fe b1 84 be 00 00 00 00 00 00 00 00
       -0.03210669 -0.25917047 0.0 0.0
000020 00 00 00 00 00 00 00 00 00 00 00 00 00 00 00 00
       0.0 0.0 0.0 0.0

naim.embeddings.12.embeddings.weight f4 [2, 6]
000000 e4 62 14 3e 0d d3 47 be 0f ea 89 3d 53 da c7 3e
       0.14490849 -0.19514103 0.06734096 0.39033756
000010 d3 9d dd 3e 6b 47 b7 3d 00 00 00 00 00 00 00 00
       0.43284473 0.08949169 0.0 0.0
000020 00 00 00 00 00 00 00 00 00 00 00 00 00 00 00 00
       0.0 0.0 0.0 0.0

naim.embeddings.13.embeddings.weight f4 [2, 6]
000000 97 e3 80 be ac 49 cb bd 5b 75 94 be b0 ce 1c 3f
       -0.25173637 -0.09926161 -0.28995785 0.6125288
000010 73 3e 32 be 46 45 91 3e 00 00 00 00 00 00 00 00
       -0.17406635 0.28373164 0.0 0.0
000020 00 00 00 00 00 00 00 00 00 00 00 00 00 00 00 00
       0.0 0.0 0.0 0.0

naim.embeddings.14.embeddings.weight f4 [2, 6]
000000 8d 45 32 3e 80 38 19 3f 02 ef 15 be 08 79 aa 3d
       0.17409344 0.5985184 -0.14641955 0.08323866
000010 8a 3d 11 3f 10 6f 78 3c 00 00 00 00 00 00 00 00
       0.56734526 0.015163198 0.0 0.0
000020 00 00 00 00 00 00 00 00 00 00 00 00 00 00 00 00
       0.0 0.0 0.0 0.0

naim.embeddings.15.embeddings.weight f4 [2, 6]
000000 25 90 0b bf 05 18 a0 3e 6e be 93 3d fc ff 8b be
       -0.5451682 0.31268325 0.07214056 -0.27343738
000010 f6 0f 3d be ef fc fa 3e 00 00 00 00 00 00 00 00
       -0.1846312 0.49021098 0.0 0.0
000020 00 00 00 00 00 00 00 00 00 00 00 00 00 00 00 00
       0.0 0.0 0.0 0.0

naim.embeddings.16.embeddings.weight f4 [2, 6]
000000 f6 ef f6 3e f5 a0 bf 3d c0 40 81 3d e5 79 92 be
       0.4822995 0.09356872 0.06311178 -0.28608623
000010 62 f4 00 3e 53 1b c2 3e 00 00 00 00 00 00 00 00
       0.12593225 0.37911472 0.0 0.0
000020 00 00 00 00 00 00 00 00 00 00 00 00 00 00 00 00
       0.0 0.0 0.0 0.0

naim.embeddings.17.embeddings.weight f4 [2, 6]
000000 14 02 d4 3d de 72 12 3e ec 3e 17 3e 68 67 f2 be
       0.10351959 0.14301631 0.14770097 -0.47344518
000010 d4 e7 8e 3e 3b dc 86 be 00 00 00 00 00 00 00 00
       0.27911246 -0.26339898 0.0 0.0
000020 00 00 00 00 00 00 00 00 00 00 00 00 00 00 00 00
       0.0 0.0 0.0 0.0

naim.embeddings.18.embeddings.weight f4 [2, 6]
000000 77 51 02 bf 9a d2 e2 be a4 81 8d be 12 0b 01 3f
       -0.50905555 -0.443013 -0.2763797 0.50407517
000010 8f 57 b2 bc 05 c2 d5 bc 00 00 00 00 00 00 00 00
       -0.021770267 -0.026093492 0.0 0.0
000020 00 00 00 00 00 00 00 00 00 00 00 00 00 00 00 00
       0.0 0.0 0.0 0.0

naim.embeddings.19.embeddings.weight f4 [2, 6]
000000 d1 8a 03 3f bb c9 89 be 69 de 87 3e 51 ae 4b be
       0.5138369 -0.2691172 0.26536873 -0.19890715
000010 97 24 d1 bd 92 50 ae 3d 00 00 00 00 00 00 00 00
       -0.10212057 0.08511461 0.0 0.0
000020 00 00 00 00 00 00 00 00 00 00 00 00 00 00 00 00
       0.0 0.0 0.0 0.0

naim.embeddings.20.embeddings.weight f4 [2, 6]
000000 ad b7 85 3e 6b 87 0a 3e b5 76 a5 be 80 11 e0 be
       0.26116696 0.1352822 -0.3231713 -0.4376335
000010 d6 c0 f1 bd ca 87 63 3e 00 00 00 00 00 00 00 00
       -0.11804359 0.22219768 0.0 0.0
000020 00 00 00 00 00 00 00 00 00 00 00 00 00 00 00 00
       0.0 0.0 0.0 0.0

naim.embeddings.21.embeddings.weight f4 [2, 6]
000000 76 87 93 3d cf e0 94 bb 01 66 d6 3d 6c 83 1b bd
       0.072035715 -0.004543401 0.104686745 -0.03796713
000010 b4 07 14 3d 74 48 1c be 00 00 00 00 00 00 00 00
       0.03614016 -0.15262014 0.0 0.0
000020 00 00 00 00 00 00 00 00 00 00 00 00 00 00 00 00
       0.0 0.0 0.0 0.0

naim.embeddings.22.embeddings.weight f4 [2, 6]
000000 ac e7 a3 3e 77 9d 74 be 2b 67 27 bd 1a c0 02 3f
       0.3201269 -0.23888193 -0.040869873 0.51074374
000010 81 6c b9 3e 5b d0 38 be 00 00 00 00 00 00 00 00
       0.36215594 -0.18048231 0.0 0.0
000020 00 00 00 00 00 00 00 00 00 00 00 00 00 00 00 00
       0.0 0.0 0.0 0.0

naim.embeddings.23.embeddings.weight f4 [2, 6]
000000 2a 15 42 3e 8f cd 1f 3c f2 8b a7 be b3 9d 43 3f
       0.18953386 0.009753599 -0.32723957 0.76412505
000010 42 ed 42 bd a1 fa 6d be 00 00 00 00 00 00 00 00
       -0.047589548 -0.23240139 0.0 0.0
000020 00 00 00 00 00 00 00 00 00 00 00 00 00 00 00 00
       0.0 0.0 0.0 0.0

naim.embeddings.24.embeddings.weight f4 [2, 6]
000000 0f 03 6a 3c 16 5a 24 3e be 1c 44 be 5e f3 bd 3e
       0.014282956 0.1604999 -0.1915159 0.37099737
000010 5b e4 47 bf ce dd 5d 3d 00 00 00 00 00 00 00 00
       -0.7808282 0.054166608 0.0 0.0
000020 00 00 00 00 00 00 00 00 00 00 00 00 00 00 00 00
       0.0 0.0 0.0 0.0

naim.embeddings.25.embeddings.weight f4 [2, 6]
000000 12 08 b2 3e ef 94 0a be 03 7f 2e 3f 7e ba d8 3e
       0.34771782 -0.13533376 0.68162555 0.42329782
000010 4d 2a ad 3d 42 f8 60 3d 00 00 00 00 00 00 00 00
       0.08455334 0.054924257 0.0 0.0
000020 00 00 00 00 00 00 00 00 00 00 00 00 00 00 00 00
       0.0 0.0 0.0 0.0

naim.embeddings.26.embeddings.weight f4 [2, 6]
000000 98 71 04 3e 27 0b e4 be 21 c9 f9 be 3b 38 79 3e
       0.12933958 -0.4453976 -0.48786262 0.24337856
000010 45 d3 b1 3e 1c 09 93 3e 00 00 00 00 00 00 00 00
       0.34731498 0.28717887 0.0 0.0
000020 00 00 00 00 00 00 00 00 00 00 00 00 00 00 00 00
       0.0 0.0 0.0 0.0

naim.embeddings.27.embeddings.weight f4 [2, 6]
000000 29 60 d0 bd 57 90 bc 3e db bb f2 be 35 d1 fb be
       -0.10174591 0.36828873 -0.47408947 -0.4918305
000010 dc 2d 15 be d4 d3 a2 3c 00 00 00 00 00 00 00 00
       -0.14568275 0.019876398 0.0 0.0
000020 00 00 00 00 00 00 00 00 00 00 00 00 00 00 00 00
       0.0 0.0 0.0 0.0

naim.embeddings.28.embeddings.weight f4 [2, 6]
000000 f8 36 20 be 27 38 47 3e 8b 36 76 be 77 e3 9c be
       -0.15645969 0.19455014 -0.24044244 -0.30642292
000010 24 bb 16 3e ba 8d 94 bd 00 00 00 00 00 00 00 00
       0.14719826 -0.07253595 0.0 0.0
000020 00 00 00 00 00 00 00 00 00 00 00 00 00 00 00 00
       0.0 0.0 0.0 0.0

naim.embeddings.29.embeddings.weight f4 [2, 6]
000000 37 96 ee be f2 17 c5 bb cf 81 14 3f 75 09 23 be
       -0.4659898 -0.0060148174 0.5801057 -0.15921576
000010 e3 87 29 3d fb 98 96 be 00 00 00 00 00 00 00 00
       0.041389357 -0.2941359 0.0 0.0
000020 00 00 00 00 00 00 00 00 00 00 00 00 00 00 00 00
       0.0 0.0 0.0 0.0

naim.embeddings.30.embeddings.weight f4 [2, 6]
000000 bc 11 b3 bd 09 bf 8f 3e 5e 62 95 3e 52 c3 93 be
       -0.08743617 0.28075436 0.2917661 -0.28859955
000010 9d 70 81 bd e2 fd c3 be 00 00 00 00 00 00 00 00
       -0.063203074 -0.38279635 0.0 0.0
000020 00 00 00 00 00 00 00 00 00 00 00 00 00 00 00 00
       0.0 0.0 0.0 0.0

naim.embeddings.31.embeddings.weight f4 [2, 6]
000000 ea 25 ad 3e 5b 3e 4c be 90 6d 09 bd 48 b5 a1 bd
       0.3381799 -0.19945662 -0.033551753 -0.07895905
000010 57 72 73 be 3b 37 8d be 00 00 00 00 00 00 00 00
       -0.23774086 -0.275812 0.0 0.0
000020 00 00 00 00 00 00 00 00 00 00 00 00 00 00 00 00
       0.0 0.0 0.0 0.0

naim.embeddings.32.embeddings.weight f4 [2, 6]
000000 dd 77 a2 3d 14 91 86 3e e5 1b ae be 5f c1 3a bf
       0.07933018 0.2628256 -0.34005657 -0.7295131
000010 ae de 99 3e 8b 1b 32 be 00 00 00 00 00 00 00 00
       0.30052704 -0.1739332 0.0 0.0
000020 00 00 00 00 00 00 00 00 00 00 00 00 00 00 00 00
       0.0 0.0 0.0 0.0

naim.embeddings.33.embeddings.weight f4 [2, 6]
000000 04 48 01 be f6 d4 1b be 74 b4 ea be 95 88 47 be
       -0.12625128 -0.15217957 -0.458408 -0.19485696
000010 99 19 92 be fb eb 26 3f 00 00 00 00 00 00 00 00
       -0.28535154 0.6520383 0.0 0.0
000020 00 00 00 00 00 00 00 00 00 00 00 00 00 00 00 00
       0.0 0.0 0.0 0.0

naim.embeddings.34.embeddings.weight f4 [2, 6]
000000 22 4c 15 be d5 eb 09 3e f8 dd f1 3e 35 b1 63 bd
       -0.14579824 0.13468869 0.4723966 -0.05558892
000010 be 82 55 be a1 5e 54 3d 00 00 00 00 00 00 00 00
       -0.20850655 0.051848058 0.0 0.0
000020 00 00 00 00 00 00 00 00 00 00 00 00 00 00 00 00
       0.0 0.0 0.0 0.0

naim.embeddings.35.embeddings.weight f4 [2, 6]
000000 b5 5c 2f 3e 14 57 0e be 4f e4 ae 3e 09 0e 8c 3e
       0.17125209 -0.13900405 0.3415856 0.27354458
000010 e4 df bf 3e 6f d3 fc be 00 00 00 00 00 00 00 00
       0.37475502 -0.4938006 0.0 0.0
000020 00 00 00 00 00 00 00 00 00 00 00 00 00 00 00 00
       0.0 0.0 0.0 0.0

naim.embeddings.36.embeddings.weight f4 [2, 6]
000000 bd bd 20 be 4e 4b ae 3e 87 1c ec be 52 4a e3 3c
       -0.1569738 0.34041828 -0.46115515 0.0277454
000010 02 b4 ba 3c 9f 72 a4 3d 00 00 00 00 00 00 00 00
       0.022790913 0.08029675 0.0 0.0
000020 00 00 00 00 00 00 00 00 00 00 00 00 00 00 00 00
       0.0 0.0 0.0 0.0

naim.embeddings.37.embeddings.weight f4 [2, 6]
000000 bc ba c8 bb 69 ba a1 be 7e 1a 20 be ad a0 a3 bd
       -0.006125776 -0.31587532 -0.15635106 -0.07989631
000010 7e f1 82 3e e5 1f bb 3d 00 00 00 00 00 00 00 00
       0.2557487 0.09136943 0.0 0.0
000020 00 00 00 00 00 00 00 00 00 00 00 00 00 00 00 00
       0.0 0.0 0.0 0.0

naim.embeddings.38.embeddings.weight f4 [2, 6]
000000 4f 3f 22 3d 6a 55 9e bd ec b0 0f bc 85 57 ae 3e
       0.039611157 -0.07731135 -0.008770209 0.34051147
000010 bd 07 f3 bd a5 ed fd 3d 00 00 00 00 00 00 00 00
       -0.1186671 0.12398843 0.0 0.0
000020 00 00 00 00 00 00 00 00 00 00 00 00 00 00 00 00
       0.0 0.0 0.0 0.0

naim.embeddings.39.embeddings.weight f4 [2, 6]
000000 e2 1f d8 bc 5c 53 76 be 36 45 f4 3e 65 3e 19 bf
       -0.02638239 -0.24055237 0.47709054 -0.5986083
000010 38 f0 2e 3e 0f 3b 9f 3e 00 00 00 00 00 00 00 00
       0.17083824 0.31099746 0.0 0.0
000020 00 00 00 00 00 00 00 00 00 00 00 00 00 00 00 00
       0.0 0.0 0.0 0.0

naim.embeddings.40.embeddings.weight f4 [2, 6]
000000 da dd c1 bd 7a 73 47 3e 00 73 09 3e 3a f8 cb bd
       -0.09466143 0.19477645 0.13422775 -0.09959455
000010 17 20 ac bd 61 66 b6 be 00 00 00 00 00 00 00 00
       -0.08404558 -0.35624984 0.0 0.0
000020 00 00 00 00 00 00 00 00 00 00 00 00 00 00 00 00
       0.0 0.0 0.0 0.0

naim.embeddings.41.embeddings.weight f4 [2, 6]
000000 1a 23 81 bd f7 34 16 be d8 92 90 3e a6 34 10 3e
       -0.06305523 -0.14668642 0.28237033 0.14082584
000010 05 69 b2 3e 7d 2b 03 3f 00 00 00 00 00 00 00 00
       0.3484575 0.5123823 0.0 0.0
000020 00 00 00 00 00 00 00 00 00 00 00 00 00 00 00 00
       0.0 0.0 0.0 0.0

naim.embeddings.42.embeddings.weight f4 [2, 6]
000000 65 f0 84 be 57 fe 29 3f 5e e5 42 3e fe 98 ad 3e
       -0.25964656 0.66403717 0.19032809 0.33905786
000010 3d ec 8a 3d bc 6c ed bd 00 00 00 00 00 00 00 00
       0.0678334 -0.11593005 0.0 0.0
000020 00 00 00 00 00 00 00 00 00 00 00 00 00 00 00 00
       0.0 0.0 0.0 0.0

naim.embeddings.43.embeddings.weight f4 [2, 6]
000000 11 39 2f be 43 f0 f3 3c 8b 6e 1a 3f 98 96 d9 3e
       -0.17111613 0.029777652 0.60324925 0.42497706
000010 c5 8c a8 3e 29 cf be bd 00 00 00 00 00 00 00 00
       0.329199 -0.093168564 0.0 0.0
000020 00 00 00 00 00 00 00 00 00 00 00 00 00 00 00 00
       0.0 0.0 0.0 0.0

naim.embeddings.44.embeddings.weight f4 [2, 6]
000000 c4 62 82 bc 46 70 8e 3e 92 0e 27 3e b3 9c a4 be
       -0.015916236 0.27820033 0.16314152 -0.32150802
000010 fc e9 0a 3e 74 e2 e5 3e 00 00 00 00 00 00 00 00
       0.1356582 0.44899333 0.0 0.0
000020 00 00 00 00 00 00 00 00 00 00 00 00 00 00 00 00
       0.0 0.0 0.0 0.0

naim.embeddings.45.embeddings.weight f4 [2, 6]
000000 72 20 d4 be 3b 5d 1a bf 88 4b a5 be e3 51 1c 3e
       -0.41431004 -0.6029851 -0.32284188 0.15265612
000010 12 7e e1 be 16 58 0e be 00 00 00 00 00 00 00 00
       -0.44041497 -0.1390079 0.0 0.0
000020 00 00 00 00 00 00 00 00 00 00 00 00 00 00 00 00
       0.0 0.0 0.0 0.0

naim.embeddings.46.embeddings.weight f4 [2, 6]
000000 4a 39 9c bd d5 83 a1 3d 06 ac 82 3e 62 a1 9d bd
       -0.076281145 0.07886473 0.25521868 -0.07696797
000010 61 c4 0c 3e a9 cf 49 3e 00 00 00 00 00 00 00 00
       0.13746788 0.19708122 0.0 0.0
000020 00 00 00 00 00 00 00 00 00 00 00 00 00 00 00 00
       0.0 0.0 0.0 0.0

naim.embeddings.47.embeddings.weight f4 [2, 6]
000000 43 eb 9b 3e fa 22 af bd 0f 0e dd be 09 31 6c be
       0.30452928 -0.08551593 -0.43174788 -0.2306558
000010 a4 7a 77 3e 02 f7 92 be 00 00 00 00 00 00 00 00
       0.24167877 -0.28704077 0.0 0.0
000020 00 00 00 00 00 00 00 00 00 00 00 00 00 00 00 00
       0.0 0.0 0.0 0.0

naim.embeddings.48.embeddings.weight f4 [2, 6]
000000 24 a7 e1 3c b5 97 7d 3e 35 9e 91 3d 64 7b a5 3e
       0.02754552 0.24764903 0.07110254 0.32320702
000010 cc 53 26 3f 6d 37 b6 3e 00 00 00 00 00 00 00 00
       0.64971614 0.35589162 0.0 0.0
000020 00 00 00 00 00 00 00 00 00 00 00 00 00 00 00 00
       0.0 0.0 0.0 0.0

naim.embeddings.49.embeddings.weight f4 [2, 6]
000000 2f 3e 72 be 4f 14 71 3e 89 23 89 3e d8 47 dc bd
       -0.23656534 0.23542903 0.26784924 -0.107558906
000010 7a 98 b0 be 6f 6f c0 3e 00 00 00 00 00 00 00 00
       -0.3449133 0.37585017 0.0 0.0
000020 00 00 00 00 00 00 00 00 00 00 00 00 00 00 00 00
       0.0 0.0 0.0 0.0

naim.embeddings.50.embeddings.weight f4 [2, 6]
000000 c5 b7 03 3f 28 95 b5 3e 3b 16 ea bd bd 48 2b be
       0.51452285 0.3546536 -0.114300214 -0.16726966
000010 03 d4 d6 bd e1 f1 0a bf 00 00 00 00 00 00 00 00
       -0.10489657 -0.5427533 0.0 0.0
000020 00 00 00 00 00 00 00 00 00 00 00 00 00 00 00 00
       0.0 0.0 0.0 0.0

naim.embeddings.51.embeddings.weight f4 [2, 6]
000000 be 70 86 3d 37 bf 24 3e a8 c4 03 3f 78 f8 21 bf
       0.065644726 0.16088568 0.5147195 -0.6326976
000010 27 a1 b5 3e 1c aa 10 be 00 00 00 00 00 00 00 00
       0.35474512 -0.14127392 0.0 0.0
000020 00 00 00 00 00 00 00 00 00 00 00 00 00 00 00 00
       0.0 0.0 0.0 0.0

naim.embeddings.52.embeddings.weight f4 [2, 6]
000000 c8 d1 97 3e 72 e8 70 be af 56 6c be 59 07 52 be
       0.29652238 -0.23526171 -0.23079942 -0.20510615
000010 2c b0 dc 3d 28 2c a5 be 00 00 00 00 00 00 00 00
       0.107757896 -0.3226025 0.0 0.0
000020 00 00 00 00 00 00 00 00 00 00 00 00 00 00 00 00
       0.0 0.0 0.0 0.0

naim.embeddings.53.embeddings.weight f4 [2, 6]
000000 47 da 76 be 8b ea 28 be 15 61 07 3e f1 0d 9f bc
       -0.24106704 -0.16495721 0.13220628 -0.019415827
000010 75 c8 57 3f f6 d5 6e bc 00 00 00 00 00 00 00 00
       0.8429025 -0.014577379 0.0 0.0
000020 00 00 00 00 00 00 00 00 00 00 00 00 00 00 00 00
       0.0 0.0 0.0 0.0

naim.embeddings.54.embeddings.weight f4 [2, 6]
000000 05 5c 2a 3e 38 31 f2 3e 26 9a ce 3e 30 1c 26 3e
       0.16636665 0.47303176 0.4035198 0.1622169
000010 6c bc 0b bf 96 b0 a8 3d 00 00 00 00 00 00 00 00
       -0.54584384 0.08236806 0.0 0.0
000020 00 00 00 00 00 00 00 00 00 00 00 00 00 00 00 00
       0.0 0.0 0.0 0.0

naim.embeddings.55.embeddings.weight f4 [2, 6]
000000 60 30 8c 3e c8 cf 89 be bb 41 06 bf 03 6f 02 3f
       0.27380657 -0.26916337 -0.52444047 0.5095064
000010 83 c3 ce bd 10 3f 18 be 00 00 00 00 00 00 00 00
       -0.10095885 -0.14867806 0.0 0.0
000020 00 00 00 00 00 00 00 00 00 00 00 00 00 00 00 00
       0.0 0.0 0.0 0.0

naim.embeddings.56.embeddings.weight f4 [2, 6]
000000 c3 f6 b3 be 34 f3 ce be 34 5a 28 3e 90 e3 9b bd
       -0.35149202 -0.40419924 0.1644066 -0.076117635
000010 6a 9f ca be c0 c5 15 bd 00 00 00 00 00 00 00 00
       -0.39574748 -0.036565542 0.0 0.0
000020 00 00 00 00 00 00 00 00 00 00 00 00 00 00 00 00
       0.0 0.0 0.0 0.0

naim.embeddings.57.embeddings.weight f4 [2, 6]
000000 a8 21 c8 3e 69 4f 9a be 29 64 3c be 5f d3 53 3e
       0.39088178 -0.3013871 -0.18397583 0.206861
000010 16 1a 25 3f 63 3d 66 bc 00 00 00 00 00 00 00 00
       0.6449293 -0.014052722 0.0 0.0
000020 00 00 00 00 00 00 00 00 00 00 00 00 00 00 00 00
       0.0 0.0 0.0 0.0

naim.embeddings.58.embeddings.weight f4 [2, 6]
000000 00 00 0f be d5 94 28 3d cb 03 f1 3c 45 2d 51 bd
       -0.13964844 0.041157562 0.029420754 -0.051068563
000010 61 57 b6 3d 74 1d 67 be 00 00 00 00 00 00 00 00
       0.08903385 -0.22569829 0.0 0.0
000020 00 00 00 00 00 00 00 00 00 00 00 00 00 00 00 00
       0.0 0.0 0.0 0.0

naim.embeddings.59.embeddings.weight f4 [2, 6]
000000 7b e3 98 3e eb 9f 34 be 34 4f 68 be a1 37 21 3f
       0.29861054 -0.17639129 -0.22686464 0.6297551
000010 43 87 6d 3e de 3e ca 3e 00 00 00 00 00 00 00 00
       0.2319613 0.3950109 0.0 0.0
000020 00 00 00 00 00 00 00 00 00 00 00 00 00 00 00 00
       0.0 0.0 0.0 0.0

naim.embeddings.60.embeddings.weight f4 [2, 6]
000000 e4 d4 fe be 09 66 48 bd f0 4f 4b 3d 5c 45 f8 3e
       -0.49771798 -0.048925433 0.04963678 0.48490417
000010 f9 db 6f 3e a3 ef b8 3e 00 00 00 00 00 00 00 00
       0.23423757 0.36120328 0.0 0.0
000020 00 00 00 00 00 00 00 00 00 00 00 00 00 00 00 00
       0.0 0.0 0.0 0.0

naim.embeddings.61.embeddings.weight f4 [2, 6]
000000 64 52 50 be 88 3b 3a 3d 6b ed 00 3e 2f a9 c4 bd
       -0.2034393 0.04546693 0.12590568 -0.09602582
000010 d0 5f 6f 3e 31 7f d2 bd 00 00 00 00 00 00 00 00
       0.23376393 -0.10278166 0.0 0.0
000020 00 00 00 00 00 00 00 00 00 00 00 00 00 00 00 00
       0.0 0.0 0.0 0.0

naim.embeddings.62.embeddings.weight f4 [2, 6]
000000 39 88 73 3e 92 28 04 3e d5 aa 1e bf c8 97 59 bd
       0.23782434 0.12906101 -0.6197942 -0.053123266
000010 b9 59 ad be ba 50 cf be 00 00 00 00 00 00 00 00
       -0.33857515 -0.40491277 0.0 0.0
000020 00 00 00 00 00 00 00 00 00 00 00 00 00 00 00 00
       0.0 0.0 0.0 0.0

naim.embeddings.63.embeddings.weight f4 [2, 6]
000000 f7 f7 30 3f 56 9f 8c 3e 16 af 82 be 3c 1c 21 3e
       0.69128364 0.27465314 -0.25524205 0.15733427
000010 91 5e 31 be f1 ce 1b be 00 00 00 00 00 00 00 00
       -0.1732123 -0.1521566 0.0 0.0
000020 00 00 00 00 00 00 00 00 00 00 00 00 00 00 00 00
       0.0 0.0 0.0 0.0

naim.encoder.0.layer_norm_1.weight f4 [6]
000000 50 ff 70 3f d4 18 65 3f bc 53 6c 3f 12 32 73 3f
       0.94139576 0.8949101 0.9231527 0.94998276
000010 4e 20 6a 3f 51 19 6f 3f
       0.91455543 0.93398005

naim.encoder.0.layer_norm_1.bias f4 [6]
000000 ce 5f 41 3c 18 59 ab bb c8 25 9d bb 00 f3 42 3c
       0.011802627 -0.0052291267 -0.0047957636 0.011898756
000010 2f 36 8f 3c 3c e4 68 bc
       0.017481891 -0.014214572

naim.encoder.0.attn.linear_q.weight f4 [6, 6]
000000 40 59 ec bc c3 2b 03 3b ae 6d 0b bd 5a 70 9a be
       -0.028851151 0.0020015098 -0.034040146 -0.30163842
000010 7c 9a 98 3b 89 7f e9 3d 1b 88 08 bd 50 93 00 be
       0.004657088 0.114012785 -0.033332925 -0.12556195
000020 9f a3 a1 bc 05 76 96 3d f4 d2 8d bd 92 3f 67 be
       -0.01973134 0.07346729 -0.06925002 -0.22582844
000030 a0 0f fd bd 82 99 f0 ba b6 52 78 3d 7f c5 87 3e
       -0.12356496 -0.0018356296 0.060625754 0.26517865
000040 ee 3c 93 bb c1 60 70 3d b8 58 19 3e 73 a8 c8 bd
       -0.0044933474 0.05868602 0.1497525 -0.09797754
000050 c3 1b 7a bd 69 66 3f 3e 27 f0 47 3e d7 cf 09 3d
       -0.061061632 0.1869141 0.19525205 0.033645477
000060 70 7b 5f be f9 83 0b 3e c3 f7 79 be 6b f9 fb 3d
       -0.21824431 0.13624562 -0.2441092 0.12303432
000070 6d ea 22 39 5e 92 63 3d 16 26 98 be a1 67 65 bd
       0.00015536854 0.05555951 -0.29716557 -0.05600703
000080 48 31 aa 3d bd ff 5e 3e 0d 80 17 bd 14 e1 86 3e
       0.08310181 0.21777244 -0.036987353 0.26343596

naim.encoder.0.attn.linear_k.weight f4 [6, 6]
000000 dc 35 e2 bc 06 55 1d be a9 e7 c1 bd c4 32 ce 3b
       -0.027613573 -0.15364465 -0.09468014 0.006292673
000010 ec e4 0e bc 6d fa e0 3d bd 3c 08 be 28 de 26 bd
       -0.008721571 0.10985265 -0.1330442 -0.04073921
000020 b4 02 9d be 15 43 75 3e 1a 7a 6e bc ce cd 66 be
       -0.30666125 0.23951371 -0.0145554785 -0.22539446
000030 cc 80 b8 bc 97 2d 5d bc 9e 97 f8 3c ac 51 6d 3b
       -0.022522353 -0.013499639 0.030345734 0.003621201
000040 d8 73 24 3e ae 8d 53 bd 24 5f 0f bd 2e 1e 29 bd
       0.16059816 -0.05164879 -0.035002843 -0.041288547
000050 65 c4 db 3b 7f 37 77 3e 78 d5 61 bb 21 35 5c 3e
       0.0067067617 0.24142264 -0.0034459513 0.21504642
000060 4d b1 65 3e b1 0b 02 be 82 d6 f4 ba a7 9a cc bd
       0.22430916 -0.12699772 -0.0018679651 -0.09990435
000070 17 a1 b1 3d 53 c9 8e bd 85 77 26 3d fc 2c 83 bb
       0.086733036 -0.06971993 0.040641326 -0.0040031653
000080 c8 76 33 be 4d 72 3a be 0f 85 9a be 16 ea 15 be
       -0.1752578 -0.18207665 -0.3017964 -0.14640078

naim.encoder.0.attn.linear_v.weight f4 [6, 6]
000000 a8 43 d3 3d 29 24 8f 3c 3b 55 92 3e 7b 56 b0 be
       0.10315639 0.017473297 0.2858065 -0.3444098
000010 ad 4d 06 bd c3 7c a3 be e7 2c be bc 7c 37 02 3e
       -0.03278892 -0.31931123 -0.02321477 0.12716478
000020 2e aa b3 be 01 87 b1 3e 12 21 bc bd 18 e5 b4 3e
       -0.35090774 0.34673312 -0.09185995 0.35331035
000030 5e 3d 5c bd 6c 7b 2a 3e bb 02 af 3e f9 0e 03 be
       -0.05376946 0.16648644 0.3418177 -0.1279868
000040 5b 1c a8 bd 06 a6 4a 3e ef 2a af be 3f ec 6c 3e
       -0.082085334 0.19789895 -0.34212443 0.23136996
000050 af 66 7e be 12 55 bf 3e 9c 1a 81 be af 8b 24 be
       -0.24843858 0.3736959 -0.25215614 -0.1606891
000060 e7 f3 9a 3e 83 7f 3a be 65 5b 99 3e d9 ff 82 3e
       0.30264208 -0.18212704 0.2995254 0.2558582
000070 e3 a4 ba 3e d0 33 c7 be b9 31 78 bc e5 ec db bd
       0.36453924 -0.38906717 -0.015148574 -0.107385434
000080 04 1f a7 3d 8e 9e 95 be 0e a7 1c 3e 3c c4 a2 bc
       0.08160213 -0.2922253 0.15298101 -0.019868962

naim.encoder.0.attn.linear_o.weight f4 [6, 6]
000000 4c 2b d0 bd 83 ab 89 be 53 8c f7 3d f7 98 7a bd
       -0.10164508 -0.26888666 0.120873116 -0.061181035
000010 98 a4 51 3e 8c a8 0b 3c 82 92 29 3d a5 e0 6c bb
       0.20472944 0.008524071 0.041399486 -0.003614464
000020 86 d1 0f bb fc 4b 5a bd 96 bc 82 be 98 51 25 3e
       -0.0021944954 -0.05329512 -0.25534505 0.16144407
000030 50 60 78 be 25 90 7a 3e 2f 86 fa bd a4 25 88 3e
       -0.2425549 0.2446905 -0.12232625 0.26591218
000040 93 2c b8 3e 4d 45 70 be d9 16 a9 3e 18 b0 08 3c
       0.35971507 -0.23463936 0.33025244 0.008342765
000050 a4 b3 9c be 7b c4 28 3e 68 bd 6a 3e 1f 32 b3 3e
       -0.30605805 0.16481201 0.22923815 0.34999177
000060 27 02 c6 be d7 ca b2 3e 7f 3e 92 3e 6b ec c1 3e
       -0.38673517 0.3492038 0.28563306 0.37875685
000070 b3 49 54 3e f2 2e 4d be 85 44 9a 3e fb cc bb 3e
       0.20731239 -0.2003744 0.301304 0.36679825
000080 61 3f 1d be 5a 67 8d bd 27 92 9e 3e 10 f7 a2 3e
       -0.15356208 -0.06904478 0.3097088 0.3182912

naim.encoder.0.layer_norm_2.weight f4 [6]
000000 48 5e 77 3f a6 bd 78 3f 78 e6 79 3f ec 2f 78 3f
       0.96628237 0.9716438 0.9761729 0.9694812
000010 b7 e1 75 3f de 1a 79 3f
       0.9604754 0.9730662

naim.encoder.0.layer_norm_2.bias f4 [6]
000000 b3 03 ad 3b fd 90 87 3b dd fe 52 3b e7 09 af bb
       0.005279982 0.004137157 0.0032195367 -0.0053417566
000010 70 15 8a bb 51 48 12 bb
       -0.0042139813 -0.0022320936

naim.encoder.0.ff.0.weight f4 [1000, 6]
000000 e6 45 43 3e 60 0f 6b 3e 09 f3 f9 bd d0 55 36 bd
       0.19069633 0.22955084 -0.122045584 -0.04451543
000010 8d 50 be bd 31 ed 17 3e 21 22 72 3d 6b 27 75 be
       -0.092927076 0.14836575 0.05911458 -0.23940818
000020 0a 60 87 bc 03 7f 7d be ac c6 95 be 15 53 99 3e
       -0.016525287 -0.24755482 -0.29253137 0.299462
000030 a6 56 18 be 89 1c 07 3e 7c 9f 2b bd f6 4a 4a bd
       -0.14876804 0.13194479 -0.041900143 -0.049387895
000040 67 81 8c 3a 17 ea 85 3e 16 a4 ad bb 13 ba 76 3e
       0.0010719717 0.2615516 -0.0052991016 0.24094419
000050 13 d8 15 3e 65 79 3f 3e 58 74 8b be aa 85 ca bd
       0.14633207 0.18698652 -0.272372 -0.09888776
000060 32 e1 87 be dc aa 6f bd df a9 29 bd c8 31 58 3d
       -0.26538998 -0.058512554 -0.041421767 0.05278185
000070 6f 02 8a 3e ac 89 1b 3e 96 6b 65 be be 0d 45 be
       0.26954982 0.15189236 -0.22404322 -0.19243523
000080 92 1c 5b 3e 77 6b 76 3c 46 fb 88 3d 53 fd 2b be
       0.21397617 0.01504027 0.066885516 -0.16795854
000090 84 2f e4 bc 44 04 8c 3d be 24 35 be ff f5 3e 3e
       -0.027854688 0.06836751 -0.17689797 0.18648528
0000a0 cb 51 03 3e 28 56 2f be e9 9b af bd a1 04 56 bd
       0.1282417 -0.1712271 -0.085746594 -0.05225051
0000b0 a7 9b b4 3c 56 23 52 bd 02 c0 93 3e d0 0e 98 be
       0.022046877 -0.05130323 0.28857428 -0.296988
0000c0 be be 2a be e2 e6 38 be a0 5a 37 3d f6 53 19 3d
       -0.16674325 -0.18056825 0.04476416 0.037433587
0000d0 18 cf 4f bd b4 51 90 3e fb 9e 82 be 8b a8 87 3d
       -0.05073461 0.28187335 -0.25511917 0.06623944
0000e0 70 12 08 be a1 b4 3c bd 2e 53 98 be 97 d9 54 be
       -0.13288283 -0.0460707 -0.2975096 -0.20786129
0000f0 47 06 84 be fa ae da 3d d1 c3 95 bd 6a 0d 0a 3e
       -0.2578604 0.106779054 -0.0731274 0.1348168
000100 ff 4b 0e be 29 c5 5e bd a1 3b d9 3c df 8b 85 3e
       -0.13896178 -0.054387245 0.026517691 0.26083276
000110 28 50 4e bd fb 00 23 3e 4a 00 59 3d 03 07 41 3e
       -0.05036941 0.15918343 0.05297879 0.18850331
000120 4c 12 43 3e 15 6f d1 3d e3 18 85 bd b9 6e 92 bd
       0.19049948 0.10226265 -0.064988874 -0.07150025
000130 08 6b da 3d b6 27 2e 3e 9d 77 fa 39 82 e9 e7 3d
       0.10664946 0.17007336 0.00047772835 0.11323835
000140 93 ff 1c be 87 a3 0c 3e 7a 16 81 bb d4 74 3d be
       -0.15331869 0.13734256 -0.003939447 -0.18501598
000150 ae 18 ed bd a8 37 61 be cf d0 a9 3c 5f 28 1f be
       -0.11576973 -0.21993887 0.02072945 -0.15542744
000160 05 fa 40 bd 1a ea 04 bc 56 9d 29 be bd 70 84 3c
       -0.047113437 -0.008112455 -0.16563925 0.016167039
000170 92 15 76 bc f1 ab 82 3d 8d cb 49 3e da aa 31 be
       -0.015019791 0.063804515 0.19706555 -0.17350331
000180 3d 21 05 3e 61 97 2b 3a 18 12 0f be 29 ee c8 bd
       0.1300096 0.00065456895 -0.13971746 -0.098110504
000190 0f bc 01 3d 8b 70 86 3c 77 8a 13 bc 5b 44 03 be
       0.031673487 0.016411087 -0.009005181 -0.12819044
0001a0 02 fe ea 3d 70 68 21 3d 80 63 97 be ad 19 e2 bc
       0.114742294 0.03940624 -0.295681 -0.027600134
0001b0 7a 62 49 bd 16 59 ce bd 52 a3 05 be d1 9d 70 be
       -0.04916618 -0.100755855 -0.13050583 -0.23497702
0001c0 16 3a 9c 3e 3c 58 8d be 22 36 98 3e cc 1e 70 be
       0.30513066 -0.2760638 0.297288 -0.23449248
0001d0 d0 18 15 bd 06 6e d1 bd ff dd 19 be ee da d0 3d
       -0.036400616 -0.102260634 -0.15026091 0.101980075
0001e0 26 19 24 3e 39 9b 44 be 1d 67 d7 bd f6 c3 0e 3e
       0.16025218 -0.19199838 -0.10517714 0.1394194
0001f0 bf 8a b3 bc 0f ac 9c 3d 91 ed fd 3d 50 51 8a bd
       -0.021916745 0.07650005 0.12398828 -0.067537904
000200 19 e1 07 be e4 36 95 3d 27 42 95 bd bb bf 34 be
       -0.13269462 0.0728586 -0.07288008 -0.17651264
000210 70 15 fd bd 4a 36 eb bd 9c 4a 9e 3e 66 e4 e8 3c
       -0.123576045 -0.11484964 0.30916297 0.028429221
000220 e0 51 b6 3d da aa 9d 3c e0 5f 3a be 44 c3 4a 3e
       0.08902335 0.019246507 -0.18200636 0.1980105
000230 84 54 45 bc eb 00 21 bd 60 15 72 3e 09 ad f4 bd
       -0.012044076 -0.039307516 0.23640966 -0.11947066
000240 1c 34 4f 3d ff a1 84 be 60 58 06 3e 37 0c c1 3d
       0.050586805 -0.25904843 0.1311965 0.09426158
000250 a0 51 78 be a5 d7 25 3e cd c7 bc 3c 1c 41 0e be
       -0.24249887 0.16195543 0.023044491 -0.13892025
000260 db c6 81 3e f6 a6 c3 3d cb e4 a8 3d 2a 9e cf bd
       0.25347027 0.0955333 0.08246764 -0.10137589
000270 2e cc 33 be fa 5a 29 be 94 12 ac 3d 14 7a 9c 3d
       -0.17558357 -0.16538611 0.08401981 0.07640472
000280 17 cb 20 be 0b 9b 9f 3e ca eb 13 3e 92 c2 a2 bd
       -0.15702473 0.31172976 0.14445415 -0.079472676
000290 d2 f7 f4 3d 90 a6 b3 bd 6a bb 4c 3d 87 11 7e 3e
       0.119613305 -0.08772004 0.04998342 0.24811374
0002a0 fd fb 8f be ca 10 08 be ed be d8 bb 43 38 0b 3d
       -0.2812194 -0.13287655 -0.006614557 0.033989202
0002b0 64 24 74 be ac b9 51 be a4 20 67 bc cd 3c c7 bc
       -0.23842007 -0.20480984 -0.014106903 -0.024320984
0002c0 1d 4f 12 3d 2b 98 5d 3c 4d dd 18 3d 9b 26 16 3c
       0.03571998 0.013525049 0.037320424 0.009164478
0002d0 51 3e 45 3c 83 19 4a b8 3d 4f 64 3d ef 2e 45 3e
       0.012038783 -4.8184313e-05 0.05573963 0.19256185
0002e0 38 42 f9 bd 3f 69 02 be 12 bd f4 3d 8b 9f 5e be
       -0.12170833 -0.1273546 0.11950125 -0.21740548
0002f0 bd 2b 2f 3e 22 63 fe 3d 73 d8 28 3d 2f 09 f7 bd
       0.17106529 0.12421252 0.041222047 -0.120622985
000300 aa 4a 4c 3c a5 3c 70 be 20 45 8a be fa a7 92 3e
       0.012468973 -0.23460634 -0.27005863 0.2864378
000310 8b 81 8a be c7 ff 80 be 42 5b 94 bd 8c 56 d1 37
       -0.27051958 -0.25195143 -0.072439685 2.4955043e-05
000320 18 d7 1d 3d 87 5c ec bd 29 8c 63 bc 62 26 e7 bc
       0.038535208 -0.11541086 -0.013888397 -0.028216545
000330 0b 28 80 3e fd 97 81 3e 3e 9d b9 3d 2c 64 b4 bb
       0.2503055 0.2531127 0.09063195 -0.0055051055
000340 24 8c 57 3e cf 4c 6f be d7 f9 aa 3d d8 c7 12 be
       0.21049553 -0.23369144 0.083484344 -0.14334047
000350 7d 79 61 3e b8 7a 88 be 30 c2 96 3d 3e 46 71 be
       0.22019 -0.26656127 0.07361257 -0.23561952
000360 26 65 16 3e 0d a8 f5 3c 87 47 81 3e 8c 72 60 be
       0.14687023 0.02998736 0.25249884 -0.21918696
000370 3e 48 2e 3e 35 95 37 be 46 38 08 be 29 5b 93 3d
       0.17019746 -0.17928012 -0.13302717 0.07195122
000380 93 29 78 bc d2 05 6a be f1 e7 80 be cd 5e 23 bd
       -0.015146631 -0.22853783 -0.25176957 -0.03988533
000390 bb 6e 00 3d b6 af 85 3e fc f1 53 3e e1 2e 01 bc
       0.0313556 0.2611062 0.20697778 -0.007884712
0003a0 8a 0b 1f be 8a 8c 88 be 1b 32 89 3e 75 50 11 be
       -0.15531746 -0.26669723 0.2679604 -0.14190848
0003b0 95 9a 8e bc 98 a0 74 be 74 35 43 be e5 ad c2 3c
       -0.017407695 -0.23889387 -0.1906336 0.02376456
0003c0 e5 95 d2 bc d5 b5 44 3a 18 a5 5c b7 4b 3d c8 36
       -0.02570624 0.0007503902 -1.3151461e-05 5.9676e-06
0003d0 31 e7 6d bc 06 d6 e9 b5 47 84 b9 3d 02 53 4f 3e
       -0.014520452 -1.7422142e-06 0.09058433 0.20246509
0003e0 8f 76 7c 3e d4 e1 73 be 7b 3c 7c be 55 fa 49 bc
       0.24654602 -0.23816615 -0.24632446 -0.01232775
0003f0 c5 7f 96 bb 02 49 0e 3e 41 97 92 3e c8 c1 48 3d
       -0.004592868 0.13895038 0.28631023 0.04901293

naim.encoder.0.ff.0.bias f4 [1000]
000000 aa aa 34 3e 49 58 15 be ed 45 e2 bc 23 f9 1d 3c
       0.17643228 -0.1458446 -0.027621234 0.009641918
000010 1f 2c 62 3e b0 d8 0c 3e 3d d5 9d 3e fb 07 07 be
       0.22087143 0.13754535 0.3082675 -0.13186638
000020 15 6e 89 bc 7e ee 0d bc 86 cb 7a 3e e1 cb 9a 3e
       -0.016776124 -0.008662818 0.244917 0.30233672
000030 a8 40 92 3d 6f 9d 6d be ff 77 55 be 46 47 20 3d
       0.071412385 -0.23204587 -0.20846556 0.03913047
000040 df c5 86 be 92 cc 9f bd dd e8 57 be 2e 47 14 3e
       -0.2632284 -0.078026906 -0.21084924 0.14480278
000050 21 70 ef bb 47 d1 65 be 48 42 3c 3e 6f 1b 88 be
       -0.007307068 -0.22443114 0.1838466 -0.2658343
000060 82 37 d6 bc d1 41 9d 3e c4 ea 20 3e 12 b4 84 be
       -0.026149515 0.30714276 0.15714556 -0.25918633
000070 7d ee 97 3c e9 4e dc bc 27 9f e7 3d 8d 00 97 3e
       0.018546337 -0.026893096 0.11309653 0.29492608
000080 64 19 85 3e 9a 4a 0a bc e8 56 f0 3d 9c 88 9b be
       0.25995934 -0.008440638 0.11735326 -0.30377662
000090 23 04 77 3e 5c 92 0e 3e 6e ea 43 be e2 4c 7c bd
       0.24122672 0.13923019 -0.19132397 -0.06159676
0000a0 cc 93 8e bd a1 df 1a be 20 ed d3 3d 53 b8 23 bd
       -0.06961784 -0.1512437 0.103479624 -0.039970707
0000b0 a3 82 eb 3d 37 77 2c bd 62 1f 6c 3e 70 b8 ae bd
       0.11499526 -0.04210588 0.23058847 -0.085312724
0000c0 3b bd 14 bd 9c 9f 8c bd ab 92 29 3c 7f c2 8c bd
       -0.036313277 -0.068663806 0.01034991 -0.06873035
0000d0 44 2d 4d be a3 0d 95 be e0 3d 2d 3e 79 d5 ec 3c
       -0.20036799 -0.29111966 0.16918135 0.028910385
0000e0 df c1 35 be 9b 1c 29 3e d6 81 c6 3c 1b 08 b4 bd
       -0.17749737 0.16514818 0.024231832 -0.087906085
0000f0 ce fa 9f bc 09 c6 c1 3b 5e bd 4d 3e da d5 8d be
       -0.019528773 0.0059135 0.20091769 -0.27702218
000100 c8 52 60 be 60 02 6d be 69 a0 65 be 6e 92 8a ba
       -0.21906579 -0.23145437 -0.22424473 -0.0010572204
000110 19 e5 15 3e 2a 64 7d 3d f0 f6 ce 3d 9d 3f eb 3c
       0.14638175 0.061863102 0.10105693 0.028716857
000120 29 90 47 ba cd b0 8b be 48 73 8b 3e 1e 04 9e 3e
       -0.0007612729 -0.27283326 0.2723639 0.30862516
000130 2a 9d 0d 3c 21 f6 3c 3d 92 19 fc 3c 1c 8e 9f 3e
       0.008643428 0.046133164 0.030773912 0.31163108
000140 d0 b7 e4 ba 09 e3 08 bc 14 da 13 be ac 2c 77 3d
       -0.00174498 -0.008354911 -0.14438659 0.060345337
000150 85 13 fc 3d 0c bd 7d be b0 64 aa 3d 10 d8 6a 3d
       0.123084106 -0.24779147 0.08319986 0.05733496
000160 bf 13 f9 3d ef c3 e2 3d e9 f8 94 bd 19 3c 50 3d
       0.121619694 0.110725276 -0.07274038 0.050838564
000170 0c 18 4f be f7 3e 3d 3e 59 9f 80 be f1 01 87 be
       -0.20224017 0.1848105 -0.25121573 -0.2636867
000180 d3 c8 55 be 2c 6e 0c be 21 cd 8d 3a 83 8a 3b 3e
       -0.2087739 -0.13713902 0.001081858 0.18314557
000190 e2 d1 16 39 8a 79 62 3e 9e f4 2f bc 76 58 82 3e
       0.00014383302 0.22116676 -0.010739474 0.25458115
0001a0 d2 b6 54 3e 3d 75 3d 3e 68 e4 a6 3d bf e2 4d be
       0.20772865 0.18501754 0.08149034 -0.20106028
0001b0 a7 23 a1 3e e4 0d 9b be 05 01 41 be 67 48 1a be
       0.31472513 -0.30284035 -0.18848045 -0.15066682
0001c0 b5 9a 1d bd 0f c8 d5 3d 39 5f 2e 3d e3 4a 87 be
       -0.03847762 0.10438549 0.04257128 -0.26424322
0001d0 49 cd 9f 3e 8d e9 9d 3e 7c 10 e6 3d 3d ec 99 be
       0.31211308 0.30842248 0.11233613 -0.30063048
0001e0 ee c5 24 3e bc fa 74 3d 79 5b dc b9 33 85 7a be
       0.16091129 0.05980943 -0.00042029822 -0.24464874
0001f0 c5 f8 88 3e f4 cd 33 bd 56 da 7a be 91 31 64 3e
       0.26752296 -0.043897584 -0.24497351 0.22284533
000200 25 e7 c7 3d a4 b4 60 3d 05 26 3e 3e bd 70 bd 3d
       0.09760884 0.054859772 0.18569191 0.09250019
000210 bf d9 57 bd f8 0b 56 bc 95 26 85 3e 06 27 4c b9
       -0.052697893 -0.013064377 0.26005998 -0.00019469493
000220 7d 63 7a be ca b2 3a be b2 41 59 be 4c 52 c0 3c
       -0.24452014 -0.18232265 -0.21216467 0.023476742
000230 09 8f 61 3e 7d 08 2a 3e ab 70 79 3d 9c 12 d2 3d
       0.2202722 0.166048 0.060898464 0.10257456
000240 5b f3 dd bd f5 32 a0 3e e8 3b cf 3d 03 56 24 be
       -0.10837432 0.31288877 0.10118848 -0.16048436
000250 77 ad 34 be b4 f4 89 be 2a 1f 17 bd 88 43 57 3e
       -0.17644297 -0.26944506 -0.036894955 0.21021855
000260 7c c7 4a 3c d6 13 d0 bd 37 c3 9d 3d 5d 16 43 be
       0.012376662 -0.101600334 0.0770325 -0.190515
000270 62 18 9d 3d 85 53 44 3e a9 d2 0b 3e 0c 85 6a bd
       0.07670666 0.19172485 0.13654579 -0.05725579
000280 3a e6 b5 bd 88 57 00 3e 86 c7 26 3e 95 70 dd bc
       -0.08881803 0.1253339 0.1628705 -0.027031222
000290 e4 ae dc 3b df d5 2a bc ba 89 43 bc 64 1e 88 be
       0.006734716 -0.010426967 -0.011934692 -0.26585686
0002a0 da fb 6e be a2 b6 84 3e 81 a5 d8 bd c1 fa 5b 3e
       -0.23338261 0.25920588 -0.10578442 0.21482374
0002b0 d5 2b 42 3e ee 89 e2 bc bb 4c 0a be 48 ec 68 3b
       0.18962033 -0.02765366 -0.13505833 0.0035541225
0002c0 eb 16 14 bd cb ec 19 be f4 87 9d 3e 4e 55 30 bc
       -0.03615467 -0.15031736 0.30767787 -0.010762526
0002d0 ab c6 ad bc 81 56 3d be 11 c2 00 3d 0d f1 12 3d
       -0.021212896 -0.1849003 0.031435076 0.035874415
0002e0 79 0c a5 3e d2 0f 3e bd 11 63 16 3e 3e 61 65 3c
       0.32236078 -0.046401806 0.14686228 0.014000235
0002f0 ed c9 25 3e 58 01 46 3c 1b fb 22 bc 09 98 f4 3d
       0.1619031 0.012085281 -0.0099475635 0.11943061
000300 8a 0e ca bd 82 2d 33 3e da e7 79 be 27 43 4a be
       -0.09866054 0.17497829 -0.2440485 -0.19752179
000310 7f e5 9a 3e 1d 60 87 bd bd e8 6e be 5b 75 55 be
       0.30253217 -0.06610129 -0.2333097 -0.20845549
000320 95 48 9c 3e d1 0a a3 bc 93 54 7c be 0b 0d 0f bd
       0.30524126 -0.019902619 -0.24641638 -0.034924548
000330 fc 31 e4 bd ff 7a 32 be 28 f2 12 be 5e aa 5f 3e
       -0.11142346 -0.17429732 -0.14350188 0.21842334
000340 52 03 b8 3d 30 8d 25 3e 0b de 9c 3c 6e 92 a5 bd
       0.08985008 0.1616714 0.019148847 -0.0808457
000350 3b 06 d2 bd ef 6f 32 be 82 84 4c be c7 7a 83 be
       -0.102550946 -0.17425512 -0.19972423 -0.2567961
000360 31 f8 15 3d 2e 2a 1a 3e a8 fd 8b 3e 9d de ec 3a
       0.036613647 0.15055153 0.27341962 0.0018071715
000370 c4 93 ab bc ad 78 a5 39 1b 65 ce 3d 50 17 96 bc
       -0.020944484 0.00031561163 0.10077878 -0.018321663
000380 af c7 b9 bd 57 b0 23 bd de 50 99 be ed 60 5f be
       -0.0907129 -0.039963093 -0.2994451 -0.21814318
000390 d4 90 b2 bd b7 02 99 3a e9 4e 26 be 81 99 b5 3d
       -0.0871903 0.0011673783 -0.1624104 0.08867169
0003a0 fb d0 0a be fc d4 98 3e f0 24 86 be 96 d7 2a 3e
       -0.13556282 0.29849994 -0.26200056 0.16683802
0003b0 4e 6d 09 be 7d a7 89 bd cb 29 94 be df 12 92 be
       -0.13420603 -0.06721399 -0.28938136 -0.28530023
0003c0 e7 59 94 be 6e 63 1a bc db 45 93 3e 5d 05 df 3d
       -0.2897484 -0.00942312 0.28764233 0.10889695
0003d0 a2 15 34 3e 3e 8b 2f 3d a0 00 8e bd 8e 07 ab bd
       0.17586377 0.0428574 -0.06933713 -0.0835105
0003e0 ab a7 3d bd 7d 39 91 be 7c e8 1c 3e 91 3c 84 bd
       -0.04630248 -0.28364173 0.15323061 -0.064568646
0003f0 db 5a 2c be e4 4f a6 3d 0d 5a 42 bb 56 bb 20 3e
       -0.16831534 0.08120707 -0.0029655725 0.15696463

naim.encoder.0.ff.3.weight f4 [6, 1000]
000000 da 74 51 bc d8 52 60 bb 83 1e 1b 3a d9 42 ea bb
       -0.012784207 -0.0034229066 0.00059173274 -0.007149082
000010 ea a0 94 bb 49 c9 87 3b 86 cc ac bb ff 03 3f bc
       -0.004535784 0.004143868 -0.0052734045 -0.011658668
000020 a4 45 da 3c ad 6b 29 3c 4a ec 64 bb 0c cd 74 bb
       0.026644535 0.010340613 -0.0034930878 -0.0037353663
000030 7e 52 95 bc 39 df 8e bc d7 a3 bc 3a bf 99 33 bb
       -0.018227812 -0.017440425 0.001439209 -0.0027404872
000040 73 5a 76 3b 3e 1b eb bb 34 7a 7e bb ee b2 23 3c
       0.0037590533 -0.0071748784 -0.0038830163 0.009991391
000050 b0 ef 1f 3d b7 1a 93 3c a2 fa 9a bc 6e 61 01 3c
       0.039046943 0.017957075 -0.01891834 0.007896764
000060 fc e7 a1 3b 6a 64 42 ba a2 77 a3 3c 09 cf 0a bb
       0.004940985 -0.00074154756 0.019954506 -0.0021180531
000070 17 89 c7 b9 a4 d2 9e bc 21 c3 0a bc b7 92 e7 bc
       -0.00038058378 -0.01938755 -0.008469374 -0.028268201
000080 2a 76 7e 3c c7 d7 62 bc 69 04 d3 bc b6 b8 bf bc
       0.015531102 -0.013845391 -0.025758939 -0.023403507
000090 61 b0 61 3c 64 3b 06 bc 6c 90 b1 3c 70 c1 08 bc
       0.013774962 -0.008192871 0.021675311 -0.0083469
0000a0 02 6c e6 37 1e b6 14 bb f1 8d c6 bc 75 2c 87 3c
       2.7468432e-05 -0.0022691558 -0.024237605 0.016500691
0000b0 a7 b1 a9 bc 83 c6 a3 bc c7 f9 99 3b 38 44 b4 3b
       -0.020714594 -0.019992119 0.004698965 0.0055012964
0000c0 b1 a7 f7 3b 41 b6 25 3d 12 45 7f bc b7 1f c3 bb
       0.007557832 0.040457014 -0.0155804325 -0.0059547084
0000d0 9c f5 ad 3c f5 78 b8 bb 6b 64 18 3a 82 bc 97 bb
       0.02123528 -0.0056296536 0.0005813303 -0.004630626
0000e0 c3 d6 28 3b 4d c5 03 3d f3 80 13 3b a9 35 6e 3c
       0.0025762774 0.032170583 0.002250728 0.014539161
0000f0 d2 2f 08 3d ca 36 0f 3c 75 50 7a 3c 29 82 f2 3c
       0.03324873 0.00874109 0.0152779715 0.02960308
000100 ae 8e 33 bc ff 9e 65 bb 38 bb e9 bb 43 63 b6 bc
       -0.01095931 -0.0035037396 -0.007132914 -0.022264129
000110 77 2e da 3c 49 0e fe bc fd bf dc bc ba 33 7c bb
       0.026633484 -0.031012671 -0.026947016 -0.003848298
000120 11 40 e6 bc 4d e0 ad bc 8d a9 40 bc 46 1e 7c 3b
       -0.028106721 -0.021225119 -0.011759174 0.0038470193
000130 77 43 d8 bc b6 eb 88 bc 7d 92 e9 bb 06 f3 8f bc
       -0.026399357 -0.016713958 -0.0071280585 -0.017571937
000140 67 75 70 3c 8f 32 5a bb 81 42 6c 3c 51 9c 03 3d
       0.014676428 -0.0033294295 0.014420153 0.032131497
000150 54 f8 e7 bb 20 54 f2 bb a7 fd 74 3c cf f2 78 3c
       -0.0070791636 -0.0073952824 0.014953054 0.015194609
000160 e4 91 84 3c f9 19 76 3b 03 ed f2 3c d0 c2 0c bd
       0.016182847 0.0037552102 0.029654032 -0.034365475
000170 67 9e 04 bc 72 b0 56 bc f1 14 be bc 89 94 6d bb
       -0.008094407 -0.013103591 -0.023203345 -0.0036251864
000180 af da 97 bc a1 48 fd 3b 27 3a 86 3c ce 9e 4c bb
       -0.018536894 0.0077296053 0.016385151 -0.0031222585
000190 93 8b 38 bc 7d 50 d0 3b 27 fe e2 3b aa 59 a5 bc
       -0.011263746 0.006357251 0.00692727 -0.020184357
0001a0 bb 21 c4 3c 74 cd 9c 3c 08 15 9b bc 75 d2 e0 3c
       0.023941865 0.019140936 -0.018930927 0.027444104
0001b0 23 db 28 ba 30 5e d9 bb 4f b6 d9 3c b9 94 13 3b
       -0.00064413453 -0.0066335425 0.02657619 0.0022519066
0001c0 e0 43 98 3c cb db 3c bc 8d 5a f0 bc 8b af e0 3c
       0.018587053 -0.011527012 -0.029340053 0.027427455
0001d0 4f 0f 7c bb e5 b3 99 3c 13 98 a9 bc 5d e0 01 3c
       -0.0038461273 0.018762538 -0.020702397 0.0079270275
0001e0 4d 39 9c bc e6 4e 0e 3c fa 51 93 3c 70 ab 19 bb
       -0.019070292 0.008685803 0.017983425 -0.0023448132
0001f0 fc 26 08 3d 57 2b 00 3d 67 45 9b 3c d1 0c 9f 3c
       0.033240303 0.031291332 0.018953992 0.019415291
000200 29 fb 51 bc d1 99 02 bc 05 82 a2 3c 7b 5a 57 bc
       -0.012816229 -0.007971243 0.019837389 -0.013144131
000210 9f ac a4 bb ae 61 91 3c bc de b8 bc 4d 83 af bb
       -0.005025461 0.017746773 -0.022567146 -0.0053562284
000220 72 7a 3a 3b 61 05 62 3c 93 a1 9c bc af 7e dd ba
       0.002845433 0.013795228 -0.019120013 -0.0016898717
000230 44 40 e4 3c 6c 6a ba bc 75 bb c2 3c 4c 38 b8 b9
       0.027862675 -0.022755824 0.023771027 -0.0003513716
000240 39 8b 84 bc 44 d1 c6 bc e6 0b e9 ba c9 46 97 3c
       -0.016179668 -0.024269708 -0.0017780035 0.01846637
000250 77 7a a6 bc 67 db 7a bc 0a 27 9d 3b 01 b2 a2 3c
       -0.020322068 -0.015311099 0.0047959136 0.01986027
000260 87 30 a0 ba 09 1b d1 3c a6 a5 09 3d 7e df bb 3c
       -0.0012221494 0.025525587 0.03360524 0.022933718
000270 66 20 92 bc 69 aa 17 bd 82 7d 0f bd 7e 94 36 3c
       -0.017837714 -0.03702775 -0.035031803 0.011143802
000280 23 8d 3c bc e6 40 83 3c e6 e6 e6 3b a0 5a a6 3c
       -0.011508259 0.016022157 0.007046568 0.020306885
000290 fd 75 5c bc 9b 66 ef bc d0 2f 12 bc 67 57 82 3b
       -0.013455865 -0.02922373 -0.008922532 0.0039777043
0002a0 c3 59 c2 3c 04 78 52 3a 43 45 e9 3c 72 43 ef bb
       0.023724442 0.0008028748 0.02847541 -0.0073017413
0002b0 09 3c 66 bb 02 be 59 bb 43 cf 55 bb 39 44 b7 bb
       -0.0035130999 -0.0033224826 -0.0032624758 -0.0055928496
0002c0 c5 64 ce bc 6e a4 8f 39 6a 45 c3 bb 2e 37 90 bc
       -0.025194535 0.00027397595 -0.0059592025 -0.017604437
0002d0 6d 02 35 bc 64 35 88 bc 00 5f 20 3b 3c 06 83 bc
       -0.011047942 -0.016627021 0.0024470687 -0.015994184
0002e0 cb 8d 05 3d 26 93 cc 3b fa 9f e3 bb 08 9d 7b bc
       0.032605927 0.0062431274 -0.006946561 -0.015357263
0002f0 9b 6f 1d 3c 9c 02 8f bc ec 7f 9f 3b f6 e0 26 3c
       0.009609128 -0.017457299 0.0048675444 0.010185471
000300 26 77 89 bc e1 7b 3d 3b bf 7d 74 3b 79 26 cc ba
       -0.016780447 0.002891295 0.0037306396 -0.0015575431
000310 58 4b f2 bb 3e e2 32 3d 6d 8d 2c bc 61 9e e9 3c
       -0.0073942356 0.043672793 -0.010531765 0.028517904
000320 ae ea 2f 3b c3 cf 52 3c 51 3f 26 bc a2 7b 8f 3c
       0.002684276 0.012866917 -0.010146932 0.017515007
000330 31 f5 7d 3c aa 58 93 3c 4a 4f bc bc 75 2e 95 bc
       0.015500353 0.017986614 -0.022987027 -0.018210629
000340 60 39 3c 3b 2b a0 07 bd 9f 48 88 3c bd 14 9b 3c
       0.0028720722 -0.033111732 0.016636191 0.018930787
000350 ad 0b 89 3c 03 fe 39 ba 56 36 39 3c 9d b5 b6 bc
       0.0167292 -0.00070950406 0.011304459 -0.022303397
000360 99 07 28 3c 73 a8 fa bc 0e 17 b2 bc 90 bd 3f 3c
       0.010255718 -0.030597901 -0.021739509 0.01170291
000370 4e 8a aa 3b 00 28 46 3c bd ef 0a 3d 89 da b3 3c
       0.0052044755 0.012094498 0.03392004 0.021954792
000380 a8 1d d7 3c 82 e2 dc bc 25 ca cf bb 3f 54 50 3b
       0.026259258 -0.026963476 -0.006341236 0.0031788496
000390 22 f0 cc bc 2d 55 99 3c 6d 52 b3 3c 7a d0 d2 bc
       -0.025016848 0.018717373 0.02188989 -0.025734175
0003a0 7d ce 1e 3b a6 db 10 bd e6 71 93 3c 24 ec 0d 3c
       0.0024231963 -0.035365723 0.017998647 0.008662257
0003b0 94 5a 7b bb 54 5f ab 3c 4d 10 14 bb f1 05 32 3c
       -0.003835355 0.02091948 -0.0022592724 0.010865674
0003c0 1c 23 a6 3c e2 d1 d7 bb 45 b0 b9 bc 25 c5 9a 3c
       0.020280413 -0.0065862993 -0.02266706 0.018892834
0003d0 c9 5a cf bc 8a 68 7d 37 95 52 2e bc 92 4f b7 3c
       -0.025311844 1.5104315e-05 -0.010639806 0.02237681
0003e0 ba 0b 08 3c 93 ea 9a bc f4 eb 8b bc 2f 60 e3 3c
       0.008303577 -0.018910682 -0.017080285 0.027755825
0003f0 f8 43 10 bc e2 d1 10 3c 28 2b 62 3c 6a fb 8d bc
       -0.0088052675 0.008839102 0.013804235 -0.017331798

naim.encoder.0.ff.3.bias f4 [6]
000000 c1 4b f2 bc 0f 75 d1 ba 53 71 83 bc 08 69 44 bc
       -0.029577138 -0.0015980321 -0.016045248 -0.011987932
000010 af 02 9b 3c 2b 21 bf bc
       0.018922178 -0.023331245

naim.norm.weight f4 [6]
000000 b7 02 83 3f 43 71 86 3f fb 5f 88 3f ca e2 80 3f
       1.0235204 1.0503315 1.0654291 1.006921
000010 aa 5d 82 3f 48 70 81 3f
       1.0184834 1.011239

naim.norm.bias f4 [6]
000000 d4 f0 82 bb 03 a0 7a bb 4a 8a 3a 3b c5 24 1a ba
       -0.003995994 -0.0038242347 0.0028463774 -0.0005880113
000010 ea 19 3f 3b dc df 72 bb
       0.0029159733 -0.00370597
