outputs/2025-03-23/17-22-00/outputs/model_epoch_50.pt (torch, 92146 bytes, 80 tensors)

naim.embeddings.0.embeddings.weight f4 [2, 6]
00000000: d03c b33e 4b58 0cbf e568 a7be eda4 9b3e
00000010: a5bb d43e 1378 843e 0000 0000 0000 0000
00000020: 0000 0000 0000 0000 0000 0000 0000 0000
0.35007334 -0.54822224 -0.32697216 0.30399266 0.4154941 0.2587286 0.0 0.0
0.0 0.0 0.0 0.0

naim.embeddings.1.embeddings.weight f4 [2, 6]
00000000: 3ec4 913d 04c0 b5bd abc7 01be 8391 b13e
00000010: f597 213e cb0e a0bd 0000 0000 0000 0000
00000020: 0000 0000 0000 0000 0000 0000 0000 0000
0.07117508 -0.08874515 -0.12673824 0.3468133 0.15780623 -0.078153215 0.0 0.0
0.0 0.0 0.0 0.0

naim.embeddings.2.embeddings.weight f4 [2, 6]
00000000: bdc8 213f 0a64 453d 0704 95bc 3409 0e3f
00000010: 1720 84be bde8 b03e 0000 0000 0000 0000
00000020: 0000 0000 0000 0000 0000 0000 0000 0000
0.6319693 0.048191108 -0.018190397 0.5548279 -0.25805733 0.34552565 0.0 0.0
0.0 0.0 0.0 0.0

naim.embeddings.3.embeddings.weight f4 [2, 6]
00000000: 735e 203f 8637 f5be 6263 203d d659 ef3e
00000010: 1790 0a3e 7112 023b 0000 0000 0000 0000
00000020: 0000 0000 0000 0000 0000 0000 0000 0000
0.6264412 -0.47893924 0.03915728 0.46748227 0.13531528 0.0019847418 0.0 0.0
0.0 0.0 0.0 0.0

naim.embeddings.4.embeddings.weight f4 [2, 6]
00000000: 2894 03bf cecc 86be fa21 56be 4669 043e
00000010: 484c be3d aaa6 8e3c 0000 0000 0000 0000
00000020: 0000 0000 0000 0000 0000 0000 0000 0000
-0.51397943 -0.2632813 -0.20911399 0.12930784 0.09291893 0.017413456 0.0 0.0
0.0 0.0 0.0 0.0

naim.embeddings.5.embeddings.weight f4 [2, 6]
00000000: 18fc 9bbe 31e3 e13c 3881 183f 6caf ac3e
00000010: 0d08 07bf ca1a 503d 0000 0000 0000 0000
00000020: 0000 0000 0000 0000 0000 0000 0000 0000
-0.3046577 0.027574154 0.5957217 0.33727586 -0.5274666 0.050806798 0.0 0.0
0.0 0.0 0.0 0.0

naim.embeddings.6.embeddings.weight f4 [2, 6]
00000000: 72d7 01bf d221 d9bd 5da1 efbd c7f4 75be
00000010: ef91 0d3e c35d 383f 0000 0000 0000 0000
00000020: 0000 0000 0000 0000 0000 0000 0000 0000
-0.5071937 -0.10602154 -0.117006995 -0.24019156 0.138252 0.7201807 0.0 0.0
0.0 0.0 0.0 0.0

naim.embeddings.7.embeddings.weight f4 [2, 6]
00000000: b634 babe b765 d3bb 2349 b13d c7f0 24bf
00000010: 0186 3fbd 8015 063f 0000 0000 0000 0000
00000020: 0000 0000 0000 0000 0000 0000 0000 0000
-0.3636834 -0.0064513343 0.08656528 -0.644299 -0.046758655 0.52376556 0.0 0.0
0.0 0.0 0.0 0.0

naim.embeddings.8.embeddings.weight f4 [2, 6]
00000000: 7beb 173f b680 09be 2f02 6c3e 10d4 11bf
00000010: b0d3 45be e3b2 5f3e 0000 0000 0000 0000
00000020: 0000 0000 0000 0000 0000 0000 0000 0000
0.5934369 -0.13428006 0.23047708 -0.56964207 -0.19319034 0.21845584 0.0 0.0
0.0 0.0 0.0 0.0

naim.embeddings.9.embeddings.weight f4 [2, 6]
00000000: c052 da3e 79a6 89be a1b3 533d d3b0 c4be
00000010: 0bed 12bf 0e91 a13b 0000 0000 0000 0000
00000020: 0000 0000 0000 0000 0000 0000 0000 0000
0.42641258 -0.2688482 0.05168498 -0.38416156 -0.5739295 0.004930622 0.0 0.0
0.0 0.0 0.0 0.0

naim.embeddings.10.embeddings.weight f4 [2, 6]
00000000: 90b9 b73d 1a77 c43d 804e 833e 2ecb 803e
00000010: bdea 323c b72b df3e 0000 0000 0000 0000
00000020: 0000 0000 0000 0000 0000 0000 0000 0000
0.0897094 0.09593029 0.25645828 0.25155014 0.010920224 0.4358804 0.0 0.0
0.0 0.0 0.0 0.0

naim.embeddings.11.embeddings.weight f4 [2, 6]
00000000: d414 303e ce5c f2bd 5156 f1be e5e7 fbbe
00000010: c70f 08bd cd0d 89be 0000 0000 0000 0000
00000020: 0000 0000 0000 0000 0000 0000 0000 0000
0.17195445 -0.11834107 -0.47136167 -0.4920036 -0.03321817 -0.26768342 0.0 0.0
0.0 0.0 0.0 0.0

naim.embeddings.12.embeddings.weight f4 [2, 6]
00000000: 933e 1d3e ac2a 56be 5559 933d d9eb d03e
00000010: 8313 e93e 687a bf3d 0000 0000 0000 0000
00000020: 0000 0000 0000 0000 0000 0000 0000 0000
0.15355901 -0.20914716 0.07194773 0.40804937 0.455227 0.09349519 0.0 0.0
0.0 0.0 0.0 0.0

naim.embeddings.13.embeddings.weight f4 [2, 6]
00000000: 50bc 82be c73d d1bd 2388 97be 9349 223f
00000010: 6174 3dbe 42f6 983e 0000 0000 0000 0000
00000020: 0000 0000 0000 0000 0000 0000 0000 0000
-0.25534296 -0.10216861 -0.29596052 0.63393515 -0.18501426 0.2987538 0.0 0.0
0.0 0.0 0.0 0.0

naim.embeddings.14.embeddings.weight f4 [2, 6]
00000000: aaa7 373e 045c 203f 89c1 18be d8a6 ab3d
00000010: 665d 163f f627 693c 0000 0000 0000 0000
00000020: 0000 0000 0000 0000 0000 0000 0000 0000
0.17935053 0.62640405 -0.14917578 0.08381432 0.58736265 0.014230719 0.0 0.0
0.0 0.0 0.0 0.0

naim.embeddings.15.embeddings.weight f4 [2, 6]
00000000: e2bb 13bf a961 a83e 4c70 983d edcf 90be
00000010: a4ea 44be 660f 053f 0000 0000 0000 0000
00000020: 0000 0000 0000 0000 0000 0000 0000 0000
-0.5770856 0.3288701 0.07443294 -0.28283635 -0.19230133 0.5197662 0.0 0.0
0.0 0.0 0.0 0.0

naim.embeddings.16.embeddings.weight f4 [2, 6]
00000000: a043 013f 3237 c63d 18d1 843d 782e 9bbe
00000010: 068f 083e 7d3c c83e 0000 0000 0000 0000
00000020: 0000 0000 0000 0000 0000 0000 0000 0000
0.5049381 0.096784964 0.06485194 -0.3030889 0.13335809 0.3910865 0.0 0.0
0.0 0.0 0.0 0.0

naim.embeddings.17.embeddings.weight f4 [2, 6]
00000000: fb1c e63d 8ed5 293e e9d8 103e f650 fbbe
00000010: c12f 953e 1154 8dbe 0000 0000 0000 0000
00000020: 0000 0000 0000 0000 0000 0000 0000 0000
0.11235996 0.16585371 0.14145245 -0.49085206 0.29137996 -0.276032 0.0 0.0
0.0 0.0 0.0 0.0

naim.embeddings.18.embeddings.weight f4 [2, 6]
00000000: 870a 07bf f971 ebbe 9e4f 91be 6fcd 063f
00000010: 9b84 b9bc e238 cfbc 0000 0000 0000 0000
00000020: 0000 0000 0000 0000 0000 0000 0000 0000
-0.5275044 -0.45985392 -0.28381056 0.52657217 -0.022646239 -0.025295679 0.0 0.0
0.0 0.0 0.0 0.0

naim.embeddings.19.embeddings.weight f4 [2, 6]
00000000: 3bc1 063f 509b 8dbe 3d03 8a3e bed4 51be
00000010: 12a2 d9bd 8770 b43d 0000 0000 0000 0000
00000020: 0000 0000 0000 0000 0000 0000 0000 0000
0.52638596 -0.27657557 0.26955596 -0.20491311 -0.106266156 0.088105254 0.0 0.0
0.0 0.0 0.0 0.0

naim.embeddings.20.embeddings.weight f4 [2, 6]
00000000: 95a0 8b3e 9e77 103e b3f2 a8be f122 e9be
00000010: b96b f9bd ed23 6c3e 0000 0000 0000 0000
00000020: 0000 0000 0000 0000 0000 0000 0000 0000
0.27270952 0.1410813 -0.32997665 -0.4553447 -0.121787496 0.2306058 0.0 0.0
0.0 0.0 0.0 0.0

naim.embeddings.21.embeddings.weight f4 [2, 6]
00000000: 01c3 933d 9f86 0abc 622a ed3d 58b5 1fbd
00000010: 892a e93c ff65 1bbe 0000 0000 0000 0000
00000020: 0000 0000 0000 0000 0000 0000 0000 0000
0.072149284 -0.008454948 0.115803495 -0.038991302 0.028462665 -0.15175627 0.0 0.0
0.0 0.0 0.0 0.0

naim.embeddings.22.embeddings.weight f4 [2, 6]
00000000: ea68 ac3e 2200 7fbe cf54 27bd 9134 0a3f
00000010: 1768 c83e d3eb 48be 0000 0000 0000 0000
00000020: 0000 0000 0000 0000 0000 0000 0000 0000
0.33673793 -0.24902394 -0.040852364 0.5398646 0.39141914 -0.1962121 0.0 0.0
0.0 0.0 0.0 0.0

naim.embeddings.23.embeddings.weight f4 [2, 6]
00000000: 87bc 4f3e 6c28 e43b 0acc afbe 6f9f 4c3f
00000010: 0223 4ebd 9324 7fbe 0000 0000 0000 0000
00000020: 0000 0000 0000 0000 0000 0000 0000 0000
0.20286761 0.0069628265 -0.34335357 0.79930776 -0.050326355 -0.24916296 0.0 0.0
0.0 0.0 0.0 0.0

naim.embeddings.24.embeddings.weight f4 [2, 6]
00000000: 9a7c 723c 5213 2a3e 31d8 44be bcbc c63e
00000010: 7726 50bf 821f 5f3d 0000 0000 0000 0000
00000020: 0000 0000 0000 0000 0000 0000 0000 0000
0.014800215 0.16608933 -0.19223095 0.38815868 -0.8130869 0.054473408 0.0 0.0
0.0 0.0 0.0 0.0

naim.embeddings.25.embeddings.weight f4 [2, 6]
00000000: 964d b63e 04e5 11be 79a5 363f 2b8a e43e
00000010: 7bcd ba3d 44a0 683d 0000 0000 0000 0000
00000020: 0000 0000 0000 0000 0000 0000 0000 0000
0.35606068 -0.14247519 0.7134624 0.44636664 0.091212235 0.056793466 0.0 0.0
0.0 0.0 0.0 0.0

naim.embeddings.26.embeddings.weight f4 [2, 6]
00000000: df4b 173e a636 eebe 7105 03bf 35aa 8c3e
00000010: bdf9 c43e 7682 9f3e 0000 0000 0000 0000
00000020: 0000 0000 0000 0000 0000 0000 0000 0000
0.14775036 -0.46526068 -0.5118018 0.27473608 0.38471785 0.3115422 0.0 0.0
0.0 0.0 0.0 0.0

naim.embeddings.27.embeddings.weight f4 [2, 6]
00000000: 7320 c8bd 6b0e c43e 9481 ffbe 38a9 04bf
00000010: 0d12 19be 1655 043d 0000 0000 0000 0000
00000020: 0000 0000 0000 0000 0000 0000 0000 0000
-0.09771814 0.3829225 -0.49903548 -0.5182071 -0.14948292 0.032307707 0.0 0.0
0.0 0.0 0.0 0.0

naim.embeddings.28.embeddings.weight f4 [2, 6]
00000000: d980 2cbe b07e 533e a2b2 73be 40d9 a2be
00000010: eac2 163e d301 95bd 0000 0000 0000 0000
00000020: 0000 0000 0000 0000 0000 0000 0000 0000
-0.16846026 0.20653796 -0.23798612 -0.31806374 0.14722791 -0.072757386 0.0 0.0
0.0 0.0 0.0 0.0

naim.embeddings.29.embeddings.weight f4 [2, 6]
00000000: f6cc 00bf c845 03bc 68ff 1d3f baac 3fbe
00000010: b68c 5b3d 2f6a a6be 0000 0000 0000 0000
00000020: 0000 0000 0000 0000 0000 0000 0000 0000
-0.50312746 -0.008012243 0.61717844 -0.18718234 0.05360099 -0.32502887 0.0 0.0
0.0 0.0 0.0 0.0

naim.embeddings.30.embeddings.weight f4 [2, 6]
00000000: e507 d2bd 8690 8e3e 1641 a23e c42f 99be
00000010: 57b9 7fbd 13a4 cabe 0000 0000 0000 0000
00000020: 0000 0000 0000 0000 0000 0000 0000 0000
-0.10255412 0.27844638 0.31690282 -0.29919255 -0.062432613 -0.39578304 0.0 0.0
0.0 0.0 0.0 0.0

naim.embeddings.31.embeddings.weight f4 [2, 6]
00000000: a104 bd3e 9eb1 67be 8b33 1bbd fbb3 b2bd
00000010: 2496 82be fa4d 95be 0000 0000 0000 0000
00000020: 0000 0000 0000 0000 0000 0000 0000 0000
0.36917594 -0.2262635 -0.037890952 -0.08725735 -0.25505173 -0.29161054 0.0 0.0
0.0 0.0 0.0 0.0

naim.embeddings.32.embeddings.weight f4 [2, 6]
00000000: 71a1 a13d 08d9 923e 96a1 b5be f47b 40bf
00000010: 7750 a13e 427c 39be 0000 0000 0000 0000
00000020: 0000 0000 0000 0000 0000 0000 0000 0000
0.07892121 0.28681207 -0.35474843 -0.7518914 0.31506702 -0.18113807 0.0 0.0
0.0 0.0 0.0 0.0

naim.embeddings.33.embeddings.weight f4 [2, 6]
00000000: a125 13be 304c 22be 8072 ecbe 4f06 67be
00000010: 635a 9cbe 4ca5 2f3f 0000 0000 0000 0000
00000020: 0000 0000 0000 0000 0000 0000 0000 0000
-0.14369823 -0.15849376 -0.46181107 -0.22561 -0.3053771 0.686116 0.0 0.0
0.0 0.0 0.0 0.0

naim.embeddings.34.embeddings.weight f4 [2, 6]
00000000: 2a42 2fbe 94c4 133e e056 ff3e 2c1f 5cbd
00000010: b8a0 78be 112f 6f3d 0000 0000 0000 0000
00000020: 0000 0000 0000 0000 0000 0000 0000 0000
-0.17115083 0.14430457 0.49870968 -0.053740665 -0.2428006 0.058394495 0.0 0.0
0.0 0.0 0.0 0.0

naim.embeddings.35.embeddings.weight f4 [2, 6]
00000000: 0f74 3a3e 040e 2cbe a7d4 b53e 56a9 993e
00000010: 8a2d c93e 21fb 05bf 0000 0000 0000 0000
00000020: 0000 0000 0000 0000 0000 0000 0000 0000
0.18208335 -0.16802222 0.35513803 0.30012006 0.39292556 -0.5233632 0.0 0.0
0.0 0.0 0.0 0.0

naim.embeddings.36.embeddings.weight f4 [2, 6]
00000000: c29c 24be d729 c03e 5794 fdbe ae80 fe3c
00000010: 30ed 653c a471 b43d 0000 0000 0000 0000
00000020: 0000 0000 0000 0000 0000 0000 0000 0000
-0.16075423 0.3753192 -0.49527237 0.031067219 0.014033601 0.08810738 0.0 0.0
0.0 0.0 0.0 0.0

naim.embeddings.37.embeddings.weight f4 [2, 6]
00000000: fa94 e1b9 3452 a9be 7502 21be da30 9abd
00000010: 4761 7f3e 8031 dd3d 0000 0000 0000 0000
00000020: 0000 0000 0000 0000 0000 0000 0000 0000
-0.0004302634 -0.33070529 -0.15723594 -0.07528849 0.24939452 0.10800457 0.0 0.0
0.0 0.0 0.0 0.0

naim.embeddings.38.embeddings.weight f4 [2, 6]
00000000: 4aac 393d d355 a6bd a4f3 57bc 7f00 b03e
00000010: 50ad fcbd 9ae8 0a3e 0000 0000 0000 0000
00000020: 0000 0000 0000 0000 0000 0000 0000 0000
0.045330323 -0.081218384 -0.013180647 0.34375378 -0.12337744 0.13565293 0.0 0.0
0.0 0.0 0.0 0.0

naim.embeddings.39.embeddings.weight f4 [2, 6]
00000000: 802a 01bd 747c 85be c761 ff3e 4624 20bf
00000010: 11b7 3b3e e53f ab3e 0000 0000 0000 0000
00000020: 0000 0000 0000 0000 0000 0000 0000 0000
-0.03153467 -0.26071513 0.49879286 -0.6255535 0.18331553 0.33447185 0.0 0.0
0.0 0.0 0.0 0.0

naim.embeddings.40.embeddings.weight f4 [2, 6]
00000000: d356 d9bd ef12 5a3e 37cd 133e 8023 e8bd
00000010: f59c b0bd 488c b4be 0000 0000 0000 0000
00000020: 0000 0000 0000 0000 0000 0000 0000 0000
-0.106122635 0.21296285 0.14433752 -0.11334896 -0.08623687 -0.35263276 0.0 0.0
0.0 0.0 0.0 0.0

naim.embeddings.41.embeddings.weight f4 [2, 6]
00000000: b205 babd d13a 32be a651 9e3e b8ba 2b3e
00000010: ddd3 bf3e 2799 0c3f 0000 0000 0000 0000
00000020: 0000 0000 0000 0000 0000 0000 0000 0000
-0.090831175 -0.17405249 0.30921668 0.16770446 0.37466326 0.5492119 0.0 0.0
0.0 0.0 0.0 0.0

naim.embeddings.42.embeddings.weight f4 [2, 6]
00000000: 79b3 93be 5d6f 333f 75e9 583e 6b2a bf3e
00000010: 46a2 be3d 563c 0bbe 0000 0000 0000 0000
00000020: 0000 0000 0000 0000 0000 0000 0000 0000
-0.28847864 0.700918 0.21182807 0.3733705 0.09308295 -0.13597235 0.0 0.0
0.0 0.0 0.0 0.0

naim.embeddings.43.embeddings.weight f4 [2, 6]
00000000: 1f83 51be 7a34 033d b356 233f cd45 e93e
00000010: 9e70 b63e b89a b9bd 0000 0000 0000 0000
00000020: 0000 0000 0000 0000 0000 0000 0000 0000
-0.20460175 0.032032467 0.6380417 0.45561066 0.35632795 -0.090627134 0.0 0.0
0.0 0.0 0.0 0.0

naim.embeddings.44.embeddings.weight f4 [2, 6]
00000000: cc5f c9bc a36f 963e 9aab 413e 2342 adbe
00000010: e388 0c3e 961b f63e 0000 0000 0000 0000
00000020: 0000 0000 0000 0000 0000 0000 0000 0000
-0.024581812 0.29382047 0.18913117 -0.3383952 0.13724093 0.4806792 0.0 0.0
0.0 0.0 0.0 0.0

naim.embeddings.45.embeddings.weight f4 [2, 6]
00000000: 7e10 dabe 8440 22bf 6a67 a2be eada 253e
00000010: 4b35 e4be a31e 1fbe 0000 0000 0000 0000
00000020: 0000 0000 0000 0000 0000 0000 0000 0000
-0.42590708 -0.63379693 -0.31719524 0.1619679 -0.4457191 -0.1553903 0.0 0.0
0.0 0.0 0.0 0.0

naim.embeddings.46.embeddings.weight f4 [2, 6]
00000000: 0654 a0bd 5501 a33d 88c8 893e 50fe a6bd
00000010: debf 0d3e 41ce 513e 0000 0000 0000 0000
00000020: 0000 0000 0000 0000 0000 0000 0000 0000
-0.07828526 0.079592384 0.26910806 -0.08153975 0.13842723 0.20488836 0.0 0.0
0.0 0.0 0.0 0.0

naim.embeddings.47.embeddings.weight f4 [2, 6]
00000000: 2152 a33e dfe2 c6bd e5b3 ebbe 531e 7dbe
00000010: 8eb4 853e cc8b 99be 0000 0000 0000 0000
00000020: 0000 0000 0000 0000 0000 0000 0000 0000
0.31898597 -0.09711241 -0.46035686 -0.24718599 0.26114315 -0.2998947 0.0 0.0
0.0 0.0 0.0 0.0

naim.embeddings.48.embeddings.weight f4 [2, 6]
00000000: d0b4 da3c ec42 833e 44dd 963d 01e3 a73e
00000010: 8524 2b3f 9b86 ba3e 0000 0000 0000 0000
00000020: 0000 0000 0000 0000 0000 0000 0000 0000
0.026697546 0.25636995 0.07366422 0.32790378 0.668526 0.3643082 0.0 0.0
0.0 0.0 0.0 0.0

naim.embeddings.49.embeddings.weight f4 [2, 6]
00000000: 88c4 7cbe a456 7b3e 7c3a 8f3e 1259 ecbd
00000010: b455 babe b063 ca3e 0000 0000 0000 0000
00000020: 0000 0000 0000 0000 0000 0000 0000 0000
-0.24684346 0.2454477 0.27974308 -0.11540426 -0.3639351 0.3952918 0.0 0.0
0.0 0.0 0.0 0.0

naim.embeddings.50.embeddings.weight f4 [2, 6]
00000000: 753a 083f 22cf c03e 2358 eabd 6946 33be
00000010: 486e e2bd 63b5 0fbf 0000 0000 0000 0000
00000020: 0000 0000 0000 0000 0000 0000 0000 0000
0.532142 0.3765803 -0.11442592 -0.17507328 -0.11056191 -0.5613615 0.0 0.0
0.0 0.0 0.0 0.0

naim.embeddings.51.embeddings.weight f4 [2, 6]
00000000: 12a2 7f3d 670b 2c3e 3015 093f ab52 27bf
00000010: 0e5a bb3e 62c7 15be 0000 0000 0000 0000
00000020: 0000 0000 0000 0000 0000 0000 0000 0000
0.06241042 0.16801225 0.53547955 -0.65360516 0.36592144 -0.1462684 0.0 0.0
0.0 0.0 0.0 0.0

naim.embeddings.52.embeddings.weight f4 [2, 6]
00000000: ed86 9e3e b57b 77be 4281 70be 9dc6 5ebe
00000010: b1be e63d 2920 b0be 0000 0000 0000 0000
00000020: 0000 0000 0000 0000 0000 0000 0000 0000
0.30962315 -0.24168284 -0.23486808 -0.21755452 0.1126684 -0.34399536 0.0 0.0
0.0 0.0 0.0 0.0

naim.embeddings.53.embeddings.weight f4 [2, 6]
00000000: dc2a 80be 9de4 34be 8a63 103e f8ed 04bd
00000010: 1fa3 5f3f 766f 78bb 0000 0000 0000 0000
00000020: 0000 0000 0000 0000 0000 0000 0000 0000
-0.250327 -0.17665334 0.14100471 -0.032453507 0.8735828 -0.0037908233 0.0 0.0
0.0 0.0 0.0 0.0

naim.embeddings.54.embeddings.weight f4 [2, 6]
00000000: a7b8 343e b8eb 003f e180 d23e 7825 373e
00000010: 3d86 14bf 1aaa bd3d 0000 0000 0000 0000
00000020: 0000 0000 0000 0000 0000 0000 0000 0000
0.17648564 0.5035968 0.41113952 0.17885387 -0.5801733 0.0926096 0.0 0.0
0.0 0.0 0.0 0.0

naim.embeddings.55.embeddings.weight f4 [2, 6]
00000000: 51bf 983e 3ea1 97be 1bdd 0cbf 22db 093f
00000010: 4fdf d2bd fa05 22be 0000 0000 0000 0000
00000020: 0000 0000 0000 0000 0000 0000 0000 0000
0.29833463 -0.29615206 -0.5502488 0.53849995 -0.10296499 -0.15822592 0.0 0.0
0.0 0.0 0.0 0.0

naim.embeddings.56.embeddings.weight f4 [2, 6]
00000000: b583 bcbe 46a7 ddbe 0768 373e 3fca 99bd
00000010: c6fc d1be 7881 28bd 0000 0000 0000 0000
00000020: 0000 0000 0000 0000 0000 0000 0000 0000
-0.36819234 -0.43291682 0.17910777 -0.075092785 -0.41013163 -0.041139096 0.0 0.0
0.0 0.0 0.0 0.0

naim.embeddings.57.embeddings.weight f4 [2, 6]
00000000: 2786 d53e d162 a2be 021c 4abe b0e2 703e
00000010: 4005 2e3f 6d2b 8cbc 0000 0000 0000 0000
00000020: 0000 0000 0000 0000 0000 0000 0000 0000
0.41703913 -0.31716016 -0.19737247 0.23523974 0.6797676 -0.01711055 0.0 0.0
0.0 0.0 0.0 0.0

naim.embeddings.58.embeddings.weight f4 [2, 6]
00000000: b1e0 0abe edeb 163d c263 0c3d d9ac 5fbd
00000010: 0113 bd3d 656f 74be 0000 0000 0000 0000
00000020: 0000 0000 0000 0000 0000 0000 0000 0000
-0.13562275 0.03684609 0.034274824 -0.0546082 0.0923214 -0.23870619 0.0 0.0
0.0 0.0 0.0 0.0

naim.embeddings.59.embeddings.weight f4 [2, 6]
00000000: cae0 a03e de16 3cbe 5e6d 77be 565d 293f
00000010: e592 843e c681 d43e 0000 0000 0000 0000
00000020: 0000 0000 0000 0000 0000 0000 0000 0000
0.314215 -0.18368098 -0.24162814 0.66158044 0.25893322 0.4150526 0.0 0.0
0.0 0.0 0.0 0.0

naim.embeddings.60.embeddings.weight f4 [2, 6]
00000000: 8951 04bf 3c05 56bd dedb 523d f429 003f
00000010: 1203 813e e4b6 be3e 0000 0000 0000 0000
00000020: 0000 0000 0000 0000 0000 0000 0000 0000
-0.5168691 -0.052251086 0.051479213 0.50064015 0.25197655 0.3724891 0.0 0.0
0.0 0.0 0.0 0.0

naim.embeddings.61.embeddings.weight f4 [2, 6]
00000000: 29bd 57be 3060 2f3d 4a26 053e 82a3 b9bd
00000010: a557 733e b626 e5bd 0000 0000 0000 0000
00000020: 0000 0000 0000 0000 0000 0000 0000 0000
-0.21068253 0.04281634 0.13002887 -0.0906439 0.23763902 -0.11189024 0.0 0.0
0.0 0.0 0.0 0.0

naim.embeddings.62.embeddings.weight f4 [2, 6]
00000000: 012a 853e 98f2 123e 9d40 27bf b54e 79bd
00000010: 027d b7be 3424 dcbe 0000 0000 0000 0000
00000020: 0000 0000 0000 0000 0000 0000 0000 0000
0.2600861 0.14350355 -0.6533297 -0.060866076 -0.3583756 -0.4299637 0.0 0.0
0.0 0.0 0.0 0.0

naim.embeddings.63.embeddings.weight f4 [2, 6]
00000000: 3603 383f 7a67 9a3e 1a0c 91be 2f16 2c3e
00000010: e3ec 45be 9633 1fbe 0000 0000 0000 0000
00000020: 0000 0000 0000 0000 0000 0000 0000 0000
0.718799 0.3015707 -0.28329545 0.16805337 -0.19328646 -0.15547022 0.0 0.0
0.0 0.0 0.0 0.0

naim.encoder.0.layer_norm_1.weight f4 [6]
00000000: 9d9f 753f 63a8 6e3f 9fda 713f 7add 753f
00000010: fe55 713f ca80 743f
0.95946676 0.9322569 0.94474214 0.9604107 0.9427184 0.95509017

naim.encoder.0.layer_norm_1.bias f4 [6]
00000000: a820 393c cbe8 b1bb 0567 97bb 947a 323c
00000010: 2143 883c 6498 65bc
0.01129929 -0.0054293624 -0.004620435 0.010893483 0.016633572 -0.014013384

naim.encoder.0.attn.linear_q.weight f4 [6, 6]
00000000: 1dca 4ebd 6374 dc3b 9db8 67bd 012c acbe
00000010: ad4b eeba 7b85 113e bfac 09bd 2ae6 14be
00000020: 2c3e 43bc e203 843d 19c3 9fbd 89e3 84be
00000030: e78a 1fbe e3f8 95bc 8e1b b23d 60d3 993e
00000040: d872 28bc ef8f b83d 8fc2 3a3e cd54 fbbd
00000050: f453 aebd c951 5b3e e927 6a3e d121 4b3d
00000060: ae16 81be cbc5 2c3e eed8 8dbe 8c15 1b3e
00000070: 8592 4c3c 7564 a33d bf6c aabe 585b acbd
00000080: 0e01 e63d 5c0b 813e 5c36 7ebd af35 993e
-0.05048572 0.0067277416 -0.056572545 -0.33627322 -0.0018180512 0.14211075 -0.03361201 -0.14540926
-0.011916678 0.06446053 -0.07800884 -0.25954846 -0.15580331 -0.018307155 0.08696662 0.3004408
-0.010281287 0.09011828 0.1823828 -0.12272034 -0.085121065 0.21417917 0.22866787 0.049592797
-0.25212616 0.16872327 -0.27704567 0.15144938 0.012486105 0.07978145 -0.33286092 -0.0841586
0.1123067 0.2520398 -0.06206356 0.2992377

naim.encoder.0.attn.linear_k.weight f4 [6, 6]
00000000: faca 3bbd 3a58 3dbe 7dee f5bd 207e 893b
00000010: cfe3 b5bc aa27 0f3e a03b 28be ed0b 80bd
00000020: 57ab aebe a71d 8b3e 8e85 d8bc cb29 85be
00000030: 3158 57bc f217 0e3a 960d 723d 3313 99bc
00000040: ab1e 473e 73a9 a9bd aa55 7dbd b194 63bd
00000050: 5f89 d13c 521a 8b3e d34e 0abc 7305 803e
00000060: fa10 843e 60dd 1dbe 3dee b5bb 1f48 09be
00000070: 9bcd e73d 3c94 b7bd 9d17 893d 8c91 c63b
00000080: 717c 54be ce0e 60be 8b11 acbe 5bca 2ebe
-0.04584787 -0.18490687 -0.12008379 0.0041959435 -0.022203354 0.13979974 -0.16428995 -0.06252275
-0.34115097 0.2717106 -0.026430871 -0.26008448 -0.013143585 0.0005420438 0.059094988 -0.018685913
0.19445293 -0.08284273 -0.061849274 -0.055561725 0.025578199 0.27168518 -0.008441645 0.25004157
0.25794202 -0.15416479 -0.005552082 -0.13406418 0.11318513 -0.0896382 0.06693957 0.006059831
-0.20750596 -0.21880648 -0.33607134 -0.1706938

naim.encoder.0.attn.linear_v.weight f4 [6, 6]
00000000: dab4 d73d 899e 823c 0a04 953e c7a4 b1be
00000010: 18ea d8bc 4e1d acbe 33aa 8abc a7bc 073e
00000020: de4d b6be cc18 b43e 17ec d4bd 3034 b63e
00000030: 70b7 7bbd f41a 443e 5eac b03e 408b 05be
00000040: a26f a1bd 7296 483e dccd b0be 6ffe 713e
00000050: 03ca 80be 4947 c03e 4a0f 84be 17ff 23be
00000060: 51d6 9c3e 4a17 3bbe 18eb a13e 7ecf 863e
00000070: 5d39 bd3e 83e7 c9be b213 1dbc fdfd f7bd
00000080: 37a1 aa3d 34aa 96be a06a 1e3e 1835 b3bc
0.105325416 0.015944736 0.29104644 -0.34696028 -0.026478812 -0.33616108 -0.01692686 0.13255559
-0.35606283 0.3517517 -0.10396593 0.3558669 -0.061454237 0.19150907 0.34506506 -0.13041401
-0.078826204 0.1958864 -0.34532058 0.23632215 -0.25154123 0.37554386 -0.25792915 -0.16015278
0.3063226 -0.18270603 0.31624675 0.2633018 0.36957827 -0.39434442 -0.009587215 -0.12108991
0.083315305 -0.2942673 0.15470362 -0.021875903

naim.encoder.0.attn.linear_o.weight f4 [6, 6]
00000000: 2db1 07be e695 9bbe 97c1 1b3e be4d b6bd
00000010: 2604 743e a06b ba3c 022b 883d 2429 68bc
00000020: 0a5e 2fbc fde5 a3bd c97e 94be 13fb 463e
00000030: 7a40 79be 01ed 7b3e 1653 fcbd b35e 883e
00000040: c275 b83e 2989 71be 4309 aa3e 364b 183c
00000050: df64 9cbe 85aa 283e dc9b 6b3e 594a b43e
00000060: b216 c8be 58c3 b33e 5af4 933e 00fa c23e
00000070: 06fa 533e 6114 50be 91b3 9a3e 5712 bc3e
00000080: 7719 20be a5c5 8cbd b969 9f3e 05cb a33e
-0.13251181 -0.303878 0.15210567 -0.08901547 0.23829708 0.022756398 0.06648828 -0.014169965
-0.010703573 -0.08002851 -0.2900298 0.19431715 -0.24341002 0.24602129 -0.12320535 0.2663475
0.36027342 -0.23587479 0.3321019 0.009295275 -0.3054571 0.16471298 0.23008674 0.35212973
-0.39079815 0.35109973 0.28897363 0.3808136 0.20700845 -0.20320274 0.30215123 0.36732742
-0.15634714 -0.06873635 0.31135347 0.3199083

naim.encoder.0.layer_norm_2.weight f4 [6]
00000000: 2553 793f c5f9 7a3f a5ca 7d3f 6b3c 7b3f
00000010: d099 793f 856d 7a3f
0.97392493 0.9803737 0.99137336 0.98139066 0.97500324 0.97823364

naim.encoder.0.layer_norm_2.bias f4 [6]
00000000: 3079 ca3b 9f50 653b 88b9 1c3b f3e2 84bb
00000010: d8ce 84bb acae 5cba
0.0061789975 0.003499068 0.0023914296 -0.004055375 -0.004052978 -0.0008418362

naim.encoder.0.ff.0.weight f4 [1000, 6]
00000000: 7ca4 5b3e 39bc 833e 0c3f 1cbe 7594 52bd
00000010: d3b4 eebd 6696 2e3e 2025 8b3d 8ad7 85be
00000020: c272 c2bc 9ad4 8dbe e4eb a5be ad2b a43e
00000030: 12bb 24be fbb5 113e f68a 5fbd b75a 5abd
00000040: d6ab b33a e0d5 8c3e 329a 8bbc 12d0 8c3e
00000050: e1a4 363e f30d 603e 2b0f 9dbe 442b 04be
00000060: fc85 92be f805 86bd a596 50bd c7f2 7a3d
00000070: 7f78 9a3e baa0 243e 9912 77be b90e 56be
00000080: fd44 7b3e 921a 903c 14a3 a43d 5679 37be
00000090: cb31 06bd a753 a73d bdda 55be 0d8d 5a3e
000000a0: 0f38 1d3e 0098 41be eee8 e3bd 6676 83bd
000000b0: d502 fa3c 09ce a6bd 14e8 a53e 885e a9be
000000c0: 9685 3cbe f30b 4cbe 2c47 7b3d 4837 2f3d
000000d0: 4b36 8dbd 2c5b 9a3e 7500 94be ec33 bf3d
000000e0: e545 28be 3617 83bd 21a2 a9be 673d 78be
000000f0: 095b 93be d9b7 033e f50b cbbd f61f 253e
00000100: 24fa 2abe 5cbd 80bd 592b fb3c 7f16 933e
00000110: 26ec 89bd 3290 3c3e 6c0e 8d3d 46d2 513e
00000120: 4fc7 5a3e fe90 f33d be3f aabd 2255 aebd
00000130: 660a 013e b514 3e3e a24a d5ba 3e58 133e
00000140: e623 3ebe e360 2d3e 842e 4cbc a556 5fbe
00000150: 35f0 0fbe 484a 7fbe d911 1b3d 7806 3dbe
00000160: 41c5 88bd 6f90 25bc f7c7 44be 83c1 853c
00000170: 5dc0 debc c4a9 a73d df58 6c3e 3b11 47be
00000180: 3837 253e f22e 84ba e4a6 2fbe d222 02be
00000190: d236 593d 188d 0c3d a274 2bbc 6d82 1cbe
000001a0: c9b6 133e c251 473d 6d98 a9be 0bde 1bbd
000001b0: 3991 89bd cdb3 fcbd e4ae 27be 6c0a 8abe
000001c0: ec50 ae3e d7c9 9ebe 1716 a73e d97b 86be
000001d0: 1b4b 56bd 32b9 f7bd 47cc 33be cb10 ea3d
000001e0: 8871 3d3e 727d 5cbe 61f9 07be f7d9 233e
000001f0: d8e3 f2bc a6bf ae3d 912f 1e3e b468 c2bd
00000200: 68b4 28be 4402 cb3d d51e c9bd 198b 56be
00000210: 710d 1abe 262b 10be c7e0 af3e 1c48 3b3d
00000220: 3065 ee3d cbfe e63c 4964 5bbe c467 6d3e
00000230: 80fd ddbc 69b1 73bd d687 8a3e 3f96 18be
00000240: 4c37 733d f3d8 93be 994f 233e 3ddc f33d
00000250: 9b05 8dbe 25a8 393e 575e eb3c 876a 25be
00000260: 23fe 923e 193e f43d 4728 d33d 31f2 efbd
00000270: 6d7c 40be 0162 36be 5e91 d23d bb6b ad3d
00000280: cafa 3cbe 0226 a83e d858 353e 3a9b d5bd
00000290: ee46 193e a143 eabd 2f63 983d ac03 8f3e
000002a0: 969d 9cbe ee0b 19be 0756 2dbc 7b55 293d
000002b0: 4f46 8bbe 6ace 62be 2e4a 94bc 5a64 f6bc
000002c0: 69a0 4d3d eb08 b43c e316 4c3d 687a 3a3c
000002d0: c313 9e3c c7d2 adba 5529 ad3d 47bf 613e
000002e0: 72e4 18be 6646 1fbe 8f09 0a3e 5209 76be
000002f0: 10c8 4e3e 1f24 123e 6428 413d c101 09be
00000300: b544 633c 3953 86be d215 9cbe be24 a43e
00000310: 892c 9cbe f650 8ebe 6ec1 cdbd 4eb3 863b
00000320: faef 673d f814 14be c713 cfbc d699 38bd
00000330: 152a 913e b77d 933e 55b0 ee3d afb8 d7bb
00000340: 917a 783e 6efb 88be 6483 e33d 8c5e 33be
00000350: 8e4b 823e 1c5e 99be d22e c73d 49a5 8abe
00000360: b3e0 363e caaa 213d 69dc 923e d202 80be
00000370: 0a66 4f3e 8bcf 58be 0191 26be c321 ca3d
00000380: ab59 ebbc 1dc2 85be af6d 92be a901 6fbd
00000390: 6ac6 623d f34d 973e 10f3 743e 2067 103a
000003a0: a219 41be d124 9abe 2acd 9a3e 79a4 30be
000003b0: 691b 0fbd e000 8bbe b823 64be d92d 303d
000003c0: 4cdf 41bd 3fa9 c03b 2510 aeb9 5fe6 c339
000003d0: fd7f 02bd 8de0 a8b9 1fb5 f33d 7d58 713e
000003e0: d71a 903e e430 8bbe 10b4 8fbe d634 babc
000003f0: 1062 30bc bf90 2d3e f05c a43e 3c5c 843d
0.21449465 0.2572954 -0.15258425 -0.05141111 -0.11655583 0.1704956 0.067941904 -0.26141006
-0.023736361 -0.27701265 -0.32406533 0.32064572 -0.16086987 0.14229576 -0.054575883 -0.05330917
0.0013707827 0.27506924 -0.0170413 0.27502495 0.17836334 0.21880321 -0.30675635 -0.1290713
-0.28617847 -0.06544107 -0.050924916 0.061266687 0.30170056 0.16076937 -0.24128188 -0.20904054
0.24538036 0.017590795 0.08038917 -0.1791738 -0.03276233 0.08170252 -0.20884223 0.21342869
0.15353416 -0.1890564 -0.11128412 -0.06419067 0.030518929 -0.08144767 0.32403624 -0.33079934
-0.18410334 -0.19926433 0.06134717 0.04277733 -0.06895121 0.30147684 -0.289066 0.09336075
-0.16432913 -0.064009115 -0.33131507 -0.24242173 -0.28780392 0.12863101 -0.0991439 0.16125473
-0.16696984 -0.062861174 0.030660318 0.287281 -0.06734495 0.18414381 0.068875164 0.20490369
0.21365093 0.118928894 -0.08312939 -0.085123315 0.12601623 0.18562587 -0.0016272853 0.1438913
-0.18568382 0.1693149 -0.012462262 -0.21810396 -0.14056475 -0.2493068 0.037858818 -0.18459499
-0.06678248 -0.010105236 -0.19216906 0.016327625 -0.027191335 0.08186677 0.23080777 -0.19440167
0.16134346 -0.0010084792 -0.17153507 -0.12708595 0.053030796 0.034314245 -0.010464819 -0.15284128
0.14425196 0.048661955 -0.33124104 -0.038053554 -0.06717152 -0.12338982 -0.16375309 -0.26961076
0.34046113 -0.31013367 0.3263404 -0.26266363 -0.05231772 -0.1209587 -0.17558394 0.11428984
0.1850034 -0.21532229 -0.13278724 0.16001116 -0.02964966 0.08532648 0.15447833 -0.09492627
-0.1647507 0.099125415 -0.09820334 -0.20951499 -0.1504419 -0.1407896 0.3435118 0.045723066
0.11640394 0.028197667 -0.21424975 0.23184115 -0.027098417 -0.059495363 0.2705676 -0.14901064
0.059378907 -0.28876457 0.15948333 0.119072415 -0.2754334 0.18130548 0.028731508 -0.16153918
0.28709516 0.11925907 0.10310417 -0.11716116 -0.18797465 -0.17810823 0.10281633 0.084678136
-0.18455043 0.32841498 0.17709672 -0.10429998 0.14968464 -0.114386804 0.07440793 0.2793249
-0.3058898 -0.14945957 -0.010579593 0.041341286 -0.2720208 -0.22149053 -0.018101778 -0.030077148
0.050201807 0.021976909 0.049826514 0.011381723 0.019296532 -0.0013261669 0.08455149 0.22045623
-0.14930895 -0.15554199 0.13480209 -0.24026993 0.20193505 0.14271592 0.04715766 -0.13379575
0.0138713615 -0.2623537 -0.30485398 0.32059282 -0.30502728 -0.27796143 -0.100466594 0.0041107303
0.056625344 -0.14461124 -0.025277985 -0.045068584 0.2835242 0.2880685 0.116547264 -0.0065832953
0.24265505 -0.26754326 0.11109045 -0.17516536 0.2544827 -0.29954612 0.09725727 -0.27079228
0.17859153 0.039469518 0.28683785 -0.25002152 0.20253769 -0.21172921 -0.16266252 0.09869721
-0.02872928 -0.2612466 -0.28599307 -0.058351193 0.055365004 0.29551658 0.23920846 0.0005508531
-0.18857434 -0.30106214 0.30234653 -0.17250241 -0.03493825 -0.27149105 -0.2227925 0.043012474
-0.047332093 0.0058795507 -0.00033199895 0.00037364938 -0.03186034 -0.0003221076 0.118997805 0.23568912
0.28145477 -0.27185738 -0.28067064 -0.022730272 -0.010765567 0.16949748 0.32102156 0.06462905

naim.encoder.0.ff.0.bias f4 [1000]
00000000: caf1 4f3e ac86 28be e410 01bd bb99 8b3c
00000010: a27e 753e fae8 173e b488 ad3e 1647 26be
00000020: c7c9 9ebc 3481 93bc 0eb1 8c3e 81e2 a83e
00000030: a4f7 a73d 6f69 88be 10c6 73be 122c 4b3d
00000040: a384 98be 5546 cdbd 6c90 79be c9c6 2a3e
00000050: 5d73 6bbc 5106 84be 07cb 5a3e bb7c 99be
00000060: babe 02bd 52e3 ac3e 3e08 2e3e 5e3d 96be
00000070: bcd5 ba3c bc0b 1bbd 4a07 0a3e 490f a53e
00000080: a045 943e 218f 89bc 11fd 113e 8a47 adbe
00000090: c0ba 8a3e 6399 2a3e 363f 66be 8037 a8bd
000000a0: 9f2f c9bd e185 39be 930a 023e 3825 83bd
000000b0: 2325 063e e628 8dbd d027 863e 42ff d9bd
000000c0: 71b1 40bd a77d a4bd 2424 3f3c 857c c0bd
000000d0: fea7 6abe 6fa6 a6be a483 4c3e 958c 123d
000000e0: 9185 4ebe 8adb 353e 7491 f13c c0d9 d3bd
000000f0: 52c0 b5bc a75b 803c 1618 6e3e 2529 9fbe
00000100: 0066 81be 260a 88be f0d7 83be 1115 5fba
00000110: 40fc 313e 7297 993d 479d 003e 9231 0b3d
00000120: 38ac 8dbb 604f 9dbe 87a9 9b3e a117 ac3e
00000130: 5738 c63b 71d9 5f3d fe68 323d ad52 b03e
00000140: 2665 beba b6b9 c2bc f437 2fbe 6071 983d
00000150: 2337 123e 938d 90be 6760 c83d ec3c 963d
00000160: d1e7 113e 1326 0c3e 3cc4 a1bd e249 613d
00000170: 466b 6ebe 7a0f 543e af86 91be 282c 99be
00000180: 0040 77be 8e8a 2cbe abb2 213c 7e13 5b3e
00000190: 192a 22bc 8a44 793e 3817 e8bc 6cc0 923e
000001a0: f34d 6d3e 121e 583e c884 de3d 1f4e 66be
000001b0: 388b af3e 52c8 aabe 3f30 63be f519 3cbe
000001c0: 8c6a 6abd b6a9 023e c83f 703d 05b7 95be
000001d0: cf77 af3e b0df aa3e f4c4 0f3e c4ae abbe
000001e0: efd7 3d3e ae2a 9d3d 3c93 57bc 38e8 8ebe
000001f0: b8e2 953e a799 83bd 01b1 8bbe 9baf 823e
00000200: 07c6 f43d 1eda 983d a98d 573e fcf2 d33d
00000210: db16 80bd ad4e e4bc 6254 913e 753d 31ba
00000220: 88c8 8ebe 0be5 5ebe e12e 7dbe 5a07 f03c
00000230: 0687 7a3e 0e4e 473e 6065 993d 3c96 f03d
00000240: 7f23 0dbe 3131 ab3e f886 eb3d bedc 45be
00000250: 192c 56be 3e2f 9bbe 968c 6ebd 65eb 763e
00000260: 8aa1 6a3c 50a6 06be c2e0 b83d d9ed 63be
00000270: 4799 b93d 5950 633e fa73 223e e33d a9bd
00000280: d991 d4bd 1ee5 0e3e 4f11 433e 6e21 47bd
00000290: fcac f03b 6ca5 abbc fda0 9abc 3cdd 99be
000002a0: d6a3 8abe 6da0 943e d841 0bbe d49a 7b3e
000002b0: 34cf 593e b1bd 19bd 4c6f 1dbe 282b 833b
000002c0: a75e 32bd 9578 3abe 54ae ac3e f12b 81bc
000002d0: 731e febc 0cef 5ebe d70a 233d 2359 273d
000002e0: f672 b23e 1037 94bd 42b8 333e d47d 883c
000002f0: ab40 383e bc0c 113c 9146 c1bc 7b5c 053e
00000300: 895d 00be ef1e 4f3e aba6 8ebe 95be 6dbe
00000310: a440 a93e fc21 bcbd 1fac 86be ff4a 74be
00000320: 2763 ac3e 221d 01bd 242a 8fbe a078 20bd
00000330: 6b97 0ebe 80db 54be 341b 25be e85b 803e
00000340: bee1 e43d 1e36 413e 95a3 c63c 34ed dfbd
00000350: 31b4 f9bd e698 55be 6c6c 6ebe 3b4f 95be
00000360: 81d2 463d c2ba 313e e14e 963e 0f8a 4a39
00000370: 2413 dbbc 8cac abbb 2687 f23d 4a87 02bd
00000380: 2259 d8bd 6a22 82bd ac8f abbe 1d53 80be
00000390: 8d78 eebd 5ec3 413c 60c4 47be 7540 e73d
000003a0: 00ec 25be 164b aa3e 99f9 97be 4e4b 3e3e
000003b0: 8555 20be ea64 b7bd 9887 a3be 59d3 a1be
000003c0: db57 a6be 9795 28bc ca03 a23e bbb1 0a3e
000003d0: 6ae5 4e3e 62e1 753d b450 c8bd c745 d7bd
000003e0: d4d2 8bbd 8941 a3be 8b92 333e 99d8 a3bd
000003f0: db51 41be 8e86 b83d f534 50bb 1341 343e
0.20307079 -0.16457623 -0.03151025 0.017041078 0.23974088 0.14834967 0.3389336 -0.16238055
-0.019383324 -0.018005945 0.27478832 0.3298531 0.082015306 -0.2664294 -0.23806024 0.049602576
-0.29788694 -0.100231804 -0.24371499 0.16677393 -0.0143707665 -0.2578607 0.21366511 -0.29977974
-0.031920172 0.33767182 0.16995332 -0.29343694 0.022806995 -0.037852988 0.13479343 0.32238224
0.2895937 -0.016791882 0.14256693 -0.33843642 0.27095604 0.16660075 -0.2248505 -0.08213711
-0.09823536 -0.18117477 0.12699346 -0.06403583 0.13100104 -0.068925664 0.2620225 -0.1064439
-0.04704422 -0.08031779 0.011666331 -0.0939875 -0.22915646 -0.32548854 0.19972092 0.0357786
-0.20168139 0.17759529 0.029488303 -0.10344267 -0.022186432 0.015668703 0.23251376 -0.31086078
-0.25273132 -0.26570243 -0.25750685 -0.0008509914 0.17381382 0.07499589 0.12559997 0.03398282
-0.0043235086 -0.3072462 0.30402777 0.33611777 0.0060491967 0.054650728 0.04355716 0.34438077
-0.0014525994 -0.023770195 -0.17111188 0.074434996 0.14278845 -0.28233013 0.09784012 0.07335839
0.14248587 0.13686399 -0.07898757 0.0550021 -0.23283109 0.20709029 -0.28423068 -0.299165
-0.24145508 -0.1684973 0.009869258 0.21394154 -0.009897732 0.24342552 -0.028331384 0.2866243
0.23174267 0.21105221 0.1086517 -0.22490738 0.34285903 -0.33355957 -0.22186373 -0.18369277
-0.057230517 0.12760052 0.058654577 -0.29241195 0.34271094 0.33373785 0.14039975 -0.33531773
0.18539403 0.07674156 -0.013157662 -0.27911544 0.29274535 -0.06425791 -0.2728348 0.255246
0.11951833 0.074634776 0.21050133 0.1034908 -0.06254359 -0.027869547 0.2838469 -0.0006761172
-0.27887368 -0.2176706 -0.24724914 0.02930038 0.2446557 0.19463369 0.07490039 0.11747405
-0.13783072 0.33435968 0.115003526 -0.19322488 -0.2091526 -0.3030948 -0.058239542 0.24113233
0.0143207405 -0.1314938 0.09027244 -0.222587 0.090624385 0.22198619 0.15864554 -0.08263757
-0.10379381 0.13954589 0.19049571 -0.048615865 0.00734484 -0.020952903 -0.018875593 -0.300516
-0.27078122 0.29028645 -0.13599336 0.24570781 0.21270448 -0.03753442 -0.15374488 0.0040029474
-0.0435473 -0.18210061 0.33726752 -0.015768023 -0.031020379 -0.21770877 0.03980526 0.04085649
0.34853333 -0.07237065 0.17550758 0.016661562 0.17993419 0.008853134 -0.023593219 0.1302356
-0.12535681 0.20226644 -0.27861533 -0.23217233 0.3305713 -0.091861695 -0.26303193 -0.23856734
0.33669397 -0.031521924 -0.27961838 -0.039177537 -0.13924949 -0.20786858 -0.16123658 0.2507012
0.111758694 0.188683 0.024247924 -0.10933915 -0.12192572 -0.20859107 -0.23283547 -0.2916201
0.048540596 0.17356399 0.29357055 0.00019315652 -0.026742525 -0.005239075 0.11842184 -0.031867303
-0.10563876 -0.0635422 -0.3350805 -0.2506341 -0.11644087 0.011826364 -0.19508505 0.11291591
-0.16203308 0.3326041 -0.29682615 0.18583414 -0.15657623 -0.08954795 -0.31939387 -0.31606558
-0.32488903 -0.010289571 0.31643516 0.13544361 0.20204702 0.060029395 -0.09781018 -0.10511356
-0.06827322 -0.31885937 0.1753637 -0.08000297 -0.18878882 0.09010039 -0.0031769846 0.17602949

naim.encoder.0.ff.3.weight f4 [6, 1000]
00000000: 7e5c 5bbc b010 ccbb 8abe beba c46e 27bc
00000010: 57a1 9abb 531b 953b cade 54bb 42d2 6ebc
00000020: 7943 d43c 43f7 4d3c 0a12 3dbb f7ba 5cbb
00000030: b62c adbc 967b a1bc d4be 8e3a e4fd 91bb
00000040: ff95 b13b 52dd 0dbc 18e5 84bb a9c3 1c3c
00000050: e26d 1d3d 8937 ad3c cbf6 98bc eca2 923b
00000060: ebe3 6a3b 6306 153a 22a1 9e3c 26fa 9cbb
00000070: 9fb3 74ba fd14 b4bc d67d 09bc 75cd dfbc
00000080: 951b 813c 1f8d a2bc 5a36 c7bc e87c c9bc
00000090: 35a1 713c 834d 26bc 9198 953c 1bda 39bc
000000a0: ea27 733a a95f 0dbc 5d7a debc 0307 9e3c
000000b0: efad abbc 07d1 b6bc 3760 093c 9bac 883b
000000c0: cd7f b63b a546 183d 3c9a 88bc e7b5 f3bb
000000d0: 7a4f 9d3c 56e1 a1bb a99c aeb9 d76a 90bb
000000e0: bbe7 f23a b706 023d daa2 d43a 76ff 5f3c
000000f0: 01ee 043d 624a 5a3c eb75 6f3c cc7f f23c
00000100: 37c4 2ebc 2974 76bb e3e2 f2bb aed6 c3bc
00000110: 4d21 da3c 7cbc fabc 3445 d2bc 28d2 93bb
00000120: caae 02bd 77b1 b8bc 63b8 42bc 88fd 983b
00000130: d949 d9bc 03d3 92bc ba6c 34bc 647b 9abc
00000140: 2616 5b3c 2c51 e8ba 619b 6a3c 5c5f 033d
00000150: a7d2 f8bb bf7a 06bc b6de 743c 0f42 943c
00000160: fd20 823c 8ef9 403b 50da e43c f0d0 1ebd
00000170: 9e36 38bc 69b6 8ebc 7d70 d8bc 2515 fdbb
00000180: de97 a1bc 76bc 703b e7e1 723c 8b5c 1fbb
00000190: 8992 34bc 5843 d13b bc8c f93b 1866 a0bc
000001a0: f706 c33c d825 9a3c 3b0b 8dbc b1eb d83c
000001b0: 7731 c839 d0fb efbb 0a2f ca3c f480 36bb
000001c0: 72e8 ab3c c684 2dbc 95de f6bc 7259 e43c
000001d0: 809d 82bb 5256 9b3c 7d3f 8ebc 1c6c 833c
000001e0: 1446 a4bc c4ea 013c 7116 8c3c a50b 2bbb
000001f0: 8261 063d 876e de3c eac3 973c 03ae b23c
00000200: 84d0 75bc ecb8 44bc 3f54 a83c c6fb 5dbc
00000210: 8ffa fcbb 1c8d 8c3c d20b bfbc d3d2 f9bb
00000220: a896 933b 0290 4b3c bb2a a5bc 75d3 5fbb
00000230: ec7c e03c ecfc bfbc fe0e be3c 2f97 a4ba
00000240: 3829 74bc 91ec c9bc d19a 32bb 267e a63c
00000250: 34bb 9fbc 2a7f 81bc f4fe 043b d403 a93c
00000260: ad01 16bb a0be e63c 3b4a 0d3d 9065 d73c
00000270: 63d3 93bc e383 17bd 3b4c 13bd 3c44 e53b
00000280: a8af 4fbc 140c 8e3c c133 f13b 1027 9d3c
00000290: 5471 95bc b5f5 f2bc c56f 67bc 5d2c a03b
000002a0: 84d6 a83c 34f4 ad3a 9359 d93c f91e 07bc
000002b0: a6fc 1dbb 3920 8bbb 5210 95bb 6fdc c9bb
000002c0: c287 d3bc 8e78 a7bb b64f babb 0f44 c1bc
000002d0: 7c10 5abc 04b6 9bbc f525 ae3a f475 8cbc
000002e0: 6979 053d a3d6 713b d550 a7bb 5892 85bc
000002f0: f674 0d3c 6ad1 bdbc faf7 9a3b 32f6 343c
00000300: 4f3a a4bc 7c43 023b 56a0 853b 35b7 bbbb
00000310: dcc5 febb db6a 2a3d b7ad 31bc 30eb bf3c
00000320: 34c0 aa3b b49b 013c 1180 2dbc 9218 833c
00000330: 5ef8 613c d40b aa3c 4f48 c9bc 4714 88bc
00000340: 543a 3e3b 2c8e f9bc d49e 853c c839 9d3c
00000350: 3b8a 913c 4cab a8bb 9819 ec3b f536 b9bc
00000360: 0912 193c 5a74 fabc 986d b5bc b981 3b3c
00000370: 6e20 8d3b 1890 0d3c 1826 053d e248 a83c
00000380: b767 bb3c 4571 efbc 16fa d0bb 5523 1d3b
00000390: aacd e2bc 8dc5 a63c 6149 883c be19 bdbc
000003a0: cefa 163a 2c36 f7bc f4d3 943c 2e09 073c
000003b0: 5576 95bb ac8b 983c d673 7cbb 950e 233c
000003c0: d743 b63c c915 10bc a09c babc 42d2 9c3c
000003d0: 89f8 bfbc 443b 623b 6453 38bc 2dc4 b73c
000003e0: 3ceb ea3b 4307 9bbc 316d 8dbc e3a4 e03c
000003f0: 6930 29bc f91c f33b 8379 873c e142 92bc
-0.013388751 -0.0062275752 -0.0014552635 -0.01021928 -0.0047189402 0.0045503764 -0.0032481425 -0.014576497
0.02591108 0.012571159 -0.0028849863 -0.0033680776 -0.021139484 -0.01971225 0.0010890611 -0.004455315
0.0054194923 -0.008658724 -0.0040556304 0.009568133 0.03843487 0.021144645 -0.018672368 0.004474988
0.0035841416 0.00056848506 0.019363943 -0.004790562 -0.0009334627 -0.021982664 -0.008391818 -0.02731965
0.015760222 -0.019842682 -0.024317909 -0.024595693 0.014747907 -0.010150316 0.018261226 -0.011343504
0.0009275662 -0.008628764 -0.027157957 0.019290453 -0.020956961 -0.022316469 0.008384756 0.004170967
0.0055694343 0.037176747 -0.016675107 -0.007437456 0.019202936 -0.004940192 -0.00033304587 -0.0044072676
0.0018532196 0.031744685 0.001622285 0.0136717465 0.03245354 0.013323398 0.014615516 0.029601954
-0.010666898 -0.0037605858 -0.007412301 -0.023906078 0.026627207 -0.030607454 -0.025667764 -0.0045111366
-0.031904973 -0.02254556 -0.0118847815 0.004668895 -0.026524471 -0.017922884 -0.011012251 -0.018857665
0.01337198 -0.0017724386 0.014319272 0.032073364 -0.007593471 -0.008207976 0.014945677 0.018097905
0.01588487 0.0029445621 0.02793613 -0.038773477 -0.0112434905 -0.017420964 -0.026420826 -0.007723468
-0.019725736 0.0036733425 0.014824367 -0.0024316635 -0.011021265 0.006386202 0.007615654 -0.019579932
0.023807032 0.018816873 -0.01721727 0.026479574 0.00038183827 -0.0073237196 0.024680633 -0.0027847858
0.020984862 -0.010590738 -0.030135432 0.027874682 -0.0039860606 0.01896206 -0.017364258 0.016042762
-0.020052947 0.007929508 0.017100545 -0.002609947 0.032807834 0.027152313 0.018526036 0.02181149
-0.015003327 -0.012006979 0.020547984 -0.013548797 -0.0077202986 0.01715713 -0.023321066 -0.007624009
0.0045040436 0.012424471 -0.020161977 -0.0034153138 0.027403317 -0.023436032 0.023200508 -0.0012557263
-0.014902405 -0.024648936 -0.0027252922 0.020323824 -0.019498445 -0.015807707 0.0020293565 0.020631708
-0.0022889182 0.028167069 0.03449462 0.026293546 -0.018045133 -0.03699101 -0.03596137 0.0069966596
-0.012676157 0.017339744 0.007360906 0.019183666 -0.018242516 -0.029658178 -0.014125769 0.004888101
0.020610102 0.0013271631 0.02653197 -0.008247131 -0.002410689 -0.0042457846 -0.0045490647 -0.006160311
-0.02582157 -0.005110807 -0.005685772 -0.023592023 -0.013309594 -0.01900769 0.0013286459 -0.017146088
0.03258649 0.0036901615 -0.0051060715 -0.016305134 0.008633843 -0.023171145 0.004729268 0.011045026
-0.020047335 0.001987665 0.0040779514 -0.005728627 -0.0077750515 0.04160581 -0.0108446395 0.023427576
0.0052109007 0.007910658 -0.010589615 0.016002927 0.0137921255 0.020757593 -0.024570612 -0.016611231
0.0029026465 -0.0304633 0.016311087 0.019192591 0.017766109 -0.0051473733 0.0072051995 -0.022609213
0.009342679 -0.030573059 -0.022146985 0.0114445025 0.0043068444 0.008640312 0.032507032 0.020542566
0.022876604 -0.029228816 -0.006377469 0.0023977358 -0.027685959 0.020357871 0.016636552 -0.023083564
0.0005759419 -0.030177198 0.018167473 0.008241935 -0.0045612254 0.018621288 -0.0038521192 0.009952207
0.022249145 -0.0087942565 -0.022779763 0.019143227 -0.02343394 0.0034520188 -0.011250351 0.022432411
0.0071691554 -0.018924361 -0.01726398 0.027422374 -0.010326483 0.0074192253 0.016537433 -0.017854156

naim.encoder.0.ff.3.bias f4 [6]
00000000: 6eee eabc acdc c5ba 6e76 86bc 4afb 48bc
00000010: f64b a03c 8271 c7bc
-0.028678145 -0.0015095673 -0.016413894 -0.012266943 0.019567471 -0.024346117

naim.norm.weight f4 [6]
00000000: 459e 803f 641c 833f bb0e 853f 7c65 7e3f
00000010: eac2 803f 709e 7f3f
1.00483 1.0243039 1.039512 0.993736 1.0059483 0.9985113

naim.norm.bias f4 [6]
00000000: 1118 74bb 58f2 6bbb a742 283b 05c0 b3ba
00000010: 4152 303b 299d 3dbb
-0.003724579 -0.0036002602 0.0025674494 -0.0013713842 0.0026904496 -0.0028932786

naim.classifier.0.weight f4 [4, 384]
00000000: 7b57 25bd 4a5c 5dbc 4bff 99bc 2d3e 1c3c
00000010: 3f0b f13c b72a d63b d428 7fba 085e d63c
00000020: dc8c 223d 51fc dbbb 402d 1ebd d69b 21bd
00000030: b604 483d f3f9 a83c 3cb5 4a3d 2ea9 b8bc
00000040: b25e 7c3c 202a f2bc 7586 c1bc 6a40 d4bc
00000050: ddf7 363d 76ae 083d 7f39 8abc db89 14bd
00000060: 67ef a23c 734f 0abc d180 473b e2e2 5b3b
00000070: 8798 43bd d4a2 083c 1149 263b 7085 02bd
00000080: 4db2 5abd 3c06 bb3c 783c 30bd 6eb9 d2bc
00000090: 18da 093d 0ee7 f8bc 54a5 b9bc 9788 f0bc
000000a0: 5e37 e13c 41dd 4a3c 254f 043c 349d 863c
000000b0: 32ba 433c 8aa3 fbbb 13d9 1bba 2002 0fbd
000000c0: 00bc dcbc 4142 573b 3227 07bc 8c15 813c
000000d0: ab78 df3c a2e1 103d a299 393d 080f 8ebb
000000e0: 2875 983c 2f12 1dbd b27e 053d b53e 7dbc
000000f0: db09 1bbd 6eb4 1bbd b433 35bd 4f99 c9bc
00000100: 21ac dc3c 31a3 36bd 35a7 c6bb a4c5 3ebc
00000110: edc9 9a3c 8380 a3bc d7dc ee3c b36e 0fbd
00000120: 8461 0a3d d331 4cbd 2603 06bd 0c1f 763c
00000130: 55ef 033c 66a1 123d 33d8 ea3c b062 27bd
00000140: 8eef 293d ea57 80bc 8e07 8ebb e6e2 c5bc
00000150: 8b8c 99bb 46ba 4cbd 4cee be3b 6034 1e3d
00000160: 50f1 36bc 2b52 243d c881 a6bc 745b 913c
00000170: 9153 1e3b 6661 9fbc e1fc 593d c1b6 d53a
00000180: 0d4f c23a e79a 96ba 1f41 67bb 52e0 2e3d
00000190: d390 81bb dc02 de3c ca44 6d3c bf20 f23c
000001a0: d2b5 28bd eab7 35bd 4c7c 44bc 7373 4fbc
000001b0: 1b86 4f3d dfe9 573d edbb 35bc ca54 ddbc
000001c0: 88e8 12bb a60d 833c 79e8 6b3c f8b2 5c3c
000001d0: 21f6 0f3d 5a29 053c 02b7 2e3d 9323 043c
000001e0: e233 adbb 344e 213d 871a 823b 9dda 6a3b
000001f0: dee4 99bb 3173 dd3c 79e4 5dbc 2b78 3b3d
00000200: c3ca e03c a558 57bb c5c1 7bbc b5a6 f13b
00000210: a37f 48bd e2f1 61bc 70a6 8abc 414e 11bc
00000220: 3f95 d7bc 7f69 a3bc f462 b73c f505 163a
00000230: ae7e 02bd 6600 ecbb eeca 7e3c 7be8 8dbc
00000240: aa17 343d 4d35 14bd 624a 3b3d fbf8 803c
00000250: e28b d2bc 5f84 4bbd cd30 693c 48d9 a8bb
00000260: 3d5e 353c 5162 8b3c 4982 cebc 000f 073c
00000270: b593 b4bc 60e7 40bd 797a 1a3d 4d89 38bb
00000280: bb05 69bd 5a85 703d 74ed 213c 9cbc 91bc
00000290: 6484 ff3b e131 39bd 6d9c 2e3d d98e 333d
000002a0: 3d9c 28bd 5a3b 373c 8851 183d a2b5 45bd
000002b0: 8ea1 62bd a4da 283b b397 fb3c 9590 0ebd
000002c0: 3f8e 063d 517c 453d 0f95 563d 194b a53c
000002d0: b8d6 74bc 8ccd 61bd af90 e83c 6038 b8bb
000002e0: edbe 3b3d 7765 963d 9ac8 57bd 1e33 1dbc
000002f0: ac9d 87bc 4b21 29bc 5f95 ea3b f542 40bc
00000300: 274f b83c d470 ebbc e5a3 033d 8fa6 403d
00000310: ecac 0dbd 921f 293d fd97 dc3a ac09 4abd
00000320: eb47 463d 4715 d5bc 860c efbc 89f3 193d
00000330: dd25 053d ee21 06bd acf6 35bd 8ff3 3d3d
00000340: 4768 423d 8f22 0bbd 8d97 40bd d294 82bc
00000350: 32e4 c5bc 95fa bebc ccc7 81bb a1b0 f9bc
00000360: 6b13 b53c 594b a8b7 2cb7 31bc 874b a73c
00000370: f320 b7bc e360 193d 9084 803c 993c 0f3d
00000380: 871c a23d 276e 3cbb 01b7 bfbc ca1c b1bc
00000390: a443 7ebd 71c1 3c3d adad 66bc bcdc 74bc
000003a0: 5648 4dbc 93a9 863d 9605 b13c b16d fbbc
000003b0: 1f12 39bc 051c e53a d900 b93d 749c 2abd
000003c0: a388 993c 1b97 3bbb f2b5 59bd a8e3 75bd
000003d0: 691e d23b d5f4 c23c a3d2 083d f860 2ebc
000003e0: 00eb ddbc d6b2 143d 81a0 393d 036e a73c
000003f0: d7a8 453d d84a 48bd 8ec2 29bd 158b 8e3a
-0.04036663 -0.013510773 -0.018798491 0.009536308 0.029424308 0.0065358537 -0.0009733562 0.026167884
0.039685115 -0.006713428 -0.038617373 -0.039455257 0.048832618 0.020626998 0.049489245 -0.022541609
0.0154034365 -0.029561102 -0.023623684 -0.025909621 0.044669975 0.033369504 -0.01687312 -0.03626428
0.019889547 -0.008441794 0.003044177 0.003355198 -0.047752883 0.0083396025 0.002537314 -0.031865537
-0.053392697 0.022830121 -0.043026417 -0.025723185 0.033655256 -0.030383613 -0.022661842 -0.029362006
0.027492221 0.012381853 0.00807551 0.016432382 0.011946248 -0.0076794075 -0.00059451273 -0.034914136
-0.026945114 0.0032845887 -0.008249091 0.015757345 0.027279219 0.03537143 0.04531253 -0.004335288
0.018610552 -0.03834742 0.03259153 -0.015456845 -0.037851196 -0.038013868 -0.04423876 -0.024609236
0.026937546 -0.044589225 -0.006062413 -0.011643801 0.018895114 -0.01995874 0.029158039 -0.03501768
0.033784404 -0.049852204 -0.032717846 0.015022051 0.008052667 0.035798453 0.028667545 -0.0408656
0.041488223 -0.01566692 -0.0043343967 -0.024156045 -0.0046859435 -0.04998233 0.005826747 0.038624167
-0.011165932 0.040117424 -0.020325556 0.017743804 0.0024158696 -0.019455623 0.05321968 0.0016305075
0.0014824584 -0.0011490256 -0.0035286618 0.042694397 -0.003954032 0.027100973 0.014481733 0.02955663
-0.041189022 -0.044364847 -0.011992525 -0.012661803 0.050665002 0.05271327 -0.011092168 -0.02701797
-0.0022416431 0.015997719 0.0143986875 0.013470404 0.035146836 0.008127535 0.042655 0.008065122
-0.005285726 0.03938122 0.0039704475 0.003583587 -0.0046964725 0.027032467 -0.013543242 0.045768898
0.027440434 -0.0032859233 -0.0153660225 0.0073746094 -0.04894985 -0.0137905795 -0.016925067 -0.008868755
-0.026316283 -0.019947765 0.022386052 0.00057229336 -0.031859092 -0.007202196 0.015551312 -0.01732277
0.04396788 -0.036183644 0.045725234 0.015743723 -0.025701467 -0.049686786 0.014232826 -0.005152855
0.011069831 0.017014654 -0.02520861 0.008243322 -0.022043088 -0.047095656 0.037714455 -0.002815801
-0.05689023 0.058720924 0.009883273 -0.017790131 0.0077977646 -0.045213584 0.042629648 0.043837402
-0.041164625 0.011183584 0.03718713 -0.04826892 -0.05532985 0.0025765086 0.030711984 -0.034805853
0.0328505 0.04821426 0.052388247 0.02017741 -0.014943771 -0.055127665 0.028389303 -0.005621955
0.045836378 0.07343572 -0.052681543 -0.009594707 -0.016554676 -0.010322879 0.0071589197 -0.011734714
0.02249868 -0.028740324 0.032138724 0.047033843 -0.03458874 0.041289873 0.0016829964 -0.04932563
0.04840843 -0.026011122 -0.029180776 0.03758577 0.032506812 -0.0327472 -0.044424698 0.046374854
0.047462728 -0.033968505 -0.04701953 -0.015940104 -0.024156664 -0.023312846 -0.003960585 -0.030479731
0.022103986 -2.0062247e-05 -0.010846894 0.020421756 -0.022354579 0.037445914 0.01568821 0.0349699
0.079155974 -0.002875218 -0.023402693 -0.021620173 -0.062076226 0.046082918 -0.0140794935 -0.014945205
-0.012529453 0.065753125 0.021609109 -0.030691953 -0.011295824 0.0017479664 0.09033365 -0.04165311
0.018741911 -0.0028624001 -0.053152032 -0.060031563 0.0064123166 0.023798386 0.033404004 -0.010643236
-0.027089596 0.036303364 0.045319084 0.0204382 0.04825672 -0.0488995 -0.041445307 0.001087519

naim.classifier.0.bias f4 [4]
00000000: 2679 083d 6f20 abbc 9a4a e43c 7d40 1f3d
0.03331866 -0.020889489 0.027867604 0.03887986
