outputs/2025-03-23/17-22-00/outputs/model_epoch_40.pt (torch, 92146 bytes, 80 tensors)

naim.embeddings.0.embeddings.weight f4 [2, 6]
0.3569834 -0.55465215 -0.3298459 0.3086349 0.424388 0.2634573 0.0 0.0
0.0 0.0 0.0 0.0
00000000: 87c6 b63e affd 0dbf 90e1 a8be 6505 9e3e
00000010: 6249 d93e e0e3 863e 0000 0000 0000 0000
00000020: 0000 0000 0000 0000 0000 0000 0000 0000

naim.embeddings.1.embeddings.weight f4 [2, 6]
0.071400255 -0.08777419 -0.13375953 0.35816538 0.1616489 -0.081038855 0.0 0.0
0.0 0.0 0.0 0.0
00000000: 4c3a 923d f4c2 b3bd 42f8 08be 7461 b73e
00000010: 4a87 253e b3f7 a5bd 0000 0000 0000 0000
00000020: 0000 0000 0000 0000 0000 0000 0000 0000

naim.embeddings.2.embeddings.weight f4 [2, 6]
0.63639015 0.04803097 -0.017853418 0.5591983 -0.26049325 0.34731382 0.0 0.0
0.0 0.0 0.0 0.0
00000000: 77ea 223f 1fbc 443d 5541 92bc 9f27 0f3f
00000010: 5f5f 85be 1ed3 b13e 0000 0000 0000 0000
00000020: 0000 0000 0000 0000 0000 0000 0000 0000

naim.embeddings.3.embeddings.weight f4 [2, 6]
0.63553166 -0.49001768 0.041338924 0.47376782 0.1374533 0.00261939 0.0 0.0
0.0 0.0 0.0 0.0
00000000: 34b2 223f 99e3 fabe 0153 293d b291 f23e
00000010: 8fc0 0c3e 12aa 2b3b 0000 0000 0000 0000
00000020: 0000 0000 0000 0000 0000 0000 0000 0000

naim.embeddings.4.embeddings.weight f4 [2, 6]
-0.51585466 -0.2663544 -0.21004806 0.1303665 0.09383311 0.01691669 0.0 0.0
0.0 0.0 0.0 0.0
00000000: 0d0f 04bf 9b5f 88be d716 57be cc7e 053e
00000010: 932b c03d df94 8a3c 0000 0000 0000 0000
00000020: 0000 0000 0000 0000 0000 0000 0000 0000

naim.embeddings.5.embeddings.weight f4 [2, 6]
-0.31209123 0.028858513 0.6038031 0.34041536 -0.53686947 0.052022226 0.0 0.0
0.0 0.0 0.0 0.0
00000000: 6cca 9fbe b068 ec3c d792 1a3f ec4a ae3e
00000010: 4770 09bf 4215 553d 0000 0000 0000 0000
00000020: 0000 0000 0000 0000 0000 0000 0000 0000

naim.embeddings.6.embeddings.weight f4 [2, 6]
-0.5113556 -0.10737376 -0.11856656 -0.24570946 0.14071915 0.7291604 0.0 0.0
0.0 0.0 0.0 0.0
00000000: 33e8 02bf c6e6 dbbd 06d3 f2bd 439b 7bbe
00000010: ae18 103e 42aa 3a3f 0000 0000 0000 0000
00000020: 0000 0000 0000 0000 0000 0000 0000 0000

naim.embeddings.7.embeddings.weight f4 [2, 6]
-0.37042066 -0.0069650616 0.08874424 -0.6546923 -0.047992855 0.53315854 0.0 0.0
0.0 0.0 0.0 0.0
00000000: c7a7 bdbe 2c3b e4bb 8abf b53d ea99 27bf
00000010: 2894 44bd 147d 083f 0000 0000 0000 0000
00000020: 0000 0000 0000 0000 0000 0000 0000 0000

naim.embeddings.8.embeddings.weight f4 [2, 6]
0.6037397 -0.13561429 0.23589854 -0.58043015 -0.19662969 0.22187185 0.0 0.0
0.0 0.0 0.0 0.0
00000000: af8e 1a3f 79de 0abe 638f 713e 1297 14bf
00000010: 4b59 49be 6032 633e 0000 0000 0000 0000
00000020: 0000 0000 0000 0000 0000 0000 0000 0000

naim.embeddings.9.embeddings.weight f4 [2, 6]
0.43240353 -0.272584 0.05303362 -0.3893422 -0.58271897 0.0047958805 0.0 0.0
0.0 0.0 0.0 0.0
00000000: ff63 dd3e 2190 8bbe c839 593d dc57 c7be
00000010: 122d 15bf c326 9d3b 0000 0000 0000 0000
00000020: 0000 0000 0000 0000 0000 0000 0000 0000

naim.embeddings.10.embeddings.weight f4 [2, 6]
0.089442424 0.09681026 0.25766635 0.2525802 0.011570932 0.4391503 0.0 0.0
0.0 0.0 0.0 0.0
00000000: 972d b73d 7544 c63d d8ec 833e 3152 813e
00000010: 0294 3d3c 4fd8 e03e 0000 0000 0000 0000
00000020: 0000 0000 0000 0000 0000 0000 0000 0000

naim.embeddings.11.embeddings.weight f4 [2, 6]
0.17372428 -0.119220585 -0.47696322 -0.49643588 -0.03361815 -0.27010453 0.0 0.0
0.0 0.0 0.0 0.0
00000000: c7e4 313e ec29 f4bd 8634 f4be d82c febe
00000010: 2fb3 09bd 244b 8abe 0000 0000 0000 0000
00000020: 0000 0000 0000 0000 0000 0000 0000 0000

naim.embeddings.12.embeddings.weight f4 [2, 6]
0.15588267 -0.21418086 0.07362077 0.41453904 0.46286264 0.09574035 0.0 0.0
0.0 0.0 0.0 0.0
00000000: b59f 1f3e 3a52 5bbe 7cc6 963d 763e d43e
00000010: 55fc ec3e 8413 c43d 0000 0000 0000 0000
00000020: 0000 0000 0000 0000 0000 0000 0000 0000

naim.embeddings.13.embeddings.weight f4 [2, 6]
-0.25627837 -0.103387475 -0.29754382 0.6408476 -0.18899694 0.30281627 0.0 0.0
0.0 0.0 0.0 0.0
00000000: eb36 83be d0bc d3bd aa57 98be 970e 243f
00000010: 6a88 41be bc0a 9b3e 0000 0000 0000 0000
00000020: 0000 0000 0000 0000 0000 0000 0000 0000

naim.embeddings.14.embeddings.weight f4 [2, 6]
0.18123764 0.6355875 -0.1501287 0.08364482 0.5944748 0.014179198 0.0 0.0
0.0 0.0 0.0 0.0
00000000: 5c96 393e ddb5 223f 57bb 19be fa4d ab3d
00000010: 802f 183f de4f 683c 0000 0000 0000 0000
00000020: 0000 0000 0000 0000 0000 0000 0000 0000

naim.embeddings.15.embeddings.weight f4 [2, 6]
-0.5882205 0.33419043 0.07528193 -0.28656664 -0.1947693 0.529566 0.0 0.0
0.0 0.0 0.0 0.0
00000000: 9e95 16bf 021b ab3e 6a2d 9a3d ddb8 92be
00000010: 9a71 47be a391 073f 0000 0000 0000 0000
00000020: 0000 0000 0000 0000 0000 0000 0000 0000

naim.embeddings.16.embeddings.weight f4 [2, 6]
0.5115135 0.09772198 0.06575858 -0.3096643 0.1358606 0.39473185 0.0 0.0
0.0 0.0 0.0 0.0
00000000: 8cf2 023f 7622 c83d 6fac 863d 528c 9ebe
00000010: 0b1f 0b3e 4b1a ca3e 0000 0000 0000 0000
00000020: 0000 0000 0000 0000 0000 0000 0000 0000

naim.embeddings.17.embeddings.weight f4 [2, 6]
0.11492779 0.17226654 0.13889338 -0.49561918 0.29661536 -0.28009683 0.0 0.0
0.0 0.0 0.0 0.0
00000000: 435f eb3d a466 303e 113a 0e3e ccc1 fdbe
00000010: f8dd 973e da68 8fbe 0000 0000 0000 0000
00000020: 0000 0000 0000 0000 0000 0000 0000 0000

naim.embeddings.18.embeddings.weight f4 [2, 6]
-0.53466684 -0.46587953 -0.28657264 0.53440523 -0.023175769 -0.024329243 0.0 0.0
0.0 0.0 0.0 0.0
00000000: eddf 08bf c387 eebe a6b9 92be c8ce 083f
00000010: 1cdb bdbc 1f4e c7bc 0000 0000 0000 0000
00000020: 0000 0000 0000 0000 0000 0000 0000 0000

naim.embeddings.19.embeddings.weight f4 [2, 6]
0.5303919 -0.27845266 0.27089167 -0.20733598 -0.10771174 0.089203015 0.0 0.0
0.0 0.0 0.0 0.0
00000000: c3c7 073f 5991 8ebe 50b2 8a3e e24f 54be
00000010: f997 dcbd 12b0 b63d 0000 0000 0000 0000
00000020: 0000 0000 0000 0000 0000 0000 0000 0000

naim.embeddings.20.embeddings.weight f4 [2, 6]
0.27630055 0.14283891 -0.33171725 -0.46252486 -0.122751586 0.23323905 0.0 0.0
0.0 0.0 0.0 0.0
00000000: 4477 8d3e 5d44 123e d8d6 a9be 0fd0 ecbe
00000010: 2f65 fbbd 38d6 6e3e 0000 0000 0000 0000
00000020: 0000 0000 0000 0000 0000 0000 0000 0000

naim.embeddings.21.embeddings.weight f4 [2, 6]
0.07069074 -0.0077101383 0.11984883 -0.04065691 0.026351009 -0.15109742 0.0 0.0
0.0 0.0 0.0 0.0
00000000: 4fc6 903d 54a5 fcbb 4e73 f53d dc87 26bd
00000010: 12de d73c 48b9 1abe 0000 0000 0000 0000
00000020: 0000 0000 0000 0000 0000 0000 0000 0000

naim.embeddings.22.embeddings.weight f4 [2, 6]
0.3414052 -0.252269 -0.040693127 0.5495315 0.40116718 -0.20144713 0.0 0.0
0.0 0.0 0.0 0.0
00000000: aacc ae3e 6729 81be d6ad 26bd 19ae 0c3f
00000010: c965 cd3e 2848 4ebe 0000 0000 0000 0000
00000020: 0000 0000 0000 0000 0000 0000 0000 0000

naim.embeddings.23.embeddings.weight f4 [2, 6]
0.20658787 0.00611481 -0.34884635 0.811055 -0.05148304 -0.25453857 0.0 0.0
0.0 0.0 0.0 0.0
00000000: c58b 533e be5e c83b fd9b b2be 4da1 4f3f
00000010: e1df 52bd e152 82be 0000 0000 0000 0000
00000020: 0000 0000 0000 0000 0000 0000 0000 0000

naim.embeddings.24.embeddings.weight f4 [2, 6]
0.0147821475 0.1676927 -0.19228333 0.3939585 -0.823825 0.0540959 0.0 0.0
0.0 0.0 0.0 0.0
00000000: d230 723c a3b7 2b3e ece5 44be eeb4 c93e
00000010: 32e6 52bf aa93 5d3d 0000 0000 0000 0000
00000020: 0000 0000 0000 0000 0000 0000 0000 0000

naim.embeddings.25.embeddings.weight f4 [2, 6]
0.35952976 -0.14480667 0.72416896 0.45470735 0.09361657 0.057248555 0.0 0.0
0.0 0.0 0.0 0.0
00000000: 4914 b83e 3348 14be 2363 393f 67cf e83e
00000010: 0bba bf3d 767d 6a3d 0000 0000 0000 0000
00000020: 0000 0000 0000 0000 0000 0000 0000 0000

naim.embeddings.26.embeddings.weight f4 [2, 6]
0.15473843 -0.471791 -0.5186749 0.28569803 0.3982574 0.3186271 0.0 0.0
0.0 0.0 0.0 0.0
00000000: c073 1e3e 978e f1be e1c7 04bf 0347 923e
00000010: 65e8 cb3e 1723 a33e 0000 0000 0000 0000
00000020: 0000 0000 0000 0000 0000 0000 0000 0000

naim.embeddings.27.embeddings.weight f4 [2, 6]
-0.09552176 0.3866644 -0.5082888 -0.526496 -0.14979525 0.0361191 0.0 0.0
0.0 0.0 0.0 0.0
00000000: eaa0 c3bd e0f8 c53e 371f 02bf 71c8 06bf
00000010: ed63 19be 9ff1 133d 0000 0000 0000 0000
00000020: 0000 0000 0000 0000 0000 0000 0000 0000

naim.embeddings.28.embeddings.weight f4 [2, 6]
-0.17366447 0.21158288 -0.2357529 -0.32266387 0.14638507 -0.07291541 0.0 0.0
0.0 0.0 0.0 0.0
00000000: 19d5 31be 2fa9 583e 3569 71be 3334 a5be
00000010: f8e5 153e ad54 95bd 0000 0000 0000 0000
00000020: 0000 0000 0000 0000 0000 0000 0000 0000

naim.embeddings.29.embeddings.weight f4 [2, 6]
-0.51590663 -0.0085778665 0.6297219 -0.1970179 0.059041444 -0.33554348 0.0 0.0
0.0 0.0 0.0 0.0
00000000: 7512 04bf 2e8a 0cbc 7435 213f 0fbf 49be
00000010: 71d5 713d 5bcc abbe 0000 0000 0000 0000
00000020: 0000 0000 0000 0000 0000 0000 0000 0000

naim.embeddings.30.embeddings.weight f4 [2, 6]
-0.10858301 0.27662537 0.32597956 -0.30181018 -0.061135136 -0.400094 0.0 0.0
0.0 0.0 0.0 0.0
00000000: c560 debd d7a1 8d3e cbe6 a63e dd86 9abe
00000010: d668 7abd 1fd9 ccbe 0000 0000 0000 0000
00000020: 0000 0000 0000 0000 0000 0000 0000 0000

naim.embeddings.31.embeddings.weight f4 [2, 6]
0.3793195 -0.23592366 -0.038809042 -0.09150345 -0.26056468 -0.29627663 0.0 0.0
0.0 0.0 0.0 0.0
00000000: 2a36 c23e f995 71be 3bf6 1ebd 2966 bbbd
00000010: bc68 85be 92b1 97be 0000 0000 0000 0000
00000020: 0000 0000 0000 0000 0000 0000 0000 0000

naim.embeddings.32.embeddings.weight f4 [2, 6]
0.07888093 0.2960613 -0.35827246 -0.758746 0.31757703 -0.18275255 0.0 0.0
0.0 0.0 0.0 0.0
00000000: 538c a13d 5995 973e 7d6f b7be 2e3d 42bf
00000010: 7599 a23e 7c23 3bbe 0000 0000 0000 0000
00000020: 0000 0000 0000 0000 0000 0000 0000 0000

naim.embeddings.33.embeddings.weight f4 [2, 6]
-0.1505841 -0.15861727 -0.46074164 -0.2369691 -0.31376505 0.6976257 0.0 0.0
0.0 0.0 0.0 0.0
00000000: b832 1abe 916c 22be 54e6 ebbe 07a8 72be
00000010: d0a5 a0be 9997 323f 0000 0000 0000 0000
00000020: 0000 0000 0000 0000 0000 0000 0000 0000

naim.embeddings.34.embeddings.weight f4 [2, 6]
-0.17767319 0.14562145 0.50767875 -0.05281217 -0.25454345 0.059369396 0.0 0.0
0.0 0.0 0.0 0.0
00000000: f6ef 35be ca1d 153e 3cf7 013f 9351 58bd
00000010: 8553 82be 532d 733d 0000 0000 0000 0000
00000020: 0000 0000 0000 0000 0000 0000 0000 0000

naim.embeddings.35.embeddings.weight f4 [2, 6]
0.1862103 -0.17717527 0.35902947 0.30967805 0.3996369 -0.53316516 0.0 0.0
0.0 0.0 0.0 0.0
00000000: eaad 3e3e 6f6d 35be b6d2 b73e 1f8e 9e3e
00000010: 359d cc3e 837d 08bf 0000 0000 0000 0000
00000020: 0000 0000 0000 0000 0000 0000 0000 0000

naim.embeddings.36.embeddings.weight f4 [2, 6]
-0.1619121 0.3870938 -0.50721705 0.030871544 0.01091459 0.09126825 0.0 0.0
0.0 0.0 0.0 0.0
00000000: 49cc 25be 2931 c63e fad8 01bf 52e6 fc3c
00000010: 1cd3 323c d9ea ba3d 0000 0000 0000 0000
00000020: 0000 0000 0000 0000 0000 0000 0000 0000

naim.embeddings.37.embeddings.weight f4 [2, 6]
0.0025855126 -0.33716676 -0.15665455 -0.07181089 0.2444455 0.112208456 0.0 0.0
0.0 0.0 0.0 0.0
00000000: b471 293b 1fa1 acbe 0d6a 20be 9711 93bd
00000010: ec4f 7a3e 8ccd e53d 0000 0000 0000 0000
00000020: 0000 0000 0000 0000 0000 0000 0000 0000

naim.embeddings.38.embeddings.weight f4 [2, 6]
0.047555804 -0.081680804 -0.014996147 0.3438437 -0.12576853 0.14041258 0.0 0.0
0.0 0.0 0.0 0.0
00000000: e0c9 423d 4448 a7bd 66b2 75bc 480c b03e
00000010: 77c9 00be 51c8 0f3e 0000 0000 0000 0000
00000020: 0000 0000 0000 0000 0000 0000 0000 0000

naim.embeddings.39.embeddings.weight f4 [2, 6]
-0.033162437 -0.26742837 0.50562495 -0.63481057 0.18814555 0.34210983 0.0 0.0
0.0 0.0 0.0 0.0
00000000: 56d5 07bd 5fec 88be a370 013f f282 22bf
00000010: 3aa9 403e 0529 af3e 0000 0000 0000 0000
00000020: 0000 0000 0000 0000 0000 0000 0000 0000

naim.embeddings.40.embeddings.weight f4 [2, 6]
-0.108966894 0.2194929 0.14724347 -0.11988591 -0.084742464 -0.3496413 0.0 0.0
0.0 0.0 0.0 0.0
00000000: 092a dfbd bfc2 603e fec6 163e be86 f5bd
00000010: 758d adbd 2f04 b3be 0000 0000 0000 0000
00000020: 0000 0000 0000 0000 0000 0000 0000 0000

naim.embeddings.41.embeddings.weight f4 [2, 6]
-0.10144924 -0.18432544 0.3197604 0.17707328 0.38470906 0.56118953 0.0 0.0
0.0 0.0 0.0 0.0
00000000: 9fc4 cfbd cfbf 3cbe a3b7 a33e b352 353e
00000010: 96f8 c43e 1eaa 0f3f 0000 0000 0000 0000
00000020: 0000 0000 0000 0000 0000 0000 0000 0000

naim.embeddings.42.embeddings.weight f4 [2, 6]
-0.2981975 0.71344256 0.21960707 0.38499528 0.10213519 -0.14277537 0.0 0.0
0.0 0.0 0.0 0.0
00000000: 58ad 98be 2ca4 363f ade0 603e 1a1e c53e
00000010: 412c d13d b533 12be 0000 0000 0000 0000
00000020: 0000 0000 0000 0000 0000 0000 0000 0000

naim.embeddings.43.embeddings.weight f4 [2, 6]
-0.21611165 0.031369213 0.6501839 0.46596393 0.3657505 -0.089527674 0.0 0.0
0.0 0.0 0.0 0.0
00000000: 5f4c 5dbe 017d 003d 7472 263f d392 ee3e
00000010: a643 bb3e 495a b7bd 0000 0000 0000 0000
00000020: 0000 0000 0000 0000 0000 0000 0000 0000

naim.embeddings.44.embeddings.weight f4 [2, 6]
-0.027634421 0.29933885 0.19831195 -0.34367722 0.13834308 0.4919428 0.0 0.0
0.0 0.0 0.0 0.0
00000000: 9561 e2bc f142 993e 4a12 4b3e 76f6 afbe
00000010: cfa9 0d3e eddf fb3e 0000 0000 0000 0000
00000020: 0000 0000 0000 0000 0000 0000 0000 0000

naim.embeddings.45.embeddings.weight f4 [2, 6]
-0.4339141 -0.64216506 -0.31128153 0.1634891 -0.4476018 -0.16137117 0.0 0.0
0.0 0.0 0.0 0.0
00000000: fd29 debe ee64 24bf 4b60 9fbe b069 273e
00000010: 102c e5be 7c3e 25be 0000 0000 0000 0000
00000020: 0000 0000 0000 0000 0000 0000 0000 0000

naim.embeddings.46.embeddings.weight f4 [2, 6]
-0.07869234 0.08073478 0.2737365 -0.08368097 0.13907441 0.20666455 0.0 0.0
0.0 0.0 0.0 0.0
00000000: 7329 a1bd 4758 a53d 3127 8c3e ee60 abbd
00000010: 8669 0e3e df9f 533e 0000 0000 0000 0000
00000020: 0000 0000 0000 0000 0000 0000 0000 0000

naim.embeddings.47.embeddings.weight f4 [2, 6]
0.3235713 -0.10044157 -0.4692392 -0.25248346 0.2687385 -0.30347484 0.0 0.0
0.0 0.0 0.0 0.0
00000000: 23ab a53e 4fb4 cdbd 1f40 f0be 8345 81be
00000010: 1898 893e 0e61 9bbe 0000 0000 0000 0000
00000020: 0000 0000 0000 0000 0000 0000 0000 0000

naim.embeddings.48.embeddings.weight f4 [2, 6]
0.026185853 0.25917348 0.07491525 0.32908845 0.6753841 0.36688906 0.0 0.0
0.0 0.0 0.0 0.0
00000000: b783 d63c 63b2 843e 2b6d 993d 487e a83e
00000010: f9e5 2c3f e2d8 bb3e 0000 0000 0000 0000
00000020: 0000 0000 0000 0000 0000 0000 0000 0000

naim.embeddings.49.embeddings.weight f4 [2, 6]
-0.24949424 0.24824348 0.28449762 -0.11905936 -0.36978373 0.4015779 0.0 0.0
0.0 0.0 0.0 0.0
00000000: 6b7b 7fbe 8a33 7e3e aca9 913e 65d5 f3bd
00000010: 4b54 bdbe 9e9b cd3e 0000 0000 0000 0000
00000020: 0000 0000 0000 0000 0000 0000 0000 0000

naim.embeddings.50.embeddings.weight f4 [2, 6]
0.53818315 0.3835916 -0.1147636 -0.17665325 -0.111938834 -0.56751937 0.0 0.0
0.0 0.0 0.0 0.0
00000000: 5fc6 093f 1e66 c43e 2e09 ebbd 97e4 34be
00000010: 3040 e5bd f348 11bf 0000 0000 0000 0000
00000020: 0000 0000 0000 0000 0000 0000 0000 0000

naim.embeddings.51.embeddings.weight f4 [2, 6]
0.061420616 0.17073411 0.5414976 -0.660774 0.36917102 -0.14754763 0.0 0.0
0.0 0.0 0.0 0.0
00000000: 2f94 7b3d ecd4 2e3e 969f 0a3f 7c28 29bf
00000010: fc03 bd3e ba16 17be 0000 0000 0000 0000
00000020: 0000 0000 0000 0000 0000 0000 0000 0000

naim.embeddings.52.embeddings.weight f4 [2, 6]
0.3141855 -0.24341498 -0.23662603 -0.22073984 0.11402334 -0.35062653 0.0 0.0
0.0 0.0 0.0 0.0
00000000: ecdc a03e c741 79be 184e 72be a009 62be
00000010: 1285 e93d 5285 b3be 0000 0000 0000 0000
00000020: 0000 0000 0000 0000 0000 0000 0000 0000

naim.embeddings.53.embeddings.weight f4 [2, 6]
-0.25348994 -0.17948678 0.14409031 -0.03671276 0.88408 -0.00079647684 0.0 0.0
0.0 0.0 0.0 0.0
00000000: 6fc9 81be 62cb 37be 698c 133e 1e60 16bd
00000010: 1153 623f a8ca 50ba 0000 0000 0000 0000
00000020: 0000 0000 0000 0000 0000 0000 0000 0000

naim.embeddings.54.embeddings.weight f4 [2, 6]
0.18026973 0.51402384 0.41236988 0.18670996 -0.5924407 0.09811283 0.0 0.0
0.0 0.0 0.0 0.0
00000000: a198 383e 1197 033f 2522 d33e e530 3f3e
00000010: 32aa 17bf 61ef c83d 0000 0000 0000 0000
00000020: 0000 0000 0000 0000 0000 0000 0000 0000

naim.embeddings.55.embeddings.weight f4 [2, 6]
0.3060784 -0.30475986 -0.558136 0.5479385 -0.10345499 -0.1613578 0.0 0.0
0.0 0.0 0.0 0.0
00000000: 4fb6 9c3e 7c09 9cbe 00e2 0ebf b345 0c3f
00000010: 36e0 d3bd fb3a 25be 0000 0000 0000 0000
00000020: 0000 0000 0000 0000 0000 0000 0000 0000

naim.embeddings.56.embeddings.weight f4 [2, 6]
-0.3740231 -0.44288597 0.18509868 -0.074634984 -0.41473264 -0.044439655 0.0 0.0
0.0 0.0 0.0 0.0
00000000: f57f bfbe f3c1 e2be 828a 3d3e 3ada 98bd
00000010: d657 d4be 5b06 36bd 0000 0000 0000 0000
00000020: 0000 0000 0000 0000 0000 0000 0000 0000

naim.embeddings.57.embeddings.weight f4 [2, 6]
0.4253541 -0.32257783 -0.20151353 0.24539064 0.6913149 -0.017950049 0.0 0.0
0.0 0.0 0.0 0.0
00000000: 03c8 d93e ec28 a5be 9059 4ebe af47 7b3e
00000010: 03fa 303f fb0b 93bc 0000 0000 0000 0000
00000020: 0000 0000 0000 0000 0000 0000 0000 0000

naim.embeddings.58.embeddings.weight f4 [2, 6]
-0.13395786 0.034737915 0.035708237 -0.05414976 0.092948966 -0.24380532 0.0 0.0
0.0 0.0 0.0 0.0
00000000: 402c 09be 5849 0e3d cd42 123d 24cc 5dbd
00000010: 075c be3d 1aa8 79be 0000 0000 0000 0000
00000020: 0000 0000 0000 0000 0000 0000 0000 0000

naim.embeddings.59.embeddings.weight f4 [2, 6]
0.31839764 -0.18538578 -0.246754 0.6724528 0.2672019 0.42046332 0.0 0.0
0.0 0.0 0.0 0.0
00000000: 0405 a33e c5d5 3dbe 15ad 7cbe de25 2c3f
00000010: b0ce 883e f846 d73e 0000 0000 0000 0000
00000020: 0000 0000 0000 0000 0000 0000 0000 0000

naim.embeddings.60.embeddings.weight f4 [2, 6]
-0.5231898 -0.053360622 0.05211342 0.5063206 0.25765616 0.37578315 0.0 0.0
0.0 0.0 0.0 0.0
00000000: c4ef 05bf ab90 5abd e274 553d 3a9e 013f
00000010: 82eb 833e a666 c03e 0000 0000 0000 0000
00000020: 0000 0000 0000 0000 0000 0000 0000 0000

naim.embeddings.61.embeddings.weight f4 [2, 6]
-0.2144054 0.042241596 0.13129859 -0.08654699 0.23880038 -0.11528243 0.0 0.0
0.0 0.0 0.0 0.0
00000000: 178d 5bbe 8605 2d3d 2373 063e 8c3f b1bd
00000010: 1688 743e 3219 ecbd 0000 0000 0000 0000
00000020: 0000 0000 0000 0000 0000 0000 0000 0000

naim.embeddings.62.embeddings.weight f4 [2, 6]
0.26716942 0.1479969 -0.6647217 -0.063013986 -0.3652932 -0.43857208 0.0 0.0
0.0 0.0 0.0 0.0
00000000: 6eca 883e 808c 173e 342b 2abf 7a0d 81bd
00000010: b607 bbbe 858c e0be 0000 0000 0000 0000
00000020: 0000 0000 0000 0000 0000 0000 0000 0000

naim.embeddings.63.embeddings.weight f4 [2, 6]
0.72777164 0.31066826 -0.29316604 0.17153418 -0.19935845 -0.15668617 0.0 0.0
0.0 0.0 0.0 0.0
00000000: 3e4f 3a3f e90f 9f3e dc19 96be a8a6 2f3e
00000010: 9f24 4cbe 5772 20be 0000 0000 0000 0000
00000020: 0000 0000 0000 0000 0000 0000 0000 0000

naim.encoder.0.layer_norm_1.weight f4 [6]
0.9656523 0.94512326 0.95381516 0.9652757 0.9526436 0.9620327
00000000: fd34 773f 99f3 713f 3b2d 743f 4f1c 773f
00000010: 73e0 733f c647 763f

naim.encoder.0.layer_norm_1.bias f4 [6]
0.01025631 -0.004774268 -0.0040585673 0.009865664 0.015396283 -0.013389918
00000000: 150a 283c 7671 9cbb bbfd 84bb 98a3 213c
00000010: b140 7c3c 6361 5bbc

naim.encoder.0.attn.linear_q.weight f4 [6, 6]
-0.05943511 0.009709033 -0.065045394 -0.34809044 -0.006495044 0.15207167 -0.03374931 -0.15340905
-0.0072538797 0.06231913 -0.08176199 -0.27128506 -0.16740339 -0.026553523 0.09686151 0.31271255
-0.011160966 0.102011025 0.19355345 -0.13188432 -0.09396493 0.22372861 0.24038729 0.056287985
-0.26390064 0.18021601 -0.28826788 0.16154489 0.018037623 0.08866606 -0.34521565 -0.09481161
0.123029396 0.26391214 -0.07178323 0.31168777
00000000: 3b72 73bd a312 1f3c 8536 85bd e938 b2be
00000010: 61d4 d4bb adb8 1b3e b73c 0abd 4317 1dbe
00000020: f4b1 edbb 5842 7f3d d572 a7bd e0e5 8abe
00000030: cb6b 2bbe c686 d9bc 545f c63d dc1b a03e
00000040: 7cdc 36bc 28eb d03d e032 463e af0c 07be
00000050: af70 c0bd 1d19 653e 1628 763e 3b8e 663d
00000060: fc1d 87be 8c8a 383e d997 93be 066c 253e
00000070: a3c3 933c 8d96 b53d 1bc0 b0be 972c c2bd
00000080: d6f6 fb3d 7e1f 873e 1603 93bd 8a95 9f3e

naim.encoder.0.attn.linear_k.weight f4 [6, 6]
-0.05371535 -0.19580096 -0.12900972 0.0039875503 -0.028828667 0.15064958 -0.1756038 -0.07176438
-0.35316065 0.28325188 -0.033530507 -0.27186257 -0.00998426 0.0053236005 0.069542535 -0.025747297
0.20630413 -0.09420178 -0.07234252 -0.061434943 0.033940207 0.28195986 -0.010955968 0.2622093
0.2695999 -0.16378526 -0.009325304 -0.14641371 0.122601345 -0.097051 0.077228 0.011205025
-0.21896586 -0.2311572 -0.3480163 -0.17965202
00000000: a004 5cbd 0c80 48be 201b 04be ffa9 823b
00000010: 192a ecbc e243 1a3e 7cd1 33be 34f9 92bd
00000020: 79d1 b4be 6406 913e 4957 09bd 9231 8bbe
00000030: 0695 23bc 9971 ae3b 516c 8e3d ffeb d2bc
00000040: 6441 533e ddec c0bd 5128 94bd 35a3 7bbd
00000050: e304 0b3d 0b5d 903e a980 33bc 4c40 863e
00000060: 0009 8a3e 53b7 27be 29c9 18bc 7aed 15be
00000070: 6a16 fb3d adc2 c6bd b729 9e3d 4895 373c
00000080: 9638 60be 79b4 6cbe 312f b2be b3f6 37be

naim.encoder.0.attn.linear_v.weight f4 [6, 6]
0.10647063 0.015270569 0.29326084 -0.34813064 -0.025237199 -0.34116286 -0.013351014 0.13460955
-0.35821182 0.35381195 -0.10914212 0.35631752 -0.06480054 0.20141712 0.3476138 -0.13230434
-0.07875182 0.19599822 -0.34594983 0.23481095 -0.253185 0.37656865 -0.25995108 -0.16012746
0.30713305 -0.18290192 0.32114366 0.26751646 0.37117285 -0.39576152 -0.0067538996 -0.124864
0.08462438 -0.2955129 0.15529779 -0.021926217
00000000: 460d da3d 6931 7a3c 4926 963e 2e3e b2be
00000010: 3ebe cebc e6ac aebe 36be 5abc 16d7 093e
00000020: 8a67 b7be d726 b53e e785 dfbd 406f b63e
00000030: 25b6 84bd 4a40 4e3e 70fa b13e ca7a 07be
00000040: a248 a1bd c2b3 483e 5620 b1be 4872 703e
00000050: 77a1 81be 9bcd c03e 4f18 85be 74f8 23be
00000060: 8b40 9d3e a44a 3bbe f16c a43e ebf7 883e
00000070: 5e0a be3e 41a1 cabe d14f ddbb b2b8 ffbd
00000080: 8c4f ad3d 784d 97be 6206 1f3e 9c9e b3bc

naim.encoder.0.attn.linear_o.weight f4 [6, 6]
-0.14380103 -0.3160065 0.16318567 -0.09961582 0.24988262 0.029551713 0.07633504 -0.020356426
-0.016223136 -0.0902413 -0.30201754 0.2058945 -0.24441719 0.24607234 -0.124410264 0.26585522
0.359915 -0.23694807 0.33263946 0.00966627 -0.3053872 0.16472943 0.23025434 0.3528302
-0.391453 0.35247618 0.29098925 0.38237327 0.20758161 -0.20341414 0.3026393 0.36754054
-0.15706007 -0.0685537 0.31211826 0.32059994
00000000: 9440 13be 9bcb a1be 251a 273e 6103 ccbd
00000010: 3be1 7f3e 6f16 f23c 8c55 9c3d 85c2 a6bc
00000020: 62e6 84bc 6ed0 b8bd 0ba2 9abe 02d6 523e
00000030: 8048 7abe 63fa 7b3e cfca febd 2d1e 883e
00000040: c746 b83e 84a2 72be b84f aa3e 465f 1e3c
00000050: b65b 9cbe d5ae 283e cbc7 6b3e 29a6 b43e
00000060: 876c c8be c277 b43e 8bfc 943e 6ec6 c33e
00000070: 4690 543e cc4b 50be 8af3 9a3e 462e bc3e
00000080: 5bd4 20be e265 8cbd f7cd 9f3e ad25 a43e

naim.encoder.0.layer_norm_2.weight f4 [6]
0.9770789 0.9834893 0.9959723 0.98460233 0.9796316 0.98026156
00000000: d821 7a3f f4c5 7b3f 0af8 7e3f e60e 7c3f
00000010: 23c9 7a3f 6cf2 7a3f

naim.encoder.0.layer_norm_2.bias f4 [6]
0.0063759596 0.0036131472 0.0018911713 -0.0036655122 -0.0037007031 -0.0004973093
00000000: 6ded d03b 8dca 6c3b 2ee1 f73a 1739 70bb
00000010: 7f87 72bb dd5d 02ba

naim.encoder.0.ff.0.weight f4 [1000, 6]
0.22279322 0.26687047 -0.16506751 -0.054379836 -0.124237485 0.18064688 0.07163484 -0.26997814
-0.027569054 -0.28719214 -0.33524677 0.32895353 -0.1658584 0.14695796 -0.06092 -0.056149166
0.0023400427 0.28046253 -0.02275824 0.28689367 0.18974984 0.22998358 -0.31870374 -0.1401415
-0.29389143 -0.06839541 -0.055798516 0.06559185 0.31297284 0.16418014 -0.24799357 -0.21572949
0.25700846 0.018556742 0.08577448 -0.18364023 -0.034658164 0.08705994 -0.2198707 0.22293033
0.16318378 -0.19631748 -0.12100809 -0.06853933 0.034895826 -0.09381284 0.33649263 -0.34245571
-0.19090955 -0.20641717 0.06892435 0.04442604 -0.0758345 0.30878267 -0.30096292 0.10256095
-0.1758326 -0.06897896 -0.3431629 -0.25383112 -0.2987742 0.1372397 -0.10866696 0.17098911
-0.17744312 -0.0669677 0.032299016 0.29672024 -0.07452825 0.1934594 0.074964784 0.2110548
0.22243229 0.12619917 -0.089206874 -0.09140143 0.13236941 0.19088954 -0.0032032297 0.1549272
-0.19706623 0.18070278 -0.017508462 -0.22969991 -0.14986823 -0.26014537 0.046228662 -0.19524954
-0.07427676 -0.010694315 -0.20155393 0.016278574 -0.03093064 0.08926633 0.24243894 -0.20258771
0.17251742 -0.0015031927 -0.18289354 -0.13743636 0.061564635 0.041974653 -0.011393661 -0.16211852
0.1551727 0.052072857 -0.34351802 -0.041880455 -0.074545905 -0.13206264 -0.17551439 -0.2816276
0.35248148 -0.32185757 0.3363299 -0.27300104 -0.059139386 -0.12768896 -0.18422045 0.11900245
0.1939639 -0.22410597 -0.14322859 0.16784357 -0.031784613 0.08873519 0.16533165 -0.10479
-0.17613049 0.10861527 -0.107591726 -0.22105832 -0.16017628 -0.14992978 0.3552799 0.051786683
0.12674531 0.031811267 -0.22561732 0.24370666 -0.032691646 -0.06762034 0.28250983 -0.15972652
0.06325901 -0.29936007 0.1694706 0.12755935 -0.28667298 0.18824056 0.030930264 -0.17012268
0.29841596 0.12874351 0.11023712 -0.12243913 -0.19298548 -0.18331783 0.110929206 0.08763996
-0.19460057 0.3349116 0.18822068 -0.11382153 0.16050467 -0.12435983 0.08378344 0.29068026
-0.3153906 -0.15672289 -0.012042729 0.044219613 -0.28401834 -0.22828603 -0.019926349 -0.03250351
0.05702494 0.025389086 0.054528452 0.012175467 0.02440895 -0.0022726967 0.09598372 0.23038624
-0.15915722 -0.16686529 0.14093845 -0.24902332 0.21343134 0.14978933 0.048949573 -0.13937095
0.014505693 -0.27300692 -0.31689885 0.33258837 -0.31690264 -0.2880559 -0.11091401 0.0051839626
0.064582996 -0.15504096 -0.029404167 -0.05273358 0.29492092 0.30039543 0.12575713 -0.008005796
0.25428686 -0.2792986 0.121304035 -0.18652487 0.26650426 -0.31087744 0.10631682 -0.28313124
0.18964627 0.044029877 0.29866403 -0.260729 0.21393864 -0.22284754 -0.17344658 0.10866379
-0.03471747 -0.27280396 -0.2977354 -0.064943515 0.06526687 0.30734387 0.25056225 0.0038517672
-0.20027205 -0.31303445 0.3141247 -0.18365009 -0.04195215 -0.28266054 -0.23379318 0.05116445
-0.056286417 0.009985057 -0.0007437077 0.0010581628 -0.039546635 -0.0011006477 0.1294052 0.24728969
0.293499 -0.28336006 -0.29265034 -0.028241836 -0.0150980875 0.17938256 0.3327202 0.07402721
00000000: e823 643e 3fa3 883e 7507 29be 64bd 5ebd
00000010: 3970 febd 7ffb 383e 49b5 923d 933a 8abe
00000020: 7fd8 e1bc d90a 93be 77a5 abbe 996c a83e
00000030: c9d6 29be 267c 163e 4087 79bd abfc 65bd
00000040: 675b 193b c998 8f3e 7d6f babc bae3 923e
00000050: c84d 423e d180 6b3e 232d a3be 4181 0fbe
00000060: f078 96be e512 8cbd fc8c 64bd 0555 863d
00000070: fa3d a03e d71e 283e 07f2 7dbe 31e8 5cbe
00000080: 9d96 833e 4f04 983c 88aa af3d 2f0c 3cbe
00000090: b8f5 0dbd 7b4c b23d c925 61be d947 643e
000000a0: a619 273e 7307 49be 17d3 f7bd 595e 8cbd
000000b0: edee 0e3d f220 c0bd c348 ac3e 5b56 afbe
000000c0: cb7d 43be 065f 53be 3628 8d3d 14f8 353d
000000d0: 1e4f 9bbd c318 9e3e d017 9abe 7a0b d23d
000000e0: 760d 34be d744 8dbd 0cb3 afbe 27f6 81be
000000f0: eff8 98be 9088 0c3e c88c debd c517 2f3e
00000100: a6b3 35be 5d26 89bd f94b 043d b7eb 973e
00000110: 44a2 98bd 391a 463e 2387 993d c01e 583e
00000120: 4ac5 633e 5b3a 013e 18b2 b6bd ac30 bbbd
00000130: d98b 073e 8c78 433e 47ed 51bb 3ca5 1e3e
00000140: bbcb 49be 260a 393e e86d 8fbc 7436 6bbe
00000150: 0f77 19be c631 85be 445a 3d3d 7fef 47be
00000160: 6a1e 98bd 3537 2fbc 2764 4ebe a55a 853c
00000170: 4162 fdbc 44d1 b63d ea41 783e 2773 4fbe
00000180: 68a8 303e c706 c5ba 7248 3bbe 1ebc 0cbe
00000190: 332b 7c3d 9ded 2b3d 7aac 3abc 6602 26be
000001a0: 98e5 1e3e 594a 553d 98e1 afbe d78a 2bbd
000001b0: 86ab 98bd 6e3b 07be 0bba 33be 7e31 90be
000001c0: 7478 b43e 84ca a4be 6f33 ac3e cbc6 8bbe
000001d0: 243c 72bd e5c0 02be 49a4 3cbe 8eb7 f33d
000001e0: 799e 463e 097c 65be 84aa 12be 2fdf 2b3e
000001f0: 9530 02bd ccba b53d b34c 293e 249c d6bd
00000200: 8d5b 34be af71 de3d 0d59 dcbd 1d5d 62be
00000210: 4005 24be 3187 19be 3fe7 b53e 461e 543d
00000220: 86c9 013e 884c 023d 3a08 67be 3d8e 793e
00000230: ade7 05bd 887c 8abd 21a5 903e 598f 23be
00000240: f18d 813d b945 99be b389 2d3e eb9e 023e
00000250: cdc6 92be 22c2 403e 7761 fd3c a434 2ebe
00000260: fac9 983e 57d5 033e 00c4 e13d 5ec1 fabd
00000270: fc9d 45be abb7 3bbe da2e e33d 947c b33d
00000280: 5f45 47be 8979 ab3e ecbc 403e 431b e9bd
00000290: 565b 243e 5eb0 febd a796 ab3d 0bd4 943e
000002a0: e07a a1be f77b 20be de4e 45bc a01f 353d
000002b0: da6a 91be d0c3 69be 953c a3bc 6722 05bd
000002c0: fc92 693d c6fc cf3c 3a59 5f3d 9c7b 473c
000002d0: 47f5 c73c 86f1 14bb 1d93 c43d 5fea 6b3e
000002e0: 1cfa 22be bcde 2abe 2b52 103e f8ff 7ebe
000002f0: bf8d 5a3e 6062 193e 597f 483d 42b7 0ebe
00000300: 49a9 6d3c 90c7 8bbe 9140 a2be 0649 aa3e
00000310: 1041 a2be 107c 93be e226 e3bd 3bde a93b
00000320: 1744 843d 0fc3 1ebe 02e1 f0bc 2bff 57bd
00000330: e0ff 963e 6ecd 993e 7ac6 003e be2a 03bc
00000340: e331 823e 3a00 8fbe 406e f83d 6000 3fbe
00000350: 3f73 883e 542b 9fbe a2bc d93d 94f6 90be
00000360: a232 423e ac58 343d 7eea 983e 467e 85be
00000370: bb12 5b3e 2532 64be fb9b 31be 1f8b de3d
00000380: e833 0ebd f6ac 8bbe c670 98be 1b01 85bd
00000390: a3aa 853d 2d5c 9d3e b249 803e ee6d 7c3b
000003a0: 1e14 4dbe 0d46 a0be f4d4 a03e c50e 3cbe
000003b0: 05d6 2bbd e2b8 90be 7b67 6fbe d091 513d
000003c0: 968c 66bd 5d98 233c 61f5 42ba 0db2 8a3a
000003d0: a7fb 21bd 9c43 90ba cc82 043e 8239 7d3e
000003e0: 8045 963e 9214 91be 44d6 95be 6c5b e7bc
000003f0: f85d 77bc 10b0 373e 4d5a aa3e 949b 973d

naim.encoder.0.ff.0.bias f4 [1000]
0.21402827 -0.17151846 -0.03337168 0.020378042 0.246695 0.15282272 0.34941873 -0.17290206
-0.020584412 -0.019972172 0.28562343 0.33970726 0.085559346 -0.2783058 -0.2482241 0.053327903
-0.3098166 -0.107899606 -0.2552068 0.174706 -0.017777 -0.26956132 0.22390367 -0.3113865
-0.034487985 0.34825802 0.17516918 -0.30487764 0.025199434 -0.04198523 0.14233458 0.33237398
0.30046055 -0.020084675 0.15150605 -0.35029382 0.28119192 0.17641635 -0.23641647 -0.089132085
-0.108943276 -0.1917971 0.13561141 -0.07375182 0.13719454 -0.078959964 0.27273446 -0.11533667
-0.050894942 -0.08534545 0.012080061 -0.10352123 -0.23932979 -0.33725578 0.20995195 0.03874131
-0.21159595 0.1825904 0.031505253 -0.10921225 -0.02354597 0.020323772 0.24394634 -0.32274398
-0.26445794 -0.2774984 -0.26915607 -0.0009529349 0.18406606 0.08004818 0.13413143 0.03661238
-0.005126931 -0.31917325 0.3154007 0.34699517 0.005029118 0.058009505 0.047951594 0.35576087
-0.0014953963 -0.029924858 -0.18107727 0.07977644 0.15072878 -0.29409713 0.10445145 0.07921476
0.14997704 0.14645766 -0.0809356 0.056014363 -0.2435872 0.21480368 -0.29545638 -0.31138393
-0.25283054 -0.17991658 0.013591181 0.22480375 -0.018800586 0.25175244 -0.035163075 0.29771602
0.2403764 0.22044383 0.11891813 -0.23346213 0.35317227 -0.3441138 -0.23375937 -0.19522631
-0.06406162 0.13588636 0.06411628 -0.30242696 0.35295612 0.3426256 0.15091656 -0.34715858
0.19361748 0.083355404 -0.018617382 -0.2909191 0.30209625 -0.07407882 -0.282727 0.2667698
0.12666397 0.0825863 0.21997246 0.108407274 -0.06626223 -0.034555595 0.29244712 -0.0005926073
-0.29078805 -0.22998433 -0.25936297 0.033025615 0.25390193 0.20409593 0.08033928 0.123076625
-0.14882793 0.34230056 0.12048076 -0.20464295 -0.22094603 -0.31464705 -0.06796818 0.2525006
0.015307301 -0.14263496 0.0952672 -0.23368388 0.09531007 0.23284918 0.16646193 -0.092496924
-0.109204836 0.14361458 0.20057659 -0.057737656 0.0069387187 -0.02614047 -0.02200046 -0.31237894
-0.28318638 0.3010045 -0.14683984 0.2565816 0.22028437 -0.041311402 -0.16088496 0.0041358187
-0.046264622 -0.19320184 0.3479843 -0.018328814 -0.03509333 -0.2291499 0.043660883 0.04279061
0.3582727 -0.08193086 0.1859606 0.017626325 0.18644905 0.0077638277 -0.030089267 0.13440831
-0.13534488 0.21152024 -0.29055607 -0.24406342 0.34113446 -0.101583384 -0.27378967 -0.24932437
0.3477435 -0.036548376 -0.2914223 -0.041971236 -0.14958751 -0.21977784 -0.167551 0.26212183
0.12016531 0.19841996 0.025801098 -0.120306134 -0.12922035 -0.22074366 -0.24446905 -0.30283457
0.05362716 0.18187314 0.3006574 -0.0010801612 -0.029286463 -0.008641522 0.12594552 -0.037719913
-0.1107511 -0.07318028 -0.34728786 -0.26208326 -0.12696357 0.016694076 -0.20669074 0.1215965
-0.17235775 0.34462357 -0.3090016 0.19308399 -0.16566923 -0.09923885 -0.33012667 -0.3271886
-0.33695602 -0.01075081 0.3265611 0.14518476 0.21165666 0.066165075 -0.10809599 -0.11372122
-0.077011205 -0.3309149 0.18337657 -0.086648874 -0.19606084 0.09334879 -0.0031094244 0.18314356
00000000: 3a2a 5b3e 89a2 2fbe beb0 08bd daef a63c
00000010: 9d9d 7c3e 8f7d 1c3e 03e7 b23e 3d0d 31be
00000020: a4a0 a8bc ae9c a3bc 3c3d 923e 1cee ad3e
00000030: bd39 af3d 197e 8ebe 752e 7ebe 5c6e 5a3d
00000040: 48a0 9ebe 78fa dcbd 77aa 82be 21e6 323e
00000050: 12a1 91bc f103 8abe 0147 653e 0d6e 9fbe
00000060: 4643 0dbd e04e b23e 8d5f 333e ec18 9cbe
00000070: 0b6f ce3c b4f8 2bbd 28c0 113e ec2c aa3e
00000080: f7d5 993e 9e88 a4bc 6724 1b3e b659 b3be
00000090: 63f8 8f3e 7da6 343e 2917 72be e28a b6bd
000000a0: a71d dfbd 7566 44be b8dd 0a3e 320b 97bd
000000b0: ba7c 0c3e c3b5 a1bd daa3 8b3e a235 ecbd
000000c0: 3777 50bd 98c9 aebd 73eb 453c f002 d4bd
000000d0: de12 75be caac acbe a5fd 563e 35af 1e3d
000000e0: 9cac 58be faf8 3a3e a70b 013d acaa dfbd
000000f0: 7ae3 c0bc 0a7e a63c 12cd 793e b33e a5be
00000100: 0867 87be 4514 8ebe d3ce 89be 61ce 79ba
00000110: d07b 3c3e 4df0 a33d c059 093e ddf6 153d
00000120: d0ff a7bb ad6a a3be 337c a13e 5aa9 b13e
00000130: 4dcb a43b 609b 6d3d e468 443d 4a26 b63e
00000140: 2c01 c4ba fa24 f5bc 526c 39be d561 a33d
00000150: a558 1a3e e693 96be a4ea d53d 593b a23d
00000160: 9593 193e fff8 153e 90c1 a5bd 516f 653d
00000170: ec6e 79be 7ff5 5b3e 0f46 97be b76d 9fbe
00000180: 0173 81be 0d3c 38be 8bad 5e3c f432 663e
00000190: b003 9abc b2e5 803e 2807 10bd 3c6e 983e
000001a0: 3b25 763e 07bc 613e 598b f33d b210 6fbe
000001b0: ffd2 b43e af2f b0be 9e5e 6fbe 68e9 47be
000001c0: bd32 83bd cb25 0b3e 654f 833d b5d7 9abe
000001d0: aab6 b43e 9f6c af3e df89 1a3e c5be b1be
000001e0: a943 463e 3db6 aa3d 7b83 98bc 59f3 94be
000001f0: 5cac 9a3e a3b6 97bd 98c1 90be 0d96 883e
00000200: 33b4 013e 0223 a93d 7640 613e a204 de3d
00000210: 7eb4 87bd 2b8a 0dbd a1bb 953e 3459 1bba
00000220: 2ce2 94be 0381 6bbe 39cb 84be de45 073d
00000230: 6fff 813e 86fe 503e ec88 a43d 990f fc3d
00000240: 5966 18be 0542 af3e 9ebe f63d ec8d 51be
00000250: ad3f 62be 6b19 a1be e732 8bbd c247 813e
00000260: 79cb 7a3c e60e 12be 731b c33d d44a 6fbe
00000270: ed31 c33d 0470 6e3e ff74 2a3e 076f bdbd
00000280: c9a6 dfbd b30f 133e f363 4d3e 527e 6cbd
00000290: 315e e33b 8a24 d6bc 4f3a b4bc 22f0 9fbe
000002a0: cefd 90be 431d 9a3e 2f5d 16be aa5e 833e
000002b0: 3a92 613e 2536 29bd 07bf 24be c385 873b
000002c0: f97f 3dbd b4d6 45be 002b b23e 4f26 96bc
000002d0: 06be 0fbd 45a6 6abe c1d5 323d 3545 2f3d
000002e0: 856f b73e 5ecb a7bd 756c 3e3e 1565 903c
000002f0: 80ec 3e3e b567 fe3b c47d f6bc 55a2 093e
00000300: d997 0abe c398 583e c4c3 94be c3eb 79be
00000310: 2da9 ae3e f30a d0bd 292e 8cbe e34e 7fbe
00000320: 700b b23e c0b3 15bd 4e35 95be 08ea 2bbd
00000330: 782d 19be 710d 61be 7d92 2bbe d534 863e
00000340: 3b19 f63d 9a2e 4b3e d35c d33c 1063 f6bd
00000350: 5752 04be a00a 62be 1856 7abe 220d 9bbe
00000360: 27a8 5b3d f43c 3a3e c4ef 993e 3294 8dba
00000370: 2aea efbc 2c95 0dbc ddf7 003e 3280 1abd
00000380: 79d1 e2bd 8bdf 95bd b7cf b1be c72f 86be
00000390: bd02 02be 04c2 883c bda6 53be 9607 f93d
000003a0: 8d7e 30be 8072 b03e 7535 9ebe cfb7 453e
000003b0: 32a5 29be bd3d cbbd 5d06 a9be 4485 a7be
000003c0: 8085 acbe 2a24 30bc 0433 a73e 50ab 143e
000003d0: 86bc 583e 8e81 873d 6e61 ddbd ace6 e8bd
000003e0: 0db8 9dbd ae6d a9be 11c7 3b3e f774 b1bd
000003f0: 2cc4 48be a72d bf3d 7cc7 4bbb fc89 3b3e

naim.encoder.0.ff.3.weight f4 [6, 1000]
-0.013871492 -0.0076165996 -0.0023514272 -0.0111472495 -0.0047079036 0.0046921987 -0.0025680992 -0.016074603
0.025381008 0.013873654 -0.002889897 -0.0033787242 -0.022569228 -0.020260176 0.0013371877 -0.0045328205
0.0058143083 -0.009992972 -0.004610919 0.0089250915 0.037561137 0.022026975 -0.018507952 0.0025205887
0.0024465153 0.00094104116 0.018859185 -0.005847929 -0.0017390322 -0.022672426 -0.009087214 -0.027246684
0.015189787 -0.022279846 -0.02403093 -0.025250847 0.015167622 -0.010666778 0.017390301 -0.012763323
0.0022557564 -0.010589066 -0.027871156 0.02037541 -0.020750651 -0.023451312 0.0099168895 0.0033184232
0.004952083 0.035357125 -0.017308103 -0.0074458034 0.018484436 -0.0055237156 -0.0012878362 -0.0043573766
0.0011574837 0.031512078 0.0012194202 0.013539063 0.031258628 0.015279059 0.014190532 0.028430343
-0.010752576 -0.0037831916 -0.007881264 -0.024480859 0.026418597 -0.029757598 -0.024982397 -0.005078455
-0.03377991 -0.023468306 -0.012426734 0.0042765304 -0.026518678 -0.0182813 -0.0135824885 -0.019331459
0.012821136 -0.0013301291 0.013758397 0.031565946 -0.008105918 -0.008512831 0.014954796 0.018740853
0.015556127 0.0021390093 0.026020693 -0.04042602 -0.013321258 -0.01855117 -0.028039651 -0.0104082925
-0.020850178 0.0019302635 0.014473783 -0.002321031 -0.010556703 0.0059577697 0.007836088 -0.019644639
0.023825359 0.018756758 -0.016126126 0.026027516 0.00040512942 -0.008116586 0.023226812 -0.0036958246
0.021817183 -0.0102887405 -0.030285895 0.0281937 -0.003759553 0.019151602 -0.015775394 0.019100394
-0.020608898 0.007420435 0.016884925 -0.0032461153 0.03243698 0.024602419 0.01842577 0.02301475
-0.015593708 -0.013207957 0.021345848 -0.013434597 -0.010039021 0.016498093 -0.023997882 -0.009221247
0.005611728 0.010944081 -0.02059445 -0.004247497 0.027076365 -0.023619816 0.02217227 -0.0017056088
-0.01406484 -0.025070738 -0.0033979795 0.02114772 -0.01850479 -0.016203202 0.00013436726 0.021124732
-0.0027783401 0.028926168 0.034260303 0.026866078 -0.018468993 -0.036528204 -0.03656038 0.0046129245
-0.013529913 0.017447645 0.007389545 0.019130405 -0.020333376 -0.029335516 -0.016229376 0.005061872
0.019382691 0.001300092 0.025598375 -0.0087467935 -0.0023604028 -0.004958071 -0.0056084157 -0.006311988
-0.024973068 -0.0071502603 -0.005906109 -0.02624058 -0.014872733 -0.020808406 0.00048765138 -0.017940722
0.032209527 0.00142858 -0.003562487 -0.016872317 0.0077132294 -0.025603015 0.005317829 0.012104711
-0.021892944 0.0021056978 0.004215298 -0.008111664 -0.0080227265 0.040248718 -0.011235934 0.022207145
0.0056420704 0.0058903443 -0.0111101195 0.015510702 0.012716213 0.021597223 -0.025266068 -0.015904928
0.003205295 -0.029026227 0.0155917 0.0188795 0.018156065 -0.0073702126 0.0061032125 -0.022451222
0.0094270725 -0.03006997 -0.022535525 0.011331846 0.003687775 0.0072185486 0.03198679 0.02059179
0.021659728 -0.03010021 -0.006530504 0.003034042 -0.028642481 0.020872593 0.014737358 -0.021600785
-0.00017760757 -0.028081685 0.017502762 0.008062345 -0.004822298 0.017745942 -0.004473509 0.009207598
0.022849131 -0.009379135 -0.022951106 0.018916365 -0.022533478 0.004943411 -0.011838524 0.022429777
0.005490701 -0.018687287 -0.017371684 0.026974449 -0.011509016 0.007038271 0.01711092 -0.018290792
00000000: 4145 63bc ab94 f9bb 671a 1abb f4a2 36bc
00000010: c244 9abb 04c1 993b 8e4d 28bb e3ae 83bc
00000020: d5eb cf3c 534e 633c 6d64 3dbb 966d 5dbb
00000030: 1ae3 b8bc abf8 a5bc 9344 af3a 0e88 94bb
00000040: f485 be3b 90b9 23bc 3117 97bb 8c3a 123c
00000050: b5d9 193d ea71 b43c fd9d 97bc 7630 253b
00000060: b755 203b 34b0 763a 947e 9a3c fc9f bfbb
00000070: 3df0 e3ba 86bb b9bc 8ae2 14bc 7034 dfbc
00000080: 96de 783c 3984 b6bc 83dc c4bc ddda cebc
00000090: 9e81 783c b6c3 2ebc 1b76 8e3c 421d 51bc
000000a0: 50d5 133b c37d 2dbc 0d52 e4bc 55ea a63c
000000b0: 45fd a9bc f71c c0bc 737a 223c e779 593b
000000c0: 1545 a23b a2d2 103d b9c9 8dbc edfb f3bb
000000d0: ac6c 973c 4900 b5bb 9dcc a8ba 53c8 8ebb
000000e0: b5b6 973a cf12 013d f4d4 9f3a f2d2 5d3c
000000f0: 0c09 003d 0555 7a3c 687f 683c c0e6 e83c
00000100: 932b 30bc 6cef 77bb 6b20 01bc 158c c8bc
00000110: d06b d83c 35c6 f3bc e2a7 ccbc 2b69 a6bb
00000120: ce5c 0abd 9b40 c0bc 8099 4bbc 2322 8c3b
00000130: b33d d9bc aac2 95bc 1689 5ebc 025d 9ebc
00000140: be0f 523c ba57 aeba e66a 613c 4b4b 013d
00000150: afce 04bc 6779 0bbc f604 753c 6b86 993c
00000160: 20df 7e3c 9f2e 0c3b 5929 d53c c195 25bd
00000170: 6841 5abc a0f8 97bc 69b3 e5bc 8b87 2abc
00000180: fecd aabc e500 fd3a 7223 6d3c 701c 18bb
00000190: 06f6 2cbc 6539 c33b ef62 003c cbed a0bc
000001a0: 662d c33c c6a7 993c f01a 84bc a837 d53c
000001b0: 8d67 d439 6efb 04bc 2846 be3c a635 72bb
000001c0: f3b9 b23c 1b92 28bc 201a f8bc 79f6 e63c
000001d0: d562 76bb d2e3 9c3c 663b 81bc 6e78 9c3c
000001e0: fed3 a8bc 1f27 f33b 4152 8a3c c7bc 54bb
000001f0: a4dc 043d 038b c93c a4f1 963c 6e89 bc3c
00000200: c07c 7fbc 3066 58bc 7ddd ae3c c91c 5cbc
00000210: b57a 24bc 0227 873c 3597 c4bc b714 17bc
00000220: 96e2 b73b cd4e 333c b1b5 a8bc 962e 8bbb
00000230: 41cf dd3c 587e c1bc 9fa2 b53c bc8e dfba
00000240: 3770 66bc 2661 cdbc a3b0 5ebb fc3d ad3c
00000250: 5b97 97bc 94bc 84bc f0e4 0c39 c60d ad3c
00000260: d014 36bb 92f6 ec3c 8854 0c3d 4016 dc3c
00000270: 494c 97bc 999e 15bd 56c0 15bd 0428 973b
00000280: 91ac 5dbc 5dee 8e3c ff23 f23b 5eb7 9c3c
00000290: 2e92 a6bc 0951 f0bc 78f3 84bc 0fde a53b
000002a0: 73c8 9e3c d967 aa3a afb3 d13c b64e 0fbc
000002b0: fdb0 1abb 5077 a2bb cdc6 b7bb cbd4 cebb
000002c0: 5294 ccbc bb4c eabb 0988 c1bb 7cf6 d6bc
000002d0: c3ac 73bc 6476 aabc 76ab ff39 6cf8 92bc
000002e0: 23ee 033d 313f bb3a 9d78 69bb d037 8abc
000002f0: 42bf fc3b 6abd d1bc 2f41 ae3b d652 463c
00000300: d558 b3bc bfff 093b 7c20 8a3b c9e6 04bc
00000310: c171 03bc d7db 243d ec16 38bc c2eb b53c
00000320: 1ee1 b83b ca03 c13b 3807 36bc 9920 7e3c
00000330: aa57 503c a9ec b03c c9fa cebc 0d4b 82bc
00000340: ed0f 523b 69c8 edbc 5474 7f3c 2ea9 9a3c
00000350: 07bc 943c d381 f1bb 75fd c73b a0eb b7bc
00000360: 0274 1a3c 4c55 f6bc 6c9c b8bc 35a9 393c
00000370: 99ae 713b 9389 ec3b 9504 033d 1db0 a83c
00000380: be6f b13c b794 f6bc d7fd d5bb c7d6 463b
00000390: a3a3 eabc 00fd aa3c f674 713c 21f4 b0bc
000003a0: 2b3c 3ab9 900b e6bc f461 8f3c ed17 043c
000003b0: 5e04 9ebb f05f 913c 8396 92bb 77db 163c
000003c0: 1a2e bb3c f2aa 19bc f503 bcbc 7ef6 9a3c
000003d0: 2198 b8bc 56fc a13b 5ef6 41bc a7be b73c
000003e0: 57eb b33b 1516 99bc 104f 8ebc 85f9 dc3c
000003f0: 5090 3cbc 4ca1 e63b 332c 8c3c 92d6 95bc

naim.encoder.0.ff.3.bias f4 [6]
-0.028402368 -0.0012345813 -0.016685149 -0.0125916265 0.020096973 -0.024798004
00000000: 15ac e8bc add1 a1ba 4baf 88bc 1c4d 4ebc
00000010: 68a2 a43c 2f25 cbbc

naim.norm.weight f4 [6]
1.0006503 1.0151179 1.0298349 0.99130124 1.0019058 0.99558634
00000000: 4f15 803f 62ef 813f a1d1 833f ebc5 7d3f
00000010: 733e 803f bfde 7e3f

naim.norm.bias f4 [6]
-0.0034472258 -0.0033025465 0.0023026594 -0.0015533243 0.0023800577 -0.0026720783
00000000: daea 61bb 896f 58bb 37e8 163b ea98 cbba
00000010: befa 1b3b 091e 2fbb

naim.classifier.0.weight f4 [4, 384]
-0.039829988 -0.013696184 -0.01949545 0.00981036 0.029847464 0.0060595954 0.00028737407 0.026083488
0.0386261 -0.005054454 -0.038172763 -0.041208353 0.049515326 0.020785904 0.049037542 -0.02244424
0.015477033 -0.030022442 -0.024146436 -0.02503435 0.04515614 0.03429749 -0.020051552 -0.03625414
0.019486282 -0.008911619 0.0031487497 0.0037379998 -0.04720943 0.008240881 0.0022473023 -0.03207002
-0.052998 0.02323058 -0.043654464 -0.025577746 0.03341856 -0.030096704 -0.022739934 -0.030205349
0.02712819 0.0128591275 0.0078779785 0.017069377 0.012160913 -0.00811192 -0.0012807747 -0.03459335
-0.02640883 0.00377886 -0.00832277 0.015445187 0.02677665 0.03568697 0.045902513 -0.003499462
0.018540371 -0.038662717 0.03217245 -0.015649445 -0.037810873 -0.03789085 -0.043942805 -0.025456354
0.02625402 -0.044265445 -0.006153922 -0.011012172 0.01887272 -0.019491054 0.027855188 -0.03530339
0.034071743 -0.04976203 -0.033303212 0.015457597 0.007653978 0.035680782 0.028810969 -0.04049257
0.04099725 -0.015355322 -0.0044691553 -0.02452116 -0.00501414 -0.04971018 0.005551134 0.039346807
-0.011352117 0.040013593 -0.020602638 0.018288469 0.0025804886 -0.019156612 0.05253698 0.0018456384
0.0017693734 -0.0007125057 -0.003903754 0.042789932 -0.0048379083 0.027289562 0.015216792 0.02993298
-0.041231457 -0.043724056 -0.013812193 -0.012931267 0.050811257 0.052322946 -0.011246024 -0.02669663
-0.0017231285 0.0155808395 0.015035191 0.0130814705 0.035349406 0.007689322 0.04233816 0.008484132
-0.0050398163 0.03986652 0.003623869 0.0037849115 -0.005756833 0.027049337 -0.013162133 0.044615358
0.0273069 -0.004009878 -0.013961538 0.010493199 -0.048502013 -0.014200228 -0.017562784 -0.008560641
-0.026069725 -0.020316528 0.024301896 0.000768473 -0.032710932 -0.0065782387 0.015314531 -0.018208113
0.04531861 -0.035508707 0.045109782 0.016548857 -0.02663392 -0.050658863 0.017024819 -0.005905979
0.011855857 0.018215468 -0.02793511 0.0076343156 -0.01900113 -0.04617549 0.033979177 -0.00035026114
-0.0537814 0.055763472 0.013086408 -0.011928627 0.0013039128 -0.0397586 0.038785826 0.0396966
-0.04095923 0.016015638 0.03110123 -0.042701837 -0.0521998 -0.0009110942 0.030311238 -0.034827035
0.033936873 0.04822609 0.050354764 0.02052145 -0.016162284 -0.049463313 0.028621836 -0.0018553268
0.038304035 0.0699608 -0.051708 -0.009760104 -0.016281363 -0.010554526 0.005115858 -0.012244343
0.027299259 -0.022072338 0.02334805 0.052934475 -0.031591363 0.03471699 0.0031465637 -0.047296613
0.046434607 -0.026493171 -0.032415017 0.037366252 0.03245673 -0.030464295 -0.04368808 0.0471651
0.041744303 -0.03459394 -0.045716282 -0.017200172 -0.02542952 -0.016737107 -0.002680135 -0.03430572
0.023401143 0.0041117226 -0.01554804 0.025986044 -0.021457272 0.034086265 0.021585934 0.035457544
0.07252074 0.00079262146 -0.018261716 -0.026031163 -0.054624166 0.04624162 -0.020281859 -0.008101448
-0.013059742 0.05896224 0.024611352 -0.026926382 -0.011686004 -0.0018662967 0.08103665 -0.04030306
0.018254217 0.0021010523 -0.05361746 -0.05290607 -0.0013557019 0.019374378 0.03343056 -0.011809064
-0.025350263 0.03479971 0.044874668 0.021801177 0.047822207 -0.04840062 -0.041206405 0.0020701897
00000000: c524 23bd f665 60bc ecb4 9fbc a2bb 203c
00000010: ab82 f43c 928f c63b b2aa 9639 0aad d53c
00000020: 6736 1e3d d59f a5bb 0b5b 1cbd 17ca 28bd
00000030: 95d0 4a3d 3347 aa3c 97db 483d fcdc b7bc
00000040: 6293 7d3c a0f1 f5bc bfce c5bc d614 cdbc
00000050: a5f5 383d 867b 0c3d 2743 a4bc 397f 14bd
00000060: b2a1 9f3c 0a02 12bc 415b 4e3b 3bf9 743b
00000070: ad5e 41bd c304 073c 7a47 133b da5b 03bd
00000080: 6e14 59bd 0f4e be3c 06cf 32bd 6c88 d1bc
00000090: e6e1 083d 5d8d f6bc 1949 babc 3571 f7bc
000000a0: f03b de3c 17af 523c a312 013c 14d5 8b3c
000000b0: 913e 473c dce7 04bc abdf a7ba c2b1 0dbd
000000c0: 5557 d8bc c0a6 773b 3a5c 08bc cf0d 7d3c
000000d0: b55a db3c 802c 123d 4604 3c3d 3b57 65bb
000000e0: fae1 973c cc5c 1ebd 42c7 033d 4433 80bc
000000f0: 93df 1abd 7033 1bbd 5ffd 33bd d889 d0bc
00000100: ac12 d73c af4f 35bd d7a6 c9bb 666c 34bc
00000110: f69a 9a3c b4ab 9fbc 9030 e43c 4a9a 10bd
00000120: d08e 0b3d 45d3 4bbd f368 08bd dc41 7d3c
00000130: 39ce fa3b 0326 123d fb04 ec3c 89db 25bd
00000140: bbec 273d e394 7bbc fe71 92bb 9ae0 c8bc
00000150: a84d a4bb e79c 4bbd 49e6 b53b 1e2a 213d
00000160: 3bfe 39bc 4be5 233d ddc6 a8bc b3d1 953c
00000170: 6a1d 293b 54ee 9cbc 0431 573d 59e9 f13a
00000180: 52ea e73a 73c7 3aba 20d6 7fbb 7f44 2f3d
00000190: 5187 9ebb 5c8e df3c da4f 793c 0236 f53c
000001a0: 51e2 28bd ff17 33bd 894c 62bc aadd 53bc
000001b0: 771f 503d 9650 563d 3e41 38bc e4b2 dabc
000001c0: 99da e1ba c746 7f3c 2956 763c aa53 563c
000001d0: 8aca 103d b5f6 fb3b c76a 2d3d 0701 0b3c
000001e0: 0b25 a5bb 134b 233d 6f7e 6d3b 470c 783b
000001f0: d1a3 bcbb 9296 dd3c fda5 57bc 98be 363d
00000200: b8b2 df3c 4b65 83bb efbe 64bc abeb 2b3c
00000210: 0caa 46bd 13a8 68bc d4df 8fbc ee41 0cbc
00000220: 2d90 d5bc d96e a6bc c514 c73c 5a73 493a
00000230: e6fb 05bd 448e d7bb cce9 7a3c 2e29 95bc
00000240: 02a0 393d 9471 11bd 09c5 383d 7891 873c
00000250: 612f dabc ab7f 4fbd a277 8b3c f186 c1bb
00000260: 123f 423c 9b38 953c 2cd8 e4bc 4829 fa3b
00000270: 42a8 9bbc 8322 3dbd c02d 0b3d 41a3 b7b9
00000280: e349 5cbd 3d68 643d 6068 563c 4a70 43bc
00000290: 0ee8 aa3a ead9 22bd e3dd 1e3d e798 223d
000002a0: dec4 27bd 3a33 833c 02c8 fe3c 1fe8 2ebd
000002b0: 75cf 55bd 7fd6 6eba 464f f83c cba6 0ebd
000002c0: 6401 0b3d b888 453d cc40 4e3d 9a1c a83c
000002d0: c466 84bc 0b9a 4abd 5778 ea3c 702e f3ba
000002e0: b1e4 1c3d 9c47 8f3d c5cb 53bd d8e8 1fbc
000002f0: 7e60 85bc e4ec 2cbc eda2 a73b 7f9c 48bc
00000300: b2a2 df3c 0cd1 b4bc 6944 bf3c d2d1 583d
00000310: f265 01bd 6733 0e3d 9436 4e3b 18ba 41bd
00000320: 3732 3e3d 3508 d9bc 9cc5 04bd 5b0d 193d
00000330: 59f1 043d 4290 f9bc 46f2 32bd 3130 413d
00000340: 13fc 2a3d 60b2 0dbd ff40 3bbd 60e7 8cbc
00000350: 9251 d0bc 421c 89bc 34a5 2fbb 2884 0cbd
00000360: c1b3 bf3c a1bb 863b 35bd 7ebc afe0 d43c
00000370: 29c7 afbc 0a9e 0b3d fcd4 b03c ee3b 113d
00000380: c185 943d edc7 4f3a 9899 95bc 4e3f d5bc
00000390: 97bd 5fbd da67 3d3d 2426 a6bc f0bb 04bc
000003a0: 87f8 55bc 6482 713d bf9d c93c b794 dcbc
000003b0: a776 3fbc 879e f4ba 8bf6 a53d d214 25bd
000003c0: de89 953c cfb1 093b fb9d 5bbd 09b4 58bd
000003d0: cfb1 b1ba 04b7 9e3c 7cee 083d ce7a 41bc
000003e0: 5bab cfbc 248a 0e3d 80ce 373d 6298 b23c
000003f0: 38e1 433d bb3f 46bd 0cc8 28bd 05ac 073b

naim.classifier.0.bias f4 [4]
0.033842035 -0.021294046 0.02792065 0.039125867
00000000: f29d 0a3d da70 aebc d9b9 e43c 7242 203d
