outputs/2025-03-23/17-22-00/outputs/model_epoch_70.pt (torch, 92146 bytes, 80 tensors)

naim.embeddings.0.embeddings.weight f4 [2, 6]
0	0x3eabc5c0	0.3354931
1	0xbf08f7a2	-0.5350286
2	0xbea43b11	-0.32076314
3	0x3e9695eb	0.29411253
4	0x3ecb96c5	0.39763466
5	0x3e7fbcb2	0.24974325
6	0x00000000	0.0
7	0x00000000	0.0
8	0x00000000	0.0
9	0x00000000	0.0
10	0x00000000	0.0
11	0x00000000	0.0

naim.embeddings.1.embeddings.weight f4 [2, 6]
0	0x3d8fbf37	0.07018893
1	0xbdb823af	-0.08991181
2	0xbde82241	-0.113346584
3	0x3ea65075	0.3248326
4	0x3e1adcb3	0.15123253
5	0xbd95c219	-0.07312412
6	0x00000000	0.0
7	0x00000000	0.0
8	0x00000000	0.0
9	0x00000000	0.0
10	0x00000000	0.0
11	0x00000000	0.0

naim.embeddings.2.embeddings.weight f4 [2, 6]
0	0x3f1f518e	0.6223382
1	0x3d4538c4	0.04814984
2	0xbc98123b	-0.01856338
3	0x3f0b87b8	0.54503965
4	0xbe8121a8	-0.2522099
5	0x3eaea0e2	0.3410712
6	0x00000000	0.0
7	0x00000000	0.0
8	0x00000000	0.0
9	0x00000000	0.0
10	0x00000000	0.0
11	0x00000000	0.0

naim.embeddings.3.embeddings.weight f4 [2, 6]
0	0x3f1b9e59	0.60788494
1	0xbeea59c2	-0.45771605
2	0x3d1267e4	0.03574361
3	0x3ee878ae	0.4540457
4	0x3e0615f1	0.13094307
5	0x3a9683f5	0.0011483418
6	0x00000000	0.0
7	0x00000000	0.0
8	0x00000000	0.0
9	0x00000000	0.0
10	0x00000000	0.0
11	0x00000000	0.0

naim.embeddings.4.embeddings.weight f4 [2, 6]
0	0xbf027ba5	-0.50969917
1	0xbe842874	-0.25812113
2	0xbe54abc1	-0.20768644
3	0x3e02b402	0.1276398
4	0x3dbbacac	0.09163794
5	0x3c934d37	0.017981155
6	0x00000000	0.0
7	0x00000000	0.0
8	0x00000000	0.0
9	0x00000000	0.0
10	0x00000000	0.0
11	0x00000000	0.0

naim.embeddings.5.embeddings.weight f4 [2, 6]
0	0xbe94d0db	-0.29065594
1	0x3ccd629b	0.025071433
2	0x3f14c470	0.5811224
3	0x3ea911a2	0.33021265
4	0xbf0232f8	-0.5085902
5	0x3d47d0aa	0.048782982
6	0x00000000	0.0
7	0x00000000	0.0
8	0x00000000	0.0
9	0x00000000	0.0
10	0x00000000	0.0
11	0x00000000	0.0

naim.embeddings.6.embeddings.weight f4 [2, 6]
0	0xbeff4ed8	-0.4986484
1	0xbdd3c817	-0.103408985
2	0xbde9a409	-0.1140824
3	0xbe6bf247	-0.2304164
4	0x3e08b785	0.13351257
5	0x3f33e063	0.7026426
6	0x00000000	0.0
7	0x00000000	0.0
8	0x00000000	0.0
9	0x00000000	0.0
10	0x00000000	0.0
11	0x00000000	0.0

naim.embeddings.7.embeddings.weight f4 [2, 6]
0	0xbeb38645	-0.35063377
1	0xbbb36940	-0.0054751933
2	0x3daa8941	0.0832696
3	0xbf1fe33c	-0.6245611
4	0xbd362de6	-0.044477366
5	0x3f0154a2	0.50519764
6	0x00000000	0.0
7	0x00000000	0.0
8	0x00000000	0.0
9	0x00000000	0.0
10	0x00000000	0.0
11	0x00000000	0.0

naim.embeddings.8.embeddings.weight f4 [2, 6]
0	0x3f12a0b0	0.5727644
1	0xbe05eb0e	-0.13077947
2	0x3e62921d	0.2212605
3	0xbf0c9c4a	-0.5492598
4	0xbe3e6695	-0.1859382
5	0x3e581dbf	0.21105097
6	0x00000000	0.0
7	0x00000000	0.0
8	0x00000000	0.0
9	0x00000000	0.0
10	0x00000000	0.0
11	0x00000000	0.0

naim.embeddings.9.embeddings.weight f4 [2, 6]
0	0x3ed38743	0.41314134
1	0xbe853307	-0.26015493
2	0x3d4b3319	0.049609277
3	0xbebf97be	-0.37420458
4	0xbf0e3ee9	-0.55564743
5	0x3ba3aa14	0.00499464
6	0x00000000	0.0
7	0x00000000	0.0
8	0x00000000	0.0
9	0x00000000	0.0
10	0x00000000	0.0
11	0x00000000	0.0

naim.embeddings.10.embeddings.weight f4 [2, 6]
0	0x3db941ee	0.09045778
1	0x3dc14b43	0.09438183
2	0x3e82197c	0.25410068
3	0x3e7e7ab3	0.24851494
4	0x3c2071a6	0.009792721
5	0x3edbabca	0.42904502
6	0x00000000	0.0
7	0x00000000	0.0
8	0x00000000	0.0
9	0x00000000	0.0
10	0x00000000	0.0
11	0x00000000	0.0

naim.embeddings.11.embeddings.weight f4 [2, 6]
0	0x3e2bc316	0.16773638
1	0xbdec142e	-0.115272865
2	0xbeebb37c	-0.46035373
3	0xbef773e3	-0.48330602
4	0xbd04d23c	-0.032427058
5	0xbe863354	-0.26211035
6	0x00000000	0.0
7	0x00000000	0.0
8	0x00000000	0.0
9	0x00000000	0.0
10	0x00000000	0.0
11	0x00000000	0.0

naim.embeddings.12.embeddings.weight f4 [2, 6]
0	0x3e1761fd	0.14783473
1	0xbe4c83b6	-0.19972119
2	0x3d8d2afc	0.06892964
3	0x3eca689a	0.3953293
4	0x3ee1422f	0.43995807
5	0x3db9a5e9	0.09064848
6	0x00000000	0.0
7	0x00000000	0.0
8	0x00000000	0.0
9	0x00000000	0.0
10	0x00000000	0.0
11	0x00000000	0.0

naim.embeddings.13.embeddings.weight f4 [2, 6]
0	0xbe8184f4	-0.25296748
1	0xbdcd4997	-0.10023802
2	0xbe958a90	-0.29207277
3	0x3f1eb009	0.6198736
4	0xbe35a290	-0.17737794
5	0x3e93fdd8	0.28904605
6	0x00000000	0.0
7	0x00000000	0.0
8	0x00000000	0.0
9	0x00000000	0.0
10	0x00000000	0.0
11	0x00000000	0.0

naim.embeddings.14.embeddings.weight f4 [2, 6]
0	0x3e3424eb	0.17592208
1	0x3f1b89be	0.6075705
2	0xbe167599	-0.14693297
3	0x3daa82c2	0.08325721
4	0x3f12e6eb	0.573836
5	0x3c6d4615	0.014482041
6	0x00000000	0.0
7	0x00000000	0.0
8	0x00000000	0.0
9	0x00000000	0.0
10	0x00000000	0.0
11	0x00000000	0.0

naim.embeddings.15.embeddings.weight f4 [2, 6]
0	0xbf0e2b00	-0.5553436
1	0x3ea2c76f	0.3179278
2	0x3d95980d	0.07304392
3	0xbe8d7fdb	-0.27636608
4	0xbe3f70ac	-0.18695325
5	0x3f0007af	0.50011724
6	0x00000000	0.0
7	0x00000000	0.0
8	0x00000000	0.0
9	0x00000000	0.0
10	0x00000000	0.0
11	0x00000000	0.0

naim.embeddings.16.embeddings.weight f4 [2, 6]
0	0x3efaf7e3	0.49017248
1	0x3dc20a88	0.09474665
2	0x3d827e19	0.063717075
3	0xbe952f3c	-0.291376
4	0x3e0378e9	0.12839092
5	0x3ec412ab	0.38295493
6	0x00000000	0.0
7	0x00000000	0.0
8	0x00000000	0.0
9	0x00000000	0.0
10	0x00000000	0.0
11	0x00000000	0.0

naim.embeddings.17.embeddings.weight f4 [2, 6]
0	0x3dda005c	0.106446
1	0x3e199ff1	0.15002419
2	0x3e158c84	0.14604384
3	0xbef59944	-0.47968495
4	0x3e90b79b	0.2826508
5	0xbe88e846	-0.2673971
6	0x00000000	0.0
7	0x00000000	0.0
8	0x00000000	0.0
9	0x00000000	0.0
10	0x00000000	0.0
11	0x00000000	0.0

naim.embeddings.18.embeddings.weight f4 [2, 6]
0	0xbf03cf7b	-0.51488465
1	0xbee58a11	-0.448319
2	0xbe8ebbb3	-0.27877578
3	0x3f02e223	0.5112631
4	0xbcb3dc9f	-0.021955786
5	0xbcd515ad	-0.026011312
6	0x00000000	0.0
7	0x00000000	0.0
8	0x00000000	0.0
9	0x00000000	0.0
10	0x00000000	0.0
11	0x00000000	0.0

naim.embeddings.19.embeddings.weight f4 [2, 6]
0	0x3f04a26d	0.5181034
1	0xbe8b1e9e	-0.27171797
2	0x3e88999c	0.26679695
3	0xbe4d9e32	-0.20079878
4	0xbdd3e3d7	-0.103461914
5	0x3db056de	0.086103186
6	0x00000000	0.0
7	0x00000000	0.0
8	0x00000000	0.0
9	0x00000000	0.0
10	0x00000000	0.0
11	0x00000000	0.0

naim.embeddings.20.embeddings.weight f4 [2, 6]
0	0x3e87bad5	0.2650973
1	0x3e0c9664	0.13729244
2	0xbea689ed	-0.32527104
3	0xbee2b69d	-0.44279948
4	0xbdf4576a	-0.119307354
5	0x3e661876	0.22470269
6	0x00000000	0.0
7	0x00000000	0.0
8	0x00000000	0.0
9	0x00000000	0.0
10	0x00000000	0.0
11	0x00000000	0.0

naim.embeddings.21.embeddings.weight f4 [2, 6]
0	0x3d9529ab	0.07283338
1	0xbbf09c4c	-0.007342851
2	0x3ddd461e	0.108043894
3	0xbd186d4e	-0.037213616
4	0x3d09719c	0.033555612
5	0xbe1bbf43	-0.1520968
6	0x00000000	0.0
7	0x00000000	0.0
8	0x00000000	0.0
9	0x00000000	0.0
10	0x00000000	0.0
11	0x00000000	0.0

naim.embeddings.22.embeddings.weight f4 [2, 6]
0	0x3ea6e428	0.32595944
1	0xbe7801bd	-0.24219413
2	0xbd281f2c	-0.041045353
3	0x3f054a00	0.5206604
4	0x3ebe4724	0.3716365
5	0xbe3e4891	-0.1858237
6	0x00000000	0.0
7	0x00000000	0.0
8	0x00000000	0.0
9	0x00000000	0.0
10	0x00000000	0.0
11	0x00000000	0.0

naim.embeddings.23.embeddings.weight f4 [2, 6]
0	0x3e46d64e	0.19417688
1	0x3c12a974	0.008951534
2	0xbeaa4e9e	-0.33263105
3	0x3f469e7a	0.77585566
4	0xbd470c21	-0.04859555
5	0xbe7372e2	-0.23774293
6	0x00000000	0.0
7	0x00000000	0.0
8	0x00000000	0.0
9	0x00000000	0.0
10	0x00000000	0.0
11	0x00000000	0.0

naim.embeddings.24.embeddings.weight f4 [2, 6]
0	0x3c6b74b9	0.014371091
1	0x3e26632f	0.16248773
2	0xbe445c8c	-0.19175929
3	0x3ec0eb82	0.37679678
4	0xbf4aa2d2	-0.79154694
5	0x3d5edd3c	0.054410204
6	0x00000000	0.0
7	0x00000000	0.0
8	0x00000000	0.0
9	0x00000000	0.0
10	0x00000000	0.0
11	0x00000000	0.0

naim.embeddings.25.embeddings.weight f4 [2, 6]
0	0x3eb329f9	0.3499296
1	0xbe0cede3	-0.13762622
2	0x3f312b22	0.6920644
3	0x3edc8c8c	0.4307598
4	0x3db107c5	0.0864406
5	0x3d653254	0.0559562
6	0x00000000	0.0
7	0x00000000	0.0
8	0x00000000	0.0
9	0x00000000	0.0
10	0x00000000	0.0
11	0x00000000	0.0

naim.embeddings.26.embeddings.weight f4 [2, 6]
0	0x3e0a5df2	0.135124
1	0xbee77e89	-0.45213726
2	0xbefdfebd	-0.49608412
3	0x3e81d963	0.25361165
4	0x3eb7fb95	0.3593413
5	0x3e976251	0.29567197
6	0x00000000	0.0
7	0x00000000	0.0
8	0x00000000	0.0
9	0x00000000	0.0
10	0x00000000	0.0
11	0x00000000	0.0

naim.embeddings.27.embeddings.weight f4 [2, 6]
0	0xbdce73bf	-0.100806706
1	0x3ebf5adb	0.37374005
2	0xbef6c983	-0.48200616
3	0xbf003439	-0.50079685
4	0xbe16d49c	-0.14729542
5	0x3cc2b4e3	0.023767894
6	0x00000000	0.0
7	0x00000000	0.0
8	0x00000000	0.0
9	0x00000000	0.0
10	0x00000000	0.0
11	0x00000000	0.0

naim.embeddings.28.embeddings.weight f4 [2, 6]
0	0xbe2375c1	-0.15962888
1	0x3e4ab738	0.19796455
2	0xbe75ddfd	-0.24010463
3	0xbe9eb9ba	-0.31001073
4	0x3e173dfb	0.14769737
5	0xbd95525a	-0.07291098
6	0x00000000	0.0
7	0x00000000	0.0
8	0x00000000	0.0
9	0x00000000	0.0
10	0x00000000	0.0
11	0x00000000	0.0

naim.embeddings.29.embeddings.weight f4 [2, 6]
0	0xbef4d501	-0.4781876
1	0xbbcaadf3	-0.006185287
2	0x3f17a696	0.59238565
3	0xbe2c7ad5	-0.16843732
4	0x3d364c93	0.04450662
5	0xbe9bd749	-0.30437687
6	0x00000000	0.0
7	0x00000000	0.0
8	0x00000000	0.0
9	0x00000000	0.0
10	0x00000000	0.0
11	0x00000000	0.0

naim.embeddings.30.embeddings.weight f4 [2, 6]
0	0xbdbc64a3	-0.091988824
1	0x3e8fcb20	0.2808466
2	0x3e9965da	0.2996052
3	0xbe95e516	-0.2927634
4	0xbd82d374	-0.06387988
5	0xbec6140c	-0.3868717
6	0x00000000	0.0
7	0x00000000	0.0
8	0x00000000	0.0
9	0x00000000	0.0
10	0x00000000	0.0
11	0x00000000	0.0

naim.embeddings.31.embeddings.weight f4 [2, 6]
0	0x3eb2838e	0.34865993
1	0xbe550f70	-0.2080667
2	0xbd11d792	-0.035605974
3	0xbda5b39d	-0.08090899
4	0xbe79448d	-0.24342556
5	0xbe8ffcb0	-0.28122473
6	0x00000000	0.0
7	0x00000000	0.0
8	0x00000000	0.0
9	0x00000000	0.0
10	0x00000000	0.0
11	0x00000000	0.0

naim.embeddings.32.embeddings.weight f4 [2, 6]
0	0x3da25fe2	0.079284444
1	0x3e8a8694	0.270558
2	0xbeb0d0cb	-0.34534296
3	0xbf3cc2f2	-0.7373496
4	0x3e9cbd7a	0.3061331
5	0xbe3503a7	-0.17677175
6	0x00000000	0.0
7	0x00000000	0.0
8	0x00000000	0.0
9	0x00000000	0.0
10	0x00000000	0.0
11	0x00000000	0.0

naim.embeddings.33.embeddings.weight f4 [2, 6]
0	0xbe07102a	-0.1318976
1	0xbe1f6c05	-0.1556855
2	0xbeeb956f	-0.46012446
3	0xbe51840d	-0.2046053
4	0xbe94f62a	-0.29094058
5	0x3f29d67d	0.6634291
6	0x00000000	0.0
7	0x00000000	0.0
8	0x00000000	0.0
9	0x00000000	0.0
10	0x00000000	0.0
11	0x00000000	0.0

naim.embeddings.34.embeddings.weight f4 [2, 6]
0	0xbe1e983a	-0.15487757
1	0x3e0dd5a8	0.13851035
2	0x3ef65bd7	0.48116943
3	0xbd60e5c3	-0.054906618
4	0xbe61069b	-0.21975176
5	0x3d5edc43	0.054409277
6	0x00000000	0.0
7	0x00000000	0.0
8	0x00000000	0.0
9	0x00000000	0.0
10	0x00000000	0.0
11	0x00000000	0.0

naim.embeddings.35.embeddings.weight f4 [2, 6]
0	0x3e32d4be	0.17463967
1	0xbe17d830	-0.14828563
2	0x3eb12bad	0.34603634
3	0x3e90a1b6	0.28248376
4	0x3ec30035	0.38086095
5	0xbf00f314	-0.5037091
6	0x00000000	0.0
7	0x00000000	0.0
8	0x00000000	0.0
9	0x00000000	0.0
10	0x00000000	0.0
11	0x00000000	0.0

naim.embeddings.36.embeddings.weight f4 [2, 6]
0	0xbe223079	-0.15838803
1	0x3eb439f7	0.35200474
2	0xbef1c50e	-0.47220653
3	0x3cef2c53	0.02919594
4	0x3ca5bf68	0.020232871
5	0x3da95cc4	0.08269647
6	0x00000000	0.0
7	0x00000000	0.0
8	0x00000000	0.0
9	0x00000000	0.0
10	0x00000000	0.0
11	0x00000000	0.0

naim.embeddings.37.embeddings.weight f4 [2, 6]
0	0xbba3394c	-0.0049811956
1	0xbea3f6e4	-0.320243
2	0xbe20a9d4	-0.15689784
3	0xbda22b6c	-0.07918438
4	0x3e8293cc	0.25503385
5	0x3dc7233b	0.097235166
6	0x00000000	0.0
7	0x00000000	0.0
8	0x00000000	0.0
9	0x00000000	0.0
10	0x00000000	0.0
11	0x00000000	0.0

naim.embeddings.38.embeddings.weight f4 [2, 6]
0	0x3d297e80	0.041380405
1	0xbda23d75	-0.07921878
2	0xbc232eab	-0.009959857
3	0x3eaefba0	0.3417635
4	0xbdf58ead	-0.11990104
5	0x3e029c45	0.12754925
6	0x00000000	0.0
7	0x00000000	0.0
8	0x00000000	0.0
9	0x00000000	0.0
10	0x00000000	0.0
11	0x00000000	0.0

naim.embeddings.39.embeddings.weight f4 [2, 6]
0	0xbce70894	-0.028202333
1	0xbe7d411d	-0.2473187
2	0x3ef812ab	0.48451743
3	0xbf1b7f42	-0.60741055
4	0x3e32d39f	0.1746354
5	0x3ea344c8	0.31888413
6	0x00000000	0.0
7	0x00000000	0.0
8	0x00000000	0.0
9	0x00000000	0.0
10	0x00000000	0.0
11	0x00000000	0.0

naim.embeddings.40.embeddings.weight f4 [2, 6]
0	0xbdc974fb	-0.098367654
1	0x3e4d8241	0.20069219
2	0x3e0cc725	0.13747843
3	0xbdd3adc6	-0.10335879
4	0xbdafaf17	-0.085783176
5	0xbeb64ee3	-0.3560706
6	0x00000000	0.0
7	0x00000000	0.0
8	0x00000000	0.0
9	0x00000000	0.0
10	0x00000000	0.0
11	0x00000000	0.0

naim.embeddings.41.embeddings.weight f4 [2, 6]
0	0xbd92d2e2	-0.07169129
1	0xbe1f04f9	-0.1552924
2	0x3e94e1bf	0.2907848
3	0x3e1917e2	0.14950517
4	0x3eb67e23	0.3564311
5	0x3f064e04	0.5246279
6	0x00000000	0.0
7	0x00000000	0.0
8	0x00000000	0.0
9	0x00000000	0.0
10	0x00000000	0.0
11	0x00000000	0.0

naim.embeddings.42.embeddings.weight f4 [2, 6]
0	0xbe89a530	-0.2688384
1	0x3f2d2398	0.67632437
2	0x3e4a1187	0.19733249
3	0x3eb34fb8	0.35021758
4	0x3d9b7386	0.07590394
5	0xbdfc2f6a	-0.12313731
6	0x00000000	0.0
7	0x00000000	0.0
8	0x00000000	0.0
9	0x00000000	0.0
10	0x00000000	0.0
11	0x00000000	0.0

naim.embeddings.43.embeddings.weight f4 [2, 6]
0	0xbe3aaa1c	-0.18228954
1	0x3d011d11	0.03152186
2	0x3f1d545d	0.61456853
3	0x3edeb574	0.43497813
4	0x3ead073b	0.3379458
5	0xbdbd2157	-0.09234875
6	0x00000000	0.0
7	0x00000000	0.0
8	0x00000000	0.0
9	0x00000000	0.0
10	0x00000000	0.0
11	0x00000000	0.0

naim.embeddings.44.embeddings.weight f4 [2, 6]
0	0xbc9a4792	-0.018832956
1	0x3e91266a	0.2834962
2	0x3e2f3f70	0.17114043
3	0xbea77a17	-0.32710335
4	0x3e0b2fc9	0.13592447
5	0x3eeb2a60	0.45930767
6	0x00000000	0.0
7	0x00000000	0.0
8	0x00000000	0.0
9	0x00000000	0.0
10	0x00000000	0.0
11	0x00000000	0.0

naim.embeddings.45.embeddings.weight f4 [2, 6]
0	0xbed5488f	-0.4165692
1	0xbf1d09c0	-0.61343
2	0xbea51b18	-0.32247233
3	0x3e200d8d	0.15630169
4	0xbee288dd	-0.44245043
5	0xbe1307a1	-0.14358379
6	0x00000000	0.0
7	0x00000000	0.0
8	0x00000000	0.0
9	0x00000000	0.0
10	0x00000000	0.0
11	0x00000000	0.0

naim.embeddings.46.embeddings.weight f4 [2, 6]
0	0xbd9d8788	-0.07691866
1	0x3da11ffa	0.07867427
2	0x3e851785	0.25994506
3	0xbda0417d	-0.07824991
4	0x3e0cdc37	0.1375588
5	0x3e4c8f67	0.19976579
6	0x00000000	0.0
7	0x00000000	0.0
8	0x00000000	0.0
9	0x00000000	0.0
10	0x00000000	0.0
11	0x00000000	0.0

naim.embeddings.47.embeddings.weight f4 [2, 6]
0	0x3e9e4eb5	0.30919424
1	0xbdb74f81	-0.08950711
2	0xbee222ad	-0.4416708
3	0xbe71c6f1	-0.23611046
4	0x3e7dc9fb	0.2478408
5	0xbe953d05	-0.29148117
6	0x00000000	0.0
7	0x00000000	0.0
8	0x00000000	0.0
9	0x00000000	0.0
10	0x00000000	0.0
11	0x00000000	0.0

naim.embeddings.48.embeddings.weight f4 [2, 6]
0	0x3ce05a38	0.02738677
1	0x3e80365b	0.2504147
2	0x3d934e3e	0.07192658
3	0x3ea63bb4	0.32467425
4	0x3f27d9a9	0.655665
5	0x3eb7a6c8	0.35869431
6	0x00000000	0.0
7	0x00000000	0.0
8	0x00000000	0.0
9	0x00000000	0.0
10	0x00000000	0.0
11	0x00000000	0.0

naim.embeddings.49.embeddings.weight f4 [2, 6]
0	0xbe76313e	-0.24042222
1	0x3e74e407	0.2391511
2	0x3e8afcf1	0.27146104
3	0xbde0ae64	-0.10970762
4	0xbeb3f751	-0.35149625
5	0x3ec3c019	0.38232496
6	0x00000000	0.0
7	0x00000000	0.0
8	0x00000000	0.0
9	0x00000000	0.0
10	0x00000000	0.0
11	0x00000000	0.0

naim.embeddings.50.embeddings.weight f4 [2, 6]
0	0x3f0537b5	0.5203813
1	0x3eb94d69	0.36191872
2	0xbde9f066	-0.114228055
3	0xbe2e8c13	-0.17045622
4	0xbddaf3da	-0.10691042
5	0xbf0c848c	-0.5488975
6	0x00000000	0.0
7	0x00000000	0.0
8	0x00000000	0.0
9	0x00000000	0.0
10	0x00000000	0.0
11	0x00000000	0.0

naim.embeddings.51.embeddings.weight f4 [2, 6]
0	0x3d842819	0.064529605
1	0x3e270667	0.16311036
2	0x3f05a5e0	0.5220623
3	0xbf23bc81	-0.6395951
4	0x3eb79496	0.3585555
5	0xbe125b7c	-0.14292711
6	0x00000000	0.0
7	0x00000000	0.0
8	0x00000000	0.0
9	0x00000000	0.0
10	0x00000000	0.0
11	0x00000000	0.0

naim.embeddings.52.embeddings.weight f4 [2, 6]
0	0x3e9a1e55	0.30101267
1	0xbe732056	-0.23742804
2	0xbe6dab0a	-0.23209777
3	0xbe56f57f	-0.20992087
4	0x3ddffd7d	0.10937021
5	0xbea8e6b2	-0.32988507
6	0x00000000	0.0
7	0x00000000	0.0
8	0x00000000	0.0
9	0x00000000	0.0
10	0x00000000	0.0
11	0x00000000	0.0

naim.embeddings.53.embeddings.weight f4 [2, 6]
0	0xbe7a1a6b	-0.2442414
1	0xbe2d373f	-0.16915606
2	0x3e0a63e9	0.13514675
3	0xbcc34015	-0.023834268
4	0x3f5a5cbb	0.85297745
5	0xbc31228e	-0.010811461
6	0x00000000	0.0
7	0x00000000	0.0
8	0x00000000	0.0
9	0x00000000	0.0
10	0x00000000	0.0
11	0x00000000	0.0

naim.embeddings.54.embeddings.weight f4 [2, 6]
0	0x3e2de8b4	0.169833
1	0x3ef736e5	0.4828407
2	0x3ed01dac	0.40647638
3	0x3e297485	0.16548355
4	0xbf0e805a	-0.556646
5	0x3dad0610	0.08448422
6	0x00000000	0.0
7	0x00000000	0.0
8	0x00000000	0.0
9	0x00000000	0.0
10	0x00000000	0.0
11	0x00000000	0.0

naim.embeddings.55.embeddings.weight f4 [2, 6]
0	0x3e9051b0	0.28187323
1	0xbe8e70d1	-0.27820447
2	0xbf088a95	-0.5333646
3	0x3f04ede8	0.51925516
4	0xbdd05b5a	-0.10173674
5	0xbe1b4f1b	-0.15166895
6	0x00000000	0.0
7	0x00000000	0.0
8	0x00000000	0.0
9	0x00000000	0.0
10	0x00000000	0.0
11	0x00000000	0.0

naim.embeddings.56.embeddings.weight f4 [2, 6]
0	0xbeb6aab2	-0.35677105
1	0xbed3c3bc	-0.4136027
2	0x3e2d48b5	0.16922267
3	0xbd9b4219	-0.075809665
4	0xbecd050d	-0.40042916
5	0xbd1b6d1e	-0.03794586
6	0x00000000	0.0
7	0x00000000	0.0
8	0x00000000	0.0
9	0x00000000	0.0
10	0x00000000	0.0
11	0x00000000	0.0

naim.embeddings.57.embeddings.weight f4 [2, 6]
0	0x3ecca9d0	0.39973307
1	0xbe9d0334	-0.30666506
2	0xbe40dfac	-0.18835324
3	0x3e5cfd1d	0.2158093
4	0x3f281499	0.6565643
5	0xbc75c774	-0.015001167
6	0x00000000	0.0
7	0x00000000	0.0
8	0x00000000	0.0
9	0x00000000	0.0
10	0x00000000	0.0
11	0x00000000	0.0

naim.embeddings.58.embeddings.weight f4 [2, 6]
0	0xbe0dc273	-0.13843708
1	0x3d23f5e7	0.040029433
2	0x3cfdd25e	0.0309841
3	0xbd5872e3	-0.05284394
4	0x3db8f98f	0.090319745
5	0xbe6b4cb3	-0.22978477
6	0x00000000	0.0
7	0x00000000	0.0
8	0x00000000	0.0
9	0x00000000	0.0
10	0x00000000	0.0
11	0x00000000	0.0

naim.embeddings.59.embeddings.weight f4 [2, 6]
0	0x3e9bbd7b	0.30418
1	0xbe372b48	-0.17887604
2	0xbe6d64e0	-0.23183012
3	0x3f23e78f	0.64025205
4	0x3e76dc20	0.24107409
5	0x3ecdfde4	0.40232766
6	0x00000000	0.0
7	0x00000000	0.0
8	0x00000000	0.0
9	0x00000000	0.0
10	0x00000000	0.0
11	0x00000000	0.0

naim.embeddings.60.embeddings.weight f4 [2, 6]
0	0xbf01186c	-0.5042789
1	0xbd4c43f6	-0.0498695
2	0x3d4d4a25	0.050119538
3	0x3efae901	0.49005893
4	0x3e75e825	0.24014337
5	0x3ebaeffa	0.36511213
6	0x00000000	0.0
7	0x00000000	0.0
8	0x00000000	0.0
9	0x00000000	0.0
10	0x00000000	0.0
11	0x00000000	0.0

naim.embeddings.61.embeddings.weight f4 [2, 6]
0	0xbe51c255	-0.20484288
1	0x3d358866	0.044319533
2	0x3e02a2f3	0.12757473
3	0xbdc415bf	-0.0957446
4	0x3e7082ae	0.2348735
5	0xbdd7c377	-0.10535329
6	0x00000000	0.0
7	0x00000000	0.0
8	0x00000000	0.0
9	0x00000000	0.0
10	0x00000000	0.0
11	0x00000000	0.0

naim.embeddings.62.embeddings.weight f4 [2, 6]
0	0x3e7b4b11	0.24540354
1	0x3e0943d8	0.13404787
2	0xbf218004	-0.6308596
3	0xbd652c7b	-0.055950623
4	0xbeb0bb73	-0.34518012
5	0xbed36841	-0.41290477
6	0x00000000	0.0
7	0x00000000	0.0
8	0x00000000	0.0
9	0x00000000	0.0
10	0x00000000	0.0
11	0x00000000	0.0

naim.embeddings.63.embeddings.weight f4 [2, 6]
0	0x3f334ea0	0.7004185
1	0x3e91285a	0.28351098
2	0xbe875673	-0.26433143
3	0x3e24da46	0.1609889
4	0xbe38739e	-0.18012854
5	0xbe1ce314	-0.15320998
6	0x00000000	0.0
7	0x00000000	0.0
8	0x00000000	0.0
9	0x00000000	0.0
10	0x00000000	0.0
11	0x00000000	0.0

naim.encoder.0.layer_norm_1.weight f4 [6]
0	0x3f726a4f	0.94693464
1	0x3f682c3a	0.90692484
2	0x3f6e01ad	0.9297131
3	0x3f73f303	0.9529268
4	0x3f6c6111	0.9233561
5	0x3f70cbe1	0.94061095

naim.encoder.0.layer_norm_1.bias f4 [6]
0	0x3c3f9779	0.011693829
1	0xbbb5505a	-0.0055332603
2	0xbb9ddd08	-0.0048176087
3	0x3c3e05d8	0.011598073
4	0x3c8e6e1e	0.017386492
5	0xbc68b3d4	-0.014203031

naim.encoder.0.attn.linear_q.weight f4 [6, 6]
0	0xbd100c3e	-0.035167925
1	0x3b4a5fa8	0.003087977
2	0xbd280358	-0.041018814
3	0xbea04a09	-0.31306484
4	0x3b6f75ae	0.0036538648
5	0x3dfc0f7e	0.123076424
6	0xbd08b764	-0.03337802
7	0xbe068827	-0.13137875
8	0xbc9530a2	-0.018211666
9	0x3d8f5a06	0.069995925
10	0xbd93078a	-0.07179172
11	0xbe727974	-0.23679143
12	0xbe091b95	-0.13389428
13	0xbbc0b1b4	-0.005880559
14	0x3d8d2e04	0.068935424
15	0x3e8da1fc	0.27662647
16	0xbbd1e0d1	-0.006404974
17	0x3d8bf3cc	0.0683361
18	0x3e2443e0	0.16041517
19	0xbdd89f52	-0.10577263
20	0xbd8c99b6	-0.068652555
21	0x3e4872fd	0.19575115
22	0x3e53172d	0.2061431
23	0x3d1cbc81	0.03826571
24	0xbe6ac884	-0.22928053
25	0x3e1650ca	0.14679256
26	0xbe828652	-0.25493103
27	0x3e072f90	0.13201737
28	0x3b7292a3	0.0037013672
29	0x3d813707	0.06309324
30	0xbe9e222a	-0.3088544
31	0xbd849a03	-0.06474688
32	0x3dbd21fd	0.092349984
33	0x3e6a7612	0.22896603
34	0xbd36bd92	-0.044614382
35	0x3e8cdc68	0.27511907

naim.encoder.0.attn.linear_k.weight f4 [6, 6]
0	0xbd06b0b0	-0.032883346
1	0xbe27c408	-0.16383374
2	0xbdd2df7a	-0.10296531
3	0x3bbc7d19	0.0057522175
4	0xbc4a99d4	-0.012365777
5	0x3df4958a	0.11942585
6	0xbe1265c2	-0.1429663
7	0xbd3fe4f4	-0.046849206
8	0xbea2c1f3	-0.31788597
9	0x3e7fc23f	0.24976443
10	0xbc8af271	-0.016961308
11	0xbe728e87	-0.23687182
12	0xbca93d1e	-0.020659026
13	0xbc20fea4	-0.009826336
14	0x3d21a834	0.03946705
15	0xbb66bd87	-0.0035208182
16	0x3e2fbd80	0.17162132
17	0xbd7b0d47	-0.06129196
18	0xbd30f2a2	-0.043200143
19	0xbd39b286	-0.04533627
20	0x3c436c95	0.011927743
21	0x3e80bb10	0.25142717
22	0xbbaa8fab	-0.005205115
23	0x3e67df3a	0.22643748
24	0x3e70eb86	0.23527345
25	0xbe0af983	-0.13571744
26	0xbb1d6845	-0.0024018448
27	0xbde2df2b	-0.11077722
28	0x3dc2dc0f	0.09514629
29	0xbd9b82d1	-0.075933106
30	0x3d46f761	0.048575763
31	0xbaad3439	-0.0013214416
32	0xbe3e285b	-0.18570082
33	0xbe46c335	-0.19410403
34	0xbea0457f	-0.3130302
35	0xbe1dc0ca	-0.15405574

naim.encoder.0.attn.linear_v.weight f4 [6, 6]
0	0x3dd47799	0.10374374
1	0x3c923d52	0.017851505
2	0x3e931b8d	0.28731957
3	0xbeb0d01d	-0.34533778
4	0xbcf488a5	-0.029850313
5	0xbea692fd	-0.32534018
6	0xbcb10e21	-0.021613183
7	0x3e042ec2	0.12908462
8	0xbeb44ead	-0.35216275
9	0x3eb21fd3	0.34789905
10	0xbdc3abba	-0.095542386
11	0x3eb544c8	0.35404038
12	0xbd65cea5	-0.056105275
13	0x3e31c9c2	0.17362121
14	0x3eaf6739	0.3425844
15	0xbe036b06	-0.12833795
16	0xbda69668	-0.081341565
17	0x3e4a04a6	0.19728336
18	0xbeafadb8	-0.34312224
19	0x3e6f9949	0.23398317
20	0xbe7f4b14	-0.24930984
21	0x3ebf8f8d	0.37414208
22	0xbe81f709	-0.25383785
23	0xbe249a5d	-0.1607451
24	0x3e9b7153	0.30359897
25	0xbe3a7376	-0.18208107
26	0x3e9ca01a	0.30590898
27	0x3e83d060	0.25744915
28	0x3ebb44c2	0.36575896
29	0xbec7f020	-0.39050388
30	0xbc60e097	-0.013725421
31	0xbde50d68	-0.11184198
32	0x3da76be8	0.08174878
33	0xbe95f32c	-0.29287088
34	0x3e1d8073	0.1538103
35	0xbca86108	-0.02055408

naim.encoder.0.attn.linear_o.weight f4 [6, 6]
0	0xbde43ba7	-0.1114419
1	0xbe8f8700	-0.28032684
2	0x3e0614dc	0.13093895
3	0xbd8ef310	-0.06979954
4	0x3e5ce39d	0.21571203
5	0x3c494e78	0.012286775
6	0x3d48c1a0	0.04901278
7	0xbbc45743	-0.0059918477
8	0xbb8179fc	-0.0039513092
9	0xbd7c1918	-0.06154737
10	0xbe888c72	-0.2666965
11	0x3e30391a	0.17209283
12	0xbe7891cc	-0.24274367
13	0x3e7ae3ea	0.24501005
14	0xbdfad18f	-0.122470014
15	0x3e8833b4	0.26601946
16	0x3eb836bf	0.35979268
17	0xbe709f16	-0.23498186
18	0x3ea96f34	0.33092654
19	0x3c0debf6	0.0086622145
20	0xbe9c9621	-0.3058329
21	0x3e28c259	0.16480388
22	0x3e6b246f	0.22963117
23	0x3eb39551	0.35074857
24	0xbec6e5f2	-0.3884731
25	0x3eb309a9	0.34968308
26	0x3e929b99	0.28634337
27	0x3ec22f30	0.37926626
28	0x3e542a94	0.20719367
29	0xbe4e8a49	-0.20169939
30	0x3e9a637f	0.30154034
31	0x3ebbddc4	0.3669263
32	0xbe1e4350	-0.15455365
33	0xbd8d6905	-0.069047965
34	0x3e9ec6a3	0.31010923
35	0x3ea338d9	0.3187931

naim.encoder.0.layer_norm_2.weight f4 [6]
0	0x3f77f6a1	0.968607
1	0x3f79720a	0.97439635
2	0x3f7b2f4a	0.9811903
3	0x3f795019	0.97387844
4	0x3f7731dd	0.9656046
5	0x3f798409	0.97467095

naim.encoder.0.layer_norm_2.bias f4 [6]
0	0x3bb7d0be	0.005609601
1	0x3b80a07f	0.0039253826
2	0x3b34d81b	0.002759463
3	0xbb9cf3b5	-0.0047897943
4	0xbb842f1a	-0.0040339353
5	0xbadbe4a8	-0.0016776519

naim.encoder.0.ff.0.weight f4 [1000, 6]
0	0x3e4abcfc	0.19798654
1	0x3e73f4de	0.23823878
2	0xbe065ac2	-0.13120559
3	0xbd3d7155	-0.04625066
4	0xbdce123d	-0.100620724
5	0x3e1e71b1	0.15473057
6	0x3d7cba92	0.061701365
7	0xbe7c55af	-0.2464206
8	0xbc988f95	-0.018623153
9	0xbe838b5a	-0.25692254
10	0xbe9b0528	-0.3027737
11	0x3e9cc3b7	0.3061807
12	0xbe1c4af3	-0.15262966
13	0x3e0a1504	0.1348458
14	0xbd3b0b30	-0.045664966
15	0xbd4aba43	-0.04949404
16	0x3a091d0c	0.00052304636
17	0x3e882320	0.26589298
18	0xbc0a14e1	-0.0084278295
19	0x3e810c09	0.25204495
20	0x3e205eab	0.15661113
21	0x3e4a02b9	0.19727601
22	0xbe912ecd	-0.2835602
23	0xbdde1e91	-0.10845674
24	0xbe8b49c1	-0.27204707
25	0xbd787702	-0.06066037
26	0xbd346bdc	-0.044048175
27	0x3d627378	0.0552859
28	0x3e8f609e	0.280034
29	0x3e1e655d	0.15468355
30	0xbe6ae91b	-0.22940485
31	0xbe4a31d2	-0.19745567
32	0x3e6538f5	0.22385009
33	0x3c81ac29	0.015829163
34	0x3d912712	0.0708753
35	0xbe2f7f89	-0.17138495
36	0xbcf0a8da	-0.02937739
37	0x3d9496ce	0.07255326
38	0xbe400083	-0.18750195
39	0x3e47eadb	0.19523184
40	0x3e0b69b4	0.13614541
41	0xbe34e5a1	-0.17665721
42	0xbdbf8e85	-0.09353355
43	0xbd64dc09	-0.055873904
44	0x3cc52e85	0.024070034
45	0xbd77209c	-0.060333833
46	0x3e99a510	0.30008745
47	0xbe9dc1d4	-0.30811942
48	0xbe3046f1	-0.17214562
49	0xbe3eeb11	-0.18644358
50	0x3d4b8c87	0.049694564
51	0x3d205e42	0.03915239
52	0xbd66fce5	-0.056393523
53	0x3e9383c5	0.2881147
54	0xbe882bf3	-0.2659603
55	0x3d9b1e94	0.07574192
56	0xbe1262ce	-0.14295503
57	0xbd59f904	-0.053215995
58	0xbe9dddba	-0.30833226
59	0xbe6110ab	-0.21979015
60	0xbe88e77b	-0.26739106
61	0x3de8527f	0.1134386
62	0xbda6a3d7	-0.08136719
63	0x3e128a6d	0.14310618
64	0xbe171fbe	-0.14758202
65	0xbd688881	-0.056770805
66	0x3ce36737	0.027759178
67	0x3e89e5a0	0.26933002
68	0xbd634067	-0.05548134
69	0x3e2b432a	0.1672484
70	0x3d6d4b0d	0.057932902
71	0x3e467a97	0.19382702
72	0x3e4a7855	0.19772466
73	0x3ddb93d6	0.10721557
74	0xbd91484c	-0.07093868
75	0xbd9a0b93	-0.07521739
76	0x3de71389	0.11283023
77	0x3e336aa7	0.17521153
78	0xb8a8ed3e	-8.055054e-05
79	0x3dfc0546	0.12305693
80	0xbe27b653	-0.16378145
81	0x3e17315d	0.14764924
82	0xbbc2aef9	-0.0059412685
83	0xbe4877f9	-0.19577016
84	0xbdfd04d0	-0.123544335
85	0xbe6ae060	-0.22937155
86	0x3ccbe713	0.024890458
87	0xbe28a600	-0.16469574
88	0xbd59bea4	-0.053160325
89	0xbc0c0bf3	-0.008547771
90	0xbe3207a8	-0.17385733
91	0x3c8da13d	0.017288798
92	0xbc94bd47	-0.01815666
93	0x3d8aaf92	0.06771769
94	0x3e555f83	0.20837216
95	0xbe38f41d	-0.18061872
96	0x3e0f61d5	0.14002164
97	0x3a0bb7cc	0.0005329817
98	0xbe19910d	-0.14996739
99	0xbddbe794	-0.107375294
100	0x3d1bfd07	0.038083103
101	0x3cb04146	0.0215155
102	0xbc169730	-0.009191319
103	0xbe0b1ac0	-0.13584423
104	0x3dfdd320	0.123937845
105	0x3d2d6b5f	0.042338725
106	0xbe9d5e6e	-0.30736107
107	0xbcfc6fd3	-0.03081504
108	0xbd5e8c1b	-0.054332834
109	0xbddc2435	-0.107490934
110	0xbe1094f7	-0.14119326
111	0xbe7c37db	-0.24630682
112	0x3ea229d2	0.3167253
113	0xbe931712	-0.2872854
114	0x3e9d13cc	0.30679166
115	0xbe7978fa	-0.24362555
116	0xbd2640c8	-0.040589124
117	0xbddd9eef	-0.1082133
118	0xbe223fd8	-0.15844667
119	0x3dd8ba2f	0.10582387
120	0x3e2bf111	0.16791178
121	0xbe4c179c	-0.19930881
122	0xbde8e8bb	-0.11372515
123	0x3e1546cd	0.1457779
124	0xbcc83daa	-0.024443466
125	0x3da23b7d	0.07921503
126	0x3e0907fd	0.13381954
127	0xbd9c1c91	-0.07622636
128	0xbe1277c0	-0.14303493
129	0x3da64733	0.08119049
130	0xbda5950f	-0.08085071
131	0xbe3fb932	-0.1872299
132	0xbe076bc3	-0.13224702
133	0xbdfc5d25	-0.123224534
134	0x3ea40c78	0.32040763
135	0x3d0baa08	0.0340977
136	0x3dc78b44	0.0974336
137	0x3cb60f35	0.022224048
138	0xbe450db6	-0.19243512
139	0x3e560370	0.20899749
140	0xbc885bfb	-0.016645422
141	0xbd3987a4	-0.045295373
142	0x3e7d6f30	0.24749446
143	0xbe0407f2	-0.12893656
144	0x3d59a544	0.053136125
145	0xbe8982c3	-0.26857576
146	0x3e0f98ae	0.14023086
147	0x3dd1dbf4	0.10247031
148	0xbe81bbd1	-0.25338605
149	0x3e2c3fa9	0.1682116
150	0x3ccc22cc	0.024918936
151	0xbe157a30	-0.14597392
152	0x3e879133	0.26477966
153	0x3dd194fd	0.102334954
154	0x3db706d6	0.08936851
155	0xbddaab37	-0.10677188
156	0xbe37ae5d	-0.17937608
157	0xbe2d5a34	-0.16928941
158	0x3db796b2	0.0896429
159	0x3da1e2de	0.079045996
160	0xbe29b144	-0.16571528
161	0x3ea24a5f	0.31697366
162	0x3e1ee6b0	0.15517688
163	0xbdb25178	-0.08706945
164	0x3e04544c	0.12922782
165	0xbdc44b4c	-0.09584674
166	0x3d6a8ad9	0.05726132
167	0x3e841fe2	0.25805575
168	0xbe93f025	-0.28894153
169	0xbe0d2efd	-0.13787456
170	0xbbf5fe2e	-0.007507107
171	0x3d14371f	0.03618538
172	0xbe7f1bd5	-0.24912961
173	0xbe571078	-0.21002376
174	0xbc7c2d53	-0.0153916655
175	0xbcd464c5	-0.025926957
176	0x3d236e21	0.03989995
177	0x3c83512f	0.016029922
178	0x3d284041	0.041076902
179	0x3c220e0e	0.009891046
180	0x3c50e0dd	0.012748924
181	0xba3f52ee	-0.0007298429
182	0x3d830b3b	0.063986264
183	0x3e4e80bf	0.201663
184	0xbe05c347	-0.13062774
185	0xbe0a6ea0	-0.13518763
186	0x3dfe6ae3	0.12422731
187	0xbe65eddb	-0.22454016
188	0x3e392989	0.1808225
189	0x3e04fbd3	0.12986688
190	0x3d313824	0.04326643
191	0xbdff4411	-0.124641545
192	0x3c506bb6	0.012720993
193	0xbe792c8d	-0.24333401
194	0xbe900e00	-0.2813568
195	0x3e9850dc	0.2974919
196	0xbe903d58	-0.28171802
197	0xbe851120	-0.25989628
198	0xbda60ec6	-0.081082866
199	0x3b1c8cf3	0.0023887723
200	0x3d30b24b	0.043138783
201	0xbdff9465	-0.12479476
202	0xbc93648f	-0.017992286
203	0xbd05b1e3	-0.03264035
204	0x3e85b6f5	0.26116148
205	0x3e87610a	0.26441222
206	0x3dca8cae	0.09890114
207	0xbbb5e059	-0.005550426
208	0x3e622ac5	0.22086628
209	0xbe7a8eb9	-0.24468507
210	0x3dbc9487	0.09208017
211	0xbe1d37a6	-0.1535326
212	0x3e6cd440	0.23127842
213	0xbe8e0cb2	-0.2774406
214	0x3da62e3d	0.08114288
215	0xbe7cec36	-0.24699482
216	0x3e20e0ff	0.15710829
217	0x3d055469	0.032551203
218	0x3e871059	0.2637966
219	0xbe6ad0be	-0.22931191
220	0x3e38fb64	0.18064648
221	0xbe427351	-0.18989302
222	0xbe11fa0c	-0.14255542
223	0x3da4c149	0.08044679
224	0xbc9a000b	-0.018798849
225	0xbe74e908	-0.2391702
226	0xbe86a386	-0.26296633
227	0xbd3c442b	-0.045963448
228	0x3d1c6744	0.03818442
229	0x3e8b80cc	0.27246702
230	0x3e5eac43	0.217454
231	0xbbce8949	-0.0063029868
232	0xbe29f5f5	-0.16597731
233	0xbe8e4408	-0.2778628
234	0x3e8efa47	0.2792532
235	0xbe1b4445	-0.15162762
236	0xbcb8aa50	-0.022542149
237	0xbe7f956c	-0.24959344
238	0xbe4e1285	-0.20124252
239	0x3cf05807	0.02933885
240	0xbd0335eb	-0.032033842
241	0x3ad3d899	0.0016162574
242	0xb838f559	-4.4097516e-05
243	0x37ed2d3a	2.8273662e-05
244	0xbc9e6f53	-0.019340193
245	0xb751f6f7	-1.2514872e-05
246	0x3dcc03de	0.09961675
247	0x3e5a6a92	0.21329716
248	0x3e841657	0.25798294
249	0xbe7f445a	-0.24928418
250	0xbe83d88c	-0.2575115
251	0xbc741765	-0.014898156
252	0xbbcdd51f	-0.0062815095
253	0x3e186a70	0.14884353
254	0x3e986fff	0.29772946
255	0x3d5a31e7	0.053270247

naim.encoder.0.ff.0.bias f4 [1000]
0	0x3e3d0847	0.18460189
1	0xbe1b4d99	-0.1516632
2	0xbce9cf20	-0.028541148
3	0x3c3fe914	0.011713285
4	0x3e684acd	0.22684784
5	0x3e103463	0.14082484
6	0x3ea2f56e	0.31827873
7	0xbe113c31	-0.14183117
8	0xbc901b54	-0.017591156
9	0xbc5bcc2f	-0.01341538
10	0x3e82489c	0.25446022
11	0x3e9f5e0c	0.3112644
12	0x3d99c7c5	0.07508806
13	0xbe791f83	-0.24328427
14	0xbe5f4496	-0.21803507
15	0x3d2acca9	0.041699085
16	0xbe8c994a	-0.274607
17	0xbdae8f15	-0.085233845
18	0xbe62e2cb	-0.22156827
19	0x3e1b7464	0.15181118
20	0xbc131f77	-0.00897967
21	0xbe70f8de	-0.23532435
22	0x3e4652a9	0.1936747
23	0xbe8dd3b0	-0.27700567
24	0xbce53fb9	-0.027984487
25	0x3ea249d8	0.31696963
26	0x3e24ef05	0.16106804
27	0xbe8a90c1	-0.27063563
28	0x3ca18b51	0.019719752
29	0xbcf939cc	-0.030423068
30	0x3df619f0	0.12016666
31	0x3e9b86eb	0.30376372
32	0x3e89e805	0.2693483
33	0xbc3d5444	-0.011555735
34	0x3e00a285	0.12561996
35	0xbea15d83	-0.31516656
36	0x3e808e98	0.2510879
37	0x3e178e98	0.14800489
38	0xbe4f25bc	-0.20229238
39	0xbd8c0d6f	-0.068385
40	0xbda0eb6e	-0.07857405
41	0xbe24bd0d	-0.16087742
42	0x3de327b5	0.11091558
43	0xbd415aed	-0.047205854
44	0x3df5e078	0.12005705
45	0xbd4ef8d6	-0.050530277
46	0x3e76c3a0	0.24098063
47	0xbdbb9e46	-0.09161048
48	0xbd21bc8e	-0.03948646
49	0xbd932244	-0.0718427
50	0x3c2b1cad	0.010443849
51	0xbd9be2b2	-0.07611598
52	0xbe5713d1	-0.21003653
53	0xbe9acd34	-0.30234683
54	0x3e376107	0.17908107
55	0x3cfeb37e	0.031091448
56	0xbe3d11e1	-0.18463852
57	0x3e2d0060	0.16894674
58	0x3cd160c3	0.025558835
59	0xbdbdc9c3	-0.092669986
60	0xbca55724	-0.020183153
61	0x3c0ad89d	0.008474496
62	0x3e580285	0.21094711
63	0xbe937556	-0.28800458
64	0xbe6b989b	-0.23007433
65	0xbe78839f	-0.2426896
66	0xbe70b365	-0.23505934
67	0xba5317f4	-0.00080525805
68	0x3e1e980c	0.15487689
69	0x3d86aa77	0.06575482
70	0x3ddf18d7	0.1089341
71	0x3cf7f6ec	0.030269109
72	0xbaf1e4cd	-0.0018455029
73	0xbe9171a7	-0.28407022
74	0x3e90afb8	0.28259063
75	0x3ea25f53	0.31713352
76	0x3c01022d	0.007874054
77	0x3d488a65	0.04896011
78	0x3d0f10c1	0.034928087
79	0x3ea51973	0.3224598
80	0xbad037ac	-0.0015885732
81	0xbc594b0e	-0.013262523
82	0xbe1c56ef	-0.15267538
83	0x3d847610	0.06467831
84	0x3e0426ef	0.12905477
85	0xbe84a8d4	-0.25910056
86	0x3db31c9f	0.087456934
87	0x3d7f192a	0.062279858
88	0x3e034dcf	0.1282265
89	0x3df40060	0.11914134
90	0xbd98dc98	-0.0746395
91	0x3d56e7cc	0.052467152
92	0xbe598a4e	-0.21244165
93	0x3e45263b	0.19252865
94	0xbe8634db	-0.262122
95	0xbe8cf568	-0.2753098
96	0xbe60a213	-0.21936826
97	0xbe16ccac	-0.14726514
98	0x3b705796	0.00366733
99	0x3e459791	0.19296099
100	0xbadfe093	-0.0017080478
101	0x3e69cc41	0.22831823
102	0xbc893c5e	-0.016752418
103	0x3e87bc68	0.2651093
104	0x3e5c940b	0.21540849
105	0x3e460109	0.19336332
106	0x3db81ed2	0.089902535
107	0xbe55a6e6	-0.20864448
108	0x3ea5a985	0.32355896
109	0xbea03e8e	-0.31297725
110	0xbe4c073a	-0.19924632
111	0xbe254a73	-0.16141681
112	0xbd35f71f	-0.044425126
113	0x3de4f848	0.111801684
114	0x3d43d703	0.047812473
115	0xbe8c01cc	-0.2734512
116	0x3ea51289	0.32240704
117	0x3ea22963	0.316722
118	0x3df7e35b	0.121039115
119	0xbe9fc94c	-0.31208265
120	0x3e2cff96	0.16894373
121	0x3d856c41	0.065147884
122	0xbb86337c	-0.004095493
123	0xbe8318da	-0.25604898
124	0x3e8d083f	0.27545354
125	0xbd48fdce	-0.049070172
126	0xbe820ee6	-0.25401992
127	0x3e6eb08b	0.23309533
128	0x3dd65cf0	0.10466945
129	0x3d7ac720	0.061225057
130	0x3e4619f2	0.19345835
131	0x3dc3bfaa	0.095580414
132	0xbd64867b	-0.055792313
133	0xbc8e9568	-0.017405227
134	0x3e8909a9	0.26765183
135	0xb90b718c	-0.00013298373
136	0xbe82ef9c	-0.25573432
137	0xbe467a08	-0.19382489
138	0xbe650e7d	-0.22368808
139	0x3cd2b661	0.02572173
140	0x3e694f1d	0.22784086
141	0x3e33f522	0.1757398
142	0x3d852805	0.06501774
143	0x3ddb4545	0.107065715
144	0xbdf0535c	-0.117346495
145	0x3ea39773	0.31951484
146	0x3dd7eea5	0.10543565
147	0xbe2f5b24	-0.17124611
148	0xbe3f7a9d	-0.18699117
149	0xbe8fa539	-0.28055742
150	0xbd2e7d1b	-0.04259978
151	0x3e613c07	0.21995555
152	0x3c559988	0.013037093
153	0xbde34d8c	-0.11098775
154	0x3da59831	0.08085669
155	0xbe4dd5cb	-0.20101087
156	0x3da6131c	0.081091136
157	0x3e4e4208	0.20142376
158	0x3e134e25	0.14385279
159	0xbd85ce48	-0.06533486
160	0xbdc0049f	-0.093758814
161	0x3e0551b1	0.13019444
162	0x3e2fcfe2	0.17169145
163	0xbd091fd5	-0.033477623
164	0x3be71001	0.0070514684
165	0xbc58ee98	-0.013240479
166	0xbc6046a1	-0.013688714
167	0xbe8df959	-0.277293
168	0xbe7bbdc0	-0.24584103
169	0x3e89eccb	0.2693847
170	0xbdeca636	-0.1155514
171	0x3e6652f5	0.22492583
172	0x3e4a1ced	0.19737597
173	0xbcfb884e	-0.030704644
174	0xbe104ca3	-0.14091735
175	0x3b705003	0.0036668784
176	0xbd1d6954	-0.038430527
177	0xbe24a1f1	-0.160774
178	0x3ea25689	0.31706646
179	0xbc4154a3	-0.011799964
180	0xbcc2eba8	-0.02379401
181	0xbe483ab6	-0.19553646
182	0x3d0ad945	0.03389861
183	0x3d19f82b	0.037590187
184	0x3ea9443e	0.33059877
185	0xbd5ed3b3	-0.05440111
186	0x3e1fcc01	0.15605165
187	0x3c6d2315	0.014473696
188	0x3e2b9963	0.16757731
189	0x3c3abd17	0.011397622
190	0xbc5cfd2c	-0.013488095
191	0x3dfb9334	0.12283936
192	0xbddaa942	-0.106768146
193	0x3e3c7ccc	0.18406981
194	0xbe82b8c7	-0.255316
195	0xbe561348	-0.20905793
196	0x3e9f6f36	0.31139535
197	0xbd964051	-0.07336486
198	0xbe78ad54	-0.2428487
199	0xbe5edd52	-0.21764114
200	0x3ea181ee	0.3154444
201	0xbcbf754c	-0.023371361
202	0xbe83a5de	-0.25712484
203	0xbd14563f	-0.036215063
204	0xbdf6171f	-0.12016129
205	0xbe3d90c0	-0.18512249
206	0xbe18d26c	-0.1492402
207	0x3e6a7899	0.22897567
208	0x3dc5d505	0.09659771
209	0x3e2eaba4	0.17057663
210	0x3caa56e9	0.020793395
211	0xbdb7327c	-0.08945176
212	0xbddeb508	-0.10874373
213	0xbe3de39e	-0.1854386
214	0xbe57b797	-0.21066128
215	0xbe895357	-0.26821396
216	0x3d23d926	0.04000201
217	0x3e21de89	0.15807547
218	0x3e8f5d14	0.280007
219	0x3a9a6901	0.0011780561
220	0xbcb8a3f5	-0.022539118
221	0xb9418d79	-0.00018458617
222	0x3dd8ec61	0.10591961
223	0xbcb56df9	-0.022147166
224	0xbdc443dc	-0.09583256
225	0xbd420e8b	-0.04737715
226	0xbe9f52de	-0.3111791
227	0xbe6a1dfa	-0.22862998
228	0xbdc5b832	-0.09654273
229	0x3b8d7e1f	0.0043180133
230	0xbe311e0d	-0.1729662
231	0x3dc57cd1	0.096429475
232	0xbe12ec38	-0.14347923
233	0x3e9e8362	0.30959612
234	0xbe8bedf3	-0.27329978
235	0x3e30fa3c	0.17282957
236	0xbe102b2e	-0.14078972
237	0xbd959c20	-0.07305169
238	0xbe990fb3	-0.2989479
239	0xbe97018e	-0.29493374
240	0xbe9a413c	-0.30127895
241	0xbc1e884b	-0.009676049
242	0x3e97fd27	0.29685327
243	0x3deff8c4	0.1171737
244	0x3e3cc6c2	0.18435195
245	0x3d46960a	0.048482932
246	0xbda0fe00	-0.07860947
247	0xbdb6e0c4	-0.089295894
248	0xbd58e683	-0.052954208
249	0xbe9723e3	-0.29519567
250	0x3e2446dc	0.16042656
251	0xbd8d06b6	-0.06886046
252	0xbe333c3c	-0.17503446
253	0x3dab447b	0.08362671
254	0xbb4c8d73	-0.003121224
255	0x3e26a09f	0.1627221

naim.encoder.0.ff.3.weight f4 [6, 1000]
0	0xbc53c85d	-0.012926188
1	0xbb8b1a18	-0.004245054
2	0xb8995b3e	-7.312604e-05
3	0xbc04e564	-0.008111332
4	0xbb98e8e0	-0.0046664327
5	0x3b8b5213	0.0042517274
6	0xbb9751c5	-0.004617902
7	0xbc4de89a	-0.012567664
8	0x3cd8fdbd	0.02648818
9	0x3c352179	0.011055344
10	0xbb52d00d	-0.0032167465
11	0xbb6bc083	-0.00359729
12	0xbc9d5e5e	-0.019210037
13	0xbc951cbd	-0.01820218
14	0x3aa38083	0.0012474213
15	0xbb6c9360	-0.0036098585
16	0x3b8c2747	0.004277143
17	0xbbf04374	-0.00733226
18	0xbb8091de	-0.0039236387
19	0x3c23a5a3	0.009988221
20	0x3d201a8e	0.039087825
21	0x3c9cae7c	0.01912617
22	0xbc9ad858	-0.018901989
23	0x3be711a2	0.0070516625
24	0x3b9b3175	0.0047361203
25	0xb9a6f70e	-0.00031846057
26	0x3ca2a043	0.01985181
27	0xbb409cd2	-0.0029390347
28	0xb99f8a65	-0.00030429955
29	0xbca69d45	-0.020338664
30	0xbc04c6c7	-0.008104033
31	0xbce48102	-0.027893547
32	0x3c81e27e	0.01585507
33	0xbc80b0e0	-0.01570934
34	0xbccdf0d6	-0.025139254
35	0xbcc217e0	-0.023693025
36	0x3c649963	0.013952586
37	0xbc12b3c3	-0.008953991
38	0x3caadbe8	0.020856813
39	0xbc16e36d	-0.009209496
40	0x38d7b141	0.00010285015
41	0xbb8e44ac	-0.0043416824
42	0xbccf2aac	-0.025288902
43	0x3c8e8d29	0.017401295
44	0xbcac2463	-0.021013444
45	0xbca6e029	-0.02037056
46	0x3bb9cca0	0.005670145
47	0x3ba9d6ac	0.0051830616
48	0x3bde2043	0.0067787482
49	0x3d22a844	0.03971125
50	0xbc81ff24	-0.01586873
51	0xbbdb9a4f	-0.0067017446
52	0x3ca7e7ca	0.020496268
53	0xbba989e1	-0.005173907
54	0x3a0b30f9	0.00053097267
55	0xbb96613f	-0.0045892294
56	0x3b235bad	0.002492647
57	0x3d03390a	0.03203682
58	0x3b098682	0.0020984714
59	0x3c67d844	0.014150683
60	0x3d08b445	0.033375043
61	0x3c260004	0.01013184
62	0x3c7623bc	0.015023168
63	0x3cf682cf	0.030091671
64	0xbc307c09	-0.01077176
65	0xbb64576b	-0.0034842144
66	0xbbe4d465	-0.006983327
67	0xbcbb04af	-0.022829382
68	0x3cda1a4d	0.02662387
69	0xbcffe6cf	-0.031237988
70	0xbcd9d6a7	-0.026591612
71	0xbb818d1e	-0.00395359
72	0xbcee1f0f	-0.029067544
73	0xbcb11380	-0.021615744
74	0xbc3eec61	-0.011653037
75	0x3b90c7fb	0.004418371
76	0xbcd9314e	-0.026512768
77	0xbc8cdd1f	-0.017195283
78	0xbc01961c	-0.007909324
79	0xbc94958f	-0.018137721
80	0x3c695a51	0.0142427245
81	0xbb3c04b5	-0.002868933
82	0x3c6ef2a4	0.014584217
83	0x3d0413f3	0.032245588
84	0xbbea37f9	-0.0071477857
85	0xbbfb3311	-0.0076659997
86	0x3c74ac45	0.01493365
87	0x3c854af0	0.016271085
88	0x3c84389e	0.016140278
89	0x3b6f2ad3	0.003649403
90	0x3cf265f1	0.029589625
91	0xbd122dc6	-0.035688184
92	0xbc0f4df8	-0.008746617
93	0xbc6f7abd	-0.014616665
94	0xbcc57ff2	-0.02410886
95	0xbb99684f	-0.004681624
96	0xbc99de2c	-0.018782698
97	0x3bde9a97	0.006793331
98	0x3c806fb0	0.015678257
99	0xbb421d36	-0.0029619462
100	0xbc397445	-0.011319225
101	0x3bd5930c	0.0065177735
102	0x3be971a7	0.007124144
103	0xbca33651	-0.019923361
104	0x3cc3497b	0.02383875
105	0x3c9b6383	0.01896835
106	0xbc97c6ce	-0.018527415
107	0x3cde288d	0.027118945
108	0xb950a620	-0.00019898312
109	0xbbda2326	-0.006657022
110	0x3cd79b71	0.026319237
111	0x39d8fa47	0.00041385202
112	0x3c9dd337	0.019265754
113	0xbc3820d0	-0.011238292
114	0xbcf30d11	-0.029669316
115	0x3ce15cd3	0.027510082
116	0xbb86c31f	-0.0041126157
117	0x3c9972f2	0.018731568
118	0xbca26561	-0.019823732
119	0x3c296072	0.010337936
120	0xbc9e9dad	-0.019362295
121	0x3c0b486f	0.008501156
122	0x3c90bbf3	0.017667746
123	0xbb103028	-0.002200136
124	0x3d07c295	0.033144552
125	0x3cf78537	0.030214889
126	0x3c99eef6	0.018790703
127	0x3ca3c4a2	0.019991223
128	0xbc5ed5ca	-0.013600776
129	0xbc190803	-0.009340289
130	0x3ca10b6c	0.019658767
131	0xbc5bf4c3	-0.013425055
132	0xbbafc5e0	-0.0053641647
133	0x3c906931	0.017628284
134	0xbcba031a	-0.022706557
135	0xbbbb2570	-0.00571125
136	0x3b504d21	0.0031784254
137	0x3c611e2e	0.013740106
138	0xbc9e7b37	-0.019345863
139	0xbb0c6274	-0.0021420987
140	0x3ce34169	0.02774115
141	0xbcbdab28	-0.023152903
142	0x3cc48091	0.023987086
143	0xba33d9aa	-0.00068607426
144	0xbc83aa0b	-0.016072294
145	0xbcc734f5	-0.024317244
146	0xbb02bd30	-0.001994919
147	0x3c9be893	0.019031798
148	0xbca94045	-0.020660529
149	0xbc7c9e77	-0.01541864
150	0x3b87774d	0.004134095
151	0x3ca2cd90	0.01987341
152	0xbacbfb41	-0.001556255
153	0x3cd8ed8c	0.026480459
154	0x3d0b9cf1	0.034085218
155	0x3cc5cd70	0.024145812
156	0xbc914dbf	-0.017737268
157	0xbd183217	-0.037157144
158	0xbd1031a0	-0.035203576
159	0x3c259d82	0.010108354
160	0xbc404cf7	-0.0117371
161	0x3c875fbe	0.016525146
162	0x3bea996e	0.0071594035
163	0x3ca4fb66	0.020139407
164	0xbc7504b8	-0.014954738
165	0xbcf0bb01	-0.029386045
166	0xbc28f84f	-0.010313108
167	0x3b8a17b2	0.0042142505
168	0x3cb9d984	0.022686727
169	0x3a82a928	0.0009968625
170	0x3ce4303c	0.027855031
171	0xbbfc681a	-0.0077028396
172	0xbb48aa14	-0.0030618953
173	0xbb64e041	-0.0034923705
174	0xbb638ce4	-0.0034721429
175	0xbbbe940b	-0.005815988
176	0xbcd48fab	-0.025947412
177	0xbab6eeca	-0.0013956663
178	0xbbbd1d23	-0.0057712956
179	0xbc9bccea	-0.01901861
180	0xbc401c66	-0.011725521
181	0xbc8aaedb	-0.01692908
182	0x3b11dc11	0.0022256414
183	0xbc84e189	-0.016220825
184	0x3d05f94b	0.032708447
185	0x3bc351cb	0.005960678
186	0xbbd8d94e	-0.0066177016
187	0xbc7f3aae	-0.015577955
188	0x3c1b1761	0.009466023
189	0xbc9c2a76	-0.019063216
190	0x3b99390e	0.004675991
191	0x3c243b9a	0.010023976
192	0xbc9038b5	-0.017605165
193	0x3b1fb11c	0.002436704
194	0x3b7ce9f8	0.0038591605
195	0xbb31a19a	-0.0027104379
196	0xbbf69356	-0.007524888
197	0x3d308965	0.04309978
198	0xbc2c8d9e	-0.010531811
199	0x3cdbb320	0.026818812
200	0x3b735798	0.0037131067
201	0x3c3fb30d	0.011700404
202	0xbc267776	-0.010160318
203	0x3c8a8843	0.016910678
204	0x3c769f70	0.015052661
205	0x3c9b28b6	0.01894031
206	0xbcc07c43	-0.023496753
207	0xbc923ead	-0.017852152
208	0x3b32935a	0.0027248473
209	0xbd056e4b	-0.032575887
210	0x3c892806	0.016742717
211	0x3c9e5beb	0.01933094
212	0x3c8bc6b2	0.017062519
213	0xbb05dfac	-0.0020427508
214	0x3c20ece0	0.0098221
215	0xbcb895fa	-0.022532452
216	0x3c21d53b	0.009877498
217	0xbcfc1a9e	-0.03077441
218	0xbcb2ab94	-0.02181033
219	0x3c3eb16a	0.0116389785
220	0x3ba41bf6	0.005008216
221	0x3c342c31	0.010996864
222	0x3d08b51c	0.033375844
223	0x3cafc2e5	0.021455238
224	0x3cce0a4a	0.02515139
225	0xbce36e85	-0.02776266
226	0xbbd11112	-0.006380209
227	0x3b281b62	0.0025651087
228	0xbcd45137	-0.025917633
229	0x3c9ec8e3	0.0193829
230	0x3ca885ca	0.020571608
231	0xbccd4c45	-0.025060782
232	0x3aea3918	0.0017869798
233	0xbd0ae803	-0.03391267
234	0x3c95d76e	0.018291201
235	0x3c0aa976	0.008463254
236	0xbb8612f5	-0.0040916153
237	0x3ca7b3be	0.02047145
238	0xbb357262	-0.0027686586
239	0x3c2f4cfc	0.010699507
240	0x3cab2c1f	0.020895062
241	0xbbf5121e	-0.0074789664
242	0xbcb9c7d8	-0.0226783
243	0x3c9c31d1	0.019066723
244	0xbccb8839	-0.02484523
245	0x3a87035b	0.0010300683
246	0xbc322878	-0.010873906
247	0x3cb6bd1d	0.022306973
248	0x3c0b4696	0.008500716
249	0xbc9b5a65	-0.018964002
250	0xbc8c98f3	-0.017162776
251	0x3ce38971	0.027775498
252	0xbc149c59	-0.009070479
253	0x3c092e71	0.008372889
254	0x3c746554	0.014916737
255	0xbc8ec38b	-0.017427227

naim.encoder.0.ff.3.bias f4 [6]
0	0xbcf03624	-0.029322691
1	0xbacf6dcf	-0.0015825572
2	0xbc854c76	-0.016271811
3	0xbc42ba50	-0.011885241
4	0x3c9ccb73	0.01913998
5	0xbcc17e52	-0.023619805

naim.norm.weight f4 [6]
0	0x3f8225ad	1.0167748
1	0x3f856243	1.0420612
2	0x3f87576a	1.0573552
3	0x3f804517	1.0021085
4	0x3f81d3fc	1.0142817
5	0x3f80cf81	1.0063325

naim.norm.bias f4 [6]
0	0xbb81b227	-0.003958005
1	0xbb7cc894	-0.0038571702
2	0x3b3ad558	0.002850851
3	0xba685e7d	-0.00088641775
4	0x3b415e45	0.0029505652
5	0xbb5b151a	-0.0033429326

naim.classifier.0.weight f4 [4, 384]
0	0xbd284579	-0.04108188
1	0xbc58c401	-0.013230325
2	0xbc911d02	-0.017714027
3	0x3c16624e	0.009178711
4	0x3ceac0b6	0.028656345
5	0x3beb3457	0.0071778703
6	0xbb576092	-0.0032863957
7	0x3cd370ec	0.025810681
8	0x3d2d3b87	0.042293098
9	0xbc289de1	-0.0102915475
10	0xbd248fb8	-0.040176123
11	0xbd12c697	-0.03583392
12	0x3d43b664	0.047781363
13	0x3ca5f692	0.020259175
14	0x3d4d773f	0.05016255
15	0xbcb95b81	-0.02262664
16	0x3c79c237	0.015244058
17	0xbcec3f53	-0.02883879
18	0xbcb74d23	-0.022375649
19	0xbce25cc7	-0.02763213
20	0x3d32a7be	0.043617003
21	0x3d005ce8	0.031338602
22	0xbc37350c	-0.011182081
23	0xbd15d026	-0.03657546
24	0x3ca7faef	0.020505397
25	0xbc008f0f	-0.007846608
26	0x3b5eab6f	0.0033976694
27	0x3b3e6274	0.0029050382
28	0xbd470bd1	-0.048595253
29	0x3c05fd2b	0.008178036
30	0x3b44d8bf	0.0030036417
31	0xbd029732	-0.031882472
32	0xbd5cf342	-0.053942926
33	0x3cb46a0d	0.022023225
34	0xbd2c21ef	-0.04202455
35	0xbcd26ff7	-0.025688155
36	0x3d0b527c	0.03401421
37	0xbcfb47ac	-0.030673824
38	0xbcb7a8f9	-0.02241944
39	0xbce4ec46	-0.027944695
40	0x3ce04529	0.027376728
41	0x3c3e680a	0.0116214845
42	0x3c094cb7	0.008380107
43	0x3c7dadc9	0.015483328
44	0x3c3c573f	0.01149541
45	0xbbe2d6b2	-0.0069225663
46	0x39b086af	0.00033669683
47	0xbd10e7bf	-0.03537726
48	0xbce3463d	-0.027743453
49	0x3b2752db	0.0025531563
50	0xbc05b5d1	-0.008161024
51	0x3c851816	0.016246837
52	0x3ce5551f	0.02799469
53	0x3d0ef0fb	0.034897786
54	0x3d35ff49	0.044432912
55	0xbbbf6548	-0.005840931
56	0x3c98face	0.01867428
57	0xbd1b19de	-0.037866466
58	0x3d07eb9d	0.033183683
59	0xbc727fb4	-0.014800955
60	0xbd1bba1d	-0.03801929
61	0xbd1ab804	-0.037773147
62	0xbd37e79b	-0.04489861
63	0xbcb924ec	-0.022600614
64	0x3ce44288	0.027863756
65	0xbd3924e3	-0.045201194
66	0xbbb68805	-0.005570414
67	0xbc4ff2f7	-0.012692205
68	0x3c9958c1	0.018719079
69	0xbcac87bc	-0.021060817
70	0x3d0304f4	0.031987146
71	0xbd0e9468	-0.0348095
72	0x3d0a1cc8	0.033718854
73	0xbd4d92a7	-0.050188687
74	0xbd02d768	-0.03194371
75	0x3c68b823	0.014204058
76	0x3c121443	0.008915964
77	0x3d123d6d	0.03570311
78	0x3ce93e5c	0.028472118
79	0xbd298cee	-0.041394167
80	0x3d2c8090	0.042114794
81	0xbc83e8ef	-0.016102282
82	0xbb887960	-0.0041648597
83	0xbcc27730	-0.023738474
84	0xbb8057cd	-0.0039167167
85	0xbd4e322f	-0.050340828
86	0x3bca1716	0.006167303
87	0x3d195d5b	0.037442546
88	0xbc2f01da	-0.010681594
89	0x3d240565	0.040044207
90	0xbca2a21d	-0.019852692
91	0x3c8b012b	0.01696833
92	0x3b124dab	0.0022324126
93	0xbca4ff17	-0.020141168
94	0x3d5d9026	0.05409255
95	0x3aa7262a	0.0012752463
96	0x3aabc418	0.0013104705
97	0xbae69abf	-0.0017593725
98	0xbb49bc63	-0.0030782453
99	0x3d2d16c2	0.04225803
100	0xbb2640f6	-0.002536831
101	0x3cdab1a3	0.026696032
102	0x3c5b9f6a	0.0134047065
103	0x3cefe75d	0.029285127
104	0xbd29de46	-0.041471742
105	0xbd3c974a	-0.046042718
106	0xbc05fb45	-0.008177583
107	0xbc4c69e4	-0.012476418
108	0x3d4e7eb2	0.050413795
109	0x3d5a059e	0.053228013
110	0xbc260f88	-0.010135539
111	0xbce0c445	-0.027437339
112	0xbb5326b0	-0.0032219104
113	0x3c86bb62	0.016446773
114	0x3c5be3b5	0.013420989
115	0x3c66cc96	0.014086863
116	0x3d0e7935	0.03478356
117	0x3c10d057	0.008838735
118	0x3d3064b3	0.043064784
119	0x3bf1a1b0	0.007374011
120	0xbbb0fa7e	-0.0054009547
121	0x3d1e5623	0.038656365
122	0x3b8fbd9d	0.0043866173
123	0x3b462ee9	0.0030240363
124	0xbb36ab82	-0.0027873223
125	0x3cdc3bc5	0.02688397
126	0xbc611e74	-0.013740171
127	0x3d449b59	0.047999714
128	0x3ce53ecb	0.027984044
129	0xba94e9c1	-0.0011361168
130	0xbc9df27e	-0.019280668
131	0x39a54564	0.00031522952
132	0xbd48a830	-0.04898852
133	0xbc5ee936	-0.0136054065
134	0xbc853a32	-0.016263101
135	0xbc19a1c7	-0.00937695
136	0xbcd56d1d	-0.026053006
137	0xbca0c25b	-0.019623926
138	0x3ca6814d	0.020325327
139	0x392fb2ed	0.00016755956
140	0xbcfc4cb6	-0.030798297
141	0xbc075aa7	-0.008261359
142	0x3c8137a8	0.01577361
143	0xbc833e02	-0.016020779
144	0x3d2dab37	0.04239961
145	0xbd17c64c	-0.037054345
146	0x3d3ce5bd	0.046117533
147	0x3c6a9606	0.014317995
148	0xbcc6a3ae	-0.02424797
149	0xbd4523c1	-0.0481298
150	0x3c2470a9	0.010036626
151	0xbb833145	-0.004003676
152	0x3c2015ad	0.009770793
153	0x3c689d02	0.01419759
154	0xbcabe855	-0.020984808
155	0x3c2a6fd1	0.010402636
156	0xbcde6ccf	-0.027151493
157	0xbd47a9b5	-0.04874583
158	0x3d32e70f	0.043677386
159	0xbbe24a80	-0.0069058537
160	0xbd7e9e53	-0.06216271
161	0x3d826c67	0.06368332
162	0x3b9ebad8	0.004844051
163	0xbcddc831	-0.027072998
164	0x3c8fadd5	0.017538944
165	0xbd61154f	-0.054951962
166	0x3d478980	0.048715115
167	0x3d518322	0.05115045
168	0xbd2b2ae2	-0.041788943
169	0x3b758359	0.0037462323
170	0x3d3e0850	0.046394646
171	0xbd6ad0d2	-0.057328053
172	0xbd77aa0f	-0.060464915
173	0x3c0bac46	0.00852496
174	0x3d01ba10	0.031671584
175	0xbd0f4f98	-0.034988016
176	0x3cff8f4f	0.031196265
177	0x3d43e3f9	0.047824834
178	0x3d61c36b	0.055118006
179	0x3ca26bee	0.019826856
180	0xbc58032f	-0.013184353
181	0xbd86df99	-0.065856166
182	0x3ce9e735	0.02855263
183	0xbc71de6e	-0.014762504
184	0x3d70fce0	0.05883491
185	0x3da659d5	0.08122603
186	0xbd6084f4	-0.054814294
187	0xbc21b90a	-0.009870777
188	0xbc868717	-0.016421838
189	0xbc2be044	-0.010490481
190	0x3c2d1e40	0.010566294
191	0xbc231218	-0.009953044
192	0x3c651e96	0.013984343
193	0xbd234cb9	-0.03986809
194	0x3d3e6fec	0.046493456
195	0x3d118150	0.035523713
196	0xbd22c115	-0.03973492
197	0x3d58fad6	0.05297359
198	0xba45ac77	-0.0007540653
199	0xbd56a5c2	-0.052404173
200	0x3d51c25e	0.051210754
201	0xbcd2922f	-0.025704471
202	0xbcc8580b	-0.024456045
203	0x3d1cefc2	0.03831459
204	0x3d0533ab	0.032519978
205	0xbd16dcbc	-0.036831602
206	0xbd3a46fa	-0.045477845
207	0x3d34aa7a	0.04410789
208	0x3d68ca27	0.056833412
209	0xbd0404c8	-0.032231122
210	0xbd4a263f	-0.04935288
211	0xbc6c51fe	-0.014423845
212	0xbca8fb6c	-0.0206277
213	0xbd0f4215	-0.03497513
214	0xbbfabd33	-0.007651949
215	0xbcbf7fc4	-0.023376353
216	0x3ca37c23	0.019956654
217	0xbbe2d0e5	-0.006921875
218	0xbb557eaa	-0.0032576718
219	0x3c3192a9	0.010838189
220	0xbcc7ae32	-0.024375055
221	0x3d3253dd	0.04353701
222	0x3be23ebf	0.0069044526
223	0x3d0ab00c	0.033859298
224	0x3db664f1	0.08905972
225	0xbc0e3fb3	-0.008682179
226	0xbd03cf29	-0.032179985
227	0xbc7158e7	-0.014730669
228	0xbd981bad	-0.07427154
229	0x3d381017	0.04493722
230	0xbb86dfa4	-0.0041160155
231	0xbcd925c5	-0.026507268
232	0xbc20434d	-0.009781671
233	0x3d9cd7d9	0.07658357
234	0x3c88b69e	0.016688641
235	0xbd16026c	-0.036623403
236	0xbc334718	-0.010942243
237	0x3be2b1de	0.006918176
238	0x3dd624fb	0.10456272
239	0xbd2ff084	-0.042953983
240	0x3c9c0784	0.019046552
241	0xbc3635c2	-0.011121215
242	0xbd54c60b	-0.05194668
243	0xbd93c053	-0.07214417
244	0x3c991793	0.018687999
245	0x3d02fda1	0.03198016
246	0x3d0a79b7	0.033807483
247	0xbc041913	-0.008062619
248	0xbcfa8580	-0.030581236
249	0x3d220555	0.039555866
250	0x3d3803ef	0.044925626
251	0x3c915c51	0.017744215
252	0x3d49716d	0.049180437
253	0xbd4c6a69	-0.049906168
254	0xbd2a97ae	-0.04164856
255	0xba419584	-0.0007384645

naim.classifier.0.bias f4 [4]
0	0x3d04f897	0.032463636
1	0xbca6db08	-0.020368114
2	0x3ce46e8d	0.027884746
3	0x3d1dabfd	0.0384941
