outputs/2025-03-23/17-22-00/outputs/model_epoch_10.pt (torch, 92146 bytes, 80 tensors)

naim.embeddings.0.embeddings.weight f4 [2, 6]
0.37654757 -0.5745356 -0.33828738 0.3246065 0.44788688 0.2797042 0.0 0.0
0.0 0.0 0.0 0.0
00000000: d8ca c03e c414 13bf 0134 adbe d332 a63e
00000010: 6e51 e53e 6435 8f3e 0000 0000 0000 0000
00000020: 0000 0000 0000 0000 0000 0000 0000 0000

naim.embeddings.1.embeddings.weight f4 [2, 6]
0.06674217 -0.08716554 -0.14879507 0.39299405 0.18200241 -0.085932314 0.0 0.0
0.0 0.0 0.0 0.0
00000000: 1eb0 883d d983 b2bd bc5d 18be 8436 c93e
00000010: d75e 3a3e 48fd afbd 0000 0000 0000 0000
00000020: 0000 0000 0000 0000 0000 0000 0000 0000

naim.embeddings.2.embeddings.weight f4 [2, 6]
0.6475011 0.047951043 -0.018171012 0.57073736 -0.26571086 0.35101885 0.0 0.0
0.0 0.0 0.0 0.0
00000000: a2c2 253f 5068 443d 60db 94bc d81b 123f
00000010: 410b 88be beb8 b33e 0000 0000 0000 0000
00000020: 0000 0000 0000 0000 0000 0000 0000 0000

naim.embeddings.3.embeddings.weight f4 [2, 6]
0.6610184 -0.52450174 0.048788052 0.49061733 0.14222611 0.0064301984 0.0 0.0
0.0 0.0 0.0 0.0
00000000: 8038 293f bf45 06bf fbd5 473d 3232 fb3e
00000010: b9a3 113e 6ab4 d23b 0000 0000 0000 0000
00000020: 0000 0000 0000 0000 0000 0000 0000 0000

naim.embeddings.4.embeddings.weight f4 [2, 6]
-0.5229094 -0.27736124 -0.21535392 0.13454275 0.097618796 0.01524685 0.0 0.0
0.0 0.0 0.0 0.0
00000000: 64dd 05bf 4b02 8ebe bd85 5cbe 93c5 093e
00000010: 5dec c73d edcd 793c 0000 0000 0000 0000
00000020: 0000 0000 0000 0000 0000 0000 0000 0000

naim.embeddings.5.embeddings.weight f4 [2, 6]
-0.342125 0.032248106 0.6362899 0.35134315 -0.5634788 0.056989867 0.0 0.0
0.0 0.0 0.0 0.0
00000000: 022b afbe 9716 043d e5e3 223f 40e3 b33e
00000010: 2640 10bf 356e 693d 0000 0000 0000 0000
00000020: 0000 0000 0000 0000 0000 0000 0000 0000

naim.embeddings.6.embeddings.weight f4 [2, 6]
-0.5285776 -0.11194854 -0.12308042 -0.26623607 0.14728144 0.7577132 0.0 0.0
0.0 0.0 0.0 0.0
00000000: dd50 07bf 4745 e5bd 9611 fcbd 1850 88be
00000010: f2d0 163e 7ef9 413f 0000 0000 0000 0000
00000020: 0000 0000 0000 0000 0000 0000 0000 0000

naim.embeddings.7.embeddings.weight f4 [2, 6]
-0.3926156 -0.007643913 0.09608135 -0.6893853 -0.053028237 0.5664796 0.0 0.0
0.0 0.0 0.0 0.0
00000000: e904 c9be ca79 fabb 4dc6 c43d 8e7b 30bf
00000010: 2334 59bd cf04 113f 0000 0000 0000 0000
00000020: 0000 0000 0000 0000 0000 0000 0000 0000

naim.embeddings.8.embeddings.weight f4 [2, 6]
0.63699377 -0.1388476 0.25613186 -0.61430943 -0.20593771 0.23006739 0.0 0.0
0.0 0.0 0.0 0.0
00000000: 0612 233f 112e 0ebe b723 833e 6243 1dbf
00000010: 56e1 52be c996 6b3e 0000 0000 0000 0000
00000020: 0000 0000 0000 0000 0000 0000 0000 0000

naim.embeddings.9.embeddings.weight f4 [2, 6]
0.44617483 -0.2813493 0.05935582 -0.40389675 -0.60837483 0.0052069644 0.0 0.0
0.0 0.0 0.0 0.0
00000000: 0771 e43e 040d 90be 171f 733d 8ecb cebe
00000010: 74be 1bbf 2f9f aa3b 0000 0000 0000 0000
00000020: 0000 0000 0000 0000 0000 0000 0000 0000

naim.embeddings.10.embeddings.weight f4 [2, 6]
0.093592644 0.101174 0.2607391 0.25462672 0.012208771 0.45206082 0.0 0.0
0.0 0.0 0.0 0.0
00000000: 80ad bf3d 5034 cf3d 987f 853e 6f5e 823e
00000010: 4c07 483c 8474 e73e 0000 0000 0000 0000
00000020: 0000 0000 0000 0000 0000 0000 0000 0000

naim.embeddings.11.embeddings.weight f4 [2, 6]
0.1779848 -0.11922138 -0.49328288 -0.50941175 -0.034790386 -0.27723956 0.0 0.0
0.0 0.0 0.0 0.0
00000000: a641 363e 572a f4bd 938f fcbe cf68 02bf
00000010: 5d80 0ebd 58f2 8dbe 0000 0000 0000 0000
00000020: 0000 0000 0000 0000 0000 0000 0000 0000

naim.embeddings.12.embeddings.weight f4 [2, 6]
0.15881236 -0.22972186 0.07933857 0.4392287 0.48915747 0.106915325 0.0 0.0
0.0 0.0 0.0 0.0
00000000: b59f 223e 353c 6bbe 437c a23d 96e2 e03e
00000010: d972 fa3e 6cf6 da3d 0000 0000 0000 0000
00000020: 0000 0000 0000 0000 0000 0000 0000 0000

naim.embeddings.13.embeddings.weight f4 [2, 6]
-0.26057267 -0.107419975 -0.3019969 0.66370136 -0.20134497 0.31550816 0.0 0.0
0.0 0.0 0.0 0.0
00000000: c869 85be 01ff dbbd 569f 9abe 55e8 293f
00000010: 602d 4ebe 498a a13e 0000 0000 0000 0000
00000020: 0000 0000 0000 0000 0000 0000 0000 0000

naim.embeddings.14.embeddings.weight f4 [2, 6]
0.18635699 0.66175026 -0.1543998 0.0819908 0.616798 0.0152500905 0.0 0.0
0.0 0.0 0.0 0.0
00000000: 5ed4 3e3e 7768 293f fb1a 1ebe cbea a73d
00000010: 79e6 1d3f 84db 793c 0000 0000 0000 0000
00000020: 0000 0000 0000 0000 0000 0000 0000 0000

naim.embeddings.15.embeddings.weight f4 [2, 6]
-0.6239571 0.34905744 0.081919946 -0.3005613 -0.2026056 0.5588942 0.0 0.0
0.0 0.0 0.0 0.0
00000000: a7bb 1fbf a8b7 b23e a5c5 a73d 2ce3 99be
00000010: d877 4fbe b113 0f3f 0000 0000 0000 0000
00000020: 0000 0000 0000 0000 0000 0000 0000 0000

naim.embeddings.16.embeddings.weight f4 [2, 6]
0.52692914 0.09980143 0.06991148 -0.33354828 0.1406633 0.40424755 0.0 0.0
0.0 0.0 0.0 0.0
00000000: d4e4 063f b164 cc3d c02d 8f3d d7c6 aabe
00000010: 0a0a 103e 89f9 ce3e 0000 0000 0000 0000
00000020: 0000 0000 0000 0000 0000 0000 0000 0000

naim.embeddings.17.embeddings.weight f4 [2, 6]
0.12220229 0.17984402 0.13401425 -0.5078904 0.31316113 -0.29360455 0.0 0.0
0.0 0.0 0.0 0.0
00000000: 3245 fa3d 0829 383e 083b 093e 1b05 02bf
00000010: a856 a03e 5653 96be 0000 0000 0000 0000
00000020: 0000 0000 0000 0000 0000 0000 0000 0000

naim.embeddings.18.embeddings.weight f4 [2, 6]
-0.56191283 -0.48792627 -0.3052372 0.5618401 -0.031067304 -0.019591933 0.0 0.0
0.0 0.0 0.0 0.0
00000000: 85d9 0fbf 79d1 f9be 0d48 9cbe c1d4 0f3f
00000010: dc80 febc 437f a0bc 0000 0000 0000 0000
00000020: 0000 0000 0000 0000 0000 0000 0000 0000

naim.embeddings.19.embeddings.weight f4 [2, 6]
0.5426656 -0.2833017 0.2753766 -0.2158343 -0.11195575 0.09147518 0.0 0.0
0.0 0.0 0.0 0.0
00000000: 22ec 0a3f ec0c 91be 29fe 8c3e ab03 5dbe
00000010: 0e49 e5bd 5757 bb3d 0000 0000 0000 0000
00000020: 0000 0000 0000 0000 0000 0000 0000 0000

naim.embeddings.20.embeddings.weight f4 [2, 6]
0.28517953 0.1470958 -0.34063083 -0.4890972 -0.12530775 0.24111913 0.0 0.0
0.0 0.0 0.0 0.0
00000000: 0d03 923e 48a0 163e 2a67 aebe f36a fabe
00000010: ad50 00be efe7 763e 0000 0000 0000 0000
00000020: 0000 0000 0000 0000 0000 0000 0000 0000

naim.embeddings.21.embeddings.weight f4 [2, 6]
0.06789847 -0.005315163 0.12540369 -0.045119427 0.026783885 -0.1480726 0.0 0.0
0.0 0.0 0.0 0.0
00000000: 5a0e 8b3d d22a aebb d369 003e 26cf 38bd
00000010: e169 db3c 58a0 17be 0000 0000 0000 0000
00000020: 0000 0000 0000 0000 0000 0000 0000 0000

naim.embeddings.22.embeddings.weight f4 [2, 6]
0.35225493 -0.26354444 -0.039701253 0.5764975 0.43093 -0.21421625 0.0 0.0
0.0 0.0 0.0 0.0
00000000: c25a b43e 4cef 86be c89d 22bd 5795 133f
00000010: dba2 dc3e 815b 5bbe 0000 0000 0000 0000
00000020: 0000 0000 0000 0000 0000 0000 0000 0000

naim.embeddings.23.embeddings.weight f4 [2, 6]
0.21518789 0.0058604334 -0.36761463 0.84578705 -0.05571368 -0.26814967 0.0 0.0
0.0 0.0 0.0 0.0
00000000: 375a 5c3e e108 c03b fc37 bcbe 8085 583f
00000010: 0734 64bd ea4a 89be 0000 0000 0000 0000
00000020: 0000 0000 0000 0000 0000 0000 0000 0000

naim.embeddings.24.embeddings.weight f4 [2, 6]
0.011764846 0.17235039 -0.1907129 0.40997306 -0.85735244 0.05438238 0.0 0.0
0.0 0.0 0.0 0.0
00000000: 57c1 403c 9f7c 303e 3e4a 43be fde7 d13e
00000010: 737b 5bbf 0fc0 5e3d 0000 0000 0000 0000
00000020: 0000 0000 0000 0000 0000 0000 0000 0000

naim.embeddings.25.embeddings.weight f4 [2, 6]
0.37127244 -0.1501702 0.7570168 0.47688323 0.09901271 0.060197454 0.0 0.0
0.0 0.0 0.0 0.0
00000000: 6c17 be3e 38c6 19be dacb 413f 0a2a f43e
00000010: 2dc7 ca3d 9b91 763d 0000 0000 0000 0000
00000020: 0000 0000 0000 0000 0000 0000 0000 0000

naim.embeddings.26.embeddings.weight f4 [2, 6]
0.16458605 -0.49763924 -0.5222024 0.3247725 0.44011953 0.33756688 0.0 0.0
0.0 0.0 0.0 0.0
00000000: 3f89 283e 92ca febe 0eaf 05bf 9548 a63e
00000010: 5957 e13e 91d5 ac3e 0000 0000 0000 0000
00000020: 0000 0000 0000 0000 0000 0000 0000 0000

naim.embeddings.27.embeddings.weight f4 [2, 6]
-0.0909295 0.3971598 -0.53808147 -0.54953754 -0.14179814 0.04230219 0.0 0.0
0.0 0.0 0.0 0.0
00000000: 3f39 babd 8858 cb3e b5bf 09bf 7eae 0cbf
00000010: 8833 11be 1045 2d3d 0000 0000 0000 0000
00000020: 0000 0000 0000 0000 0000 0000 0000 0000

naim.embeddings.28.embeddings.weight f4 [2, 6]
-0.19517149 0.227547 -0.22190487 -0.3403463 0.13913389 -0.07047771 0.0 0.0
0.0 0.0 0.0 0.0
00000000: 09db 47be 1502 693e 083b 63be df41 aebe
00000010: 1d79 0e3e 9e56 90bd 0000 0000 0000 0000
00000020: 0000 0000 0000 0000 0000 0000 0000 0000

naim.embeddings.29.embeddings.weight f4 [2, 6]
-0.5558791 -0.0141454805 0.667498 -0.2250874 0.082570754 -0.36814296 0.0 0.0
0.0 0.0 0.0 0.0
00000000: 184e 0ebf 72c2 67bc 26e1 2a3f 507d 66be
00000010: db1a a93d 3c7d bcbe 0000 0000 0000 0000
00000020: 0000 0000 0000 0000 0000 0000 0000 0000

naim.embeddings.30.embeddings.weight f4 [2, 6]
-0.12775138 0.2707674 0.35454845 -0.31257188 -0.05875743 -0.40838704 0.0 0.0
0.0 0.0 0.0 0.0
00000000: 42d1 02be 06a2 8a3e 6087 b53e 6c09 a0be
00000010: a2ab 70bd 1b18 d1be 0000 0000 0000 0000
00000020: 0000 0000 0000 0000 0000 0000 0000 0000

naim.embeddings.31.embeddings.weight f4 [2, 6]
0.40928647 -0.2638132 -0.042910345 -0.11024365 -0.27747566 -0.30400583 0.0 0.0
0.0 0.0 0.0 0.0
00000000: ff8d d13e 8612 87be c2c2 2fbd 6cc7 e1bd
00000010: 4a11 8ebe a7a6 9bbe 0000 0000 0000 0000
00000020: 0000 0000 0000 0000 0000 0000 0000 0000

naim.embeddings.32.embeddings.weight f4 [2, 6]
0.084268756 0.3319093 -0.35912666 -0.78023964 0.31124696 -0.18168044 0.0 0.0
0.0 0.0 0.0 0.0
00000000: 1995 ac3d 04f0 a93e 73df b7be c9bd 47bf
00000010: c35b 9f3e 700a 3abe 0000 0000 0000 0000
00000020: 0000 0000 0000 0000 0000 0000 0000 0000

naim.embeddings.33.embeddings.weight f4 [2, 6]
-0.18726112 -0.17551543 -0.42988494 -0.24894366 -0.34285676 0.73806083 0.0 0.0
0.0 0.0 0.0 0.0
00000000: 61c1 3fbe 51ba 33be e119 dcbe 16eb 7ebe
00000010: ec8a afbe 8ef1 3c3f 0000 0000 0000 0000
00000020: 0000 0000 0000 0000 0000 0000 0000 0000

naim.embeddings.34.embeddings.weight f4 [2, 6]
-0.1896554 0.1379906 0.5362589 -0.039664593 -0.2908769 0.054141782 0.0 0.0
0.0 0.0 0.0 0.0
00000000: 0635 42be 684d 0d3e 4348 093f 5777 22bd
00000010: d1ed 94be c6c3 5d3d 0000 0000 0000 0000
00000020: 0000 0000 0000 0000 0000 0000 0000 0000

naim.embeddings.35.embeddings.weight f4 [2, 6]
0.20411475 -0.19130865 0.3580858 0.34393463 0.42672384 -0.5631779 0.0 0.0
0.0 0.0 0.0 0.0
00000000: 7503 513e 6ae6 43be 0657 b73e 3318 b03e
00000010: 8c7b da3e 6d2c 10bf 0000 0000 0000 0000
00000020: 0000 0000 0000 0000 0000 0000 0000 0000

naim.embeddings.36.embeddings.weight f4 [2, 6]
-0.16968916 0.42290407 -0.54087204 0.028176265 0.005243299 0.10328343 0.0 0.0
0.0 0.0 0.0 0.0
00000000: ffc2 2dbe e286 d83e 9776 0abf e9d1 e63c
00000010: fbcf ab3b 4386 d33d 0000 0000 0000 0000
00000020: 0000 0000 0000 0000 0000 0000 0000 0000

naim.embeddings.37.embeddings.weight f4 [2, 6]
0.005436973 -0.36686304 -0.14275698 -0.0636178 0.23074634 0.11840627 0.0 0.0
0.0 0.0 0.0 0.0
00000000: a328 b23b 79d5 bbbe e32e 12be 0d4a 82bd
00000010: c548 6c3e fd7e f23d 0000 0000 0000 0000
00000020: 0000 0000 0000 0000 0000 0000 0000 0000

naim.embeddings.38.embeddings.weight f4 [2, 6]
0.04136559 -0.07351443 -0.006975376 0.32890078 -0.143675 0.16726281 0.0 0.0
0.0 0.0 0.0 0.0
00000000: f76e 293d bc8e 96bd b291 e4bb af65 a83e
00000010: 8a1f 13be f146 2b3e 0000 0000 0000 0000
00000020: 0000 0000 0000 0000 0000 0000 0000 0000

naim.embeddings.39.embeddings.weight f4 [2, 6]
-0.043961573 -0.29340777 0.5286466 -0.6580588 0.21028326 0.3555984 0.0 0.0
0.0 0.0 0.0 0.0
00000000: 0d11 34bd 8b39 96be 6255 073f 8b76 28bf
00000010: 7f54 573e fe10 b63e 0000 0000 0000 0000
00000020: 0000 0000 0000 0000 0000 0000 0000 0000

naim.embeddings.40.embeddings.weight f4 [2, 6]
-0.10484864 0.24418683 0.14110968 -0.14508076 -0.074051656 -0.34881967 0.0 0.0
0.0 0.0 0.0 0.0
00000000: e2ba d6bd 1d0c 7a3e 0e7f 103e 0d90 14be
00000010: 65a8 97bd 7e98 b2be 0000 0000 0000 0000
00000020: 0000 0000 0000 0000 0000 0000 0000 0000

naim.embeddings.41.embeddings.weight f4 [2, 6]
-0.13717045 -0.21844088 0.35373333 0.20767911 0.41935682 0.5968178 0.0 0.0
0.0 0.0 0.0 0.0
00000000: 6976 0cbe f7ae 5fbe 891c b53e d5a9 543e
00000010: f0b5 d63e 0dc9 183f 0000 0000 0000 0000
00000020: 0000 0000 0000 0000 0000 0000 0000 0000

naim.embeddings.42.embeddings.weight f4 [2, 6]
-0.32874364 0.7506762 0.24885748 0.421419 0.12435402 -0.15748543 0.0 0.0
0.0 0.0 0.0 0.0
00000000: 1651 a8be 512c 403f 7fd4 7e3e 3bc4 d73e
00000010: 52ad fe3d dc43 21be 0000 0000 0000 0000
00000020: 0000 0000 0000 0000 0000 0000 0000 0000

naim.embeddings.43.embeddings.weight f4 [2, 6]
-0.25236183 0.026408875 0.6867936 0.5015912 0.3942931 -0.09065039 0.0 0.0
0.0 0.0 0.0 0.0
00000000: 9235 81be 6d57 d83c b5d1 2f3f 4868 003f
00000010: c9e0 c93e e9a6 b9bd 0000 0000 0000 0000
00000020: 0000 0000 0000 0000 0000 0000 0000 0000

naim.embeddings.44.embeddings.weight f4 [2, 6]
-0.03430083 0.31476343 0.2213732 -0.35956052 0.14581326 0.52792466 0.0 0.0
0.0 0.0 0.0 0.0
00000000: 077f 0cbd ac28 a13e a8af 623e 5118 b8be
00000010: 1250 153e 1226 073f 0000 0000 0000 0000
00000020: 0000 0000 0000 0000 0000 0000 0000 0000

naim.embeddings.45.embeddings.weight f4 [2, 6]
-0.4725357 -0.63766515 -0.28948453 0.17017281 -0.46467495 -0.16990352 0.0 0.0
0.0 0.0 0.0 0.0
00000000: 33f0 f1be 063e 23bf 5137 94be c841 2e3e
00000010: e0e9 edbe 30fb 2dbe 0000 0000 0000 0000
00000020: 0000 0000 0000 0000 0000 0000 0000 0000

naim.embeddings.46.embeddings.weight f4 [2, 6]
-0.07791222 0.084545575 0.28641307 -0.09249813 0.13897485 0.21189345 0.0 0.0
0.0 0.0 0.0 0.0
00000000: 7190 9fbd 3b26 ad3d bca4 923e a96f bdbd
00000010: 6c4f 0e3e 99fa 583e 0000 0000 0000 0000
00000020: 0000 0000 0000 0000 0000 0000 0000 0000

naim.embeddings.47.embeddings.weight f4 [2, 6]
0.33407754 -0.11068356 -0.49316317 -0.26267204 0.29558247 -0.3117054 0.0 0.0
0.0 0.0 0.0 0.0
00000000: 360c ab3e 10ae e2bd e27f fcbe f37c 86be
00000010: 9656 973e da97 9fbe 0000 0000 0000 0000
00000020: 0000 0000 0000 0000 0000 0000 0000 0000

naim.embeddings.48.embeddings.weight f4 [2, 6]
0.024779603 0.26558086 0.07963747 0.3322875 0.69825935 0.37433025 0.0 0.0
0.0 0.0 0.0 0.0
00000000: 98fe ca3c 37fa 873e f818 a33d 9621 aa3e
00000010: 20c1 323f 37a8 bf3e 0000 0000 0000 0000
00000020: 0000 0000 0000 0000 0000 0000 0000 0000

naim.embeddings.49.embeddings.weight f4 [2, 6]
-0.257333 0.25835603 0.30192944 -0.13042222 -0.3885857 0.41961786 0.0 0.0
0.0 0.0 0.0 0.0
00000000: 27c1 83be 3e47 843e 7f96 9a3e 678d 05be
00000010: b4f4 c6be 27d8 d63e 0000 0000 0000 0000
00000020: 0000 0000 0000 0000 0000 0000 0000 0000

naim.embeddings.50.embeddings.weight f4 [2, 6]
0.55643934 0.40673083 -0.11576713 -0.1839601 -0.11998965 -0.58462435 0.0 0.0
0.0 0.0 0.0 0.0
00000000: cf72 0e3f 063f d03e 5117 edbd 0960 3cbe
00000010: 22bd f5bd f1a9 15bf 0000 0000 0000 0000
00000020: 0000 0000 0000 0000 0000 0000 0000 0000

naim.embeddings.51.embeddings.weight f4 [2, 6]
0.05722707 0.17960845 0.56064963 -0.68161607 0.37585655 -0.1499682 0.0 0.0
0.0 0.0 0.0 0.0
00000000: ef66 6a3d 47eb 373e bc86 0f3f 647e 2ebf
00000010: 4570 c03e 4491 19be 0000 0000 0000 0000
00000020: 0000 0000 0000 0000 0000 0000 0000 0000

naim.embeddings.52.embeddings.weight f4 [2, 6]
0.3280626 -0.24623199 -0.24303545 -0.23163477 0.117844135 -0.36830178 0.0 0.0
0.0 0.0 0.0 0.0
00000000: d2f7 a73e 3d24 7cbe 49de 78be aa31 6dbe
00000010: 4458 f13d 0d92 bcbe 0000 0000 0000 0000
00000020: 0000 0000 0000 0000 0000 0000 0000 0000

naim.embeddings.53.embeddings.weight f4 [2, 6]
-0.26653057 -0.17965557 0.1581109 -0.048677795 0.9179907 0.00077789265 0.0 0.0
0.0 0.0 0.0 0.0
00000000: b276 88be a1f7 37be d3e7 213e 5e62 47bd
00000010: 7001 6b3f 7eeb 4b3a 0000 0000 0000 0000
00000020: 0000 0000 0000 0000 0000 0000 0000 0000

naim.embeddings.54.embeddings.weight f4 [2, 6]
0.19520178 0.5451266 0.41602904 0.21034107 -0.6302554 0.11925806 0.0 0.0
0.0 0.0 0.0 0.0
00000000: fae2 473e 6b8d 0b3f c201 d53e a663 573e
00000010: 6b58 21bf 923d f43d 0000 0000 0000 0000
00000020: 0000 0000 0000 0000 0000 0000 0000 0000

naim.embeddings.55.embeddings.weight f4 [2, 6]
0.32766587 -0.32893416 -0.5780377 0.57300127 -0.10408164 -0.1685365 0.0 0.0
0.0 0.0 0.0 0.0
00000000: d2c3 a73e 0f6a a8be 47fa 13bf 36b0 123f
00000010: c128 d5bd d594 2cbe 0000 0000 0000 0000
00000020: 0000 0000 0000 0000 0000 0000 0000 0000

naim.embeddings.56.embeddings.weight f4 [2, 6]
-0.39386484 -0.46686587 0.2015823 -0.07623097 -0.42909828 -0.05363391 0.0 0.0
0.0 0.0 0.0 0.0
00000000: a7a8 c9be 0b09 efbe 976b 4e3e fc1e 9cbd
00000010: c5b2 dbbe 3baf 5bbd 0000 0000 0000 0000
00000020: 0000 0000 0000 0000 0000 0000 0000 0000

naim.embeddings.57.embeddings.weight f4 [2, 6]
0.44925028 -0.33835888 -0.21535529 0.27316418 0.72566307 -0.01874389 0.0 0.0
0.0 0.0 0.0 0.0
00000000: 2204 e63e 603d adbe 1986 5cbe 2ddc 8b3e
00000010: 0ec5 393f c98c 99bc 0000 0000 0000 0000
00000020: 0000 0000 0000 0000 0000 0000 0000 0000

naim.embeddings.58.embeddings.weight f4 [2, 6]
-0.12606238 0.023924446 0.03836059 -0.04856001 0.09758252 -0.26201728 0.0 0.0
0.0 0.0 0.0 0.0
00000000: 7f16 01be 33fd c33c fe1f 1d3d dce6 46bd
00000010: 58d9 c73d 2127 86be 0000 0000 0000 0000
00000020: 0000 0000 0000 0000 0000 0000 0000 0000

naim.embeddings.59.embeddings.weight f4 [2, 6]
0.32649046 -0.18737008 -0.2630184 0.70445436 0.28579912 0.43437737 0.0 0.0
0.0 0.0 0.0 0.0
00000000: c229 a73e f1dd 3fbe 59aa 86be 1f57 343f
00000010: 4354 923e b666 de3e 0000 0000 0000 0000
00000020: 0000 0000 0000 0000 0000 0000 0000 0000

naim.embeddings.60.embeddings.weight f4 [2, 6]
-0.5459228 -0.05899111 0.057019033 0.5275065 0.27432117 0.3876324 0.0 0.0
0.0 0.0 0.0 0.0
00000000: 99c1 0bbf aaa0 71bd ca8c 693d aa0a 073f
00000010: d373 8c3e c177 c63e 0000 0000 0000 0000
00000020: 0000 0000 0000 0000 0000 0000 0000 0000

naim.embeddings.61.embeddings.weight f4 [2, 6]
-0.2290544 0.04463116 0.13842772 -0.0763603 0.2372565 -0.121169105 0.0 0.0
0.0 0.0 0.0 0.0
00000000: 3d8d 6abe 2acf 363d ffbf 0d3e ca62 9cbd
00000010: 5ef3 723e 8227 f8bd 0000 0000 0000 0000
00000020: 0000 0000 0000 0000 0000 0000 0000 0000

naim.embeddings.62.embeddings.weight f4 [2, 6]
0.28501293 0.1572418 -0.6990351 -0.064945474 -0.3847885 -0.46815002 0.0 0.0
0.0 0.0 0.0 0.0
00000000: 37ed 913e ff03 213e f7f3 32bf 2202 85bd
00000010: 0003 c5be 5cb1 efbe 0000 0000 0000 0000
00000020: 0000 0000 0000 0000 0000 0000 0000 0000

naim.embeddings.63.embeddings.weight f4 [2, 6]
0.75532395 0.33329841 -0.3192398 0.17722428 -0.21528988 -0.1588472 0.0 0.0
0.0 0.0 0.0 0.0
00000000: e95c 413f 17a6 aa3e 6673 a3be 487a 353e
00000010: f374 5cbe d7a8 22be 0000 0000 0000 0000
00000020: 0000 0000 0000 0000 0000 0000 0000 0000

naim.encoder.0.layer_norm_1.weight f4 [6]
0.99472266 0.9857169 0.9871139 0.9908027 0.98998314 0.99236023
00000000: 25a6 7e3f f157 7c3f 7fb3 7c3f 3fa5 7d3f
00000010: 896f 7d3f 520b 7e3f

naim.encoder.0.layer_norm_1.bias f4 [6]
0.003088258 -0.00032643048 -0.00303215 0.0043627173 0.0061761197 -0.006153724
00000000: 5f64 4a3b c224 abb9 09b7 46bb 20f5 8e3b
00000010: 0c61 ca3b 2ea5 c9bb

naim.encoder.0.attn.linear_q.weight f4 [6, 6]
-0.09149747 0.027129292 -0.09549787 -0.38487792 -0.031450164 0.18600763 -0.039684195 -0.18694222
0.0082630925 0.071845986 -0.104638115 -0.30606163 -0.20430823 -0.053138457 0.13257673 0.34914717
0.0007676728 0.13575602 0.22497128 -0.16512021 -0.12370143 0.25705734 0.27770495 0.08284784
-0.30087796 0.21733363 -0.3235655 0.1923996 0.03848268 0.120801724 -0.38367742 -0.12935747
0.15923387 0.30015337 -0.10290635 0.34965596
00000000: 0763 bbbd 403e de3c 6394 c3bd b80e c5be
00000010: e3d1 00bd c978 3e3e e58b 22bd c86d 3fbe
00000020: ec61 073c fd23 933d 824c d6bd 1cb4 9cbe
00000030: 2d36 51be b6a7 59bd 32c2 073e 6bc3 b23e
00000040: a63d 493a a003 0b3e df5e 663e 4615 29be
00000050: 2d57 fdbd 059d 833e 582f 8e3e 21ac a93d
00000060: ad0c 9abe b58c 5e3e 61aa a5be 6704 453e
00000070: 04a0 1d3d e566 f73d 5e71 c4be 4976 04be
00000080: 340e 233e b4ad 993e 90c0 d2bd 1b06 b33e

naim.encoder.0.attn.linear_k.weight f4 [6, 6]
-0.080364615 -0.23141639 -0.16150945 0.018154537 -0.058074918 0.1849644 -0.21212444 -0.10455413
-0.39097005 0.3203886 -0.064844154 -0.30760145 -0.013405761 0.0034731869 0.099656545 -0.0394108
0.24247308 -0.12680757 -0.10807763 -0.085745834 0.06197033 0.3153378 -0.022928463 0.29961357
0.306305 -0.19785698 -0.027711213 -0.17973678 0.15534133 -0.12860902 0.11130558 0.020092553
-0.25507998 -0.26329643 -0.38555315 -0.21400337
00000000: 3496 a4bd 6bf8 6cbe bc62 25be d3b8 943c
00000010: f7df 6dbd 4f67 3d3e 2637 59be 7a20 d6bd
00000020: 3a2d c8be f909 a43e 03cd 84bd f07d 9dbe
00000030: d6a3 5bbc 689e 633b bb18 cc3d 386d 21bd
00000040: dd4a 783e d8d9 01be ce57 ddbd 839b afbd
00000050: 9ad4 7d3d f573 a13e 79d4 bbbc f366 993e
00000060: 02d4 9c3e 059b 4abe a002 e3bc eb0c 38be
00000070: cc11 1f3e 15b2 03be 2ef4 e33d 2399 a43c
00000080: d899 82be cace 86be 3967 c5be b323 5bbe

naim.encoder.0.attn.linear_v.weight f4 [6, 6]
0.11078212 0.01813261 0.3021107 -0.3543467 -0.01905744 -0.35695913 -0.0011524635 0.14250696
-0.36869204 0.36297184 -0.12657508 0.36333504 -0.0681466 0.22750583 0.36308587 -0.14237878
-0.090976246 0.20643415 -0.35096803 0.23513193 -0.2588468 0.38185772 -0.26951027 -0.16321704
0.30876064 -0.18199459 0.3396128 0.28300822 0.37653223 -0.3996994 0.0018839434 -0.13545115
0.09179268 -0.30322853 0.16204074 -0.020462576
00000000: bce1 e23d d78a 943c 41ae 9a3e ee6c b5be
00000010: 591e 9cbc 59c3 b6be 420e 97ba 58ed 113e
00000020: 34c5 bcbe 72d7 b93e e69c 01be 0d07 ba3e
00000030: 7290 8bbd 4af7 683e 64e6 b93e becb 11be
00000040: c151 babd 7963 533e 15b2 b3be 6dc6 703e
00000050: 9187 84be db82 c33e 40fd 89be 5e22 27be
00000060: e015 9e3e ca5c 3abe bbe1 ad3e 74e6 903e
00000070: d5c8 c03e 66a5 ccbe a7ee f63a b5b3 0abe
00000080: cdfd bb3d c540 9bbe 02ee 253e 22a1 a7bc

naim.encoder.0.attn.linear_o.weight f4 [6, 6]
-0.17915529 -0.3531845 0.19942448 -0.13395184 0.28706378 0.05960338 0.110185 -0.048279386
-0.042981956 -0.12467161 -0.33931288 0.24251662 -0.25157934 0.24276114 -0.13227208 0.26074752
0.35494253 -0.24426256 0.33783585 0.012719274 -0.30686396 0.16822675 0.23331624 0.35970515
-0.38907087 0.36390123 0.30380392 0.39557004 0.21725005 -0.1994481 0.30633774 0.37019944
-0.15786976 -0.068207756 0.31656387 0.32510695
00000000: 7c74 37be 99d4 b4be ee35 4c3e ac2a 09be
00000010: 06fa 923e ac22 743d aca8 e13d 9bc0 45bd
00000020: d90d 30bd d453 ffbd 6bba adbe 4756 783e
00000030: 02cf 80be 6096 783e 5572 07be b380 853e
00000040: 07bb b53e f71f 7abe d2f8 ac3e 8064 503c
00000050: 461d 9dbe a243 2c3e 74ea 6e3e 462b b83e
00000060: 4c34 c7be 4351 ba3e 308c 9b3e 2888 ca3e
00000070: cc76 5e3e 1f3c 4cbe 4dd8 9c3e c88a bd3e
00000080: 9ca8 21be 82b0 8bbd a914 a23e 6b74 a63e

naim.encoder.0.layer_norm_2.weight f4 [6]
0.9970792 0.9994703 0.9982277 0.9937445 0.9944827 0.9926136
00000000: 9540 7f3f 49dd 7f3f da8b 7f3f 0a66 7e3f
00000010: 6b96 7e3f ed1b 7e3f

naim.encoder.0.layer_norm_2.bias f4 [6]
0.000384841 0.0019812677 0.00158051 -0.0006294934 -0.0014827964 -0.0002450834
00000000: 7cc4 c939 28d8 013b 1e29 cf3a 9604 25ba
00000010: 645a c2ba 8a7e 80b9

naim.encoder.0.ff.0.weight f4 [1000, 6]
0.25605375 0.30102253 -0.20118624 -0.06704591 -0.15030617 0.20453103 0.09182716 -0.30222657
-0.04491052 -0.32062796 -0.37057212 0.360411 -0.19197835 0.1716339 -0.08579786 -0.07303093
0.004853823 0.30544284 -0.045422304 0.32394642 0.22561097 0.265272 -0.35585272 -0.17654143
-0.32379305 -0.0855451 -0.07843774 0.084217854 0.35112384 0.17916827 -0.27413926 -0.24389616
0.2947669 0.02997755 0.1051456 -0.20692746 -0.044165738 0.11190623 -0.2549898 0.25436693
0.19305018 -0.22731471 -0.15441136 -0.08570645 0.054399334 -0.13796566 0.37591463 -0.37894922
-0.21886764 -0.23523255 0.09998016 0.050672863 -0.104557686 0.3372211 -0.3379563 0.1336155
-0.21189877 -0.087915786 -0.37960178 -0.2899913 -0.33364666 0.16687636 -0.14023602 0.20291947
-0.21114518 -0.08968564 0.043066166 0.3290783 -0.10116971 0.2254645 0.10166009 0.23472865
0.251611 0.15659282 -0.111702435 -0.11087598 0.151607 0.21264528 -0.013553137 0.19074453
-0.23276478 0.2167153 -0.040434133 -0.266404 -0.18406916 -0.29683298 0.07250252 -0.22949046
-0.10328101 -0.018463006 -0.23547879 0.01050159 -0.044820994 0.11728906 0.2798628 -0.23271506
0.20892671 -0.011426096 -0.21890412 -0.17049472 0.090344094 0.07156239 -0.012879698 -0.1938473
0.19121929 0.06238555 -0.38179132 -0.059995458 -0.10083717 -0.16092466 -0.21192576 -0.31829402
0.3883973 -0.3588801 0.36795908 -0.30918294 -0.08463881 -0.15392329 -0.2093727 0.13831556
0.22484691 -0.2549209 -0.17656553 0.195093 -0.039545357 0.094038695 0.20009449 -0.1371167
-0.2123737 0.13828807 -0.13781175 -0.25737396 -0.19259816 -0.17904161 0.3917229 0.07188878
0.1613071 0.046998926 -0.26161626 0.28089878 -0.05329019 -0.09527815 0.31957132 -0.19427691
0.07746094 -0.33427918 0.19965832 0.1537591 -0.322117 0.21598716 0.039351102 -0.20279288
0.3336849 0.16287574 0.1361612 -0.14229189 -0.21450266 -0.20769744 0.1424904 0.10018739
-0.23024753 0.36142147 0.22390775 -0.14271013 0.19642521 -0.15833965 0.11399457 0.32588297
-0.3487545 -0.18826488 -0.018017277 0.056500293 -0.32200631 -0.25761247 -0.03235474 -0.04749731
0.08423465 0.043598473 0.072323434 0.020019805 0.03986261 -0.015524378 0.13296755 0.26506546
-0.19164704 -0.20086752 0.16645008 -0.28084576 0.2519651 0.17810683 0.053759582 -0.16648138
0.01484192 -0.3084324 -0.3534619 0.36970472 -0.35292652 -0.324896 -0.14545393 0.016576795
0.08717538 -0.18797874 -0.040335733 -0.07994025 0.32960382 0.3396595 0.154261 -0.008932589
0.2923958 -0.3158124 0.15593259 -0.22280484 0.30415592 -0.34696457 0.13854909 -0.32136032
0.22473763 0.06355766 0.33611256 -0.29437816 0.2491435 -0.25832784 -0.2074323 0.14263633
-0.05835578 -0.30928057 -0.33348835 -0.093269005 0.099088214 0.3443782 0.28662196 0.00523896
-0.23621896 -0.35021654 0.35022864 -0.21522371 -0.06478462 -0.31798303 -0.2687767 0.075993344
-0.08797602 0.03286537 -0.0039364793 0.010765556 -0.06788732 -0.009726311 0.1634307 0.28407925
0.33108422 -0.31945297 -0.3302729 -0.050579254 -0.026848746 0.21126601 0.3700662 0.10022641
00000000: 7a19 833e a01f 9a3e c403 4ebe 5e4f 89bd
00000010: dce9 19be 9570 513e e10f bc3d 71bd 9abe
00000020: 18f4 37bd 5929 a4be a1bb bdbe ca87 b83e
00000030: f995 44be ccc0 2f3e cab6 afbd 3d91 95bd
00000040: d20c 9f3b 0163 9c3e bd0c 3abd 4edc a53e
00000050: 9006 673e bbd1 873e 5432 b6be 47c7 34be
00000060: 34c8 a5be 4532 afbd f7a3 a0bd 697a ac3d
00000070: 81c6 b33e e377 373e fb5b 8cbe eabf 79be
00000080: b0eb 963e 7b93 f53c 9456 d73d cbe4 53be
00000090: 22e7 34bd 182f e53d 068e 82be 623c 823e
000000a0: f2ae 453e 30c5 68be 031e 1ebe dd86 afbd
000000b0: d6d1 5e3d df46 0dbe e277 c03e a205 c2be
000000c0: d71e 60be cde0 70be 66c2 cc3d 598e 4f3d
000000d0: 5722 d6bd 3ea8 ac3e 9c08 adbe 80d2 083e
000000e0: fefb 58be 310d b4bd 2a5b c2be bd79 94be
000000f0: bcd3 aabe a3e1 2a3e 089a 0fbe 1fca 4f3e
00000100: 7136 58be 1bad b7bd 2666 303d f37c a83e
00000110: 1132 cfbd 2ae0 663e 2a33 d03d b55c 703e
00000120: 28d3 803e de59 203e 3fc4 e4bd f212 e3bd
00000130: de3e 1b3e afbf 593e fa0d 5ebc 8952 433e
00000140: e459 6ebe 9eea 5d3e 439e 25bd 1b66 88be
00000150: a07c 3cbe 7efa 97be 347c 943d 8cff 6abe
00000160: ff84 d3bd bb3f 97bc 5a21 71be dc0e 2c3c
00000170: 3896 37bd 3f35 f03d 2d4a 8f3e db4c 6ebe
00000180: e2f0 553e 8534 3bbc 6728 60be 2b96 2ebe
00000190: 5306 b93d 4d8f 923d 5e05 53bc e87f 46be
000001a0: fdce 433e fe87 7f3d 277a c3be ccbd 75bd
000001b0: b883 cebd 6fc9 24be 1103 59be 6ff7 a2be
000001c0: 03dc c63e 22bf b7be 2265 bc3e 3a4d 9ebe
000001d0: 1d57 adbd 119e 1dbe cc65 56be 98a2 0d3e
000001e0: 453e 663e fe84 82be 98cd 34be 76c6 473e
000001f0: 50fa 21bd 5c97 c03d 92e5 4c3e 5268 0cbe
00000200: 7e78 59be 639b 0d3e 861e 0dbe 85c6 83be
00000210: 7438 45be af56 37be e78f c83e 6d3a 933d
00000220: b02d 253e f281 403d 91f2 85be f7d1 8f3e
00000230: d046 5abd 3121 c3bd da9e a33e 87f0 46be
00000240: d7a3 9e3d a426 abbe 3b73 4c3e 0773 1d3e
00000250: 85ec a4be bd2b 5d3e 9f2e 213d f0a8 4fbe
00000260: bfd8 aa3e e6c8 263e d76d 0b3e f7b4 11be
00000270: 96a6 5bbe a3ae 54be 01e9 113e 0c2f cd3d
00000280: 02c6 6bbe 3c0c b93e 1348 653e 9b22 12be
00000290: b123 493e ca23 22be fc75 e93d 22da a63e
000002a0: f38f b2be 82c8 40be f898 93bc da6c 673d
000002b0: 03de a4be c8e5 83be 6786 04bd 8a8c 42bd
000002c0: 3783 ac3d 5094 323d 4f1e 943d 9300 a43c
000002d0: fa46 233d f659 7ebc a528 083e a9b6 873e
000002e0: 1f3f 44be 37b0 4dbe e471 2a3e 04cb 8fbe
000002f0: 9201 813e a361 363e 0233 5c3d 187a 2abe
00000300: 862b 733c daea 9dbe f5f8 b4be f049 bd3e
00000310: c9b2 b4be c558 a6be e0f1 14be 0fcc 873c
00000320: 0189 b23d 807d 40be 1537 25bd b7b7 a3bd
00000330: d5c1 a83e dae7 ad3e 98f6 1d3e fe59 12bc
00000340: e7b4 953e 2ab2 a1be cbac 1f3e f426 64be
00000350: 53ba 9b3e 57a5 b1be d0df 0d3e 5789 a4be
00000360: 9f21 663e 852a 823d f216 ac3e bcb8 96be
00000370: 791f 7f3e 8c43 84be 2269 54be 420f 123e
00000380: 7806 6fbd 065a 9ebe fcbe aabe d203 bfbd
00000390: c3ee ca3d 5752 b03e 1dc0 923e 95ab ab3b
000003a0: 62e3 71be 954f b3be 2b51 b33e 9b63 5cbe
000003b0: cdad 84bd acce a2be 1a9d 89be 66a2 9b3d
000003c0: c62c b4bd d79d 063d 95fd 80bb 0462 303c
000003d0: 8208 8bbd 1b5b 1fbc 615a 273e d672 913e
000003e0: df83 a93e 578f a3be 8819 a9be 312c 4fbd
000003f0: e7f1 dbbc 1e56 583e 5179 bd3e 8143 cd3d

naim.encoder.0.ff.0.bias f4 [1000]
0.2459113 -0.1996842 -0.04954793 0.03456838 0.27321658 0.17198446 0.38224033 -0.20585032
-0.029072516 -0.03037967 0.3202586 0.37290308 0.09856492 -0.31532177 -0.28239763 0.06757258
-0.34652865 -0.13222307 -0.2919517 0.20087038 -0.042858917 -0.30605942 0.25502807 -0.34761155
-0.040194023 0.3819648 0.19684848 -0.34065604 0.038107637 -0.05604121 0.16931544 0.36502
0.33512035 -0.036126524 0.17894064 -0.38691145 0.31107092 0.20701233 -0.27262592 -0.10897022
-0.1446174 -0.22545357 0.15995188 -0.1058308 0.16062438 -0.11015835 0.30497417 -0.14753133
-0.06808409 -0.11501606 0.018068427 -0.13703117 -0.273363 -0.37357113 0.24188666 0.051323313
-0.2482645 0.2032763 0.041595735 -0.13660504 -0.02986972 0.03899713 0.27905166 -0.3606739
-0.3019745 -0.31483072 -0.30649686 0.0009920058 0.2158063 0.1000745 0.16291672 0.045806084
-0.003915968 -0.35626248 0.35159993 0.3818141 0.0026018869 0.06978891 0.06461966 0.3912053
-0.0024283906 -0.054958377 -0.21480882 0.097888306 0.17827499 -0.33021015 0.13091804 0.09656081
0.1744775 0.17875434 -0.09577854 0.054110456 -0.27491614 0.23785758 -0.32964382 -0.3467575
-0.28893507 -0.21588553 0.018662278 0.25776365 -0.04346431 0.28097397 -0.059471983 0.3328379
0.2702594 0.24898572 0.1531698 -0.2643913 0.3876209 -0.37674034 -0.27239987 -0.23260947
-0.092749745 0.1664889 0.07879477 -0.33700898 0.38306612 0.37232402 0.18717977 -0.38498253
0.21900843 0.10634079 -0.041076124 -0.32779363 0.3327644 -0.109898545 -0.31764907 0.30192092
0.15132052 0.110767655 0.25167248 0.13345951 -0.08022932 -0.06210612 0.32464918 -0.010887479
-0.32777214 -0.26770014 -0.29492843 0.04148416 0.28586632 0.23274888 0.10033718 0.13453843
-0.18183285 0.37201184 0.1453504 -0.24231811 -0.25852883 -0.3516964 -0.1017549 0.28811377
0.023029028 -0.17887633 0.11015518 -0.2685859 0.11431226 0.2671364 0.1907204 -0.11778754
-0.130288 0.16553201 0.23276992 -0.08988463 0.005657366 -0.04073009 -0.037895646 -0.3490418
-0.32169458 0.3361479 -0.18354538 0.29001307 0.24428797 -0.055168428 -0.18765178 0.009955505
-0.06153656 -0.2285669 0.3831056 -0.030197313 -0.05393506 -0.26320842 0.05998914 0.05238132
0.39057988 -0.11367119 0.2196157 0.020796994 0.20920716 0.0063078417 -0.057100832 0.15231338
-0.16909443 0.23815411 -0.327836 -0.27958485 0.37622225 -0.14020468 -0.31035885 -0.28498104
0.3828874 -0.054817624 -0.32911354 -0.053455457 -0.18443851 -0.25845686 -0.19030318 0.29750264
0.15142575 0.22789508 0.03137695 -0.15664965 -0.15635177 -0.25967932 -0.28129655 -0.33808994
0.06802815 0.20662174 0.32563984 -0.007320099 -0.04830855 -0.024345541 0.1519717 -0.05866412
-0.13454092 -0.104323685 -0.3849528 -0.30044234 -0.16107108 0.03468756 -0.24288796 0.14819688
-0.20936552 0.3816909 -0.34666023 0.21756737 -0.19961795 -0.13268626 -0.3669204 -0.3655548
-0.37354553 -0.006936763 0.3612137 0.17654529 0.24407746 0.08507135 -0.14316587 -0.14611234
-0.10750306 -0.36766878 0.2135529 -0.11638875 -0.22129118 0.10156258 -0.00013355905 0.21108343
00000000: 2cd0 7b3e 047a 4cbe c5f2 4abd 9397 0d3d
00000010: 0be3 8b3e b21c 303e 01b5 c33e 6dca 52be
00000020: 7c29 eebc c9de f8bc eff8 a33e 27ed be3e
00000030: 68dc c93d db71 a1be 6c96 90be 7e63 8a3d
00000040: 346c b1be 7c65 07be b17a 95be f7b0 4d3e
00000050: d58c 2fbd d2b3 9cbe 0a93 823e 24fa b1be
00000060: 7da2 24bd e490 c33e a692 493e 786a aebe
00000070: c116 1c3d 788b 65bd 0761 2d3e e7e3 ba3e
00000080: e594 ab3e 68f9 13bd 373c 373e 4219 c6be
00000090: b044 9f3e 0afb 533e a095 8bbe c72b dfbd
000000a0: 9516 14be 4ddd 66be 6dca 233e d2bd d8bd
000000b0: b87a 243e b39a e1bd 9325 9c3e 7412 17be
000000c0: ac6f 8bbd 8a8d ebbd 3d04 943c e651 0cbe
000000d0: 3cf6 8bbe b744 bfbe 23b1 773e 6538 523d
000000e0: 0d39 7ebe aa27 503e 4a60 2a3d 31e2 0bbe
000000f0: 58b1 f4bc 74bb 1f3d dcdf 8e3e 40aa b8be
00000100: 679c 9abe 7e31 a1be 28ed 9cbe 3106 823a
00000110: 54fc 5c3e dcf3 cc3d a4d3 263e 299f 3b3d
00000120: 8551 80bb 0968 b6be e804 b43e 237d c33e
00000130: 6b84 2a3b 7ded 8e3d 5057 843d 104c c83e
00000140: a225 1fbb 091c 61bd d8f6 5bbe aa79 c83d
00000150: b88d 363e 4e11 a9be 610f 063e adc1 c53d
00000160: 3baa 323e 610b 373e 8a27 c4bd eda2 5d3d
00000170: cfc1 8cbe f090 733e 13c7 a8be 338a b1be
00000180: 4cef 93be 1911 5dbe a2e1 983c 99f9 833e
00000190: a207 32bd d2db 8f3e e598 73bd bb69 aa3e
000001a0: 715f 8a3e 1df6 7e3e 8bd8 1c3e 4c5e 87be
000001b0: 3f76 c63e 1ce4 c0be ff77 8bbe 2d31 6ebe
000001c0: 94f3 bdbd 117c 2a3e 275f a13d 718c acbe
000001d0: 3e21 c43e 41a1 be3e 0eac 3f3e 6e1c c5be
000001e0: bf43 603e 33c9 d93d 703f 28bd 91d4 a7be
000001f0: 1860 aa3e 7d12 e1bd e6a2 a2be 6195 9a3e
00000200: c4f3 1a3e 27da e23d 37db 803e 9ca9 083e
00000210: 454f a4bd fd62 7ebd 6b38 a63e 6661 32bc
00000220: c0d1 a7be fe0f 89be dc00 97be 4beb 293d
00000230: 125d 923e b955 6e3e 947d cd3d 71c4 093e
00000240: 6432 3abe 5678 be3e bcd6 143e 3d22 78be
00000250: e45d 84be 8d11 b4be df64 d0bd a683 933e
00000260: 5fa7 bc3c 5b2b 37be 0a99 e13d 1784 89be
00000270: 8c1c ea3d 1ac6 883e 354c 433e 983a f1bd
00000280: 386a 05be 3981 293e 3d5b 6e3e 6f15 b8bd
00000290: 6d61 b93b 98d4 26bd 7738 1bbd 9bb5 b2be
000002a0: 27b5 a4be 941b ac3e 52f3 3bbe 987c 943e
000002b0: a026 7a3e 4af8 61bd ca27 40be 6a1c 233c
000002c0: c30d 7cbd 710d 6abe 6b26 c43e 5b60 f7bc
000002d0: 02eb 5cbd 41c3 86be 2cb7 753d cc8d 563d
000002e0: 16fa c73e 71cc e8bd f0e2 603e 755e aa3c
000002f0: 673a 563e 03b2 ce3b 90e2 69bd 0af8 1b3e
00000300: 1727 2dbe acde 733e 1fda a7be bf25 8fbe
00000310: 34a0 c03e d191 0fbe 5be7 9ebe 09e9 91be
00000320: d109 c43e 7288 60bd 9281 a8be 1cf4 5abd
00000330: 73dd 3cbe 7554 84be d6de 42be 4452 983e
00000340: 5a0f 1b3e 545d 693e 1e85 003d c468 20be
00000350: ae1a 20be b0f4 84be 1a06 90be 201a adbe
00000360: 5852 8b3d a694 533e 44ba a63e 71dd efbb
00000370: 30df 45bd 4d70 c7bc 789e 1b3e ca49 70bd
00000380: 18c5 09be a8a7 d5bd 8918 c5be 94d3 99be
00000390: d1ef 24be 8b14 0e3d 9fb7 78be ecc0 173e
000003a0: ea63 56be fd6c c33e 737d b1be fbc9 5e3e
000003b0: a668 4cbe e8de 07be fedc bbbe 002a bbbe
000003c0: 5c41 bfbe c94d e3bb 01f1 b83e 4ac8 343e
000003d0: 71ef 793e e339 ae3d 139a 12be 799e 15be
000003e0: 902a dcbd 153f bcbe 9dad 5a3e 3a5d eebd
000003f0: 289a 62be 0b00 d03d fc0b 0cb9 4126 583e

naim.encoder.0.ff.3.weight f4 [6, 1000]
-0.019030927 -0.015477199 -0.01007141 -0.0134264445 -0.011251669 0.00026130697 -0.0025318055 -0.018831808
0.01804931 0.01789218 -0.0072933417 -0.008260028 -0.032363713 -0.023137573 -0.0016305922 -0.006608857
0.0071432153 -0.017343378 -0.0072861603 0.0035416088 0.02943951 0.024111813 -0.022235448 -0.0040744725
-0.006304842 -0.0021781994 0.01184227 -0.0120327175 -0.0093970215 -0.031169362 -0.014356386 -0.03159305
0.009404612 -0.028799536 -0.019322874 -0.026230877 0.018888995 -0.013058191 0.020437712 -0.01779334
0.014998727 -0.011856984 -0.028190421 0.023010265 -0.023218933 -0.023525143 0.01533156 -0.0041870438
-0.002576237 0.0299932 -0.025610179 -0.013121049 0.011147227 -0.0075311135 -0.0038952779 -0.008557078
-0.006796303 0.024603842 -0.0067448365 0.010757233 0.019814527 0.020202598 0.0115114 0.019760687
-0.010710682 -0.001712764 -0.014335336 -0.032590844 0.023362473 -0.028472647 -0.022951005 -0.012765107
-0.036393426 -0.02716781 -0.018055087 0.0004436612 -0.026503181 -0.024375962 -0.023239333 -0.025975382
0.006116999 -0.00012207817 0.005678784 0.026608147 -0.014952705 -0.010119884 0.00891376 0.023151414
0.008451299 -0.004276661 0.009778924 -0.03940654 -0.02341561 -0.017138084 -0.033390343 -0.027436117
-0.025049327 0.001984062 0.008034433 -0.004757782 -0.0103210425 -0.00082924595 0.013603088 -0.02364709
0.019717354 0.012461293 -0.013493742 0.020393807 -0.002523704 -0.016416783 0.021219967 0.001167369
0.023321968 -0.011697451 -0.029711135 0.024351213 -0.00067934353 0.01345599 -0.00958467 0.018273447
-0.026327688 0.00083046 0.018830959 -0.006697692 0.026147116 0.0076634344 0.0139083965 0.02734224
-0.0134918485 -0.012779833 0.020157252 -0.018455878 -0.02387991 0.014588241 -0.02977095 -0.017101828
0.010038175 0.0030868954 -0.022353172 -0.010212401 0.019894771 -0.023813168 0.015859244 -0.005526781
-0.010343174 -0.031472325 -0.010107195 0.022698445 -0.016332963 -0.02405001 -0.0064713433 0.020100068
-0.009699097 0.031509034 0.029076919 0.025964195 -0.022341538 -0.029477116 -0.03496005 -0.0077109444
-0.02206083 0.016413232 0.0018663371 0.02021687 -0.031180281 -0.02954834 -0.01535751 0.00379051
0.019231372 -0.0032928174 0.022997433 -0.010599292 -0.005747362 -0.013024743 -0.014998631 -0.0132217435
-0.026283598 -0.010264354 -0.011659904 -0.028827613 -0.024114618 -0.031087318 -0.007722017 -0.026291292
0.026527068 -0.008472856 0.002944462 -0.024899418 0.0010943261 -0.031372663 0.008485844 0.012303836
-0.031814653 0.007408307 0.004752086 -0.01744155 -0.014971492 0.029681824 -0.017842228 0.021055914
0.004860192 0.0057256073 -0.018148959 0.008162274 0.0067456453 0.021933554 -0.032288317 -0.0158215
-0.0013892042 -0.023556713 0.006476298 0.019023675 0.016714664 -0.018566636 0.0069172126 -0.02481426
0.012069026 -0.030150544 -0.029556965 0.008290827 -0.0039342367 0.0037639085 0.026947921 0.023876902
0.013316444 -0.032537762 -0.0073380657 0.002258674 -0.032422632 0.023191035 0.014630012 -0.018107083
-0.006848787 -0.021356538 0.011501564 0.0029761805 -0.011869856 0.016597366 -0.009304324 0.0015505892
0.023684422 -0.01667864 -0.029748062 0.014458536 -0.02087066 0.008315438 -0.013446657 0.019924246
-0.003535194 -0.017720409 -0.023657825 0.01955651 -0.021237776 0.0029529068 0.020154592 -0.026244445
00000000: bfe6 9bbc 1494 7dbc 8e02 25bc 97fa 5bbc
00000010: ec58 38bc 0700 8939 a6ec 25bb 2a45 9abc
00000020: 26dc 933c 9f92 923c fcfc eebb 1255 07bc
00000030: d08f 04bd 028b bdbc 98b9 d5ba 1c8f d8bb
00000040: a211 ea3b b313 8ebc bec0 eebb 561a 683b
00000050: 212b f13c 2386 c53c 1d27 b6bc 2783 85bb
00000060: d998 cebb 1fc0 0ebb 1506 423c e024 45bc
00000070: f7f5 19bc e456 ffbc 0c37 6bbc b767 01bd
00000080: cd15 1a3c 01ed ebbc 014b 9ebc 23e2 d6bc
00000090: 18bd 9a3c 06f2 55bc fd6c a73c 57c3 91bc
000000a0: 38bd 753c cc43 42bc 99ef e6bc 0680 bc3c
000000b0: a235 bebc cdb7 c0bc 3931 7b3c 7833 89bb
000000c0: 16d6 28bb 4db4 f53c 70cc d1bc abf9 56bc
000000d0: dca2 363c 8fc7 f6bb eb47 7fbb fd32 0cbc
000000e0: 86b3 debb ff8d c93c ca03 ddbb 1b3f 303c
000000f0: 1352 a23c eb7f a53c 509a 3c3c 2ae1 a13c
00000100: db7b 2fbc d37e e0ba c2de 6abc fa7d 05bd
00000110: a862 bf3c 783f e9bc bf03 bcbc bd24 51bc
00000120: 4611 15bd 078f debc 43e8 93bc 339b e839
00000130: 331d d9bc 19b0 c7bc 6a60 bebc 53ca d4bc
00000140: 1b71 c83b 1c02 00b9 1815 ba3b 54f9 d93c
00000150: 31fc 74bc dfcd 25bc 050b 123c 09a8 bd3c
00000160: 5177 0a3c 3c23 8cbb c837 203c c168 21bd
00000170: 18d2 bfbc 2b65 8cbc 50c4 08bd b5c1 e0bc
00000180: 3f34 cdbc 0907 023b dba2 033c 2be7 9bbb
00000190: 9719 29bc c161 59ba 7ddf 5e3c 8bb7 c1bc
000001a0: 4a86 a13c 732a 4c3c db14 5dbc ea10 a73c
000001b0: ba64 25bb 7d7c 86bc 7fd5 ad3c 6702 993a
000001c0: b60d bf3c aaa6 3fbc c464 f3bc 327c c73c
000001d0: f915 32ba 8376 5c3c 0509 1dbc 32b2 953c
000001e0: 2aad d7bc 3ab3 593a 6243 9a3c 5078 dbbb
000001f0: 7a32 d63c 8c1d fb3b 0be0 633c d5fc df3c
00000200: ea0c 5dbc 8162 51bc d220 a53c c830 97bc
00000210: cd9f c3bc 8503 6f3c 35e2 f3bc 2219 8cbc
00000220: 2877 243c 834d 4a3b 001e b7bc ea51 27bc
00000230: 5cfa a23c d513 c3bc 3feb 813c 001a b5bb
00000240: 6b76 29bc 20e9 00bd a698 25bc 17f2 b93c
00000250: b5cc 85bc 8704 c5bc 900d d4bb e6a8 a43c
00000260: f6e8 1ebc 9e0f 013d b832 ee3c ddb2 d43c
00000270: 9a05 b7bc fe79 f1bc 4532 0fbd 17ac fcbb
00000280: eab8 b4bc 0b75 863c e29f f43a d99d a53c
00000290: ca6d ffbc 5c0f f2bc 119e 7bbc 346a 783b
000002a0: 1c8b 9d3c 4fcc 57bb 1d65 bc3c a7a8 2dbc
000002b0: 5e54 bcbb bb65 55bc d1bc 75bc 03a0 58bc
000002c0: b350 d7bc d22b 28bc 2f09 3fbc e327 ecbc
000002d0: 058c c5bc d5aa febc f908 fdbb d660 d7bc
000002e0: 4b4f d93c bcd1 0abc e0f7 403b ddf9 cbbc
000002f0: 7e6f 8f3a 9f80 00bd 3608 0b3c 0796 493c
00000300: 1550 02bd 62c1 f23b 63b7 9b3b 95e1 8ebc
00000310: fd4a 75bc 4c27 f33c dd29 92bc 747d ac3c
00000320: 3f42 9f3b e09d bb3b 20ad 94bc 0fbb 053c
00000330: 930a dd3b ffad b33c c140 04bd 179c 81bc
00000340: f515 b6ba 02fa c0bc 2037 d43b 8ad7 9b3c
00000350: 31ed 883c 0f19 98bc c9a9 e23b 4647 cbbc
00000360: 2abd 453c 46fe f6bc 7321 f2bc 40d6 073c
00000370: c5ea 80bb e8ab 763b e3c1 dc3c 7e99 c33c
00000380: 372d 5a3c 5146 05bd 2874 f0bb 4306 143b
00000390: 98cd 04bd 20fb bd3c b8b2 6f3c 4e55 94bc
000003a0: ca6b e0bb e8f3 aebc 0e71 3c3c 060c 433b
000003b0: c979 42bc 33f7 873c 2a71 18bc 243d cb3a
000003c0: d505 c23c a5a1 88bc 35b2 f3bc 7fe3 6c3c
000003d0: f2f8 aabc 7a3d 083c 5e4f 5cbc 2c38 a33c
000003e0: b7ae 67bb 642a 91bc 0ece c1bc f934 a03c
000003f0: d8fa adbc 8e85 413b 3e1b a53c 97fe d6bc

naim.encoder.0.ff.3.bias f4 [6]
-0.031772923 -0.0026699314 -0.016042063 -0.013670727 0.024220044 -0.025141535
00000000: 5324 02bd 04fa 2ebb a56a 83bc 2ffb 5fbc
00000010: 1d69 c63c 9ff5 cdbc

naim.norm.weight f4 [6]
0.9976586 0.994839 0.9984045 0.99273545 0.99617887 0.9932206
00000000: 8e66 7f3f c5ad 7e3f 7097 7f3f e923 7e3f
00000010: 9405 7f3f b543 7e3f

naim.norm.bias f4 [6]
-0.0022406408 -0.0021602663 0.0021629431 -0.0015946964 0.0019520893 -0.002186
00000000: b7d7 12bb 4193 0dbb 2ac0 0d3b 2205 d1ba
00000010: 3fdd ff3a ff42 0fbb

naim.classifier.0.weight f4 [4, 384]
-0.03946755 -0.013994302 -0.020395968 0.010315888 0.030288873 0.005841565 0.00309663 0.02669775
0.03333188 -0.0010392135 -0.036738575 -0.045964703 0.049773972 0.019463321 0.048683435 -0.021995932
0.015915485 -0.029623909 -0.027719656 -0.021642735 0.04719713 0.03534275 -0.030302187 -0.0345109
0.01917133 -0.0096084485 0.003118656 0.0042024977 -0.046988327 0.008982076 0.001938675 -0.033099074
-0.052793503 0.0237261 -0.04434017 -0.025238639 0.03336185 -0.031374972 -0.023759818 -0.030401628
0.02758184 0.013460707 0.007659693 0.017941702 0.012134137 -0.008500376 -0.002199487 -0.03424291
-0.026144564 0.003562945 -0.0085821925 0.015151674 0.026457086 0.03663207 0.046566233 -0.0017981041
0.017771969 -0.038910747 0.031863753 -0.01595606 -0.038042467 -0.037517294 -0.044754338 -0.025802834
0.025526349 -0.04389055 -0.007625682 -0.009951175 0.020205606 -0.018738449 0.024115065 -0.034197327
0.033014216 -0.048688456 -0.03433762 0.015773436 0.005769259 0.037114486 0.028964637 -0.040203467
0.041494362 -0.01536026 -0.0073716827 -0.024026677 -0.0057892827 -0.049687393 0.005881228 0.04032267
-0.012413182 0.04100602 -0.02069023 0.01864291 0.0023815918 -0.01782718 0.051817507 0.0019353591
0.0008246701 -0.0012145207 -0.0037742453 0.04322837 -0.0061220177 0.028100751 0.017523626 0.030878479
-0.04121267 -0.042623244 -0.0184072 -0.012238739 0.05099308 0.052487534 -0.011464863 -0.026611468
-0.002411472 0.01684912 0.01544937 0.012128216 0.035246678 0.00750107 0.043062303 0.009717473
-0.006112216 0.04031188 0.0036764788 0.0042269714 -0.0076271025 0.02751766 -0.0117985 0.042537868
0.025563348 -0.004628215 -0.010790461 0.01909527 -0.050167274 -0.014500036 -0.016800435 -0.0084501915
-0.026603688 -0.020073602 0.026772024 -0.0020117033 -0.03319849 -0.0060253083 0.015321655 -0.018872023
0.046431553 -0.03638628 0.04596571 0.017275892 -0.027281843 -0.050883193 0.021949334 -0.007052992
0.0127514135 0.019402023 -0.032175835 0.007068396 -0.009523555 -0.043261487 0.015047432 0.0079073515
-0.042996198 0.046200708 0.025969416 0.016379029 -0.033258706 -0.033770423 0.025346575 0.027441533
-0.040819865 0.039863557 -0.0015020868 -0.033143405 -0.042029545 -0.012385988 0.029301824 -0.03333157
0.035625707 0.048736528 0.046371505 0.021065656 -0.019631065 -0.027718162 0.030682066 -0.002441023
0.01595648 0.057719626 -0.049076345 -0.009384681 -0.018423682 -0.010492395 0.00091215526 -0.013261273
0.04501559 0.0077972985 -0.018618973 0.05928661 -0.01994757 0.0111724045 0.006928878 -0.036820456
0.031271037 -0.03120556 -0.0445233 0.03926818 0.032511827 -0.021184029 -0.041912574 0.04556829
0.02387842 -0.035598576 -0.04156776 -0.018928787 -0.030169966 -0.0003070804 0.001984151 -0.0475675
0.027418202 0.021685926 -0.0381677 0.03944207 -0.020843795 0.02489931 0.04734633 0.034316026
0.039881658 0.004190037 0.001523765 -0.043797527 -0.03550004 0.0434155 -0.041958757 0.016601427
-0.020598615 0.041399848 0.036504604 -0.010894819 -0.013749893 -0.024104547 0.04989976 -0.03321612
0.01742919 0.024906423 -0.05573237 -0.04168042 -0.02584724 0.001727613 0.034049388 -0.0132553065
-0.023608942 0.031945385 0.043150965 0.02455627 0.046625707 -0.044755965 -0.04389352 0.00578291
00000000: baa8 21bd 5b48 65bc 7215 a7bc f803 293c
00000010: 5f20 f83c 996a bf3b d5f0 4a3b 3db5 da3c
00000020: 0287 083d 3836 88ba 307b 16bd 7c45 3cbd
00000030: cbdf 4b3d 8b71 9f3c 4868 473d d030 b4bc
00000040: 3161 823c d7ad f2bc 5514 e3bc 1b4c b1bc
00000050: c751 413d 8fc3 103d 4b3c f8bc 4d5b 0dbd
00000060: 310d 9d3c c16c 1dbc 5e62 4c3b 1bb5 893b
00000070: d576 40bd 8f29 133c 231b fe3a e592 07bd
00000080: 003e 58bd 3d5d c23c 0a9e 35bd 43c1 cebc
00000090: 6fa6 083d 0b83 00bd f3a3 c2bc d60c f9bc
000000a0: 50f3 e13c 4c8a 5c3c 29fe fa3b 7afa 923c
000000b0: 42ce 463c 2945 0bbc 4525 10bb 4b42 0cbd
000000c0: 202d d6bc 4c80 693b 539c 0cbc ba3e 783c
000000d0: 88bc d83c 820b 163d 3cbc 3e3d 5dae ebba
000000e0: 8596 913c e060 1fbd 9183 023d 48b6 82bc
000000f0: 6bd2 1bbd bcab 19bd 5350 37bd 7760 d3bc
00000100: a21c d13c 94c6 33bd dbe0 f9bb 410a 23bc
00000110: 3a86 a53c 6081 99bc f58c c53c 7f12 0cbd
00000120: ea39 073d 8c6d 47bd 9ba5 0cbd 4b37 813c
00000130: 0d0c bd3b 5c05 183d 3f47 ed3c 64ac 24bd
00000140: fef5 293d 9aa9 7bbc 288e f1bb 98d3 c4bc
00000150: 06b4 bdbb 0285 4bbd 51b7 c03b 6229 253d
00000160: a960 4bbc eef5 273d 8f7e a9bc 04b9 983c
00000170: 7b14 1c3b 4e0a 92bc 983e 543d e0ab fd3a
00000180: ac2e 583a 8d30 9fba 5459 77bb 3b10 313d
00000190: 359b c8bb 8c33 e63c b58d 8f3c ddf4 fc3c
000001a0: 9ece 28bd b695 2ebd b2ca 96bc fe84 48bc
000001b0: 1fde 503d 2bfd 563d 1fd7 3bbc 4b00 dabc
000001c0: c909 1ebb 2a07 8a3c 5b1f 7d3c 6db5 463c
000001d0: d25e 103d 89cb f53b 1962 303d 0936 1f3c
000001e0: fc48 c8bb 121e 253d 14f1 703b 6882 8a3b
000001f0: c6ec f9bb b76c e13c 7f4e 41bc 303c 2e3d
00000200: 3a6a d13c 48a8 97bb 79ca 30bc af6d 9c3c
00000210: 337c 4dbd 8f91 6dbc 11a1 89bc ac72 0abc
00000220: faef d9bc 6571 a4bc 0151 db3c c8d6 03bb
00000230: 24fb 07bd f36f c5bb ae07 7b3c 8099 9abc
00000240: 032f 3e3d c809 15bd 8a46 3c3d 2c86 8d3c
00000250: 2c7e dfbc e56a 50bd 17cf b33c c91c e7bb
00000260: 4eeb 503c fef0 9e3c cfca 03bd 019e e73b
00000270: af08 1cbc f532 31bd 8189 763c d68d 013c
00000280: c81c 30bd f43c 3d3d d0bd d43c 502d 863c
00000290: 483a 08bd db52 0abd 9fa3 cf3c 11cd e03c
000002a0: bb32 27bd f847 233d abe1 c4ba 61c1 07bd
000002b0: 2c27 2cbd 99ee 4abc 610a f03c af86 08bd
000002c0: 43ec 113d f49f 473d 0cf0 3d3d e291 ac3c
000002d0: 54d1 a0bc 3311 e3bc f558 fb3c 92f9 1fbb
000002e0: 2ab7 823c 6a6b 6c3d 4704 49bd 34c2 19bc
000002f0: 43ed 96bc 4be8 2bbc b41d 6f3a cf45 59bc
00000300: 4462 383d 7b80 ff3b d186 98bc 84d6 723d
00000310: 1669 a3bc 760c 373c a40b e33b 0cd1 16bd
00000320: 0f16 003d cda2 ffbc 105e 36bd acd7 203d
00000330: 1f2b 053d 218a adbc 85ac 2bbd d1a5 3a3d
00000340: ad9c c33c d0cf 11bd f542 2abd 8b10 9bbc
00000350: 0127 f7bc a2ff a0b9 8808 023b 24d6 42bd
00000360: 239c e03c afa6 b13c bc55 1cbd 028e 213d
00000370: 9bc0 aabc a3f9 cb3c 3aee 413d f68e 0c3d
00000380: f35a 233d 944c 893b 12b9 c73a 0965 33bd
00000390: 7d68 11bd 74d4 313d f2dc 2bbd b7ff 873c
000003a0: 6dbe a8bc e392 293d da85 153d 2f80 32bc
000003b0: 3b47 61bc e676 c5bc b163 4c3d a00d 08bd
000003c0: a9c7 8e3c 8e08 cc3c a047 64bd 17b9 2abd
000003d0: 97bd d3bc 1371 e23a 5f77 0b3d c92c 59bc
000003e0: 8a67 c1bc 2ad9 023d 11bf 303d 3b2a c93c
000003f0: 99fa 3e3d 0852 37bd b1c9 33bd 917e bd3b

naim.classifier.0.bias f4 [4]
0.03444278 -0.022507777 0.029236192 0.039598484
00000000: df13 0d3d 3b62 b8bc bd80 ef3c 0532 223d
