outputs/2025-03-23/17-22-00/outputs/model_epoch_0.pt (torch, 92062 bytes, 80 tensors)

naim.embeddings.0.embeddings.weight f4 [2, 6]
0.38251784 -0.5818221 -0.342341 0.32930276 0.45539725 0.28313574 0.0 0.0
0.0 0.0 0.0 0.0
00000000: 61d9 c33e 4bf2 14bf 5247 afbe 5f9a a83e
00000010: d429 e93e 2bf7 903e 0000 0000 0000 0000
00000020: 0000 0000 0000 0000 0000 0000 0000 0000

naim.embeddings.1.embeddings.weight f4 [2, 6]
0.06220399 -0.08629152 -0.15799691 0.403538 0.18981431 -0.08311545 0.0 0.0
0.0 0.0 0.0 0.0
00000000: 9cc9 7e3d 9cb9 b0bd f1c9 21be 889c ce3e
00000010: af5e 423e 6f38 aabd 0000 0000 0000 0000
00000020: 0000 0000 0000 0000 0000 0000 0000 0000

naim.embeddings.2.embeddings.weight f4 [2, 6]
0.65120393 0.04676477 -0.017252404 0.57534665 -0.26882616 0.35132965 0.0 0.0
0.0 0.0 0.0 0.0
00000000: 4db5 263f 6a8c 3f3d ea54 8dbc eb49 133f
00000010: 95a3 89be 7be1 b33e 0000 0000 0000 0000
00000020: 0000 0000 0000 0000 0000 0000 0000 0000

naim.embeddings.3.embeddings.weight f4 [2, 6]
0.66593754 -0.5361288 0.050809197 0.49539858 0.14194357 0.009505872 0.0 0.0
0.0 0.0 0.0 0.0
00000000: e27a 2a3f bd3f 09bf 4e1d 503d e2a4 fd3e
00000010: a859 113e 84be 1b3c 0000 0000 0000 0000
00000020: 0000 0000 0000 0000 0000 0000 0000 0000

naim.embeddings.4.embeddings.weight f4 [2, 6]
-0.52546215 -0.28114954 -0.21763359 0.13577284 0.099616624 0.014434428 0.0 0.0
0.0 0.0 0.0 0.0
00000000: b084 06bf d5f2 8fbe 57db 5ebe 0908 0b3e
00000010: cd03 cc3d 617e 6c3c 0000 0000 0000 0000
00000020: 0000 0000 0000 0000 0000 0000 0000 0000

naim.embeddings.5.embeddings.weight f4 [2, 6]
-0.35113415 0.03347143 0.6487919 0.35329503 -0.5704489 0.059371274 0.0 0.0
0.0 0.0 0.0 0.0
00000000: dbc7 b3be 5719 093d 3a17 263f 16e3 b43e
00000010: f008 12bf 4b2f 733d 0000 0000 0000 0000
00000020: 0000 0000 0000 0000 0000 0000 0000 0000

naim.embeddings.6.embeddings.weight f4 [2, 6]
-0.5342815 -0.11368501 -0.124523126 -0.27346814 0.14828184 0.7666968 0.0 0.0
0.0 0.0 0.0 0.0
00000000: acc6 08bf b0d3 e8bd fb05 ffbd 0404 8cbe
00000010: 32d7 173e 3e46 443f 0000 0000 0000 0000
00000020: 0000 0000 0000 0000 0000 0000 0000 0000

naim.embeddings.7.embeddings.weight f4 [2, 6]
-0.39991605 -0.008597468 0.0989458 -0.7016093 -0.053584993 0.5771743 0.0 0.0
0.0 0.0 0.0 0.0
00000000: ccc1 ccbe 65dc 0cbc 18a4 ca3d ab9c 33bf
00000010: f07b 5bbd b2c1 133f 0000 0000 0000 0000
00000020: 0000 0000 0000 0000 0000 0000 0000 0000

naim.embeddings.8.embeddings.weight f4 [2, 6]
0.64801985 -0.13865454 0.26404366 -0.62532634 -0.20846502 0.23365359 0.0 0.0
0.0 0.0 0.0 0.0
00000000: a1e4 253f 75fb 0dbe bb30 873e 6315 20bf
00000010: db77 55be e342 6f3e 0000 0000 0000 0000
00000020: 0000 0000 0000 0000 0000 0000 0000 0000

naim.embeddings.9.embeddings.weight f4 [2, 6]
0.45021376 -0.28237215 0.06176784 -0.40743363 -0.6141649 0.004234765 0.0 0.0
0.0 0.0 0.0 0.0
00000000: 6b82 e63e 1593 90be 4600 7d3d 249b d0be
00000010: e939 1dbf c9c3 8a3b 0000 0000 0000 0000
00000020: 0000 0000 0000 0000 0000 0000 0000 0000

naim.embeddings.10.embeddings.weight f4 [2, 6]
0.09728064 0.1012589 0.26278475 0.2527845 0.013302248 0.45918292 0.0 0.0
0.0 0.0 0.0 0.0
00000000: 123b c73d d360 cf3d b98b 863e f86c 813e
00000010: acf1 593c 061a eb3e 0000 0000 0000 0000
00000020: 0000 0000 0000 0000 0000 0000 0000 0000

naim.embeddings.11.embeddings.weight f4 [2, 6]
0.17915231 -0.1164436 -0.49590877 -0.5136707 -0.035078626 -0.28009644 0.0 0.0
0.0 0.0 0.0 0.0
00000000: b473 373e fb79 eebd c1e7 fdbe ec7f 03bf
00000010: 9bae 0fbd cd68 8fbe 0000 0000 0000 0000
00000020: 0000 0000 0000 0000 0000 0000 0000 0000

naim.embeddings.12.embeddings.weight f4 [2, 6]
0.15906702 -0.2341285 0.081209145 0.44432884 0.4994384 0.11077709 0.0 0.0
0.0 0.0 0.0 0.0
00000000: 77e2 223e 62bf 6fbe fb50 a63d 127f e33e
00000010: 64b6 ff3e 19df e23d 0000 0000 0000 0000
00000020: 0000 0000 0000 0000 0000 0000 0000 0000

naim.embeddings.13.embeddings.weight f4 [2, 6]
-0.26107335 -0.10949719 -0.30289197 0.67130744 -0.20481853 0.32152006 0.0 0.0
0.0 0.0 0.0 0.0
00000000: 68ab 85be 1040 e0bd a814 9bbe ceda 2b3f
00000010: f3bb 51be 479e a43e 0000 0000 0000 0000
00000020: 0000 0000 0000 0000 0000 0000 0000 0000

naim.embeddings.14.embeddings.weight f4 [2, 6]
0.18696491 0.6664994 -0.15686117 0.08197231 0.623084 0.0166427 0.0 0.0
0.0 0.0 0.0 0.0
00000000: bb73 3f3e b49f 2a3f 37a0 20be 19e1 a73d
00000010: 6f82 1f3f 4656 883c 0000 0000 0000 0000
00000020: 0000 0000 0000 0000 0000 0000 0000 0000

naim.embeddings.15.embeddings.weight f4 [2, 6]
-0.636776 0.35376716 0.087176204 -0.3047941 -0.20329674 0.56636405 0.0 0.0
0.0 0.0 0.0 0.0
00000000: c003 23bf f820 b53e 7089 b23d f90d 9cbe
00000010: 052d 50be 3cfd 103f 0000 0000 0000 0000
00000020: 0000 0000 0000 0000 0000 0000 0000 0000

naim.embeddings.16.embeddings.weight f4 [2, 6]
0.5296911 0.099680275 0.0722978 -0.34065858 0.14056736 0.40739027 0.0 0.0
0.0 0.0 0.0 0.0
00000000: d699 073f 2c25 cc3d de10 943d cd6a aebe
00000010: e4f0 0f3e 7595 d03e 0000 0000 0000 0000
00000020: 0000 0000 0000 0000 0000 0000 0000 0000

naim.embeddings.17.embeddings.weight f4 [2, 6]
0.12529327 0.18208854 0.13375625 -0.5150795 0.31792656 -0.29686114 0.0 0.0
0.0 0.0 0.0 0.0
00000000: e14c 003e 6b75 3a3e 66f7 083e 40dc 03bf
00000010: 45c7 a23e 2ffe 97be 0000 0000 0000 0000
00000020: 0000 0000 0000 0000 0000 0000 0000 0000

naim.embeddings.18.embeddings.weight f4 [2, 6]
-0.57035893 -0.49566594 -0.31630167 0.5711146 -0.034560483 -0.018246295 0.0 0.0
0.0 0.0 0.0 0.0
00000000: 0b03 12bf edc7 fdbe 4bf2 a1be 9134 123f
00000010: 4b8f 0dbd 4179 95bc 0000 0000 0000 0000
00000020: 0000 0000 0000 0000 0000 0000 0000 0000

naim.embeddings.19.embeddings.weight f4 [2, 6]
0.5464322 -0.2833195 0.2765 -0.21986821 -0.113582835 0.09217104 0.0 0.0
0.0 0.0 0.0 0.0
00000000: fbe2 0b3f 410f 91be 6891 8d3e 2225 61be
00000010: 1e9e e8bd 2cc4 bc3d 0000 0000 0000 0000
00000020: 0000 0000 0000 0000 0000 0000 0000 0000

naim.embeddings.20.embeddings.weight f4 [2, 6]
0.28715748 0.14981605 -0.34243882 -0.49707234 -0.12733133 0.2424497 0.0 0.0
0.0 0.0 0.0 0.0
00000000: 4e06 933e 6169 193e 2454 afbe 4480 febe
00000010: 2563 02be bc44 783e 0000 0000 0000 0000
00000020: 0000 0000 0000 0000 0000 0000 0000 0000

naim.embeddings.21.embeddings.weight f4 [2, 6]
0.06760379 -0.0024925747 0.12555932 -0.047546063 0.02740272 -0.14666007 0.0 0.0
0.0 0.0 0.0 0.0
00000000: db73 8a3d 775a 23bb 9f92 003e a9bf 42bd
00000010: ab7b e03c 0f2e 16be 0000 0000 0000 0000
00000020: 0000 0000 0000 0000 0000 0000 0000 0000

naim.embeddings.22.embeddings.weight f4 [2, 6]
0.35415116 -0.26757187 -0.039703943 0.5835238 0.4400409 -0.21838145 0.0 0.0
0.0 0.0 0.0 0.0
00000000: 4d53 b53e 2eff 88be 9aa0 22bd d161 153f
00000010: 0a4d e13e 639f 5fbe 0000 0000 0000 0000
00000020: 0000 0000 0000 0000 0000 0000 0000 0000

naim.embeddings.23.embeddings.weight f4 [2, 6]
0.21941274 0.0054238606 -0.37479794 0.8557843 -0.056107443 -0.27099672 0.0 0.0
0.0 0.0 0.0 0.0
00000000: bcad 603e a4ba b13b 84e5 bfbe ae14 5b3f
00000010: ebd0 65bd 15c0 8abe 0000 0000 0000 0000
00000020: 0000 0000 0000 0000 0000 0000 0000 0000

naim.embeddings.24.embeddings.weight f4 [2, 6]
0.012009255 0.17276746 -0.18961376 0.41469154 -0.8698925 0.053621035 0.0 0.0
0.0 0.0 0.0 0.0
00000000: 77c2 443c f4e9 303e 1c2a 42be 7352 d43e
00000010: 46b1 5ebf bba1 5b3d 0000 0000 0000 0000
00000020: 0000 0000 0000 0000 0000 0000 0000 0000

naim.embeddings.25.embeddings.weight f4 [2, 6]
0.37532812 -0.15031032 0.7676729 0.48033237 0.0985575 0.061004538 0.0 0.0
0.0 0.0 0.0 0.0
00000000: 022b c03e f3ea 19be 3686 443f 20ee f53e
00000010: 84d8 c93d e5df 793d 0000 0000 0000 0000
00000020: 0000 0000 0000 0000 0000 0000 0000 0000

naim.embeddings.26.embeddings.weight f4 [2, 6]
0.16722347 -0.50986165 -0.51888514 0.32808557 0.44643295 0.3482507 0.0 0.0
0.0 0.0 0.0 0.0
00000000: a13c 2b3e 4b86 02bf a8d5 04bf d5fa a73e
00000010: dc92 e43e ea4d b23e 0000 0000 0000 0000
00000020: 0000 0000 0000 0000 0000 0000 0000 0000

naim.embeddings.27.embeddings.weight f4 [2, 6]
-0.09145141 0.3922316 -0.5455913 -0.5581511 -0.13256048 0.04343329 0.0 0.0
0.0 0.0 0.0 0.0
00000000: e04a bbbd 95d2 c83e dfab 0bbf fee2 0ebf
00000010: efbd 07be 1be7 313d 0000 0000 0000 0000
00000020: 0000 0000 0000 0000 0000 0000 0000 0000

naim.embeddings.28.embeddings.weight f4 [2, 6]
-0.20090489 0.23504993 -0.21518607 -0.3493541 0.1330354 -0.070122086 0.0 0.0
0.0 0.0 0.0 0.0
00000000: 03ba 4dbe eeb0 703e bd59 5cbe 8ade b2be
00000010: 6f3a 083e 2b9c 8fbd 0000 0000 0000 0000
00000020: 0000 0000 0000 0000 0000 0000 0000 0000

naim.embeddings.29.embeddings.weight f4 [2, 6]
-0.5687772 -0.0137055395 0.68036455 -0.236296 0.092093915 -0.37987152 0.0 0.0
0.0 0.0 0.0 0.0
00000000: 629b 11bf 338d 60bc 5f2c 2e3f 94f7 71be
00000010: bc9b bc3d 857e c2be 0000 0000 0000 0000
00000020: 0000 0000 0000 0000 0000 0000 0000 0000

naim.embeddings.30.embeddings.weight f4 [2, 6]
-0.13372695 0.27032545 0.36245692 -0.32014084 -0.058722787 -0.40671757 0.0 0.0
0.0 0.0 0.0 0.0
00000000: b8ef 08be 1968 8a3e f493 b93e 80e9 a3be
00000010: 4e87 70bd 493d d0be 0000 0000 0000 0000
00000020: 0000 0000 0000 0000 0000 0000 0000 0000

naim.embeddings.31.embeddings.weight f4 [2, 6]
0.42061436 -0.2698111 -0.045811653 -0.118371084 -0.2844339 -0.30443928 0.0 0.0
0.0 0.0 0.0 0.0
00000000: c45a d73e ae24 8abe 00a5 3bbd 8a6c f2bd
00000010: 52a1 91be 77df 9bbe 0000 0000 0000 0000
00000020: 0000 0000 0000 0000 0000 0000 0000 0000

naim.embeddings.32.embeddings.weight f4 [2, 6]
0.093645096 0.33730108 -0.3472985 -0.7931399 0.30229127 -0.18483117 0.0 0.0
0.0 0.0 0.0 0.0
00000000: 00c9 bf3d bab2 ac3e 1cd1 b1be 370b 4bbf
00000010: ecc5 9a3e 6244 3dbe 0000 0000 0000 0000
00000020: 0000 0000 0000 0000 0000 0000 0000 0000

naim.embeddings.33.embeddings.weight f4 [2, 6]
-0.20147437 -0.18828894 -0.4207685 -0.24222657 -0.3472347 0.75105435 0.0 0.0
0.0 0.0 0.0 0.0
00000000: 4c4f 4ebe d1ce 40be f86e d7be 3e0a 78be
00000010: bfc8 b1be 1945 403f 0000 0000 0000 0000
00000020: 0000 0000 0000 0000 0000 0000 0000 0000

naim.embeddings.34.embeddings.weight f4 [2, 6]
-0.18567102 0.13115467 0.54767215 -0.033031397 -0.2980167 0.04700985 0.0 0.0
0.0 0.0 0.0 0.0
00000000: 8b20 3ebe 694d 063e 3e34 0c3f ee4b 07bd
00000010: a595 98be 678d 403d 0000 0000 0000 0000
00000020: 0000 0000 0000 0000 0000 0000 0000 0000

naim.embeddings.35.embeddings.weight f4 [2, 6]
0.21462564 -0.18622547 0.35150796 0.35598257 0.43835983 -0.57497805 0.0 0.0
0.0 0.0 0.0 0.0
00000000: d3c6 5b3e e4b1 3ebe daf8 b33e 5943 b63e
00000010: b370 e03e c331 13bf 0000 0000 0000 0000
00000020: 0000 0000 0000 0000 0000 0000 0000 0000

naim.embeddings.36.embeddings.weight f4 [2, 6]
-0.17493005 0.4292642 -0.5501061 0.026328163 0.0071276096 0.111487925 0.0 0.0
0.0 0.0 0.0 0.0
00000000: dd20 33be 84c8 db3e c1d3 0cbf 29ae d73c
00000010: b98e e93b c853 e43d 0000 0000 0000 0000
00000020: 0000 0000 0000 0000 0000 0000 0000 0000

naim.embeddings.37.embeddings.weight f4 [2, 6]
0.0012651503 -0.36975047 -0.13657404 -0.07314685 0.23419444 0.12561515 0.0 0.0
0.0 0.0 0.0 0.0
00000000: 66d3 a53a ef4f bdbe 11da 0bbe 04ce 95bd
00000010: abd0 6f3e 42a1 003e 0000 0000 0000 0000
00000020: 0000 0000 0000 0000 0000 0000 0000 0000

naim.embeddings.38.embeddings.weight f4 [2, 6]
0.03941657 -0.065981224 -0.0015236043 0.32280222 -0.15326147 0.17742246 0.0 0.0
0.0 0.0 0.0 0.0
00000000: 4573 213d 2a21 87bd adb3 c7ba 5546 a53e
00000010: 93f0 1cbe 3cae 353e 0000 0000 0000 0000
00000020: 0000 0000 0000 0000 0000 0000 0000 0000

naim.embeddings.39.embeddings.weight f4 [2, 6]
-0.045933183 -0.30539697 0.5387353 -0.6627698 0.22072005 0.3525394 0.0 0.0
0.0 0.0 0.0 0.0
00000000: 6f24 3cbd fe5c 9cbe 8eea 093f 48ab 29bf
00000010: 7004 623e 0b80 b43e 0000 0000 0000 0000
00000020: 0000 0000 0000 0000 0000 0000 0000 0000

naim.embeddings.40.embeddings.weight f4 [2, 6]
-0.09700462 0.25231448 0.13387632 -0.15299766 -0.0692171 -0.35261786 0.0 0.0
0.0 0.0 0.0 0.0
00000000: 5caa c6bd 5d2f 813e e016 093e 6bab 1cbe
00000010: b2c1 8dbd 548a b4be 0000 0000 0000 0000
00000020: 0000 0000 0000 0000 0000 0000 0000 0000

naim.embeddings.41.embeddings.weight f4 [2, 6]
-0.14965254 -0.23031221 0.364757 0.21830785 0.42978936 0.60977286 0.0 0.0
0.0 0.0 0.0 0.0
00000000: 843e 19be f7d6 6bbe 6ec1 ba3e 188c 5f3e
00000010: 5a0d dc3e 131a 1c3f 0000 0000 0000 0000
00000020: 0000 0000 0000 0000 0000 0000 0000 0000

naim.embeddings.42.embeddings.weight f4 [2, 6]
-0.33956766 0.76317865 0.2614726 0.43307644 0.12824832 -0.1593966 0.0 0.0
0.0 0.0 0.0 0.0
00000000: d0db adbe ad5f 433f bddf 853e 32bc dd3e
00000010: 8753 033e dd38 23be 0000 0000 0000 0000
00000020: 0000 0000 0000 0000 0000 0000 0000 0000

naim.embeddings.43.embeddings.weight f4 [2, 6]
-0.26410773 0.028311592 0.6991652 0.51445305 0.40270266 -0.09591681 0.0 0.0
0.0 0.0 0.0 0.0
00000000: 2139 87be b6ed e73c 7efc 323f 32b3 033f
00000010: 0b2f ce3e 0870 c4bd 0000 0000 0000 0000
00000020: 0000 0000 0000 0000 0000 0000 0000 0000

naim.embeddings.44.embeddings.weight f4 [2, 6]
-0.033745777 0.31797183 0.2279792 -0.36491072 0.15009455 0.5377034 0.0 0.0
0.0 0.0 0.0 0.0
00000000: 0339 0abd 34cd a23e 6173 693e 94d5 babe
00000010: 63b2 193e eea6 093f 0000 0000 0000 0000
00000020: 0000 0000 0000 0000 0000 0000 0000 0000

naim.embeddings.45.embeddings.weight f4 [2, 6]
-0.48582298 -0.628578 -0.28277692 0.17441817 -0.4761389 -0.17317797 0.0 0.0
0.0 0.0 0.0 0.0
00000000: cabd f8be 7dea 20bf 23c8 90be ad9a 323e
00000010: 7ac8 f3be 9155 31be 0000 0000 0000 0000
00000020: 0000 0000 0000 0000 0000 0000 0000 0000

naim.embeddings.46.embeddings.weight f4 [2, 6]
-0.076536156 0.08606369 0.29031068 -0.09573145 0.14038622 0.21105056 0.0 0.0
0.0 0.0 0.0 0.0
00000000: fdbe 9cbd 2942 b03d 9aa3 943e da0e c4bd
00000010: 68c1 0f3e a31d 583e 0000 0000 0000 0000
00000020: 0000 0000 0000 0000 0000 0000 0000 0000

naim.embeddings.47.embeddings.weight f4 [2, 6]
0.33490667 -0.11707498 -0.5007861 -0.26303464 0.30497742 -0.31136686 0.0 0.0
0.0 0.0 0.0 0.0
00000000: e378 ab3e 02c5 efbd 8533 00bf 7aac 86be
00000010: 0026 9c3e 7a6b 9fbe 0000 0000 0000 0000
00000020: 0000 0000 0000 0000 0000 0000 0000 0000

naim.embeddings.48.embeddings.weight f4 [2, 6]
0.02442017 0.26776704 0.081849426 0.33154497 0.7048639 0.37726364 0.0 0.0
0.0 0.0 0.0 0.0
00000000: cf0c c83c c318 893e aca0 a73d 43c0 a93e
00000010: f671 343f b328 c13e 0000 0000 0000 0000
00000020: 0000 0000 0000 0000 0000 0000 0000 0000

naim.embeddings.49.embeddings.weight f4 [2, 6]
-0.2595766 0.26295367 0.3070805 -0.13347632 -0.39364105 0.42512813 0.0 0.0
0.0 0.0 0.0 0.0
00000000: 39e7 84be dda1 863e a839 9d3e 04ae 08be
00000010: 528b c9be 65aa d93e 0000 0000 0000 0000
00000020: 0000 0000 0000 0000 0000 0000 0000 0000

naim.embeddings.50.embeddings.weight f4 [2, 6]
0.56098956 0.41575658 -0.115799725 -0.18780124 -0.12566137 -0.5893884 0.0 0.0
0.0 0.0 0.0 0.0
00000000: 039d 0f3f 0cde d43e 6828 edbd f84e 40be
00000010: 60ad 00be 28e2 16bf 0000 0000 0000 0000
00000020: 0000 0000 0000 0000 0000 0000 0000 0000

naim.embeddings.51.embeddings.weight f4 [2, 6]
0.05370435 0.18319544 0.56984776 -0.68768424 0.37633285 -0.1490393 0.0 0.0
0.0 0.0 0.0 0.0
00000000: 18f9 5b3d 9697 3b3e 8be1 113f 130c 30bf
00000010: b3ae c03e c29d 18be 0000 0000 0000 0000
00000020: 0000 0000 0000 0000 0000 0000 0000 0000

naim.embeddings.52.embeddings.weight f4 [2, 6]
0.33103475 -0.24716441 -0.24494305 -0.23266289 0.1198834 -0.37367973 0.0 0.0
0.0 0.0 0.0 0.0
00000000: 637d a93e ab18 7dbe 5ad2 7abe 2e3f 6ebe
00000010: 6e85 f53d f352 bfbe 0000 0000 0000 0000
00000020: 0000 0000 0000 0000 0000 0000 0000 0000

naim.embeddings.53.embeddings.weight f4 [2, 6]
-0.2702631 -0.17868486 0.16254924 -0.05065418 0.9295664 -0.00054133055 0.0 0.0
0.0 0.0 0.0 0.0
00000000: ed5f 8abe 2af9 36be 4f73 263e c27a 4fbd
00000010: 10f8 6d3f 14e8 0dba 0000 0000 0000 0000
00000020: 0000 0000 0000 0000 0000 0000 0000 0000

naim.embeddings.54.embeddings.weight f4 [2, 6]
0.20376386 0.55676174 0.415041 0.21093118 -0.64250183 0.12521963 0.0 0.0
0.0 0.0 0.0 0.0
00000000: 79a7 503e f087 0e3f 4180 d43e 58fe 573e
00000010: 007b 24bf 9339 003e 0000 0000 0000 0000
00000020: 0000 0000 0000 0000 0000 0000 0000 0000

naim.embeddings.55.embeddings.weight f4 [2, 6]
0.33534673 -0.33613876 -0.5836816 0.5759195 -0.10241332 -0.16741338 0.0 0.0
0.0 0.0 0.0 0.0
00000000: 91b2 ab3e 611a acbe 286c 15bf 766f 133f
00000010: 13be d1bd 6a6e 2bbe 0000 0000 0000 0000
00000020: 0000 0000 0000 0000 0000 0000 0000 0000

naim.embeddings.56.embeddings.weight f4 [2, 6]
-0.40299028 -0.47224593 0.2038092 -0.07567129 -0.43239793 -0.05411785 0.0 0.0
0.0 0.0 0.0 0.0
00000000: be54 cebe 38ca f1be 5cb3 503e 8df9 9abd
00000010: 4363 ddbe aeaa 5dbd 0000 0000 0000 0000
00000020: 0000 0000 0000 0000 0000 0000 0000 0000

naim.embeddings.57.embeddings.weight f4 [2, 6]
0.45574307 -0.3444578 -0.22157888 0.2799296 0.737225 -0.016023785 0.0 0.0
0.0 0.0 0.0 0.0
00000000: 2857 e93e c65c b0be 93e5 62be ef52 8f3e
00000010: c7ba 3c3f 5044 83bc 0000 0000 0000 0000
00000020: 0000 0000 0000 0000 0000 0000 0000 0000

naim.embeddings.58.embeddings.weight f4 [2, 6]
-0.12166414 0.020518262 0.04038423 -0.048375532 0.09980761 -0.26899606 0.0 0.0
0.0 0.0 0.0 0.0
00000000: 0c2b f9bd ea15 a83c ef69 253d 6c25 46bd
00000010: ef67 cc3d dab9 89be 0000 0000 0000 0000
00000020: 0000 0000 0000 0000 0000 0000 0000 0000

naim.embeddings.59.embeddings.weight f4 [2, 6]
0.32805502 -0.18706031 -0.26915285 0.71323067 0.28881404 0.43853176 0.0 0.0
0.0 0.0 0.0 0.0
00000000: d4f6 a73e bd8c 3fbe 67ce 89be 4996 363f
00000010: 6fdf 933e 3c87 e03e 0000 0000 0000 0000
00000020: 0000 0000 0000 0000 0000 0000 0000 0000

naim.embeddings.60.embeddings.weight f4 [2, 6]
-0.5548511 -0.062048458 0.05971239 0.53613293 0.27920324 0.3903908 0.0 0.0
0.0 0.0 0.0 0.0
00000000: b90a 0ebf 8626 7ebd fb94 743d 0240 093f
00000010: baf3 8e3e 4ee1 c73e 0000 0000 0000 0000
00000020: 0000 0000 0000 0000 0000 0000 0000 0000

naim.embeddings.61.embeddings.weight f4 [2, 6]
-0.23536402 0.048436683 0.14133069 -0.074240185 0.23427191 -0.12149905 0.0 0.0
0.0 0.0 0.0 0.0
00000000: 4403 71be 8b65 463d feb8 103e 3d0b 98bd
00000010: fae4 6f3e 7ed4 f8bd 0000 0000 0000 0000
00000020: 0000 0000 0000 0000 0000 0000 0000 0000

naim.embeddings.62.embeddings.weight f4 [2, 6]
0.2909176 0.15818822 -0.7108462 -0.06573929 -0.38992175 -0.47755048 0.0 0.0
0.0 0.0 0.0 0.0
00000000: 27f3 943e 18fc 213e 04fa 35bf 52a2 86bd
00000010: d3a3 c7be 7f81 f4be 0000 0000 0000 0000
00000020: 0000 0000 0000 0000 0000 0000 0000 0000

naim.embeddings.63.embeddings.weight f4 [2, 6]
0.7672459 0.33576575 -0.3209169 0.17548038 -0.22383226 -0.15640731 0.0 0.0
0.0 0.0 0.0 0.0
00000000: 3a6a 443f 7de9 ab3e 384f a4be 21b1 333e
00000010: 4934 65be 3d29 20be 0000 0000 0000 0000
00000020: 0000 0000 0000 0000 0000 0000 0000 0000

naim.encoder.0.layer_norm_1.weight f4 [6]
1.001166 1.0001125 0.99872524 0.9988397 1.0010657 1.0010961
00000000: 3526 803f b003 803f 75ac 7f3f f5b3 7f3f
00000010: ec22 803f eb23 803f

naim.encoder.0.layer_norm_1.bias f4 [6]
0.0003514009 0.000747952 -0.0011434538 0.0011876401 0.0008531414 -0.0012187181
00000000: 3b3c b839 3612 443a f1df 95ba 97aa 9b3a
00000010: 5aa5 5f3a 65bd 9fba

naim.encoder.0.attn.linear_q.weight f4 [6, 6]
-0.10141389 0.037077695 -0.1080609 -0.39843234 -0.04106057 0.1979202 -0.046897493 -0.20046082
0.011783296 0.07554601 -0.11493786 -0.31533155 -0.21756902 -0.06546885 0.14574674 0.3617653
0.006395832 0.14712355 0.23365808 -0.17675881 -0.13419497 0.2694973 0.29102227 0.095495984
-0.3142288 0.23065872 -0.33612853 0.20278296 0.047207654 0.13277973 -0.39663962 -0.14223765
0.17208213 0.31292737 -0.11557961 0.3627546
00000000: 16b2 cfbd c8de 173d 084f ddbd 53ff cbbe
00000010: 212f 28bd 98ab 4a3e 9617 40bd 9a45 4dbe
00000020: ba0e 413c deb7 9a3d 8a64 ebbd 2373 a1be
00000030: 6aca 5ebe 8814 86bd a23e 153e 4d39 b93e
00000040: 2194 d13b 8ea7 163e 1044 6f3e 4300 35be
00000050: 686a 09be 8dfb 893e df00 953e 6693 c33d
00000060: 99e2 a0be cd31 6c3e 0a19 acbe 56a6 4f3e
00000070: d05c 413d 69f7 073e 5914 cbbe bfa6 11be
00000080: 4c36 303e 0438 a03e 01b5 ecbd f9ba b93e

naim.encoder.0.attn.linear_k.weight f4 [6, 6]
-0.08986981 -0.24495521 -0.17556205 0.026267694 -0.07134172 0.19633615 -0.22465082 -0.1149123
-0.4033008 0.3319546 -0.075562835 -0.32055724 -0.01846979 0.00048575795 0.11269912 -0.045893345
0.25551757 -0.13988253 -0.120932646 -0.095669046 0.07280161 0.32582453 -0.018739037 0.31282684
0.31940424 -0.21127975 -0.03389527 -0.19145516 0.16855694 -0.14226022 0.12490704 0.023186233
-0.26672134 -0.2752443 -0.39746806 -0.22708313
00000000: aa0d b8bd 8ad5 7abe 8ac6 33be 592f d73c
00000010: 9c1b 92bd 580c 493e dd0a 66be 2457 ebbd
00000020: 717d cebe f4f5 a93e b0c0 9abd 1420 a4be
00000030: f54d 97bc 54ad fe39 ccce e63d a9fa 3bbd
00000040: 33d3 823e 5e3d 0fbe 89ab f7bd 22ee c3bd
00000050: 0319 953d 79d2 a63e 9c82 99bc d72a a03e
00000060: f488 a33e b859 58be c4d5 0abd d20c 44be
00000070: 319a 2c3e aaac 11be 43cf ff3d 0ef1 bd3c
00000080: b38f 88be d2ec 8cbe ef80 cbbe 7b88 68be

naim.encoder.0.attn.linear_v.weight f4 [6, 6]
0.11293674 0.023688532 0.30589324 -0.3578342 -0.013092267 -0.36483577 0.0012366034 0.14754175
-0.36740255 0.3617263 -0.12793888 0.36289272 -0.06780645 0.23114286 0.3699027 -0.14742559
-0.09799951 0.21291596 -0.35065264 0.24106097 -0.25757757 0.3803228 -0.2687071 -0.16682081
0.30585 -0.17895696 0.3487698 0.28207687 0.37435097 -0.39693695 0.0035096956 -0.13351224
0.09606045 -0.30708903 0.16623202 -0.020403797
00000000: 614b e73d 740e c23c 0a9e 9c3e 0b36 b7be
00000010: f380 56bc c1cb babe 8615 a23a 2f15 173e
00000020: 301c bcbe 3134 b93e 6902 03be 13cd b93e
00000030: 1cde 8abd b7b0 6c3e e363 bd3e bcf6 16be
00000040: f8b3 c8bd a406 5a3e be88 b3be b0d8 763e
00000050: 35e1 83be acb9 c23e fa93 89be 13d3 2abe
00000060: 5f98 9c3e 7e40 37be f591 b23e 616c 903e
00000070: eeaa bf3e 523b cbbe ec02 663b 6fb7 08be
00000080: 57bb c43d c63a 9dbe ba38 2a3e dd25 a7bc

naim.encoder.0.attn.linear_o.weight f4 [6, 6]
-0.19172089 -0.3659804 0.21224874 -0.14648862 0.2999475 0.07172255 0.12286536 -0.06061787
-0.055253413 -0.13738637 -0.35220283 0.2553645 -0.25586614 0.23915699 -0.1364748 0.25696996
0.35110083 -0.24846739 0.33758515 0.010741825 -0.31113002 0.16722468 0.23189054 0.36036852
-0.3889713 0.3680699 0.30890638 0.40097797 0.2217784 -0.19879666 0.30915442 0.37260228
-0.15661752 -0.06719923 0.3189993 0.32807449
00000000: 7b52 44be c861 bbbe bc57 593e 1d01 16be
00000010: b892 993e 46e3 923d d5a0 fb3d 724a 78bd
00000020: 6751 62bd 03af 0cbe ee53 b4be 23bf 823e
00000030: e300 83be 92e5 743e 0dc0 0bbe 9191 833e
00000040: 7dc3 b33e 3c6e 7ebe f6d7 ac3e 7bfe 2f3c
00000050: 6f4c 9fbe f23c 2b3e b774 6d3e 3982 b83e
00000060: 3f27 c7be a873 bc3e fa28 9e3e fc4c cd3e
00000070: e019 633e 5a91 4bbe 7d49 9e3e bac5 be3e
00000080: 5860 20be c09f 89bd e053 a33e 61f9 a73e

naim.encoder.0.layer_norm_2.weight f4 [6]
1.0011041 1.0011114 0.9989666 0.9987752 0.9992315 1.0004615
00000000: 2e24 803f 6b24 803f 46bc 7f3f bbaf 7f3f
00000010: a3cd 7f3f 1f0f 803f

naim.encoder.0.layer_norm_2.bias f4 [6]
-0.00042453496 -2.3972852e-05 0.00117802 -0.00047953892 -0.0005089449 -0.0009655763
00000000: 1e94 deb9 4f19 c9b7 cb67 9a3a a06a fbb9
00000010: b76a 05ba bb1e 7dba

naim.encoder.0.ff.0.weight f4 [1000, 6]
0.26841393 0.31148553 -0.21045472 -0.06920735 -0.16290626 0.213257 0.10051413 -0.31544563
-0.0522852 -0.33163378 -0.38293827 0.37280938 -0.20487785 0.18094715 -0.09055638 -0.082454
0.0008445406 0.31805643 -0.055236 0.33650687 0.23758242 0.27880844 -0.36895728 -0.18959966
-0.33361655 -0.08756711 -0.08554213 0.083853476 0.36454377 0.18441449 -0.28283513 -0.25476718
0.30699953 0.03956903 0.11416499 -0.21463984 -0.048610575 0.11728905 -0.26663825 0.26516765
0.20226155 -0.2387959 -0.16621917 -0.096661545 0.064520866 -0.14942071 0.38924783 -0.39192286
-0.22950642 -0.24653392 0.11106335 0.056949005 -0.11515693 0.34716913 -0.35110968 0.14479208
-0.22338343 -0.09393645 -0.39187208 -0.3034797 -0.3450892 0.1768553 -0.15201007 0.21444203
-0.2222154 -0.10009832 0.04828162 0.34079272 -0.110902615 0.23693243 0.11194469 0.24719448
0.25899166 0.16478503 -0.12200048 -0.11342519 0.15769914 0.22140403 -0.02221917 0.20335463
-0.24434328 0.22883023 -0.04884356 -0.2796376 -0.19712503 -0.3105219 0.08113531 -0.24084456
-0.115673594 -0.02441551 -0.2479281 0.00929567 -0.050593868 0.12805906 0.29363665 -0.24521793
0.22202827 -0.0077639413 -0.23204182 -0.1838833 0.10264395 0.083729476 -0.011986474 -0.20431569
0.20462292 0.061715752 -0.39561597 -0.07140086 -0.10950095 -0.17378478 -0.22518632 -0.32992435
0.40079373 -0.37159833 0.37822708 -0.32109475 -0.09784211 -0.16595301 -0.21730734 0.1460128
0.23534769 -0.26690245 -0.18911651 0.20718373 -0.048126303 0.1000531 0.21222565 -0.14976034
-0.22534247 0.14941466 -0.14826985 -0.27046302 -0.20467687 -0.18858291 0.4052438 0.077278696
0.17461395 0.053667754 -0.273923 0.29331133 -0.062240764 -0.10446832 0.33141062 -0.20667489
0.08237667 -0.3460226 0.21009712 0.16091084 -0.33440116 0.2266313 0.043748446 -0.21177101
0.34680477 0.17456715 0.14421476 -0.1503832 -0.22261804 -0.21841522 0.15314865 0.10893425
-0.24320063 0.37023187 0.23658821 -0.15485635 0.20996043 -0.17197669 0.12696932 0.33852735
-0.35985583 -0.20183708 -0.021867044 0.061257526 -0.3344607 -0.26937464 -0.037865642 -0.057842184
0.089189656 0.050673857 0.08256355 0.025838701 0.04595503 -0.02235261 0.1453801 0.27735928
-0.20402807 -0.21024637 0.17836878 -0.29428214 0.26423088 0.18934463 0.057848006 -0.17611213
0.013069969 -0.32150248 -0.36599657 0.38315254 -0.3648969 -0.33863634 -0.15730302 0.024014473
0.092272334 -0.1999097 -0.04027121 -0.0900424 0.3403224 0.35303795 0.16662514 -0.0024749066
0.3049005 -0.3283115 0.16930896 -0.23599361 0.31709263 -0.35960108 0.15042509 -0.3343773
0.23702563 0.0734886 0.3490069 -0.30668262 0.2616602 -0.27122357 -0.21908368 0.1539869
-0.06827217 -0.321049 -0.34608716 -0.10547147 0.1117539 0.3573021 0.29896173 0.0069047445
-0.24912125 -0.3626952 0.3634507 -0.22775857 -0.07284721 -0.3281727 -0.28157184 0.0803527
-0.09963491 0.045468643 -0.0043209847 0.019685978 -0.07960658 -0.014787342 0.17616935 0.29696083
0.34377912 -0.33180028 -0.34378782 -0.059838794 -0.029955095 0.22422132 0.38302934 0.10586498
00000000: 8d6d 893e 087b 9f3e 7181 57be 95bc 8dbd
00000010: e6d0 26be 0b60 5a3e 5ada cd3d 1782 a1be
00000020: 0229 56bd e7cb a9be 7c10 c4be dfe0 be3e
00000030: 80cb 51be 364a 393e a075 b9bd a5dd a8bd
00000040: 2964 5d3a 4bd8 a23e 253f 62bd a14a ac3e
00000050: ce48 733e fbbf 8e3e f8e7 bcbe 6a26 42be
00000060: cacf aabe 6356 b3bd b630 afbd 5fbb ab3d
00000070: 7ba5 ba3e 27d7 3c3e c4cf 90be d870 82be
00000080: 0b2f 9d3e 2313 223d 56cf e93d 8cca 5bbe
00000090: e21b 47bd 3e35 f03d cf84 88be 0ec4 873e
000000a0: a71d 4f3e ea86 74be 5c35 2abe 7df6 c5bd
000000b0: 8423 843d be01 19be 7e4b c73e 1daa c8be
000000c0: bb03 6bbe 6373 7cbe 2f75 e33d 5c43 693d
000000d0: 66d7 ebbd 27c0 b13e a6c4 b3be 6044 143e
000000e0: a0be 64be c161 c0bd 75a3 c8be b161 9bbe
000000f0: 88af b0be 8e19 353e 87a8 1bbe b196 5b3e
00000100: 6f8c 63be 5900 cdbd f3c2 453d 627c ae3e
00000110: e920 e3bd 6a9e 723e 4243 e53d 8d20 7d3e
00000120: 8e9a 843e 68bd 283e 63db f9bd 774b e8bd
00000130: e27b 213e bdb7 623e fa04 b6bc 323c 503e
00000140: 2035 7abe 7952 6a3e 2f10 48bd a92c 8fbe
00000150: 25db 49be bafc 9ebe 452a a63d f59f 76be
00000160: 47e6 ecbd 0903 c8bc dde0 7dbe de4c 183c
00000170: 843b 4fbd ea21 033e 8b57 963e 691a 7bbe
00000180: 615b 633e a968 febb 5f9c 6dbe e74b 3cbe
00000190: fe36 d23d 5c7a ab3d ea62 44bc 2238 51be
000001a0: ac88 513e a8c9 7c3d 2d8e cabe 9d3a 92bd
000001b0: 0942 e0bd a3f4 31be 3e97 66be d8eb a8be
000001c0: d634 cd3e 2342 bebe fba6 c13e 8866 a4be
000001d0: 7261 c8bd 96ef 29be d185 5ebe 6184 153e
000001e0: fcfe 703e 70a7 88be c2a7 41be f927 543e
000001f0: 1620 45bd a4e8 cc3d ae51 593e c65a 19be
00000200: 2dc0 66be 2800 193e 0dd4 17be 217a 8abe
00000210: d096 51be e11b 41be 1e7c cf3e 4b44 9e3d
00000220: 00ce 323e b8d2 5b3d a33f 8cbe e72c 963e
00000230: 2cf0 7ebd 7df3 d5bd a7ae a93e 95a2 53be
00000240: 19b5 a83d e029 b1be b323 573e d0c5 243e
00000250: a136 abbe 0912 683e 9231 333d 80da 58be
00000260: 6590 b13e bbc1 323e 09ad 133e 0efe 19be
00000270: fcf5 63be 3da8 5fbe 00d3 1c3e ec18 df3d
00000280: 9609 79be 088f bd3e 2e44 723e aa92 1ebe
00000290: deff 563e a81a 30be 3f04 023e 7553 ad3e
000002a0: 063f b8be 61ae 4ebe 8422 b3bc 2ce9 7a3d
000002b0: 6f3e abbe 79eb 89be 0119 1bbd edeb 6cbd
000002c0: 11a9 b63d 648f 4f3d 1417 a93d afab d33c
000002d0: 573b 3c3d d21c b7bc 85de 143e 0902 8e3e
000002e0: bcec 50be d34a 57be 4ea6 363e 26ac 96be
000002f0: 4549 873e 8fe3 413e 08f2 6c3d bd56 34be
00000300: 6c23 563c f99b a4be e763 bbbe 922c c43e
00000310: c4d3 babe be61 adbe 0b14 21be 00ba c43c
00000320: 47f9 bc3d 21b5 4cbe 6df3 24bd 2668 b8bd
00000330: bd3e ae3e 64c1 b43e c89f 2a3e 0b32 22bb
00000340: eb1b 9c3e 7218 a8be 545f 2d3e 4fa8 71be
00000350: f759 a23e a21d b8be 0909 1a3e 8033 abbe
00000360: d9b6 723e 3181 963d 08b1 b23e 8105 9dbe
00000370: 53f8 853e d1dd 8abe 7957 60be beae 1d3e
00000380: 48d2 8bbd 8960 a4be 5632 b1be 6d01 d8bd
00000390: 3bdf e43d 4df0 b63e 8311 993e 3241 e23b
000003a0: a419 7fbe 2fb3 b9be 3616 ba3e 8b39 69be
000003b0: eb30 95bd 4106 a8be 2f2a 90be f58f a43d
000003c0: 630d ccbd 543d 3a3d 0c97 8dbb 7d44 a13c
000003d0: c608 a3bd 9c46 72bc bd65 343e 400b 983e
000003e0: d103 b03e bae1 a9be f504 b0be 8619 75bd
000003f0: 6364 f5bc 469a 653e 6c1c c43e bdcf d83d

naim.encoder.0.ff.0.bias f4 [1000]
0.2539096 -0.20976378 -0.056595765 0.03797048 0.28316274 0.17876138 0.39273944 -0.21795753
-0.03336476 -0.032818798 0.3315517 0.38545933 0.1018896 -0.32862297 -0.2948525 0.073727176
-0.35836384 -0.14112327 -0.30482015 0.20986886 -0.05570912 -0.31833294 0.26549858 -0.36066693
-0.041026805 0.39316484 0.20352836 -0.35242158 0.0428778 -0.06052933 0.1811403 0.37594315
0.34671998 -0.040107645 0.18701471 -0.39961034 0.3209412 0.21591319 -0.28585297 -0.11679628
-0.15743355 -0.23740429 0.16772778 -0.11778776 0.16962014 -0.122797675 0.31591567 -0.15931875
-0.07188814 -0.12567517 0.019839833 -0.15003721 -0.28544965 -0.38667417 0.25309852 0.0562782
-0.26120558 0.21038087 0.043718494 -0.14820275 -0.027911974 0.04436211 0.29135647 -0.37395227
-0.31556174 -0.3278665 -0.31926355 0.0014515187 0.22715835 0.107402496 0.17269441 0.04828436
-0.006793197 -0.3685482 0.36315432 0.39339805 -0.0013053855 0.07267598 0.075340964 0.40274704
-0.0019701964 -0.06590112 -0.22337872 0.1050697 0.18751547 -0.34329742 0.13846092 0.10132809
0.18220466 0.19016401 -0.10636361 0.05368963 -0.28479692 0.24452363 -0.34218735 -0.3569031
-0.30148217 -0.22652906 0.017022464 0.26867476 -0.052563835 0.29218903 -0.06609892 0.3449814
0.28060615 0.2565936 0.16542473 -0.27583146 0.40029263 -0.38728848 -0.28491232 -0.24541107
-0.10654219 0.1774884 0.08390577 -0.3500442 0.39335072 0.38193133 0.20013241 -0.3986263
0.22686115 0.115244955 -0.04925171 -0.34069642 0.34466138 -0.120787784 -0.33073354 0.31385562
0.15953028 0.1195344 0.26266676 0.14323434 -0.08761766 -0.07034454 0.33670658 -0.013690922
-0.33972016 -0.2809666 -0.3068421 0.03880619 0.2974167 0.24332297 0.107237905 0.13598047
-0.19213408 0.3829409 0.1555798 -0.25617534 -0.27071398 -0.36444986 -0.114856474 0.29930732
0.024468673 -0.19223535 0.113498166 -0.2821052 0.12157056 0.27757937 0.19736682 -0.12307526
-0.13767509 0.17132968 0.2431943 -0.09880553 0.00017429428 -0.044817004 -0.046704825 -0.36102095
-0.3355421 0.34952202 -0.19707744 0.30215484 0.25210583 -0.060843784 -0.1962416 0.012437371
-0.0710067 -0.24094348 0.39615056 -0.031485826 -0.061877947 -0.2753147 0.0656535 0.056381553
0.40135846 -0.12477953 0.22892685 0.020197159 0.21745658 0.006839108 -0.069137886 0.15897104
-0.18058464 0.2469442 -0.34066847 -0.29136765 0.38774854 -0.15272506 -0.3233094 -0.29714218
0.39466003 -0.056004554 -0.3422237 -0.057662375 -0.19773887 -0.27259642 -0.19854501 0.30806044
0.16360706 0.23725612 0.034015667 -0.16942777 -0.1653544 -0.2726996 -0.29365742 -0.3506988
0.07250168 0.21301995 0.33348227 -0.009164274 -0.05826704 -0.034696113 0.16158298 -0.06342696
-0.14448799 -0.11353867 -0.39750826 -0.3144161 -0.17347637 0.039590076 -0.25512978 0.15531568
-0.22340769 0.39378157 -0.3594921 0.22649662 -0.2120666 -0.14346893 -0.38065463 -0.3789015
-0.3850863 -0.006641534 0.37503377 0.18705016 0.25435337 0.09033258 -0.15646647 -0.1578443
-0.12036129 -0.3801368 0.22528955 -0.12246933 -0.22969739 0.10183625 0.0011240268 0.2219504
00000000: 7000 823e 51cc 56be f6d0 67bd ef86 1b3d
00000010: b5fa 903e 390d 373e 2515 c93e 4230 5fbe
00000020: 7da9 08bd 016d 06bd 25c1 a93e ed5a c53e
00000030: 7fab d03d 4541 a8be e8f6 96be 46fe 963d
00000040: 777b b7be 9e82 10be 6311 9cbe dde7 563e
00000050: 3f2f 64bd 89fc a2be 6eef 873e 56a9 b8be
00000060: b90b 28bd e74c c93e bd69 503e 9a70 b4be
00000070: a2a0 2f3d 9aed 77bd d87c 393e 9f7b c03e
00000080: 4885 b13e ea47 24bd c980 3f3e ba99 ccbe
00000090: 6852 a43e 5918 5d3e 525b 92be e332 efbd
000000a0: 4336 21be 1c1a 73be d5c0 2b3e b63a f1bd
000000b0: e7b0 2d3e 597d fbbd b3bf a13e 7424 23be
000000c0: 173a 93bd feb0 00be 2587 a23c 5ba3 19be
000000d0: 7526 92be 28fa c5be 2196 813e f883 663d
000000e0: bdbc 85be 156e 573e 2a12 333d 76c2 17be
000000f0: a7a7 e4bc 0bb5 353d ad2c 953e ac76 bfbe
00000100: 4f91 a1be 1ede a7be 8376 a3be e340 be3a
00000110: 339c 683e d7f5 db3d ced6 303e d2c5 453d
00000120: 7799 debb 5ab2 bcbe 5def b93e 786b c93e
00000130: 7819 abba 25d7 943d 5d4c 9a3d dc34 ce3e
00000140: 691e 01bb 2bf7 86bd 64bd 64be c82e d73d
00000150: 0e04 403e aec4 afbe b3c8 0d3e 1a85 cf3d
00000160: dc93 3a3e 5bba 423e 2ad5 d9bd a8e9 5b3d
00000170: e7d0 91be 6764 7a3e 2e33 afbe 01bc b6be
00000180: df5b 9abe 3cf7 67be b272 8b3c bd8f 893e
00000190: 2d4d 57bd cd99 953e df5e 87bd 67a1 b03e
000001a0: 9cab 8f3e 3d60 833e 1a65 293e c839 8dbe
000001b0: 28f3 cc3e ad4a c6be 07e0 91be 0a4d 7bbe
000001c0: cb32 dabd 85bf 353e cad6 ab3d fe38 b3be
000001d0: 4465 c93e 818c c33e 83ef 4c3e bf18 ccbe
000001e0: 4a4e 683e 8c05 ec3d 29bc 49bd c36f aebe
000001f0: 7577 b03e 965f f7bd e855 a9be afb1 a03e
00000200: e85b 233e 74ce f43d 427c 863e 06ac 123e
00000210: e370 b3bd cc10 90bd ce64 ac3e e44f 60bc
00000220: cdef adbe dbda 8fbe 681a 9dbe 3df3 1e3d
00000230: 0047 983e a829 793e 8c9f db3d 773e 0b3e
00000240: ccbe 44be d410 c43e 5050 1f3e 6a29 83be
00000250: 069b 8abe 2c99 babe df39 ebbd cf3e 993e
00000260: 8772 c83c 58d9 44be ba71 e83d 1870 90be
00000270: fcf9 f83d e21e 8e3e 871a 4a3e e20e fcbd
00000280: b3fa 0cbe 0c71 2f3e ed07 793e 8e5a cabd
00000290: c4c2 3639 0992 37bd 8f4d 3fbd bdd7 b8be
000002a0: 2dcc abbe 8df4 b23e abce 49be 0ab4 9a3e
000002b0: 0414 813e 5537 79bd 8ff3 48be 1dc6 4b3c
000002c0: f66b 91bd e3b9 76be 3fd4 ca3e 48f7 00bd
000002d0: bb73 7dbd 0cf6 8cbe 5875 863d 58f0 663d
000002e0: db7e cd3e 698c ffbd cd6b 6a3e 8374 a53c
000002f0: f0ac 5e3e 991a e03b 2a98 8dbd 4ec9 223e
00000300: 2eeb 38be f1de 7c3e 196c aebe 242e 95be
00000310: fa86 c63e f563 1cbe cf88 a5be 0523 98be
00000320: e110 ca3e 0865 65bd f237 afbe 622f 6cbd
00000330: 0f7c 4abe c291 8bbe 624f 4bbe 19ba 9d3e
00000340: 9c88 273e 45f3 723e 0354 0b3d 797e 2dbe
00000350: aa52 29be 489f 8bbe 445a 96be cb8e b3be
00000360: c37b 943d e721 5a3e 30be aa3e c025 16bc
00000370: 6ba9 6ebd 831d 0ebd 0276 253e fee5 81bd
00000380: a9f4 13be f686 e8bd 3486 cbbe 26fb a0be
00000390: caa3 31be 3429 223d 5fa0 82be 130b 1f3e
000003a0: fcc4 64be bd9d c93e 590f b8be bbee 673e
000003b0: fd27 59be 85e9 12be 2ae5 c2be 61ff c1be
000003c0: 082a c5be 3aa1 d9bb 6d04 c03e 148a 3f3e
000003d0: 9b3a 823e 4a00 b93d bf38 20be f0a1 21be
000003e0: fb7f f6bd 4aa1 c2be 4eb2 663e 33d1 fabd
000003f0: cb35 6bbe 868f d03d 1554 933a f746 633e

naim.encoder.0.ff.3.weight f4 [6, 1000]
-0.01700975 -0.015384676 -0.009628975 -0.010621095 -0.011209441 0.0019645952 -0.0018604198 -0.014447272
0.017994782 0.02144044 -0.0060016816 -0.0069721257 -0.031114986 -0.023032857 -0.0025330523 -0.0049484232
0.010265542 -0.01695047 -0.005452619 0.0035640725 0.02991875 0.025675422 -0.021908762 -0.0016937837
-0.0063795606 -0.001482043 0.0120082535 -0.013855082 -0.007915413 -0.032430608 -0.012196205 -0.031527627
0.0102829365 -0.024817979 -0.014682507 -0.024128528 0.02423056 -0.009909352 0.026321013 -0.016945
0.02268839 -0.007441092 -0.024887038 0.025273435 -0.022559714 -0.019777028 0.017756632 -0.0041424395
-0.0016301937 0.032493956 -0.026240021 -0.012513383 0.011720683 -0.004998237 -3.168835e-05 -0.009766491
-0.0060501816 0.02412268 -0.00698201 0.011593309 0.022734085 0.02332955 0.01457803 0.020762742
-0.009437932 0.0014516596 -0.014699505 -0.031788167 0.02541196 -0.029238965 -0.020557487 -0.012422138
-0.029971357 -0.023712317 -0.017635811 0.002780978 -0.027267104 -0.023889523 -0.019028025 -0.024869578
0.0062673297 0.0013630582 0.005777996 0.0273333 -0.015025688 -0.010639861 0.009140846 0.0286093
0.008976204 -0.0038834356 0.010381371 -0.03166348 -0.022784073 -0.012543054 -0.02958026 -0.024479909
-0.023195714 0.007883913 0.008517757 -0.0018818412 -0.008458273 -0.00023398186 0.019620294 -0.023837566
0.021368666 0.012628085 -0.011142622 0.021040937 -0.0010545502 -0.015622692 0.028365642 0.008128502
0.023961768 -0.009626556 -0.028304927 0.024296716 0.002579313 0.0140520735 -0.0077319806 0.013938531
-0.026178414 -5.9126203e-05 0.022750765 -0.008170811 0.025997631 0.010455122 0.014519436 0.030907404
-0.007574754 -0.0069766464 0.020617276 -0.016961059 -0.024408543 0.019915413 -0.028748224 -0.01614815
0.008730736 0.003429736 -0.020332024 -0.009203329 0.019200735 -0.02024673 0.01699885 -0.0045614936
-0.01033835 -0.031288773 -0.00948271 0.024812836 -0.016372453 -0.026310464 -0.0017697909 0.022860035
-0.009731416 0.03220917 0.029301004 0.029846989 -0.019149328 -0.022548815 -0.028950015 -0.007375327
-0.02175776 0.015917372 0.001763581 0.024079576 -0.030188482 -0.027674364 -0.006928034 0.008885353
0.025370883 -0.0037324498 0.026116561 -0.0077085905 -0.005592987 -0.013344937 -0.014599486 -0.013086168
-0.026145479 -0.0049987477 -0.011623558 -0.021512764 -0.022521522 -0.031068562 -0.008265319 -0.025931902
0.027269289 -0.0073887776 0.007745949 -0.023717636 0.0020645638 -0.028854188 0.0130366115 0.014883597
-0.031937268 0.0135566415 0.0051759006 -0.018519497 -0.015489187 0.029856883 -0.017611856 0.027649546
0.0060080057 0.013540663 -0.016997822 0.009115483 0.0078220535 0.023991037 -0.032421947 -0.012106616
-0.00019709059 -0.022496719 0.0060919677 0.021355655 0.017831609 -0.017454416 0.011777962 -0.02404933
0.018509537 -0.026603753 -0.029781684 0.010167492 -0.0040975665 0.008158306 0.028275577 0.029085781
0.016795663 -0.029818501 -0.0060563986 0.0025104117 -0.03181089 0.026579214 0.019633384 -0.01574384
-0.007751845 -0.018098924 0.010931458 0.004326151 -0.0120321615 0.018055398 -0.007922549 0.0022229925
0.023110768 -0.016013995 -0.030066762 0.015882595 -0.01987856 0.010810364 -0.008772009 0.020855049
-0.0022283874 -0.015541515 -0.023179198 0.020115856 -0.020913117 0.007987447 0.023045022 -0.026525013
00000000: 0858 8bbc 0210 7cbc d9c2 1dbc 1a04 2ebc
00000010: cea7 37bc 70c0 003b 54d9 f3ba 40b4 6cbc
00000020: cb69 933c dda3 af3c c1a9 c4bb 6e76 e4bb
00000030: dbe4 febc 67af bcbc 9101 26bb 6226 a2bb
00000040: ce30 283c b6db 8abc e2ab b2bb 3793 693b
00000050: 2b18 f53c 4355 d23c 017a b3bc f301 deba
00000060: a20b d1bb 1c41 c2ba 44be 443c 6d00 63bc
00000070: a6af 01bc f5d5 04bd 97d2 47bc 1d23 01bd
00000080: c379 283c 134f cbbc e68e 70bc 31a9 c5bc
00000090: 2b7f c63c d65a 22bc 2a9f d73c 3ed0 8abc
000000a0: 01dd b93c 67d4 f3bb e7df cbbc 3c0a cf3c
000000b0: 26cf b8bc 6f03 a2bc 5b76 913c 4dbd 87bb
000000c0: 39ac d5ba 6218 053d 50f5 d6bc ef04 4dbc
000000d0: 1c08 403c 40c8 a3bb 1be9 04b8 a203 20bc
000000e0: 9a40 c6bb ed9c c53c 58c9 e4bb ddf1 3d3c
000000f0: d53c ba3c 9d1d bf3c b1d8 6e3c a016 aa3c
00000100: 8ea1 1abc 9d45 be3a 31d6 70bc 4f34 02bd
00000110: be2c d03c 8e86 efbc 2d68 a8bc 3986 4bbc
00000120: 7e86 f5bc 5540 c2bc fa78 90bc 1241 363b
00000130: 435f dfbc f6b3 c3bc a9e0 9bbc 49bb cbbc
00000140: 2c5e cd3b a5a8 b23a 5855 bd3b 16ea df3c
00000150: 4e2e 76bc d052 2ebc 7dc3 153c 0d5e ea3c
00000160: ee10 133c 3d81 7ebb a016 2a3c 91b1 01bd
00000170: aaa5 babc 6281 4dbc 4d52 f2bc 178a c8bc
00000180: f004 bebc 872b 013c 108e 0b3c 1da8 f6ba
00000190: 9194 0abc 0759 75b9 bdba a03c 0047 c3bc
000001a0: 570d af3c 07e6 4e3c 8b8f 36bc 0b5e ac3c
000001b0: d538 8aba 52f6 7fbc 105f e83c 692d 053c
000001c0: 784b c43c b4b8 1dbc bcdf e7bc e809 c73c
000001d0: b109 293b ab3a 663c 8e5c fdbb 705e 643c
000001e0: 1d74 d6bc 47fe 77b8 d05f ba3c dede 05bc
000001f0: fcf8 d43c f64b 2b3c eee2 6d3c 8631 fd3c
00000200: a435 f8bb 5a9c e4bb 90e5 a83c ebf1 8abc
00000210: 6df4 c7bc a625 a33c 6581 ebbc 2049 84bc
00000220: 5c0b 0f3c 6cc5 603b 588f a6bc 8fc9 16bc
00000230: dc4a 9d3c 78dc a5bc 2c41 8b3c 9578 95bb
00000240: 2f62 29bc a828 00bd 5e5d 1bbc 4a44 cb3c
00000250: 861f 86bc 0b89 d7bc 54f8 e7ba f844 bb3c
00000260: 8470 1fbc c3ed 033d a908 f03c ac81 f43c
00000270: 0ddf 9cbc 4bb8 b8bc 9528 edbc baac f1bb
00000280: 543d b2bc 2665 823c f527 e73a 8842 c53c
00000290: d64d f7bc 59b5 e2bc 9004 e3bb df93 113c
000002a0: 99d6 cf3c 1e9c 74bb 66f2 d53c 5898 fcbb
000002b0: 6045 b7bb b9a4 5abc af32 6fbc 5e67 56bc
000002c0: 0b2f d6bc 89cc a3bb bc70 3ebc 893b b0bc
000002d0: 0e7f b8bc 7f83 febc 436b 07bc 246f d4bc
000002e0: d863 df3c 8f1d f2bb bbd1 fd3b 7d4b c2bc
000002f0: a24d 073b 9e5f ecbc 8397 553c 55da 733c
00000300: a7d0 02bd ad1c 5e3c 9a9a a93b 33b6 97bc
00000310: 5cc6 7dbc 6c96 f43c bd46 90bc 4d81 e23c
00000320: cede c43b a8d9 5d3c 043f 8bbc 1b59 153c
00000330: 1228 003c da88 c43c e0cc 04bd d45a 46bc
00000340: 1aaa 4eb9 0a4b b8bc 219f c73b 0ef2 ae3c
00000350: 9813 923c 90fc 8ebc 5af8 403c 1a03 c5bc
00000360: 50a1 973c 1df0 d9bc b8f8 f3bc 8d95 263c
00000370: e144 86bb 6aaa 053c 2fa2 e73c 4e45 ee3c
00000380: 0f97 893c ee45 f4bc c174 c6bb b885 243b
00000390: 234c 02bd a7bc d93c 31d6 a03c 3af9 80bc
000003a0: 3003 febb 3244 94bc dc19 333c 63c2 8d3b
000003b0: 8b22 45bc eae8 933c 94cd 01bc a0af 113b
000003c0: cb52 bd3c c82f 83bc 924e f6bc 371c 823c
000003d0: 5dd8 a2bc f41d 313c 79b8 0fbc 35d8 aa3c
000003e0: 230a 12bb d7a1 7ebc 4de2 bdbc 02ca a43c
000003f0: fc51 abbc c8dd 023c eac8 bc3c fc4a d9bc

naim.encoder.0.ff.3.bias f4 [6]
-0.030454716 -0.004639531 -0.016198609 -0.012967818 0.025056982 -0.025503878
00000000: 2b7c f9bc 3507 98bb f2b2 84bc f976 54bc
00000010: 4d44 cd3c 82ed d0bc

naim.norm.weight f4 [6]
1.0004383 0.9994899 0.99938965 0.99883056 1.000862 0.99880147
00000000: 5d0e 803f 92de 7f3f 00d8 7f3f 5cb3 7f3f
00000010: 3f1c 803f 74b1 7f3f

naim.norm.bias f4 [6]
-0.0011549789 -0.0012514658 0.0011641877 -0.00087885425 0.0009694022 -0.0011382103
00000000: a962 97ba 3908 a4ba a897 983a e962 66ba
00000010: 7b1f 7e3a 0030 95ba

naim.classifier.0.weight f4 [4, 384]
-0.038406715 -0.015195224 -0.021510893 0.011451319 0.03155698 0.006868729 0.0020689827 0.025678506
0.031483617 0.0006525775 -0.035618745 -0.04535574 0.049774572 0.017760884 0.047878042 -0.020745648
0.01519894 -0.028050832 -0.027987262 -0.02218977 0.05055305 0.036058176 -0.031389985 -0.034883324
0.01800091 -0.010857173 0.0033425852 0.0053571267 -0.045861434 0.010126701 0.00072894193 -0.034530163
-0.05163797 0.024898846 -0.04550922 -0.024135265 0.032191098 -0.032826595 -0.023441272 -0.031004984
0.028861316 0.01462795 0.006443172 0.017310962 0.013405357 -0.009623653 -0.0035363089 -0.033102054
-0.02512428 0.0019851986 -0.0073815747 0.0140128145 0.025378669 0.037982307 0.047748562 -0.0027069324
0.018927725 -0.040160473 0.030695245 -0.014812527 -0.039317496 -0.038570534 -0.04375105 -0.024721477
0.02445712 -0.042782053 -0.0071808714 -0.009086544 0.01990195 -0.019640908 0.02470785 -0.032468714
0.031172212 -0.04968603 -0.033782844 0.016749721 0.0066690613 0.036893144 0.027761988 -0.041355096
0.041237973 -0.014400643 -0.008503475 -0.022887103 -0.00766345 -0.048800334 0.00508363 0.03959908
-0.011361988 0.040421933 -0.021892482 0.019467583 0.0038345775 -0.018665114 0.050916612 0.00303753
0.0011315767 -0.004291402 -0.0022547073 0.042302813 -0.006631797 0.029478732 0.01741314 0.032157727
-0.03986735 -0.04356748 -0.017909246 -0.013070549 0.04979853 0.051450763 -0.011241844 -0.025603848
-0.0013857915 0.018373873 0.016292788 0.010804872 0.036297318 0.0065890085 0.042431 0.011262453
-0.005685875 0.04131734 0.0028052598 0.0032064384 -0.0087093515 0.028807122 -0.013960083 0.040988047
0.0260893 -0.0020138642 -0.009539172 0.021103345 -0.05090174 -0.015709303 -0.016973425 -0.0074045584
-0.02558993 -0.020881526 0.025159184 -0.0042369077 -0.03422365 -0.0048436485 0.01679582 -0.01957863
0.044651315 -0.03645103 0.045520782 0.018488124 -0.02818956 -0.049486965 0.02108394 -0.008348287
0.013962702 0.020634513 -0.033491135 0.006873511 -0.009720072 -0.044775683 0.010103399 0.009744801
-0.040222183 0.046844434 0.027869856 0.028003424 -0.04327971 -0.042882424 0.021014571 0.028311074
-0.04258816 0.048772648 -0.010109191 -0.04026197 -0.038642578 -0.012968437 0.028028214 -0.03403147
0.037859444 0.04983888 0.04681185 0.02207148 -0.019732576 -0.019851234 0.035397243 -0.009576497
0.008374675 0.050959617 -0.04962157 -0.010485256 -0.019292112 -0.009410532 0.0010102749 -0.01219728
0.050419938 0.019700497 -0.03092059 0.05070265 -0.0153729245 0.006307002 0.00593154 -0.036358304
0.026992772 -0.032126486 -0.046535987 0.041667625 0.031721666 -0.020225765 -0.03770078 0.044958655
0.018101493 -0.035016052 -0.04126261 -0.01994896 -0.028480463 0.0024448107 0.0037085551 -0.050936524
0.026767515 0.026909716 -0.045102876 0.03990154 -0.021443972 0.025119198 0.051126856 0.031412657
0.035285927 0.00072854 0.006270191 -0.044546746 -0.035865244 0.042268537 -0.045622833 0.02079209
-0.02900721 0.043079298 0.038757265 -0.010375687 -0.00775746 -0.034226883 0.046482805 -0.03190003
0.01927153 0.034701955 -0.050375365 -0.04968089 -0.035092313 -0.0073821596 0.03289907 -0.014382156
-0.022233257 0.032825474 0.041891735 0.025774678 0.045270998 -0.04485704 -0.044622242 0.007318031
00000000: 5c50 1dbd 64f5 78bc 9d37 b0bc 509e 3b3c
00000010: e441 013d 1313 e13b c597 073b bb5b d23c
00000020: f7f4 003d bc11 2b3a f6e4 11bd f1c6 39bd
00000030: 6ce0 4b3d 467f 913c c41b 443d c7f2 a9bc
00000040: fa04 793c dcca e5bc 8b45 e5bc 52c7 b5bc
00000050: b710 4f3d bdb1 133d c992 00bd d1e1 0ebd
00000060: a576 933c 49e2 31bc 460f 5b3b d68a af3b
00000070: 33d9 3bbd 76ea 253c 7716 3f3a 806f 0dbd
00000080: 5682 53bd aaf8 cb3c e067 3abd 52b7 c5bc
00000090: d0da 033d 2e75 06bd e907 c0bc 2afe fdbc
000000a0: 916e ec3c 12aa 6f3c 3f21 d33b b8cf 8d3c
000000b0: 24a2 5b3c 87ac 1dbc 6bc1 67bb 0596 07bd
000000c0: 6fd1 cdbc 1b1a 023b 23e1 f1bb 0196 653c
000000d0: ede6 cf3c 5693 1b3d ff93 433d ca66 31bb
000000e0: 510e 9b3c 4f7f 24bd 9874 fb3c 3eb0 72bc
000000f0: 620b 21bd 23fc 1dbd 4d34 33bd b284 cabc
00000100: 4c5a c83c 3c3c 2fbd 844d ebbb badf 14bc
00000110: 6a09 a33c f8e5 a0bc 1e68 ca3c eafd 04bd
00000120: de5c ff3c 9483 4bbd e15f 0abd b636 893c
00000130: 2488 da3b 441d 173d 1c6d e33c f663 29bd
00000140: 26e9 283d adf0 6bbc 2952 0bbc bc7d bbbc
00000150: ae1d fbbb dce2 47bd 9494 a63b a532 223d
00000160: a227 3abc 7891 253d dd57 b3bc 7b7a 9f3c
00000170: 894d 7b3b 95e7 98bc f08d 503d 4c11 473b
00000180: 6a51 943a e49e 8cbb b6c3 13bb b745 2d3d
00000190: 8c4f d9bb 627d f13c 00a6 8e3c d2b7 033d
000001a0: f24b 23bd d073 32bd 69b6 92bc db25 56bc
000001b0: 8bf9 4b3d 09be 523d b62f 38bc 29bf d1bc
000001c0: 72a3 b5ba ce84 963c 7478 853c eb06 313c
000001d0: 7fac 143d 9ce8 d73b 21cc 2d3d 2786 383c
000001e0: 9450 babb 5f3c 293d 73d8 373b 1c23 523b
000001f0: abb1 0ebc eafc eb3c d5b8 64bc 15e3 273d
00000200: 3ab9 d53c 09fb 03bb 304a 1cbc ece0 ac3c
00000210: 587e 50bd ccb0 80bc da0b 8bbc f0a1 f2bb
00000220: f9a1 d1bc bc0f abbc a21a ce3c c2d5 8abb
00000230: 192e 0cbd 78b7 9ebb 6397 893c 5d63 a0bc
00000240: 4ce4 363d ad4d 15bd 0074 3a3d 6874 973c
00000250: cbed e6bc d8b2 4abd 3ab8 ac3c 41c7 08bc
00000260: d1c3 643c b609 a93c 002e 09bd 303b e13b
00000270: f040 1fbc b566 37bd ba88 253c a8a8 1f3c
00000280: 04c0 24bd f3df 3f3d 534f e43c 7067 e53c
00000290: 1146 31bd 7ba5 2fbd c026 ac3c a0ec e73c
000002a0: ec70 2ebd d4c5 473d 05a1 25bc bce9 24bd
000002b0: ae47 1ebd 9179 54bc 6d9b e53c 9564 0bbd
000002c0: 8112 1b3d da23 4c3d c8bd 3f3d 40cf b43c
000002d0: 36a6 a1bc 0e9f a2bc b3fc 103d bde6 1cbc
000002e0: ef35 093c 08bb 503d fd3f 4bbd 5aca 2bbc
000002f0: 7e0a 9ebc a22e 1abc 336b 843a 1ad7 47bc
00000300: 2385 4e3d f062 a13c 2d4d fdbc 95ad 4f3d
00000310: b8de 7bbc f8aa ce3b 5d5d c23b 72ec 14bd
00000320: f21f dd3c 1097 03bd 859c 3ebd acab 2a3d
00000330: 94ee 013d 81b0 a5bc 226c 1abd 9126 383d
00000340: 9549 943c fe6c 0fbd fc02 29bd 006c a3bc
00000350: dc4f e9bc 1e39 203b 3b0b 733b d1a2 50bd
00000360: 8c47 db3c c471 dc3c cbbd 38bd cc6f 233d
00000370: 45ab afbc c7c6 cd3c 656a 513d 8faa 003d
00000380: fa87 103d 7efb 3e3a 2d76 cd3b a676 36bd
00000390: 6fe7 12bd c621 2d3d 02df 3abd 2c54 aa3c
000003a0: 87a0 edbc eb73 303d f0bf 1e3d c9fe 29bc
000003b0: 4b32 febb 7d31 0cbd c164 3e3d 9ba9 02bd
000003c0: 54df 9d3c a323 0e3d 6656 4ebd 307e 4bbd
000003d0: f5bc 0fbd 0be6 f1bb 2dc1 063d 22a3 6bbc
000003e0: 8522 b6bc 0174 063d ab96 2b3d 6b25 d33c
000003f0: 156e 393d 04bc 37bd d0c5 36bd 18cc ef3b

naim.classifier.0.bias f4 [4]
0.035659794 -0.023510935 0.029342046 0.040248908
00000000: 0110 123d 019a c0bc bb5e f03c 0adc 243d
