outputs/2025-03-23/17-07-39/outputs/model_epoch_0.pt (torch, 377210 bytes, 140 tensors)

naim.embeddings.0.embeddings.weight f4 [2, 6]
0.37501782 -0.580491 -0.33283028 0.3225467 0.451226 0.28580892 0.0 0.0
0.0 0.0 0.0 0.0
00000000: 5602 c03e 0f9b 14bf bb68 aabe d724 a53e
00000010: 1807 e73e 8c55 923e 0000 0000 0000 0000
00000020: 0000 0000 0000 0000 0000 0000 0000 0000

naim.embeddings.1.embeddings.weight f4 [2, 6]
0.056446485 -0.08412293 -0.15176031 0.39974853 0.1886772 -0.07948953 0.0 0.0
0.0 0.0 0.0 0.0
00000000: 6e34 673d a548 acbd 0e67 1bbe d7ab cc3e
00000010: 9934 413e 68cb a2bd 0000 0000 0000 0000
00000020: 0000 0000 0000 0000 0000 0000 0000 0000

naim.embeddings.2.embeddings.weight f4 [2, 6]
0.652536 0.039781094 -0.018410217 0.5666578 -0.2582442 0.3415616 0.0 0.0
0.0 0.0 0.0 0.0
00000000: 990c 273f 80f1 223d 06d1 96bc 7c10 113f
00000010: 9538 84be 29e1 ae3e 0000 0000 0000 0000
00000020: 0000 0000 0000 0000 0000 0000 0000 0000

naim.embeddings.3.embeddings.weight f4 [2, 6]
0.652495 -0.52885616 0.056759898 0.4854386 0.14383872 0.0057876757 0.0 0.0
0.0 0.0 0.0 0.0
00000000: ea09 273f 1e63 07bf 117d 683d 688b f83e
00000010: 754a 133e 8ba6 bd3b 0000 0000 0000 0000
00000020: 0000 0000 0000 0000 0000 0000 0000 0000

naim.embeddings.4.embeddings.weight f4 [2, 6]
-0.51484025 -0.287057 -0.21116969 0.14181112 0.10285323 0.007965161 0.0 0.0
0.0 0.0 0.0 0.0
00000000: 92cc 03bf 23f9 92be de3c 58be ef36 113e
00000010: b7a4 d23d 4f80 023c 0000 0000 0000 0000
00000020: 0000 0000 0000 0000 0000 0000 0000 0000

naim.embeddings.5.embeddings.weight f4 [2, 6]
-0.3428751 0.038829673 0.64234066 0.35401326 -0.56980246 0.054912757 0.0 0.0
0.0 0.0 0.0 0.0
00000000: 538d afbe dd0b 1f3d 7070 243f 3a41 b53e
00000010: 93de 11bf 33ec 603d 0000 0000 0000 0000
00000020: 0000 0000 0000 0000 0000 0000 0000 0000

naim.embeddings.6.embeddings.weight f4 [2, 6]
-0.5246843 -0.10830659 -0.12494434 -0.2662978 0.14322905 0.761238 0.0 0.0
0.0 0.0 0.0 0.0
00000000: b651 06bf d8cf ddbd d1e2 ffbd 2f58 88be
00000010: a3aa 123e 7ee0 423f 0000 0000 0000 0000
00000020: 0000 0000 0000 0000 0000 0000 0000 0000

naim.embeddings.7.embeddings.weight f4 [2, 6]
-0.39224362 -0.005382755 0.09553575 -0.69313616 -0.057456765 0.5738686 0.0 0.0
0.0 0.0 0.0 0.0
00000000: 28d4 c8be d261 b0bb 3fa8 c33d 5f71 31bf
00000010: c957 6bbd 0de9 123f 0000 0000 0000 0000
00000020: 0000 0000 0000 0000 0000 0000 0000 0000

naim.embeddings.8.embeddings.weight f4 [2, 6]
0.6451447 -0.14104605 0.2674141 -0.61719036 -0.2032514 0.22806597 0.0 0.0
0.0 0.0 0.0 0.0
00000000: 3428 253f 606e 10be 80ea 883e 3000 1ebf
00000010: 2321 50be 208a 693e 0000 0000 0000 0000
00000020: 0000 0000 0000 0000 0000 0000 0000 0000

naim.embeddings.9.embeddings.weight f4 [2, 6]
0.446667 -0.28087986 0.06630954 -0.40210977 -0.6035414 -0.0023437997 0.0 0.0
0.0 0.0 0.0 0.0
00000000: 89b1 e43e 7ccf 8fbe 4ccd 873d 55e1 cdbe
00000010: b081 1abf 6f9a 19bb 0000 0000 0000 0000
00000020: 0000 0000 0000 0000 0000 0000 0000 0000

naim.embeddings.10.embeddings.weight f4 [2, 6]
0.09614111 0.10218089 0.2574884 0.24980065 0.009208867 0.45130184 0.0 0.0
0.0 0.0 0.0 0.0
00000000: a1e5 c43d 3744 d13d 85d5 833e becb 7f3e
00000010: cae0 163c 0911 e73e 0000 0000 0000 0000
00000020: 0000 0000 0000 0000 0000 0000 0000 0000

naim.embeddings.11.embeddings.weight f4 [2, 6]
0.17151952 -0.11871947 -0.48566118 -0.51710653 -0.028606348 -0.2852568 0.0 0.0
0.0 0.0 0.0 0.0
00000000: d0a2 2f3e 3223 f3bd 95a8 f8be 1861 04bf
00000010: dc57 eabc 2e0d 92be 0000 0000 0000 0000
00000020: 0000 0000 0000 0000 0000 0000 0000 0000

naim.embeddings.12.embeddings.weight f4 [2, 6]
0.16212998 -0.24047144 0.07912133 0.4362976 0.49294603 0.11778374 0.0 0.0
0.0 0.0 0.0 0.0
00000000: 6705 263e 253e 76be 5d0a a23d 6662 df3e
00000010: 6c63 fc3e 9a38 f13d 0000 0000 0000 0000
00000020: 0000 0000 0000 0000 0000 0000 0000 0000

naim.embeddings.13.embeddings.weight f4 [2, 6]
-0.2533524 -0.10630923 -0.3030666 0.66075075 -0.20335314 0.31797695 0.0 0.0
0.0 0.0 0.0 0.0
00000000: 68b7 81be a7b8 d9bd 8c2b 9bbe f626 293f
00000010: ce3b 50be e0cd a23e 0000 0000 0000 0000
00000020: 0000 0000 0000 0000 0000 0000 0000 0000

naim.embeddings.14.embeddings.weight f4 [2, 6]
0.19039634 0.668177 -0.15146092 0.07645049 0.6177239 0.013011771 0.0 0.0
0.0 0.0 0.0 0.0
00000000: 42f7 423e a60d 2b3f 9218 1bbe 1392 9c3d
00000010: 2723 1e3f 532f 553c 0000 0000 0000 0000
00000020: 0000 0000 0000 0000 0000 0000 0000 0000

naim.embeddings.15.embeddings.weight f4 [2, 6]
-0.6277449 0.34730214 0.08230866 -0.29678255 -0.19381319 0.5529074 0.0 0.0
0.0 0.0 0.0 0.0
00000000: e4b3 20bf 96d1 b13e 7191 a83d e2f3 97be
00000010: f776 46be 578b 0d3f 0000 0000 0000 0000
00000020: 0000 0000 0000 0000 0000 0000 0000 0000

naim.embeddings.16.embeddings.weight f4 [2, 6]
0.52642965 0.095159635 0.07381495 -0.3384788 0.14587581 0.40021598 0.0 0.0
0.0 0.0 0.0 0.0
00000000: 18c4 063f 0ee3 c23d 4b2c 973d 184d adbe
00000010: 7860 153e 1ce9 cc3e 0000 0000 0000 0000
00000020: 0000 0000 0000 0000 0000 0000 0000 0000

naim.embeddings.17.embeddings.weight f4 [2, 6]
0.12197313 0.18189713 0.13622594 -0.5145872 0.308367 -0.29189023 0.0 0.0
0.0 0.0 0.0 0.0
00000000: 0ccd f93d 3e43 3a3e d07e 0b3e fdbb 03bf
00000010: 48e2 9d3e a372 95be 0000 0000 0000 0000
00000020: 0000 0000 0000 0000 0000 0000 0000 0000

naim.embeddings.18.embeddings.weight f4 [2, 6]
-0.5643459 -0.48911607 -0.30593422 0.56679684 -0.03933057 -0.021914769 0.0 0.0
0.0 0.0 0.0 0.0
00000000: f978 10bf 6c6d fabe 69a3 9cbe 9919 113f
00000010: 1719 21bd 9a86 b3bc 0000 0000 0000 0000
00000020: 0000 0000 0000 0000 0000 0000 0000 0000

naim.embeddings.19.embeddings.weight f4 [2, 6]
0.539261 -0.27364698 0.27883714 -0.22463097 -0.11372461 0.08663148 0.0 0.0
0.0 0.0 0.0 0.0
00000000: 020d 0a3f 751b 8cbe bec3 8e3e a905 66be
00000010: 73e8 e8bd d86b b13d 0000 0000 0000 0000
00000020: 0000 0000 0000 0000 0000 0000 0000 0000

naim.embeddings.20.embeddings.weight f4 [2, 6]
0.2825715 0.14521123 -0.34271857 -0.49290198 -0.13208024 0.24585262 0.0 0.0
0.0 0.0 0.0 0.0
00000000: 36ad 903e 41b2 143e cf78 afbe a65d fcbe
00000010: 0b40 07be cac0 7b3e 0000 0000 0000 0000
00000020: 0000 0000 0000 0000 0000 0000 0000 0000

naim.embeddings.21.embeddings.weight f4 [2, 6]
0.07163868 0.0028484694 0.13217495 -0.05392633 0.031930204 -0.1508822 0.0 0.0
0.0 0.0 0.0 0.0
00000000: 4db7 923d 63ad 3a3b df58 073e dbe1 5cbd
00000010: 3fc9 023d dd80 1abe 0000 0000 0000 0000
00000020: 0000 0000 0000 0000 0000 0000 0000 0000

naim.embeddings.22.embeddings.weight f4 [2, 6]
0.3562004 -0.25862342 -0.039917167 0.57814634 0.43293434 -0.21759257 0.0 0.0
0.0 0.0 0.0 0.0
00000000: e65f b63e 4a6a 84be 2f80 23bd 6601 143f
00000010: 92a9 dd3e 96d0 5ebe 0000 0000 0000 0000
00000020: 0000 0000 0000 0000 0000 0000 0000 0000

naim.embeddings.23.embeddings.weight f4 [2, 6]
0.21006146 0.009671784 -0.37002563 0.8444286 -0.049907435 -0.27122462 0.0 0.0
0.0 0.0 0.0 0.0
00000000: 5a1a 573e 6776 1e3c 0074 bdbe 792c 583f
00000010: bd6b 4cbd f4dd 8abe 0000 0000 0000 0000
00000020: 0000 0000 0000 0000 0000 0000 0000 0000

naim.embeddings.24.embeddings.weight f4 [2, 6]
0.01990075 0.17280659 -0.18178962 0.40727088 -0.86380625 0.045422982 0.0 0.0
0.0 0.0 0.0 0.0
00000000: e606 a33c 36f4 303e 0f27 3abe cf85 d03e
00000010: 6822 5dbf 730d 3a3d 0000 0000 0000 0000
00000020: 0000 0000 0000 0000 0000 0000 0000 0000

naim.embeddings.25.embeddings.weight f4 [2, 6]
0.38032627 -0.14479473 0.75849384 0.47199804 0.095346436 0.054939896 0.0 0.0
0.0 0.0 0.0 0.0
00000000: 20ba c23e 1245 14be a72c 423f baa9 f13e
00000010: fe44 c33d a808 613d 0000 0000 0000 0000
00000020: 0000 0000 0000 0000 0000 0000 0000 0000

naim.embeddings.26.embeddings.weight f4 [2, 6]
0.15915495 -0.49832788 -0.5066112 0.3240019 0.4369345 0.33845344 0.0 0.0
0.0 0.0 0.0 0.0
00000000: 84f9 223e d524 ffbe 46b1 01bf 94e3 a53e
00000010: e1b5 df3e c549 ad3e 0000 0000 0000 0000
00000020: 0000 0000 0000 0000 0000 0000 0000 0000

naim.embeddings.27.embeddings.weight f4 [2, 6]
-0.09187523 0.38059017 -0.5355986 -0.54996073 -0.13367584 0.047154613 0.0 0.0
0.0 0.0 0.0 0.0
00000000: 1529 bcbd b7dc c23e fd1c 09bf 3aca 0cbf
00000010: 52e2 08be 3225 413d 0000 0000 0000 0000
00000020: 0000 0000 0000 0000 0000 0000 0000 0000

naim.embeddings.28.embeddings.weight f4 [2, 6]
-0.20448737 0.2312072 -0.20936882 -0.3442302 0.1356797 -0.06884622 0.0 0.0
0.0 0.0 0.0 0.0
00000000: 2365 51be 95c1 6c3e c864 56be f13e b0be
00000010: 9fef 0a3e 3fff 8cbd 0000 0000 0000 0000
00000020: 0000 0000 0000 0000 0000 0000 0000 0000

naim.embeddings.29.embeddings.weight f4 [2, 6]
-0.55717224 -0.0032210385 0.6686541 -0.22455354 0.080676004 -0.3680652 0.0 0.0
0.0 0.0 0.0 0.0
00000000: d7a2 0ebf 0f18 53bb ea2c 2b3f 5df1 65be
00000010: 7639 a53d 0b73 bcbe 0000 0000 0000 0000
00000020: 0000 0000 0000 0000 0000 0000 0000 0000

naim.embeddings.30.embeddings.weight f4 [2, 6]
-0.13231409 0.26318464 0.35251743 -0.31239858 -0.05169504 -0.39275727 0.0 0.0
0.0 0.0 0.0 0.0
00000000: 587d 07be 23c0 863e 2a7d b43e b5f2 9fbe
00000010: 2ebe 53bd 7b17 c9be 0000 0000 0000 0000
00000020: 0000 0000 0000 0000 0000 0000 0000 0000

naim.embeddings.31.embeddings.weight f4 [2, 6]
0.41089344 -0.26217893 -0.048296563 -0.11194611 -0.2828184 -0.29583946 0.0 0.0
0.0 0.0 0.0 0.0
00000000: a060 d23e 513c 86be 9ed2 45bd 0144 e5bd
00000010: 93cd 90be 4578 97be 0000 0000 0000 0000
00000020: 0000 0000 0000 0000 0000 0000 0000 0000

naim.embeddings.32.embeddings.weight f4 [2, 6]
0.103030756 0.3361305 -0.3387346 -0.78274393 0.2963678 -0.17812984 0.0 0.0
0.0 0.0 0.0 0.0
00000000: ca01 d33d 4c19 ac3e 9f6e adbe e861 48bf
00000010: 85bd 973e ab67 36be 0000 0000 0000 0000
00000020: 0000 0000 0000 0000 0000 0000 0000 0000

naim.embeddings.33.embeddings.weight f4 [2, 6]
-0.19057068 -0.18080465 -0.40682197 -0.23132886 -0.33583233 0.7393875 0.0 0.0
0.0 0.0 0.0 0.0
00000000: f624 43be db24 39be f84a d0be 79e1 6cbe
00000010: 37f2 abbe 8048 3d3f 0000 0000 0000 0000
00000020: 0000 0000 0000 0000 0000 0000 0000 0000

naim.embeddings.34.embeddings.weight f4 [2, 6]
-0.17843038 0.11739616 0.5366424 -0.02995909 -0.2872616 0.05048391 0.0 0.0
0.0 0.0 0.0 0.0
00000000: 74b6 36be 666d f03d 6561 093f c46c f5bc
00000010: f413 93be 37c8 4e3d 0000 0000 0000 0000
00000020: 0000 0000 0000 0000 0000 0000 0000 0000

naim.embeddings.35.embeddings.weight f4 [2, 6]
0.20259383 -0.1734136 0.33892375 0.34534395 0.42711028 -0.56311285 0.0 0.0
0.0 0.0 0.0 0.0
00000000: c274 4f3e 5693 31be 6a87 ad3e ecd0 b03e
00000010: 33ae da3e 2a28 10bf 0000 0000 0000 0000
00000020: 0000 0000 0000 0000 0000 0000 0000 0000

naim.embeddings.36.embeddings.weight f4 [2, 6]
-0.16945396 0.41809234 -0.53835535 0.025985645 0.00023212755 0.116730236 0.0 0.0
0.0 0.0 0.0 0.0
00000000: 5785 2dbe 3310 d63e a8d1 09bf d9df d43c
00000010: 4467 7339 4310 ef3d 0000 0000 0000 0000
00000020: 0000 0000 0000 0000 0000 0000 0000 0000

naim.embeddings.37.embeddings.weight f4 [2, 6]
0.0056845527 -0.36584148 -0.13350794 -0.07493989 0.2377599 0.1207821 0.0 0.0
0.0 0.0 0.0 0.0
00000000: 7c45 ba3b 934f bbbe 4eb6 08be 167a 99bd
00000010: 5577 733e 9b5c f73d 0000 0000 0000 0000
00000020: 0000 0000 0000 0000 0000 0000 0000 0000

naim.embeddings.38.embeddings.weight f4 [2, 6]
0.029866774 -0.06785731 0.0038877912 0.310631 -0.14333145 0.1710617 0.0 0.0
0.0 0.0 0.0 0.0
00000000: 2aab f43c c6f8 8abd 50ca 7e3b 070b 9f3e
00000010: 7bc5 12be cc2a 2f3e 0000 0000 0000 0000
00000020: 0000 0000 0000 0000 0000 0000 0000 0000

naim.embeddings.39.embeddings.weight f4 [2, 6]
-0.037699588 -0.29795614 0.52597976 -0.6514386 0.21756075 0.34475863 0.0 0.0
0.0 0.0 0.0 0.0
00000000: e26a 1abd b58d 98be 9ca6 063f aec4 26bf
00000010: 3fc8 5e3e 3484 b03e 0000 0000 0000 0000
00000020: 0000 0000 0000 0000 0000 0000 0000 0000

naim.embeddings.40.embeddings.weight f4 [2, 6]
-0.09880755 0.24249567 0.13721047 -0.1561562 -0.0601336 -0.34487426 0.0 0.0
0.0 0.0 0.0 0.0
00000000: 9d5b cabd c950 783e e780 0c3e 69e7 1fbe
00000010: a64e 76bd 5c93 b0be 0000 0000 0000 0000
00000020: 0000 0000 0000 0000 0000 0000 0000 0000

naim.embeddings.41.embeddings.weight f4 [2, 6]
-0.1405701 -0.22342066 0.3536766 0.21166967 0.4182506 0.59852946 0.0 0.0
0.0 0.0 0.0 0.0
00000000: 9cf1 0fbe 63c8 64be 1915 b53e efbf 583e
00000010: f124 d63e 3a39 193f 0000 0000 0000 0000
00000020: 0000 0000 0000 0000 0000 0000 0000 0000

naim.embeddings.42.embeddings.weight f4 [2, 6]
-0.32765642 0.75151926 0.25137272 0.4215171 0.12022596 -0.15621032 0.0 0.0
0.0 0.0 0.0 0.0
00000000: 95c2 a7be 9163 403f edb3 803e 17d1 d73e
00000010: 0739 f63d 99f5 1fbe 0000 0000 0000 0000
00000020: 0000 0000 0000 0000 0000 0000 0000 0000

naim.embeddings.43.embeddings.weight f4 [2, 6]
-0.2525389 0.017245812 0.6875042 0.5027562 0.39063516 -0.08832434 0.0 0.0
0.0 0.0 0.0 0.0
00000000: c74c 81be 1747 8d3c 4600 303f a1b4 003f
00000010: 5501 c83e 64e3 b4bd 0000 0000 0000 0000
00000020: 0000 0000 0000 0000 0000 0000 0000 0000

naim.embeddings.44.embeddings.weight f4 [2, 6]
-0.027849196 0.31276897 0.23345014 -0.36801884 0.15081334 0.5265637 0.0 0.0
0.0 0.0 0.0 0.0
00000000: ff23 e4bc 4123 a03e 8e0d 6f3e f76c bcbe
00000010: d06e 1a3e e1cc 063f 0000 0000 0000 0000
00000020: 0000 0000 0000 0000 0000 0000 0000 0000

naim.embeddings.45.embeddings.weight f4 [2, 6]
-0.48394394 -0.61554486 -0.28372127 0.16373919 -0.464379 -0.16278134 0.0 0.0
0.0 0.0 0.0 0.0
00000000: 80c7 f7be 5994 1dbf ea43 91be 3fab 273e
00000010: 16c3 edbe 27b0 26be 0000 0000 0000 0000
00000020: 0000 0000 0000 0000 0000 0000 0000 0000

naim.embeddings.46.embeddings.weight f4 [2, 6]
-0.076884575 0.08232362 0.28587547 -0.09261287 0.13772775 0.21285953 0.0 0.0
0.0 0.0 0.0 0.0
00000000: a975 9dbd 4999 a83d 455e 923e d1ab bdbd
00000010: 8108 0d3e d9f7 593e 0000 0000 0000 0000
00000020: 0000 0000 0000 0000 0000 0000 0000 0000

naim.embeddings.47.embeddings.weight f4 [2, 6]
0.32552758 -0.113280624 -0.4973696 -0.2585713 0.29892153 -0.29841274 0.0 0.0
0.0 0.0 0.0 0.0
00000000: 8dab a63e acff e7bd 3aa7 febe 7563 84be
00000010: 3e0c 993e 8ec9 98be 0000 0000 0000 0000
00000020: 0000 0000 0000 0000 0000 0000 0000 0000

naim.embeddings.48.embeddings.weight f4 [2, 6]
0.028819561 0.26291558 0.08865231 0.33073363 0.7104111 0.3725915 0.0 0.0
0.0 0.0 0.0 0.0
00000000: 0017 ec3c df9c 863e 588f b53d eb55 a93e
00000010: 80dd 353f 50c4 be3e 0000 0000 0000 0000
00000020: 0000 0000 0000 0000 0000 0000 0000 0000

naim.embeddings.49.embeddings.weight f4 [2, 6]
-0.25557283 0.25658804 0.3076752 -0.1341865 -0.3835015 0.42323205 0.0 0.0
0.0 0.0 0.0 0.0
00000000: 71da 82be 825f 833e 9b87 9d3e 3068 09be
00000010: 4f5a c4be dfb1 d83e 0000 0000 0000 0000
00000020: 0000 0000 0000 0000 0000 0000 0000 0000

naim.embeddings.50.embeddings.weight f4 [2, 6]
0.5529381 0.40590557 -0.109072275 -0.18193378 -0.12784743 -0.57523793 0.0 0.0
0.0 0.0 0.0 0.0
00000000: 5a8d 0d3f dbd2 cf3e 4961 dfbd d94c 3abe
00000010: 70ea 02be cb42 13bf 0000 0000 0000 0000
00000020: 0000 0000 0000 0000 0000 0000 0000 0000

naim.embeddings.51.embeddings.weight f4 [2, 6]
0.047761384 0.18000591 0.56285053 -0.67750794 0.3732468 -0.15143307 0.0 0.0
0.0 0.0 0.0 0.0
00000000: 71a1 433d 7853 383e f916 103f 2971 2dbf
00000010: 341a bf3e 4511 1bbe 0000 0000 0000 0000
00000020: 0000 0000 0000 0000 0000 0000 0000 0000

naim.embeddings.52.embeddings.weight f4 [2, 6]
0.32380533 -0.24001998 -0.23987919 -0.23753607 0.10984803 -0.36802095 0.0 0.0
0.0 0.0 0.0 0.0
00000000: d0c9 a53e ccc7 75be e4a2 75be a83c 73be
00000010: 01f8 e03d 3e6d bcbe 0000 0000 0000 0000
00000020: 0000 0000 0000 0000 0000 0000 0000 0000

naim.embeddings.53.embeddings.weight f4 [2, 6]
-0.26332232 -0.17008382 0.15546143 -0.046768423 0.92026407 -0.005721322 0.0 0.0
0.0 0.0 0.0 0.0
00000000: 2fd2 86be 742a 2ebe 4831 1f3e 3f90 3fbd
00000010: 6d96 6b3f ed79 bbbb 0000 0000 0000 0000
00000020: 0000 0000 0000 0000 0000 0000 0000 0000

naim.embeddings.54.embeddings.weight f4 [2, 6]
0.20305108 0.5453242 0.41144058 0.20280369 -0.63123536 0.12035287 0.0 0.0
0.0 0.0 0.0 0.0
00000000: 9fec 4f3e 5e9a 0b3f 57a8 d23e c5ab 4f3e
00000010: a498 21bf 917b f63d 0000 0000 0000 0000
00000020: 0000 0000 0000 0000 0000 0000 0000 0000

naim.embeddings.55.embeddings.weight f4 [2, 6]
0.3391649 -0.3286411 -0.58446217 0.56756514 -0.104929745 -0.161679 0.0 0.0
0.0 0.0 0.0 0.0
00000000: 06a7 ad3e a543 a8be 509f 15bf f34b 113f
00000010: 68e5 d6bd 2e8f 25be 0000 0000 0000 0000
00000020: 0000 0000 0000 0000 0000 0000 0000 0000

naim.embeddings.56.embeddings.weight f4 [2, 6]
-0.39901716 -0.47032622 0.19941325 -0.07089815 -0.4254604 -0.059804607 0.0 0.0
0.0 0.0 0.0 0.0
00000000: fa4b ccbe 99ce f0be fd32 4c3e 0d33 91bd
00000010: f2d5 d9be adf5 74bd 0000 0000 0000 0000
00000020: 0000 0000 0000 0000 0000 0000 0000 0000

naim.embeddings.57.embeddings.weight f4 [2, 6]
0.44980413 -0.3349286 -0.21597107 0.28128076 0.73487043 -0.015142916 0.0 0.0
0.0 0.0 0.0 0.0
00000000: ba4c e63e c37b abbe 8527 5dbe 0804 903e
00000010: 7820 3c3f fe19 78bc 0000 0000 0000 0000
00000020: 0000 0000 0000 0000 0000 0000 0000 0000

naim.embeddings.58.embeddings.weight f4 [2, 6]
-0.11129345 0.024602924 0.04952867 -0.057840385 0.09451435 -0.25909483 0.0 0.0
0.0 0.0 0.0 0.0
00000000: d2ed e3bd 128c c93c 93de 4a3d 0aea 6cbd
00000010: bd90 c13d 14a8 84be 0000 0000 0000 0000
00000020: 0000 0000 0000 0000 0000 0000 0000 0000

naim.embeddings.59.embeddings.weight f4 [2, 6]
0.32882956 -0.1796752 -0.2717153 0.7035797 0.2768913 0.4301606 0.0 0.0
0.0 0.0 0.0 0.0
00000000: 595c a83e c7fc 37be 451e 8bbe cd1d 343f
00000010: b2c4 8d3e 033e dc3e 0000 0000 0000 0000
00000020: 0000 0000 0000 0000 0000 0000 0000 0000

naim.embeddings.60.embeddings.weight f4 [2, 6]
-0.5532672 -0.055877097 0.06332679 0.52727693 0.28147644 0.38422865 0.0 0.0
0.0 0.0 0.0 0.0
00000000: eba2 0dbf 62df 64bd 7ab1 813d 9ffb 063f
00000010: ae1d 903e 9eb9 c43e 0000 0000 0000 0000
00000020: 0000 0000 0000 0000 0000 0000 0000 0000

naim.embeddings.61.embeddings.weight f4 [2, 6]
-0.228499 0.04412543 0.13797022 -0.07390716 0.23736958 -0.12643123 0.0 0.0
0.0 0.0 0.0 0.0
00000000: a4fb 69be debc 343d 1148 0d3e a35c 97bd
00000010: 0311 733e 3077 01be 0000 0000 0000 0000
00000020: 0000 0000 0000 0000 0000 0000 0000 0000

naim.embeddings.62.embeddings.weight f4 [2, 6]
0.2920996 0.15572408 -0.70069027 -0.06979556 -0.39051983 -0.47220603 0.0 0.0
0.0 0.0 0.0 0.0
00000000: 148e 953e 2276 1f3e 7060 33bf f9f0 8ebd
00000010: 37f2 c7be fdc4 f1be 0000 0000 0000 0000
00000020: 0000 0000 0000 0000 0000 0000 0000 0000

naim.embeddings.63.embeddings.weight f4 [2, 6]
0.7608442 0.33378276 -0.30935118 0.16806197 -0.22703272 -0.15642032 0.0 0.0
0.0 0.0 0.0 0.0
00000000: afc6 423f 93e5 aa3e 4763 9ebe 7018 2c3e
00000010: 447b 68be a62c 20be 0000 0000 0000 0000
00000020: 0000 0000 0000 0000 0000 0000 0000 0000

naim.encoder.0.layer_norm_1.weight f4 [6]
0.98840183 0.9874009 0.9894228 0.9952539 0.9884356 0.9888414
00000000: e707 7d3f 4ec6 7c3f d04a 7d3f f6c8 7e3f
00000010: 1e0a 7d3f b624 7d3f

naim.encoder.0.layer_norm_1.bias f4 [6]
0.0023093377 -0.0018864486 0.0018252908 -0.0018075852 0.001665373 -7.3783854e-06
00000000: 4258 173b b642 f7ba 993e ef3a 7fec ecba
00000010: a548 da3a d993 f7b6

naim.encoder.0.attn.linear_q.weight f4 [6, 6]
-0.09338046 0.03516821 -0.10983219 -0.38831758 -0.036747143 0.18756758 -0.040438067 -0.18844517
0.01725641 0.06719544 -0.103088364 -0.3122447 -0.20604251 -0.053599752 0.13406359 0.35009998
0.0047415276 0.13324441 0.22281995 -0.165202 -0.12864567 0.25988704 0.28412476 0.09208791
-0.30305925 0.21933652 -0.32505935 0.19144745 0.04147428 0.119268514 -0.38509282 -0.1305199
0.16208896 0.30153024 -0.104389496 0.35107762
00000000: 413e bfbd 8a0c 103d b3ef e0bd 90d1 c6be
00000010: 2c84 16bd b711 403e 63a2 25bd c5f7 40be
00000020: 515d 8d3c c39d 893d fe1f d3bd 8ade 9fbe
00000030: cffc 52be 6a8b 5bbd f747 093e 4e40 b33e
00000040: d15e 9b3b 3971 083e ea2a 643e b72a 29be
00000050: b1bb 03be ea0f 853e cd78 913e 9698 bc3d
00000060: 952a 9bbe c199 603e 2e6e a6be cd0a 443e
00000070: efe0 293d 0d43 f43d e32a c5be 02a7 05be
00000080: a6fa 253e 2c62 9a3e 29ca d5bd 72c0 b33e

naim.encoder.0.attn.linear_k.weight f4 [6, 6]
-0.08400291 -0.23388927 -0.1667011 0.024906632 -0.06961341 0.18616888 -0.21294515 -0.11221865
-0.3918745 0.32120138 -0.0668147 -0.30921623 -0.009944963 -0.004739388 0.100738585 -0.03244116
0.2437925 -0.12787409 -0.11113654 -0.0843602 0.060820106 0.3142821 -0.020688199 0.30113965
0.30803326 -0.19970709 -0.034794398 -0.18308122 0.15836959 -0.13098826 0.119899444 0.016553719
-0.25565645 -0.2699853 -0.38612464 -0.21573848
00000000: b809 acbd ab80 6fbe b1b3 2abe fe08 cc3c
00000010: 7a91 8ebd 0ea3 3e3e 4b0e 5abe e4d2 e5bd
00000020: c6a3 c8be 8274 a43e 25d6 88bd 9751 9ebe
00000030: 33f0 22bc de4c 9bbb 0850 ce3d 06e1 04bd
00000040: bea4 793e 6df1 02be 8e9b e3bd 0ac5 acbd
00000050: 811e 793d 95e9 a03e 4c7a a9bc fa2e 9a3e
00000060: 89b6 9d3e 0480 4cbe 9284 0ebd a579 3bbe
00000070: a32b 223e c921 06be d78d f53d aa9b 873c
00000080: 67e5 82be 833b 8abe 21b2 c5be 8cea 5cbe

naim.encoder.0.attn.linear_v.weight f4 [6, 6]
0.1138955 0.026230533 0.30707955 -0.35894492 -0.008697094 -0.36613986 0.0053826557 0.1472573
-0.3605219 0.3544426 -0.1192921 0.3566506 -0.058522962 0.22438863 0.36934695 -0.14826055
-0.099684276 0.2140218 -0.34384868 0.23290877 -0.24904586 0.3743655 -0.26238278 -0.16734543
0.29739895 -0.1714762 0.3386877 0.27259207 0.36463198 -0.38764194 0.0043281177 -0.13226154
0.09799022 -0.3077023 0.16699436 -0.021657601
00000000: 0b42 e93d 6ae1 d63c 8839 9d3e a1c7 b7be
00000010: 427e 0ebc af76 bbbe fd60 b03b 9eca 163e
00000020: 5496 b8be 8079 b53e 6b4f f4bd e89a b63e
00000030: c6b5 6fbd 22c6 653e 0b1b bd3e 9dd1 17be
00000040: 4527 ccbd 8828 5b3e ef0c b0be a37f 6e3e
00000050: e105 7fbe d6ac bf3e 0957 86be 9a5c 2bbe
00000060: ad44 983e 7597 2fbe 7968 ad3e 3091 8b3e
00000070: 0bb1 ba3e 0179 c6be e2d2 8d3b 926f 07be
00000080: 19af c83d 288b 9dbe 9200 2b3e 486b b1bc

naim.encoder.0.attn.linear_o.weight f4 [6, 6]
-0.18080945 -0.3546355 0.20077679 -0.13567598 0.2885822 0.06622055 0.111224495 -0.049046062
-0.043695867 -0.12573895 -0.34052253 0.24369201 -0.2569479 0.23673026 -0.13805982 0.25435516
0.34849313 -0.24931839 0.33377537 0.006617449 -0.31365782 0.16321094 0.2275219 0.3560039
-0.39132935 0.36433056 0.30566654 0.39720643 0.21842018 -0.20129412 0.31058383 0.37425864
-0.15398067 -0.06436012 0.32101086 0.3288016
00000000: 1d26 39be c992 b5be 6e98 4d3e a5ee 0abe
00000010: 0cc1 933e a49e 873d abc9 e33d 86e4 48bd
00000020: 70fa 32bd b6c1 00be f858 aebe 668a 793e
00000030: ad8e 83be 6b69 723e 8e5f 0dbe d73a 823e
00000040: b16d b23e 524d 7fbe 9be4 aa3e 30d7 d83b
00000050: c297 a0be c520 273e 80fb 683e 2546 b63e
00000060: 525c c8be 8989 ba3e 5380 9c3e a45e cb3e
00000070: 8aa9 5f3e 0c20 4ebe d804 9f3e d49e bf3e
00000080: 1cad 1dbe 3dcf 83bd 895b a43e af58 a83e

naim.encoder.0.layer_norm_2.weight f4 [6]
0.99417454 0.9898085 0.98876697 0.99397665 0.9966773 1.0053433
00000000: 3982 7e3f 1764 7d3f d51f 7d3f 4175 7e3f
00000010: 3e26 7f3f 17af 803f

naim.encoder.0.layer_norm_2.bias f4 [6]
0.0033248255 0.005713656 -0.0025621944 -0.0030936054 -0.006135971 -0.000551923
00000000: 51e5 593b 9f39 bb3b 7dea 27bb 16be 4abb
00000010: 4110 c9bb edae 10ba

naim.encoder.0.ff.0.weight f4 [1000, 6]
0.25819865 0.30023262 -0.19946463 -0.060070157 -0.15064134 0.20037894 0.09157805 -0.30619705
-0.040752232 -0.32060015 -0.3712536 0.35973454 -0.19718939 0.17112868 -0.077893674 -0.072263576
0.0037294314 0.30564794 -0.04446185 0.32491392 0.22597621 0.26698193 -0.3572178 -0.17784832
-0.32300055 -0.075757064 -0.07438215 0.074940465 0.35365832 0.17197195 -0.2720871 -0.24472077
0.29568172 0.03440138 0.10520905 -0.20178582 -0.04606406 0.1062177 -0.25806135 0.25760028
0.19331357 -0.226389 -0.1550128 -0.084252924 0.053200964 -0.13685662 0.37768227 -0.3807385
-0.21946771 -0.23633409 0.10046788 0.04684808 -0.10524032 0.3366584 -0.33974198 0.1345129
-0.21216165 -0.08031737 -0.3801233 -0.29179823 -0.3335144 0.16695611 -0.14168493 0.20139676
-0.20856194 -0.09199622 0.044667855 0.32913762 -0.09811008 0.2237897 0.10502782 0.23629136
0.24652134 0.15408348 -0.11687572 -0.10560236 0.14816007 0.20985498 -0.022840487 0.19217885
-0.23445593 0.21814144 -0.042357724 -0.26839742 -0.18579921 -0.29919958 0.071229205 -0.22919443
-0.10462907 -0.018984644 -0.23634276 0.014437827 -0.04245848 0.11694999 0.28221983 -0.23363452
0.21330002 -0.0106294025 -0.22237721 -0.17773356 0.09254914 0.07510422 -0.013927349 -0.19330747
0.19651875 0.049555957 -0.3849854 -0.05982323 -0.09830219 -0.16467598 -0.21428837 -0.3182165
0.38924706 -0.36005118 0.37173826 -0.3123941 -0.09200061 -0.16612142 -0.2084418 0.13454477
0.22417016 -0.2597498 -0.17799737 0.20419902 -0.049095094 0.089138016 0.20062949 -0.14008263
-0.21400923 0.13785374 -0.14205328 -0.25869086 -0.19938077 -0.17877445 0.39359388 0.07000931
0.16316102 0.052619714 -0.26231453 0.2820689 -0.053240456 -0.09402889 0.3198241 -0.19519645
0.0723495 -0.33569723 0.19669522 0.15001233 -0.32305232 0.21585493 0.050425116 -0.19993708
0.3406736 0.16588815 0.1350911 -0.14653525 -0.21420248 -0.20855136 0.14515065 0.10390804
-0.232186 0.35968557 0.22537562 -0.14635922 0.19980681 -0.16111867 0.11597076 0.326968
-0.3483831 -0.19032322 -0.015359175 0.050609782 -0.32295007 -0.2558993 -0.03270296 -0.05272875
0.080770455 0.042983763 0.073411226 0.029901104 0.047896694 -0.017826552 0.13641827 0.26640722
-0.19080795 -0.19844528 0.1682771 -0.28431088 0.25547084 0.1763458 0.05613376 -0.16510735
0.007933436 -0.31006256 -0.3546907 0.3717762 -0.35362014 -0.32574394 -0.14660752 0.02175149
0.082255684 -0.18840106 -0.030703913 -0.0832768 0.32935032 0.34426916 0.15773393 0.004664634
0.2931796 -0.31658253 0.15776974 -0.22509998 0.3059964 -0.34812024 0.13892633 -0.3226826
0.22730784 0.06951578 0.3377209 -0.29582956 0.2505375 -0.26082847 -0.20808871 0.14327362
-0.05890198 -0.30958167 -0.33445525 -0.10050097 0.10286855 0.34554353 0.28756723 0.010185456
-0.23749512 -0.35095817 0.35258058 -0.2159974 -0.07171696 -0.31674328 -0.27042815 0.066716775
-0.08869263 0.034662236 -0.00037316862 0.021996565 -0.072466515 -0.016441971 0.16438647 0.28529343
0.33295122 -0.3200407 -0.33241358 -0.049558185 -0.024607308 0.21395777 0.37161678 0.095795274
00000000: 9d32 843e 17b8 993e 7540 4cbe 200c 76bd
00000010: b941 1abe 2330 4d3e 468d bb3d dcc5 9cbe
00000020: d0eb 26bd b425 a4be f414 bebe 202f b83e
00000030: 04ec 49be 5b3c 2f3e b886 9fbd edfe 93bd
00000040: 7a69 743b e37d 9c3e a11d 36bd 1e5b a63e
00000050: 4f66 673e dbb1 883e 40e5 b6be df1d 36be
00000060: 5460 a5be 8526 9bbd ab55 98bd 637a 993d
00000070: b412 b53e 6a19 303e 004f 8bbe 1598 7abe
00000080: 9863 973e 76e8 0c3d d877 d73d f1a0 4ebe
00000090: abad 3cbd aa88 d93d 9e20 84be 2fe4 833e
000000a0: fef3 453e 85d2 67be adbb 1ebe cc8c acbd
000000b0: 41e9 593d 2424 0cbe 925f c13e 28f0 c2be
000000c0: 25bc 60be 9001 72be 1bc2 cd3d c6e3 3f3d
000000d0: 3d88 d7bd 7d5e ac3e a9f2 adbe c0bd 093e
000000e0: e740 59be 6f7d a4bd 859f c2be 9466 95be
000000f0: 66c2 aabe 8bf6 2a3e db15 11be f43a 4e3e
00000100: 4391 55be 8468 bcbd a4f5 363d ba84 a83e
00000110: f0ed c8bd 2129 653e d318 d73d 5df6 713e
00000120: 1770 7c3e 0fc8 1d3e 8a5c efbd 0d46 d8bd
00000130: 46b7 173e 39e4 563e f91b bbbc 88ca 443e
00000140: 3715 70be 7860 5f3e 4b7f 2dbd 636b 89be
00000150: 2642 3ebe b030 99be 9ee0 913d f2b1 6abe
00000160: c447 d6bd af85 9bbc d603 72be a38c 6c3c
00000170: f1e8 2dbd 7a83 ef3d 1e7f 903e e33d 6fbe
00000180: 526b 5a3e f226 2ebc dab6 63be c9ff 35be
00000190: 678a bd3d 3ed0 993d 892f 64bc 65f2 45be
000001a0: 363c 493e 30fb 4a3d ce1c c5be 3409 75bd
000001b0: a952 c9bd d2a0 28be 696e 5bbe 46ed a2be
000001c0: 644b c73e a158 b8be 7a54 be3e 1ff2 9fbe
000001d0: d16a bcbd bc1b 2abe c471 55be 1bc6 093e
000001e0: dd8c 653e edfd 84be f144 36be 8c19 513e
000001f0: f017 49bd fe8d b63d d171 4d3e d271 0fbe
00000200: 3c25 5bbe 8829 0d3e 6a76 11be 2173 84be
00000210: 792a 4cbe a610 37be 2385 c93e 0b61 8f3d
00000220: af13 273e c587 573d 174e 86be 566b 903e
00000230: aa12 5abd 3892 c0bd fcbf a33e 94e1 47be
00000240: fa2b 943d 82e0 abbe 796a 493e d59c 193e
00000250: 1d67 a5be 1309 5d3e 918a 4e3d 4ebc 4cbe
00000260: c56c ae3e 95de 293e 5255 0a3e 560d 16be
00000270: e557 5bbe 7d8e 55be 5fa2 143e bdcd d43d
00000280: 2bc2 6dbe b528 b83e dec8 663e 31df 15be
00000290: 289a 4c3e 4bfc 24be 1482 ed3d 5a68 a73e
000002a0: 455f b2be 17e4 42be 0da5 7bbc 344c 4f3d
000002b0: b659 a5be 3c05 83be 8af3 05bd 1afa 57bd
000002c0: fb6a a53d be0f 303d a058 963d 29f3 f43c
000002d0: 532f 443d fd08 92bc 3bb1 0b3e 8766 883e
000002e0: 2963 43be 3d35 4bbe d550 2c3e 3291 91be
000002f0: 13cd 823e fe93 343e 83ec 653d e711 29be
00000300: 3efb 013c 85c0 9ebe 059a b5be 7359 be3e
00000310: b30d b5be e9c7 a6be 4820 16be 2e30 b23c
00000320: ab75 a83d 35ec 40be c686 fbbc 078d aabd
00000330: 9ba0 a83e 0c44 b03e 0185 213e c9d9 983b
00000340: a31b 963e 1b17 a2be 648e 213e 9c80 66be
00000350: 8fab 9c3e d13c b2be b442 0e3e a736 a5be
00000360: 63c3 683e 4a5e 8e3d c1e9 ac3e f976 97be
00000370: 7446 803e 4f8b 85be 3515 55be 52b6 123e
00000380: 3443 71bd 7d81 9ebe b83d abbe 74d3 cdbd
00000390: bfac d23d 15eb b03e 033c 933e e6e0 263c
000003a0: ec31 73be cab0 b3be 7185 b43e 6c2e 5dbe
000003b0: 57e0 92bd 2d2c a2be 8f75 8abe cea2 883d
000003c0: 7ba4 b5bd fdf9 0d3d d8a5 c3b9 2432 b43c
000003d0: 5369 94bd 50b1 86bc ed54 283e fb11 923e
000003e0: 9578 aa3e 60dc a3be 1d32 aabe 86fd 4abd
000003f0: 4495 c9bc bf17 5b3e 8e44 be3e 5030 c43d

naim.encoder.0.ff.0.bias f4 [1000]
0.24428856 -0.1994327 -0.048590645 0.03895875 0.26935428 0.17458755 0.38075125 -0.20642307
-0.029023452 -0.02621074 0.320439 0.37263322 0.10395718 -0.3201557 -0.28326756 0.06789826
-0.34659865 -0.13917165 -0.29309088 0.19741811 -0.048169997 -0.30683187 0.25673378 -0.3490003
-0.03897338 0.38065743 0.20004335 -0.3411286 0.03377973 -0.061010435 0.16895527 0.36715472
0.33542836 -0.036893483 0.17877966 -0.387962 0.3089957 0.20484193 -0.27457124 -0.11158161
-0.14585233 -0.2256722 0.15774168 -0.109556824 0.15754431 -0.11130594 0.30527842 -0.14812818
-0.059524428 -0.116444685 0.01273168 -0.13814029 -0.27392432 -0.37568986 0.2452481 0.04948228
-0.24947694 0.20904993 0.03235524 -0.13468151 -0.02115449 0.04667198 0.28672022 -0.36276925
-0.30377322 -0.31682837 -0.3080815 0.006738738 0.21921597 0.09689786 0.16130184 0.047625765
-0.0038993594 -0.3570861 0.3513907 0.38235375 -0.0067738965 0.076919585 0.06734995 0.39187604
-0.0028145972 -0.05784591 -0.21083316 0.10108248 0.17873901 -0.3322545 0.1387825 0.10339024
0.17908105 0.18116283 -0.09815931 0.049891334 -0.27471316 0.23702438 -0.33118045 -0.34519735
-0.28970426 -0.21573439 0.02146193 0.25496536 -0.05043299 0.2808778 -0.06249115 0.334955
0.2703475 0.24594356 0.15382782 -0.26357952 0.3877247 -0.37646264 -0.2736463 -0.23427026
-0.09545463 0.17516495 0.07806459 -0.33966687 0.383273 0.37168127 0.18832473 -0.3868923
0.22092868 0.109119594 -0.040821407 -0.328953 0.3402454 -0.10967566 -0.3183634 0.30840656
0.15534227 0.10889205 0.251998 0.12986924 -0.08832427 -0.0629332 0.32787356 -0.008174262
-0.3286757 -0.26913086 -0.29526052 0.037535075 0.289203 0.23335965 0.10311862 0.13018952
-0.18087971 0.36959723 0.14619201 -0.24440797 -0.2601494 -0.35269612 -0.103208534 0.2931412
0.026060464 -0.18133523 0.11432048 -0.27368712 0.11286501 0.2743351 0.1872305 -0.11415019
-0.12862659 0.17170219 0.23354152 -0.08902237 0.003035867 -0.0465537 -0.04463971 -0.34978673
-0.3242946 0.3377655 -0.18420546 0.289965 0.24342842 -0.064168945 -0.18555632 0.016534356
-0.061217804 -0.22930272 0.3908564 -0.023551356 -0.054279696 -0.26788735 0.069602974 0.05184808
0.3961265 -0.11380754 0.21732962 0.011521229 0.2081557 0.0024514063 -0.061250888 0.15508877
-0.16988781 0.23605467 -0.32900319 -0.2829087 0.37656784 -0.14219125 -0.31216547 -0.28596878
0.3858115 -0.049278203 -0.33049515 -0.048354838 -0.18612911 -0.2612297 -0.18877253 0.3006066
0.16234963 0.23005295 0.027444944 -0.15792662 -0.1547643 -0.26209113 -0.28278893 -0.3391629
0.06498385 0.20515224 0.32062155 -0.010188915 -0.050373815 -0.029123373 0.1589406 -0.054644708
-0.13613074 -0.10066507 -0.38589603 -0.30189452 -0.16643736 0.03299051 -0.24355088 0.14408943
-0.2107735 0.38549796 -0.34774628 0.21541655 -0.19929048 -0.13173288 -0.36895034 -0.36564222
-0.3738789 -0.0060124276 0.36580864 0.18093787 0.24591956 0.08919555 -0.14546478 -0.14629655
-0.11253525 -0.3684182 0.21484888 -0.11154836 -0.22042407 0.10223435 0.0036934244 0.21255589
00000000: c826 7a3e 1638 4cbe fc06 47bd 3693 1f3d
00000010: cee8 893e 14c7 323e d4f1 c23e 9260 53be
00000020: 97c2 edbc e8b7 d6bc 9510 a43e c8c9 be3e
00000030: 81e7 d43d 73eb a3be 7208 91be 3e0e 8b3d
00000040: 6175 b1be 0383 0ebe 0210 96be f927 4a3e
00000050: e74d 45bd 1119 9dbe 9c72 833e 2bb0 b2be
00000060: 8da2 1fbd 88e5 c23e 2ad8 4c3e 68a8 aebe
00000070: 9d5c 0a3d 14e6 79bd 9c02 2d3e b4fb bb3e
00000080: 44bd ab3e 9f1d 17bd 0412 373e f5a2 c6be
00000090: af34 9e3e 15c2 513e 9a94 8cbe e684 e4bd
000000a0: 505a 15be 9d16 67be 0987 213e 545f e0bd
000000b0: 4c53 213e 5ef4 e3bd 744d 9c3e eaae 17be
000000c0: e3cf 73bd 8d7a eebd 8998 503c a674 0dbe
000000d0: cf3f 8cbe 6c5a c0be 5122 7b3e eead 4a3d
000000e0: e276 7fbe 2f11 563e ee86 043d f3e9 09be
000000f0: 2e4c adbc 1e2b 3f3d fecc 923e e4bc b9be
00000100: 2a88 9bbe 5437 a2be dcbc 9dbe a2d0 dc3b
00000110: 277a 603e 6372 c63d 4f2c 253e 3c13 433d
00000120: 658c 7fbb fdd3 b6be 7be9 b33e dfc3 c33e
00000130: 90f7 ddbb 0488 9d3d c5ee 893d faa3 c83e
00000140: 1b75 38bb d5ef 6cbd a6e4 57be 5504 cf3d
00000150: 5c07 373e 431d aabe 001d 0e3e 43be d33d
00000160: 0661 373e c082 393e c007 c9bd db5a 4c3d
00000170: 34a7 8cbe 85b6 723e 7c90 a9be b5bd b0be
00000180: 1e54 94be 7ae9 5cbe eed0 af3c d28a 823e
00000190: d392 4ebd 37cf 8f3e b8f6 7fbd 397f ab3e
000001a0: fd6a 8a3e a1d8 7b3e 0a85 1d3e e5f3 86be
000001b0: da83 c63e b6bf c0be 5e1b 8cbe 8be4 6fbe
000001c0: b87d c3bd 715e 333e 54e0 9f3d d1e8 adbe
000001d0: 5c3c c43e 024d be3e 33d8 403e bf16 c6be
000001e0: 213b 623e 187a df3d 5934 27bd 876c a8be
000001f0: a534 ae3e a29d e0bd 8700 a3be 77e7 9d3e
00000200: 0b12 1f3e cc02 df3d e205 813e 71fc 043e
00000210: 5be3 b4bd 1fe3 80bd 0bdf a73e 57ed 05bc
00000220: 2e48 a8be 85cb 89be 632c 97be 61be 193d
00000230: 6a12 943e d5f5 6e3e db2f d33d 6750 053e
00000240: 8838 39be d93b bd3e 5cb3 153e 1546 7abe
00000250: 4d32 85be 9694 b4be ff5e d3bd 9a16 963e
00000260: c17c d53c f1af 39be db20 ea3d b820 8cbe
00000270: c525 e73d a675 8c3e 5ab9 3f3e 93c7 e9bd
00000280: b0b6 03be b3d2 2f3e 8225 6f3e 5c51 b6bd
00000290: 65f5 463b 18af 3ebd 21d8 36bd 3f17 b3be
000002a0: f109 a6be 9aef ac3e 5ba0 3cbe 4b76 943e
000002b0: 4d45 793e 026b 83bd 7a02 3ebe 0f73 873c
000002c0: 85bf 7abd 55ce 6abe 541e c83e c6ee c0bc
000002d0: 6354 5ebd 8828 89be 018c 8e3d a75e 543d
000002e0: 18d1 ca3e ed13 e9bd a88b 5e3e 89c3 3c3c
000002f0: c526 553e c6a7 203b 36e2 7abd 97cf 1e3e
00000300: 12f7 2dbe 51b8 713e 1b73 a8be 69d9 90be
00000310: 80cd c03e 959a 11be 27d4 9fbe 806a 92be
00000320: 1689 c53e f1d7 49bd a936 a9be b90f 46bd
00000330: a198 3ebe e6bf 85be 964d 41be 1ce9 993e
00000340: fb3e 263e 0093 6b3e 38d4 e03c 84b7 21be
00000350: 887a 1ebe cf30 86be b6c9 90be c2a6 adbe
00000360: 4116 853d 6e13 523e 8228 a43e 68ef 26bc
00000370: c654 4ebd 2494 eebc 53c1 223e 21d3 5fbd
00000380: db65 0bbe 7d29 cebd 2a94 c5be eb91 9abe
00000390: 8e6e 2abe 0f21 073d 6765 79be 2e8c 133e
000003a0: 02d5 57be fd5f c53e cd0b b2be 2896 5c3e
000003b0: ce12 4cbe fce4 06be 0fe7 bcbe 7535 bbbe
000003c0: 0e6d bfbe e603 c5bb 454b bb3e c747 393e
000003d0: 56d2 7b3e 28ac b63d b8f4 14be c3ce 15be
000003e0: e278 e6bd 4fa1 bcbe 5801 5c3e 7773 e4bd
000003f0: d9b6 61be 3e60 d13d 610d 723b 40a8 593e

naim.encoder.0.ff.3.weight f4 [6, 1000]
-0.013489532 -0.009962348 -0.010559709 -0.005619859 -0.0069466955 0.0073994994 0.00092486886 -0.0096543515
0.021517802 0.025436886 -0.0020981962 -0.0035096558 -0.030561185 -0.019487409 0.0033003967 -0.0013438578
0.004429382 -0.011261062 0.0004076756 0.008091231 0.03445127 0.028070452 -0.016693978 0.003504486
-0.00067671196 0.0031318776 0.016506048 -0.008588191 -0.0027993869 -0.026206298 -0.0073565254 -0.02681479
0.014623929 -0.019375259 -0.010628913 -0.017376479 0.028303813 -0.0072267014 0.030368062 -0.012672064
0.019852387 -0.0017049132 -0.0198514 0.02890577 -0.017343767 -0.014221469 0.02075463 -0.005866612
0.0018610078 0.035940792 -0.025290612 -0.008531672 0.010919069 -0.008521573 0.0047450615 -0.006165923
-0.0026327812 0.028751247 -0.003672287 0.01711001 0.028172277 0.026446158 0.016670976 0.024555141
-0.0029331683 0.005655805 -0.010894635 -0.026872722 0.02882552 -0.025235442 -0.016476307 -0.008815378
-0.019837173 -0.027360506 -0.013818093 0.007623863 -0.022069653 -0.024182828 -0.014015809 -0.022511367
0.0056569385 0.007531516 0.010266572 0.03114203 -0.009551164 -0.0073084976 0.013380197 0.028822286
0.011998909 8.767274e-07 0.014707668 -0.025610588 -0.018584643 -0.008961585 -0.022553518 -0.021860164
-0.026355682 0.008539991 0.007955767 0.001268951 -0.0048657954 0.0037438606 0.024330145 -0.020326322
0.0256143 0.015637957 -0.00806854 0.020226596 0.0031491057 -0.011758123 0.032802813 0.0127455685
0.019412965 -0.006353173 -0.022497276 0.028164493 0.006333758 0.017825259 -0.0049733035 0.018168325
-0.021435328 0.005485943 0.028740183 -0.0065610562 0.030371014 0.011352486 0.017699888 0.034833036
-0.003856884 -0.0034261865 0.022945277 -0.01293852 -0.01942116 0.02651336 -0.025347672 -0.011913026
0.010602969 0.008546508 -0.015526285 -0.0061186454 0.023672966 -0.016585672 0.021369249 0.00016742629
-0.005877142 -0.02740182 -0.006449157 0.028789787 -0.021250473 -0.025766747 -0.0015470394 0.025224397
-0.009886834 0.035155404 0.03496638 0.025037356 -0.014234976 -0.018076543 -0.024434183 -0.005539216
-0.021375455 0.01894684 0.0068889735 0.02881558 -0.029603276 -0.022441521 -0.0003774314 0.0041800924
0.03141568 0.001340337 0.031756457 -0.0048439223 -0.00025467068 -0.008688144 -0.009910137 -0.009132214
-0.022616155 -0.006149433 -0.0072362744 -0.011516226 -0.027698573 -0.027003827 -0.0029954347 -0.021416461
0.032048717 -0.0038859441 0.010047037 -0.018248228 0.005113954 -0.02493878 0.015611156 0.018369045
-0.026178328 0.017622674 0.008235118 -0.015440126 -0.011014647 0.029542185 -0.017777877 0.032351155
0.009781999 0.018486353 -0.01273139 0.009439049 0.01149865 0.026397832 -0.032997638 -0.0094941165
0.0040303534 -0.018592225 0.009883614 0.02341811 0.020831238 -0.014853739 0.016792446 -0.018997174
0.019659106 -0.024738237 -0.024887832 0.015250782 -0.004193177 0.012894417 0.03200524 0.03033362
0.02165742 -0.022936815 0.00035928085 0.007221224 -0.02923647 0.028114906 0.016417226 -0.011993064
-0.002235287 -0.016573546 0.016664587 0.007058044 -0.010778762 0.021538077 -0.0035780442 0.0025890577
0.022154056 -0.011521551 -0.025609478 0.020722214 -0.017045025 0.014397388 -0.0015844281 0.025542974
0.0028770228 -0.010991247 -0.019316504 0.02411936 -0.015884921 0.01350254 0.028821154 -0.022777995
00000000: 3303 5dbc 1e39 23bc a102 2dbc cb26 b8bb
00000010: 1ba1 e3bb 8077 f23b e672 723a 492d 1ebc
00000020: 1a46 b03c 0461 d03c e481 09bb 4102 66bb
00000030: 735b fabc 0fa4 9fbc 784b 583b 6324 b0ba
00000040: 5924 913b 5180 38bc 4bbd d539 1591 043c
00000050: c61c 0d3d 01f4 e53c cfc1 88bc 85ab 653b
00000060: 5f65 31ba 3040 4d3b b137 873c 7cb5 0cbc
00000070: eb75 37bb 97ae d6bc 020f f1bb b1aa dbbc
00000080: 3499 6f3c ddb8 9ebc e424 2ebc 1e59 8ebc
00000090: 66dd e73c f7cd ecbb 71c6 f83c 7d9e 4fbc
000000a0: 79a1 a23c 6577 dfba 679f a2bc cbcb ec3c
000000b0: 8414 8ebc 2a01 69bc 9d05 aa3c b53c c0bb
000000c0: 0fed f33a a736 133d 422e cfbc 6dc8 0bbc
000000d0: e5e5 323c 119e 0bbc 767c 9b3b 830b cabb
000000e0: bd8a 2cbb bc87 eb3c c1aa 70bb 4b2a 8c3c
000000f0: 8cc9 e63c 9da5 d83c 9291 883c dd27 c93c
00000100: 663a 40bb 5554 b93b 697f 32bc 2f24 dcbc
00000110: 7f23 ec3c 8fba cebc 52f9 86bc 606e 10bc
00000120: 9181 a2bc 2423 e0bc 4865 62bc 99d1 f93b
00000130: 6bcb b4bc 111b c6bc 90a2 65bc c269 b8bc
00000140: d75d b93b efca f63b 2035 283c 921d ff3c
00000150: 7c7c 1cbc 1f7c efbb 9d38 5b3c b71c ec3c
00000160: 1297 443c 4058 6b35 6ef8 703c 4ccd d1bc
00000170: d23e 98bc 9dd3 12bc 28c2 b8bc 1614 b3bc
00000180: dfe7 d7bc 52eb 0b3c e858 023c ee52 a63a
00000190: 4071 9fbb 8f5b 753b 0350 c73c 6383 a6bc
000001a0: 15d5 d13c 2c1b 803c e931 04bc 3fb2 a53c
000001b0: 3a61 4e3b 24a5 40bc 3e5c 063d cad2 503c
000001c0: f007 9f3c 472e d0bb 354c b8bc 39b9 e63c
000001d0: 6a8b cf3b 4706 923c 18f7 a2bb bdd5 943c
000001e0: 2499 afbc 6dc3 b33b 8870 eb3c 21fe d6bb
000001f0: a2cc f83c c7ff 393c 5bff 903c 16ad 0e3d
00000200: c7c3 7cbb df89 60bb bcf7 bb3c 16fc 53bc
00000210: 2019 9fbc 8c32 d93c eca5 cfbc da2e 43bc
00000220: 13b8 2d3c a706 0c3c f661 7ebc eb7e c8bb
00000230: cfed c13c adde 87bc 900e af3c 278f 2f39
00000240: 0a95 c0bb c879 e0bc 7353 d3bb 8fd8 eb3c
00000250: 7915 aebc c914 d3bc 07c6 caba 65a3 ce3c
00000260: 63fc 21bc 1dff 0f3d e838 0f3d 241b cd3c
00000270: d139 69bc 4215 94bc 322a c8bc 5082 b5bb
00000280: 941b afbc 6736 9b3c e6bc e13b a70e ec3c
00000290: 9282 f2bc 48d7 b7bc fce1 c5b9 28f9 883b
000002a0: baad 003d 3fae af3a 0f13 023d c4b9 9ebb
000002b0: 5285 85b9 b858 0ebc 215e 22bc 489f 15bc
000002c0: 8445 b9bc 2f81 c9bb 451e edbb 8eae 3cbc
000002d0: 1ee8 e2bc 2137 ddbc 0e4f 44bb 9371 afbc
000002e0: 8445 033d 53ab 7ebb 549c 243c 4f7d 95bc
000002f0: f592 a73b 6a4c ccbc efc5 7f3c ae7a 963c
00000300: ef73 d6bc 6d5d 903c 97ec 063c 95f8 7cbc
00000310: c776 34bc 7402 f23c e9a2 91bc a582 043d
00000320: ad44 203c b170 973c 5297 50bc 3ea6 1a3c
00000330: d564 3c3c 4440 d83c 8828 07bd 368d 1bbc
00000340: 0e11 843b b94e 98bc e2ee 213c 56d7 bf3c
00000350: 46a6 aa3c 195d 73bc 5090 893c f69f 9bbc
00000360: 220c a13c d8a7 cabc 91e1 cbbc 6ade 793c
00000370: eb66 89bb 1b43 533c ed17 033d 367e f83c
00000380: e76a b13c fde5 bbbc dc5d bc39 04a0 ec3b
00000390: 5281 efbc 3b51 e63c 6b7d 863c 8e7e 44bc
000003a0: e57d 12bb 3fc5 87bc 2c84 883c 2a47 e73b
000003b0: 6899 30bc 9f70 b03c 9f7d 6abb 2ead 293b
000003c0: 6c7c b53c e3c4 3cbc f8ca d1bc a2c1 a93c
000003d0: 02a2 8bbc 06e3 6b3c 96ac cfba 803f d13c
000003e0: 6f8c 3c3b a214 34bc a53d 9ebc f795 c53c
000003f0: 1821 82bc c239 5d3c 571a ec3c eb98 babc

naim.encoder.0.ff.3.bias f4 [6]
-0.026190385 0.0015111555 -0.019329345 -0.015401931 0.019179342 -0.026135208
00000000: 388d d6bc f711 c63a 9358 9ebc 6158 7cbc
00000010: ff1d 9d3c 8119 d6bc

naim.encoder.1.layer_norm_1.weight f4 [6]
0.9873424 0.9917612 0.9869963 0.98687845 0.98710334 0.9869818
00000000: 79c2 7c3f 10e4 7d3f caab 7c3f 11a4 7c3f
00000010: ceb2 7c3f d7aa 7c3f

naim.encoder.1.layer_norm_1.bias f4 [6]
0.0043646274 -0.0046239626 -0.0042635626 0.0034279632 -0.0054801344 0.00457758
00000000: 2605 8f3b 9c84 97bb 5bb5 8bbb aea7 603b
00000010: b392 b3bb 86ff 953b

naim.encoder.1.attn.linear_q.weight f4 [6, 6]
-0.28505105 -0.11822644 -0.16831706 0.08780078 0.24889162 0.052326325 -0.0036077695 0.183027
0.23088898 0.0065504923 -0.26271802 -0.3408009 0.394581 0.12421675 0.36147928 -0.14394906
0.09976549 -0.20192339 -0.20288248 -0.17408161 0.3951808 0.28497517 -0.23872043 -0.27566513
0.12177558 -0.08346329 0.009161714 0.039314646 -0.3445315 0.07734386 0.0036298053 -0.27277663
-0.3907887 0.19564436 -0.3603619 -0.17083782
00000000: 36f2 91be b420 f2bd 4f5b 2cbe e5d0 b33d
00000010: 72dd 7e3e 2154 563d 5470 6cbb 6e6b 3b3e
00000020: 296e 6c3e 83a5 d63b fa82 86be 757d aebe
00000030: 8506 ca3e 5a65 fe3d d013 b93e 6267 13be
00000040: d951 cc3d 01c5 4ebe 6dc0 4fbe 7342 32be
00000050: 2355 ca3e 44e8 913e 2173 74be fb23 8dbe
00000060: 7a65 f93d cdee aabd 041b 163c 6508 213d
00000070: 6f66 b0be 7566 9e3d 07e2 6d3b 61a9 8bbe
00000080: 7515 c8be ff56 483e 5b81 b8be 1cf0 2ebe

naim.encoder.1.attn.linear_k.weight f4 [6, 6]
0.2351099 -0.26008016 -0.18042004 -0.24488036 0.22740108 0.11338479 0.029270545 0.13094315
0.10378508 -0.07345024 -0.024697505 -0.24258353 -0.17926057 0.012263208 -0.03701768 0.09094431
0.18102567 0.30043548 0.3781445 -0.022873528 0.14815094 -0.3177119 0.2235555 -0.09655572
-0.3111703 -0.30514 -0.32736316 -0.17573026 0.17345305 -0.31994683 -0.03536303 -0.050723538
0.13735454 -0.1536184 0.19397117 -0.23957366
00000000: a6c0 703e 3a29 85be 08c0 38be ebc1 7abe
00000010: d4db 683e 4936 e83d c8c8 ef3c f615 063e
00000020: 468d d43d 146d 96bd 6c52 cabc d167 78be
00000030: 1590 37be 9feb 483c da9f 17bd 0341 ba3d
00000040: cb5e 393e aed2 993e 289c c13e 4461 bbbc
00000050: e1b4 173e 22ab a2be bceb 643e 01bf c5bd
00000060: b751 9fbe 4f3b 9cbe 259c a7be a2f2 33be
00000070: ad9d 313e 12d0 a3be d3d8 10bd 7cc3 4fbd
00000080: aba6 0c3e 244e 1dbe 61a0 463e cc52 75be

naim.encoder.1.attn.linear_v.weight f4 [6, 6]
0.2334049 -0.40694347 -0.2736647 0.144789 0.064257436 0.2868417 0.20806082 -0.336068
0.31525457 -0.10179778 -0.066368386 -0.16144896 -0.06700696 -0.3728532 0.031206071 0.29866132
-0.07875443 0.30690768 -0.17560586 0.15952036 0.029634992 -0.14650437 0.3860696 0.028256712
0.01241104 -0.04794478 -0.019075003 0.31654334 -0.052462354 0.2398358 0.1423612 0.25681022
-0.2963928 -0.35070124 -0.12163864 -0.101757795
00000000: b201 6f3e e55a d0be c81d 8cbe 9143 143e
00000010: 6799 833d eadc 923e e50d 553e 1b11 acbe
00000020: 0c69 a13e 5b7b d0bd 26ec 87bd e052 25be
00000030: f23a 89bd 9de6 bebe e0a3 ff3c 23ea 983e
00000040: 014a a1bd 0123 9d3e 06d2 33be 4e59 233e
00000050: 15c5 f23c 3e05 16be eaaa c53e 9f7a e73c
00000060: ad57 4b3c bf61 44bd 2e43 9cbc f811 a23e
00000070: c4e2 56bd 8497 753e 22c7 113e a17c 833e
00000080: ccc0 97be 1d8f b3be ae1d f9bd 6466 d0bd

naim.encoder.1.attn.linear_o.weight f4 [6, 6]
0.39090773 0.3995249 -0.09276179 -0.18813756 0.0023868766 0.15883473 0.1419154 0.07790888
0.30003837 0.047382165 0.32750717 0.09857807 -0.033910334 0.33531982 0.015537132 0.018653316
-0.07633768 0.23743859 -0.12186492 0.31049782 0.21489331 -0.008301847 -0.067887306 0.1538967
-0.38567033 -0.12208358 -0.13135646 -0.03717759 -0.18240142 -0.16337381 0.18117827 -0.030470362
-0.26997617 -0.01681413 0.11887358 -0.15244187
00000000: 0f25 c83e 878e cc3e e5f9 bdbd 22a7 40be
00000010: 256d 1c3b 92a5 223e 4552 113e b18e 9f3d
00000020: a19e 993e cd13 423d 05af a73e 4de3 c93d
00000030: 90e5 0abd 0aaf ab3e 748f 7e3c d7ce 983c
00000040: ee56 9cbd 1a23 733e 5194 f9bd 92f9 9e3e
00000050: fe0c 5c3e 7804 08bc 8008 8bbd 1997 1d3e
00000060: 9576 c5be f506 fabd 4f82 06be 8747 18bd
00000070: 70c7 3abe 774b 27be cc86 393e fb9c f9bc
00000080: 513a 8abe c9bd 89bc fe73 f33d b919 1cbe

naim.encoder.1.layer_norm_2.weight f4 [6]
0.99463904 0.9908534 0.9888794 0.9944773 0.99887955 0.9975854
00000000: aaa0 7e3f 92a8 7d3f 3327 7d3f 1096 7e3f
00000010: 92b6 7f3f c261 7f3f

naim.encoder.1.layer_norm_2.bias f4 [6]
0.004344723 0.005105946 0.0020279791 -0.002006181 -0.006391772 -0.0035114002
00000000: 2e5e 8e3b c84f a73b d8e7 043b 227a 03bb
00000010: 1272 d1bb 851f 66bb

naim.encoder.1.ff.0.weight f4 [1000, 6]
0.3343306 -0.27062765 0.3445706 0.15240227 -0.22321117 -0.37338412 0.14974588 -0.067477725
0.11265272 0.17158377 -0.2637808 0.049386572 -0.08163447 -0.35455364 0.06370443 0.08466647
-0.29956713 0.37117043 0.2067654 0.22018112 -0.34294763 -0.33985156 0.16379741 0.22354794
-0.33748367 0.37903988 -0.080511495 -0.3179918 -0.2865429 -0.08175266 0.21061063 -0.2691201
0.28967807 0.39553016 0.37085506 0.17398405 -0.15863948 -0.14839102 0.28114048 -0.078360885
0.055976123 0.39864546 -0.39362833 -0.08738133 -0.14982086 -0.060919374 0.010636293 -0.079007104
0.38369757 0.15312834 -0.24573107 0.38353074 -0.106628716 0.047593653 0.040804833 -0.28759867
0.19500928 -0.235527 -0.35106823 0.3302285 0.23645352 -0.15913709 -0.27934065 0.356271
0.13251458 -0.25798368 -0.33034363 -0.15717325 -0.21522942 0.02023924 0.039195728 -0.38734463
0.19619793 0.19511683 -0.35698435 0.31569475 -0.14996432 0.19727159 0.38746405 0.22909912
0.26102316 0.014913592 0.048306428 -0.3342617 -0.2831566 0.3161697 -0.36011657 0.16865969
-0.22752632 0.34079665 0.28832567 -0.08436641 -0.04461615 -0.27082083 0.36787486 -0.23357359
0.13438988 0.2772197 -0.38015372 -0.38851386 -0.2738337 -0.057172686 0.24309163 -0.11135011
-0.15576689 0.25872838 0.31457487 0.20716356 0.3406749 -0.35571402 -0.35240445 0.07039231
-0.33013424 -0.102019615 0.23560995 0.38410014 -0.071329474 -0.34708816 -0.18884589 0.3841542
-0.06349731 -0.36688182 -0.20327258 -0.24167843 -0.09380355 -0.2825713 -0.12542969 0.36149636
-0.18071018 -0.076664746 0.2165811 -0.36860505 -0.2023289 -0.035775285 0.31190512 0.05106765
-0.004277753 -0.12535964 0.18175507 -0.1652396 -0.058367625 -0.17027967 0.14004837 0.39488557
-0.2961184 -0.022728855 -0.022338603 -0.20091577 -0.27827692 -0.1613126 -0.3114987 0.2985236
-0.27660537 0.23694737 0.32481393 -0.069577925 0.3675877 0.28262773 -0.2718063 0.22085519
0.09509274 0.30901352 -0.29764715 0.3051831 0.049165614 0.187361 -0.21679507 0.25970408
-0.01897284 0.32387125 0.027441911 0.24071531 -0.24524428 -0.3489378 0.13953167 0.20959975
0.10279826 0.11831794 0.2571365 -0.19762145 0.20545787 0.1843288 -0.1620895 -0.2303492
-0.39236325 0.28777504 5.7766883e-05 0.08189485 -0.27593216 -0.29407033 0.32228222 0.27498043
0.21404518 0.316341 0.31759766 0.23006292 0.28250998 -0.049755715 0.10448781 -0.33812273
-0.13869993 -0.040219508 -0.014888867 0.39000845 0.320053 0.11702371 0.3677862 -0.19535895
0.06683906 -0.31088772 -0.33432662 0.20542982 0.11825988 -0.012651647 -0.25122246 0.28141996
-0.036791325 0.2669432 -0.26903722 0.30672792 -0.018555803 -0.12062426 -0.032966368 -0.30266467
-0.073749125 0.022853717 -0.28994566 0.21123257 0.37262797 0.19895115 -0.1894489 -0.24076591
-0.310509 -0.2387905 0.23063757 0.17512168 -0.14036828 0.011988897 -0.051636014 5.0686536e-05
-0.39393714 0.33252862 -0.13103677 -0.33947304 -0.0104024615 0.1107935 0.17925651 -0.1938139
-0.026338583 -0.29326674 -0.29572433 -0.25726432 -0.24764407 0.24482943 -0.35562328 -0.076131724
00000000: 612d ab3e b58f 8abe 8f6b b03e 570f 1c3e
00000010: 7891 64be 342c bfbe fc56 193e c331 8abd
00000020: 78b6 e63d a8b3 2f3e 470e 87be 9349 4a3d
00000030: f92f a7bd 0e88 b5be 7877 823d 9d65 ad3d
00000040: dd60 99be 0d0a be3e 4fba 533e 2977 613e
00000050: d596 afbe 0601 aebe 82ba 273e c0e9 643e
00000060: a9ca acbe 8411 c23e 36e3 a4bd d2cf a2be
00000070: c0b5 92be f06d a7bd 50aa 573e 1cca 89be
00000080: af50 943e ee82 ca3e b7e0 bd3e e028 323e
00000090: 6372 22be d1f3 17be a5f1 8f3e ac7b a0bd
000000a0: 3847 653d 421b cc3e a789 c9be fcf4 b2bd
000000b0: a46a 19be 9886 79bd d943 2e3c 7ace a1bd
000000c0: 0274 c43e adcd 1c3e eda0 7bbe 245e c43e
000000d0: 2860 dabd 90f1 423d f822 273d 2240 93be
000000e0: 83b0 473e fd2d 71be 37bf b3be b613 a93e
000000f0: df20 723e d5f4 22be bd05 8fbe 2769 b63e
00000100: e7b1 073e 7016 84be cd22 a9be 06f2 20be
00000110: 1a65 5cbe c3cc a53c b38b 203d 0952 c6be
00000120: 1ce8 483e b5cc 473e a7c6 b6be bea2 a13e
00000130: 3f90 19be 9001 4a3e b061 c63e f698 6a3e
00000140: d4a4 853e 2358 743c f6dc 453d 5924 abbe
00000150: e7f9 90be ffe0 a13e 3361 b8be 20b5 2c3e
00000160: a9fc 68be e67c ae3e 6c9f 933e 4cc8 acbd
00000170: 6dbf 36bd 07a9 8abe 185a bc3e ea2d 6fbe
00000180: 809d 093e beef 8d3e 82a3 c2be 4aeb c6be
00000190: ee33 8cbe e82d 6abd 03ed 783e 870b e4bd
000001a0: 5b81 1fbe 0c78 843e f50f a13e af22 543e
000001b0: f16c ae3e 2620 b6be 5b6e b4be d829 903d
000001c0: 5b07 a9be a9ef d0bd bc43 713e c6a8 c43e
000001d0: 3015 92bd 8ab5 b1be d160 41be dcaf c43e
000001e0: e10a 82bd efd7 bbbe b026 50be 8d7a 77be
000001f0: 131c c0bd 2fad 90be a470 00be 0d16 b93e
00000200: 170c 39be 6802 9dbd 70c7 5d3e cdb9 bcbe
00000210: 4f2f 4fbe 1b89 12bd 07b2 9f3e 502c 513d
00000220: 652c 8cbb 475e 00be 001e 3a3e 9234 29be
00000230: e412 6fbd cb5d 2ebe d768 0f3e 712e ca3e
00000240: d59c 97be dd31 babc 72ff b6bc ddbc 4dbe
00000250: 507a 8ebe 212f 25be c27c 9fbe 16d8 983e
00000260: 389f 8dbe 55a2 723e 034e a63e df7e 8ebd
00000270: 7434 bc3e 95b4 903e 322a 8bbe dd27 623e
00000280: fcbf c23d 0537 9e3e 3565 98be f640 9c3e
00000290: e261 493d 90db 3f3e 87ff 5dbe eff7 843e
000002a0: ee6c 9bbc 74d2 a53e dccd e03c 137e 763e
000002b0: 5121 7bbe faa7 b2be 64e1 0e3e 51a1 563e
000002c0: e587 d23d ad50 f23d 65a7 833e 475d 4abe
000002d0: 8c63 523e b0c0 3c3e cafa 25be a9e0 6bbe
000002e0: d6e3 c8be 4057 933e b84a 7238 7db8 a73d
000002f0: fb46 8dbe 6390 96be 2d02 a53e 3cca 8c3e
00000300: a92e 5b3e 73f7 a13e 299c a23e 9d95 6b3e
00000310: 26a5 903e a6cc 4bbd b4fd d53d 6c1e adbe
00000320: 5b07 0ebe 36bd 24bd 6ff0 73bc 30af c73e
00000330: fddd a33e 20aa ef3d 794e bc3e 2d0c 48be
00000340: ebe2 883d ad2c 9fbe dc2c abbe 325c 523e
00000350: 3c32 f23d db48 4fbc 3ba0 80be 4716 903e
00000360: 80b2 16bd c7ac 883e 3fbf 89be 710b 9d3e
00000370: 5702 98bc da09 f7bd be07 07bd ddf6 9abe
00000380: c809 97bd b837 bb3c c273 94be 5a4d 583e
00000390: 18c9 be3e dab9 4b3e e4fe 41be 578b 76be
000003a0: 09fb 9ebe 7f85 74be 412c 6c3e 1953 333e
000003b0: b4bc 0fbe 146d 443c 4980 53bd 4198 5438
000003c0: 21b2 c9be 3141 aa3e 812e 06be 69cf adbe
000003d0: 166f 2abc b4e7 e23d 058f 373e 2777 46be
000003e0: 03c4 d7bc 0f27 96be 2e69 97be 26b8 83be
000003f0: 6896 7dbe 91b4 7a3e 4114 b6be f3ea 9bbd
